TSTE-R/CHP-failed-case/Original-PINNs/save_model_0228.ckpt-4950000.pt (torch, 263948 bytes, 24 tensors)

linears.0.weight f4 [100, 1]
-2.3578506 -3.1015484 -10.168988 1.9946153 -3.72674 -2.7860112 4.7048492 -4.509551
-2.7970989 2.6008558 5.1012206 -3.3641412 -4.099755 2.119145 2.1335077 -2.8578627
-2.8740256 -2.3643396 -5.6936607 6.199445 -9.53969 2.1236885 -3.6482046 1.7530063
-4.0968146 -5.3921256 0.0010300394 2.0990918 2.2291641 -7.3081355 -4.3950715 2.397581
3.2453878 -6.4723268 0.84116864 -6.852394 -4.4120216 1.7880288 2.5313337 -2.6768985
-3.3415408 -3.7779875 -1.0492334 -3.7592807 -3.7137406 -2.2199383 -6.002824 -7.068026
-9.370611 1.9863269 -7.1272273 -2.8398933 -4.6913376 2.3231335 -2.5768442 1.903994
-3.861978 -1.8244841 4.0717897 -5.3019514 6.457018 -7.3610625 -2.1368785 2.4130867
0.013458228 1.8708344 1.3716654 -4.2107396 3.9922962 1.7027755 0.011572872 2.152696
2.4685755 -1.6486737 2.075344 1.5448928 1.8017642 -2.9045703 -3.8259945 -4.8359337
-3.4447746 -3.0922384 -3.1535616 4.56837 3.6293201 2.7042675 -10.182696 -2.6195116
-1.4663128 -1.870791 0.9574118 -6.065065 -4.301361 2.1731899 -8.202878 1.8448508
-3.1736567 -7.8318844 1.9925416 -4.057723
00000000: 06e7 16c0 c57f 46c0 2db4 22c1 8e4f ff3f
00000010: e882 6ec0 024e 32c0 208e 9640 3e4e 90c0
00000020: ab03 33c0 6c74 2640 333d a340 174e 57c0
00000030: 3131 83c0 12a0 0740 648b 0840 39e7 36c0
00000040: 09f0 37c0 5751 17c0 7832 b6c0 da61 c640
00000050: 92a2 18c1 83ea 0740 2f7c 69c0 8362 e03f
00000060: 1b19 83c0 4b8c acc0 6302 873a 8557 0640
00000070: a0aa 0e40 3fdc e9c0 6da4 8cc0 f871 1940
00000080: 6fb4 4f40 4d1d cfc0 d456 573f d046 dbc0
00000090: 482f 8dc0 21de e43f 5f01 2240 4e52 2bc0
000000a0: cedb 55c0 8cca 71c0 484d 86bf 0e98 70c0
000000b0: edad 6dc0 7813 0ec0 2217 c0c0 452d e2c0
000000c0: 06ee 15c1 f63f fe3f 3f12 e4c0 d0c0 35c0
000000d0: 701f 96c0 38ae 1440 04eb 24c0 13b6 f33f
000000e0: a62a 77c0 b288 e9bf 1a4c 8240 96a9 a9c0
000000f0: e49f ce40 d38d ebc0 9ec2 08c0 0370 1a40
00000100: e67f 5c3c 8077 ef3f bb92 af3f 61be 86c0
00000110: c881 7f40 8cf4 d93f 259c 3d3c c5c5 0940
00000120: 24fd 1d40 bd07 d3bf 70d2 0440 0cbf c53f
00000130: 36a0 e63f 7be4 39c0 18dd 74c0 f8bf 9ac0
00000140: 3077 5cc0 3ce7 45c0 f4d3 49c0 1630 9240
00000150: c846 6840 b812 2d40 53ec 22c1 14a6 27c0
00000160: 23b0 bbbf 1476 efbf f118 753f 0315 c2c0
00000170: c0a4 89c0 8b15 0b40 fd3e 03c1 1224 ec3f
00000180: 311d 4bc0 cc9e fac0 9a0b ff3f ded8 81c0

linears.0.bias f4 [100]
0.2906294 0.056392398 0.41793808 -0.06521631 0.6579671 0.009312379 0.2874044 0.20022157
0.3091372 -0.031009581 0.1200164 0.048272006 0.06265301 -0.05937628 -0.15701391 0.44395605
0.30501518 0.26304618 1.0163046 0.33440045 1.2743292 -0.024941219 0.38439164 -0.07240232
-0.008275121 0.09695611 0.000107730564 -0.07727127 -0.049431935 0.2524399 0.011292713 -0.025451325
0.19889715 0.9078099 -0.038986936 0.18057899 0.13147877 -0.06742787 -0.01100277 0.2515635
0.3182726 0.36946675 0.06827907 0.26931185 0.15019307 0.05861403 0.577596 0.23675781
0.33144724 -0.06883483 0.19136357 0.07905405 0.580522 -0.043760326 0.25099024 -0.09203507
0.3663257 0.3739391 0.122388914 0.34858084 0.39676973 0.18696447 0.058243066 -0.03074296
-0.00074825936 -0.0713703 -0.056811657 0.18900423 0.16462135 -0.05430773 -0.0007364382 -0.06388059
-0.03978601 0.16430534 -0.025627347 -0.060926948 -0.0714395 0.06619378 0.055473555 0.047706906
0.289015 0.041505855 0.052634247 0.34386238 -0.02167071 0.011021977 0.71448416 0.20487174
0.20485066 0.10540022 -0.04370112 0.21667099 0.26619634 -0.063786864 0.7496589 -0.07126869
0.11598039 0.8906007 -0.029859614 0.3204879
00000000: 60cd 943e b7fb 663d fbfb d53e 2190 85bd
00000010: 8870 283f f392 183c ab26 933e e206 4d3e
00000020: 3b47 9e3e ce07 febc 29cb f53d deb8 453d
00000030: 3950 803d 8b34 73bd 41c8 20be 354e e33e
00000040: f32a 9c3e fdad 863e 4516 823f 8936 ab3e
00000050: 381d a33f 8751 ccbc fbce c43e ab47 94bd
00000060: 6094 07bc ed90 c63d 68ed e138 6640 9ebd
00000070: 2479 4abd cd3f 813e 1205 393c 4c7f d0bc
00000080: b2ab 4b3e 3b66 683f c4b0 1fbd b3e9 383e
00000090: 5fa2 063e a017 8abd f644 34bc eecc 803e
000000a0: a0f4 a23e bf2a bd3e e6d5 8b3d 3ee3 893e
000000b0: 36cc 193e 4415 703d 55dd 133f a470 723e
000000c0: 74b3 a93e 46f9 8cbd d0f4 433e 17e7 a13d
000000d0: 179d 143f 073e 33bd cb81 803e e27c bcbd
000000e0: 0b8f bb3e f274 bf3e 0aa7 fa3d 3079 b23e
000000f0: 6725 cb3e 9d73 3f3e 4890 6e3d a9d8 fbbc
00000100: d626 44ba 982a 92bd 57b3 68bd 538a 413e
00000110: 8092 283e c871 5ebd 880d 41ba d4d3 82bd
00000120: a8f6 22bd a93f 283e 71f0 d1bc 898e 79bd
00000130: df4e 92bd 9b90 873d 3d38 633d 5168 433d
00000140: c6f9 933e 0b02 2a3d 0297 573d bb0e b03e
00000150: c686 b1bc 8695 343c 6fe8 363f e6c9 513e
00000160: 5fc4 513e 12dc d73d f2ff 32bd 00df 5d3e
00000170: e34a 883e b0a2 82bd a5e9 3f3f 52f5 91bd
00000180: 2087 ed3d 68fe 633f 269c f4bc fd16 a43e

linears.1.weight f4 [100, 100]
0.5689519 -0.87455785 0.509086 0.46944937 0.23052013 -0.41013628 -0.4100803 -0.3661518
0.2789555 0.1864007 -0.47991216 -0.63528514 -0.4972456 0.35248986 -0.37640625 0.35010472
-0.12294785 0.41784987 0.035946704 -0.41062146 0.17789456 -0.26201066 -0.22097567 0.80587316
-0.18961126 -0.044803772 -0.12510519 0.6158428 0.0486566 0.07188657 -0.18774842 -0.35493538
-0.30496424 0.26676273 2.0090039 0.12564899 -0.48701778 0.8128849 -0.22315569 0.11295177
0.41548073 0.081937775 0.004865353 -0.39430338 -0.29052028 -1.2876091 -0.13604344 0.11962007
0.49400574 0.6597328 0.17194018 -1.0464061 0.13770272 0.23364294 0.063959055 0.75812227
0.32230175 0.08943183 -0.31334174 -0.049543276 -0.43586552 0.18847047 -1.4209697 0.26740834
-0.020772731 0.85043335 1.7338122 -0.06762467 -0.59487754 0.47633663 0.91239244 0.15103492
0.1346993 0.13200761 -0.37645546 1.3688424 0.82190007 -0.9275946 -0.6034289 -0.4144763
-0.22068891 -0.51852906 -0.6143386 -0.4587895 -0.17510161 -0.3586775 -0.1805553 0.13790123
0.014156181 0.8573054 1.9778061 -0.2791117 -0.36429578 0.12939887 0.33924422 0.5022869
-0.79814565 0.2648368 -0.2352081 -0.14229682 -0.015610704 -0.37753692 0.1031368 0.17925538
-0.06503412 -0.28405526 -0.07038717 0.032791857 -0.0638465 0.08122993 -0.2525335 -0.25537357
-0.055524826 0.18656383 0.157781 -0.12820216 0.0007133867 0.011344952 -0.052980848 -0.13170205
0.006635796 0.07052603 0.15863834 -0.022912754 -0.19529156 -0.25565562 -0.46939728 0.13769685
-0.07575109 0.16955926 -0.022197144 -0.00552246 -0.13082445 0.25039366 0.22873825 -0.06604596
-0.12381811 0.01934461 -0.041444287 0.048580952 0.12824257 -0.14017847 -0.20688172 -0.22132558
0.017454997 -0.4023336 0.10042069 -0.109798886 -0.016227663 0.013776291 0.11049177 -0.32409275
0.10366598 0.03678867 0.022538345 -0.00063141313 -0.12460523 -0.082489304 -0.17216212 -0.05975046
0.020446723 -0.1481507 -0.27576715 -0.054246508 -0.11866413 0.30804235 0.1025393 0.009752893
-0.25063026 0.13187253 -0.085712545 -0.106992535 0.048829038 0.18413024 -0.14204319 0.3324374
-0.059637662 -0.32503542 -0.099418804 -0.09728936 -0.07552516 -0.40733993 -0.3237543 0.019938573
-0.14728647 -0.13220994 0.25525248 0.0027339307 -0.11202229 0.07077897 0.3548593 0.12413798
-0.02853733 0.09854619 0.09409126 0.1748466 -0.26169306 0.043897923 -0.14723444 0.10739826
0.0068145655 -0.19219364 -0.086462386 0.048430193 -0.02962066 0.0039022006 0.02089992 0.09788853
0.12072348 0.15403403 -0.093962505 -0.20477368 -0.18211272 0.19072615 -0.0980179 0.12465678
0.024389444 0.15535066 0.037243314 -0.18072301 -0.12532072 -0.012469538 -0.101547584 0.27724722
0.034361135 -0.0918686 -0.037874665 0.114151 -0.12703615 0.18176582 -0.0004351207 -0.060209457
-0.045974184 -0.09986315 0.36190367 0.055495426 -0.10343853 -0.071692884 0.098598644 0.019963166
-0.13712497 -0.10027762 -0.1518807 -0.06814177 0.24411319 -0.08322443 -0.09737636 0.06256924
-0.119735986 0.16813251 -0.1043376 -0.11665319 0.13536829 0.13262282 -0.026502011 0.16479653
00000000: d5a6 113f 06e3 5fbf 7653 023f ab5b f03e
00000010: 780d 6c3e 62fd d1be 0cf6 d1be 4078 bbbe
00000020: 41d3 8e3e d3df 3e3e 0cb7 f5be 0ca2 22bf
00000030: fa96 febe 8d79 b43e 52b8 c0be ed40 b33e
00000040: 15cc fbbd 6bf0 d53e da3c 133d fa3c d2be
00000050: fe29 363e 4326 86be 7247 62be b44d 4e3f
00000060: 7429 42be 2984 37bd 931b 00be e0a7 1d3f
00000070: 254c 473d 4439 933d 1f41 40be 17ba b5be
00000080: 4624 9cbe 2095 883e 8593 0040 21aa 003e
00000090: 655a f9be 3a19 503f ed82 64be 4253 e73d
000000a0: e4b9 d43e fece a73d 8a6d 9f3b 22e2 c9be
000000b0: 13bf 94be 60d0 a4bf f94e 0bbe 5efb f43d
000000c0: 52ee fc3e 40e4 283f 1611 303e a3f0 85bf
000000d0: f101 0d3e 1840 6f3e f7fc 823d 4d14 423f
000000e0: bc04 a53e 0928 b73d 546e a0be e4ed 4abd
000000f0: c429 dfbe 67fe 403e 56e2 b5bf bfe9 883e
00000100: 932b aabc 00b6 593f 8fed dd3f ce7e 8abd
00000110: e549 18bf 65e2 f33e 8d92 693f e6a8 1a3e
00000120: 9dee 093e 012d 073e c5be c0be 3a36 af3f
00000130: 0b68 523f d776 6dbf 517a 1abf 3d36 d4be
00000140: 46fc 61be 52be 04bf 4b45 1dbf 75e6 eabe
00000150: d64d 33be 94a4 b7be 7de3 38be fb35 0d3e
00000160: 54ef 673c 5e78 5b3f c028 fd3f bbe7 8ebe
00000170: fa84 babe 2381 043e 6bb1 ad3e e095 003f
00000180: 4653 4cbf b098 873e 64da 70be 42b6 11be
00000190: 0ac4 7fbc 854c c1be 6339 d33d b98e 373e
000001a0: 9c30 85bd b16f 91be 2627 90bd c150 063d
000001b0: f4c1 82bd e15b a63d 124c 81be 53c0 82be
000001c0: 006e 63bd 970a 3f3e 5891 213e 6d47 03be
000001d0: 9202 3b3a 2de0 393c 7202 59bd e7dc 06be
000001e0: 1771 d93b f46f 903d 1772 223e 87b3 bbbc
000001f0: 83fa 47be 4be5 82be d754 f0be 6700 0d3e
00000200: 6323 9bbd f1a0 2d3e c9d6 b5bc c1f5 b4bb
00000210: d8f6 05be 9933 803e 5c3a 6a3e 1b43 87bd
00000220: 5994 fdbd 9678 9e3c 7cc1 29bd d2fc 463d
00000230: 0552 033e f28a 0fbe cdd8 53be 2ca3 62be
00000240: c8fd 8e3c abfe cdbe 5da9 cd3d 3dde e0bd
00000250: e0ef 84bc f4b5 613c 8249 e23d 7cef a5be
00000260: d44e d43d b7af 163d 56a2 b83c 6b85 25ba
00000270: 0731 ffbd 27f0 a8bd 444b 30be e6bc 74bd
00000280: e37f a73c d1b4 17be 5a31 8dbe 9631 5ebd
00000290: 2e06 f3bd bab7 9d3e 2000 d23d 99ca 1f3c
000002a0: 9c52 80be 9809 073e 0f8a afbd e71e dbbd
000002b0: f500 483d a38c 3c3e c573 11be 3c35 aa3e
000002c0: 9f46 74bd 0b6b a6be 169c cbbd a53f c7bd
000002d0: efac 9abd dc8e d0be 20c3 a5be 3856 a33c
000002e0: 44d2 16be 0b62 07be 74b0 823e bf2b 333b
000002f0: f16b e5bd 91f4 903d 1eb0 b53e 0e3c fe3d
00000300: 1ec7 e9bc 96d2 c93d ebb2 c03d fd0a 333e
00000310: a2fc 85be 4fce 333d a0c4 16be 9ef3 db3d
00000320: b84c df3b 69ce 44be 3113 b1bd bd5e 463d
00000330: 07a7 f2bc 10bc 7f3b 4f36 ab3c c879 c83d
00000340: df3d f73d 19bb 1d3e 6a6f c0bd 31b0 51be
00000350: c27b 3abe b74d 433e 9cbd c8bd 0e4c ff3d
00000360: 5fcc c73c 3e14 1f3e 728c 183d 740f 39be
00000370: 1354 00be 084d 4cbc 2ef8 cfbd 59f3 8d3e
00000380: 43be 0c3d 9b25 bcbd 7722 1bbd 00c8 e93d
00000390: c415 02be d220 3a3e e920 e4b9 319e 76bd
000003a0: 6d4f 3cbd 0d85 ccbd 704b b93e 2c4f 633d
000003b0: 94d7 d3bd b8d3 92bd 16ee c93d cb89 a33c
000003c0: 7d6a 0cbe 5a5e cdbd 9d86 1bbe ea8d 8bbd
000003d0: cff8 793e 9271 aabd 426d c7bd 4d24 803d
000003e0: 2438 f5bd ee2a 2c3e f4ae d5bd dee7 eebd
000003f0: fc9d 0a3e 47ce 073e bf1a d9bc 6cc0 283e

linears.1.bias f4 [100]
-0.02666661 -0.05184075 0.084986426 -1.1721758 0.06068436 -1.4672366 0.017710906 0.14179052
-0.94282144 0.5358475 -0.70802057 -0.83976483 -0.080060914 -1.012871 -1.2260842 0.03267945
-0.0042249057 0.03458092 -0.1456014 -1.0202987 0.04070848 0.05045674 -0.063067846 0.064849354
-0.0125167435 -0.16853139 -0.03808898 -0.029693134 0.050905563 -1.0620294 -0.6067143 -1.0269178
0.06872239 -0.47598368 -0.0137598505 -0.044714864 0.036852688 -1.2634536 -0.277765 0.10417187
-0.9526704 0.0011103672 -0.099992916 -0.6637151 -0.60421944 -0.8762391 0.06430001 0.12545696
0.07429725 -0.7044516 -0.9341411 0.22336301 -0.10506595 -0.82865244 -0.94408983 -0.4426614
-1.5463034 -0.6772916 -0.044897668 -0.8791775 0.122178145 0.09605308 0.04475222 -0.24255024
-0.3768161 0.46913767 -0.053962965 -0.9447212 0.004026739 -0.8318691 -0.8019154 0.032143567
-0.2524174 -0.031854644 -0.7503665 -0.5806639 -0.47844872 0.11706457 0.04787146 -0.34910393
-0.25700414 0.69902885 -0.06031801 -0.69873464 -0.19942677 -1.4965289 -0.17196225 0.03124427
-0.1250565 -1.084292 -0.03396127 -1.3457836 0.025582226 0.03025871 0.62354255 -0.7021089
-0.080362745 -0.3431655 -0.13297197 -0.3929915
00000000: ef73 dabc f756 54bd 5d0d ae3d db09 96bf
00000010: 2a90 783d 69ce bbbf 7616 913c 8931 113e
00000020: bf5c 71bf 4d2d 093f d640 35bf d4fa 56bf
00000030: faf6 a3bd c2a5 81bf 54f0 9cbf e3da 053d
00000040: 1471 8abb b9a4 0d3d 8918 15be 2699 82bf
00000050: efbd 263d baab 4e3d b729 81bd bdcf 843d
00000060: 0713 4dbc 7e93 2cbe 3103 1cbd 043f f3bc
00000070: 5a82 503d 94f0 87bf a151 1bbf 0b72 83bf
00000080: 53be 8c3d 22b4 f3be ff70 61bc ef26 37bd
00000090: d8f2 163d d9b8 a1bf 3737 8ebe 1058 d53d
000000a0: 35e2 73bf be89 913a 16c9 ccbd 3ce9 29bf
000000b0: 20ae 1abf 3551 60bf b9af 833d ca77 003e
000000c0: 2829 983d f156 34bf df23 6fbf 46b9 643e
000000d0: d12c d7bd 9122 54bf dfaf 71bf 84a4 e2be
000000e0: 45ed c5bf fb62 2dbf 9ee6 37bd c711 61bf
000000f0: 8938 fa3d 7ab7 c43d 1b4e 373d 175f 78be
00000100: 0aee c0be d032 f03e 4508 5dbd 40d9 71bf
00000110: bcf2 833b 60f5 54bf 544a 4dbf f9a8 033d
00000120: da3c 81be 047a 02bd 0518 40bf 64a6 14bf
00000130: 3bf7 f4be 8dbf ef3d dd14 443d c0bd b2be
00000140: 0c96 83be 8ef3 323f 0510 77bd 46e0 32bf
00000150: 8836 4cbe 428e bfbf df16 30be fcf3 ff3c
00000160: d00e 00be 15ca 8abf f91a 0bbd a342 acbf
00000170: d191 d13c 1de1 f73c 7ca0 1f3f 69bd 33bf
00000180: 3995 a4bd 63b3 afbe ce29 08be 2f36 c9be

linears.2.weight f4 [100, 100]
-0.045511663 0.008693088 -0.13318296 -1.5615431 -0.059195403 -4.313271 -0.13110028 -1.1564188
1.2753708 -1.2281026 1.316019 0.65402883 -0.012599747 -10.307002 -0.59206206 -0.05506198
-0.014449963 0.071380086 -0.10012127 0.97551805 0.051439222 0.107061096 -0.075498 0.14917944
-0.035777584 2.272775 -0.015731206 -0.2059431 0.05521984 0.15736115 1.6077698 0.4732084
1.426564 0.43371728 0.039483067 -0.09414714 -0.13530405 2.8706777 0.041027755 0.06662893
-2.0448053 -0.050433196 0.15580969 0.70845693 0.55091596 1.8252674 -0.045332894 -0.5937829
-0.15145662 0.8405057 0.87259936 0.2965758 0.94927925 0.54725826 0.41137764 0.068052284
-1.124731 2.3162067 -0.09597693 1.8403279 0.041902274 0.052465193 -0.120855875 1.9307339
2.4593368 0.10631016 0.13000569 0.264321 -0.011000453 2.1024537 1.2156961 -0.06883165
0.8174592 0.06286555 1.1981919 -0.8367997 0.7100632 0.30768964 -0.09975297 0.3744891
2.124183 -0.38583714 -2.0202153 1.299184 2.5885072 -0.1048618 0.68949664 -0.043756086
-0.15880382 1.8312749 0.019901372 0.6992604 -0.19404942 -0.068006374 -0.05549148 1.1221828
-0.1282177 0.29815823 -0.0030885667 1.7370266 -0.24197489 0.5755642 0.02707814 0.50235826
-0.11581908 0.32558975 -0.6844901 -1.9411566 0.3334245 -1.088554 1.0963918 0.7409424
0.48375922 0.3824842 0.5091952 -0.6780263 0.2439096 0.036427047 0.04078582 0.48620898
-0.40676624 -0.77788776 0.0012710894 -1.7094884 -0.72836334 2.5177977 -0.15789597 -0.22391973
-0.4555777 1.6648983 0.63458306 2.3838573 -0.9916873 0.6228491 -0.20894907 0.0541974
-0.331501 0.16295236 0.57113445 -0.3987811 0.114254236 -0.25922716 0.5173286 2.4704304
0.06732402 0.21626884 0.00012897105 0.1938851 -0.15056579 1.9406083 2.535751 0.5900143
0.81095463 0.65621746 1.4575788 -0.7858687 0.26132357 2.4224114 1.0303429 0.53127605
-0.3200124 0.13007775 0.21439964 1.642822 2.6084406 -0.003996684 -0.1352001 -0.4871441
-0.25842896 0.19088328 0.5936328 -0.5209854 -2.492537 -0.009445529 0.5220661 0.89369726
0.943948 0.17734891 -0.6554441 0.28952065 2.4641473 -1.3725004 -3.1428351 0.4129232
2.1303482 -0.71780133 -0.83006674 -0.20479083 0.04182861 0.191562 0.6215118 -0.36688134
0.787739 0.5250046 -0.22423773 1.3318503 -0.50843096 -1.2568673 0.18165152 0.9679338
0.002699747 0.0059293853 -0.0047759856 0.4425892 -0.012231487 0.8214142 -0.006212232 -0.31899735
-0.023204712 -0.06323246 0.25780466 0.24443285 0.015361972 0.7895174 0.18630488 0.0022305995
-0.004311266 -0.0024240662 -0.006061706 0.35066393 0.0048084743 0.0064674583 0.01115789 0.012089963
-0.0011463456 0.40805578 0.009247334 0.011973014 -0.00085226266 -0.23370436 0.10022687 0.3749861
-0.014055705 1.1179051 0.0004024627 0.001659051 0.0062276507 0.8391267 -0.6572266 -0.006852885
0.40224415 -0.006642496 -0.31611675 0.43350625 0.12951963 -0.04497155 -0.0071390434 0.06791492
-0.016107537 0.21625815 0.26740545 -0.10617136 -0.066773996 0.21720657 -0.011209673 0.96484154
00000000: 706a 3abd 746d 0e3c 1d61 08be a5e0 c7bf
00000010: e176 72bd 5106 8ac0 273f 06be 8805 94bf
00000020: 5a3f a33f 7732 9dbf 5073 a83f 6f6e 273f
00000030: 2b6f 4ebc 7be9 24c1 6191 17bf ac88 61bd
00000040: 8abf 6cbc b92f 923d 610c cdbd 8dbb 793f
00000050: efb1 523d d942 db3d b29e 9abd 7fc2 183e
00000060: 848b 12bd 2575 1140 bbde 80bc bfe2 52be
00000070: 332e 623d 4823 213e 67cb cd3f 5f48 f23e
00000080: a699 b63f 3110 de3e ffb8 213d 37d0 c0bd
00000090: 258d 0abe 2fb9 3740 b80c 283d c074 883d
000000a0: 17de 02c0 0a93 4ebd 938c 1f3e 6f5d 353f
000000b0: d408 0d3f 5da2 e93f fcae 39bd 2802 18bf
000000c0: 7217 1bbe 622b 573f ac62 5f3f c9d8 973e
000000d0: f703 733f 1e19 0c3f 17a0 d23e ff5e 8b3d
000000e0: 2ff7 8fbf bb3c 1440 8d8f c4bd dd8f eb3f
000000f0: b8a1 2b3d bee5 563d 4983 f7bd 4a22 f73f
00000100: c665 1d40 24b9 d93d 3620 053e 1555 873e
00000110: 3e3b 34bc 9a8e 0640 ee9b 9b3f 9cf7 8cbd
00000120: 0245 513f a7bf 803d 5a5e 993f 8138 56bf
00000130: b4c6 353f 7f89 9d3e 494b ccbd 09bd bf3e
00000140: 9df2 0740 728c c5be 354b 01c0 a94b a63f
00000150: 1aaa 2540 c9c1 d6bd da82 303f 9539 33bd
00000160: 789d 22be 3767 ea3f 3408 a33c bb02 333f
00000170: e4b4 46be ed46 8bbd 094b 63bd b0a3 8f3f
00000180: 804b 03be 32a8 983e 8d69 4abb e356 de3f
00000190: 44c8 77be 2d58 133f fad2 dd3c 8d9a 003f
000001a0: 8e32 edbd b3b3 a63e be3a 2fbf d277 f8bf
000001b0: 9eb6 aa3e bd55 8bbf 9156 8c3f 67ae 3d3f
000001c0: 4aaf f73e f8d4 c33e 9e5a 023f 2293 2dbf
000001d0: 70c3 793e 8734 153d 080f 273d 62f0 f83e
000001e0: aa43 d0be a723 47bf af9a a63a 84d0 dabf
000001f0: 0576 3abf 9923 2140 7baf 21be 374b 65be
00000200: 7b41 e9be 631b d53f 0974 223f 1e91 1840
00000210: 38df 7dbf 0a73 1f3f bff6 55be 18fe 5d3d
00000220: 80ba a9be fcdc 263e de35 123f 092d ccbe
00000230: 20fe e93d 6cb9 84be a66f 043f 881b 1e40
00000240: 2de1 893d 9475 5d3e 673c 0739 d189 463e
00000250: eb2d 1abe da65 f83f bf49 2240 2d0b 173f
00000260: b99a 4f3f defd 273f f191 ba3f b12e 49bf
00000270: 34cc 853e ca08 1b40 47e2 833f b501 083f
00000280: aad8 a3be 1a33 053e 948b 5b3e fe47 d23f
00000290: b1f0 2640 9ef6 82bb e571 0abe f46a f9be
000002a0: cd50 84be e876 433e 52f8 173f 4d5f 05bf
000002b0: ba85 1fc0 6cc1 1abc 20a6 053f 58c9 643f
000002c0: 93a6 713f f49a 353e 2fcb 27bf 0d3c 943e
000002d0: 97b4 1d40 18ae afbf 3624 49c0 ab6a d33e
000002e0: a057 0840 d4c1 37bf 417f 54bf b0b4 51be
000002f0: 7a54 2b3d d428 443e 661b 1f3f dfd7 bbbe
00000300: 43a9 493f b466 063f 939e 65be 127a aa3f
00000310: 8828 02bf 07e1 a0bf db02 3a3e 82ca 773f
00000320: 3dee 303b 4a4b c23b df7f 9cbb 0d9b e23e
00000330: 9366 48bc 3348 523f fb8f cbbb 9f53 a3be
00000340: cf17 bebc 0580 81bd f9fe 833e 9b4c 7a3e
00000350: c8b0 7b3c d01d 4a3f b5c6 3e3e 402f 123b
00000360: 8545 8dbb 15dd 1ebb 47a1 c6bb 398a b33e
00000370: 6890 9d3b f9ec d33b 95cf 363c fb14 463c
00000380: fa40 96ba b0ec d03e 2182 173c 762a 443c
00000390: 616a 5fba 3250 6fbe bf43 cd3d 2efe bf3e
000003a0: e649 66bc 8417 8f3f a101 d339 8474 d93a
000003b0: 5211 cc3b 02d1 563f 0140 28bf 2a8e e0bb
000003c0: f2f2 cd3e 4ca9 d9bb 0eda a1be 88f4 dd3e
000003d0: cba0 043e 1734 38bd a3ee e9bb fa16 8b3d
000003e0: f4f3 83bc c772 5d3e 5ee9 883e 5f70 d9bd
000003f0: cec0 88bd 666b 5e3e c7a8 37bc dbff 763f

linears.2.bias f4 [100]
-2.4686646 -2.707936 -0.33612448 -0.1757715 -0.08708246 -0.75338274 -0.67770386 -0.25245062
-3.3995643 -0.009802476 -0.34310564 -0.9280238 -0.42046067 -0.8351022 -0.40212598 0.2080327
-0.16889332 -0.08941405 -2.0254884 -0.23277125 -1.2685812 -0.6065632 -0.7406452 -0.40016767
-0.16474754 -0.75302887 -3.4017448 -0.6729578 -2.477498 -0.01415002 -0.47493637 -0.3911592
-1.2521127 -1.9244487 -0.16199705 -0.5761636 -1.022782 -3.2614372 -1.1346381 -3.5319495
-0.35420173 -0.796344 -0.3053847 -0.32224646 -0.8831603 -0.3198027 -2.3632138 -1.930247
-1.416083 -0.36314318 -0.69477296 -0.3287789 -0.5830835 0.11346977 -0.50161207 -3.1881511
-0.26957846 -3.3456745 -3.6350904 -0.71813583 -0.8351863 -0.536232 -0.8417913 -0.2707052
-4.1412544 -0.2656587 -0.12514165 -0.5285733 -2.611811 -1.0354629 -0.25253552 -0.2372076
0.019818766 -0.52862465 -0.55513114 0.017582625 -0.26939508 -2.6463947 -3.558279 -1.858495
-0.2748659 -0.0987299 -3.6805134 -0.26173702 -0.53241575 -0.355552 -3.2821922 -0.01193005
-2.0026536 -3.146709 -3.6647851 -0.4203477 -0.52028155 -0.31278113 -0.28569317 -0.3636787
-0.85478854 -1.6728617 -2.0973432 -3.793683
00000000: 9afe 1dc0 d34e 2dc0 8218 acbe 72fd 33be
00000010: 4a58 b2bd b1dd 40bf 007e 2dbf 3541 81be
00000020: 7692 59c0 909a 20bc 8bab afbe f892 6dbf
00000030: 9f46 d7be 42c9 55bf 75e3 cdbe 8606 553e
00000040: 5ff2 2cbe b71e b7bd 9aa1 01c0 965b 6ebe
00000050: de60 a2bf ba47 1bbf ec9a 3dbf c7e2 ccbe
00000060: 94b3 28be 80c6 40bf 30b6 59c0 f646 2cbf
00000070: 548f 1ec0 7cd5 67bc dc2a f3be 0546 c8be
00000080: 3b45 a0bf 5654 f6bf 8ee2 25be 757f 13bf
00000090: 85ea 82bf 63bb 50c0 d23b 91bf 760b 62c0
000000a0: ee59 b5be 33dd 4bbf 625b 9cbe 7dfd a4be
000000b0: cb16 62bf 2ebd a3be e53e 17c0 5512 f7bf
000000c0: 3542 b5bf e7ed b9be a4dc 31bf b555 a8be
000000d0: f644 15bf d762 e83d a669 00bf ab0a 4cc0
000000e0: 3006 8abe 881f 56c0 52a5 68c0 c0d7 37bf
000000f0: c5ce 55bf 8046 09bf a27f 57bf df99 8abe
00000100: 2885 84c0 6b04 88be 2225 00be 9450 07bf
00000110: e927 27c0 0c8a 84bf 564c 81be 8de6 72be
00000120: f75a a23c f253 07bf 131d 0ebf 7009 903c
00000130: 27ee 89be 885e 29c0 d8ba 63c0 2ae3 edbf
00000140: 39bb 8cbe e732 cabd 888d 6bc0 6502 86be
00000150: 664c 08bf e90a b6be 700f 52c0 4276 43bc
00000160: 7a2b 00c0 ae63 49c0 d78b 6ac0 d037 d7be
00000170: 2c31 05bf d924 a0be 6046 92be 1834 babe
00000180: 6cd3 5abf 5520 d6bf df3a 06c0 b4cb 72c0

linears.3.weight f4 [5, 100]
-0.0007042756 -0.41496626 0.32109383 -1.4230139e-05 9.3671166e-05 0.0077422583 0.0054763462 -0.000121884834
0.3569156 0.0037376776 0.0008333306 -0.0012255767 0.06990446 -0.00034832195 0.0040504886 9.8229895e-05
0.0033796886 0.00093229284 0.0017979254 0.004209126 0.00032474776 0.10735231 0.00089488726 0.0032559405
0.0027809062 0.0028977743 -0.23180364 -7.341098e-05 -0.37702206 0.10414938 0.30555153 0.0075712823
-0.0035264927 -0.094259515 0.005434636 -0.020724155 0.041829597 -0.52330863 -0.00027095323 -0.005816667
0.0014041408 0.0005327367 0.2318016 0.0019598457 0.009554063 0.21882567 0.005365418 -0.046450112
0.040986966 0.008998844 4.768876e-05 0.0058159563 0.05567835 -2.1770933e-05 9.168892e-05 -0.12664022
0.00029750293 -0.01648138 -0.11675617 -4.3659595e-05 0.0007343559 0.005196893 0.008385023 -0.0024502384
-0.12816373 7.278282e-05 0.010532832 0.0018458004 0.05871186 -0.0043408675 0.0057315277 0.015972843
0.012756906 -0.0002662126 -0.0010774349 -7.188366e-05 0.0027659063 -0.5050851 0.023014825 -2.9660183e-05
0.0017378754 -0.0020815507 -0.13284849 0.106206514 0.008477022 0.004044442 -0.56342435 0.052904695
-0.053787857 -0.027192492 -0.13441977 0.01410366 0.110211566 0.0012754077 -0.007856704 0.029075962
-0.009240939 0.03899943 0.0132221775 -0.1743806 0.03357109 -0.11560143 0.3151959 0.008824274
0.040054645 -0.25670576 -0.0016865322 -0.009497769 0.6616515 0.17572764 0.028173912 0.017482009
-0.25734073 -0.09483523 -0.00628348 -0.14095563 -0.05156301 -0.011453521 0.490269 -0.028790617
-0.044748638 -0.044005625 -0.06457744 -0.30979753 -0.0054678395 -0.021164106 -0.15338749 -0.019284707
0.7080281 -0.17406204 0.17285521 0.07827268 0.016824815 0.2222051 -0.07199098 -0.37131292
0.07114349 -1.1058099 0.093653224 -0.022566104 -0.030563004 -0.04822738 -0.36474764 0.1431211
-0.05934473 0.089952156 -0.2839327 -1.0819646 -3.9894435 0.18860234 -0.025333045 -0.07160373
-0.052765153 -0.007477044 0.029838923 -1.1166111 -0.05902058 -1.8128415 -0.047607634 -0.0023448817
-0.037686527 -0.10084208 0.4755414 -0.14694953 -0.43067947 0.0035687308 0.44452894 0.08699311
0.17045192 -0.046666853 -0.13497601 -0.07752822 -0.21107641 0.022069843 -0.024074621 0.06193009
-0.1605953 -1.5199909 -3.433716 -0.009019007 -0.08381823 0.059929896 -0.73472154 -0.17427728
0.23769836 -0.10026861 -0.31982538 0.060639374 1.1804419 -0.42575943 -0.8276477 -0.16888754
-0.02571456 0.007159957 -0.28224647 -0.43939933 -0.25524023 0.28515905 0.07737215 -0.5299899
-0.01918962 0.16575664 -0.029098384 0.00019455572 -0.026981711 0.023403788 0.026312068 -0.0032604227
0.07406378 0.0055029225 -0.011319443 0.0027466582 -0.0062465016 -0.001990301 -0.004027976 0.0008692233
-0.0007161743 -0.0011578134 -0.044112388 0.0062985052 0.06172801 0.009145432 0.05137458 -0.0061669843
-0.0045452947 0.0032475994 -0.26574847 -0.00011130065 0.15740703 0.005379164 -0.16949591 -0.0047637546
-0.00053948024 -0.02627387 -0.00074600807 0.011686759 0.0021601007 -0.744253 -0.0021606714 -0.006321187
-0.0013601711 0.010264697 -0.012586704 0.063748196 0.0070684147 0.11270761 -0.008819223 -0.040072314
0.09007459 0.0049478956 -0.0020338427 -0.00044705498 -0.012680352 0.00037442642 0.015011908 0.5108958
00000000: 239f 38ba 7576 d4be 6966 a43e fbbd 6eb7
00000010: 5371 c438 c5b2 fd3b ec72 b33b 6c9c ffb8
00000020: a4bd b63e d3f3 743b df73 5a3a 88a3 a0ba
00000030: 122a 8f3d fb9e b6b9 f6b9 843b c600 ce38
00000040: c47d 5d3b 1d65 743a 5ea8 eb3a b5ec 893b
00000050: e842 aa39 87db db3d de96 6a3a 9e61 553b
00000060: dd3f 363b 96e8 3d3b ef5d 6dbe 38f4 99b8
00000070: 0909 c1be 454c d53d 4071 9c3e 8518 f83b
00000080: bb1c 67bb 220b c1bd 0815 b23b b4c5 a9bc
00000090: 8355 2b3d 8ef7 05bf ba0e 8eb9 bd99 bebb
000000a0: 260b b83a 5ba7 0b3a 665d 6d3e c170 003b
000000b0: a588 1c3c d613 603e 63d0 af3b 7942 3ebd
000000c0: f3e1 273d e36f 133c 6b05 4838 c793 be3b
000000d0: fb0e 643d b9a0 b6b7 1d49 c038 f9ad 01be
000000e0: 2bfa 9b39 f603 87bc dc1d efbd 221f 37b8
000000f0: ca81 403a b34a aa3b 5661 093c 2e94 20bb
00000100: 5a3d 03be fba2 9838 e691 2c3c c9ee f13a
00000110: d97b 703d d63d 8ebb 8acf bb3b 7bd9 823c
00000120: 5802 513c 7392 8bb9 b738 8dba 3fc0 96b8
00000130: 3544 353b 424d 01bf 9689 bc3c c2ce f8b7
00000140: 6cc9 e33a a06a 08bb 6f09 08be cd82 d93d
00000150: 35e3 0a3c 3d87 843b 943c 10bf 98b2 583d
00000160: a850 5cbd cac2 debc 56a5 09be 0a13 673c
00000170: 9ab6 e13d 952b a73a 68b9 00bc b630 ee3c
00000180: 4f67 17bc debd 1f3d d5a1 583c d490 32be
00000190: d781 093d 71c0 ecbd 5b61 a13e b093 103c
000001a0: 5710 243d f06e 83be a10e ddba 889c 1bbc
000001b0: fe61 293f f2f1 333e facc e63c 6e36 8f3c
000001c0: 2ac2 83be f938 c2bd a7e5 cdbb ac56 10be
000001d0: bc33 53bd 8da7 3bbc 8a04 fb3e 4dda ebbc
000001e0: 594a 37bd 3e3f 34bd 2d41 84bd c89d 9ebe
000001f0: 902b b3bb 5960 adbc 9c11 1dbe f6fa 9dbc
00000200: 5441 353f 523d 32be f500 313e 6d4d a03d
00000210: 32d4 893c bc89 633e 0270 93bd ba1c bebe
00000220: aeb3 913d 2e8b 8dbf 43cd bf3d 8ddc b8bc
00000230: 445f fabc 138a 45bd 34c0 babe 568e 123e
00000240: 7613 73bd d638 b83d a05f 91be d17d 8abf
00000250: 0b53 7fc0 f920 413e 3f87 cfbc faa4 92bd
00000260: 4620 58bd fe01 f5bb c270 f43c 1ded 8ebf
00000270: 90bf 71bd 310b e8bf 3900 43bd 96ac 19bb
00000280: 305d 1abd 4b86 cebd 2a7a f33e f079 16be
00000290: 0582 dcbe 5ee1 693b 4c99 e33e 7229 b23d
000002a0: f38a 2e3e be25 3fbd 2737 0abe 1ec7 9ebd
000002b0: 6a24 58be d1cb b43c 2438 c5bc 68aa 7d3d
000002c0: 1873 24be 108f c2bf 01c2 5bc0 75c4 13bc
000002d0: e4a8 abbd 0d79 753d b616 3cbf be75 32be
000002e0: 3367 733e a159 cdbd 27c0 a3be fe60 783d
000002f0: b818 973f 24fd d9be b8e0 53bf dbf0 2cbe
00000300: 57a7 d2bc 139e ea3b 9c82 90be f3f8 e0be
00000310: d9ae 82be 5e00 923e 4a75 9e3d 6bad 07bf
00000320: 8d33 9dbc 1cbc 293e bc5f eebc a701 4c39
00000330: c008 ddbc 4db9 bf3c 688c d73c d1ac 55bb
00000340: c0ae 973d dc51 b43b 2f75 39bc 4701 343b
00000350: 74af ccbb b66f 02bb 1dfd 83bb 97dc 633a
00000360: a5bd 3bba c5c1 97ba 31af 34bd b163 ce3b
00000370: 83d6 7c3d b9d6 153c 276e 523d 6a14 cabb
00000380: b2f0 94bb add5 543b 2f10 88be 156a e9b8
00000390: 4f2f 213e b343 b03b 5690 2dbe 4519 9cbb
000003a0: e86b 0dba 4d3c d7bc c18f 43ba d279 3f3c
000003b0: 7a90 0d3b 5d87 3ebf 0d9a 0dbb f621 cfbb
000003c0: c547 b2ba 422d 283c 7738 4ebc 6a8e 823d
000003d0: 299e e73b 3fd3 e63d 817e 10bc de22 24bd
000003e0: 0779 b83d f521 a23b 384a 05bb b462 eab9
000003f0: 40c1 4fbc aa4e c439 81f4 753c 11ca 023f

linears.3.bias f4 [5]
2.905602 0.3612332 1.0141907 -0.95416754 0.20663008
00000000: 62f5 3940 8ff3 b83e 00d1 813f 5344 74bf
00000010: d696 533e

exp_avg f4 [100, 1]
3.2639605e-06 -7.562821e-07 -5.2164555e-06 9.934976e-07 1.0049167e-06 -2.6475993e-06 1.5552131e-06 -2.631843e-06
-9.713483e-07 2.0007128e-06 2.3037765e-06 -1.2908489e-06 -1.971267e-06 1.3435516e-06 5.490152e-07 2.55835e-06
5.54513e-07 2.3175849e-06 -2.1338761e-07 5.042009e-06 -6.685287e-06 6.5644764e-07 5.346275e-07 1.2333929e-06
-2.4727424e-06 -1.5858808e-06 3.9613592e-08 1.1797064e-06 1.0006818e-06 -3.3415517e-06 -3.1241154e-06 3.9816794e-07
1.9768477e-06 -5.0444446e-06 2.4326928e-07 -2.4532799e-06 -2.9140876e-06 1.4022332e-06 3.60098e-07 -1.960105e-08
-2.7975857e-06 -2.0644602e-06 1.0795674e-06 8.213113e-07 -2.7743233e-06 -1.5411887e-06 -4.933156e-06 -3.553272e-06
-4.2666816e-06 1.3485162e-06 -2.6606926e-06 -9.5191825e-07 2.437033e-07 1.5723256e-06 -3.6631073e-07 7.9561755e-07
2.5649703e-07 5.015612e-06 2.833286e-06 -3.0581023e-06 1.935555e-06 -2.6320129e-06 -1.4925745e-06 2.0915552e-06
2.6276311e-08 1.2402562e-06 8.975664e-07 -3.043087e-06 2.1297956e-06 4.0802954e-07 -1.7168399e-09 9.187542e-07
1.1197072e-06 2.1443416e-06 1.3298677e-06 1.1154523e-06 9.134661e-07 -1.5320269e-06 -1.2083143e-06 -2.473835e-06
2.6039545e-06 -2.0671084e-06 -1.2296454e-06 2.2264428e-06 3.4957793e-06 6.306159e-07 -3.3824701e-06 1.1075244e-06
4.00556e-06 1.3196562e-06 1.5978593e-07 -3.2323542e-06 8.498988e-07 6.3860233e-07 -5.9069544e-06 9.797485e-07
-2.1416888e-06 -6.257694e-06 1.0061885e-06 -1.4452944e-07
00000000: 6a0a 5b36 4f03 4bb5 0309 afb6 5158 8535
00000010: ade0 8635 69ad 31b6 b7bc d035 b89e 30b6
00000020: 465f 82b5 fc43 0636 949a 1a36 3b41 adb5
00000030: 1c4a 04b6 1554 b435 0a60 1335 1eb0 2b36
00000040: d8d9 1435 ce87 1b36 8a1f 65b4 872e a936
00000050: 2e52 e0b6 bd36 3035 5283 0f35 0f8b a535
00000060: 64f1 25b6 73da d4b5 9b23 2a33 6756 9e35
00000070: 2a4f 8635 6c3f 60b6 e5a7 51b6 c9c3 d534
00000080: fca9 0436 7343 a9b6 ad9a 8234 07a3 24b6
00000090: a58f 43b6 5e34 bc35 7e53 c134 2a5f a8b2
000000a0: 28be 3bb6 288b 0ab6 a7e5 9035 1578 5c35
000000b0: 832e 3ab6 d7da ceb5 7d87 a5b6 c074 6eb6
000000c0: 842a 8fb6 aafe b435 5a8e 32b6 5387 7fb5
000000d0: 54d6 8234 b208 d335 5da9 c4b4 6c92 5535
000000e0: afb4 8934 c74b a836 7c23 3e36 cc39 4db6
000000f0: 95e4 0136 a3a1 30b6 7854 c8b5 a55c 0c36
00000100: 38b6 e132 e176 a635 4bf0 7035 d637 4cb6
00000110: 9ced 0e36 270f db34 eff5 ebb0 4fa0 7635
00000120: d948 9635 82e7 0f36 e87d b235 a6b6 9535
00000130: ea34 7535 0ba0 cdb5 5d2d a2b5 2904 26b6
00000140: 99bf 2e36 a7b8 0ab6 4b0a a5b5 ff69 1536
00000150: 0899 6a36 9847 2935 65fe 62b6 40a6 9435
00000160: 8067 8636 0b1f b135 9f91 2b34 6ceb 58b6
00000170: 9a24 6435 6b6c 2b35 5a34 c6b6 e77f 8335
00000180: efb9 0fb6 2ff9 d1b6 600c 8735 f32f 1bb4

exp_avg_sq f4 [100, 1]
2.7065266e-07 1.7652612e-08 9.827119e-08 3.678347e-08 1.1390928e-06 2.3218703e-08 8.769752e-08 1.2124163e-07
4.1810074e-07 8.406363e-08 1.5400323e-07 1.5739845e-08 3.676977e-08 5.0408467e-08 2.0094703e-07 6.0934383e-07
4.039953e-07 3.2943402e-07 1.9293789e-06 2.1854352e-07 2.303053e-06 1.7305934e-08 5.3505227e-07 2.9818256e-08
2.3387452e-08 4.437206e-08 5.218787e-12 3.7254537e-08 3.5187117e-08 8.5516405e-08 2.9259574e-08 5.1660948e-08
4.549879e-08 1.7685242e-06 2.7588762e-09 6.178463e-08 6.1521035e-08 2.1026768e-08 4.157607e-08 2.8398014e-07
5.1175437e-07 5.0705717e-07 2.5076647e-08 2.8173932e-07 1.646891e-07 9.467737e-09 6.588933e-07 8.457111e-08
9.373987e-08 4.0650274e-08 6.7877906e-08 1.7248631e-08 8.7717126e-07 7.762572e-08 2.9658185e-07 4.5143157e-08
4.5323006e-07 8.634847e-07 7.794129e-08 3.7998393e-07 1.505037e-07 6.184908e-08 8.508982e-09 1.224308e-07
4.1626993e-12 3.603765e-08 1.0275126e-08 1.9686134e-07 6.511965e-08 1.8784228e-08 1.2831695e-11 3.257849e-08
7.637005e-08 1.8072032e-07 1.7347347e-08 1.4192698e-08 1.9646922e-08 1.8460893e-08 2.1574452e-08 3.266533e-08
4.0098607e-07 2.691253e-08 1.5655017e-08 5.9394313e-08 2.2372402e-07 3.6277854e-08 3.2074067e-07 1.7677532e-07
3.0739383e-07 7.228421e-08 3.0717635e-09 8.3408345e-08 2.0412777e-07 4.5428536e-08 8.555023e-07 4.2349953e-08
5.4252368e-08 1.7303711e-06 1.3458766e-08 2.5739783e-07
00000000: 384e 9134 81a2 9732 2809 d333 dafb 1d33
00000010: eee2 9835 7872 c732 3954 bc33 a52e 0234
00000020: 5477 e034 7886 b433 165c 2534 4934 8732
00000030: caec 1d33 b280 5833 e6c3 5734 ca91 2335
00000040: b1e4 d834 11dd b034 7a7a 0136 c9a8 6a34
00000050: 268e 1a36 27a8 9432 83a0 0f35 8511 0033
00000060: 8de5 c832 9993 3e33 a89e b72c cc01 2033
00000070: a520 1733 24a5 b733 7c56 fb32 d0e1 5d33
00000080: 736a 4333 075e ed35 aa96 3d31 76ae 8433
00000090: 8c1d 8433 5a9e b432 5f91 3233 ef75 9834
000000a0: 7e5f 0935 b41c 0835 2168 d732 f541 9734
000000b0: 65d5 3034 8ca7 2232 cede 3035 769d b533
000000c0: 0a4e c933 7397 2e33 46c4 9133 242a 9432
000000d0: c076 6b35 31b3 a633 e639 9f34 6de3 4133
000000e0: 7753 f334 37ca 6735 ad60 a733 9800 cc34
000000f0: 249a 2134 e4d1 8433 e62e 1232 8675 0334
00000100: 4376 922c d1c7 1a33 7b86 3032 d560 5334
00000110: e8d7 8b33 f45a a132 d1bc 612d 6eec 0b33
00000120: e100 a433 060c 4234 3803 9532 25d4 7332
00000130: 0ac4 a832 ef93 9e32 b952 b932 e94b 0c33
00000140: 1b47 d734 482d e732 bf79 8632 bd18 7f33
00000150: ca38 7034 eccf 1b33 4332 ac34 a1cf 3d34
00000160: e307 a534 aa3a 9b33 0917 5331 391e b333
00000170: 372e 5b34 341d 4333 aca5 6535 44e4 3533
00000180: 1c03 6933 193f e835 4738 6732 7d30 8a34

exp_avg f4 [100]
9.346935e-06 -4.6592682e-05 -0.00012614537 5.6623674e-05 -4.9475628e-05 -7.450374e-05 6.6033e-05 -9.0101596e-05
-6.519105e-05 7.690807e-05 8.983735e-05 -4.691566e-05 -6.810235e-05 6.34908e-05 4.689598e-05 -2.122359e-05
-3.128127e-05 -7.5053968e-06 -7.761121e-05 0.00013658537 -0.00016815466 4.1779796e-05 -5.7581645e-05 6.1022172e-05
-6.598765e-05 -5.6728553e-05 6.7080754e-07 5.9267553e-05 5.1812545e-05 -8.5587155e-05 -8.41027e-05 4.3419317e-05
6.9092304e-05 -0.00014198976 2.908137e-05 -6.661231e-05 -8.373494e-05 6.0776736e-05 3.7152022e-05 -5.2133048e-05
-9.195719e-05 -9.2902745e-05 -7.5611256e-06 -4.2973246e-05 -8.7225184e-05 -5.6270128e-05 -0.00013164725 -9.434852e-05
-9.770789e-05 5.9407117e-05 -6.98062e-05 -5.001127e-05 -4.4306864e-05 6.852059e-05 -4.0571987e-05 5.4000877e-05
-5.0206363e-05 -4.550528e-06 8.350686e-05 -0.00012014981 8.764621e-05 -7.045993e-05 -5.314058e-05 8.2612336e-05
3.0686127e-07 5.9967882e-05 4.7974336e-05 -9.7586526e-05 7.960499e-05 4.1358744e-05 1.02597824e-07 5.5128286e-05
5.9600232e-05 -2.964226e-06 4.857723e-05 5.339622e-05 5.2484807e-05 -6.118605e-05 -5.3674386e-05 -7.315296e-05
-2.0875439e-05 -6.6693705e-05 -5.069319e-05 8.456274e-05 0.0001074941 4.682112e-05 -0.00013629082 -1.8339244e-05
1.687617e-05 -9.321114e-06 2.9856168e-05 -9.2647584e-05 -4.4977165e-05 5.042848e-05 -0.00017553548 5.9663776e-05
-7.1143666e-05 -0.00016643768 4.647828e-05 -6.0162834e-05
00000000: c8d0 1c37 836c 43b8 e445 04b9 357f 6d38
00000010: 0d84 4fb8 e43e 9cb8 327b 8a38 edf4 bcb8
00000020: 2eb7 88b8 b549 a138 0f67 bc38 4ec7 44b8
00000030: 2cd2 8eb8 5d26 8538 2db2 4438 5009 b2b7
00000040: 0234 03b8 ded6 fbb6 33c3 a2b8 5b38 0f39
00000050: ac52 30b9 b73c 2f38 d283 71b8 0ff2 7f38
00000060: da62 8ab8 d2ef 6db8 8b11 3435 0d96 7838
00000070: 4c51 5938 417d b3b8 4b60 b0b8 231d 3638
00000080: a6e5 9038 16e3 14b9 c4f3 f337 36b2 8bb8
00000090: db9a afb8 86ea 7e38 aed3 1b38 6fa9 5ab8
000000a0: 24d9 c0b8 c8d4 c2b8 93b5 fdb6 2c3e 34b8
000000b0: aaec b6b8 9703 6cb8 ca0a 0ab9 fadc c5b8
000000c0: 86e8 ccb8 e82b 7938 eb64 92b8 31c3 51b8
000000d0: 22d6 39b8 b6b2 8f38 d72b 2ab8 007f 6238
000000e0: ac94 52b8 bdb0 98b6 6720 af38 f0f8 fbb8
000000f0: b3ce b738 e3c3 93b8 43e3 5eb8 2940 ad38
00000100: b1be a434 0686 7b38 0d38 4938 5ea7 ccb8
00000110: 9bf1 a638 9d78 2d38 c053 dc33 8c39 6738
00000120: 43fb 7938 04ed 46b6 67bf 4b38 c1f5 5f38
00000130: 2223 5c38 0351 80b8 6f20 61b8 b269 99b8
00000140: aa1d afb7 e9dd 8bb8 669f 54b8 4657 b138
00000150: 756e e138 cb61 4438 4ae9 0eb9 3ad7 99b7
00000160: 4d91 8d37 e161 1cb7 a273 fa37 cb4b c2b8
00000170: dda5 3cb8 2b83 5338 f20f 38b9 7e3f 7a38
00000180: f732 95b8 c685 2eb9 acf1 4238 5a57 7cb8

exp_avg_sq f4 [100]
2.1443107e-05 2.3809687e-05 5.308514e-05 1.5986125e-05 0.0001058431 1.9344236e-05 2.891399e-05 2.8330142e-05
4.3188946e-05 2.7602031e-05 4.4284465e-05 1.7717419e-05 3.049889e-05 2.1454005e-05 2.3913677e-05 4.8939026e-05
3.623931e-05 2.593725e-05 0.00019364254 6.818857e-05 0.000246846 6.700373e-06 4.9538146e-05 1.8818257e-05
1.792071e-05 3.464989e-05 4.5644805e-10 2.0395928e-05 1.5056257e-05 4.2631338e-05 2.564047e-05 1.28151805e-05
2.1761698e-05 0.00018825423 8.901327e-06 3.9787334e-05 3.2696073e-05 1.7280561e-05 1.0822284e-05 2.9099929e-05
5.1909723e-05 5.2157833e-05 4.298812e-06 3.0571988e-05 2.9198918e-05 1.4623974e-05 8.2209575e-05 4.3772743e-05
5.5601584e-05 2.0697993e-05 4.3342166e-05 2.5122132e-05 7.6798846e-05 2.4980736e-05 2.8570152e-05 2.1211172e-05
4.3782624e-05 6.555303e-05 2.9107416e-05 5.207802e-05 4.9055634e-05 4.2015323e-05 1.3976006e-05 3.3541135e-05
6.474379e-10 1.8820598e-05 1.598733e-05 3.2554773e-05 2.4522815e-05 8.003795e-06 2.130468e-09 1.5328935e-05
2.1387857e-05 1.5272934e-05 6.8989666e-06 1.6957792e-05 1.41684395e-05 2.8163062e-05 2.933776e-05 3.215834e-05
3.6222686e-05 2.559214e-05 2.179805e-05 2.2683314e-05 5.945045e-05 1.014245e-05 8.577515e-05 1.5323712e-05
2.3121633e-05 6.066309e-06 9.602255e-06 3.7978698e-05 2.489488e-05 1.6521473e-05 0.00012302752 1.8442728e-05
2.4726902e-05 0.0001919432 7.353138e-06 3.119973e-05
00000000: b9e0 b337 eaba c737 bca7 5e38 f119 8637
00000010: 15f8 dd38 6e45 a237 528c f237 84a6 ed37
00000020: c725 3538 e98a e737 15be 3938 de9f 9437
00000030: ded7 ff37 20f8 b337 3b9a c837 e143 4d38
00000040: aaff 1738 d293 d937 860c 4b39 7600 8f38
00000050: 1c6b 8139 c4d3 e036 2ec7 4f38 e6db 9d37
00000060: 6f54 9637 0955 1138 5aef fa2f ec17 ab37
00000070: 229a 7c37 0dcf 3238 7d16 d737 c800 5737
00000080: e48c b637 1c66 4539 e956 1537 53e1 2638
00000090: 2423 0938 b9f5 9037 5b91 3537 9f1b f437
000000a0: a4b9 5938 0cc4 5a38 843e 9036 6c3a 0038
000000b0: 33f0 f437 7d59 7537 ee67 ac38 a098 3738
000000c0: bf35 6938 9aa0 ad37 4cca 3538 5ebd d237
000000d0: 110f a138 b98d d137 efa9 ef37 a5ee b137
000000e0: 3ca3 3738 8479 8938 b32b f437 596e 5a38
000000f0: 16c1 4d38 9c39 3038 7d7a 6a37 85ae 0c38
00000100: 64f7 3130 ede0 9d37 881c 8637 6c8b 0838
00000110: 58b6 cd37 0a48 0637 9767 1231 a396 8037
00000120: 136a b337 601e 8037 ac7d e736 9540 8e37
00000130: fcb4 6d37 b73f ec37 5c1a f637 c1e1 0638
00000140: d0ed 1738 b4ae d637 f5da b637 0c48 be37
00000150: 6f5a 7938 7e29 2a37 2fe2 b338 6c8b 8037
00000160: 54f5 c137 338d cb36 5f19 2137 514b 1f38
00000170: 59d5 d037 9897 8a37 f300 0139 75b5 9a37
00000180: 9e6c cf37 5c44 4939 f9ba f636 74dc 0238

exp_avg f4 [100, 100]
-1.786598e-07 6.944766e-08 2.8607209e-08 -2.160257e-08 -5.381896e-07 9.574445e-08 -5.469639e-07 8.215117e-10
-1.7743533e-07 -7.870221e-08 -3.608093e-07 8.5320465e-08 9.966826e-08 -3.198034e-08 5.2538898e-08 -3.228963e-07
-1.6960641e-07 -1.4984033e-07 -9.165302e-07 -7.010324e-07 -1.0460595e-06 -6.414994e-08 -2.169714e-07 -5.470671e-09
1.5239742e-07 1.1723356e-07 -2.6341762e-10 -1.4950386e-08 -4.5672383e-08 6.160634e-08 1.4785385e-07 -7.530353e-08
-3.5551753e-07 -7.093533e-07 1.1003042e-09 1.0263301e-07 5.571228e-08 -1.1297221e-08 -9.498285e-08 -1.2411459e-07
-1.6173456e-07 -1.9487811e-07 -1.9000932e-08 -9.411868e-08 1.3601926e-08 3.5123197e-08 -3.1513312e-07 6.5753234e-08
7.098641e-08 -1.8000836e-08 1.0364214e-07 4.1146702e-08 -3.874392e-07 -5.483809e-08 -1.2803042e-07 5.902623e-09
-1.876328e-07 -2.9549312e-07 -3.0967576e-07 -1.0442724e-07 -8.0585454e-07 1.1483288e-07 3.229643e-08 -7.090364e-08
7.180137e-11 -1.1089695e-08 -4.1405706e-09 -1.0236263e-09 -3.5465246e-07 -1.9653843e-08 1.3006281e-10 -2.9234814e-08
-6.4714534e-08 -8.361463e-08 -6.146303e-08 -7.3784467e-09 -8.259034e-09 5.426759e-08 9.5781964e-08 1.355742e-07
-1.2739874e-07 8.1085446e-08 7.4355974e-08 -6.136271e-07 -1.3310152e-07 -1.2431292e-07 -2.5945988e-07 -8.0933695e-08
-1.3150358e-07 -1.9447718e-08 6.7652167e-10 4.58369e-08 -6.796793e-08 -3.015215e-08 -4.0223728e-07 -1.0144519e-08
2.2426082e-08 -6.027428e-07 -5.401651e-08 -1.315132e-07 -4.9076686e-08 1.0171127e-09 -3.1222417e-08 6.158953e-09
-1.3386828e-07 7.973052e-09 -7.3788016e-08 -1.9746016e-08 -5.1129003e-08 -1.1900053e-09 -3.6335646e-08 3.5326275e-09
4.1309676e-09 4.8742015e-09 2.0938838e-08 -8.252826e-08 -4.9848637e-08 -4.2993015e-08 -2.2894362e-07 -8.975676e-08
-2.8481475e-07 -1.2178887e-09 -6.408965e-08 7.929446e-09 1.6132661e-08 3.992722e-09 -6.7242406e-11 7.99106e-09
2.8951042e-09 -1.50954e-08 1.4170413e-08 -1.7435785e-09 -4.91036e-08 -1.8895143e-07 4.4405e-09 -3.792601e-09
-6.9403474e-09 7.0011614e-09 -4.6710955e-09 -3.908985e-08 -5.051959e-08 -5.993342e-08 -8.9817105e-09 -3.773905e-08
-1.3726679e-08 -2.8751292e-09 -9.800665e-08 -1.3371297e-08 -1.836044e-08 6.7985964e-09 -4.3149244e-09 -4.1404005e-09
-1.0705381e-07 1.6946587e-09 -3.94303e-08 1.0902241e-08 -5.8771242e-08 -7.067248e-08 -3.4560575e-08 -4.6881386e-08
-1.0688687e-07 -2.2003301e-09 -3.1269398e-09 -8.2267737e-10 6.7224434e-11 7.488586e-09 6.1639462e-09 -1.8980172e-08
-4.348997e-08 4.9424895e-09 9.721479e-11 5.5795946e-09 6.693452e-10 -2.5377627e-08 -9.816911e-10 6.4526566e-09
7.6547035e-09 -1.5392858e-09 4.2093253e-09 9.97957e-09 -4.3551957e-08 3.6098404e-09 1.898665e-09 -8.737682e-08
-4.9893516e-09 -9.152542e-09 -1.0364177e-07 -2.9548591e-08 -3.4449343e-08 -1.2934971e-08 4.9509716e-09 -1.4969277e-08
-3.4348037e-08 5.5210387e-09 -1.2909071e-07 7.5290885e-09 -9.592044e-09 -1.7334796e-07 -3.1795254e-11 -4.737064e-08
1.2790803e-08 2.7302102e-08 6.406965e-08 -2.0715602e-08 1.3225383e-08 2.595966e-08 -1.00602925e-07 3.520323e-08
1.6902376e-08 -3.1923893e-08 -8.958619e-08 2.9404413e-08 3.4153416e-08 -2.2844961e-08 -1.6008173e-08 1.1966152e-08
1.788888e-08 1.4009706e-08 2.3895636e-08 -1.3795162e-07 6.6807814e-08 -2.5500745e-08 2.331626e-08 -1.6992153e-08
3.484667e-08 4.128753e-08 -1.5301883e-11 -2.125381e-08 -2.5121192e-08 5.1033673e-08 3.6349928e-08 -2.9387923e-08
-6.317754e-08 3.8865572e-08 -7.665762e-09 4.8341388e-08 3.538614e-08 -1.7801211e-08 -3.2519026e-08 1.77883e-08
2.2314033e-08 2.5130642e-08 8.183457e-09 2.775667e-08 3.0057365e-08 1.99752e-08 4.1828464e-08 4.9836974e-08
5.9510917e-08 -2.034465e-08 4.9548216e-08 2.4692929e-08 2.8276245e-08 -2.6885607e-08 1.6764071e-08 -1.7598031e-08
00000000: a2d5 3fb4 4123 9533 ebbb f532 8e90 b9b2
00000010: 1c78 10b5 119c cd33 13d3 12b5 bfd0 6130
00000020: 0d85 3eb4 ff02 a9b3 41b5 c1b4 6c39 b733
00000030: 3509 d633 c15a 09b3 21a7 6133 885a adb4
00000040: 0e1d 36b4 cce3 20b4 7a07 76b5 942e 3cb5
00000050: 5566 8cb5 cdc2 89b3 a5f8 68b4 88f8 bbb1
00000060: afa2 2334 d5c1 fb33 bcd0 90af 3f6c 80b2
00000070: 5129 44b3 724c 8433 c2c1 1e34 8eb6 a1b3
00000080: f5dd beb4 636a 3eb5 8339 9730 1867 dc33
00000090: 4d48 6f33 b415 42b2 60f9 cbb3 5c44 05b4
000000a0: 42a9 2db4 b03f 51b4 7e37 a3b2 4b1e cab3
000000b0: e7ad 6932 5dda 1633 912f a9b4 3934 8d33
000000c0: 3171 9833 42a0 9ab2 de91 de33 47b9 3033
000000d0: 3d01 d0b4 1e87 6bb3 bc78 09b4 05d0 ca31
000000e0: 1d78 49b4 44a4 9eb4 8341 a6b4 7b41 e0b3
000000f0: e751 58b5 0b9a f633 4db6 0a33 b043 98b3
00000100: 94e4 9d2e ff84 3eb2 d844 8eb1 a6af 8cb0
00000110: 1067 beb4 42d3 a8b2 6d01 0f2f 0920 fbb2
00000120: 31f9 8ab3 a18f b3b3 a8fd 83b3 8185 fdb1
00000130: 9ee3 0db2 d913 6933 b1b0 cd33 5a92 1134
00000140: 19cb 08b4 3221 ae33 a1ad 9f33 22b8 24b5
00000150: abea 0eb4 e07a 05b4 e54b 8bb4 c5cd adb3
00000160: 6e33 0db4 fc0d a7b2 fbf5 3930 34de 4433
00000170: c4f5 91b3 a480 01b3 12f3 d7b4 1148 2eb2
00000180: 7aa3 c032 2bcc 21b5 c8ff 67b3 1336 0db4
00000190: 63c8 52b3 79ca 8b30 6919 06b3 b99e d331
000001a0: 6fbd 0fb4 dbf9 0832 6475 9eb3 f39d a9b2
000001b0: ef98 5bb3 978d a3b0 770f 1cb3 a4c2 7231
000001c0: 60f0 8d31 ee79 a731 fedc b332 643a b1b3
000001d0: 2819 56b3 52a7 38b3 8bd3 75b4 4dc0 c0b3
000001e0: a4e8 98b4 a662 a7b0 a8a1 89b3 133a 0832
000001f0: 1994 8a32 5b30 8931 1cde 93ae 0e49 0932
00000200: 36f3 4631 23ab 81b2 2372 7332 b7a2 efb0
00000210: fbe5 52b3 93e2 4ab4 0d93 9831 1250 82b1
00000220: f177 eeb1 de8e f031 647f a0b1 bfe3 27b3
00000230: e0fa 58b3 bfb4 80b3 fb4d 1ab2 8616 22b3
00000240: 93d2 6bb2 cf93 45b1 ba77 d2b3 96b7 65b2
00000250: 09b7 9db2 1699 e931 7a42 94b1 5943 8eb1
00000260: 74e5 e5b3 81e9 e830 135a 29b3 904c 3b32
00000270: aa6b 7cb3 9bc4 97b3 c16f 14b3 a15a 49b3
00000280: ae89 e5b3 9e34 17b1 b5e1 56b1 c622 62b0
00000290: fed3 932e 26a7 0032 a5ca d331 d709 a3b2
000002a0: bac9 3ab3 99d2 a931 10c7 d52e a2b6 bf31
000002b0: fbfc 3730 fefd d9b2 2fec 86b0 2bb6 dd31
000002c0: be81 0332 ce8e d3b0 9ea1 9031 9d72 2b32
000002d0: e20d 3bb3 fc10 7831 ab79 0231 eaa3 bbb3
000002e0: cd6e abb1 4e3d 1db2 aa91 deb3 0ad2 fdb2
000002f0: 74f5 13b3 9b38 5eb2 351d aa31 ca95 80b2
00000300: 1186 13b3 92b3 bd31 2f9c 0ab4 4859 0132
00000310: 41ca 24b2 8621 3ab4 46d6 0bae 9274 4bb3
00000320: 8cbe 5b32 f585 ea32 aa96 8933 17f2 b1b2
00000330: d935 6332 e5fd de32 0b0b d8b3 5c32 1733
00000340: b830 9132 b11c 09b3 8762 c0b3 fd94 fc32
00000350: 14b0 1233 9a3c c4b2 5882 89b2 b193 4d32
00000360: 10aa 9932 57af 7032 0f43 cd32 da1f 14b4
00000370: fc77 8f33 bb0c dbb2 ff48 c832 24f6 91b2
00000380: 52aa 1533 1f54 3133 c798 86ad 9f91 b6b2
00000390: 16ca d7b2 1e30 5b33 2b1f 1c33 ba70 fcb2
000003a0: 38ac 87b3 26ed 2633 61b2 03b2 eb9f 4f33
000003b0: 79fb 1733 47e9 98b2 0cab 0bb3 e3cc 9832
000003c0: 14ad bf32 dede d732 3997 0c32 906d ee32
000003d0: 6c18 0133 ee95 ab32 e2a6 3333 550c 5633
000003e0: f298 7f33 5cc2 aeb2 d7ce 5433 531c d432
000003f0: 1fe4 f232 13f2 e6b2 9500 9032 7b2a 97b2
