TSTE-R/Qcontrol-noisy-comparison/Noisy-10%/PINN_4090_noisy0.1/save_model_0223.ckpt-2300000.pt (torch, 264834 bytes, 24 tensors)

linears.0.weight f4 [100, 1]
-4.235736 19.862123 11.430013 15.0540905 -11.670852 -11.666439 17.701706 9.339466
-12.454565 17.871866 16.822191 -5.6410794 -4.68988 -15.937344 14.694237 -4.766798
-15.537946 -10.954022 6.171886 -2.7841918 2.295361 13.143804 15.840591 14.815625
17.169727 16.449013 -11.079554 14.568258 -6.749719 5.7044315 -2.8750067 -16.646933
-13.141152 21.470015 25.071793 -11.880824 10.723046 -3.0854356 6.780447 14.718098
12.289092 -4.384112 -5.796543 -6.0108685 -12.4046545 -6.6155667 -14.964409 15.811284
11.023049 17.88223 -8.4091215 -8.435013 15.527352 -3.633995 21.532402 -8.0003395
23.055302 13.5681305 11.021154 10.852519 10.214343 19.822489 -5.093662 -7.8878984
-10.585502 -4.9286103 -3.8259268 16.465054 17.661379 -9.254589 -6.1279354 -8.920213
20.121689 -5.697966 -4.483973 13.356202 -2.1570826 -12.799391 -9.513925 -15.831918
23.178291 -11.076783 -8.930564 -6.7826624 -10.005277 -15.970235 8.274883 -6.640813
-7.287683 -6.2378383 4.9627566 8.582619 5.6619596 22.02358 -12.474424 -14.9876995
19.262846 -3.6250346 12.479457 11.480646
00000000: 268b 87c0 a1e5 9e41 55e1 3641 8edd 7041
00000010: cfbb 3ac1 bca9 3ac1 189d 8d41 746e 1541
00000020: e645 47c1 95f9 8e41 d993 8641 b983 b4c0
00000030: 7f13 96c0 5cff 7ec1 981b 6b41 9c89 98c0
00000040: 6d9b 78c1 ad43 2fc1 1780 c540 3330 32c0
00000050: 32e7 1240 054d 5241 1073 7d41 cd0c 6d41
00000060: 9a5b 8941 9497 8341 da45 31c1 9617 6941
00000070: b3fd d7c0 b48a b640 1c00 38c0 eb2c 85c1
00000080: 2942 52c1 97c2 ab41 0893 c841 db17 3ec1
00000090: 9991 2b41 c777 45c0 6cf9 d840 547d 6b41
000000a0: 1fa0 4441 a54a 8cc0 487d b9c0 0959 c0c0
000000b0: 7779 46c1 b9b2 d3c0 386e 6fc1 05fb 7c41
000000c0: 695e 3041 cf0e 8f41 c38b 06c1 d0f5 06c1
000000d0: 0970 7841 6093 68c0 5c42 ac41 6401 00c1
000000e0: 4271 b841 1017 5941 a656 3041 eba3 2d41
000000f0: f36d 2341 7594 9e41 47ff a2c0 aa69 fcc0
00000100: 375e 29c1 2db7 9dc0 fcdb 74c0 6eb8 8341
00000110: 814a 8d41 cc12 14c1 0c18 c4c0 31b9 0ec1
00000120: 38f9 a041 bd55 b6c0 b57c 8fc0 01b3 5541
00000130: a40d 0ac0 4eca 4cc1 0939 18c1 894f 7dc1
00000140: 246d b941 813a 31c1 97e3 0ec1 920b d9c0
00000150: 9d15 20c1 1586 7fc1 ec65 0441 8a81 d4c0
00000160: b334 e9c0 5f9c c7c0 e7ce 9e40 6852 0941
00000170: c62e b540 4b30 b041 3e97 47c1 9ecd 6fc1
00000180: 4f1a 9a41 9100 68c0 dbab 4741 bab0 3741

linears.0.bias f4 [100]
0.7835179 0.9591588 0.32605326 0.65663385 2.127469 1.7230146 0.5699268 0.25255084
1.2844619 0.9002951 0.789497 1.0667113 0.8068198 1.7632737 0.6502806 0.7508319
1.4648833 2.1119263 0.07016422 0.34022498 -0.031199194 0.610793 0.63532174 0.7075418
0.83048296 0.74090374 2.1108384 0.54303724 1.4592395 0.003650244 0.19015156 2.7451367
1.7880663 0.92850053 1.0426874 2.121929 0.33264288 0.43476444 0.08575769 0.6682969
0.4031057 0.6126479 0.93929034 1.1969633 2.2485504 1.4108002 1.812399 0.74913317
0.5032197 0.7606244 1.466742 1.1698967 0.59780955 0.42980677 0.97648925 1.0652105
0.99541533 0.64337844 0.39631444 0.49851435 0.23008338 0.8493948 1.0018681 1.4956514
2.0352638 0.851067 0.6069306 0.6939911 0.9122603 1.1603113 1.0222782 1.3253574
0.90164083 1.0028709 0.6218951 0.58902013 0.24297749 1.5248613 1.4033004 2.0051308
0.9800011 2.0732727 1.6120775 1.3420866 1.8453076 2.5863836 0.115281865 1.1536584
1.1089017 1.2009629 0.006507475 0.3400257 0.015486736 0.86812544 1.4882145 1.9272853
0.88061523 0.57282096 0.37661794 0.3547316
00000000: a194 483f 6e8b 753f 74f0 a63e 2819 283f
00000010: 7428 0840 be8b dc3f b9e6 113f 584e 813e
00000020: 3f69 a43f bd79 663f 7a1c 4a3f ff89 883f
00000030: be8b 4e3f f4b2 e13f ca78 263f 8536 403f
00000040: 4c81 bb3f cd29 0740 42b2 8f3d f831 ae3e
00000050: 7495 ffbc ee5c 1c3f 72a4 223f 7621 353f
00000060: 889a 543f deab 3d3f fa17 0740 7d04 0b3f
00000070: 5cc8 ba3f ef38 6f3b 17b7 423e 52b0 2f40
00000080: 5bdf e43f 36b2 6d3f c876 853f afcd 0740
00000090: 2b50 aa3e 7299 de3e baa1 af3d 8115 2b3f
000000a0: df63 ce3e 7ed6 1c3f 5575 703f 1836 993f
000000b0: 40e8 0f40 1a95 b43f b1fc e73f 31c7 3f3f
000000c0: 02d3 003f 48b8 423f 34be bb3f 2dbf 953f
000000d0: 0c0a 193f a20f dc3e 33fb 793f d158 883f
000000e0: 8ad3 7e3f 73b4 243f bae9 ca3e 463d ff3e
000000f0: fa9a 6b3e f071 593f 373d 803f 8171 bf3f
00000100: c341 0240 87df 593f ce5f 1b3f 67a9 313f
00000110: e489 693f 1585 943f 03da 823f 50a5 a93f
00000120: efd1 663f 135e 803f 8434 1f3f 06ca 163f
00000130: 17cf 783e a82e c33f 599f b33f 1054 0040
00000140: 5ae1 7a3f 80b0 0440 8e58 ce3f 7ec9 ab3f
00000150: 0a33 ec3f 4f87 2540 e618 ec3d 14ab 933f
00000160: 7ef0 8d3f 27b9 993f a83c d53b d917 ae3e
00000170: 14bc 7d3c 783d 5e3f d07d be3f 49b1 f63f
00000180: 0070 613f 65a4 123f 11d4 c03e 619f b53e

linears.1.weight f4 [100, 100]
-0.34125444 -0.41472876 0.101415314 -0.07418346 -0.5561678 -0.305092 0.17316248 -0.13163517
-0.38787386 -0.37549964 -0.3151799 -0.50202215 -0.5665922 -0.48194885 -0.41268677 -0.41929755
-0.31174132 -0.24396573 0.15733081 -0.33765846 0.649545 -0.29942888 0.16279097 -0.566356
-0.40654376 -0.4860769 -0.25924876 -0.21693984 -0.48960567 0.44024247 -0.6047875 -0.40113932
-0.37284863 -0.47477087 -0.29497096 -0.39058432 0.14221686 -0.5071671 0.23681298 -0.3393869
0.045213558 -0.6275173 -0.5545831 -0.42562622 -0.41478145 -0.33320752 -0.3729414 -0.5671689
-0.40132007 -0.1620276 -0.2762437 -0.35450608 -0.14829291 -0.31348407 -0.42830408 -0.5022638
-0.54022807 -0.72969323 -0.3183986 -0.09714268 -0.06351171 -0.45610014 -0.38266084 -0.38822183
-0.47348565 -0.52386266 -0.19479823 -0.09937638 -0.31773403 -0.48856357 -0.47650182 -0.24629036
-0.31837177 -0.7072718 -0.46320242 0.031379335 -0.46829772 -0.5322419 -0.14510706 -0.12012088
-0.4504149 -0.27511653 -0.33088666 -0.36175963 -0.008427024 -0.01837663 -0.02270264 -0.013317133
-0.6611553 -0.3426551 0.52597153 -0.12818946 0.37292787 -0.33931974 -0.27613834 -0.5952401
-0.386103 -0.43964794 0.19309491 -0.26373386 -0.19529797 -0.5693687 0.07936539 -0.3552255
-0.08272378 0.039381634 -0.60731405 -0.14528346 0.22846459 -0.89098155 -0.48705548 -0.14015089
-0.23049493 0.10623394 -0.69142705 0.15798794 0.45726806 0.11556201 0.2993533 -0.2633383
0.96973735 -0.39751622 -0.52420527 -0.74879843 -1.0925967 -0.70541155 0.16235562 -0.26439044
-0.31220695 0.70272523 -0.65637624 0.09420942 -0.031133648 -0.7699526 -0.55777264 0.013085446
0.5234019 -0.4377131 0.10532358 -0.5793755 0.33701655 -0.23376252 -0.35074237 -0.35023987
-0.30035773 -0.16342703 0.26190943 -0.7306891 -0.3677658 -0.5428051 -0.07865985 0.056072526
-0.6858706 -0.26890093 -0.82404417 0.053903382 -0.63859683 -0.93185055 0.14234781 -0.37074098
0.33933917 -0.85148174 -0.15731677 0.0043181865 -0.030906726 -0.13787447 -0.0897992 -0.0727847
-1.1215419 0.18326616 -0.2678169 0.18648696 -0.67263657 -0.1551395 -0.35531867 -0.44125274
-0.106750704 0.019292058 0.18633614 0.09195127 -0.8177205 0.17734441 0.087082535 -0.070516124
0.11081074 0.0722356 0.54571605 -0.04156379 -0.38347423 -0.019675236 0.7955994 0.02066277
0.7626868 -0.7130764 0.27057347 0.07071803 -0.8507109 -0.12653314 0.32500938 0.30487952
-0.25253052 -0.32173216 0.0034384027 -0.2401818 -0.3419553 -0.43808508 -0.41180968 -0.22623177
-0.6638252 -0.15081254 -0.32481122 -0.19341403 -0.2736707 -0.18922608 -0.1920842 -0.22356796
-0.20852762 -0.26924586 0.34414026 0.014126912 0.15359627 -0.29887748 -0.28351355 -0.19388746
0.08535922 -0.1408896 -0.42390874 -0.10874488 -0.4141118 0.076733306 -0.22972588 -0.28670427
-0.291713 -0.4640544 -0.11067835 -0.43239772 0.23078765 -0.31323254 0.15589231 -0.43970302
0.18881392 -0.2380209 -0.22141565 -0.15489505 -0.39345506 -0.22954768 -0.44872352 -0.24085578
-0.07554868 -0.50094485 -0.45049396 -0.19150732 -0.068849236 -0.10855783 -0.12875222 -0.21050689
00000000: e7b8 aebe 5457 d4be d5b2 cf3d 7fed 97bd
00000010: 0361 0ebf 0535 9cbe 8151 313e 5fcb 06be
00000020: 6797 c6be 7d41 c0be 435f a1be 8684 00bf
00000030: 300c 11bf 00c2 f6be ae4b d3be 2bae d6be
00000040: 8f9c 9fbe 27d2 79be 541b 213e 92e1 acbe
00000050: 9548 263f be4e 99be adb2 263e b5fc 10bf
00000060: 8126 d0be 12df f8be 41bc 84be 7a25 5ebe
00000070: 98ad fabe 7667 e13e 5bd3 1abf 2262 cdbe
00000080: 04e6 bebe 2b15 f3be 6f06 97be abfa c7be
00000090: 4ca1 113e b4d5 01bf 1a7f 723e 1fc4 adbe
000000a0: da31 393d f9a4 20bf 28f9 0dbf aeeb d9be
000000b0: 3c5e d4be 2d9a aabe 2df2 bebe fb31 11bf
000000c0: d379 cdbe 90ea 25be d06f 8dbe d281 b5be
000000d0: 19da 17be fc80 a0be ac4a dbbe 5c94 00bf
000000e0: 634c 0abf 2dcd 3abf 2405 a3be bef2 c6bd
000000f0: 6d12 82bd f585 e9be 1fec c3be 03c5 c6be
00000100: b66c f2be dd1b 06bf 3079 47be d885 cbbd
00000110: 09ae a2be 0125 fabe 0cf8 f3be 8a33 7cbe
00000120: a001 a3be c40f 35bf de28 edbe 9e87 003d
00000130: b8c4 efbe 0141 08bf f296 14be f001 f6bd
00000140: c89c e6be 13dc 8cbe fa69 a9be 8f38 b9be
00000150: 8011 0abc 968a 96bc e3fa b9bc 1b30 5abc
00000160: 7941 29bf 7d70 afbe 12a6 063f 1944 03be
00000170: 67f0 be3e 51bb adbe 0162 8dbe a861 18bf
00000180: 4baf c5be 8919 e1be acba 453e 2008 87be
00000190: 31fc 47be 26c2 11bf 528a a23d 1ee0 b5be
000001a0: 166b a9bd a34e 213d ef78 1bbf 30c5 14be
000001b0: 9ff2 693e 5e17 64bf 565f f9be b783 0fbe
000001c0: dd06 6cbe 2e91 d93d 5d01 31bf 97c7 213e
000001d0: 0a1f ea3e c6ab ec3d d644 993e 47d4 86be
000001e0: b540 783f 3f87 cbbe 5132 06bf 41b1 3fbf
000001f0: 35da 8bbf da95 34bf 8d40 263e 2f5e 87be
00000200: 97d9 9fbe cde5 333f 4608 28bf def0 c03d
00000210: fe0b ffbc 9d1b 45bf 30ca 0ebf 5764 563c
00000220: abfd 053f ee1b e0be e4b3 d73d f451 14bf
00000230: 6f8d ac3e 715f 6fbe 8194 b3be a452 b3be
00000240: 7dc8 99be 6a59 27be fe18 863e 710e 3bbf
00000250: cd4b bcbe 46f5 0abf 6a18 a1bd 4eac 653d
00000260: 3795 2fbf 62ad 89be 8ff4 52bf cbc9 5c3d
00000270: 157b 23bf c28d 6ebf a0c3 113e c3d1 bdbe
00000280: ddbd ad3e b5fa 59bf a617 21be 937f 8d3b
00000290: 1a30 fdbc f72e 0dbe a5e8 b7bd 2510 95bd
000002a0: af8e 8fbf 20aa 3b3e 4c1f 89be 70f6 3e3e
000002b0: e931 2cbf e4dc 1ebe 54ec b5be e1eb e1be
000002c0: 1da0 dabd 610a 9e3c e7ce 3e3e f350 bc3d
000002d0: 2156 51bf c699 353e 5458 b23d c26a 90bd
000002e0: bef0 e23d 42f0 933d 0cb4 0b3f cb3e 2abd
000002f0: bc56 c4be f62d a1bc 67ac 4b3f f844 a93c
00000300: 713f 433f 2d8c 36bf 9b88 8a3e 9dd4 903d
00000310: 31c8 59bf e791 01be a167 a63e 2b19 9c3e
00000320: ae4b 81be 14ba a4be d356 613b 38f2 75be
00000330: c414 afbe b04c e0be b8d8 d2be 4da9 67be
00000340: 73f0 29bf 9a6e 1abe a84d a6be 540e 46be
00000350: 911e 8cbe 7bc4 41be b8b1 44be 00ef 64be
00000360: 4488 55be 98da 89be 2733 b03e 9074 673c
00000370: 5748 1d3e 7806 99be b028 91be 6f8a 46be
00000380: d1d0 ae3d 5d45 10be 910a d9be a3b5 debd
00000390: 7606 d4be 5a26 9d3d 433d 6bbe e7ca 92be
000003a0: 685b 95be 8a98 edbe 55ab e2bd 3c63 ddbe
000003b0: 9953 6c3e 0460 a0be 3ca2 1f3e c120 e1be
000003c0: 7058 413e c0bb 73be c9ba 62be cf9c 1ebe
000003d0: f172 c9be 8c0e 6bbe 17bf e5be e6a2 76be
000003e0: 44b9 9abd ec3d 00bf 25a7 e6be 7f1a 44be
000003f0: d400 8dbd 9153 debd 9fd7 03be 1e8f 57be

linears.1.bias f4 [100]
-0.43227163 -0.015131208 -0.26807436 -0.25212345 0.11874782 -0.3341572 -0.30563545 -0.4126654
-0.2421715 -0.29023373 -0.29939523 -0.4017605 -0.29913136 -0.34801474 0.6279211 -0.1961377
-1.3254108 0.26697436 0.2416736 0.27165672 -0.29836428 -0.093549676 -0.40786633 -0.366865
-0.31153154 0.95363873 -1.19317 -0.4985066 -0.30273303 -0.26860598 -0.0011867469 -0.27512208
0.7277934 -0.13863581 -0.38422313 -0.19987074 0.11133027 -0.32860672 -0.41897658 -0.20285602
-0.29082134 -0.5860637 0.09314463 -0.16665472 -0.52676135 0.019641653 0.56184864 -0.18825269
-0.6099457 -0.06463408 -0.48613593 0.13380365 -0.3101114 -0.3335762 -0.29989156 0.62875175
-0.5097016 -0.2661974 0.22964983 -0.5328789 -0.5920295 -0.40223095 -0.26817393 -0.3746361
-0.49447817 -0.21795379 -0.19724749 -0.39633664 -0.7952006 -0.38382062 -0.4432162 0.18671677
-0.7286599 -0.74524224 0.06704431 -0.7372808 -0.29362515 -0.36905572 -0.0870603 -0.19924057
-0.36278597 0.1611091 -0.07765137 -0.64326 0.9977508 -0.26007056 -0.17963123 -0.28856638
-0.35195926 0.022287117 -1.5896006 -0.391238 -0.2995058 -0.30288336 -0.04607337 -0.16723296
-0.15977134 -0.28397414 -0.25951543 0.1520608
00000000: b552 ddbe e3e8 77bc 0b41 89be 5316 81be
00000010: 0f32 f33d a716 abbe 407c 9cbe e148 d3be
00000020: cefb 77be 8499 94be 554a 99be 8db3 cdbe
00000030: bf27 99be fd2e b2be 70bf 203f 52d8 48be
00000040: 10a7 a9bf ddb0 883e 4979 773e 9716 8b3e
00000050: 34c3 98be f996 bfbd dbd3 d0be bbd5 bbbe
00000060: 1081 9fbe ab21 743f cbb9 98bf 423c ffbe
00000070: d3ff 9abe b986 89be 9e8c 9bba cddc 8cbe
00000080: ab50 3a3f 8cf6 0dbe e5b8 c4be eaaa 4cbe
00000090: 2001 e43d 243f a8be 1984 d6be 7db9 4fbe
000000a0: 89e6 94be 4508 16bf 9dc2 be3d 89a7 2abe
000000b0: d5d9 06bf 88e7 a03c 50d5 0f3f 50c5 40be
000000c0: 6725 1cbf df5e 84bd cfe6 f8be d303 093e
000000d0: ecc6 9ebe 80ca aabe 638b 99be e0f5 203f
000000e0: ce7b 02bf 074b 88be 5329 6b3e c06a 08bf
000000f0: 3f8f 17bf 37f1 cdbe 184e 89be 4ed0 bfbe
00000100: 3e2c fdbe 472f 5fbe 3ffb 49be a3ec cabe
00000110: 4492 4bbf 2384 c4be 3ced e2be ae32 3f3e
00000120: 7589 3abf 32c8 3ebf 874e 893d 6fbe 3cbf
00000130: 0956 96be dff4 bcbe ac4c b2bd b805 4cbe
00000140: 15bf b9be c9f9 243e ae07 9fbd b0ac 24bf
00000150: 996c 7f3f f827 85be 40f1 37be f9be 93be
00000160: 0134 b4be 7993 b63c 0878 cbbf 5950 c8be
00000170: d358 99be 8713 9bbe 6eb7 3cbd 1e3f 2bbe
00000180: 199b 23be 0f65 91be 35df 84be d4b5 1b3e

linears.2.weight f4 [100, 100]
1.1607865 -0.5021206 0.5994979 0.05843819 -0.80178726 0.0738453 0.7925928 -0.101990946
0.008546826 0.83219403 0.46682087 -0.68131495 0.4120828 -0.121023476 -0.14690688 -0.25068602
-4.573714 -0.16475773 -0.26671612 -0.20979546 0.3310348 0.03847464 0.8245267 0.9796811
0.26820108 0.30185297 -0.18665716 1.163506 0.9051274 -0.20636912 -1.7495408 -0.18974291
-0.138783 0.6643429 0.10067636 0.051962126 -0.07273156 0.1691005 -0.11982819 0.51168555
0.22492677 0.5585005 0.22922371 0.26869026 1.0260929 -0.037989493 -1.0884781 0.14282826
-0.32100713 0.388613 0.4606908 -0.024244513 0.7191362 -0.3655488 0.30098623 0.023965534
0.29120886 -0.18749635 -1.0000589 0.041501608 -0.92945194 0.7576842 0.042863455 1.0693661
1.1511774 0.51176137 -0.0044990303 0.015377462 -0.5059782 0.7184666 0.6651848 -0.058740456
-0.22154498 -0.1311856 0.54368687 0.4283988 0.053413123 0.61953294 0.71028847 0.19208287
-0.10854744 0.071756944 -0.1078714 0.36915314 -0.17265712 -0.021707173 0.6227452 0.9239668
0.5354379 0.084920116 0.03845575 0.17242329 0.8704705 -1.999378 -0.28836587 0.015805371
-0.014565715 0.17489877 0.50240666 0.05107114 0.11436658 0.60680306 -0.19870958 -0.17835438
0.1520661 -0.02446386 -0.2753564 0.07732191 0.021231217 0.45754105 -0.24396177 -0.44588235
0.66699106 0.040777754 -0.1867669 0.059397765 0.07854039 0.17849283 -0.5476298 -0.46805337
0.44698134 0.57601017 -0.45154294 0.18798164 0.14163195 -0.027415127 0.2618961 0.19937348
0.3504053 -0.0023957025 0.4329876 -0.41803518 -0.36170718 0.20981759 -0.062112417 -0.3122206
0.78060746 0.19400093 0.20807573 0.42425042 -0.3460432 0.51613843 -0.7217988 0.34472618
0.46133062 0.32737777 -0.30648598 0.32188457 -0.089663364 0.42766386 0.08934058 0.1113521
0.42125085 -0.2107132 -0.1947374 -0.20219468 0.30835167 0.14459376 -0.025653178 -0.077666715
0.23141237 0.24000548 -0.11787803 0.5302044 0.5218498 0.27097264 0.32388982 -0.008192242
0.21781504 0.4707063 0.060689807 0.82887125 0.11946538 0.018126603 0.0489223 0.3384154
-0.06947111 0.30189362 -0.08899012 -0.14744473 0.2329258 0.01788108 -0.33209157 0.027893554
-0.25296777 0.026686247 0.41509786 0.3611819 0.32343364 0.024842145 -0.1125226 0.2362329
0.2476435 0.08531732 0.46473908 -0.035708707 0.57301295 -0.0279707 0.3236079 0.073328406
1.0696093 -0.0027233276 0.4034495 -0.21063443 0.29643705 -0.16538006 0.9770153 -0.17593646
0.07488021 1.2288089 0.060488027 -0.46040475 1.0862664 -0.22705506 -0.4617728 -0.060900684
-0.019776592 -7.8701894e-05 -0.04392154 -0.6288818 0.08812931 0.19035076 0.07826672 1.323361
0.22043484 -0.28162232 1.1470604 1.2842711 1.1757758 0.0938648 -0.35040703 0.097445875
-0.6454818 0.48397428 -0.042823974 -0.28391805 0.27711838 -0.23188743 0.08890734 0.42231262
-0.057286687 0.50928384 -0.049239356 0.17674261 1.2483014 -0.005893272 -1.6012303 0.22582653
0.04490819 0.6996521 0.0011072856 -0.0285065 1.0258119 -0.17843461 -0.02227663 0.11294484
00000000: a794 943f fa8a 00bf b278 193f e25c 6f3d
00000010: ee41 4dbf 343c 973d 5de7 4a3f a1e0 d0bd
00000020: fd07 0c3c ab0a 553f 2503 ef3e a86a 2ebf
00000030: 84fc d23e 28db f7bd c26e 16be eb59 80be
00000040: dd5b 92c0 40b6 28be 048f 88be 9fd4 56be
00000050: 657d a93e 9697 1d3d 2f14 533f 61cc 7a3f
00000060: a751 893e 798c 9a3e 0e23 3fbe c4ed 943f
00000070: 6eb6 673f 6d52 53be f4f0 dfbf f74b 42be
00000080: 211d 0ebe 6012 2a3f 682f ce3d 3dd6 543d
00000090: 49f4 94bd ae28 2d3e 7b68 f5bd d3fd 023f
000000a0: 3453 663e e4f9 0e3f 9fb9 6a3e c591 893e
000000b0: 0357 833f df9a 1bbd 4053 8bbf 9241 123e
000000c0: 0c5b a4be 48f8 c63e aadf eb3e 6e9c c6bc
000000d0: 4f19 383f 3629 bbbe de1a 9a3e 5e53 c43c
000000e0: 5419 953e 0bff 3fbe ee01 80bf 97fd 293d
000000f0: 90f0 6dbf 97f7 413f 9791 2f3d fde0 883f
00000100: c859 933f cb02 033f 9a6c 93bb c0f1 7b3c
00000110: ca87 01bf 6ded 373f 8d49 2a3f d599 70bd
00000120: b0dc 62be 8555 06be 102f 0b3f 1657 db3e
00000130: b8c7 5a3d b699 1e3f 77d5 353f 5fb1 443e
00000140: 1f4e debd 4ef5 923d aeeb dcbd a401 bd3e
00000150: 07cd 30be 3ed3 b1bc 3b6c 1f3f 1789 6c3f
00000160: 7512 093f 99ea ad3d c783 1d3d bb8f 303e
00000170: 28d7 5e3f 9eeb ffbf b1a4 93be 447a 813c
00000180: 09a5 6ebc aa18 333e b99d 003f f92f 513d
00000190: 0739 ea3d 7257 1b3f 867a 4bbe 88a2 36be
000001a0: 37b7 1b3e 6f68 c8bc 84fb 8cbe f35a 9e3d
000001b0: 17ed ad3c d242 ea3e 1dd1 79be b14a e4be
000001c0: edbf 2a3f 9306 273d d23f 3fbe 124b 733d
000001d0: c9d9 a03d d3c6 363e 7731 0cbf b1a4 efbe
000001e0: bdda e43e 6775 133f a330 e7be 427e 403e
000001f0: f707 113e b095 e0bc 3f17 863e 9028 4c3e
00000200: 5368 b33e 3801 1dbb 8db0 dd3e b508 d6be
00000210: af31 b9be 6cda 563e 9769 7ebd 61db 9fbe
00000220: e4d5 473f 2ea8 463e ce11 553e 5a37 d93e
00000230: 932c b1be a621 043f cec7 38bf f37f b03e
00000240: 8733 ec3e 0f9e a73e bbeb 9cbe 0ece a43e
00000250: 6da1 b7bd c2f6 da3e 32f8 b63d 920c e43d
00000260: 31ae d73e 33c5 57be 3e69 47be 1f0c 4fbe
00000270: 45e0 9d3e 6310 143e 9d26 d2bc ba0f 9fbd
00000280: 5df7 6c3e ffc3 753e 096a f1bd 7abb 073f
00000290: f397 053f edbc 8a3e e3d4 a53e c138 06bc
000002a0: e80a 5f3e 6b00 f13e e095 783d e830 543f
000002b0: 44aa f43d 3e7e 943c c062 483d c944 ad3e
000002c0: df46 8ebd cd91 9a3e 7440 b6bd c0fb 16be
000002d0: 1a84 6e3e 587b 923c e807 aabe 0681 e43c
000002e0: fe84 81be 1e9d da3c b587 d43e d6ec b83e
000002f0: 1899 a53e c181 cb3c 4072 e6bd 0ae7 713e
00000300: 4296 7d3e d9ba ae3d 48f2 ed3e 4b43 12bd
00000310: fab0 123f cf22 e5bc efaf a53e 342d 963d
00000320: f5e8 883f db79 32bb ef90 ce3e 8db0 57be
00000330: 99c6 973e 6459 29be ad1d 7a3f b028 34be
00000340: cc5a 993d 9c49 9d3f 4bc2 773d 2cba ebbe
00000350: c70a 8b3f 1f81 68be 7c6d ecbe ff72 79bd
00000360: 8502 a2bc c20c a5b8 13e7 33bd 66fe 20bf
00000370: 247d b43d 4feb 423e 4d4a a03d e563 a93f
00000380: acb9 613e cd30 90be e0d2 923f ff62 a43f
00000390: d27f 963f 303c c03d 8d68 b3be b491 c73d
000003a0: 4c3e 25bf 7acb f73e 3168 2fbd b55d 91be
000003b0: 76e2 8d3e e673 6dbe 0d15 b63d 5c39 d83e
000003c0: 72a5 6abd 6d60 023f 35af 49bd 04fc 343e
000003d0: 57c8 9f3f 591c c1bb 1df5 ccbf 123f 673e
000003e0: a6f1 373d 661c 333f 5722 913a 7786 e9bc
000003f0: ce4d 833f 90b7 36be 7b7d b6bc a04f e73d

linears.2.bias f4 [100]
-1.624386 -0.62353307 -1.7132536 -1.7162732 -1.2618408 -0.6725216 -0.8750121 -1.8048737
-0.29289237 -0.59123665 -0.44397876 -0.88951474 -0.18424796 -0.7236236 -0.2635923 -0.8755119
-0.53202254 -0.42550144 -1.154894 -1.6447896 -0.11023836 -1.2199423 0.16148518 -1.4607697
-0.73340416 -2.158721 -1.6411505 -0.37211958 -0.98339087 -0.7029219 -0.6526152 -1.5610704
-0.5903096 -0.9046539 -1.2765568 0.41898072 -0.67843765 -0.8139657 -0.33275208 -0.7686295
-1.6122217 -1.892964 -0.4159842 -1.036515 -1.5820601 -0.7505303 -1.6142644 -0.10197147
-0.7830811 -0.60815525 0.63217515 -0.20979343 -0.6770382 -0.42936328 -1.9163139 -0.75373006
-1.6481905 -1.0180596 -0.20296504 -0.81882566 -0.35623217 -0.5219771 -1.6012795 -1.0116817
-1.3346938 -0.5985571 -1.6726456 -0.6397162 -0.5941617 -0.42675126 -0.75379837 -0.16089514
-0.09706774 -0.8123668 -0.66096115 -1.7301643 -0.9701528 -0.3248357 -0.8161946 -0.18097398
-1.541597 -0.46615073 -0.58918333 -1.4234183 -0.63663614 -1.1418056 -0.47687194 -2.1959202
-1.591084 -0.4437255 -1.8924174 -1.4637437 -0.6616565 -0.65137935 -1.1273313 -1.6184483
-0.46493897 -1.329385 -0.8520819 -0.6272089
00000000: e1eb cfbf dd9f 1fbf e54b dbbf d7ae dbbf
00000010: 0084 a1bf 602a 2cbf cb00 60bf 1a06 e7bf
00000020: fdf5 95be 495b 17bf 2f51 e3be 3db7 63bf
00000030: 7fab 3cbe 653f 39bf 92f5 86be 8c21 60bf
00000040: a132 08bf 53db d9be 91d3 93bf 7788 d2bf
00000050: a6c4 e1bd 1227 9cbf 5f5c 253e 80fa babf
00000060: 60c0 3bbf 7c28 0ac0 3811 d2bf 7586 bebe
00000070: 81bf 7bbf b1f2 33bf ca11 27bf 28d1 c7bf
00000080: 881e 17bf 6697 67bf 3766 a3bf a484 d63e
00000090: 17ae 2dbf 0e60 50bf 7b5e aabe e7c4 44bf
000000a0: 485d cebf a54c f2bf e2fb d4be 86ac 84bf
000000b0: f280 cabf c122 40bf 37a0 cebf 6bd6 d0bd
000000c0: 0178 48bf 10b0 1bbf 3bd6 213f 17d4 56be
000000d0: 6052 2dbf 81d5 dbbe c649 f5bf 74f4 40bf
000000e0: e8f7 d2bf c74f 82bf 11d6 4fbe 8f9e 51bf
000000f0: 1064 b6be 4ba0 05bf baf6 ccbf c97e 81bf
00000100: 3fd7 aabf 0a3b 19bf 4019 d6bf 71c4 23bf
00000110: fb1a 18bf 247f dabe eef8 40bf b2c1 24be
00000120: 74cb c6bd 45f7 4fbf c034 29bf 0676 ddbf
00000130: ef5b 78bf dd50 a6be 21f2 50bf 3e51 39be
00000140: 0d53 c5bf 4fab eebe b8d4 16bf 9232 b6bf
00000150: 96fa 22bf b026 92bf 8f28 f4be f589 0cc0
00000160: a4a8 cbbf fd2f e3be bc3a f2bf f45b bbbf
00000170: 5262 29bf ccc0 26bf 644c 90bf 5029 cfbf
00000180: 7b0c eebe 4a29 aabf 0a22 5abf c390 20bf

linears.3.weight f4 [5, 100]
2.8650742 0.75365305 0.034923278 -0.10779753 0.034862075 -0.057583854 -3.838215 -2.2293115
-2.408809 -1.413211 0.023995802 0.008040483 0.023874383 0.08456334 0.037632424 1.1140155
0.20995064 0.51220274 -0.16878581 -0.056960464 -0.03900089 -0.0977624 -0.03983266 -0.31476423
0.52421105 -0.02906432 -0.079413295 -1.8573283 1.4574214 -3.3631172 0.16060704 -0.6230454
0.24827105 -0.023997203 4.196067 0.09417873 0.6655196 -0.4489572 0.403838 -3.1539037
0.72864383 -0.08998391 -0.10475196 -0.013574391 0.06488119 -0.261128 2.278821 0.11121129
-0.18206316 -0.04470585 0.07643794 0.06652091 -0.8538418 -0.27106932 -0.07603602 -0.0732484
0.13688596 0.10920373 0.23410341 -0.049823035 0.5328929 -0.8453162 -0.11980787 0.36465025
0.53236955 0.3583396 -0.060468018 0.044496536 0.27016073 -0.076386735 0.54273635 0.0076313554
2.1644883 0.21975641 -0.95078444 -0.20715262 -0.115807384 -0.04802583 -0.04945186 0.0067234756
0.037261315 0.22128288 0.08934019 0.026464572 -0.073044345 -0.1663638 -0.49336332 0.35332298
0.1535304 -0.05528278 0.022928929 1.0839598 -0.640302 -0.68964946 -0.41162348 0.049941175
-0.25825158 -0.010734908 -0.024974287 0.05916423 0.033735663 0.34994674 -0.10776308 -0.12899111
-0.00016709031 -0.056679394 0.069936335 -0.017907266 -0.1031946 0.010013705 -0.00032213255 -0.00526158
-0.00010878418 0.0068938886 -8.981958e-05 -0.0024197444 -0.00067875587 -0.11263441 0.007912427 -0.097274564
0.0001471866 0.0744298 0.00022501934 0.012265674 -0.008385462 -0.022893222 -0.08982552 -0.026979728
0.016975023 -0.07913664 0.02436927 0.21863975 0.042697947 0.0021260038 0.005900675 0.0009102988
0.12788196 -0.020031037 -0.300139 0.05718891 0.070537046 -0.049389042 0.00036853738 6.55485e-05
-0.18641622 -0.23964344 -0.030008689 0.05652268 0.016472004 0.033142034 0.01680592 -0.001390921
0.027724195 -0.22146496 -0.07398715 -2.3164122e-05 0.017454483 -0.007440111 -0.02404032 -0.029947503
0.038500976 0.14093004 -0.119185805 0.44268495 -0.09001107 0.15656278 -0.11125957 0.03311632
-0.008804552 0.00031865234 -0.11526797 -0.02624976 0.012171035 0.036946364 0.020319188 -0.032318655
0.00043964802 0.00016176398 0.11031735 0.0004887657 -0.062932596 0.046555128 -0.00048394152 0.048543833
0.013558771 -0.057991352 -0.07455717 0.04284906 -0.00089735 0.049858425 -0.0032376258 -0.060872234
0.065543965 0.030206898 -0.013014589 -0.122240245 0.035592567 0.00013335499 0.07243506 0.03359856
3.553227 -0.5394268 -0.29194278 -0.19004874 2.2161176 -0.43653268 23.892996 -2.6355999
0.50082606 1.3865767 -1.5565641 -0.0648428 1.4360656 -0.5554862 1.2885106 -4.581907
1.9336885 -0.83508146 -3.771402 -0.41411945 -0.7867359 2.6463974 -1.2932986 3.104859
-2.7122226 -2.4858992 -0.4507205 0.2977203 -3.5213728 -3.5893097 0.10314026 0.18741669
0.7723627 0.022968857 -2.329468 3.3615203 -13.658337 -0.46976337 -1.050925 0.5649242
-1.334271 -0.17100507 -5.74689 3.4054105 -0.3055461 -9.715742 1.0817229 -3.053828
-1.0754615 0.16417871 -2.319057 1.6404743 -0.57522005 4.86361 -0.14331813 -2.3161871
00000000: 605d 3740 68ef 403f b60b 0f3d f4c4 dcbd
00000010: 89cb 0e3d 0cdd 6bbd 51a5 75c0 0aad 0ec0
00000020: ed29 1ac0 19e4 b4bf d892 c43c 3bbc 033c
00000030: 3694 c33c 8b2f ad3d 7524 1a3d 0f98 8e3f
00000040: 4dfd 563e b81f 033f 30d6 2cbe 604f 69bd
00000050: 66bf 1fbd a737 c8bd 9227 23bd c728 a1be
00000060: b232 063f 4c18 eebc 70a3 a2bd efbc edbf
00000070: c98c ba3f 503d 57c0 2c76 243e e77f 1fbf
00000080: c43a 7e3e c895 c4bc 2e46 8640 c7e0 c03d
00000090: 7e5f 2a3f b8dd e5be dbc3 ce3e 8fd9 49c0
000000a0: 6788 3a3f 7c49 b8bd 3288 d6bd 1f67 5ebc
000000b0: 6ee0 843d 92b2 85be 34d8 1140 bfc2 e33d
000000c0: c46e 3abe 7b1d 37bd 7f8b 9c3d 1d3c 883d
000000d0: 6095 5abf 99c9 8abe c6b8 9bbd 4203 96bd
000000e0: d52b 0c3e 35a6 df3d ceb8 6f3e 3d13 4cbd
000000f0: ab6b 083f a466 58bf d45d f5bd 70b3 ba3e
00000100: 5f49 083f 4a78 b73e 50ad 77bd 0042 363d
00000110: 8252 8a3e a670 9cbd c5f0 0a3f 7310 fa3b
00000120: fa86 0a40 d307 613e 9c66 73bf d11f 54be
00000130: 6c2c edbd bcb6 44bd 098e 4abd 9a50 dc3b
00000140: 529f 183d fb97 623e fdf7 b63d 3bcc d83c
00000150: 4698 95bd 465b 2abe 1e9a fcbe c0e6 b43e
00000160: 1337 1d3e 3270 62bd 73d5 bb3c 32bf 8a3f
00000170: d5ea 23bf de8c 30bf 50c0 d2be 1e8f 4c3d
00000180: 8d39 84be 78e1 2fbc e096 ccbc 3156 723d
00000190: 682e 0a3d 382c b33e e4b2 dcbd 3f16 04be
000001a0: f734 2fb9 a728 68bd c83a 8f3d 42b2 92bc
000001b0: b157 d3bd 8610 243c e6e3 a8b9 5569 acbb
000001c0: 1023 e4b8 21e6 e13b 855d bcb8 9394 1ebb
000001d0: 89ee 31ba dfac e6bd 20a3 013c e337 c7bd
000001e0: 1a56 1a39 a76e 983d 2bf3 6b39 f7f5 483c
000001f0: 2d63 09bc 918a bbbc 71f6 b7bd 9704 ddbc
00000200: 340f 8b3c 6412 a2bd 10a2 c73c 19e3 5f3e
00000210: 0be4 2e3d 6d54 0b3b 735a c13b 1ea1 6e3a
00000220: 7df3 023e 2118 a4bc d2ab 99be eb3e 6a3d
00000230: ba75 903d 2a4c 4abd 4038 c139 1577 8938
00000240: e5e3 3ebe 1765 75be c8d4 f5bc 5384 673d
00000250: 4cf0 863c f1bf 073d 92ac 893c 904f b6ba
00000260: da1d e33c b6c7 62be 9386 97bd 9350 c2b7
00000270: b4fc 8e3c 2dcc f3bb 35f0 c4bc 7754 f5bc
00000280: 33b3 1d3d f74f 103e b017 f4bd 9aa7 e23e
00000290: b957 b8bd fe51 203e 0fdc e3bd faa4 073d
000002a0: f840 10bc cb10 a739 9d11 ecbd bd09 d7bc
000002b0: 0569 473c 1255 173d 6d74 a63c 9160 04bd
000002c0: 8f80 e639 309f 2939 10ee e13d 8320 003a
000002d0: cee2 80bd 97b0 3e3d 88b9 fdb9 e6d5 463d
000002e0: 9c25 5e3c 5788 6dbd 6eb1 98bd 7f82 2f3d
000002f0: 243c 6bba 5938 4c3d 592e 54bb 2a55 79bd
00000300: ea3b 863d 7574 f73c 253b 55bc 1859 fabd
00000310: 83c9 113d 35d5 0b39 d558 943d a59e 093d
00000320: 1268 6340 e017 0abf 8679 95be 239c 42be
00000330: dfd4 0d40 3681 dfbe db24 bf41 abad 28c0
00000340: 2336 003f 587b b13f 7e3d c7bf 4dcc 84bd
00000350: ffd0 b73f 5834 0ebf eaed a43f fb9e 92c0
00000360: 1b83 f73f e6c7 55bf a65e 71c0 7707 d4be
00000370: 8667 49bf 935e 2940 cf8a a5bf 03b6 4640
00000380: 0e95 2dc0 f918 1fc0 d6c4 e6be cc6e 983e
00000390: 2c5e 61c0 40b7 65c0 333b d33d 29ea 3f3e
000003a0: 90b9 453f 2f29 bc3c 0116 15c0 2623 5740
000003b0: 8c88 5ac1 d384 f0be b684 86bf df9e 103f
000003c0: 64c9 aabf f41b 2fbe 86e6 b7c0 3ff2 5940
000003d0: 8a70 9cbe ae73 1bc1 e575 8a3f eb71 43c0
000003e0: b9a8 89bf 771e 283e 6e6b 14c0 10fb d13f
000003f0: 9f41 13bf b1a2 9b40 fdc1 12be 693c 14c0

linears.3.bias f4 [5]
0.0020555255 -0.029863013 0.010982369 -0.031295802 0.0015229061
00000000: ffb5 063b 47a3 f4bc 65ef 333c 0730 00bd
00000010: 409c c73a

exp_avg f4 [100, 1]
-8.227736e-08 -2.0174396e-07 -7.131515e-07 -4.9816254e-07 2.0703261e-07 -3.5728164e-07 -7.283036e-07 5.178808e-08
1.5392945e-07 -2.2500544e-07 -4.75958e-07 -3.0364262e-08 -2.2259147e-07 6.6228597e-07 -1.9572435e-07 -8.106332e-08
3.8899174e-07 1.038265e-06 -2.8580794e-07 2.0476052e-07 3.2791485e-07 -2.8844045e-08 -4.2554876e-07 -1.4861905e-07
-5.126504e-08 -2.428534e-07 7.75502e-07 -3.302055e-07 6.193834e-07 4.6137004e-07 -3.018797e-07 8.7908467e-07
-4.1302349e-07 -4.0896415e-07 -1.5404828e-07 6.6957887e-07 -1.1406183e-06 -4.028364e-07 -4.7082196e-07 -1.8417535e-07
-3.8449676e-07 -3.8547415e-07 -3.1505564e-07 2.3912787e-07 5.699037e-07 4.5593322e-07 1.9134241e-07 -3.5726487e-07
-8.884279e-08 -1.7591219e-07 3.9316024e-08 -4.1889672e-07 -3.4771108e-07 2.4669302e-07 -3.343245e-07 -1.1676796e-07
-4.2928048e-07 -1.2097227e-07 -3.140458e-07 -6.0117245e-08 -5.443287e-07 -5.134067e-07 3.3980288e-07 6.4282494e-07
5.077455e-07 -3.2065643e-07 -1.1495634e-07 -1.6515831e-07 -2.1470129e-07 -2.0909533e-07 -1.8191503e-07 -5.1692666e-07
-2.7353087e-07 -1.07866605e-07 -2.727361e-07 -3.4495972e-08 1.7525305e-07 7.243268e-07 -6.7817183e-07 -1.54912e-08
-4.7774324e-07 1.0339013e-06 9.327572e-08 -3.6930217e-08 -1.5211201e-07 5.326865e-07 -5.5740776e-07 4.3204844e-07
-1.217295e-07 3.9518554e-07 4.2575164e-07 -9.973401e-07 4.960117e-07 -7.0717084e-07 1.1384416e-07 -3.3202267e-07
-3.7546644e-07 -1.3471501e-07 -8.551949e-07 -6.889285e-07
00000000: 75b0 b0b3 f59e 58b4 666f 3fb5 78b9 05b5
00000010: b14c 5e34 6ad0 bfb4 a480 43b5 996d 5e33
00000020: ce47 2534 0699 71b4 2b87 ffb4 dc69 02b3
00000030: 7a01 6fb4 f2c7 3135 4d28 52b4 0815 aeb3
00000040: 9ed6 d034 845a 8b35 2571 99b4 25dc 5b34
00000050: 460c b034 bac4 f7b2 fa76 e4b4 1894 1fb4
00000060: 822e 5cb3 8461 82b4 172c 5035 1947 b1b4
00000070: b443 2635 37b2 f734 0812 a2b4 3dfa 6b35
00000080: 84bd ddb4 9b8f dbb4 7868 25b4 1cbd 3335
00000090: 5917 99b5 6a45 d8b4 47c5 fcb4 bcc1 45b4
000000a0: d56c ceb4 2af3 ceb4 eb24 a9b4 7c61 8034
000000b0: 7cfb 1835 fcc6 f434 cd73 4d34 1cce bfb4
000000c0: d7c9 beb3 60e2 3cb4 6ddc 2833 bae4 e0b4
000000d0: 0cad bab4 3b71 8434 367d b3b4 ddc1 fab3
000000e0: dc77 e6b4 9be4 01b4 209a a8b4 ce19 81b3
000000f0: fc1d 12b5 0ad1 09b5 276e b634 988e 2c35
00000100: 014c 0835 af26 acb4 ebdd f6b3 5f56 31b4
00000110: a488 66b4 b083 60b4 6c54 43b4 eec2 0ab5
00000120: ccd9 92b4 4ba4 e7b3 906c 92b4 b928 14b3
00000130: 312d 3c34 5c6f 4235 9d0b 36b5 8211 85b2
00000140: 443e 00b5 94c4 8a35 df4e c833 349d 1eb3
00000150: 3b54 23b4 f0fd 0e35 c5a0 15b5 49f4 e734
00000160: c0b4 02b4 e329 d434 dc92 e434 58dc 85b5
00000170: aa25 0535 69d4 3db5 7d7a f433 d940 b2b4
00000180: b793 c9b4 2ea6 10b4 8c90 65b5 ceee 38b5

exp_avg_sq f4 [100, 1]
9.925861e-12 3.8934e-11 3.2281813e-10 5.1425038e-11 7.020259e-11 2.4812108e-10 5.3667258e-11 1.7995388e-11
1.4804061e-10 2.2680288e-11 2.7895627e-11 3.0025333e-11 2.0408973e-11 3.4822495e-10 1.9687961e-11 1.2959764e-11
9.776768e-11 1.409528e-10 2.2897712e-10 4.5275676e-11 1.5646302e-11 2.1221436e-11 3.4041964e-11 3.6827416e-11
2.7211811e-11 2.9215304e-11 8.3659836e-11 3.3811703e-11 6.944517e-11 1.2543436e-10 2.475093e-11 1.0788962e-10
1.2240182e-10 3.3028583e-11 3.1689953e-11 5.213695e-11 6.549112e-10 4.9091446e-11 2.3712313e-10 3.3590422e-11
1.6230589e-10 4.081997e-11 3.50082e-11 4.6238624e-11 4.990728e-11 7.8507166e-11 3.2508554e-10 3.845899e-11
2.9884928e-11 2.6800154e-11 2.748967e-11 7.777831e-11 2.7491233e-11 9.94755e-11 4.017724e-11 1.10654624e-10
4.2098235e-11 4.637459e-11 6.9684564e-11 2.1846153e-11 7.699128e-11 6.398657e-11 6.169872e-11 7.9130126e-11
5.3972146e-11 4.986221e-11 1.0856386e-11 3.8351884e-11 2.3835116e-11 1.9422948e-10 2.8489157e-11 1.16104557e-10
2.2278384e-11 4.754825e-11 2.9268043e-11 2.1579145e-11 1.3654587e-11 3.338745e-10 2.1383703e-10 1.4911379e-10
4.5060726e-11 1.7334995e-10 2.5926183e-11 5.0362405e-11 4.8559032e-11 5.2415464e-11 3.919144e-10 7.379045e-11
3.4841588e-11 7.7186355e-11 7.018251e-11 1.02918514e-10 7.71538e-11 4.681994e-11 4.3944842e-10 1.300033e-10
5.0100108e-11 1.24169034e-11 2.800651e-10 9.689836e-11
00000000: 1b9e 2e2d c93b 2b2e 9d78 b12f 722b 622e
00000010: 8b60 9a2e f067 882f f607 6c2e 034a 9e2d
00000020: bac5 222f 787f c72d 5e5f f52d 850d 042e
00000030: ec84 b32d 4e70 bf2f 592d ad2d 97fd 632d
00000040: 50fe d62e b0fa 1a2f 54c3 7b2f e11f 472e
00000050: 57a0 892d 6daa ba2d d8b7 152e fcf7 212e
00000060: 8d5b ef2d 827d 002e 4df8 b72e 98b4 142e
00000070: 28b6 982e a2ea 092f 24b6 d92d 7540 ed2e
00000080: 0d95 062f e142 112e b75f 0b2e fd4c 652e
00000090: 4705 3430 0ee8 572e 1d5c 822f 74bb 132e
000000a0: 0c75 322f 3387 332e bbf7 192e 105c 4b2e
000000b0: 9a7e 5b2e 9ba3 ac2e b9b7 b22f f924 292e
000000c0: 706f 032e 95bc eb2d 3ccd f12d 4c09 ab2e
000000d0: c1d0 f12d babf da2e 8db3 302e 0455 f32e
000000e0: 6626 392e 26f5 4b2e ec3c 992e 2a29 c02d
000000f0: 3d4e a92e 3db5 8c2e 4bad 872e 4d02 ae2e
00000100: 3c5f 6d2e dc4b 5b2e d1fc 3e2d 62ac 282e
00000110: e9a7 d12d bd8e 552f e197 fa2d 0e51 ff2e
00000120: 76f6 c32d 921e 512e e3b8 002e eacf bd2d
00000130: cb36 702d a98c b72f c61d 6b2f cdf3 232f
00000140: de2d 462e ac99 3e2f 930c e42d 077f 5d2e
00000150: 9c90 552e 9186 662e 0c75 d72f 5544 a22e
00000160: 243c 192e 0ebc a92e 3e55 9a2e f951 e22e
00000170: baa9 a92e 91ea 4d2e de96 f12f adf0 0e2f
00000180: b557 5c2e c370 5a2d a9f7 992f ed14 d52e

exp_avg f4 [100]
-1.7757832e-06 -1.6673457e-05 -5.3332815e-06 -1.1636169e-05 1.0547391e-05 2.7425344e-06 -3.466252e-05 -6.6074317e-06
7.908826e-06 -1.521567e-05 -1.9163399e-05 1.6711556e-06 -1.6337156e-06 1.9216468e-05 -1.2227871e-05 -1.9972658e-06
1.0684132e-05 1.410433e-05 5.168413e-06 6.8115395e-07 8.628032e-06 -8.842585e-06 -2.5492454e-05 -1.39038375e-05
-1.3651006e-05 -1.6154709e-05 1.2691405e-05 -1.4595952e-05 1.034635e-05 1.3254524e-05 -3.2966743e-06 1.7349576e-05
4.522174e-06 -2.0161993e-05 -1.6265863e-05 1.3258424e-05 -5.1528373e-06 -3.2643936e-06 -2.6301393e-06 -1.46516795e-05
-1.9587528e-06 -2.9064092e-06 -2.3301686e-06 6.1719575e-06 1.0587459e-05 8.177034e-06 1.1208122e-05 -1.7458047e-05
-8.333498e-06 -1.6612512e-05 5.4980155e-06 1.1685541e-06 -1.2916746e-05 1.0441769e-06 -2.2854922e-05 3.56442e-06
-2.397571e-05 -1.3472606e-05 -2.4077453e-06 -8.458694e-06 -6.1562923e-06 -2.6991589e-05 5.9153344e-06 1.0883573e-05
8.909649e-06 -2.4337091e-06 -2.9164596e-06 -8.713561e-06 -1.5270509e-05 4.7610474e-06 -7.854587e-07 1.1183049e-06
-1.7674522e-05 1.5644347e-06 -2.4986007e-06 -1.2042432e-05 -1.1949172e-06 1.6192504e-05 -1.7335194e-06 9.258815e-06
-2.5800764e-05 1.744888e-05 4.1548146e-06 4.2783777e-06 5.050004e-06 1.04263745e-05 2.9529951e-06 6.8544123e-06
6.5220024e-07 6.3072384e-06 1.2868638e-05 -1.1683539e-05 1.682663e-05 -2.9527533e-05 9.055953e-06 9.95313e-06
-2.2389964e-05 -3.512607e-06 -7.639167e-06 -5.3474164e-06
00000000: 7257 eeb5 fadd 8bb7 8af4 b2b6 f738 43b7
00000010: b3f4 3037 620c 3836 9962 11b8 68b5 ddb6
00000020: 26b0 0437 ce46 7fb7 16c1 a0b7 784c e035
00000030: 0a46 dbb5 0d33 a137 4e26 4db7 c408 06b6
00000040: ff3f 3337 a3a1 6c37 546c ad36 8bd8 3635
00000050: 1ec1 1037 9d5a 14b7 a1d8 d5b7 8744 69b7
00000060: a006 65b7 f983 87b7 2bed 5437 23e1 74b7
00000070: 3c95 2d37 bf5f 5e37 6f3c 5db6 ee89 9137
00000080: 2ebd 9736 8d21 a9b7 ad72 88b7 7f70 5e37
00000090: 89e6 acb6 db11 5bb6 7381 30b6 7cd0 75b7
000000a0: 1e73 03b6 bb0b 43b6 fe5f 1cb6 b618 cf36
000000b0: caa0 3137 1830 0937 840a 3c37 df72 92b7
000000c0: 1ad0 0bb7 195b 8bb7 987b b836 37d7 9c35
000000d0: 00b5 58b7 a525 8c35 92b8 bfb7 4534 6f36
000000e0: 721f c9b7 6708 62b7 c094 21b6 d0e9 0db7
000000f0: 2692 ceb6 ff6b e2b7 567c c636 9798 3637
00000100: a77a 1537 ce52 23b6 65b8 43b6 7630 12b7
00000110: 2b19 80b7 16c1 9f36 50d8 52b5 aa18 9635
00000120: bf43 94b7 91f9 d135 a2ad 27b6 da09 4ab7
00000130: 0b61 a0b5 23d5 8737 46ab e8b5 4f56 1b37
00000140: b86e d8b7 2f5f 9237 9669 8b36 fc8e 8f36
00000150: 3473 a936 f0ec 2e37 122c 4636 f4fe e536
00000160: dc12 2f35 c4a2 d336 61e6 5737 6b04 44b7
00000170: ea26 8d37 e5b1 f7b7 06ef 1737 5efc 2637
00000180: 15d2 bbb7 21ba 6bb6 f929 00b7 f56d b3b6

exp_avg_sq f4 [100]
9.413472e-09 1.3109975e-07 1.8098123e-07 8.219927e-08 6.56584e-08 7.399283e-08 4.4454436e-07 1.0987256e-07
1.2892805e-07 1.1896751e-07 1.2833917e-07 1.6163813e-08 7.8086675e-09 1.566873e-07 7.921337e-08 1.6632413e-08
9.951121e-08 5.1367515e-08 2.0206782e-07 9.9820054e-09 3.103069e-08 6.90852e-08 1.9694149e-07 1.4085276e-07
1.5275168e-07 1.2345386e-07 5.931059e-08 1.3027879e-07 2.343094e-08 7.7579884e-08 2.9112337e-08 8.22724e-08
9.084131e-08 2.2852464e-07 2.3223699e-07 4.7144134e-08 2.379358e-07 2.7716531e-08 9.6904415e-08 9.9280406e-08
6.503952e-08 1.8290544e-08 2.2072495e-08 2.3797746e-08 3.5321143e-08 2.8175895e-08 1.3755697e-07 1.568942e-07
4.7571476e-08 1.4819919e-07 2.9566603e-08 5.039374e-08 1.1982233e-07 2.0257797e-08 3.580219e-07 5.8906043e-08
3.4339612e-07 1.8750274e-07 7.7104914e-08 4.1762437e-08 2.1936937e-07 4.976777e-07 1.8366208e-08 4.791501e-08
3.5431768e-08 2.3778988e-08 1.1715581e-08 9.510309e-08 1.0932895e-07 7.942314e-08 1.8866677e-08 5.5851768e-08
1.2376799e-07 2.7276249e-08 1.8222616e-08 7.164412e-08 1.2842271e-08 1.2641178e-07 7.214495e-08 1.1902076e-07
3.7617167e-07 6.4802485e-08 2.3996927e-08 3.1580065e-08 4.1000483e-08 5.3848318e-08 2.4485612e-07 2.880419e-08
2.2119982e-08 2.9018715e-08 6.980727e-08 3.8664414e-08 1.1605218e-07 2.5741338e-07 1.3707174e-07 1.4398324e-07
3.15796e-07 1.5338076e-08 2.3244024e-07 1.5089154e-07
00000000: e3b8 2132 6dc4 0c34 be53 4234 8785 b033
00000010: 1600 8d33 fde5 9e33 b6a9 ee34 14f3 eb33
00000020: 796f 0a34 157b ff33 9acd 0934 9ad8 8a32
00000030: e226 0632 e13d 2834 031c aa33 10df 8e32
00000040: deb2 d533 2e9f 5c33 fbf7 5834 537d 2b32
00000050: 9b46 0533 fe5b 9433 dd76 5334 503d 1734
00000060: 1004 2434 bd8e 0434 afbc 7e33 c3e2 0b34
00000070: 2f45 c932 fe99 a633 b512 fa32 bbad b033
00000080: 8a14 c333 6060 7534 d15c 7934 867b 4a33
00000090: 4b7b 7f34 4c15 ee32 c419 d033 fb33 d533
000000a0: dbab 8b33 551d 9d32 ee99 bd32 cc6b cc32
000000b0: 02b4 1733 7307 f232 5fb3 1334 c076 2834
000000c0: 6451 4c33 af20 1f34 a6f9 fd32 8170 5833
000000d0: 83a8 0034 5e03 ae32 2836 c034 e1ff 7c33
000000e0: 015c b834 5c54 4934 e094 a533 495e 3333
000000f0: cb8b 6b34 2798 0535 b8c3 9d32 1ccb 4d33
00000100: a42d 1833 8c42 cc32 ac45 4932 7a3b cc33
00000110: 3ac8 ea33 558f aa33 4310 a232 abe1 6f33
00000120: 16e5 0434 1b4d ea32 f587 9c32 c6da 9933
00000130: e8a0 5c32 cebb 0734 1bee 9a33 5b98 ff33
00000140: a4f4 c934 8b29 8b33 cd21 ce32 a6a2 0733
00000150: 8218 3033 da46 6733 c574 8334 156d f732
00000160: 5b02 be32 d444 f932 f4e8 9533 f90f 2633
00000170: 5c38 f933 a032 8a34 fe2d 1334 d099 1a34
00000180: ac8a a934 c9c0 8332 b094 7934 c004 2234

exp_avg f4 [100, 100]
-4.951159e-18 -1.3531439e-18 1.3005172e-18 1.5015901e-19 -1.7848758e-17 -1.35391235e-17 1.6901921e-18 9.935881e-19
-8.739564e-18 -1.2434242e-18 -4.9314507e-19 -7.2940365e-18 -5.139503e-18 -1.3460403e-17 9.145298e-20 -4.7004646e-18
-1.0013712e-17 -1.7639476e-17 8.566209e-19 -1.8780972e-18 4.0140542e-19 -7.8329616e-20 5.66174e-19 -3.4147476e-19
-7.744592e-19 -1.6161513e-19 -1.7633327e-17 9.014838e-19 -1.0916466e-17 9.948958e-19 -1.0262601e-18 -2.4719302e-17
-1.4149426e-17 -7.0754326e-19 -1.2013366e-18 -1.779143e-17 1.005618e-18 -2.4670101e-18 9.689616e-19 -4.5672374e-20
1.115804e-18 -3.674068e-18 -6.2023173e-18 -8.456578e-18 -1.9154803e-17 -1.0450851e-17 -1.4201131e-17 -4.1349497e-19
1.94932e-20 5.462324e-20 -1.1009399e-17 -8.136668e-18 7.789724e-19 -2.432165e-18 -1.1792347e-18 -7.196358e-18
-1.0727864e-18 -1.9636757e-19 7.189815e-19 -4.942393e-21 1.4119807e-18 -2.968992e-19 -6.733404e-18 -1.1288075e-17
-1.6827633e-17 -5.489971e-18 -3.635638e-18 2.5514094e-19 -1.409215e-18 -7.973413e-18 -6.9066905e-18 -9.606668e-18
-7.3065675e-19 -6.7473615e-18 -3.740277e-18 1.6156467e-19 -1.3080182e-18 -1.1266883e-17 -1.0339181e-17 -1.6352883e-17
-8.860526e-19 -1.7245037e-17 -1.2457707e-17 -9.8005476e-18 -1.485012e-17 -2.2962572e-17 1.3049732e-18 -8.060604e-18
-7.6442515e-18 -8.492265e-18 7.903178e-19 2.394065e-19 9.345846e-19 3.0979484e-20 -1.0919089e-17 -1.5545472e-17
-7.269246e-19 -3.3956143e-18 1.3558014e-18 1.1412731e-18 -3.802368e-12 8.69454e-12 3.9504663e-12 5.9279213e-12
-1.3467479e-11 -1.1885117e-11 7.100192e-12 3.059206e-12 -1.0400449e-11 7.565789e-12 6.9368443e-12 -5.6123266e-12
-4.114563e-12 -1.470944e-11 5.7434092e-12 -3.9432316e-12 -1.308378e-11 -1.29515435e-11 1.8608626e-12 -1.7075747e-12
7.059005e-13 4.9585457e-12 6.293417e-12 5.8457835e-12 7.1480313e-12 6.7039234e-12 -1.3027197e-11 5.5755266e-12
-7.805662e-12 1.7057523e-12 -1.3218927e-12 -1.8812788e-11 -1.3072768e-11 9.564496e-12 1.170419e-11 -1.35814545e-11
3.668034e-12 -2.108019e-12 2.0641527e-12 5.769574e-12 4.392308e-12 -3.2605633e-12 -5.1914263e-12 -6.3336185e-12
-1.4381122e-11 -7.534195e-12 -1.4313545e-11 6.3820724e-12 3.9088468e-12 7.464653e-12 -8.832093e-12 -7.5911066e-12
6.0973357e-12 -2.3172378e-12 9.63905e-12 -6.8954543e-12 1.0512561e-11 5.1843647e-12 3.8432838e-12 3.829241e-12
3.3751853e-12 8.58495e-12 -5.0625797e-12 -8.635822e-12 -1.2430969e-11 -4.4008755e-12 -2.9863692e-12 6.669393e-12
7.455803e-12 -8.007661e-12 -5.700096e-12 -8.540959e-12 8.798163e-12 -5.391261e-12 -3.3395504e-12 5.0465396e-12
-1.2087225e-12 -1.1725085e-11 -9.224683e-12 -1.5651213e-11 1.0568015e-11 -1.2886376e-11 -9.7420795e-12 -7.358129e-12
-1.13356755e-11 -1.7853278e-11 2.5814316e-12 -6.515016e-12 -6.690539e-12 -6.4784354e-12 1.479228e-12 2.7997277e-12
1.69337e-12 9.80184e-12 -1.1364256e-11 -1.480405e-11 8.3108425e-12 -2.7809424e-12 4.443518e-12 4.0007555e-12
-6.972769e-16 -2.6591394e-15 -9.720004e-16 -1.7549211e-15 -2.4378684e-15 -1.7131686e-15 -1.7982643e-15 -7.377112e-16
-9.572861e-16 -2.3986417e-15 -2.1189611e-15 -1.0286062e-15 -7.0449334e-16 -1.4998505e-15 -1.7179447e-15 -6.2432395e-16
-1.0519895e-15 -2.462762e-15 -3.3337067e-16 -2.2280786e-16 -5.728054e-17 -1.5400506e-15 -1.7753672e-15 -1.8258263e-15
-2.2187732e-15 -2.0047298e-15 -2.4512812e-15 -1.5274079e-15 -1.5948553e-15 -2.3697126e-16 -6.8093846e-17 -3.2233746e-15
-1.7252216e-15 -2.725819e-15 -3.2172668e-15 -2.41244e-15 -9.368239e-16 -3.1421852e-16 -3.818876e-16 -1.7506983e-15
-1.1451119e-15 -4.6524995e-16 -8.2994967e-16 -1.2093151e-15 -2.6085352e-15 -1.5215695e-15 -1.6452366e-15 -1.9719607e-15
-1.2178998e-15 -2.1467908e-15 -1.4954909e-15 -1.0181557e-15 -1.6883476e-15 -2.8418384e-16 -2.8198123e-15 -8.8744844e-16
00000000: 60aa b6a2 55b0 c7a1 27ec bf21 c746 3120
00000010: 30a0 a4a3 b4c0 79a3 a76d f921 b2a0 9221
00000020: 6d37 21a3 3d7f b7a1 fd8c 11a1 1d8d 06a3
00000030: 3c9d bda2 f54c 78a3 efef d71f a26a ada2
00000040: 6bb8 38a3 09b2 a2a3 72d4 7c21 4194 0aa2
00000050: acf2 ec20 59f3 b89f e61a 2721 3592 c9a0
00000060: 7c94 64a1 2dcd 3ea0 84a3 a2a3 1809 8521
00000070: 8e5f 49a3 1ad2 9221 0373 97a1 cdfe e3a3
00000080: 6381 82a3 75d4 50a1 3749 b1a1 d418 a4a3
00000090: 2d67 9421 8108 36a2 56fe 8e21 83ae 579f
000000a0: e2a9 a421 978c 87a2 3bd3 e4a2 0fff 1ba3
000000b0: 00ac b0a3 c0c8 40a3 79fb 82a3 9815 f4a0
000000c0: aa1b b81e b9f9 801f 6b16 4ba3 5418 16a3
000000d0: 7ee9 6521 4c76 33a2 3a06 aea1 d7bf 04a3
000000e0: b950 9ea1 75d4 67a0 b534 5421 e4b7 ba9d
000000f0: 1f5f d021 2342 afa0 346b f8a2 6d3a 50a3
00000100: 2035 9ba3 4f8b caa2 a121 86a2 cf9b 9620
00000110: a3f6 cfa1 6115 13a3 d9cf fea2 3536 31a3
00000120: dda6 57a1 07ef f8a2 ebfd 89a2 edbd 3e20
00000130: 8807 c1a1 5ad6 4fa3 67b9 3ea3 27d4 96a3
00000140: 1fc2 82a1 b10e 9fa3 dccd 65a3 c7c9 34a3
00000150: dbf7 88a3 d7ca d3a3 7e94 c021 20b1 14a3
00000160: f502 0da3 96a7 1ca3 ba42 6921 1652 8d20
00000170: 9ceb 8921 e64b 121f f16b 49a3 b561 8fa3
00000180: df8c 56a1 578d 7aa2 bb14 c821 146c a821
00000190: b0c8 85ac baf4 182d a3fe 8a2c f891 d02c
000001a0: 22ec 6cad cf15 51ad d8d0 f92c c245 572c
000001b0: 75f7 36ad 4919 052d 8a11 f42c 5877 c5ac
000001c0: b0c4 90ac b762 81ad 0814 ca2c 79bd 8aac
000001d0: 1b2c 66ad 91d8 63ad 52f2 022c dd51 f0ab
000001e0: 7eb1 462b 9c76 ae2c 106e dd2c 23ae cd2c
000001f0: be7f fb2c 93df eb2c 482d 65ad e12b c42c
00000200: 9451 09ad 3410 f02b 340a baab a27a a5ad
00000210: 83fa 65ad a942 282d fce6 4d2d 6fed 6ead
00000220: b70e 812c b256 14ac 7840 112c b4ff ca2c
00000230: 658a 9a2c 1671 65ac 36a8 b6ac 2ad8 deac
00000240: d1fe 7cad ff8a 04ad 7ace 7bad 998c e02c
00000250: c387 892c cf51 032d 3660 1bad 4e8b 05ad
00000260: eb87 d62c a50f 23ac 6c92 292d bb9c f2ac
00000270: 5ef0 382d 9b68 b62c 3939 872c bdba 862c
00000280: ef81 6d2c 2d07 172d aa1f b2ac 49ec 17ad
00000290: 1bb0 5aad 90d7 9aac a525 52ac 8da8 ea2c
000002a0: f429 032d 4ddf 0cad e78d c8ac 0f41 16ad
000002b0: 67c7 1a2d 29b0 bdac feff 6aac 308f b12c
000002c0: d11c aaab 1745 4ead 4748 22ad 66ab 89ad
000002d0: 1cea 392d 14b3 62ad 6d62 2bad 1172 01ad
000002e0: 586b 47ad 020a 9dad f0a6 352c 0c3a e5ac
000002f0: 0567 ebac 8ff0 e3ac ce2e d02b 6903 452c
00000300: 1652 ee2b 906f 2c2d 0fec 47ad c237 82ad
00000310: b534 122d 01b1 43ac a757 9c2c 9ac3 8c2c
00000320: f4f9 48a6 779c 3fa7 7c14 8ca6 29e9 fca6
00000330: bcaa 2fa7 c4e4 f6a6 1f94 01a7 7ba1 54a6
00000340: a0f5 89a6 21d7 2ca7 efaf 18a7 df3c 94a6
00000350: 6f0e 4ba6 b726 d8a6 f994 f7a6 faf2 33a6
00000360: 909b 97a6 f175 31a7 d42c c0a5 a370 80a5
00000370: 7614 84a4 d7f1 dda6 7ddb ffa6 8d90 03a7
00000380: 24e1 1fa7 bd74 10a7 28a2 30a7 681f dca6
00000390: c6d7 e5a6 c99a 88a5 8303 9da4 c444 68a7
000003a0: 71a1 f8a6 7c6a 44a7 19d4 67a7 aad5 2da7
000003b0: b402 87a6 7822 b5a5 aa24 dca5 5e4d fca6
000003c0: 2c07 a5a6 6319 06a6 7a37 6fa6 da47 aea6
000003d0: fbf6 3ba7 0248 dba6 841a eda6 4118 0ea7
000003e0: 9284 afa6 4db1 1aa7 e085 d7a6 51bb 92a6
000003f0: 0851 f3a6 22d2 a3a5 5b30 4ba7 23ca 7fa6
