TSTE-R/Qcontrol-noisy-comparison/Noisy-10%/PINN_4090_noisy0.1/save_model_0223.ckpt-350000.pt (torch, 264786 bytes, 24 tensors)

linears.0.weight f4 [100, 1]
0	0x3f509e5d	0.81491643
1	0x4065dd64	3.5916376
2	0x3fc11021	1.5083047
3	0x403c2ec7	2.940355
4	0xc04928e1	-3.14312
5	0xbfff485a	-1.9943955
6	0x3fe5f0ba	1.7964089
7	0x3f844962	1.0334895
8	0xc023d13a	-2.5596452
9	0x40098a26	2.149057
10	0x402fb9ad	2.7457078
11	0xbf3e32b5	-0.7429612
12	0xbdfb7149	-0.12277467
13	0xc05ae270	-3.4200706
14	0x407610c3	3.844773
15	0x3f325773	0.69664687
16	0xc00bc58d	-2.1839325
17	0xbfb1a564	-1.3878598
18	0x3fd6f5d9	1.6793777
19	0x3e8ecbdc	0.27889907
20	0xbe20b57b	-0.1569423
21	0x40805e31	4.011498
22	0x3f64673e	0.89220035
23	0x4089f81a	4.311536
24	0x3ff87a00	1.9412231
25	0x405243eb	3.2853954
26	0xbfa221d1	-1.266657
27	0x4075fddc	3.8436193
28	0xbf976396	-1.1827266
29	0x3f830c3d	1.023811
30	0xbf868e36	-1.0512149
31	0xc020cb9e	-2.5124278
32	0xc02aaa00	-2.666626
33	0x4095075d	4.657149
34	0x405a5224	3.4112635
35	0xc0013e16	-2.0194144
36	0x402db6a2	2.714272
37	0xbf77c06d	-0.96777993
38	0x3f79c385	0.97563964
39	0x409f42a0	4.976883
40	0x3fc8589e	1.5652044
41	0xbf0009be	-0.50014865
42	0xbf436427	-0.76324695
43	0xbf8cf093	-1.1010917
44	0xc020eee1	-2.51458
45	0xbf9d988a	-1.2312176
46	0xbfefbde8	-1.872983
47	0x4092e877	4.590877
48	0x40781d40	3.8767853
49	0x407ad1fb	3.9190662
50	0xbf839d28	-1.0282335
51	0xbfc14f81	-1.5102388
52	0x3fc075b9	1.5035926
53	0x3e36aeae	0.17840073
54	0x40880216	4.2502546
55	0xc000b525	-2.0110562
56	0x40948089	4.6406903
57	0x40ad6467	5.418506
58	0x4078d510	3.8880043
59	0x40415779	3.020964
60	0x40576184	3.365327
61	0x40aaa0af	5.3321147
62	0xbf2dbd9c	-0.67867446
63	0xbfd006d5	-1.6252085
64	0xbff538d2	-1.9157965
65	0xbf5ea058	-0.86963415
66	0x3f5459d9	0.82949597
67	0x405569e5	3.3345883
68	0x401b0bce	2.4225955
69	0xc0082757	-2.127401
70	0xbf213166	-0.62966
71	0xbff3be48	-1.9042444
72	0x4033cabb	2.8092487
73	0xbf86edde	-1.0541341
74	0x3ddeee4c	0.10885295
75	0x3fccd1b4	1.6001496
76	0x3facfa97	1.3513974
77	0xc0387cf5	-2.8826268
78	0xbffe5868	-1.987073
79	0xc031f685	-2.7806714
80	0x4092d538	4.5885277
81	0xc017f946	-2.3745894
82	0xbf4f3f63	-0.80956095
83	0xbfc3730b	-1.5269483
84	0xbf9b5d67	-1.2137879
85	0xbfad7501	-1.3551332
86	0x402c96d7	2.6967065
87	0xbf9b44d4	-1.213038
88	0xbfb01e2e	-1.375921
89	0xbf85dbae	-1.0457666
90	0x3f9fa9cb	1.2473692
91	0x4008df0f	2.1386144
92	0x3f2f3151	0.68434626
93	0x40b01909	5.503056
94	0xc017092b	-2.3599346
95	0xc09d1ea1	-4.909989
96	0x40a3276e	5.098563
97	0x3f859a79	1.0437766
98	0x4031b3f0	2.7766075
99	0x406e24ae	3.7209888

linears.0.bias f4 [100]
0	0x3e17c9fb	0.14823143
1	0xbae9b19a	-0.0017829419
2	0xbd8ab51c	-0.06772825
3	0xbce0a426	-0.027422022
4	0x3d4508dc	0.048104152
5	0x3d539bb8	0.051662177
6	0xbb57edf6	-0.0032948232
7	0x3d12d23d	0.03584503
8	0x3d045bc9	0.032314096
9	0xbb26186d	-0.0025344149
10	0xbc838fce	-0.016059782
11	0x3d8a2d17	0.067468815
12	0x3d82b858	0.06382817
13	0x3d19ada8	0.037519127
14	0xbbbf305f	-0.0058346237
15	0x3e19e711	0.15029551
16	0x3c7043ef	0.014664634
17	0x3c81c52a	0.015841085
18	0xbdc35883	-0.09538367
19	0x3de0587d	0.10954378
20	0xbdb8308f	-0.08993637
21	0x3c1d6051	0.009605483
22	0x3caa6b82	0.020803217
23	0xbcc25164	-0.02372045
24	0xbc832a86	-0.016011488
25	0xbc3570a0	-0.011074215
26	0x3c38c65c	0.011277761
27	0xbd95293d	-0.07283256
28	0x3cbe1e57	0.023207827
29	0xbe1e2632	-0.15444258
30	0x3e4c23b7	0.19935499
31	0x3d1ef76d	0.038810182
32	0x3d4e5a81	0.05037928
33	0xbcfb73f6	-0.030694943
34	0xbc811166	-0.015755367
35	0x3c8194e1	0.015818061
36	0xbdb53001	-0.08847047
37	0x3e07fe2e	0.13280556
38	0xbd6d7e74	-0.057981923
39	0xbb1efa6e	-0.0024258154
40	0xbdf5a130	-0.11993635
41	0x3e2e27d6	0.17007384
42	0x3d9ef9d7	0.07762497
43	0x3d84ce8f	0.064847104
44	0x3d1e4b81	0.038646225
45	0x3d5761cb	0.052583497
46	0x3ccb4464	0.024812885
47	0xbca478cf	-0.020077137
48	0x3d0bde8d	0.034147788
49	0xbd2b9ac5	-0.041895647
50	0x3d209bc5	0.039211053
51	0x3cebe5b9	0.028796064
52	0xbc634068	-0.013870336
53	0x3e055094	0.1301902
54	0xbcdf6fa6	-0.027274918
55	0x3d5fa88d	0.054604102
56	0xbd0c1353	-0.034198117
57	0xbd071029	-0.032974396
58	0xbdec7895	-0.11546437
59	0x3d0268d4	0.031838253
60	0xbe144ec6	-0.14483175
61	0xbd26f6dd	-0.04076277
62	0x3d71d1b2	0.05903787
63	0x3cb7b0e4	0.022423215
64	0x3ccbaf68	0.024863914
65	0x3dee82ec	0.11646065
66	0x3d8805a2	0.066416994
67	0xbd259674	-0.040426686
68	0xbba6dd93	-0.0050923317
69	0x3cd65516	0.026163619
70	0x3d93ff29	0.07226402
71	0x3d19ee7f	0.037580963
72	0xbc3ea45e	-0.011635868
73	0x3dbd16b7	0.09232848
74	0x3db86481	0.090035446
75	0x3c86ea67	0.016469194
76	0x3d221f2b	0.039580505
77	0x3d3a91e9	0.045549307
78	0x3cf48678	0.029849276
79	0x3cf1a649	0.029498236
80	0xbcd8dc11	-0.026472123
81	0x3d0685f0	0.032842577
82	0x3c3ee8dc	0.011652198
83	0x3d2f660d	0.042821933
84	0x3cba2bb8	0.022725925
85	0x3cbacc6c	0.022802554
86	0xbe476999	-0.19473876
87	0x3d456111	0.048188273
88	0x3ddc9b13	0.107717656
89	0x3d2e0366	0.04248371
90	0xbe11784c	-0.14206046
91	0xbcfbf955	-0.03075854
92	0xbe829a90	-0.25508547
93	0xbd8224f0	-0.063547015
94	0x3d2725be	0.040807478
95	0x3d83da69	0.06438143
96	0xbd6b71ee	-0.0574817
97	0x3da83708	0.082136214
98	0xbe0476ca	-0.1293594
99	0xbe156155	-0.1458791

linears.1.weight f4 [100, 100]
0	0x3dc31b69	0.095267124
1	0xbdeda02a	-0.116028145
2	0xbe3be886	-0.1835042
3	0x3d8e4b0f	0.0694791
4	0xbf154e38	-0.5832248
5	0xbe92918b	-0.28626665
6	0x3de242c4	0.11047891
7	0x3dfd3106	0.12362866
8	0xbec297e6	-0.38006514
9	0xbc79418f	-0.015213384
10	0x3cf3e43c	0.029771917
11	0xbe605cbe	-0.21910378
12	0xbe0e35ca	-0.13887706
13	0xbe963575	-0.2933766
14	0xbd9dc87e	-0.077042565
15	0x3c349bfb	0.011023517
16	0xbe503fdc	-0.2033686
17	0xbe01c22b	-0.12671725
18	0xbdcdb261	-0.10043789
19	0x3d5c62fb	0.053805333
20	0x3e928d04	0.2862321
21	0x3d4a5fe5	0.04940786
22	0x3e2c5992	0.16831043
23	0xbe588b30	-0.21146846
24	0xbd70d9f6	-0.058801614
25	0xbe0c1f59	-0.13683833
26	0xbdb94790	-0.090468526
27	0xbde4bfc5	-0.1116939
28	0xbe3dfa34	-0.18552476
29	0x3d7c711c	0.061631307
30	0xbe7b0107	-0.2451211
31	0xbea864f8	-0.32889533
32	0xbebbb9ae	-0.366651
33	0xbe1448e7	-0.14480935
34	0x3d5af42e	0.053455524
35	0xbe41688d	-0.18887539
36	0xbd019bec	-0.03164284
37	0xbe3246e8	-0.17409861
38	0xbdacc5ed	-0.08436189
39	0x3a201560	0.0006106701
40	0xbe96072f	-0.29302356
41	0xbe6eb6b4	-0.23311883
42	0xbe4cc5ba	-0.19997302
43	0xbe038755	-0.12844594
44	0xbe0a1273	-0.134836
45	0xbdd82045	-0.1055303
46	0xbeba86a6	-0.36430854
47	0xbe52471b	-0.20534937
48	0xbd8f8036	-0.07006876
49	0x3e1028fb	0.14078133
50	0xbe98f34b	-0.29873118
51	0xbeda9a97	-0.42696068
52	0xbd38151b	-0.044942003
53	0x3da38f93	0.07986369
54	0xbe03c53d	-0.12868209
55	0xbf16e710	-0.58946323
56	0xbe4e58f6	-0.20151123
57	0xbec8a100	-0.39185333
58	0xbe91f777	-0.28509113
59	0x3e694d78	0.22783458
60	0xbdcefa83	-0.10106375
61	0xbdf62269	-0.12018282
62	0xbd64773a	-0.055777766
63	0xbe91de59	-0.2848995
64	0xbe8a4a1f	-0.27009675
65	0xbe0f5a75	-0.1399935
66	0x3e62d2e2	0.22150758
67	0x3db9759d	0.09055636
68	0x3cb814be	0.022470828
69	0xbf008066	-0.5019592
70	0xbdd50b09	-0.104024954
71	0xbe9f30ea	-0.31092006
72	0xbcdbd519	-0.026835011
73	0xbebcfa14	-0.36909544
74	0x3c817d67	0.015806867
75	0x3e8ae7be	0.2712993
76	0xbd8fd3aa	-0.070227936
77	0xbee169b6	-0.44025964
78	0xbe1f998e	-0.1558592
79	0xbcab8657	-0.020938082
80	0xbe08f6ec	-0.13375443
81	0xbde64ac0	-0.11244726
82	0xbe6e33e5	-0.23261984
83	0xbee20db2	-0.44151074
84	0xbd89f996	-0.06737058
85	0x3d9af7a7	0.07566767
86	0xbe6d5ca5	-0.23179872
87	0xbbc9986d	-0.006152204
88	0xbe99edaf	-0.3006415
89	0xbe829eb6	-0.25511712
90	0x3e190f12	0.14947155
91	0xbe767c18	-0.24070776
92	0xbc226a18	-0.00991299
93	0xbea43b05	-0.32076278
94	0xbe49dcd0	-0.1971314
95	0xbf109b9a	-0.5648743
96	0xbd2127f4	-0.039344743
97	0xbcd3b7a6	-0.025844406
98	0x3ce55666	0.0279953
99	0xbe8d6c72	-0.276218
100	0x3eccadc8	0.39976335
101	0x3e6b2c1d	0.22966047
102	0xbe5c6ac3	-0.21525101
103	0xbbd7a994	-0.0065814946
104	0xbd08f785	-0.033439178
105	0x3e216767	0.15762101
106	0x3e2c8c3b	0.16850369
107	0x3f1a2eb3	0.6022751
108	0x3ea866da	0.3289097
109	0xbe6411ca	-0.22272411
110	0x3ea04a94	0.313069
111	0x3ee46aba	0.44612676
112	0x3ef71d54	0.48264563
113	0x3dd13f5f	0.10217165
114	0x3d96aca6	0.07357149
115	0x3f41e4f5	0.75739986
116	0x3edaf735	0.4276673
117	0x3e9f0763	0.31060323
118	0xbdac2b73	-0.08406725
119	0x3ef1ba0c	0.47212255
120	0x3eb8efd7	0.36120483
121	0x3ec07a45	0.37593284
122	0x3f43c08c	0.7646568
123	0x3d7b985d	0.0614246
124	0xbed8af9d	-0.42321482
125	0x3dd34b35	0.10317079
126	0x3ecfcd10	0.40586138
127	0x3e52f894	0.20602638
128	0xbc96064b	-0.018313548
129	0x3e7950fa	0.24347296
130	0xbdd05380	-0.10172176
131	0x3e4c6d07	0.19963466
132	0x3d5edbac	0.054408714
133	0x3d84eb99	0.06490249
134	0x3e7b1781	0.24520685
135	0x3e3be339	0.18348397
136	0x3e9af293	0.30263194
137	0x3de4569e	0.111493334
138	0xbe51c7f0	-0.20486426
139	0x3e710a8b	0.23539178
140	0xbdaec3f8	-0.08533472
141	0x3ebe26e2	0.3713904
142	0x3e28dc4e	0.1649029
143	0xbde0af7a	-0.109709695
144	0xbdfdd999	-0.12395019
145	0x3e4a7125	0.19769724
146	0x3ebb0642	0.36528212
147	0x3d5cab63	0.053874385
148	0x3eef5b80	0.46749496
149	0x3ea5a8e2	0.3235541
150	0x3d96962d	0.073528625
151	0x3e3ba457	0.1832441
152	0xbe954d7a	-0.29160672
153	0x3edd651c	0.43241203
154	0x3d114e76	0.035475217
155	0x3e4924c3	0.1964293
156	0x3e5c3d04	0.2150765
157	0xbdac8e45	-0.08425573
158	0xbb316287	-0.0027066784
159	0x3ee61acf	0.44942328
160	0x3d45db7d	0.048305023
161	0x3d5107f0	0.05103296
162	0x3eb7b352	0.35878998
163	0x3e7d01a4	0.24707657
164	0x3e5ee5dc	0.21767372
165	0x3ec604da	0.38675576
166	0x3f07ce67	0.5304932
167	0x3eacb3a9	0.3373082
168	0xbedfc8eb	-0.43707976
169	0x3ea96b3b	0.33089623
170	0x3e8c6ad3	0.2742525
171	0x3eabf12b	0.33582434
172	0x3e6b3945	0.22971065
173	0x3e9a30c4	0.3011533
174	0x3ec127df	0.37725732
175	0x3f075858	0.52869177
176	0x3f08f5ed	0.5350025
177	0x3dcfdd0d	0.10149584
178	0x3eaba710	0.33525896
179	0x3e34b5cb	0.17647474
180	0x3d8c3af6	0.068471834
181	0x3eb3eab8	0.35140014
182	0x3ece7a41	0.40327647
183	0x3e0e25c8	0.138816
184	0x3ea285b0	0.3174262
185	0x3e4d42eb	0.20045058
186	0x3e52ec8e	0.20598051
187	0x3e802a6c	0.25032365
188	0x3d0b9c01	0.034084324
189	0x3e842feb	0.25817809
190	0x3eb0dbbd	0.34542647
191	0xbe65a8ef	-0.22427724
192	0x3e81ee05	0.25376907
193	0xbcc107b5	-0.023563245
194	0x3e9949be	0.29939073
195	0x3d5ac7b9	0.053413127
196	0x3d0a7e33	0.03381176
197	0x3efb042d	0.49026623
198	0x3dd4010a	0.10351761
199	0x3e2b68a8	0.16739142
200	0xbda0d5d0	-0.078532815
201	0xbd9f0132	-0.077639
202	0xbd939a92	-0.07207216
203	0xbbce91d7	-0.0063040066
204	0xbe6fa31e	-0.23402068
205	0xbe7951ec	-0.24347657
206	0xbe1ba17e	-0.15198323
207	0xbe7b3066	-0.24530181
208	0xbef7626c	-0.48317277
209	0x3df9cfad	0.12197814
210	0xbd9900c6	-0.07470851
211	0xbd35e75f	-0.044410106
212	0xbe192743	-0.14956383
213	0xb88fd5bd	-6.858583e-05
214	0x3d281ca6	0.041042946
215	0xbd82a8bf	-0.06379842
216	0xbd08fd77	-0.033444848
217	0xbdb3a8ee	-0.08772455
218	0x3e994c84	0.2994119
219	0x3e132696	0.14370188
220	0x3df85078	0.12124723
221	0xbd89b8ed	-0.06724725
222	0xbe13d1b5	-0.14435466
223	0x3d387fe3	0.045043837
224	0x3eadff16	0.33983678
225	0x3dce5395	0.10074536
226	0xbe871150	-0.26380396
227	0x3db7b7e7	0.089706235
228	0xbe6e48a6	-0.232699
229	0xbd05dda1	-0.032682065
230	0xbe54aa59	-0.20768107
231	0xbd8c0b7e	-0.068381295
232	0xbdd43480	-0.10361576
233	0xbe6369ac	-0.2220828
234	0x3e136cba	0.14396945
235	0xbe9dfc65	-0.30856624
236	0x3e149d90	0.1451323
237	0xbeaf061c	-0.3418435
238	0x3d21922a	0.039446034
239	0xbe52ba8c	-0.20578974
240	0x3e11ee02	0.14250949
241	0xbe026a29	-0.1273581
242	0xbdef8e90	-0.116971135
243	0xbbe648e5	-0.0070277327
244	0xbe734fac	-0.23760861
245	0xbd7538f1	-0.059868757
246	0xbe78810d	-0.24267979
247	0x3ba98c92	0.005174228
248	0x3e04d4f7	0.12971865
249	0xbe804d63	-0.2505904
250	0xbea1ec8a	-0.31625777
251	0xbdf0fc81	-0.11766911
252	0x3e0f7c2b	0.1401221
253	0xba7ccd99	-0.00096436735
254	0x3e00fdda	0.12596837
255	0xbe69a497	-0.22816692

linears.1.bias f4 [100]
0	0x3c45fff2	0.012084948
1	0x3f00f95f	0.5038051
2	0xbd5974a1	-0.05308974
3	0xba5d765f	-0.00084481196
4	0x3e0b49a7	0.13602315
5	0x3cbb8464	0.022890277
6	0xbe0c3acb	-0.13694303
7	0x3e386bc6	0.18009862
8	0x3dc74f52	0.09731926
9	0xbe2bdcdb	-0.16783468
10	0xbdefc55f	-0.117075674
11	0xbe49c7b8	-0.19705093
12	0xbd97994a	-0.074022844
13	0xbe09e741	-0.13467123
14	0x3d39bf84	0.04534866
15	0x3e453ac1	0.19260694
16	0xbddd85e9	-0.10816557
17	0x3e0b86e4	0.13625675
18	0xbdffa456	-0.124825165
19	0x3d7c3cac	0.0615813
20	0xbc9461b9	-0.018113004
21	0xbdc1b396	-0.094580814
22	0xbdf1c552	-0.11805214
23	0xbe97f6e6	-0.29680556
24	0xbe21ca0c	-0.15799731
25	0x3e379833	0.17929153
26	0xbe58ec6c	-0.21183938
27	0xbe49128d	-0.19635983
28	0xbdc2afb1	-0.09506167
29	0xbb876225	-0.004131573
30	0xbd7bcc94	-0.061474398
31	0xbad60017	-0.0016326931
32	0x3f139ff7	0.5766596
33	0xbdab0dad	-0.08352218
34	0xbd71b5a5	-0.05901112
35	0x3e573739	0.2101716
36	0x3e55ae9e	0.20867392
37	0xbc498307	-0.012299306
38	0x3d80f42a	0.062965706
39	0xbdc66f91	-0.09689248
40	0xbe009d18	-0.12559927
41	0x3cfaf94e	0.030636456
42	0xbde89ea8	-0.11358386
43	0x3e836452	0.25662476
44	0xbe775cba	-0.24156466
45	0xbd8058db	-0.06266948
46	0x3e9309af	0.28718325
47	0xbe352ffa	-0.17694083
48	0xbdbcf3d8	-0.09226197
49	0xbe08f71f	-0.13375519
50	0xbe03b8a4	-0.12863404
51	0x3cb4f07a	0.022087324
52	0xbda066f5	-0.078321375
53	0x3d086b1a	0.033305265
54	0x3da3f56d	0.08005796
55	0x3e8d1230	0.27552938
56	0xbdb7e7f1	-0.08979786
57	0x3d106dff	0.03526115
58	0x3f0fe510	0.56208897
59	0xbe4cd08a	-0.20001426
60	0xbd3ded90	-0.046369135
61	0x3d1556bb	0.036459666
62	0xbaeaf0ba	-0.0017924525
63	0xbe6ac234	-0.22925645
64	0xbea41a55	-0.3205134
65	0x3dab136c	0.08353314
66	0x3cb91c6d	0.022596562
67	0x3d14fbf6	0.0363731
68	0x3d86dee2	0.0658548
69	0xbe2dbd32	-0.16966704
70	0x3d483e44	0.048887506
71	0x3df9ee37	0.12203639
72	0xbcc2ff4f	-0.023803381
73	0x3e927482	0.28604513
74	0x3e633ddf	0.2219157
75	0x3d3d8ff7	0.046279874
76	0xbd9c7b73	-0.076407336
77	0xbdf10c02	-0.117698684
78	0x3d1485fc	0.03626059
79	0xbd6301a2	-0.05542148
80	0x3ca3181a	0.019908953
81	0x3e7b1560	0.24519873
82	0xbd46e3e5	-0.04855718
83	0xbccfa100	-0.025345325
84	0x3ec94e8d	0.39317742
85	0x3e04a288	0.12952626
86	0xbd94603b	-0.07244917
87	0xbe401723	-0.18758826
88	0xbe1636fb	-0.14669411
89	0x3e8f3789	0.27972057
90	0xbe553da8	-0.20824301
91	0x3e53872c	0.20657033
92	0xbd96a042	-0.073547855
93	0xbd7c6940	-0.06162381
94	0x3e15318b	0.1456968
95	0x3e0904e3	0.1338077
96	0xbe6d31c0	-0.2316351
97	0x3d976934	0.07393113
98	0xbd06d656	-0.03291925
99	0x3ea31504	0.3185197

linears.2.weight f4 [100, 100]
0	0x3e8f6187	0.28004095
1	0xbc5d009f	-0.013488918
2	0xbcfa3a2d	-0.030545318
3	0x3dda27ef	0.10652148
4	0xbe028f5b	-0.12749998
5	0x3b1388ed	0.0022512034
6	0xbd6beab3	-0.057596873
7	0x3e205af7	0.156597
8	0xbe38fedf	-0.18065976
9	0xbd1f2f42	-0.038863428
10	0x3dc4ac41	0.09603167
11	0xbd81b99b	-0.063342296
12	0xbd5c2323	-0.053744446
13	0xbe1d4cde	-0.15361354
14	0xbd1830cd	-0.037155915
15	0xbcd5991f	-0.02607399
16	0x3de9cf23	0.11416461
17	0xbda4bd52	-0.080439225
18	0xbdc763c0	-0.09735823
19	0x3d9b26a8	0.075757325
20	0xbdc41bc1	-0.09575606
21	0xbd53117b	-0.051530343
22	0x3dac789a	0.084214404
23	0x3e020ff1	0.12701394
24	0xbe0826ce	-0.13296053
25	0xbd4769a6	-0.04868474
26	0x3e2f2132	0.17102507
27	0xbd0f5242	-0.034990557
28	0x3e23895f	0.15970372
29	0x3c93b61c	0.018031172
30	0x3b9c04a6	0.0047612963
31	0xbe2973bf	-0.1654806
32	0x3d9484d7	0.072519
33	0x3c375c39	0.011191421
34	0x3d6f4263	0.05841292
35	0xbdd37c2d	-0.10326419
36	0xbe08619d	-0.13318487
37	0xbc4ad38c	-0.012379538
38	0xbc9e54c2	-0.019327525
39	0xbcbc3b52	-0.022977505
40	0xbd1dcf62	-0.038527854
41	0x3d153207	0.036424663
42	0x3c329ddf	0.010901897
43	0x3e3edbef	0.18638586
44	0x3e01d9fb	0.12680809
45	0xbd5df036	-0.05418416
46	0xbe120957	-0.14261375
47	0x3e3263c4	0.1742087
48	0xbcbf2215	-0.023331681
49	0x3e2b5377	0.16731058
50	0xbcacad33	-0.021078682
51	0x3cd51293	0.026009833
52	0xbdc3f6d5	-0.09568564
53	0x3dc1cc97	0.094628505
54	0x3d94a469	0.07257921
55	0xbd87efe8	-0.06637555
56	0x3c2d7e72	0.010589229
57	0xbd88801e	-0.066650614
58	0xbd584f1e	-0.052809827
59	0xbdd824a7	-0.10553866
60	0xbe248905	-0.16067894
61	0xbca47cfa	-0.020079125
62	0xbcda3fd7	-0.02664177
63	0x3db4c317	0.08826273
64	0x3e0ac3e7	0.13551293
65	0x3d4a09e1	0.049325828
66	0xbdbef49d	-0.09324
67	0xbd45b2ce	-0.048266225
68	0x3d74b158	0.05973944
69	0x3d2c34ef	0.04204267
70	0x3e4b5609	0.19857039
71	0x3dccd2c1	0.100011356
72	0xbd3db59c	-0.046315774
73	0xbdf005af	-0.11719834
74	0x3d11ef26	0.03562846
75	0xbd505ca9	-0.050869618
76	0xbdcec09d	-0.10095332
77	0x3d772e88	0.06034711
78	0x3c09fa64	0.008421514
79	0x3ddeac0d	0.1087266
80	0x3d277717	0.040885057
81	0x3b5365f2	0.003225681
82	0xbdc77d10	-0.09740651
83	0xbb35921d	-0.0027705499
84	0x3e2c3ed0	0.16820836
85	0xbe18f554	-0.14937335
86	0x39638435	0.00021697658
87	0xbdb1897d	-0.08668802
88	0x3d255450	0.04036361
89	0x3c10486d	0.00880633
90	0xbe054bdb	-0.13017218
91	0xbd80ea6f	-0.06294715
92	0x3d1c806a	0.038208403
93	0xbe61b712	-0.22042492
94	0xbdf64c1d	-0.12026236
95	0xbe7f2b19	-0.24918784
96	0xbde8a99c	-0.113604754
97	0xbdcab394	-0.09897533
98	0x3d167a82	0.036737926
99	0xbb55b8a7	-0.0032611282
100	0xbc231f6a	-0.00995622
101	0x3be6cbfe	0.0070433607
102	0x3ca23dd4	0.019804873
103	0x3d6cf43c	0.057850108
104	0x3d947c38	0.07250255
105	0xbd578a53	-0.05262215
106	0x3e62f85b	0.22165053
107	0xbd17e4cb	-0.03708343
108	0xbe4a7201	-0.19770052
109	0x3e717f5a	0.23583737
110	0x3e6845cd	0.22682877
111	0xbd9fee1b	-0.07809087
112	0x3e243876	0.16037163
113	0x3d86a570	0.065745234
114	0x3c87edd0	0.01659289
115	0xbe95524d	-0.29164353
116	0xbdbec7c9	-0.0931545
117	0xbe690955	-0.22757466
118	0x3da2a158	0.0794093
119	0x3ba6d906	0.005091789
120	0x3d5f8dc5	0.05457856
121	0x3e3c78f2	0.18405512
122	0x3dda9ba7	0.106742196
123	0x3d9719ea	0.073779896
124	0x3d1384c5	0.03601529
125	0xbcb3bf70	-0.02194187
126	0x3c652bc9	0.01398749
127	0xbe0c56ff	-0.13705061
128	0xbe07b174	-0.13251287
129	0x3e49decc	0.19713897
130	0x3ec4259f	0.38309953
131	0xbe1a4a26	-0.15067348
132	0xbd7d62f9	-0.061861966
133	0x3d95ea7b	0.07320114
134	0x3e0f3429	0.13984741
135	0xbe272858	-0.16323984
136	0x3d16217b	0.036653023
137	0xbbc874d5	-0.006117443
138	0xbe75e8b7	-0.24014555
139	0xbdb26037	-0.08709758
140	0x3de93134	0.11386338
141	0x3db90cca	0.090356424
142	0x3e853367	0.2601578
143	0xbab1b3af	-0.0013557578
144	0x3dbad613	0.09122863
145	0xbd7cf2db	-0.061755043
146	0xbe82af62	-0.2552443
147	0x3dde47e7	0.10853558
148	0x3cbddf72	0.023177836
149	0x3ddc9f20	0.10772538
150	0x3e04bb22	0.1296201
151	0x3d02f21e	0.031969182
152	0x3dc68336	0.09692995
153	0xbbba0254	-0.005676547
154	0xbe179f05	-0.14806755
155	0xbd98e04d	-0.07464657
156	0xbdcb547f	-0.09928226
157	0x3e1f8ee4	0.15581852
158	0xbeae2067	-0.34009096
159	0xbd67fe3a	-0.056638934
160	0xbdeeb458	-0.116554916
161	0xbb573eb2	-0.0032843766
162	0xbdf6d4fc	-0.12052342
163	0x3dea3d56	0.1143748
164	0x3e22677d	0.1585979
165	0x3c203f75	0.009780754
166	0xbdcfbc2b	-0.10143312
167	0x3cb98596	0.022646707
168	0xbe080166	-0.13281783
169	0x3dceac96	0.10091512
170	0xbd97cbd3	-0.07411923
171	0x3d858982	0.06520368
172	0x3c22a9e6	0.009928202
173	0x3ccec120	0.025238574
174	0xbd87fbb5	-0.06639806
175	0x3b7abab6	0.003825826
176	0x3c462e9b	0.012096073
177	0xbe0e611a	-0.13904229
178	0xbdbae2d7	-0.091252975
179	0x3db0b2af	0.08627831
180	0x3c0fecfe	0.008784531
181	0x3d14df1d	0.03634559
182	0xbe0c5787	-0.13705264
183	0x3d86d9ef	0.06584536
184	0xbce3adf3	-0.027792906
185	0xbcee7493	-0.029108321
186	0x3d40c6d5	0.04706462
187	0x3d0fed0c	0.035138175
188	0xbe04d182	-0.12970546
189	0xbee36423	-0.44412336
190	0xbe4916bf	-0.19637583
191	0xbe47e4d4	-0.19520885
192	0xbe3f5e1d	-0.18688245
193	0x3dd933af	0.10605561
194	0xbeaa8229	-0.3330243
195	0xbd8c9f8b	-0.06866368
196	0x3dc435a2	0.09580542
197	0xbb06be8b	-0.002056035
198	0x3e117a16	0.14206728
199	0xbe5e6381	-0.21717645
200	0x3c7c4636	0.015397599
201	0x3d83586b	0.06413349
202	0x3d209957	0.039208736
203	0xbe4169d7	-0.18888031
204	0x3cabc1de	0.020966467
205	0x3bf335db	0.0074221916
206	0xbd8690ea	-0.06570609
207	0xbdefdc76	-0.117119715
208	0xbd9bd81f	-0.07609581
209	0x3e29c92e	0.1658065
210	0xbd224ced	-0.039624143
211	0xbdca7eb0	-0.09887445
212	0xbd756b02	-0.059916504
213	0xbe002280	-0.1251316
214	0x3c4c7b38	0.0124805495
215	0xbd79a7aa	-0.060950913
216	0x3b4010f3	0.0029306978
217	0xbdb8f5cc	-0.09031257
218	0xbcc1e873	-0.02367041
219	0xbcfabd2c	-0.030607782
220	0xbe280aac	-0.16410321
221	0x3d2e719c	0.042588815
222	0xbcfc7021	-0.030815186
223	0x3ea421aa	0.32056934
224	0xbe026ef9	-0.12737645
225	0xbdb44b29	-0.08803398
226	0x3d573d33	0.0525486
227	0x3d7e5f59	0.06210265
228	0x3ddb0332	0.10693969
229	0xbdc4c34b	-0.09607562
230	0xbe87778c	-0.26458395
231	0x3d401e49	0.046903882
232	0xbc0373ea	-0.008023242
233	0x3c7b654e	0.015343977
234	0x3dd14a65	0.10219268
235	0xbdeaa1f7	-0.114566736
236	0x3d00ad7e	0.031415455
237	0xbddb6e3c	-0.10714385
238	0xbd247352	-0.04014904
239	0x3dd4ee05	0.10396961
240	0xbdecaf99	-0.1155693
241	0xbc7d7237	-0.0154691255
242	0x3d787f3d	0.06066822
243	0x3d2a918c	0.04164271
244	0x3e2605b1	0.16213109
245	0xbd9c04d2	-0.07618107
246	0xbda97e13	-0.08276
247	0x3dfb4484	0.12268928
248	0xbde6383c	-0.112411946
249	0x3deb4574	0.114878565
250	0xbdfee291	-0.12445558
251	0x3d97f74e	0.074202165
252	0xbcbe8612	-0.02325729
253	0xbda7b204	-0.08188251
254	0xbe0eb372	-0.1393564
255	0x3dd0693f	0.10176324

linears.2.bias f4 [100]
0	0xbe516c18	-0.2045139
1	0xbe36138e	-0.17780897
2	0xbe0d8c8c	-0.13823146
3	0xbd8cef73	-0.06881609
4	0xbe5d2907	-0.21597682
5	0xbe44335c	-0.19160217
6	0xbeeb610f	-0.45972487
7	0xbe4b5954	-0.19858295
8	0x3bb09c98	0.005389761
9	0xbde47784	-0.11155608
10	0xbde4d3c6	-0.11173205
11	0xbe057c59	-0.13035716
12	0x3dc3e599	0.09565277
13	0xbe64f577	-0.22359262
14	0xbe0af62e	-0.13570473
15	0xbe839134	-0.2569672
16	0xbe23d43e	-0.15998933
17	0xbe6eb50b	-0.2331125
18	0xbe240e45	-0.16021068
19	0xbe39beb7	-0.18139158
20	0xbe7820bb	-0.24231236
21	0xbd8ddab7	-0.06926482
22	0xbdb0412d	-0.08606181
23	0xbe189aca	-0.14902797
24	0xbe977370	-0.2958026
25	0xbe20426a	-0.15650335
26	0xbe12c003	-0.14331059
27	0xbe519276	-0.20466027
28	0xbe3f441a	-0.18678322
29	0xbeb9691f	-0.36213014
30	0xbe1d0d5f	-0.15337132
31	0xbe1b92f5	-0.15192778
32	0xbe854cd2	-0.26035172
33	0xbe37572c	-0.17904347
34	0xbdb68876	-0.089127466
35	0x3d61f40a	0.055164374
36	0xbe2ca139	-0.16858377
37	0xbe3c9425	-0.18415888
38	0xbe89de61	-0.26927474
39	0xbeb58060	-0.35449505
40	0xbddc05b8	-0.10743278
41	0xbe416487	-0.18886004
42	0x3c7b5673	0.015340435
43	0xbe03de37	-0.12877737
44	0xbe28c558	-0.1648153
45	0xbe992dad	-0.2991766
46	0xbe568313	-0.20948438
47	0xbecc5778	-0.39910483
48	0xbe5c87a6	-0.21536121
49	0xbe6b818e	-0.2299864
50	0x3e6cb09a	0.23114243
51	0xbe183490	-0.14863801
52	0xbe082188	-0.13294041
53	0xbe0df47f	-0.13862799
54	0xbe5c1038	-0.21490562
55	0xbe43cbc6	-0.19120702
56	0xbe06968d	-0.13143368
57	0xbdc30588	-0.095225394
58	0xbea17a99	-0.31538847
59	0xbe706567	-0.23476182
60	0xbdae2d75	-0.08504764
61	0xbd9fd82b	-0.07804903
62	0xbe540dd9	-0.20708407
63	0xbe259b10	-0.16172433
64	0xbe9bbe51	-0.30418637
65	0xbe45ef47	-0.19329558
66	0xbd92a081	-0.0715952
67	0xbe5dc8f3	-0.21658687
68	0xbdee3646	-0.116314456
69	0xbe3582c5	-0.17725666
70	0xbe88053f	-0.26566502
71	0xbdd9bb7f	-0.10631465
72	0xbeaac5f5	-0.33354154
73	0xbe6bb409	-0.23017897
74	0xbe480611	-0.19533564
75	0xbdfc66b4	-0.123242766
76	0xbe5128ad	-0.20425673
77	0xbea7c1fe	-0.32765192
78	0xbe65c950	-0.22440076
79	0xbe242995	-0.16031487
80	0xbdd3618c	-0.1032134
81	0xbe1ed032	-0.15509108
82	0xbe63b3c5	-0.22236545
83	0xbe282ad5	-0.16422589
84	0xbe531697	-0.20614086
85	0xbe934149	-0.28760746
86	0xbe489969	-0.19589771
87	0xbef82448	-0.4846518
88	0xbe18a021	-0.14904834
89	0xbe261376	-0.16218361
90	0xbdea9dad	-0.114558555
91	0xbdf41fc8	-0.11920124
92	0xbe263241	-0.16230108
93	0xbe3cfa6f	-0.18454908
94	0xbef96888	-0.48712564
95	0xbe2aa4da	-0.16664448
96	0xbe372acc	-0.1788742
97	0xbe18d475	-0.14924796
98	0xbe870b6e	-0.26375908
99	0xbdd07d91	-0.101802

linears.3.weight f4 [5, 100]
0	0xbb0adae8	-0.0021187607
1	0x3dba5ccb	0.0909973
2	0x3af54499	0.001871246
3	0xbb2fcc77	-0.0026824751
4	0xbba3646f	-0.004986338
5	0xbe26599d	-0.16245122
6	0x3d9eae63	0.077481054
7	0x3b2b4405	0.0026133072
8	0x3cc57bf3	0.024106955
9	0x3dcdc752	0.10047783
10	0x3d9ed816	0.07756059
11	0xbaf0079d	-0.0018312816
12	0xbe6df624	-0.23238426
13	0x3e240763	0.16018443
14	0x3e8bc622	0.272996
15	0xbdee8d19	-0.11648006
16	0xbda49ca4	-0.08037689
17	0xbe9d87a7	-0.30767557
18	0xbd893864	-0.06700209
19	0x3b5e92cc	0.003396201
20	0xbe575a3f	-0.2103052
21	0xbdc0b7b5	-0.09410039
22	0xbe13ee7d	-0.14446445
23	0xbc35dd7f	-0.011100172
24	0x3e3cc26a	0.18433538
25	0x3b05d66e	0.0020422
26	0xbc0a3f37	-0.008437923
27	0xbccab7b5	-0.024745801
28	0x3b4b4b88	0.0031020362
29	0xbe27ad96	-0.16374812
30	0x3dbc26b7	0.09187072
31	0xba9a6391	-0.0011778941
32	0x3d10c01c	0.03533946
33	0xbd36560f	-0.044515666
34	0xbc005782	-0.0078333635
35	0xbd382d68	-0.044965178
36	0xbc8b2868	-0.01698704
37	0x3e110b43	0.14164452
38	0x3e2ba46e	0.16761944
39	0xbdc58ad1	-0.09645618
40	0xbaaa9f14	-0.001301738
41	0xbaa848c1	-0.0012839065
42	0xbca4f47c	-0.02013611
43	0x3e090a81	0.13382913
44	0xbad646d9	-0.0016348019
45	0xbe434cfc	-0.19072336
46	0xba20868e	-0.0006123566
47	0xbe2c9ae6	-0.16855964
48	0xbe9439b9	-0.2895029
49	0xbd1ff8d8	-0.039055675
50	0x38d63c5d	0.00010215559
51	0xbdb22ec4	-0.08700326
52	0x3de220da	0.11041422
53	0xbdaf3203	-0.08554461
54	0xbb1305a1	-0.0022433775
55	0xbcd4003b	-0.025879016
56	0xbbfe4dbe	-0.0077607324
57	0xbd35c734	-0.044379428
58	0xbc854471	-0.016267987
59	0xbe3c4538	-0.1838578
60	0xbd999f11	-0.07501043
61	0x3ddd1769	0.10795481
62	0xbb4c3d56	-0.0031164489
63	0x3c526e31	0.0128436545
64	0x3e043a03	0.12912755
65	0x3e6b113f	0.22955798
66	0x3b7ef722	0.0038904627
67	0x3e87f72e	0.2655577
68	0x3d7e945f	0.062153216
69	0x3d5bb3d1	0.053638283
70	0xbe330b16	-0.17484698
71	0x3e408622	0.18801168
72	0x3e02cb10	0.12772775
73	0x3e14b087	0.14520465
74	0xbe0a6100	-0.13513565
75	0x3ab4e689	0.0013801615
76	0xbd709ece	-0.058745198
77	0x3df47c4b	0.119377695
78	0xbdbd45b8	-0.092418134
79	0x3e498292	0.19678715
80	0xbac9e616	-0.0015403654
81	0x3df631c5	0.120212115
82	0x3e249858	0.1607374
83	0xbb3f548c	-0.002919468
84	0x3c308d36	0.010775855
85	0x3e55e5ed	0.20888491
86	0xbe78d8ce	-0.24301454
87	0x3cc9b25e	0.024621185
88	0x3b56249f	0.0032675636
89	0xbe745fd0	-0.23864675
90	0x3b6627fd	0.003511905
91	0xbadfb853	-0.0017068483
92	0x3e21981a	0.15780678
93	0xbd9e307b	-0.07724091
94	0xbe0060c8	-0.12536919
95	0x3978c276	0.00023723565
96	0x3e6f80fc	0.23389047
97	0xbb593485	-0.0033142876
98	0x3c9f2109	0.019424932
99	0xbe4e2bd6	-0.2013391
100	0x39ebbcef	0.0004496346
101	0xbc44d306	-0.0120132025
102	0xbaafd417	-0.0013414648
103	0xbb61a2ff	-0.0034429429
104	0xbac05682	-0.0014674219
105	0x3cd8535e	0.02640694
106	0xbc7c50b7	-0.015400103
107	0x3aa5e78f	0.0012657511
108	0xbbdc92a1	-0.0067313467
109	0xbc33b49e	-0.010968355
110	0xbc3f236e	-0.011666162
111	0x3b995e66	0.0046804426
112	0x3ca0b09b	0.019615462
113	0xbc7f544b	-0.015584062
114	0xbcc41f12	-0.023940597
115	0x3cadc973	0.021214223
116	0x3c8b06b7	0.016970975
117	0x3cda5ff8	0.02665709
118	0x3bec13ab	0.007204493
119	0x3b2737af	0.0025515368
120	0x3c8a9311	0.01691583
121	0x3c8a3eb8	0.01687561
122	0x3c5618cb	0.013067435
123	0xbbcff3bb	-0.0063461936
124	0xbcd17ee3	-0.0255732
125	0xbb5b34e4	-0.0033448273
126	0xbbb3f531	-0.0054918756
127	0x3c0121d5	0.007881601
128	0x3b68ecfd	0.0035541647
129	0x3c06c63e	0.008225976
130	0xbc507c9d	-0.012725023
131	0xbab04606	-0.0013448603
132	0xbb81a030	-0.0039558634
133	0x3b93750b	0.0045000366
134	0xbb98fb30	-0.0046686158
135	0x3b432d51	0.002978165
136	0xbc933dd7	-0.017973823
137	0xbcfbe263	-0.030747598
138	0xbd708da1	-0.058728818
139	0x3c3d45c0	0.011552274
140	0xbb4a1a99	-0.0030838607
141	0xba86b5f6	-0.0010277617
142	0xbb4e1873	-0.0031447678
143	0xbca5a0eb	-0.020218333
144	0x3828ef0d	4.0276955e-05
145	0x3cb6af27	0.022300316
146	0xba6c02af	-0.00090030854
147	0x3cacdbbf	0.021100877
148	0x3d2401df	0.040040847
149	0x3bda23d1	0.0066571017
150	0x38b2a80d	8.519003e-05
151	0x3c5b32ae	0.013378782
152	0xbc0bf150	-0.00854142
153	0x3c45e982	0.012079598
154	0xbb828d17	-0.0039841044
155	0x3bb99ded	0.005664578
156	0xbb939c78	-0.0045047365
157	0x3b003c8d	0.001956734
158	0x3a9a0bc1	0.001175277
159	0x3cc0edc1	0.02355087
160	0x3c129c27	0.008948362
161	0xbca290fc	-0.019844525
162	0xb9d6d913	-0.00040978994
163	0xbc6516db	-0.0139825
164	0xbc66a3d5	-0.014077147
165	0xbd03b2a8	-0.0321528
166	0xb9b670ce	-0.0003479779
167	0xbd24753e	-0.040150873
168	0xbc129b62	-0.008948179
169	0xbba5a88a	-0.005055492
170	0x3cb7ec64	0.022451587
171	0xbd13525d	-0.03596722
172	0x3bb486d9	0.005509239
173	0xbcd77e87	-0.02630545
174	0x3cd83092	0.026390348
175	0x3afa27cf	0.001908535
176	0x3b37224c	0.0027944027
177	0xbbc66d4c	-0.0060555097
178	0x3c94d312	0.018167052
179	0xbcb7ff13	-0.022460496
180	0xb9a059ee	-0.0003058458
181	0xbc859765	-0.016307542
182	0xbc3644aa	-0.011124769
183	0x3a9078b2	0.0011022298
184	0xbb7bf107	-0.0038443224
185	0xbd070852	-0.03296692
186	0x3cb8dbc7	0.022565736
187	0x3cf40fc0	0.029792666
188	0xba1a43dc	-0.00058847456
189	0x3cdd6009	0.027023332
190	0xb9e87011	-0.00044333984
191	0xba9263d8	-0.0011168672
192	0xbc1fd73d	-0.009755907
193	0x3c8c3aea	0.017117936
194	0x3c2a1a75	0.010382284
195	0x395cb6c4	0.0002104892
196	0xbd116fed	-0.03550713
197	0x3b2ec22f	0.0026666035
198	0xbb67fdbd	-0.0035399043
199	0x3ce88d45	0.028387675
200	0x3b9c65fa	0.0047728987
201	0xbe21869b	-0.15774004
202	0xba47d82c	-0.00076234597
203	0x3af27312	0.0018497428
204	0xbc2f430d	-0.0106971385
205	0xbde844ea	-0.11341269
206	0xbe2b7dfc	-0.16747278
207	0xbc2d9890	-0.010595456
208	0x3ed246f1	0.4106975
209	0x3e6a47f0	0.22879004
210	0x3dd08470	0.101815104
211	0xbdd65efe	-0.10467337
212	0x3e2fa6e8	0.17153513
213	0x3d7f1577	0.06227633
214	0x3f0d7eba	0.55271494
215	0x3a5e0eeb	0.0008470851
216	0x3e9cd2cf	0.30629584
217	0x3c013204	0.00788546
218	0x3ec2bc6e	0.38034385
219	0xbbd4039c	-0.006470157
220	0x3d1aa4c9	0.037754808
221	0x3eda9361	0.42690566
222	0xbf2363bc	-0.6382406
223	0x3b0770f3	0.0020666688
224	0x3d84274f	0.0645281
225	0x3c049e5d	0.008094397
226	0xbb18832d	-0.0023271546
227	0xbe712123	-0.23547797
228	0xbb757111	-0.0037451426
229	0xbe8b1c1b	-0.2716988
230	0xbcd41341	-0.025888087
231	0x3be61c73	0.0070224344
232	0x3ee1d075	0.44104353
233	0xbdc9cd41	-0.09853602
234	0x3aeb6c4d	0.0017961353
235	0x3fa587fa	1.2932122
236	0xbd0c5c19	-0.03426752
237	0xbd4573cb	-0.048206132
238	0x3e11853b	0.1421098
239	0xbd91a3a6	-0.071112916
240	0x3c1b880e	0.009492887
241	0x3bef9d1c	0.00731243
242	0x3f48a799	0.78380734
243	0x3edd9fe0	0.43286037
244	0x3bfcca91	0.0077145775
245	0xbe978aca	-0.29598075
246	0x3bd52ff4	0.0065059606
247	0xbd0cd66c	-0.034384176
248	0xbedbb3ac	-0.42910516
249	0x3dfb9fdd	0.12286351
250	0xbf4003ce	-0.75005805
251	0x3e947f55	0.29003397
252	0xbeb8c585	-0.36088195
253	0xbe9f0e77	-0.31065723
254	0x3c457d67	0.012053824
255	0xbd5a41fb	-0.05328558

linears.3.bias f4 [5]
0	0x3d2d9bce	0.042384915
1	0xbd44a7ac	-0.048011467
2	0x3dfc409f	0.12317013
3	0xbda9673b	-0.08271643
4	0xbd44d72f	-0.048056778

exp_avg f4 [100, 1]
0	0xb05cc85a	-8.032025e-10
1	0xb4532847	-1.9665559e-07
2	0xb38ae97b	-6.4685956e-08
3	0xb439e132	-1.7311393e-07
4	0x346971cd	2.1741216e-07
5	0x340d9def	1.3189104e-07
6	0xb43de6e1	-1.768599e-07
7	0xb2d56018	-2.4840162e-08
8	0x343fcd2a	1.78629e-07
9	0xb43076f2	-1.643455e-07
10	0xb46004a4	-2.0863314e-07
11	0x332552ac	3.8492246e-08
12	0x33042fe6	3.077721e-08
13	0x34724d2d	2.2566083e-07
14	0xb4944da4	-2.762364e-07
15	0x32b70cb2	2.1309777e-08
16	0x340be6f8	1.302941e-07
17	0x33d7fb05	1.0057378e-07
18	0xb39c605c	-7.281844e-08
19	0x31305642	2.5660403e-09
20	0xb2dba069	-2.5567902e-08
21	0xb4905545	-2.6884132e-07
22	0xb31cb4d4	-3.6486043e-08
23	0xb49d84e6	-2.9340225e-07
24	0xb4189bd2	-1.421279e-07
25	0xb4824699	-2.4265753e-07
26	0x34037330	1.224223e-07
27	0xb3a8e838	-7.86535e-08
28	0x33a95a19	7.8860644e-08
29	0xb31ed31c	-3.6979245e-08
30	0x33989caf	7.106552e-08
31	0x342328d0	1.5195405e-07
32	0x343a29d2	1.7337814e-07
33	0xb4834876	-2.4453374e-07
34	0xb467ab25	-2.1575813e-07
35	0x3421465f	1.5019894e-07
36	0xb3aeeba3	-8.1453685e-08
37	0x339fa469	7.4339205e-08
38	0xb371fb13	-5.6340536e-08
39	0xb4a97af4	-3.1568163e-07
40	0xb388b8dd	-6.36662e-08
41	0x332c7699	4.0154735e-08
42	0x334e9f33	4.8107903e-08
43	0x338f4221	6.670985e-08
44	0x33f482cb	1.13859265e-07
45	0x33918add	6.777348e-08
46	0x342ba387	1.5985107e-07
47	0xb4a3370f	-3.0401176e-07
48	0xb483169b	-2.44171e-07
49	0xb48beb1c	-2.6061832e-07
50	0x33c63b9b	9.230936e-08
51	0x3402e386	1.2189966e-07
52	0xb4100979	-1.3414491e-07
53	0x32e6c032	2.6862924e-08
54	0xb44a669b	-1.8850044e-07
55	0x33d93ab0	1.0115525e-07
56	0xb47ab590	-2.3349116e-07
57	0xb4bf150f	-3.5591844e-07
58	0xb3de4488	-1.0350146e-07
59	0xb45bdb23	-2.0475686e-07
60	0xb3a27c23	-7.566293e-08
61	0xb48ef37a	-2.6626714e-07
62	0x3374fecd	5.7042417e-08
63	0x342074f3	1.4943707e-07
64	0x33e69e37	1.0738989e-07
65	0x33783212	5.778754e-08
66	0xb2605340	-1.3057445e-08
67	0xb44b2263	-1.8918358e-07
68	0xb41d2de5	-1.4638461e-07
69	0x342aab80	1.5894875e-07
70	0x3364b43e	5.3249316e-08
71	0x342ef18a	1.6292884e-07
72	0xb46fc64f	-2.2330754e-07
73	0x33a4ec2e	7.679806e-08
74	0x3314e7b0	3.4669654e-08
75	0xb414cc5e	-1.3857922e-07
76	0xb30a6449	-3.2221838e-08
77	0x3440ee37	1.7968055e-07
78	0x34198b98	1.430002e-07
79	0x343ced46	1.7595184e-07
80	0xb4851cfd	-2.4794272e-07
81	0x341912b0	1.4256034e-07
82	0x33a4bca8	7.6711615e-08
83	0x33baf450	8.70574e-08
84	0x33f76cd1	1.15216274e-07
85	0x33cb7614	9.4744024e-08
86	0xb3ac16b8	-8.013507e-08
87	0x33b3a221	8.364828e-08
88	0x33a19639	7.524472e-08
89	0x33b71d86	8.526972e-08
90	0xb34dec49	-4.7945182e-08
91	0xb409f69b	-1.2848834e-07
92	0xb30181d9	-3.015325e-08
93	0xb42f5777	-1.6329965e-07
94	0x343a8102	1.7369533e-07
95	0x349c73fc	2.9141654e-07
96	0xb489bd9d	-2.56562e-07
97	0xb2867318	-1.5651992e-08
98	0xb389cdfe	-6.4170294e-08
99	0xb3b0059e	-8.1966604e-08

exp_avg_sq f4 [100, 1]
0	0x305a4b6c	7.941512e-10
1	0x2f8e246c	2.585553e-10
2	0x2f8ddadf	2.5803268e-10
3	0x2f263d1f	1.5119327e-10
4	0x2f850310	2.4194735e-10
5	0x2f1a26e9	1.4020042e-10
6	0x2e3b85c7	4.2637695e-11
7	0x30162ba9	5.4631727e-10
8	0x2fa1877e	2.9382002e-10
9	0x2f0b1ab6	1.2651466e-10
10	0x2e807286	5.8411095e-11
11	0x2fa8bc83	3.0692968e-10
12	0x2fa77fd3	3.0467948e-10
13	0x2f34eff3	1.6456152e-10
14	0x2eed7725	1.07986765e-10
15	0x303279f9	6.4929356e-10
16	0x2ea5a2af	7.53223e-11
17	0x2e9d1ff3	7.145209e-11
18	0x2fbe9de7	3.4672995e-10
19	0x2fad58bb	3.1531563e-10
20	0x2fa8dff8	3.071816e-10
21	0x2f733ee2	2.2123062e-10
22	0x2fd52378	3.8769676e-10
23	0x2f3ae65a	1.6998439e-10
24	0x2f7979d8	2.2689706e-10
25	0x2e9b1bcb	7.053521e-11
26	0x2f418f33	1.7604122e-10
27	0x2f39f1cd	1.6911557e-10
28	0x2f55c971	1.9443804e-10
29	0x2e1aecda	3.5225912e-11
30	0x2fc0540d	3.4984318e-10
31	0x2eb40e40	8.1879836e-11
32	0x2f3eb955	1.7346242e-10
33	0x2eedb8c5	1.0810334e-10
34	0x2f035a36	1.194643e-10
35	0x2ee9d21a	1.0632935e-10
36	0x2e2be756	3.9086366e-11
37	0x3008f75a	4.982802e-10
38	0x2f57e22d	1.963449e-10
39	0x2f1e9e85	1.4426334e-10
40	0x2f0ea346	1.2972831e-10
41	0x2facfe8d	3.1467487e-10
42	0x2fc9c2c7	3.6700085e-10
43	0x2e6b1d36	5.3458758e-11
44	0x2ebcec6e	8.5912485e-11
45	0x2eefafa0	1.0899659e-10
46	0x2f4cb35e	1.8617416e-10
47	0x2f2b57b2	1.5583515e-10
48	0x2f809b12	2.3393248e-10
49	0x2ef71af3	1.1237047e-10
50	0x2f80b3e2	2.341088e-10
51	0x2f91e2de	2.6536545e-10
52	0x2f36bf5a	1.6620785e-10
53	0x2fadbdef	3.1603473e-10
54	0x2f1df670	1.4366619e-10
55	0x30039532	4.786954e-10
56	0x2edd6073	1.0067049e-10
57	0x300dc2bb	5.157223e-10
58	0x2f5ab7d7	1.9892298e-10
59	0x2f766345	2.2408837e-10
60	0x2f88077c	2.4743574e-10
61	0x2f01520f	1.1761635e-10
62	0x2fbb7e51	3.4104855e-10
63	0x2f3c9a62	1.7153348e-10
64	0x2f118a36	1.3236776e-10
65	0x2fda279f	3.9682121e-10
66	0x30177145	5.5094446e-10
67	0x2e4a5704	4.6006768e-11
68	0x2f2d3de4	1.5756246e-10
69	0x2fad73a0	3.1550673e-10
70	0x2f66f877	2.100665e-10
71	0x2f7f5e5e	2.3225641e-10
72	0x2f435a19	1.7767156e-10
73	0x2fda6fac	3.9733317e-10
74	0x2f8e79f9	2.5916316e-10
75	0x2f614cf8	2.0490976e-10
76	0x3046bd62	7.230111e-10
77	0x2f481094	1.8195784e-10
78	0x2f3db91a	1.7255211e-10
79	0x2eb79fd4	8.350268e-11
80	0x2ebf87f5	8.709825e-11
81	0x2ee2ef19	1.03197624e-10
82	0x2f932318	2.676408e-10
83	0x2fa48127	2.9923194e-10
84	0x2f0322c2	1.1926729e-10
85	0x2e33a93c	4.0850198e-11
86	0x2e95e9a9	6.817242e-11
87	0x2f65f250	2.0913515e-10
88	0x2ffa29bd	4.5504392e-10
89	0x2f1c4fe0	1.4216495e-10
90	0x2e85b3d9	6.080087e-11
91	0x2f9d6075	2.862667e-10
92	0x2eae1b76	7.917482e-11
93	0x2f2a4540	1.5486012e-10
94	0x2f2c824e	1.5689602e-10
95	0x2f4830c8	1.8207225e-10
96	0x2f51e3f0	1.9089419e-10
97	0x302eaf77	6.355018e-10
98	0x2e42284b	4.414628e-11
99	0x2efddf9f	1.1544831e-10

exp_avg f4 [100]
0	0x36e3688c	6.777298e-06
1	0xb630cf22	-2.634661e-06
2	0x35354e86	6.754202e-07
3	0xb497bbb5	-2.8262517e-07
4	0x36365c97	2.7174008e-06
5	0x34922c1b	2.722671e-07
6	0xb59045fd	-1.0749205e-06
7	0x36d2a491	6.2776458e-06
8	0xb4f24d6d	-4.5132347e-07
9	0xb626b68a	-2.484218e-06
10	0xb5562b5e	-7.978432e-07
11	0xb5d3036f	-1.5721724e-06
12	0xb304d278	-3.0925065e-08
13	0x358dcb6e	1.0564524e-06
14	0xb64fc952	-3.0962588e-06
15	0x370306e4	7.809813e-06
16	0x35a7d868	1.2505452e-06
17	0x33cb5066	9.4675485e-08
18	0x369f110e	4.7405547e-06
19	0xb3806eb5	-5.980602e-08
20	0xb4d35bc4	-3.936858e-07
21	0xb66ab407	-3.4973507e-06
22	0x36a64328	4.9550035e-06
23	0xb62aebc6	-2.5469212e-06
24	0xb56a07a5	-8.718292e-07
25	0xb6144e44	-2.2099275e-06
26	0x354d59b7	7.6499003e-07
27	0x36b94ac8	5.5221353e-06
28	0xb4e3a36b	-4.2400947e-07
29	0x3596f376	1.1246727e-06
30	0xb6dc982f	-6.5742274e-06
31	0x353f7f79	7.133854e-07
32	0xb3d78ddb	-1.0037521e-07
33	0xb5876bf2	-1.00897e-06
34	0xb61ad4a8	-2.307157e-06
35	0x35c30d42	1.4532491e-06
36	0x36483b1c	2.9836729e-06
37	0xb6af0574	-5.2160412e-06
38	0x35e1df9e	1.6828888e-06
39	0xb64baec4	-3.0351084e-06
40	0x356b2c6d	8.760897e-07
41	0xb586ceaa	-1.0043925e-06
42	0xb60a3c00	-2.0598527e-06
43	0xb5f770ac	-1.8435726e-06
44	0xb398c62c	-7.114099e-08
45	0xb4a32a07	-3.0391695e-07
46	0x354ddd46	7.6690446e-07
47	0xb6352aec	-2.6996086e-06
48	0xb6568be9	-3.1969923e-06
49	0xb61ae58a	-2.3081398e-06
50	0xb64ff86b	-3.0990002e-06
51	0xb58dcdf4	-1.0565259e-06
52	0xb5204ba3	-5.971471e-07
53	0xb423de1c	-1.5261361e-07
54	0xb5218abb	-6.0179053e-07
55	0xb6891597	-4.0854316e-06
56	0xb55e142f	-8.2730816e-07
57	0xb6162a46	-2.2376348e-06
58	0x36a8eadd	5.034132e-06
59	0xb603e9fc	-1.9656718e-06
60	0x36d58697	6.363563e-06
61	0x355f01f8	8.307684e-07
62	0xb52af1cf	-6.3681813e-07
63	0xb40f6092	-1.3353045e-07
64	0x34d45d57	3.955599e-07
65	0xb5eef9ce	-1.7805085e-06
66	0x36dc383e	6.5630584e-06
67	0xb5467582	-7.3931744e-07
68	0xb5fd8aaf	-1.8890331e-06
69	0xb58bf02c	-1.0426206e-06
70	0xb4c90010	-3.7439213e-07
71	0x35286bb4	6.2741606e-07
72	0xb63745f2	-2.7309839e-06
73	0xb6424f8f	-2.8954562e-06
74	0xb462a305	-2.1107196e-07
75	0xb48dd5c0	-2.641882e-07
76	0x36ef6cb6	7.1354107e-06
77	0xb4694d93	-2.1728037e-07
78	0x34d5a036	3.979091e-07
79	0x35f5a3e0	1.8301616e-06
80	0xb5684c6c	-8.6537943e-07
81	0x348b9a9a	2.6003255e-07
82	0xb53bbf99	-6.994174e-07
83	0xb5cdd1f1	-1.5334791e-06
84	0x3381a48d	6.036962e-08
85	0xb38cad55	-6.550787e-08
86	0x36ad5099	5.1651846e-06
87	0xb53990fe	-6.912886e-07
88	0xb587b4a9	-1.0110863e-06
89	0xb51b0d86	-5.776168e-07
90	0x361ba453	2.319245e-06
91	0x35f95e9e	1.8579483e-06
92	0x35612497	8.3872277e-07
93	0x368daec5	4.2224733e-06
94	0xb38fe69f	-6.700906e-08
95	0x36dd50dc	6.5957265e-06
96	0xb5948173	-1.1064534e-06
97	0x36ea6367	6.9853154e-06
98	0x35de90d0	1.6582435e-06
99	0x36c05372	5.73176e-06

exp_avg_sq f4 [100]
0	0x360c49fc	2.090469e-06
1	0x3560b113	8.370418e-07
2	0x34dfff70	4.1722842e-07
3	0x3427b34b	1.5618313e-07
4	0x34cfde96	3.8718707e-07
5	0x33daebe1	1.0194322e-07
6	0x3401aecc	1.2077652e-07
7	0x35f9bd40	1.8607025e-06
8	0x34325db8	1.6611637e-07
9	0x3513f766	5.512178e-07
10	0x3363de41	5.3054695e-08
11	0x353599e3	6.765169e-07
12	0x34de4924	4.140394e-07
13	0x349b2d53	2.8903978e-07
14	0x34b9af9c	3.4586708e-07
15	0x36696091	3.4775915e-06
16	0x34d2a9a0	3.9238967e-07
17	0x33e96e9c	1.0870028e-07
18	0x35f5ee96	1.832336e-06
19	0x34f126fb	4.491811e-07
20	0x33ba832f	8.685162e-08
21	0x3541ead7	7.223984e-07
22	0x35848b4e	9.875309e-07
23	0x33bc9874	8.782163e-08
24	0x33eab22c	1.09288834e-07
25	0x3439a442	1.7289224e-07
26	0x344d520e	1.9121964e-07
27	0x3596d678	1.123829e-06
28	0x3472d37c	2.2614944e-07
29	0x3307bcd7	3.1603886e-08
30	0x365ef495	3.3222943e-06
31	0x3477a3a7	2.3063204e-07
32	0x33fc11c5	1.1737897e-07
33	0x330901bf	3.1899386e-08
34	0x34d5b194	3.9803547e-07
35	0x3490af23	2.694952e-07
36	0x3488445d	2.5381715e-07
37	0x366d9a9d	3.5405749e-06
38	0x35575e75	8.0231194e-07
39	0x33d8767d	1.0079837e-07
40	0x3538c871	6.883702e-07
41	0x352e87c2	6.5017605e-07
42	0x358f0e17	1.0658431e-06
43	0x34dcf983	4.1159737e-07
44	0x33f3e2e0	1.13568376e-07
45	0x33d3f7eb	9.870549e-08
46	0x34369a03	1.70061e-07
47	0x33455c3b	4.595152e-08
48	0x35679af6	8.6279704e-07
49	0x3401a868	1.2075327e-07
50	0x358eab98	1.0629765e-06
51	0x34878d63	2.5248582e-07
52	0x340ec178	1.3295164e-07
53	0x35202a86	5.9666525e-07
54	0x34094679	1.2784757e-07
55	0x35f34569	1.8125112e-06
56	0x335e5666	5.1766982e-08
57	0x344a62b6	1.8848627e-07
58	0x3613d0f0	2.2026325e-06
59	0x3557e76e	8.0430516e-07
60	0x361805d8	2.2653167e-06
61	0x34d3a1fe	3.9419677e-07
62	0x351ef22d	5.9212e-07
63	0x341cdd66	1.4609176e-07
64	0x3435351b	1.6876258e-07
65	0x358d903e	1.0547299e-06
66	0x36064bac	2.0011603e-06
67	0x33befdcd	8.8937306e-08
68	0x3498fb2b	2.8494955e-07
69	0x34837dfe	2.4492323e-07
70	0x34c6bde2	3.7018532e-07
71	0x342fbb87	1.6366367e-07
72	0x3503f09e	4.9151447e-07
73	0x35a82a59	1.25293e-06
74	0x34cf0217	3.8558275e-07
75	0x34b0d4f0	3.2937487e-07
76	0x36379641	2.7356584e-06
77	0x33e4b3ce	1.06497836e-07
78	0x343f2c11	1.7804292e-07
79	0x3512e827	5.4727064e-07
80	0x3318fd67	3.5620726e-08
81	0x33f04e0e	1.1190069e-07
82	0x34a1b65a	3.0121265e-07
83	0x352f9636	6.5411166e-07
84	0x33ed1663	1.10402446e-07
85	0x33803cee	5.9715475e-08
86	0x35d1fdb3	1.564555e-06
87	0x3452ff63	1.9650683e-07
88	0x35953057	1.1115434e-06
89	0x342cbf5b	1.6088363e-07
90	0x34b8c165	3.4413384e-07
91	0x353861cf	6.868767e-07
92	0x332d64a6	4.037124e-08
93	0x358c8a85	1.0471127e-06
94	0x33df60ad	1.0401832e-07
95	0x362fd536	2.6201137e-06
96	0x33fd91ab	1.18077274e-07
97	0x3624b4d0	2.454315e-06
98	0x340a21d5	1.286456e-07
99	0x35f0a5b8	1.7929624e-06

exp_avg f4 [100, 100]
0	0xb3137f07	-3.4341635e-08
1	0xb2d7e9e7	-2.513566e-08
2	0x30aa16f9	1.2375657e-09
3	0xb2866c17	-1.5648807e-08
4	0x3288be60	1.5919056e-08
5	0x31d80dac	6.2879817e-09
6	0xb252a300	-1.2260671e-08
7	0xb2714c1b	-1.4045351e-08
8	0x326e3f77	1.38678535e-08
9	0xb27fab71	-1.4881935e-08
10	0xb28d9068	-1.6480229e-08
11	0xb1d7b953	-6.2783925e-09
12	0xb2339ceb	-1.045485e-08
13	0x32a9acb7	1.9752731e-08
14	0xb2dffbec	-2.6075178e-08
15	0xb3111b85	-3.3785472e-08
16	0x326d2877	1.3804416e-08
17	0x320263c9	7.589684e-09
18	0x31a65804	4.841242e-09
19	0xb2bf27e2	-2.2253463e-08
20	0x3288b6f1	1.5915676e-08
21	0xb3027e0e	-3.038263e-08
22	0xb22fa6b6	-1.0224246e-08
23	0xb2dcb384	-2.5693005e-08
24	0xb23b957e	-1.0918823e-08
25	0xb2b5d40a	-2.1167597e-08
26	0x31ff719d	7.434393e-09
27	0xb25faad8	-1.3019154e-08
28	0x31a550ef	4.811333e-09
29	0x329e6113	1.8437765e-08
30	0xb2f6c343	-2.8726964e-08
31	0x32560929	1.2458522e-08
32	0x324aabac	1.1796981e-08
33	0xb2e4c5fa	-2.6632723e-08
34	0xb2b56647	-2.1117684e-08
35	0x32545836	1.2360081e-08
36	0xb14a7437	-2.946093e-09
37	0xb28db61a	-1.649737e-08
38	0x31566fe6	3.1204705e-09
39	0xb314faa6	-3.46869e-08
40	0x3225cbcc	9.650602e-09
41	0xb2edd9b0	-2.7689424e-08
42	0xb2088f6a	-7.9488505e-09
43	0xb14df977	-2.997323e-09
44	0x3256c896	1.2502047e-08
45	0x2f32d645	1.626513e-10
46	0x3228394b	9.791914e-09
47	0xb2f3482a	-2.832174e-08
48	0xb3141bcf	-3.4484227e-08
49	0xb2a6e887	-1.9430685e-08
50	0x3079cdf7	9.0878366e-10
51	0x31dab4e2	6.365199e-09
52	0xb20df52a	-8.263024e-09
53	0xb2dac621	-2.5468639e-08
54	0xb2d306c0	-2.4566702e-08
55	0x31cbda02	5.932862e-09
56	0xb2ddccc3	-2.5820901e-08
57	0xb306a1f5	-3.1346605e-08
58	0xb1b8bee2	-5.3768057e-09
59	0xb2eee10a	-2.7809183e-08
60	0x314b307e	2.9567953e-09
61	0xb2fa796e	-2.915905e-08
62	0xb1b52ded	-5.2730145e-09
63	0x320e949c	8.299278e-09
64	0x322dbb94	1.0112576e-08
65	0xb274a202	-1.4239506e-08
66	0xb29d08c9	-1.82812e-08
67	0xb287f7ba	-1.5828721e-08
68	0xb28c398c	-1.6324314e-08
69	0x32460764	1.1526797e-08
70	0xb20a0ca0	-8.035528e-09
71	0x32083996	7.929335e-09
72	0xb2989a4e	-1.7765299e-08
73	0xb20e698e	-8.289488e-09
74	0xb2935811	-1.71531e-08
75	0xb27a21df	-1.4559617e-08
76	0xb292ff14	-1.7112633e-08
77	0x327555b5	1.42803644e-08
78	0x322917e7	9.8425295e-09
79	0x3289a5c4	1.602428e-08
80	0xb2e835db	-2.7032845e-08
81	0x3254235b	1.2348063e-08
82	0x31882bcc	3.9631e-09
83	0x318e07c3	4.1336263e-09
84	0x31b01e92	5.1257496e-09
85	0x31d48fcc	6.18636e-09
86	0x328164f2	1.5063481e-08
87	0x3056fbac	7.8210394e-10
88	0xb21187e3	-8.471008e-09
89	0x3002a770	4.753167e-10
90	0x32823420	1.5157696e-08
91	0xb22473b9	-9.572369e-09
92	0x3315c69c	3.48724e-08
93	0xb2dc13f9	-2.5620453e-08
94	0x323bfb7f	1.0942016e-08
95	0x32ec6c4a	2.752326e-08
96	0xb2cf82eb	-2.4157506e-08
97	0xb2c54ca2	-2.2968667e-08
98	0x3182b71c	3.804315e-09
99	0x3090f36b	1.0546563e-09
100	0x339f1b1d	7.408946e-08
101	0x32a90873	1.9678032e-08
102	0xb2a14fec	-1.8779211e-08
103	0x31b8cdc1	5.3784963e-09
104	0xb1d00e83	-6.0552465e-09
105	0x31d56284	6.210316e-09
106	0x322b885d	9.984515e-09
107	0x32c2e901	2.269053e-08
108	0xb1f7787a	-7.2023427e-09
109	0x3252df30	1.2274356e-08
110	0x3221784f	9.398788e-09
111	0x32ccd2a7	2.384452e-08
112	0x32e8afed	2.7088356e-08
113	0xb2634b79	-1.32302995e-08
114	0x32a27f3a	1.8917138e-08
115	0x339f6459	7.4222676e-08
116	0xb2400e03	-1.1179057e-08
117	0xb18619f4	-3.902864e-09
118	0xb2f901fd	-2.898832e-08
119	0x335c514f	5.129669e-08
120	0xb3214e54	-3.7556973e-08
121	0x32e539bc	2.6685363e-08
122	0x32819e09	1.5089443e-08
123	0x325abc20	1.2732045e-08
124	0x31b5556f	5.277506e-09
125	0x3272a230	1.4123131e-08
126	0xb1a5f79b	-4.8302815e-09
127	0xb2311b55	-1.0308971e-08
128	0x30774ded	8.9968816e-10
129	0xb36bc3da	-5.4893327e-08
130	0x33b4230c	8.388278e-08
131	0xb18a007a	-4.016383e-09
132	0xb01450f7	-5.3957144e-10
133	0x323bacd1	1.09241265e-08
134	0x32590f5b	1.2634554e-08
135	0xb21efe7d	-9.254674e-09
136	0xb2b70ab3	-2.130887e-08
137	0x335fe027	5.21251e-08
138	0xb2991130	-1.781936e-08
139	0x32d5c89a	2.4887687e-08
140	0xb32842dc	-3.9176356e-08
141	0x339f7163	7.4246394e-08
142	0x32f2bc5d	2.8258166e-08
143	0x32a960d0	1.9718215e-08
144	0xb18d5e2c	-4.114346e-09
145	0x32630ac0	1.3215583e-08
146	0xb190948d	-4.20784e-09
147	0x32842f10	1.5388224e-08
148	0x3320f61b	3.7476735e-08
149	0x315cfd1a	3.2158085e-09
150	0x321b4d2b	9.039733e-09
151	0x301b4488	5.648606e-10
152	0x31800598	3.7259262e-09
153	0x3381b0c2	6.039183e-08
154	0x323cd3a1	1.0991159e-08
155	0x31fb3cac	7.311959e-09
156	0x321fafb3	9.2949675e-09
157	0x32542a69	1.2349667e-08
158	0xb2eeaed1	-2.7786344e-08
159	0x330acc83	3.231663e-08
160	0xb330de71	-4.1180503e-08
161	0x32143cae	8.628531e-09
162	0x32b0ec30	2.0596502e-08
163	0xb1554bd7	-3.103869e-09
164	0xb19c9561	-4.55718e-09
165	0x33426bec	4.52673e-08
166	0x33172726	3.5193032e-08
167	0x30ce0120	1.4988792e-09
168	0x32585704	1.259264e-08
169	0xb1ca18de	-5.881801e-09
170	0x32e74ce5	2.6926907e-08
171	0x308214bc	9.464638e-10
172	0x32481015	1.1645189e-08
173	0x330ba4ca	3.2513334e-08
174	0x332f79f1	4.0856268e-08
175	0x3296d9a9	1.7561279e-08
176	0x32e2cff7	2.6404434e-08
177	0xb19fe214	-4.653211e-09
178	0xb15385c4	-3.0780578e-09
179	0xb2331506	-1.04239515e-08
180	0x32578797	1.2545477e-08
181	0xb1b56921	-5.279745e-09
182	0xb090bd52	-1.0531187e-09
183	0x31dde99e	6.4585057e-09
184	0x2ff5d379	4.47155e-10
185	0xb03bde91	-6.834649e-10
186	0xb385a9f2	-6.224208e-08
187	0x3244877c	1.1439507e-08
188	0x331e024f	3.678934e-08
189	0x32317135	1.0328496e-08
190	0xb3532c8c	-4.916778e-08
191	0x2c96dba9	4.2876436e-12
192	0xb3c40b26	-9.128989e-08
193	0xb08a54b7	-1.0064899e-09
194	0xb0f249f4	-1.7628836e-09
195	0xb2978b34	-1.7642016e-08
196	0x300a92ad	5.0412546e-10
197	0x333cbfb8	4.3946528e-08
198	0xb3207184	-3.7356145e-08
199	0xb32d884f	-4.0403673e-08
200	0xb3797f94	-5.8090862e-08
201	0xb2dbaca9	-2.5573472e-08
202	0x324f48be	1.20655255e-08
203	0xb2458d02	-1.1498971e-08
204	0x303bb3ef	6.8285905e-10
205	0xb1ca175e	-5.8816303e-09
206	0xb23bd1d0	-1.0932538e-08
207	0xb2a21212	-1.88675e-08
208	0x315c008c	3.2014524e-09
209	0xb26d2285	-1.38030645e-08
210	0xb26d000e	-1.3795228e-08
211	0xb29c1a01	-1.8172615e-08
212	0xb2b2767a	-2.0775804e-08
213	0x31b4f5ad	5.2666196e-09
214	0xb2e1ecbc	-2.6301102e-08
215	0xb379071c	-5.7981296e-08
216	0x31f3d6f7	7.0966695e-09
217	0x313c04f8	2.7360425e-09
218	0x32a78554	1.950199e-08
219	0xb32abe00	-3.9754013e-08
220	0x32f9170f	2.8997901e-08
221	0xb30e6eb1	-3.3162625e-08
222	0xb25acf7b	-1.2736446e-08
223	0xb2cf329f	-2.4120991e-08
224	0xb204bb1d	-7.725956e-09
225	0xb2aa24c6	-1.9807327e-08
226	0x31750b00	3.5658445e-09
227	0xb1802509	-3.7295007e-09
228	0xb0517028	-7.619314e-10
229	0x33302a2a	4.101654e-08
230	0xb38a5bc5	-6.4428185e-08
231	0x306f14b2	8.6977103e-10
232	0xb115f04a	-2.1818942e-09
233	0xb2d4c012	-2.4767392e-08
234	0xb2a54b72	-1.9242837e-08
235	0x31cbe815	5.9344623e-09
236	0x322d1fa8	1.0077123e-08
237	0xb32bb938	-3.9982496e-08
238	0x3256a3c5	1.2493676e-08
239	0xb3213419	-3.7533116e-08
240	0x32edbb9b	2.7675744e-08
241	0xb3748153	-5.6928297e-08
242	0xb2b94916	-2.157007e-08
243	0xb28236b7	-1.5158873e-08
244	0x3081238c	9.396088e-10
245	0xb2304b3b	-1.0261654e-08
246	0x311f2075	2.3155995e-09
247	0xb2ef0a51	-2.7827953e-08
248	0xb32f16a2	-4.0765947e-08
249	0xb27a5677	-1.4571575e-08
250	0xb1ed6865	-6.909476e-09
251	0xb064d70b	-8.325151e-10
252	0xb1b63deb	-5.3039364e-09
253	0xb3485715	-4.664533e-08
254	0xb2c04deb	-2.2387175e-08
255	0xb1e848a5	-6.7603474e-09
