TSTE-R/SYNC/ProposedSinHalfNN/save_model_0226.ckpt-700000.pt (torch, 79468 bytes, 24 tensors)

linears.0.weight f4 [50, 6]
4.3528466 3.9191232 4.2341404 4.3510737 3.9413137 4.3778343 13.583002 13.508579
13.316255 13.271233 13.095432 13.367149 4.0466256 4.3855596 4.03404 3.871788
4.412353 4.2264924 1.381128 1.6624008 1.4262227 1.3932897 1.5453637 1.619557
0.86686856 0.9156366 0.77597713 0.7322767 0.92957145 0.9636472 2.7125156 2.7891538
2.8434136 2.8092859 2.7696083 2.793283 6.0227456 5.9959607 5.912119 5.7054954
5.8171835 6.219152 -10.3058605 -9.935461 -10.286023 -10.214082 -10.420596 -9.807928
4.3778825 4.737936 4.498016 4.4730663 4.3772106 4.1965494 -3.2297416 -3.1776052
-3.025921 -3.0559094 -3.1466904 -3.226804 -3.0226007 -3.3837345 -3.2846656 -3.0849347
-3.545672 -3.043034 -0.56576705 -0.67119735 -0.39926794 -0.20733118 -0.19028616 -0.3331684
-0.92988706 -0.33661568 -0.39043912 -0.83395135 -0.9150946 -0.78393143 -2.8062987 -2.5257058
-2.3673124 -2.347304 -2.480482 -2.6522617 -8.807761 -8.362527 -8.324294 -8.407798
-8.817054 -8.48563 -7.136868 -7.303031 -7.031886 -7.1843743 -7.2321024 -7.314468
6.103877 6.200294 6.208544 6.1814003 5.8946505 6.2722907 -6.157722 -6.236369
-6.272049 -5.8590693 -5.7561827 -6.160986 7.198286 6.7894344 6.724761 7.1281357
7.2182493 6.786909 4.2375546 3.925944 4.098513 3.9207726 4.082769 4.1187544
3.2019773 3.53737 3.2266366 3.4921072 3.2421992 3.4878616 -16.554285 -16.518152
-17.113237 -17.008938 -17.117487 -16.66551 -2.3139088 -2.1143847 -2.3199654 -2.1909893
-2.049656 -2.2754545 1.0362016 0.60421264 0.8993938 1.0940819 0.8384744 1.0509168
-10.262448 -10.140143 -9.926384 -9.877055 -10.375698 -10.262443 -9.699231 -9.723912
-9.782366 -9.862246 -9.679664 -9.422953 -14.889352 -14.493284 -14.862596 -15.109616
-14.834259 -14.848681 -9.839328 -9.417105 -9.922364 -9.897631 -9.461726 -9.306934
-3.1077743 -3.4802058 -3.5984907 -3.5077589 -3.5723805 -3.2812421 -0.016480748 0.19783485
-0.3281272 0.0010413564 -0.084585756 0.07960982 -5.4038553 -5.4219127 -4.9776616 -5.4396176
-4.966752 -5.3703194 -1.7876167 -1.7854415 -1.6294225 -1.2827389 -1.6422923 -1.4850904
0.20400596 -0.05953695 0.37327906 -0.00075872097 0.12695567 0.29816338 -1.432698 -1.3185072
-1.1059916 -0.96505153 -1.0260508 -1.2096325 -3.3757548 -2.9916875 -3.1119246 -3.2496507
-2.8438585 -2.868051 -5.1932807 -5.808058 -5.4319506 -5.6754913 -5.773045 -5.779909
1.4406779 1.1952251 1.7778867 1.2659333 1.2868292 1.7730062 -27.664352 -27.439388
-27.774603 -27.72285 -27.73258 -27.291613 -6.4630084 -6.5654354 -6.415562 -6.351714
-6.5073233 -6.598774 4.837584 4.479012 5.0568204 4.572728 4.602847 4.8671455
-2.2331278 -2.589334 -2.142637 -1.9788213 -2.1999266 -2.3339143 -3.5235744 -3.6112964
-3.7538874 -3.388575 -3.63615 -3.309725 -5.64452 -5.552308 -5.4598804 -5.6469646
00000000: 854a 8b40 ead2 7a40 147e 8740 ff3b 8b40
00000010: 7c3e 7c40 3817 8c40 fa53 5941 2423 5841
00000020: 610f 5541 f856 5441 e486 5141 d8df 5541
00000030: f57d 8140 8156 8c40 db16 8140 60cb 7740
00000040: ff31 8d40 6d3f 8740 cdc8 b03f 8dc9 d43f
00000050: 778e b63f 5157 b23f 7ace c53f a54d cf3f
00000060: 19eb 5d3f 2967 6a3f 70a6 463f 7c76 3b3f
00000070: 65f8 6d3f 95b1 763f db99 2d40 7f81 3240
00000080: 7dfa 3540 57cb 3340 4341 3140 26c5 3240
00000090: 55ba c040 e9de bf40 1430 bd40 6b93 b640
000000a0: 5e26 ba40 4b03 c740 cee4 24c1 a6f7 1ec1
000000b0: 8d93 24c1 e16c 23c1 c3ba 26c1 46ed 1cc1
000000c0: 9d17 8c40 2c9d 9740 bfef 8f40 5c23 8f40
000000d0: 1c12 8c40 224a 8640 16b4 4ec0 e25d 4bc0
000000e0: b1a8 41c0 0594 43c0 6063 49c0 f583 4ec0
000000f0: 4a72 41c0 1b8f 58c0 f637 52c0 926f 45c0
00000100: 4aec 62c0 12c1 42c0 1cd6 10bf 97d3 2bbf
00000110: d96c ccbe a04e 54be 60da 42be 0c95 aabe
00000120: 140d 6ebf e458 acbe a3e7 c7be d67d 55bf
00000130: a443 6abf bbaf 48bf 669a 33c0 2aa5 21c0
00000140: 0c82 17c0 3b3a 16c0 38c0 1ec0 a8be 29c0
00000150: 97ec 0cc1 e9cc 05c1 4f30 05c1 5786 06c1
00000160: a712 0dc1 24c5 07c1 3961 e4c0 6eb2 e9c0
00000170: 3605 e1c0 65e6 e5c0 626d e7c0 1f10 eac0
00000180: f652 c340 cf68 c640 64ac c640 08ce c540
00000190: faa0 bc40 9bb6 c840 0f0c c5c0 5690 c7c0
000001a0: a0b4 c8c0 7f7d bbc0 a632 b8c0 cc26 c5c0
000001b0: 5c58 e640 0c43 d940 3e31 d740 b019 e440
000001c0: e6fb e640 5c2e d940 0c9a 8740 ab42 7b40
000001d0: 0527 8340 f0ed 7a40 0ba6 8240 d6cc 8340
000001e0: 32ed 4c40 4564 6240 3781 4e40 af7e 5f40
000001f0: 3180 4f40 2039 5f40 2d6f 84c1 2d25 84c1
00000200: e9e7 88c1 4e12 88c1 9df0 88c1 f752 85c1
00000210: 1517 14c0 1452 07c0 507a 14c0 2b39 0cc0
00000220: 902d 03c0 0ca1 11c0 41a2 843f aead 1a3f
00000230: ac3e 663f e00a 8c3f 42a6 563f 7184 863f
00000240: fd32 24c1 073e 22c1 78d2 1ec1 6b08 1ec1
00000250: dc02 26c1 f732 24c1 0d30 1bc1 2595 1bc1
00000260: 9284 1cc1 c2cb 1dc1 e7df 1ac1 6ac4 16c1
00000270: c93a 6ec1 7ee4 67c1 31cd 6dc1 fdc0 71c1
00000280: 2059 6dc1 3394 6dc1 e36d 1dc1 76ac 16c1
00000290: 01c2 1ec1 b25c 1ec1 3b63 17c1 34e9 14c1
000002a0: c6e5 46c0 b1bb 5ec0 ac4d 66c0 1f7f 60c0
000002b0: e2a1 64c0 dfff 51c0 a202 87bc 3895 4a3e
000002c0: 4a00 a8be 1f7e 883a 4c3b adbd 790a a33d
000002d0: 62ec acc0 4f80 adc0 0149 9fc0 5911 aec0
000002e0: a2ef 9ec0 a8d9 abc0 a0d0 e4bf 5989 e4bf
000002f0: eb90 d0bf ca30 a4bf a236 d2bf 7117 bebf
00000300: f0e6 503e 04dd 73bd 6f1e bf3e e7e4 46ba
00000310: ab00 023e dfa8 983e a662 b7bf d8c4 a8bf
00000320: 2291 8dbf 9e0d 77bf a255 83bf 3dd5 9abf
00000330: 5e0c 58c0 cf77 3fc0 c629 47c0 47fa 4fc0
00000340: c701 36c0 268e 37c0 5b2f a6c0 9cdb b9c0
00000350: 8ad2 adc0 a09d b5c0 c9bc b8c0 04f5 b8c0
00000360: 2268 b83f 23fd 983f cb91 e33f 1a0a a23f
00000370: d2b6 a43f def1 e23f 9850 ddc1 de83 dbc1
00000380: 6332 dec1 66c8 ddc1 53dc ddc1 3955 dac1
00000390: f7d0 cec0 0c18 d2c0 494c cdc0 3e41 cbc0
000003a0: fe3b d0c0 2829 d3c0 7dcd 9a40 1154 8f40
000003b0: 79d1 a140 ca53 9240 864a 9340 a8bf 9b40
000003c0: 91eb 0ec0 a6b7 25c0 f720 09c0 044a fdbf
000003d0: 99cb 0cc0 da5e 15c0 3e82 61c0 7b1f 67c0
000003e0: b13f 70c0 6ade 58c0 aeb6 68c0 89d2 53c0
000003f0: e89f b4c0 82ac b1c0 57b7 aec0 efb3 b4c0

linears.0.bias f4 [50]
0.73623854 1.244463 0.5755662 0.4288722 0.33505186 0.3044966 0.5798961 0.29961032
0.39447486 0.3554786 0.019889047 0.34210587 0.004750785 0.02142656 0.1762761 0.044529777
0.5328735 0.05729047 0.7539166 0.51147634 0.4604452 0.39270014 0.013700106 0.6114319
0.26404825 0.25413334 0.25229526 0.20986007 -0.08429523 0.36052468 0.03465647 0.00906275
0.2969056 0.0066049225 0.043807734 0.03720937 -0.008929086 0.7703828 0.46149263 0.23314898
0.21717404 0.2396514 0.04449978 0.33522153 0.31526893 0.35475162 0.7893468 0.567902
0.48436412 0.25869906
00000000: 217a 3c3f 904a 9f3f 4e58 133f 2395 db3e
00000010: eb8b ab3e fae6 9b3e 1274 143f 8666 993e
00000020: 9cf8 c93e 4b01 b63e 5bee a23c 8028 af3e
00000030: 79ac 9b3b c186 af3c b981 343e db64 363d
00000040: 666a 083f 69a9 6a3d ae00 413f 1df0 023f
00000050: 79bf eb3e fe0f c93e 6976 603c cd86 1c3f
00000060: 5531 873e c41d 823e d82c 813e 8fe5 563e
00000070: faa2 acbd b196 b83e f1f3 0d3d ee7b 143c
00000080: 0304 983e 1b6e d83b bd6f 333d da68 183d
00000090: 4d4b 12bc cf37 453f c348 ec3e 9bbe 6e3e
000000a0: df62 5e3e 2d67 753e 6745 363d 28a2 ab3e
000000b0: ee6a a13e 01a2 b53e a212 4a3f 0762 113f
000000c0: 93fe f73e 3474 843e

linears.1.weight f4 [50, 50]
-0.24165584 -0.3676628 1.0228604 -0.14530194 0.18872553 -0.15953773 0.04879277 -0.34000775
-0.2171974 -0.17683877 -0.13694513 0.036433324 0.3379911 0.17032127 0.03287393 0.29115692
-0.4849492 0.008932828 -0.29462045 0.2333971 0.25349495 -0.44219628 -0.28921422 0.7346368
-0.1963048 -0.49898264 -0.6222703 -0.5626769 -0.012454404 -0.26211742 -0.009398554 -0.26672545
0.015979297 0.15219072 0.1380372 0.26508665 0.29510328 -0.47217324 -1.6609004 -0.15367308
-0.0647165 -0.4844994 0.30863038 -0.21878368 -0.0071635996 -0.2963745 -0.49574924 0.40141657
0.5759778 0.03540928 0.25746703 -0.7940025 -0.22174524 0.32236668 0.19630572 0.22326714
-0.07216169 3.6817088 -0.19727696 1.1859063 -0.6730593 0.33668992 -0.7645965 0.39917415
3.0963447 -1.3814162 -0.11120222 -0.6437508 -1.3015556 -0.17144312 -0.014070991 2.745157
-0.7104818 0.3686817 3.3392293 3.3861516 2.5245106 3.3146164 -0.29387414 0.2963963
-0.50749356 -0.9080426 0.18177743 -0.6614822 0.34246463 -1.2604065 -0.22238149 2.3836384
1.7828268 -0.80638486 0.77765 1.3340522 -0.9318685 1.4786608 0.48162454 0.9494774
2.2850292 -0.29989678 0.0039213267 1.9496624 0.19211762 -0.027676096 -0.049300246 0.2620571
0.2652146 0.22308113 -0.25447312 0.13759208 -0.1994611 0.21167244 0.1254513 0.25056493
-0.08496553 0.06301654 -0.047716852 -0.39724606 -0.47912005 -0.33050475 -0.2552708 0.047991924
0.05822216 -0.20186579 -0.25881585 0.051199593 0.050960116 0.32102 -0.09735182 0.009621678
-0.159184 0.32262704 -0.30301425 0.035449564 -0.14500564 -0.2899011 -0.14090046 -0.50299144
-0.19407491 -0.2666429 0.38116702 -0.083269276 0.026202073 0.41851306 0.053144228 0.006951258
-0.040265284 0.12070249 0.0038104432 -0.28585678 0.03439884 -0.13975947 -0.32666245 -0.40184176
-0.3653386 -0.22782055 -0.2869415 -0.24179529 -0.3122496 0.5558928 -0.5485978 0.7777339
0.20115809 -0.2118444 0.4147252 0.4759791 0.37321895 0.12735817 -0.5045698 0.22673488
-0.5615737 -0.34129265 -0.40360332 0.002662809 -0.09589825 -0.40599543 0.33969778 0.6025218
0.38173926 0.33362916 0.17550455 -0.300065 0.33606705 -0.42425844 -0.37859645 -0.5058182
-0.09629806 0.17616561 0.37730512 -0.22582528 1.6166958 -0.22279069 0.012708798 0.63261294
0.005155652 0.48363358 -0.35126176 0.43250364 -0.05174297 -0.26911083 -0.051894 0.09040677
0.28821307 -0.38433692 -0.14612502 0.32187676 0.25862697 0.16808449 0.100332215 -0.074679665
-0.0839111 0.11964036 0.016238637 0.11874684 0.020726018 -0.07690868 -0.087845355 -0.20874548
-0.1715353 -0.062183544 -0.061187588 0.008572442 -0.32818934 0.02544795 -0.13462587 -0.019250022
0.14524706 0.05248433 -0.12492237 0.33636627 -0.3448197 0.37745854 -0.43193537 0.0780888
0.101444066 -0.12232356 -0.21862483 -0.45745394 0.1932967 0.022075849 0.80266446 -0.3955685
0.25198343 -0.07566314 -0.371549 -0.13813402 0.08205213 0.065222956 0.12751308 -0.026533388
-0.075490266 0.12676495 -0.13980094 0.2902594 0.499635 -0.09519702 -0.0010003393 -0.06055609
00000000: a174 77be 4c3e bcbe 17ed 823f 08ca 14be
00000010: 4441 413e dc5d 23be edda 473d 7f15 aebe
00000020: ff68 5ebe 3915 35be 583b 0cbe 1c3b 153d
00000030: 2b0d ad3e b368 2e3e d0a6 063d 8512 953e
00000040: 434b f8be ff5a 123c 7ed8 96be a6ff 6e3e
00000050: 17ca 813e 8d67 e2be e313 94be 2811 3c3f
00000060: 2004 49be a77a ffbe 1b4d 1fbf 980b 10bf
00000070: 8e0d 4cbc 4134 86be 65fc 19bc 3d90 88be
00000080: 04e7 823c e2d7 1b3e a059 0d3e 70b9 873e
00000090: c717 973e b1c0 f1be 6298 d4bf 7a5c 1dbe
000000a0: 168a 84bd 4e10 f8be cd04 9e3e d408 60be
000000b0: a1bc eabb 66be 97be d8d2 fdbe 7986 cd3e
000000c0: 4873 133f 5209 113d b8d2 833e bf43 4bbf
000000d0: 2f11 63be 3f0d a53e 5e04 493e 24a0 643e
000000e0: 82c9 93bd 1ea1 6b40 f902 4abe c7cb 973f
000000f0: 9d4d 2cbf 9f62 ac3e 99bc 43bf 8e60 cc3e
00000100: 832a 4640 3fd2 b0bf fdbd e3bd dacc 24bf
00000110: 6099 a6bf c98e 2fbe 048a 66bc a7b0 2f40
00000120: 23e2 35bf d9c3 bc3e efb5 5540 b5b6 5840
00000130: 9591 2140 ad22 5440 ac76 96be 41c1 973e
00000140: 19eb 01bf 7b75 68bf dd23 3a3e e656 29bf
00000150: 8657 af3e 0055 a1bf f9b7 63be 888d 1840
00000160: ab33 e43f 3d6f 4ebf 1214 473f 39c2 aa3f
00000170: ef8e 6ebf c244 bd3f 7e97 f63e f310 733f
00000180: eb3d 1240 128c 99be 797e 803b 8a8e f93f
00000190: 7bba 443e fbb8 e2bc 0eef 49bd 592c 863e
000001a0: 35ca 873e 616f 643e 4d4a 82be f0e4 0c3e
000001b0: 883f 4cbe a9c0 583e 4e76 003e 0c4a 803e
000001c0: 6802 aebd d10e 813d bf72 43bd d663 cbbe
000001d0: 394f f5be eb37 a9be dbb2 82be 2e93 443d
000001e0: 5c7a 6e3d e8b5 4ebe 8383 84be aab6 513d
000001f0: 8ebb 503d bc5c a43e 6460 c7bd 3ea4 1d3c
00000200: 2101 23be 5f2f a53e af24 9bbe 9033 113d
00000210: 5c7c 14be eb6d 94be 3648 10be 0cc4 00bf
00000220: 93bb 46be 6b85 88be 5328 c33e 1589 aabd
00000230: bba5 d63c 5847 d63e c3ad 593d 61c7 e33b
00000240: 36ed 24bd de32 f73d a1b8 793b d25b 92be
00000250: cce5 0c3d 1b1d 0fbe 4d40 a7be 34be cdbe
00000260: a90d bbbe ca49 69be ffe9 92be 2f99 77be
00000270: 2edf 9fbe fe4e 0e3f e870 0cbf 9219 473f
00000280: 63fc 4d3e bded 58be dd56 d43e 88b3 f33e
00000290: 8e16 bf3e 2e6a 023e 7d2b 01bf 302d 683e
000002a0: 4bc3 0fbf e9bd aebe 18a5 cebe 8682 2e3b
000002b0: 4d66 c4bd a2de cfbe deec ad3e de3e 1a3f
000002c0: 5473 c33e 71d1 aa3e 77b7 333e 1fa2 99be
000002d0: fb10 ac3e 6738 d9be 65d7 c1be 4d7d 01bf
000002e0: eb37 c5bd c264 343e 232e c13e be3e 67be
000002f0: e3ef ce3f 3e23 64be 9038 503c ecf2 213f
00000300: bef0 a83b d29e f73e 95d8 b3be 1e71 dd3e
00000310: 70f0 53bd e5c8 89be ce8e 54bd 2f27 b93d
00000320: aa90 933e cfc7 c4be cca1 15be 08cd a43e
00000330: c16a 843e 571e 2c3e fa7a cd3d a7f1 98bd
00000340: 95d9 abbd 0106 f53d e406 853c 8b31 f33d
00000350: 9cc9 a93c 4c82 9dbd 44e8 b3bd 60c1 55be
00000360: f3a6 2fbe 2cb4 7ebd d69f 7abd 6e73 0c3c
00000370: 6f08 a8be 3878 d03c 5ddb 09be 39b2 9dbc
00000380: a5bb 143e cff9 563d 4dd7 ffbd 3338 ac3e
00000390: 358c b0be 3f42 c13e a226 ddbe 05ed 9f3d
000003a0: e8c1 cf3d c684 fabd 30df 5fbe 6737 eabe
000003b0: 92ef 453e 69d8 b43c 6b7b 4d3f f487 cabe
000003c0: f903 813e 47f5 9abd ac3b bebe 0173 0dbe
000003d0: f20a a83d 9d93 853d ca92 023e 8c5c d9bc
000003e0: a49a 9abd acce 013e fa27 0fbe e19c 943e
000003f0: 29d0 ff3e a8f6 c2bd d11d 83ba aa09 78bd

linears.1.bias f4 [50]
-0.28413534 0.36572495 0.10307011 -0.19079149 0.10452176 -0.01872758 0.30552843 -0.19710933
0.35679334 0.1017666 0.21131332 -0.3047076 0.055079777 -0.092851736 -0.08727159 -0.540091
-0.6063534 0.08512748 0.2364397 -0.19105555 -0.022400899 0.31676868 -0.04190411 -0.0075592664
0.041561514 0.27015322 0.14090726 0.21422945 0.06658957 0.32189715 0.21614257 0.5868742
0.038869485 0.671146 -0.095467195 -0.013565017 -0.025332343 0.13317545 0.6449974 -0.07580838
0.390377 -0.17883864 0.044736527 0.19337818 -0.2891742 -0.21493864 -0.024246553 0.29228276
-0.20017663 0.25575456
00000000: 307a 91be 4d40 bb3e 6c16 d33d d85e 43be
00000010: 810f d63d 956a 99bc 396e 9c3e 07d7 49be
00000020: 9ead b63e 026b d03d 8562 583e a202 9cbe
00000030: 559b 613d 0d29 bebd 73bb b2bd 6743 0abf
00000040: fa39 1bbf 5157 ae3d 401d 723e 11a4 43be
00000050: 1782 b7bc 812f a23e a5a3 2bbd b9b3 f7bb
00000060: 683c 2a3d 8651 8a3e fe49 103e f75e 5b3e
00000070: 1d60 883d b4cf a43e 7a54 5d3e 633d 163f
00000080: 9c35 1f3d 39d0 2b3f 4e84 c3bd ce3f 5ebc
00000090: c685 cfbc 255f 083e 8d1e 253f 6d41 9bbd
000000a0: 7fdf c73e 7a21 37be a63d 373d ee04 463e
000000b0: a40e 94be e018 5cbe b5a0 c6bc 16a6 953e
000000c0: 1afb 4cbe 43f2 823e

linears.2.weight f4 [50, 50]
0.0775265 1.7598794 -0.15718666 0.576761 -0.54265636 0.07924389 -0.7604861 0.106222324
0.15129516 -0.02901982 0.008233271 3.428532 -0.049395207 -0.6524119 0.21882103 0.0071079647
0.069661684 0.9171793 0.046072975 -0.14122765 0.11432353 -0.6576069 -0.14614414 0.11058024
1.3892101 -1.7562718 0.0004219083 0.020532284 -0.08187674 -0.2315108 -0.5339204 -0.1538787
-3.4364514 -0.012217511 0.030294215 -0.1927219 0.1796287 -0.011731829 -0.66431546 -0.08214361
-0.2803206 0.027639017 0.7530856 -0.65671194 0.45761856 -0.13640533 0.15654184 -0.05982468
-0.13160183 0.10350149 0.3299821 -6.4484944 -0.70669705 -0.52364135 -0.7769306 0.13145821
-0.50811976 0.21199737 0.039630607 -0.21716855 -0.17760834 -5.16246 -5.673943 0.013863126
-5.1770687 -0.3829019 51.040867 -2.9274359 -0.10297022 -0.10337425 -0.11651766 -0.9254168
-0.10991091 0.123468876 7.997095 -2.1282706 -0.19629629 0.20026095 -4.759951 -3.2896123
-0.5726825 -0.13917099 6.078426 -0.006936581 0.072892606 0.28243896 0.35928753 -0.31650686
-0.57948816 0.03335747 0.067536406 0.15393464 0.9345392 -0.80506617 0.06841568 0.112321235
-0.10922865 -5.2223096 0.26023364 -0.13879542 1.1224136 -0.5831879 -0.83006996 1.2919761
-1.3025073 0.71647483 -1.4588335 0.83497834 -3.2701533 -0.8034408 -0.31657362 1.9068227
0.09004312 -0.87139666 2.396326 0.93792105 4.7295566 3.7046106 -2.2399585 1.0302151
-2.5699368 -1.3232918 -0.5054359 4.2538543 5.0534725 -0.9538298 -2.6620889 -2.64454
1.3640742 -0.6861603 -1.3128796 -3.2312694 0.9924865 -12.387743 -1.8733808 -1.909963
-2.1091363 -2.2402463 -1.6619657 -2.0186238 -2.9695256 -0.10456372 4.175104 -1.2743074
1.2717284 1.2073628 -1.805068 -0.52164334 -0.9186259 -2.7252867 0.05382234 0.53784466
0.37623948 -0.19265062 0.024233581 -0.33555126 0.11233484 0.013030639 -0.3331496 0.36495787
-0.68920434 -1.495454 0.6541313 -0.46715084 -2.5737493 0.6137744 -21.329039 -1.3860629
-0.5064222 0.014981634 0.09882634 0.20941828 0.5066756 -0.5554308 -8.285813 -0.23972486
0.35350513 -0.3983292 0.1898074 0.42186716 -0.11818137 1.0295268 -0.1500647 -0.15609068
-0.12311592 -0.29934666 -0.34899786 -0.20195858 -0.24938105 -0.21749417 0.05270398 -0.22459365
-3.4663563 -0.060239762 0.028156754 -0.14166634 -0.19921859 0.047050823 0.05748486 0.2522162
-0.26399136 -0.24407288 -0.11957213 -0.05588597 -0.009508326 -0.3012471 -0.047253188 -0.19228417
-0.13667841 -0.21610557 0.00047862524 -0.056948394 -0.100851014 -0.014931446 -0.102076106 0.087378204
-0.23401351 0.37462008 -0.20870896 0.13520141 -0.2765579 -0.37105262 0.01605313 -0.40204465
-0.016910102 -0.330576 -0.37356237 -0.33736244 0.2867787 -0.34099746 -0.15338527 -0.14855184
-0.08930813 -0.36786482 0.054240577 -0.38582814 -0.30640116 -0.12908833 -0.36113998 -0.046566162
-0.05208438 -0.06616515 0.36297855 0.03923894 0.24594826 -0.04875144 0.050979264 -0.09408792
0.058753226 -0.4030639 -2.3244495 1.0197512 0.058796562 -0.10102001 0.059187397 -3.272381
00000000: 37c6 9e3d ba43 e13f 8af5 20be 9ca6 133f
00000010: 87eb 0abf 9f4a a23d 38af 42bf 178b d93d
00000020: 1eed 1a3e f9ba edbc d7e4 063c 116d 5b40
00000030: a152 4abd 7704 27bf 9f12 603e eee9 e83b
00000040: c9aa 8e3d 43cc 6a3f 04b7 3c3d fb9d 10be
00000050: 7422 ea3d ed58 28bf cfa6 15be e577 e23d
00000060: a3d1 b13f 84cd e0bf 9333 dd39 5233 a83c
00000070: feae a7bd 2b11 6dbe 02af 08bf 6192 1dbe
00000080: d2ee 5bc0 f52b 48bc 932b f83c e458 45be
00000090: 96f0 373e db36 40bc 9410 2abf e93a a8bd
000000a0: 2f86 8fbe 386b e23c 38ca 403f 461e 28bf
000000b0: fb4c ea3e d7ad 0bbe 814c 203e b90a 75bd
000000c0: a1c2 06be 97f8 d33d 6af3 a83e 115a cec0
000000d0: 19ea 34bf 5c0d 06bf ece4 46bf fb9c 063e
000000e0: 2314 02bf d715 593e b453 223d 6f61 5ebe
000000f0: f6de 35be df32 a5c0 f190 b5c0 2a22 633c
00000100: 8caa a5c0 b80b c4be d929 4c42 1c5b 3bc0
00000110: 0de2 d2bd e1b5 d3bd d0a0 eebd 1ee8 6cbf
00000120: f918 e1bd 40dd fc3d 34e8 ff40 9635 08c0
00000130: e501 49be 3511 4d3e 8551 98c0 0289 52c0
00000140: 529b 12bf d782 0ebe 7782 c240 424c e3bb
00000150: b848 953d d79b 903e 89f4 b73e 300d a2be
00000160: 5659 14bf d8a1 083d 8750 8a3d 0ba1 1d3e
00000170: f63d 6f3f d118 4ebf 851d 8c3d ad08 e63d
00000180: 45b3 dfbd 291d a7c0 583d 853e 6320 0ebe
00000190: 40ab 8f3f cd4b 15bf 777f 54bf 795f a53f
000001a0: 8fb8 a6bf e56a 373f 0ebb babf 24c1 553f
000001b0: 314a 51c0 4cae 4dbf f015 a2be c412 f43f
000001c0: 8768 b83d da13 5fbf 685d 1940 981b 703f
000001d0: 8758 9740 5718 6d40 7b5b 0fc0 17de 833f
000001e0: d879 24c0 a061 a9bf 3f64 01bf 931f 8840
000001f0: 0cb6 a140 312e 74bf aa5f 2ac0 2540 29c0
00000200: fc99 ae3f 34a8 2fbf 700c a8bf 1ecd 4ec0
00000210: 9813 7e3f 3234 46c1 f1ca efbf ab79 f4bf
00000220: 17fc 06c0 3260 0fc0 4bbb d4bf 2231 01c0
00000230: b50c 3ec0 8125 d6bd 749a 8540 811c a3bf
00000240: ffc7 a23f dd8a 9a3f 780c e7bf 6b8a 05bf
00000250: 112b 6bbf 196b 2ec0 d074 5c3d 30b0 093f
00000260: 76a2 c03e 3446 45be 8185 c63c 60cd abbe
00000270: cf0f e63d 767e 553c 9692 aabe c2db ba3e
00000280: b26f 30bf 096b bfbf 2675 273f 652e efbe
00000290: 4fb8 24c0 5220 1d3f dfa1 aac1 826a b1bf
000002a0: e3a4 01bf 8775 753c 7765 ca3d bf71 563e
000002b0: 7eb5 013f b730 0ebf b192 04c1 6f7a 75be
000002c0: a0fe b43e cef1 cbbe df5c 423e f9fe d73e
000002d0: 1309 f2bd 89c7 833f 90aa 19be 3cd6 1fbe
000002e0: 3324 fcbd f743 99be d9af b2be 3bce 4ebe
000002f0: bf5d 7fbe cbb6 5ebe 21e0 573d e1fb 65be
00000300: c8d8 5dc0 f8bd 76bd fea8 e63c fb10 11be
00000310: f5ff 4bbe 5db8 403d 3f75 6b3d 7b22 813e
00000320: e029 87be 3eee 79be 3ce2 f4bd b0e8 64bd
00000330: cfc8 1bbc 0f3d 9abe 8f8c 41bd 24e6 44be
00000340: 6df5 0bbe c74a 5dbe feef fa39 b842 69bd
00000350: fa8a cebd 06a3 74bc 470d d1bd 58f3 b23d
00000360: 3da1 6fbe 34ce bf3e cdb7 55be 3d72 0a3e
00000370: ff98 8dbe 9cfa bdbe db81 833c ccd8 cdbe
00000380: 0e87 8abc 4241 a9be 9143 bfbe c5ba acbe
00000390: a8d4 923e 3897 aebe 0711 1dbe f91d 18be
000003a0: 2ee7 b6bd c758 bcbe 5e2b 5e3d 448b c5be
000003b0: 9de0 9cbe bb2f 04be 57e7 b8be 29bc 3ebd
000003c0: 6e56 55bd 9881 87bd 53d8 b93e 03b9 203d
000003d0: dcd9 7b3e 97af 47bd a2cf 503d 2bb1 c0bd
000003e0: 39a7 703d 645e cebe c8c3 14c0 3587 823f
000003f0: aad4 703d 94e3 cebd 7c6e 723d b16e 51c0

linears.2.bias f4 [50]
-0.24822308 -0.21372479 -1.6451102 -0.053676013 -0.17343117 -0.6231795 0.010295481 -0.24174762
-0.025174059 -0.2154806 0.08253051 0.054348763 -0.1867595 -0.2127785 -0.34959322 0.034465134
0.20265265 0.04823092 -4.5861707 0.254172 0.26678422 -0.1004995 -0.17770426 -0.06908694
0.37709847 -0.19610198 0.011202495 -0.056129146 -0.124846935 0.009921183 -0.24131791 0.17423072
0.087093145 -0.1390005 -0.16560611 -0.67662376 -0.06767478 0.0021162026 0.010688787 0.060841683
-0.29513797 0.22915183 -0.38680297 -0.268718 0.037756506 -0.37757358 -0.01439233 -0.105774
0.009409726 -0.13869566
00000000: 312e 7ebe acda 5abe f992 d2bf 61db 5bbd
00000010: f197 31be b188 1fbf 61ae 283c b08c 77be
00000020: d439 cebc f2a6 5cbe c205 a93d cf9c 5e3d
00000030: e23d 3fbe 9be2 59be e2fd b2be 502b 0d3d
00000040: 2d84 4f3e c98d 453d e9c1 92c0 d522 823e
00000050: f197 883e afd2 cdbd 1bf8 35be 747d 8dbd
00000060: 0d13 c13e f5ce 48be ab8a 373c ade7 65bd
00000070: c0af ffbd 758c 223c 0b1c 77be 8a69 323e
00000080: e45d b23d 2656 0ebe a694 29be 3737 2dbf
00000090: 1399 8abd fdaf 0a3b 0620 2f3c 2135 793d
000000a0: 531c 97be c7a6 6a3e 0a0b c6be 6895 89be
000000b0: 91a6 1a3d 5351 c1be cfcd 6bbc 0aa0 d8bd
000000c0: 402b 1a3c 3c06 0ebe

linears.3.weight f4 [3, 50]
-0.55562747 0.046269182 0.24513118 0.1579015 0.09686256 -0.39214984 0.3636028 -1.0121763
-0.5398153 -2.4282792 0.40908024 -1.1404037 1.025358 -1.6483964 -0.42536744 0.14176993
0.29987258 -0.5193405 -0.20291431 1.5800405 -0.32093486 -0.10863258 -0.22938733 0.0019518483
0.44552892 0.25773445 0.7100005 -0.71258205 0.3473829 0.05912848 -0.9807912 0.0024667596
0.20236933 -1.0579144 0.1417651 0.7333609 0.38174522 0.19387121 0.41404507 0.4146852
-0.38225895 -1.0559492 -1.4481838 2.0080168 -0.46536493 -1.2213049 1.2212081 -0.39805055
0.020773726 -0.054185037 -0.0027677766 -1.0718931e-05 -0.00027313933 0.029549535 -0.118052006 -0.011796121
0.03591 -0.28330797 -0.017104141 -0.018602295 -0.05956853 0.053590678 -0.0016610849 12.528652
0.0039864206 0.07273038 -0.01004689 -0.1130021 -0.0007348323 0.012025954 -0.07422364 0.12926947
-0.060270093 -0.28107786 -0.01305116 -0.017037604 0.110093854 0.5100194 0.21208555 0.096508145
-0.0088127535 0.07075174 0.19800821 -0.0057810107 -0.40290233 0.00084661914 -0.017173521 0.08441807
8.950962e-05 -0.00034757575 -0.003585194 0.009507946 -0.41869798 0.42936352 -0.1294602 -0.0105654085
0.1948693 -0.1769882 -3.387191e-05 -0.011970793 -0.095809385 -4.1796126 8.827952 -0.541433
0.06479699 -50.80241 8.532285 25.138638 -0.8057672 0.54309714 -3.9029143 1.4732641
0.36378458 -26.816626 -0.7796135 -0.34348026 0.4191853 -0.147482 -43.821037 3.1440096
1.2656076 -0.514411 -0.012835888 -0.28156504 0.4175867 14.306062 -0.0959819 18.157084
0.091075405 -0.5913798 0.6700445 6.3717465 -0.0029475512 -0.5408263 0.2741945 30.30129
-0.16852283 0.4915912 -2.816836 35.239265 0.07720485 1.2767874 -48.23522 -52.30985
-0.1055381 0.18769307 27.937033 0.8930896 -7.3945713 -0.82701373
00000000: 9a3d 0ebf c184 3d3d ab03 7b3e eeb0 213e
00000010: e15f c63d ddc7 c8be 252a ba3e fe8e 81bf
00000020: 5631 0abf ed68 1bc0 f772 d13e c0f8 91bf
00000030: ee3e 833f a7fe d2bf c3c9 d9be 232c 113e
00000040: e688 993e 80f3 04bf c5c8 4fbe c43e ca3f
00000050: 9351 a4be c27a debd 83e4 6abe 29d5 ff3a
00000060: 5e1c e43e c5f5 833e 98c2 353f c76b 36bf
00000070: 2cdc b13e b430 723d 2215 7bbf 5ca9 213b
00000080: e839 4f3e bd69 87bf df2a 113e 8abd 3b3f
00000090: 1c74 c33e 2d86 463e b7fd d33e 9e51 d43e
000000a0: 72b7 c3be 5829 87bf 165e b9bf 5983 0040
000000b0: 5044 eebe b853 9cbf 8c50 9c3f 48cd cbbe
000000c0: a92d aa3c 21f1 5dbd 9663 35bb 75d5 33b7
000000d0: 2434 8fb9 de11 f23c 40c5 f1bd 8444 41bc
000000e0: 5d16 133d be0d 91be fc1d 8cbc d763 98bc
000000f0: 22fe 73bd e681 5b3d c3b8 d9ba 5c75 4841
00000100: 85a0 823b aaf3 943d b69b 24bc a56d e7bd
00000110: c3a1 40ba 8208 453c 9002 98bd 375f 043e
00000120: c6dd 76bd 70e9 8fbe 88d4 55bc 7292 8bbc
00000130: e378 e13d a290 023f f42c 593e 10a6 c53d
00000140: 5e63 10bc 4ae6 903d aac2 4a3e a26e bdbb
00000150: 3749 cebe a6ef 5d3a 7caf 8cbc 62e3 ac3d
00000160: 1cb7 bb38 d43a b6b9 93f5 6abb 37c7 1b3c
00000170: 955f d6be 89d5 db3e 3791 04be 891a 2dbc
00000180: d18b 473e 653c 35be b011 0eb8 2521 44bc
00000190: b637 c4bd 63bf 85c0 4b3f 0d41 5a9b 0abf
000001a0: 49b4 843d ab35 4bc2 3d84 0841 ee1b c941
000001b0: c246 4ebf 6a08 0b3f 59c9 79c0 eb93 bc3f
000001c0: f941 ba3e 7388 d6c1 c094 47bf a5dc afbe
000001d0: 759f d63e 8505 17be be48 2fc2 7437 4940
000001e0: 6eff a13f 70b0 03bf 9e4d 52bc 4b29 90be
000001f0: edcd d53e a1e5 6441 2992 c4bd b541 9141
00000200: be85 ba3d ab64 17bf 0988 2b3f 59e5 cb40
00000210: b42b 41bb 9873 0abf 3963 8c3e 0b69 f241
00000220: 4091 2cbe d7b1 fb3e 0b47 34c0 02f5 0c42
00000230: 941d 9e3d c56d a33f def0 40c2 493d 51c2
00000240: 5c24 d8bd 9d32 403e 0b7f df41 85a1 643f
00000250: 54a0 ecc0 2cb7 53bf

linears.3.bias f4 [3]
0.13537809 0.088555515 0.17526206
00000000: 8ea0 0a3e 985c b53d e677 333e

exp_avg f4 [50, 6]
-8.086644e-08 -8.086637e-08 -1.6173227e-07 -2.4259742e-07 -3.2346148e-07 -4.0432346e-07 -1.7054255e-08 -1.7054193e-08
-3.4108112e-08 -5.1161834e-08 -6.8214455e-08 -8.526628e-08 -5.359888e-08 -5.359884e-08 -1.0719689e-07 -1.6079454e-07
-2.1439037e-07 -2.679834e-07 -7.5600994e-08 -7.5600816e-08 -1.5120129e-07 -2.2680065e-07 -3.0239883e-07 -3.7799452e-07
-5.5801852e-08 -5.5801788e-08 -1.1160326e-07 -1.6740404e-07 -2.23204e-07 -2.7900256e-07 -6.349259e-08 -6.349252e-08
-1.2698449e-07 -1.9047566e-07 -2.539651e-07 -3.1745262e-07 -3.594022e-08 -3.5940136e-08 -7.187982e-08 -1.0781892e-07
-1.4375662e-07 -1.796928e-07 3.35329e-08 3.3532793e-08 6.706518e-08 1.0059695e-07 1.3412651e-07 1.6765473e-07
7.2181166e-08 7.218108e-08 1.4436205e-07 2.1654235e-07 2.887222e-07 3.6090088e-07 -1.842361e-08 -1.8423753e-08
-3.684781e-08 -5.5272157e-08 -7.369718e-08 -9.212313e-08 -4.908935e-08 -4.9089266e-08 -9.817811e-08 -1.4726614e-07
-1.9635284e-07 -2.4543797e-07 -5.7480996e-08 -5.7480914e-08 -1.1496153e-07 -1.7244147e-07 -2.2992073e-07 -2.8739865e-07
4.7812914e-09 4.7812847e-09 9.562538e-09 1.4343724e-08 1.9124851e-08 2.3905804e-08 -1.17669e-08 -1.1766906e-08
-2.353387e-08 -3.530094e-08 -4.7068067e-08 -5.8835607e-08 -5.8077503e-09 -5.807804e-09 -1.16158505e-08 -1.7423773e-08
-2.3232896e-08 -2.9041928e-08 1.769052e-08 1.7690525e-08 3.538094e-08 5.3071247e-08 7.076141e-08 8.8451124e-08
5.6757298e-08 5.6757283e-08 1.13514176e-07 1.7027055e-07 2.2702562e-07 2.8377926e-07 -3.908322e-08 -3.9083215e-08
-7.816609e-08 -1.17248206e-07 -1.5632963e-07 -1.9540971e-07 4.8473947e-08 4.847401e-08 9.694817e-08 1.4542204e-07
1.9389604e-07 2.4236965e-07 -5.045175e-08 -5.04516e-08 -1.00902575e-07 -1.513529e-07 -2.0180116e-07 -2.5224756e-07
-4.0646256e-08 -4.0646167e-08 -8.129181e-08 -1.2193699e-07 -1.6258052e-07 -2.0322321e-07 -4.436541e-09 -4.4366084e-09
-8.873513e-09 -1.3309963e-08 -1.774743e-08 -2.2185374e-08 -2.9714014e-08 -2.9713954e-08 -5.9427716e-08 -8.9141e-08
-1.18853656e-07 -1.4856539e-07 -1.0255293e-07 -1.0255283e-07 -2.0510514e-07 -3.0765602e-07 -4.1020587e-07 -5.127534e-07
1.9981389e-08 1.998131e-08 3.9962178e-08 5.994241e-08 7.9921286e-08 9.9899246e-08 2.2264336e-08 2.226415e-08
4.452782e-08 6.6790676e-08 8.905344e-08 1.1131319e-07 -9.8309245e-09 -9.830903e-09 -1.966187e-08 -2.9492925e-08
-3.932466e-08 -4.915561e-08 1.2727183e-08 1.2727088e-08 2.5454025e-08 3.818053e-08 5.0904635e-08 6.3628534e-08
3.658684e-08 3.6586798e-08 7.317335e-08 1.0975944e-07 1.4634482e-07 1.8292903e-07 -5.8509602e-08 -5.8509528e-08
-1.1701874e-07 -1.7552725e-07 -2.3403506e-07 -2.9254142e-07 -3.9991434e-08 -3.9991384e-08 -7.998253e-08 -1.1997331e-07
-1.599633e-07 -1.999526e-07 -3.5553523e-08 -3.5553462e-08 -7.1106534e-08 -1.0665894e-07 -1.422102e-07 -1.777602e-07
-6.115485e-08 -6.1154765e-08 -1.223092e-07 -1.83463e-07 -2.446159e-07 -3.0576726e-07 -2.2629994e-08 -2.2629942e-08
-4.525956e-08 -6.788844e-08 -9.051644e-08 -1.13143166e-07 -4.6868717e-08 -4.6868674e-08 -9.373703e-08 -1.4060491e-07
-1.8747177e-07 -2.3433768e-07 1.563235e-08 1.5632343e-08 3.1264555e-08 4.6896666e-08 6.25285e-08 7.8159985e-08
3.8684703e-08 3.868467e-08 7.73691e-08 1.16053016e-07 1.5473599e-07 1.9341799e-07 -5.0777903e-08 -5.0777942e-08
-1.0155609e-07 -1.5233414e-07 -2.0311111e-07 -2.5388863e-07 -3.2905163e-08 -3.2905497e-08 -6.581101e-08 -9.871596e-08
-1.3162192e-07 -1.6452952e-07 6.0727174e-08 6.0727174e-08 1.2145416e-07 1.821809e-07 2.4290665e-07 3.036319e-07
-2.9659661e-08 -2.9659692e-08 -5.9319333e-08 -8.8979014e-08 -1.1863865e-07 -1.4829837e-07 2.8818343e-09 2.881815e-09
5.763435e-09 8.644478e-09 1.152462e-08 1.4403784e-08 -4.5597293e-08 -4.5597243e-08 -9.119414e-08 -1.3679026e-07
00000000: cca8 adb3 c2a8 adb3 a1a8 2db4 563e 82b4
00000010: 35a8 adb4 cb11 d9b4 b47e 92b2 917e 92b2
00000020: 447e 12b3 08bd 5bb3 4b7d 92b3 a21b b7b3
00000030: 9734 66b3 8c34 66b3 1d34 e6b3 dea6 2cb4
00000040: 2d33 66b4 5cdf 8fb4 165a a2b3 fd59 a2b3
00000050: e559 22b4 7d86 73b4 6159 a2b4 2cef cab4
00000060: c9aa 6fb3 b7aa 6fb3 8baa efb3 acbf 33b4
00000070: d9a9 6fb4 d2c9 95b4 6c59 88b3 6259 88b3
00000080: 3b59 08b4 8d85 4cb4 b358 88b4 5b6e aab4
00000090: b15c 1ab3 995c 1ab3 595c 9ab3 148a e7b3
000000a0: 855b 1ab4 95f1 40b4 d005 1033 b205 1033
000000b0: 7905 9033 c207 d833 6a04 1034 9504 3434
000000c0: 0402 9b33 f801 9b33 f001 1b34 b582 6834
000000d0: ad01 9b34 d7c1 c134 f241 9eb2 4342 9eb2
000000e0: 9842 1eb3 6164 6db3 7443 9eb3 3ad5 c5b3
000000f0: 50d6 52b3 38d6 52b3 fdd5 d2b3 3520 1eb4
00000100: 0fd5 52b4 bdc4 83b4 06e1 76b3 efe0 76b3
00000110: c5e0 f6b3 5a28 39b4 21e0 76b4 c54b 9ab4
00000120: af48 a431 a048 a431 7d48 2432 5e6c 7632
00000130: fe47 a432 6b59 cd32 6027 4ab2 6627 4ab2
00000140: 8727 cab2 cb9d 17b3 e327 4ab3 6fb2 7cb3
00000150: 838d c7b1 fc8d c7b1 0d8f 47b2 48ab 95b2
00000160: ae91 c7b2 e077 f9b2 ddf5 9732 e0f5 9732
00000170: c1f5 1733 74f0 6333 7ff5 9733 85f2 bd33
00000180: 4fc5 7333 4bc5 7333 14c5 f333 9dd3 3634
00000190: 54c4 7334 535a 9834 74dc 27b3 73dc 27b3
000001a0: 43dc a7b3 e2c9 fbb3 90db 27b4 d0d1 51b4
000001b0: ab31 5033 bd31 5033 d231 d033 4e25 1c34
000001c0: bd31 5034 081f 8234 49b0 58b3 1fb0 58b3
000001d0: c7af d8b3 9283 22b4 aeae 58b4 a46c 87b4
000001e0: 0893 2eb3 ef92 2eb3 a592 aeb3 c9ed 02b4
000001f0: cb91 2eb4 9235 5ab4 3a70 98b1 d270 98b1
00000200: 1f72 18b2 d6a9 64b2 0373 98b2 2792 beb2
00000210: cf3d ffb2 ad3d ffb2 773d 7fb3 c86d bfb3
00000220: 7d3c ffb3 5885 1fb4 123b dcb3 043b dcb3
00000230: df3a 5cb4 ec2b a5b4 443a dcb4 25a4 09b5
00000240: 8aa3 ab32 5ea3 ab32 e1a2 2b33 b0b9 8033
00000250: 31a1 ab33 3188 d633 cb3f bf32 623f bf32
00000260: db3e 3f33 906e 8f33 a53d bf33 130b ef33
00000270: dde4 28b2 c5e4 28b2 e9e4 a8b2 a157 fdb2
00000280: ece5 28b3 2a1f 53b3 bea6 5a32 53a6 5a32
00000290: fea5 da32 f0fb 2333 3da2 5a33 28a4 8833
000002a0: a823 1d33 9c23 1d33 7923 9d33 e4b4 eb33
000002b0: f522 1d34 266b 4434 fd4b 7bb3 e84b 7bb3
000002c0: bc4b fbb3 9078 3cb4 114b 7bb4 960e 9db4
000002d0: 0cc3 2bb3 fec2 2bb3 dcc2 abb3 03d2 00b4
000002e0: 61c2 2bb4 8db2 56b4 83b3 18b3 72b3 18b3
000002f0: 3bb3 98b3 5f0c e5b3 71b2 18b4 5ade 3eb4
00000300: 3c54 83b3 3054 83b3 1954 03b4 edfd 44b4
00000310: c153 83b4 5528 a4b4 e263 c2b2 c563 c2b2
00000320: 6a63 42b3 11ca 91b3 f061 c2b3 1df9 f2b3
00000330: b34c 49b3 a74c 49b3 7a4c c9b3 2ff9 16b4
00000340: d94b 49b4 409e 7bb4 e747 8632 e347 8632
00000350: be47 0633 6e6b 4933 6847 8633 e8d8 a733
00000360: 4826 2633 3f26 2633 1d26 a633 d238 f933
00000370: 8125 2634 55ae 4f34 e516 5ab3 f016 5ab3
00000380: 0d17 dab3 4a91 23b4 c216 5ab4 304e 88b4
00000390: 9c53 0db3 fa53 0db3 fc53 8db3 acfd d3b3
000003a0: f553 0db4 88a9 30b4 1e69 8233 1e69 8233
000003b0: 1169 0234 819d 4334 d668 8234 da02 a334
000003c0: 49c6 feb2 5ac6 feb2 4cc6 7eb3 bb14 bfb3
000003d0: 4ac6 feb3 f23b 1fb4 c409 4631 6d09 4631
000003e0: b607 c631 d182 1432 d1fd 4532 8374 7732
000003f0: c1d6 43b3 b3d6 43b3 82d6 c3b3 9fe0 12b4

exp_avg_sq f4 [50, 6]
2.0527586e-12 2.0527525e-12 8.210945e-12 1.8474378e-11 3.284277e-11 5.1315646e-11 4.656884e-13 4.656886e-13
1.8627565e-12 4.191223e-12 7.451072e-12 1.1642366e-11 7.063373e-12 7.06337e-12 2.8253452e-11 6.357019e-11
1.1301324e-10 1.7658283e-10 1.8131425e-12 1.8131372e-12 7.2524933e-12 1.6317888e-11 2.9009045e-11 4.5325535e-11
9.894024e-13 9.894e-13 3.957563e-12 8.904413e-12 1.5829747e-11 2.4733375e-11 1.2018178e-12 1.2018145e-12
4.8072184e-12 1.0816086e-11 1.9228197e-11 3.004319e-11 9.415159e-13 9.415143e-13 3.7660413e-12 8.473531e-12
1.5063905e-11 2.3537061e-11 9.3887936e-12 9.3888005e-12 3.7555264e-11 8.4499734e-11 1.5022243e-10 2.3472438e-10
3.3785951e-12 3.3785908e-12 1.3514287e-11 3.040692e-11 5.4056055e-11 8.446107e-11 3.160115e-12 3.1601154e-12
1.2640461e-11 2.8441005e-11 5.056188e-11 7.9002985e-11 7.6727595e-13 7.672738e-13 3.0690726e-12 6.905314e-12
1.2275872e-11 1.918056e-11 9.772474e-13 9.77245e-13 3.908955e-12 8.79503e-12 1.5635368e-11 2.4429729e-11
1.5391568e-14 1.539152e-14 6.156542e-14 1.3851965e-13 2.462517e-13 3.8475652e-13 1.2515112e-13 1.2515085e-13
5.006008e-13 1.1263424e-12 2.00236e-12 3.128645e-12 1.5847035e-12 1.5847055e-12 6.338849e-12 1.4262525e-11
2.5355837e-11 3.9618968e-11 9.5589945e-14 9.558975e-14 3.823569e-13 8.6029426e-13 1.5293898e-12 2.389628e-12
1.1349461e-12 1.1349436e-12 4.5397484e-12 1.0214343e-11 1.8158561e-11 2.8372254e-11 1.0270371e-12 1.0270357e-12
4.1081288e-12 9.243215e-12 1.6432227e-11 2.5675038e-11 1.7318463e-12 1.7318438e-12 6.927342e-12 1.5586367e-11
2.7708759e-11 4.3294212e-11 3.5772195e-12 3.577216e-12 1.4308828e-11 3.2194726e-11 5.7234755e-11 8.942859e-11
1.9333814e-12 1.933379e-12 7.733489e-12 1.7400232e-11 3.093353e-11 4.8333136e-11 3.6203317e-12 3.620333e-12
1.4481351e-11 3.2583124e-11 5.7925723e-11 9.05093e-11 3.0834366e-13 3.0834276e-13 1.2333628e-12 2.7750328e-12
4.9333137e-12 7.708142e-12 3.873022e-12 3.8730117e-12 1.5491945e-11 3.485638e-11 6.1966106e-11 9.6819865e-11
8.537948e-12 8.537953e-12 3.4151855e-11 7.684186e-11 1.3660852e-10 2.134519e-10 9.588188e-12 9.588196e-12
3.8352845e-11 8.6294236e-11 1.5341259e-10 2.3970873e-10 2.7681533e-12 2.7681542e-12 1.1072631e-11 2.4913483e-11
4.4290717e-11 6.9204566e-11 5.6504775e-12 5.650479e-12 2.2601972e-11 5.0854643e-11 9.040865e-11 1.4126467e-10
4.0731275e-13 4.0731174e-13 1.6292334e-12 3.6657227e-12 6.516726e-12 1.0182164e-11 1.1033272e-12 1.1033247e-12
4.4132675e-12 9.9297185e-12 1.7652522e-11 2.7581354e-11 5.75599e-13 5.755978e-13 2.3023807e-12 5.1802915e-12
9.209331e-12 1.4389314e-11 4.053017e-13 4.053006e-13 1.6211882e-12 3.647611e-12 6.484504e-12 1.01317696e-11
1.1011167e-12 1.1011133e-12 4.404427e-12 9.9098525e-12 1.7617205e-11 2.752628e-11 1.6793934e-13 1.6793851e-13
6.717433e-13 1.5113834e-12 2.6868163e-12 4.197964e-12 6.524684e-13 6.524672e-13 2.6098494e-12 5.872086e-12
1.0439107e-11 1.6310741e-11 1.1947691e-13 1.1947661e-13 4.779032e-13 1.0752685e-12 1.9115588e-12 2.9867487e-12
5.337223e-13 5.337209e-13 2.1348654e-12 4.803372e-12 8.539165e-12 1.3342066e-11 1.0621319e-12 1.0621314e-12
4.2485212e-12 9.55917e-12 1.6994035e-11 2.655314e-11 2.8445914e-11 2.8445923e-11 1.1378377e-10 2.5601313e-10
4.5513604e-10 7.111522e-10 2.0591636e-12 2.0591606e-12 8.2365946e-12 1.8532167e-11 3.294559e-11 5.1476486e-11
5.315791e-13 5.3157863e-13 2.126309e-12 4.784172e-12 8.5051514e-12 1.3289195e-11 4.1445263e-12 4.144525e-12
1.6578093e-11 3.730068e-11 6.631238e-11 1.0361303e-10 7.700125e-13 7.700111e-13 3.0800243e-12 6.9299887e-12
00000000: 3673 102c 1a73 102c cf72 102d 9a80 a22d
00000010: ac71 102e 48b0 612e 6314 032b 6614 032b
00000020: 7014 032c 2e77 932c a514 032d 8ed0 4c2d
00000030: 3585 f82c 2e85 f82c 1e85 f82d d6ca 8b2e
00000040: cc84 f82e a627 422f 582d ff2b 272d ff2b
00000050: a72c ff2c 9e88 8f2d 902a ff2d 0458 472e
00000060: fa3e 8b2b e43e 8b2b 8f3e 8b2c e9a5 1c2d
00000070: 6c3d 8b2d 9c8e d92d 0d24 a92b ee23 a92b
00000080: 9323 a92c 5247 3e2d 0d22 a92d a021 042e
00000090: af81 842b a181 842b 7c81 842c 6411 152d
000000a0: e680 842d c008 cf2d 5e2b 252d 662b 252d
000000b0: 782b 252e 1fd1 b92e db2b 252f 850a 812f
000000c0: 5cbf 6d2c 48bf 6d2c f0be 6d2d 26bb 052e
000000d0: b5bd 6d2e 5bbb b92e 925f 5e2c 945f 5e2c
000000e0: 935f 5e2d 732b fa2d 9e5f 5e2e baba ad2e
000000f0: 0ff8 572b e7f7 572b 7ff7 572c 8af5 f22c
00000100: 9df5 572d c8b6 a82d 0c89 892b f688 892b
00000110: bd88 892c 4bb9 1a2d b887 892d dce2 d62d
00000120: 8aa2 8a28 6ea2 8a28 0ca2 8a29 92f5 1b2a
00000130: 9ca0 8a2a 4299 d82a 5be8 0c2a 47e8 0c2a
00000140: 17e8 0c2b c384 9e2b 50e7 0c2c a828 5c2c
00000150: f606 df2b 0807 df2b 4707 df2c b4e8 7a2d
00000160: 4508 df2d fe3e 2e2e da3f d729 bd3f d729
00000170: 703f d72a bc26 722b 133e d72b b627 282c
00000180: beba 9f2b a7ba 9f2b 6bba 9f2c 50b1 332d
00000190: 72b9 9f2d a390 f92d e98a 902b dc8a 902b
000001a0: bc8a 902c bd9b 222d 168a 902d 0cd7 e12d
000001b0: 57bc f32b 40bc f32b f3bb f32c 6119 892d
000001c0: 94ba f32d f368 3e2e 75b9 7b2c 65b9 7b2c
000001d0: 3cb9 7b2d 0a98 0d2e 9bb8 7b2e d2a7 c42e
000001e0: b40c 082c a90c 082c 8a0c 082d d70d 992d
000001f0: 0f0c 082e 4692 542e 19c2 7e2c 1fc2 7e2c
00000200: 35c2 7e2d 564d 0f2e 91c2 7e2e 3508 c72e
00000210: 0195 ad2a e094 ad2a 9494 ad2b 8c46 432c
00000220: 5793 ad2c 639a 072d 1545 882c fd44 882c
00000230: c244 882d cc4c 192e d143 882e bde8 d42e
00000240: 8033 162d 8633 162d 9233 162e 1ffa a82e
00000250: e133 162f 5eb1 6a2f 5cad 282d 65ad 282d
00000260: 77ad 282e 56c3 bd2e cead 282f 01c8 832f
00000270: 9eca 422c a2ca 422c b2ca 422d 2d24 db2d
00000280: eaca 422e b52e 982e face c62c fece c62c
00000290: 1ecf c62d 3da9 5f2e 8ccf c62e 7852 1b2f
000002a0: f44b e52a cf4b e52a 524b e52b e5f9 802c
000002b0: 7349 e52c 6420 332d 8d47 9b2b 7647 9b2b
000002c0: 2e47 9b2c 7aaf 2e2d f245 9b2d b09b f22d
000002d0: 4704 222b 3104 222b 0104 222c eb43 b62c
000002e0: 2403 222d b623 7d2d 212a e42a f929 e42a
000002f0: 7629 e42b c256 802c 3827 e42c 6f3d 322d
00000300: e9f7 9a2b caf7 9a2b 8df7 9a2c 0256 2e2d
00000310: 6bf6 9a2d ac1f f22d 3815 3d2a fb14 3d2a
00000320: 3514 3d2b 53b5 d42b 6111 3d2c e6b3 932c
00000330: 4ea7 372b 37a7 372b dea6 372c 0c9b ce2c
00000340: 8fa5 372d 8678 8f2d e084 062a ca84 062a
00000350: 8e84 062b a154 972b 9583 062c 7b2c 522c
00000360: bf3a 162b a53a 162b 513a 162c ee00 a92c
00000370: fb38 162d 53b7 6a2d 567b 952b 517b 952b
00000380: 477b 952c ad2a 282d 2a7b 952d 5b90 e92d
00000390: 8136 fa2d 8636 fa2d 9136 fa2e a5be 8c2f
000003a0: b436 fa2f e37a 4330 98e6 102c 8ae6 102c
000003b0: 53e6 102d bb02 a32d 70e5 102e 5f65 622e
000003c0: 50a0 152b 47a0 152b 2da0 152c fe53 a82c
000003d0: cc9f 152d 37c9 692d 93d2 912c 90d2 912c
000003e0: 8cd2 912d d50c 242e 8dd2 912e f3d8 e32e
000003f0: 40bd 582b 26bd 582b c9bc 582c cad3 f32c

exp_avg f4 [50]
-4.3313616e-05 -1.9777206e-05 -8.574445e-05 -4.1018968e-05 -2.7759535e-05 -2.9339384e-05 -2.7286436e-05 0.00010439628
8.153015e-05 1.980392e-05 -2.3795532e-05 -3.160254e-05 -1.3479955e-06 -1.0455655e-05 3.0779735e-05 6.464264e-06
2.3835231e-05 -9.551252e-06 7.0423965e-05 -5.7755842e-05 -4.2494714e-05 3.2977267e-05 -1.7473894e-05 -7.256516e-05
8.820897e-05 9.80326e-05 2.074793e-05 6.658787e-05 1.9564966e-05 -3.170425e-05 -2.2425535e-05 -1.5476255e-05
-3.1002688e-05 -7.4498553e-06 -2.2554344e-05 2.5735364e-06 1.498931e-05 -8.315294e-05 0.00010776466 6.0295886e-05
-9.9307645e-06 4.6377587e-05 -2.01172e-05 8.202918e-07 -3.8748563e-05 1.5757093e-06 -8.1286205e-05 -5.0912546e-05
-8.5524414e-05 2.524885e-05
00000000: a4ab 35b8 3ae7 a5b7 b3d1 b3b8 c80b 2cb8
00000010: 26dd e8b7 d91d f6b7 2de5 e4b7 53ef da38
00000020: 2afb aa38 9820 a637 849c c7b7 f88c 04b8
00000030: c6ec b4b5 b26a 2fb7 7d19 0138 9be7 d836
00000040: c5f1 c737 513e 20b7 94b0 9338 dd3e 72b8
00000050: 5a3c 32b8 1251 0a38 e794 92b7 202e 98b8
00000060: d5fc b838 da96 cd38 d70b ae37 17a5 8b38
00000070: 721f a437 2efa 04b8 781e bcb7 01d3 81b7
00000080: e208 02b8 c5f9 f9b6 1633 bdb7 05b5 2c36
00000090: 997a 7b37 6562 aeb8 b6ff e138 37e6 7c38
000000a0: 4f9c 26b7 8e85 4238 5cc1 a8b7 0632 5c35
000000b0: f485 22b8 f67c d335 3378 aab8 ee8a 55b8
000000c0: 925b b3b8 7ecd d337

exp_avg_sq f4 [50]
6.8460406e-07 4.0939694e-06 4.3456934e-05 8.975807e-07 2.6029338e-07 4.0038572e-07 4.412666e-06 7.5899414e-05
1.30688295e-05 1.4962369e-05 3.4150543e-07 3.153833e-07 7.181268e-09 1.05949276e-07 1.2959978e-05 6.620844e-08
6.0610785e-07 1.8188292e-06 6.136406e-06 1.9242945e-05 8.980283e-06 2.219177e-05 2.0696193e-07 6.5517415e-06
6.442944e-05 7.389116e-05 1.6078193e-05 4.220855e-05 2.4565713e-07 3.6044065e-07 3.8722453e-07 1.6667465e-07
2.2902783e-07 3.77389e-08 1.4483366e-07 1.429915e-07 8.017249e-08 7.0659557e-06 0.000170887 6.215253e-06
8.5969225e-07 2.2651897e-05 7.1937495e-07 1.3992083e-06 1.2344739e-06 5.327026e-06 7.421943e-06 1.6303771e-05
4.326755e-05 7.952332e-06
00000000: a2c5 3735 ee5e 8936 8745 3638 47f1 7035
00000010: 73be 8b34 98f4 d634 8310 9436 302c 9f38
00000020: 3242 5b37 e306 7b37 2658 b734 f351 a934
00000030: 1abf f631 3b86 e333 af6e 5937 7a2e 8e33
00000040: 6ab3 2235 7f1e f435 53e7 cd36 e96b a137
00000050: 06aa 1637 7728 ba37 4339 5e34 08d7 db36
00000060: 4b1e 8738 04f6 9a38 a8df 8637 1609 3138
00000070: dce2 8334 9682 c134 bce3 cf34 2ef7 3234
00000080: b1ea 7534 5c16 2233 9383 1b34 3489 1934
00000090: 4b2b ac33 1918 ed36 2130 3339 9e8c d036
000000a0: 9ac5 6635 9404 be37 121b 4135 6ecc bb35
000000b0: 33b0 a535 cebe b236 010a f936 15c4 8837
000000c0: 2e7a 3538 026b 0537

exp_avg f4 [50, 50]
3.7465136e-07 8.357571e-07 2.8765436e-07 1.8244901e-07 1.3346266e-07 1.4133254e-07 3.1372937e-07 1.084043e-08
2.0087002e-07 9.905045e-08 -1.9679662e-08 1.2336137e-07 -4.707171e-09 -1.3636741e-08 -1.4686603e-08 -4.2681723e-08
2.9152494e-07 -3.0072716e-08 4.25327e-07 2.5346293e-07 2.1974769e-07 -1.7466865e-08 -1.3483324e-08 2.6379567e-07
-9.475427e-10 3.2184783e-10 -4.2071722e-08 -1.2848858e-08 -5.0229247e-08 1.343571e-07 -3.0739972e-08 -9.656302e-09
1.0995698e-07 -7.0926385e-09 -1.0641155e-08 -3.336927e-08 9.53412e-09 8.501603e-09 1.0647806e-07 1.324014e-07
5.495664e-08 5.105077e-08 -3.0997434e-08 -4.2131084e-08 1.2101219e-07 1.0733609e-07 1.0680175e-08 2.8229508e-07
2.2589373e-07 -2.7735817e-08 -3.580767e-08 -2.698119e-07 -4.9623203e-08 3.3818623e-09 1.028136e-08 -3.1695325e-08
-9.346474e-08 2.0194709e-07 -5.4342056e-08 9.695988e-08 4.9941328e-08 3.502744e-08 1.1895393e-08 3.969804e-08
1.5081449e-07 1.04044034e-07 -9.970528e-08 9.391166e-08 -1.0152734e-07 -5.0627214e-08 -3.7649663e-08 3.23015e-07
3.4686835e-08 3.203462e-08 1.9363648e-07 1.838979e-07 2.5128404e-07 1.7235534e-07 4.0080202e-08 3.05278e-08
7.939043e-08 2.4702747e-08 2.2728093e-08 1.8583238e-08 4.977636e-08 8.398119e-08 -2.4996899e-08 6.1886664e-07
1.7790532e-07 -6.8459904e-08 6.1466764e-08 8.587193e-08 8.695751e-08 3.143985e-07 1.3748667e-08 8.167482e-08
6.343339e-07 -4.751551e-08 -2.6106925e-08 2.3317256e-07 -1.01526716e-07 -5.570253e-07 -1.12633394e-07 -8.087699e-09
6.596506e-09 -6.871327e-08 -1.9957989e-07 2.5153773e-07 -1.315687e-07 1.386061e-07 7.475553e-08 4.9498517e-08
1.9534905e-08 6.1117866e-08 1.9171e-07 1.3833098e-07 -2.1040827e-07 1.273922e-07 -2.4399273e-07 -1.11366916e-07
-8.359287e-08 3.1926768e-07 5.3330567e-08 3.6579184e-08 2.3833019e-07 2.298373e-07 2.5166324e-07 2.1314996e-07
5.976156e-08 4.1947416e-08 1.1113359e-07 3.833398e-08 2.676695e-08 2.8489747e-08 7.463469e-08 1.18043936e-07
-4.2010388e-08 4.838104e-07 2.4953724e-07 -1.5132132e-07 8.7094634e-08 1.2323895e-07 1.1926768e-07 2.8505255e-07
1.7573726e-08 1.1528126e-07 4.9256454e-07 -1.08127566e-07 -6.250788e-08 2.5318286e-07 -4.378045e-07 -9.863107e-07
-3.3741452e-07 -2.116025e-07 -1.5439649e-07 -1.6621297e-07 -3.713648e-07 -1.8657138e-08 -2.3815683e-07 -1.12511906e-07
2.3334804e-08 -1.4153068e-07 5.8564815e-09 1.6519628e-08 1.2992948e-08 4.678651e-08 -3.4623173e-07 3.3588062e-08
-5.0248104e-07 -2.977853e-07 -2.575833e-07 -4.8776476e-09 1.6303725e-08 -3.043927e-07 -5.3850204e-09 -5.8581904e-09
2.9596256e-08 9.197695e-09 5.8189872e-08 -1.544268e-07 3.5019735e-08 1.1798215e-08 -1.2667175e-07 8.702333e-09
1.3052159e-08 3.7752805e-08 -1.2315526e-08 -8.1884444e-08 -1.2209547e-07 -1.5987716e-07 -6.2190814e-08 -5.7614205e-08
3.495433e-08 1.9673603e-08 -1.3954704e-07 -1.2217897e-07 -8.682111e-08 -3.3102148e-07 -2.6386317e-07 1.7907638e-08
-6.8882166e-08 -3.4384487e-07 -7.249868e-08 -1.0478795e-08 -5.18627e-10 -4.3166047e-08 -1.2098674e-07 1.7241777e-07
-7.9014576e-08 8.0550535e-08 4.769001e-08 2.4873982e-08 1.1991238e-08 3.8223725e-08 1.3082915e-07 9.568627e-08
-1.2606317e-07 8.50075e-08 -1.493597e-07 -7.062957e-08 -5.4248158e-08 2.563943e-07 3.339341e-08 1.2202334e-08
1.6523484e-07 1.5772116e-07 2.0187676e-07 1.4796576e-07 3.9809187e-08 2.007219e-08 7.3567705e-08 2.3770557e-08
1.2171227e-08 1.7724851e-08 4.661958e-08 7.883451e-08 -2.4636497e-08 4.592461e-07 1.5297323e-07 -8.723472e-08
5.070125e-08 7.375886e-08 7.95551e-08 2.4400703e-07 5.95807e-09 6.556908e-08 4.6972883e-07 -6.986171e-08
-4.2724313e-08 1.9176478e-07 4.126413e-06 9.532041e-06 3.2083024e-06 1.9670215e-06 1.4259839e-06 1.58869e-06
00000000: b123 c934 ca58 6035 ea6e 9a34 34e7 4334
00000010: f04d 0f34 31c1 1734 a36e a834 b73c 3a32
00000020: bbae 5734 90b5 d433 090c a9b2 5175 0434
00000030: b7bc a1b1 0547 6ab2 5d50 7cb2 0d51 37b3
00000040: e282 9c34 4d29 01b3 7f58 e434 ae13 8834
00000050: c9f3 6b34 0b0a 96b2 49a4 67b2 cd9f 8d34
00000060: b23a 82b0 0ef0 b02f 59b2 34b3 e0bd 5cb2
00000070: a4bb 57b3 cc43 1034 f506 04b3 dee4 25b2
00000080: 7d21 ec33 82b3 f3b1 4bd0 36b2 e651 0fb3
00000090: 81cb 2332 720e 1232 efa8 e433 382a 0e34
000000a0: 7709 6c33 ea42 5b33 0a22 05b3 9ef3 34b3
000000b0: 94ef 0134 a480 e633 e87b 3732 578e 9734
000000c0: 328d 7234 b53f eeb2 f3ca 19b3 aada 90b4
000000d0: 4a21 55b3 5a66 6831 e6a1 3032 6121 08b3
000000e0: c9b6 c8b3 cbd6 5834 b965 69b3 4238 d033
000000f0: 127f 5633 1471 1633 7e5c 4c32 7580 2a33
00000100: 92ef 2134 d06e df33 8f1d d6b3 7bac c933
00000110: 3f07 dab3 3671 59b3 3eb4 21b3 d86a ad34
00000120: 94fa 1433 7096 0933 64ea 4f34 7875 4534
00000130: 37e8 8634 ad10 3934 a624 2c33 ac1d 0333
00000140: 5a7d aa33 ea31 d432 9b3b c332 f9a0 9f32
00000150: b0c9 5533 2659 b433 c3b8 d6b2 3120 2635
00000160: 3e06 3f34 3b04 93b3 b6ff 8333 9868 b833
00000170: 66bd ba33 9aca a834 4733 6c32 3565 af33
00000180: 1847 2a35 db13 4cb3 bc41 e0b2 fc5d 7a34
00000190: e706 dab3 7d86 15b5 dde0 f1b3 14f2 0ab2
000001a0: 7ba7 e231 858f 93b3 1a4c 56b4 150b 8734
000001b0: 5445 0db4 c1d3 1434 4a89 a033 3298 5433
000001c0: b6cd a732 e73f 8333 d8d8 4d34 2188 1434
000001d0: 96ec 61b4 4dc9 0834 1bfe 82b4 9c28 efb3
000001e0: ab83 b3b3 d167 ab34 940d 6533 3d1b 1d33
000001f0: b4e7 7f34 32c9 7634 551c 8734 37de 6434
00000200: 4456 8033 ac29 3433 56a8 ee33 a8a4 2433
00000210: 25ed e532 9eb9 f432 db46 a033 577f fd33
00000220: e96e 34b3 33df 0135 23f8 8534 e37a 22b4
00000230: c808 bb33 aa53 0434 0d10 0034 5309 9934
00000240: 08f5 9632 8b90 f733 c738 0435 c233 e8b3
00000250: 123c 86b3 30ed 8734 640b ebb4 6161 84b5
00000260: e625 b5b4 da34 63b4 2fc8 25b4 4678 32b4
00000270: fd5f c7b4 7b43 a0b2 0db8 7fb4 139e f1b3
00000280: c771 c832 a8f7 17b4 283a c931 0ce7 8d32
00000290: 9737 5f32 50f2 4833 bae1 b9b4 7742 1033
000002a0: 3ce2 06b5 4ddf 9fb4 fb49 8ab4 3e98 a7b1
000002b0: 450c 8c32 6a6b a3b4 2407 b9b1 3049 c9b1
000002c0: db3a fe32 e403 1e32 71ec 7933 84d0 25b4
000002d0: 9b68 1633 19b1 4a32 4403 08b4 4481 1532
000002e0: 013c 6032 a625 2233 4294 53b2 73d8 afb3
000002f0: 5919 03b4 b3aa 2bb4 c38d 85b3 7d73 77b3
00000300: b120 1633 b6fe a832 66d6 15b4 4d30 03b4
00000310: 6972 bab3 3fb7 b1b4 14a9 8db4 50d3 9932
00000320: 5fec 93b3 ae99 b8b4 92b0 9bb3 3a06 34b2
00000330: 218f 0eb0 9265 39b3 95e8 01b4 d621 3934
00000340: b9ae a9b3 20fb ac33 b8d3 4c33 77aa d532
00000350: 0602 4e32 6e2b 2433 0b7a 0c34 157c cd33
00000360: fb5b 07b4 5e8d b633 af5f 20b4 04ad 97b3
00000370: 7bfe 68b3 90a6 8934 716c 0f33 6fa2 5132
00000380: 686b 3134 105a 2934 76c3 5834 85e0 1e34
00000390: aafa 2a33 366b ac32 46fc 9d33 0230 cc32
000003a0: 9f19 5132 5c41 9832 c53a 4833 bb4b a933
000003b0: 3ba0 d3b2 4e8e f634 f640 2434 cb55 bbb3
000003c0: 9dc2 5933 5d65 9e33 e1d7 aa33 1200 8334
000003d0: bdb7 cc31 fcce 8c33 0a2f fc34 e206 96b3
000003e0: e17f 37b3 e7e7 4d34 9e75 8a36 ceeb 1f37
000003f0: 374e 5736 2c01 0436 6f64 bf35 f93a d535
