TSTE-R/Qcontrol-noisy-comparison/Noisy-10%/GEPINN_A30_noisy0.1/save_model_0222.ckpt-50000.pt (torch, 408799 bytes, 27 tensors)

input_projection.weight f4 [100, 2]
-0.13747698 0.13617496 -0.4400144 0.29691026 0.17558217 -0.5315331 0.092465855 -0.09836882
-0.6153222 -0.2863358 0.052582793 0.15041895 0.2822534 0.01563875 0.5058206 0.5551705
-0.5670999 0.10393921 -0.006873081 -0.012553357 -0.013127399 -0.36701575 -0.22489412 -0.2685121
-0.40671355 0.28640372 -0.051222745 0.03917258 -0.10229767 -0.011558364 0.28504014 -0.011955535
0.59204835 -0.59291327 -0.4506406 -0.6211156 -0.3287073 0.23917663 0.52647555 0.13129826
0.37139264 -0.547873 0.32902828 0.055572856 0.1950743 0.092310734 -0.640346 -0.056613725
-0.023444077 0.018739328 -0.4979864 0.32690322 0.26608557 -0.4808358 -0.62745374 0.13719913
0.39889875 -0.37511933 0.50212544 -0.5199768 0.37444767 -0.1376135 0.18046063 -0.2353467
-0.1836077 0.07607151 -0.32512072 0.31559905 0.26970103 0.17597583 0.12025142 -0.49889562
-0.14371017 0.13573618 -0.4926961 0.38691399 -0.02376203 -0.04621714 0.45380315 -0.26266995
-0.37984315 0.38379952 -0.006165792 -0.3494071 -0.26049155 0.1676452 0.05668014 -0.04651801
-0.4720236 -0.3546214 -0.51109785 -0.23794922 0.5129499 0.08868191 -0.06405421 0.070506394
0.4004368 -0.65641624 -0.636801 0.17953767 -0.34770268 -0.39514372 -0.10122225 -0.40326026
-0.45228875 0.47427127 0.09722937 -0.34173372 -0.11960441 0.078703225 -0.47675058 0.45489657
0.26153913 -0.3622483 -0.4898162 -0.57706344 0.11965468 -0.3598224 -0.6166853 0.11319498
-0.5452907 -0.51038927 -0.19799656 0.16542368 0.49860835 -0.57372326 0.03927401 -0.13809517
-0.22543503 -0.3715032 -0.021946093 -0.31540897 0.14728948 0.24407065 -0.10935612 -0.011795999
-0.50554216 0.43275735 -0.71591735 -0.52503824 -0.53187335 0.51917166 -0.23010929 0.2856233
0.20258962 -0.18784656 0.15602994 -0.52185583 -0.5062492 -0.45180583 -0.34484017 0.47011098
-0.46517938 -0.04240544 -0.32366458 0.22504632 -0.3964431 0.3948542 0.3131412 -0.31367484
0.29408702 0.022943687 -0.27277315 -0.6152366 -0.481069 -0.5370311 -0.015809065 0.3065179
-0.17428327 0.13718307 0.40548763 -0.5675144 0.14765646 0.2335758 -0.045321863 -0.25032362
0.037027977 -0.31367007 0.61229223 0.33106536 -0.3372565 0.3345495 0.2490399 0.37144816
0.43154877 -0.39916092 -0.49513632 -0.5886768 0.20236717 -0.24961506 0.08951116 -0.2950309
0.4926302 0.3925649 -0.3411518 -0.27086902 0.4374919 -0.15662184 0.17702618 -0.16504103
00000000: c4c6 0cbe 7371 0b3e 9149 e1be 9f04 983e
00000010: d0cb 333e 8e12 08bf bd5e bd3d 9875 c9bd
00000020: c185 1dbf 9b9a 92be 0e61 573d 6d07 1a3e
00000030: 8583 903e d61c 803c 757d 013f a71f 0e3f
00000040: 762d 11bf 15de d43d 9537 e1bb 98ac 4dbc
00000050: 4d14 57bc 7de9 bbbe a54a 66be 6b7a 89be
00000060: c23c d0be 82a3 923e f1ce 51bd 6d73 203d
00000070: 7181 d1bd 4b5f 3dbc c8f0 913e 26e1 43bc
00000080: 7b90 173f 2ac9 17bf 5dba e6be 6f01 1fbf
00000090: 534c a8be b8ea 743e 1ac7 063f 0d73 063e
000000a0: 2d27 be3e 6841 0cbf 6576 a83e 5da0 633d
000000b0: 8fc1 473e 690d bd3d b7ed 23bf cbe3 67bd
000000c0: cb0d c0bc 3883 993c 13f8 febe dc5f a73e
000000d0: 5e3c 883e 1c30 f6be cfa0 20bf ee7d 0c3e
000000e0: 753c cc3e a40f c0be 4b8b 003f 331d 05bf
000000f0: 9bb7 bf3e 8eea 0cbe acca 383e bafe 70be
00000100: a803 3cbe 61cb 9b3d 3976 a6be 3396 a13e
00000110: 4116 8a3e 0233 343e 6046 f63d 3f6f ffbe
00000120: c228 13be 6dfe 0a3e aa42 fcbe 9719 c63e
00000130: 97a8 c2bc 2f4e 3dbd e358 e83e ad7c 86be
00000140: cd7a c2be 5f81 c43e 690a cabb 7de5 b2be
00000150: 265f 85be 2fab 2b3e 6f29 683d ab89 3ebd
00000160: 14ad f1be f090 b5be 4fd7 02bf f6a8 73be
00000170: af50 033f dc9e b53d db2e 83bd a865 903d
00000180: 0d06 cd3e e50a 28bf 6405 23bf b9d8 373e
00000190: 1606 b2be 4750 cabe 9c4d cfbd 2178 cebe
000001a0: 6492 e7be afd3 f23e 3120 c73d b9f7 aebe
000001b0: 28f3 f4bd 282f a13d a718 f4be 34e8 e83e
000001c0: 75e8 853e 9c78 b9be 30c9 fabe 6eba 13bf
000001d0: 830d f53d a43a b8be 16df 1dbf c5d2 e73d
000001e0: 2c98 0bbf dfa8 02bf 9cbf 4abe d364 293e
000001f0: 9849 ff3e 87df 12bf c9dd 203d d268 0dbe
00000200: 71d8 66be ab35 bebe 4bc8 b3bc 497d a1be
00000210: 0ed3 163e a8ed 793e 1af6 dfbd 0144 41bc
00000220: 366b 01bf 5f92 dd3e 5c46 37bf e868 06bf
00000230: da28 08bf 6fe8 043f c5a1 6bbe 383d 923e
00000240: a773 4f3e d95a 40be 50c6 1f3e 5898 05bf
00000250: 8c99 01bf 1853 e7be e48e b0be 63b2 f03e
00000260: fe2b eebe 54b1 2dbd 5db7 a5be 8b72 663e
00000270: 97fa cabe 542a ca3e 0b54 a03e fd99 a0be
00000280: 9392 963e 66f4 bb3c eca8 8bbe 2580 1dbf
00000290: ad4e f6be df7a 09bf 0382 81bc eaef 9c3e
000002a0: 5077 32be b879 0c3e 139c cf3e a048 11bf
000002b0: 4133 173e 7f2e 6f3e 6ba3 39bd 6b2a 80be
000002c0: a6aa 173d 5d99 a0be 2fbf 1c3f 6681 a93e
000002d0: e2ac acbe 124a ab3e 5104 7f3e 742e be3e
000002e0: f6f3 dc3e d25e ccbe 8282 fdbe 86b3 16bf
000002f0: 5739 4f3e 179b 7fbe a151 b73d 4a0e 97be
00000300: 073a fc3e 44fe c83e 73ab aebe 58af 8abe
00000310: f0fe df3e 7a61 20be 5a46 353e 8400 29be

dense1.weight f4 [100, 100]
-0.022637356 -0.08312619 -0.11019922 0.024278942 0.02929784 -0.025678895 0.02596549 -0.050197806
0.012035622 -0.012601859 0.014802923 -0.09121086 -0.11331914 -0.07551318 -0.00817481 0.013235668
0.13357969 0.044504717 0.02920588 0.0027747692 -0.10816839 -0.049513116 0.06695815 -0.09366989
0.0018923992 0.019679926 -0.112145476 -0.06976019 -0.008129231 0.052230187 0.009447813 -0.021313673
-0.09626857 -0.18007012 0.059951935 -0.10078238 -0.096880026 -0.15469174 -0.18401003 0.06079711
-0.041588493 -0.07675153 -0.09336256 0.0649811 0.04430807 -0.06429816 0.10905834 0.030645637
-0.0074326126 -0.061216403 -0.047019064 -0.08631713 0.1295333 -0.0070922575 -0.061177816 0.06560082
0.0056315246 -0.01416402 0.022074759 -0.0686102 -0.073920876 -0.06947403 -0.108472355 -0.17344691
-0.1174845 -0.10222509 -0.075637296 -0.122106634 -0.18250982 0.064049385 0.07783997 -0.0056162216
-0.092160836 -0.050694752 0.002442312 0.114112504 -0.09015583 -0.05809713 0.051301803 0.1284608
-0.0109561905 -0.023659475 -0.019957207 0.06679835 -0.026307063 0.03137243 0.043325506 0.01213854
-0.0060573188 -0.047987916 -0.049742084 -0.06720077 -0.061117835 0.039094955 -0.18597528 -0.08923747
0.03143193 0.008306484 0.10192089 -0.1155839 -0.1596249 -0.011234302 -0.15734734 -0.0011002141
0.018823203 0.03620293 0.07200808 0.011793748 -0.07694042 -0.025162457 -0.14313999 0.019030197
-0.1108879 0.07805907 -0.021568947 0.15749528 0.11073125 -0.12489909 0.015643103 -0.016317237
-0.1580624 0.17253242 0.030304033 0.008924504 0.00017319013 -0.043701667 -0.08329375 0.019681642
0.019729838 -0.04838576 0.079871014 -0.025463708 -0.02455957 -0.10038053 -0.0024582145 -0.085834846
0.082244694 -0.09368925 -0.057728563 0.027193535 -0.13496538 -0.1528959 -0.13876726 0.03554505
-0.017545758 -0.10914351 0.08276908 -0.08486104 -0.15467645 -0.1771211 -0.050024066 -0.031332914
0.08927797 -0.13822173 0.013779026 -0.00065521646 -0.15035883 -0.15940112 -0.14355381 -0.05350243
-0.086134985 0.08527403 -0.14503299 -0.11698514 -0.008276463 -0.13851403 -0.010200261 -0.039719343
-0.10871985 -0.13416989 0.24566622 0.039496057 -0.0336929 -0.054724943 0.0026232572 0.15488662
0.0062016635 -0.069524474 0.01756984 0.082007535 -0.012612963 -0.05164381 0.0035212908 -0.020828698
0.03219496 -0.1069561 0.163275 -0.13836649 -0.1354764 0.048130445 -0.03471186 0.076268256
0.06873307 -0.006452732 -0.19081572 -0.17056763 0.104050316 -0.13252336 0.17235069 -0.06029096
-0.030353207 0.046400014 0.09440028 -0.049698915 0.0694636 -0.13252597 -0.13376111 0.037704702
0.11770182 -0.033227187 0.09411344 0.010872179 0.085382275 -0.05901821 0.13010554 -0.101560995
0.035615418 -0.006208552 -0.030469803 -0.12198179 -0.032247715 0.034754228 0.018997172 0.029458735
0.11681031 -0.0070041777 0.073383085 0.05306322 0.095781736 0.07630447 -0.108006485 0.07047497
0.03093021 0.042043906 -0.12626998 0.105954975 -0.06466588 0.011584757 -0.044395756 -0.10976199
0.111769035 0.058653973 -0.0027042846 -0.07550192 0.11260288 0.035994776 -0.040526677 0.024095412
0.079716034 0.14722925 -0.030090509 0.07222916 0.020269511 0.06013976 0.09378536 0.037680462
00000000: fa71 b9bc 103e aabd 21b0 e1bd a2e4 c63c
00000010: 0602 f03c 8c5c d2bc 94b5 d43c 379c 4dbd
00000020: 0f31 453c 0778 4ebc f687 723c c2cc babd
00000030: de13 e8bd a7a6 9abd a3ef 05bc 6ada 583c
00000040: 1dc9 083e 944a 363d 2b41 ef3c e7d8 353b
00000050: 6487 ddbd 44ce 4abd 5b21 893d 00d6 bfbd
00000060: 610a f83a cc37 a13c 87ac e5bd 6ede 8ebd
00000070: 7730 05bc 52ef 553d 00cb 1a3c 039a aebc
00000080: 7528 c5bd 4d64 38be 2990 753d fe66 cebd
00000090: 0969 c6bd 8367 1ebe 206d 3cbe 6406 793d
000000a0: b258 2abd e82f 9dbd df34 bfbd d014 853d
000000b0: 617c 353d c1ae 83bd fb59 df3d 8f0c fb3c
000000c0: 468d f3bb 0dbe 7abd 1097 40bd 09c7 b0bd
000000d0: 61a4 043e 2b66 e8bb 9795 7abd b959 863d
000000e0: a788 b83b 3510 68bc 20d6 b43c 8183 8cbd
000000f0: d463 97bd 6648 8ebd c126 debd 119c 31be
00000100: b79b f0bd 635b d1bd bae7 9abd 0b13 fabd
00000110: dbe3 3abe 532c 833d 906a 9f3d 4808 b8bb
00000120: d2be bcbd 4da5 4fbd 320f 203b d1b3 e93d
00000130: 9fa3 b8bd 42f7 6dbd d721 523d 3a8b 033e
00000140: 9881 33bc 84d1 c1bc 4c7d a3bc 93cd 883d
00000150: e981 d7bc 6180 003d 1676 313d bae0 463c
00000160: 797c c6bb fa8e 44bd 5bbe 4bbd 8fa0 89bd
00000170: b256 7abd 0822 203d 4e70 3ebe 22c2 b6bd
00000180: c4be 003d eb17 083c e6bb d03d 40b7 ecbd
00000190: b674 23be 1410 38bc a91f 21be 0f35 90ba
000001a0: 1e33 9a3c 8649 143d f978 933d 903a 413c
000001b0: f092 9dbd 7f21 cebc 4a93 12be 37e5 9b3c
000001c0: 3219 e3bd 6fdd 9f3d 5cb1 b0bc 7146 213e
000001d0: 11c7 e23d 18cb ffbd f725 803c baab 85bc
000001e0: 1cdb 21be 57ac 303e 2a40 f83c 1538 123c
000001f0: 5f9a 3539 8500 33bd ea95 aabd 653b a13c
00000200: 78a0 a13c 2630 46bd 6a93 a33d 4499 d0bc
00000210: 2731 c9bc 4f94 cdbd ff19 21bb 2eca afbd
00000220: e86f a83d 26e0 bfbd c974 6cbd fac4 de3c
00000230: 5d34 0abe be90 1cbe 0119 0ebe b097 113d
00000240: 1fbc 8fbc a286 dfbd d682 a93d a0cb adbd
00000250: 8163 1ebe 3c5f 35be 09e6 4cbd f156 00bd
00000260: 5ed7 b63d ff89 0dbe 6dc1 613c d5c2 2bba
00000270: aaf7 19be 0c3a 23be c5ff 12be 5d25 5bbd
00000280: 8a67 b0bd 27a4 ae3d 8783 14be e895 efbd
00000290: 009a 07bc 9fd6 0dbe ff1e 27bc c0b0 22bd
000002a0: 83a8 debd d563 09be ed8f 7b3e 9ec6 213d
000002b0: 9101 0abd 4327 60bd f4ea 2b3b 999a 1e3e
000002c0: 5337 cb3b d962 8ebd a0ee 8f3c 91f3 a73d
000002d0: 9aa6 4ebc 7688 53bd 75c5 663b f2a0 aabc
000002e0: ddde 033d cd0b dbbd 9031 273e f2af 0dbe
000002f0: 53ba 0abe 6e24 453d 062e 0ebd 8832 9c3d
00000300: ecc3 8c3d 7071 d3bb 3265 43be 48a9 2ebe
00000310: 5518 d53d 34b4 07be b37c 303e a7f3 76bd
00000320: 4aa7 f8bc f10d 3e3d ef54 c13d 1791 4bbd
00000330: ef42 8e3d e3b4 07be acf8 08be 3f70 1a3d
00000340: a70d f13d 3b19 08bd 8cbe c03d 3921 323c
00000350: e7dc ae3d 14bd 71bd 633a 053e 36ff cfbd
00000360: 79e1 113d 1c71 cbbb cf9b f9bc 97d1 f9bd
00000370: 2e16 04bd 735a 0e3d f59f 9b3c 7253 f13c
00000380: 3e3a ef3d 4d83 e5bb df49 963d d258 593d
00000390: 3729 c43d 8545 9c3d 8132 ddbd 2e55 903d
000003a0: 5a61 fd3c 3b36 2c3d eb4c 01be ecfe d83d
000003b0: 8b6f 84bd fecd 3d3c 53d8 35bd e5ca e0bd
000003c0: 2ae7 e43d 263f 703d 5e3a 31bb c0a0 9abd
000003d0: 579c e63d 426f 133d 4dff 25bd be63 c53c
000003e0: 2942 a33d 44c3 163e 5f80 f6bc e2ec 933d
000003f0: 3f0c a63c 1c55 763d 8a12 c03d d456 1a3d

dense1.bias f4 [100]
-0.19980514 -0.26718315 -0.06939753 -0.026581535 -0.07111664 -0.15714876 -0.146628 0.053923097
0.012615524 -0.21197753 -0.027052874 -0.13439403 -0.17928766 0.0104626855 0.05106292 -0.0661909
-0.15142247 -0.076702245 -0.14965376 -0.048467696 -0.0713003 -0.16587634 0.028457364 -0.128989
-0.1682379 -0.06732469 0.03619477 -0.09368444 -0.07062393 -0.15035002 -0.05523128 -0.16385959
-0.23278731 -0.20944148 0.0021714687 -0.04208099 -0.04720279 -0.09523911 0.0085790185 -0.20811304
-0.2406594 -0.010829313 -0.14602414 0.008863857 0.014391725 -0.08633985 0.03238445 -0.122696
-0.13826624 -0.16042899 -0.014840635 -0.027808985 -0.12569185 -0.11502172 0.02007985 0.02117656
-0.07412825 -0.05994526 -0.07883083 0.0010742337 -0.06416246 -0.12753466 -0.013255089 0.025359252
-0.016357517 -0.019350704 0.011305934 -0.075668715 0.021895207 -0.062341955 -0.038695313 -0.065384336
-0.14852619 -0.02833986 -0.04658201 -0.0038589074 -0.007351977 -0.022947915 -0.07761607 0.047051974
0.011892105 -0.12922327 0.029718231 -0.090179384 -0.039442226 -0.19877897 0.007391583 -0.037873562
0.015363883 -0.02407751 -0.0629757 -0.17075631 -0.1357201 -0.07363055 -0.15456556 -0.14192623
-0.043749273 -0.110579275 -0.085457414 0.01339216
00000000: b899 4cbe 3bcc 88be 4b20 8ebd 85c1 d9bc
00000010: 9aa5 91bd 9beb 20be a725 16be 77de 5c3d
00000020: 58b1 4e3c a310 59be fd9d ddbc 979e 09be
00000030: 2f97 37be af6b 2b3c 5a27 513d 188f 87bd
00000040: 7e0e 1bbe 1116 9dbd d63e 19be 1086 46bd
00000050: e405 92bd 7ddb 29be 6b1f e93c b115 04be
00000060: 8e46 2cbe 87e1 89bd f840 143d a1dd bfbd
00000070: 47a3 90bd 5bf5 19be 323a 62bd cfca 27be
00000080: cc5f 6ebe d477 56be 334f 0e3b 1e5d 2cbd
00000090: b657 41bd b90c c3bd 038f 0c3c 961b 55be
000000a0: 6b6f 76be 6e6d 31bc 5a87 15be b639 113c
000000b0: 45cb 6b3c f3d2 b0bd 8fa5 043d 0a48 fbbd
000000c0: aa95 0dbe 7f47 24be 2226 73bc abcf e3bc
000000d0: 5db5 00be 8290 ebbd 7f7e a43c 777a ad3c
000000e0: 8dd0 97bd 2989 75bd 0f72 a1bd 4dcd 8c3a
000000f0: 9c67 83bd 7298 02be df2b 59bc 35be cf3c
00000100: 3300 86bc 5e85 9ebc 863c 393c 33f8 9abd
00000110: 945d b33c 475a 7fbd fa7e 1ebd 39e8 85bd
00000120: 4017 18be fe28 e8bc c7cc 3ebd b9e5 7cbb
00000130: dae8 f0bb 44fd bbbc 2df5 9ebd 92b9 403d
00000140: 1bd7 423c 1b53 04be a673 f33c f8af b8bd
00000150: 2c8e 21bd b78c 4bbe 1835 f23b 4f21 1bbd
00000160: ccb8 7b3c 333e c5bc 67f9 80bd beda 2ebe
00000170: 36fa 0abe 9dcb 96bd 6f46 1ebe 1c55 11be
00000180: 7032 33bd 6377 e2bd 4c04 afbd ca6a 5b3c

dense2.weight f4 [100, 100]
0.039971456 -0.12420201 -0.010388169 0.016220372 -0.046952244 0.008796486 0.058443625 0.26885137
-0.015578497 0.05681067 -0.045809794 0.02926077 -0.07429691 0.043870516 -0.030317547 0.08530182
-0.022937883 -0.11183552 -0.05779172 0.19635971 -0.09604869 -0.1205617 0.09262249 0.054797668
0.0071115494 -0.12683778 0.0059807883 -0.043083508 0.067981124 -0.061333634 -0.052863937 -0.07679212
-0.014559712 -0.06398478 0.014233262 0.12140123 -0.10483687 0.075814344 -0.050940204 -0.00821484
-0.051871598 -0.010054524 -0.10688129 0.048072364 -0.010200318 0.026632223 -0.01937115 -0.08543338
-0.039217003 -0.049460217 0.04663142 0.064680904 0.04844483 -0.03581428 0.047644395 -0.011440713
-0.1030849 -0.041511692 0.11283677 -0.025590945 -0.14898956 -0.011226837 -0.073279046 -0.09573327
0.08634393 0.07471562 0.010130598 -0.08396392 -0.094391815 -0.118450314 -0.09523862 -0.015961228
-0.0005166123 -0.092471465 -0.06435483 0.026786728 -0.0720338 0.018929679 -0.04137602 -0.011316507
-0.10062006 -0.05057169 -0.028539605 -0.076846585 -0.028684398 -0.16941802 0.025098247 -0.0024854313
0.030274192 -0.02371164 0.018211875 0.11956635 -0.11878036 -0.0779004 -0.05738818 -0.14356846
-0.057199944 -0.08728994 -0.0838388 -0.056325734 -0.033325706 0.05480809 0.10156868 0.079618305
0.06824492 0.05541284 0.11201099 -0.09000131 0.0576195 0.089639835 0.0044714026 0.097242124
0.010871656 0.114388645 -0.03629979 0.034578033 0.057282463 0.048297066 0.111223415 -0.106835574
0.047491305 0.042429786 0.04275102 0.100283414 0.15749684 0.0696011 0.16803385 0.0806148
0.10649859 -0.05653019 0.13711852 0.09771771 0.02813057 -0.037083436 0.13458903 -0.094707154
0.1166796 0.004681976 0.14065908 -0.004178901 -0.006946105 0.041916016 0.026214542 0.041552484
0.14461339 0.08958545 0.033126097 0.047061477 0.07160636 0.0948613 0.094448976 0.09467615
0.00338567 0.0012989677 0.14927106 0.03190004 0.024772497 0.02602884 -0.16045491 -0.04412237
0.12466525 0.12552686 -0.015026588 0.1495609 0.15986529 0.1418636 0.04366487 -0.028543735
0.064149134 0.037607443 -0.02019679 -0.03045288 0.024973562 0.050416503 0.15281864 0.11128496
0.00699192 0.14496198 0.15316848 0.15447228 0.035835747 0.037929595 0.11748923 0.07380495
0.107156664 0.054897238 -0.032793608 -0.012898333 -0.025839603 -0.05848408 -0.01771519 0.02667979
0.078211114 0.14273569 0.04722728 0.1085539 0.033880163 0.026943764 0.033702996 0.09081686
-0.054330382 -0.060038947 -0.086968355 -0.14641018 -0.09287506 -0.06796814 -0.1820457 0.17071375
-0.035545565 -0.111722186 0.050427873 -0.039075643 -0.08883068 -0.037249528 -0.056419652 -0.036254726
-0.012628187 -0.12786573 -0.033715375 0.016755337 -0.036266927 -0.049190037 -0.08424127 -0.16176197
-0.11218397 0.034381866 0.053758234 0.018137222 -0.17552441 -0.04689972 -0.078964636 -0.09475692
-0.17706901 -0.07726395 -0.08477376 0.15150222 -0.074331634 0.013706051 -0.054562755 -0.100717835
-0.021767518 0.018322049 -0.09696714 -0.091032095 -0.016888428 -0.037019588 0.010277787 -0.010489552
-0.0060125412 -0.12100776 -0.061793145 -0.072208345 -0.06593429 -0.104165524 -0.1450446 -0.04653769
00000000: 1cb9 233d a05d febd 2433 2abc 96e0 843c
00000010: ff50 40bd 231f 103c 9562 6f3d e3a6 893e
00000020: f43c 7fbc 4eb2 683d 0da3 3bbd 48b4 ef3c
00000030: fa28 98bd 92b1 333d 815c f8bc b8b2 ae3d
00000040: 3ae8 bbbc 050a e5bd 03b7 6cbd 8512 493e
00000050: 2db5 c4bd 0de9 f6bd dcb0 bd3d 8573 603d
00000060: 0008 e93b c3e1 01be 7dfa c33b 5578 30bd
00000070: b039 8b3d fa38 7bbd db87 58bd 3045 9dbd
00000080: dc8b 6ebc 740a 83bd a132 693c 35a1 f83d
00000090: b7b4 d6bd 8d44 9b3d ada6 50bd 8997 06bc
000000a0: 5077 54bd bbbb 24bc 94e4 dabd 87e7 443d
000000b0: 3c1f 27bc d22b da3c 3fb0 9ebc b2f7 aebd
000000c0: 02a2 20bd cc96 4abd 9600 3f3d 6c77 843d
000000d0: 166e 463d ffb1 12bd c526 433d d471 3bbc
000000e0: 2d1e d3bd 2a08 2abd f716 e73d 1aa4 d1bc
000000f0: b890 18be c4f0 37bc 5313 96bd ce0f c4bd
00000100: 16d5 b03d 8104 993d cffa 253c 47f5 abbd
00000110: 7f50 c1bd 1496 f2bd 770c c3bd 1fc1 82bc
00000120: 446d 07ba ae61 bdbd 77cc 83bd d76f db3c
00000130: 7586 93bd 6a12 9b3c e779 29bd df68 39bc
00000140: e411 cebd 4324 4fbd e4cb e9bc be61 9dbd
00000150: 8bfb eabc eb7b 2dbe d79a cd3c 9ee2 22bb
00000160: 9501 f83c ea3e c2bc 1231 953c 34df f43d
00000170: 1e43 f3bd 3f8a 9fbd de0f 6bbd 9c03 13be
00000180: 7d4a 6abd 11c5 b2bd adb3 abbd d0b5 66bd
00000190: 8980 08bd 737e 603d 3d03 d03d ec0e a33d
000001a0: fec3 8b3d 93f8 623d 0566 e53d 9b52 b8bd
000001b0: 6d02 6c3d 1795 b73d d884 923b e126 c73d
000001c0: 081f 323c 9844 ea3d 17af 14bd b2a1 0d3d
000001d0: 04a1 6a3d 25d3 453d 1ac9 e33d 9ccc dabd
000001e0: 3e86 423d dbca 2d3d b21b 2f3d 6461 cd3d
000001f0: da46 213e 068b 8e3d 1111 2c3e 5f19 a53d
00000200: ef1b da3d 338c 67bd cc68 0c3e 3920 c83d
00000210: 1572 e63c cde4 17bd b5d1 093e d3f5 c1bd
00000220: b7f5 ee3d 436b 993b ef08 103e 2aef 88bb
00000230: 279c e3bb 21b0 2b3d e1bf d63c f032 2a3d
00000240: 8815 143e 9478 b73d 3baf 073d 89c3 403d
00000250: 5ba6 923d a446 c23d 776e c13d 92e5 c13d
00000260: 1ee2 5d3b 2042 aa3a 83da 183e 9ea9 023d
00000270: b1ef ca3c 6f3a d53c 4b4e 24be a9b9 34bd
00000280: 7f50 ff3d 1d8a 003e 1432 76bc 7e26 193e
00000290: bab3 233e b144 113e efd9 323d 8dd4 e9bc
000002a0: 9f60 833d 430a 1a3d bd73 a5bc 5178 f9bc
000002b0: 5b95 cc3c 8981 4e3d 7d7c 1c3e 5ee9 e33d
000002c0: 7a1c e53b ea70 143e 33d8 1c3e fb2d 1e3e
000002d0: 81c8 123d 105c 1b3d 329e f03d 0d27 973d
000002e0: f474 db3d eddb 603d 9752 06bd 8853 53bc
000002f0: 93ad d3bc 018d 6fbd 721f 91bc 938f da3c
00000300: 262d a03d 4e29 123e 6471 413d 8251 de3d
00000310: edc5 0a3d 2bb9 dc3c 270c 0a3d 31fe b93d
00000320: 8989 5ebd 66eb 75bd 771c b2bd 8dec 15be
00000330: 4835 bebd e132 8bbd 306a 3abe 96cf 2e3e
00000340: 3a98 11bd 9ace e4bd 758d 4e3d c80d 20bd
00000350: dcec b5bd f692 18bd 4b18 67bd d67f 14bd
00000360: 75e6 4ebc 3cef 02be 2219 0abd 7d42 893c
00000370: a18c 14bd 7e7b 49bd b086 acbd eea4 25be
00000380: b6c0 e5bd 00d4 0c3d 9831 5c3d 8394 943c
00000390: acbc 33be ec19 40bd 36b8 a1bd eb0f c2bd
000003a0: 9451 35be 903c 9ebd dd9d adbd 6623 1b3e
000003b0: 2f3b 98bd 588f 603c 327d 5fbd 2745 cebd
000003c0: cb51 b2bc 1f18 963c b596 c6bd 096f babd
000003d0: 9a59 8abc daa1 17bd 2a64 283c 5fdc 2bbc
000003e0: da04 c5bb ebd2 f7bd cf1a 7dbd f8e1 93bd
000003f0: 8f08 87bd bc54 d5bd 9286 14be 4e9e 3ebd

dense2.bias f4 [100]
-0.0016114058 0.075614445 -0.10651491 0.065980725 0.03394167 0.055675723 0.116728574 0.1001702
-0.2127636 -0.063517176 0.041880667 -0.038474396 -0.072774395 0.16296992 0.07555149 0.06991471
-0.040766526 0.11754826 -0.12647603 0.1394825 -0.011660199 -0.12809922 0.1441937 0.15197563
-0.05141422 -0.0117374845 -0.032043703 0.13263589 0.047148142 -0.010379369 -0.109592885 0.03492937
0.11762035 0.12126072 -0.04636649 0.10560618 0.098576166 0.086312674 -0.05552623 0.13396828
0.029704137 -0.09529479 -0.06448326 0.026890764 0.050487965 -0.012539401 0.20128615 -0.04153626
0.14457704 -0.03048369 -0.02139961 -0.046021767 -0.14935964 0.051340785 0.17647979 0.06622362
-0.16919404 0.028955853 0.10141884 0.071017094 0.14292535 0.038232476 0.052810065 -0.030727768
-0.13981727 -0.016747793 0.0008541569 0.10515483 -0.00809926 -0.062567644 -0.09119797 0.052127995
0.007578953 0.23529969 -0.047919642 -0.09146091 -0.018715514 0.13192639 0.025362855 0.0845277
-0.00023203494 0.13611668 0.018219149 0.026417797 -0.08709851 0.06611061 0.053568177 0.117491186
0.08571239 -0.10144962 0.018376034 -0.019993609 0.10997075 -0.050932053 0.039395515 -0.021039926
-0.064293966 0.07731701 -0.11548398 0.1955666
00000000: ce35 d3ba bfdb 9a3d 7d24 dabd e720 873d
00000010: 6c06 0b3d 3a0c 643d 640f ef3d 0926 cd3d
00000020: b3de 59be 4b15 82bd 108b 2b3d 5497 1dbd
00000030: be0a 95bd 96e1 263e bdba 9a3d 722f 8f3d
00000040: cdfa 26bd 24bd f03d ef82 01be 80d4 0e3e
00000050: 6b0a 3fbc 712c 03be 83a7 133e 809f 1b3e
00000060: b897 52bd 944e 40bc 4240 03bd b4d1 073e
00000070: 691e 413d 3b0e 2abc 3c72 e0bd 1912 0f3d
00000080: f0e2 f03d 8a57 f83d caea 3dbd 0e48 d83d
00000090: 4de2 c93d b3c4 b03d 796f 63bd fb2e 093e
000000a0: 1756 f33c ea29 c3bd cd0f 84bd 054a dc3c
000000b0: 78cc 4e3d 0f72 4dbc f51d 4e3e ed21 2abd
000000c0: 010c 143e eeb8 f9bc 3c4e afbc 5281 3cbd
000000d0: bcf1 18be b74a 523d 1eb7 343e 40a0 873d
000000e0: 3441 2dbe d334 ed3c aeb4 cf3d 6971 913d
000000f0: 065b 123e a899 1c3d 5e4f 583d cdb8 fbbc
00000100: 422c 0fbe ab32 89bc 80e9 5f3a 6a5b d73d
00000110: c2b2 04bc 7723 80bd 00c6 babd 2a84 553d
00000120: de58 f83b 67f2 703e 6347 44bd dc4f bbbd
00000130: 4751 99bc b617 073e c3c5 cf3c dc1c ad3d
00000140: 684e 73b9 2c62 0b3e 5340 953c 236a d83c
00000150: b460 b2bd 0065 873d 4e6a 5b3d 389f f03d
00000160: fa89 af3d d2c4 cfbd 5689 963c a3c9 a3bc
00000170: 5838 e13d 219e 50bd 315d 213d ec5b acbc
00000180: 8eac 83bd 6158 9e3d dd82 ecbd 9c42 483e

dense3.weight f4 [100, 100]
0.016884262 0.0982211 0.008077016 0.0033884267 -0.15249288 0.0062837354 -0.02541333 0.08288383
-0.0068861526 -0.056143235 0.118054025 -0.15280715 -0.04331882 -0.00034176273 -0.025966741 0.054860532
0.081456356 0.063280806 0.051734604 -0.013655949 0.015117717 -0.06508571 -0.10634903 -0.043400295
-0.019772483 -0.11183656 -0.15671697 0.039084766 0.13261145 -0.08388828 0.118405595 0.1341785
0.052995805 -0.006510833 -0.13917215 -0.022216579 0.08765463 -0.07868094 -0.070718594 -0.08688993
0.0670784 0.0029115852 0.062364552 -0.05846961 0.0963961 0.0991796 -0.017744217 0.13840365
0.06251194 0.035142947 0.031062204 -0.023778198 0.06435795 0.041607104 -0.00057956186 0.035212364
-0.093465015 0.1009133 0.03617957 -0.16131671 0.058661938 0.027687361 0.11542409 0.1227338
0.008181969 -0.038135108 -0.089682244 0.020525103 0.040906522 -0.1445245 -0.06077451 0.15787794
0.017403044 0.053247306 -0.024877258 -0.06995541 0.09453661 0.0032007962 -0.0041043055 0.03656258
0.059872534 -0.06163187 -0.13167374 -0.16100577 -0.11616944 -0.08956028 -0.044084907 -0.07385576
-0.01153651 -0.054843884 0.12239851 0.03403184 -0.09171953 -0.05943858 -0.039268367 0.06640816
-0.020049201 0.030099303 0.007967142 0.006092182 -0.10927818 -0.025931692 0.098052524 -0.019071667
0.09705935 0.14340702 -0.017579276 -0.10902411 0.09200682 -0.18319622 -0.04143853 -0.0066345013
0.07521947 -0.043582946 -0.11965597 0.079545215 0.047800694 -0.01845905 0.039719626 -0.038780693
-0.004701715 -0.021967517 -0.08404531 -0.016521087 0.013218943 -0.0014819792 0.015083327 -0.069101654
0.056358054 -0.08070093 -0.009673948 0.055098448 -0.11978129 -0.055591185 0.058148827 -0.0067271413
-0.104742765 -0.007644113 -0.032023724 -0.056070216 0.014607882 -0.059477884 0.07577342 -0.0801863
0.051364947 0.01809047 0.05055138 0.06359969 0.0009815695 0.038658597 -0.06432374 -0.0035851307
0.017110322 0.1473419 0.042934783 -0.08450856 0.052890833 -0.074350245 -0.0070801396 -0.10037754
0.0239266 -0.037403867 0.08439031 0.080014996 0.08468863 -0.036766198 -0.0041885534 -0.039340954
0.0065054554 0.006012732 0.011687119 -0.035471343 0.1149371 -0.14452955 0.08299557 0.08353187
0.08808101 0.010669476 -0.1011742 -0.04858427 0.087865084 0.012484302 -0.04621458 0.048498552
0.01738421 -0.026209848 0.07628405 -0.12966374 -0.014022494 0.027109534 -0.011640762 0.052093428
-0.041208394 -0.11817944 -0.020502437 -0.07077768 0.14822379 0.0027036422 0.08074709 0.009564422
0.011060158 0.010316732 -0.04856805 -0.00700577 0.09077315 -0.040143892 -0.0062470865 -0.07486231
-0.08869087 0.013258599 0.038790766 -0.11192174 -0.105160266 -0.027664639 -0.08053559 0.10184558
0.027751574 0.0027795557 -0.02027855 -0.03638524 -0.005309187 -0.07625083 -0.096241094 -0.029532274
0.032363024 0.029258236 0.032732017 -0.102548726 0.13969266 -0.00802149 0.056967597 0.052464332
-0.060691986 -0.006568234 0.053721406 -0.12014946 0.075373076 -0.009617351 0.014689697 -0.05615834
0.11260981 0.10636039 0.052339412 0.10595517 0.01965654 0.07553695 -0.03863893 0.08025007
0.09444987 0.040269386 0.063232854 -0.0059637385 -0.08468108 -0.017371759 -0.0536926 -0.030738393
00000000: dd50 8a3c 2528 c93d 7655 043c 5e10 5e3b
00000010: 1827 1cbe cbe7 cd3b 9e2f d0bc ffbe a93d
00000020: 3ca5 e1bb 73f6 65bd 4fc6 f13d 7a79 1cbe
00000030: 136f 31bd 9e2e b3b9 34b8 d4bc 70b5 603d
00000040: 97d2 a63d 5e99 813d aae7 533d 34bd 5fbc
00000050: 4db0 773c a84b 85bd 85cd d9bd 82c4 31bd
00000060: e7f9 a1bc 910a e5bd 6a7a 20be 5917 203d
00000070: 4ccb 073e 9ecd abbd a27e f23d 1766 093e
00000080: 2112 593d d358 d5bb 2583 0ebe 8bff b5bc
00000090: 4584 b33d 7923 a1bd e9d4 90bd 59f3 b1bd
000000a0: 6660 893d 4bd0 3e3b f971 7f3d d47d 6fbd
000000b0: 526b c53d ad1e cb3d 525c 91bc b0b9 0d3e
000000c0: 4306 803d 0df2 0f3d 2a76 fe3c 7fca c2bc
000000d0: 1ace 833d 366c 2a3d bded 17ba d73a 103d
000000e0: 966a bfbd a2ab ce3d 0731 143d 3530 25be
000000f0: 8047 703d 9bd0 e23c 7763 ec3d dc5b fb3d
00000100: aa0d 063c 8f33 1cbd 53ab b7bd 4324 a83c
00000110: 998d 273d 3bfe 13be b1ee 78bd c1aa 213e
00000120: d490 8e3c d919 5a3d 64cb cbbc c844 8fbd
00000130: 699c c13d 73c4 513b 697d 86bb a5c2 153d
00000140: e73c 753d b371 7cbd 7bd5 06be b2de 24be
00000150: 3eea edbd 616b b7bd 6092 34bd b041 97bd
00000160: a103 3dbc fba3 60bd 12ac fa3d f864 0b3d
00000170: 73d7 bbbd de75 73bd ded7 20bd 0001 883d
00000180: 393e a4bc d092 f63c 9e88 023c eda0 c73b
00000190: 3dcd dfbd b36e d4bc c3cf c83d 2f3c 9cbc
000001a0: 0dc7 c63d 4ad9 123e 6a02 90bc 0848 dfbd
000001b0: 126e bc3d ca97 3bbe 73bb 29bd 3b66 d9bb
000001c0: aa0c 9a3d 0884 32bd 300e f5bd 9ae8 a23d
000001d0: a9ca 433d 6f37 97bc 0cb1 223d 81d8 1ebd
000001e0: d810 9abb 39f5 b3bc f31f acbd 3b57 87bc
000001f0: 4494 583c f83e c2ba 0f20 773c 2b85 8dbd
00000200: b4d7 663d 8746 a5bd 7b7f 1ebc e9ae 613d
00000210: e54f f5bd 95b3 63bd 772d 6e3d 5a6f dcbb
00000220: 6083 d6bd 787b fabb 4f2b 03bd e2a9 65bd
00000230: e655 6f3c 159f 73bd 182f 9b3d b738 a4bd
00000240: 0d64 523d 7732 943c f70e 4f3d 8e40 823d
00000250: 02a8 803a 7a58 1e3d 2abc 83bd 83f4 6abb
00000260: f22a 8c3c cce0 163e 62dc 2f3d d312 adbd
00000270: 0fa4 583d f144 98bd 8400 e8bb bd92 cdbd
00000280: b801 c43c cc34 19bd d4d4 ac3d e7de a33d
00000290: 3c71 ad3d 2798 16bd 2240 89bb fb23 21bd
000002a0: b72b d53b 7406 c53b 547b 3f3c 664a 11bd
000002b0: 2464 eb3d 8eff 13be 95f9 a93d c212 ab3d
000002c0: d163 b43d 07cf 2e3c 6b34 cfbd 4d00 47bd
000002d0: 9cf2 b33d f58a 4c3c 804b 3dbd 6ba6 463d
000002e0: 5569 8e3c 09b6 d6bc d03a 9c3d 92c6 04be
000002f0: 9abe 65bc d014 de3c e5b8 3ebc eb5f 553d
00000300: 22ca 28bd 1008 f2bd baf4 a7bc e3f3 90bd
00000310: fac7 173e 972f 313b bb5e a53d 18b4 1c3c
00000320: aa35 353c 8307 293c 4bef 46bd a990 e5bb
00000330: 46e7 b93d ec6d 24bd 5cb4 ccbb 6951 99bd
00000340: 8fa3 b5bd 983a 593c 11e3 1e3d 3a37 e5bd
00000350: 445e d7bd f4a0 e2bc d8ef a4bd 6a94 d03d
00000360: 4557 e33c 3529 363b 341f a6bc b008 15bd
00000370: b0f8 adbb 6529 9cbd 0d1a c5bd abed f1bc
00000380: 178f 043d f8ae ef3c 0212 063d 1105 d2bd
00000390: 980b 0f3e 916c 03bc db56 693d d7e4 563d
000003a0: 2998 78bd 573a d7bb fa0a 5c3d ec10 f6bd
000003b0: 335d 9a3d 1892 1dbc 0ead 703c 4a06 66bd
000003c0: f99f e63d 7ad3 d93d da61 563d 06ff d83d
000003d0: c106 a13c 1eb3 9a3d db43 1ebd 265a a43d
000003e0: ef6e c13d 83f1 243d 3a80 813d 776b c3bb
000003f0: 466d adbd 384f 8ebc c6ec 5bbd 15cf fbbc

dense3.bias f4 [100]
0.11442243 0.020150235 0.026305737 -0.013791196 0.035047315 0.00317886 -0.030922458 -0.05019671
0.14674798 0.10163142 0.12431946 0.088595584 0.0936464 -0.094577424 -0.07059783 -0.09096752
0.020300042 0.077915244 -0.079654746 -0.09826025 -0.019831123 0.030736659 -0.018041003 0.019337596
0.03384778 0.18107915 0.16950734 0.18664591 -0.11642336 -0.038323555 0.15830992 -0.046853095
-0.04352256 -0.17676485 0.14603005 0.055542257 0.13821982 -0.0704227 -0.018533835 -0.067500874
0.15353969 -0.023330837 -0.04123126 -0.1385795 -0.11973961 0.0011958408 0.024331931 -0.01444229
0.0711562 -0.08739024 0.23856933 0.07316757 -0.1560408 -0.012567803 0.101826414 0.14798355
0.1320229 -0.0041070282 -0.060542352 -0.07788204 0.098457836 -0.11344512 0.1900832 0.046207115
0.1272829 0.02191105 -0.15195942 0.15551291 -0.024184672 0.122242786 0.22019719 0.120754264
-0.04419592 0.22947316 0.037272118 -0.17042558 -0.071585074 -0.23231563 0.18698883 0.18393502
-0.033806466 0.08441686 0.15316094 0.027056234 0.0486533 0.16416457 0.05393106 0.19652236
0.08472305 -0.08205445 0.2890717 -0.03822633 0.18334429 -0.03153299 -0.06345766 -0.14633515
0.14664893 0.116863824 -0.0042676404 0.030353442
00000000: 4f56 ea3d 1b12 a53c 217f d73c 78f4 61bc
00000010: c68d 0f3d 6c54 503b 1851 fdbc 119b 4dbd
00000020: 1a45 163e 2224 d03d 339b fe3d 9a71 b53d
00000030: afc9 bf3d cfb1 c1bd 9895 90bd 2e4d babd
00000040: 464c a63c 0792 9f3d 0722 a3bd ac3c c9bd
00000050: e174 a2bc 72cb fb3c baca 93bc e169 9e3c
00000060: f8a3 0a3d d06c 393e 5593 2d3e 1b20 3f3e
00000070: 5f6f eebd 29f9 1cbd ff1b 223e 08e9 3fbd
00000080: b644 32bd d801 35be e788 153e 4780 633d
00000090: 7f89 0d3e c739 90bd 45d4 97bc e63d 8abd
000000a0: 8239 1d3e 5020 bfbc 1ce2 28bd c9e7 0dbe
000000b0: 0a3a f5bd c2bd 9c3a c253 c73c 5b9f 6cbc
000000c0: 57ba 913d a7f9 b2bd 854b 743e e1d8 953d
000000d0: 29c9 1fbe 30e9 4dbc 5e8a d03d 0089 173e
000000e0: 0331 073e 4094 86bb 42fb 77bd 9e80 9fbd
000000f0: 43a4 c93d ea55 e8bd 2ca5 423e ac43 3d3d
00000100: 7356 023e cd7e b33c 409b 1bbe c73e 1f3e
00000110: ef1e c6bc 6d5a fa3d 5f7b 613e 034e f73d
00000120: c806 35bd 03fb 6a3e a6aa 183d 0b84 2ebe
00000130: 329b 92bd 26e4 6dbe 007a 3f3e 7659 3c3e
00000140: a678 0abd bfe2 ac3d 39d6 1c3e 09a5 dd3c
00000150: af48 473d c21a 283e d1e6 5c3d 283d 493e
00000160: 4783 ad3d 2a0c a8bd 3501 943e 3693 1cbd
00000170: 9bbe 3b3e bd28 01bd 17f6 81bd e2d8 15be
00000180: 232b 163e 4d56 ef3d 90d7 8bbb c8a7 f83c

output_layer.weight f4 [5, 100]
0.01373898 -0.05584155 -0.014490353 -0.0523634 -0.00021446122 -0.014810082 -0.047764074 -0.073913425
-0.042040642 0.058770753 0.036186337 0.008722962 0.02349792 -0.0038936571 -0.04050743 -0.013748736
-0.05550963 0.019064095 -0.0041763703 0.017268434 -0.018622208 0.030590761 0.025115581 -0.03290996
-0.0040251967 0.062092137 0.009567651 0.05519725 -0.006643611 -0.043562166 0.015066728 -0.084715605
-0.09994108 -0.063318655 -0.079671085 0.015429064 0.0042875116 0.004273086 -0.0029516974 -0.0042267796
0.020132355 0.03005983 0.07206973 0.06683969 -0.021428451 0.05007005 0.03453721 -0.026857376
-0.020486549 0.050125048 0.057589963 0.006150475 -0.047786314 0.013316313 0.04912734 -0.06529679
-0.039345603 0.007863267 0.02152874 0.033693317 0.078548305 0.070087396 0.06545152 -0.017385326
-0.023591504 0.035793662 0.0061528296 -0.02379293 -0.045168806 0.004241795 -0.06010496 -0.019689668
-0.09130725 0.07415017 -0.0062029553 -0.00067926565 -0.041355092 0.0035637766 -0.019732963 -0.014214563
0.03169973 -0.0065752678 -0.027096154 -0.028347246 0.00973078 0.01803017 -0.0019401065 0.023954011
0.025666678 -0.009115227 0.058627512 -0.05082053 0.061916247 -0.00025311284 -0.0750994 -0.02661128
-0.040586483 0.055445462 -0.014264939 0.015652036 0.0044574575 -0.0022049802 0.0014241975 -0.007131953
0.0055427174 0.00030762202 0.017365921 0.00177437 0.0025275813 0.005218718 -0.003584832 -0.021878093
-0.017474867 -0.003250993 0.013350969 -0.0021584241 0.0032359154 -0.0016656842 -0.006753406 -0.0028551817
0.008146147 -0.00035725097 0.0024857603 -0.02729283 -0.013669013 -0.005123899 0.0077150506 -0.0013812586
0.00016304501 0.014229667 -0.0011140413 0.0033721954 0.008102311 0.0043944 0.0008464067 0.01500772
0.0006222338 0.003285291 0.006803862 0.00876321 -0.0011737469 0.0038524233 0.0094660595 -0.01687201
0.029561143 0.013136147 -4.8719303e-05 -0.011839961 -0.009011165 -0.0036227426 0.007978993 0.00409833
0.0057956977 -0.015489922 0.009096871 0.007050682 0.014249032 0.008944931 -0.0009228484 0.008600305
-0.0230688 -0.0093417065 -0.006826542 0.006806042 -0.005581237 0.00905385 -0.0024316446 -0.0006671891
0.004055506 -0.0074060583 0.0064684744 0.011795338 -0.0003299085 -0.021087978 0.0054111676 -0.0019262189
-0.00015613118 0.0060196295 0.0051220306 -0.0012905964 -0.008620387 0.0036647615 -0.0011542408 -0.000847584
0.006410705 0.002633678 0.008977194 -0.014553939 0.012646749 0.0041930354 -0.012180163 0.0057492107
-0.0022591476 -0.0040599275 0.00070463377 0.012007627 0.0021536725 -0.005800563 -0.0028735746 0.003262287
-0.014454609 -0.050650533 -0.08836625 0.06970274 -0.047868565 0.10502022 0.05573825 -0.042997714
-0.0021216704 0.014470819 0.062441535 0.024366235 0.018642081 -0.08864442 0.07665826 0.00035790048
-0.012247665 0.0801536 -0.014268642 -0.09289935 -0.02676776 -0.109286115 -0.0062932717 -0.009843904
-0.033544898 0.08968332 -0.004118124 0.065828055 -0.04271289 -0.013659613 0.39287692 -0.088390954
0.034082096 -0.03193517 0.024696475 -0.026054936 0.00032145213 -0.07125063 -0.1326922 -0.025133263
0.03179961 0.01234877 -0.0012381596 0.0360135 -0.06422874 -0.107893296 -0.0051824125 0.024303176
-0.11364751 -0.08685771 0.08668231 -0.031061497 -0.023104444 -0.029762905 -0.0024120538 0.066187985
00000000: 7519 613c 1cba 64bd f268 6dbc 017b 56bd
00000010: ffe0 60b9 fca5 72bc 43a4 43bd ec5f 97bd
00000020: cf32 2cbd 9ab9 703d 2038 143d c1ea 0e3c
00000030: b67e c03c ba2c 7fbb 1eeb 25bd 6142 61bc
00000040: 115e 63bd 4e2c 9c3c efd9 88bb 8876 8d3c
00000050: 9a8d 98bc 7a99 fa3c 31bf cd3c 98cc 06bd
00000060: cce5 83bb 5354 7e3d a3c1 1c3c 8316 623d
00000070: a6b2 d9bb 3e6e 32bd 70da 763c 607f adbd
00000080: e9ad ccbd 36ad 81bd 982a a3bd 2fca 7c3c
00000090: 417e 8c3b 3e05 8c3b 4471 41bb cc80 8abb
000000a0: 9cec a43c 0840 f63c 4b99 933d 3fe3 883d
000000b0: b88a afbc 4116 4d3d e476 0d3d 0004 dcbc
000000c0: 68d3 a7bc ec4f 4d3d 74e3 6b3d ec89 c93b
000000d0: 95bb 43bd aa2c 5a3c c039 493d 53ba 85bd
000000e0: db28 21bd efd4 003c 0a5d b03c 0102 0a3d
000000f0: efdd a03d fb89 8f3d 720b 863d ac6b 8ebc
00000100: f842 c1bc 609c 123d ad9d c93b 64e9 c2bc
00000110: ed02 39bd c1fe 8a3b 9e30 76bd 3a4c a1bc
00000120: 4cff babd 0bdc 973d 2942 cbbb bf10 32ba
00000130: f563 29bd 408e 693b 06a7 a1bc 33e4 68bc
00000140: 93d7 013d 5875 d7bb c1f8 ddbc 7c38 e8bc
00000150: d96d 1f3c 02b4 933c 2c4b feba 343b c43c
00000160: ed42 d23c 0858 15bc 6723 703d 3029 50bd
00000170: e49b 7d3d 3bb4 84b9 b7cd 99bd e6ff d9bc
00000180: 033e 26bd c81a 633d 7eb7 69bc b338 803c
00000190: dd0f 923b 6e81 10bb 23ac ba3a 28b3 e9bb
000001a0: af9f b53b 5448 a139 fa42 8e3c fa91 e83a
000001b0: c7a5 253b c801 ab3b 80ef 6abb b039 b3bc
000001c0: 7427 8fbc 9d0e 55bb 06be 5a3c 5974 0dbb
000001d0: a711 543b 1653 daba ad4b ddbb 001e 3bbb
000001e0: 6b77 053c 6a4d bbb9 23e8 223b 3795 dfbc
000001f0: fff3 5fbc 61e6 a7bb 89ce fc3b 590b b5ba
00000200: 10f7 2a39 8d23 693c 0605 92ba 0d00 5d3b
00000210: 8ebf 043c e6fe 8f3b 64e1 5d3a f1e2 753c
00000220: 671d 233a 094e 573b eef2 de3b 9193 0f3c
00000230: 69d8 99ba f078 7c3b 8817 1b3c 2b37 8abc
00000240: 362a f23c fe38 573c f457 4cb8 65fc 41bc
00000250: 91a3 13bc 896b 6dbb 52ba 023c 494b 863b
00000260: d6e9 bd3b 71c9 7dbc 0b0b 153c 6809 e73b
00000270: c674 693c c38d 123c 4feb 71ba 4be8 0c3c
00000280: c8fa bcbc f50d 19bc 2fb1 dfbb 3805 df3b
00000290: cfe2 b6bb 9956 143c 3a5c 1fbb 4de6 2eba
000002a0: 0de4 843b 85ae f2bb 7ff5 d33b 3c41 413c
000002b0: 92f7 acb9 b2c0 acbc 2a50 b13b 2e79 fcba
000002c0: 25b7 23b9 5040 c53b b5d6 a73b 3b29 a9ba
000002d0: 863c 0dbc 7f2c 703b e549 97ba 6630 5eba
000002e0: e410 d23b c999 2c3b 1515 133c a573 6ebc
000002f0: 4f34 4f3c bb65 893b 4e8f 47bc e063 bc3b
00000300: 350e 14bb 2409 85bb 2cb7 383a a3bb 443c
00000310: a124 0d3b a612 bebb 9552 3cbb 18cc 553b
00000320: 06d3 6cbc ef76 4fbd 5df9 b4bd 4fc0 8e3d
00000330: d411 44bd d714 d73d cb4d 643d 5f1e 30bd
00000340: b90b 0bbb 0417 6d3c b2c2 7f3d b39b c73c
00000350: 47b7 983c 358b b5bd 01ff 9c3d 97a4 bb39
00000360: 6eaa 48bc 9227 a43d 06c7 69bc 0442 bebd
00000370: 1048 dbbc 66d1 dfbd ca37 cebb 5348 21bc
00000380: 6066 09bd e3ab b73d 54f1 86bb dcd0 863d
00000390: b6f3 2ebd 92cc 5fbc 2a27 c93e 5106 b5bd
000003a0: ab99 0b3d 74ce 02bd 4350 ca3c 2971 d5bc
000003b0: 9388 a839 daeb 91bd 77e0 07be 46e4 cdbc
000003c0: 4f40 023d 7f52 4a3c be49 a2ba e482 133d
000003d0: 5c8a 83bd 29f7 dcbd 3ad1 a9bb 7417 c73c
000003e0: 07c0 e8bd 74e2 b1bd 7f86 b13d ae74 febc
000003f0: 8845 bdbc 56d1 f3bc 8c13 1ebb 918d 873d

output_layer.bias f4 [5]
-0.03726639 -0.021193983 0.0001571018 -0.036112297 0.014901088
00000000: a4a4 18bd 019f adbc b1bb 2439 7dea 13bd
00000010: b123 743c

exp_avg f4 [100, 2]
6.7789974e-06 6.7789974e-06 1.6230384e-05 1.6230384e-05 3.1427113e-05 3.1427113e-05 1.8231316e-05 1.8231316e-05
2.5577936e-05 2.5577936e-05 -1.5821386e-05 -1.5821386e-05 -2.76846e-05 -2.76846e-05 -2.1017802e-05 -2.1017802e-05
3.6878308e-05 3.6878308e-05 2.0097326e-05 2.0097326e-05 2.9395504e-05 2.9395504e-05 2.9264875e-05 2.9264875e-05
1.5393158e-05 1.5393158e-05 1.3511331e-05 1.3511331e-05 2.7808632e-05 2.7808632e-05 -2.1653832e-05 -2.1653832e-05
7.534172e-07 7.534172e-07 3.0012066e-05 3.0012066e-05 2.0945155e-05 2.0945155e-05 -1.5494377e-05 -1.5494377e-05
2.486083e-05 2.486083e-05 -1.8779625e-05 -1.8779625e-05 -1.8884512e-05 -1.8884512e-05 3.4086355e-05 3.4086355e-05
1.1453268e-05 1.1453268e-05 2.2167253e-05 2.2167253e-05 2.5914855e-05 2.5914855e-05 3.231489e-05 3.231489e-05
-1.8258246e-06 -1.8258246e-06 1.3592706e-05 1.3592706e-05 -1.6738164e-05 -1.6738164e-05 -1.5080409e-06 -1.5080409e-06
1.3079846e-05 1.3079846e-05 -8.263584e-06 -8.263584e-06 -2.5605143e-05 -2.5605143e-05 2.0252515e-05 2.0252515e-05
9.0134e-06 9.0134e-06 -8.168777e-06 -8.168777e-06 2.50477e-07 2.50477e-07 -2.9946055e-05 -2.9946055e-05
1.1153853e-05 1.1153853e-05 2.977289e-05 2.977289e-05 -6.5458266e-07 -6.5458266e-07 -2.9513067e-06 -2.9513067e-06
2.8777296e-05 2.8777296e-05 3.6057612e-05 3.6057612e-05 -1.8174382e-05 -1.8174382e-05 9.202366e-06 9.202366e-06
2.9258732e-05 2.9258732e-05 3.2376603e-05 3.2376603e-05 3.2408832e-05 3.2408832e-05 2.7264006e-05 2.7264006e-05
-3.1987042e-06 -3.1987042e-06 3.3529606e-05 3.3529606e-05 1.5830235e-05 1.5830235e-05 1.2588962e-05 1.2588962e-05
2.3062888e-05 2.3062888e-05 3.9548122e-05 3.9548122e-05 2.3359882e-05 2.3359882e-05 3.598481e-05 3.598481e-05
3.595393e-05 3.595393e-05 5.9662852e-06 5.9662852e-06 4.6885884e-06 4.6885884e-06 3.2689122e-06 3.2689122e-06
2.5738993e-05 2.5738993e-05 3.2789074e-05 3.2789074e-05 -1.7643511e-05 -1.7643511e-05 1.3123825e-05 1.3123825e-05
-1.382422e-06 -1.382422e-06 3.745782e-05 3.745782e-05 1.48000545e-05 1.48000545e-05 -1.8946777e-05 -1.8946777e-05
1.4700019e-05 1.4700019e-05 3.4903725e-05 3.4903725e-05 3.1745618e-05 3.1745618e-05 -1.54638e-05 -1.54638e-05
3.158755e-05 3.158755e-05 1.0946369e-06 1.0946369e-06 1.6582248e-06 1.6582248e-06 1.6335283e-05 1.6335283e-05
-2.4054927e-05 -2.4054927e-05 3.0396754e-05 3.0396754e-05 2.9538542e-05 2.9538542e-05 -2.2606659e-05 -2.2606659e-05
1.6140011e-05 1.6140011e-05 2.1562473e-05 2.1562473e-05 -8.404134e-06 -8.404134e-06 3.1615713e-05 3.1615713e-05
3.278177e-05 3.278177e-05 -2.2991784e-05 -2.2991784e-05 1.704727e-06 1.704727e-06 -2.4897416e-05 -2.4897416e-05
-1.957223e-06 -1.957223e-06 3.3562057e-05 3.3562057e-05 6.5833224e-06 6.5833224e-06 3.0047384e-05 3.0047384e-05
-2.931618e-05 -2.931618e-05 2.7421142e-05 2.7421142e-05 -1.4964431e-05 -1.4964431e-05 1.4745243e-05 1.4745243e-05
00000000: 2577 e336 2577 e336 7c26 8837 7c26 8837
00000010: 9bd0 0338 9bd0 0338 74ef 9837 74ef 9837
00000020: 3390 d637 3390 d637 2bb8 84b7 2bb8 84b7
00000030: 3a3c e8b7 3a3c e8b7 634f b0b7 634f b0b7
00000040: c8ad 1a38 c8ad 1a38 ae96 a837 ae96 a837
00000050: 5d96 f637 5d96 f637 d77d f537 d77d f537
00000060: 8e20 8137 8e20 8137 baae 6237 baae 6237
00000070: 9546 e937 9546 e937 40a5 b5b7 40a5 b5b7
00000080: 703e 4a35 703e 4a35 6cc2 fb37 6cc2 fb37
00000090: 61b3 af37 61b3 af37 ecf9 81b7 ecf9 81b7
000000a0: 3a8c d037 3a8c d037 f088 9db7 f088 9db7
000000b0: 2e6a 9eb7 2e6a 9eb7 f2f7 0e38 f2f7 0e38
000000c0: 6927 4037 6927 4037 d0f3 b937 d0f3 b937
000000d0: ba63 d937 ba63 d937 d989 0738 d989 0738
000000e0: db0e f5b5 db0e f5b5 3a0c 6437 3a0c 6437
000000f0: ef68 8cb7 ef68 8cb7 e467 cab5 e467 cab5
00000100: 8371 5b37 8371 5b37 d3a3 0ab7 d3a3 0ab7
00000110: a0ca d6b7 a0ca d6b7 f2e3 a937 f2e3 a937
00000120: 4238 1737 4238 1737 a10c 09b7 a10c 09b7
00000130: 4c79 8634 4c79 8634 aa34 fbb7 aa34 fbb7
00000140: 6f21 3b37 6f21 3b37 cbc0 f937 cbc0 f937
00000150: 94b6 2fb5 94b6 2fb5 100f 46b6 100f 46b6
00000160: c666 f137 c666 f137 913c 1738 913c 1738
00000170: 3075 98b7 3075 98b7 dc63 1a37 dc63 1a37
00000180: a670 f537 a670 f537 1dcc 0738 1dcc 0738
00000190: b8ee 0738 b8ee 0738 02b5 e437 02b5 e437
000001a0: 52a9 56b6 52a9 56b6 24a2 0c38 24a2 0c38
000001b0: 2ccb 8437 2ccb 8437 2e35 5337 2e35 5337
000001c0: 2d77 c137 2d77 c137 79e0 2538 79e0 2538
000001d0: f7f4 c337 f7f4 c337 65ee 1638 65ee 1638
000001e0: 3dcd 1638 3dcd 1638 0032 c836 0032 c836
000001f0: ab52 9d36 ab52 9d36 7c5f 5b36 7c5f 5b36
00000200: 11ea d737 11ea d737 0087 0938 0087 0938
00000210: 2701 94b7 2701 94b7 662e 5c37 662e 5c37
00000220: a98b b9b5 a98b b9b5 071c 1d38 071c 1d38
00000230: c04d 7837 c04d 7837 e5ef 9eb7 e5ef 9eb7
00000240: 1aa0 7637 1aa0 7637 9765 1238 9765 1238
00000250: 9926 0538 9926 0538 42b8 81b7 42b8 81b7
00000260: e07c 0438 e07c 0438 70eb 9235 70eb 9235
00000270: 2c90 de35 2c90 de35 c107 8937 c107 8937
00000280: 90c9 c9b7 90c9 c9b7 88fc fe37 88fc fe37
00000290: 89c9 f737 89c9 f737 6ea3 bdb7 6ea3 bdb7
000002a0: 6964 8737 6964 8737 0fe1 b437 0fe1 b437
000002b0: 7bff 0cb7 7bff 0cb7 1d9b 0438 1d9b 0438
000002c0: 287f 0938 287f 0938 7bde c0b7 7bde c0b7
000002d0: f9cd e435 f9cd e435 cbda d0b7 cbda d0b7
000002e0: d658 03b6 d658 03b6 fcc4 0c38 fcc4 0c38
000002f0: 4fe6 dc36 4fe6 dc36 440e fc37 440e fc37
00000300: 04ec f5b7 04ec f5b7 7406 e637 7406 e637
00000310: be0f 7bb7 be0f 7bb7 5662 7737 5662 7737

exp_avg_sq f4 [100, 2]
1.6717398e-05 1.6717398e-05 0.0002631682 0.0002631682 0.0003157894 0.0003157894 2.914407e-05 2.914407e-05
0.0005158925 0.0005158925 0.0006836912 0.0006836912 0.0005128174 0.0005128174 0.00046162514 0.00046162514
0.0005504891 0.0005504891 0.00013677769 0.00013677769 0.0004366955 0.0004366955 0.00075077923 0.00075077923
3.99333e-05 3.99333e-05 7.719196e-05 7.719196e-05 0.00022486328 0.00022486328 0.00070479227 0.00070479227
0.00016096844 0.00016096844 0.00046029812 0.00046029812 0.00018276241 0.00018276241 0.0007242103 0.0007242103
0.00012782149 0.00012782149 0.00069055235 0.00069055235 0.0010124623 0.0010124623 0.0005033158 0.0005033158
0.00023294194 0.00023294194 0.00029086933 0.00029086933 0.00027547457 0.00027547457 0.0009646558 0.0009646558
3.9422455e-05 3.9422455e-05 2.3675719e-05 2.3675719e-05 0.00073802 0.00073802 0.00025294648 0.00025294648
0.00032715703 0.00032715703 0.00040170352 0.00040170352 0.0012087087 0.0012087087 0.0009898636 0.0009898636
2.6661985e-05 2.6661985e-05 0.00036234068 0.00036234068 0.00017475428 0.00017475428 0.00058169616 0.00058169616
9.4246265e-05 9.4246265e-05 0.00043359102 0.00043359102 0.00025004332 0.00025004332 0.00027494738 0.00027494738
0.00041940293 0.00041940293 0.00082040665 0.00082040665 0.0009387565 0.0009387565 0.0001412625 0.0001412625
0.00056736544 0.00056736544 0.00070476375 0.00070476375 0.0006266618 0.0006266618 0.0004281225 0.0004281225
0.0002331386 0.0002331386 0.00035837526 0.00035837526 4.175557e-05 4.175557e-05 1.2883267e-05 1.2883267e-05
0.00046880476 0.00046880476 0.0007612617 0.0007612617 0.00059598 0.00059598 0.00049247144 0.00049247144
0.00056117214 0.00056117214 0.00010519657 0.00010519657 0.0002922779 0.0002922779 0.00018295593 0.00018295593
0.0005335679 0.0005335679 0.00053051603 0.00053051603 0.0007356943 0.0007356943 3.2373297e-05 3.2373297e-05
0.00023364359 0.00023364359 0.0007182977 0.0007182977 0.00062378665 0.00062378665 7.71467e-05 7.71467e-05
1.806898e-05 1.806898e-05 0.0007505354 0.0007505354 0.0005631065 0.0005631065 0.0007742366 0.0007742366
0.00059579755 0.00059579755 0.000401949 0.000401949 0.00021365876 0.00021365876 0.00062998873 0.00062998873
0.0008214187 0.0008214187 0.00062905665 0.00062905665 0.00053906965 0.00053906965 0.0008519205 0.0008519205
3.9376515e-05 3.9376515e-05 0.00040585955 0.00040585955 0.0009982088 0.0009982088 0.00042362118 0.00042362118
0.0003755645 0.0003755645 0.0012215133 0.0012215133 0.00013339901 0.00013339901 0.0006008426 0.0006008426
1.2860435e-05 1.2860435e-05 0.00044441072 0.00044441072 0.00029950886 0.00029950886 0.0002767252 0.0002767252
0.000581239 0.000581239 0.00043912907 0.00043912907 0.00087747385 0.00087747385 9.9452545e-06 9.9452545e-06
00000000: 573c 8c37 573c 8c37 d6f9 8939 d6f9 8939
00000010: 8990 a539 8990 a539 6a7a f437 6a7a f437
00000020: f63c 073a f63c 073a bd39 333a bd39 333a
00000030: 986e 063a 986e 063a 4706 f239 4706 f239
00000040: b34e 103a b34e 103a fb6b 0f39 fb6b 0f39
00000050: 47f4 e439 47f4 e439 f1cf 443a f1cf 443a
00000060: 0e7e 2738 0e7e 2738 1ee2 a138 1ee2 a138
00000070: 47c9 6b39 47c9 6b39 cfc1 383a cfc1 383a
00000080: a3c9 2839 a3c9 2839 2b54 f139 2b54 f139
00000090: e9a3 3f39 e9a3 3f39 eed8 3d3a eed8 3d3a
000000a0: d207 0639 d207 0639 2f06 353a 2f06 353a
000000b0: 99b4 843a 99b4 843a f4f0 033a f4f0 033a
000000c0: e041 7439 e041 7439 d27f 9839 d27f 9839
000000d0: 926d 9039 926d 9039 f4e0 7c3a f4e0 7c3a
000000e0: 8a59 2538 8a59 2538 389b c637 389b c637
000000f0: af77 413a af77 413a e79d 8439 e79d 8439
00000100: 4686 ab39 4686 ab39 bc9b d239 bc9b d239
00000110: 896d 9e3a 896d 9e3a 50be 813a 50be 813a
00000120: 2da8 df37 2da8 df37 8bf8 bd39 8bf8 bd39
00000130: 3f3e 3739 3f3e 3739 f87c 183a f87c 183a
00000140: 14a6 c538 14a6 c538 9a53 e339 9a53 e339
00000150: 3f18 8339 3f18 8339 d026 9039 d026 9039
00000160: 4fe3 db39 4fe3 db39 8f10 573a 8f10 573a
00000170: e216 763a e216 763a dd1f 1439 dd1f 1439
00000180: 40bb 143a 40bb 143a e5bf 383a e5bf 383a
00000190: 9046 243a 9046 243a a175 e039 a175 e039
000001a0: ab76 7439 ab76 7439 50e4 bb39 50e4 bb39
000001b0: b422 2f38 b422 2f38 3625 5837 3625 5837
000001c0: e9c9 f539 e9c9 f539 688f 473a 688f 473a
000001d0: 8a3b 1c3a 8a3b 1c3a 3319 013a 3319 013a
000001e0: a01b 133a a01b 133a fa9c dc38 fa9c dc38
000001f0: e03c 9939 e03c 9939 dcd7 3f39 dcd7 3f39
00000200: 23df 0b3a 23df 0b3a 5412 0b3a 5412 0b3a
00000210: 9cdb 403a 9cdb 403a 90c8 0738 90c8 0738
00000220: 39fe 7439 39fe 7439 254c 3c3a 254c 3c3a
00000230: 9d85 233a 9d85 233a d2c9 a138 d2c9 a138
00000240: d792 9737 d792 9737 94bf 443a 94bf 443a
00000250: 709d 133a 709d 133a 24f6 4a3a 24f6 4a3a
00000260: 4c2f 1c3a 4c2f 1c3a aebc d239 aebc d239
00000270: 9609 6039 9609 6039 d425 253a d425 253a
00000280: 7a54 573a 7a54 573a 47e7 243a 47e7 243a
00000290: 5a50 0d3a 5a50 0d3a 6b53 5f3a 6b53 5f3a
000002a0: 3628 2538 3628 2538 8cc9 d439 8cc9 d439
000002b0: 54d6 823a 54d6 823a 7919 de39 7919 de39
000002c0: 6ae7 c439 6ae7 c439 2f1b a03a 2f1b a03a
000002d0: 06e1 0b39 06e1 0b39 dd81 1d3a dd81 1d3a
000002e0: 26c3 5737 26c3 5737 ccff e839 ccff e839
000002f0: 6607 9d39 6607 9d39 6d15 9139 6d15 9139
00000300: 4a5e 183a 4a5e 183a e83a e639 e83a e639
00000310: 4606 663a 4606 663a 8bda 2637 8bda 2637
