TSTE-R/Qcontrol-noisy-comparison/Noisy-10%/GEPINN_A30_noisy0.1/save_model_0222.ckpt-1100000.pt (torch, 409043 bytes, 27 tensors)

input_projection.weight f4 [100, 2]
00000000: 7382 0cbe cdb5 0b3e 4bca bcbe e583 bc3e
00000010: bc16 b53e e0f2 b4be c569 c53d 906a c1bd
00000020: cae3 1fbf 6e56 97be cf3e 47bd 2a7e 493d
00000030: ffea 083e f316 08be 6534 ef3e 423b 043f
00000040: fa87 abbe bc0b ac3e 6fce 433b 6c75 30bb
00000050: ebf1 343e 1d6e 35be 223d 9abd f594 f3bd
00000060: 2591 b1be 1f4f b13e 4f77 38bd 10cb 393d
00000070: 6347 38bd 6462 3b3d e454 183e 5fc9 17be
00000080: 279e 173f 7ebb 17bf e50d e2be feaa 1cbf
00000090: ed65 91be b35b 913e ebe9 ca3e 24fd 933a
000000a0: 801f eb3e 2e8a ebbe b0fd 853e b497 40bc
000000b0: 3ce4 523d c50b 52bd ca42 17bf b54a eabb
000000c0: a894 acbc 4cfc ac3c 4c47 d3be ee10 d33e
000000d0: 0b4c bf3e 6f20 bfbe 46bc 09bf 120c 683e
000000e0: 1935 c63e 0017 c6be 19bc 023f 64ec 02bf
000000f0: 2d0e 833e 1f1f 83be 07a5 553e 5f24 54be
00000100: eed7 04be 0911 053e a323 a4be c9e8 a33e
00000110: df5c a13e 18c1 623e 1cbd 2f3e 0220 e5be
00000120: b245 0fbe 7de1 0e3e 1c4d e1be 250f e13e
00000130: 254b 313c c89c 3ebc 2762 b73e 6973 b7be
00000140: f588 c3be 3773 c33e 7c05 2f3e 8376 30be
00000150: 7583 5bbe abe6 5a3e 669c 563d a716 50bd
00000160: 48ca e3be 24ae a7be 61a6 01bf 91e7 6ebe
00000170: 707e 053f e00c c73d b5e0 89bd bbb3 893d
00000180: 9e3e 073f 804e 07bf eb59 f5be b499 ac3e
00000190: 2dce abbe 5e18 c4be cab0 8e3d c3f0 6dbe
000001a0: e93b edbe 2a2a ed3e e6d1 603e 53ad 60be
000001b0: 9ffd cabd b124 cb3d 10bf eebe cb41 ee3e
000001c0: ab77 a03e 66e9 9ebe 3e00 ffbe bdd4 15bf
000001d0: be18 753e eee3 75be 214c 08bf 3238 4a3e
000001e0: 082f 0abf 7c3f 01bf df31 3abe 90f2 393e
000001f0: ef72 093f 2611 09bf 2a9d b63d 15a3 b4bd
00000200: d2a1 01be 1b9a 8bbe d3cb 153e 93b5 16be
00000210: e633 9c3d d034 313e aa67 49bd 7433 463d
00000220: 2845 f0be 2b24 f03e 93e6 38bf 1f09 08bf
00000230: 4c72 06bf fd9e 063f 8214 84be 82f9 833e
00000240: d906 483e a7c7 47be 38c8 ad3e 234b adbe
00000250: 84e7 fabe b308 dfbe 12aa d0be 3597 d03e
00000260: 2904 9fbe 00cf e53d e376 8cbe 8379 8c3e
00000270: bdb8 cabe 2e6c ca3e d6a1 a03e 324c a0be
00000280: ecf1 0a3e dcb1 0abe e944 95be c74d 22bf
00000290: 028a e6be e49a 01bf 264a 25be 4dc5 243e
000002a0: 7c90 1fbe 8c60 1f3e 68d3 f83e 325b f9be
000002b0: c439 a23d ae18 293e a588 d13d 3250 d2bd
000002c0: 5ec0 333e 555b 33be f08b 363f c21c dd3e
000002d0: f20f acbe 02e7 ab3e 456a 6c3e 5ee1 b43e
000002e0: e38d d43e e5c4 d4be 83ef 04bf eedf 1cbf
000002f0: 352a 673e 39aa 67be 7d13 453e 76b2 44be
00000300: a664 003f 7a8e cd3e 330a 7abe e111 32be
00000310: ad51 983e 05de 97be ab9f 2f3e 33a7 2ebe
-0.13721637 0.1364357 -0.36873087 0.36819378 0.35368907 -0.3534155 0.096393146 -0.09444153
-0.62456954 -0.29558128 -0.048643883 0.049192585 0.13370894 -0.13290004 0.4671966 0.5165292
-0.3350218 0.33602703 0.0029877683 -0.0026925458 0.1767041 -0.17717786 -0.075311914 -0.11893646
-0.3468105 0.34630677 -0.045035657 0.04535967 -0.044989955 0.04574813 0.14876133 -0.1482291
0.59225696 -0.59270465 -0.44151226 -0.61198413 -0.28398076 0.28390273 0.3963159 0.0011290652
0.4592247 -0.4600386 0.2617011 -0.011754919 0.051487193 -0.051280756 -0.5908629 -0.007150019
-0.021066979 0.021116398 -0.41265333 0.41223854 0.37362704 -0.37329432 -0.5380291 0.22660854
0.38712385 -0.38689423 0.51068264 -0.51141953 0.25596753 -0.2560968 0.20863734 -0.20717
-0.12972996 0.1299478 -0.3205844 0.32013538 0.31516168 0.22143972 0.17161983 -0.44750983
-0.1399143 0.13953204 -0.44004142 0.43956867 0.0108211385 -0.011634059 0.35817072 -0.35830238
-0.38190427 0.3817384 0.17091936 -0.17232709 -0.21436866 0.21377055 0.052395247 -0.050802853
-0.44490266 -0.32750046 -0.506445 -0.23330523 0.52146053 0.097192526 -0.067323126 0.06723734
0.5282992 -0.52854156 -0.47920164 0.33711016 -0.33555737 -0.3829984 0.069673136 -0.23236375
-0.4633477 0.4632123 0.2195507 -0.21941118 -0.09911656 0.09919108 -0.46630144 0.4653457
0.313413 -0.31037444 -0.49804872 -0.5852774 0.2393522 -0.2401273 -0.53241163 0.19748
-0.53978014 -0.50487494 -0.18183087 0.18158937 0.53691 -0.5354179 0.089166954 -0.08820168
-0.12659386 -0.2726601 0.14628534 -0.14717703 0.07627086 0.17305303 -0.049171127 0.048388913
-0.46927762 0.46902594 -0.7222683 -0.5313892 -0.52518153 0.52586347 -0.25796896 0.25776297
0.19533862 -0.19509755 0.33941817 -0.33846387 -0.49004757 -0.43561324 -0.40754753 0.40740362
-0.3105786 0.11221123 -0.27434453 0.27436456 -0.3959407 0.3953566 0.3137347 -0.31308132
0.13568848 -0.1354441 -0.29154137 -0.6339993 -0.45027167 -0.5062697 -0.16141567 0.1609089
-0.1558246 0.15564173 0.4859879 -0.4870239 0.07921174 0.16513321 0.10231141 -0.10269202
0.17553851 -0.17515309 0.7130728 0.43186003 -0.33605915 0.33574682 0.23087414 0.35328192
0.415145 -0.4155647 -0.51927966 -0.6127919 0.22574694 -0.22623529 0.19245715 -0.19208702
0.5015358 0.40147763 -0.24417953 -0.17389633 0.29749814 -0.29661575 0.17150752 -0.17055969

dense1.weight f4 [100, 100]
00000000: 8131 21bf ab98 a8be eeaf 32be d522 2ac1
00000010: ac59 2d3d f214 1a3e b912 cdbf 6cab 80bd
00000020: 1d89 40c0 4d81 89be 89cf 36be e6dd a7bd
00000030: 780b 0dbf 6b3d e7be 4964 dabf 9750 9d3e
00000040: 5d21 bfbf 5c84 6a3d 29b2 c33f 97af d9bb
00000050: cebb 3dbd ef0f 78bd 9c76 923d 1b8e a6bd
00000060: f04c 3b3e 53ab 0440 f36c 50bf f553 6fbd
00000070: f659 10bd a21d 1f3f e0be cd3e 5543 0e3f
00000080: 2674 473f 3ac1 39bd 8147 393d a959 b5bd
00000090: 96cf 6a3f ab74 aabe d263 ed3f f349 6b3f
000000a0: 953e c23c 8f35 1640 ed7c 5040 398c 193f
000000b0: 8181 693d 2b78 51bd c4d3 c33d 2535 2c40
000000c0: ad4f 47be 0895 5bbd 2f41 0bbd d41c 9cbd
000000d0: d794 55bf 4a50 7bbf 990c a3bf 02c0 fbbf
000000e0: 54ec febf 3e41 c1ba 182b ad3f 8d96 69bd
000000f0: bd6f 7bbd 846b 23be 9c99 92c0 0180 dd3f
00000100: f3c6 d8bd 53db 34bd 5988 b1bd dc71 9f3e
00000110: 37e3 22be 6508 9d3d 7841 64bb 1e81 4bbe
00000120: 66b6 393f 235b 313f 79d4 763c 800d 6abe
00000130: a640 a6bd 36c2 5abd 0e5c 54c0 d314 333f
00000140: a124 713e 3d9b 2ebc 49d8 efbb 9a66 a1be
00000150: 7398 653f 1e8b b2bd 9280 073d 51b5 a5bd
00000160: 3c96 a33f a6c7 7abd 7595 233f 54b9 a4bd
00000170: 5eb1 08be f4a1 543d e924 6fbf 1d5c 9f3e
00000180: 749c 943c 9d80 a43c f700 b33e 6cce 6f3f
00000190: e496 113d cc05 103f d745 bdbc 6b17 c13e
000001a0: 7272 49be 3440 7f3d ce38 94bd 29b3 733e
000001b0: 40cf 083e 4e31 a23d f6cc 273d 071c 28bd
000001c0: 59d6 913e f051 2cbe 160e 783e cc28 dd3d
000001d0: 4122 a3be e45c b5be 1e31 9d3d 51fe f03d
000001e0: e949 9cbb e414 613e 2042 cebb b684 28be
000001f0: b75a 303e 5244 493d d7ed dc3c 5f7f 9dbd
00000200: 6f5f ff3b 0f4d bcbd 2a27 85bc 5a06 8f3d
00000210: e222 34bd 7400 b3bd af0e 083e 6ee7 08be
00000220: 2daf 763e c643 aa3c 5e5a 683d 201b ba3d
00000230: 7d39 4b3d 8b34 493d ac30 de3d 85f6 c83c
00000240: a791 5fbe a9d8 9abe 8735 803e b1c4 90bd
00000250: 3288 c1bb 183f 52be f3d1 75be 6b04 a8bd
00000260: b55a d13e c416 0e3e a298 27bc 77e2 24be
00000270: 092f 49bd 5460 c8be d837 81bd 0066 13be
00000280: c875 a1be 75ea 923d 990e 53be 51d9 ae3d
00000290: b623 0fbe 92c5 73bd da1d 343d 8aba 263e
000002a0: f113 123e 2a52 c1be 54fa 983d 30dd f3bd
000002b0: 356e be3d 935b e0bc 7431 5dbe 61c2 a83d
000002c0: 34cc 61bd b16e 04bd 68e7 e4be d43d cebd
000002d0: fae6 ecbd 64f7 88be 51d5 60be a26c a0bc
000002e0: 8477 1bbe 4c81 203e 8593 4e3e c465 013d
000002f0: 2287 50bd e158 8e3e 6072 8bbe 6244 783e
00000300: 3b4f 803d 9aa2 76be e389 41bd 7dbd 5abc
00000310: a2ea a23e cead 85be df87 e13d 51b3 9dbd
00000320: b788 593d 91ff 1abe 5229 923d 3c66 ac3e
00000330: a44d 963d c3fd 8fbd b930 ff3d d565 eb3c
00000340: 6db8 a63d 4aaf 023e 8f31 2f3d b52d 2ebd
00000350: d13b 0c3e cd4f af3d 8fdc d83e e41a 3d3d
00000360: 0354 753e 5ed7 803b f21c 9abd 14b5 c4bd
00000370: 3ec6 61bd a328 cc3d 3f96 ff3d ca2b 813c
00000380: 7553 2e3d d80c a43c e8db 63be 4f2c 233c
00000390: 6a16 01bd a688 2f3d cf18 ccbd abc7 5ebd
000003a0: d74b acbc c9c8 f03c 9320 c1bd 241e 283d
000003b0: b214 d33d cdf1 c03d e33c c23d fde0 95bc
000003c0: 159c b83d bf30 87bc dae2 c0bb 6dd1 bf3c
000003d0: d9b4 e03d 6302 f93c 234d c3bc d445 793e
000003e0: a234 c5bc 6f01 a83d 6abb 16bd c0ce 373c
000003f0: 24f0 8abd 8fa8 30bd 41ad be3d df2a 233d
-0.6296616 -0.32928976 -0.17449924 -10.633504 0.042321846 0.15047053 -1.6021339 -0.06282696
-3.0083687 -0.2685646 -0.17852606 -0.08196621 -0.55095625 -0.45164046 -1.7061855 0.30725548
-1.4932057 0.057255134 1.5288745 -0.0066432464 -0.046321683 -0.06056207 0.07151529 -0.08132573
0.18291068 2.0729568 -0.81416243 -0.058429677 -0.035242043 0.6215459 0.4018469 0.5557149
0.77911603 -0.04535029 0.045234207 -0.08854992 0.91723 -0.33292136 1.8546088 0.9190971
0.023711482 2.347019 3.2576249 0.5997959 0.05700827 -0.05113999 0.095618755 2.6907437
-0.19463988 -0.053608924 -0.03399771 -0.07622686 -0.83430237 -0.98169386 -1.273822 -1.9667971
-1.9915872 -0.0014744175 1.3528776 -0.057028342 -0.06138586 -0.15958983 -4.581251 1.7304689
-0.105848216 -0.044154476 -0.086685844 0.31141555 -0.15906988 0.07667617 -0.0034829061 -0.19873473
0.7254394 0.6927969 0.015065306 -0.22856712 -0.081177995 -0.05340787 -3.3181186 0.6995365
0.23549129 -0.010657129 -0.0073194844 -0.3152359 0.89685744 -0.08717941 0.0330816 -0.08091224
1.2780223 -0.061225556 0.6389993 -0.08043161 -0.1334891 0.051912263 -0.93415695 0.31124964
0.018141009 0.020080859 0.34961674 0.9367435 0.03554429 0.56258845 -0.023104591 0.3771318
-0.19672564 0.06231709 -0.07237397 0.23798813 0.1336031 0.079195604 0.04096695 -0.041042354
0.28483847 -0.16828132 0.24224123 0.10798797 -0.3186207 -0.35422432 0.07675384 0.11767257
-0.004769553 0.21980625 -0.006294504 -0.16456875 0.17222105 0.04913742 0.02696888 -0.0769031
0.007793359 -0.09194385 -0.016254026 0.06983633 -0.04397858 -0.08740321 0.13286851 -0.13369533
0.24090262 0.02078427 0.056726806 0.09087205 0.049615372 0.049122375 0.10849127 0.024531612
-0.21832906 -0.30243424 0.25040838 -0.07068766 -0.0059061283 -0.20531881 -0.2400587 -0.08203968
0.40889516 0.13875872 -0.010229262 -0.16102014 -0.04911712 -0.39135993 -0.063094795 -0.14394379
-0.31535172 0.071736254 -0.20611037 0.085375436 -0.13978466 -0.05951459 0.04397378 0.16282097
0.1426542 -0.37758 0.07469621 -0.119074225 0.09298364 -0.027387416 -0.21600896 0.082402
-0.055126384 -0.032332126 -0.447078 -0.100703865 -0.11567493 -0.26751244 -0.21956374 -0.01958305
-0.1518231 0.15674323 0.20173462 0.031591192 -0.050910123 0.27802184 -0.272357 0.24244836
0.06265112 -0.24085465 -0.04725064 -0.013350842 0.31819636 -0.26109165 0.110122435 -0.077002175
0.053108897 -0.15136553 0.071367875 0.3367175 0.073390275 -0.07030823 0.12460465 0.02873508
0.08140645 0.1276218 0.042771872 -0.04252406 0.13694693 0.08560143 0.42355773 0.046168223
0.23957829 0.003931924 -0.07525052 -0.096048504 -0.0551207 0.09968688 0.12479829 0.01576795
0.04256006 0.020025656 -0.22251856 0.009959294 -0.031515516 0.042854927 -0.09965669 -0.054389637
-0.021032257 0.029392617 -0.09430041 0.04104437 0.10306682 0.0942112 0.094842695 -0.01829576
0.09014145 -0.016502736 -0.005886418 0.023415292 0.10971994 0.030396646 -0.023840493 0.24343044
-0.024072949 0.082033984 -0.036799826 0.011218727 -0.067840844 -0.0431295 0.09310389 0.039835807

dense1.bias f4 [100]
00000000: 83a3 82be 9c76 fbbd 40c3 163f 4f21 65be
00000010: 487d 36be 1857 a4be f2a8 3ebe 5a75 643e
00000020: 0141 043f 87f0 3a3f 8ce1 5cbe f1e3 2d3f
00000030: b30d bebe 6bc5 713f db8b efbd a509 60be
00000040: a985 3bbe 9505 51be 2dce bcbe 7317 ec3d
00000050: 87e6 86be 53e3 bcbe 13af 11be acce 7dbe
00000060: d53f b1be 526d 823f a862 b0bd 6e7f 573f
00000070: ae72 5abe f25e 3c3f 4ce0 4d3f 7067 a53e
00000080: d673 3cbe f4d4 3cbe 7292 6dbe 09c0 373e
00000090: 4347 4fbe 8e27 93be c986 4a3f 185f b6bc
000000a0: 3776 e3be 5c29 54be b220 a5be 7f55 2b3f
000000b0: b4c3 00be cc87 58be 5f3d 4ebe 5ed9 a2be
000000c0: 68b2 aabe 763b a8be cad6 0ebe 3a84 0e3f
000000d0: 1d72 3b3f 746a 9cbe 840e 17be e4b1 06be
000000e0: 6297 76be 7566 003f b50c e23d 895c 0ebe
000000f0: 2d7b 523f 502b a1be 56f2 56be 45f8 253f
00000100: 45ae 443f 1f4d 43be 4fe9 45be ece8 133f
00000110: 8a4c 433f f681 a53e d9fd 183f 3158 f93d
00000120: 0900 acbe 49e5 55be edbe 37be 4790 41be
00000130: 5468 003f 7162 53be 27af 83be c3f0 563f
00000140: 8ee8 aa3d 2636 f7bd 84d8 4f3f 66fa 91be
00000150: 39dd 67be 104c 5ebe 43c1 ec3e 19b3 013f
00000160: ca2c 413f 88bd 573e 3007 84be a674 4ebd
00000170: c40a 3ebe 4354 053f f611 adbe e003 a2be
00000180: 0317 4dbe 3a57 68be f8a2 93be f9c3 24be
-0.25515375 -0.12278482 0.5889168 -0.22375987 -0.17821229 -0.32097697 -0.18619135 0.22310391
0.5166169 0.73023266 -0.21570414 0.67925936 -0.37119827 0.9444186 -0.11696597 -0.21878679
-0.18312706 -0.20412286 -0.3687605 0.1152791 -0.26347753 -0.36892185 -0.14226942 -0.2478587
-0.34619012 1.0189612 -0.08612567 0.8417882 -0.2133281 0.73582375 0.80420375 0.3230548
-0.18403563 -0.1844061 -0.23200396 0.1794435 -0.20242028 -0.28741115 0.79111916 -0.022262141
-0.44426128 -0.20718902 -0.32251507 0.6692733 -0.12574655 -0.21145552 -0.20140599 -0.31806463
-0.33339238 -0.32857865 -0.13949123 0.5567051 0.73221 -0.30549967 -0.14751631 -0.13153797
-0.24081185 0.5015634 0.1103758 -0.13902487 0.822192 -0.31478357 -0.20990881 0.64831954
0.76828414 -0.19072388 -0.19327281 0.57777286 0.76288664 0.32325715 0.5976234 0.12175024
-0.33593777 -0.20888247 -0.17943926 -0.18902694 0.5015919 -0.20643021 -0.25719568 0.83961123
0.083451375 -0.12070875 0.8118975 -0.2851135 -0.22642983 -0.21708703 0.46241197 0.50663906
0.7545897 0.21068394 -0.25786734 -0.050404213 -0.18558794 0.520817 -0.33802766 -0.3164358
-0.2002831 -0.22689524 -0.28835273 -0.16090383

dense2.weight f4 [100, 100]
00000000: 6128 83bd 8cc8 37be e326 533c 4d29 2c3d
00000010: 6f6a d7be 0b12 983c a7af 703d ab51 833e
00000020: c0c8 003d 1956 7f3d b070 6dbc cef6 2f3d
00000030: 2b1c 87bb 56cc a73d 2ec7 26bc 7bf9 f53d
00000040: 739c f4bd 773e d1bd 8b73 653d 36ef 293e
00000050: 7d1c 63bd 9c89 77bd 0869 f13d c43e 083e
00000060: 69be 1d3d abd0 debd 9ed0 6fbd abbd efbc
00000070: 7c0a 383e 10db 32bd d31d 09bd 2aff 48bd
00000080: d634 5c3e 77a3 e2be b472 bb3d c80b 023d
00000090: f6b5 9fbd 4f41 e03d 9781 2fbc 4779 5fbd
000000a0: 65af 303d 8edb a33c 59fe 8bbd 7437 c93d
000000b0: e689 293d d276 af3d e5b7 ea3c f750 edbc
000000c0: 4235 273c 1d41 a4bc b3ac 9a3d ac08 e03d
000000d0: d6c6 823d 2bb9 bbbb 0dcd 0f3d f622 363b
000000e0: fba8 c7bd ab8a 10bd e02d 343d c778 82bd
000000f0: 3009 1bbe 2e0c 253d 3814 d1bc 89c0 17bd
00000100: 49e5 e93d 56ae ba3d c03a 0a3d 5f20 35bd
00000110: 4597 4abd fa9c d5bd 94e2 50bd 2277 97bd
00000120: 6da1 743d b9c7 a1bd 54c0 1dbc 402d c13c
00000130: 6777 ecbc 1e3f 6d3d 1a57 963c 68a9 fc3c
00000140: 64e7 45be 0904 9bbd abd8 b7bc 9a9f 25bb
00000150: 0477 1c3b 72c5 693e 7a8b dd3d f9b8 0d3d
00000160: 01da 843d 4cf7 343e 8ccf bf3d e52e d83d
00000170: d287 41be 3135 86bd 26f2 c7bc 1d37 bdbd
00000180: 093f b63d 70b0 313d 8e2c 94bb f8f7 59bc
00000190: d189 6c3f a5bf 00bd 96a4 8a3e d83d af3d
000001a0: 1a74 7fbf e10e 5b3d 6e4c cebe 067a 76be
000001b0: 8b9e 4c3e 23ff 6a3e b8b8 56bc e754 8e3e
000001c0: 6196 e2bd 1c14 8b3e 62c4 4abd 3cf9 cfbd
000001d0: 7d60 b93d 5a37 a43d 3cfc 2abc e00d 69be
000001e0: e98d 873b 3704 dbbd 519d b53d 9f5a fb3d
000001f0: bf71 003e 2bcb 7c3e 9a2d a9bc 643a 863e
00000200: fc0d 843e 8a0a f33d 1340 9e3e b0d9 873e
00000210: 9f6d 36bc 977d 3dbd e3fd cfbd df8c f9bd
00000220: 9036 013e 6ecf 973a 21ee 9a3e ead2 a8bd
00000230: 6f0d e4bd b0e3 ffba c320 c6bc f164 3e3e
00000240: db9f ce3d 8192 e63c 4c88 bc3d de2c 4c3d
00000250: ea74 55ba 6b11 173d cc68 30bd efb8 713e
00000260: 8e7a 343e d81e 7fbd 64d7 233e 410b cfbc
00000270: 73ee 39bb cc75 613e c489 55be a466 5ebe
00000280: e598 a63e d287 a13d fd56 c0bd c3bc 8e3e
00000290: dde9 a83e 8f1e db3d 936a a0bd c2fa 063e
000002a0: 4833 5c3e 48ee 543e 4ced 0c3e 9d8e d2bd
000002b0: 48df 91bd a77b 25bc ab6c 9d3d 1e71 d73d
000002c0: f223 0a3e f42f 0f3e 71a3 883d 3de9 9d3e
000002d0: 2c32 61be f73a 57be a3e6 9d3e f71b f8bd
000002e0: ee71 fd3d 2c13 fc3e 6a97 1b3d e615 123e
000002f0: f33f 0e3e ee45 dbbe 307e efbd 5289 05be
00000300: f445 c63d ef47 a93e 9aae dfbb 5d98 9f3d
00000310: 60a2 263e 9599 efbd 03fe 15be 7849 5c3c
00000320: f115 dfbd 0497 cd3d 0c30 5cbe 3421 0dbe
00000330: 02b8 8b3d 7fc9 b3bd eca3 1c3c 4367 863e
00000340: 802d 12be 8c1b 5bbe ca88 803d 8d14 20be
00000350: adb2 0fbe 876f 23be 88da 943d d2c5 b93c
00000360: da9d 84bc 3fd3 acbc bd30 babd ca8d 123e
00000370: e9e0 84bd f23c 23bd 0778 26bd 2e26 2e3e
00000380: 6803 1dbe 1413 cdbd b9d4 2e3e 5378 cdbd
00000390: 4188 fcbc d1b3 2dbe d7b2 4ebe 18c8 5dbe
000003a0: 4ee8 19bc 60d9 4cbb c4f6 eabc 7590 a73e
000003b0: bf14 47bc 6ed0 0e3b 0d5c 33be b7c1 823d
000003c0: 76cc afbd c061 c83b ae8c a0bd e252 55be
000003d0: b33e 6b3e 0f48 6c3e 7a69 8cbc 457e 01bd
000003e0: 73c2 1ebd d471 17be f3ef eb3e 2557 32be
000003f0: a148 46be 405a 04be ad61 25bd 2209 223d
-0.06404186 -0.17947596 0.012887689 0.042031575 -0.4207339 0.018563291 0.058761265 0.25648245
0.03144145 0.06233797 -0.014492199 0.04295998 -0.004123231 0.08193271 -0.010179324 0.12010475
-0.11943903 -0.10216992 0.056018393 0.16595158 -0.05544709 -0.06043397 0.11787611 0.13305193
0.038511667 -0.10879644 -0.058548562 -0.029265245 0.1797275 -0.043665946 -0.03347571 -0.04907147
0.2150453 -0.4426534 0.09152737 0.031749517 -0.07798378 0.109499566 -0.010712049 -0.05455902
0.04313602 0.020002153 -0.06835622 0.0982503 0.041391276 0.08567585 0.02865214 -0.028969271
0.010205569 -0.02005058 0.07552471 0.10939154 0.06385581 -0.005728861 0.03510766 0.0027791834
-0.09749027 -0.035288494 0.043989062 -0.06370693 -0.15140224 0.04029482 -0.025522336 -0.03704885
0.11420686 0.09115283 0.033747435 -0.044220325 -0.049460668 -0.104303315 -0.05099733 -0.0739577
0.05972426 -0.07899422 -0.009628374 0.023581147 -0.02886553 0.05792152 0.01835208 0.030842498
-0.1932655 -0.07569129 -0.022442183 -0.0025272132 0.002387465 0.22829226 0.10817619 0.03460023
0.064868934 0.17672461 0.09365758 0.105558194 -0.18899468 -0.06553114 -0.024407458 -0.09239028
0.08898742 0.043381155 -0.004521913 -0.013303749 0.9239779 -0.031432766 0.27078694 0.08556718
-0.9978653 0.053480987 -0.40292686 -0.24069986 0.19982354 0.2294889 -0.013105564 0.2779915
-0.11063839 0.2716378 -0.04950369 -0.101549596 0.09051607 0.0801837 -0.010436114 -0.22759199
0.00413679 -0.10694163 0.08867896 0.12273144 0.1254339 0.24686877 -0.020651627 0.26216424
0.2579192 0.118672445 0.3090826 0.2653327 -0.011134534 -0.04626235 -0.10155847 -0.12185072
0.1261847 0.0011582205 0.30259803 -0.08243354 -0.11135375 -0.0019522812 -0.024185544 0.18593194
0.10089084 0.02814603 0.09205684 0.049847476 -0.0008142727 0.036881845 -0.043068692 0.23605703
0.17624876 -0.062285274 0.16000134 -0.025273921 -0.0028370887 0.22017592 -0.20853335 -0.21718842
0.32538524 0.07887234 -0.09391592 0.2787839 0.32990924 0.10699188 -0.078328274 0.13181594
0.21503937 0.20794022 0.13762397 -0.102811076 -0.07122666 -0.010100282 0.076867424 0.10519622
0.13490275 0.13983136 0.06671799 0.3084201 -0.21991795 -0.21018587 0.30840024 -0.12114709
0.12375246 0.49233377 0.037986197 0.14266166 0.13891582 -0.4282679 -0.1169399 -0.13040665
0.09681311 0.33062693 -0.006826234 0.07792733 0.16272879 -0.11699215 -0.14647679 0.013445251
-0.10892857 0.100385696 -0.21502703 -0.13782197 0.06822206 -0.08778667 0.009560566 0.26250657
-0.1427517 -0.21397227 0.062760904 -0.1563284 -0.14033003 -0.15960513 0.07268244 0.022677336
-0.01618855 -0.021096824 -0.09091327 0.143119 -0.06488211 -0.039853044 -0.04064181 0.17006752
-0.1533333 -0.100134045 0.17073335 -0.10032716 -0.03082669 -0.16963126 -0.2018541 -0.21658361
-0.009393765 -0.0031257495 -0.02868212 0.327274 -0.012150942 0.0021791714 -0.17515583 0.063846044
-0.0858392 0.0061151683 -0.078393325 -0.20832399 0.22973137 0.23074363 -0.017140139 -0.03161456
-0.03875966 -0.14789516 0.46081504 -0.17416056 -0.19363643 -0.12925053 -0.040376354 0.03955949

dense2.bias f4 [100]
00000000: 496b c03c 15b4 7d3e 0cd9 87be 5c3a 733e
00000010: d324 583c 04f5 92bc 7989 b33e 9f21 853e
00000020: 562f f8be 727f 1cbe cbea 923e 7a1a 48be
00000030: c133 2fbe d936 aa3e 7235 833e 2608 f0bd
00000040: a9cb 4c3d be50 db3e 2293 8bbe c9cb 043f
00000050: bee9 5f3e 41ce d3be dad9 7e3e a9bc f83e
00000060: 333f 25be d15f 5a3e e940 3dbe 6a80 b43e
00000070: f2f0 523e 1dac d2bc 3b95 a6be c58e 503e
00000080: 4058 be3e 45c6 c33e 93f2 81be 8e4d a23e
00000090: c00f 283e b671 943d 4e4f 87be e2fb 953e
000000a0: c2e4 8e3d 28b9 81be bed7 f23b 73c5 6d3e
000000b0: 510a ae3e 0a16 383d b35b f83e 25bc b9be
000000c0: 55f4 713e 7362 76be 3bcc 1fbe 1ce2 9dbe
000000d0: 6169 84be ea95 b0bd 08fa c73e 1ea8 f43c
000000e0: 80dc b3be e624 013e 110a ac3e e514 9a3c
000000f0: 40dd 993e c62d 2abe 5267 acbd f048 b63d
00000100: e570 0ebd 40af b3be 6905 4ebe c40b e23d
00000110: 8fe9 81bd 73c0 2ebe 6829 f1bd c34c f13d
00000120: a18e 873e 5d23 fc3e 60ef a0bc 9225 97be
00000130: 679b b93c 21d4 703e aa1d 043e 895e b53e
00000140: 0e63 e2bd 868b 7f3e f646 f0bd 077c 9dbc
00000150: d8ad 9abe a9da a5bd 9a42 10be 38d4 7b3e
00000160: d348 c63e c330 58be 130a c73d fd79 86be
00000170: 9225 883e f2ff 98be 405c 123e 93a3 d7bd
00000180: 712d abbe 2259 373d 001a 9ebe 02ef b23e
0.023488658 0.24775727 -0.2653278 0.23752731 0.013192373 -0.017939098 0.3506582 0.26002213
-0.48473614 -0.15282992 0.28694758 -0.1954135 -0.17109586 0.3324497 0.25626713 -0.11720304
0.049998913 0.4283504 -0.2726069 0.5187345 0.2186651 -0.41368297 0.24887791 0.48581436
-0.1613739 0.21325614 -0.18481793 0.35254222 0.20599726 -0.025716836 -0.3253573 0.20366962
0.37176704 0.38237205 -0.25380382 0.31699795 0.16412258 0.07248251 -0.26427692 0.29293734
0.06977226 -0.25336576 0.0074109724 0.23219852 0.33992246 0.044942893 0.4850746 -0.36276355
0.23628362 -0.24060993 -0.15605251 -0.3083657 -0.25861648 -0.08622344 0.39057946 0.02986532
-0.35129166 0.12611732 0.3360143 0.018808791 0.30051613 -0.16619024 -0.08418144 0.089006305
-0.034775633 -0.35094643 -0.20119251 0.110374 -0.06343376 -0.17065601 -0.11775476 0.11782219
0.26476005 0.4924573 -0.019645393 -0.2952085 0.02265711 0.23518421 0.12901941 0.35423687
-0.110540494 0.24955568 -0.11732285 -0.01922418 -0.30210757 -0.08098347 -0.14087906 0.24592674
0.38727435 -0.21112351 0.097187184 -0.26264945 0.26591164 -0.2988277 0.14293003 -0.10529246
-0.33433107 0.044762738 -0.3087921 0.34947973

dense3.weight f4 [100, 100]
00000000: 52f1 50bb a5ba 423c 6923 31be ccef c33b
00000010: 293f dcbe 3f2b 1abb 7d59 833e 784c 2fbe
00000020: c822 a23c 6158 133e 447f 63ba 6c83 863a
00000030: b763 92be 80a8 233e 7194 fcbe d373 f3bb
00000040: 20ca 2a3f 70c6 df3d c96d 0a3f 5a13 b53b
00000050: 698d 903e a354 57be 12ff 18be 331f 413e
00000060: c80b 943b 6133 3d3e b646 a3be 8135 dc3d
00000070: 258b fa3b 85d1 74bb 1f12 c4bd ae38 023e
00000080: a439 03bd 8947 98bc 24db 953d 0c99 4d3c
00000090: 9d4c 023e 731a 493e 3022 5abe 4f08 3ebe
000000a0: b5e0 293c beb9 d8bb 7ef1 f9bb 5a4e da3d
000000b0: 1b6f 423d 435b 70bf 4ae1 6b3d 8860 83bd
000000c0: ecf5 ab3b 74eb 913d 15a0 81be 2db4 113e
000000d0: a60b acbe d78b 94be f4c1 0a3e 8aa6 663f
000000e0: 6694 28be 4a28 3d3e c538 103f e001 bb3b
000000f0: 6d4b 463c 6d41 f83b f8d1 a03d df18 52bd
00000100: 6e8f 943d 9089 ecbd dbf5 9fbe 01af 453c
00000110: 199a 843b e726 3f3e 60d8 2e3a a11f 163b
00000120: 2383 3d3f 6c73 1f3e c338 073e 3ebb 39be
00000130: bd07 aabb 0e1c d33b 0ed7 b23f 652d 493f
00000140: 1106 28be 3b12 b73e e5f6 2ebf 6b46 0e3c
00000150: a3d4 c63d 9dcd 57be 4d3b 8abe 9fe2 32bb
00000160: d089 dc3b ebb4 8fbe 287d 983e 4d8a 6e3e
00000170: cac8 443e c2e7 dcbd c804 923d 51ba ebbd
00000180: 65ce 39bb 8394 96be 4ac4 42bc e416 aa3e
00000190: f8f2 e8bc 916d 86bd a4a1 a83d 0bd9 9440
000001a0: 6591 d1be 9e2c ee3b afde 4e3e a742 f7be
000001b0: dbb1 73bf 957e ab3e de2f 203c 9d29 f33b
000001c0: 186c 65be 6ccb 9abe 0b38 473e d97f a43d
000001d0: be31 073e d0a1 2e3f e8a4 3abe e5a9 96bf
000001e0: bed3 8c3e 26bf 4f3e e001 223c 7ae9 223f
000001f0: ffdc 253d 33fb 113f b34a e0bd 74da a83e
00000200: 31c1 803c e87a 4a3d bf76 44be f316 743e
00000210: a19d c63e 63e0 30be 31ee eebe 267f 46bd
00000220: b221 acbd eeff 2d3f 3f45 75bd d5d3 d93e
00000230: 2b3a 05bd 1498 b1be 19f1 ec39 ec05 823e
00000240: a5fe 653f 6c71 653e a068 fbbe 8241 14bf
00000250: 844b 3cbd 4df6 763e 1af2 cd3d 3c9f 823e
00000260: 6c19 79be a23f 24bd 0572 b43e 7ed8 02be
00000270: 444f edbe 2c5e 073f 70ae b03e 7726 38bc
00000280: c207 963f 9087 f0bc d546 17bf b446 e73e
00000290: 5151 353f f12b 81be b54d 0bbe aaba 27bd
000002a0: 1296 a43c c35a 063f 56e6 bc3b 013a 4d3c
000002b0: 5816 cc3e aa87 3c3f e55d 583f 5ea1 0d3e
000002c0: 201d 8ebc 73af d0bc 8ae2 4abe b876 9f3e
000002d0: 79b4 3dbf 0c3f 4d3f 23cb 98be 2b24 063d
000002e0: e50e 42bf 7184 ba3b 6f65 d5bd 2798 27bd
000002f0: fced d5bd 2b30 9cbe d3e5 303e 3bf0 a23e
00000300: 506e 263f c11e d73e eab7 f13e 4231 48bf
00000310: c206 6fbe eb4d 00bf 9547 dabe 1475 563e
00000320: 9284 9cbb bed4 8fbb 9c72 f23c ca76 883f
00000330: 3f80 ab3d c5a6 813b ffbf b6be 0569 8c3e
00000340: 496e 06bf b8f0 e23d e004 0ebc bdbb 6f3c
00000350: be88 983e 4f02 abbe f5f5 fe3e 56fb 95bc
00000360: 1ee0 843e 3662 f93e 42f6 0cbf 2a03 7dbf
00000370: 5091 5c3d 9727 623d 3bb3 8b3e 3be4 e23d
00000380: fe01 133c 27be 1cbe 06d5 513d e32c 793c
00000390: 6127 81bb 7b0c d2bb cef6 87bf f726 edbe
000003a0: db97 a13e 5c80 b13c ed58 87bd 3b4d 113b
000003b0: 8977 d13d e8de 133e 26f7 073f 2613 ef3e
000003c0: 69cc 9dba f8d0 5a3e 8052 10bb 5cfc fcbe
000003d0: e9ad b93e 85a8 e63e c7ba c5be d472 4dbe
000003e0: 4585 c83b 67cf c83d 94fd 18be 0a7d a03f
000003f0: dd4f 643e 4a70 b23c 636a 10bb effb ce3e
-0.003188212 0.01188532 -0.17298664 0.0059795137 -0.43016937 -0.0023524312 0.25654212 -0.17119014
0.019791976 0.14389183 -0.0008678327 0.0010262555 -0.285917 0.15982246 -0.49332002 -0.007429579
0.6671467 0.10926521 0.5407377 0.0055259885 0.28232887 -0.2102838 -0.14941052 0.18859558
0.004518006 0.18476631 -0.31889886 0.107523926 0.007645982 -0.0037356329 -0.09573769 0.12716934
-0.032037392 -0.018588798 0.073171884 0.012548696 0.12724538 0.19638996 -0.21302104 -0.18557857
0.010368516 -0.006613939 -0.007627665 0.106594756 0.04746924 -0.93889254 0.0575879 -0.06414896
0.005247822 0.07124987 -0.25317445 0.14228888 -0.33602637 -0.2901294 0.1355055 0.9009787
-0.1646286 0.184724 0.56336623 0.0057070106 0.012102944 0.0075761587 0.07852548 -0.05129325
0.072539195 -0.115496755 -0.3124226 0.01206565 0.00404669 0.18667184 0.00066698156 0.0022907036
0.74028224 0.15571374 0.13205247 -0.18137833 -0.0051889108 0.0064425534 1.397188 0.7858489
-0.16408564 0.35756096 -0.6834548 0.008683781 0.09708526 -0.21074529 -0.26998368 -0.0027295721
0.0067302957 -0.28067717 0.29782987 0.23294945 0.1921722 -0.10786392 0.07129818 -0.115101464
-0.002835178 -0.2941018 -0.011887619 0.3322059 -0.028436169 -0.06563867 0.082339555 4.6514945
-0.4093124 0.0072685024 0.20202135 -0.4829304 -0.9519326 0.33495012 0.009777037 0.007420732
-0.22404516 -0.30233324 0.19454972 0.080321975 0.13202569 0.68215656 -0.18226969 -1.1770598
0.27505296 0.20287761 0.009888142 0.63637507 0.04049396 0.57023925 -0.10951748 0.32979167
0.01571712 0.04943362 -0.19185923 0.2383688 0.38792136 -0.17273097 -0.466661 -0.048461102
-0.08404864 0.6796864 -0.05988049 0.42544428 -0.032526176 -0.3468634 0.0004519306 0.25395143
0.8984168 0.22406548 -0.4910326 -0.57912457 -0.045970455 0.24117394 0.10055943 0.2551211
-0.24326104 -0.040099747 0.3524324 -0.12777898 -0.46349537 0.5287807 0.34508085 -0.0112396395
1.1721117 -0.029361516 -0.59092456 0.4517113 0.70827204 -0.25228837 -0.13603862 -0.0409495
0.02009109 0.5248224 0.005764763 0.012526036 0.39860797 0.73644507 0.8451827 0.13831088
-0.017347872 -0.025474286 -0.1981298 0.31145263 -0.74103504 0.80174327 -0.2984248 0.032749336
-0.7580398 0.005692058 -0.104197375 -0.04091659 -0.104457825 -0.305055 0.17275171 0.31823906
0.65012074 0.4201565 0.47210628 -0.7820016 -0.23342422 -0.50118893 -0.42632738 0.209431
-0.004776546 -0.0043893745 0.029595666 1.0661252 0.083740704 0.003956648 -0.35693356 0.27423874
-0.5251203 0.1108107 -0.0086681545 0.014632163 0.29791826 -0.334002 0.49797025 -0.018308323
0.25952238 0.48707741 -0.5506326 -0.9883295 0.05384952 0.055213537 0.2728518 0.11078688
0.008972643 -0.15306912 0.051228546 0.015208456 -0.003941462 -0.006410179 -1.0622194 -0.4631879
0.3156117 0.021667652 -0.06608758 0.0022171277 0.10227878 0.144405 0.53111494 0.46694297
-0.0012039068 0.21368778 -0.002202183 -0.49411285 0.36265495 0.45050445 -0.38619062 -0.20063335
0.0061194026 0.09805184 -0.14940482 1.2538159 0.2229609 0.02178206 -0.0022036068 0.40426585

dense3.bias f4 [100]
00000000: d2c5 b13e 3751 5d3f 4cc2 a13e ec33 abbe
00000010: c7db c5be 6f0c bdbe 87b6 77be a92b 223f
00000020: 690f 733e 3f6a 5a3e 3fb6 2d3f ad88 423f
00000030: 65a9 553f dcda 7dbf 5ba7 7fbe 1d70 d8be
00000040: 2588 a3be e565 5c3f 89c2 b7be 53fb bb3e
00000050: ba96 c6be f322 493e 19ac 93be 2fe4 9c3d
00000060: 84a3 5a3e 4afa 853f 58ef 3c3f 7d12 2c3f
00000070: f7e2 a9be b00a 043f 0271 443f b697 9dbe
00000080: f0b9 eebe 9b63 ba3c da49 263f 3e96 cd3e
00000090: 237d 513d c1de e0be f767 493f 746a 623d
000000a0: 0c6a 4c3f 239d bbbe 9960 26be 3249 c3be
000000b0: bac3 4cbf 3372 c1be 957a 3a3e c5ed 1e3f
000000c0: a88e 413f cca6 af3e 81fa 4c3f 834c f03d
000000d0: c4f7 d4be 2366 b7be 405a 313f 9ef0 293f
000000e0: 6316 313f b78c 183f fbf7 3fbe 7255 543d
000000f0: ee1d 8d3f c3a1 8dbe 4d9e 4b3f a0cd 033f
00000100: dab5 2e3f d008 f33e 7b5a 9ebe c485 753f
00000110: 18d6 a5be 2b67 9a3f 7f28 4c3f d252 a33e
00000120: ee0f aebe 5c8e 6b3f f098 b6be 7a7c 5ebf
00000130: c317 aabe 3a48 76bf 0979 3c3f d8cf 403f
00000140: ca89 cabe 7b92 e2be 0467 343f 0a7a 503f
00000150: 290f 253f c1d1 f63e f4c7 283e 62c9 5a3f
00000160: e9eb 363e e0a9 8bbe d075 673f bacd 88be
00000170: be15 4c3f 5265 b13e 7418 c9be 69ee e8be
00000180: 31a1 943f aa2b 3b3f c1d5 1a3e 07a7 30bb
0.34721237 0.8645205 0.3159355 -0.3343805 -0.3864424 -0.3692355 -0.24190722 0.6334787
0.23736347 0.21329592 0.6785621 0.759898 0.834616 -0.9916208 -0.24966185 -0.42273036
-0.31939808 0.8609298 -0.35890606 0.36715183 -0.3878687 0.19642238 -0.28842238 0.0766071
0.21351439 1.0467007 0.7380271 0.6721571 -0.33180973 0.5157881 0.76734936 -0.3077981
-0.46626234 0.022752574 0.6495644 0.40153688 0.05114473 -0.43919948 0.7867426 0.055277303
0.79849315 -0.36643323 -0.16247787 -0.3814178 -0.79986155 -0.3778244 0.18210824 0.6208156
0.756083 0.34306943 0.8006974 0.117333435 -0.4159528 -0.35820112 0.69278336 0.6638278
0.69174784 0.59589714 -0.18746941 0.0518393 1.1024759 -0.27662477 0.7953842 0.51485634
0.68246233 0.4746766 -0.30928406 0.95907235 -0.32389903 1.2062734 0.7974929 0.31899124
-0.33996528 0.920141 -0.35663557 -0.86908686 -0.33221254 -0.9620396 0.73622185 0.75317144
-0.3955825 -0.4425238 0.7046969 0.81436217 0.6447626 0.48206905 0.16482526 0.85463536
0.1786343 -0.27278042 0.9041414 -0.26719457 0.79720676 0.34647614 -0.3927647 -0.45494393
1.1611692 0.731135 0.15120603 -0.0026955025

output_layer.weight f4 [5, 100]
00000000: 162b 70bd 81bd aa3d c178 72bc 19eb ba3a
00000010: 2c93 db39 c77e 433a edfa febb e3ad 6c3e
00000020: 0bda 46bd f524 89bc b614 813c 5373 c33d
00000030: 324a 603e 44d1 50be cd21 e23b ddad 293c
00000040: d69c af3a b8c6 acbd dc92 8f3d 1fb1 d53e
00000050: 2b84 c93c 7921 82bb 333c 3c3e e658 b6bc
00000060: bdde 1abc f69d 8ebf 4a19 6e3d f17a bcbc
00000070: 9b1a 5a3e d4ed 48be ec42 913c 7eb8 fabc
00000080: 1f19 533a 1180 46bd 2456 a4bf 13f9 b63e
00000090: 35b4 52bc 7c3a 5b39 1604 28be a53a 8ebd
000000a0: cbac 963d 4834 913c 8417 ccbb 3d85 cdbd
000000b0: 03ff 81bb 65f8 bb3c 7a07 00bd 737c fdbb
000000c0: 7cd5 a03d 73ae 71bd cf32 003e 3865 86bd
000000d0: 2dbd 3cbb 7443 e2b9 f309 553d d16e 58bc
000000e0: 7cb3 833b b324 f43d 3a39 633d 9d7a e93e
000000f0: 4faa 293f 7545 b0bc a781 273e d161 423f
00000100: 1038 77bd d67e 493e 4926 893d a05b a03d
00000110: d885 e4bb 84aa 4dbe e59f b4bd 9b68 afbd
00000120: 41aa 6dbc 3338 59be c775 9bbc b615 54bd
00000130: eda3 2fbc 17fb 0bbe ca1e ae3d a41b 43bd
00000140: 6d83 133f f072 e8bc dfee 8ebb 5c0d 093e
00000150: f44e e83c 7b8c 2cbd 229d 06bd bae0 4f3e
00000160: b9eb f5bb fac9 8e3b 587d 6e3e 7ff4 6739
00000170: a865 a03d d098 80be 7366 66bd 644a ea3b
00000180: adc2 0b3d 3727 263e 3761 38bd da42 01bc
00000190: 4a61 f4bd f246 1b3b c538 8438 3372 4539
000001a0: 0726 cfb9 2529 05ba 48a4 9dba 381a 5ebb
000001b0: 796d bc39 93cd cd38 3f80 d83d acf9 2a3a
000001c0: a33d 933c 1168 7638 58b5 22b7 8b3a 5539
000001d0: 0a14 bd39 acba 473c 5166 93bb 0fb6 f43a
000001e0: e02a 9238 9e23 14b8 2897 92bb b989 693c
000001f0: 8e96 703a a40d 2b3b b66f 0bbb a80f 8b3c
00000200: 3d47 2fbc 6a87 87ba 63d0 7138 417e 1e39
00000210: a049 79ba ffa2 bc3a a7f8 7fbc 585e 11be
00000220: 41ab ae36 dc1e 38ba baff bd3a 0a83 6c3b
00000230: 3f62 30bd 1abf d8b8 c46c 7d38 3116 6a3c
00000240: 3f4f 3038 8d2d c839 a393 1d3a 9f0e 983d
00000250: fb71 d4b8 b188 2239 9756 a33b a8a9 e139
00000260: 6e8f 7db8 4079 85b9 17ee 443c 550d 0b3a
00000270: 385d 31bc ff82 01b8 8425 17b9 3b0f 983d
00000280: 0ec4 d7bb 2fcd 6d37 cb15 0bbd 988f ffbd
00000290: 1a1e 89bb c483 153d 3944 ddb8 370e b5b9
000002a0: d542 9ab7 df4e e33a e52e b93c 8b2d 4d3c
000002b0: 5e8c 87b9 2034 6aba d5b6 6938 0cfe 0c3b
000002c0: b34a 1cb9 7c7d cd3b b2a7 9dbc 3c7f 5bbb
000002d0: cba3 843a 0159 3939 6067 243d e331 0abc
000002e0: 2f8f 51bd b5e2 6e39 1e81 8538 404f 60bb
000002f0: 8a45 05b7 697b 49b8 b622 f9bb 3c52 8539
00000300: 0807 a53b 1bac 073b fd53 6439 c31c 8eb9
00000310: b1d9 843a 6b81 593c 31ab eb37 e718 39b8
00000320: 944c 88bf e2b2 783d 9e30 84bf 915c 35bc
00000330: fa38 803b e6f0 a03b cea0 03bd 05b8 08c0
00000340: 26f6 02be 44c6 05bf 55e1 a33e 867e f03e
00000350: 0d9e 723e 4fdf 44bf 1fbe 943f be13 bebd
00000360: 12e2 8a3b f9fd b03e 44a6 91bd 6074 0dc0
00000370: d992 c9bd 3674 2fbf 3f4e f7bd eb31 86bd
00000380: 43c8 aabd 5fda 043f b2d2 693e f12c cd3d
00000390: 5d27 1fbc f59f 9abf cb4e e13f dbfd 50bf
000003a0: 4652 ce3b d878 04bd 0baa cebe 78a9 f5be
000003b0: f904 b0bf 133a 6d3b 4753 0ec0 675a c9bd
000003c0: 731e acbd 9ca8 67bd cf7d e7bf c737 20bd
000003d0: 851f 9a3f 7131 45bc c2f7 eebd 455e 403f
000003e0: 648a 19c0 b382 32c0 0237 293f 6e8a cbbe
000003f0: 1226 9ebd 88da 403b b130 d53d 47a4 873e
-0.05863484 0.08336926 -0.014799298 0.0014260738 0.00041880587 0.0007457551 -0.0077813775 0.23113208
-0.048547786 -0.016741255 0.015756946 0.09543481 0.21903303 -0.20392329 0.006901002 0.010356394
0.0013398181 -0.0843634 0.07010433 0.41736695 0.024599155 -0.0039712754 0.18382339 -0.022259187
-0.009452519 -1.1141956 0.058129586 -0.023007842 0.21299212 -0.19621974 0.017732106 -0.03060555
0.00080527546 -0.048461977 -1.2838788 0.35736904 -0.0128603475 0.00020907255 -0.16407809 -0.06944779
0.073571764 0.017725125 -0.006228389 -0.10035179 -0.0039671673 0.022945592 -0.03125713 -0.007735783
0.07853219 -0.05900426 0.12519382 -0.06562275 -0.002879928 -0.00043156336 0.05201144 -0.013210014
0.004019199 0.11921062 0.055474497 0.4560136 0.66275495 -0.021517495 0.16358052 0.75930506
-0.0603562 0.1967729 0.066967554 0.07829976 -0.006973963 -0.20084578 -0.0881956 -0.08564874
-0.014505924 -0.21212845 -0.018977059 -0.051778518 -0.010720235 -0.13670002 0.08501966 -0.047633782
0.57622415 -0.028375119 -0.0043619717 0.13384002 0.02835796 -0.04212616 -0.032864697 0.2030057
-0.007504907 0.0043575736 0.23290002 0.00022120959 0.078318894 -0.25116587 -0.056250047 0.0071499813
0.034121204 0.16225897 -0.045014586 -0.007889474 -0.11932619 0.002369341 6.304825e-05 0.00018829927
-0.0003951045 -0.00050796784 -0.0012027109 -0.003389014 0.00035939718 9.813453e-05 0.10571336 0.00065221894
0.017973727 5.874789e-05 -9.698175e-06 0.00020335072 0.0003606382 0.012190502 -0.004498281 0.001866998
6.9698086e-05 -3.531912e-05 -0.0044735856 0.014254027 0.0009177708 0.002610066 -0.0021276302 0.016975239
-0.010698137 -0.0010340039 5.7652953e-05 0.00015115087 -0.0009509567 0.0014391838 -0.015623248 -0.14196146
5.2055407e-06 -0.00070236414 0.0014495768 0.0036088848 -0.043062445 -0.00010335278 6.0421196e-05 0.014287517
4.2035474e-05 0.0003818091 0.00060110743 0.07424664 -0.00010130178 0.00015500445 0.0049846875 0.00043041748
-6.045348e-05 -0.00025458075 0.012019656 0.0005304416 -0.010825448 -3.0877996e-05 -0.00014414458 0.0742478
-0.006584651 1.4174074e-05 -0.03395633 -0.1247856 -0.0041844966 0.036502615 -0.00010550809 -0.000345336
-1.8389352e-05 0.0017342231 0.022605369 0.012523065 -0.00025853788 -0.0008934159 5.5721805e-05 0.0021513728
-0.00014905147 0.0062710624 -0.019245002 -0.0033492586 0.0010119615 0.00017676131 0.04013765 -0.0084347455
-0.05116194 0.00022781904 6.365984e-05 -0.0034226924 -7.943609e-06 -4.803707e-05 -0.007603015 0.00025429006
0.0050362386 0.0020701948 0.00021775062 -0.0002710578 0.0010135678 0.013275485 2.80939e-05 -4.413063e-05
-1.064837 0.06071747 -1.0327337 -0.011069433 0.003913042 0.00491153 -0.032135777 -2.1362317
-0.1278921 -0.52255654 0.32007852 0.4697153 0.23693104 -0.7690324 1.162052 -0.09281109
0.0042383755 0.34568766 -0.07111791 -2.210228 -0.09842462 -0.685367 -0.12075471 -0.0655249
-0.08338978 0.5189571 0.2283428 0.100183375 -0.009713975 -1.2080065 1.7602171 -0.8163735
0.006296429 -0.032341808 -0.40364107 -0.47980857 -1.3751518 0.0036197945 -2.2238328 -0.09831696
-0.08404245 -0.056557283 -1.8085269 -0.039115693 1.2040869 -0.0120357135 -0.1166835 0.75143844
-2.3990717 -2.7892272 0.6609956 -0.3975405 -0.07722105 0.002942713 0.10409678 0.2649252

output_layer.bias f4 [5]
00000000: 9436 56bc 13c6 e3bc ab93 653e e375 11be
00000010: d306 9a3b
-0.013074536 -0.02780441 0.22419612 -0.14205126 0.0047005205

exp_avg f4 [100, 2]
00000000: 7fa8 81b2 7fa8 81b2 cf77 c335 cf77 c335
00000010: 9d20 e535 9d20 e535 62e1 19b7 62e1 19b7
00000020: 25ca 7338 25ca 7338 aec8 98b5 aec8 98b5
00000030: 2b63 5436 2b63 5436 4b1a 3eb8 4b1a 3eb8
00000040: 7768 30b7 7768 30b7 149e 9e34 149e 9e34
00000050: f9d6 1935 f9d6 1935 ff9d 9336 ff9d 9336
00000060: e96f 1836 e96f 1836 a04d 5ab6 a04d 5ab6
00000070: 5d51 8f36 5d51 8f36 e1d0 0634 e1d0 0634
00000080: 6cc4 be36 6cc4 be36 9f3d 8938 9f3d 8938
00000090: 6752 45b5 6752 45b5 acbf dcb7 acbf dcb7
000000a0: 4b4d 17b6 4b4d 17b6 6eab 83b7 6eab 83b7
000000b0: fdbc c835 fdbc c835 5e87 2138 5e87 2138
000000c0: 0d2e abb4 0d2e abb4 9f99 97b6 9f99 97b6
000000d0: 2ddc 9136 2ddc 9136 f08e 7137 f08e 7137
000000e0: 82f1 1d35 82f1 1d35 a4ac 1fb6 a4ac 1fb6
000000f0: 8470 9cb4 8470 9cb4 d481 89b6 d481 89b6
00000100: 92ff 93b6 92ff 93b6 f404 f635 f404 f635
00000110: 57b7 60b8 57b7 60b8 581e fd37 581e fd37
00000120: 3b5b b9b6 3b5b b9b6 65e5 b335 65e5 b335
00000130: 39d1 ddb5 39d1 ddb5 ba08 b635 ba08 b635
00000140: 1302 8db5 1302 8db5 9512 1536 9512 1536
00000150: 28fd 2bb4 28fd 2bb4 2fe3 a2b6 2fe3 a2b6
00000160: 7843 2c38 7843 2c38 bfc7 6a38 bfc7 6a38
00000170: 3703 5ab8 3703 5ab8 e8cd 1437 e8cd 1437
00000180: 7a98 80b5 7a98 80b5 f71a 82b6 f71a 82b6
00000190: 7f72 7738 7f72 7738 6cfe 1237 6cfe 1237
000001a0: 0d4c 1436 0d4c 1436 f2e6 8336 f2e6 8336
000001b0: 8c4b f335 8c4b f335 e55b bf36 e55b bf36
000001c0: 7fc9 08b5 7fc9 08b5 d209 5038 d209 5038
000001d0: 06b5 33b6 06b5 33b6 b361 ca37 b361 ca37
000001e0: 259d 4038 259d 4038 7658 19b5 7658 19b5
000001f0: e674 d735 e674 d735 1887 fcb6 1887 fcb6
00000200: b22e 8537 b22e 8537 e16b b8b5 e16b b8b5
00000210: c3d1 ceb6 c3d1 ceb6 e3e9 d2b5 e3e9 d2b5
00000220: 0988 e1b5 0988 e1b5 ab9b 7638 ab9b 7638
00000230: dda2 fbb5 dda2 fbb5 d4aa 0336 d4aa 0336
00000240: 833a 41b6 833a 41b6 7c7f d7b6 7c7f d7b6
00000250: a549 5938 a549 5938 521c 7336 521c 7336
00000260: b2c5 3736 b2c5 3736 9039 c535 9039 c535
00000270: ed3b 3a37 ed3b 3a37 a8c3 7bb6 a8c3 7bb6
00000280: 0b17 01b5 0b17 01b5 f97b 8d38 f97b 8d38
00000290: 8b8e 2838 8b8e 2838 0f05 5cb4 0f05 5cb4
000002a0: 7c9e bb36 7c9e bb36 4e70 5535 4e70 5535
000002b0: 5be6 43b7 5be6 43b7 1112 70b5 1112 70b5
000002c0: 599c beb6 599c beb6 9794 b6b8 9794 b6b8
000002d0: f747 1135 f747 1135 14b9 1ab8 14b9 1ab8
000002e0: 00e2 7b35 00e2 7b35 1f75 9738 1f75 9738
000002f0: cf9b 5636 cf9b 5636 09d9 8833 09d9 8833
00000300: 45b0 95b8 45b0 95b8 d713 1938 d713 1938
00000310: ec01 d1b4 ec01 d1b4 1962 2eb6 1962 2eb6
-1.50942e-08 -1.50942e-08 1.4563501e-06 1.4563501e-06 1.7071321e-06 1.7071321e-06 -9.171987e-06 -9.171987e-06
5.8123976e-05 5.8123976e-05 -1.1383288e-06 -1.1383288e-06 3.1648185e-06 3.1648185e-06 -4.5324017e-05 -4.5324017e-05
-1.051474e-05 -1.051474e-05 2.954481e-07 2.954481e-07 5.730977e-07 5.730977e-07 4.3993346e-06 4.3993346e-06
2.2714905e-06 2.2714905e-06 -3.2529715e-06 -3.2529715e-06 4.271204e-06 4.271204e-06 1.2555712e-07 1.2555712e-07
5.6853078e-06 5.6853078e-06 6.544147e-05 6.544147e-05 -7.350813e-07 -7.350813e-07 -2.6315298e-05 -2.6315298e-05
-2.2545744e-06 -2.2545744e-06 -1.5696245e-05 -1.5696245e-05 1.4956164e-06 1.4956164e-06 3.851146e-05 3.851146e-05
-3.1884738e-07 -3.1884738e-07 -4.5180345e-06 -4.5180345e-06 4.3469686e-06 4.3469686e-06 1.4398e-05 1.4398e-05
5.88385e-07 5.88385e-07 -2.3793336e-06 -2.3793336e-06 -2.913913e-07 -2.913913e-07 -4.098032e-06 -4.098032e-06
-4.4106937e-06 -4.4106937e-06 1.832987e-06 1.832987e-06 -5.357651e-05 -5.357651e-05 3.017408e-05 3.017408e-05
-5.5240503e-06 -5.5240503e-06 1.3403302e-06 1.3403302e-06 -1.6526675e-06 -1.6526675e-06 1.3562596e-06 1.3562596e-06
-1.0505922e-06 -1.0505922e-06 2.2213546e-06 2.2213546e-06 -1.6017714e-07 -1.6017714e-07 -4.854424e-06 -4.854424e-06
4.107083e-05 4.107083e-05 5.5975976e-05 5.5975976e-05 -5.1978244e-05 -5.1978244e-05 8.869429e-06 8.869429e-06
-9.58112e-07 -9.58112e-07 -3.877441e-06 -3.877441e-06 5.8996022e-05 5.8996022e-05 8.761515e-06 8.761515e-06
2.2097986e-06 2.2097986e-06 3.93099e-06 3.93099e-06 1.8126898e-06 1.8126898e-06 5.7029415e-06 5.7029415e-06
-5.0957163e-07 -5.0957163e-07 4.960021e-05 4.960021e-05 -2.6778448e-06 -2.6778448e-06 2.4125771e-05 2.4125771e-05
4.592272e-05 4.592272e-05 -5.712567e-07 -5.712567e-07 1.605277e-06 1.605277e-06 -7.525912e-06 -7.525912e-06
1.587658e-05 1.587658e-05 -1.3740465e-06 -1.3740465e-06 -6.163698e-06 -6.163698e-06 -1.5714289e-06 -1.5714289e-06
-1.6803398e-06 -1.6803398e-06 5.8795948e-05 5.8795948e-05 -1.8748357e-06 -1.8748357e-06 1.9619956e-06 1.9619956e-06
-2.87933e-06 -2.87933e-06 -6.4223404e-06 -6.4223404e-06 5.180542e-05 5.180542e-05 3.6226306e-06 3.6226306e-06
2.7384199e-06 2.7384199e-06 1.4694397e-06 1.4694397e-06 1.11004165e-05 1.11004165e-05 -3.7515802e-06 -3.7515802e-06
-4.8089777e-07 -4.8089777e-07 6.746496e-05 6.746496e-05 4.0187075e-05 4.0187075e-05 -2.0490937e-07 -2.0490937e-07
5.5914843e-06 5.5914843e-06 7.951211e-07 7.951211e-07 -1.16765395e-05 -1.16765395e-05 -8.943326e-07 -8.943326e-07
-5.6806425e-06 -5.6806425e-06 -8.706113e-05 -8.706113e-05 5.412143e-07 5.412143e-07 -3.688883e-05 -3.688883e-05
9.383366e-07 9.383366e-07 7.2220566e-05 7.2220566e-05 3.1979177e-06 3.1979177e-06 6.372472e-08 6.372472e-08
-7.1377064e-05 -7.1377064e-05 3.649652e-05 3.649652e-05 -3.8930682e-07 -3.8930682e-07 -2.598512e-06 -2.598512e-06

exp_avg_sq f4 [100, 2]
00000000: 448a 382f 448a 382f d6f9 3130 d6f9 3130
00000010: 7b54 8b30 7b54 8b30 16f7 8233 16f7 8233
00000020: 98ca df39 98ca df39 7e2f 572f 7e2f 572f
00000030: 39b1 ad30 39b1 ad30 2d86 c739 2d86 c739
00000040: 70f1 9a31 70f1 9a31 062e 4830 062e 4830
00000050: 882a eb2f 882a eb2f 4bb3 5238 4bb3 5238
00000060: 20fc 4e30 20fc 4e30 c2f2 9430 c2f2 9430
00000070: d40f 7531 d40f 7531 873c 552f 873c 552f
00000080: 302c a830 302c a830 2a4f 103a 2a4f 103a
00000090: c404 dc30 c404 dc30 067f 1939 067f 1939
000000a0: 984c 1030 984c 1030 f1e9 b238 f1e9 b238
000000b0: 1a52 b330 1a52 b330 1f7d d039 1f7d d039
000000c0: 2617 d82f 2617 d82f caf7 2731 caf7 2731
000000d0: 7214 6a30 7214 6a30 746e 0639 746e 0639
000000e0: 6bb2 0b2f 6bb2 0b2f 53cd 0430 53cd 0430
000000f0: c7bc e930 c7bc e930 a0c5 6430 a0c5 6430
00000100: 81b9 2331 81b9 2331 6b2a 322f 6b2a 322f
00000110: 7ea2 be39 7ea2 be39 d702 fd38 d702 fd38
00000120: b5b9 7930 b5b9 7930 8e01 8230 8e01 8230
00000130: def4 8030 def4 8030 cf56 f630 cf56 f630
00000140: ba2e 432f ba2e 432f 5c19 cb30 5c19 cb30
00000150: 5866 5631 5866 5631 3296 4b30 3296 4b30
00000160: 88b3 fd39 88b3 fd39 1366 033a 1366 033a
00000170: a0e9 c039 a0e9 c039 7b0b f931 7b0b f931
00000180: d88f 3730 d88f 3730 441e f037 441e f037
00000190: 3c45 063a 3c45 063a df27 2b38 df27 2b38
000001a0: 7adf 1f30 7adf 1f30 5dd3 5a30 5dd3 5a30
000001b0: aacd 1830 aacd 1830 fca9 b230 fca9 b230
000001c0: 03e1 f030 03e1 f030 50ea fe39 50ea fe39
000001d0: 7df2 0731 7df2 0731 5ab4 4e39 5ab4 4e39
000001e0: d786 f239 d786 f239 b4a7 0730 b4a7 0730
000001f0: 8079 1832 8079 1832 0119 4331 0119 4331
00000200: 82ec 2b39 82ec 2b39 778a e52f 778a e52f
00000210: 3dea aa38 3dea aa38 edf2 8c2f edf2 8c2f
00000220: 613b 7e2f 613b 7e2f 2319 043a 2319 043a
00000230: b837 dd2f b837 dd2f 34e0 f22f 34e0 f22f
00000240: 8d28 b630 8d28 b630 3925 2730 3925 2730
00000250: 5fd7 083a 5fd7 083a 132f 2d30 132f 2d30
00000260: 0693 5d38 0693 5d38 cf34 1e30 cf34 1e30
00000270: d310 9c31 d310 9c31 d950 e730 d950 e730
00000280: d35d 0630 d35d 0630 1f6e ee39 1f6e ee39
00000290: e3fd d039 e3fd d039 a95f 952f a95f 952f
000002a0: e46c a931 e46c a931 466e 2b30 466e 2b30
000002b0: 9881 a638 9881 a638 99be 9c2f 99be 9c2f
000002c0: 6dc1 9030 6dc1 9030 c4db 833a c4db 833a
000002d0: 0fa7 5530 0fa7 5530 3afd 9639 3afd 9639
000002e0: 7e63 1630 7e63 1630 1b74 083a 1b74 083a
000002f0: 3ed4 2d30 3ed4 2d30 ff56 2230 ff56 2230
00000300: c8e0 df39 c8e0 df39 3ea9 8739 3ea9 8739
00000310: f7af f62f f7af f62f 592e dc30 592e dc30
1.6783824e-10 1.6783824e-10 6.4747263e-10 6.4747263e-10 1.0137592e-09 1.0137592e-09 6.0985414e-08 6.0985414e-08
0.0004268482 0.0004268482 1.9571009e-10 1.9571009e-10 1.2637776e-09 1.2637776e-09 0.00038056207 0.00038056207
4.509438e-09 4.509438e-09 7.282498e-10 7.282498e-10 4.277647e-10 4.277647e-10 5.023488e-05 5.023488e-05
7.5300655e-10 7.5300655e-10 1.0837413e-09 1.0837413e-09 3.566119e-09 3.566119e-09 1.9393741e-10 1.9393741e-10
1.2236168e-09 1.2236168e-09 0.00055049604 0.00055049604 1.6008461e-09 1.6008461e-09 0.00014638537 0.00014638537
5.249574e-10 5.249574e-10 8.5312764e-05 8.5312764e-05 1.3047299e-09 1.3047299e-09 0.00039766074 0.00039766074
3.930662e-10 3.930662e-10 2.444255e-09 2.444255e-09 8.515776e-10 8.515776e-10 0.00012820383 0.00012820383
1.2705363e-10 1.2705363e-10 4.8313104e-10 4.8313104e-10 1.7006635e-09 1.7006635e-09 8.322676e-10 8.322676e-10
2.3825069e-09 2.3825069e-09 1.6204076e-10 1.6204076e-10 0.0003636069 0.0003636069 0.00012064509 0.00012064509
9.084958e-10 9.084958e-10 9.459187e-10 9.459187e-10 9.382821e-10 9.382821e-10 1.7923528e-09 1.7923528e-09
1.7751747e-10 1.7751747e-10 1.4777402e-09 1.4777402e-09 3.1199274e-09 3.1199274e-09 7.406441e-10 7.406441e-10
0.00048389682 0.00048389682 0.00050124637 0.00050124637 0.00036795158 0.00036795158 7.248159e-09 7.248159e-09
6.6779426e-10 6.6779426e-10 2.8624323e-05 2.8624323e-05 0.0005122011 0.0005122011 4.080671e-05 4.080671e-05
5.816144e-10 5.816144e-10 7.9608303e-10 7.9608303e-10 5.5589544e-10 5.5589544e-10 1.2999517e-09 1.2999517e-09
1.752625e-09 1.752625e-09 0.00048621232 0.00048621232 1.9782924e-09 1.9782924e-09 0.00019712877 0.00019712877
0.000462583 0.000462583 4.9351034e-10 4.9351034e-10 8.87519e-09 8.87519e-09 2.8390448e-09 2.8390448e-09
0.00016395937 0.00016395937 4.1753243e-10 4.1753243e-10 8.149862e-05 8.149862e-05 2.563846e-10 2.563846e-10
2.3122261e-10 2.3122261e-10 0.0005039146 0.0005039146 4.0239256e-10 4.0239256e-10 4.417885e-10 4.417885e-10
1.3253768e-09 1.3253768e-09 6.080714e-10 6.080714e-10 0.0005220081 0.0005220081 6.300393e-10 6.300393e-10
5.2827432e-05 5.2827432e-05 5.755511e-10 5.755511e-10 4.5421102e-09 4.5421102e-09 1.683044e-09 1.683044e-09
4.888225e-10 4.888225e-10 0.00045476944 0.00045476944 0.00039862012 0.00039862012 2.7170913e-10 2.7170913e-10
4.930927e-09 4.930927e-09 6.2366146e-10 6.2366146e-10 7.9396355e-05 7.9396355e-05 2.8511662e-10 2.8511662e-10
1.0532354e-09 1.0532354e-09 0.0010060002 0.0010060002 7.7726353e-10 7.7726353e-10 0.00028798898 0.00028798898
5.471107e-10 5.471107e-10 0.00052052893 0.00052052893 6.323865e-10 6.323865e-10 5.9058886e-10 5.9058886e-10
0.0004270135 0.0004270135 0.00025875302 0.00025875302 4.487217e-10 4.487217e-10 1.602028e-09 1.602028e-09
