TSTE-R/SYNC/ProposedTaylor/save_model_0226.ckpt-3350000.pt (torch, 266774 bytes, 24 tensors)

linears.0.weight f4 [100, 6]
-1.2377677 -1.388603 -0.9022778 -0.8614008 -0.8003376 -1.0230923 0.1250424 0.30452746
0.28715175 -0.04563991 0.0467358 -0.21046737 5.6298122 5.5784664 5.955751 5.5975347
5.8922014 5.9474115 -2.3051095 -2.0492961 -2.0992014 -2.2054558 -2.2852921 -2.1650724
1.9806372 1.6986786 1.6685982 1.5736431 1.6917818 1.5601546 -6.2649975 -6.2552366
-6.3462906 -6.0734925 -6.1584134 -5.933531 -4.3039327 -4.266707 -4.1267796 -4.1690435
-3.889918 -4.1057315 -3.686309 -3.6746502 -3.5800273 -3.6303918 -3.6819634 -3.5943556
7.4050684 7.383473 7.522294 7.5624084 7.157282 7.2561736 -4.6923904 -5.0245566
-4.877051 -4.8833523 -4.7673073 -4.9954977 -3.2545192 -3.2504175 -3.0141706 -3.0373626
-3.1150837 -3.223106 -8.328332 -8.421126 -8.280146 -8.416384 -8.675119 -8.65594
8.716969 8.710473 8.943881 9.084184 8.835634 9.007779 3.2195103 3.3973944
3.0337393 3.3053603 3.0782363 3.2947273 7.0586495 6.9316216 7.282114 7.221475
7.3599353 7.0222917 9.907193 10.127284 10.190959 9.820597 9.952468 10.10254
4.7160964 4.3928146 4.4377007 4.62566 4.7769785 4.4972544 -6.9528027 -6.9401393
-7.3767757 -7.1635838 -7.2272587 -7.3243713 5.786605 5.670542 5.514096 5.8454685
5.776269 5.5512238 2.0577898 1.9875894 1.864947 2.014992 2.0943463 1.9299053
-7.202908 -7.240847 -7.3575416 -7.2702627 -7.453114 -7.3742337 -4.7503405 -4.6047544
-4.49899 -4.455073 -4.691257 -4.523255 7.854376 7.6877985 7.9735475 7.871186
7.758542 7.7930207 -1.02033 -0.922494 -0.8888865 -0.7422961 -0.51027036 -0.5560232
7.020898 6.740732 6.778063 6.9481654 6.780787 7.0086994 -2.7100003 -2.5481064
-2.9868586 -2.7120466 -2.7830305 -2.8417141 -6.46699 -6.4019833 -6.820292 -6.5095406
-6.4139614 -6.584397 5.100605 5.3283505 5.3542004 5.0984383 5.1879816 5.530208
-7.2331414 -7.1624384 -7.3026576 -7.182316 -7.102332 -7.0282125 9.8335705 9.562589
9.891594 9.723408 9.610233 9.806835 1.1840917 1.2274323 1.2989724 1.1457952
1.2947947 1.2166193 -0.2480767 -0.33333072 -0.106995285 0.07286726 0.100929625 0.046525262
0.23612474 0.6079547 0.10018904 0.08296725 -0.19175988 -0.0981948 1.075883 1.1558483
1.077073 0.9580007 1.0025988 0.76245195 -3.6336796 -3.2912376 -3.3657615 -3.576829
-3.4358737 -3.671316 -6.6719236 -6.897111 -6.6613293 -6.9818854 -6.960475 -6.687842
-7.5499244 -7.400162 -7.4962573 -7.402865 -7.375168 -7.6282454 0.018926777 0.09508112
0.15841827 -0.036918975 0.015834216 -0.09223931 8.963873 9.131084 9.137026 8.941844
8.943966 8.986085 3.0650134 3.0584934 2.808489 3.00925 3.210337 2.9810247
-1.2503667 -1.2303073 -1.1337601 -1.1878955 -1.303436 -1.2799013 8.234773 8.668897
8.538147 8.422858 8.321838 8.581705 -6.8685784 -7.2090936 -6.9015493 -6.98854
00000000: 2c6f 9ebf bebd b1bf aefb 66bf c384 5cbf
00000010: ede2 4cbf b0f4 82bf 1d0b 003e 06eb 9b3e
00000020: 8e05 933e eaf0 3abd 0a6e 3f3d c284 57be
00000030: 6c27 b440 cc82 b240 8395 be40 011f b340
00000040: ea8c bc40 3251 be40 ea86 13c0 ab27 03c0
00000050: 5159 06c0 3026 0dc0 3a42 12c0 8c90 0ac0
00000060: 8585 fd3f 4d6e d93f a094 d53f 236d c93f
00000070: 4e8c d83f 25b3 c73f dc7a c8c0 e62a c8c0
00000080: d014 cbc0 0d5a c2c0 b911 c5c0 7cdf bdc0
00000090: d1b9 89c0 dd88 88c0 940e 84c0 ce68 85c0
000000a0: 6bf4 78c0 2762 83c0 7dec 6bc0 782d 6bc0
000000b0: 2b1f 65c0 5758 68c0 4aa5 6bc0 ec09 66c0
000000c0: 52f6 ec40 6945 ec40 a2b6 f040 40ff f140
000000d0: 7408 e540 9332 e840 1028 96c0 2bc9 a0c0
000000e0: cd10 9cc0 6c44 9cc0 c88d 98c0 1edb 9fc0
000000f0: 0b4a 50c0 d706 50c0 2ce8 40c0 2664 42c0
00000100: 885d 47c0 5e47 4ec0 d940 05c1 efbc 06c1
00000110: 7a7b 04c1 82a9 06c1 4acd 0ac1 bb7e 0ac1
00000120: b478 0b41 195e 0b41 231a 0f41 d158 1141
00000130: c25e 0d41 dd1f 1041 750c 4e40 e96e 5940
00000140: c928 4240 068b 5340 d301 4540 d0dc 5240
00000150: 75e0 e140 d8cf dd40 1407 e940 5316 e740
00000160: 9784 eb40 9db6 e040 dd83 1e41 5b09 2241
00000170: 2b0e 2341 2a21 1d41 4f3d 1f41 01a4 2141
00000180: 43ea 9640 f091 8c40 a501 8e40 6805 9440
00000190: 02dd 9840 82e9 8f40 5c7d dec0 9f15 dec0
000001a0: 8c0e ecc0 143c e5c0 b445 e7c0 4061 eac0
000001b0: de2b b940 1475 b540 7973 b040 140e bb40
000001c0: 32d7 b840 a0a3 b140 d4b2 0340 5469 fe3f
000001d0: 95b6 ee3f a1f5 0040 c509 0640 2307 f73f
000001e0: 397e e6c0 05b5 e7c0 fb70 ebc0 fea5 e8c0
000001f0: e97f eec0 b9f9 ebc0 ca02 98c0 265a 93c0
00000200: baf7 8fc0 f58f 8ec0 c71e 96c0 81be 90c0
00000210: 0c57 fb40 7202 f640 4d27 ff40 c1e0 fb40
00000220: fa45 f840 6d60 f940 2c9a 82bf 9128 6cbf
00000230: 118e 63bf 1e07 3ebf 14a1 02bf 8957 0ebf
00000240: 32ab e040 14b4 d740 e4e5 d840 5f57 de40
00000250: 35fc d840 4447 e040 a570 2dc0 2d14 23c0
00000260: b128 3fc0 2c92 2dc0 2c1d 32c0 a5de 35c0
00000270: 95f1 cec0 0cdd ccc0 d53f dac0 284e d0c0
00000280: 2c3f cdc0 61b3 d2c0 2838 a340 d981 aa40
00000290: 9c55 ab40 6826 a340 f203 a640 77f7 b040
000002a0: e575 e7c0 b232 e5c0 5faf e9c0 88d5 e5c0
000002b0: 4e46 e3c0 1ee7 e0c0 4e56 1d41 5d00 1941
000002c0: f843 1e41 1493 1b41 84c3 1941 cce8 1c41
000002d0: 5190 973f 801c 9d3f ba44 a63f 6ba9 923f
000002e0: d5bb a53f 2eba 9b3f d207 7ebe 53aa aabe
000002f0: 5820 dbbd 6e3b 953d 31b4 ce3d 4691 3e3d
00000300: afca 713e eba2 1b3f e92f cd3d bcea a93d
00000310: b45c 44be 5b1a c9bd 89b6 893f d6f2 933f
00000320: 87dd 893f 893f 753f 2855 803f 0d30 433f
00000330: 358e 68c0 a3a3 52c0 a368 57c0 c4ea 64c0
00000340: 5be5 5bc0 d7f6 6ac0 6680 d5c0 22b5 dcc0
00000350: 9c29 d5c0 9b6b dfc0 36bc dec0 cd02 d6c0
00000360: fb98 f1c0 21ce ecc0 57e1 efc0 45e4 ecc0
00000370: 6001 ecc0 961a f4c0 540c 9b3c e4b9 c23d
00000380: 6638 223e 5a38 17bd c2b6 813c f7e7 bcbd
00000390: 066c 0f41 ec18 1241 4231 1241 cb11 0f41
000003a0: 7c1a 0f41 01c7 0f41 2e29 4440 5bbe 4340
000003b0: 49be 3340 8d97 4040 2976 4d40 1cc9 3e40
000003c0: 040c a0bf b67a 9dbf 0d1f 91bf f60c 98bf
000003d0: fed6 a6bf ced3 a3bf a1c1 0341 cdb3 0a41
000003e0: 409c 0841 07c4 0641 4026 0541 aa4e 0941
000003f0: 65cb dbc0 e5b0 e6c0 7ed9 dcc0 1fa2 dfc0

linears.0.bias f4 [100]
0.0070489137 -0.0033758597 -0.038549043 0.016878733 -0.012312859 0.21083085 0.068744026 0.028077804
-0.0086076455 0.039843608 0.024247957 0.30871606 0.052162968 -0.024484746 -0.003831051 0.011284346
-0.040098153 0.30786017 -0.0625662 -0.014894618 0.21994911 0.041352607 -0.005734621 0.004920755
-0.009679478 0.021793244 0.36405936 -0.046176676 0.22610414 0.026035314 -0.008966057 -0.005497461
0.00033579234 -0.006939136 0.026285917 0.264468 0.3393636 -0.0056084795 0.09446339 -0.02517365
0.0090141585 -0.029420407 0.24198484 -0.040028032 0.18966544 0.0888165 -0.027417144 -0.020654608
0.012225156 -0.028411841 0.15332595 -0.055302028 0.019783715 0.06446556 0.18327416 -0.015885867
0.2939982 0.728317 -0.038510658 -0.018889003 -0.032631915 -0.029481586 -0.026678432 -0.02229701
0.0023553448 0.08655864 -0.028027264 0.07405425 0.20450777 0.16290921 0.08731974 0.026379906
0.03442389 -0.02378773 0.033948444 -0.016769892 0.020542307 -0.025854504 0.2949547 0.031879567
0.03095923 -0.023440784 0.0705874 0.025465103 0.019031491 -0.045810387 0.20988187 -0.027846113
0.0056891916 0.022115892 -0.0056415717 0.34991792 0.4210365 0.011437321 0.009626345 -0.037916575
0.09302375 -0.033059414 0.13866453 -0.0008414655
00000000: 93fa e63b 873d 5dbb 9ae5 1dbd 4545 8a3c
00000010: e0bb 49bc 0be4 573e abc9 8c3d 6c03 e63c
00000020: 1507 0dbc 0d33 233d a7a3 c63c 0810 9e3e
00000030: d6a8 553d 3c94 c8bc 5f12 7bbb fae1 383c
00000040: f63d 24bd d99f 9d3e b522 80bd 8e08 74bc
00000050: 573a 613e 5a61 293d 7de9 bbbb 493e a13b
00000060: ac96 1ebc bf87 b23c fd65 ba3e c123 3dbd
00000070: d887 673e 0348 d53c 5ee6 12bc 0c24 b4bb
00000080: 490d b039 b161 e3bb 9055 d73c 5a68 873e
00000090: 11c1 ad3e 56c7 b7bb 0676 c13d f838 cebc
000000a0: 1fb0 133c 1103 f1bc e0ca 773e 6ff4 23bd
000000b0: a837 423e 6de5 b53d eb99 e0bc da33 a9bc
000000c0: 054c 483c f3bf e8bc 7a01 1d3e 6184 62bd
000000d0: 7511 a23c 8506 843d 39ac 3b3e 1423 82bc
000000e0: ef86 963e fc72 3a3f 5abd 1dbd 1cbd 9abc
000000f0: 0ba9 05bd 5e83 f1bc ba8c dabc 38a8 b6bc
00000100: 215c 1a3b a845 b13d 6f99 e5bc c1a9 973d
00000110: 7c6a 513e acd1 263e b1d4 b23d ac1a d83c
00000120: 1100 0d3d 7cde c2bc 860d 0b3d 0361 89bc
00000130: 5748 a83c d3cc d3bc 4d04 973e 2694 023d
00000140: 369e fd3c e306 c0bc 2090 903d 319c d03c
00000150: eee7 9b3c aca3 3bbd 46eb 563e 881d e4bc
00000160: 666c ba3b 632c b53c efdc b8bb 7128 b33e
00000170: 1992 d73e 9a63 3b3c d1b7 1d3c 694e 1bbd
00000180: 3c83 be3d 4f69 07bd 13fe 0d3e cb95 5cba

linears.1.weight f4 [100, 100]
0.43052334 -0.46633628 0.041990865 0.4190754 -0.15068135 0.16344038 -0.17523292 0.041773677
-0.027833762 0.07711524 0.18275107 -0.016654847 0.113138355 0.019765653 0.16250011 0.017137032
-0.19403653 -0.2285469 -0.13368095 -0.113910675 -0.065328024 0.1611017 0.1289746 0.74371564
-0.102651484 0.21894221 -0.14097862 -0.32261115 -0.10077505 0.048997868 -0.11510044 0.16270155
-0.5324325 -0.32699835 0.1933791 0.08044386 -0.11138028 -0.28041115 0.16107556 -0.097534426
0.49001524 0.0069925766 0.03995499 -0.0102884285 0.008316239 0.240539 -0.09531554 0.002472739
0.2857265 -0.16712698 0.05413251 -0.101504624 0.078320496 0.1242798 0.019845286 -0.4159923
-0.17570831 0.41133562 -0.007848715 -0.27421722 -0.21785447 -0.09857244 -0.10102665 -0.12801073
0.29555714 -0.0040008123 -0.22673789 0.30447254 -0.014195441 0.13430044 0.1950878 -0.0012750189
0.08390098 -0.3065482 0.1618681 -0.25697815 0.38800222 -0.047388997 -0.18129623 -0.10943188
0.2333266 -0.15954638 0.14419034 0.0896998 0.37034214 -0.1837245 0.012972478 -0.038000904
0.7652601 0.51728773 -0.078874364 -0.2694182 -0.12051182 0.4794122 0.4270941 -0.020353079
0.103520155 -0.0024785171 -0.026611581 -0.317902 0.091148235 0.059953555 -0.0040136273 0.18552446
-0.1433427 -0.082863264 0.02649898 0.16066918 -0.15134431 0.22618727 -0.055622585 -0.041169994
0.022718497 0.08247895 0.09181364 0.11675215 0.01568083 -0.09433004 0.35027513 -0.08528682
0.10933432 0.045681834 0.1317369 0.1610492 -0.12323823 0.25774637 -0.07609945 0.17354861
-0.12003485 -0.003887163 0.15006946 0.07782117 -0.040063314 0.093119524 -0.04761992 -0.24591103
-0.17186324 -0.028508483 0.019004378 -0.2359992 0.21570586 0.19967052 0.0921496 0.03649034
-0.0194573 0.1380929 0.030538615 -0.09075583 0.09502812 0.0825385 -0.3286666 0.35651922
0.048560943 0.12879512 0.14999162 -0.2822098 -0.21531858 -0.70419586 0.094136775 -0.04360508
-0.14688742 0.1324863 -0.13532269 -0.0028404912 0.18693137 -0.08571083 -0.04748879 -0.3342118
0.0686844 -0.184043 -0.13660379 0.03244637 0.28559786 -0.22891912 0.1217381 -0.15480603
0.22599268 -0.1728978 -0.042732816 -0.26135445 0.07176653 -0.30567303 -0.070046306 0.30600438
0.36276245 0.25710675 -0.06430135 -0.073310375 0.17510676 0.47867504 0.23062868 -0.12846309
-0.2245548 0.14037517 -0.098455355 0.15743354 0.070307285 0.05854606 -0.11814493 -0.13334487
0.11916728 -0.013165023 -0.99917775 -0.15011363 0.097785495 0.826074 0.12275667 0.61992437
-2.7064798 0.28692156 0.4004689 1.8897263 -2.3849921 -0.40631998 -2.2220368 -8.197802
-0.14685345 1.5014629 -0.93834984 0.06771447 2.1049728 0.14845474 -3.6036582 0.31473187
-2.103377 -0.23687823 1.0838003 -0.418652 1.4955212 -6.4283037 0.12961893 0.057844102
-0.067898095 -0.05767663 0.5748839 1.2827104 1.184422 -0.024441654 -2.220673 -0.21745656
0.28410566 -8.259375 1.1953632 -1.7657561 0.5144902 0.39888984 -3.253015 -0.07786292
0.011947071 -7.354932 -1.1883864 -9.281195 -1.6393658 -5.2385135 1.4715803 -0.11573956
00000000: 8e6d dc3e a1c3 eebe 9dfe 2b3d 0d91 d63e
00000010: 364c 1abe ea5c 273e 4270 33be e01a 2b3d
00000020: a103 e4bc 98ee 9d3d 1923 3b3e bf6f 88bc
00000030: 15b5 e73d 94eb a13c 6e66 263e f662 8c3c
00000040: 83b1 46be 3308 6abe a9e3 08be 004a e9bd
00000050: b3ca 85bd d8f7 243e eb11 043e 2664 3e3f
00000060: f13a d2bd 6332 603e b35c 10be 4a2d a5be
00000070: 2663 cebd fdb1 483d c8b9 ebbd 3c9b 263e
00000080: 7f4d 08bf 546c a7be 2c05 463e c0bf a43d
00000090: 581b e4bd 0d92 8fbe fef0 243e 21c0 c7bd
000000a0: 47e3 fa3e fc21 e53b d8a7 233d cc90 28bc
000000b0: d640 083c db4f 763e cb34 c3bd ad0d 223b
000000c0: be4a 923e 5623 2bbe 0dba 5d3d a8e1 cfbd
000000d0: 7f66 a03d 6886 fe3d 9592 a23c f1fc d4be
000000e0: e1ec 33be 959a d23e e697 00bc 3366 8cbe
000000f0: 3e15 5fbe 59e0 c9bd 0fe7 cebd 3f15 03be
00000100: 4453 973e 3f19 83bb fa2d 68be d3e3 9b3e
00000110: ff93 68bc 0e86 093e 19c5 473e 891e a7ba
00000120: 47d4 ab3d e3f3 9cbe c0c0 253e a492 83be
00000130: 3aa8 c63e f71a 42bd b8a5 39be d21d e0bd
00000140: 2bed 6e3e 2060 23be a2a6 133e 87b4 b73d
00000150: 7c9d bd3e 4622 3cbe 848a 543c d6a6 1bbd
00000160: 16e8 433f f86c 043f e288 a1bd 2ff1 89be
00000170: e7ce f6bd 8475 f53e 14ac da3e 80bb a6bc
00000180: 6002 d43d 9e6e 22bb 8800 dabc 0dc4 a2be
00000190: edab ba3d dc91 753d bf84 83bb 20fa 3d3e
000001a0: 6ec8 12be 37b4 a9bd 6414 d93c 7686 243e
000001b0: 01fa 1abe a39d 673e 82d4 63bd dea1 28bd
000001c0: 241c ba3c b9ea a83d ca08 bc3d c01b ef3d
000001d0: 1675 803c 1c30 c1bd 4357 b33e dbaa aebd
000001e0: acea df3d e01c 3b3d 0ae6 063e 15ea 243e
000001f0: 5364 fcbd 55f7 833e 07da 9bbd bab6 313e
00000200: d5d4 f5bd c6bf 7ebb cfab 193e b560 9f3d
00000210: 6e19 24bd 73b5 be3d 1b0d 43bd 1ad0 7bbe
00000220: ebfc 2fbe 9f8a e9bc 12af 9b3c c6a9 71be
00000230: ffe1 5c3e 6e76 4c3e eeb8 bc3d e576 153d
00000240: ea64 9fbc 3a68 0d3e 1e2c fa3c 31de b9bd
00000250: 1a9e c23d f209 a93d fd46 a8be b089 b63e
00000260: d7e7 463d dee2 033e 6797 193e ce7d 90be
00000270: 797c 5cbe 2e46 34bf c8ca c03d 3e9b 32bd
00000280: a869 16be 7daa 073e 0892 0abe 8927 3abb
00000290: f06a 3f3e 2989 afbd 9b83 42bd cf1d abbe
000002a0: 68aa 8c3d c575 3cbe dde1 0bbe 7ce6 043d
000002b0: e239 923e c669 6abe d351 f93d 7985 1ebe
000002c0: a06a 673e 1f0c 31be 9b08 2fbd 40d0 85be
000002d0: 55fa 923d 2d81 9cbe 7074 8fbd 9bac 9c3e
000002e0: 00bc b93e 7fa3 833e 6db0 83bd c023 96bd
000002f0: 304f 333e e514 f53e ed29 6c3e d48b 03be
00000300: b2f1 65be 82be 0f3e f6a2 c9bd 4236 213e
00000310: 44fd 8f3d fecd 6f3d f8f5 f1bd 8f8b 08be
00000320: fa0d f43d 1cb2 57bc 1dca 7fbf 63b7 19be
00000330: c343 c83d 9679 533f d967 fb3d 5db3 1e3f
00000340: f736 2dc0 62e7 923e 420a cd3e 8de2 f13f
00000350: b6a3 18c0 2c09 d0be da35 0ec0 322a 03c1
00000360: c060 16be f02f c03f b237 70bf e2ad 8a3d
00000370: e0b7 0640 8504 183e 56a2 66c0 8924 a13e
00000380: bb9d 06c0 3590 72be f8b9 8a3f 8e59 d6be
00000390: 3d6d bf3f aab4 cdc0 d3ba 043e f0ed 6c3d
000003a0: 280e 8bbd 543e 6cbd 972b 133f db2f a43f
000003b0: 249b 973f dd39 c8bc 821f 0ec0 efac 5ebe
000003c0: 4c76 913e 6626 04c1 a901 993f 4c04 e2bf
000003d0: a1b5 033f 4a3b cc3e 6631 50c0 9876 9fbd
000003e0: a6bd 433c 9a5b ebc0 0c1d 98bf c67f 14c1
000003f0: bdd6 d1bf e7a1 a7c0 be5c bc3f dd08 edbd

linears.1.bias f4 [100]
-0.15066803 -0.6611623 -0.12615032 -0.0036832318 0.061188653 -0.0061110244 -0.03248193 -0.08240601
0.22160628 0.055786572 -0.11291975 -0.18412586 -0.21789256 -0.16483149 -0.24201262 0.22639321
-0.049763016 -0.04482606 -0.10652451 -0.16455276 -0.7324259 -0.6895606 0.26824406 0.07544437
0.01886554 0.72191346 0.07754209 -1.0108873 -0.16714464 -0.059926935 0.31346565 0.10704381
0.26878992 0.19202277 0.047703568 -0.17739525 -0.076503776 0.01732649 0.37110633 -0.0934392
0.22577997 -0.2565755 -0.08103227 -0.26239473 -0.16456401 -0.18708168 0.04677626 0.09302665
-0.6981893 -0.23636375 -0.91355044 0.026713895 0.12288411 0.2956357 -0.25711173 -0.1656956
-0.055252645 0.36269128 0.28381097 0.17340994 -0.0047981595 -0.4601774 -0.013626779 -0.0066072214
-0.011464094 -0.008942581 0.41924167 0.1540421 -0.39584407 -0.06514397 -0.79924124 -0.49640045
0.15985413 0.3784001 -0.10400971 0.07286626 -0.10234701 0.058291897 -0.275001 0.047846306
0.3395699 0.06553892 -0.06663862 -0.0970291 -0.21428801 -0.24509257 0.35102344 -0.22164114
-0.23054886 -0.41888943 0.475676 -0.0767086 -0.072723486 -0.28329447 -0.29157594 0.0884984
0.32102597 -0.89680284 0.08735122 0.0061440053
00000000: b848 1abe ef41 29bf 8d2d 01be 6062 71bb
00000010: f4a0 7a3d fd3e c8bb c60b 05bd 7bc4 a8bd
00000020: c2ec 623e 7680 643d 7842 e7bd 7d8b 3cbe
00000030: 3a1f 5fbe 96c9 28be 28d2 77be 9fd3 673e
00000040: 4ed4 4bbd 889b 37bd 8629 dabd 8580 28be
00000050: 4480 3bbf 0b87 30bf 4957 893e 9482 9a3d
00000060: e88b 9a3c 52cf 383f 63ce 9e3d c164 81bf
00000070: f727 2bbe f275 75bd 927e a03e c939 db3d
00000080: d59e 893e 9ea1 443e d164 433d 1aa7 35be
00000090: 03ae 9cbd 48f0 8d3c a601 be3e 0d5d bfbd
000000a0: dd32 673e dd5d 83be 3ff4 a5bd 9a58 86be
000000b0: 7883 28be 5792 3fbe 7798 3f3d c284 be3d
000000c0: 89bc 32bf 5709 72be 71de 69bf 19d7 da3c
000000d0: aaaa fb3d 905d 973e 26a4 83be 1bac 29be
000000e0: 9950 62bd acb2 b93e ac4f 913e 6092 313e
000000f0: e139 9dbb 5f9c ebbe db42 5fbc 6481 d8bb
00000100: e5d3 3bbc e783 12bc d8a6 d63e 36bd 1d3e
00000110: 13ac cabe 346a 85bd 139b 4cbf 3328 febe
00000120: cdb0 233e a8bd c13e 0b03 d5bd e83a 953d
00000130: 4f9b d1bd 7cc3 6e3d eecc 8cbe 7dfa 433d
00000140: 1bdc ad3e 4539 863d d479 88bd 31b7 c6bd
00000150: 516e 5bbe 8cf9 7abe 58b9 b33e e5f5 62be
00000160: 0015 6cbe ad78 d6be ce8b f33e 6619 9dbd
00000170: 0df0 94bd f90b 91be 7149 95be a63e b53d
00000180: 845d a43e df94 65bf 32e5 b23d a753 c93b

linears.2.weight f4 [100, 100]
0.0037716338 -0.0666839 -0.049780816 -0.019038567 -0.016801808 -0.05285696 0.107906565 0.0035930004
-0.06735883 -0.05575218 0.25421005 -0.044762563 -0.026982363 0.2836765 -0.014507298 -0.06215658
-0.12922181 -0.06428182 0.023037037 0.021427432 0.011504746 -0.11653591 0.14081666 -0.0939501
0.089128636 -0.03385018 -0.13150519 0.07264168 -0.031137776 -0.09710125 0.08222091 -0.07027663
0.083951026 -0.0010304563 -0.02765215 0.094990745 0.14371836 -0.14029019 0.041498993 0.121540286
-0.061251666 0.30479315 0.19546385 -0.14751765 0.15241277 0.012977683 0.034774877 -0.22990057
0.05722835 0.06668806 -0.08553118 0.0024555859 0.19044806 -0.03213799 0.0571156 0.0090815425
-0.10597698 0.05174497 0.12402455 -0.06284416 0.029944718 0.30994967 -0.042358007 0.1531286
0.06622746 0.21288504 0.01284464 -0.0023712674 -0.13423532 -0.13047957 0.020425389 0.28041866
-0.010915096 -0.1974353 0.016376507 -0.05320173 -0.12690385 0.057113856 0.014727798 0.16108452
0.11335597 -0.056735475 -0.12319963 -0.027078388 0.0042020166 -0.08178007 0.15205123 0.019811329
0.068084925 -0.023607792 0.22073074 0.17560324 -0.13811389 0.006692661 -0.028312841 0.052099638
-0.047309935 -0.008723772 0.18339337 0.067298084 0.14504726 -0.09425764 0.118630335 0.74329376
-0.20712589 0.20587642 0.6861134 0.36105907 0.55372447 0.13698621 -0.15558319 0.44817495
0.08683924 0.2233329 0.29675746 1.2698898 0.21732233 0.3411816 0.1470005 0.2824373
0.061404716 0.21913075 0.03377473 0.7840753 0.037304882 0.743138 0.5518095 0.44511756
0.021476038 1.9151412 0.13509339 -0.23698962 0.2073914 -0.516582 0.2154955 0.77639097
-0.24559367 -0.22493955 0.17693406 -0.014905397 0.9913993 -0.5440233 0.21572888 0.31338906
1.4107579 -0.0069501637 1.5563304 0.402312 -0.021473017 0.39298525 -0.004951401 0.6449712
0.51486677 1.1075033 0.14054362 0.06841437 0.2344148 0.3427619 -0.32134324 0.54201907
0.9088795 0.43269607 0.5905507 1.0952119 0.49843737 1.312782 0.06358333 -0.3040681
0.10100167 -0.17426533 0.02372934 0.4660886 0.64074445 -0.022213971 0.87004966 -0.39555895
0.08832719 0.041037958 0.24056795 0.028248219 0.066240124 0.4460738 0.14940937 0.10011226
0.23874985 -0.26509336 0.53349644 0.07419533 0.32268837 -0.9528611 0.48577002 0.119994506
0.017854532 0.36140922 0.25709194 0.12932901 0.23715472 0.13045686 0.069101475 1.1586821
-0.0053897584 -0.19785118 0.3043941 -0.06121769 -0.044164777 0.33826977 -0.6802948 0.081807464
0.13751087 0.030778816 -0.15070766 -0.05021145 -0.0024153641 -0.2921546 0.043549556 -0.035121422
0.016354479 0.017057119 -0.02774814 -0.052868 0.016271887 -0.409229 -0.13236827 -0.1469207
-0.038996514 0.39753595 -0.075886115 0.13533202 0.0519752 -0.025265697 -0.16078545 -0.07255769
-0.15939127 -0.44090012 -0.18250005 0.58330506 -0.23053843 -0.1701848 -0.28316158 0.23871239
0.062464375 -0.3577798 0.25055626 0.13821442 -0.11771489 -0.02606705 0.15555184 -0.006641958
-0.26130503 0.11826586 -0.115729555 0.046595052 0.096405976 -0.037071686 0.10275508 0.04798121
00000000: 842d 773b 9291 88bd f8e6 4bbd c5f6 9bbc
00000010: f2a3 89bc 8a80 58bd 1efe dc3d 8b78 6b3b
00000020: 6df3 89bd 665c 64bd d227 823e f358 37bd
00000030: 1e0a ddbc 0c3e 913e 05b0 6dbc e697 7ebd
00000040: b952 04be 30a6 83bd 2bb8 bc3c 9588 af3c
00000050: 677e 3c3c 61aa eebd 3e32 103e e968 c0bd
00000060: 1389 b63d 7da6 0abd 4ca9 06be 29c5 943d
00000070: a614 ffbc 05dd c6bd 7063 a83d 32ed 8fbd
00000080: 84ee ab3d 6010 87ba c386 e2bc 828a c23d
00000090: e82a 133e 3ba8 0fbe d9fa 293d 1dea f83d
000000a0: 07e3 7abd d90d 9c3e ad27 483e de0e 17be
000000b0: 1812 1c3e 59a0 543c 1a70 0e3d 0e6b 6bbe
000000c0: 4668 6a3d c093 883d f92a afbd e5ed 203b
000000d0: d104 433e 20a3 03bd 0cf2 693d c0ca 143c
000000e0: 750a d9bd 89f2 533d 9500 fe3d 70b4 80bd
000000f0: a04e f53c b9b1 9e3e 977f 2dbd becd 1c3e
00000100: 43a2 873d 89fe 593e 5372 523c 4467 1bbb
00000110: fc74 09be 709c 05be 2553 a73c 0993 8f3e
00000120: 3bd5 32bc 7b2c 4abe 0628 863c 0fea 59bd
00000130: 15f3 01be 38f0 693d dd4c 713c 57f3 243e
00000140: 2d27 e83d 7563 68bd 1650 fcbd 7fd3 ddbc
00000150: 12b1 893b 4f7c a7bd 51b3 1b3e 5e4b a23c
00000160: 1c70 8b3d 2165 c1bc 3d07 623e 56d1 333e
00000170: ba6d 0dbe 1c4e db3b 55f0 e7bc 6e66 553d
00000180: 10c8 41bd 27ee 0ebc 79cb 3b3e 94d3 893d
00000190: 4587 143e 260a c1bd 76f4 f23d 8048 3e3f
000001a0: cf18 54be 45d1 523e 21a5 2f3f bcdc b83e
000001b0: e3c0 0d3f 1d46 0c3e 3351 1fbe 3077 e53e
000001c0: c5d8 b13d 61b1 643e 98f0 973e c08b a23f
000001d0: bf89 5e3e 5baf ae3e 4d87 163e 9f9b 903e
000001e0: 8383 7b3d d063 603e 5f57 0a3d 29b9 483f
000001f0: 01cd 183d 4b3e 3e3f 6343 0d3f 73e6 e33e
00000200: 84ee af3c 5923 f53f ec55 0a3e 68ad 72be
00000210: 695e 543e b83e 04bf daaa 5c3e 8fc1 463f
00000220: e87c 7bbe 8e56 66be 342e 353e c435 74bc
00000230: 58cc 7d3f 1c45 0bbf 08e8 5c3e 8874 a03e
00000240: b793 b43f 33be e3bb d635 c73f d7fb cd3e
00000250: 2ee8 afbc 5d35 c93e 5d3f a2bb d51c 253f
00000260: 4fce 033f abc2 8d3f abea 0f3e d51c 8c3d
00000270: 6f0a 703e 7d7e af3e 1a87 a4be c3c1 0a3f
00000280: 54ac 683f 578a dd3e 552e 173f e72f 8c3f
00000290: 2f33 ff3e 3e09 a83f fa37 823d d0ae 9bbe
000002a0: f7d9 ce3d 9c72 32be 0864 c23c 2aa3 ee3e
000002b0: d407 243f 13fa b5bc 93bb 5e3f b486 cabe
000002c0: e3e4 b43d 6b17 283d 7257 763e cf68 e73c
000002d0: e7a8 873d c963 e43e c5fe 183e a807 cd3d
000002e0: d77a 743e 51ba 87be 3993 083f b9f3 973d
000002f0: 6937 a53e b4ee 73bf d9b6 f83e aebf f53d
00000300: ab43 923c a10a b93e 8ea1 833e d36e 043e
00000310: b0d8 723e 7c96 053e 1385 8d3d b24f 943f
00000320: 929c b0bb 8099 4abe 8bd9 9b3e 67bf 7abd
00000330: 20e6 34bd b231 ad3e cd27 2ebf ac8a a73d
00000340: a6cf 0c3e db23 fc3c 1c53 1abe 85aa 4dbd
00000350: 164b 1ebb 4a95 95be 0561 323d 7bdb 0fbd
00000360: d4f9 853c 5fbb 8b3c 1150 e3bc 1e8c 58bd
00000370: 9f4c 853c 7786 d1be 8c8b 07be 6172 16be
00000380: cfba 1fbd d589 cb3e 2e6a 9bbd 7a94 0a3e
00000390: f3e3 543d 02fa cebc f1a4 24be 2099 94bd
000003a0: 7737 23be a9bd e1be 4be1 3abe 7b53 153f
000003b0: 4412 6cbe ed44 2ebe 8efa 90be 0571 743e
000003c0: a5da 7f3d ea2e b7be e948 803e 1588 0d3e
000003d0: 8114 f1bd 918a d5bc fb48 1f3e c8a4 d9bb
000003e0: c6c9 85be 5f35 f23d 9e03 edbd 74da 3e3d
000003f0: 7f70 c53d 7bd8 17bd 4171 d23d f287 443d

linears.2.bias f4 [100]
0.0084940065 -0.10283213 0.20549582 -0.5772548 -0.1629964 -0.15922473 -0.21337219 -0.11167164
-0.3749328 -0.21269436 -0.4676155 -0.22746614 0.03107881 -0.60542953 -0.2750521 -0.18165207
-0.09389222 0.019999135 -0.7162612 -0.12258794 -0.34554884 -0.21734394 -0.28974265 0.051696505
0.0024480624 -0.5814877 -0.046043295 0.013829767 -0.09456676 -0.32757583 0.010096947 0.02831893
-0.11019431 0.80275804 -0.16227984 -0.5017517 -0.304409 -0.27773955 -0.5676693 -1.1314864
-0.95992297 -0.1944768 -0.3158639 -0.82994986 -0.22161925 -0.038846496 0.10534631 -0.087874085
-0.35524237 -0.33528677 -0.5792517 -0.42667574 -0.122959554 -0.14113069 -0.2341692 -0.07494452
-0.8434445 -0.59448385 -0.25551608 -0.089941636 -0.33324286 0.18533346 -0.030041337 -1.0367396
0.038695727 -3.6203825 -0.6202539 -0.10685398 0.11279862 -0.08110442 -2.7139103 -0.27223563
-0.6634859 -0.2948966 -0.28652346 -0.32915154 -0.67986405 -0.1694191 -0.4917623 -0.0012240738
-0.08642604 -0.05873834 -0.53919107 -0.45986304 0.008626146 -0.2194984 -0.35342893 -0.38247907
0.025784293 -0.15030563 -0.34828472 -0.08637645 -0.29301628 -0.052395884 -0.33713353 -0.30361715
-0.05007608 -0.20857184 -1.1873252 -0.026122622
00000000: 722a 0b3c a799 d2bd 7f6d 523e f8c6 13bf
00000010: 87e8 26be cf0b 23be 3d7e 5abe 1ab4 e4bd
00000020: 31f7 bfbe 8dcc 59be 4c6b efbe e2ec 68be
00000030: fd98 fe3c 6efd 1abf a1d3 8cbe 0003 3abe
00000040: 904a c0bd 3ad5 a33c e55c 37bf 630f fbbd
00000050: c7eb b0be 698f 5ebe 2659 94be b7bf 533d
00000060: ac6f 203b 61dc 14bf e597 3cbd 3f96 623c
00000070: 38ac c1bd 05b8 a7be aa6d 253c 1afd e73c
00000080: 8ead e1bd 8d81 4d3f b02c 26be cd72 00bf
00000090: 7fdb 9bbe e133 8ebe c652 11bf 8cd4 90bf
000000a0: 83bd 75bf ed24 47be eab8 a1be 9877 54bf
000000b0: 28f0 62be 811d 1fbd cebf d73d 54f7 b3bd
000000c0: 54e2 b5be b5aa abbe d749 14bf 3e75 dabe
000000d0: 38d2 fbbd 9084 10be 0dca 6fbe 837c 99bd
000000e0: fbeb 57bf 1830 18bf 01d3 82be 5233 b8bd
000000f0: cf9e aabe 0ec8 3d3e 4019 f6bc e2b3 84bf
00000100: 697f 1e3d 59b4 67c0 f6c8 1ebf 42d6 dabd
00000110: f602 e73d 131a a6bd b5b0 2dc0 7862 8bbe
00000120: 36da 29bf b0fc 96be 34b3 92be 8d86 a8be
00000130: 920b 2ebf 337c 2dbe 45c8 fbbe 1a71 a0ba
00000140: 2300 b1bd 9d97 70bd 6d08 0abf 2b73 ebbe
00000150: ae54 0d3c 30c4 60be a3f4 b4be 4cd4 c3be
00000160: 9539 d33c b8e9 19be 6052 b2be 23e6 b0bd
00000170: 3b06 96be 119d 56bd c49c acbe b573 9bbe
00000180: 931c 4dbd db93 55be 46fa 97bf 1cff d5bc

linears.3.weight f4 [3, 100]
-0.0010150473 0.36838588 0.0068678916 0.0020189479 -0.7130187 0.15464604 -0.020555308 2.2190652
-1.2319337 -0.7627645 -0.823086 0.02128047 -0.0002557284 0.39093107 -0.51998365 0.07302067
0.0012188987 0.0012995622 -0.89666027 -0.10674703 -2.1679068 -1.3663085 -0.903275 -8.274388e-05
-0.001607727 -0.63074416 -0.28724885 -7.127213e-05 -0.8656792 -1.4141482 -0.0008054321 -0.95435727
-8.348236e-06 0.14716399 -0.2629978 -0.81121355 -0.655818 0.46053633 -0.3360647 0.21797712
-5.0984745 0.001441536 -0.029637473 -0.14726016 -0.19955857 -1.2283475 0.54969895 -0.0026615493
-2.629479 -2.209272 -0.14861117 0.1125012 -0.55902153 0.14611475 -0.40912312 -0.0027901677
-2.213087 -1.560889 -1.0831919 -0.2774551 -0.12949382 -0.96067744 0.0015658824 -4.018036
0.0024273002 0.9305775 -0.15071288 -0.0024967152 0.004075346 -0.00066434185 -0.074316554 0.7971255
0.34689206 -1.0041615 -0.5022028 -1.3520057 -0.88652754 -0.10267007 -0.6460873 0.022942465
0.1795247 -0.0019823879 -0.14042138 -0.37635246 0.0004901764 -0.34941754 -1.0649352 -1.6064283
0.0011391466 -1.0771562 -0.49107033 0.122381665 -0.18277436 -0.0024179365 -0.91542226 -0.32623753
-0.7137271 -0.6316817 7.491892 0.847277 7.0143455e-05 0.006969572 -1.1622286e-06 0.2130952
0.00040824895 -0.078454494 -0.00944847 -0.002241722 0.007577089 -0.2667786 0.10089522 -0.046570726
0.00014833458 0.017541004 0.119059555 0.013554923 -1.8367546e-05 -3.9144204e-05 -0.0311066 0.0045383153
-0.08725693 0.06256749 -0.2704722 8.532949e-05 0.00021287274 -0.00024552745 0.2613981 8.352304e-05
-0.14178085 -0.013709721 4.3032185e-05 -0.009585696 4.0281844e-05 -0.0906362 -0.0055537615 -9.46607e-05
-0.17144509 -0.00019310907 0.101575494 -0.005879287 -0.1403143 -3.7548736e-05 0.0007026811 0.008010428
0.02218239 0.055992953 -0.035679847 0.00016797471 -0.03274936 -0.09203493 -0.014608562 -0.0015484553
-0.22476026 0.0043445346 0.14682637 3.7493915e-05 -0.03302552 0.008658828 -0.0064981105 0.016043318
-0.13459165 0.0017815235 7.946143e-06 -0.2894935 -0.006184315 -0.00019437463 0.24214163 0.0001799772
0.00023863003 9.2922826e-05 -0.0007375432 0.03607327 0.0011642829 -0.27509463 0.06888138 -0.00890307
0.15825404 -0.14747736 -0.00025315923 0.0064872364 -0.016986566 8.323761e-05 0.19211519 0.219382
6.933807e-05 0.026580788 0.0036544297 0.07983257 2.3438919e-05 -0.10926365 0.15808049 0.028000424
0.029290669 5.534874e-05 -0.0009513563 0.00427729 -0.21144451 0.08559027 -0.060607545 0.012429166
-0.0005298665 2.9269097 0.007319272 -0.5972817 -0.217668 11.11576 16.190895 1.2253277
-1.471932 -0.63545287 -1.1262571 14.485346 -0.0003341364 -2.693597 -1.3976176 3.178296
0.00036858383 0.00040396224 9.846815 0.7189184 -0.6687595 -1.2075964 -0.27970126 -0.00053150434
-0.002200965 -0.47377712 6.721625 -0.0013961598 -0.69014144 0.40888515 -0.0007764963 -0.5021459
-0.0010342952 1.427158 -0.06833764 -0.6763811 -0.3786827 9.057665 -1.0198776 -43.23104
0.96004426 0.001580857 -0.05920537 3.6791615 3.8533535 -7.513113 5.2106643 -0.0035429012
1.2159835 -2.6817408 -13.841672 17.003784 -0.55380714 -0.01642776 -1.2683005 -0.0025955036
00000000: 560b 85ba 139d bc3e 0d0c e13b 5350 043b
00000010: 6588 36bf 885b 1e3e 9b63 a8bc 2a05 0e40
00000020: 01b0 9dbf 8944 43bf c4b5 52bf 6154 ae3c
00000030: 4913 86b9 1e28 c83e a61d 05bf dc8b 953d
00000040: 74c3 9f3a 1256 aa3a 878b 65bf 309e dabd
00000050: fcbe 0ac0 32e3 aebf 083d 67bf c886 adb8
00000060: 5eba d2ba 7378 21bf 4812 93be ef77 95b8
00000070: 279d 5dbf cf02 b5bf a223 53ba c250 74bf
00000080: 670f 0cb7 28b2 163e a6a7 86be b1ab 4fbf
00000090: b0e3 27bf 6bcb eb3e ac10 acbe 6535 5f3e
000000a0: b426 a3c0 ecf1 bc3a 49ca f2bc 5ecb 16be
000000b0: 1559 4cbe 7e3a 9dbf 12b9 0c3f 636d 2ebb
000000c0: 6249 28c0 b664 0dc0 872d 18be 0767 e63d
000000d0: 091c 0fbf 1b9f 153e 9678 d1be 3fdb 36bb
000000e0: 38a3 0dc0 36cb c7bf 08a6 8abf 980e 8ebe
000000f0: 079a 04be f5ee 75bf 4b3e cd3a c093 80c0
00000100: 5713 1f3b 543a 6e3f 7a54 1abe ee9f 23bb
00000110: 7b8a 853b 3a27 2eba 4733 98bd 6b10 4c3f
00000120: d69b b13e 5d88 80bf 5d90 00bf 860e adbf
00000130: 78f3 62bf b044 d2bd fa65 25bf d6f1 bb3c
00000140: 53d5 373e f3ea 01bb 9fca 0fbe 45b1 c0be
00000150: 2e7f 003a dbe6 b2be cc4f 88bf 719f cdbf
00000160: 6b4f 953a 41e0 89bf 926d fbbe 3da3 fa3d
00000170: 3429 3bbe 3e76 1ebb 1d59 6abf 9b08 a7be
00000180: d2b6 36bf e4b5 21bf 94bd ef40 25e7 583f
00000190: fb19 9338 0261 e43b dffd 9bb5 a135 5a3e
000001a0: 3f0a d639 c0ac a0bd c1cd 1abc dbe9 12bb
000001b0: 3b49 f83b 3497 88be 27a2 ce3d f2c0 3ebd
000001c0: 438a 1b39 27b2 8f3c 7fd5 f33d 7815 5e3c
000001d0: 0114 9ab7 c52e 24b8 45d3 febc 26b6 943b
000001e0: c3b3 b2bd 6223 803d 557b 8abe ecf2 b238
000001f0: 9736 5f39 23ba 80b9 f9d5 853e 1729 af38
00000200: 002f 11be bd9e 60bc 757d 3438 530d 1dbc
00000210: 4df4 2838 799f b9bd 54fc b5bb 9484 c6b8
00000220: 4d8f 2fbe 527d 4ab9 d006 d03d 09a7 c0bb
00000230: 8dae 0fbe a67d 1db8 2134 383a 2c3e 033c
00000240: d8b7 b53c de58 653d 0825 12bd 5e22 3039
00000250: 3124 06bd cf7c bcbd c058 6fbc 8af5 caba
00000260: 8e27 66be 995c 8e3b a759 163e c942 1d38
00000270: c545 07bd c2dd 0d3c 1aee d4bb 476d 833c
00000280: 65d2 09be 0282 e93a 6d50 0537 7e38 94be
00000290: cba5 cabb 0bd1 4bb9 faf3 773e 43b8 3c39
000002a0: c338 7a39 90df c238 b057 41ba 91c1 133d
000002b0: da9a 983a 34d9 8cbe ae11 8d3d 2fde 11bc
000002c0: 590d 223e 4e04 17be 75ba 84b9 e292 d43b
000002d0: 6927 8bbc da8f ae38 d8b9 443e ada5 603e
000002e0: 9869 9138 f4bf d93c 287f 6f3b 427f a33d
000002f0: b29e c437 9fc5 dfbd dadf 213e 2561 e53c
00000300: fcf2 ef3c 4226 6838 7164 79ba 8228 8c3b
00000310: e984 58be f449 af3d 9e3f 78bd b3a3 4b3c
00000320: bde6 0aba 7d52 3b40 81d6 ef3b 74e7 18bf
00000330: 5ce4 5ebe 27da 3141 f486 8141 8ad7 9c3f
00000340: 4568 bcbf 0aad 22bf 3129 90bf fac3 6741
00000350: 072f afb9 e563 2cc0 22e5 b2bf 3469 4b40
00000360: 7c3e c139 e5ca d339 8e8c 1d41 090b 383f
00000370: d333 2bbf 8592 9abf 0135 8fbe a754 0bba
00000380: 113e 10bb ea92 f2be 8d17 d740 59ff b6ba
00000390: 1cad 30bf 6559 d13e c98d 4bba a28c 00bf
000003a0: 3091 87ba 1dad b63f 9bf4 8bbd 5027 2dbf
000003b0: b3e2 c1be 32ec 1041 598b 82bf 96ec 2cc2
000003c0: 76c5 753f c234 cf3a 5481 72bd 6277 6b40
000003d0: 589d 7640 6c6b f0c0 c3bd a640 0530 68bb
000003e0: 59a5 9b3f a4a1 2bc0 7d77 5dc1 c007 8841
000003f0: 4ec6 0dbf 8293 86bc ac57 a2bf 5319 2abb

linears.3.bias f4 [3]
0.7324126 0.24171877 0.5220805
00000000: 647f 3b3f 2085 773e 11a7 053f

exp_avg f4 [100, 6]
1.960155e-10 1.9601544e-10 3.920295e-10 5.8804134e-10 7.8404766e-10 9.800496e-10 2.6688226e-11 2.6688173e-11
5.3376036e-11 8.006335e-11 1.0674966e-10 1.3343529e-10 4.499339e-10 4.4993173e-10 8.998594e-10 1.3497747e-09
1.7996737e-09 2.2495499e-09 8.3879854e-11 8.3879716e-11 1.677576e-10 2.5163455e-10 3.3550696e-10 4.193747e-10
-1.5023106e-10 -1.502308e-10 -3.0045988e-10 -4.5068516e-10 -6.009064e-10 -7.5112033e-10 -7.7045603e-10 -7.704595e-10
-1.5408904e-09 -2.3112519e-09 -3.0815355e-09 -3.8516923e-09 -8.50531e-10 -8.5052937e-10 -1.7010433e-09 -2.5515015e-09
-3.4019105e-09 -4.2522124e-09 -8.847918e-10 -8.8478813e-10 -1.7695674e-09 -2.6543223e-09 -3.5390422e-09 -4.4237103e-09
1.0576673e-09 1.0576708e-09 2.11535e-09 3.1730263e-09 4.230659e-09 5.288319e-09 -3.8293152e-10 -3.8292844e-10
-7.6583867e-10 -1.1486895e-09 -1.531519e-09 -1.9142226e-09 -4.5632856e-10 -4.5632717e-10 -9.126533e-10 -1.3689715e-09
-1.8252844e-09 -2.281577e-09 -1.5173158e-09 -1.5173147e-09 -3.034595e-09 -4.5518536e-09 -6.068959e-09 -7.586011e-09
1.4649353e-09 1.4649401e-09 2.9298808e-09 4.3948405e-09 5.859702e-09 7.324597e-09 9.1597924e-10 9.15977e-10
1.831943e-09 2.7478966e-09 3.6638146e-09 4.579694e-09 1.573138e-09 1.5731423e-09 3.1462808e-09 4.7193938e-09
6.292472e-09 7.865543e-09 3.0995173e-09 3.0995342e-09 6.1990724e-09 9.298597e-09 1.23980755e-08 1.5497498e-08
1.8491153e-09 1.8491149e-09 3.698211e-09 5.547271e-09 7.3962934e-09 9.24525e-09 -1.4583393e-09 -1.4583394e-09
-2.9166656e-09 -4.374919e-09 -5.83308e-09 -7.2911357e-09 2.1739126e-09 2.1739066e-09 4.3478017e-09 6.5216277e-09
8.695361e-09 1.0869017e-08 -1.6333064e-10 -1.6333032e-10 -3.2665717e-10 -4.899798e-10 -6.5329286e-10 -8.1659446e-10
-1.0228494e-09 -1.0228504e-09 -2.0456834e-09 -3.0684901e-09 -4.0912327e-09 -5.113911e-09 -5.669075e-10 -5.669017e-10
-1.133778e-09 -1.7006285e-09 -2.267376e-09 -2.8340539e-09 1.8830384e-09 1.8830457e-09 3.7661105e-09 5.6491145e-09
7.5321624e-09 9.415148e-09 2.0663211e-10 2.0663174e-10 4.1326148e-10 6.198869e-10 8.26508e-10 1.0331188e-09
1.0045694e-09 1.0045725e-09 2.0091504e-09 3.0137393e-09 4.018309e-09 5.0228435e-09 8.770827e-11 8.7708e-11
1.7541256e-10 2.631105e-10 3.5080108e-10 4.384811e-10 -2.2729703e-09 -2.2729647e-09 -4.5459085e-09 -6.8187824e-09
-9.091492e-09 -1.1364142e-08 2.4277023e-09 2.4277043e-09 4.855378e-09 7.2829907e-09 9.710545e-09 1.2137935e-08
-1.8069551e-09 -1.8069545e-09 -3.61389e-09 -5.420752e-09 -7.2274964e-09 -9.03414e-09 4.010789e-09 4.010793e-09
8.021607e-09 1.2032458e-08 1.6043058e-08 2.005378e-08 7.5533683e-11 7.5533274e-11 1.5106412e-10 2.2659037e-10
3.021097e-10 3.776188e-10 -1.0573778e-11 -1.0573688e-11 -2.114717e-11 -3.1719523e-11 -4.2291122e-11 -5.286097e-11
-3.6673928e-12 -3.6673095e-12 -7.334993e-12 -1.1002147e-11 -1.4669984e-11 -1.8337375e-11 -5.783081e-11 -5.7830723e-11
-1.1566137e-10 -1.734918e-10 -2.313223e-10 -2.89152e-10 -5.6791233e-10 -5.6790816e-10 -1.135802e-09 -1.7036773e-09
-2.2715159e-09 -2.8392741e-09 -1.0823985e-09 -1.0823923e-09 -2.1647741e-09 -3.2470797e-09 -4.329282e-09 -5.411326e-09
-1.7269256e-09 -1.726928e-09 -3.4538343e-09 -5.1806355e-09 -6.9073294e-09 -8.633883e-09 1.38287905e-11 1.38288105e-11
2.7657519e-11 4.148629e-11 5.5313722e-11 6.9141186e-11 1.042254e-09 1.0422563e-09 2.084522e-09 3.1267788e-09
4.1690233e-09 5.211265e-09 6.2954614e-10 6.2954625e-10 1.2590893e-09 1.888631e-09 2.5181586e-09 3.1476763e-09
2.384612e-10 2.3846097e-10 4.7691934e-10 7.153737e-10 9.538215e-10 1.1922597e-09 3.305675e-09 3.3056835e-09
6.6114003e-09 9.917022e-09 1.3222601e-08 1.6528139e-08 -1.3312015e-09 -1.3312017e-09 -2.6623748e-09 -3.9934704e-09
00000000: 7585 572f 7185 572f 3f85 d72f bba3 2130
00000010: 7384 5730 6eb2 8630 8bc0 ea2d 6cc0 ea2d
00000020: 13c0 6a2e a90f b02e b7be ea2e b2b6 122f
00000030: 915a f72f 435a f72f fa59 7730 fa82 b930
00000040: 6458 f730 8096 1a31 2974 b82e 1574 b82e
00000050: 9173 382f 6a56 8a2f 6872 b82f be8d e62f
00000060: 492e 25af 362e 25af f82d a5af 4cc4 f7af
00000070: 072d 25b0 6577 4eb0 06c8 53b0 44c8 53b0
00000080: 43c7 d3b0 f9d3 1eb1 f2c2 53b1 d857 84b1
00000090: ccca 69b0 afca 69b0 24ca e9b0 7d56 2fb1
000000a0: 0bc7 69b1 db1a 92b1 b035 73b0 6e35 73b0
000000b0: 1e35 f3b0 5567 36b1 7d33 73b1 5eff 97b1
000000c0: 5c5d 9130 7c5d 9130 a15d 1131 780c 5a31
000000d0: 455d 9131 8cb4 b531 d284 d2af 6384 d2af
000000e0: 1b83 52b0 ebdf 9db0 897d d2b0 5c8b 03b1
000000f0: 89de faaf 57de faaf 44de 7ab0 6726 bcb0
00000100: 7cdd fab0 edc9 1cb1 ce89 d0b0 c489 d0b0
00000110: 2989 50b1 8766 9cb1 2187 d0b1 a153 02b2
00000120: d456 c930 ff56 c930 0257 4931 6d01 9731
00000130: 7c56 c931 d6ab fb31 4fc8 7b30 27c8 7b30
00000140: c4c7 fb30 82d5 3c31 82c6 7b31 6a5b 9d31
00000150: df35 d830 0636 d830 f535 5831 3a28 a231
00000160: 2b35 d831 0621 0732 49ff 5431 95ff 5431
00000170: 9eff d431 a9bf 1f32 50ff 5432 5c1f 8532
00000180: f623 fe30 f223 fe30 9e23 7e31 509a be31
00000190: 7c22 fe31 0ad5 1e32 c16e c8b0 c26e c8b0
000001a0: 866e 48b1 3252 96b1 506c c8b1 8285 fab1
000001b0: e063 1531 c563 1531 ab63 9531 d814 e031
000001c0: 9a62 1532 71ba 3a32 7d95 33af 6695 33af
000001d0: e994 b3af 43af 06b0 6693 33b0 ba76 60b0
000001e0: 5094 8cb0 5994 8cb0 0b94 0cb1 73dd 52b1
000001f0: dd92 8cb1 70b6 afb1 92d4 1bb0 29d4 1bb0
00000200: 44d3 9bb0 8cbb e9b0 1ad0 1bb1 34c1 42b1
00000210: c366 0131 e466 0131 0f67 8131 231a c231
00000220: cd66 0132 42c0 2132 c531 632f aa31 632f
00000230: 6231 e32f aa64 2a30 5430 6330 a3fd 8d30
00000240: 2511 8a30 4111 8a30 5911 0a31 431a 4f31
00000250: 6b11 8a31 6695 ac31 5edf c02e 37df c02e
00000260: 3fde 402f 83a5 902f ddda c02f bb0e f12f
00000270: 8432 1cb1 6b32 1cb1 3c32 9cb1 a54a eab1
00000280: ce30 1cb2 063c 43b2 97d4 2631 a0d4 2631
00000290: 5bd4 a631 dd3d fa31 6ed3 2632 3487 5032
000002a0: 9558 f8b0 8f58 f8b0 3a58 78b1 7041 bab1
000002b0: bb55 f8b1 9134 1bb2 46cf 8931 4fcf 8931
000002c0: 67cf 0932 4fb7 4e32 0fcf 8932 bb42 ac32
000002d0: af19 a62e 7419 a62e c518 262f 8523 792f
000002e0: 2916 a62f 1f99 cf2f 1004 3aad a803 3aad
000002f0: 3203 baad 0281 0bae 92ff 39ae 297c 68ae
00000300: f008 81ac 3008 81ac df09 01ad 448d 41ad
00000310: de09 81ad 194c a1ad b457 7eae 9b57 7eae
00000320: 9057 feae 9ac1 3eaf 7057 7eaf 87f6 9eaf
00000330: 471b 1cb0 fc1a 1cb0 7b1a 9cb0 d126 eab0
00000340: ee18 1cb1 0a1d 43b1 83c3 94b0 4bc3 94b0
00000350: 1cc3 14b1 3b23 5fb1 c4c0 94b1 87ee b9b1
00000360: cb58 edb0 e158 edb0 7f58 6db1 5a01 b2b1
00000370: 8355 edb1 3854 14b2 5647 732d 6d47 732d
00000380: 3247 f32d 6975 362e b745 732e 070b 982e
00000390: 0d3f 8f30 223f 8f30 4d3f 0f31 e0de 5631
000003a0: 1e3f 8f31 c60e b331 5f0c 2d30 610c 2d30
000003b0: 440c ad30 26c9 0131 ea0b 2d31 824e 5831
000003c0: 6e18 832f 6618 832f 3718 0330 f3a3 4430
000003d0: 9c17 8330 e9dc a330 0d2a 6331 332a 6331
000003e0: 7e2a e331 865f 2a32 9d29 6332 c3f9 8d32
000003f0: 7df5 b6b0 7ff5 b6b0 fef4 36b1 f036 89b1

exp_avg_sq f4 [100, 6]
1.1613333e-17 1.16132824e-17 4.6452657e-17 1.0451626e-16 1.858018e-16 2.9030506e-16 3.8942875e-19 3.8942684e-19
1.5576858e-18 3.504719e-18 6.2304207e-18 9.7346535e-18 7.844957e-15 7.844936e-15 3.137956e-14 7.0603245e-14
1.2551448e-13 1.9611286e-13 2.7179613e-17 2.7179563e-17 1.0871756e-16 2.4461187e-16 4.3486002e-16 6.794576e-16
2.084955e-17 2.084948e-17 8.339736e-17 1.8764155e-16 3.3357886e-16 5.2120526e-16 5.972115e-13 5.972112e-13
2.388843e-12 5.3748876e-12 9.555355e-12 1.493019e-11 5.7114144e-14 5.711413e-14 2.284562e-13 5.1402686e-13
9.13822e-13 1.4278418e-12 1.3787216e-15 1.3787167e-15 5.514808e-15 1.24081196e-14 2.205838e-14 3.44651e-14
1.3756343e-12 1.375634e-12 5.502534e-12 1.2380711e-11 2.2010107e-11 3.439073e-11 1.8031553e-14 1.803155e-14
7.212616e-14 1.6228352e-13 2.8850338e-13 4.5078532e-13 4.568917e-16 4.5689026e-16 1.8275405e-15 4.1118956e-15
7.309861e-15 1.1421293e-14 1.927083e-12 1.9270828e-12 7.7083236e-12 1.7343732e-11 3.083322e-11 4.8176827e-11
1.5313781e-12 1.5313776e-12 6.125506e-12 1.3782392e-11 2.4501979e-11 3.8284303e-11 1.6943885e-15 1.6943748e-15
6.7773635e-15 1.5248473e-14 2.7106989e-14 4.2351868e-14 1.2390945e-12 1.2390945e-12 4.956375e-12 1.1151826e-11
1.982546e-11 3.0977224e-11 7.871034e-12 7.871033e-12 3.148412e-11 7.083914e-11 1.2593622e-10 1.9677514e-10
7.617598e-15 7.617551e-15 3.0469625e-14 6.85543e-14 1.2186853e-13 1.9040795e-13 1.4968165e-12 1.4968163e-12
5.987262e-12 1.34713326e-11 2.394899e-11 3.742023e-11 1.3087639e-13 1.3087617e-13 5.2350247e-13 1.177874e-12
2.09398e-12 3.2718019e-12 8.028528e-17 8.0284986e-17 3.2113645e-16 7.2254393e-16 1.2844929e-15 2.0069525e-15
1.5408347e-12 1.5408344e-12 6.163334e-12 1.3867496e-11 2.4653283e-11 3.8520687e-11 1.7028759e-14 1.7028745e-14
6.811486e-14 1.5325802e-13 2.7245735e-13 4.2571299e-13 3.0004413e-12 3.000441e-12 1.2001758e-11 2.7003982e-11
4.800697e-11 7.501083e-11 5.1907767e-17 5.190762e-17 2.0762902e-16 4.6715905e-16 8.304915e-16 1.2976168e-15
9.385776e-13 9.385773e-13 3.7543076e-12 8.44718e-12 1.501721e-11 2.346436e-11 7.575242e-17 7.575234e-17
3.0300756e-16 6.817632e-16 1.2120081e-15 1.8937349e-15 1.6042948e-12 1.6042945e-12 6.4171737e-12 1.4438624e-11
2.5668623e-11 4.010712e-11 2.8273565e-14 2.8273413e-14 1.1309143e-13 2.5444797e-13 4.52333e-13 7.0673144e-13
1.2165431e-12 1.2165431e-12 4.8661704e-12 1.0948882e-11 1.946464e-11 3.0413415e-11 7.457923e-12 7.457923e-12
2.9831682e-11 6.712114e-11 1.1932651e-10 1.8644729e-10 1.20901405e-17 1.2090117e-17 4.8360072e-17 1.0880868e-16
1.9343408e-16 3.0223411e-16 5.273894e-19 5.273849e-19 2.1094814e-18 4.7461258e-18 8.437053e-18 1.3181847e-17
1.0333429e-18 1.0333404e-18 4.133337e-18 9.299932e-18 1.6533021e-17 2.583245e-17 1.4356153e-17 1.4356069e-17
5.742345e-17 1.2919865e-16 2.2967677e-16 3.588516e-16 2.6313993e-15 2.6313926e-15 1.0525485e-14 2.368201e-14
4.210059e-14 6.57806e-14 8.200844e-13 8.200844e-13 3.2803343e-12 7.380746e-12 1.3121313e-11 2.050199e-11
1.494131e-12 1.4941307e-12 5.9765157e-12 1.34471306e-11 2.3906002e-11 3.735305e-11 1.0497114e-18 1.0497102e-18
4.1988317e-18 9.447328e-18 1.6795126e-17 2.6242197e-17 1.3015988e-12 1.3015982e-12 5.206391e-12 1.171437e-11
2.0825524e-11 3.2539797e-11 6.361081e-16 6.3610337e-16 2.5443622e-15 5.724608e-15 1.01766e-14 1.5899928e-14
2.4729165e-17 2.4729079e-17 9.89153e-17 2.2255595e-16 3.9564628e-16 6.1817894e-16 7.076853e-12 7.076852e-12
2.8307405e-11 6.369155e-11 1.1322944e-10 1.7692048e-10 9.627161e-13 9.627161e-13 3.8508628e-12 8.664431e-12
00000000: 6a3a 5623 2d3a 5623 9e39 5624 83ff f024
00000010: 0337 5625 7759 a725 cfe0 e520 85e0 e520
00000020: b5df e521 234d 8122 a9dc e522 9a92 3323
00000030: 7a52 0d28 6252 0d28 2b52 0d29 00fc 9e29
00000040: 1651 0d2a afcd 5c2a 0cb0 fa23 eeaf fa23
00000050: 85af fa24 5702 8d25 03ae fa25 1fd7 4326
00000060: 9c4d c023 714d c023 1d4d c024 0356 5825
00000070: 8d4b c025 293a 1626 a019 282b 9a19 282b
00000080: 9219 282c af1c bd2c 7e19 282d cd53 832d
00000090: 109c 8029 0e9c 8029 029c 802a 8aaf 102b
000000a0: e89b 802b 6cf3 c82b d9b1 c626 abb1 c626
000000b0: 20b1 c627 5a86 5f28 29af c628 8e37 1b29
000000c0: 739a c12b 709a c12b 6c9a c12c c4cd 592d
000000d0: 5b9a c12d 8540 172e ee69 a228 ec69 a228
000000e0: e769 a229 0ab7 362a b869 a22a 03c5 fd2a
000000f0: a8b0 0326 8db0 0326 2cb0 0327 8b25 9427
00000100: c9ae 0328 6bbf 4d28 3e9b 072c 3d9b 072c
00000110: 349b 072d 9d8e 982d 1f9b 072e 49e2 532e
00000120: b685 d72b b185 d72b a785 d72c 6076 722d
00000130: 8d85 d72d 4b60 282e e72f f426 662f f426
00000140: 252e f427 9658 8928 7628 f428 61bc 3e29
00000150: 1663 ae2b 1663 ae2b 0f63 ae2c 5c2f 442d
00000160: f862 ae2d 413d 082e fc77 0a2d fb77 0a2d
00000170: f877 0a2e e4c6 9b2e e577 0a2f 475b 582f
00000180: f839 0928 c139 0928 1639 0929 dd5e 9a29
00000190: 3636 092a 5b61 562a 7fa8 d22b 7ea8 d22b
000001a0: 76a8 d22c 7dfd 6c2d 55a8 d22d 6f93 242e
000001b0: 8d5a 132a 7d5a 132a 545a 132b 62c5 a52b
000001c0: ca59 132c 8b3b 662c 1020 b924 e41f b924
000001d0: 601f b925 5542 5026 6c1d b926 bd9d 1027
000001e0: 6cda d82b 69da d82b 61da d82c a6f5 732d
000001f0: 42da d82d 706a 292e a561 9928 9d61 9928
00000200: 8b61 9929 9e8d 2c2a 3e61 992a b5a7 ef2a
00000210: 2523 532c 2423 532c 1d23 532d 9087 ed2d
00000220: 0b23 532e 58f3 a42e e061 6f24 b461 6f24
00000230: 4561 6f25 41a6 0626 755f 6f26 9c01 bb26
00000240: d217 842b d017 842b cc17 842c b79a 142d
00000250: c017 842d 0b65 ce2d 56ac ae24 4aac ae24
00000260: 06ac ae25 3f81 4426 35ab ae26 3e75 0827
00000270: d0c8 e12b cdc8 e12b c3c8 e12c c801 7e2d
00000280: 9ac8 e12d 9a64 302e 67aa fe28 0daa fe28
00000290: c5a8 fe29 d13d 8f2a 0ea4 fe2a 5eed 462b
000002a0: 9636 ab2b 9636 ab2b 9136 ab2c 629d 402d
000002b0: 7936 ab2d 76c2 052e 8033 032d 8033 032d
000002c0: 7d33 032e d899 932e 6d33 032f 3f00 4d2f
000002d0: 1306 5f23 f705 5f23 7f05 5f24 4fe5 fa24
000002e0: aa03 5f25 e239 ae25 6ba8 1b21 14a8 1b21
000002f0: faa6 1b22 e419 af22 dba2 1b23 8329 7323
00000300: 977e 9821 7f7e 9821 447e 9822 b08d 2b23
00000310: 7e7d 9823 2643 ee23 8269 8423 4f69 8423
00000320: d268 8424 b6f4 1425 4f66 8425 26dd ce25
00000330: c09c 3d27 a09c 3d27 3b9c 3d28 ff4e d528
00000340: ad9a 3d29 ef1f 9429 4fd5 662b 4fd5 662b
00000350: 40d5 662c edd7 012d 24d5 662d 6156 b42d
00000360: be47 d22b bb47 d22b ab47 d22c 7e90 6c2d
00000370: 8847 d22d cc47 242e fae8 9a21 eee8 9a21
00000380: d8e8 9a22 bf45 2e23 5fe8 9a23 a30a f223
00000390: 0a2f b72b 042f b72b 002f b72c d514 4e2d
000003a0: e92e b72d 8e1c 0f2e 7e58 3726 2558 3726
000003b0: 3357 3727 3040 ce27 4953 3728 bd36 8f28
000003c0: 1716 e423 e315 e423 4a15 e424 764b 8025
000003d0: 1613 e425 8e2d 3226 a0fe f82c 9efe f82c
000003e0: 9cfe f82d 280f 8c2e 82fe f82e b086 422f
000003f0: 817d 872b 817d 872b 7d7d 872c 216d 182d

exp_avg f4 [100]
5.9183062e-08 7.949959e-09 -1.3124427e-08 3.0694083e-09 -3.8422748e-08 -1.6320835e-06 -1.4670975e-07 -1.9775725e-07
5.195379e-06 3.4221145e-07 -2.3217524e-07 -4.5249635e-06 5.5952014e-06 2.5292738e-07 4.963889e-06 1.2177595e-05
5.474012e-07 -3.6405988e-06 1.0896784e-06 -1.5522799e-08 -4.0457e-06 3.1296403e-07 7.829852e-06 5.518219e-08
4.3440136e-06 -4.7985846e-08 -3.930536e-06 3.5438114e-07 -3.561564e-06 1.2523045e-05 -1.8098632e-08 8.594886e-09
-5.684109e-09 -2.713121e-08 4.832693e-08 -2.1511912e-06 -3.6155946e-06 3.838698e-09 5.282225e-06 3.4613055e-07
6.574645e-08 1.1484547e-05 -2.581883e-06 2.030746e-06 -9.992334e-07 -6.199655e-07 6.7216565e-06 2.0737947e-07
2.7057625e-08 1.2557843e-05 4.1982175e-06 1.2693e-05 3.8437547e-06 1.2179434e-05 -1.87783e-06 4.1472166e-08
-3.6603826e-06 7.845425e-06 2.8272945e-07 1.3933331e-07 4.2189654e-07 2.0575654e-07 6.8640657e-07 2.7689578e-07
3.7467057e-08 -4.4176974e-07 3.0310827e-07 4.145849e-06 -2.0715265e-06 -1.20457e-06 4.3456425e-06 1.2203422e-05
-4.5255877e-08 2.700368e-07 1.140505e-05 1.4463383e-07 5.132561e-09 4.178937e-06 -4.2066804e-06 2.946276e-07
6.7934565e-08 2.2723219e-07 -2.2358378e-07 -3.0163181e-07 -6.728951e-08 4.992743e-07 -9.847512e-07 6.5445926e-07
4.3843627e-08 -1.12524496e-07 -5.8302714e-09 -4.5678858e-06 -4.4568665e-06 3.522118e-08 3.078611e-08 -4.3253213e-08
-5.83388e-07 2.700669e-07 -5.899372e-07 9.634943e-09
00000000: 7730 7e33 4a94 0832 d779 61b2 9aed 5231
00000010: 4206 25b3 f60d dbb5 4587 1db4 1957 54b4
00000020: f753 ae36 2fb9 b734 d84b 79b4 24d5 97b6
00000030: 6abe bb36 13ca 8734 7b8f a636 5f4e 4c37
00000040: 20f1 1235 0351 74b6 1141 9235 ff56 85b2
00000050: 4cc0 87b6 7305 a834 f55c 0337 7601 6d33
00000060: cbc2 9136 ff18 4eb3 0ce3 83b6 c641 be34
00000070: 3403 6fb6 121a 5237 5077 9bb2 b5a8 1332
00000080: f44d c3b1 290e e9b2 0590 4f33 2f5d 10b6
00000090: 71a3 72b6 8be5 8331 f83d b136 d2d3 b934
000000a0: 7e30 8d33 c1ad 4037 6a44 2db6 f347 0836
000000b0: 661d 86b5 b46b 26b5 978a e136 09ac 5e34
000000c0: 596c e832 86af 5237 6ade 8c36 05f4 5437
000000d0: 9af9 8036 4556 4c37 bf09 fcb5 211f 3233
000000e0: e5a4 75b6 d89f 0337 0aca 9734 a69b 1534
000000f0: 0581 e234 eded 5c34 8041 3835 44a8 9434
00000100: 77eb 2033 5f2c edb4 e2ba a234 921c 8b36
00000110: 8e04 0bb6 b6ac a1b5 c9d0 9136 4cbd 4c37
00000120: 5d5f 42b3 93f9 9034 5158 3f37 a54c 1b34
00000130: 7c5a b031 cc38 8c36 1c27 8db6 4f2d 9e34
00000140: 6ce3 9133 1cfd 7334 3e12 70b4 f6ef a1b4
00000150: cd80 90b3 de05 0635 cb2b 84b5 19ae 2f35
00000160: 944e 3c33 ffa4 f1b3 9c53 c8b1 d745 99b6
00000170: 318c 95b6 1946 1733 b039 0433 69c5 39b3
00000180: 1e9a 1cb5 b6fd 9034 2d5c 1eb5 ed86 2532
