TSTE-R/SYNC/ProposedTaylor/save_model_0226.ckpt-2250000.pt (torch, 266774 bytes, 24 tensors)

linears.0.weight f4 [100, 6]
-1.3659023 -1.5167377 -1.0847119 -1.0744416 -1.0331033 -1.2696935 0.14996871 0.32944924
0.32304952 -0.0038098553 0.09219086 -0.16261886 5.2069016 5.1555586 5.52806 5.167891
5.4617114 5.516355 -2.22369 -1.9678755 -1.9815086 -2.0672333 -2.133693 -2.0042005
2.062876 1.7809105 1.7751904 1.6919117 1.816856 1.6896745 -5.7989254 -5.7891665
-5.8778424 -5.6042404 -5.6885877 -5.4634995 -3.9050953 -3.867826 -3.722357 -3.7626743
-3.4827013 -3.6979272 -3.622898 -3.6112347 -3.5111732 -3.5595229 -3.6098747 -3.5216093
6.885539 6.8639517 7.000474 7.0401707 6.634548 6.733256 -4.312816 -4.644991
-4.4908557 -4.495022 -4.377908 -4.6052117 -3.1976206 -3.193518 -2.9501636 -2.9704113
-3.0466385 -3.1535838 -7.837384 -7.9303994 -7.788095 -7.9237585 -8.182337 -8.162842
8.193679 8.187185 8.418724 8.55836 8.309482 8.481355 3.1979342 3.3758137
3.0098746 3.2809038 3.0532153 3.2695208 6.5503983 6.423376 6.771704 6.7105355
6.84856 6.5106726 9.364473 9.584563 9.647306 9.2768545 9.408584 9.558486
4.618693 4.295416 4.336294 4.5231757 4.6735935 4.393113 -6.4709926 -6.458331
-6.893158 -6.6794415 -6.742656 -6.8395844 5.371749 5.255681 5.0950427 5.425053
5.3551517 5.129402 2.164288 2.0940924 1.9936501 2.1535196 2.2382107 2.077363
-6.700369 -6.7383146 -6.853147 -6.7652116 -6.947692 -6.8686047 -4.3758917 -4.2302966
-4.1179614 -4.0717025 -4.3068347 -4.1382604 7.3182693 7.1516976 7.4358706 7.333256
7.2203975 7.2548194 -1.2102925 -1.1124656 -1.1433898 -1.0295905 -0.81741816 -0.8765084
6.5151267 6.2349615 6.2699685 6.4393597 6.271583 6.4990635 -2.476655 -2.3147583
-2.680153 -2.3691764 -2.4185238 -2.462887 -5.984678 -5.919677 -6.3364267 -6.025038
-5.9291835 -6.0994043 4.850671 5.0784163 5.099348 4.842439 4.931246 5.2727275
-6.7423353 -6.6716385 -6.8092713 -6.688337 -6.6080785 -6.53378 9.281942 9.010965
9.339009 9.17048 9.057211 9.253757 1.3294634 1.3728044 1.4896736 1.3582339
1.5198799 1.4499921 -0.2478949 -0.3331578 -0.10718829 0.072089896 0.099477924 0.04438741
0.29931358 0.671146 0.19410704 0.19577253 -0.06595479 0.037229843 1.2201463 1.3001124
1.278965 1.1912518 1.2555779 1.0290267 -3.4175873 -3.0751426 -3.1453402 -3.3548539
-3.2132208 -3.4481406 -6.206819 -6.4320188 -6.1939836 -6.5138464 -6.4920588 -6.21913
-7.071701 -6.9219403 -7.0161457 -6.922184 -6.8939137 -7.146834 0.024523955 0.10068278
0.16696405 -0.026732808 0.026940133 -0.08063498 8.447052 8.614265 8.617494 8.422007
8.423716 8.465454 3.0597801 3.0532513 2.8026044 3.003347 3.2042274 2.9747777
-1.3253001 -1.3052388 -1.2338887 -1.300564 -1.423629 -1.405022 7.700426 8.13454
8.002692 7.8871417 7.785845 8.045612 -6.3957486 -6.7362714 -6.4261956 -6.5125637
00000000: e3d5 aebf 7624 c2bf d7d7 8abf 4d87 89bf
00000010: bb3c 84bf 5185 a2bf 6691 193e 92ad a83e
00000020: bf66 a53e c4ae 79bb 90ce bc3d 8f85 26be
00000030: f09e a640 56fa a440 dee5 b040 5d5f a540
00000040: 57c6 ae40 fb85 b040 f050 0ec0 58e3 fbbf
00000050: 13a2 fdbf 8d4d 04c0 6d8e 08c0 d244 00c0
00000060: 2906 0440 e0f4 e33f 7039 e33f 9090 d83f
00000070: bd8e e83f 4147 d83f cc90 b9c0 da40 b9c0
00000080: 4917 bcc0 f055 b3c0 e908 b6c0 fdd4 aec0
00000090: 15ed 79c0 768a 77c0 193b 6ec0 a8cf 70c0
000000a0: 94e4 5ec0 d7aa 6cc0 90dd 67c0 781e 67c0
000000b0: 10b7 60c0 39cf 63c0 3008 67c0 0c62 61c0
000000c0: 5656 dc40 7ea5 db40 e203 e040 1449 e140
000000d0: 384e d440 d576 d740 9702 8ac0 c4a3 94c0
000000e0: 17b5 8fc0 38d7 8fc0 d317 8cc0 e55d 93c0
000000f0: d1a5 4cc0 9962 4cc0 7bcf 3cc0 381b 3ec0
00000100: 20fc 42c0 51d4 49c0 dacb fac0 d5c5 fdc0
00000110: 1338 f9c0 6e8f fdc0 daea 02c1 009b 02c1
00000120: 4f19 0341 b6fe 0241 18b3 0641 0bef 0841
00000130: a3f3 0441 a1b3 0741 f4aa 4c40 550d 5840
00000140: c9a1 4040 54fa 5140 e167 4340 d43f 5140
00000150: dd9c d140 4c8c cd40 cdb1 d840 b5bc d640
00000160: 6727 db40 6e57 d040 e2d4 1541 5f5a 1941
00000170: 5e5b 1a41 ff6d 1441 8f89 1641 8fef 1841
00000180: 55cc 9340 0c74 8940 ecc2 8a40 dbbd 9040
00000190: 148e 9540 6294 8c40 5f12 cfc0 a6aa cec0
000001a0: c094 dcc0 fcbd d5c0 d7c3 d7c0 e0dd dac0
000001b0: 5ee5 ab40 8a2e a840 970a a340 099a ad40
000001c0: 675d ab40 1024 a440 b283 0a40 9c05 0640
000001d0: ed2f ff3f 44d3 0940 d83e 0f40 84f3 0440
000001e0: 6c69 d6c0 46a0 d7c0 fb4c dbc0 9d7c d8c0
000001f0: 7e53 dec0 9ccb dbc0 4e07 8cc0 975e 87c0
00000200: 57c6 83c0 634b 82c0 97d1 89c0 a16c 84c0
00000210: 432f ea40 b5da e440 a7f2 ed40 08aa ea40
00000220: 7f0d e740 7b27 e840 ddea 9abf 4665 8ebf
00000230: 995a 92bf 9fc9 83bf 5142 51bf db62 60bf
00000240: eb7b d040 ce84 c740 95a3 c840 3c0f ce40
00000250: cfb0 c840 54f8 cf40 8481 1ec0 0025 14c0
00000260: a087 2bc0 96a0 17c0 18c9 1ac0 f19f 1dc0
00000270: 7b82 bfc0 fe6d bdc0 02c4 cac0 1ccd c0c0
00000280: dfbb bdc0 522e c3c0 b238 9b40 6382 a240
00000290: dc2d a340 43f5 9a40 c4cc 9d40 2fba a840
000002a0: 36c1 d7c0 107e d5c0 8de5 d9c0 db06 d6c0
000002b0: 6175 d3c0 ba14 d1c0 d682 1441 ea2c 1041
000002c0: 956c 1541 49ba 1241 56ea 1041 640f 1441
000002d0: db2b aa3f 0eb8 af3f a0ad be3f 9cda ad3f
000002e0: 6d8b c23f 5799 b93f 29d8 7dbe a993 aabe
000002f0: 8985 dbbd dea3 933d 15bb cb3d 93cf 353d
00000300: a13f 993e 39d0 2b3f ffc3 463e 9878 483e
00000310: 4e13 87bd 527e 183d c12d 9c3f 156a a63f
00000320: 20b5 a33f f07a 983f c7b6 a03f 26b7 833f
00000330: c0b9 5ac0 23cf 44c0 414d 49c0 edb5 56c0
00000340: 69a5 4dc0 56ae 5cc0 439e c6c0 19d3 cdc0
00000350: 1d35 c6c0 6e71 d0c0 f2be cfc0 1d03 c7c0
00000360: 604b e2c0 8980 ddc0 4484 e0c0 8882 ddc0
00000370: f19a dcc0 ddb2 e4c0 76e6 c83c c632 ce3d
00000380: a0f8 2a3e c3fe dabc 8eb1 dc3c f423 a5bd
00000390: 2027 0741 08d4 0941 41e1 0941 8ac0 0641
000003a0: 8ac7 0641 8072 0741 70d3 4340 7868 4340
000003b0: df5d 3340 d636 4040 1012 4d40 c262 3e40
000003c0: 6fa3 a9bf 1112 a7bf 11f0 9dbf e278 a6bf
000003d0: 7a39 b6bf c3d7 b3bf e469 f640 1327 0241
000003e0: 070b 0041 7763 fc40 a425 f940 d4ba 0041
000003f0: f9a9 ccc0 898f d7c0 65a3 cdc0 ec66 d0c0

linears.0.bias f4 [100]
0.007987068 -0.0011707217 -0.025459459 0.014377027 -0.012151035 0.23631828 0.1441546 0.024011014
0.015392523 0.10923199 0.020846952 0.3153757 0.072893776 -0.021521173 0.02309443 0.018782213
-0.03033769 0.3203292 -0.06550153 -0.015089939 0.23088966 0.11853659 0.011448927 0.0064531835
0.020295825 0.016638715 0.3785234 -0.053272672 0.23949836 0.033555545 -0.010080176 -0.0004997302
-0.0012688336 -0.008067261 0.077153265 0.28371203 0.3508527 0.0031822424 0.11788492 -0.020882415
0.00918509 -0.016299138 0.25727805 -0.0041666706 0.22509243 0.12946448 -0.005797508 -0.018143728
0.0113302525 -0.014834348 0.19462551 -0.042648822 0.05621054 0.06774837 0.20378545 -0.013399196
0.30448353 0.7597357 -0.029436445 -0.017545879 -0.026012616 -0.029019492 -0.021402013 -0.019676145
0.0059894654 0.13919427 -0.023661686 0.113746874 0.2251807 0.19957285 0.1196197 0.03432556
0.032978922 -0.020619294 0.041099824 -0.016380392 0.017451964 0.00407967 0.30455866 0.13048686
0.05155148 -0.019663153 0.12870663 0.020904284 0.016248718 -0.048531152 0.24547188 -0.022602785
0.0062770457 0.017703393 -0.008251864 0.3586253 0.4254748 0.012302249 0.0091699185 -0.030703705
0.14181727 -0.026510708 0.18426219 0.00014395478
00000000: 31dc 023c e772 99ba 5b90 d0bc 9f8d 6b3c
00000010: 2215 47bc 6bfd 713e 439d 133e bfb2 c43c
00000020: ec30 7c3c 06b5 df3d 3ac7 aa3c ec78 a13e
00000030: 5549 953d 2c4d b0bc 8830 bd3c 28dd 993c
00000040: bf86 f8bc 3002 a43e ab25 86bd cb3b 77bc
00000050: 576e 6c3e 50c3 f23d 4894 3b3c 3a75 d33b
00000060: 6e43 a63c ea4d 883c d2cd c13e 7234 5abd
00000070: 0f3f 753e 8a71 093d 5327 25bc 5300 03ba
00000080: fe4e a6ba 8c2c 04bc 8802 9e3d b442 913e
00000090: f7a2 b33e 2b8d 503b a66d f13d 9911 abbc
000000a0: 0f7d 163c c585 85bc f3b9 833e 9188 88bb
000000b0: a17e 663e 5692 043e 06f9 bdbb 28a2 94bc
000000c0: 86a2 393c c40b 73bc e94b 473e 88b0 2ebd
000000d0: 063d 663d a8bf 8a3d 22ad 503e 4d88 5bbc
000000e0: 44e5 9b3e 0a7e 423f b324 f1bc 60bc 8fbc
000000f0: 6918 d5bc 49ba edbc 4653 afbc de2f a1bc
00000100: 4743 c43b f188 0e3e 27d6 c1bc 1ff4 e83d
00000110: c595 663e d35c 4c3e 2cfb f43d f598 0c3d
00000120: e814 073d cbe9 a8bc 4a58 283d 2c30 86bc
00000130: 6cf7 8e3c c1ae 853b 1def 9b3e 599e 053e
00000140: a527 533d 9f14 a1bc accb 033e 763f ab3c
00000150: 081c 853c 9ac8 46bd fb5c 7b3e 7a29 b9bc
00000160: adaf cd3b b506 913c d432 07bc bc9d b73e
00000170: d5d7 d93e 5f8f 493c 6d3d 163c 5686 fbbc
00000180: 8c38 113e fc2c d9bc 3aaf 3c3e 91f2 1639

linears.1.weight f4 [100, 100]
0.23642255 -0.40475482 0.05879951 0.2618455 0.033775352 0.19549684 -0.16212825 0.033653595
-0.03720819 0.110594705 0.14937735 0.040844064 0.08785992 0.082553424 0.15057945 0.0075278673
-0.13284037 -0.19618443 -0.10379711 0.05719554 -0.008950517 0.18615596 0.12046462 0.5818525
-0.113414206 0.101544246 -0.13198517 -0.28699234 -0.050824855 0.035024736 0.093716756 0.12846239
-0.44947675 -0.11336786 0.19245872 0.11440917 -0.08147733 -0.10686997 0.1264217 -0.012728269
0.30324075 0.00811545 0.084055446 -0.008633419 0.030406576 0.27316153 -0.09685849 0.12640236
0.103973 -0.16613664 0.008676812 -0.08876407 0.056867015 0.10299541 0.078279905 -0.26181448
-0.13543399 0.340015 0.045546867 -0.15505426 -0.15584965 -0.03016223 -0.0028837677 -0.016154883
0.09127374 0.018133292 -0.13704546 0.27100953 0.037746362 0.14808492 0.15929666 -0.015603799
0.09697491 -0.18858397 0.14602388 -0.12655187 0.2605508 -0.051702194 -0.13891202 -0.109642684
0.24402611 -0.033938017 0.16054174 0.04103259 0.24516985 -0.14650795 0.032491174 0.05749869
0.6311631 0.40467775 0.14961393 -0.23065446 -0.0833577 0.2928602 0.23317866 0.007909052
0.13100025 0.055551432 0.0043755723 -0.31441674 0.083245724 0.054584507 -0.06475277 0.1510338
-0.15047885 -0.14808677 -0.020595033 0.048467156 -0.21765576 0.12505326 -0.15441997 -0.17440626
-0.04450643 0.09347092 0.03342266 -0.0053213174 -0.011747093 -0.15971884 0.27504513 -0.07844588
-0.014435481 -0.038363222 0.053248007 0.15651833 -0.17755634 0.20665802 -0.078413054 0.11510492
-0.22842962 -0.11015993 0.14761615 0.08222581 -0.042319637 0.08826926 -0.12582567 -0.31524643
-0.23248453 -0.03327739 -0.024026107 -0.22493564 0.20583783 0.08857901 -0.0023180414 -0.015197337
-0.06273456 0.051607266 -0.04919788 -0.09294949 0.07659298 -0.011938482 -0.26843795 0.24032393
0.026292764 0.025702748 0.020075168 -0.2896552 -0.30120057 -0.5349833 0.073416255 -0.028281773
-0.15387529 0.0990587 -0.13566 0.0029250272 0.18379301 -0.14752433 -0.050294034 -0.30571207
-0.045381147 -0.20930126 -0.15079165 -0.0712743 0.15421645 -0.22899444 0.0117667485 -0.1404721
0.16315517 -0.23395966 -0.13403642 -0.29662094 -0.051563047 -0.3122351 -0.12595332 0.20858705
0.31286004 0.20280512 -0.099240236 -0.0768128 0.17136016 0.4211483 0.22846963 -0.21340255
-0.3112482 0.11581501 -0.10949663 0.09664525 -0.0011787461 0.04893517 -0.18732937 -0.13981697
-0.38195798 0.24617854 -1.5770978 -0.51901585 0.49384695 0.9221998 0.33834255 0.15883508
-2.5364642 0.51874423 -0.019876666 1.9377216 -2.2007551 0.019569963 -2.071411 -7.905854
-0.12666325 1.5745571 -1.1488608 0.42151237 2.1690543 0.3929008 -3.4017997 -0.16714512
-1.9669565 -0.48816174 1.1698054 -0.74366343 1.566225 -6.180441 0.56525874 0.18418963
0.13409533 0.47815406 0.47780967 1.3621769 1.2545277 0.041666824 -2.059107 -0.03654212
-0.24592403 -7.876268 1.2689563 -1.509269 0.6301976 0.5676714 -3.0162673 0.17089824
-0.49716043 -7.0524473 -1.1167352 -7.401503 -1.5513731 -5.0078287 1.5393742 0.19869229
00000000: c118 723e 063c cfbe c1d7 703d 9d10 863e
00000010: 0658 0a3d 5330 483e f304 26be 5ad8 093d
00000020: 9d67 18bd 7a7f e23d 60f6 183e 1b4c 273d
00000030: e7ef b33d c511 a93d 8031 1a3e 54ac f63b
00000040: 4e07 08be 92e4 48be 9493 d4bd df45 6a3d
00000050: 30a5 12bc ab9f 3e3e 28b6 f63d 49f4 143f
00000060: b545 e8bd 6ef6 cf3d 1f27 07be a9f0 92be
00000070: b92d 50bd 1976 0f3d 92ee bf3d a58b 033e
00000080: d121 e6be 692d e8bd e613 453e 5b4f ea3d
00000090: 96dd a6bd a5de dabd b174 013e 3b8a 50bc
000000a0: 5f42 9b3e aaf6 043c 4325 ac3d 2f73 0dbc
000000b0: 3617 f93c d4db 8b3e be5d c6bd 9f6f 013e
000000c0: ccef d43d b91f 2abe 3029 0e3c f0c9 b5bd
000000d0: 63ed 683d 42ef d23d 3751 a03d 8c0c 86be
000000e0: 35af 0abe 7216 ae3e 5a8f 3a3d 8bc6 1ebe
000000f0: 0d97 1fbe c816 f7bc 98fd 3cbb 3f57 84bc
00000100: baed ba3d 458c 943c a555 0cbe c3c1 8a3e
00000110: ee9b 1a3d 93a3 173e aa1e 233e 14a7 7fbc
00000120: c89a c63d 281c 41be 4987 153e d096 01be
00000130: ea66 853e aec5 53bd f43e 0ebe 588c e0bd
00000140: fbe1 793e 9702 0bbd 0e65 243e ca11 283d
00000150: ce0d 7b3e 2e06 16be 7715 053d bf83 6b3d
00000160: e893 213f ec31 cf3e 6534 193e af30 6cbe
00000170: 71b7 aabd c6f1 953e 63c6 6e3e f894 013c
00000180: ee24 063e e689 633d f660 8f3b 3bfb a0be
00000190: bc7c aa3d 0194 5f3d 1a9d 84bd 9ba8 1a3e
000001a0: 2117 1abe 0fa4 17be eab6 a8bc 7f85 463d
000001b0: 27e1 5ebe f60d 003e 4520 1ebe 8e97 32be
000001c0: 604c 36bd af6d bf3d 33e6 083d 725e aebb
000001d0: e176 40bc 568d 23be b7d2 8c3e 3ca8 a0bd
000001e0: cc82 6cbc c122 1dbd 951a 5a3d 5746 203e
000001f0: 54d1 35be 299e 533e 0697 a0bd 21bc eb3d
00000200: 74e9 69be 889b e1bd b028 173e 0166 a83d
00000210: 5b57 2dbd 84c6 b43d 72d8 00be fb67 a1be
00000220: 6d10 6ebe df4d 08bd 66d2 c4bc 8755 66be
00000230: 27c7 523e e968 b53d 48ea 17bb 40fe 78bc
00000240: fa7a 80bd 2462 533d b783 49bd 4d5c bebd
00000250: c8dc 9c3d 9f99 43bc b370 89be 7a17 763e
00000260: ec63 d73c 928e d23c ae74 a43c b04d 94be
00000270: f636 9abe aaf4 08bf 435b 963d 2daf e7bc
00000280: 7c91 1dbe 4adf ca3d 74ea 0abe d0b1 3f3b
00000290: 3c34 3c3e 9e10 17be 1e01 4ebd 4b86 9cbe
000002a0: 95e1 39bd 1253 56be 2069 1abe 43f8 91bd
000002b0: ebea 1d3e 857d 6abe 52c9 403c ebd7 0fbe
000002c0: 2612 273e 1f93 6fbe d840 09be b3de 97be
000002d0: c633 53bd 47dd 9fbe e8f9 00be d897 553e
000002e0: 312f a03e 25ac 4f3e 773e cbbd 0750 9dbd
000002f0: 0a79 2f3e c0a0 d73e f1f3 693e 3386 5abe
00000300: ed5b 9fbe 6c30 ed3d c53f e0bd f2ed c53d
00000310: 2880 9aba 3f70 483d 45d3 3fbe 2e2c 0fbe
00000320: ff8f c3be 3a16 7c3e 57de c9bf 39de 04bf
00000330: 82d9 fc3e 4915 6c3f 3c3b ad3e aaa5 223e
00000340: 6e55 22c0 6ccc 043f 64d4 a2bc 4307 f83f
00000350: 2cd9 0cc0 3051 a03c ff91 04c0 c2fc fcc0
00000360: 03b4 01be 168b c93f df0d 93bf 78d0 d73e
00000370: c9d1 0a40 4b2a c93e 16b7 59c0 1728 2bbe
00000380: 3bc5 fbbf 56f0 f9be 2fbc 953f ba60 3ebf
00000390: 107a c83f 2cc6 c5c0 ccb4 103f 359c 3c3e
000003a0: 4950 093e 9cd0 f43e 78a3 f43e d05b ae3f
000003b0: 5d94 a03f d5aa 2a3d 69c8 03c0 31ad 15bd
000003c0: 82d3 7bbe 630a fcc0 296d a23f ba2f c1bf
000003d0: a154 213f ea52 113f 860a 41c0 f3ff 2e3e
000003e0: d08b febe a6ad e1c0 2ef1 8ebf 1dd9 ecc0
000003f0: 6593 c6bf 2240 a0c0 370a c53f fe75 4b3e

linears.1.bias f4 [100]
-0.21388239 -0.42597145 -0.03936429 0.03490366 0.07361576 0.14575768 -0.03163921 -0.11217666
0.27048132 0.015233446 -0.15907066 -0.09726128 -0.18132854 -0.24252264 -0.276558 0.18229038
-0.031488325 0.012764406 -0.16201957 -0.20087582 -0.5764954 -0.6196723 0.22324795 0.06630689
-0.012591925 0.67365456 0.028995847 -0.74687684 -0.19427685 -0.037094604 0.30334386 0.046823423
0.22392374 0.18660861 0.07546833 -0.10003291 -0.041497964 0.026032807 0.33088517 0.04428616
0.24557282 -0.19316535 -0.07671485 -0.26951602 -0.15600215 -0.21924083 0.055165417 0.0711279
-0.6265038 -0.15096684 -0.8290549 0.06268968 0.18171933 0.26948276 -0.14545777 -0.0717147
-0.032984972 0.28241903 0.25227505 0.17681584 0.012001459 -0.4217868 0.09325276 -0.014245513
-0.01480214 0.011453042 0.34239045 0.1372677 -0.4538418 -0.22025585 -0.7097639 -0.45109722
0.23311466 0.3276272 -0.054122917 0.057419654 0.034166742 0.06410613 -0.258508 0.05583925
0.3157148 0.019564768 -0.08629133 -0.09710059 -0.122398786 -0.36201927 0.34441537 -0.25870615
-0.20894417 -0.3338124 0.47357363 0.011649768 0.0269982 -0.17180185 -0.23796189 0.15679865
0.34385213 -0.8279566 0.045010697 0.055836163
00000000: fc03 5bbe ee18 dabe 733c 21bd 24f7 0e3d
00000010: dcc3 963d 8041 153e 1e98 01bd e0bc e5bd
00000020: 877c 8a3e b495 793c 6be3 22be ec30 c7bd
00000030: 30ae 39be db57 78be 0399 8dbe 54aa 3a3e
00000040: e7f9 00bd cd21 513c 75e8 25be 64b2 4dbe
00000050: 3495 13bf d8a2 1ebf 1c9b 643e e8cb 873d
00000060: 5d4e 4ebc a074 2c3f b388 ed3c 5233 3fbf
00000070: 83f0 46be 83f0 17bd e34f 9b3e ebc9 3f3d
00000080: 444c 653e 5416 3f3e 248f 9a3d 0ede ccbd
00000090: c5f9 29bd c142 d53c c869 a93e 6865 353d
000000a0: 7177 7b3e 23cd 45be ad1c 9dbd 01fe 89be
000000b0: 07bf 1fbe ab80 60be 22f5 613d 81ab 913d
000000c0: 8e62 20bf 0d97 1abe f13c 54bf 7263 803d
000000d0: a214 3a3e a5f9 893e e2f2 14be 28df 92bd
000000e0: 401b 07bd 3a99 903e 322a 813e 360f 353e
000000f0: c4a1 443c 70f4 d7be 4efb be3d 0366 69bc
00000100: ad84 72bc 8aa5 3b3c cd4d af3e e78f 0c3e
00000110: f45d e8be c08a 61be 16b3 35bf 37f6 e6be
00000120: 9cb5 6e3e c1be a73e feaf 5dbd df30 6b3d
00000130: 6df2 0b3d 134a 833d 295b 84be b3b7 643d
00000140: 5fa5 a13e 4b46 a03c 82b9 b0bd addc c6bd
00000150: 37ac fabd 975a b9be 3657 b03e 2275 84be
00000160: 76f5 55be 75e9 aabe 3e78 f23e abde 3e3c
00000170: 542b dd3c d3ec 2fbe 48ac 73be d38f 203e
00000180: 630d b03e f7f4 53bf 235d 383d 76b4 643d

linears.2.weight f4 [100, 100]
0.031095592 -0.05746326 -0.0733604 -0.021192428 0.004658868 -0.092057206 0.08246123 0.016216341
-0.0809694 -0.088180475 0.20990916 -0.102406226 -0.003988767 0.2504688 0.0065327357 -0.053282365
-0.17141479 -0.09555641 0.03230595 0.019101873 0.020678077 -0.107227616 0.15983775 -0.10168847
0.049993075 -0.020659951 -0.14348947 0.081677124 -0.0040750233 -0.1101732 0.09230986 0.013345108
0.09928662 0.0016961745 -0.025069915 0.081818886 0.10997137 -0.17354682 0.07769591 0.089382656
-0.06114152 0.24553524 0.1526231 -0.18202266 0.12430244 0.02105444 0.040647484 -0.24128293
0.06663207 0.07453393 -0.076244764 -0.0004352475 0.1839911 -0.013237889 0.035115667 -0.11596733
-0.1371487 0.029455986 0.08657791 -0.07613057 0.027358443 0.2693397 -0.060961533 0.054622836
0.038820803 0.2017921 0.05199572 0.012586446 -0.14799039 -0.17589803 0.02976639 0.23969813
-0.052998804 -0.16720599 0.0064409724 -0.07357415 -0.15462625 0.03417747 0.0039538615 0.13113205
0.12462588 -0.07472283 -0.12861088 -0.064434364 -0.03706677 -0.07267517 0.1421219 0.015685184
0.02664178 -0.032734588 0.20798269 0.16953117 -0.16821863 -0.07624602 -0.08776408 0.035895765
-0.058685783 0.000516848 0.14891702 0.04519975 0.19103982 -0.11895736 -0.017766079 0.6026061
-0.3570826 0.2658269 0.46510145 0.25330082 0.020297341 0.19843186 0.0052648345 0.08498379
0.6006392 0.33206046 0.2564254 1.1466846 0.033900764 0.40401423 0.1538262 0.2896375
0.036705777 0.1942095 0.11129435 0.6464842 0.10990068 0.6613853 0.39506695 0.2574266
0.08416603 1.8248444 -0.027004106 -0.037581928 0.27634487 -0.5279673 0.0028167206 0.82706356
-0.38090926 -0.32983476 0.089918636 -0.05617321 0.9316915 -0.39220917 0.3057466 0.3918694
1.4582489 -0.011780914 1.4017757 0.23578267 -0.046312418 0.8976491 -0.029853238 0.47149718
0.43272108 1.0246913 0.5082669 0.3085478 0.28694126 0.24692625 -0.35766348 0.42367846
0.9040315 0.4278066 0.29264754 1.1398243 0.30950883 1.1862154 0.17616205 -0.62576985
0.12904847 -0.0207925 -0.0011822388 0.47123185 0.62388706 -0.045780778 0.89611566 -0.42775238
-0.043733824 -0.118857674 0.8111464 -0.10856307 -0.1852688 0.4952942 0.22930048 0.1679781
0.26875088 -0.18328522 0.48900047 0.20487915 0.4394796 -0.8413402 0.47069663 -0.18168323
-0.113048114 0.4519868 0.8251554 -0.23084973 0.21935026 0.1055838 0.11424144 1.2302005
-0.028942615 -0.24469829 0.16720356 -0.021010406 -0.35061106 0.30838576 -0.020613007 -0.069757275
0.37704465 0.10907492 -0.047329426 0.032147218 -0.019654717 -0.17329521 -0.36807528 0.710834
0.15130793 0.16447464 0.017097333 -0.27243885 -0.030256037 -0.45588937 0.10021725 0.021229042
-0.051864617 0.66216934 0.14212015 0.25417203 -0.08171204 0.22803906 0.08266519 0.16560304
0.07224191 -0.6175925 0.032941565 0.76769406 -0.19600292 -0.078075044 0.19596972 0.12146405
0.5151693 -0.39542258 0.2170884 0.2057045 0.037544504 -0.13806303 0.18097359 0.13689864
-0.3077936 -0.108934395 -0.16226576 0.14271252 0.2411027 0.87646866 -0.1148401 0.06790917
00000000: 2fbc fe3c 985e 6bbd fa3d 96bd be9b adbc
00000010: 6ba9 983b 7d88 bcbd 6fe1 a83d 22d8 843c
00000020: 49d3 a5bd f797 b4bd 6df2 563e 5bba d1bd
00000030: 34b4 82bb 723d 803e 8f10 d63b 9c3e 5abd
00000040: 5c87 2fbe 14b3 c3bd 3e53 043d 887b 9c3c
00000050: 1265 a93c 279a dbbd 82ac 233e 0b42 d0bd
00000060: 8ac5 4c3d 0f3f a9bc e7ee 12be 5646 a73d
00000070: c687 85bb 7da2 e1bd f40c bd3d 71a5 5a3c
00000080: c956 cb3d 2c52 de3a 6c5f cdbc a990 a73d
00000090: ab38 e13d 42b6 31be 091f 9f3d 410e b73d
000000a0: 886f 7abd 976d 7b3e 3b49 1c3e 2664 3abe
000000b0: 4792 fe3d 5c7a ac3c fa7d 263d df12 77be
000000c0: 6576 883d 3fa5 983d 3726 9cbd ee31 e4b9
000000d0: 2a68 3c3e bbe3 58bc 72d5 0f3d 4880 edbd
000000e0: b570 0cbe ae4d f13c c24f b13d 58ea 9bbd
000000f0: d01e e03c e5e6 893e cdb2 79bd 32bc 5f3d
00000100: 9002 1f3d 97a2 4e3e 77f9 543d 6137 4e3c
00000110: cb8a 17be 9d1e 34be a5d8 f33c 6d73 753e
00000120: 4615 59bd 0c38 2bbe cb0e d33b 0bae 96bd
00000130: 5856 1ebe adfd 0b3d 658f 813b 7b47 063e
00000140: da3b ff3d 4808 99bd 92b2 03be 2af6 83bd
00000150: 53d3 17bd b8d6 94bd 6788 113e 377e 803c
00000160: dd3f da3c b414 06bd 6af9 543e 9499 2d3e
00000170: 8141 2cbe e026 9cbd a7bd b3bd 7007 133d
00000180: 8160 70bd 157d 073a b47d 183e 6023 393d
00000190: f19f 433e eb9f f3bd 2b8a 91bc 6544 1a3f
000001a0: 88d3 b6be 771a 883e c721 ee3e a5b0 813e
000001b0: 9c46 a63c b931 4b3e a284 ac3b fb0b ae3d
000001c0: 7ec3 193f d403 aa3e 314a 833e 90c6 923f
000001d0: 87db 0a3d f4da ce3e 9e84 1d3e 5e4b 943e
000001e0: cc58 163d dbde 463e 4bee e33d fd7f 253f
000001f0: 9c13 e13d 8c50 293f 3746 ca3e 6bcd 833e
00000200: 3d5f ac3d 8094 e93f b737 ddbc 82ef 19bd
00000210: 137d 8d3e dd28 07bf bb98 383b 70ba 533f
00000220: 8a06 c3be 1ae0 a8be 4327 b83d e115 66bd
00000230: 5683 6e3f a4cf c8be d18a 9c3e 1ba3 c83e
00000240: e6a7 ba3f bc04 41bc 636d b33f 0371 713e
00000250: 17b2 3dbd 55cc 653f c78e f4bc 1468 f13e
00000260: 9e8d dd3e 1629 833f c81d 023f faf9 9d3e
00000270: f7e9 923e 3cda 7c3e ab1f b7be 62ec d83e
00000280: 9c6e 673f 7709 db3e e6d5 953e c3e5 913f
00000290: f177 9e3e e8d5 973f d363 343e 7432 20bf
000002a0: 4825 043e 0855 aabc 5af5 9aba 4d45 f13e
000002b0: 10b7 1f3f a084 3bbd d667 653f 5c02 dbbe
000002c0: 3d22 33bd a76b f3bd 4aa7 4f3f 5156 debd
000002d0: 1bb7 3dbe 3497 fd3e bfcd 6a3e 7302 2c3e
000002e0: b799 893e 1faf 3bbe 455e fa3e d7cb 513e
000002f0: 7803 e13e 1262 57bf 26ff f03e 2b0b 3abe
00000300: c585 e7bd d06a e73e 623d 533f df63 6cbe
00000310: 5b9d 603e 523c d83d 6bf7 e93d 3677 9d3f
00000320: 1019 edbc 3092 7abe 6937 2b3e 041e acbc
00000330: 4b83 b3be bde4 9d3e 9cdc a8bc e7dc 8ebd
00000340: ff0b c13e ac62 df3d 80dc 41bd cdac 033d
00000350: ee02 a1bc 4d74 31be 5d74 bcbe 38f9 353f
00000360: 77f0 1a3e 0a6c 283e b50f 8c3c 1b7d 8bbe
00000370: 82db f7bc 556a e9be b43e cd3d 87e8 ad3c
00000380: fe6f 54bd ee83 293f f287 113e d622 823e
00000390: a458 a7bd 1283 693e 5e4c a93d d893 293e
000003a0: 91f3 933d 8b1a 1ebf bced 063d 9987 443f
000003b0: fdb4 48be cfe5 9fbd 49ac 483e 25c2 f83d
000003c0: 23e2 033f d474 cabe 6c4c 5e3e 33a4 523e
000003d0: 44c8 193d 6560 0dbe 2451 393e 282f 0c3e
000003e0: 1f97 9dbe ff18 dfbd ff28 26be 3b23 123e
000003f0: a0e3 763e 4060 603f 4931 ebbd f713 8b3d

linears.2.bias f4 [100]
-0.0058220816 -0.078108795 0.25213477 -0.51137775 -0.13548298 -0.086441964 -0.10368794 -0.08954451
-0.39243758 -0.12878786 -0.41971445 -0.131361 0.014452232 -0.5274248 -0.27516767 -0.13448037
-0.11008655 0.018850213 -0.56036234 -0.107639536 -0.30867392 -0.1663128 -0.14916316 0.042703457
0.0016043829 -0.46176317 -0.027920056 0.0055724606 -0.09127 -0.2934442 0.006827508 -0.014323923
-0.11037898 0.65904766 -0.16983779 -0.41963923 -0.19489872 -0.10747772 -0.4232757 -1.1034793
-0.79280514 -0.19127283 -0.24479972 -0.47085497 -0.14532913 -0.08863979 -0.03556595 -0.08994596
-0.33041635 -0.25796542 -0.37566856 -0.32455912 -0.11366778 -0.13176996 -0.21602438 -0.06182313
-0.4674181 -0.5285206 -0.18574445 -0.08075901 -0.22810769 0.14732885 -0.053780768 -0.9083564
-0.03121851 -3.547736 -0.56925315 -0.11333158 0.08689239 -0.09271586 -2.805315 -0.22276117
-0.6820063 -0.2312075 -0.27086362 -0.3245409 -0.6037602 -0.1634602 -0.37214345 0.025479807
-0.121675424 -0.06384279 -0.49722838 -0.43991053 -0.01020739 -0.073932774 -0.18477432 -0.29024345
0.011777216 -0.1080013 -0.32992533 -0.030517295 -0.14614122 -0.042127114 -0.20359054 -0.22973283
-0.07470951 -0.22310649 -1.0528166 0.08106094
00000000: 29c7 bebb 81f7 9fbd cf17 813e a7e9 02bf
00000010: 0dbc 0abe 7c08 b1bd 585a d4bd 1d63 b7bd
00000020: 94ed c8be f7e0 03be d0e4 d6be 7f83 06be
00000030: 0ec9 6c3c 5005 07bf c7e2 8cbe 39b5 09be
00000040: 0f75 e1bd c36b 9a3c e873 0fbf 1e72 dcbd
00000050: 820a 9ebe e74d 2abe 3abe 18be d2e9 2e3d
00000060: 284a d23a 396c ecbe 9ab8 e4bc 3099 b63b
00000070: c4eb babd 513e 96be 4ab9 df3b e3ae 6abc
00000080: 600e e2bd 59b7 283f f5e9 2dbe f4da d6be
00000090: 8893 47be 471d dcbd 98b7 d8be cf3e 8dbf
000000a0: 47f5 4abf 06dd 43be c7ac 7abe e713 f1be
000000b0: 29d1 14be c788 b5bd 9aad 11bd 9635 b8bd
000000c0: 552c a9be 0b14 84be a157 c0be 9d2c a6be
000000d0: a7ca e8bd b4ee 06be 7f35 5dbe 403a 7dbd
000000e0: 6d51 efbe 204d 07bf cb33 3ebe fb64 a5bd
000000f0: 1095 69be 60dd 163e 3949 5cbd 0c8a 68bf
00000100: f6bd ffbc 1b0e 63c0 93ba 11bf 631a e8bd
00000110: a3f4 b13d d0e1 bdbd 488a 33c0 811b 64be
00000120: f797 2ebf a9c1 6cbe a3ae 8abe 3a2a a6be
00000130: 0790 1abf 1c62 27be 9689 bebe 07bb d03c
00000140: f730 f9bd 02c0 82bd b894 febe f43b e1be
00000150: e63c 27bc 116a 97bd 7b35 3dbe ca9a 94be
00000160: 39f5 403c c92f ddbd f9eb a8be 68ff f9bc
00000170: 0ba6 15be 7b8d 2cbd 0a7a 50be 153f 6bbe
00000180: 4d01 99bd 0776 64be b2c2 86bf 4703 a63d

linears.3.weight f4 [3, 100]
-0.0008483854 0.17672604 0.3996301 0.054961566 -0.5817988 0.14493787 -0.08182068 1.9538254
-0.82855177 -0.66719174 -0.7894718 0.04552875 -0.0017253562 0.03095693 -0.45481938 0.14486532
0.0005607217 0.0003858736 -1.055747 -0.34553516 -2.0003238 -1.2283713 -0.8025899 0.00019292923
-0.0010558062 -0.4950523 -0.21446113 8.85075e-05 -0.77331984 -1.412505 -0.0010305746 -0.8546125
-0.0012349385 0.20243768 -0.60355914 -0.72287893 -0.55853546 0.37180018 -0.28226766 0.124627106
-4.774569 -0.0019351118 -0.021892782 0.021518283 -0.14849111 -1.1334792 0.5656021 -0.0034225094
-2.5606353 -1.7924868 -0.19308326 -0.044195164 -0.46084437 0.16896941 -0.4536306 -0.0018134407
-2.3728938 -1.525459 -1.0973341 -0.45810348 -0.02941373 -0.9498941 0.0014181624 -3.1724918
-0.01860282 0.62854224 -0.14180584 -0.0017214688 0.003368459 -0.0007041189 0.06731107 1.0693194
0.03193801 -0.9020433 -0.42141008 -1.3386625 -0.868315 -0.0042963666 -0.53590745 -0.31515723
0.08094445 -0.0008100825 -0.052560855 -0.3251584 -0.0010664389 -0.34913394 -0.8752646 -1.0381273
0.0014388133 -0.9796263 -0.39488962 -0.039785907 -0.21062528 -0.002200044 -0.9030512 -0.4758503
-0.61572355 -0.5336653 5.052821 0.5277431 5.8098372e-05 0.004791896 -0.004334018 0.16448274
0.0003082596 -0.055047505 -0.023970706 -0.002408629 0.000109060806 -0.2881979 0.08920931 -0.05271671
-0.00016143372 0.0028759688 0.112943426 0.0169133 4.3818338e-05 4.372189e-05 -0.024498288 -0.0049691577
-0.081888825 0.04424855 -0.27759987 -0.00010449223 -2.6030993e-05 -1.5932812e-05 0.33650923 2.505254e-05
-0.15753236 -0.011212788 5.336981e-05 -0.009510838 6.779777e-05 -0.07868598 -0.010269447 -0.003450152
-0.18417978 -0.015604971 0.10646077 -0.0031217008 -0.16093929 -0.00038260224 0.0054106642 0.006000798
0.028313069 0.088640794 -0.085421234 -5.543469e-06 -0.020919686 -0.094832055 -0.019552702 -0.007909461
-0.21849082 0.0054281787 0.12859915 0.00010814699 -0.045266487 -0.0010909296 -0.0064101415 0.01573254
-0.13906318 5.5635683e-05 9.536002e-06 -0.45716664 -0.0035152952 -0.00018372305 0.1746978 4.5907676e-05
-0.00040759827 -8.1317645e-05 -0.0005120422 0.040666204 0.0008184101 -0.2794308 0.1190339 -0.006325222
0.10908976 -0.14122622 -0.0029873564 0.00805686 -0.027693603 0.00014859211 0.14698046 0.15526377
-5.596796e-06 0.048205547 0.008563334 0.07738748 1.8717434e-05 -0.10209245 0.12541124 0.028016144
0.08290793 2.4322211e-05 0.00014916094 0.0038396888 -0.20499626 0.029355263 -0.07267817 0.016022814
-0.0009357118 2.6424856 0.6354713 -0.35175884 -0.14047448 10.375136 15.032884 1.1418111
-1.1216232 -0.5611135 -0.8498091 13.565438 -0.00047768117 -2.4047148 -0.89660525 2.761829
-1.1283607e-05 -0.00013386681 7.4141417 0.53732806 -0.7196075 -1.0550349 -0.24819757 0.0010920699
-0.00087852817 -0.34704098 6.0112667 -0.0012032511 -0.63439816 0.28177354 -0.0007555211 -0.44909197
-0.0015166996 1.2313615 0.11143462 -0.5118873 -0.34560958 8.436765 -0.7693966 -37.71389
1.01027 0.003958954 -0.19700764 0.4179387 3.3368707 -5.8906426 4.6587806 -0.0031292068
1.1325009 -2.1332417 -7.2391143 15.86697 -0.5010597 -0.08102473 -0.7518541 -0.0014895769
00000000: 2e66 5eba acf7 343e 519c cc3e 611f 613d
00000010: c4f0 14bf 986a 143e 9a91 a7bd f316 fa3f
00000020: f81b 54bf 14cd 2abf d31a 4abf 5b7c 3a3d
00000030: 5925 e2ba 6399 fd3c 16de e8be 9357 143e
00000040: 65fd 123a 144f ca39 b822 87bf fce9 b0be
00000050: 4e05 00c0 453b 9dbf 8876 4dbf 0c4d 4a39
00000060: fa62 8aba 7f77 fdbe b39b 5bbe 1a9d b938
00000070: 4af8 45bf f7cc b4bf 5814 87ba e3c7 5abf
00000080: a9dd a1ba d34b 4f3e da82 1abf 980e 39bf
00000090: 2efc 0ebf 985c be3e 6385 90be 7f3c ff3d
000000a0: 45c9 98c0 94a3 fdba 7e58 b3bc 1c47 b03c
000000b0: 0e0e 18be d915 91bf 4dcb 103f 2e4c 60bb
000000c0: 73e1 23c0 3570 e5bf 9eb7 45be fd05 35bd
000000d0: cbf3 ebbe 5106 2d3e 4542 e8be f9b0 edba
000000e0: 7edd 17c0 3e42 c3bf 7275 8cbf 8a8c eabe
000000f0: 10f5 f0bc 422c 73bf a2e1 b93a 1b0a 4bc0
00000100: f164 98bc 25e8 203f 8d35 11be e8a2 e1ba
00000110: 5dc1 5c3b 9f94 38ba 63da 893d 75df 883f
00000120: 6ed1 023d 4fec 66bf 10c3 d7be 4b59 abbf
00000130: e449 5ebf 89c8 8cbb 3b31 09bf 4a5c a1be
00000140: 34c6 a53d b75b 54ba 0d4a 57bd 297b a6be
00000150: c0c7 8bba afc1 b2be 5711 60bf 5be1 84bf
00000160: 9096 bc3a cac8 7abf f92e cabe 8cf6 22bd
00000170: 27ae 57be 9d2e 10bb 5d2e 67bf a7a2 f3be
00000180: 0fa0 1dbf 4a9e 08bf b6b0 a140 2c1a 073f
00000190: a7ae 7338 5605 9d3b 6104 8ebb 2a6e 283e
000001a0: e79d a139 7e79 61bd 375e c4bc 17da 1dbb
000001b0: 93b7 e438 ad8e 93be 5fb3 b63d 7aed 57bd
000001c0: 8946 29b9 c07a 3c3b e24e e73d c38d 8a3c
000001d0: 95c9 3738 0662 3738 a2b0 c8bc 51d4 a2bb
000001e0: 54b5 a7bd f83d 353d 9221 8ebe d722 dbb8
000001f0: 225d dab7 74a7 85b7 f04a ac3e ec27 d237
00000200: 2a50 21be d7b5 37bc 66d9 5f38 59d3 1bbc
00000210: a72e 8e38 1d26 a1bd 2f41 28bc f21b 62bb
00000220: a099 3cbe feab 7fbc 1b08 da3d 7395 4cbb
00000230: 45cd 24be 0198 c8b9 f14b b13b 58a2 c43b
00000240: cff0 e73c 4e89 b53d 54f1 aebd 0902 bab6
00000250: c35f abbc 4f37 c2bd fd2c a0bc af96 01bc
00000260: 0fbc 5fbe ddde b13b 7faf 033e f9cc e238
00000270: 5a69 39bd 86fd 8eba 2a0c d2bb 87e1 803c
00000280: 9466 0ebe 5c5a 6938 d1fc 1f37 bf11 eabe
00000290: de60 66bb c8a5 40b9 fbe3 323e fe8c 4038
000002a0: eab2 d5b9 1489 aab8 923a 06ba 9b91 263d
000002b0: 928a 563a 8e11 8fbe 0cc8 f33d cf43 cfbb
000002c0: 746a df3d 9b9d 10be 86c7 43bb ec00 043c
000002d0: b2dd e2bc 64cf 1b39 0c82 163e 77fd 1e3e
000002e0: 1dcc bbb6 2e73 453d 3a4d 0c3c 547d 9e3d
000002f0: 6203 9d37 d915 d1bd ce6b 003e 1d82 e53c
00000300: a2cb a93d 8d07 cc37 1668 1c39 4aa3 7b3b
00000310: 8aea 51be 737a f03c 4bd8 94bd 4742 833c
00000320: 8e4a 75ba 7c1e 2940 3fae 223f bc19 b4be
00000330: 8bd8 0fbe 8f00 2641 b186 7041 de26 923f
00000340: 5991 8fbf 22a5 0fbf 178d 59bf 090c 5941
00000350: 4871 fab9 d9e6 19c0 ec87 65bf cec1 3040
00000360: b94e 3db7 995e 0cb9 a640 ed40 558e 093f
00000370: 3238 38bf 620b 87bf 8127 7ebe c923 8f3a
00000380: 074d 66ba 5baf b1be 4c5c c040 68b6 9dba
00000390: eb67 22bf 9f44 903e 2a0e 46ba 62ef e5be
000003a0: fecb c6ba 419d 9d3f d637 e43d 0c0b 03bf
000003b0: bdf3 b0be fdfc 0641 2df7 44bf 06db 16c2
000003c0: 8750 813f 1dba 813b 5fbc 49be 10fc d53e
000003d0: 4a8f 5540 2580 bcc0 bb14 9540 6113 4dbb
000003e0: caf5 903f 0887 08c0 d3a6 e7c0 1cdf 7d41
000003f0: 7345 00bf 4bf0 a5bd 8379 40bf e83d c3ba

linears.3.bias f4 [3]
0.63607436 0.23036554 0.46766025
00000000: c5d5 223f f2e4 6b3e 2a71 ef3e

exp_avg f4 [100, 6]
-2.0033321e-10 -2.003325e-10 -4.0066075e-10 -6.0098265e-10 -8.012907e-10 -1.0015841e-09 -9.580563e-11 -9.5805565e-11
-1.9161073e-10 -2.8741592e-10 -3.8321957e-10 -4.790216e-10 1.8249173e-09 1.824921e-09 3.649832e-09 5.4748948e-09
7.299777e-09 9.1249355e-09 -6.254019e-11 -6.2540154e-11 -1.2508272e-10 -1.8762474e-10 -2.5017263e-10 -3.1272435e-10
2.4752392e-10 2.4752278e-10 4.950445e-10 7.425611e-10 9.900702e-10 1.2375649e-09 3.8211878e-10 3.821103e-10
7.6413986e-10 1.1460638e-09 1.527925e-09 1.9094468e-09 9.918762e-10 9.918669e-10 1.9836897e-09 2.9754517e-09
3.9670054e-09 4.9583786e-09 1.9384132e-09 1.9384059e-09 3.8767727e-09 5.8150538e-09 7.753212e-09 9.691195e-09
2.9444447e-09 2.9444487e-09 5.8889182e-09 8.833193e-09 1.1777794e-08 1.4721916e-08 1.2866201e-09 1.2866122e-09
2.5731839e-09 3.859669e-09 5.1459863e-09 6.432186e-09 1.6564826e-09 1.6564794e-09 3.3129177e-09 4.96928e-09
6.625532e-09 8.281646e-09 -1.8145883e-09 -1.8145878e-09 -3.6292236e-09 -5.443867e-09 -7.258677e-09 -9.073799e-09
3.3038197e-09 3.3038288e-09 6.6076917e-09 9.911604e-09 1.3215205e-08 1.651907e-08 -3.0591372e-09 -3.0591258e-09
-6.1181975e-09 -9.177156e-09 -1.22359305e-08 -1.5294495e-08 3.0547074e-09 3.0547096e-09 6.109438e-09 9.1641885e-09
1.2218898e-08 1.5273377e-08 3.16772e-09 3.167735e-09 6.3355294e-09 9.503277e-09 1.2671285e-08 1.5839277e-08
-3.0248903e-09 -3.024879e-09 -6.049698e-09 -9.074391e-09 -1.2098896e-08 -1.5123176e-08 -1.3140217e-09 -1.314032e-09
-2.6281164e-09 -3.942356e-09 -5.256522e-09 -6.5709145e-09 -3.452057e-09 -3.4520429e-09 -6.9039747e-09 -1.0355762e-08
-1.3807279e-08 -1.7258548e-08 -4.044184e-10 -4.0441647e-10 -8.088233e-10 -1.2132078e-09 -1.6175606e-09 -2.0218713e-09
-1.534428e-09 -1.5344382e-09 -3.0689202e-09 -4.603518e-09 -6.137969e-09 -7.672878e-09 1.6581528e-09 1.6581448e-09
3.3162417e-09 4.9742157e-09 6.632068e-09 8.289673e-09 3.6989478e-09 3.698951e-09 7.397891e-09 1.1096837e-08
1.4795622e-08 1.849453e-08 -2.3097338e-10 -2.30972e-10 -4.6194087e-10 -6.928944e-10 -9.238315e-10 -1.1547439e-09
3.3607284e-09 3.3607217e-09 6.72144e-09 1.00821325e-08 1.344272e-08 1.6803162e-08 -2.1908943e-10 -2.1908894e-10
-4.3817577e-10 -6.5725314e-10 -8.7632157e-10 -1.0953786e-09 -2.0616882e-09 -2.0617121e-09 -4.123482e-09 -6.1852203e-09
-8.247134e-09 -1.0308999e-08 -4.0768766e-09 -4.0768615e-09 -8.153641e-09 -1.223026e-08 -1.6306602e-08 -2.0382677e-08
-6.80354e-10 -6.8036005e-10 -1.3608071e-09 -2.0412139e-09 -2.7218967e-09 -3.4024947e-09 3.1645038e-09 3.1645147e-09
6.329181e-09 9.493832e-09 1.2658858e-08 1.5823476e-08 -2.883529e-12 -2.883423e-12 -5.7668336e-12 -8.647822e-12
-1.1528035e-11 -1.4403044e-11 -3.210958e-12 -3.2110538e-12 -6.4222048e-12 -9.634061e-12 -1.2846828e-11 -1.60616e-11
-1.9470128e-10 -1.9470102e-10 -3.894007e-10 -5.84097e-10 -7.7878837e-10 -9.734732e-10 3.5542214e-10 3.5542108e-10
7.1083806e-10 1.0662422e-09 1.4216318e-09 1.7770035e-09 1.320323e-09 1.3203165e-09 2.640579e-09 3.9607873e-09
5.2808438e-09 6.6007644e-09 8.650395e-11 8.649085e-11 1.7292068e-10 2.592409e-10 3.4541378e-10 4.3133974e-10
-9.544425e-10 -9.544504e-10 -1.90893e-09 -2.863449e-09 -3.818223e-09 -4.772856e-09 4.1711647e-12 4.171257e-12
8.3427605e-12 1.2515486e-11 1.6689664e-11 2.086598e-11 4.6466466e-09 4.6466453e-09 9.293285e-09 1.3939908e-08
1.8586308e-08 2.3232419e-08 -2.1708348e-09 -2.1708306e-09 -4.341613e-09 -6.5123187e-09 -8.6829e-09 -1.0853314e-08
-3.2162786e-10 -3.2162709e-10 -6.4325045e-10 -9.648595e-10 -1.2864529e-09 -1.6080245e-09 2.389744e-09 2.3897926e-09
4.7797064e-09 7.169617e-09 9.5597725e-09 1.1950076e-08 4.2834347e-11 4.2817385e-11 8.5602796e-11 1.2829232e-10
00000000: c944 5caf 9644 5caf fd43 dcaf 6532 25b0
00000010: d241 5cb0 1ca8 89b0 c6ad d2ae bdad d2ae
00000020: a0ad 52af 3202 9eaf 5cad d2af 26ac 03b0
00000030: 92d0 fa30 b3d0 fa30 86d0 7a31 af1d bc31
00000040: 84d1 fa31 e4c3 1c32 ff86 89ae fa86 89ae
00000050: a887 09af ab4b 4eaf ab88 89af 0aec abaf
00000060: e513 882f bc13 882f a913 0830 181d 4c30
00000070: 0013 8830 f216 aa30 7012 d22f 3e11 d22f
00000080: 900b 5230 8983 9d30 15ff d130 5837 0331
00000090: 8b52 8830 3752 8830 7051 0831 b378 4c31
000000a0: 264e 8831 5c5e aa31 ed34 0531 cc34 0531
000000b0: 7434 8531 c1cd c731 fd32 0532 547e 2632
000000c0: 3857 4a31 4a57 4a31 7957 ca31 cbc0 1732
000000d0: 4957 4a32 aceb 7c32 ecd4 b030 a4d4 b030
000000e0: eed3 3031 029e 8431 93d0 b031 1b02 dd31
000000f0: 4daa e330 30aa e330 77a9 6331 40be aa31
00000100: cca6 e331 1047 0e32 2665 f9b0 2265 f9b0
00000110: fa65 79b1 c30c bbb1 0068 f9b1 fde2 1bb2
00000120: 6909 6331 9209 6331 df09 e331 b247 2a32
00000130: 1609 6332 d2e5 8d32 e938 52b1 b638 52b1
00000140: 3c38 d2b1 8fa9 1db2 3136 52b2 f360 83b2
00000150: fbea 5131 05eb 5131 2feb d131 8770 1d32
00000160: 48eb 5132 8332 8332 1faf 5931 62af 5931
00000170: e8af d931 db43 2332 e7b0 5932 f00e 8832
00000180: 6fde 4fb1 3cde 4fb1 b5dd cfb1 98e5 1bb2
00000190: 82db 4fb2 37e8 81b2 0799 b4b0 6499 b4b0
000001a0: 509a 34b1 5575 87b1 db9c b4b1 60c6 e1b1
000001b0: 3b39 6db1 fb38 6db1 0138 edb1 1fe9 31b2
000001c0: 0e35 6db2 f33f 94b2 d454 deaf 8f54 deaf
000001d0: e153 5eb0 f4bd a6b0 db50 deb0 23f1 0ab1
000001e0: e3e3 d2b0 3fe4 d2b0 04e5 52b1 f92c 9eb1
000001f0: 25e6 d2b1 add1 03b2 11e5 e330 c9e4 e330
00000200: f1e3 6331 aae9 aa31 49e0 e331 5e6a 0e32
00000210: 9430 7e31 a230 7e31 8a30 fe31 68a4 3e32
00000220: d52f 7e32 e7dd 9e32 3af5 7daf d7f4 7daf
00000230: 66f4 fdaf 1c76 3eb0 ddf0 7db0 f0b4 9eb0
00000240: 8ff2 6631 71f2 6631 69f2 e631 b035 2d32
00000250: b5f1 6632 8b56 9032 31e4 70af 0ee4 70af
00000260: c2e3 f0af 14aa 34b0 a6e1 70b0 358c 96b0
00000270: 9aad 0db1 06ae 0db1 88ae 8db1 c685 d4b1
00000280: 47af 0db2 751b 31b2 9614 8cb1 7414 8cb1
00000290: 1814 0cb2 411d 52b2 9912 8cb2 fb15 afb2
000002a0: a803 3bb0 1504 3bb0 2507 bbb0 6a45 0cb1
000002b0: 1d0c 3bb1 52d1 69b1 8a76 5931 bb76 5931
000002c0: 1178 d931 511a 2332 3f7a 5932 31ec 8732
000002d0: 0ae9 4aac 22e7 4aac 05e7 caac 5422 18ad
000002e0: a7cd 4aad 8b61 7dad 7af3 61ac 34f5 61ac
000002f0: 14f6 e1ac f47b 29ad f800 62ad 8247 8dad
00000300: 8a13 56af 7713 56af 4713 d6af 2c8e 20b0
00000310: 5c12 56b0 0bcb 85b0 3865 c32f 1265 c32f
00000320: c864 4330 108b 9230 3963 c330 c13a f430
00000330: bc76 b530 8276 b530 8f75 3531 7417 8831
00000340: cb72 b531 f0cc e231 6539 be2e 0532 be2e
00000350: d820 3e2f ea84 8e2f abe4 bd2f ac21 ed2f
00000360: 762d 83b0 bd2d 83b0 402e 03b1 54c6 44b1
00000370: 7231 83b1 7cfe a3b1 83c2 922c 58c3 922c
00000380: 74c4 122d bd2c 5c2d c8cd 922d 038a b72d
00000390: 56a8 9f31 53a8 9f31 4da8 1f32 5d7c 6f32
000003a0: b9a7 9f32 a190 c732 bb2d 15b1 a82d 15b1
000003b0: 3b2d 95b1 f6c2 dfb1 cc2b 15b2 6175 3ab2
000003c0: 19d1 b0af fdd0 b0af bad0 30b0 fa9b 84b0
000003d0: 0acf b0b0 5501 ddb0 d238 2431 ad39 2431
000003e0: be3a a431 9e58 f631 533c 2432 fd4c 4d32
000003f0: 3063 3c2e 1750 3c2e 173e bc2e 140f 0d2f

exp_avg_sq f4 [100, 6]
7.100621e-17 7.100579e-17 2.8401764e-16 6.390207e-16 1.1359909e-15 1.7748927e-15 3.594615e-17 3.5945868e-17
1.437803e-16 3.23495e-16 5.750745e-16 8.984995e-16 1.143072e-12 1.1430717e-12 4.572285e-12 1.0287629e-11
1.8289122e-11 2.857667e-11 3.3656717e-16 3.365658e-16 1.3462484e-15 3.0289962e-15 5.384743e-15 8.413367e-15
3.112427e-16 3.112422e-16 1.2449633e-15 2.8011422e-15 4.97976e-15 7.7807515e-15 8.5619326e-13 8.561931e-13
3.4247713e-12 7.7057275e-12 1.3699052e-11 2.1404701e-11 2.0519219e-13 2.0519213e-13 8.207671e-13 1.8467233e-12
3.2830526e-12 5.129755e-12 1.4392233e-14 1.4392204e-14 5.756837e-14 1.2952721e-13 2.3026668e-13 3.5978412e-13
1.9556876e-12 1.9556871e-12 7.822746e-12 1.7601138e-11 3.129094e-11 4.8892054e-11 1.8058408e-13 1.8058402e-13
7.223359e-13 1.6252548e-12 2.8893322e-12 4.514566e-12 1.1717086e-14 1.1717058e-14 4.686785e-14 1.0545127e-13
1.8746568e-13 2.9290838e-13 2.5271094e-12 2.5271094e-12 1.0108432e-11 2.2744017e-11 4.0433663e-11 6.317755e-11
2.0464344e-12 2.0464346e-12 8.185736e-12 1.8417916e-11 3.2742913e-11 5.1160777e-11 1.7605854e-14 1.7605778e-14
7.042185e-14 1.5844491e-13 2.8166808e-13 4.4008498e-13 1.792019e-12 1.7920192e-12 7.1680726e-12 1.6128168e-11
2.867225e-11 4.480044e-11 1.0030335e-11 1.0030333e-11 4.0121323e-11 9.027299e-11 1.6048508e-10 2.507581e-10
2.9112665e-14 2.911251e-14 1.1644799e-13 2.6200038e-13 4.6575965e-13 7.277137e-13 2.0228465e-12 2.0228463e-12
8.091383e-12 1.8205612e-11 3.236549e-11 5.057103e-11 3.4727356e-13 3.4727337e-13 1.3890895e-12 3.125438e-12
5.5563163e-12 8.681662e-12 1.598139e-15 1.598131e-15 6.392443e-15 1.4382675e-14 2.5568432e-14 3.9949103e-14
2.0903648e-12 2.0903643e-12 8.3614496e-12 1.8813283e-11 3.3445757e-11 5.225899e-11 1.6232476e-13 1.6232476e-13
6.4929843e-13 1.4609147e-12 2.5971805e-12 4.0580738e-12 4.0537e-12 4.0536997e-12 1.621479e-11 3.648328e-11
6.485911e-11 1.01342205e-10 2.3869796e-16 2.3869743e-16 9.547822e-16 2.1482363e-15 3.819022e-15 5.967097e-15
1.4269764e-12 1.4269764e-12 5.7079033e-12 1.2842756e-11 2.2831577e-11 3.567426e-11 2.6106426e-16 2.610642e-16
1.0442565e-15 2.3495697e-15 4.177021e-15 6.5265735e-15 2.2060622e-12 2.206062e-12 8.8242426e-12 1.9854535e-11
3.52969e-11 5.5151297e-11 1.5242518e-13 1.5242493e-13 6.096963e-13 1.3718048e-12 2.4387298e-12 3.810463e-12
1.6636013e-12 1.6636011e-12 6.6544023e-12 1.4972384e-11 2.6617557e-11 4.1589836e-11 9.586197e-12 9.5861956e-12
3.8344765e-11 8.627556e-11 1.5337889e-10 2.39654e-10 1.3592691e-16 1.3592658e-16 5.4370145e-16 1.2233133e-15
2.174737e-15 3.3979487e-15 9.592905e-18 9.59286e-18 3.837099e-17 8.633313e-17 1.53477e-16 2.3980022e-16
6.162716e-17 6.162699e-17 2.4650655e-16 5.5463363e-16 9.860024e-16 1.5405981e-15 6.241672e-17 6.241623e-17
2.4965896e-16 5.617082e-16 9.98535e-16 1.5600939e-15 1.339247e-13 1.3392469e-13 5.356979e-13 1.20532e-12
2.1427833e-12 3.3480963e-12 1.1145099e-12 1.1145095e-12 4.4580364e-12 1.0030582e-11 1.7832113e-11 2.7862651e-11
1.9846316e-12 1.9846316e-12 7.938521e-12 1.7861646e-11 3.1753995e-11 4.9615537e-11 7.801839e-18 7.801805e-18
3.1206742e-17 7.021337e-17 1.2481929e-16 1.950211e-16 1.7834325e-12 1.7834322e-12 7.133724e-12 1.6050905e-11
2.8534852e-11 4.458567e-11 1.08252666e-14 1.0825202e-14 4.330003e-14 9.742215e-14 1.7318784e-13 2.7059176e-13
1.6211771e-16 1.6211746e-16 6.484672e-16 1.459042e-15 2.5938321e-15 4.0528104e-15 9.1091995e-12 9.109199e-12
3.6436795e-11 8.198279e-11 1.4574693e-10 2.2772983e-10 1.2988513e-12 1.2988513e-12 5.195403e-12 1.16896545e-11
00000000: abba a324 6cba a324 9bb9 a325 682f 3826
00000010: abb6 a326 fcc9 ff26 b9c5 2524 64c5 2524
00000020: 74c4 2525 707b ba25 02c1 2526 c87c 8126
00000030: 82df a02b 80df a02b 7bdf a02c 5dfb 342d
00000040: 71df a02d f15c fb2d 8c04 c225 5804 c225
00000050: cd03 c226 1e43 5a27 7d01 c227 cf8f 1728
00000060: 516b b325 3e6b b325 0a6b b326 f4d7 4927
00000070: 2e6a b327 622a 0c28 3aff 702b 37ff 702b
00000080: 32ff 702c 838f 072d 0cff 702d 1a47 bc2d
00000090: 9f06 672a 9b06 672a 8106 672b 9cf3 012c
000000a0: 3806 672c ba7c b42c 3ba2 8128 2aa2 8128
000000b0: e8a1 8129 add5 112a eda0 812a 5b8a ca2a
000000c0: 899e 092c 879e 092c 849e 092d 3dd2 9a2d
000000d0: 779e 092e 8f07 572e d151 4b2a cd51 4b2a
000000e0: c951 4b2b fabb e42b 9551 4b2c 98d7 9e2c
000000f0: 8613 5328 6413 5328 f412 5329 8574 ed29
00000100: 4e11 532a 8ce4 a42a 5bd4 312c 5bd4 312c
00000110: 55d4 312d f90e c82d 42d4 312e cded 8a2e
00000120: 4901 102c 4a01 102c 4701 102d 7601 a22d
00000130: 3e01 102e ea01 612e 5694 9e28 2994 9e28
00000140: 6f93 9e29 a364 322a a690 9e2a eebe f72a
00000150: 4a34 fc2b 4c34 fc2b 4234 fc2c 68dd 8d2d
00000160: 2b34 fc2d d008 452e 9d74 302d 9b74 302d
00000170: 9874 302e 2d83 c62e 8974 302f 11db 892f
00000180: 9e1c 0329 701c 0329 d91b 032a 3c7e 932a
00000190: 8519 032b 4cd5 4c2b 5d58 0e2c 5c58 0e2c
000001a0: 5958 0e2d 6523 a02d 4d58 0e2e eb69 5e2e
000001b0: 657f c32a 5e7f c32a 397f c32b e3ee 5b2c
000001c0: d97e c32c bbba 182d ec50 e626 a150 e626
000001d0: e14f e627 318c 8128 ca4c e628 2eea 3329
000001e0: aa18 132c a818 132c 9f18 132d bf7b a52d
000001f0: 9318 132e 64d6 652e edc2 362a edc2 362a
00000200: e2c2 362b 009b cd2b a5c2 362c e1c7 8e2c
00000210: 7ca0 8e2c 7ba0 8e2c 76a0 8e2d 8674 202e
00000220: 6fa0 8e2e 97da de2e 9a99 8925 8699 8925
00000230: 3f99 8926 f7cb 1a27 4398 8927 c1fc d627
00000240: 3ed4 c82b 3ed4 c82b 39d4 c82c a2ee 612d
00000250: 24d4 c82d a5e5 1c2e 497e 9625 477e 9625
00000260: 447e 9626 e94d 2927 387e 9627 0425 eb27
00000270: e23c 1b2c e13c 1b2c db3c 1b2d 70a4 ae2d
00000280: c73c 1b2e d78e 722e 919d 2b2a 7f9d 2b2a
00000290: 409d 2b2b 7a10 c12b 409c 2b2c 9911 862c
000002a0: 8e21 ea2b 8c21 ea2b 8721 ea2c d0b2 832d
000002b0: 6921 ea2d fee9 362e 65a4 282d 63a4 282d
000002c0: 5ea4 282e d3b8 bd2e 52a4 282f 4dc0 832f
000002d0: 8bb6 1c25 72b6 1c25 16b6 1c26 4b4c b026
000002e0: d1b4 1c27 17d9 7427 37f5 3023 00f5 3023
000002f0: 78f4 3024 1612 c724 6af2 3025 443c 8a25
00000300: 411a 8e24 271a 8e24 f219 8e25 bddc 1f26
00000310: 1119 8e26 0a06 de26 54ec 8f24 0aec 8f24
00000320: 29eb 8f25 c0e6 2126 70e7 8f26 4ed5 e026
00000330: 2bc9 162a 2ac9 162a 1ac9 162b 3ba2 a92b
00000340: f4c8 162c f199 6b2c 73da 9c2b 70da 9c2b
00000350: 6cda 9c2c ba75 302d 59da 9c2d 1d15 f52d
00000360: f2a7 0b2c f2a7 0b2c eca7 0b2d da1c 9d2d
00000370: d2a7 0b2e 2136 5a2e 25eb 0f23 fcea 0f23
00000380: 6bea 0f24 a8e6 a124 27e8 0f25 12d8 6025
00000390: edfe fa2b ebfe fa2b e0fe fa2c 6d2f 8d2d
000003a0: c6fe fa2d 0017 442e bb02 4328 6f02 4328
000003b0: 8901 4329 0c60 db29 fffd 422a 6254 982a
000003c0: b4e8 3a25 a1e8 3a25 6fe8 3a26 2645 d226
000003d0: c2e7 3a27 9404 9227 3040 202d 2f40 202d
000003e0: 2f40 202e 3548 b42e 1d40 202f 4064 7a2f
000003f0: 0dcc b62b 0dcc b62b 08cc b62c 86a5 4d2d

exp_avg f4 [100]
-1.4554556e-07 -1.8450068e-08 5.6149747e-06 -1.3560829e-07 2.459952e-07 -4.2131096e-06 -1.9353972e-06 -1.9073663e-07
7.2236094e-06 -1.7718573e-06 -2.0333017e-07 -7.595794e-06 7.237139e-06 -4.862498e-08 6.8735226e-06 1.556001e-05
2.552546e-07 -6.583943e-06 2.350837e-06 8.269429e-08 -6.9304124e-06 -1.6308838e-06 1.0192503e-05 -1.4869525e-07
6.3360703e-06 -3.3673712e-07 -6.7616056e-06 1.2755731e-06 -6.01425e-06 1.4759265e-05 7.4035995e-08 -1.4095081e-08
-3.2735112e-08 1.7452423e-07 -1.6113627e-06 -4.8545126e-06 -6.471883e-06 -1.2766677e-08 7.1118384e-06 5.2575174e-08
-2.112444e-07 1.5076573e-05 -5.128345e-06 4.698574e-06 -3.316592e-06 -2.6749035e-06 8.661474e-06 1.4765844e-07
-2.2991885e-07 1.5669493e-05 5.7565167e-06 1.6218757e-05 5.7362527e-06 1.4364877e-05 -4.5537586e-06 3.270499e-07
-6.5698223e-06 8.589003e-06 1.8775228e-08 8.7486605e-08 -5.4810357e-08 1.7445509e-06 2.6517725e-07 9.6528716e-08
-6.8137886e-08 -2.5114457e-06 8.1335344e-08 5.8709193e-06 -4.2978154e-06 -3.4955792e-06 5.867537e-06 1.455103e-05
-6.200992e-07 1.9570523e-07 1.424352e-05 6.93598e-08 -1.7273753e-07 5.8345395e-06 -6.959478e-06 -1.682523e-06
-6.5998364e-07 3.48417e-07 -2.2068407e-06 -2.7566912e-07 -1.821587e-07 1.3081002e-06 -3.0932388e-06 3.0476377e-07
-1.9873254e-07 -3.0669565e-07 5.8873244e-08 -7.5150906e-06 -7.998224e-06 -1.4424619e-07 -1.515366e-07 5.331165e-06
-2.5902827e-06 7.051115e-08 -2.4915537e-06 8.6224325e-09
00000000: 4247 1cb4 217c 9eb2 4468 bc36 b99b 11b4
00000010: 5311 8434 565e 8db6 dfe1 01b6 49cd 4cb4
00000020: 5562 f236 8ed0 edb5 f952 5ab4 60df feb6
00000030: 8dd6 f236 bbd7 50b3 1ca3 e636 de86 8237
00000040: ed09 8934 a4eb dcb6 12c3 1d36 ab95 b133
00000050: ca8b e8b6 bee4 dab5 7800 2b37 0aa9 1fb4
00000060: 6e9a d436 ccc8 b4b4 c0e1 e2b6 5c34 ab35
00000070: 04ce c9b6 8f9e 7737 b8fd 9e33 d226 72b2
00000080: a398 0cb3 db64 3b34 0046 d8b5 f2e3 a2b6
00000090: 0d29 d9b6 7054 5bb2 3aa2 ee36 04cf 6133
000000a0: 6bd2 62b4 63f1 7c37 2614 acb6 71a8 9d36
000000b0: 9e92 5eb6 7e82 33b6 bf50 1137 0b8c 1e34
000000c0: 9ddf 76b4 fb71 8337 1a28 c136 840d 8837
000000d0: 097a c036 ad00 7137 7dcc 98b6 6595 af34
000000e0: 5872 dcb6 7d19 1037 2a47 a132 45e0 bb33
000000f0: a068 6bb3 5026 ea35 af5d 8e34 394b cf33
00000100: 3353 92b3 4f8a 28b6 94aa ae33 d0fe c436
00000110: f435 90b6 9895 6ab6 c2e1 c436 3320 7437
00000120: e474 26b5 0b23 5234 74f7 6e37 f4f2 9433
00000130: bb79 39b4 50c6 c336 7685 e9b6 0dd3 e1b5
00000140: bb29 31b5 110e bb34 3c19 14b6 adff 93b4
00000150: 6797 43b4 fb91 af35 7095 4fb6 6a9e a334
00000160: 2f63 55b4 eea7 a4b4 d1db 7c33 232a fcb6
00000170: 1c30 06b7 17e2 1ab4 10b6 22b4 5ce2 b236
00000180: b8d4 2db6 ea6b 9733 9134 27b6 dc21 1432
