TSTE-R/SYNC/ProposedTaylor/save_model_0226.ckpt-250000.pt (torch, 266668 bytes, 24 tensors)

linears.0.weight f4 [100, 6]
-1.2456495 -1.3964896 -1.0075611 -1.0174351 -0.9877372 -1.2318188 0.6030069 0.7825093
0.9573144 0.7221301 0.87378323 0.6563507 3.9593754 3.9079442 4.2764425 3.9148526
4.207885 4.2620616 -1.7504756 -1.4946172 -1.5052683 -1.5902041 -1.6559628 -1.5262628
1.7815958 1.4995835 1.499855 1.419165 1.5455664 1.419314 -4.653372 -4.6436214
-4.7273345 -4.451975 -4.5355625 -4.30994 -2.822546 -2.7852738 -2.6316185 -2.669251
-2.3878567 -2.6023347 -2.645409 -2.63375 -2.521939 -2.5662053 -2.6145248 -2.5249681
5.574436 5.552856 5.6855345 5.7240047 5.317798 5.416104 -3.2098877 -3.5420508
-3.379127 -3.3803782 -3.2619805 -3.4883845 -2.3661664 -2.3620682 -2.1076713 -2.1242478
-2.1986609 -2.304457 -6.6283116 -6.721332 -6.5759373 -6.7106752 -6.968835 -6.948959
6.9107113 6.9042735 7.131539 7.2702155 7.020827 7.1923323 2.2887633 2.4666352
2.0877378 2.3544981 2.1244273 2.3394306 5.2985263 5.171518 5.5162034 5.4538984
5.591416 5.253095 7.9714212 8.191468 8.252603 7.881833 8.013 8.162849
3.9096575 3.586357 3.6200829 3.8046424 3.9539392 3.6730628 -5.3018994 -5.2892466
-5.720892 -5.506029 -5.56861 -5.665116 4.2200637 4.104006 3.936548 4.264557
4.1935887 3.967353 1.7101637 1.6399161 1.533891 1.691998 1.7758404 1.6145581
-5.4521813 -5.490136 -5.601339 -5.512181 -5.694063 -5.6145496 -3.278767 -3.1330001
-3.011649 -2.962376 -3.195539 -3.0264356 5.9712114 5.8046513 6.0861416 5.982891
5.8695307 5.903547 -1.0987911 -1.000961 -1.074384 -0.98007095 -0.7788661 -0.8450265
5.269993 4.989839 5.020494 5.188593 5.020006 5.247167 -2.0764105 -1.9144742
-2.2696805 -1.9542806 -2.0012016 -2.0441806 -4.8500485 -4.785051 -5.1984687 -4.8862495
-4.789863 -4.9596586 3.7546663 3.9824607 3.995528 3.7363176 3.8238916 4.164902
-5.530044 -5.459354 -5.593534 -5.471533 -5.3906164 -5.315877 7.87784 7.6065307
7.9329286 7.7637467 7.6500425 7.846777 1.0003355 1.0436816 1.1637473 1.0344338
1.1974063 1.1284145 -0.2996799 -0.3849432 -0.2020283 -0.042572197 -0.026588945 -0.089090824
0.67936915 1.0512139 0.74184704 0.8276661 0.61671984 0.7539245 1.1420019 1.2219602
1.2373635 1.1661679 1.2400072 1.0195597 -2.2765992 -1.9341613 -1.9956547 -2.2021759
-2.05889 -2.2928734 -5.0543246 -5.2795243 -5.0371656 -5.355523 -5.332981 -5.0596156
-5.9062834 -5.7565312 -5.8471255 -5.752028 -5.7231784 -5.9756436 0.13631201 0.21247508
0.3428079 0.18952486 0.27123567 0.18435325 7.204269 7.3714323 7.3710275 7.174365
7.1755385 7.216878 2.4167714 2.4102407 2.152585 2.351004 2.5507562 2.3204515
-1.1088666 -1.0888054 -1.0503228 -1.1317594 -1.2631851 -1.2498715 6.31608 6.750351
6.61631 6.5002155 6.398478 6.658245 -5.2200184 -5.5605392 -5.246187 -5.331126
00000000: 7171 9fbf 2cc0 b2bf c3f7 80bf 503b 82bf
00000010: 58dc 7cbf 3dac 9dbf a95e 1a3f 8852 483f
00000020: 8e12 753f 85dd 383f 42b0 5f3f 9906 283f
00000030: 6866 7d40 c21b 7a40 9ed8 8840 f28c 7a40
00000040: fea6 8640 cf62 8840 960f e0bf 9e4f bfbf
00000050: a2ac c0bf cf8b cbbf 97f6 d3bf 945c c3bf
00000060: 550b e43f 5af2 bf3f 40fb bf3f 33a7 b53f
00000070: 1fd5 c53f 15ac b53f 6ce8 94c0 8c98 94c0
00000080: 5346 97c0 9476 8ec0 5423 91c0 07eb 89c0
00000090: 98a4 34c0 ed41 32c0 706c 28c0 02d5 2ac0
000000a0: a5d2 18c0 a78c 26c0 624e 29c0 5c8f 28c0
000000b0: 7367 21c0 b53c 24c0 6054 27c0 1499 21c0
000000c0: c861 b240 ffb0 b140 e6ef b540 0c2b b740
000000d0: 672b aa40 b950 ad40 cd6e 4dc0 f6b0 62c0
000000e0: 9e43 58c0 1e58 58c0 4ac4 50c0 b141 5fc0
000000f0: 456f 17c0 202c 17c0 16e4 06c0 adf3 07c0
00000100: dcb6 0cc0 397c 13c0 211b d4c0 2715 d7c0
00000110: 146e d2c0 dabd d6c0 b200 dfc0 df5d dec0
00000120: 8c24 dd40 cfef dc40 9135 e440 9ba5 e840
00000130: 9daa e040 9627 e640 197b 1240 5add 1d40
00000140: 7f9d 0540 19b0 1640 9ef6 0740 3bb9 1540
00000150: 878d a940 137d a540 bd84 b040 5686 ae40
00000160: e1ec b240 5b19 a840 e215 ff40 4110 0341
00000170: a90a 0441 fa37 fc40 3f35 0041 089b 0241
00000180: d437 7a40 e086 6540 70af 6740 437f 7340
00000190: 570d 7d40 7613 6b40 29a9 a9c0 8241 a9c0
000001a0: 8c11 b7c0 6431 b0c0 0e32 b2c0 a148 b5c0
000001b0: c30a 8740 0454 8340 67f0 7b40 4077 8840
000001c0: e131 8640 1de9 7d40 a5e6 da3f c5e8 d13f
000001d0: 8a56 c43f 6493 d83f bd4e e33f d7a9 ce3f
000001e0: 4578 aec0 32af afc0 2b3e b3c0 c963 b0c0
000001f0: c435 b6c0 64aa b3c0 52d7 51c0 1383 48c0
00000200: dbbe 40c0 9297 3dc0 b683 4cc0 1fb1 41c0
00000210: 2a14 bf40 b4bf b940 acc1 c240 d873 bf40
00000220: 32d3 bb40 dbe9 bc40 30a5 8cbf 7d1f 80bf
00000230: 6a85 89bf eee5 7abf c563 47bf a853 58bf
00000240: c8a3 a840 c3ac 9f40 e3a7 a040 f408 a640
00000250: e4a3 a040 cbe8 a740 e9e3 04c0 7e0d f5bf
00000260: 7242 11c0 de25 fabf b013 00c0 dbd3 02c0
00000270: 9933 9bc0 231f 99c0 db59 a6c0 285c 9cc0
00000280: 8f46 99c0 86b5 9ec0 744c 7040 a3e0 7e40
00000290: bbb6 7f40 d41f 6f40 a4ba 7440 e146 8540
000002a0: 1ff6 b0c0 07b3 aec0 3bfe b2c0 cc16 afc0
000002b0: ee7f acc0 aa1b aac0 4417 fc40 b368 f340
000002c0: 8dda fd40 9d70 f840 26cd f440 cc18 fb40
000002d0: fe0a 803f 5c97 853f acf5 943f 5468 843f
000002e0: 9c44 993f e36f 903f a56f 99be 4617 c5be
000002f0: 82e0 4ebe 2f60 2ebd 0fd1 d9bc 4075 b6bd
00000300: 23eb 2d3f 2d8e 863f b0e9 3d3f ede1 533f
00000310: 5ae1 1d3f 3201 413f 1e2d 923f 3169 9c3f
00000320: ed61 9e3f fd44 953f 8eb8 9e3f ef80 823f
00000330: cdb3 11c0 9992 f7bf 9d71 ffbf 73f0 0cc0
00000340: dbc4 03c0 70be 12c0 07bd a1c0 ddf1 a8c0
00000350: 7630 a1c0 7260 abc0 c8a7 aac0 5fe8 a1c0
00000360: 4600 bdc0 8135 b8c0 a71b bbc0 9d10 b8c0
00000370: 4724 b7c0 7938 bfc0 6095 0b3e 1193 593e
00000380: 8484 af3e ce12 423e 67df 8a3e 19c7 3c3e
00000390: 5f89 e640 c6e2 eb40 75df eb40 6694 e540
000003a0: 039e e540 aaf0 e640 62ac 1a40 6241 1a40
000003b0: f4c3 0940 d976 1640 973f 2340 4782 1440
000003c0: 57ef 8dbf fa5d 8bbf fa70 86bf 7edd 90bf
000003d0: 0db0 a1bf cafb 9fbf 541d ca40 e002 d840
000003e0: d0b8 d340 c401 d040 55c0 cc40 5810 d540
000003f0: 640a a7c0 f0ef b1c0 c4e0 a7c0 9698 aac0

linears.0.bias f4 [100]
0.1539259 -0.1781118 0.051702872 0.22491394 -0.14716418 0.270471 0.24554744 0.21679461
0.07362475 0.21002558 0.2696472 0.31278607 0.12330436 -0.1677986 0.08857788 0.03525656
-0.08626892 0.33000815 -0.07646012 -0.24364445 0.23952451 0.22043033 0.05706315 0.08936636
0.09022519 0.13322766 0.39158297 -0.0775411 0.25209278 0.055439685 -0.41808838 0.4683059
-0.115100764 -0.22706199 0.17342083 0.30714357 0.35791993 -0.047033995 0.17498133 -0.1167678
0.1268078 0.012412072 0.27622247 0.07916641 0.2762839 0.19145478 0.049181677 -0.16517289
0.22130334 0.020746762 0.28851083 -0.010293594 0.13902228 0.085136406 0.23051353 -0.11263806
0.3106393 0.8356207 -0.092959404 -0.1798302 -0.11044031 0.05999495 -0.08044846 -0.15416723
0.14621745 0.21476373 -0.14637814 0.20336737 0.25385123 0.25205466 0.1951613 0.057178658
0.15062597 -0.13213429 0.058433402 -0.105430394 0.16181155 0.073984444 0.3094041 0.24118079
0.22040531 -0.123441085 0.209463 0.15833284 0.13256107 -0.059015892 0.3008575 -0.09767106
0.048934802 0.14961334 -0.4206996 0.36030266 0.41785488 0.1740077 0.26335627 0.042703558
0.21363279 -0.09945189 0.25680092 -0.063231505
00000000: c09e 1d3e f162 36be 64c6 533d d74f 663e
00000010: 35b2 16be 2d7b 8a3e ca70 7b3e 68ff 5d3e
00000020: 93c8 963d f210 573e 330f 8a3e 7f25 a03e
00000030: ff86 fc3d 65d3 2bbe 5268 b53d 2f69 103d
00000040: c2ad b0bd d4f6 a83e 2097 9cbd ee7d 79be
00000050: ea45 753e 7db8 613e 0dbb 693d b605 b73d
00000060: fcc7 b83d d56c 083e 907d c83e decd 9ebd
00000070: 4e12 813e b914 633d ae0f d6be cac5 ef3e
00000080: f3b9 ebbd f082 68be 3b95 313e ec41 9d3e
00000090: 4841 b73e b8a6 40bd 4e2e 333e f523 efbd
000000a0: e7d9 013e 015c 4b3c 086d 8d3e 0022 a23d
000000b0: 1575 8d3e b90c 443e ba72 493d 1523 29be
000000c0: 589d 623e 1df5 a93c b1b7 933e 76a6 28bc
000000d0: db5b 0e3e ff5b ae3d bd0b 6c3e c8ae e6bd
000000e0: 1d0c 9f3e 3deb 553f 8061 bebd 6825 38be
000000f0: 872e e2bd 44bd 753d 2ac2 a4bd 04de 1dbe
00000100: 07ba 153e 06eb 5b3e 27e4 15be 893f 503e
00000110: caf8 813e 4f0d 813e 5dd8 473e 2b34 6a3d
00000120: b23d 1a3e 364e 07be dd57 6f3d e4eb d7bd
00000130: edb1 253e 2885 973d 376a 9e3e 19f8 763e
00000140: eeb1 613e aece fcbd 787d 563e 0122 223e
00000150: 17be 073e a6ba 71bd ff09 9a3e c407 c8bd
00000160: dc6f 483d 3d34 193e f065 d7be 9779 b83e
00000170: 13f1 d53e 132f 323e a2d6 863e ede9 2e3d
00000180: 8ec2 5a3e 6fad cbbd 697b 833e 857f 81bd

linears.1.weight f4 [100, 100]
0.06606285 -0.1900951 0.10972339 0.2140679 0.036608048 0.20127498 -0.115519725 -0.009144129
-0.052153617 0.07200415 0.15199938 -0.023048803 0.04708068 -0.057614274 0.16010982 -0.19859493
-0.2607174 -0.187095 -0.28371608 -0.03743909 -0.08841961 0.17918886 0.053388238 0.21547444
-0.08547803 -0.056426167 -0.061905567 -0.4485417 -0.10638387 -0.12856644 0.041912097 0.044156224
-0.18475299 -0.10636699 0.17452876 0.11990207 -0.06411828 -0.20246013 0.12909667 -0.09683432
0.10377961 -0.16513155 0.05307689 0.060025416 0.0666845 0.230501 -0.15264842 0.050093036
-0.021811731 -0.2904947 0.16927102 -0.26824903 0.14443035 -0.052169047 -0.009502658 -0.22768506
-0.15090282 0.52188265 -0.09046055 -0.25728428 -0.27571344 0.13275489 -0.046355877 -0.10297834
-0.09921594 0.026699014 -0.25569606 0.42194277 -0.021200152 0.20029478 0.22478893 -0.17162056
-0.038783643 -0.27228078 -0.026621869 -0.15611845 0.14272317 -0.030984126 -0.16061322 -0.041266903
0.19750932 -0.097670496 0.17835714 -0.06644823 0.094738476 -0.2680413 0.08126656 -0.017362295
0.24652869 0.24374731 0.094413705 -0.23740244 -0.08550421 0.2024006 0.17541601 0.050402645
0.1234988 -0.0612102 0.0135089485 -0.2466821 -0.08608237 0.18329528 0.0026777105 -0.0052834027
0.04386602 -0.2229703 -0.013070238 -0.091288395 -0.15002418 -0.007418764 -0.21628678 -0.34672743
0.031910323 0.13747995 0.11581852 -0.020562658 0.08382865 -0.2278029 0.26077816 -0.029067112
-0.18934925 -0.13364659 0.09824612 -0.042560313 -0.08813798 -0.10719951 -0.038306363 0.12303173
-0.37672532 -0.10128801 0.12795009 0.012393578 0.10339708 0.16250989 -0.21052217 -0.39168486
-0.28925908 0.21556276 0.0891562 -0.072869584 -0.012959252 0.07863024 -0.1253065 0.076458775
-0.09399565 -0.0745395 -0.007580795 0.077469274 -0.07543352 -0.0002902253 -0.028456694 0.21142717
0.16667993 0.04384469 -0.16620159 -0.0716015 -0.4040077 -0.2155733 0.12942515 0.108428344
-0.06443784 0.1952244 0.06846515 0.18496674 0.032175563 -0.2123418 0.100404836 -0.099811725
-0.20210968 -0.20099121 0.0018422185 -0.058706265 -0.06378 -0.015427656 0.018146168 0.050126687
-0.12001474 -0.1572933 -0.24437231 -0.2254394 -0.19821008 -0.093414016 -0.17457345 -0.025731126
0.037544508 0.22514477 -0.10937511 0.11387203 -0.030031053 0.11668441 0.17271785 -0.30521247
-0.3987128 -0.077596635 -0.23672274 0.15692042 -0.08845505 0.12056267 -0.26292026 0.05362693
0.18871295 0.045918133 -1.8258915 0.15639184 -0.15650608 1.0353245 0.5753558 0.5799316
-2.37702 0.7405637 0.31809723 1.9491271 -1.947274 -0.43399015 -1.933204 -7.4171376
-0.70837694 1.6404551 -1.4478211 -0.14144702 2.2204032 0.624553 -3.1735418 0.28041837
-1.8596865 0.10387367 1.2619301 -1.1611233 1.6300732 -5.775619 0.04365267 0.06993649
-0.16970932 -0.043616068 0.8446116 1.4421091 1.313183 0.027405623 -1.837019 -0.6687014
0.4191491 -7.4306364 1.337939 -1.5473045 0.7757218 0.7798568 -2.8471274 -0.4685629
0.08106291 -6.757248 -1.0541967 -6.8578043 -1.4793164 -4.612722 1.6031641 -0.32739106
00000000: f64b 873d 4aa8 42be a8b6 e03d 9e34 5b3e
00000010: 52f2 153d 071b 4e3e 9b95 ecbd 42d1 15bc
00000020: 089f 55bd e976 933d baa5 1b3e d8d0 bcbc
00000030: acd7 403d f2fc 6bbd d4f3 233e 785c 4bbe
00000040: c07c 85be d595 3fbe 3c43 91be bb59 19bd
00000050: 5715 b5bd 497d 373e a0ad 5a3d 55a5 5c3e
00000060: 1b0f afbd 201f 67bd b190 7dbd 42a7 e5be
00000070: c9df d9bd eca6 03be 05ac 2b3d 28dd 343d
00000080: e32f 3dbe f0d6 d9bd abb7 323e 378f f53d
00000090: 7250 83bd b551 4fbe eb31 043e 1251 c6bd
000000a0: 678a d43d 3f18 29be 2767 593d 36dd 753d
000000b0: e291 883d 7408 6c3e de4f 1cbe 5b2e 4d3d
000000c0: 84ae b2bc b9bb 94be 6255 2d3e f057 89be
000000d0: 8de5 133e 36af 55bd 09b1 1bbc 4626 69be
000000e0: 4586 1abe 1a9a 053f 6143 b9bd c4ba 83be
000000f0: 502a 8dbe e6f0 073e a9df 3dbd 4fe6 d2bd
00000100: ba31 cbbd e4b7 da3c 98ea 82be e208 d83e
00000110: f1ab adbc 131a 4d3e 122f 663e 4dbd 2fbe
00000120: 99db 1ebd 6368 8bbe 1b16 dabc 84dd 1fbe
00000130: 0626 123e 6cd2 fdbc cb77 24be 7c07 29bd
00000140: e23f 4a3e 7807 c8bd 41a3 363e 0216 88bd
00000150: 3f06 c23d b63c 89be 156f a63d 5f3b 8ebc
00000160: 0472 7c3e e598 793e f95b c13d a019 73be
00000170: d51c afbd 1a42 4f3e 41a0 333e 0173 4e3d
00000180: f0ec fc3d 8cb7 7abd a354 5d3c 3c9a 7cbe
00000190: f44b b0bd c2b1 3b3e 877c 2f3b 6520 adbb
000001a0: dbac 333d 5452 64be 8d24 56bc 69f5 babd
000001b0: f09f 19be 1a19 f3bb 487a 5dbe 4286 b1be
000001c0: 66b4 023d 8bc7 0c3e 4332 ed3d 0573 a8bc
000001d0: 5bae ab3d 2a45 69be b784 853e 271e eebc
000001e0: c5e4 41be a7da 08be 4335 c93d b953 2ebd
000001f0: af81 b4bd 6b8b dbbd 22e7 1cbd 0ff8 fb3d
00000200: 24e2 c0be 1770 cfbd 5905 033e 6f0e 4b3c
00000210: d9c1 d33d fe68 263e 2093 57be eb8a c8be
00000220: c419 94be 7cbc 5c3e 8797 b63d a63c 95bd
00000230: 0b53 54bc e408 a13d 5950 00be 6b96 9c3d
00000240: cb80 c0bd 2aa8 98bd 5168 f8bb 36a8 9e3d
00000250: e47c 9abd 6129 98b9 031e e9bc 5d80 583e
00000260: 25ae 2a3e 7d96 333d c030 2abe cfa3 92bd
00000270: 19da cebe 3fbf 5cbe 0788 043e ae0f de3d
00000280: fcf7 83bd e8e8 473e 7537 8c3d ec67 3d3e
00000290: 86ca 033d 2170 59be 0da1 cd3d 176a ccbd
000002a0: d7f5 4ebe a4d0 4dbe 9876 f13a fb75 70bd
000002b0: 179f 82bd 47c4 7cbc 46a7 943c a451 4d3d
000002c0: 4aca f5bd 7f11 21be bc3c 7abe 96d9 66be
000002d0: 95f7 4abe d94f bfbd 62c3 32be 15ca d2bc
000002e0: 45c8 193d 5a8c 663e 0f00 e0bd bd35 e93d
000002f0: af03 f6bc 3cf8 ee3d f3dc 303e cf44 9cbe
00000300: 1624 ccbe fcea 9ebd 7267 72be bfaf 203e
00000310: ec27 b5bd 90e9 f63d 7c9d 86be e9a7 5b3d
00000320: f83d 413e a714 3c3d d0b6 e9bf 2f25 203e
00000330: 2143 20be 8385 843f 854a 133f 6676 143f
00000340: 1821 18c0 9595 3d3f a4dd a23e ff7c f93f
00000350: 4640 f9bf f533 debe 3b73 f7bf 3159 edc0
00000360: 3158 35bf 6ffa d13f 3452 b9bf 7dd7 10be
00000370: 161b 0e40 b5e2 1f3f 4f1b 4bc0 ff92 8f3e
00000380: 350a eebf b8bb d43d ed86 a13f b09f 94bf
00000390: 3da6 d03f dfd1 b8c0 24cd 323d dd3a 8f3d
000003a0: 48c8 2dbe c3a6 32bd 7738 583f 0897 b83f
000003b0: 6116 a83f c281 e03c 7023 ebbf 0430 2bbf
000003c0: b69a d63e c6c7 edc0 9641 ab3f 130e c6bf
000003d0: b495 463f b2a4 473f 5637 36c0 7ae7 efbe
000003e0: 5004 a63d 603b d8c0 ebef 86bf 2273 dbc0
000003f0: 3d5a bdbf 6b9b 93c0 7b34 cd3f cd9f a7be

linears.1.bias f4 [100]
-0.015261973 -0.078759424 0.054609466 0.07129089 -0.1407322 0.14626664 -0.016086075 0.10968218
0.22472835 0.10969712 0.11087849 -0.0086250175 -0.006775413 0.012731338 0.021133414 0.10206198
0.010378365 0.027519546 0.07294257 0.05347996 -0.1616799 -0.12131359 0.12131641 0.022767795
0.10448008 0.4571871 -0.0758034 -0.14869322 -0.020977894 0.023756014 0.22640114 -0.0597489
0.11864336 -0.16600862 0.06944466 -0.030217214 0.007752828 0.043733172 0.23170489 0.09525022
0.25380233 0.00559372 0.08293405 -0.07722198 0.02690957 0.0151633145 -0.072997294 0.04499863
-0.08709682 -0.015534097 -0.2277104 0.10010569 0.15143484 0.2291301 -0.015557019 0.121286966
-0.031326827 0.074490495 0.14117596 0.07089869 0.012615704 -0.17664863 0.25155923 0.15095848
-0.010127534 0.06398518 0.1475228 -0.058916446 -0.23824641 -0.15927261 -0.14152929 -0.15331024
0.2813356 0.2076215 0.0019305877 0.05539442 0.09194612 0.07310375 -0.061894026 0.04347083
0.21253791 -0.052882902 -0.14092706 0.017462209 0.0325251 -0.2340106 0.31174695 -0.052753456
0.0031899875 -0.16403599 0.36239973 0.11004423 0.1371903 0.010163827 -0.04694037 0.16815989
0.27225238 -0.25023285 0.12716213 0.19646136
00000000: 5b0d 7abc 9f4c a1bd 2dae 5f3d f500 923d
00000010: 1a1c 10be ecc6 153e f2c6 83bc 0da1 e03d
00000020: 301f 663e e2a8 e03d 4314 e33d f24f 0dbc
00000030: 4904 debb 1a97 503c fb1f ad3c df05 d13d
00000040: 050a 2a3c ac70 e13c ea62 953d cd0d 5b3d
00000050: 6a8f 25be 4273 f8bd bd74 f83d 8783 ba3c
00000060: a7f9 d53d 6d14 ea3e d03e 9bbd 0943 18be
00000070: d5d9 abbc f99b c23c b3d5 673e 43bb 74bd
00000080: 4afb f23d 2afe 29be 0039 8e3d 178a f7bc
00000090: 6f0b fe3b 8e21 333d 0c44 6d3e 8c12 c33d
000000a0: 61f2 813e 864b b73b 54d9 a93d 8f26 9ebd
000000b0: 7571 dc3c 8d6f 783c 9b7f 95bd 7c50 383d
000000c0: d15f b2bd ba82 7ebc ea2c 69be 3604 cd3d
000000d0: bc11 1b3e 15a1 6a3e dee2 7ebc 4d65 f83d
000000e0: 8f50 00bd 798e 983d 6e90 103e 5533 913d
000000f0: 19b2 4e3c 61e3 34be 5fcc 803e dc94 1a3e
00000100: f5ed 25bc a90a 833d 3810 173e 5f52 71bd
00000110: def6 73be 5c18 23be 0eed 10be 5cfd 1cbe
00000120: 380b 903e bb9a 543e c60b fd3a 42e5 623d
00000130: 3f4e bc3d 6bb7 953d 9784 7dbd 780e 323d
00000140: 8aa3 593e be9b 58bd 2f4f 10be e80c 8f3c
00000150: 0a39 053d 7aa0 6fbe 4c9d 9f3e 0214 58bd
00000160: 1c0f 513b 0df9 27be 758c b93e df5e e13d
00000170: 9d7b 0c3e 2e86 263c 8c44 40bd 1b32 2c3e
00000180: aa64 8b3e 851e 80be ca36 023e 2b2d 493e

linears.2.weight f4 [100, 100]
0.04137472 -0.05313624 -0.08875528 -0.0474401 -0.11278208 -0.091066614 0.13629645 0.046409003
-0.13571692 -0.19412142 0.065038614 -0.06530453 -0.05604052 0.12278246 -0.14069626 -0.10028848
-0.09667088 -0.08655544 0.11898525 -0.0719166 0.045866907 -0.093872085 0.18924247 -0.122173764
-0.034067437 0.026820028 -0.12374902 0.093395464 -0.12814048 -0.1377643 0.077158876 0.16041745
0.13678358 -0.042687755 -0.033285316 0.12996788 0.08975086 -0.20286867 0.024736319 0.07942788
-0.041686304 0.08399348 0.12686831 -0.2028615 0.09423451 0.116089255 0.015068419 -0.17015561
0.051158313 0.13278592 -0.06299196 -0.016457412 0.11761995 -0.04438451 0.019398764 -0.08375756
-0.11000119 0.077429354 0.055637814 -0.128231 0.102492295 0.104473494 -0.026842123 -0.048333034
0.10519541 0.16304484 0.15546834 0.089902855 -0.15674041 -0.217224 0.04314427 -0.058047935
-0.11796363 -0.18175825 0.0655512 -0.09636503 -0.16636835 0.12011103 -0.060874302 0.101948634
0.084118254 0.01984988 -0.03367994 -0.16500008 -0.051011626 -0.05350743 0.10293633 0.080987975
-0.018381108 -0.0449227 0.118649736 0.15365481 -0.2001785 -0.045858644 -0.16731869 -0.010335461
-0.13779467 0.013644043 0.04906722 0.03298046 0.06091186 -0.2570809 0.31037283 0.23244403
-0.2297886 0.50088537 0.066887565 -0.23267066 0.07629093 0.49437797 0.40891308 -0.28127563
-0.07681701 0.57004833 -0.1255782 0.45671058 -0.14307106 0.5069392 0.0034503904 -0.1610621
-0.13003342 0.036735397 0.23807605 0.18734139 0.5278422 0.41142553 0.071798146 -0.090294115
-0.124039344 0.49500617 0.07851046 -0.10277486 0.32996026 -0.3425291 0.07340518 0.56898534
-0.18172017 -0.23796026 0.019787397 0.22212452 0.40659887 0.04603914 0.6452619 0.54434013
0.4626099 -0.22544165 -0.2264045 0.049942438 -0.19467859 -0.06954971 -0.18695067 0.124323696
0.23743491 0.42605996 -0.21627101 -0.11970495 0.3728424 0.10025649 -0.18978277 0.20050529
0.62660897 0.35426998 0.069899715 0.640792 0.06256483 0.31671566 0.12562443 -0.29326633
0.014756379 -0.14500278 -0.1586871 0.29948437 0.47119853 0.017190678 0.47256923 -0.23976146
0.20725356 -0.1899495 -0.08487045 -0.022063782 -0.05358948 0.4558235 0.15253016 0.5455779
0.5898844 -0.29555625 0.30087003 -0.051992822 0.6473899 -0.59007215 0.41722485 -0.15830562
0.24041106 -0.0005480881 -0.22045287 0.11568588 0.19426446 -0.05161491 0.499 0.5511284
0.100552544 -0.31339255 0.059715185 0.14007661 -0.21785055 0.22373936 0.024618842 0.08058691
0.21063161 0.13020878 0.16196778 0.08496576 0.1193598 0.037472516 -0.15838246 0.3011329
0.1419729 0.0329327 0.21536873 -0.13478982 -0.22139372 -0.36054188 -0.021410435 0.08288036
-0.016948504 0.6333089 0.13660723 -0.06794861 0.00087767455 0.08899799 -0.05281041 0.020329587
-0.048152823 -0.3516294 -0.108270414 0.18972532 -0.23011284 -0.096500784 0.033837 0.023434171
0.4139458 -0.17853194 0.19443615 0.09892982 0.07497637 0.068427205 0.010522424 0.17142072
-0.36360422 -0.061631866 -0.06601692 0.28328854 0.37012392 0.46362883 -0.099064514 0.10208995
00000000: 8a78 293d 63a5 59bd 54c5 b5bd 8d50 42bd
00000010: 4bfa e6bd 2281 babd 4c91 0b3e 5e17 3e3d
00000020: 60f9 0abe c4c7 46be f732 853d 62be 85bd
00000030: bf8a 65bd 5f75 fb3d ae12 10be 0c64 cdbd
00000040: 62fb c5bd fb43 b1bd 8aae f33d 0349 93bd
00000050: f0de 3b3d 0240 c0bd c7c8 413e 3d36 fabd
00000060: 4c8a 0bbd adb5 db3c 2070 fdbd 1f46 bf3d
00000070: 4237 03be 1612 0dbe 7905 9e3d 7944 243e
00000080: ff10 0c3e 5bd9 2ebd 2f56 08bd 4d16 053e
00000090: 4dcf b73d cebc 4fbe d2a3 ca3c 16ab a23d
000000a0: 42bf 2abd c604 ac3d c4e9 013e edba 4fbe
000000b0: 06fe c03d 34c0 ed3d 88e1 763c 463d 2ebe
000000c0: 618b 513d 08f9 073e ee01 81bd b2d1 86bc
000000d0: bae2 f03d 88cc 35bd 28ea 9e3c 1589 abbd
000000e0: 4e48 e1bd 4893 9e3d 7ae4 633d fd4e 03be
000000f0: 7be7 d13d 33f6 d53d 03e4 dbbc dcf8 45bd
00000100: b170 d73d 3af5 263e 1833 1f3e fd1e b83d
00000110: 8f80 20be f86f 5ebe 0cb8 303d acc3 6dbd
00000120: ea96 f1bd d61e 3abe b53f 863d 075b c5bd
00000130: 775c 2abe c6fc f53d 5557 79bd 72ca d03d
00000140: 3146 ac3d 379c a23c faf3 09bd c8f5 28be
00000150: 91f1 50bd 9b2a 5bbd 48d0 d23d 06dd a53d
00000160: fa93 96bc dd00 38bd a2fe f23d b057 1d3e
00000170: 98fb 4cbe 46d6 3bbd 9755 2bbe 1156 29bc
00000180: 0c1a 0dbe 448b 5f3c b6fa 483d 8516 073d
00000190: b77e 793d 1ca0 83be 30e9 9e3e cf05 6e3e
000001a0: b44d 6bbe 063a 003f 59fc 883d 3841 6ebe
000001b0: 6b3e 9c3d 1c1f fd3e 0e5d d13e 5c03 90be
000001c0: 3d52 9dbd b0ee 113f 9297 00be f8d5 e93e
000001d0: 3881 12be c4c6 013f f21f 623b 77ed 24be
000001e0: 7b27 05be db77 163d 35ca 733e 6cd6 3f3e
000001f0: ab20 073f 5ea6 d23e e80a 933d 1fec b8bd
00000200: 5708 febd 7371 fd3e 18ca a03d a07b d2bd
00000210: 8df0 a83e f95f afbe 7455 963d 06a9 113f
00000220: da14 3abe dbab 73be 2e19 a23c 9c74 633e
00000230: ba2d d03e 8a93 3c3d e22f 253f e059 0b3f
00000240: 34db ec3e 2dda 66be 95d6 67be 7190 4c3d
00000250: d359 47be 1470 8ebd ff6f 3fbe 6c9d fe3d
00000260: 2322 733e 8824 da3e 2676 5dbe de27 f5bd
00000270: 33e5 be3e 4653 cd3d 6a56 42be 4251 4d3e
00000280: 7269 203f e062 b53e 9527 8f3d f20a 243f
00000290: fd21 803d 8e28 a23e b1a3 003e 0127 96be
000002a0: bdc4 713c 9c7b 14be df7e 22be 0456 993e
000002b0: ef40 f13e 77d3 8c3c 98f4 f13e 0784 75be
000002c0: 473a 543e 1f82 42be 8fd0 adbd 1bbf b4bc
000002d0: a580 5bbd b361 e93e de30 1c3e feaa 0b3f
000002e0: aa02 173f 2653 97be a30b 9a3e 6df6 54bd
000002f0: 58bb 253f f80e 17bf 7f9e d53e de1a 22be
00000300: 512e 763e 92ad 0fba 66be 61be b8ec ec3d
00000310: 43ed 463e 286a 53bd ee7c ff3e c016 0d3f
00000320: 7eee cd3d fd74 a0be e997 743d 3e70 0f3e
00000330: 3714 5fbe ee1b 653e 74ad c93c c00a a53d
00000340: d0af 573e 7355 053e e2da 253e 8702 ae3d
00000350: e972 f43d c87c 193d 032f 22be 172e 9a3e
00000360: 5861 113e 70e4 063d 9f89 5c3e 5806 0abe
00000370: 09b5 62be f298 b8be f064 afbc 2ebd a93d
00000380: 97d7 8abc 8820 223f c4e2 0b3e a428 8bbd
00000390: be13 663a 9444 b63d ba4f 58bd 3c8a a63c
000003a0: e53b 45bd c508 b4be e1bc ddbd 5b47 423e
000003b0: b3a2 6bbe 34a2 c5bd ab98 0a3d 05f9 bf3c
000003c0: b4f0 d33e 14d1 36be 451a 473e b89b ca3d
000003d0: 368d 993d 9023 8c3d 3f66 2c3c ea88 2f3e
000003e0: 552a babe b271 7cbd e133 87bd 320b 913e
000003f0: e280 bd3e c260 ed3e 56e2 cabd 8914 d13d

linears.2.bias f4 [100]
-0.025071044 0.07959347 0.1543644 -0.096121594 -0.003831426 -0.0063623786 -0.25486064 0.1449504
-0.0732227 -0.024583912 -0.1300152 -0.11748578 -0.07159817 -0.047510445 -0.18741797 0.056914378
-0.09819637 0.0016027582 -0.17858958 0.0010344771 -0.10789883 -0.081057824 -0.0120234005 -0.011610051
0.0054970337 -0.023582224 0.04070275 0.02184924 -0.05699534 -0.13896127 -0.011287207 -0.023052167
-0.044852808 0.24608101 -0.087098785 -0.13863192 -0.0454421 0.031367395 -0.13191327 -0.78166586
-0.25653568 -0.0022970363 -0.07917828 -0.13642651 -0.0053951386 -0.115315504 -0.08580635 0.039994653
-0.17938124 -0.13700765 -0.09577649 -0.24463154 -0.04053605 -0.036963657 0.00815937 -0.07211279
-0.17573746 -0.3480476 -0.0030727808 0.098215364 -0.05885785 0.07377074 -0.065695144 -0.31872717
-0.02887885 -3.3226964 -0.19190457 -0.09985645 0.037933692 -0.07858229 -2.9248972 -0.00015911386
-0.53093755 -0.047070175 -0.013796199 -0.1916828 -0.24734332 -0.022423564 -0.16024643 0.0485965
0.03073844 0.030552205 -0.15062663 -0.1209215 -0.065375134 0.061654992 -0.10969959 -0.10996806
-0.0026544644 -0.04409585 -0.10695537 -0.013664207 0.0006985843 -0.02758188 -0.041716456 -0.09234191
-0.05524708 -0.15944923 -0.17846721 0.1034663
00000000: ca61 cdbc e701 a33d b411 1e3e 66db c4bd
00000010: a918 7bbb 807b d0bb 187d 82be e16d 143e
00000020: c8f5 95bd 3364 c9bc b422 05be 629c f0bd
00000030: 10a2 92bd 509a 42bd 7fea 3fbe 0d1f 693d
00000040: 2e1b c9bd a413 d23a 30e0 36be 4b97 873a
00000050: 10fa dcbd a501 a6bd ccfd 44bc 1538 3ebc
00000060: 7620 b43b 822f c1bc edb7 263d 2dfd b23c
00000070: f273 69bd dd4b 0ebe faed 38bc e6d7 bcbc
00000080: 94b7 37bd a9fc 7b3e d960 b2bd 87f5 0dbe
00000090: 7f21 3abd 197b 003d 4614 07be 411b 48bf
000000a0: a558 83be e089 16bb 3928 a2bd 64b3 0bbe
000000b0: b4c9 b0bb 892a ecbd 3dbb afbd 6fd1 233d
000000c0: b7af 37be bc4b 0cbe 7726 c4bd b180 7abe
000000d0: 2109 26bd 3467 17bd e1ae 053c dfaf 93bd
000000e0: 85f4 33be 4c33 b2be b560 49bb 2325 c93d
000000f0: ee14 71bd 1d15 973d 2d8b 86bd 3530 a3be
00000100: 5793 ecbc 0fa7 54c0 a282 44be 8a81 ccbd
00000110: 5c60 1b3d c0ef a0bd 8431 3bc0 cdd7 26b9
00000120: 86eb 07bf a8cc 40bd 7409 62bc 7f48 44be
00000130: 9147 7dbe 9fb1 b7bc a417 24be 200d 473d
00000140: 2ecf fb3c 9e48 fa3c de3d 1abe b1a5 f7bd
00000150: 66e3 85bd f289 7c3d 2eaa e0bd ef36 e1bd
00000160: 86f6 2dbb da9d 34bd 6b0b dbbd d7df 5fbc
00000170: 3321 373a 65f3 e1bc e0de 2abd c11d bdbd
00000180: c34a 62bd a946 23be 1cc0 36be 24e6 d33d

linears.3.weight f4 [3, 100]
7.65008e-05 -0.27515692 0.029965047 0.33345702 -0.0038414295 -0.04698613 0.02177292 1.3839158
-0.20191525 -0.10014943 -0.35069802 -0.0602663 -0.013878978 -0.09489895 -0.25599146 0.011431992
-0.04075242 -0.0027333319 -0.632665 0.20100097 -1.0715256 -0.32933694 -0.22805612 -0.11947212
-0.12636572 0.12722148 -0.012673382 0.00032565396 -0.19509761 -0.6092691 -0.06333178 -0.337554
0.3058429 0.18861192 -0.3879812 -0.21177523 -0.0054758964 0.2229236 0.067119285 0.35589916
-1.4441328 0.1390291 -0.21978545 -0.1839066 -0.3104101 -0.7732995 -0.31681037 0.15377063
-1.4713421 -0.31419322 -0.06014393 -0.015654651 0.110511154 -0.10407027 -0.027179461 0.0014532759
-0.95615906 -0.6801933 -0.48473534 -0.71124744 0.54725504 -0.51207316 0.0003395594 -1.4434948
0.050107412 0.1377104 0.2795428 -0.022747327 0.012888936 -0.00040380989 -0.3332158 0.6553853
0.61798745 -0.30891305 0.034063946 -0.54409635 -0.28492418 0.5692023 -0.01501355 -0.55606955
0.1466873 0.57567483 0.3754118 0.06628692 0.0002754451 -0.10604304 -0.35259986 -0.14883968
0.107390456 -0.42053545 0.0024567067 -0.17196646 0.08259041 0.13998295 -0.34687057 -0.37678307
-0.042942964 -0.08604946 0.07853506 -0.006686075 1.8528455e-05 0.016450707 -0.024235006 0.065385506
-0.00011532709 -0.044934675 -0.003959006 0.0019897737 -0.008393661 -0.15964554 0.012571852 -0.15566085
0.0036109998 -4.406296e-06 -0.006927479 0.007926227 0.0005874279 3.986373e-05 -0.02146265 0.09165623
-0.029209612 0.0032422843 -0.15310802 -0.028049689 -0.022166785 0.0070426567 0.3560026 -6.618186e-05
-0.034508634 -0.003925194 -0.016837025 -0.18057421 -0.0014006032 -0.025491789 -0.0016528008 -3.2948545e-05
-0.08875272 -0.06940064 0.022904003 -0.00039916267 -0.48551217 0.008810371 -0.0005867165 0.02416579
0.014813999 0.5357395 -0.069122694 -0.0010558963 -0.016604135 -0.15274468 -0.13746455 -0.027139602
-0.09017705 0.007170992 0.044353828 4.8126672e-05 -0.004192112 -0.007178547 0.053973556 -0.0061199334
-0.007608238 0.021776138 2.119512e-05 -0.28573635 0.0034047754 3.8224054e-05 -0.040018555 0.005480197
-0.024204813 -2.3263692e-05 0.00042299158 0.06121293 -0.0016343561 -0.16172372 0.045786332 -0.00028650262
-0.038844194 -0.012555493 0.00031671778 0.027734382 0.14017682 0.06926878 0.03353708 -0.029173642
-2.5635038e-06 0.10759382 0.017836375 0.08228532 0.060015608 -0.08257436 0.002192818 0.018318588
0.18462716 0.010369268 -0.17426148 -0.00011092482 -0.07899013 0.004641671 -0.08875291 0.017981691
-0.0003722076 1.7590665 0.5134698 0.2652496 -0.0008078648 6.2698464 12.444947 1.1863638
-0.48032114 -0.30955368 -0.38373506 9.547192 -0.13139144 -0.3908492 -0.2678225 1.7636217
-0.047923315 -0.0005535561 1.856644 0.43806347 -0.6221085 -0.5685527 -0.019242497 0.40100467
0.2827754 -0.09109966 7.5716314 -0.0003821503 -0.40474722 -0.04857708 0.26886442 -0.28627
0.22271232 0.67368764 -0.13992493 -0.23816033 -0.108400784 4.408743 -0.11902474 -26.24316
-0.1724698 -0.08058816 -0.1015367 -0.5751993 2.2022958 -2.8599863 9.016165 0.1307857
0.46637508 -0.43719167 -0.3203444 12.422027 -0.26100588 -0.25678277 -0.15770738 0.00091266184
00000000: 0e6f a038 5ee1 8cbe 4279 f53c e1ba aa3e
00000010: 7ec0 7bbb 8774 40bd 1f5d b23c 2724 b13f
00000020: dfc2 4ebe 251b cdbd b18e b3be ccd9 76bd
00000030: a764 63bc 615a c2bd 5011 83be 404d 3b3c
00000040: 02ec 26bd b321 33bb 55f6 21bf 33d3 4d3e
00000050: c027 89bf da9e a8be 8b87 69be cdad f4bd
00000060: 0466 01be 5946 023e 04a4 4fbc 89bc aa39
00000070: abc7 47be 0ff9 1bbf 18b4 81bd e1d3 acbe
00000080: 7197 9c3e 7c23 413e 79a5 c6be 9bdb 58be
00000090: 266f b3bb 1646 643e d675 893d 6a38 b63e
000000a0: 58d9 b8bf a55d 0e3e 700f 61be 0352 3cbe
000000b0: 13ee 9ebe f5f6 45bf f834 a2be 0c76 1d3e
000000c0: f054 bcbf efdd a0be 7b59 76bd 2f3e 80bc
000000d0: ac53 e23d cb22 d5bd 76a7 debc d97b be3a
000000e0: d7c6 74bf 2621 2ebf 3b2f f8be 5014 36bf
000000f0: e818 0c3f 3a17 03bf e406 b239 70c4 b8bf
00000100: 6e3d 4d3d f503 0d3e 3c20 8f3e 9a58 babc
00000110: 1e2c 533c 72b6 d3b9 439b aabe 55c7 273f
00000120: 6d34 1e3f da29 9ebe a386 0b3d e649 0bbf
00000130: 95e1 91be 3eb7 113f 65fb 75bc 935a 0ebf
00000140: 3235 163e 6d5f 133f fa35 c03e 70c1 873d
00000150: 9e69 9039 182d d9bd f887 b4be 6e69 18be
00000160: 87ef db3d 6c50 d7be b300 213b fa17 30be
00000170: 2925 a93d b157 0f3e 0599 b1be b6e9 c0be
00000180: f6e4 2fbd b33a b0bd fdd6 a03d dd16 dbbb
00000190: 8e6d 9b37 a2c3 863c 7e88 c6bc d6e8 853d
000001a0: c3db f1b8 6c0d 38bd 8dba 81bb dd66 023b
000001b0: 9185 09bc 1f7a 23be 2bfa 4d3c 8f65 1fbe
000001c0: 86a6 6c3b cbd9 93b6 e8ff e2bb 01dd 013c
000001d0: 9efd 193a 5b33 2738 70d2 afbc 43b6 bb3d
000001e0: ff48 efbc 817c 543b 59c8 1cbe 76c8 e5bc
000001f0: 1e97 b5bc 16c6 e63b f945 b63e 1ecb 8ab8
00000200: ed58 0dbd ea9e 80bb cded 89bc 72e8 38be
00000210: 7294 b7ba 28d4 d0bc cba2 d8ba 3b32 0ab8
00000220: fcc3 b5bd ec21 8ebd 2da1 bb3c b546 d1b9
00000230: 0d95 f8be 6059 103c e1cd 19ba 56f7 c53c
00000240: 6ab6 723c 3926 093f 3390 8dbd 0066 8aba
00000250: 6505 88bc 1a69 1cbe 82c3 0cbe df53 debc
00000260: bfae b8bd a4fa ea3b 5cac 353d 9fdb 4938
00000270: fc5d 89bb 043a ebbb 6013 5d3d b989 c8bb
00000280: 874e f9bb df63 b23c 2ccc b137 094c 92be
00000290: a722 5f3b c452 2038 7fea 23bd 3993 b33b
000002a0: 2c49 c6bc 6626 c3b7 f8c4 dd39 69ba 7a3d
000002b0: e437 d6ba e79a 25be 738a 3b3d bb35 96b9
000002c0: 171b 1fbd 8eb5 4dbc 240d a639 3733 e33c
000002d0: 838a 0f3e cadc 8d3d 2d5e 093d 90fd eebc
000002e0: a908 2cb6 265a dc3d 971d 923c 3585 a83d
000002f0: edd2 753d bf1c a9bd 62b5 0f3b dd10 963c
00000300: e70e 3d3e dde3 293c 9a71 32be 4fa0 e8b8
00000310: 94c5 a1bd 2919 983b 16c4 b5bd 574e 933c
00000320: dc24 c3b9 1729 e13f c272 033f ccce 873e
00000330: e4c6 53ba 95a2 c840 811e 4741 c5da 973f
00000340: a7ec f5be d27d 9ebe ec78 c4be 4cc1 1841
00000350: 7a8b 06be 631d c8be 0820 89be 5bbe e13f
00000360: 3d4b 44bd 851c 11ba 83a6 ed3f db49 e03e
00000370: 8142 1fbf ab8c 11bf 71a2 9dbc 7c50 cd3e
00000380: f0c7 903e 7592 babd ce4a f240 585b c8b9
00000390: 073b cfbe c3f8 46bd 99a8 893e fb91 92be
000003a0: b30e 643e cb76 2c3f 7b48 0fbe 4de0 73be
000003b0: 3b01 debd 6c14 8d40 3ec3 f3bd fef1 d1c1
000003c0: ec9b 30be 680b a5bd 79f2 cfbd 4340 13bf
000003d0: 6af2 0c40 040a 37c0 3642 1041 b0ec 053e
000003e0: b7c8 ee3e 96d7 dfbe 2e04 a4be 9fc0 4641
000003f0: 90a2 85be 0879 83be 0b7e 21be b33f 6f3a

linears.3.bias f4 [3]
0.08142695 0.07041795 0.21204199
00000000: 2cc3 a63d 4937 903d 8921 593e

exp_avg f4 [100, 6]
1.9448086e-08 1.9448066e-08 3.889606e-08 5.8343915e-08 7.779159e-08 9.723904e-08 -7.795211e-09 -7.795202e-09
-1.5590379e-08 -2.3385587e-08 -3.118061e-08 -3.8975614e-08 -7.052039e-08 -7.052042e-08 -1.4104097e-07 -2.1156171e-07
-2.820822e-07 -3.526027e-07 2.2953895e-08 2.2953875e-08 4.590771e-08 6.8861304e-08 9.181484e-08 1.147679e-07
-1.5857612e-08 -1.5857585e-08 -3.1715135e-08 -4.7572588e-08 -6.342991e-08 -7.928701e-08 5.689114e-08 5.689117e-08
1.1378222e-07 1.7067326e-07 2.2756397e-07 2.8445444e-07 3.7193256e-08 3.719325e-08 7.438637e-08 1.115794e-07
1.4877233e-07 1.8596468e-07 2.6604694e-08 2.6604713e-08 5.3209348e-08 7.9813894e-08 1.0641831e-07 1.3302214e-07
-7.444721e-08 -7.444716e-08 -1.4889436e-07 -2.2334079e-07 -2.9778928e-07 -3.722354e-07 3.5228044e-08 3.5228062e-08
7.0456e-08 1.05683796e-07 1.4091155e-07 1.761393e-07 2.6397219e-08 2.6397208e-08 5.279432e-08 7.919121e-08
1.05588e-07 1.3198427e-07 8.638785e-08 8.638782e-08 1.7277542e-07 2.591635e-07 3.455506e-07 4.3193907e-07
-7.0167644e-08 -7.016762e-08 -1.4033523e-07 -2.1050303e-07 -2.8067154e-07 -3.508395e-07 -1.9734e-08 -1.9733976e-08
-3.9467864e-08 -5.92018e-08 -7.893563e-08 -9.866922e-08 -7.267723e-08 -7.2677274e-08 -1.4535456e-07 -2.180332e-07
-2.9071006e-07 -3.6339014e-07 -1.6255841e-07 -1.6255832e-07 -3.2511664e-07 -4.876766e-07 -6.502326e-07 -8.127952e-07
-2.6967557e-08 -2.6967545e-08 -5.393494e-08 -8.090226e-08 -1.0786944e-07 -1.3483636e-07 8.1052285e-08 8.10523e-08
1.6210454e-07 2.4315642e-07 3.2420905e-07 4.052612e-07 -4.6937046e-08 -4.693705e-08 -9.3873936e-08 -1.4081054e-07
-1.8774739e-07 -2.3468367e-07 -1.3777523e-08 -1.3777517e-08 -2.7554993e-08 -4.133235e-08 -5.510967e-08 -6.888685e-08
7.878949e-08 7.878951e-08 1.5757888e-07 2.3636736e-07 3.1515756e-07 3.9394575e-07 3.30419e-08 3.3041896e-08
6.608378e-08 9.9125444e-08 1.3216724e-07 1.6520882e-07 -1.0667759e-07 -1.0667764e-07 -2.1335492e-07 -3.2003385e-07
-4.2671024e-07 -5.333902e-07 1.4150651e-08 1.4150635e-08 2.8301217e-08 4.2451827e-08 5.6602136e-08 7.075239e-08
-6.601379e-08 -6.6013826e-08 -1.320275e-07 -1.9804037e-07 -2.6405547e-07 -3.30069e-07 1.7583668e-08 1.758365e-08
3.5167215e-08 5.2750785e-08 7.0334146e-08 8.791733e-08 8.4162e-08 8.416208e-08 1.6832409e-07 2.5248553e-07
3.3664816e-07 4.2080964e-07 -4.101992e-08 -4.1019852e-08 -8.203957e-08 -1.2305897e-07 -1.6407841e-07 -2.0509718e-07
7.1932064e-08 7.193208e-08 1.4386409e-07 2.1579619e-07 2.8772817e-07 3.596596e-07 -1.6272367e-07 -1.6272375e-07
-3.254471e-07 -4.881706e-07 -6.5089426e-07 -8.1361634e-07 -6.6762116e-09 -6.6762036e-09 -1.3352385e-08 -2.0028533e-08
-2.6704544e-08 -3.3380502e-08 1.1018996e-08 1.1018985e-08 2.2037979e-08 3.3056736e-08 4.407538e-08 5.509357e-08
-1.05995905e-08 -1.05995825e-08 -2.1199162e-08 -3.1798606e-08 -4.2397982e-08 -5.2997315e-08 -1.1145688e-08 -1.1145676e-08
-2.2291305e-08 -3.3436855e-08 -4.4582293e-08 -5.5727586e-08 3.922878e-08 3.922881e-08 7.8457525e-08 1.17686014e-07
1.5691478e-07 1.9614308e-07 6.2557326e-08 6.255729e-08 1.2511448e-07 1.8767165e-07 2.5022854e-07 3.1278537e-07
7.992673e-08 7.992678e-08 1.5985337e-07 2.3977893e-07 3.1970623e-07 3.9963064e-07 -7.725612e-09 -7.725591e-09
-1.5451144e-08 -2.3176588e-08 -3.090191e-08 -3.8627075e-08 -6.555388e-08 -6.555389e-08 -1.3110777e-07 -1.9666152e-07
-2.6221622e-07 -3.2777075e-07 -2.5108548e-08 -2.5108513e-08 -5.0217025e-08 -7.532532e-08 -1.00433404e-07 -1.2554099e-07
1.892994e-08 1.892992e-08 3.7859785e-08 5.6789723e-08 7.5719264e-08 9.4648925e-08 -1.5623941e-07 -1.5623925e-07
-3.1247836e-07 -4.687188e-07 -6.249576e-07 -7.8119655e-07 6.619203e-08 6.619207e-08 1.3238399e-07 1.985762e-07
00000000: cb0e a732 c00e a732 ac0e 2733 d095 7a33
00000010: 610e a733 bad1 d033 b3eb 05b2 a9eb 05b2
00000020: 9beb 85b2 73e1 c8b2 71eb 05b3 2466 27b3
00000030: ff70 97b3 0371 97b3 0c71 17b4 a429 63b4
00000040: 1571 97b4 594d bdb4 262c c532 1b2c c532
00000050: 102c 4533 e7e0 9333 be2b c533 5276 f633
00000060: 4237 88b2 3337 88b2 2937 08b3 9d52 4cb3
00000070: f636 88b3 7f44 aab3 7858 7433 8158 7433
00000080: 7058 f433 4f42 3734 4f58 7434 1fb7 9834
00000090: 6bbe 1f33 69be 1f33 57be 9f33 6d9d ef33
000000a0: 3abe 1f34 95ad 4734 5788 e432 6288 e432
000000b0: 4c88 6433 2766 ab33 1688 e433 d9d4 0e34
000000c0: c9df 9fb3 c2df 9fb3 c5df 1fb4 73cf 6fb4
000000d0: d9df 9fb4 a5d7 c7b4 a54d 1733 aa4d 1733
000000e0: 984d 9733 48f4 e233 794d 1734 cd20 3d34
000000f0: 19c0 e232 13c0 e232 f8bf 6233 d40f aa33
00000100: 9ebf e233 8fb7 0d34 3984 b933 3584 b933
00000110: 2584 3934 2923 8b34 1d84 b934 41e5 e734
00000120: 12af 96b3 0faf 96b3 0eaf 16b4 a206 62b4
00000130: 34af 96b4 045b bcb4 8683 a9b2 7983 a9b2
00000140: 6083 29b3 1145 7eb3 5283 a9b3 fae3 d3b3
00000150: bb12 9cb3 c112 9cb3 c212 1cb4 821c 6ab4
00000160: e312 9cb4 f617 c3b4 b78b 2eb4 b18b 2eb4
00000170: b18b aeb4 e1e8 02b5 a58b 2eb5 dc2e 5ab5
00000180: 49a6 e7b2 42a6 e7b2 18a6 67b3 7dbc adb3
00000190: daa5 e7b3 89c7 10b4 f70e ae33 f90e ae33
000001a0: f50e 2e34 2a8b 8234 f40e ae34 ad92 d934
000001b0: d497 49b3 d597 49b3 be97 c9b3 b531 17b4
000001c0: 9c97 49b4 5bfd 7bb4 30b2 6cb2 29b2 6cb2
000001d0: 12b2 ecb2 6685 31b3 b9b1 6cb3 f2ee 93b3
000001e0: fb32 a933 fe32 a933 f432 2934 2acc 7d34
000001f0: ed32 a934 7e7f d334 f4e9 0d33 f3e9 0d33
00000200: f1e9 8d33 cade d433 dbe9 0d34 4164 3134
00000210: a016 e5b3 a716 e5b3 8e16 65b4 1ed1 abb4
00000220: 9c16 e5b4 4c2e 0fb5 391b 7332 271b 7332
00000230: 091b f332 4754 3633 b51a 7333 8af0 9733
00000240: 77c3 8db3 7cc3 8db3 71c3 0db4 eca4 54b4
00000250: 82c3 8db4 5734 b1b4 e50a 9732 db0a 9732
00000260: c30a 1733 1a90 6233 9b0a 9733 10cd bc33
00000270: 8cbc b433 98bc b433 93bc 3434 598d 8734
00000280: 92bc b434 a3eb e134 e12d 30b3 ce2d 30b3
00000290: bb2d b0b3 3122 04b4 882d 30b4 af38 5cb4
000002a0: 1279 9a33 1479 9a33 0f79 1a34 9bb5 6734
000002b0: 0f79 9a34 3d17 c134 24b9 2eb4 2ab9 2eb4
000002c0: 1cb9 aeb4 d40a 03b5 1db9 2eb5 4a67 5ab5
000002d0: 9464 e5b1 8264 e5b1 6964 65b2 360b acb2
000002e0: ea63 e5b2 405e 0fb3 0f4e 3d32 024e 3d32
000002f0: 074e bd32 44fa 0d33 654d 3d33 05a0 6c33
00000300: 7e19 36b2 7519 36b2 7319 b6b2 f092 08b3
00000310: 1319 36b3 2a9f 63b3 417b 3fb2 347b 3fb2
00000320: 197b bfb2 369c 0fb3 c07a 3fb3 2159 6fb3
00000330: 807c 2833 887c 2833 7b7c a833 92ba fc33
00000340: 687c 2834 669b 5234 4157 8633 3c57 8633
00000350: 3557 0634 ca82 4934 2657 8634 e5ec a734
00000360: 2fa4 ab33 36a4 ab33 29a4 2b34 f7ba 8034
00000370: 17a4 ab34 d18c d634 9ab9 04b2 82b9 04b2
00000380: 6db9 84b2 db15 c7b2 02b9 04b3 ebe6 25b3
00000390: a0c6 8cb3 a2c6 8cb3 a1c6 0cb4 e829 53b4
000003a0: b9c6 8cb4 78f8 afb4 48ae d7b2 34ae d7b2
000003b0: 34ae 57b3 88c2 a1b3 d9ad d7b3 72cc 06b4
000003c0: 619b a232 569b a232 469b 2233 f6e8 7333
000003d0: 1b9b a233 cc41 cb33 c3c2 27b4 b8c2 27b4
000003e0: b3c2 a7b4 39a4 fbb4 c2c2 27b5 6bb3 51b5
000003f0: 7425 8e33 7a25 8e33 6f25 0e34 3638 5534

exp_avg_sq f4 [100, 6]
4.71164e-13 4.7116304e-13 1.8846446e-12 4.240415e-12 7.538438e-12 1.177863e-11 1.07417364e-13 1.0741725e-13
4.296675e-13 9.667473e-13 1.7186482e-12 2.6853708e-12 4.1107716e-12 4.110775e-12 1.644311e-11 3.6997138e-11
6.5772665e-11 1.0277024e-10 7.19299e-13 7.19298e-13 2.8771796e-12 6.4736064e-12 1.1508525e-11 1.7981833e-11
3.1426557e-13 3.1426524e-13 1.2570567e-12 2.8283673e-12 5.028168e-12 7.856439e-12 3.2929451e-12 3.2929432e-12
1.3171756e-11 2.9636384e-11 5.268679e-11 8.2322815e-11 1.4444659e-12 1.4444655e-12 5.7778526e-12 1.3000131e-11
2.3111216e-11 3.6111093e-11 7.742279e-13 7.742274e-13 3.0969016e-12 6.9679987e-12 1.2387489e-11 1.9355302e-11
4.4093223e-12 4.4093245e-12 1.7637315e-11 3.9683944e-11 7.054952e-11 1.1023403e-10 1.3006113e-12 1.3006108e-12
5.2024353e-12 1.1705425e-11 2.0809559e-11 3.251466e-11 8.6227065e-13 8.622693e-13 3.4490633e-12 7.7603445e-12
1.3796017e-11 2.1555995e-11 7.004579e-12 7.0045788e-12 2.8018315e-11 6.304108e-11 1.12073066e-10 1.7511374e-10
4.237668e-12 4.2376705e-12 1.6950687e-11 3.8139197e-11 6.780314e-11 1.0594305e-10 4.550555e-13 4.550552e-13
1.820218e-12 4.0954826e-12 7.28082e-12 1.1376201e-11 4.4469268e-12 4.446928e-12 1.778772e-11 4.0022482e-11
7.115118e-11 1.1117419e-10 2.0655823e-11 2.0655823e-11 8.2623255e-11 1.8590214e-10 3.3049238e-10 5.163928e-10
7.6438427e-13 7.643835e-13 3.057523e-12 6.879378e-12 1.2229897e-11 1.9109008e-11 6.52743e-12 6.5274296e-12
2.6109696e-11 5.8746764e-11 1.04438624e-10 1.6318524e-10 2.070552e-12 2.0705505e-12 8.282185e-12 1.8634847e-11
3.3128406e-11 5.1762792e-11 2.708422e-13 2.7084173e-13 1.0833628e-12 2.4375463e-12 4.333374e-12 6.770803e-12
5.6839568e-12 5.6839563e-12 2.2735827e-11 5.115561e-11 9.09433e-11 1.4209892e-10 1.1533137e-12 1.1533129e-12
4.6132425e-12 1.037976e-11 1.845287e-11 2.8832482e-11 8.751717e-12 8.751719e-12 3.5006893e-11 7.8765744e-11
1.4002795e-10 2.1879414e-10 2.3344228e-13 2.334419e-13 9.337632e-13 2.1009574e-12 3.7349967e-12 5.8358756e-12
3.741189e-12 3.7411927e-12 1.4964793e-11 3.3670823e-11 5.985949e-11 9.353066e-11 3.7202094e-13 3.720206e-13
1.4880765e-12 3.3481462e-12 5.9522114e-12 9.300224e-12 7.41046e-12 7.410461e-12 2.9641845e-11 6.6694074e-11
1.1856746e-10 1.8526132e-10 1.6842267e-12 1.6842246e-12 6.7368745e-12 1.5157943e-11 2.6947234e-11 4.2104677e-11
4.8243345e-12 4.824334e-12 1.9297331e-11 4.341909e-11 7.71893e-11 1.2060856e-10 1.9713465e-11 1.9713462e-11
7.8853854e-11 1.7742072e-10 3.1541528e-10 4.928355e-10 6.098677e-14 6.0986704e-14 2.4394546e-13 5.4887247e-13
9.75764e-13 1.5246081e-12 3.064361e-13 3.064352e-13 1.2257338e-12 2.757878e-12 4.9028195e-12 7.660542e-12
1.5378447e-13 1.5378431e-13 6.151349e-13 1.3840481e-12 2.4605077e-12 3.8445054e-12 1.7498074e-13 1.7498054e-13
6.9991896e-13 1.5748061e-12 2.7996268e-12 4.374362e-12 1.5904007e-12 1.5903998e-12 6.3615927e-12 1.4313554e-11
2.5446256e-11 3.9759585e-11 3.8098483e-12 3.8098457e-12 1.5239365e-11 3.4288513e-11 6.095722e-11 9.524534e-11
6.1802373e-12 6.1802356e-12 2.4720921e-11 5.562198e-11 9.888347e-11 1.5450508e-10 1.2849917e-13 1.2849884e-13
5.1399146e-13 1.1564705e-12 2.0559077e-12 3.2122896e-12 3.81563e-12 3.815631e-12 1.526254e-11 3.434085e-11
6.1050554e-11 9.539183e-11 7.554033e-13 7.5540263e-13 3.0216001e-12 6.798555e-12 1.2086246e-11 1.888455e-11
4.2257381e-13 4.2257335e-13 1.6902884e-12 3.8031345e-12 6.7610834e-12 1.0564091e-11 1.9119836e-11 1.9119832e-11
7.6479274e-11 1.7207845e-10 3.0591657e-10 4.77995e-10 4.15157e-12 4.1515693e-12 1.660626e-11 3.7363924e-11
00000000: f29e 042b e09e 042b bd9e 042c 4332 952c
00000010: 1b9e 042d 3c36 4f2d e5e1 f129 d4e1 f129
00000020: 9de1 f12a be0e 882b d4e0 f12b 57f7 3c2c
00000030: 8aa2 902c 92a2 902c 98a2 902d 13b7 222e
00000040: b8a2 902e 80fe e12e f576 4a2b e276 4a2b
00000050: a976 4a2c 10c5 e32c ca75 4a2d 7d2b 9e2d
00000060: 71ea b02a 65ea b02a 3eea b02b 5607 472c
00000070: b6e9 b02c 4136 0a2d 6db8 672c 64b8 672c
00000080: 51b8 672d 9a57 022e 0db8 672e a007 b52e
00000090: 5e4a cb2b 5b4a cb2b 454a cb2c 63b3 642d
000000a0: d549 cb2d 7ad1 1e2e 00ed 592b f7ec 592b
000000b0: d2ec 592c 272a f52c 4aec 592d 4440 aa2d
000000c0: a523 9b2c aa23 9b2c b423 9b2d 2688 2e2e
000000d0: d923 9b2e 3e68 f22e 760b b72b 710b b72b
000000e0: 5f0b b72c 8cec 4d2d f60a b72d 4100 0f2e
000000f0: 26b5 722b 0db5 722b cdb4 722c 7c85 082d
00000100: bdb3 722d c99b bd2d a473 f62c a373 f62c
00000110: a373 f62d f9a0 8a2e 8773 f62e 238a 402f
00000120: 8519 952c 8b19 952c 8e19 952d ebbc 272e
00000130: c619 952e a3f8 e82e 3416 002b 2f16 002b
00000140: 2216 002c d418 902c e615 002d db21 482d
00000150: 5b76 9c2c 5e76 9c2c 6276 9c2d 4f05 302e
00000160: 8e76 9c2e 8179 f42e c7b0 b52d c7b0 b52d
00000170: c2b0 b52e cd66 4c2f abb0 b52f eaf1 0d30
00000180: b127 572b a327 572b 7027 572c ee0b f22c
00000190: 8f26 572d a915 a82d dda9 e52c dca9 e52c
000001a0: cfa9 e52d 7d2f 812e b8a9 e52e 906c 332f
000001b0: c0b3 112c b9b3 112c a5b3 112d f2e9 a32d
000001c0: 45b3 112e b9a7 632e 7978 982a 6878 982a
000001d0: 4278 982b ee86 2b2c 9077 982c f939 ee2c
000001e0: 88fc c72c 87fc c72c 88fc c72d 19fc 602e
000001f0: 87fc c72e 4a3d 1c2f 8150 a22b 7a50 a22b
00000200: 6550 a22c 499a 362d 2b50 a22d fa9c fd2d
00000210: 3bf6 192d 3df6 192d 42f6 192e 2c35 ad2e
00000220: 5df6 192f 1391 702f 946a 832a 866a 832a
00000230: 5d6a 832b 7cd7 132c dc69 832c e554 cd2c
00000240: a3a1 832c aba1 832c b8a1 832d fa15 142e
00000250: e6a1 832e 15ad cd2e de6d d12a d26d d12a
00000260: 9b6d d12b d79a 6b2c c16c d12c 7c9c 232d
00000270: bf5d 022d c05d 022d c05d 022e 6da9 922e
00000280: c65d 022f 6db2 4b2f a908 ed2b 9608 ed2b
00000290: 5f08 ed2c a754 852d c707 ed2d a72d 392e
000002a0: bebd a92c bdbd a92c babd a92d 8df5 3e2e
000002b0: b6bd a92e 4b9c 042f c766 ad2d c566 ad2d
000002c0: c666 ad2e 7e13 432f c166 ad2f 3778 0730
000002d0: 7b54 8929 7154 8929 3f54 892a 6e7e 1a2b
000002e0: 9a53 892b cc91 d62b 1982 ac2a f781 ac2a
000002f0: b781 ac2b 8311 422c ac80 ac2c 04c4 062d
00000300: 5b25 2d2a 4f25 2d2a 2425 2d2b 97c9 c22b
00000310: 9124 2d2c 3a44 872c c402 452a b502 452a
00000320: 7a02 452b 5fa2 dd2b 9801 452c c0e8 992c
00000330: 39d4 df2b 31d4 df2b 22d4 df2c 84ce 7b2d
00000340: e0d3 df2d 50dd 2e2e 100c 862c 0a0c 862c
00000350: 000c 862d 6fcd 162e dd0b 862e 5c72 d12e
00000360: a172 d92c 9d72 d92c 9172 d92d c8a0 742e
00000370: 7272 d92e 50e1 292f 5dad 102a 45ad 102a
00000380: fdac 102b 3ec2 a22b f1ab 102c 770b 622c
00000390: 2440 862c 2640 862c 2f40 862d 5c08 172e
000003a0: 6840 862e d4c4 d12e 8ba0 542b 7fa0 542b
000003b0: 4fa0 542c f133 ef2c 9d9f 542d 3a1c a62d
000003c0: 4ee3 ed2a 3de3 ed2a 0fe3 ed2b 97cf 852c
000003d0: 6de2 ed2c 70d8 392d 0b2e a82d 092e a82d
000003e0: 012e a82e c733 3d2f ee2d a82f e863 0330
000003f0: 0512 922c 0312 922c f911 922d 0a54 242e

exp_avg f4 [100]
2.0933974e-05 -5.7984075e-06 -0.00015149362 2.494946e-05 -1.800714e-05 9.345714e-05 5.39523e-05 3.694249e-05
-0.00016374445 5.2471285e-05 3.053626e-05 0.00016096131 -0.00015679575 -2.8255028e-05 -0.00015625411 -0.00033787082
-3.6903988e-05 0.0001433649 -7.541099e-05 -1.4497878e-05 0.00015318712 5.1143004e-05 -0.00023068787 1.7017683e-05
-0.00014320837 2.0272644e-05 0.00014697324 -6.295149e-05 0.0001332197 -0.00034557833 -5.832671e-06 1.5913998e-06
-1.0367849e-05 -1.0046338e-05 6.205042e-05 0.000103746155 0.00014057141 -2.7370338e-06 -0.00014635161 -3.2313517e-05
2.4738742e-05 -0.00032695816 0.00011313197 -0.00012297161 7.702872e-05 7.2403214e-05 -0.00019633936 -1.9184405e-05
1.7580205e-05 -0.00036881785 -0.00012016279 -0.00034367415 -0.00012515236 -0.00033483593 0.00010124132 -1.6204724e-05
0.00014063047 -0.00017226567 -4.324008e-05 -2.1059284e-05 -3.699441e-05 -0.00013440565 -2.9504356e-05 -2.1718359e-05
2.2053771e-05 6.486684e-05 -2.3454177e-05 -0.00012825194 9.762423e-05 8.5231004e-05 -0.00012254041 -0.00034125734
5.1066745e-05 -2.122254e-05 -0.0003212756 -3.4694727e-05 2.8772649e-05 -0.00013970945 0.00014909524 5.556282e-05
4.0265506e-05 -1.744155e-05 6.481284e-05 4.162895e-05 3.628992e-05 -7.829223e-05 7.209295e-05 -2.7488444e-05
6.06996e-06 2.5438318e-05 -5.9796475e-06 0.00015301898 0.00016363297 2.4602585e-05 1.5047119e-05 -0.00015552423
6.9685906e-05 -4.136357e-05 6.279616e-05 -4.2152315e-06
00000000: 5e9b af37 f18f c2b6 42da 1eb9 8f4a d137
00000010: 0a0e 97b7 6cfe c338 d74a 6238 b2f2 1a38
00000020: d1b2 2bb9 9d14 5c38 0f14 0038 b9c7 2839
00000030: 8a69 24b9 3605 edb7 25d8 23b9 4124 b1b9
00000040: 5bc9 1ab8 3954 1639 f825 9eb8 e93b 73b7
00000050: dba0 2039 6282 5638 cee4 71b9 32c1 8e37
00000060: 342a 16b9 2c0f aa37 d41c 1a39 d304 84b8
00000070: e4b0 0b39 bd2e b5b9 43b6 c3b6 1598 d535
00000080: 93f1 2db7 b18c 28b7 1121 8238 4b92 d938
00000090: 5a66 1339 e2ad 37b6 f675 19b9 6088 07b8
000000a0: 0b86 cf37 956b abb9 4441 ed38 f1f1 00b9
000000b0: 7b8a a138 2ed7 9738 72e0 4db9 32ee a0b7
000000c0: 3479 9337 e55d c1b9 e8ff fbb8 2a2f b4b9
000000d0: 553b 03b9 eb8c afb9 8551 d438 61ef 87b7
000000e0: 3476 1339 37a2 34b9 af5c 35b8 78a8 b0b7
000000f0: 722a 1bb8 3eef 0cb9 1f80 f7b7 d22f b6b7
00000100: 1d00 b937 1f09 8838 76bf c4b7 5e7b 06b9
00000110: 9cbb cc38 0cbe b238 317e 00b9 c9ea b2b9
00000120: 8030 5638 0f07 b2b7 e270 a8b9 2e85 11b8
00000130: cb5c f137 f87e 12b9 7356 1c39 200c 6938
00000140: c2e2 2838 724f 92b7 21ec 8738 bf9a 2e38
00000150: 0136 1838 d230 a4b8 9c30 9738 fc96 e6b7
00000160: 8fac cb36 5f64 d537 c8a4 c8b6 b873 2039
00000170: e494 2b39 a661 ce37 e272 7c37 3814 23b9
00000180: 5624 9238 cc7d 2db8 6fb1 8338 9070 8db6
