TSTE-R/SYNC/ProposedSin/save_model_0226.ckpt-2650000.pt (torch, 266774 bytes, 24 tensors)

linears.0.weight f4 [100, 6]
7.5272946 7.2991295 7.5070124 7.4904633 7.447907 7.7660356 6.954754 6.781254
6.5973787 6.5789886 6.740553 6.8333664 -7.706235 -7.7782826 -7.6063576 -7.6912117
-7.650802 -7.9258404 -4.7037363 -4.925684 -4.5978155 -4.5313168 -4.7799473 -4.8154206
6.1366515 6.152318 6.533314 6.403832 6.2666893 6.439225 -3.8374584 -3.6616547
-3.6256387 -3.6980407 -3.6536622 -3.615649 6.526869 6.7079353 6.746719 7.1841073
7.16293 6.9010496 -7.580552 -7.586002 -7.510298 -7.3422832 -7.765974 -7.7033257
8.01953 8.072841 7.7729797 7.8416257 8.121329 8.049996 7.100868 7.049021
7.32204 7.626699 7.6722946 7.3398585 9.603511 9.642619 9.606276 9.44527
9.639976 9.748017 5.821409 5.623063 6.1907873 6.248226 6.1028347 6.050049
6.4172006 6.237942 6.2986984 6.335041 6.4137435 6.6514688 -3.7898102 -4.122683
-4.329102 -4.4916945 -4.6253557 -4.4896016 9.340503 9.724995 9.335448 9.276043
9.629039 9.584629 -3.4714303 -3.6087892 -3.4957025 -3.637397 -3.3724537 -3.4527526
-3.334089 -3.3553994 -3.2982132 -3.5344906 -3.3855536 -3.5489604 -4.2897587 -4.098799
-4.3635387 -4.808102 -4.6959167 -4.8802233 -4.3838425 -4.539247 -4.75903 -4.925649
-5.029145 -5.1184487 6.6295314 6.8676605 6.5169296 6.7526684 6.558838 6.754812
-5.455597 -5.533373 -5.538382 -5.5474606 -5.729392 -5.794335 -4.8115983 -4.789743
-4.8001275 -5.0669527 -4.8566008 -4.818238 -3.1561418 -3.5013437 -3.2569218 -3.2017813
-3.428786 -3.3156598 5.3061333 5.098753 5.535468 5.6088877 5.8859587 5.8070836
9.333735 9.248589 9.360541 9.539081 9.637589 9.67418 5.7422075 5.829541
6.0601597 6.02225 6.2842274 6.24098 -6.7713065 -6.476418 -6.40675 -6.393512
-6.7888446 -6.6166573 -8.71513 -8.722596 -8.483792 -8.663778 -8.748843 -8.335008
8.019539 7.8954134 7.752881 8.100837 8.075225 7.8336287 -1.8748145 -1.8206749
-2.0655978 -2.1459603 -2.1622183 -2.014581 -5.5949473 -5.616413 -5.475978 -5.846534
-5.7076993 -5.4890437 -4.815548 -5.05256 -4.903596 -4.8925796 -5.155447 -4.857319
-8.140993 -8.126466 -7.9988704 -8.05798 -7.8615727 -8.1394415 3.4607294 3.1085713
3.3605711 3.3903134 3.808066 3.5399604 3.5779285 3.7028313 3.9512887 4.097061
4.218844 4.2901487 -0.13107094 0.074080944 -0.34631348 -0.13340327 0.0036800285 -0.05418856
4.9111404 5.234751 5.1804805 5.1871696 5.197096 4.925048 -3.863445 -3.9247239
-3.8229358 -4.076588 -4.074452 -3.8065894 6.4041204 6.5193787 6.5942664 6.7384167
6.9574223 6.83074 -5.159583 -5.2633624 -5.2918434 -5.268975 -5.552862 -5.5957665
3.1674242 2.9056425 3.203813 3.1419795 3.1366413 3.1379857 -7.759019 -7.5871534
-7.9337835 -7.702409 -8.04831 -7.61692 -3.6982198 -3.7260582 -3.9957979 -3.7542982
00000000: 99df f040 7892 e940 7239 f040 e0b1 ef40
00000010: 4155 ee40 5d83 f840 588d de40 0800 d940
00000020: ba1d d340 1387 d240 9cb2 d740 f0aa da40
00000030: 7a99 f6c0 b1e7 f8c0 4867 f3c0 681e f6c0
00000040: 5fd3 f4c0 7ca0 fdc0 0285 96c0 349f 9dc0
00000050: 4e21 93c0 8c00 91c0 54f5 98c0 ed17 9ac0
00000060: 735f c440 cadf c440 e910 d140 31ec cc40
00000070: b888 c840 220e ce40 eb98 75c0 8d58 6ac0
00000080: 770a 68c0 b3ac 6cc0 9ad5 69c0 cb66 67c0
00000090: 1cdc d040 68a7 d640 1fe5 d740 35e4 e540
000000a0: b936 e540 66d5 dc40 e293 f2c0 87c0 f2c0
000000b0: 5c54 f0c0 fcf3 eac0 dc82 f8c0 a581 f6c0
000000c0: ff4f 0041 5b2a 0141 40bc f840 99ee fa40
000000d0: f7f0 0141 c9cc 0041 503a e340 9491 e140
000000e0: 274e ea40 eb0d f440 7083 f540 1fe0 ea40
000000f0: fba7 1941 2b48 1a41 4eb3 1941 d31f 1741
00000100: 573d 1a41 e1f7 1b41 fc48 ba40 22f0 b340
00000110: ee1a c640 78f1 c740 6c4a c340 009a c140
00000120: b559 cd40 399d c740 f08e c940 a8b8 ca40
00000130: 633d cd40 d5d8 d440 408c 72c0 05ed 83c0
00000140: 0188 8ac0 f6bb 8fc0 ea02 94c0 d1aa 8fc0
00000150: b372 1541 9499 1b41 ff5d 1541 ac6a 1441
00000160: 8b10 1a41 a45a 1941 ea2b 5ec0 67f6 66c0
00000170: 97b9 5fc0 1dcb 68c0 48d6 57c0 e6f9 5cc0
00000180: b761 55c0 ddbe 56c0 ed15 53c0 1835 62c0
00000190: e9ac 58c0 2b22 63c0 b445 89c0 5d29 83c0
000001a0: 1ca2 8bc0 f9db 99c0 f344 96c0 ca2a 9cc0
000001b0: 7048 8cc0 8341 91c0 f949 98c0 eb9e 9dc0
000001c0: c1ee a0c0 55ca a3c0 1f25 d440 e0c3 db40
000001d0: b08a d040 dc15 d840 00e2 d140 6b27 d840
000001e0: 4094 aec0 6411 b1c0 6d3a b1c0 cc84 b1c0
000001f0: 2e57 b7c0 316b b9c0 9df8 99c0 9345 99c0
00000200: a59a 99c0 7a24 a2c0 4669 9bc0 012f 9ac0
00000210: 3afe 49c0 0416 60c0 6871 50c0 fce9 4cc0
00000220: 3b71 5bc0 c533 54c0 d8cb a940 fc28 a340
00000230: 8e22 b140 027c b340 c659 bc40 a1d3 b940
00000240: fb56 1541 38fa 1341 c7c4 1541 13a0 1841
00000250: 9133 1a41 71c9 1a41 2ac0 b740 9a8b ba40
00000260: d4ec c140 46b6 c040 6418 c940 1cb6 c740
00000270: 8bae d8c0 d13e cfc0 1904 cdc0 a697 ccc0
00000280: 373e d9c0 a8bb d3c0 2c71 0bc1 c18f 0bc1
00000290: 9dbd 07c1 d69e 0ac1 43fb 0bc1 315c 05c1
000002a0: 0850 0041 3aa7 fc40 9a17 f840 079d 0141
000002b0: 1f34 0141 16ad fa40 ecf9 efbf e00b e9bf
000002c0: c132 04c0 6a57 09c0 c961 0ac0 e5ee 00c0
000002d0: cf09 b3c0 a8b9 b3c0 363b afc0 ce16 bbc0
000002e0: 79a5 b6c0 3fa6 afc0 f818 9ac0 92ae a1c0
000002f0: 42ea 9cc0 0390 9cc0 6cf9 a4c0 286f 9bc0
00000300: 8241 02c1 0106 02c1 bff6 ffc0 7ced 00c1
00000310: 0192 fbc0 273b 02c1 977c 5d40 d5f2 4640
00000320: 9913 5740 e5fa 5840 5ab7 7340 b68e 6240
00000330: c8fc 6440 30fb 6c40 eae1 7c40 201b 8340
00000340: c500 8740 e648 8940 7637 06be c0b7 973d
00000350: 0050 b1be de9a 08be a22c 713b d3f4 5dbd
00000360: 1028 9d40 1583 a740 7fc6 a540 4bfd a540
00000370: 9c4e a640 fe99 9d40 af42 77c0 ad2e 7bc0
00000380: fbaa 74c0 6973 82c0 e961 82c0 299f 73c0
00000390: 8eee cc40 c09e d040 3b04 d340 1ca1 d740
000003a0: 34a3 de40 6c95 da40 4e1b a5c0 776d a8c0
000003b0: c856 a9c0 719b a8c0 0cb1 b1c0 8510 b3c0
000003c0: 14b7 4a40 0cf6 3940 460b 4d40 3116 4940
000003d0: bbbe 4840 c2d4 4840 e249 f8c0 f6c9 f2c0
000003e0: 8ee1 fdc0 227a f6c0 e1c5 00c1 cfbd f3c0
000003f0: a2af 6cc0 bd77 6ec0 27bb 7fc0 6c46 70c0

linears.0.bias f4 [100]
0.0066370424 -0.03576357 0.28831694 0.09382222 -0.041905083 0.027233755 -0.047560148 0.37666357
0.71588385 -0.048845492 0.07924751 -0.040941518 -0.0429009 0.035106014 0.081397854 0.025699668
0.02568621 0.035790093 0.03930105 -0.04400669 0.20147935 0.037156742 0.024921142 -0.039583705
0.107947044 -0.04196795 0.2537837 0.29902986 0.04805785 0.016289584 0.14392085 0.06968482
0.3269028 -0.024721425 -0.028863372 -0.001427545 -0.035472695 0.030573893 -0.046327315 0.15324137
-0.022060582 0.23710226 0.031031473 0.044014364 0.034258097 0.30929884 0.4543444 0.07833209
-0.040729363 0.008844481 -0.039384745 0.00023816018 -0.03723126 -0.04075186 -0.0436928 0.02114024
-0.042935885 0.42282462 0.021643506 -0.05431774 0.031894207 0.043764483 0.07158045 0.097967826
0.03635722 0.12902349 -0.002978399 0.18174458 0.4461135 -0.019883681 0.030360049 0.053758014
0.021011457 0.31886342 0.0074356245 0.088080354 0.03747316 0.2991307 0.3943633 0.24760655
-0.03771467 -0.041599676 0.2504678 -0.040750474 0.15983598 0.3878601 0.31539637 -0.036645498
-0.03344866 0.032211605 0.48439386 0.20364356 -0.026807847 0.027551373 -0.0050106756 0.036556855
0.03262144 0.030399544 0.070560835 0.06588576
00000000: 8c7b d93b d27c 12bd 479e 933e dd25 c03d
00000010: aaa4 2bbd 5319 df3c 6ece 42bd 0cda c03e
00000020: 2a44 373f 3612 48bd 854c a23d 4bb2 27bd
00000030: dbb8 2fbd 53cb 0f3d ebb3 a63d 1c88 d23c
00000040: e36b d23c a298 123d 23fa 203d 5c40 34bd
00000050: 9a50 4e3e ab31 183d 6c27 cc3c 8622 22bd
00000060: 5713 dd3d 96e6 2bbd f0ef 813e 711a 993e
00000070: 4fd8 443d bc71 853c fd5f 133e eab6 8e3d
00000080: ce5f a73e 9684 cabc e172 ecbc 761c bbba
00000090: d14b 11bd 1a76 fa3c b6c1 3dbd 4eeb 1c3e
000000a0: 65b8 b4bc efca 723e b735 fe3c 6848 343d
000000b0: 3852 0c3d 6b5c 9e3e d49f e83e 936c a03d
000000c0: d5d3 26bd 71e8 103c e651 21bd a3ba 7939
000000d0: ce7f 18bd 6ceb 26bd 39f7 32bd 4c2e ad3c
000000e0: 8add 2fbd 787c d83e b94d b13c 477c 5ebd
000000f0: 80a3 023d 6342 333d c598 923d 5ba3 c83d
00000100: 4feb 143d bc1e 043e 3e31 43bb 401b 3a3e
00000110: fd68 e43e 1ae3 a2bc a3b5 f83c 5d31 5c3d
00000120: 3820 ac3c 1142 a33e 8aa6 f33b 7963 b43d
00000130: 757d 193d a927 993e fde9 c93e 928c 7d3e
00000140: b37a 1abd 6c64 2abd 513d 803e f8e9 26bd
00000150: 0bac 233e 9995 c63e a27b a13e 9719 16bd
00000160: 7601 09bd 51f0 033d 7902 f83e f087 503e
00000170: 219c dbbc 6bb3 e13c 9830 a4bb a4bc 153d
00000180: 0f9e 053d 7708 f93c 3382 903d 1def 863d

linears.1.weight f4 [100, 100]
-0.041967303 0.09094259 0.29861856 0.044531513 0.18873787 0.13053764 0.10058006 0.38576677
0.31239092 0.050924 -0.103403635 -0.057479043 -0.13505347 -0.071134314 -0.12316691 0.14198183
0.06976322 -0.037772685 -0.10976205 0.011569146 0.029078405 0.021296635 0.09790076 0.1746097
-0.097299814 0.0016491696 0.12513717 0.2340555 -0.15804589 -0.14300194 0.106680885 -0.082768895
0.41278726 0.14634754 0.0029140532 0.4447087 -0.023928767 -0.10728061 0.25908437 0.013133273
0.05414744 0.113065206 -0.15007947 -0.050532892 -0.19467592 0.30684608 0.5815178 -0.22192429
0.28064996 -0.16889493 0.17199656 0.13416441 0.036555987 0.061859697 -0.11856675 -0.05972292
-0.060343783 0.4467504 -0.097089246 0.118120864 -0.06748587 0.026742425 0.016598482 -0.056613535
-0.32551482 -0.087057345 -0.08566992 -0.022783972 0.37947223 -0.014434512 -0.0038086905 0.01396372
0.08458315 0.33757305 -0.11873909 -0.14511064 -0.21027403 0.072222106 0.28667918 0.14584711
0.091057286 -0.044639226 -0.30120873 0.27796227 -0.14053112 -0.0412297 0.13094066 0.019638088
0.124304846 -0.19987816 0.60028493 -0.3020018 -0.031232608 0.099405594 -0.12615643 0.08874789
-0.1834198 0.045819063 -0.23620963 -0.25263628 -4.0920796 -3.212511 1.6210853 0.69528574
-2.2463832 0.714173 -2.383357 1.9072709 -1.0394548 -2.4480405 -3.7563953 -2.2935176
-1.9709357 1.2607214 -3.380408 0.98526603 0.86245406 1.421275 1.4728767 -2.3118074
1.0242535 1.1007353 0.67432535 -2.1682065 -1.9806265 -2.1827996 1.2302507 2.0151591
-1.8357805 0.17094001 0.90061796 0.61921805 1.6260431 -1.2043033 -1.5269574 0.15556352
-1.5307909 0.6656852 -2.238386 1.1684175 -1.0988454 1.053927 0.7542211 1.7130439
-2.0288312 1.7785205 2.094769 -3.288692 -2.0900285 -3.554128 -1.7454318 -0.20695183
-1.4887304 -2.2033603 -1.7843815 0.67542046 -1.5470933 2.2474115 0.9455105 -4.0997634
1.0873858 -3.724391 0.80771744 0.89360636 -4.6373396 -1.730137 0.035787933 1.1095403
2.225051 -0.8810341 0.9087561 -1.8443902 0.7023099 1.4844779 -4.5006423 0.63993347
-3.6658578 1.7885567 2.399264 1.1458791 -2.128414 -1.754433 -1.7505738 -2.289752
1.2884086 -1.6230117 1.7866447 -1.8274697 -1.6297282 1.3259941 2.252993 -1.7839352
-0.989214 1.5708249 -3.5063252 1.3921643 1.4770814 0.7274732 -2.2702837 0.7424088
-1.2789785 -1.281768 0.55216336 0.15436938 0.7580776 -0.38927314 0.6521187 0.9328733
-1.2183819 0.554933 -1.3709455 0.37545773 0.49494243 -0.28333625 -1.2903222 -0.21851768
-0.14623375 -0.36077073 -0.14547475 0.55151474 0.23610654 -0.5376389 -0.1328164 0.5778184
-1.8094727 0.53836256 0.29737362 0.9000317 -1.4577795 -0.61048853 0.092687026 -0.03179473
0.90529096 0.16184115 0.09849428 0.19805706 0.42190847 -0.25412428 0.6116435 0.26395556
0.34748355 0.24294095 -0.43348798 -0.455991 -1.4393871 0.61395234 1.1193271 -1.2150034
1.3710998 -1.5592592 0.6616358 -0.05931331 0.6937761 0.71505505 0.54124856 -0.6434152
00000000: e8e5 2bbd 1c40 ba3d 88e4 983e ad66 363d
00000010: 8044 413e a9ab 053e ebfc cd3d 3983 c53e
00000020: b4f1 9f3e af95 503d 49c5 d3bd 256f 6bbd
00000030: 754b 0abe deae 91bd ef3e fcbd af63 113e
00000040: 05e0 8e3d 88b7 1abd edca e0bd 848c 3d3c
00000050: d635 ee3c 4876 ae3c 3280 c83d e3cc 323e
00000060: 2045 c7bd f328 d83a f523 003e 3fac 6f3e
00000070: c8d6 21be 1a6f 12be 827b da3d bd82 a9bd
00000080: da58 d33e 21dc 153e b3f9 3e3b dcb0 e33e
00000090: 4306 c4bc f0b5 dbbd b5a6 843e f12c 573c
000000a0: b5c9 5d3d bb8e e73d 6fae 19be 94fb 4ebd
000000b0: 2059 47be ee1a 9d3e 5ade 143f 1f40 63be
000000c0: 5ab1 8f3e cbf2 2cbe de1f 303e 6562 093e
000000d0: bbbb 153d 9860 7d3d 20d3 f2bd 05a0 74bd
000000e0: 0b2b 77bd 78bc e43e bad6 c6bd 5ae9 f13d
000000f0: 0836 8abd ee12 db3c 8af9 873c 98e3 67bd
00000100: e1a9 a6be 1f4b b2bd b673 afbd 74a5 babc
00000110: 2f4a c23e bb7e 6cbc 399b 79bb 16c8 643c
00000120: ee39 ad3d 60d6 ac3e 7b2d f3bd e297 14be
00000130: 1352 57be 2fe9 933d 9dc7 923e f258 153e
00000140: 3e7c ba3d 9fd7 36bd 0838 9abe 1251 8e3e
00000150: 64e7 0fbe 79e0 28bd 4f15 063e 0ee0 a03c
00000160: 8a93 fe3d dcac 4cbe 46ac 193f fb9f 9abe
00000170: 87db ffbc 2995 cb3d 272f 01be 74c1 b53d
00000180: 66d2 3bbe c5ac 3b3d f0e0 71be 8b59 81be
00000190: 51f2 82c0 c899 4dc0 b97f cf3f 3ffe 313f
000001a0: bec4 0fc0 0bd4 363f ec88 18c0 7421 f43f
000001b0: db0c 85bf b2ac 1cc0 c868 70c0 fec8 12c0
000001c0: 9f47 fcbf 525f a13f 9b58 58c0 653a 7c3f
000001d0: cac9 5c3f 57ec b53f 3987 bc3f a7f4 13c0
000001e0: bd1a 833f e5e4 8c3f 96a0 2c3f e5c3 0ac0
000001f0: 2b85 fdbf fdb2 0bc0 db78 9d3f 5ef8 0040
00000200: dbfa eabf e60a 2f3e e68e 663f 1385 1e3f
00000210: 2e22 d03f 9c26 9abf 5773 c3bf 0b4c 1f3e
00000220: f5f0 c3bf 586a 2a3f b741 0fc0 b48e 953f
00000230: f7a6 8cbf 14e7 863f a214 413f 0645 db3f
00000240: 5fd8 01c0 8fa6 e33f b210 0640 ee79 52c0
00000250: 07c3 05c0 d576 63c0 4f6a dfbf 2eeb 53be
00000260: b88e bebf db03 0dc0 9d66 e4bf 5be8 2c3f
00000270: 2707 c6bf 97d5 0f40 fa0c 723f 4331 83c0
00000280: 752f 8b3f 6c5c 6ec0 92c6 4e3f 63c3 643f
00000290: 1665 94c0 2175 ddbf 5e96 123d 6b05 8e3f
000002a0: 3c67 0e40 738b 61bf 3da4 683f fa14 ecbf
000002b0: 95ca 333f 5f03 be3f 4305 90c0 aed2 233f
000002c0: 6a9d 6ac0 6def e43f 8b8d 1940 2bac 923f
000002d0: ef37 08c0 4391 e0bf cd12 e0bf 4c8b 12c0
000002e0: 93ea a43f d9be cfbf c6b0 e43f 87ea e9bf
000002f0: ef9a d0bf 2dba a93f 0a31 1040 fd57 e4bf
00000300: 213d 7dbf ca10 c93f a267 60c0 7132 b23f
00000310: 0111 bd3f af3b 3a3f 544c 11c0 810e 3e3f
00000320: 91b5 a3bf f910 a4bf 945a 0d3f 0213 1e3e
00000330: 6011 423f cf4e c7be 40f1 263f c9d0 6e3f
00000340: f0f3 9bbf 1710 0e3f 247b afbf ff3b c03e
00000350: 1869 fd3e 7311 91be 4729 a5bf 19c3 5fbe
00000360: 4dbe 15be f1b6 b8be 55f7 14be 1230 0d3f
00000370: eac5 713e b4a2 09bf 0601 08be e8eb 133f
00000380: cd9c e7bf 21d2 093f 5b41 983e 7a68 663f
00000390: 8598 babf fa48 1cbf b2d2 bd3d 313b 02bd
000003a0: 26c1 673f b0b9 253e 5eb7 c93d 78cf 4a3e
000003b0: 6304 d83e 941c 82be ab94 1c3f 2f25 873e
000003c0: 5de9 b13e 83c5 783e 23f2 ddbe a777 e9be
000003d0: d63d b8bf fb2b 1d3f 1c46 8f3f 3b85 9bbf
000003e0: 3380 af3f ce95 c7bf f760 293f 83f2 72bd
000003f0: 4f9b 313f d90d 373f 448f 0a3f dcb6 24bf

linears.1.bias f4 [100]
0.3926119 0.16990821 -0.07870201 0.21503966 -0.46932518 -0.06259813 0.13780336 -0.05958886
0.23351058 0.19838788 0.11009081 0.11550487 -0.7832102 0.060170256 0.21455592 0.00061809696
0.053109318 -0.12113 0.051722154 0.17456897 -0.12413255 -0.51810914 0.022176048 0.4577001
-0.04907615 0.105412945 0.1985991 0.07648443 -0.26794744 -0.035589892 0.5100835 0.39929458
-0.11211065 0.06829033 -0.13648504 -0.07413491 -0.11821311 -0.52699155 -0.27872574 -0.42316362
0.05586277 -0.04716324 -0.053404674 -0.08259805 0.41746238 -1.0315505 -0.5789358 -0.054987438
-0.12848343 -0.094011195 -0.11153308 -0.24380052 0.1145173 -0.5579395 0.05611806 -0.25318274
-0.10773101 0.039737083 -0.09091198 -0.10254807 0.3471392 0.16656719 0.3321258 -0.032855377
0.103874125 0.19920957 0.113751516 -0.11425538 -0.009263238 -0.37595442 -0.64617866 -0.19049354
-0.075487696 -0.08532146 -0.5825039 0.0017098952 0.1531651 -0.10115912 0.023088358 -0.15975364
-0.13491751 -0.10227974 -0.03854754 -0.6326695 0.13774195 0.012954694 0.103016146 0.051107723
0.013607881 -0.12221227 0.14624031 -0.43849355 -0.16389374 -0.56339055 -0.10023034 0.67383265
-0.061132178 -0.024863614 0.08564454 -0.068242036
00000000: 6d04 c93e 6bfc 2d3e 852e a1bd 5b33 5c3e
00000010: 644b f0be 7333 80bd 531c 0d3e 7313 74bd
00000020: 661d 6f3e 3126 4b3e 4a77 e13d d18d ec3d
00000030: 7780 48bf 1675 763d 8cb4 5b3e c907 223a
00000040: 2889 593d 0113 f8bd 9cda 533d 35c2 323e
00000050: 3539 febd cda2 04bf 8baa b53c ab57 ea3e
00000060: 1304 49bd bee2 d73d 905d 4b3e dea3 9c3d
00000070: 6830 89be b5c6 11bd d594 023f 5770 cc3e
00000080: 459a e5bd cddb 8b3d bcc2 0bbe 0bd4 97bd
00000090: b719 f2bd ebe8 06bf 24b5 8ebe e7a8 d8be
000000a0: 5cd0 643d 3e2e 41bd dcbe 5abd 2b29 a9bd
000000b0: a1bd d53e d909 84bf 2335 14bf 823a 61bd
000000c0: 2991 03be f188 c0bd 756b e4bd d8a6 79be
000000d0: 0c88 ea3d 20d5 0ebf 0ddc 653d 2ba1 81be
000000e0: 13a2 dcbd 5ac3 223d 0f30 babd b904 d2bd
000000f0: 3bbc b13e 9790 2a3e 650c aa3e 5c93 06bd
00000100: f5bb d43d 98fd 4b3e 8ef6 e83d bafe e9bd
00000110: d6c4 17bc 197d c0be f76b 25bf bd10 43be
00000120: 4b99 9abd 05bd aebd fa1e 15bf 901e e03a
00000130: 50d7 1c3e 832c cfbd cc23 bd3c 7596 23be
00000140: d127 0abe 0a78 d1bd 06e4 1dbd a1f6 21bf
00000150: 3a0c 0d3e ed3f 543c 21fa d23d 5556 513d
00000160: 97f3 5e3c 6d4a fabd 05c0 153e 3a82 e0be
00000170: c3d3 27be 5d3a 10bf 9145 cdbd 4c80 2c3f
00000180: bc65 7abd c7ae cbbc 6866 af3d 7bc2 8bbd

linears.2.weight f4 [100, 100]
0.2250334 1.7424958 0.9578549 0.98768073 0.24220909 -1.3969594 -1.374208 0.58001095
1.6476629 0.05195083 -1.2383739 -0.58058625 0.31484848 1.1942868 -0.8200769 1.0288008
-1.5357082 0.7678162 -1.8856491 1.4242136 0.99694514 0.12821543 -1.6531687 0.7951718
-1.3679142 0.1975751 -0.08726506 0.64607245 0.043327384 0.5202067 0.45083818 0.59377307
-1.2844151 0.34882644 0.8304558 -1.0601776 0.5950842 0.29383406 0.28135195 0.4876267
-2.0861323 0.37393916 -0.58649385 -1.0930638 -1.1608973 0.32001674 -0.2148748 0.23128167
-0.4867947 -1.2174923 -1.1174655 0.33017695 -0.0059881834 0.281241 0.6057187 0.11945519
1.0320745 -1.6943654 -1.1518272 0.6554489 0.18536867 0.36845064 0.66153884 -1.3452185
-0.12755175 0.53703964 0.2636191 -0.5378859 -0.19078556 0.7283342 0.02315932 -1.6295317
0.86453724 0.88125795 -0.085604064 0.57569116 0.87528956 -1.5363673 -1.61696 -1.0797702
1.1090999 -0.2142922 0.8463359 0.2418893 -0.6324208 -0.18994716 0.9271234 -0.8802494
-1.4713095 -0.2226352 -0.7246764 0.5652978 0.7113642 0.19049282 0.59788805 0.50066525
-1.139661 -1.289484 -0.41211468 0.8768157 -0.41902083 -0.39909485 -0.09843347 -0.39914125
-0.066075966 0.058683105 -0.07310667 -0.13659652 -0.46003985 0.4330522 -0.1839361 0.11959739
-0.16350232 0.22284439 0.060712293 0.23687595 -0.020872489 -0.54255116 -0.19018468 -0.47448796
-0.6187058 0.08665513 -0.04957581 -0.60712343 0.029801741 -0.027830582 0.28337637 0.18288498
0.68399054 1.0340368 -0.09453222 -0.039002392 -0.28662822 0.0755974 -0.34400126 0.32001647
-0.17563266 -0.15719047 -0.29085833 -0.69441515 0.57516485 0.9570723 0.27765742 -0.10246543
-0.024521505 -2.2703245 0.1622156 0.075735636 -0.46958196 0.36655626 -0.23782411 0.24396889
-0.14393309 -0.14835136 -0.09711616 -0.20594469 0.26142067 -0.14805675 0.08887383 0.282934
-0.3412973 -0.037381463 0.7108918 0.2588825 0.24080199 0.059525948 -0.57998437 0.41594774
0.29460916 -3.2834992 -0.7073727 -0.105912305 -0.15390548 0.004307153 -0.5818171 -0.16110644
0.18924174 0.06856669 0.03317173 0.40114725 -0.18703383 0.2912596 -0.48392144 -1.1912775
-0.2984914 0.41940337 -0.2172845 -0.050285112 -0.2044313 0.65492135 0.3215863 -0.6085552
0.1772836 0.09359666 -0.12031171 0.03072093 0.26759273 0.2520837 -0.064213 0.35347387
-0.07786181 0.6943315 0.13700365 0.58501214 0.21642737 0.02759045 -0.22282134 -0.25429186
0.6608844 0.38593313 0.55112374 0.4658794 0.21703506 0.26232165 -0.34189552 0.38261947
-0.2960233 0.18279903 -0.46442682 0.5691026 0.118139714 0.252751 -0.6574853 -0.8302416
-0.4890227 -0.00790039 0.6770743 0.5010964 -0.02437731 0.2082777 -0.40450838 -0.81885535
-0.66474015 0.08301508 -0.33343735 0.20295273 0.127527 0.15880647 0.27353773 0.4430751
0.6126664 0.22717445 -0.10087586 0.6263704 -0.74364346 0.11055861 0.049580388 -0.0052144434
0.057803277 0.3404856 -0.75798184 -0.39246598 -0.25924525 0.11082518 -0.26557297 0.34339538
00000000: 286f 663e 1a0a df3f fb35 753f a5d8 7c3f
00000010: a905 783e 91cf b2bf 0ce6 afbf 997b 143f
00000020: 9ee6 d23f 65ca 543d 0983 9ebf 4da1 14bf
00000030: d233 a13e 64de 983f 8ff0 51bf bfaf 833f
00000040: 1692 c4bf 9a8f 443f f35c f1bf a24c b63f
00000050: cc37 7f3f e84a 033e 089b d3bf 6190 4b3f
00000060: d017 afbf 2151 4a3e 06b8 b2bd 0165 253f
00000070: 0e78 313d 442c 053f 43d4 e63e 8301 183f
00000080: b767 a4bf 6199 b23e c098 543f e6b3 87bf
00000090: 7057 183f 6b71 963e 5d0d 903e 35aa f93e
000000a0: 3183 05c0 f474 bf3e 7624 16bf 84e9 8bbf
000000b0: 4898 94bf 3cd9 a33e 2408 5cbe 1ad5 6c3e
000000c0: 283d f9be cad6 9bbf 1c09 8fbf f40c a93e
000000d0: 8638 c4bb d2fe 8f3e 6110 1b3f eca4 f43d
000000e0: 041b 843f f7e0 d8bf 136f 93bf 80cb 273f
000000f0: 49d1 3d3e 90a5 bc3e 9c5a 293f 1f30 acbf
00000100: ed9c 02be 6e7b 093f 15f9 863e e4b2 09bf
00000110: 4a5d 43be 1c74 3a3f 9db8 bd3c 7f94 d0bf
00000120: 5052 5d3f 1f9a 613f 2f51 afbd 7f60 133f
00000130: fa12 603f afa7 c4bf 8cf8 cebf e935 8abf
00000140: fcf6 8d3f 6a6f 5bbe 78a9 583f d4b1 773e
00000150: 54e6 21bf 8281 42be f657 6d3f 0658 61bf
00000160: df53 bcbf 7bfa 63be 6484 39bf 5bb7 103f
00000170: f71b 363f 8d10 433e 310f 193f 992b 003f
00000180: 69e0 91bf d00d a5bf b200 d3be fe76 603f
00000190: e689 d6be 2956 ccbe 7d97 c9bd 3e5c ccbe
000001a0: d652 87bd b25d 703d f3b8 95bd f5df 0bbe
000001b0: 588a ebbe 05b9 dd3e bf59 3cbe 7aef f43d
000001c0: 276d 27be 5231 643e 74ad 783d 9c8f 723e
000001d0: c8fc aabc a2e4 0abf c6bf 42be 16f0 f2be
000001e0: 8163 1ebf 3f78 b13d 0110 4bbd 716c 1bbf
000001f0: c822 f43c f6fc e3bc b516 913e 3346 3b3e
00000200: 011a 2f3f 515b 843f 1c9a c1bd f9c0 1fbd
00000210: efc0 92be cfd2 9a3d ef20 b0be 33d9 a33e
00000220: 0cd9 33be 8af6 20be 62eb 94be 31c5 31bf
00000230: 013e 133f b102 753f 1d29 8e3e 65d9 d1bd
00000240: 53e1 c8bc ff4c 11c0 d91b 263e 491b 9b3d
00000250: 0c6d f0be 43ad bb3e 2a88 73be fbd2 793e
00000260: 3263 13be 6be9 17be d6e4 c6bd 2ae3 52be
00000270: eed8 853e 309c 17be 7c03 b63d badc 903e
00000280: 85be aebe 4e1d 19bd 01fd 353f 3f8c 843e
00000290: cc94 763e 7bd1 733d db79 14bf 1af7 d43e
000002a0: 03d7 963e da24 52c0 6116 35bf 8de8 d8bd
000002b0: 6699 1dbe 0523 8d3b f7f1 14bf 16f9 24be
000002c0: 96c8 413e b16c 8c3d 14df 073d 2c63 cd3e
000002d0: cc85 3fbe fa1f 953e 8dc4 f7be c87b 98bf
000002e0: ddd3 98be 0abc d63e d47f 5ebe c3f7 4dbd
000002f0: 7056 51be eda8 273f f6a6 a43e 46ca 1bbf
00000300: d589 353e 9baf bf3d fc65 f6bd 76aa fb3c
00000310: ea01 893e 1d11 813e 1b82 83bd 87fa b43e
00000320: 0376 9fbd b6bf 313f af4a 0c3e 5bc3 153f
00000330: 239f 5d3e 5e05 e23c 472b 64be 8b32 82be
00000340: b82f 293f 0799 c53e 7216 0d3f bf87 ee3e
00000350: 703e 5e3e 064f 863e ee0c afbe b3e6 c33e
00000360: 5e90 97be ab2f 3b3e 5ac9 edbe b5b0 113f
00000370: 3cf3 f13d 9468 813e f550 28bf b78a 54bf
00000380: 2f61 fabe a370 01bc be54 2d3f db47 003f
00000390: edb2 c7bc c046 553e b91b cfbe 81a0 51bf
000003a0: 692c 2abf cf03 aa3d 4db8 aabe d7d2 4f3e
000003b0: 7096 023e 2a9e 223e 230d 8c3e bdda e23e
000003c0: b5d7 1c3f 6ba0 683e 0198 cebd cf59 203f
000003d0: 6b5f 3ebf 8d6c e23d ce14 4b3d ecdd aabb
000003e0: 21c3 6c3d 2154 ae3e 190b 42bf 4df1 c8be
000003f0: cbbb 84be 50f8 e23d 2ef9 87be 85d1 af3e

linears.2.bias f4 [100]
-0.19466873 0.046014287 -0.3269295 0.3063064 0.0859841 -0.35055372 -0.40183997 -0.29949224
-0.38562596 -0.26259643 -0.0787774 -0.464519 -0.18420267 -0.14852008 -0.4687389 -0.0432298
0.0050870962 -2.8515923 -0.12092589 -0.19850641 -0.17964949 -1.0136522 0.17409816 0.10452879
-0.38700047 -0.68381923 -0.2743477 0.3098235 0.08281857 -0.30584133 -0.27464694 -0.37642002
0.016548464 -0.29058427 -0.13074717 0.18137553 -0.20669296 -0.15765539 -0.36094245 -0.18090233
-0.24282654 -0.25676465 -0.05442787 -3.1499689 -0.3709369 -0.274024 0.73411953 -0.2588121
-1.0866438 -0.3054959 0.25414282 -0.2636109 -0.15247299 -0.14073753 -0.32194814 -0.24903087
-0.4952501 -0.13034055 -0.11680543 -0.0017481387 -0.18836093 -0.1673517 -0.2254385 -0.19581667
0.25215513 0.2434492 -0.096733704 -0.022351352 0.2919202 -0.24474926 0.4178335 -0.3237421
-0.17760974 -0.11429204 -0.28753734 -0.18434739 -0.03886258 -0.22605623 -1.0617665 -0.12811138
-0.19919981 -0.13286161 -0.30760506 0.015927006 -0.2957812 -0.3151603 -0.04351629 -0.2683982
-0.2282149 -0.23074359 -0.064521484 -0.18571934 -0.4951486 -0.4647121 0.26815218 -0.31805038
-0.3367684 -0.27892366 -0.19666696 -0.21409711
00000000: 3d57 47be 7a79 3c3d 4e63 a7be 31d4 9c3e
00000010: 6f18 b03d c77b b3be f8bd cdbe 0c57 99be
00000020: c470 c5be 0a73 86be 0c56 a1bd 6fd5 edbe
00000030: a09f 3cbe a615 18be 8cfe efbe bb11 31bd
00000040: a8b1 a63b 7d80 36c0 fea7 f7bd 4445 4bbe
00000050: 09f6 37be 5bbf 81bf ca46 323e 3113 d63d
00000060: ed24 c6be c70e 2fbf 4d77 8cbe 30a1 9e3e
00000070: c89c a93d 3c97 9cbe 869e 8cbe 20ba c0be
00000080: a590 873c 76c7 94be 96e2 05be 82ba 393e
00000090: 52a7 53be 6a70 21be 73cd b8be 763e 39be
000000a0: 85a7 78be a876 83be c2ef 5ebd 1799 49c0
000000b0: 71eb bdbe e04c 8cbe 42ef 3b3f 0583 84be
000000c0: 2517 8bbf f569 9cbe 021f 823e 02f8 86be
000000d0: e121 1cbe 801d 10be 63d6 a4be f301 7fbe
000000e0: 6c91 fdbe fe77 05be af37 efbd cd21 e5ba
000000f0: b0e1 40be 3e5e 2bbe 5ad9 66be 2a84 48be
00000100: 7a1a 813e bf4a 793e 521c c6bd 2f1a b7bc
00000110: 9176 953e 8d9f 7abe 46ee d53e 86c1 a5be
00000120: 54df 35be f211 eabd 1838 93be 90c5 3cbe
00000130: 5e2e 1fbd 497b 67be f7e7 87bf a12f 03be
00000140: 09fb 4bbe e00c 08be 697e 9dbe 5a79 823c
00000150: a270 97be b15c a1be 233e 32bd 7d6b 89be
00000160: 2bb1 69be 0c48 6cbe d723 84bd 362d 3ebe
00000170: 1e84 fdbe bfee edbe 3e4b 893e 80d7 a2be
00000180: e86c acbe 15cf 8ebe 1063 49be 463c 5bbe

linears.3.weight f4 [3, 100]
0.04548802 -0.04942117 -0.24682464 1.3010213 -0.5874058 -0.32504258 -0.14749385 -1.8203816
-2.369185 -0.79372025 0.101261824 1.0429065 -0.40846032 0.26822343 1.3396436 -0.5199905
0.6081085 -0.08055505 -0.6966411 -0.5448989 0.9284394 -0.011546126 -0.051716 -0.0011018171
-1.1054534 0.28308344 -0.31251556 -0.1951419 0.015687816 0.6450201 0.46328673 0.012069734
-0.3984557 -0.40363216 0.23390196 -0.28020594 0.83803123 -1.2265289 -0.5803623 0.5231766
-0.081769675 -1.0793742 0.5587105 0.16511926 -0.19737053 -0.40283564 0.3803747 -0.4386282
-0.24152662 -0.37706783 -0.34796867 0.09366154 -1.0099094 0.38967663 0.031653143 -0.5818241
-0.30755568 -0.67550945 -1.598092 0.0011787718 -0.52199423 -0.8876636 -0.48422962 -0.46078408
0.88321596 -1.3819388 1.5457274 -0.62593293 -0.04932054 -0.4053901 0.19286431 -0.5641785
0.72736627 -0.4302851 -0.20369475 -0.3251598 -1.9498423 -0.46648026 -0.21204329 -0.536439
-0.29351914 -0.52028227 0.08333998 -0.40118828 0.98201233 -0.32508585 1.2548618 0.53165317
0.23645206 0.40922198 -0.7533004 -0.44343394 0.463754 -0.09953021 1.0136515 -0.36823437
0.40817708 3.4615521 -0.25967064 -0.5210791 0.04501275 -0.00065363874 0.0060313097 -0.0012301563
0.043883555 0.027914966 0.036884055 -0.14675102 -0.013238423 0.066405624 -0.122023374 0.042769756
0.03901063 0.08522892 -0.010610168 0.0011204303 0.2319592 -0.0022598158 0.031177092 0.016152365
-0.15722723 0.00019813809 0.02193218 1.3508633e-05 -0.07587523 -0.015686627 0.039608646 0.02314633
0.0014279223 0.06372602 0.070509635 0.04101039 0.045421507 0.055318866 0.08761367 0.023587128
0.22996187 -0.12632637 -0.006711348 -0.014922842 0.15903984 -0.007932861 0.00078616233 0.0007264476
-0.0055859336 0.03026244 -0.048332576 -0.005888649 -0.012209819 0.032666747 -0.00037052418 1.3489596
0.0112859 -0.02271156 0.04340735 0.026882563 -0.02693913 0.03140343 -0.0029580414 -0.00016399325
0.073746115 0.015236804 0.03893237 0.035633475 0.00027467564 0.021366801 0.001968079 -0.079811335
0.008325906 0.024263207 -0.030979205 0.11022413 0.24106768 0.035381064 0.04214374 0.040675987
0.0012994204 0.029907852 -0.47944894 0.034629136 0.039134435 0.05028188 -0.00011720437 -0.0008482418
0.14119764 0.023979614 0.0702706 -0.003781831 -0.012175155 0.017415056 0.031336304 -0.00039858554
1.4051641 -0.023576044 0.008781666 -0.11912478 0.06457299 0.12372842 0.60384923 0.016238272
7.1722994 0.009396091 4.1102443 0.7735049 -1.159385 -0.7535635 -0.7191049 -1.1891084
1.143832 2.8260157 14.475479 -29.869019 -0.92628497 -1.195386 4.7547784 -0.61023706
9.222798 -23.36379 -0.99383473 -0.66766286 -3.6996784 -16.470522 3.6939926 0.00064056687
-28.42479 -23.778357 -0.88827014 3.3970912 5.0464764 -0.66491604 -0.6924255 -0.636228
-1.1485891 -0.51646525 -2.0471892 3.3853362 -0.9195343 -1.1106917 6.263977 18.804379
-4.163001 0.31654203 3.856971 30.484371 1.7467145 -0.8476866 0.99504584 6.186485
18.6634 -0.840642 1.8448037 2.8803053 -0.8891537 7.4389553 -0.79112256 -0.8178008
00000000: a551 3a3d da6d 4abd 99bf 7cbe de87 a63f
00000010: 3a60 16bf fb6b a6be a108 17be 4402 e9bf
00000020: baa0 17c0 4031 4bbf 5c62 cf3d f67d 853f
00000030: b621 d1be 9554 893e 7179 ab3f 191e 05bf
00000040: 00ad 1b3f 0cfa a4bd 1257 32bf 7f7e 0bbf
00000050: 34ae 6d3f f62b 3dbc 28d4 53bd d96a 90ba
00000060: 7f7f 8dbf 50f0 903e 0a02 a0be 47d3 47be
00000070: bc83 803c 0a20 253f eb33 ed3e 22c0 453c
00000080: 6302 ccbe e0a8 cebe ff83 6f3e 2777 8fbe
00000090: 3789 563f e6fe 9cbf a092 14bf e7ee 053f
000000a0: dc76 a7bd ef28 8abf a707 0f3f 0615 293e
000000b0: 801b 4abe 7940 cebe 79c0 c23e e093 e0be
000000c0: c152 77be 090f c1be f328 b2be 9fd1 bf3d
000000d0: b644 81bf b283 c73e baa6 013d 6df2 14bf
000000e0: f077 9dbe 30ee 2cbf 478e ccbf 0581 9a3a
000000f0: 6aa1 05bf ec3d 63bf f2ec f7be e4eb ebbe
00000100: 711a 623f 5fe3 b0bf 65da c53f 243d 20bf
00000110: 5604 4abd 4b8f cfbe 397e 453e 016e 10bf
00000120: ad34 3a3f 544e dcbe 5b95 50be 587b a6be
00000130: 6f94 f9bf 80d6 eebe e021 59be 1154 09bf
00000140: 2448 96be 3831 05bf 27ae aa3d 8d68 cdbe
00000150: 2965 7b3f a771 a6be 509f a03f 6c1a 083f
00000160: 7d20 723e 8b85 d13e 4cd8 40bf c609 e3be
00000170: 2a71 ed3e 7fd6 cbbd 55bf 813f 3789 bcbe
00000180: 96fc d03e 128a 5d40 8df3 84be 7165 05bf
00000190: 4a5f 383d f458 2bba 4ba2 c53b 323d a1ba
000001a0: 3ebf 333d edad e43c bc13 173d e645 16be
000001b0: f8e5 58bc acff 873d 64e7 f9bd 572f 2f3d
000001c0: 9cc9 1f3d 808c ae3d 45d6 2dbc 67db 923a
000001d0: b686 6d3e 6b19 14bb 1a67 ff3c f751 843c
000001e0: 2d00 21be 4ac3 4f39 1dab b33c 23a3 6237
000001f0: 7964 9bbd 3e81 80bc ad3c 223d 5f9d bd3c
00000200: 1f29 bb3a ca82 823d 5b67 903d 83fa 273d
00000210: e70b 3a3d 0996 623d cc6e b33d cb39 c13c
00000220: 207b 6b3e b35b 01be deea dbbb f07e 74bc
00000230: 57db 223e d5f8 01bc 7616 4e3a 136f 3e3a
00000240: 350a b7bb f0e8 f73c 61f8 45bd 91f5 c0bb
00000250: b10b 48bc 91cd 053d ea42 c2b9 b5aa ac3f
00000260: 7fe8 383c 980d babc e8cb 313d d238 dc3c
00000270: 73af dcbc e2a0 003d b3db 41bb 9af5 2bb9
00000280: 3408 973d caa3 793c 8c77 1f3d 68f4 113d
00000290: 5702 9039 6e09 af3c e3fa 003b 2074 a3bd
000002a0: 6169 083c a2c3 c63c 1ac8 fdbc 30bd e13d
000002b0: 72da 763e bceb 103d ea9e 2c3d dd9b 263d
000002c0: 5051 aa3a 5001 f53c 557a f5be 48d7 0d3d
000002d0: 6e4b 203d 5ff4 4d3d 9ecb f5b8 8b5c 5eba
000002e0: 1d96 103e e570 c43c 08ea 8f3d 98d8 77bb
000002f0: 4d7a 47bc 05aa 8e3c 7f5a 003d 3ff9 d0b9
00000300: 6bdc b33f 8c22 c1bc fae0 0f3c b1f7 f3bd
00000310: d83e 843d 5365 fd3d dd95 1a3f 2006 853c
00000320: 7a83 e540 10f2 193c 1f87 8340 6b04 463f
00000330: ba66 94bf 8ae9 40bf 4217 38bf b434 98bf
00000340: 1669 923f 71dd 3440 909b 6741 c0f3 eec1
00000350: 0321 6dbf 6902 99bf 2527 9840 7f38 1cbf
00000360: 9590 1341 0be9 bac1 f46b 7ebf f4eb 2abf
00000370: 88c7 6cc0 a1c3 83c1 606a 6c40 b7eb 273a
00000380: f865 e3c1 133a bec1 ac65 63bf f169 5940
00000390: bc7c a140 f037 2abf cc42 31bf d7df 22bf
000003a0: f804 93bf 1137 04bf 2605 03c0 59a9 5840
000003b0: 9a66 6bbf 252b 8ebf 8072 c840 5e6f 9641
000003c0: 4e37 85c0 cc11 a23e 9dd8 7640 fedf f341
000003d0: 5794 df3f fd01 59bf 53bb 7e3f aff7 c540
000003e0: a54e 9541 5034 57bf 8722 ec3f ec56 3840
000003f0: 949f 63bf ec0b ee40 0287 4abf 655b 51bf

linears.3.bias f4 [3]
0.7049911 0.63912004 1.1815925
00000000: 4c7a 343f 5f9d 233f 6c3e 973f

exp_avg f4 [100, 6]
-7.821892e-09 -7.821885e-09 -1.564376e-08 -2.3465429e-08 -3.128746e-08 -3.9109416e-08 -8.711057e-09 -8.711039e-09
-1.7422014e-08 -2.6133003e-08 -3.4844078e-08 -4.3554788e-08 3.867745e-09 3.8677417e-09 7.735446e-09 1.1603057e-08
1.5470734e-08 1.9338303e-08 2.349584e-09 2.3495814e-09 4.6991366e-09 7.048657e-09 9.39811e-09 1.1747532e-08
-2.9543172e-09 -2.954317e-09 -5.908626e-09 -8.862963e-09 -1.18172165e-08 -1.4771547e-08 5.50862e-10 5.5086136e-10
1.1017178e-09 1.6525677e-09 2.2034023e-09 2.7542202e-09 -1.6375572e-09 -1.6375579e-09 -3.2751117e-09 -4.9126925e-09
-6.550256e-09 -8.1878575e-09 6.1418177e-09 6.141807e-09 1.22835395e-08 1.8425146e-08 2.4566717e-08 3.0707866e-08
-1.2017196e-10 -1.201798e-10 -2.4040062e-10 -3.607124e-10 -4.812433e-10 -6.01909e-10 -3.5860865e-09 -3.5860843e-09
-7.1721638e-09 -1.0758206e-08 -1.4344344e-08 -1.7930343e-08 -7.2475346e-09 -7.2475377e-09 -1.4495018e-08 -2.1742451e-08
-2.8990033e-08 -3.6237235e-08 -6.3381234e-10 -6.33813e-10 -1.2676267e-09 -1.9014548e-09 -2.535294e-09 -3.1691716e-09
-2.9291245e-09 -2.9291227e-09 -5.8582357e-09 -8.787393e-09 -1.1716428e-08 -1.4645562e-08 4.7917306e-11 4.7918402e-11
9.583962e-11 1.4376828e-10 1.9170905e-10 2.3966337e-10 -6.6687003e-09 -6.668693e-09 -1.3337373e-08 -2.0006004e-08
-2.667472e-08 -3.334332e-08 8.8738034e-10 8.8737895e-10 1.774749e-09 2.6620928e-09 3.5494094e-09 4.4366737e-09
5.4378996e-10 5.4378885e-10 1.087573e-09 1.631347e-09 2.1751116e-09 2.718855e-09 1.2596775e-10 1.2596842e-10
2.519399e-10 3.779123e-10 5.0389687e-10 6.2989375e-10 2.3301847e-10 2.3301883e-10 4.6603926e-10 6.9906164e-10
9.32092e-10 1.1651368e-09 -2.854361e-09 -2.8543587e-09 -5.7087095e-09 -8.56305e-09 -1.1417386e-08 -1.4271658e-08
3.953286e-09 3.953282e-09 7.906516e-09 1.1859709e-08 1.5812772e-08 1.9765732e-08 4.9914767e-10 4.9914767e-10
9.982907e-10 1.4974303e-09 1.996564e-09 2.495688e-09 4.2264242e-10 4.2264206e-10 8.4528057e-10 1.2679112e-09
1.6905313e-09 2.1131448e-09 -4.5419168e-10 -4.5419235e-10 -9.0838653e-10 -1.3625894e-09 -1.8167878e-09 -2.2710136e-09
-4.7869833e-09 -4.786986e-09 -9.573934e-09 -1.4360971e-08 -1.9147903e-08 -2.3934883e-08 -1.2947194e-09 -1.2947187e-09
-2.5894349e-09 -3.884144e-09 -5.1788436e-09 -6.4735346e-09 3.862831e-09 3.862835e-09 7.725636e-09 1.1588363e-08
1.5451075e-08 1.931356e-08 4.396356e-09 4.3963535e-09 8.792693e-09 1.318898e-08 1.7585265e-08 2.1981363e-08
-3.6180816e-09 -3.6180832e-09 -7.236165e-09 -1.0854324e-08 -1.4472392e-08 -1.809047e-08 -4.0312884e-10 -4.0312773e-10
-8.0624774e-10 -1.209349e-09 -1.6124209e-09 -2.015464e-09 2.4748608e-09 2.4748545e-09 4.949699e-09 7.4245e-09
9.899279e-09 1.2373985e-08 1.7016406e-09 1.7016382e-09 3.4032595e-09 5.1048645e-09 6.8064043e-09 8.507936e-09
4.277728e-09 4.277715e-09 8.555401e-09 1.2833057e-08 1.7110583e-08 2.1388098e-08 1.2418673e-10 1.2418508e-10
2.483633e-10 3.7252945e-10 4.966755e-10 6.2079075e-10 1.2127939e-10 1.2127836e-10 2.4255017e-10 3.6380668e-10
4.8504506e-10 6.06256e-10 -4.372017e-12 -4.372046e-12 -8.744279e-12 -1.31165955e-11 -1.7488825e-11 -2.1861936e-11
-1.1545809e-09 -1.1545804e-09 -2.3091529e-09 -3.4637164e-09 -4.6182516e-09 -5.772759e-09 1.0037173e-09 1.0037161e-09
2.0074218e-09 3.0111087e-09 4.014756e-09 5.0183786e-09 -2.040433e-09 -2.040432e-09 -4.0808583e-09 -6.1212897e-09
-8.161681e-09 -1.0202137e-08 2.7633835e-09 2.7633826e-09 5.5267426e-09 8.290093e-09 1.1053384e-08 1.3816577e-08
6.3122896e-11 6.3122396e-11 1.2624037e-10 1.8934795e-10 2.5244523e-10 3.1551928e-10 3.1300453e-09 3.1300376e-09
6.2600694e-09 9.390084e-09 1.2520004e-08 1.5650016e-08 6.936328e-10 6.9363215e-10 1.3872581e-09 2.0808748e-09
00000000: 0b61 06b2 0461 06b2 fe60 86b2 0691 c9b2
00000010: ed60 06b3 42f9 27b3 a2a7 15b2 8ea7 15b2
00000020: 6aa7 95b2 157b e0b2 78a7 15b3 ff10 3bb3
00000030: 0be5 8431 04e5 8431 dae4 0432 c956 4732
00000040: 81e4 8432 611d a632 5276 2131 4676 2131
00000050: 0b76 a131 a530 f231 5375 2132 31d2 4932
00000060: e604 4bb1 e504 4bb1 d304 cbb1 b943 18b2
00000070: ab04 4bb2 f3c5 7db2 786b 1730 6c6b 1730
00000080: 406b 9730 8f20 e330 aa6a 1731 c144 3d31
00000090: 6c10 e1b0 7210 e1b0 6010 61b1 80cc a8b1
000000a0: a910 e1b1 94aa 0cb2 0008 d331 e807 d331
000000b0: 9407 5332 5345 9e32 c806 d332 a8e3 0333
000000c0: 6621 04af 9b23 04af 6129 84af c24d c6af
000000d0: 7d48 04b0 9573 25b0 1a6f 76b1 106f 76b1
000000e0: 056f f6b1 17d3 38b2 186f 76b2 3e05 9ab2
000000f0: fd05 f9b1 0406 f9b1 c305 79b2 28c4 bab2
00000100: c205 f9b2 43a3 1bb3 9438 2eb0 a038 2eb0
00000110: a638 aeb0 bfaa 02b1 5d39 2eb1 a8c8 59b1
00000120: b449 49b1 ac49 49b1 9649 c9b1 5df7 16b2
00000130: 6549 49b2 dd9b 7bb2 17be 522e 53bf 522e
00000140: e9c0 d22e 2c13 1e2f 4dc9 522f 9fc1 832f
00000150: 8222 e5b1 7222 e5b1 6322 65b2 abd9 abb2
00000160: 5422 e5b2 5e35 0fb3 d7eb 7330 beeb 7330
00000170: 6eeb f330 08f0 3631 dfe9 7331 6571 9831
00000180: d179 1530 bd79 1530 9379 9530 eb35 e030
00000190: f878 1531 9ad6 3a31 c580 0a2f f580 0a2f
000001a0: 6481 8a2f 6ec2 cf2f 9782 0a30 d524 2d30
000001b0: 6f1a 802f 7c1a 802f 991a 0030 1728 4030
000001c0: 121b 8030 9b22 a030 7326 44b1 6926 44b1
000001d0: 5726 c4b1 b11c 13b2 3226 44b2 6a2f 75b2
000001e0: 79d5 8731 70d5 8731 3ad5 0732 8dbf 4b32
000001f0: a7d4 8732 4ec9 a932 6534 0930 6534 0930
00000200: 3b34 8930 25ce cd30 ed33 0931 9c80 2b31
00000210: a259 e82f 9559 e82f 5559 6830 a942 ae30
00000220: 4858 e830 d636 1131 ccb1 f9af e4b1 f9af
00000230: 05b2 79b0 da45 bbb0 8ab2 f9b0 1810 1cb1
00000240: c07a a4b1 c67a a4b1 9b7a 24b2 38b8 76b2
00000250: af7a a4b2 5d99 cdb2 e4f1 b1b0 ddf1 b1b0
00000260: d2f1 31b1 4b75 85b1 97f1 b1b1 d06d deb1
00000270: d2b9 8431 dbb9 8431 b5b9 0432 2916 4732
00000280: 46b9 8432 f8e6 a532 c20e 9731 bc0e 9731
00000290: ac0e 1732 bf95 6232 680e 9732 87d1 bc32
000002a0: f7a1 78b1 fea1 78b1 fba1 f8b1 d279 3ab2
000002b0: 41a2 78b2 5d65 9bb2 579f ddaf 2f9f ddaf
000002c0: a49e 5db0 2f36 a6b0 049c ddb0 6b80 0ab1
000002d0: 3612 2a31 1a12 2a31 0312 aa31 981a ff31
000002e0: 7d11 2a32 5d95 5432 28df e930 12df e930
000002f0: c6de 6931 dd66 af31 c4dd e931 4c2a 1232
00000300: 4bfb 9231 2efb 9231 0dfb 1232 6278 5c32
00000310: 92fa 9232 edb8 b732 758b 082f fe8a 082f
00000320: 078a 882f dccc cc2f 6e86 0830 44a4 2a30
00000330: 1d59 052f d358 052f e757 852f 3d01 c82f
00000340: 0354 0530 79a5 2630 a1d3 99ac e4d3 99ac
00000350: bbd4 19ad e5bf 66ad 55d5 99ad b44c c0ad
00000360: 34af 9eb0 30af 9eb0 0caf 1eb1 5806 6eb1
00000370: 92ae 9eb1 ba59 c6b1 2af3 8930 1ff3 8930
00000380: f0f2 0931 fceb 4e31 2bf2 8931 206e ac31
00000390: ad37 0cb1 a937 0cb1 9c37 8cb1 6f53 d2b1
000003a0: 7437 0cb2 7945 2fb2 f5e5 3d31 f1e5 3d31
000003b0: bee5 bd31 376c 0e32 4ce5 3d32 f35d 6d32
000003c0: 08cf 8a2e c0ce 8a2e 81cd 0a2f b630 502f
000003d0: 82c8 8a2f 6475 ad2f 5718 5731 3418 5731
000003e0: 2718 d731 0752 2132 8f17 5732 c06e 8632
000003f0: 12aa 3e30 06aa 3e30 cea9 be30 23ff 0e31

exp_avg_sq f4 [100, 6]
3.3517013e-12 3.3517004e-12 1.34067904e-11 3.0165252e-11 5.3627037e-11 8.379217e-11 3.710843e-12 3.7108424e-12
1.4843357e-11 3.3397514e-11 5.937325e-11 9.277051e-11 9.883473e-13 9.883471e-13 3.9533854e-12 8.895103e-12
1.5813486e-11 2.4708501e-11 1.5231479e-13 1.5231451e-13 6.092558e-13 1.3708177e-12 2.4369842e-12 3.8077445e-12
1.9168616e-13 1.9168612e-13 7.667441e-13 1.7251718e-12 3.066966e-12 4.7921255e-12 3.6604567e-15 3.6604486e-15
1.4641691e-14 3.294338e-14 5.856498e-14 9.150594e-14 7.211324e-14 7.211324e-14 2.8845286e-13 6.4901665e-13
1.1538098e-12 1.8028231e-12 1.7258013e-12 1.7257993e-12 6.9031807e-12 1.55321e-11 2.761244e-11 4.314411e-11
1.1627056e-12 1.1627064e-12 4.6508366e-12 1.0464421e-11 1.8603515e-11 2.9068156e-11 3.6431502e-13 3.6431494e-13
1.4572584e-12 3.278827e-12 5.829013e-12 9.107808e-12 2.8294175e-12 2.829417e-12 1.1317666e-11 2.5464693e-11
4.5270593e-11 7.073517e-11 1.2205406e-14 1.2205398e-14 4.8821502e-14 1.09848105e-13 1.9528429e-13 3.0512986e-13
1.905519e-13 1.9055181e-13 7.622057e-13 1.7149555e-12 3.048804e-12 4.763735e-12 5.927749e-16 5.9277377e-16
2.3710729e-15 5.334852e-15 9.483989e-15 1.4818379e-14 2.676908e-12 2.6769075e-12 1.07076275e-11 2.409213e-11
4.283043e-11 6.692242e-11 1.2273582e-14 1.2273561e-14 4.9093853e-14 1.1045996e-13 1.9637005e-13 3.0682163e-13
3.855191e-15 3.8551832e-15 1.5420635e-14 3.4696045e-14 6.168068e-14 9.637427e-14 7.816781e-16 7.8167784e-16
3.1267076e-15 7.035072e-15 1.2506759e-14 1.9541734e-14 1.2327996e-15 1.2327988e-15 4.931193e-15 1.1095164e-14
1.972468e-14 3.081973e-14 1.7145612e-13 1.7145606e-13 6.858231e-13 1.5430982e-12 2.7432776e-12 4.2863543e-12
5.2682603e-13 5.268258e-13 2.1072972e-12 4.7413865e-12 8.429071e-12 1.3170298e-11 2.0726585e-15 2.0726547e-15
8.290577e-15 1.8653719e-14 3.3161753e-14 5.181465e-14 3.620686e-15 3.620675e-15 1.4482603e-14 3.2585527e-14
5.7928956e-14 9.051232e-14 4.221926e-15 4.221926e-15 1.6887686e-14 3.7997207e-14 6.755049e-14 1.05547366e-13
1.6392457e-12 1.6392457e-12 6.556983e-12 1.475322e-11 2.6227933e-11 4.0981146e-11 2.5573978e-14 2.5573963e-14
1.0229558e-13 2.301638e-13 4.0917747e-13 6.393333e-13 6.99292e-13 6.992914e-13 2.7971592e-12 6.29358e-12
1.1188536e-11 1.748199e-11 1.5334421e-12 1.5334419e-12 6.1337628e-12 1.380095e-11 2.4534982e-11 3.8335855e-11
1.0200417e-12 1.0200417e-12 4.0801668e-12 9.180371e-12 1.6320669e-11 2.5501044e-11 6.9838786e-15 6.9838527e-15
2.7935152e-14 6.285304e-14 1.11736304e-13 1.7458296e-13 2.7325207e-13 2.73252e-13 1.0930061e-12 2.4592578e-12
4.3719937e-12 6.8311992e-12 6.511004e-14 6.510996e-14 2.6043864e-13 5.859819e-13 1.0417359e-12 1.6276944e-12
1.3760834e-12 1.3760834e-12 5.5043283e-12 1.2384736e-11 2.2017221e-11 3.440184e-11 1.7429161e-15 1.7429054e-15
6.971494e-15 1.5685343e-14 2.7883913e-14 4.3566076e-14 1.3110789e-15 1.3110684e-15 5.2441627e-15 1.17989276e-14
2.0974811e-14 3.2771007e-14 1.2223641e-17 1.2223591e-17 4.8893935e-17 1.1000924e-16 1.9556731e-16 3.055644e-16
1.414733e-14 1.4147303e-14 5.6588787e-14 1.2732335e-13 2.2634905e-13 3.5366336e-13 9.956306e-15 9.956279e-15
3.9824755e-14 8.960418e-14 1.5929293e-13 2.4888812e-13 8.088456e-14 8.088448e-14 3.2353742e-13 7.2795725e-13
1.2941411e-12 2.022083e-12 3.8096628e-13 3.809662e-13 1.5238624e-12 3.4286803e-12 6.095406e-12 9.524019e-12
1.6752918e-15 1.6752845e-15 6.701046e-15 1.5077044e-14 2.680269e-14 4.187752e-14 5.975972e-13 5.9759706e-13
2.390386e-12 5.378367e-12 9.561504e-12 1.4939812e-11 3.925453e-15 3.925444e-15 1.5701648e-14 3.532826e-14
00000000: e2da 6b2c deda 6b2c d1da 6b2d 0eab 042e
00000010: adda 6b2e cc42 b82e 4d90 822c 4c90 822c
00000020: 4590 822d 42e2 122e 2b90 822e 2701 cc2e
00000030: f718 8b2b f518 8b2b ee18 8b2c fc7b 1c2d
00000040: ce18 8b2d 9956 d92d c07d 2b2a ab7d 2b2a
00000050: 827d 2b2b eaec c02b ce7c 2b2c 1df9 852c
00000060: c6d1 572a c3d1 572a bcd1 572b ddcb f22b
00000070: 8cd1 572c a19b a82c c1e1 8327 aee1 8327
00000080: 71e1 8328 225d 1429 6ae0 8329 950d ce29
00000090: 7462 a229 7462 a229 7062 a22a 94ae 362b
000000a0: 6162 a22b 8cb9 fd2b 8be2 f22b 79e2 f22b
000000b0: 53e2 f22c 2e9f 882d b0e1 f22d f3bf 3d2e
000000c0: e2a2 a32b eaa2 a32b 03a3 a32c 9017 382d
000000d0: 64a3 a32d abaf ff2d 5417 cd2a 5117 cd2a
000000e0: 4417 cd2b 19ba 662c 1517 cd2c ec39 202d
000000f0: 411a 472c 3f1a 472c 3d1a 472d 64fd df2d
00000100: 281a 472e 5c8c 9b2e 80df 5b28 77df 5b28
00000110: 5cdf 5b29 1f5b f729 ddde 5b2a d9c5 ab2a
00000120: d98a 562a d28a 562a b58a 562b c95b f12b
00000130: 5f8a 562c e99b a72c 11db 2a26 fcda 2a26
00000140: 93da 2a27 5335 c027 2ed9 2a28 db78 8528
00000150: e35e 3c2c e15e 3c2c de5e 3c2d a7ea d32d
00000160: c75e 3c2e f929 932e e819 5d28 cf19 5d28
00000170: 5c19 5d29 d5bb f829 d017 5d2a a8b9 ac2a
00000180: dce5 8a27 cae5 8a27 90e5 8a28 d141 1c29
00000190: 7ee4 8a29 fc03 d929 aa4d 6126 a54d 6126
000001a0: 934d 6127 1677 fd27 3f4d 6128 2c04 b028
000001b0: 47aa b126 3faa b126 3aaa b127 6adf 4728
000001c0: 04aa b128 bbcc 0a29 dd0a 412a d80a 412a
000001d0: c30a 412b f92b d92b 7f0a 412c 0cd0 962c
000001e0: d149 142b cd49 142b b149 142c 9dd2 a62c
000001f0: 2949 142d c0b1 672d cd59 1527 bb59 1527
00000200: 8a59 1528 8c04 a828 e658 1529 395a 6929
00000210: ef72 8227 d572 8227 9c72 8228 8ec0 1229
00000220: c571 8229 cdd0 cb29 651c 9827 651c 9827
00000230: 5a1c 9828 cc1f 2b29 351c 9829 eaab ed29
00000240: 0db4 e62b 0db4 e62b 0db4 e62c 4cc5 812d
00000250: 0eb4 e62d ab3c 342e 9459 e628 8b59 e628
00000260: 6359 e629 1992 812a b058 e62a d2f4 332b
00000270: 4dd5 442b 41d5 442b 24d5 442c 876f dd2c
00000280: b0d4 442d f1c5 992d 13d0 d72b 11d0 d72b
00000290: 06d0 d72c f4c9 722d decf d72d 569a 282e
000002a0: e08e 8f2b e08e 8f2b e08e 8f2c b780 212d
000002b0: e18e 8f2d 3f4f e02d e99e fb27 ac9e fb27
000002c0: 139e fb28 5088 8d29 989b fb29 1d90 442a
000002d0: c6d3 992a c3d3 992a b2d3 992b 0d0e 2d2c
000002e0: 6bd3 992c f959 f02c 629d 9229 569d 9229
000002f0: 2a9d 922a 72f0 242b 7e9c 922b df13 e52b
00000300: a1aa c12b a1aa c12b 95aa c12c e4df 592d
00000310: 60aa c12d 074d 172e 412e fb26 dc2d fb26
00000320: af2c fb27 f047 8d28 ed27 fb28 4434 4429
00000330: 46f2 bc26 e3f1 bc26 ddf0 bc27 f38c 5428
00000340: 9fec bc28 6696 1329 837c 6123 477c 6123
00000350: c57b 6124 fea9 fd24 4879 6125 5925 b025
00000360: 0bdb 7e28 ebda 7e28 6eda 7e29 755a 0f2a
00000370: acd8 7e2a 4318 c72a 5b5b 3328 3c5b 3328
00000380: d15a 3329 4bc5 c929 1059 332a 8f1c 8c2a
00000390: c622 b629 ba22 b629 a822 b62a d9e6 4c2b
000003a0: 5922 b62b 9c4a 0e2c 0777 d62a 0477 d62a
000003b0: ee76 d62b 9d45 712c 8976 d62c 5e8c 272d
000003c0: 5c6f f126 176f f126 3e6e f127 4ccd 8728
000003d0: cc6a f128 7e99 3c29 6b35 282b 6835 282b
000003e0: 5e35 282c 063c bd2c 3035 282d 7769 832d
000003f0: ea6d 8d27 d56d 8d27 896d 8d28 b61a 1f29

exp_avg f4 [100]
-1.5143702e-05 -1.5866613e-05 5.907623e-06 2.2489644e-06 -4.660918e-06 3.493645e-07 -2.9985745e-06 6.7114042e-06
-7.814011e-06 -6.3350208e-06 -1.408677e-05 -1.226655e-06 -4.513989e-06 3.0490622e-07 -1.3703415e-05 3.0471364e-07
3.115349e-07 3.1511692e-07 3.9069928e-07 -4.381276e-06 4.175809e-06 4.3747656e-07 2.4848305e-07 -7.719473e-07
-9.554338e-06 -1.5599284e-06 4.6757973e-06 7.770007e-06 -7.837261e-06 1.7281113e-07 3.200086e-06 1.5937352e-06
6.595726e-06 -2.4567876e-07 -2.9638827e-07 1.8452003e-08 -9.2033144e-07 4.6876465e-07 -2.9442572e-06 3.6858403e-06
-1.9148163e-07 4.8627694e-06 3.6250879e-07 5.352149e-07 -8.208272e-06 5.8947503e-06 8.733776e-06 -1.3311329e-05
-4.159701e-06 -1.624108e-05 -1.1641253e-06 -6.8163466e-09 -8.999041e-07 -1.1940292e-06 -2.218806e-06 1.9624926e-07
-2.5965103e-06 8.040107e-06 1.5169971e-07 -1.1175602e-05 3.5289665e-07 -1.445911e-05 2.2122285e-06 2.5808322e-06
-1.7010605e-05 -6.8623567e-06 -1.566889e-10 4.5008633e-06 8.700807e-06 -1.2083936e-07 3.7469673e-07 -7.2409603e-06
2.0913339e-07 5.2576884e-06 -1.5791173e-05 2.3085438e-06 -1.4954915e-05 6.2606246e-06 8.864898e-06 4.321074e-06
-6.9073815e-07 -2.8765896e-06 -7.714507e-06 -1.404346e-06 4.067098e-06 -7.0417386e-06 6.9089656e-06 -7.002381e-07
-6.61047e-07 2.8690414e-07 9.244547e-06 -7.639253e-06 -4.530831e-07 2.5310723e-07 -1.6344331e-05 2.699599e-07
2.8551952e-07 3.340794e-07 -1.0980982e-05 1.5882028e-06
00000000: b411 7eb7 4b19 85b7 183a c636 eaec 1636
00000010: fb64 9cb6 4b90 bb34 1e3b 49b6 8632 e136
00000020: ec18 03b7 6a91 d4b6 3756 6cb7 8ba3 a4b5
00000030: df76 97b6 feb1 a334 b8e7 65b7 8697 a334
00000040: 0841 a734 572d a934 4dc1 d134 e002 93b6
00000050: ed1d 8c36 52de ea34 4067 8534 d137 4fb5
00000060: 924b 20b7 bb5e d1b5 cbe4 9c36 ed5b 0237
00000070: c87c 03b7 f68d 3934 0fc1 5636 53e8 d535
00000080: db50 dd36 d5e5 83b4 4b1f 9fb4 6280 9e32
00000090: b20c 77b5 86aa fb34 f495 45b6 415a 7736
000000a0: 129a 4db4 df2a a336 d49e c234 b0ab 0f35
000000b0: 43b6 09b7 85cb c536 4887 1237 b953 5fb7
000000c0: 8f93 8bb6 743d 88b7 0a3f 9cb5 3835 eab1
000000d0: f090 71b5 8842 a0b5 cce6 14b6 96b8 5234
000000e0: b53f 2eb6 ffe3 0637 e6e2 2234 d87e 3bb7
000000f0: bf75 bd34 6895 72b7 cc75 1436 5c32 2d36
00000100: ffb1 8eb7 3243 e6b6 0148 2caf 1f06 9736
00000110: aef9 1137 12c0 01b4 ed29 c934 60f7 f2b6
00000120: 268e 6034 336b b036 4977 84b7 7bec 1a36
00000130: dfe6 7ab7 5b12 d236 72ba 1437 befd 9036
00000140: 2a6b 39b5 6f0b 41b6 8e6d 01b7 f67c bcb5
00000150: 1b78 8836 1348 ecb6 90d3 e736 fff7 3bb5
00000160: ce72 31b5 ce07 9a34 0719 1b37 582a 00b7
00000170: 443f f3b4 cbe2 8734 2f1b 89b7 02ef 9034
00000180: 8149 9934 865b b334 f53a 38b7 3c2a d535
