TSTE-R/SYNC/ProposedSin/save_model_0226.ckpt-200000.pt (torch, 266668 bytes, 24 tensors)

linears.0.weight f4 [100, 6]
000000 65 95 b0 40 5d 48 a9 40 32 cb af 40 77 36 af 40
       5.5182366 5.2900834 5.493554 5.4753985
000010 e5 d2 ad 40 3b fe b7 40 3b f0 9b 40 fa 62 96 40
       5.431994 5.749784 4.873075 4.699582
000020 fe 5e 90 40 77 bc 8f 40 c9 e3 94 40 d7 d8 97 40
       4.5115957 4.491756 4.652806 4.7452197
000030 44 20 c9 c0 76 6e cb c0 cd c3 c5 c0 fc 6e c8 c0
       -6.2851887 -6.357234 -6.1801515 -6.263548
000040 b6 1a c7 c0 fa e4 cf c0 86 36 5f c0 05 6a 6d c0
       -6.2220106 -6.4967012 -3.4877028 -3.709596
000050 15 ed 57 c0 e4 7f 53 c0 be 4f 63 c0 b0 84 65 c0
       -3.3738453 -3.3046808 -3.551742 -3.5862236
000060 56 5c 57 40 ae 5c 58 40 58 15 6f 40 c5 41 66 40
       3.3650107 3.3806567 3.7356777 3.5977643
000070 e7 2e 5d 40 ab 12 68 40 dd 89 08 c0 eb 93 fa bf
       3.4559877 3.6261394 -2.1334145 -1.9576391
000080 8b 17 ee bf 45 93 f4 bf a7 7c ed bf cb c3 e7 bf
       -1.8600935 -1.9107443 -1.8553666 -1.8106626
000090 a7 0d 04 40 b2 a3 0f 40 b0 0f 06 40 a6 c5 1d 40
       2.0633333 2.2443662 2.0947075 2.4651885
0000a0 d6 34 1a 40 91 15 08 40 1d 4c cd c0 df 78 cd c0
       2.4094748 2.1263163 -6.415541 -6.421005
0000b0 1a f6 ca c0 1e 8c c5 c0 31 15 d3 c0 c9 11 d1 c0
       -6.3425417 -6.173354 -6.596337 -6.533421
0000c0 90 32 d7 40 22 e7 d8 40 7f 2d cf 40 03 56 d1 40
       6.724922 6.7782145 6.4743037 6.5417495
0000d0 de 44 da 40 ba f6 d7 40 75 f5 2e 40 d2 a3 2b 40
       6.8209066 6.748868 2.7337315 2.6818738
0000e0 39 b3 32 40 93 74 42 40 c3 75 43 40 34 03 2d 40
       2.792189 3.0383651 3.0540626 2.7033205
0000f0 07 1c f3 40 36 5c f4 40 7b 0e f3 40 56 d8 ed 40
       7.5971713 7.636256 7.5955176 7.432658
000100 ee 0a f4 40 92 7a f7 40 8f 11 d2 3f cf ab b8 3f
       7.626334 7.733712 1.6411608 1.4427432
000110 35 ba e0 3f c9 2a dc 3f 22 5c c3 3f 2e d1 b8 3f
       1.7556826 1.7200557 1.5262492 1.4438837
000120 32 86 78 40 b6 0c 6d 40 0e 60 6f 40 cf 2d 71 40
       3.8831906 3.7039008 3.7402377 3.768421
000130 ef f0 75 40 68 7d 82 40 2f f9 a9 be 92 36 2a bf
       3.8428304 4.0778084 -0.33197924 -0.6648952
000140 48 cd d8 be bd df d0 be 80 69 e4 be 5a 4e 80 be
       -0.42344117 -0.407957 -0.4461174 -0.25059777
000150 73 b4 ec 40 1f 01 f9 40 22 61 ec 40 f4 6d ea 40
       7.3970275 7.781387 7.386857 7.325922
000160 7a b3 f5 40 3f 44 f4 40 52 e7 1e c0 ec b1 27 c0
       7.6781588 7.633331 -2.4828687 -2.6202345
000170 c1 9b 1f c0 b7 62 28 c0 92 48 17 c0 1a 55 1c c0
       -2.4938815 -2.631025 -2.3638043 -2.4426942
000180 e9 45 e1 bf 0c 01 e4 bf a7 14 d6 bf 89 f7 f1 bf
       -1.759946 -1.781282 -1.6725053 -1.8903667
000190 d4 b6 dd bf ed e7 f1 bf 28 52 4a bf df 71 19 bf
       -1.732142 -1.8898903 -0.7903161 -0.5993938
0001a0 68 54 cd be 96 41 29 bf c3 31 e6 be a1 55 12 bf
       -0.4010346 -0.661157 -0.4495984 -0.5716191
0001b0 20 e7 0a bf 5c b2 32 bf ed 1a ef be 97 c1 ea be
       -0.5425892 -0.69803405 -0.4670023 -0.45850822
0001c0 cd 04 f0 be 7e 12 00 bf 05 be 60 40 65 fb 6f 40
       -0.46878663 -0.50028217 3.5115979 3.749719
0001d0 ee c3 56 40 9e e1 64 40 ba 05 58 40 6d 42 64 40
       3.3557086 3.5762706 3.3753495 3.5665543
0001e0 01 5f 87 c0 32 dc 89 c0 6f d8 89 c0 de 13 8a c0
       -4.230347 -4.3081293 -4.30767 -4.314925
0001f0 d4 de 8f c0 ca ed 91 c0 1f df 02 c0 15 79 01 c0
       -4.4959507 -4.560277 -2.0448682 -2.0230153
000200 d8 63 ef bf fe fb 04 c0 79 10 eb bf d7 be e3 bf
       -1.8702345 -2.0778804 -1.8364402 -1.7792615
000210 a2 62 dd bf 74 c8 04 c0 ca 3f e4 bf 0d 0c db bf
       -1.7295725 -2.0747347 -1.7831967 -1.7113053
000220 48 06 f7 bf ea e3 e7 bf 44 7a 8f 3f 40 df 69 3f
       -1.9298792 -1.8116429 1.1209188 0.9135628
000230 f4 fa 72 3f 66 4a 5e 3f e5 2f 88 3f a2 54 6f 3f
       0.94914174 0.86832273 1.0639616 0.93488514
000240 a6 4f f6 40 0a 96 f3 40 cf fd f6 40 2b a2 fc 40
       7.6972227 7.6120653 7.7184825 7.894796
000250 c0 be ff 40 fe 73 00 41 83 06 f1 3f 3b 34 fc 3f
       7.992035 8.028318 1.8830112 1.970344
000260 ec 25 00 40 74 2e f2 3f eb 79 07 40 32 41 03 40
       2.0023146 1.8920426 2.1168163 2.0508542
000270 8f 42 b0 c0 db d2 a6 c0 30 6e a4 c0 9e f1 a3 c0
       -5.508125 -5.213239 -5.1384506 -5.1232443
000280 55 92 b0 c0 33 0b ab c0 91 97 e4 c0 11 d5 e4 c0
       -5.517863 -5.345117 -7.1435018 -7.151009
000290 9e 0a dd c0 46 bb e2 c0 7c 70 e5 c0 b1 31 d8 c0
       -6.907546 -7.0853605 -7.169981 -6.756066
0002a0 21 20 c9 40 80 27 c5 40 f6 64 c0 40 8e 73 cb 40
       6.285172 6.161072 6.0123243 6.357856
0002b0 4f 98 ca 40 26 d8 c2 40 d5 e9 06 bf 68 1d f2 be
       6.3310924 6.0888853 -0.5270055 -0.4728806
0002c0 7c da 27 bf 70 ce 36 bf 43 11 38 bf 18 7d 10 bf
       -0.65567756 -0.7140875 -0.7190134 -0.5644088
0002d0 8d d3 86 c0 97 83 87 c0 11 c8 82 c0 ab 8b 8e c0
       -4.213324 -4.234813 -4.086922 -4.4545493
0002e0 47 10 8a c0 e4 0a 83 c0 4e c3 66 c0 c4 f0 75 c0
       -4.314487 -4.0950794 -3.6056705 -3.8428202
0002f0 59 b5 6b c0 f6 c3 6a c0 99 77 7b c0 da 53 68 c0
       -3.6829436 -3.6682105 -3.9291747 -3.630118
000300 b8 5e d9 c0 88 e7 d8 c0 88 b2 d4 c0 a4 8a d6 c0
       -6.7928123 -6.778263 -6.6467934 -6.704424
000310 1c 3c d0 c0 ab 1a d9 c0 11 e8 60 3f 5b c0 06 3f
       -6.5073376 -6.7845054 0.87854105 0.5263726
000320 aa f2 0c 3f 5b 5f fd 3e c5 1d 5e 3f 63 62 12 3f
       0.55057776 0.49486813 0.86764175 0.57181376
000330 27 24 b6 3e 79 11 f6 3e ae 5a 96 3e 12 b6 87 3e
       0.35574457 0.48060206 0.29366058 0.26506096
000340 75 f7 95 3e 92 4a 9c 3e 0a b1 6f bd 97 25 16 3e
       0.29290357 0.30525643 -0.058518447 0.14662777
000350 58 bc 7f be 25 e0 be bc 97 cb fa 3d 33 93 90 3d
       -0.24974191 -0.02330024 0.12245863 0.07059326
000360 bf 33 11 40 2b ea 25 40 1d 13 1d 40 f8 98 1b 40
       2.2687833 2.5924175 2.4542916 2.4312115
000370 cc 4f 1b 40 90 4e 09 40 df b0 29 c0 ef 9c 2d c0
       2.4267454 2.14542 -2.6514204 -2.7127035
000380 b1 3d 26 c0 c9 32 36 c0 c4 e6 35 c0 97 a7 24 c0
       -2.5975153 -2.8468497 -2.8422098 -2.5727289
000390 b8 c1 22 40 5d 21 2a 40 32 6f 25 40 93 43 2b 40
       2.5430737 2.6582863 2.5849118 2.6759994
0003a0 f5 8a 37 40 32 65 2e 40 b3 1f 73 c0 a4 c2 79 c0
       2.8678563 2.7249265 -3.7988098 -3.902505
0003b0 32 21 7b c0 33 8b 79 c0 75 d3 85 c0 7a 2e 87 c0
       -3.923901 -3.899121 -4.1820626 -4.2244234
0003c0 66 3d 82 3f 22 77 41 3f 6b 48 68 3f 66 92 4a 3f
       1.0174987 0.7557241 0.907355 0.79129636
0003d0 e1 fc 41 3f a3 e8 3d 3f d2 6b c8 c0 f7 eb c2 c0
       0.7577649 0.741831 -6.2631617 -6.0913043
0003e0 04 cd cd c0 33 52 c6 c0 81 5b d1 c0 03 86 c3 c0
       -6.4312763 -6.197534 -6.54242 -6.110109
0003f0 a4 c8 12 c0 cd 90 14 c0 96 ee 23 c0 93 d0 13 c0
       -2.2934961 -2.321338 -2.5614371 -2.3096054

linears.0.bias f4 [100]
000000 5a 7f 1b 3d 50 b5 6d bc 94 05 9e 3e 6e dd 50 3e
       0.03796325 -0.01450856 0.3086363 0.20396969
000010 34 c8 43 bd 18 1b 44 3e b2 2a 9c bd d5 5e c5 3e
       -0.04779835 0.1915096 -0.07625331 0.38548914
000020 68 f8 54 3f 2f 90 7f bd 0b a5 ca 3d 3d b9 e3 bd
       0.8319154 -0.062393364 0.09894761 -0.11119316
000030 e5 3f 7d bd 68 1b 91 3e 96 e9 d4 3d 48 eb af 3e
       -0.061828513 0.28341222 0.103961155 0.34359193
000040 c3 5e 3e 3e 43 ab 6b 3e 55 1c f4 3d b6 67 71 bd
       0.18590836 0.2301455 0.119194664 -0.058936797
000050 76 03 89 3e 78 f8 19 3e c0 f3 55 3e 9f 87 01 be
       0.26760453 0.1503619 0.20893764 -0.12649392
000060 4a 1e 22 3e 63 2a c9 bd 3e db 99 3e 39 d6 97 3e
       0.15831867 -0.09822538 0.3005008 0.29655626
000070 3f 21 f0 3d 72 ce a9 be af 63 6a 3e 73 a5 71 3e
       0.11725091 -0.33165318 0.22889589 0.2359827
000080 06 30 ad 3e 6f 27 72 be 9f 63 6f be 29 26 08 3e
       0.338257 -0.23647855 -0.23377846 0.13295807
000090 b1 a7 f5 bd a5 91 6d 3e 10 50 b6 bd e4 38 5f 3e
       -0.11994875 0.2320009 -0.089019895 0.21799046
0000a0 d6 82 5c be 9d a7 8c 3e d3 4e 32 3e db 55 11 3e
       -0.21534285 0.2747163 0.17412882 0.14192908
0000b0 d8 13 cd 3d 6a 3a a9 3e 13 f0 e5 3e e2 a5 d1 3d
       0.100135505 0.3305238 0.44909725 0.10236718
0000c0 e2 18 05 bd 2f 09 ff 3c 90 dc ed bd b8 61 50 be
       -0.032494433 0.031132309 -0.116143346 -0.20349777
0000d0 6c 6a d5 bd 58 37 f1 bd 45 0a cf bd 42 bc 87 be
       -0.10420689 -0.11778134 -0.10109381 -0.26510817
0000e0 ae 9a 9c bd 2c 93 d2 3e 29 d1 88 3e 58 96 ed bc
       -0.0764669 0.41127908 0.26722077 -0.029002354
0000f0 d2 11 3d 3e 74 5a 83 3d 4d f4 36 3e 1f 3b 57 3e
       0.18463829 0.06413737 0.17866631 0.21018647
000100 e5 56 74 3d 34 a9 4f 3e 88 6d 36 be 2e 32 6a 3e
       0.05965318 0.2027939 -0.1781522 0.22870705
000110 b1 a3 dc 3e 54 d9 65 be e0 a6 58 3e eb 3c 06 3e
       0.43093637 -0.22446185 0.21157408 0.13109176
000120 b0 42 7a 3e 22 77 b3 3e f8 0f 1e 3d 24 33 50 3e
       0.24439502 0.3505183 0.038589448 0.20332009
000130 9c 4b 6f 3d 04 28 9f 3e 40 aa be 3e 10 2c 99 3e
       0.058421716 0.31085217 0.37239265 0.2991643
000140 12 69 1a be 1c 78 66 bd b7 2d ab 3e 28 96 b5 bd
       -0.15079144 -0.05626689 0.33433315 -0.08866531
000150 9c 62 5e 3e e5 d2 fc 3e 2b 5e a5 3e 96 ed e7 bd
       0.21717304 0.4937965 0.32298407 -0.11324613
000160 65 e6 05 be df d5 40 3e 5e 78 ef 3e 60 38 93 3e
       -0.1307617 0.18831585 0.4677152 0.28753948
000170 b5 bd 0c be a2 4b 8a 3e c4 5e b8 3c d3 e5 69 3e
       -0.13744242 0.27010828 0.022506125 0.22841577
000180 f3 7d 3e 3e c0 85 6c 3e a3 7b db 3d 7e d1 57 3e
       0.18602733 0.23097897 0.10716941 0.21076009

linears.1.weight f4 [100, 100]
000000 87 1b 4a bc d0 82 2d 3d 1e e6 b2 3e db 49 c2 3e
       -0.012335665 0.04236108 0.3494119 0.37946972
000010 53 3e c5 3b 5c ee 05 3f 21 6b 80 be 45 85 dc 3e
       0.0060193925 0.5231683 -0.25081733 0.43070427
000020 d0 16 b8 3e b4 77 2d be b0 de ac 3b 95 2d fa be
       0.35954905 -0.16940194 0.00527557 -0.488629
000030 f7 f3 94 be 67 9d d7 3e 9f ca 94 bc 50 7e e9 3e
       -0.2909238 0.42112276 -0.018163024 0.4560418
000040 5c ea fc 3e 1c 78 ea 3e 50 4e c0 3e 27 d0 31 be
       0.49397552 0.4579476 0.37559748 -0.1736456
000050 36 b5 45 3e 8a 88 e6 3e 20 0b 03 3f e2 22 a7 be
       0.19307408 0.45026046 0.5118885 -0.326438
000060 95 f2 f5 3b 2a 58 cd be 53 a6 68 3e f2 57 7e 3e
       0.0075057247 -0.40106326 0.22719698 0.24838236
000070 6f 74 d1 bd b6 5d 09 bf 71 d9 a5 3e 6f 3a 68 3e
       -0.10227286 -0.53658617 0.32392457 0.2267854
000080 4e 68 e5 3e 07 48 ad be 3d ef ce be 7c b0 0c 3f
       0.4480614 -0.33844015 -0.404169 0.54956794
000090 90 8a cf be ec a5 9c 3e ad d6 83 bd bc cd 72 3e
       -0.40535402 0.30595338 -0.064374305 0.23711294
0000a0 55 81 da be 67 8f 2d 3e 44 ef 8f 3e 38 b4 f3 3e
       -0.42676798 0.16949235 0.28112233 0.47598433
0000b0 b6 08 0f be 75 73 ba 3e 21 54 18 3f ea 2a 00 be
       -0.13968167 0.36416212 0.5950337 -0.1251637
0000c0 31 a0 af 3c 6c 04 06 be d8 3a 3d be 98 1c 99 be
       0.02143869 -0.13087624 -0.18479478 -0.29904628
0000d0 65 53 cc be 47 71 b9 be 52 82 bd be 93 3b e1 be
       -0.39907375 -0.36219236 -0.3701349 -0.43990764
0000e0 6e 79 8a be e0 a4 dd 3e 3b 03 bd 3e 15 a6 8f bd
       -0.27045768 0.43289852 0.36916527 -0.070140995
0000f0 13 92 ae 3e 99 2e e7 3d c6 00 cd 3e 90 c8 8b 3e
       0.3409582 0.11288185 0.40039653 0.27301455
000100 82 78 78 be 46 00 67 39 72 fd de be a4 3a 03 3e
       -0.2426472 0.00022029979 -0.43552738 0.12815338
000110 b2 c7 b0 3e 4e 3a 0c bf 0f 61 b4 3e b1 ae 83 3d
       0.34527355 -0.54776466 0.352303 0.06429804
000120 7f 14 00 3f 41 33 c8 3e 42 e2 af bd 39 26 3b 3e
       0.50031275 0.39101604 -0.08588077 0.182763
000130 59 84 03 be 6a a6 fd 3d 76 27 75 3e 70 b8 6b 3e
       -0.12843455 0.123852566 0.23940834 0.23019576
000140 8b 1a d1 be 64 41 91 be cf 32 5d be 68 15 17 be
       -0.40840563 -0.28370202 -0.21601413 -0.1475426
000150 92 04 aa 3d 08 86 65 3c 40 f7 2d 3e 2c 01 eb be
       0.08301653 0.014009006 0.1698885 -0.45899332
000160 17 a0 92 be 0a 22 a0 3e 44 01 1c 3f 79 bc 6d be
       -0.28637764 0.3127597 0.6093943 -0.23216428
000170 50 62 eb be 2c d2 15 3f 5c 2a fe bd af 28 18 3f
       -0.45973444 0.5852382 -0.12410423 0.5943708
000180 fc 5f 97 3e 89 a1 d8 3e 2b 6f 1d be a7 da 09 3e
       0.29565418 0.42310742 -0.15374438 0.13462315
000190 33 b2 7b c0 55 9e 27 c0 2d 08 ae 3f e4 8a 1b 3f
       -3.9327514 -2.6190388 1.3596245 0.60758805
0001a0 11 38 7e bf 11 a5 61 3e 2e 96 2b bf 4f e0 d5 3f
       -0.993043 0.22035624 -0.6702603 1.6709079
0001b0 7e 54 94 bf 34 15 23 bf b3 10 67 c0 52 7a 1d bf
       -1.1588285 -0.6370423 -3.6103942 -0.6151477
0001c0 b4 11 5f bf 79 42 77 bc 74 a7 4f c0 b9 dc 0b 3f
       -0.8713639 -0.015091532 -3.2445955 0.5463367
0001d0 28 12 e3 3e ca a5 4e 3c 9f 23 0a 3d 9c 6a 4d bf
       0.4434979 0.012612769 0.033725377 -0.802408
0001e0 85 7c 58 3f 0d 32 e4 3e 88 0c 84 3e bf 25 ab be
       0.84565 0.44569436 0.2579081 -0.33427235
0001f0 e6 31 f4 bf 4c 5d 1b bf bb c1 81 3f 98 a1 db 3f
       -1.9077728 -0.60689235 1.0137247 1.715869
000200 f9 06 e6 bf 05 b5 b1 3d 8c f8 3a 3f 6e 81 03 3f
       -1.7970878 0.08677105 0.730355 0.5136937
000210 a8 87 ae 3f 6f 6c 65 bd 02 22 2a be aa 9e d3 3d
       1.3635149 -0.056011613 -0.16614535 0.10332997
000220 b6 ea 96 be 5e 83 2d 3f ee 8a 30 bf 37 5f 81 3f
       -0.29475945 0.67778575 -0.6896199 1.0107182
000230 90 7c 80 bd 70 8b 45 3f 57 a8 27 3f 6b 8c 55 3e
       -0.062737584 0.7716589 0.6549124 0.20854346
000240 20 6b fb bf b7 b9 c4 3f 4b 34 eb 3f c4 9f 4a c0
       -1.9642067 1.5369176 1.8375334 -3.1660013
000250 9e 6e 95 bf 3d d4 56 c0 71 ed 99 be 57 ca 13 3d
       -1.1674383 -3.356704 -0.30063966 0.03608164
000260 81 8b e8 be 3f 21 8c be 3a 3a 19 bf ef ea 92 bc
       -0.45418933 -0.27369115 -0.5985447 -0.01793429
000270 2f 11 23 bf 2d 9d fa 3f 70 19 8b 3e c8 4c f2 bf
       -0.63698095 1.9579216 0.27167845 -1.8929682
000280 b6 4f b5 3e 56 65 63 c0 73 bb 40 3f 5c e9 4c 3f
       0.35412377 -3.55306 0.75286025 0.8004358
000290 19 b2 8e c0 91 0b dc bf a3 01 ee bb f6 a9 63 3f
       -4.4592404 -1.719103 -0.0072633787 0.88931215
0002a0 f4 73 f5 3f 87 e6 09 bc d2 75 dd 3e 2c d2 ea bf
       1.9176011 -0.008416778 0.43253952 -1.8345389
0002b0 3d 11 c1 3e 07 da 9e 3f 94 c6 8a c0 d9 af 06 3f
       0.37708464 1.2410287 -4.3367405 0.5261207
0002c0 8d 31 5f c0 d1 0c c4 3f fd 58 04 40 f4 7b 67 3f
       -3.4873993 1.5316411 2.0679314 0.9042351
0002d0 9d 35 88 be b7 03 8a bf 78 74 e4 bf 83 36 6c be
       -0.26603404 -1.0782384 -1.7848043 -0.2306767
0002e0 d4 e4 90 3f 24 d5 db bf 45 b1 c2 3f 63 3f cd be
       1.1319833 -1.717442 1.5210348 -0.40087423
0002f0 82 7a 19 bf c6 2e 69 3d 1e a2 ff 3f 20 f4 e9 bf
       -0.5995256 0.056929372 1.9971349 -1.8277626
000300 cc 2f b2 be 51 4c 92 3d ef 95 54 c0 c3 bc 04 3e
       -0.3480209 0.071434624 -3.3216512 0.12962632
000310 49 70 79 3e 86 8c 11 3f 0e 0d 0b c0 ea 43 33 3f
       0.2435924 0.56855047 -2.1726718 0.70025504
000320 df f1 96 bf de ec b9 bf 8b cc 2f 3f b6 8f 0e 3f
       -1.1792563 -1.4525411 0.6867148 0.55688035
000330 63 01 19 bf a3 bf 80 3e a9 23 d6 be 30 49 88 3f
       -0.5976774 0.25146207 -0.41824082 1.0647335
000340 06 5f 8b bf 74 5e da be b6 7b 90 bf 25 d2 db be
       -1.0888374 -0.42650187 -1.1287754 -0.42933765
000350 87 b3 29 bf 59 28 d0 3d 60 29 87 bf 65 93 41 3e
       -0.6628956 0.10163946 -1.0559502 0.18903883
000360 6e b9 d4 3e df 2c 60 3e 0e 15 62 3e 76 08 10 bf
       0.41547722 0.21892117 0.22078344 -0.5626291
000370 37 23 f0 3e 57 6f 8c 3e 9d 71 b2 3e e7 75 f8 bd
       0.46901867 0.27428696 0.34852305 -0.12131863
000380 8e ca cc bf 58 ba e2 be 27 14 f4 3e 59 77 80 3f
       -1.5999315 -0.44282794 0.47671625 1.0036422
000390 ea c5 aa bf 32 84 d2 bd 14 47 bf 3e 7d a2 cc 3e
       -1.3341649 -0.102791205 0.37358916 0.3996772
0003a0 2c 8c 83 3f c9 2b 33 be 59 5c 5f be cf e2 55 3e
       1.0277152 -0.17497171 -0.21812572 0.20887302
0003b0 6b dd de be df a9 c6 3e d9 ca c6 be 5e c0 0c 3f
       -0.43528304 0.38801476 -0.38826635 0.5498103
0003c0 15 44 fe bc cb 26 c3 3e e3 8d 76 3e ad b5 b1 3e
       -0.031038323 0.38115534 0.24077563 0.3470892
0003d0 48 67 a8 bf 03 c5 41 3f b5 80 9c 3f f0 eb 7e bf
       -1.3156519 0.7569124 1.2226778 -0.9957876
0003e0 35 a0 1f bf e7 f8 b6 bf bf 58 88 be e9 a8 18 be
       -0.6235383 -1.4294709 -0.26630208 -0.14908184
0003f0 fc f0 56 be 48 99 d1 bd 3f 9f ce be 06 47 42 be
       -0.20990366 -0.10234314 -0.4035587 -0.18972406

linears.1.bias f4 [100]
000000 8b 66 db 3e e0 f0 38 3c 4c d9 46 3d d0 d8 24 3d
       0.42851672 0.011287898 0.048547074 0.04024583
000010 fb c8 0f be 6c a3 d7 3c 3b b1 94 3d 41 25 39 bc
       -0.14041512 0.026323043 0.072603665 -0.011300386
000020 db 97 d2 3c 2f 71 03 3e e3 fd 3d 3e 09 49 82 3e
       0.025707176 0.12836145 0.18553881 0.25446346
000030 7d 5a a0 be f1 b4 80 bc 24 3d 3a 3e 39 ee 80 3d
       -0.31319037 -0.01571128 0.18187386 0.06295437
000040 8e 80 01 3e f7 bd 11 bd ed 29 97 3d d5 fb 0b bd
       0.12646696 -0.035581555 0.073810436 -0.034175713
000050 b3 9c 47 bd be 2c 17 be 21 e2 8e 3d 25 ad 8f 3e
       -0.048733424 -0.14763162 0.069767244 0.28061786
000060 5c 5d b8 3d 32 0a f6 3d b7 8a 99 3d 5b 05 8b 3d
       0.09002182 0.12013663 0.07497161 0.06788131
000070 df 06 db 3b f2 67 e0 3d 8a 8d de 3e b2 c2 ca 3e
       0.0066841687 0.10957326 0.4346736 0.39601666
000080 ab d3 ef 3c 52 2e a9 3d 3b 25 af bb f2 3e bf 3d
       0.029275736 0.08260788 -0.0053450144 0.09338178
000090 de da db 3b 53 f4 19 be f7 59 3b be 6c 28 03 be
       0.0067094406 -0.15034609 -0.18296038 -0.12808388
0000a0 41 9e 8b 3d 5d f1 e2 3d de 6d 83 3d 99 4e ee 3c
       0.06817294 0.11081193 0.0641744 0.029090213
0000b0 b0 43 6c 3e 28 4d b2 be 72 b8 9e be 22 4e d4 3c
       0.23072696 -0.3482449 -0.31000096 0.025916163
0000c0 52 f2 a9 3d e2 f3 23 3d 88 b9 c2 3d 9a e5 ab bd
       0.08298172 0.040027507 0.095080435 -0.083934024
0000d0 ca 4f 88 3e 91 a7 42 be b4 58 c4 3d 1c 26 83 be
       0.26623374 -0.19009234 0.09587231 -0.25615013
0000e0 97 52 80 3d 8f c8 b1 3c 78 86 6e 3d 96 bb e8 3c
       0.06265753 0.02170208 0.05823371 0.02840976
0000f0 49 30 c5 3e 2f 68 b7 3e cf 6e 8b 3e 14 34 26 3d
       0.385134 0.35821673 0.27232978 0.04057701
000100 d1 92 fb bc 55 78 c4 3d d3 66 9c 3e be 18 f3 3c
       -0.030709656 0.09593264 0.305472 0.029674884
000110 6e 8a 44 3b f8 ee 35 be e9 b0 7c be 32 f7 aa 3b
       0.0029989737 -0.1776694 -0.24676861 0.0052174563
000120 5d 56 f6 3b 88 1a 1d 3d ef b5 af be f3 bf 8b 3d
       0.0075176195 0.03835538 -0.34318492 0.06823721
000130 f3 be de 3d 57 41 17 3d b7 5b 78 3d 2e 1c 20 bd
       0.108762644 0.036927547 0.06063434 -0.039089374
000140 40 3d 87 3c 58 45 ac 3d 53 64 30 3d b2 54 d8 be
       0.016508698 0.08411664 0.043064427 -0.42252117
000150 b6 d0 7e 3e 0d 38 49 3c 9f 35 ec 3d cf df 12 3c
       0.24884304 0.01228143 0.11533665 0.008964493
000160 6a 15 ca 3c 2e b6 76 3d 0e 65 b7 3d b6 7b e6 bd
       0.024668414 0.060232334 0.089548215 -0.11254065
000170 68 75 12 bc 6e 24 06 be 8e 3f 4d 3c 99 6d c9 3e
       -0.008939125 -0.13099834 0.01252736 0.3934143
000180 86 83 d9 3d 4b 27 96 3d b1 08 78 3e c8 36 cc 3d
       0.10620789 0.07331713 0.24222066 0.09971386

linears.2.weight f4 [100, 100]
000000 5c 15 36 3e 6b b5 eb 3f 00 71 39 3f 85 c4 81 3f
       0.17781585 1.8414739 0.7243805 1.0138098
000010 35 ed c2 3c 99 57 6d bf 43 e0 8d bf 89 99 2f 3f
       0.02379475 -0.9271179 -1.1084064 0.6859365
000020 bc 56 b9 3f 79 6e 49 3f 90 3e eb be cb ca 06 bf
       1.4479594 0.7868419 -0.4594617 -0.5265319
000030 32 2b 93 3d e5 49 b6 3e 8a 65 12 bf 20 a0 81 3e
       0.07185973 0.35603252 -0.57186186 0.25317478
000040 6d 5f 97 bf a2 9c 89 3f 5d de e1 be 26 c7 93 3f
       -1.1825997 1.0750926 -0.44114962 1.154515
000050 fd 6d 91 3f 92 0d 09 bd c4 d9 9f bf cc 07 4f 3f
       1.1361691 -0.033460207 -1.2488332 0.8087127
000060 73 44 5a bf cf 8f df 3e c9 b3 5b 3f 4b 0c 73 3f
       -0.85260695 0.43664405 0.85821205 0.9494063
000070 38 d1 9a be 07 90 77 3f 8b 5e e0 3e 1d 9e 09 3f
       -0.30237746 0.96704143 0.4382213 0.53756887
000080 38 15 83 bf 40 ac 15 3f 72 9d 78 3e cf b9 0e bf
       -1.024085 0.5846596 0.2427881 -0.5575227
000090 2d 34 7b 3e da be b2 3d 26 5c 08 3e d1 bf 2a 3e
       0.24531622 0.08727808 0.13316402 0.16674735
0000a0 9d ab 81 3f ce 55 6a 3f e5 38 39 3f 2b 68 2e bf
       1.0130497 0.9153718 0.7235244 -0.681277
0000b0 5d a5 6f bf 91 61 6a 3c dd fa b6 be 6f 70 e7 3e
       -0.936117 0.014305488 -0.35738268 0.45202968
0000c0 21 93 fb 3c 8f 60 6d bf cc 33 19 bf 4e 5f 8b 3e
       0.030709805 -0.9272546 -0.5984466 0.2722115
0000d0 4f bf 49 3d c2 e5 9d 3d b2 be 03 3f 8e 66 b8 bc
       0.04925471 0.077098384 0.5146285 -0.02250984
0000e0 a2 b9 7b 3e ea 05 8d bf f8 e7 38 bf 76 8d a9 3e
       0.24582532 -1.101743 -0.72228956 0.3311574
0000f0 25 29 c6 3d 9b 74 bc 3e c7 a3 1f 3f 55 46 f7 be
       0.096758164 0.36807713 0.6235928 -0.48295847
000100 3a ee 0d 3f 25 c2 7a 3f bb 41 0f 3e 20 dd 1b bf
       0.5544163 0.9795249 0.13989918 -0.60884285
000110 fc 2f d0 3e 2b 3f 5a 3e 47 87 03 be cd 98 9a bf
       0.4066161 0.21313159 -0.12844573 -1.2077881
000120 d8 e8 3f 3f 59 cb 10 3f 38 bd 40 be d9 f5 16 3f
       0.74964666 0.56560284 -0.18822181 0.58968884
000130 27 26 af 3e b8 1b 84 bf fb 96 9d bf 02 05 03 3f
       0.34208795 -1.0320959 -1.23117 0.51179516
000140 a8 4a 86 3e a2 16 e7 be 4f 14 52 3f a2 9e bf bd
       0.26228833 -0.45134455 0.8206224 -0.09356429
000150 ec 44 b2 be bf 38 1a 3f 0f 42 79 3f e4 45 2a bf
       -0.34818208 0.6024284 0.9736642 -0.66512895
000160 b3 de 90 bf a5 ae cf be 20 c8 3e 3f b6 a5 83 3e
       -1.1317962 -0.4056293 0.74524117 0.25712365
000170 25 e3 e6 3e 43 e9 9b 3b 1e 15 16 3f 9c 75 0a 3f
       0.45095173 0.0047580316 0.5862597 0.5408571
000180 89 21 20 bf 17 c2 3f bf 61 3b d5 3c 10 df ca 3e
       -0.6255117 -0.7490553 0.02602929 0.39623308
000190 42 51 f9 3d 7d 8e d0 3e 34 c1 ba 3e e0 a9 94 3e
       0.12173702 0.4073371 0.36475527 0.29035854
0001a0 ab 05 32 be 5a 7f b7 3d 5a 4e a2 3c 16 8b 93 3e
       -0.17384975 0.08959837 0.019812752 0.28817052
0001b0 dd 98 8d 3e d3 c3 b1 3e 07 52 17 bd 2d 79 34 be
       0.27655688 0.34719715 -0.03694346 -0.1762435
0001c0 22 38 6e be 12 db 89 3d 73 0b 6e 3e 2b 17 5d bd
       -0.232636 0.067312375 0.23246555 -0.053977173
0001d0 e5 d9 ae 3d cc 47 9f 3e f8 e1 2d bd 80 af 54 3e
       0.08537654 0.31109464 -0.04245183 0.20770073
0001e0 e6 b3 3b 3e 60 03 ca bd de cc c4 3d f5 49 4f bd
       0.18330345 -0.09863925 0.09609388 -0.05060764
0001f0 aa 21 86 3d b0 f8 3f 3d 7a 81 28 3d 70 26 d7 3e
       0.0654939 0.046868026 0.041139103 0.42021513
000200 b0 0c 40 be 4a 0b 14 3f 87 89 b6 3e 90 e7 b8 3d
       -0.1875484 0.57829726 0.356518 0.09028542
000210 4b 1c 72 be b4 a4 01 3e 02 ce 1c 3e f3 bf e9 3c
       -0.23643605 0.12660486 0.1531296 0.028533911
000220 7f e5 a8 3e 51 ae 8d be 52 be 89 be dc 5a 3c be
       0.32987592 -0.27672055 -0.26903015 -0.18394035
000230 d9 0b 5b 3c ba ba f9 3e 36 97 d5 3d 7b 72 8d 3d
       0.013369524 0.48775274 0.10429232 0.06906601
000240 60 6a f3 3d 29 f3 77 be 8b 84 a4 bb f7 97 ac 3d
       0.11885524 -0.24213852 -0.005020683 0.084274225
000250 4a a9 19 3e 73 77 eb 3c 03 63 7c bd 37 e3 e0 3e
       0.15005985 0.028743481 -0.061617862 0.4392335
000260 6f db e6 3e 44 e0 8e be 1e 6a 73 3e c0 cb e9 bd
       0.4508929 -0.27905476 0.23770949 -0.11415815
000270 a8 54 a3 3d 62 d6 1e 3b bf 0a 8e 3d 07 3d b7 3e
       0.07975131 0.0024236669 0.069356434 0.35788748
000280 3a b9 63 3e 2d a9 60 3e 23 55 b9 3e 1d 14 1d be
       0.22238627 0.21939535 0.36197767 -0.15339704
000290 9d ba 8d 3e 3e 0e 99 3e 17 5c 2f 3e 7c d3 be bd
       0.27681437 0.29893678 0.17124973 -0.09317681
0002a0 77 fa 8e 3e 5f 0c b0 be 4d b8 a7 be be 06 a5 3d
       0.27925465 -0.34384438 -0.32757798 0.080579266
0002b0 30 94 b3 3e b0 c6 78 3e 2c 07 8a be 57 b4 9e 3e
       0.35073996 0.24294543 -0.26958597 0.30996963
0002c0 62 81 8f 3d 67 c1 88 be 2b 00 4d 3e 7d c7 4a 3e
       0.070071 -0.26710054 0.20019595 0.19802661
0002d0 23 a7 e9 bd 66 d6 7e bd 9d fb 0c 3e 49 06 b3 be
       -0.11408832 -0.062216185 0.13767858 -0.34965733
0002e0 e4 80 14 3e b2 e2 86 3e 36 35 21 3e 0f 28 b1 3d
       0.14502293 0.2634483 0.15742955 0.08650219
0002f0 5e ac ec bd 69 27 53 bd 3f 9c 0d 3e cb 43 2d be
       -0.11556314 -0.051551256 0.13829134 -0.16920392
000300 1f 2b e1 3e fc f2 af bc f4 18 cf 3e 0b a3 01 3f
       0.4397821 -0.021478169 0.40448725 0.5063941
000310 c6 03 4a 3c cf 61 11 bd 93 e9 d0 3e 00 fe 3f 3e
       0.012330001 -0.03549367 0.40803203 0.18749237
000320 4a 16 ca bd 7c f8 18 3f a9 7d 9a 3e 8c 27 04 3f
       -0.098675326 0.5975416 0.30173996 0.51622844
000330 00 56 4d 3d 52 f7 78 bd 78 1c 7d bb 50 01 e5 bd
       0.050130844 -0.060782738 -0.0038621705 -0.11181891
000340 20 89 11 3f bb f5 04 3f fd bd b7 3d 62 da a3 bd
       0.5684986 0.51937455 0.08971784 -0.080006376
000350 be fe 6a bd 6a 3c 1e be 82 55 cc be bc d4 85 3e
       -0.057371847 -0.15452734 -0.39908987 0.26138866
000360 00 ce 37 bd 68 69 5c 3e bb 7d 36 3e 64 61 f1 3e
       -0.04487419 0.21524584 0.178214 0.47144616
000370 d8 61 5a 3e 04 3e 20 3d 66 84 1c be 71 32 61 bf
       0.21326387 0.039121643 -0.15284881 -0.8796759
000380 3f bf a7 bd 16 ff a3 3e f9 3c 44 3f 3d cb 35 3f
       -0.08190774 0.32030553 0.76655537 0.7101324
000390 08 15 22 bd 37 58 b0 3e 1d 37 c8 be 1f df 6a bf
       -0.03957084 0.34442303 -0.39104548 -0.91746706
0003a0 8e 32 01 be 10 fa a5 3e 29 50 23 be 91 7c 4d bd
       -0.12616941 0.32417345 -0.15948547 -0.050167624
0003b0 c9 50 8b 3e 10 83 c8 bb f7 03 11 ba ef 3f f5 3d
       0.27210072 -0.0061191395 -0.0005531902 0.11975085
0003c0 f6 39 c9 3e 11 d9 86 3e c8 5d 3c 3d 88 dd b7 3d
       0.39302033 0.26337484 0.045987874 0.089778006
0003d0 bb 5a f1 be be 2e e5 be 50 26 46 be 5a ed d9 3e
       -0.47139534 -0.44762224 -0.19350553 0.42563897
0003e0 5b 67 5d be 35 db a5 3d ef b9 1f 3e a0 b9 08 3d
       -0.21621458 0.08098451 0.15598272 0.03338015
0003f0 c8 20 d9 be f4 2d 8d bd 0c 99 87 3e 7a 9f 53 3d
       -0.42407823 -0.068935305 0.26483953 0.05166576

linears.2.bias f4 [100]
000000 88 ef 56 bd c0 de 6e 3d 58 be 1e be 5a 3f 16 3e
       -0.05247453 0.0583179 -0.15502298 0.14672604
000010 e9 c4 06 be cb ad bd bc 43 85 0e be 7e 82 4a be
       -0.13161053 -0.02315416 -0.13918023 -0.19776341
000020 8c a1 82 be 01 54 d1 bd e5 2f 65 3b c3 9b db be
       -0.25513875 -0.102211006 0.0034971174 -0.42892274
000030 c0 43 d9 bc f5 1f df bd 49 d8 48 be 8e 7b a7 bd
       -0.026521564 -0.10894767 -0.19613756 -0.08177863
000040 06 a9 27 3e b3 94 3a c0 71 92 13 be 8f e3 e1 bd
       0.16373071 -2.9153259 -0.14411332 -0.110297315
000050 f0 fb 02 bd cf 0f 25 be 7a d6 9d 3d 6c 86 81 3b
       -0.031978548 -0.16119312 0.07706924 0.003952792
000060 3b 81 e1 be a9 97 46 be 2b c5 20 be 94 be 4f 3e
       -0.44043908 -0.19393791 -0.15700214 0.20287544
000070 f5 7d 86 3d b6 f4 76 bd 14 6c 63 bd 79 eb b2 bd
       0.06566993 -0.06029197 -0.055522993 -0.08736319
000080 da a3 f8 bd df ba 38 be b6 46 b4 bd 88 7a 95 3c
       -0.12140627 -0.18040036 -0.088025495 0.018246904
000090 e3 94 c4 bd 27 e7 9a bd d2 41 05 3b 06 6d be bc
       -0.095987104 -0.0756362 0.0020333421 -0.023245346
0000a0 cf ea 0e 3d 4b e5 d4 bd 39 f9 bc 3d 39 7f 42 c0
       0.0348919 -0.10395297 0.09227223 -3.039015
0000b0 53 c3 61 bd 61 c3 db bd 79 4c 28 3e fe f8 60 3d
       -0.055117916 -0.10730625 0.16435422 0.054924957
0000c0 a8 4f 5e bf 57 44 15 be d6 89 f5 3d 9d 2c e6 bd
       -0.86840296 -0.14576851 0.11989181 -0.11238978
0000d0 2a c4 2f be 0d 91 16 bc 4d 93 c9 bd 11 58 ea bd
       -0.17164674 -0.009189856 -0.098425485 -0.114425786
0000e0 48 2e bf 3c 71 bc e7 bd 48 6f 23 bd fa 93 d6 bd
       0.023337498 -0.11315239 -0.039901048 -0.10477443
0000f0 ed b0 bc bc 47 bf 1c be ea 58 ee bd 22 cd 22 be
       -0.023033584 -0.15307342 -0.11638053 -0.15898564
000100 9f b7 10 3e 80 fa a3 3d 7b fd 45 3c fe 6b 12 3b
       0.14132546 0.080067635 0.01208436 0.00223422
000110 75 ce 19 3e d5 83 09 be e8 72 1b 3e 42 64 08 be
       0.15020163 -0.13429196 0.15180552 -0.13319495
000120 51 0c 7b bd 90 53 0d be c6 31 17 be 65 b8 19 be
       -0.061291043 -0.13801408 -0.14765081 -0.15011747
000130 90 fb 38 bd c6 45 a6 bd 58 b2 a4 be 2f ce a5 bd
       -0.045161784 -0.08118777 -0.32167315 -0.08095967
000140 85 65 bb bd 61 52 63 bd fc 01 5f bc f8 b6 b4 3c
       -0.09150223 -0.055498485 -0.013611313 0.022059903
000150 74 90 a5 bd d3 51 ef bd 70 46 af 3c d0 a8 04 bb
       -0.08084193 -0.116855286 0.021395892 -0.0020242222
000160 cf 0b f6 bc 5a 35 24 3d 82 2c 54 be d0 9b c6 bc
       -0.030034928 0.040089943 -0.20720103 -0.024244219
000170 f9 c1 a5 bd 08 04 6b be ee d9 09 3e 9e 4b d3 bd
       -0.08093638 -0.22950757 0.1346204 -0.10317157
000180 1e 39 79 bd a2 d8 dc bd 31 f4 21 be e1 8d e3 bd
       -0.060845487 -0.10783507 -0.15815808 -0.11111046

linears.3.weight f4 [3, 100]
000000 07 82 72 bd 08 1f a7 3e 70 50 e3 be f8 8a 97 3f
       -0.059206035 0.32640862 -0.44397306 1.1839285
000010 c9 57 8f be 4b a5 b1 3e 50 26 68 3d 27 41 14 bf
       -0.27996662 0.3469642 0.056677163 -0.57911915
000020 28 c4 93 bf 6c ca 10 3f bd de ca 3e 11 ad 92 3f
       -1.1544237 0.5655887 0.3962306 1.1459066
000030 75 fb c6 bc 52 f8 bd bd b8 dc 7b 3e f1 46 75 be
       -0.024289826 -0.09275879 0.24595916 -0.23952843
000040 f2 4b 7a 3f c1 42 17 be 5d 16 68 be 27 b0 dc be
       0.97772133 -0.14771558 -0.22664781 -0.43103144
000050 11 d3 c6 bd 36 31 cb bd 88 9b bc 3d b7 43 16 bf
       -0.097082265 -0.099214956 0.09209353 -0.58697075
000060 d7 95 83 bf b9 b3 3d 3e 77 e0 1b bd f4 cb 02 bd
       -1.0280102 0.1852559 -0.038055863 -0.031932786
000070 11 99 28 3e b9 e0 d8 3e e4 f3 43 3e d5 a1 5a 3d
       0.1646464 0.4235895 0.19136006 0.05337699
000080 da 6a 24 bd e4 52 8b be be eb 8b 3d 0a fa db bd
       -0.040140964 -0.27211678 0.06832074 -0.107410505
000090 49 69 84 3e bf 6a 04 be e5 c2 dc 3d ff c4 c0 bb
       0.25861576 -0.12931345 0.10779361 -0.0058828588
0000a0 72 79 bc be 5a ad c7 be 78 6f 24 3d 00 d6 f8 3d
       -0.36811405 -0.38999444 0.040145367 0.12150192
0000b0 b7 db 36 be 7a 40 b5 3c 7c 7e 81 3d fe 97 53 bd
       -0.17857252 0.022125471 0.06322953 -0.051658623
0000c0 2e 12 e7 3d e9 45 cc 3c 10 c4 71 3d 51 7c e0 bc
       0.112827644 0.02493568 0.05902487 -0.027403029
0000d0 b2 3c 95 be 91 ab 0f 3e ea 72 87 3e 43 2a c1 be
       -0.2914787 0.14030291 0.2645486 -0.37727556
0000e0 f3 43 2b bf 0c 64 49 be d6 75 5a 3e 1e ad d9 be
       -0.6690056 -0.19667071 0.21334013 -0.4251489
0000f0 ed 72 07 bf 54 42 23 bf 85 e5 ce bd 45 8a ce bd
       -0.5290974 -0.63773084 -0.10102371 -0.100849666
000100 7d e4 e6 3d b8 23 7b bf 77 08 3c 3e ac 51 c6 be
       0.112740494 -0.9810138 0.18362604 -0.38734186
000110 e3 d8 13 bc f7 f7 5b be d0 65 16 3e a7 d5 30 bf
       -0.009023878 -0.2148131 0.14687276 -0.6907601
000120 e9 f2 8a 3e aa ac 08 bd e4 9c 86 bc f1 02 bd bc
       0.2713845 -0.03336779 -0.016432233 -0.023072692
000130 2b 6e 7a be 7f 64 bf bd 56 b7 e9 be b8 4d af bd
       -0.24456088 -0.0934534 -0.45647687 -0.085597456
000140 3e ac ed 3c f0 cc 10 be 26 a3 5b 3e bc 5c a4 be
       0.029012796 -0.14140677 0.21448955 -0.32102
000150 5a a5 d8 3e 27 58 16 bd 06 7c d8 3e 24 7e 65 bd
       0.42313653 -0.036705162 0.42282122 -0.0560285
000160 a1 88 4f be 15 51 44 3e f7 c4 16 bf 74 ec 61 be
       -0.20266964 0.19171555 -0.58894295 -0.22062856
000170 d5 6f 6d be e2 40 81 be 97 2b 47 be f0 1e 81 be
       -0.23187192 -0.25244814 -0.19450222 -0.25218916
000180 0e 54 07 3f 77 88 75 3e db c1 80 bd c6 8b c1 be
       0.5286263 0.23977838 -0.06286975 -0.3780195
000190 44 6d 01 3b b5 af 08 bc fa 61 d5 bb e7 7b 33 ba
       0.0019748965 -0.008342673 -0.006511924 -0.0006846771
0001a0 44 7f 65 3c d8 f4 6d 3c a7 86 a0 3b f5 18 24 bd
       0.014007393 0.014523707 0.0048988643 -0.040062863
0001b0 e3 a0 82 bc 4c c5 3d 3c 4f 0e 2c be 89 87 97 3d
       -0.015945857 0.011582684 -0.16802333 0.07398898
0001c0 85 96 c4 3d d6 fa 1e bc e5 18 1f bc 7a f3 66 3c
       0.09599022 -0.009703359 -0.009710525 0.014096135
0001d0 48 1d 08 3f 86 95 55 39 0f 88 22 3c 1e c7 0a bd
       0.5316968 0.00020368965 0.009920134 -0.0338813
0001e0 1c 6a b5 bd 61 16 f0 3d 9b 2d 01 3c 6c 8b 8f bd
       -0.088581294 0.117230184 0.007884408 -0.070090145
0001f0 5a 6f 94 bd 2a 38 41 be 8e 92 4d 3b ca 1a e6 3b
       -0.07247801 -0.18869081 0.003136787 0.0070222365
000200 38 9a bd bd 63 6b 1d 3c 1a 54 de 3a 01 d9 fa ba
       -0.092579305 0.0096081225 0.001696232 -0.0019138159
000210 cf 44 4d bb 77 55 2c bc 98 a3 78 3c f7 08 09 bc
       -0.003132153 -0.010518423 0.015175723 -0.008363954
000220 1b a8 9b 3c 32 c8 ab bd 8b d8 ab 3c 61 a8 ac bd
       0.019001057 -0.083877936 0.02097728 -0.08430553
000230 89 9c a3 3e c3 05 00 bc dd e8 80 3c 55 c5 5a 3a
       0.31955364 -0.007813874 0.015736038 0.0008345445
000240 79 7f 3f 3e 02 7b 94 3b 94 c3 b2 bc 54 e0 df 3d
       0.1870097 0.0045312652 -0.021821775 0.10931459
000250 5b bd de bb 8c 20 fe 3b 34 55 72 bc 70 e3 27 bc
       -0.0067974753 0.0077553447 -0.014790822 -0.010247096
000260 fe 6f b0 ba d0 54 16 3e f4 fd 6a 3b 07 48 41 bc
       -0.0013461111 0.14680791 0.0035856934 -0.011796958
000270 3a 0c 64 3d b8 34 0f 3c f0 6b eb bb ec f3 1d bc
       0.055675723 0.0087405965 -0.007184498 -0.009640675
000280 2c e5 78 bd 2d c9 45 bd 40 78 7e bb 88 c2 3f 3b
       -0.06076543 -0.04828756 -0.0038828999 0.0029260237
000290 c2 95 44 3c c3 4e 06 3d 17 6b 94 3e e8 a3 ac be
       0.011998596 0.032789957 0.28987953 -0.337188
0002a0 73 c1 f0 3b d7 e7 5f bd ca 64 8f bc c8 3a 3a bd
       0.0073472797 -0.05466446 -0.017504115 -0.045466214
0002b0 78 65 ba 3d e3 aa ea ba 27 48 a7 3a 6c a7 e9 39
       0.09101385 -0.0017903711 0.0012762592 0.00044565962
0002c0 72 3c 9d bd 19 5a 9c 3d 0e 02 72 bf fd 5a 4b 3d
       -0.07677545 0.07634372 -0.94534385 0.04964732
0002d0 79 a4 4b 3b d0 5e db 3d 4d bc 6d 3d 74 ea 0a be
       0.0031073375 0.107114434 0.058040906 -0.13566
0002e0 fd c1 c0 bb 54 f2 0f 3c 3f b4 86 3d 21 34 06 bb
       -0.0058825 0.008785803 0.06577348 -0.0020477849
0002f0 13 e1 23 bd 5f b6 50 3d 9b 6a 0b bd 5c 33 02 be
       -0.04000957 0.050955173 -0.034037214 -0.12714905
000300 6b b6 72 3c 7d 1a 2a bd 56 83 9f 3c b0 aa 50 be
       0.014814 -0.041529167 0.019471806 -0.20377612
000310 16 da 93 3c 26 7b 0d 3d 44 f8 8e 3a 4a 76 9c bd
       0.018048327 0.03454127 0.0010907729 -0.07639749
000320 34 48 98 40 fc 05 cb 3e 51 47 76 be 1a ba 5d 3f
       4.758814 0.39653003 -0.24050643 0.86612093
000330 50 5d cd be 3f 63 bc bd 5e 70 1d bd 2c b9 17 bf
       -0.40110254 -0.09198617 -0.03843724 -0.59266925
000340 9a 49 03 3f e2 cb 1f 40 64 e3 55 41 d7 3e b2 c1
       0.5128418 2.496819 13.368015 -22.280684
000350 7d cf a1 be c8 25 b3 be 23 6f f0 3f f6 dc b4 be
       -0.31603613 -0.34989762 1.8783916 -0.3532483
000360 5e 79 f0 40 e7 ea cc c1 3f 8f 7f be ec e0 66 3d
       7.5148153 -25.614698 -0.24956988 0.056366846
000370 63 7c 34 bd 7e f5 e5 bf f4 bf 17 40 d3 01 39 3f
       -0.044063937 -1.7965543 2.371091 0.7226841
000380 be e9 a5 c1 b2 27 fd bf df 6a 58 be 61 6d e6 3f
       -20.739132 -1.9777739 -0.21134518 1.800213
000390 88 b8 92 40 a5 f3 96 bd a5 af 25 bd 54 f5 b7 bc
       4.585026 -0.0737069 -0.04045071 -0.022455849
0003a0 76 cb 96 be 76 88 9a 3c 21 10 8f be fd 78 e8 3f
       -0.29452103 0.018863898 -0.27941993 1.8161923
0003b0 de 25 88 bc ee e7 df be e6 53 3a 40 a7 ce 41 3e
       -0.016619619 -0.43731636 2.9113708 0.18926488
0003c0 2c bf db 40 0f c9 04 3e 71 f2 47 40 df 05 b5 41
       6.8670864 0.12967323 3.1241724 22.627867
0003d0 1b eb b8 be da 51 d8 bd 27 2d 15 3f 1a 29 a7 40
       -0.3611687 -0.10562487 0.5827202 5.2237673
0003e0 fe 21 83 41 5d 5f 7e bd 3e 1c c9 3f 19 e8 db bc
       16.391598 -0.062102664 1.5711744 -0.026844071
0003f0 3b 0c 0c bc 4d 75 fc be 20 78 13 be 7b 36 ab bd
       -0.008547838 -0.49308243 -0.14401293 -0.08360001

linears.3.bias f4 [3]
000000 ce 13 f6 3d a4 3a b5 3d da fb 7a 3e
       0.12015496 0.088490754 0.24510136

exp_avg f4 [100, 6]
000000 be 87 b3 33 b7 87 b3 33 ba 87 33 34 81 a5 86 34
       8.3600284e-08 8.3600234e-08 1.6720051e-07 2.5079865e-07
000010 68 87 b3 34 d7 68 e0 34 e0 6a b5 33 e0 6a b5 33
       3.343987e-07 4.1799532e-07 8.44791e-08 8.44791e-08
000020 bf 6a 35 34 30 10 88 34 7e 6a b5 34 1f c5 e2 34
       1.6895773e-07 2.5343752e-07 3.379136e-07 4.2239205e-07
000030 cb ef 6e b3 cb ef 6e b3 96 ef ee b3 6e 33 33 b4
       -5.5631784e-08 -5.5631784e-08 -1.1126319e-07 -1.6689384e-07
000040 cf ee 6e b4 ed 54 95 b4 21 6c 40 b3 1a 6c 40 b3
       -2.2252355e-07 -2.7815204e-07 -4.4801826e-08 -4.48018e-08
000050 f8 6b c0 b3 a5 50 10 b4 2f 6b 40 b4 5b 85 70 b4
       -8.960336e-08 -1.3440383e-07 -1.7920387e-07 -2.2400256e-07
000060 7e 98 27 33 6c 98 27 33 56 98 a7 33 87 64 fb 33
       3.902141e-08 3.9021344e-08 7.804253e-08 1.1706384e-07
000070 ce 97 27 34 7e 7d 51 34 e1 e3 11 b3 e7 e3 11 b3
       1.5608313e-07 1.9510296e-07 -3.3967698e-08 -3.396772e-08
000080 a2 e3 91 b3 25 d5 da b3 ff e2 11 b4 2a 5b 36 b4
       -6.793495e-08 -1.0190187e-07 -1.3586758e-07 -1.6983236e-07
000090 45 e5 e6 32 32 e5 e6 32 08 e5 66 33 76 2b ad 33
       2.6879784e-08 2.687975e-08 5.375935e-08 8.063846e-08
0000a0 2b e4 e6 33 2b 4e 10 34 16 60 94 b3 fe 5f 94 b3
       1.0751713e-07 1.3439482e-07 -6.909265e-08 -6.909248e-08
0000b0 e2 5f 14 b4 ad 8f 5e b4 74 5f 94 b4 f7 76 b9 b4
       -1.3818456e-07 -2.072763e-07 -2.76366e-07 -3.4545494e-07
0000c0 84 72 da 32 96 72 da 32 d0 72 5a 33 f4 d5 a3 33
       2.5430616e-08 2.5430648e-08 5.08615e-08 7.629197e-08
0000d0 8b 72 da 33 6e 87 08 34 5c c0 fe 32 44 c0 fe 32
       1.0172251e-07 1.2715256e-07 2.9656967e-08 2.9656924e-08
0000e0 13 c0 7e 33 e3 0f bf 33 43 bf fe 33 17 37 1f 34
       5.9313674e-08 8.8970204e-08 1.1862587e-07 1.482807e-07
0000f0 b5 18 8f 33 b0 18 8f 33 af 18 0f 34 2d a5 56 34
       6.6634506e-08 6.663447e-08 1.3326893e-07 1.9990394e-07
000100 80 18 8f 34 a3 de b2 34 5b 8a df 32 45 8a df 32
       2.6653652e-07 3.3317073e-07 2.6023534e-08 2.6023494e-08
000110 1b 8a 5f 33 51 a7 a7 33 0f 89 df 33 26 b5 0b 34
       5.204684e-08 7.806978e-08 1.04091775e-07 1.3011285e-07
000120 fd 07 15 33 f8 07 15 33 e6 07 95 33 8f 8b df 33
       3.469903e-08 3.4699013e-08 6.93979e-08 1.0409632e-07
000130 63 07 15 34 c8 48 3a 34 14 47 d8 b2 fb 46 d8 b2
       1.3879394e-07 1.7349078e-07 -2.5178032e-08 -2.5177988e-08
000140 cd 46 58 b3 a6 34 a2 b3 9b 45 d8 b3 fc 2a 07 b4
       -5.0355812e-08 -7.5532895e-08 -1.0070945e-07 -1.2588492e-07
000150 e9 f4 87 33 e3 f4 87 33 e4 f4 07 34 fb ee 4b 34
       6.330976e-08 6.330972e-08 1.2661945e-07 1.8992789e-07
000160 b0 f4 87 34 ae f1 a9 34 1c 1a 19 b3 12 1a 19 b3
       2.5323743e-07 3.1654548e-07 -3.5646835e-08 -3.56468e-08
000170 e6 19 99 b3 7e a6 e5 b3 48 19 19 b4 23 5f 3f b4
       -7.1293286e-08 -1.0693928e-07 -1.4258433e-07 -1.7822872e-07
000180 16 81 0f b3 11 81 0f b3 f6 80 8f b3 ec 40 d7 b3
       -3.3412185e-08 -3.3412167e-08 -6.682414e-08 -1.0023527e-07
000190 5c 80 0f b4 c2 5f 33 b4 43 43 fb b2 42 43 fb b2
       -1.336461e-07 -1.670551e-07 -2.9250833e-08 -2.9250831e-08
0001a0 d1 42 7b b3 9e 71 bc b3 76 41 fb b3 3d 08 1d b4
       -5.850126e-08 -8.775099e-08 -1.17000056e-07 -1.4624761e-07
0001b0 d7 80 b1 b2 d3 80 b1 b2 9c 80 31 b3 25 20 85 b3
       -2.0664102e-08 -2.0664094e-08 -4.1327993e-08 -6.199142e-08
0001c0 a6 7f b1 b3 d3 de dd b3 8d 8b 10 33 8d 8b 10 33
       -8.265424e-08 -1.0331646e-07 3.3654533e-08 3.3654533e-08
0001d0 77 8b 90 33 d8 d0 d8 33 f0 8a 10 34 4b ad 34 34
       6.730891e-08 1.0096272e-07 1.346159e-07 1.682685e-07
0001e0 8f 81 5b b3 7c 81 5b b3 54 81 db b3 b2 a0 24 b4
       -5.1107744e-08 -5.1107676e-08 -1.0221507e-07 -1.5332151e-07
0001f0 7f 80 5b b4 fc 2f 89 b4 31 27 ec b2 1d 27 ec b2
       -2.0442711e-07 -2.5553152e-07 -2.7491838e-08 -2.7491803e-08
000200 ef 26 6c b3 e5 1c b1 b3 01 26 ec b3 42 97 13 b4
       -5.4983442e-08 -8.247461e-08 -1.0996519e-07 -1.3745469e-07
000210 05 3b 10 b3 09 3b 10 b3 e1 3a 90 b3 de 57 d8 b3
       -3.358129e-08 -3.3581305e-08 -6.7162325e-08 -1.0074267e-07
000220 3d 3a 10 b4 3c 48 34 b4 ac fb b4 32 97 fb b4 32
       -1.3432232e-07 -1.6790085e-07 2.1069205e-08 2.1069168e-08
000230 5e fb 34 33 3f bc 87 33 79 fa b4 33 1e 38 e2 33
       4.2138133e-08 6.320669e-08 8.427464e-08 1.0534153e-07
000240 99 e3 86 33 9f e3 86 33 89 e3 06 34 e5 54 4a 34
       6.281261e-08 6.281265e-08 1.25625e-07 1.88436e-07
000250 37 e3 86 34 9b 9b a8 34 fe d0 fa 32 e6 d0 fa 32
       2.5124766e-07 3.1405656e-07 2.9198869e-08 2.9198826e-08
000260 a7 d0 7a 33 22 1c bc 33 7e cf fa 33 47 c1 1c 34
       5.839743e-08 8.7595495e-08 1.1679275e-07 1.4598946e-07
000270 20 2c 62 b3 09 2c 62 b3 e2 2b e2 b3 97 a0 29 b4
       -5.2659857e-08 -5.2659775e-08 -1.0531927e-07 -1.5797774e-07
000280 1d 2b 62 b4 9a 5a 8d b4 c3 72 80 b3 bf 72 80 b3
       -2.1063575e-07 -2.6329218e-07 -5.9813395e-08 -5.981337e-08
000290 b7 72 00 b4 fe ab 40 b4 5f 72 80 b4 0a 8f a0 b4
       -1.1962662e-07 -1.7943964e-07 -2.3925074e-07 -2.9906397e-07
0002a0 b3 a3 3c 33 ac a3 3c 33 a5 a3 bc 33 ad 7a 0d 34
       4.3921045e-08 4.392102e-08 8.784199e-08 1.3176277e-07
0002b0 62 a3 3c 34 ec cb 6b 34 27 ea 75 32 08 ea 75 32
       1.7568303e-07 2.1960267e-07 1.4314117e-08 1.43140895e-08
0002c0 b6 e9 f5 32 d7 6e 38 33 67 e8 75 33 b7 b0 99 33
       2.8628033e-08 4.2941647e-08 5.7254876e-08 7.156762e-08
0002d0 3c 3a 33 b3 32 3a 33 b3 14 3a b3 b3 62 6b 06 b4
       -4.172965e-08 -4.1729614e-08 -8.3459014e-08 -1.2518788e-07
0002e0 6e 39 33 b4 48 07 60 b4 a3 c9 10 b3 98 c9 10 b3
       -1.6691567e-07 -2.0864275e-07 -3.3711e-08 -3.371096e-08
0002f0 6b c9 90 b3 c3 2d d9 b3 f5 c8 10 b4 97 fa 34 b4
       -6.74216e-08 -1.0113174e-07 -1.3484153e-07 -1.685497e-07
000300 97 01 80 b3 93 01 80 b3 7d 01 00 b4 3e 02 40 b4
       -5.960754e-08 -5.960751e-08 -1.192147e-07 -1.7882209e-07
000310 1f 01 80 b4 47 01 a0 b4 51 59 9f 32 45 59 9f 32
       -2.3842674e-07 -2.9803252e-07 1.8550653e-08 1.8550631e-08
000320 03 59 1f 33 0c 05 6f 33 2b 58 9f 33 5b 2d c7 33
       3.7101028e-08 5.5651114e-08 7.420052e-08 9.27491e-08
000330 7b 39 7a 32 68 39 7a 32 00 39 fa 32 6e aa 3b 33
       1.4564985e-08 1.4564968e-08 2.9129751e-08 4.3694335e-08
000340 c0 37 7a 33 36 62 9c 33 e7 93 e4 b2 c4 93 e4 b2
       5.8258365e-08 7.2821805e-08 -2.6609952e-08 -2.660989e-08
000350 64 93 64 b3 37 6e ab b3 41 92 e4 b3 d8 da 0e b4
       -5.3219438e-08 -7.982856e-08 -1.0643681e-07 -1.3304395e-07
000360 48 4f 0c 33 37 4f 0c 33 04 4f 8c 33 0e 76 d2 33
       3.2668396e-08 3.2668336e-08 6.533631e-08 9.800361e-08
000370 59 4e 0c 34 49 61 2f 34 49 fc 20 b3 42 fc 20 b3
       1.3067019e-07 1.6333537e-07 -3.7482355e-08 -3.748233e-08
000380 1d fc a0 b3 c1 79 f1 b3 74 fb 20 b4 c5 39 49 b4
       -7.49644e-08 -1.1244584e-07 -1.499264e-07 -1.87406e-07
000390 7a 94 ed 32 58 94 ed 32 24 94 6d 33 d8 2e b2 33
       2.765795e-08 2.765789e-08 5.5315596e-08 8.297292e-08
0003a0 3e 93 ed 33 88 7b 14 34 d4 ce 5a b3 cb ce 5a b3
       1.1062956e-07 1.3828515e-07 -5.094519e-08 -5.0945157e-08
0003b0 aa ce da b3 b4 1a 24 b4 c5 cd 5a b4 3e c0 88 b4
       -1.0189008e-07 -1.5283405e-07 -2.037769e-07 -2.547185e-07
0003c0 a8 15 b8 32 87 15 b8 32 62 15 38 33 ad 0f 8a 33
       2.1430267e-08 2.1430209e-08 4.2860286e-08 6.428977e-08
0003d0 68 14 b8 33 ae 18 e6 33 1b 5a 3e b3 1a 5a 3e b3
       8.5718796e-08 1.0714699e-07 -4.4319773e-08 -4.431977e-08
0003e0 16 5a be b3 66 c3 0e b4 7c 59 3e b4 14 ef 6d b4
       -8.863951e-08 -1.3295866e-07 -1.7727683e-07 -2.2159321e-07
0003f0 6e 85 25 b3 70 85 25 b3 34 85 a5 b3 ad 47 f8 b3
       -3.853841e-08 -3.8538417e-08 -7.707641e-08 -1.1561438e-07
