TSTE-R/SYNC/ProposedSin/save_model_0226.ckpt-3650000.pt (torch, 266774 bytes, 24 tensors)

linears.0.weight f4 [100, 6]
8.084471 7.8562 8.065961 8.049824 8.007333 8.326224 7.523895 7.3503942
7.168252 7.1502657 7.311966 7.405003 -8.17404 -8.245989 -8.076704 -8.162571
-8.122613 -8.397811 -5.112554 -5.3344965 -5.014073 -4.9497633 -5.199881 -5.236093
6.9640865 6.9797506 7.370634 7.2443604 7.1089444 7.2824087 -4.852762 -4.6769733
-4.7406907 -4.85088 -4.8265533 -4.80082 7.399298 7.5803638 7.63201 8.073583
8.054198 7.793682 -7.975489 -7.9809427 -7.907136 -7.7395954 -8.163925 -8.101214
8.618965 8.672262 8.375582 8.445912 8.72616 8.655135 7.8384194 7.786571
8.064797 8.371154 8.4175005 8.085847 10.15745 10.196565 10.16256 10.001826
10.196881 10.30502 6.9573536 6.759015 7.3672204 7.4386845 7.300597 7.2522044
7.1906652 7.0114055 7.081449 7.120751 7.2011824 7.43977 -5.681612 -6.0144005
-6.5170603 -6.8003755 -6.9993057 -6.904769 9.8969 10.281396 9.893264 9.834582
10.188065 10.14384 -3.9279544 -4.0653477 -3.9786437 -4.129848 -3.8698347 -3.9531205
-4.2479825 -4.2692933 -4.2941637 -4.5613112 -4.428297 -4.601659 -5.971058 -5.780093
-6.275287 -6.8115845 -6.7489047 -6.963794 -6.051159 -6.2065673 -6.6276207 -6.8728876
-7.0178328 -7.1331315 7.450455 7.688586 7.3474674 7.586386 7.394407 7.5910897
-5.8773756 -5.955143 -5.9636507 -5.973497 -6.156404 -6.2217393 -6.1856756 -6.1638255
-6.3295007 -6.6562915 -6.477657 -6.4587383 -4.001011 -4.3462915 -4.1783223 -4.1517196
-4.39367 -4.2897506 6.6181245 6.4107428 6.92472 7.0260377 7.3175187 7.2474623
9.862229 9.777086 9.890706 10.070077 10.169102 10.205806 6.717905 6.80524
7.0640583 7.036151 7.3033767 7.262721 -7.2021685 -6.907275 -6.840507 -6.8281713
-7.224161 -7.052153 -9.200696 -9.208158 -8.971161 -9.151565 -9.237192 -8.823821
8.552761 8.428557 8.289199 8.637426 8.612229 8.371652 -2.3999374 -2.3457751
-2.6214962 -2.7131186 -2.7351499 -2.5908868 -6.074751 -6.096221 -5.961237 -6.33325
-6.195392 -5.977523 -5.1392756 -5.3762884 -5.2378063 -5.23069 -5.4954457 -5.1984043
-8.590662 -8.576126 -8.450274 -8.509958 -8.31395 -8.592247 4.481754 4.1296744
4.467919 4.52967 4.9643407 4.7063985 4.728543 4.8534937 5.204946 5.389412
5.5317745 5.615691 -0.09861237 0.1065386 -0.2911758 -0.061422225 0.08866512 0.04116769
5.9413633 6.2649837 6.262216 6.287469 6.3069 6.040484 -4.1842957 -4.245564
-4.1652946 -4.42657 -4.4283943 -4.1633615 7.237 7.352256 7.4394765 7.5879865
7.8091106 7.683705 -5.639684 -5.7434607 -5.7761254 -5.7547045 -6.039384 -6.0828667
4.1683645 3.9067013 4.2952833 4.2673664 4.2797246 4.292066 -8.241732 -8.069863
-8.419568 -8.189411 -8.536051 -8.104672 -4.3208804 -4.3487134 -4.683808 -4.4675403
00000000: fe59 0141 fe65 fb40 2d0e 0141 14cc 0041
00000010: 091e 0041 3738 0541 bfc3 f040 6e36 eb40
00000020: 5262 e540 face e440 a0fb e940 c9f5 ec40
00000030: dec8 02c1 92ef 03c1 2e3a 01c1 e499 02c1
00000040: 39f6 01c1 6f5d 06c1 0b9a a3c0 32b4 aac0
00000050: 4973 a0c0 7664 9ec0 6d65 a6c0 138e a7c0
00000060: ccd9 de40 1e5a df40 3cdc eb40 cdd1 e740
00000070: 797c e340 7e09 e940 d449 9bc0 c4a9 95c0
00000080: bdb3 97c0 693a 9bc0 2073 9ac0 51a0 99c0
00000090: 0dc7 ec40 5792 f240 6d39 f440 652d 0141
000000a0: ffdd 0041 d865 f940 3537 ffc0 e263 ffc0
000000b0: 4207 fdc0 c4aa f7c0 709f 02c1 939e 01c1
000000c0: 48e7 0941 96c1 0a41 6202 0641 7522 0741
000000d0: 5a9e 0b41 6f7b 0a41 55d4 fa40 972b f940
000000e0: 6909 0141 3ff0 0541 15ae 0641 a15f 0141
000000f0: ea84 2241 2125 2341 d999 2241 7b07 2041
00000100: 6d26 2341 5de1 2441 a4a2 de40 da49 d840
00000110: 45c0 eb40 b409 ee40 7e9e e940 0f12 e840
00000120: ee19 e640 6f5d e040 3b9b e240 31dd e340
00000130: 1670 e640 9912 ee40 c4cf b5c0 f875 c0c0
00000140: c28b d0c0 ad9c d9c0 50fa dfc0 def3 dcc0
00000150: b459 1e41 9980 2441 cf4a 1e41 735a 1d41
00000160: 5002 2341 2b4d 2241 9b63 7bc0 5417 82c0
00000170: 19a2 7ec0 b727 84c0 5fab 77c0 edff 7cc0
00000180: 79ef 87c0 0d9e 88c0 ca69 89c0 43f6 91c0
00000190: 9cb4 8dc0 ca40 93c0 e812 bfc0 86f6 b8c0
000001a0: 27cf c8c0 80f8 d9c0 07f7 d7c0 67d7 dec0
000001b0: 18a3 c1c0 339c c6c0 7815 d4c0 b2ee dbc0
000001c0: 1692 e0c0 9d42 e4c0 216a ee40 e608 f640
000001d0: 741e eb40 adc3 f240 fb9e ec40 35ea f240
000001e0: 7613 bcc0 8890 bec0 3ad6 bec0 e326 bfc0
000001f0: 4301 c5c0 7d18 c7c0 0ef1 c5c0 0f3e c5c0
00000200: 458b cac0 5700 d5c0 f748 cfc0 fcad cec0
00000210: 4808 80c0 d214 8bc0 d1b4 85c0 e3da 84c0
00000220: f298 8cc0 a345 89c0 adc7 d340 ce24 cd40
00000230: 4e97 dd40 4dd5 e040 1d29 ea40 36eb e740
00000240: b1cb 1d41 f26e 1c41 5540 1e41 091f 2141
00000250: a4b4 2241 fb4a 2341 14f9 d640 87c4 d940
00000260: c40c e240 2628 e140 43b5 e940 3668 e840
00000270: 2a78 e6c0 6608 ddc0 6fe5 dac0 6180 dac0
00000280: 542c e7c0 3dab e1c0 0d36 13c1 9d54 13c1
00000290: e089 0fc1 cf6c 12c1 8acb 13c1 5f2e 0dc1
000002a0: 1cd8 0841 5fdb 0641 8fa0 0441 e632 0a41
000002b0: b1cb 0941 49f2 0541 9398 19c0 2e21 16c0
000002c0: 98c6 27c0 bca3 2dc0 b20c 2fc0 17d1 25c0
000002d0: 5c64 c2c0 3e14 c3c0 74c2 bec0 fca9 cac0
000002e0: a740 c6c0 de47 bfc0 f274 a4c0 8e0a acc0
000002f0: 1c9c a7c0 d061 a7c0 b1da afc0 5459 a6c0
00000300: 5a73 09c1 d037 09c1 5334 07c1 ca28 08c1
00000310: f005 05c1 d879 09c1 876a 8f40 4b26 8440
00000320: 31f9 8e40 0ef3 9040 e1db 9e40 d19a 9640
00000330: 3950 9740 d24f 9b40 eb8e a640 1076 ac40
00000340: 4c04 b140 beb3 b340 48f5 c9bd e930 da3d
00000350: ff14 95be df95 7bbd 0f96 b53d 749f 283d
00000360: a61f be40 bf7a c840 1364 c840 f232 c940
00000370: 20d2 c940 a54b c140 c0e5 85c0 a9db 87c0
00000380: 184a 85c0 76a6 8dc0 68b5 8dc0 423a 85c0
00000390: 8195 e740 ae45 eb40 3110 ee40 c9d0 f240
000003a0: 3ce4 f940 e9e0 f540 4b78 b4c0 6eca b7c0
000003b0: 05d6 b8c0 8a26 b8c0 a242 c1c0 d8a6 c2c0
000003c0: 3e63 8540 6507 7a40 f672 8940 448e 8840
000003d0: 81f3 8840 9b58 8940 22de 03c1 291e 01c1
000003e0: 8db6 06c1 d407 03c1 aa93 08c1 bdac 01c1
000003f0: a744 8ac0 a928 8bc0 c1e1 95c0 17f6 8ec0

linears.0.bias f4 [100]
-0.0042922823 -0.044621367 0.27230585 0.04410494 -0.049695175 0.034103356 -0.05328275 0.36161658
0.6778037 -0.05346059 0.07259137 -0.04999834 -0.049759846 0.049037136 0.073916696 0.028809296
0.031984657 0.047914855 0.049770836 -0.05078588 0.16758217 0.04554646 0.030318715 -0.04944459
0.09435759 -0.04983422 0.22824977 0.29292655 0.027745198 0.018823322 0.104037434 0.0389241
0.31552908 -0.032917973 -0.0384011 0.0008129738 -0.04299074 0.031639215 -0.05201142 0.117695816
-0.029763808 0.21779901 0.033477783 0.053498965 0.014999328 0.29393056 0.44567746 0.07070097
-0.0477358 0.00013204236 -0.047680166 0.00046911833 -0.04494589 -0.050056648 -0.05096526 0.027823063
-0.049633212 0.41784886 0.031223562 -0.059494007 0.041100137 0.035797138 0.038937062 0.051692598
0.029243706 0.10624279 -0.00026022195 0.1575021 0.44376433 -0.026235431 0.038022533 0.030491352
0.027044721 0.29889125 -0.0028436715 0.044609334 0.02976905 0.28595003 0.39408946 0.2200573
-0.048283227 -0.048637014 0.2265217 -0.05022262 0.12925246 0.35563076 0.3037491 -0.047207583
-0.042877484 0.044923812 0.47845057 0.17948543 -0.033936292 0.04188362 -0.015290222 0.050100606
0.045191646 0.032791957 0.05820519 0.03534959
00000000: 46a6 8cbb e5c4 36bd ac6b 8b3e 62a7 343d
00000010: 2b8d 4bbd f6af 0b3d 033f 5abd cf25 b93e
00000020: 8b84 2d3f 7ef9 5abd c9aa 943d 0fcb 4cbd
00000030: fbd0 4bbd 2adb 483d a361 973d 7901 ec3c
00000040: 5802 033d 5e42 443d 81dc 4b3d db04 50bd
00000050: a99a 2b3e ed8e 3a3d f45e f83c 6986 4abd
00000060: 8d3e c13d f81e 4cbd 4fba 693e 78fa 953e
00000070: e649 e33c 5e33 9a3c 9411 d53d e16e 1f3d
00000080: 078d a13e ffd4 06bd 794a 1dbd c01d 553a
00000090: 0f17 30bd 1f98 013d ed09 55bd 810a f13d
000000a0: 3bd3 f3bc b406 5f3e 0020 093d bb21 5b3d
000000b0: bebf 753c 117e 963e d62f e43e accb 903d
000000c0: 9d86 43bd da74 0a39 474c 43bd fff3 f539
000000d0: 2e19 38bd 3308 4dbd f3c0 50bd 31ed e33c
000000e0: 324c 4bbd 49f0 d53e 8ec8 ff3c fdaf 73bd
000000f0: 9e58 283d 05a0 123d 787c 1f3d 9ebb 533d
00000100: 7f90 ef3c d295 d93d 666e 88b9 3b48 213e
00000110: 1435 e33e b0eb d6bc 84bd 1b3d 00c9 f93c
00000120: e48c dd3c 4608 993e e45c 3abb 47b8 363d
00000130: 39de f33c 0b68 923e 18c6 c93e b356 613e
00000140: a2c4 45bd 9b37 47bd 4ef5 673e 3cb6 4dbd
00000150: c25a 043e 3c15 b63e 0185 9b3e bd5c 41bd
00000160: 4da0 2fbd 0802 383d 79f7 f43e 07cb 373e
00000170: c800 0bbd 298e 2b3d d783 7abc 4b36 4d3d
00000180: e01a 393d dc50 063d 9168 6e3d bbca 103d

linears.1.weight f4 [100, 100]
-0.102734365 0.10741337 0.11124406 -0.20892124 0.22490259 0.09535791 0.1150371 0.20185125
0.15668331 0.053110786 -0.23127492 -0.024723781 -0.10115041 -0.09543896 -0.2505537 0.018028874
0.009885768 -0.064646974 -0.13172744 0.035993762 -0.2061549 -0.0033264593 0.028540742 0.21598771
-0.23071565 0.036765147 -0.082648605 0.05882696 -0.251985 -0.16666202 -0.14562336 -0.21160683
0.23045312 0.21451813 0.06477206 0.33743596 0.018233221 -0.17053704 0.28078005 -0.24644652
0.12327853 -0.07495869 -0.19842528 -0.06828283 -0.2803765 0.11739119 0.40879315 -0.34617418
0.34031337 -0.23519103 0.20960443 0.023027524 0.07710015 0.0950596 -0.090328135 -0.06649777
-0.019264052 0.28045374 -0.15104939 0.21350528 -0.1061062 -0.07942751 -0.17456953 -0.32941625
-0.42576897 -0.22030073 -0.049942944 -0.24511757 0.21956608 0.06711815 -0.05254106 -0.080459744
0.0077923425 0.14899279 -0.18149875 -0.36523065 -0.3112801 -0.11541506 0.12892903 -0.05480073
0.1335045 0.0037414392 -0.4511371 0.3109593 -0.39946103 -0.19092345 -0.05201547 0.0670493
0.17985849 -0.22293372 0.4291696 -0.44253224 0.037630927 0.06757939 -0.16502316 0.06569582
-0.20471494 -0.048357517 -0.35286003 -0.389659 -4.094674 -3.151202 1.65013 0.4177568
-2.2836087 0.7525546 -2.6255798 1.9324886 -1.0137582 -2.7951083 -3.7774224 -2.3604727
-2.1208973 1.2755035 -3.3991642 0.8333179 0.87842774 1.4080819 1.3489535 -2.446812
1.0196571 1.1017163 0.7403039 -2.171635 -1.988258 -2.158582 1.2442427 2.0526547
-1.8306974 0.19992557 0.8687905 0.27765763 1.6569115 -1.171643 -1.4686878 0.14333557
-1.3285781 0.4727389 -2.4024174 1.1385845 -1.1160369 1.0856142 0.50404423 1.7666416
-2.0298438 1.8029732 2.1290262 -3.3045018 -1.7273525 -3.5566761 -1.6706882 -0.22107841
-1.3197458 -2.2561944 -1.9277292 0.7020148 -1.6028547 2.287541 1.0582863 -3.8888552
1.120554 -3.741882 0.31510794 0.71895236 -4.653586 -1.726612 -0.025203735 1.1153219
2.2706873 -0.9276793 0.8656741 -1.833433 0.7460131 1.5103327 -4.5055294 0.39295995
-3.6811976 1.8156157 2.4475944 1.1678699 -2.0861197 -1.6320231 -1.7389374 -2.32687
1.2638927 -1.5986778 1.8177148 -1.8638783 -1.5491306 1.2995511 2.28667 -1.7674062
-0.95352304 1.5446879 -3.4939685 1.3637743 1.4958701 0.52476835 -2.2814128 0.29752085
-1.2048398 -1.097557 0.31478357 -0.36243758 0.96117127 -0.5673236 0.83075243 0.7546932
-1.2650496 0.7120352 -1.3707339 0.56496465 0.6955684 -0.5148119 -1.2894312 -0.36765844
-0.32062164 -0.5874767 -0.3792826 0.7400288 -0.13090427 -0.75187117 -0.30268398 0.7763134
-1.8134952 0.74017733 0.030193254 0.6682034 -1.4199544 -0.7207563 -0.3867149 -0.42659396
0.6995627 0.3321362 0.28459713 0.16781554 0.6153005 -0.4008728 0.8004004 -0.22103725
0.5146534 -0.07494474 -0.5850292 -0.6938925 -1.3936354 0.39969593 0.9623069 -1.2106806
1.6127386 -1.4917179 0.8601604 0.013060289 0.8962318 0.9069759 0.72970957 -0.8035741
00000000: 6566 d2bd 8afb db3d edd3 e33d 73ef 55be
00000010: dd4c 663e 024b c33d 9298 eb3d 18b2 4e3e
00000020: 9771 203e b28a 593d 55d3 6cbe 8789 cabc
00000030: f227 cfbd 8075 c3bd 9348 80be 4ab1 933c
00000040: ebf7 213c a265 84bd 8fe3 06be 326e 133d
00000050: 451a 53be ba00 5abb 46ce e93c e22b 5d3e
00000060: b940 6cbe 0d97 163d ac43 a9bd 8af4 703d
00000070: 2e04 81be 73a9 2abe 4a1e 15be 76af 58be
00000080: e7fb 6b3e a4aa 5b3e 37a7 843d 68c4 ac3e
00000090: d65d 953c 43a1 2ebe 67c2 8f3e 7a5c 7cbe
000000a0: 7479 fc3d f183 99bd ff2f 4bbe ded7 8bbd
000000b0: 828d 8fbe cb6a f03d 564d d13e be3d b1be
000000c0: 8e3d ae3e ebd5 70be 8ba2 563e 38a4 bc3c
000000d0: afe6 9d3d 9cae c23d f5fd b8bd fc2f 88bd
000000e0: a5cf 9dbc a297 8f3e b1ac 1abe 21a1 5a3e
000000f0: 354e d9bd e4aa a2bd 5bc2 32be 3fa9 a8be
00000100: 64fe d9be 8496 61be f990 4cbd 1a00 7bbe
00000110: eed5 603e 3e75 893d 4b35 57bd 14c8 a4bd
00000120: e856 ff3b 9191 183e cfda 39be 83ff babe
00000130: 1b60 9fbe bb5e ecbd f905 043e bb76 60bd
00000140: 67b5 083e ef32 753b 71fb e6be 0f36 9f3e
00000150: 2886 ccbe 7081 43be 2c0e 55bd 2551 893d
00000160: d32c 383e bd48 64be 1ebc db3e 9693 e2be
00000170: e322 1a3d 1067 8a3d d5fb 28be 888b 863d
00000180: cba0 51be 8812 46bd 12aa b4be 6281 c7be
00000190: 9207 83c0 4bad 49c0 7637 d33f 38e4 d53e
000001a0: a526 12c0 6ba7 403f 8009 28c0 c95b f73f
000001b0: d4c2 81bf 0ee3 32c0 4ac1 71c0 fc11 17c0
000001c0: c8bc 07c0 b343 a33f e88b 59c0 5254 553f
000001d0: a4e0 603f 073c b43f 82aa ac3f 9198 1cc0
000001e0: 2084 823f 0a05 8d3f 8e84 3d3f 11fc 0ac0
000001f0: 3d7f febf 3526 0ac0 5843 9f3f b25e 0340
00000200: 4b54 eabf 4ab9 4c3e 0e69 5e3f 2429 8e3e
00000210: ad15 d43f 66f8 95bf f6fd bbbf 8fc6 123e
00000220: d90e aabf d50a f23e 35c1 19c0 23bd 913f
00000230: 4cda 8ebf 68f5 8a3f 0b09 013f 5021 e23f
00000240: f6e8 01c0 d3c7 e63f f741 0840 f57c 53c0
00000250: e319 ddbf 95a0 63c0 1cd9 d5bf 6162 62be
00000260: 6eed a8bf 7d65 10c0 d5bf f6bf 3eb7 333f
00000270: 582a cdbf 1267 1240 ed75 873f 01e3 78c0
00000280: 506e 8f3f ff7a 6fc0 d455 a13e 430d 383f
00000290: 2dea 94c0 9f01 ddbf 1078 cebc dec2 8e3f
000002a0: f152 1140 647c 6dbf d19c 5d3f efad eabf
000002b0: b7fa 3e3f 9552 c13f 4c2d 90c0 0c32 c93e
000002c0: be98 6bc0 1866 e83f 63a5 1c40 c37c 953f
000002d0: fc82 05c0 22e6 d0bf 8095 debf 70eb 14c0
000002e0: 3cc7 a13f 79a1 ccbf e1aa e83f 9093 eebf
000002f0: e949 c6bf b157 a63f cd58 1240 5e3a e2bf
00000300: 161a 74bf 55b8 c53f 2e9d 5fc0 2890 ae3f
00000310: ac78 bf3f 3857 063f ab02 12c0 a754 983e
00000320: 3138 9abf bf7c 8cbf 502b a13e 6b91 b9be
00000330: 520f 763f 1f3c 11bf 31ac 543f 9333 413f
00000340: 25ed a1bf f047 363f 3574 afbf 86a1 103f
00000350: c510 323f b6ca 03bf 150c a5bf ba3d bcbe
00000360: 8528 a4be df64 16bf 5431 c2be 8772 3d3f
00000370: c50b 06be a17a 40bf 65f9 9abe 7abc 463f
00000380: 9c20 e8bf 437c 3d3f d857 f73c 610f 2b3f
00000390: 11c1 b5bf 7c83 38bf 7fff c5be 866a dabe
000003a0: 8b16 333f c20d aa3e b7b6 913e d6d7 2b3e
000003b0: 5584 1d3f 333f cdbe 0ae7 4c3f 9757 62be
000003c0: 53c0 033f a17c 99bd 79c4 15bf f0a2 31bf
000003d0: a562 b2bf f2a4 cc3e bf59 763f 95f7 9abf
000003e0: 386e ce3f 9df0 bebf 7933 5c3f d3fa 553c
000003f0: 726f 653f 932f 683f 3fce 3a3f 08b7 4dbf

linears.1.bias f4 [100]
0.22921015 0.19745424 -0.1550422 0.24642858 -0.43185762 -0.08313636 0.11078746 -0.020945948
0.26694205 0.18163222 0.13411307 0.065824695 -0.82201815 0.0353202 0.20882434 -0.35700646
0.016595196 -0.1454916 -0.06493157 0.20549193 -0.13858452 -0.58046156 0.0018704727 0.48896384
-0.07627909 0.14503883 0.2025956 0.092002936 -0.25976735 -0.050336007 0.4574226 0.33562335
-0.1320624 0.073553935 -0.28488562 -0.11849479 -0.21741341 -0.50857455 -0.3547269 -0.49429026
0.055136386 -0.070489295 -0.3081322 -0.12250691 0.39614245 -1.240102 -0.7937233 0.02600885
-0.1746923 -0.11095671 -0.14484863 -0.25880206 0.06333805 -0.5533656 0.08613734 -0.31393954
-0.40650052 -0.0067055407 -0.11409528 -0.25095576 0.22878245 0.10675526 0.2926206 -0.06417712
0.08082487 0.1440537 0.049238145 -0.14540151 -0.03131019 -0.4210221 -0.783228 -0.22524165
-0.12880011 -0.04846288 -0.5769334 0.006476394 0.23500958 -0.11344529 -0.0317948 -0.31060165
-0.31724313 -0.16065097 -0.040182147 -0.74057806 0.042199884 -0.005970016 0.12645546 0.17505632
-0.02989749 -0.1933996 0.2608643 -0.4801434 -0.1598841 -0.5715082 -0.12079308 0.66876435
-0.06346483 -0.049463242 0.056876957 -0.3045214
00000000: 11b6 6a3e 7231 4a3e 62c3 1ebe c657 7c3e
00000010: 711c ddbe 6543 aabd 89e4 e23d d696 abbc
00000020: a1ac 883e ccfd 393e f054 093e 19cf 863d
00000030: c86f 52bf eaab 103d 0cd6 553e 8dc9 b6be
00000040: a6f2 873c c0fb 14be d8fa 84bd 7a6c 523e
00000050: 1ae9 0dbe 2199 14bf a62a f53a 7859 fa3e
00000060: 3638 9cbd 0f85 143e 3975 4f3e 096c bc3d
00000070: 3a00 85be 212d 4ebd 4c33 ea3e d3d6 ab3e
00000080: 5e3b 07be 72a3 963d 87dc 91be 65ad f2bd
00000090: 9fa1 5ebe f131 02bf c49e b5be 9d13 fdbe
000000a0: b1d6 613d b15c 90bd 81c3 9dbe e7e4 fabd
000000b0: 2fd3 ca3e aabb 9ebf 7331 4bbf 8310 d53c
000000c0: 8ae2 32be 463d e3bd 3353 14be b481 84be
000000d0: 61b7 813d 5ea9 0dbf c668 b03d afbc a0be
000000e0: d620 d0be 27ba dbbb c9aa e9bd 467d 80be
000000f0: f245 6a3e 80a2 da3d 5ed2 953e 4b6f 83bd
00000100: 8287 a53d d082 133e f0ad 493d 22e4 14be
00000110: 1d3f 00bd 3590 d7be a181 48bf bfa5 66be
00000120: 2de4 03be 0381 46bd e8b1 13bf ee37 d43b
00000130: 5aa6 703e 0156 e8bd 443b 02bd 2e07 9fbe
00000140: b16d a2be b081 24be 0996 24bd 8696 3dbf
00000150: c9d9 2c3d 20a0 c3bb 8a7d 013e f741 333e
00000160: 95eb f4bc 8b0a 46be 0190 853e 5bd5 f5be
00000170: a8b8 23be 5d4e 12bf 5d62 f7bd 2434 2b3f
00000180: d9f9 81bd f899 4abd d0f7 683d 3bea 9bbe

linears.2.weight f4 [100, 100]
0.24274567 1.5166755 0.99809325 0.76844126 0.3630282 -1.5065085 -1.4769994 0.16144599
1.4554882 -0.6596493 -1.3340479 -0.505168 0.4130701 1.0178653 -0.93483037 1.0107384
-1.6210936 0.28838062 -2.2880788 1.239882 0.486351 0.24887426 -1.7453092 0.704894
-1.4300455 -0.5098798 -0.52376443 -0.6155499 -0.048546195 0.040292498 0.38006982 0.53154004
-0.8083495 -0.24430932 0.924246 -0.9204158 0.6327287 0.41464594 0.39347827 0.5964284
-1.7854341 -0.12112725 -0.54157037 -1.2778788 -1.2682203 0.44338745 -0.098289184 -1.1146264
-0.8445939 -1.3083026 -1.3831617 -0.26082802 -0.2222472 0.40205076 -0.32269523 0.23052117
1.0633013 -1.9314175 -1.3532603 0.64606464 0.14932631 -0.34131208 0.5715026 -1.5563768
-0.47207567 -0.116272695 0.24528818 -0.25662762 -0.8886653 0.88090706 0.11657833 -2.0604181
0.87402886 0.3281118 0.009939419 0.37075734 0.700031 -1.7300262 -2.1947765 -1.1208287
1.1878421 -0.30726206 0.78513944 0.34011772 -0.750372 -0.8182034 -0.32521373 -1.0308198
-1.5870125 -0.17555599 -0.8637954 0.6700547 0.6144611 0.3113074 0.5810989 0.40731862
-1.204377 -1.3667902 -0.6117481 0.8722824 -0.6107171 -0.2527163 -0.08983396 -0.24917798
-0.047513478 0.08066063 -0.049649723 -0.1326027 -0.26898408 0.35131818 -0.0807391 0.07946432
-0.08201426 0.3471564 -0.03393891 0.2815524 0.036606263 -0.6186292 -0.17368375 -0.22993337
-0.73996437 0.10525783 -0.050650924 -0.96289104 0.13329859 -0.11906141 0.34135884 0.0097221155
0.67832047 1.062855 -0.21140392 0.008690164 -0.27654317 -0.026876282 -0.3308639 0.2427506
-0.17770873 -0.13862789 -0.27215737 -0.5878879 0.7124647 0.98155487 0.79227847 -0.24330296
-0.09121601 -2.2097666 0.1830749 0.010665501 -0.72172725 -0.06319175 -0.2897347 0.26493126
-0.17055771 -0.12979198 -0.12852867 -0.18754953 0.21475771 -0.17360997 -0.369679 0.332874
-1.2195355 -0.16007774 0.741651 0.09229742 0.3347291 -0.10090927 -0.60535544 0.26162666
0.20783974 -3.1412551 -0.6522831 -0.07828908 -0.16448407 0.032715414 -0.5352793 -0.21519636
0.31920096 0.09173315 0.09336609 0.74343264 -0.15641853 0.05681143 -0.53427905 -1.165379
-0.89384395 0.41847453 -0.26608112 -0.10705297 -0.16473539 0.41786158 0.52254945 -0.5853558
0.19604427 0.112155765 -0.1460491 -0.054514088 0.2545621 0.270665 -0.13239875 0.34863073
0.10064274 0.5406151 -0.32800752 0.43263355 0.30299768 0.21628761 -0.2465261 -0.6528021
0.52646154 0.14888258 0.30908838 0.7226617 0.34456572 0.115696065 -0.33329535 -0.03602499
-0.30453193 -0.2313106 -0.43089366 0.43482134 -0.28395593 0.3394283 -0.8175138 -0.7468935
-0.6786182 -0.017602993 0.4441953 0.36715764 0.14226997 0.32345632 -0.35103604 -0.6709619
-0.61113304 -0.31800264 -0.4243675 0.62339675 -0.40005267 0.24537213 0.36178598 0.6079107
0.26696077 0.31558788 -0.5283505 0.73041177 -0.88727903 0.3734686 0.13762906 -0.07424566
0.21028902 0.46039551 -1.3260374 -0.3256525 0.12887737 0.1973969 -0.18715745 0.43616715
00000000: 5292 783e 6c22 c23f 0a83 7f3f 91b8 443f
00000010: d5de b93e 45d5 c0bf 510e bdbf 1952 253e
00000020: 704d ba3f c7de 28bf 15c2 aabf b152 01bf
00000030: ed7d d33e 6949 823f 0b51 6fbf e05f 813f
00000040: ff7f cfbf a0a6 933e e26f 12c0 74b4 9e3f
00000050: 0003 f93e e5d8 7e3e 4b66 dfbf ef73 343f
00000060: bb0b b7bf 7c87 02bf 6d15 06bf ae94 1dbf
00000070: 60d8 46bd bf09 253d 8398 c23e 0213 083f
00000080: feef 4ebf 392c 7abe 639b 6c3f 5fa0 6bbf
00000090: 82fa 213f 794c d43e fc75 c93e 88af 183f
000000a0: 1b89 e4bf 9011 f8bd 5ba4 0abf 8891 a3bf
000000b0: 0b55 a2bf ae03 e33e d74b c9bd 14ac 8ebf
000000c0: 4e37 58bf 7676 a7bf 710b b1bf 408b 85be
000000d0: c594 63be 99d9 cd3e 4f38 a5be be0d 6c3e
000000e0: 421a 883f b038 f7bf a237 adbf 7e64 253f
000000f0: ffe8 183e 75c0 aebe ff4d 123f 5b37 c7bf
00000100: e7b3 f1be 6120 eebd d32c 7b3e b264 83be
00000110: 927f 63bf 2083 613f 9fc0 ee3d e4dd 03c0
00000120: 5bc0 5f3f 45fe a73e f2d8 223c e8d3 bd3e
00000130: 3b35 333f 8071 ddbf 3877 0cc0 5177 8fbf
00000140: 360b 983f 7451 9dbe e6fe 483f e923 ae3e
00000150: 6118 40bf c775 51bf 6a82 a6be e7f1 83bf
00000160: 3a23 cbbf f3c4 33be b221 5dbf b488 2b3f
00000170: 534d 1d3f af63 9f3e e6c2 143f 118c d03e
00000180: 0729 9abf fbf2 aebf 869b 1cbf e64d 5f3f
00000190: f557 1cbf 0864 81be defa b7bd 8328 7fbe
000001a0: 7e9d 42bd 6631 a53d 825d 4bbd 01c9 07be
000001b0: 48b8 89be fadf b33e 8b5a a5bd 30be a23d
000001c0: 18f7 a7bd 7cbe b13e 8703 0bbd a327 903e
000001d0: 73f0 153d 7c5e 1ebf 27da 31be a773 6bbe
000001e0: 4e6e 3dbf 6b91 d73d 5877 4fbd 0780 76bf
000001f0: 6d7f 083e 78d6 f3bd 96c6 ae3e 8249 1f3c
00000200: 69a6 2d3f a20b 883f 457a 58be 3161 0e3c
00000210: 1197 8dbe a62b dcbc fe66 a9be 9d93 783e
00000220: 47f9 35be 78f4 0dbe 3658 8bbe d27f 16bf
00000230: 1664 363f 2e47 7b3f c3d2 4a3f 6924 79be
00000240: 76cf babd d16c 0dc0 fd77 3b3e 5abe 2e3c
00000250: 1ec3 38bf ad6a 81bd 1b58 94be 12a5 873e
00000260: aea6 2ebe 30e8 04be 059d 03be fc0c 40be
00000270: 72e9 5b3e d0c6 31be 9146 bdbe 766e aa3e
00000280: bd19 9cbf 6beb 23be d7dc 3d3f 6e06 bd3d
00000290: 9d61 ab3e 85a9 cebd 93f8 1abf eef3 853e
000002a0: f1d3 543e 530a 49c0 06fc 26bf 0656 a0bd
000002b0: 836e 28be 9900 063d 1008 09bf 6f5c 5cbe
000002c0: 4f6e a33e 97de bb3d b836 bf3d 9a51 3e3f
000002d0: 2e2c 20be 1ab3 683d 83c6 08bf 242b 95bf
000002e0: f5d2 64bf 4b42 d63e c93b 88be 963e dbbd
000002f0: 65b0 28be f4f1 d53e cdc5 053f e1d9 15bf
00000300: d4bf 483e ecb1 e53d e58d 15be 2a4a 5fbd
00000310: f755 823e 9a94 8a3e 8a93 07be ba7f b23e
00000320: c81d ce3d c065 0a3f 9af0 a7be 2582 dd3e
00000330: 8322 9b3e 807a 5d3e 5771 7cbe 0a1e 27bf
00000340: 2fc6 063f ad74 183e d540 9e3e 5b00 393f
00000350: eb6a b03e 0ff2 ec3d b0a5 aabe f18e 13bd
00000360: 9ceb 9bbe b0dc 6cbe 189e dcbe e7a0 de3e
00000370: ac62 91be 8cc9 ad3e 9648 51bf 6a34 3fbf
00000380: ecb9 2dbf 2734 90bc 916d e33e 16fc bb3e
00000390: 38af 113e 119c a53e ffba b3be 29c4 2bbf
000003a0: 3773 1cbf 3ed1 a2be b246 d9be ee96 1f3f
000003b0: b4d3 ccbe d542 7b3e 033c b93e 09a0 1b3f
000003c0: 15af 883e bc94 a13e fa41 07bf 44fc 3a3f
000003d0: b824 63bf 4737 bf3e a2ee 0c3e 1c0e 98bd
000003e0: 0156 573e f6b8 eb3e 98bb a9bf edbb a6be
000003f0: 6ef8 033e 6a22 4a3e 34a6 3fbe 4d51 df3e

linears.2.bias f4 [100]
-0.31728786 0.027289905 -0.42137972 0.28687474 0.00506923 -0.49278516 -0.5807355 -0.35302114
-0.40165582 -0.3481542 -0.035467044 -0.47306806 -0.32346228 -0.21237274 -0.6727601 -0.14579336
-0.006324037 -2.813109 -0.18811196 -0.33264253 -0.24167308 -0.8033892 0.1473767 0.09746725
-0.43435964 -0.8127384 -0.43562856 0.2952584 0.08481031 -0.49811685 -0.4213109 -0.54333955
-0.041924097 -0.3456035 -0.20163487 0.17524593 -0.31498823 -0.18573661 -0.54905725 -0.2909329
-0.26416695 -0.47499597 -0.22624841 -3.1875472 -0.59181154 -0.42066136 0.84136736 -0.49961877
-1.2221048 -0.44728652 0.27939957 -0.2913238 -0.18288156 -0.47218135 -0.44804233 -0.43851572
-0.6718808 -0.27203354 -0.1093195 0.010892522 -0.1617084 -0.23037103 -0.32710823 -0.33428305
0.23788919 0.24756326 -0.20820662 -0.11177063 0.30668142 -0.4005602 0.43067947 -0.33264202
-0.3483901 -0.18745746 -0.44500622 -0.2939663 -0.1588461 -0.40853631 -1.3371075 -0.27996817
-0.3646137 -0.120055 -0.42674264 -0.12355306 -0.44936508 -0.46622393 -0.06581265 -0.27233747
-0.3842538 -0.40265945 -0.15504867 -0.38322076 -0.7556603 -0.46846956 0.28246364 -0.3914161
-0.507903 -0.38287786 -0.2569604 -0.378464
00000000: 8e73 a2be 148f df3c 15bf d7be 3fe1 923e
00000010: c91b a63b 564e fcbe 15ab 14bf 30bf b4be
00000020: d5a5 cdbe 4441 b2be e445 11bd fa35 f2be
00000030: d99c a5be 3d78 59be 023a 2cbf db4a 15be
00000040: de39 cfbb fa09 34c0 6ca0 40be 1f50 aabe
00000050: 2679 77be eaaa 4dbf ebe9 163e e99c c73d
00000060: 6364 debe a00f 50bf b50a dfbe 1c2c 973e
00000070: 07b1 ad3d 2c09 ffbe 10b6 d7be 4d18 0bbf
00000080: 9ab8 2bbd f1f2 b0be 5f79 4ebe ab73 333e
00000090: 2346 a1be bd31 3ebe 048f 0cbf 28f5 94be
000000a0: e440 87be ac32 f3be aaad 67be c600 4cc0
000000b0: f680 17bf ed60 d7be da63 573f 08ce ffbe
000000c0: ee6d 9cbf bd02 e5be 760d 8f3e 6528 95be
000000d0: 4e45 3bbe c1c1 f1be ce65 e5be 2285 e0be
000000e0: 6100 2cbf fb47 8bbe e7e2 dfbd 8c76 323c
000000f0: e396 25be 62e6 6bbe bb7a a7be 2627 abbe
00000100: 3999 733e 3981 7d3e 1e34 55be 00e8 e4bd
00000110: 5905 9d3e 3a16 cdbe 0582 dc3e 0e50 aabe
00000120: 3060 b2be d9f4 3fbe dbd7 e3be c082 96be
00000130: 8da8 22be ac2b d1be 5726 abbf fd57 8fbe
00000140: a6ae babe 65df f5bd 037e dabe 6309 fdbd
00000150: 2e13 e6be e7b4 eebe c8c8 86bd d16f 8bbe
00000160: eabc c4be 6129 cebe 14c5 1ebe 8335 c4be
00000170: f472 41bf 3edb efbe 139f 903e b167 c8be
00000180: ee05 02bf 9108 c4be 5090 83be 09c6 c1be

linears.3.weight f4 [3, 100]
0.93774635 -0.24319299 -0.14639781 1.6517318 -0.66863906 -0.50296926 -0.3251825 -2.2148163
-2.7173038 -0.6509833 0.037238788 0.8190537 -0.5938958 0.012674502 0.5833606 -0.77264786
0.58878106 -0.060547914 -0.81051105 -0.7660109 1.2112833 -0.0758176 -0.03612567 -0.0010112628
-1.3605602 0.14487031 -0.53223985 -0.17288014 0.18928002 0.43945134 0.26771128 -0.14450008
-0.61661345 -0.61310333 0.10261065 -0.19422144 0.6950899 -1.5578829 -1.1512833 0.4924586
-0.1275623 -1.2887417 1.1793661 0.31938037 -0.6028052 -0.5995961 0.4272596 -0.094911836
-0.2820169 -0.5609161 -0.5370895 0.13695246 -1.2200857 0.48474017 -0.17569047 -0.73948914
-0.5429602 -0.8365468 -1.8329569 0.0004892275 -0.40241364 -0.96663934 -0.6845116 -0.6479497
1.2411352 -1.4830621 1.7228179 -0.38030496 0.17383863 -0.6187471 0.25969788 -0.69258285
0.61326027 -0.5662808 -0.42280757 -0.5261139 -2.5682025 -0.6802112 -0.13764389 -0.7364408
-0.52326125 -0.65891784 0.34467942 0.071075134 0.75060517 -0.5571951 1.5454952 0.3173698
-0.19081318 0.05704911 -0.8636492 -0.69710225 0.68635064 0.052545007 1.241791 -0.6920973
0.20504965 3.1045992 -0.14685743 -0.7537471 -0.025311725 -0.00069887604 -0.020508703 -0.0023451345
0.057016578 0.036837142 0.048215736 -0.17745773 -0.018239742 -0.0120599065 -0.0640276 0.035129584
0.05012195 0.097651266 -0.012355008 0.0001565329 0.17203215 -0.0032291089 0.031309627 0.012264346
-0.09616338 0.00044586507 0.039208956 3.600131e-05 -0.07417495 -0.007953692 0.047893416 0.02516431
0.012003263 0.089398116 0.08982271 0.052360002 0.03152867 0.07842778 0.11024295 0.010279318
0.18310834 -0.14864565 -0.0052713766 -0.03149071 0.1419594 -0.000924739 -0.00012894304 0.00067775865
0.031344913 0.038356047 -0.06482902 -0.004306421 -0.009106166 0.041888986 -0.006867156 1.3508706
0.02902197 0.005499833 0.06628625 0.03213076 0.00417416 0.034230847 -0.0096443165 -0.000120905
0.051550753 0.023423012 0.048196174 0.04498538 -7.587274e-05 0.017084595 0.002379404 -0.013037835
0.0053760945 0.027341617 -0.008953214 0.108680874 0.13671827 0.031989828 0.04937626 0.050253615
-0.00032528036 0.030956939 -0.671362 0.035946112 0.039417192 0.06909589 0.006163806 0.0027124137
0.15294966 0.022442827 0.07242902 -0.009020354 -0.05183317 0.010401773 0.038919955 0.00027295022
1.3689922 -0.028622324 0.0044011925 0.0016454597 0.074752636 -0.016915869 0.4709658 0.012403553
6.2720137 -0.021900004 4.017636 0.5056287 -1.3871454 -0.9715799 -0.93207437 -1.2888315
1.2252845 2.6650124 14.031337 -30.48941 -1.10273 -1.3061911 5.3887897 -0.80629975
8.672382 -24.530024 -1.1795948 -0.8719466 -4.8461304 -16.056444 3.9247804 0.001137298
-29.078207 -25.73498 -1.0237417 3.6384602 5.102505 -0.8140335 -0.8591623 -0.8623412
-1.3064574 -1.0176116 -2.2133613 3.6012282 -1.1002847 -1.2098343 5.4478774 18.736454
-4.988363 0.022460977 3.4863856 31.97208 1.5416533 -1.0521241 1.1548797 4.9314957
18.888372 -1.0329795 1.8107514 2.412417 -1.2456799 8.093709 -0.96201736 -1.0340815
00000000: 2510 703f 9507 79be 4fe9 15be f36b d33f
00000010: ee2b 2bbf 98c2 00bf 527e a6be 8dbf 0dc0
00000020: 4ee8 2dc0 d7a6 26bf b387 183d 81ad 513f
00000030: 8e09 18bf b7a8 4f3c 1f57 153f 40cc 45bf
00000040: 5bba 163f 1701 78bd a77d 4fbf 4a19 44bf
00000050: 550b 9b3f 4246 9bbd 83f8 13bd 598c 84ba
00000060: d626 aebf e258 143e df40 08bf 7e07 31be
00000070: 9fd2 413e c4ff e03e 7411 893e d4f7 13be
00000080: 61da 1dbf 57f4 1cbf 8825 d23d fce1 46be
00000090: 69f1 313f b568 c7bf 405d 93bf 8923 fc3e
000000a0: b19f 02be 7df5 a4bf 78f5 963f d385 a33e
000000b0: 7151 1abf 217f 19bf c5c1 da3e 2361 c2bd
000000c0: 8564 90be 3398 0fbf b37e 09bf 443d 0c3e
000000d0: c52b 9cbf dd2f f83e 34e8 33be 294f 3dbf
000000e0: 71ff 0abf ee27 56bf 559e eabf 803f 003a
000000f0: 2909 cebe ad75 77bf 273c 2fbf 08e0 25bf
00000100: 85dd 9e3f fbd4 bdbf 4c85 dc3f 55b7 c2be
00000110: c102 323e 3666 1ebf 1ff7 843e 1c4d 31bf
00000120: a0fe 1c3f c7f7 10bf 3c7a d8be 67af 06bf
00000130: 6e5d 24c0 5222 2ebf 85f2 0cbe 6287 3cbf
00000140: 73f4 05bf d7ae 28bf d279 b03e d78f 913d
00000150: a927 403f 57a4 0ebf c9d2 c53f 4b7e a23e
00000160: 8864 43be 54ac 693d 1d18 5dbf 4b75 32bf
00000170: adb4 2f3f 6f39 573d 02f3 9e3f 4a2d 31bf
00000180: 89f8 513e c1b1 4640 cb61 16be 92f5 40bf
00000190: 895a cfbc c734 37ba de01 a8bc d4b0 19bb
000001a0: 378a 693d 8be2 163d dd7d 453d 7bb7 35be
000001b0: 836b 95bc ea96 45bc e720 83bd 0ae4 0f3d
000001c0: ad4c 4d3d 63fd c73d a96c 4abc fb22 2439
000001d0: 3229 303e 759f 53bb 863e 003d 65f0 483c
000001e0: 4ef1 c4bd ffc2 e939 9299 203d 1d00 1738
000001f0: 09e9 97bd 3450 02bc e32b 443d 6225 ce3c
00000200: 56a9 443c 5c16 b73d f8f4 b73d 7177 563d
00000210: 3524 013d be9e a03d 0ec7 e13d 966a 283c
00000220: c180 3b3e 9136 18be 83bb acbb 67fc 00bd
00000230: ce5d 113e 2f6a 72ba e234 07b9 9dab 313a
00000240: 8663 003d 3b1b 1d3d 14c5 84bd e11c 8dbb
00000250: 0732 15bc c993 2b3d e105 e1bb 54e9 ac3f
00000260: 7cbf ed3c f137 b43b 16c1 873d 8b9b 033d
00000270: 64c7 883b a535 0c3d 3203 1ebc 618e fdb8
00000280: e226 533d 9ee1 bf3c 5a69 453d 9742 383d
00000290: de1d 9fb8 fef4 8b3c c6ef 1b3b a59c 55bc
000002a0: f329 b03b 87fb df3c 80b0 12bc 1494 de3d
000002b0: e0ff 0b3e c407 033d c33e 4a3d bcd6 4d3d
000002c0: 648a aab9 6899 fd3c 61de 2bbf 3b3c 133d
000002d0: ec73 213d 2582 8d3d c1f9 c93b c0c2 313b
000002e0: d69e 1c3e 05da b73c ab55 943d 1bca 13bc
000002f0: 054f 54bd 336c 2a3c 886a 1f3d c21a 8f39
00000300: 233b af3f 5d79 eabc e137 903b 77ac d73a
00000310: e917 993d 2693 8abc 6e22 f13e 4638 4b3c
00000320: 56b4 c840 a367 b3bc 7990 8040 e270 013f
00000330: fb8d b1bf 76b9 78bf 6d9c 6ebf 6ef8 a4bf
00000340: 1fd6 9c3f 908f 2a40 5b80 6041 50ea f3c1
00000350: 4226 8dbf 4531 a7bf f770 ac40 a969 4ebf
00000360: 14c2 0a41 7d3d c4c1 f6fc 96bf e437 5fbf
00000370: 8013 9bc0 9973 80c1 9a2f 7b40 6311 953a
00000380: 2ba0 e8c1 3de1 cdc1 f809 83bf 88dc 6840
00000390: b947 a340 8064 50bf 0ff2 5bbf 65c2 5cbf
000003a0: ff39 a7bf 1941 82bf b6a7 0dc0 867a 6640
000003b0: 21d6 8cbf dadb 9abf 0355 ae40 42e4 9541
000003c0: aba0 9fc0 1500 b83c f120 5f40 d2c6 ff41
000003d0: e554 c53f 01ac 86bf 19d3 933f d0ce 9d40
000003e0: 631b 9741 ac38 84bf b4c6 e73f 0a65 1a40
000003f0: 7072 9fbf d57f 0141 c546 76bf c85c 84bf

linears.3.bias f4 [3]
0.99411726 0.6932548 1.3365093
00000000: 787e 7e3f 2679 313f bd12 ab3f

exp_avg f4 [100, 6]
-1.9185382e-08 -1.9185379e-08 -3.8370757e-08 -5.7556154e-08 -7.6741536e-08 -9.5927085e-08 -1.958053e-08 -1.9580515e-08
-3.916106e-08 -5.8741733e-08 -7.8322344e-08 -9.7902905e-08 8.687153e-09 8.687149e-09 1.7374353e-08 2.6061612e-08
3.474886e-08 4.343628e-08 6.6337263e-10 6.633764e-10 1.326768e-09 1.9901967e-09 2.6536657e-09 3.3172e-09
-4.9896554e-09 -4.9896545e-09 -9.97931e-09 -1.4968967e-08 -1.995866e-08 -2.4948402e-08 3.4702421e-10 3.470244e-10
6.940497e-10 1.0410729e-09 1.3880997e-09 1.7351269e-09 -6.119543e-09 -6.1195395e-09 -1.2239049e-08 -1.8358566e-08
-2.4478036e-08 -3.05975e-08 8.609573e-09 8.609585e-09 1.7219168e-08 2.582903e-08 3.4438877e-08 4.3049024e-08
-1.227801e-08 -1.2278005e-08 -2.4555959e-08 -3.683374e-08 -4.911154e-08 -6.1389e-08 -1.0410478e-08 -1.0410473e-08
-2.082094e-08 -3.123144e-08 -4.1641904e-08 -5.2052417e-08 -1.7817177e-08 -1.7817195e-08 -3.5634397e-08 -5.3451608e-08
-7.126895e-08 -8.9086356e-08 -3.0625837e-09 -3.0625813e-09 -6.125143e-09 -9.187694e-09 -1.2250161e-08 -1.53126e-08
-5.1951523e-09 -5.195157e-09 -1.03903055e-08 -1.5585462e-08 -2.0780641e-08 -2.5975757e-08 5.42402e-10 5.424016e-10
1.0848005e-09 1.6271826e-09 2.1695574e-09 2.7119036e-09 -1.7784837e-08 -1.7784826e-08 -3.556963e-08 -5.3354448e-08
-7.11393e-08 -8.89241e-08 3.1335362e-10 3.133544e-10 6.2671685e-10 9.400952e-10 1.2534964e-09 1.5669258e-09
4.2875947e-10 4.287599e-10 8.575215e-10 1.2862845e-09 1.7150513e-09 2.143822e-09 5.651622e-10 5.6516153e-10
1.1303213e-09 1.6954728e-09 2.2606177e-09 2.8257465e-09 6.6917477e-10 6.6917427e-10 1.3383449e-09 2.0075073e-09
2.676659e-09 3.345802e-09 -5.6040705e-09 -5.6040714e-09 -1.1208135e-08 -1.6812193e-08 -2.241628e-08 -2.8020262e-08
4.3487525e-09 4.348762e-09 8.69755e-09 1.3046445e-08 1.7395344e-08 2.1744407e-08 2.9926034e-10 2.9926092e-10
5.985235e-10 8.9778823e-10 1.1970629e-09 1.4963415e-09 5.6467775e-10 5.646777e-10 1.1293535e-09 1.6940266e-09
2.258696e-09 2.8233524e-09 -1.74198e-09 -1.7419779e-09 -3.4839425e-09 -5.2258695e-09 -6.967791e-09 -8.709638e-09
-1.2603612e-08 -1.26036e-08 -2.5207225e-08 -3.7810878e-08 -5.0414652e-08 -6.301839e-08 -2.3691018e-09 -2.3691005e-09
-4.738188e-09 -7.1072783e-09 -9.476327e-09 -1.1845388e-08 6.2441345e-09 6.2441394e-09 1.2488304e-08 1.8732566e-08
2.4976849e-08 3.1221354e-08 1.1447957e-08 1.1447955e-08 2.2895936e-08 3.4343977e-08 4.579196e-08 5.7240175e-08
-1.0504862e-08 -1.0504846e-08 -2.1009699e-08 -3.1514507e-08 -4.201948e-08 -5.252444e-08 -1.5205957e-10 -1.520609e-10
-3.041268e-10 -4.5620874e-10 -6.083074e-10 -7.6044615e-10 3.5769232e-09 3.5769268e-09 7.1538584e-09 1.0730812e-08
1.430783e-08 1.7884883e-08 -1.14607525e-10 -1.1460505e-10 -2.2919824e-10 -3.437645e-10 -4.582898e-10 -5.7276645e-10
1.0072878e-08 1.0072878e-08 2.0145817e-08 3.021873e-08 4.0291816e-08 5.0364974e-08 -9.454576e-10 -9.454544e-10
-1.890893e-09 -2.8362965e-09 -3.781643e-09 -4.726923e-09 -9.502479e-10 -9.502447e-10 -1.9004716e-09 -2.8506544e-09
-3.8007775e-09 -4.7508255e-09 -8.035387e-12 -8.035251e-12 -1.6069677e-11 -2.410297e-11 -3.213361e-11 -4.016158e-11
-6.6304734e-10 -6.63048e-10 -1.3260967e-09 -1.989141e-09 -2.6521927e-09 -3.315225e-09 -1.5691305e-10 -1.5691085e-10
-3.1380876e-10 -4.706845e-10 -6.275257e-10 -7.843144e-10 -4.8392432e-09 -4.8392477e-09 -9.678491e-09 -1.4517748e-08
-1.9356968e-08 -2.4196186e-08 4.3815946e-09 4.3815924e-09 8.763199e-09 1.3144734e-08 1.7526503e-08 2.19081e-08
-9.295463e-10 -9.295431e-10 -1.8590711e-09 -2.7885687e-09 -3.7180223e-09 -4.6474073e-09 6.983438e-09 6.9834316e-09
1.3966888e-08 2.0950445e-08 2.7933906e-08 3.4917637e-08 2.8671494e-11 2.8671994e-11 5.7348654e-11 8.603919e-11
00000000: 1acd a4b2 18cd a4b2 18cd 24b3 a933 77b3
00000010: 1bcd a4b3 7900 ceb3 0a32 a8b2 0232 a8b2
00000020: 0a32 28b3 384b 7cb3 2a32 a8b3 b13e d2b3
00000030: 813e 1532 7c3e 1532 9b3e 9532 17de df32
00000040: c73e 1533 b28e 3a33 b358 3630 f758 3630
00000050: 8059 b630 e9c3 0831 c85b 3631 cdf4 6331
00000060: 7971 abb1 7771 abb1 7871 2bb2 1b95 80b2
00000070: 8f71 abb2 1e4e d6b2 51c7 be2f 58c7 be2f
00000080: 68c7 3e30 7f15 8f30 6bc7 be30 5a79 ee30
00000090: 1244 d2b1 0a44 d2b1 e843 52b2 eab2 9db2
000000a0: c543 d2b2 4f6a 03b3 4de9 1332 5be9 1332
000000b0: 5ae9 9332 a3de dd32 f2e9 1333 e7e4 3833
000000c0: 42ef 52b2 3def 52b2 20ef d2b2 2033 1eb3
000000d0: b6ee 52b3 f6d4 83b3 c4d9 32b2 bfd9 32b2
000000e0: bbd9 b2b2 5523 06b3 c2d9 32b3 3d90 5fb3
000000f0: 630c 99b2 6d0c 99b2 6f0c 19b3 aa92 65b3
00000100: 850c 99b3 be4f bfb3 8b75 52b1 8075 52b1
00000110: 5475 d2b1 e8d7 1db2 c774 52b2 c388 83b2
00000120: 0b81 b2b1 1681 b2b1 0c81 32b2 cbe0 85b2
00000130: 1d81 b2b2 4b21 dfb2 2618 1530 1f18 1530
00000140: 0618 9530 66a3 df30 4217 1531 505c 3a31
00000150: 45c5 98b2 3fc5 98b2 39c5 18b3 d627 65b3
00000160: 3ec5 98b3 8af6 beb3 9a44 ac2f b644 ac2f
00000170: 4745 2c30 a934 8130 7c47 ac30 4d5b d730
00000180: 88b6 eb2f 97b6 eb2f b6b6 6b30 1dc9 b030
00000190: 01b7 eb30 8452 1331 c159 1b30 b559 1b30
000001a0: a559 9b30 2506 e930 3559 1b31 0f2f 4231
000001b0: fdf0 3730 f4f0 3730 d3f0 b730 71f4 0931
000001c0: 48f0 3731 f9eb 6531 ed8d c0b1 ef8d c0b1
000001d0: e68d 40b2 676a 90b2 ec8d c0b2 35b1 f0b2
000001e0: 086c 9531 1d6c 9531 3b6c 1532 df22 6032
000001f0: c46c 9532 75c8 ba32 2685 a42f 3b85 a42f
00000200: 5985 2430 3bc8 7630 e885 a430 d6a7 cd30
00000210: aa37 1b30 a937 1b30 9837 9b30 43d3 e830
00000220: 6637 1b31 f104 4231 796a efb0 666a efb0
00000230: 2a6a 6fb1 3c8f b3b1 5669 efb1 65a1 15b2
00000240: 4687 58b2 3887 58b2 4687 d8b2 8065 22b3
00000250: 7f87 58b3 ba54 87b3 aecd 22b1 a8cd 22b1
00000260: 8bcd a2b1 4834 f4b1 54cd 22b2 9180 4bb2
00000270: fd8b d631 088c d631 248c 5632 59e9 a032
00000280: ac8c d632 3e18 0633 a6ac 4432 a3ac 4432
00000290: b2ac c432 9a81 1333 cbac 4433 3dd8 7533
000002a0: df78 34b2 cd78 34b2 d178 b4b2 915a 07b3
000002b0: e878 34b3 3c97 61b3 f730 27af 5731 27af
000002c0: 0b32 a7af accd faaf d435 27b0 a407 51b0
000002d0: e6cd 7531 f6cd 7531 01ce f531 9c5a 3832
000002e0: 80ce 7532 46a1 9932 4d06 fcae e804 fcae
000002f0: 9201 7caf 8dfc bcaf 8ef2 fbaf db70 1db0
00000300: fc0c 2d32 fc0c 2d32 1f0d ad32 d8c9 0133
00000310: 520d 2d33 e050 5833 55f1 81b0 38f1 81b0
00000320: f1f0 01b1 a8e8 42b1 afef 81b1 746a a2b1
00000330: e099 82b0 c399 82b0 7399 02b1 3ee5 43b1
00000340: fe97 82b1 b43c a3b1 2a5c 0dad 8e5b 0dad
00000350: b259 8dad 1003 d4ad 3a53 0dae eba1 30ae
00000360: cf41 36b0 db41 36b0 e141 b6b0 57b1 08b1
00000370: de41 36b1 0ed2 63b1 1987 2caf 7a86 2caf
00000380: a884 acaf 7a61 01b0 327e 2cb0 3897 57b0
00000390: 6f46 a6b1 7946 a6b1 7446 26b2 bb69 79b2
000003a0: 6c46 a6b2 fad7 cfb2 ea8c 9631 e58c 9631
000003b0: f58c 1632 27d3 6132 308d 9632 6c30 bc32
000003c0: 0183 7fb0 c882 7fb0 4082 ffb0 05a1 3fb1
000003d0: 2480 7fb1 07af 9fb1 f8f2 ef31 eaf2 ef31
000003e0: 06f3 6f32 84f6 b332 4ff3 ef32 59f8 1533
000003f0: 7732 fc2d 9733 fc2d d838 7c2e c233 bd2e

exp_avg_sq f4 [100, 6]
2.6018836e-12 2.6018827e-12 1.04075195e-11 2.3416883e-11 4.1629953e-11 6.504669e-11 2.7424853e-12 2.7424848e-12
1.09699316e-11 2.46823e-11 4.3879612e-11 6.856174e-11 6.4970967e-13 6.497094e-13 2.5988354e-12 5.8473803e-12
1.039531e-11 1.6242634e-11 2.9812832e-14 2.9812758e-14 1.1924997e-13 2.683103e-13 4.769875e-13 7.452771e-13
1.619564e-13 1.6195636e-13 6.4782495e-13 1.4576034e-12 2.591297e-12 4.048892e-12 1.0725418e-15 1.0725413e-15
4.290156e-15 9.652785e-15 1.716042e-14 2.681284e-14 1.9039827e-13 1.9039826e-13 7.615928e-13 1.7135828e-12
3.0463696e-12 4.7599446e-12 1.0971597e-12 1.097159e-12 4.388623e-12 9.874375e-12 1.755434e-11 2.7428495e-11
6.002044e-13 6.002044e-13 2.4008172e-12 5.4018443e-12 9.603292e-12 1.5005172e-11 6.3162474e-13 6.316247e-13
2.5264985e-12 5.684614e-12 1.0105983e-11 1.579059e-11 2.2649415e-12 2.2649415e-12 9.059759e-12 2.0384427e-11
3.623897e-11 5.662318e-11 3.0442354e-14 3.0442334e-14 1.2176916e-13 2.7397924e-13 4.870744e-13 7.610492e-13
1.7577952e-13 1.757795e-13 7.031175e-13 1.5820115e-12 2.8124601e-12 4.394469e-12 7.8414663e-16 7.841455e-16
3.1365732e-15 7.0572515e-15 1.2546125e-14 1.960313e-14 2.120962e-12 2.120962e-12 8.483844e-12 1.9088618e-11
3.3935323e-11 5.3023787e-11 3.0680988e-15 3.0680927e-15 1.22723165e-14 2.7612473e-14 4.9088155e-14 7.669902e-14
1.3692031e-15 1.3692023e-15 5.476796e-15 1.2322744e-14 2.19069e-14 3.4229235e-14 1.0889753e-15 1.0889755e-15
4.355899e-15 9.800763e-15 1.7423603e-14 2.7224339e-14 1.8145703e-15 1.8145688e-15 7.258272e-15 1.6331098e-14
2.903305e-14 4.5364086e-14 1.9669436e-13 1.9669432e-13 7.867768e-13 1.7702478e-12 3.1471013e-12 4.917336e-12
3.0923278e-13 3.092327e-13 1.2369273e-12 2.78307e-12 4.9476478e-12 7.730625e-12 1.4515371e-15 1.4515365e-15
5.806137e-15 1.3063778e-14 2.3224437e-14 3.6288057e-14 1.3759139e-15 1.375912e-15 5.5036224e-15 1.2383087e-14
2.2014132e-14 3.439673e-14 9.81099e-15 9.810988e-15 3.9243887e-14 8.829852e-14 1.5697446e-13 2.4527095e-13
1.211876e-12 1.2118759e-12 4.847503e-12 1.0906851e-11 1.9389993e-11 3.0296814e-11 3.2514745e-14 3.2514735e-14
1.3005871e-13 2.9263145e-13 5.202325e-13 8.128603e-13 4.411472e-13 4.4114704e-13 1.7645849e-12 3.970308e-12
7.0582954e-12 1.1028528e-11 1.0292277e-12 1.029227e-12 4.1169047e-12 9.263028e-12 1.6467572e-11 2.5730557e-11
7.506226e-13 7.506225e-13 3.002489e-12 6.755596e-12 1.2009937e-11 1.8765507e-11 4.5011284e-15 4.5011174e-15
1.800428e-14 4.0509086e-14 7.2014606e-14 1.1251975e-13 1.360552e-13 1.3605516e-13 5.4421983e-13 1.2244922e-12
2.1768672e-12 3.4013382e-12 5.6754075e-15 5.6753757e-15 2.27012e-14 5.107652e-14 9.0799947e-14 1.4186899e-13
8.9055174e-13 8.905515e-13 3.5622026e-12 8.014931e-12 1.4248771e-11 2.2263585e-11 2.891645e-15 2.8916242e-15
1.1566234e-14 2.6023046e-14 4.626082e-14 7.2277735e-14 3.6607815e-15 3.660758e-15 1.4642675e-14 3.294472e-14
5.8565234e-14 9.1501764e-14 6.962282e-18 6.962246e-18 2.784846e-17 6.265716e-17 1.1138593e-16 1.7403087e-16
6.1564832e-15 6.156477e-15 2.4625797e-14 5.540769e-14 9.85016e-14 1.5390712e-13 2.76687e-15 2.766857e-15
1.10672715e-14 2.4900807e-14 4.4266782e-14 6.916408e-14 1.489496e-13 1.489496e-13 5.9579804e-13 1.3405448e-12
2.3831874e-12 3.7237245e-12 1.9707226e-13 1.9707222e-13 7.882871e-13 1.7736382e-12 3.153131e-12 4.9267443e-12
2.3208006e-15 2.3207824e-15 9.282941e-15 2.0885903e-14 3.7128693e-14 5.801003e-14 4.0440516e-13 4.0440505e-13
1.6176186e-12 3.639644e-12 6.4704574e-12 1.01100656e-11 9.152072e-16 9.152053e-16 3.660788e-15 8.236652e-15
00000000: 5e17 372c 5a17 372c 4d17 372d 22fa cd2d
00000010: 2917 372e 080a 8f2e 39fc 402c 37fc 402c
00000020: 2efc 402d 991b d92d 0dfc 402e d4c4 962e
00000030: 84e0 362b 7fe0 362b 75e0 362c 85bc cd2c
00000040: 50e0 362d 29df 8e2d db43 0629 c543 0629
00000050: 7743 062a 970b 972a 9242 062b e0c6 512b
00000060: c158 362a be58 362a b558 362b b223 cd2b
00000070: a858 362c 2d75 8e2c cf91 9a26 ca91 9a26
00000080: b491 9a27 9de3 2d28 3c91 9a28 3382 f128
00000090: 915e 562a 905e 562a 8b5e 562b 542a f12b
000000a0: 845e 562c c579 a72c 5869 9a2b 5269 9a2b
000000b0: 3469 9a2c 3bb6 2d2d dc68 9a2d 7b43 f12d
000000c0: 49f1 282b 49f1 282b 47f1 282c 7d0f be2c
000000d0: 62f1 282d a5fc 832d 5cc9 312b 5bc9 312b
000000e0: 5ac9 312c 7302 c82c 4dc9 312d 3fe5 8a2d
000000f0: 8f61 1f2c 8f61 1f2c 8761 1f2d a64d b32d
00000100: 7461 1f2e 0808 792e a519 0929 9f19 0929
00000110: 9219 092a 923c 9a2a 6919 092b 6037 562b
00000120: ffe8 452a fee8 452a f5e8 452b f9a5 de2b
00000130: c7e8 452c dc9d 9a2c cf03 6226 ba03 6226
00000140: 9003 6227 a843 fe27 ca02 6228 be91 b028
00000150: db3f 152c db3f 152c d63f 152d bfe7 a72d
00000160: c73f 152e 7a33 692e 6f14 5d27 5214 5d27
00000170: 1214 5d28 07b6 f828 ca12 5d29 fab5 ac29
00000180: ae52 c526 a652 c526 8752 c527 a0fc 5d28
00000190: df51 c528 9f27 1a29 19f0 9c26 1bf0 9c26
000001a0: 14f0 9c27 0b8e 3028 18f0 9c28 0d37 f528
000001b0: eac0 0227 e3c0 0227 dfc0 0228 f318 9328
000001c0: d4c0 0229 3b4d 4c29 4a75 5d2a 4775 5d2a
000001d0: 3e75 5d2b e623 f92b 2375 5d2c 6d03 ad2c
000001e0: 2415 ae2a 2115 ae2a 0115 ae2b 55d7 432c
000001f0: 7314 ae2c a4ff 072d 4430 d126 3f30 d126
00000200: 2930 d127 0b56 6b28 e82f d128 486d 2329
00000210: 434a c626 314a c626 f549 c627 e912 5f28
00000220: 2249 c628 bbe8 1a29 35bd 3028 32bd 3028
00000230: 1fbd 3029 a2d4 c629 cfbc 302a 4513 8a2a
00000240: 6f8e aa2b 6e8e aa2b 6d8e aa2c 17e0 3f2d
00000250: 628e aa2d 2e3f 052e f36e 1229 f06e 1229
00000260: df6e 122a a3bc a42a b46e 122b c2cc 642b
00000270: 0358 f82a fd57 f82a df57 f82b 5bb1 8b2c
00000280: 7957 f82c 1304 422d d6d9 902b d0d9 902b
00000290: c8d9 902c f8f4 222d add9 902d 1054 e22d
000002a0: 0f48 532b 0d48 532b 0948 532c 00b1 ed2c
000002b0: f347 532d 2a10 a52d 952b a227 7b2b a227
000002c0: 0b2b a228 cc6f 3629 9829 a229 385f fd29
000002d0: 3e2f 192a 3b2f 192a 2c2f 192b fb54 ac2b
000002e0: f42e 192c 1059 6f2c 657a cc27 1a7a cc27
000002f0: 6779 cc28 3807 6629 9b76 cc29 f4ba 1f2a
00000300: 04ab 7a2b 00ab 7a2b f0aa 7a2c 0a00 0d2d
00000310: c3aa 7a2d 23d5 c32d 6f5d 5027 0d5d 5027
00000320: d75b 5028 0f65 ea28 1857 5029 47c1 a229
00000330: c0e4 8327 88e4 8327 b6e3 8328 ad5e 1429
00000340: 8fe0 8329 2d0b ce29 726e 0023 476e 0023
00000350: a96d 0024 427a 9024 536b 0025 d9a4 4825
00000360: 89cf dd27 7acf dd27 39cf dd28 b888 7929
00000370: 4ece dd29 b548 2d2a be5f 4727 815f 4727
00000380: c85e 4728 5a49 e028 205c 4729 61be 9b29
00000390: cdb3 272a cdb3 272a c6b3 272b 37aa bc2b
000003a0: b0b3 272c 5404 832c 36e2 5d2a 33e2 5d2a
000003b0: 12e2 5d2b 0d9e f92b c2e1 5d2c 2b58 ad2c
000003c0: 373b 2727 e13a 2727 023a 2728 9d1f bc28
000003d0: 7836 2729 81a0 8229 eda8 e32a e9a8 e32a
000003e0: daa8 e32b 000f 802c b3a8 e32c b0db 312d
000003f0: 30e5 8326 1ee5 8326 cfe4 8327 da60 1428

exp_avg f4 [100]
-4.4386874e-05 -4.461205e-05 1.8409992e-05 2.8394863e-06 -1.1718988e-05 3.065046e-07 -1.3444316e-05 1.9977733e-05
-2.5418085e-05 -2.4321002e-05 -4.1713352e-05 -5.1660572e-06 -1.1971826e-05 9.794675e-07 -4.057879e-05 1.2539735e-07
2.5487955e-07 9.714634e-07 1.2783759e-06 -1.3116491e-05 1.0814886e-05 8.5924376e-07 2.3731137e-07 -3.0325932e-06
-2.9071885e-05 -4.820858e-06 1.3704438e-05 2.4593037e-05 -2.3500626e-05 1.5643296e-07 8.2565375e-06 2.8492815e-07
2.108019e-05 -3.9574903e-07 -5.3726257e-07 3.3022902e-09 -1.3557501e-06 1.0755407e-07 -1.1378216e-05 9.901302e-06
-3.319525e-07 1.4970318e-05 1.5386989e-07 2.7105082e-06 -2.469378e-05 1.8289953e-05 2.6479045e-05 -3.922426e-05
-7.90967e-06 -4.7221674e-05 -2.9171442e-06 2.2977695e-09 -1.4640425e-06 -4.7775598e-06 -8.129231e-06 2.088794e-07
-7.0417714e-06 2.6368487e-05 2.7661633e-07 -3.175259e-05 5.8111476e-07 -4.2167176e-05 1.2552531e-06 3.9160095e-06
-5.106372e-05 -2.1325099e-05 -1.4732974e-09 1.3401109e-05 2.8405193e-05 -2.5803996e-07 4.4078521e-07 -2.2115211e-05
1.6271544e-07 1.6289703e-05 -4.6792342e-05 2.988406e-06 -4.41377e-05 1.976257e-05 2.915381e-05 1.3021453e-05
-2.5050242e-06 -6.0838656e-06 -2.4924686e-05 -4.8982306e-06 1.0890235e-05 -2.3229177e-05 2.1478869e-05 -2.3311848e-06
-1.2649111e-06 6.529827e-07 2.8908651e-05 -2.4272653e-05 -4.4323073e-07 5.6004234e-07 -4.730702e-05 9.79344e-07
7.5681777e-07 1.3753944e-07 -3.2099124e-05 2.2850602e-07
00000000: 0b2c 3ab8 d31d 3bb8 286f 9a37 018e 3e36
00000010: ac9c 44b7 ac8d a434 e68e 61b7 db95 a737
00000020: ec38 d5b7 f404 ccb7 5ff5 2eb8 1858 adb6
00000030: 9ada 48b7 3f76 8335 2533 2ab8 f6a4 0634
00000040: 61d6 8834 3a63 8235 a994 ab35 e60e 5cb7
00000050: 9571 3537 c8a6 6635 a7cf 7e34 8e83 4bb6
00000060: 66df f3b7 dbc2 a1b6 1dec 6537 254d ce37
00000070: 3623 c5b7 f7f7 2734 8f85 0a37 3af8 9834
00000080: 5dd5 b037 5577 d4b4 6738 10b5 81ee 6231
00000090: 38f7 b5b5 7af8 e633 11e5 3eb7 c51d 2637
000000a0: 3437 b2b4 0729 7b37 6f37 2534 2de6 3536
000000b0: 7d25 cfb7 606d 9937 511f de37 ba84 24b8
000000c0: c6b3 04b7 e30f 46b8 28c4 43b6 cae6 1d31
000000d0: 1e80 c4b5 ed4e a0b6 c862 08b7 5548 6034
000000e0: 5b48 ecb6 e531 dd37 dc81 9434 152e 05b8
000000f0: e7fd 1b35 a9dc 30b8 2b7a a835 4466 8336
00000100: 402d 56b8 4de3 b2b7 0b7d cab0 53d5 6037
00000110: b047 ee37 be88 8ab4 0fa5 ec34 0e84 b9b7
00000120: e1b6 2e34 dfa5 8837 e542 44b8 6d8c 4836
00000130: 7f20 39b8 ccc7 a537 558f f437 b776 5a37
00000140: fd1b 28b6 0224 ccb6 5b15 d1b7 7b5b a4b6
00000150: 34b5 3637 47dc c2b7 852d b437 7371 1cb6
00000160: 04c6 a9b5 a148 2f35 db80 f237 209d cbb7
00000170: 2bf5 edb4 d155 1635 876b 46b8 0172 8335
00000180: 1f28 4b35 8eae 1334 2ca2 06b8 425b 7534
