TSTE-R/Qcontrol-noisy-comparison/Noisy-5%/Proposed_4090_noisy0.05/save_model_0222.ckpt-100000.pt (torch, 270738 bytes, 24 tensors)

linears.0.weight f4 [100, 6]
2.9454548 3.0398893 3.152001 2.995693 3.1469178 3.0371816 -2.9011767 -2.72111
-2.9550557 -2.7646484 -2.7563486 -2.790765 2.6414855 2.5662763 2.589554 2.356072
2.6988237 2.463008 -1.9894733 -2.1315238 -2.2813036 -2.2839534 -2.008963 -2.361714
3.6845725 3.6621692 3.858639 3.4517655 3.8411846 3.8094566 -2.107814 -2.16083
-2.2924035 -2.412829 -2.4931397 -2.4950671 -1.9397008 -1.8285918 -1.9427537 -1.81947
-1.5802618 -1.6197554 -3.1582937 -3.1526935 -2.8745632 -3.1750524 -2.8282282 -3.0737004
2.7836416 2.7973235 2.8281965 2.5362277 2.9134068 2.575392 -2.9642074 -3.2622418
-3.2256205 -3.2679186 -3.1328287 -2.8443675 0.12975547 -0.031606086 -0.062599644 0.013188436
-0.106360845 -0.04561259 -2.1403646 -2.2148702 -2.3109417 -1.9495893 -2.1825683 -2.3994036
1.9928122 2.1643765 1.889643 2.058627 2.1775398 2.2747288 -1.4825671 -1.7672449
-1.6641512 -1.5775332 -1.4625539 -1.7161654 1.6411488 1.6810243 1.6953561 1.7968382
1.9179804 1.6317053 3.9501889 3.9444547 4.0881147 3.8599482 4.0619607 4.057436
2.9018164 3.128743 2.8448756 3.0113664 2.8872588 3.1563013 -1.1526091 -1.43366
-1.45671 -1.5416497 -1.1394813 -1.4178971 -2.6762526 -2.7261856 -2.7600408 -2.8062353
-2.4854753 -2.562598 -2.2761672 -2.0822358 -2.3865051 -2.1697588 -2.3921463 -2.3914795
3.2388008 3.3793612 3.2042747 3.3893723 3.3413172 3.5795507 2.6867445 2.3773375
2.4526482 2.5911496 2.7598002 2.750496 3.3622377 3.1419427 2.9952028 3.018357
3.2123928 3.3801734 -2.6982088 -2.5294878 -2.7667308 -2.7456126 -2.6711383 -2.42554
2.5148273 2.4656522 2.8471453 2.69006 2.846032 2.7595263 2.266786 2.1932535
2.39551 2.3187091 2.5482073 2.258401 -2.2266445 -2.0629964 -2.1466115 -2.226567
-2.512777 -2.5419009 -1.1674511 -1.3949991 -1.2257416 -1.3378664 -1.3616022 -1.3850656
2.5392332 2.5992005 2.43119 2.835189 2.7143083 2.5681477 2.5683324 2.7533882
2.628857 2.7471411 2.633423 2.7559865 -3.0982044 -2.7546396 -3.152407 -3.0253196
-3.0711763 -3.08776 -2.9695706 -3.1740503 -3.0088027 -2.7916417 -2.935 -3.1479213
-2.1829 -2.0926795 -2.1851728 -2.5195532 -2.4741387 -2.2104337 1.8343552 1.7858572
1.9007738 1.9937485 1.6724225 1.7561759 -2.8709948 -3.0354626 -3.07062 -3.107823
-2.9574695 -3.1410265 2.7913542 2.9911277 3.077864 3.1070352 2.9889731 2.8919384
1.0842419 1.4071752 1.1273168 1.4411936 1.4909035 1.1042058 2.3356662 2.6055737
2.458242 2.4773808 2.504473 2.5573165 -2.5381343 -2.332388 -2.4386497 -2.3981445
-2.3211443 -2.530997 -1.0699997 -1.2792298 -1.229951 -0.9836263 -1.3471694 -1.1677582
-2.0375018 -2.167964 -2.1553106 -2.0462992 -2.428925 -2.4191139 -1.7454053 -1.9064387
-1.8474357 -1.8985548 -1.9281658 -1.9959415 2.3746166 2.4065843 2.7784603 2.7915936
00000000: 5582 3c40 8c8d 4240 62ba 4940 6fb9 3f40
00000010: 1a67 4940 2f61 4240 e1ac 39c0 ab26 2ec0
00000020: a21f 3dc0 00f0 30c0 0468 30c0 e59b 32c0
00000030: 190e 2940 df3d 2440 41bb 2540 e2c9 1640
00000040: 87b9 2c40 eca1 1d40 10a7 febf e36a 08c0
00000050: e100 12c0 4b2c 12c0 da92 00c0 5226 17c0
00000060: 09d0 6b40 fb60 6a40 f1f3 7640 bae9 5c40
00000070: f8d5 7540 23ce 7340 6de6 06c0 0a4b 0ac0
00000080: bdb6 12c0 ca6b 1ac0 9a8f 1fc0 2eaf 1fc0
00000090: 1e48 f8bf 4c0f eabf 27ac f8bf 65e4 e8bf
000000a0: 0546 cabf 2554 cfbf 7c21 4ac0 bbc5 49c0
000000b0: d8f8 37c0 0f34 4bc0 b101 35c0 82b7 44c0
000000c0: 2f27 3240 5907 3340 2c01 3540 8e51 2240
000000d0: 4275 3a40 39d3 2440 93b5 3dc0 92c8 50c0
000000e0: 9170 4ec0 9425 51c0 4480 48c0 1e0a 36c0
000000f0: 9ede 043e 6275 01bd 3e34 80bd 4f14 583c
00000100: b7d3 d9bd 44d4 3abd bcfb 08c0 6fc0 0dc0
00000110: 78e6 13c0 248c f9bf 33af 0bc0 d48f 19c0
00000120: 7814 ff3f 2585 0a40 d2df f13f 8bc0 0340
00000130: d05c 0b40 2895 1140 c2c4 bdbf 1535 e2bf
00000140: e802 d5bf 9cec c9bf f734 bbbf 4fab dbbf
00000150: 2a11 d23f ce2b d73f 6e01 d93f cbfe e53f
00000160: 6280 f53f b8db d03f e5cf 7c40 f271 7c40
00000170: d6d1 8240 6409 7740 95fb 8140 84d6 8140
00000180: 5cb7 3940 533d 4840 7112 3640 3aba 4040
00000190: d9c8 3840 d700 4a40 b288 93bf 2c82 b7bf
000001a0: 7975 babf c754 c5bf 86da 91bf a77d b5bf
000001b0: b947 2bc0 d379 2ec0 82a4 30c0 5c99 33c0
000001c0: 0712 1fc0 9b01 24c0 b9ac 11c0 5a43 05c0
000001d0: 80bc 18c0 54dd 0ac0 ed18 19c0 000e 19c0
000001e0: 8348 4f40 7447 5840 d612 4d40 7aeb 5840
000001f0: 24d8 5540 5c17 6540 9ff3 2b40 4c26 1840
00000200: 30f8 1c40 65d5 2540 91a0 3040 2008 3040
00000210: e72e 5740 9715 4940 67b1 3f40 c32c 4140
00000220: d897 4d40 c354 5840 74af 2cc0 21e3 21c0
00000230: 1e12 31c0 1eb8 2fc0 eef3 2ac0 0c3c 1bc0
00000240: eef2 2040 3fcd 1d40 a137 3640 f129 2c40
00000250: 6325 3640 149c 3040 0613 1140 445e 0c40
00000260: 0950 1940 bb65 1440 d415 2340 a489 1040
00000270: 5881 0ec0 2208 04c0 1562 09c0 1380 0ec0
00000280: 57d1 20c0 81ae 22c0 0a6f 95bf 558f b2bf
00000290: 1ae5 9cbf 353f abbf fb48 aebf d449 b1bf
000002a0: cc82 2240 4d59 2640 9e98 1b40 bd73 3540
000002b0: 3ab7 2d40 885c 2440 8f5f 2440 8337 3040
000002c0: 313f 2840 29d1 2f40 018a 2840 1562 3040
000002d0: fb48 46c0 044c 30c0 09c1 49c0 d69e 41c0
000002e0: 278e 44c0 dc9d 45c0 720d 3ec0 a423 4bc0
000002f0: 3990 40c0 42aa 32c0 0ad7 3bc0 8b77 49c0
00000300: a2b4 0bc0 76ee 05c0 dfd9 0bc0 5c40 21c0
00000310: 4a58 1ec0 bf77 0dc0 27cc ea3f f896 e43f
00000320: 8e4c f33f 2733 ff3f f111 d63f 5fca e03f
00000330: 61be 37c0 0545 42c0 0a85 44c0 92e6 46c0
00000340: 2e47 3dc0 9406 49c0 8ca5 3240 a36e 3f40
00000350: b9fb 4440 aad9 4640 564b 3f40 8515 3940
00000360: 70c8 8a3f 511e b43f eb4b 903f 0879 b83f
00000370: edd5 be3f 9e56 8d3f 8e7b 1540 b8c1 2640
00000380: d653 1d40 688d 1e40 4949 2040 13ab 2340
00000390: cb70 22c0 d845 15c0 d612 1cc0 337b 19c0
000003a0: a18d 14c0 dbfb 21c0 c0f5 88bf cdbd a3bf
000003b0: 096f 9dbf efce 7bbf 0c70 acbf 1a79 95bf
000003c0: 6e66 02c0 ecbf 0ac0 9cf0 09c0 91f6 02c0
000003d0: 8273 1bc0 c3d2 1ac0 7169 dfbf 2f06 f4bf
000003e0: c678 ecbf d803 f3bf 23ce f6bf 037b ffbf
000003f0: b8f9 1740 7a05 1a40 4bd2 3140 78a9 3240

linears.0.bias f4 [100]
-0.016593516 -0.008354959 0.015486153 0.11552612 0.16874036 -0.009428999 0.10283344 0.014376338
-0.07829707 0.013961269 0.15913248 -0.054331526 0.06341708 0.1076956 0.06474112 0.2527431
0.04541772 -0.03466583 -0.001380954 -0.017226934 0.082025595 0.07710896 0.11230526 0.0010838425
0.052889325 0.08576618 -0.15213262 -0.12661351 0.05438803 0.0438457 0.14168799 -0.08447258
-0.048640594 -0.120758474 0.027611438 0.078455836 -0.089349255 -0.11354176 -0.014879219 0.1313895
0.1009361 0.09726381 -0.055673122 0.4559791 0.17838986 -0.03694993 -0.10534533 -0.00994664
0.04432766 -0.03427357 -0.1387892 -0.32513368 0.034183584 -0.045068417 -0.08509151 0.30584863
-0.023623873 -0.03342594 0.045005374 0.15763876 -0.009709181 -0.02576631 -0.0028434293 0.044144686
0.045190144 -0.017604386 0.037183374 -0.104625344 0.030634653 -0.10846477 -0.04796355 -0.0974144
-0.094608925 0.07938036 0.15774919 -0.059674103 -0.10252185 0.022078227 0.05072642 -0.018025924
-0.05061673 -0.052721437 0.020786943 0.13395645 -0.030503977 -0.0135198 0.14836723 -0.0007772977
0.07138612 0.044251524 0.09487141 -0.12686218 0.06054616 0.09479072 0.027890336 -0.12218682
-0.20720525 -0.22040643 -0.044982705 -0.058742844
00000000: 20ef 87bc 3de3 08bc a2b9 7d3c f598 ec3d
00000010: 46ca 2c3e 177c 1abc 579a d23d bb8a 6b3c
00000020: 375a a0bd cebd 643c a0f3 223e bc8a 5ebd
00000030: d0e0 813d 838f dc3d fe96 843d 8b67 813e
00000040: ee07 3a3d c2fd 0dbd 2101 b5ba 801f 8dbc
00000050: 09fd a73d 4deb 9d3d 4d00 e63d b80f 8e3a
00000060: 7aa2 583d 2ea6 af3d a7c8 1bbe f9a6 01be
00000070: fcc5 5e3d 8c97 333d a816 113e f6ff acbd
00000080: 5c3b 47bd 3850 f7bd 6231 e23c 74ad a03d
00000090: befc b6bd 9588 e8bd f8c7 73bc f88a 063e
000000a0: 96b7 ce3d 4032 c73d 8009 64bd 1876 e93e
000000b0: d5ab 363e cf58 17bd 4bbf d7bd 3bf7 22bc
000000c0: ec90 353d 7162 0cbd c21e 0ebe ec77 a6be
000000d0: 1604 0c3d a999 38bd 7544 aebd 3198 9c3e
000000e0: da86 c1bc a3e9 08bd 8e57 383d 0e6c 213e
000000f0: 4213 1fbc de13 d3bc d458 3abb 0fd1 343d
00000100: 4d19 393d 1337 90bc 984d 183d d045 d6bd
00000110: 86f5 fa3c c722 debd 6d75 44bd 3381 c7bd
00000120: 53c2 c1bd 2c92 a23d 0189 213e d56c 74bd
00000130: faf6 d1bd 66dd b43c 82c6 4f3d 1aab 93bc
00000140: 7d53 4fbd 6ff2 57bd 6149 aa3c e12b 093e
00000150: 7ae3 f9bc 2782 5dbc 94ed 173e 91c3 4bba
00000160: e332 923d 1641 353d f14b c23d 29e8 01be
00000170: 40ff 773d a321 c23d 467a e43c 153d fabd
00000180: 9d2d 54be 39b2 61be c93f 38bd 569c 70bd

linears.1.weight f4 [100, 100]
1.6212757 -0.5379073 0.29806897 -0.2502305 1.2088306 -0.42783004 -0.107159555 -0.74249065
0.3232743 -0.55267626 0.049271714 -0.27279735 0.07181704 -0.28619537 0.38409284 1.1669049
0.5404639 -0.21179552 -0.37891316 -0.43937838 0.47496608 0.4284845 0.61341596 -0.5855567
0.3786764 0.49056205 -0.07551037 -0.14034507 0.50865614 0.21517488 -0.79533553 -0.26633385
-0.4071589 0.20586468 -1.0804621 0.45708594 0.13259484 0.4706007 -0.132974 -0.14969087
-0.42147005 -0.23622207 0.5802766 -1.435879 -0.6463091 1.1504148 0.13781928 -0.2009899
0.40046847 -0.46832082 0.11610216 -0.14773834 0.38562632 -0.45976773 0.028564781 0.20953979
-0.43422925 -0.43245712 0.2993234 -0.122270554 -0.14567654 -0.081536695 -0.40724885 0.58389086
0.30200562 1.5459872 0.3671646 -0.10233163 -1.0722961 -0.014860599 -0.2587158 0.068917
-0.025654824 0.99400085 -0.14518537 -0.42227426 0.31241998 0.43000174 0.18490118 -0.183039
-0.21912476 -0.18949126 -0.6991592 -0.39009547 -0.38742563 -0.49772218 0.144781 -0.6019598
0.4902695 0.63517857 0.2714178 0.14256117 0.03015294 0.3821967 -1.0355265 0.20151788
-0.17100152 -0.14024696 -0.28779486 -0.035698816 0.76356333 -0.82021815 0.59681994 -0.2628618
0.86707425 -0.34825948 -0.12661307 -0.7558024 0.089593925 -1.0094705 0.21598376 -0.43204623
0.33760425 -0.037771836 0.069732875 0.6310656 0.5720626 -0.021725211 -0.48047116 -0.51736003
0.30148882 0.38486695 0.2577593 -0.8266904 0.31353796 0.3913076 -0.13457054 -0.16873573
0.3752741 0.5869605 -0.1760342 -0.37225726 -0.314724 0.10545068 -0.7197874 0.45843282
0.0058621005 0.26993975 -0.58733666 0.1846461 -0.18716484 -0.2155847 0.42118263 -0.42765367
-0.039724737 0.38433394 -0.15206967 -0.60205096 0.39282635 -0.46922493 0.0737506 -0.036636733
0.65276366 -0.61141545 -0.046990655 0.2086391 -0.38500434 -0.5637928 0.52717835 -0.14570118
-0.5127206 -0.28836977 -0.75583386 0.6750372 0.46958745 0.6826257 0.4564938 -0.26364538
-0.698113 0.21538188 -0.26261076 -0.26467562 0.123973176 0.65530163 -0.15022895 -0.44829735
0.11625894 0.5303913 0.45184767 -0.41191638 -0.21837753 -0.16635205 -1.0165813 -0.16416408
-0.41258186 -0.45455232 0.18013003 -0.741782 0.5897995 0.40435654 0.34612164 0.000265943
0.11001311 0.60454667 -0.7274249 0.10192236 -0.3294232 0.006090524 -0.31291923 -0.028560452
-2.171198 0.66053957 -0.7416993 0.39227915 -0.41079414 0.41932395 0.11515941 1.2505118
-0.5529922 1.1291163 0.18701655 0.39632037 -0.14569783 0.23440918 -0.29642326 -0.4776417
-0.678119 -0.07686944 0.65885615 0.51146615 -0.47404495 -0.25297213 -0.44505885 0.84455603
-0.47632685 -0.3887997 0.25323862 -0.09628179 -0.55950487 -0.31432375 0.6728219 0.35000187
0.15001774 -0.24176872 1.7454555 -0.2659049 -0.19581185 -0.5885138 0.3503405 0.1986859
0.4717749 0.33832213 -0.7151524 0.6242384 0.42419848 -1.6556195 -0.16871205 0.48582095
-0.48516867 0.34077543 -0.210293 -0.16484144 -0.5124483 0.55046785 -0.16729394 -0.088594615
00000000: f685 cf3f 4bb4 09bf 7f9c 983e 361e 80be
00000010: f6ba 9a3f 8a0c dbbe 7876 dbbd de13 3ebf
00000020: 3684 a53e 317c 0dbf 23d1 493d 18ac 8bbe
00000030: d014 933d 3388 92be d1a7 c43e 245d 953f
00000040: d85b 0a3f ede0 58be e800 c2be 34f6 e0be
00000050: c12e f33e 5262 db3e d408 1d3f 0be7 15bf
00000060: e0e1 c13e f32a fb3e 2ea5 9abd 9eb6 0fbe
00000070: 4a37 023f ce56 5c3e 1c9b 4bbf e95c 88be
00000080: 2277 d0be 31ce 523e 954c 8abf 2b07 ea3e
00000090: f1c6 073e 93f2 f03e 562a 08be 9048 19be
000000a0: ecca d7be 33e4 71be 028d 143f e2ca b7bf
000000b0: 8374 25bf cb40 933f 7f20 0d3e 4cd0 4dbe
000000c0: 340a cd3e bfc7 efbe f8c6 ed3d b848 17be
000000d0: d070 c53e ad66 ebbe b000 ea3c 9991 563e
000000e0: 4c53 debe 056b ddbe eb40 993e fc68 fabd
000000f0: 3b2c 15be b6fc a6bd ec82 d0be df79 153f
00000100: 7ba0 9a3e e9e2 c53f 00fd bb3e 3f93 d1bd
00000110: 0041 89bf df79 73bc 6676 84be 5b24 8d3d
00000120: 112a d2bc d776 7e3f 79ab 14be 5534 d8be
00000130: 83f5 9f3e 3029 dc3e bc56 3d3e 936e 3bbe
00000140: 3e62 60be ff09 42be 19fc 32bf 98ba c7be
00000150: a75c c6be 71d5 febe 7841 143e 0a1a 1abf
00000160: 9b04 fb3e 109b 223f 46f7 8a3e 8efb 113e
00000170: 4c03 f73c 49af c33e 228c 84bf b45a 4e3e
00000180: 061b 2fbe e69c 0fbe d959 93be ec38 12bd
00000190: e378 433f d1f9 51bf 31c9 183f d295 86be
000001a0: 94f8 5d3f 114f b2be dba6 01be 447c 41bf
000001b0: 057d b73d 5436 81bf d92a 5d3e 2a35 ddbe
000001c0: 77da ac3e a4b6 1abd 1cd0 8e3d 848d 213f
000001d0: b272 123f 12f9 b1bc 5100 f6be b571 04bf
000001e0: be5c 9a3e 480d c53e 07f9 833e fba1 53bf
000001f0: 0c88 a03e 7859 c83e dccc 09be 0fc9 2cbe
00000200: ed23 c03e 0b43 163f 4f42 34be 8198 bebe
00000210: 8123 a1be 87f6 d73d fd43 38bf b5b7 ea3e
00000220: dd16 c03b 8b35 8a3e b25b 16bf de13 3d3e
00000230: 24a8 3fbe 3cc2 5cbe 40a5 d73e 6cf5 dabe
00000240: 68b6 22bd 6bc7 c43e 27b8 1bbe 0320 1abf
00000250: 8920 c93e 403e f0be 8e0a 973d 6610 16bd
00000260: 851b 273f b985 1cbf 4679 40bd 7da5 553e
00000270: 4a1f c5be ba54 10bf 29f5 063f b132 15be
00000280: a841 03bf 34a5 93be 547e 41bf 3dcf 2c3f
00000290: c46d f03e 8fc0 2e3f 8eb9 e93e 87fc 86be
000002a0: 89b7 32bf 118d 5c3e eb74 86be 9083 87be
000002b0: a6e5 fd3d d9c1 273f 9ed5 19be 3b87 e5be
000002c0: 2b19 ee3d b9c7 073f 9458 e73e b4e6 d2be
000002d0: 5c9e 5fbe 3158 2abe 561f 82bf a11a 28be
000002e0: ee3d d3be 15bb e8be 0274 383e 6de5 3dbf
000002f0: 1afd 163f d207 cf3e db36 b13e 446e 8b39
00000300: 8e4e e13d 92c3 1a3f 8538 3abf acbc d03d
00000310: 28aa a8be 0593 c73b f336 a0be 9cf7 e9bc
00000320: e8f4 0ac0 1f19 293f 01e0 3dbf d0d8 c83e
00000330: 9c53 d2be a1b1 d63e b2d8 eb3d c510 a03f
00000340: e690 0dbf e286 903f 4481 3f3e 81ea ca3e
00000350: d031 15be f608 703e cac4 97be 748d f4be
00000360: 3599 2dbf ba6d 9dbd ccaa 283f 72ef 023f
00000370: 05b6 f2be 9085 81be c1de e3be d334 583f
00000380: 1de1 f3be c110 c7be 7ea8 813e 632f c5bd
00000390: b63b 0fbf 0bef a0be 0e3e 2c3f 7233 b33e
000003a0: 409e 193e 3892 77be 166b df3f b024 88be
000003b0: e782 48be d7a8 16bf d45f b33e 5174 4b3e
000003c0: 7b8c f13e 8f38 ad3e 3a14 37bf 16ce 1f3f
000003d0: 8b30 d93e 57eb d3bf dac2 2cbe 86bd f83e
000003e0: 0768 f8be 1e7a ae3e 0c57 57be 32cc 28be
000003f0: d02f 03bf 76eb 0c3f 1a4f 2bbe 1871 b5bd

linears.1.bias f4 [100]
-0.010850307 0.12737569 -0.0062374608 -0.0138225565 0.02849089 0.030152626 0.03048415 0.13555764
-0.0045831893 0.022820082 0.17863677 -0.049149614 -0.0144480625 0.08497264 0.029860688 0.08167749
0.06745508 0.047339592 0.008224254 -0.05484158 0.074418135 -0.04448132 0.04500487 0.06166055
0.07941557 0.026304062 0.05900584 0.07373106 0.032434884 0.38792765 0.15709396 0.1626088
0.03727887 0.042677324 0.07069881 0.026643759 0.0010141133 0.087733544 -0.025010884 -0.048299134
0.07226974 0.037725978 0.043754302 0.00855137 0.042383388 0.09566679 0.009126215 0.09026144
0.15041035 -0.02648123 0.035297386 0.048169754 0.24402376 0.024351751 0.20989867 0.07831121
0.040945873 0.033643216 0.08749575 -0.013833514 0.0996609 -0.10257313 0.0048702336 0.05449736
0.030770982 0.10938036 0.10791144 0.021513741 0.04031324 0.29334554 0.120442346 0.03425761
-0.014588202 0.07565654 -0.06744704 0.0027231765 0.058640618 -0.05789617 0.10229303 0.12018009
-0.020665614 0.04029411 0.013187229 0.18014148 0.007909851 0.061814874 0.01495148 0.122265905
0.11077104 0.22945203 -0.04406101 0.1317628 -0.010405196 0.06299094 -0.0005781804 0.068519525
-0.0019707093 0.16098672 0.0027360334 0.017193021
00000000: 7cc5 31bc c66e 023e 9d63 ccbb 0178 62bc
00000010: ba65 e93c a402 f73c e5b9 f93c 9fcf 0a3e
00000020: 942e 96bb 2ef1 ba3c 8fec 363e 1b51 49bd
00000030: 91b7 6cbc 2306 ae3d 679e f43c 8746 a73d
00000040: e425 8a3d 29e7 413d 05bf 063c 91a1 60bd
00000050: 8968 983d 0b32 36bd 0757 383d c68f 7c3d
00000060: a1a4 a23d 9e7b d73c 1cb0 713d 4f00 973d
00000070: 71da 043d 749e c63e 3ddd 203e ec82 263e
00000080: bab1 183d 6bce 2e3d 8aca 903d 0344 da3c
00000090: ffeb 843a a5ad b33d a0e3 ccbc 50d5 45bd
000000a0: 2802 943d 8e86 1a3d b637 333d 0c1b 0c3c
000000b0: 349a 2d3d f3ec c33d 1f86 153c fdda b83d
000000c0: 2c05 1a3e 2aef d8bc fe93 103d a64d 453d
000000d0: 5de1 793e 537d c73c adef 563e a161 a03d
000000e0: dcb6 273d 78cd 093d f930 b33d f7a5 62bc
000000f0: 041b cc3d dc11 d2bd 7b96 9f3b a038 5f3d
00000100: 6d13 fc3c cf02 e03d ac00 dd3d 963d b03c
00000110: 7f1f 253d 6331 963e 7aaa f63d b551 0c3d
00000120: 5b03 6fbc d1f1 9a3d ac21 8abd 5277 323b
00000130: 2531 703d 8924 6dbd 027f d13d fb20 f63d
00000140: ef4a a9bc 700b 253d 3f0f 583c 0277 383e
00000150: 5298 013c 9831 7d3d 0df7 743c 8c66 fa3d
00000160: eddb e23d 79f5 6a3e 5179 34bd d4ec 063e
00000170: 8e7a 2abc 6501 813d 0891 17ba f753 8c3d
00000180: 0427 01bb b4d9 243e 064f 333b 61d8 8c3c

linears.2.weight f4 [100, 100]
0.09257901 0.018039607 0.096572466 0.10665257 0.04226723 0.1404441 0.074781604 -0.0410457
-0.052927043 0.26474577 -0.17473868 -0.05217816 0.049948547 0.09828135 0.045832563 -0.108085044
0.17736141 -0.098257124 -0.07679419 0.11326278 -0.10836005 0.13342008 -0.031164883 0.14076382
0.048579182 0.02214786 -0.007651419 0.00013009459 0.5058354 -0.15798856 -0.084846295 -0.12210297
0.1293169 -0.06499544 0.020990506 0.041761905 -0.0640313 -0.05077211 -0.00893023 0.19960313
-0.1990158 -0.1030777 -0.027014516 -0.029951159 -0.009984471 -0.13553739 0.012871206 -0.13931768
-0.13740438 0.02202477 -0.082349114 0.0018494918 -0.07007368 -0.13071673 -0.29218274 -0.15384221
-0.0879252 0.0850134 0.101610124 -0.002873334 -0.061202224 0.049770337 -0.10090801 -0.024214884
-0.020825543 -0.14706366 -0.08241423 -0.108019926 -0.022993801 -0.2253068 -0.048859667 -0.12901352
0.029931786 -0.08349578 0.13903981 -0.075092494 -0.2211129 0.055766147 -0.020415619 -0.09834213
-0.023367643 0.03769466 0.028406525 -0.100538984 -0.02852685 -0.10932004 0.060342386 -0.015850425
-0.02507339 0.16826937 -0.18082197 -0.19887139 -0.0029162539 -0.18977107 0.13901216 0.22448775
0.034788087 -0.20538771 -0.1773933 0.25384143 -0.3140418 -0.34354463 0.6562349 -0.31526974
-0.078959286 0.086420655 0.20666039 0.04274634 -0.07088954 -0.08838749 -0.15127298 -0.096626855
-0.15405908 -0.32555023 0.09054194 0.026161866 0.101844534 -0.46668488 0.09144993 -0.19334736
-0.15315194 0.038976323 -0.03237997 -0.1586649 0.26758486 -0.3263958 -0.0890183 -0.10176379
-0.47876182 -0.35218474 -0.14829788 -0.2434331 -0.08393882 -0.4485102 -0.20017344 -0.297296
-0.20635362 0.21149467 0.052537974 0.12485234 -0.16965751 -0.19594976 0.022394285 0.06091817
-0.20117041 0.10408151 0.030493751 -0.11243727 0.029033657 0.20812532 0.038538557 0.2218486
-0.11225846 -0.2358445 -0.14412624 0.09487851 -0.28799543 0.06859957 -0.10812356 -0.18329424
-0.2608275 0.20070055 0.10107081 0.08538668 0.026087238 -0.24384998 -0.19776192 0.13272078
-0.29125282 -0.042747077 -0.27954122 -0.1895919 0.010432314 0.029217102 0.26356 -0.053591695
-0.36825112 0.19542935 -0.22285977 -0.05920701 0.13955861 0.0908769 -0.12841836 -0.15155374
-0.33080706 -0.07766109 -0.06080479 -0.22168216 -0.2688765 -0.14417979 -0.2812641 0.08841078
-0.22632523 0.063865304 0.028178798 -0.41349503 -0.02024187 0.0759534 -0.21295573 0.36112943
-0.11938787 -0.11319005 -0.048101757 -0.06981843 0.15484342 0.08436814 -0.09814783 -0.07448265
0.1369899 0.16537465 0.09518884 0.13191551 0.033993308 0.12732954 -0.17749164 0.026822947
0.16042611 -0.03820997 -0.14326544 -0.057476748 -0.011695737 0.14898007 -0.078234926 0.15842165
-0.12352976 0.113964416 0.12037055 -0.1004721 0.19632971 -0.08252533 -0.08682624 0.01649637
-0.092196435 0.042594794 0.032208987 -0.03200252 -0.14063132 -0.12947573 -0.039041273 0.14045264
0.020109463 0.12948641 0.08132133 -0.16691452 -0.005102242 -0.16605893 -0.0041492637 0.08121176
-0.22847116 -0.09487394 -0.11434003 -0.016069809 0.043061037 -0.003151619 -0.12517942 -0.17785886
00000000: 109a bd3d ccc7 933c c9c7 c53d aa6c da3d
00000010: 6720 2d3d 94d0 0f3e 1927 993d 891f 28bd
00000020: 07ca 58bd c28c 873e b2ee 32be c4b8 55bd
00000030: d996 4c3d bc47 c93d edba 3b3d b15b ddbd
00000040: 3b9e 353e 083b c9bd 4646 9dbd 51f6 e73d
00000050: e0eb ddbd 469f 083e 7f4d ffbc 6424 103e
00000060: f7fa 463d 6e6f b53c c1b8 fabb 006a 0839
00000070: 6e7e 013f c1c7 21be e5c3 adbd 1f11 fabd
00000080: a66b 043e 541c 85bd 48f4 ab3c 880e 2b3d
00000090: d822 83bd 6af6 4fbd 1950 12bc c364 4c3e
000000a0: ccca 4bbe 671a d3bd 8c4d ddbc 225c f5bc
000000b0: e895 23bc 50ca 0abe c0e1 523c 4ba9 0ebe
000000c0: bcb3 0cbe 4a6d b43c a7a6 a8bd a66a f23a
000000d0: ca82 8fbd 9bda 05be fa98 95be d088 1dbe
000000e0: 2112 b4bd 811b ae3d f818 d03d 8c4e 3cbb
000000f0: 2faf 7abd fbdb 4b3d dca8 cebd 4b5e c6bc
00000100: 549a aabc db97 16be cbc8 a8bd 8d39 ddbd
00000110: 7f5d bcbc d3b6 66be 1321 48bd 1f1c 04be
00000120: 8133 f53c d6ff aabd 7460 0e3e 18ca 99bd
00000130: 6c6b 62be 0b6b 643d a83e a7bc 9967 c9bd
00000140: 806d bfbc b765 1a3d cdb4 e83c 62e7 cdbd
00000150: 24b1 e9bc 2fe3 dfbd 9429 773d c0d8 81bc
00000160: b666 cdbc ce4e 2c3e 6529 39be f1a4 4bbe
00000170: 9f1e 3fbb 5953 42be 3459 0e3e 1ee0 653e
00000180: f47d 0e3d 2851 52be 97a6 35be 81f7 813e
00000190: 16ca a0be 15e5 afbe 03ff 273f 096b a1be
000001a0: 68b5 a1bd 50fd b03d c89e 533e c916 2f3d
000001b0: 892e 91bd 8004 b5bd 4ee7 1abe 4de4 c5bd
000001c0: aac1 1dbe 85ae a6be 0d6e b93d 6951 d63c
000001d0: de93 d03d 52f1 eebe 1a4a bb3d dafc 45be
000001e0: ddd3 1cbe a3a5 1f3d dca0 04bd 0d79 22be
000001f0: e200 893e 5a1d a7be 3a4f b6bd 8969 d0bd
00000200: 4520 f5be 8f51 b4be 66db 17be 8746 79be
00000210: 1ee8 abbd 21a3 e5be 44fa 4cbe 2e37 98be
00000220: 5d4e 53be 0f92 583e 0f32 573d 95b2 ff3d
00000230: b3ba 2dbe 0ea7 48be 3874 b73c 5585 793d
00000240: 9eff 4dbe b028 d53d 08ce f93c 8345 e6bd
00000250: fed7 ed3c ce1e 553e 9bda 1d3d 482c 633e
00000260: c3e7 e5bd 3881 71be d495 13be aa4f c23d
00000270: 2374 93be ee7d 8c3d e36f ddbd 7cb1 3bbe
00000280: 2f8b 85be 7284 4d3e 36fe ce3d 36df ae3d
00000290: e7b4 d53c cfb3 79be 1a82 4abe f5e7 073e
000002a0: 171f 95be 8f17 2fbd 0720 8fbe 6124 42be
000002b0: 4cec 2a3c b458 ef3c 56f1 863e f782 5bbd
000002c0: 698b bcbe a21e 483e 5a35 64be 0d83 72bd
000002d0: 74e8 0e3e ab1d ba3d 1a80 03be e730 1bbe
000002e0: 8b5f a9be c70c 9fbd 720e 79bd a600 63be
000002f0: 2eaa 89be dea3 13be d901 90be b610 b53d
00000300: cdc1 67be d0cb 823d 39d7 e63c 9fb5 d3be
00000310: 47d2 a5bc 758d 9b3d 1111 5abe f5e5 b83e
00000320: a181 f4bd 2fd0 e7bd 5906 45bd f7fc 8ebd
00000330: 468f 1e3e 34c9 ac3d bb01 c9bd 5c8a 98bd
00000340: 1547 0c3e f957 293e 5ef2 c23d dc14 073e
00000350: 913c 0b3d ad62 023e 5ec0 35be ccbb db3c
00000360: be46 243e 0f82 1cbd 2db4 12be bd6c 6bbd
00000370: 7a9f 3fbc 3b8e 183e a239 a0bd 4939 223e
00000380: 2cfd fcbd 2d66 e93d d684 f63d 51c4 cdbd
00000390: a80a 493e 0a03 a9bd f5d1 b1bd 6523 873c
000003a0: 7cd1 bcbd e177 2e3d 92ed 033d 1315 03bd
000003b0: a801 10be 4995 04be bee9 1fbd d1d2 0f3e
000003c0: 9abc a43c 1698 043e cc8b a63d a4eb 2abe
000003d0: b530 a7bb 5a0b 2abe 8cf6 87bb 5a52 a63d
000003e0: 58f4 69be 454d c2bd 1b2b eabd d5a4 83bc
000003f0: c560 303d 658b 4ebb 092f 00be a220 36be

linears.2.bias f4 [100]
-0.06948636 -0.06406426 0.0016527787 -0.06291548 -0.053541407 -0.014379041 0.020269113 -0.057006054
-0.020360488 -0.04333224 -0.018780988 0.05126589 -0.036850564 -0.055617455 0.016677395 0.0042352336
-0.24889602 -0.08687219 -0.081468135 0.019390311 0.055579893 -0.057188567 0.061875835 -0.006651752
0.11396424 -0.09288398 -0.0002048346 -0.04549803 0.0067588934 0.0066942764 0.051723007 -0.012947654
-0.13653721 -0.015937226 0.033907294 -0.06609977 -0.045949236 -0.010673743 -0.09621621 0.16870672
0.07512399 0.14347851 -0.02781569 0.06070114 -0.076390706 -0.03378418 -0.04299503 -0.15080272
0.08075857 -0.040537465 0.22362538 -0.09395618 -0.030624058 0.014332127 0.009326763 0.013379003
0.12330547 -0.041905586 -0.09507606 0.0123734735 0.03463042 -0.09665113 0.025319427 -0.020453816
-0.13548441 -0.16172446 -0.0105919745 0.04877867 -0.085691445 -0.06301492 -0.16032383 0.12599942
-0.13582022 -0.010399827 -0.017440036 -0.04738576 -0.0631223 -0.019747779 -0.026189419 -0.06429039
-0.116655745 -0.040397145 -0.044768468 -0.09180016 -0.023908794 0.014586443 -0.06940294 -0.01911195
-0.05968823 0.13027045 -0.04133683 -0.071661025 -0.11928673 0.029472822 -0.088558525 -0.10711766
0.06462536 -0.031828556 -0.013561415 -0.63124955
00000000: dd4e 8ebd 1f34 83bd 0da2 d83a d5d9 80bd
00000010: 3c4e 5bbd 1296 6bbc 690b a63c 2e7f 69bd
00000020: 0acb a6bc 267d 31bd 96da 99bc 2ffc 513d
00000030: 9ef0 16bd 21cf 63bd 089f 883c b7c7 8a3b
00000040: 99de 7ebe 0cea b1bd c4d8 a6bd 6ed8 9e3c
00000050: bea7 633d 8f3e 6abd 8471 7d3d f1f6 d9bb
00000060: 1566 e93d f539 bebd dfc8 56b9 245c 3abd
00000070: b579 dd3b a95b db3b 81db 533d 6622 54bc
00000080: 69d0 0bbe c98e 82bc 60e2 0a3d 515f 87bd
00000090: 4435 3cbd ece0 2ebc 010d c5bd 74c1 2c3e
000000a0: 9bda 993d 08ec 123e bbdd e3bc c2a1 783d
000000b0: bb72 9cbd 4861 0abd 8e1b 30bd 076c 1abe
000000c0: c064 a53d 9d0a 26bd 0dfe 643e 196c c0bd
000000d0: 4edf fabc 4cd1 6a3c 48cf 183c 9b33 5b3c
000000e0: 9487 fc3d 31a5 2bbd 3db7 c2bd 1cba 4a3c
000000f0: a1d8 0d3d 07f1 c5bd b06a cf3c c38e a7bc
00000100: 6dbc 0abe 199b 25be f689 2dbc 25cc 473d
00000110: ff7e afbd f70d 81bd ee2b 24be fe05 013e
00000120: 7514 0bbe 0964 2abc 68de 8ebc 9217 42bd
00000130: 4446 81bd 18c6 a1bc 318b d6bc aeaa 83bd
00000140: 35e9 eebd 7a77 25bd 245f 37bd b901 bcbd
00000150: 60dc c3bc fafb 6e3c 2123 8ebd aa90 9cbc
00000160: a57b 74bd 9e65 053e cf50 29bd 04c3 92bd
00000170: 9a4c f4bd fd70 f13c 2c5e b5bd 8160 dbbd
00000180: 4d5a 843d a95e 02bd b230 5ebc 9299 21bf

linears.3.weight f4 [5, 100]
-0.15981174 -0.21156092 -0.18198249 -0.10557887 0.06296121 -0.038810205 -0.020357817 -0.104951404
-0.26292324 -0.13720326 -0.0047062505 -0.20395482 0.017754534 -0.16717792 0.21395001 -0.0041904505
0.8469308 -0.09787208 0.008798844 0.007311992 -0.0453897 -0.09770761 -0.061952226 -0.18086573
0.15855666 -0.057453603 -0.032423194 0.04952801 -0.19276391 0.020557685 0.17070358 -0.11684804
-0.011068551 0.038013745 -0.086501524 0.08812756 -0.017208425 -0.3474336 0.049189173 -0.10277574
-0.10805325 0.21318403 -0.29534128 -0.1679823 -0.12668528 -0.18044674 0.1567055 0.10926144
0.31991678 0.08004842 0.34718218 -0.021281514 3.227406e-05 -0.0043927184 0.051120717 0.0139892455
0.19212225 0.17144379 -0.22612306 0.05845222 -0.36621067 -0.08584456 0.024073139 0.3185397
0.13020928 -0.2778297 -0.2302204 -0.29041308 -0.050318312 -0.23949075 0.21999899 0.18927707
0.07098397 0.067965575 -0.19742167 -0.005322647 -0.13413154 -0.21516697 -0.11683942 -0.075426936
0.4759476 -0.11539429 0.06913815 0.035536114 -0.05931224 -0.09418331 0.1584288 0.06412934
0.0917553 -0.13930249 0.27227658 0.028578138 -0.04515157 -0.06671681 -0.22194101 0.07108122
-0.31023547 -0.23817053 -0.25948182 -0.3922109 0.16863914 0.090479374 -0.15100841 -0.021502547
0.19407034 -0.039725084 -0.02706478 0.044061314 0.063104495 -0.09878786 -0.14190446 -0.032090176
0.13516717 0.06580554 -0.12556084 0.057150755 -0.14378086 0.04318116 -0.08943846 -0.11603828
0.010906227 -0.08940792 0.07555749 0.028001966 -0.03586356 -0.092811525 0.022598699 -0.02822505
0.07481593 0.090291135 -0.028502772 -0.058841858 -0.17176373 0.079140715 0.07356982 0.15348816
-0.022073513 0.10026211 0.18217883 0.020539677 -0.0073934533 -0.02136968 0.026401957 0.1767054
-0.010297445 -0.0758551 0.19322199 -0.06756519 -0.1029925 -0.15674518 -0.05987728 0.002280044
-0.029261142 0.10258191 0.15190661 -0.11074922 -0.035949044 0.08024026 0.03575437 0.07476112
0.058449432 -0.04289524 0.05295627 -0.06291204 0.033448834 0.06018968 0.07161668 -0.11858808
-0.07958524 -0.16689497 0.14406739 -0.036066443 -0.070900515 -0.013467946 -0.011125174 -0.1171513
-0.09352349 -0.031084443 0.15587872 -0.030430786 -0.081182 -0.096535996 -0.060956046 0.018508727
0.009336936 0.06753269 -0.055849127 0.01912241 0.009396179 0.08802833 -0.101838835 0.029319182
0.0065418654 -0.0073509403 0.014813216 -0.036904037 0.068708375 0.11705863 0.06624177 0.0651171
1.7122216 0.8500597 0.64871794 0.123418435 -0.036794227 0.05694167 -0.19979134 0.40167487
0.60615575 0.28143698 0.11010755 -2.0431924 0.19778453 -0.9647486 -0.0025781072 -0.16573696
16.897999 -1.4586086 1.8347558 0.36992204 0.0818465 0.10933681 -1.1435708 0.30024785
-0.2760057 0.35513058 -1.3762599 0.33716273 -0.041625783 -0.43721724 1.0920275 0.2527723
6.7932625 0.46786806 -0.92306536 0.07725245 0.054943316 -2.0923433 0.53234965 1.3468485
-0.12647861 -0.214764 -0.076636314 0.2446475 -0.39199603 -0.4449061 -0.37713906 1.1985307
0.96868885 -0.25574455 2.8837614 -1.5356364 0.40953365 0.0059875823 0.06193693 0.051108703
00000000: b0a5 23be 6da3 58be 9e59 3abe bc39 d8bd
00000010: cff1 803d 73f7 1ebd 70c5 a6bc c3f0 d6bd
00000020: e09d 86be 037f 0cbe e436 9abb 88d9 50be
00000030: f571 913c b030 2bbe b615 5b3e 0c50 89bb
00000040: 75d0 583f 2871 c8bd 0729 103c 6f99 ef3b
00000050: 8dea 39bd ed1a c8bd 9ec1 7dbd de34 39be
00000060: ad5c 223e 7854 6bbd 2fce 04bd e2dd 4a3d
00000070: e763 45be 9768 a83c ebcc 2e3e 064e efbd
00000080: de58 35bc 4db4 1b3d b627 b1bd 397c b43d
00000090: aff8 8cbc d1e2 b1be 967a 493d 167c d2bd
000000a0: 064b ddbd ea4c 5a3e f936 97be 8d03 2cbe
000000b0: c9b9 01be 08c7 38be 6877 203e 76c4 df3d
000000c0: 22cc a33e 6df0 a33d ddc1 b13e 9256 aebc
000000d0: 025e 0738 cbf0 8fbb f563 513d 2633 653c
000000e0: b2bb 443e f68e 2f3e ce8c 67be 986b 6f3d
000000f0: f77f bbbe 46cf afbd 0835 c53c a317 a33e
00000100: 9555 053e b23f 8ebe e6be 6bbe 06b1 94be
00000110: 931a 4ebd 103d 75be 6a47 613e d9d1 413e
00000120: 0b60 913d 8931 8b3d e828 4abe 9969 aebb
00000130: c759 09be bb54 5cbe 8149 efbd 7079 9abd
00000140: 67af f33e d753 ecbd 4d98 8d3d 518e 113d
00000150: 64f1 72bd 2ee3 c0bd 293b 223e 3e56 833d
00000160: 34ea bb3d 50a5 0ebe d667 8b3e b31c ea3c
00000170: daf0 38bd d3a2 88bd 8144 63be 0893 913d
00000180: 2fd7 9ebe fae2 73be cdda 84be decf c8be
00000190: bdaf 2c3e 404d b93d f3a1 1abe 1c26 b0bc
000001a0: 60ba 463e c5b6 22bd f5b6 ddbc a379 343d
000001b0: ee3c 813d 4a51 cabd 674f 11be fd70 03bd
000001c0: 4369 0a3e 0ec5 863d 0593 00be e916 6a3d
000001d0: 4a3b 13be bade 303d 832b b7bd 7aa5 edbd
000001e0: 08b0 323c 801b b7bd e3bd 9a3d 6164 e53c
000001f0: abe5 12bd f813 bebd e820 b93c 3838 e7bc
00000200: 1839 993d 8fea b83d a57e e9bc 2904 71bd
00000210: d5e2 2fbe 8714 a23d c6ab 963d 002c 1d3e
00000220: 83d3 b4bc 3956 cd3d 168d 3a3e d342 a83c
00000230: c844 f2bb 780f afbc eb48 d83c 43f2 343e
00000240: 9db6 28bc eb59 9bbd fcdb 453e 9e5f 8abd
00000250: bbed d2bd cf81 20be e141 75bd ca6c 153b
00000260: 10b5 efbc 7716 d23d 688d 1b3e 7dd0 e2bd
00000270: 4e3f 13bd 0155 a43d 2d73 123d 5c1c 993d
00000280: ac68 6f3d ebb2 2fbd ace8 583d 07d8 80bd
00000290: a501 093d 7489 763d c4ab 923d 4fde f2bd
000002a0: 96fd a2bd 84e6 2abe 6786 133e 68ba 13bd
000002b0: 4a34 91bd a9a8 5cbc 5d46 36bc 05ed efbd
000002c0: 3e89 bfbd cda4 febc ac9e 1f3e fc49 f9bc
000002d0: c042 a6bd aab4 c5bd 0cad 79bd 9d9f 973c
000002e0: f3f9 183c 944e 8a3d 0ec2 64bd 9aa6 9c3c
000002f0: 6ef2 193c 3248 b43d e190 d0bd c82e f03c
00000300: 255d d63b 28e0 f0bb 22b3 723c b028 17bd
00000310: fab6 8c3d 6fbc ef3d c4a9 873d 1d5c 853d
00000320: 142a db3f 839d 593f 6112 263f cec2 fc3d
00000330: 8bb5 16bd ab3b 693d 1a96 4cbe 54a8 cd3e
00000340: 062d 1b3f 8218 903e 1180 e13d aac3 02c0
00000350: 0788 4a3e c4f9 76bf 76f5 28bb f3b6 29be
00000360: 1a2f 8741 b0b3 babf 47d9 ea3f 6c66 bd3e
00000370: 239f a73d faeb df3d 8760 92bf 16ba 993e
00000380: 9e50 8dbe add3 b53e 4929 b0bf 98a0 ac3e
00000390: cc7f 2abd f0da dfbe 8fc7 8b3f 5f6b 813e
000003a0: 6862 d940 678c ef3e 034e 6cbf 8836 9e3d
000003b0: 3e0c 613d f4e8 05c0 1148 083f 8865 ac3f
000003c0: 9c83 01be 18eb 5bbe 80f3 9cbd e084 7a3e
000003d0: b4b3 c8be bbca e3be 5f18 c1be 7469 993f
000003e0: fefb 773f f3f0 82be 8c8f 3840 bc8f c4bf
000003f0: 65ae d13e 7b33 c43b 94b1 7d3d 5c57 513d

linears.3.bias f4 [5]
0.018303243 -0.039768096 -0.0050812312 0.1318281 -0.029687427
00000000: aff0 953c dfe3 22bd 7580 a6bb f2fd 063e
00000010: 0c33 f3bc

exp_avg f4 [100, 6]
-1.7022158e-08 -1.7022447e-08 -3.4043563e-08 -5.106631e-08 -6.808872e-08 -8.5110486e-08 -5.0383764e-09 -5.0383426e-09
-1.0076629e-08 -1.5114937e-08 -2.0153054e-08 -2.5191778e-08 1.3854339e-08 1.3854361e-08 2.7708584e-08 4.156286e-08
5.5416933e-08 6.92708e-08 1.2157147e-08 1.2157041e-08 2.4314396e-08 3.647188e-08 4.8628532e-08 6.078604e-08
-1.7824467e-08 -1.7824632e-08 -3.564891e-08 -5.347387e-08 -7.1298565e-08 -8.912337e-08 -8.742365e-09 -8.742275e-09
-1.7484505e-08 -2.62266e-08 -3.496887e-08 -4.3711033e-08 5.9404535e-09 5.9404552e-09 1.1881056e-08 1.782166e-08
2.3762057e-08 2.9702514e-08 2.3578153e-09 2.3576907e-09 4.7154893e-09 7.073415e-09 9.431314e-09 1.1789467e-08
-5.8827063e-09 -5.8826863e-09 -1.1765415e-08 -1.7647979e-08 -2.3530774e-08 -2.9413819e-08 -1.1988277e-10 -1.1998225e-10
-2.3946e-10 -3.5956696e-10 -4.7955523e-10 -5.983612e-10 1.0408733e-08 1.0408731e-08 2.081746e-08 3.1226232e-08
4.1634898e-08 5.2043642e-08 -6.0283103e-09 -6.028317e-09 -1.2056652e-08 -1.8084847e-08 -2.411321e-08 -3.0140672e-08
8.625693e-09 8.625688e-09 1.7251358e-08 2.5877137e-08 3.4502417e-08 4.3128217e-08 1.54255e-08 1.5425487e-08
3.085111e-08 4.6276632e-08 6.17016e-08 7.7127424e-08 1.1678733e-08 1.167875e-08 2.3357563e-08 3.503611e-08
4.6714757e-08 5.8393304e-08 -9.45075e-09 -9.450393e-09 -1.8900195e-08 -2.834943e-08 -3.780233e-08 -4.7248857e-08
6.855715e-10 6.8561984e-10 1.3709902e-09 2.0565096e-09 2.741648e-09 3.4259806e-09 -1.1870987e-08 -1.1871014e-08
-2.3741995e-08 -3.5613e-08 -4.7483834e-08 -5.9354846e-08 -1.09591864e-08 -1.0959191e-08 -2.1918293e-08 -3.2877814e-08
-4.3836e-08 -5.479551e-08 -4.8225273e-09 -4.822435e-09 -9.645207e-09 -1.4467788e-08 -1.9290013e-08 -2.4112468e-08
3.9676777e-09 3.9677204e-09 7.935579e-09 1.1902993e-08 1.5870867e-08 1.9838234e-08 7.3566455e-09 7.356657e-09
1.4713217e-08 2.207003e-08 2.9426293e-08 3.6782456e-08 4.566026e-09 4.5660795e-09 9.132307e-09 1.3698504e-08
1.8263615e-08 2.282997e-08 -1.9903874e-09 -1.99022e-09 -3.9806474e-09 -5.9711227e-09 -7.960821e-09 -9.951083e-09
9.570194e-09 9.5700905e-09 1.9140113e-08 2.8710422e-08 3.828009e-08 4.7850477e-08 7.3654144e-10 7.3654993e-10
1.4729458e-09 2.2098279e-09 2.9458147e-09 3.683239e-09 -6.941051e-09 -6.941072e-09 -1.3882199e-08 -2.0823155e-08
-2.7764276e-08 -3.4705295e-08 -7.452873e-09 -7.4528845e-09 -1.4905762e-08 -2.2358641e-08 -2.981147e-08 -3.7264247e-08
2.700326e-09 2.70032e-09 5.400581e-09 8.10127e-09 1.0801411e-08 1.35022065e-08 4.2931627e-09 4.2931174e-09
8.586235e-09 1.2879143e-08 1.7172459e-08 2.146593e-08 1.8560497e-08 1.8560653e-08 3.712186e-08 5.5680292e-08
7.424331e-08 9.2802935e-08 -3.4897356e-09 -3.4897136e-09 -6.979295e-09 -1.0468755e-08 -1.39584975e-08 -1.7447723e-08
-3.3035166e-09 -3.3035945e-09 -6.6071273e-09 -9.910704e-09 -1.32141675e-08 -1.6517635e-08 -1.674021e-08 -1.6740191e-08
-3.3480358e-08 -5.0220763e-08 -6.6960595e-08 -8.3701e-08 2.3465894e-08 2.3465969e-08 4.6932083e-08 7.039811e-08
9.386399e-08 1.1733026e-07 1.5497633e-09 1.549742e-09 3.0995166e-09 4.6495283e-09 6.19907e-09 7.747545e-09
-1.2326995e-08 -1.2327009e-08 -2.4654058e-08 -3.6981003e-08 -4.9307978e-08 -6.1634935e-08 -1.1510105e-08 -1.1510111e-08
-2.3020304e-08 -3.453035e-08 -4.6041237e-08 -5.7551297e-08 -5.139904e-09 -5.139886e-09 -1.0279824e-08 -1.5419538e-08
-2.0559497e-08 -2.5699347e-08 1.857485e-08 1.857486e-08 3.7149615e-08 5.5724804e-08 7.429926e-08 9.287415e-08
1.4194545e-08 1.4194643e-08 2.8389277e-08 4.258398e-08 5.6778383e-08 7.097347e-08 1.1671892e-08 1.16718715e-08
2.3344198e-08 3.5015525e-08 4.6687607e-08 5.8359014e-08 -9.767608e-09 -9.7675095e-09 -1.9534918e-08 -2.9303687e-08
00000000: 1f38 92b2 c238 92b2 4b37 12b3 0054 5bb3
00000010: 2b38 92b3 fcc5 b6b3 071e adb1 bb1d adb1
00000020: 7c1d 2db2 19d6 81b2 091d adb2 4e65 d8b2
00000030: 0704 6e32 2004 6e32 d203 ee32 d982 3233
00000040: 9003 6e33 06c2 9433 b3db 5032 3bdb 5032
00000050: ecdb d032 42a5 1c33 a3db 5033 7b89 8233
00000060: 6b1c 99b2 c81c 99b2 641c 19b3 24ab 65b3
00000070: cd1c 99b3 1764 bfb3 5431 16b2 ef30 16b2
00000080: d530 96b2 e748 e1b2 ae30 16b3 cabc 3bb3
00000090: c81c cc31 cc1c cc31 701d 4c32 3f16 9932
000000a0: 511d cc32 8524 ff32 2007 2231 ef04 2231
000000b0: e205 a231 6b0a f331 5c07 2232 a08a 4a32
000000c0: d520 cab1 a820 cab1 d820 4ab2 5198 97b2
000000d0: b820 cab2 aca9 fcb2 00d0 03af 00ec 03af
000000e0: 00a5 83af 8dac c5af b3d1 03b0 ed79 24b0
000000f0: 18d2 3232 15d2 3232 14d2 b232 9b1d 0633
00000100: 0ed2 3233 9786 5f33 9421 cfb1 a321 cfb1
00000110: b721 4fb2 0059 9bb2 8221 cfb2 0574 01b3
00000120: 3330 1432 2d30 1432 2330 9432 6d48 de32
00000130: cf2f 1433 fa3b 3933 0981 8432 0181 8432
00000140: 2781 0433 b2c1 4633 d080 8433 40a1 a533
00000150: 9ca3 4832 b0a3 4832 d3a3 c832 9c7a 1633
00000160: 6ba3 4833 1ecc 7a33 d75c 22b2 455b 22b2
00000170: f859 a2b2 0e85 f3b2 1a5c 22b3 abee 4ab3
00000180: ce72 3c30 3576 3c30 6e6d bc30 8052 0d31
00000190: 9567 3c31 7d6e 6b31 27f1 4bb2 46f1 4bb2
000001a0: 33f1 cbb2 e8f4 18b3 07f1 4bb3 58ed 7eb3
000001b0: 0347 3cb2 0847 3cb2 d646 bcb2 8a35 0db3
000001c0: 3146 3cb3 4d58 6bb3 66b3 a5b1 96b2 a5b1
000001d0: 12b4 25b2 018e 78b2 30b3 a5b2 e11f cfb2
000001e0: 1054 8831 7054 8831 0c55 0832 eb7d 4c32
000001f0: 6854 8832 bd68 aa32 bdc5 fc31 d7c5 fc31
00000200: 6ac5 7c32 8294 bd32 1ac5 fc32 bdfa 1d33
00000210: 30e3 9c31 a9e3 9c31 50e4 1c32 a856 6b32
00000220: 1de2 9c32 a31b c432 44c7 08b1 52c4 08b1
00000230: 25c6 88b1 8d2a cdb1 10c4 08b2 53f5 2ab2
00000240: 296a 2432 b469 2432 8e69 a432 e39e f632
00000250: 6769 2433 2884 4d33 7f75 4a30 1876 4a30
00000260: ac70 ca30 b4db 1731 526f 4a31 3a1c 7d31
00000270: 217e eeb1 517e eeb1 8f7e 6eb2 9ade b2b2
00000280: 4a7e eeb2 e00e 15b3 150a 00b2 220a 00b2
00000290: 1e0a 80b2 2c0f c0b2 0f0a 00b3 790c 20b3
000002a0: a390 3931 8890 3931 0390 b931 c32d 0b32
000002b0: 1c91 3932 55f7 6732 0f83 9331 a982 9331
000002c0: a982 1332 1243 5d32 a382 9332 1464 b832
000002d0: f76e 9f32 4f6f 9f32 eb6f 1f33 2125 6f33
000002e0: b16f 9f33 f44a c733 14d0 6fb1 b1cf 6fb1
000002f0: 87ce efb1 12da 33b2 1fce 6fb2 f3df 95b2
00000300: 1404 63b1 7305 63b1 e804 e3b1 bd43 2ab2
00000310: 8604 63b2 aae2 8db2 1ccc 8fb2 12cc 8fb2
00000320: 0bcc 0fb3 50b2 57b3 facb 8fb3 1dbf b3b3
00000330: 0c92 c932 3692 c932 5f92 4933 c52d 9733
00000340: 4692 c933 fef6 fb33 73ff d430 b3fe d430
00000350: 46ff 5431 afc1 9f31 99ff d431 101a 0532
00000360: b3c6 53b2 c2c6 53b2 d9c6 d3b2 0bd5 1eb3
00000370: b2c6 53b3 2a5c 84b3 fabd 45b2 01be 45b2
00000380: 2fbe c5b2 854e 14b3 e0be 45b3 522e 77b3
00000390: 139b b0b1 ea9a b0b1 259b 30b2 ec73 84b2
000003a0: d09a b0b2 76c1 dcb2 878e 9f32 8d8e 9f32
000003b0: 6f8e 1f33 1256 6f33 738e 9f33 1b72 c733
000003c0: 45dc 7332 b3dc 7332 aedc f332 95e5 3633
000003d0: 7edc 7333 146a 9833 8685 4832 6f85 4832
000003e0: 6f86 c832 fa63 1633 9185 4833 6aa6 7a33
000003f0: 65ce 27b2 f6cd 27b2 bdcd a7b2 7db7 fbb2

exp_avg_sq f4 [100, 6]
1.7511638e-11 1.751164e-11 7.0046545e-11 1.5760468e-10 2.8018562e-10 4.3778972e-10 1.4209364e-12 1.4209362e-12
5.6837434e-12 1.27883815e-11 2.2734956e-11 3.5523216e-11 5.603531e-13 5.6035314e-13 2.241411e-12 5.0431885e-12
8.965636e-12 1.4008815e-11 6.2444776e-13 6.2444776e-13 2.49779e-12 5.620016e-12 9.991151e-12 1.561116e-11
1.5674411e-11 1.567441e-11 6.269761e-11 1.410694e-10 2.5079003e-10 3.91859e-10 3.7672288e-13 3.7672285e-13
1.5068912e-12 3.3905049e-12 6.0275582e-12 9.4180505e-12 2.0628852e-13 2.0628852e-13 8.2515396e-13 1.8565976e-12
3.3006126e-12 5.1572097e-12 3.1369618e-12 3.1369616e-12 1.2547844e-11 2.8232632e-11 5.0191327e-11 7.842382e-11
4.3072604e-13 4.3072598e-13 1.7229035e-12 3.8765328e-12 6.8916092e-12 1.076813e-11 2.382855e-12 2.3828552e-12
9.5314165e-12 2.144564e-11 3.8125628e-11 5.9571174e-11 2.883832e-14 2.883831e-14 1.1535313e-13 2.595443e-13
4.614114e-13 7.209534e-13 1.9522218e-13 1.9522213e-13 7.808884e-13 1.7569988e-12 3.1235502e-12 4.8805443e-12
8.127408e-14 8.127408e-14 3.2509631e-13 7.3146616e-13 1.3003847e-12 2.0318515e-12 7.1951104e-13 7.19511e-13
2.878042e-12 6.4755918e-12 1.1512156e-11 1.7987738e-11 1.11823474e-13 1.1182345e-13 4.472937e-13 1.0064082e-12
1.7891733e-12 2.7955771e-12 1.3481276e-11 1.34812725e-11 5.392509e-11 1.213313e-10 2.157001e-10 3.3703082e-10
2.4322603e-12 2.4322595e-12 9.729036e-12 2.1890326e-11 3.8916103e-11 6.080646e-11 6.500373e-14 6.500373e-14
2.6001486e-13 5.8503354e-13 1.0400579e-12 1.6250895e-12 7.403019e-13 7.4030186e-13 2.9612064e-12 6.6627094e-12
1.1844817e-11 1.850752e-11 7.7591167e-13 7.759116e-13 3.103645e-12 6.9831953e-12 1.2414563e-11 1.9397728e-11
6.804509e-13 6.804508e-13 2.7218037e-12 6.1240626e-12 1.0887202e-11 1.7011252e-11 2.1690554e-13 2.1690553e-13
8.6762205e-13 1.952146e-12 3.4704858e-12 5.422624e-12 1.0453457e-12 1.045346e-12 4.1813822e-12 9.408129e-12
1.6725513e-11 2.6133614e-11 1.7348276e-12 1.7348277e-12 6.939309e-12 1.5613413e-11 2.7757206e-11 4.3370574e-11
1.2127466e-12 1.2127464e-12 4.850985e-12 1.0914698e-11 1.940392e-11 3.0318616e-11 7.5068126e-13 7.506812e-13
3.0027233e-12 6.7561304e-12 1.2010882e-11 1.8766964e-11 7.4292216e-14 7.4292196e-14 2.971686e-13 6.6862927e-13
1.1886724e-12 1.8572993e-12 4.1710613e-14 4.171061e-14 1.6684237e-13 3.7539465e-13 6.6736845e-13 1.0427596e-12
9.621611e-13 9.62161e-13 3.8486423e-12 8.659434e-12 1.5394552e-11 2.4053974e-11 4.6003294e-13 4.600329e-13
1.8401316e-12 4.1402905e-12 7.360521e-12 1.1500799e-11 6.512891e-12 6.5128914e-12 2.6051558e-11 5.861596e-11
1.0420609e-10 1.6282191e-10 2.379526e-13 2.379525e-13 9.518098e-13 2.1415736e-12 3.807234e-12 5.948804e-12
1.1555198e-13 1.1555198e-13 4.6220785e-13 1.0399693e-12 1.8488312e-12 2.8887964e-12 2.030217e-13 2.0302167e-13
8.1208635e-13 1.8271944e-12 3.2483437e-12 5.0755337e-12 5.6690976e-12 5.669098e-12 2.2676382e-11 5.1021753e-11
9.070543e-11 1.4172712e-10 9.889103e-13 9.889102e-13 3.9556388e-12 8.900185e-12 1.5822533e-11 2.4722684e-11
1.355407e-13 1.3554068e-13 5.421624e-13 1.2198647e-12 2.1686472e-12 3.3885093e-12 1.0843995e-12 1.0843995e-12
4.3375963e-12 9.759588e-12 1.7350366e-11 2.7109918e-11 2.345019e-13 2.3450176e-13 9.380067e-13 2.1105149e-12
3.7520226e-12 5.8625383e-12 1.7793983e-13 1.7793986e-13 7.1175905e-13 1.6014589e-12 2.8470314e-12 4.4484885e-12
6.062962e-13 6.062961e-13 2.4251835e-12 5.4566646e-12 9.700725e-12 1.515739e-11 7.00208e-13 7.0020796e-13
2.800831e-12 6.3018627e-12 1.1203302e-11 1.7505133e-11 1.7490429e-12 1.749043e-12 6.996171e-12 1.5741398e-11
00000000: b408 9a2d b508 9a2d b308 9a2e c649 2d2f
00000010: 9f08 9a2f 6dad f02f a1fa c72b 9ffa c72b
00000020: 9cfa c72c c0f9 602d 92fa c72d 963b 1c2e
00000030: b2b9 1d2b b3b9 1d2b acb9 1d2c 0171 b12c
00000040: a3b9 1d2d 1872 762d 34c4 2f2b 34c4 2f2b
00000050: 2fc4 2f2c 9bbc c52c 25c4 2f2d 3551 892d
00000060: a3df 892d a2df 892d 9edf 892e 821b 1b2f
00000070: 8fdf 892f 406d d72f 7d13 d42a 7c13 d42a
00000080: 7a13 d42b e895 6e2c 6b13 d42c 21af 252d
00000090: 9e42 682a 9e42 682a 9c42 682b 7da5 022c
000000a0: 8d42 682c 0474 b52c 7bbe 5c2c 7abe 5c2c
000000b0: 77be 5c2d 3c56 f82d 69be 5c2e b074 ac2e
000000c0: 2a7a f22a 287a f22a 247a f22b b464 882c
000000d0: 197a f22c 596f 3d2d b3ad 272c b4ad 272c
000000e0: afad 272d 4aa3 bc2d a4ad 272e 97ff 822e
000000f0: 52e0 0129 4fe0 0129 47e0 012a 471c 922a
00000100: 32e0 012b 2bee 4a2b f6cc 5b2a f3cc 5b2a
00000110: f0cc 5b2b 8e46 f72b e1cc 5b2c 09b8 ab2c
00000120: 5103 b729 5103 b729 5103 b72a b1e3 4d2b
00000130: 4c03 b72b 95fa 0e2c 3c86 4a2b 3b86 4a2b
00000140: 3286 4a2c f2d6 e32c 2486 4a2d c938 9e2d
00000150: d8cd fb29 d5cd fb29 d1cd fb2a ada3 8d2b
00000160: c3cd fb2b a4b8 442c 452a 6d2d 412a 6d2d
00000170: 412a 6d2e ba67 052f 2e2a 6d2f df48 b92f
00000180: b527 2b2c b127 2b2c af27 2b2d a28c c02d
00000190: a327 2b2e feb6 852e 1960 9229 1960 9229
000001a0: 1760 922a 1cac 242b 0960 922b 05b6 e42b
000001b0: 6060 502b 5f60 502b 5a60 502c 5a6c ea2c
000001c0: 5060 502d 3bcb a22d 5466 5a2b 5366 5a2b
000001d0: 4c66 5a2c 08b3 f52c 3966 5a2d cd9f aa2d
000001e0: a887 3f2b a687 3f2b a887 3f2c a778 d72c
000001f0: 9987 3f2d efa1 952d c436 742a c336 742a
00000200: c236 742b bc5e 092c b736 742c a8ca be2c
00000210: 8c1e 932b 8f1e 932b 8b1e 932c 7282 252d
00000220: 821e 932d abdf e52d c027 f42b c127 f42b
00000230: bd27 f42c 4856 892d ac27 f42d edbe 3e2e
00000240: cdad aa2b cbad aa2b caad aa2c 6e03 402d
00000250: bead aa2d ba57 052e 494c 532b 484c 532b
00000260: 414c 532c d0b5 ed2c 344c 532d 7213 a52d
00000270: 8c4a a729 894a a729 824a a72a d133 3c2b
00000280: 704a a72b 21b2 022c 10d9 3b29 0fd9 3b29
00000290: 0ad9 3b2a 1254 d32a f7d8 3b2b 60c1 922b
000002a0: 8269 872b 8169 872b 7d69 872c a056 182d
000002b0: 7369 872d bc94 d32d de7c 012b dd7c 012b
000002c0: dd7c 012c 6cac 912c d77c 012d fe52 4a2d
000002d0: e826 e52c e926 e52c e526 e52d dae5 802e
000002e0: d026 e52e 4b06 332f 95f4 852a 92f4 852a
000002f0: 90f4 852b 29b3 162c 84f4 852c 104e d12c
00000300: 9719 022a 9719 022a 9619 022b d85c 922b
00000310: 9519 022c ee47 4b2c 0595 642a 0395 642a
00000320: fd94 642b cf93 002c f594 642c 5894 b22c
00000330: b176 c72c b276 c72c ac76 c72d 6365 602e
00000340: 9e76 c72e a3d4 1b2f 402d 8b2b 3f2d 8b2b
00000350: 3a2d 8b2c df92 1c2d 2d2d 8b2d 8976 d92d
00000360: f29a 182a f19a 182a eb9a 182b 42ae ab2b
00000370: e09a 182c f571 6e2c 9c9d 982b 9c9d 982b
00000380: 989d 982c 47b1 2b2d 8d9d 982d 1c76 ee2d
00000390: 4903 842a 4403 842a 4103 842b a883 142c
000003a0: 3703 842c 0d45 ce2c aa57 482a ac57 482a
000003b0: a557 482b a362 e12b 8f57 482c 6c84 9c2c
000003c0: 3fa8 2a2b 3da8 2a2b 39a8 2a2c 44fd bf2c
000003d0: 2ea8 2a2d 6853 852d 4e17 452b 4d17 452b
000003e0: 4917 452c 22ba dd2c 3017 452d 0efa 992d
000003f0: e927 f62b ea27 f62b e827 f62c 7a76 8a2d

exp_avg f4 [100]
-0.00027457683 8.28449e-05 -4.982926e-05 7.344859e-05 -0.00022236005 3.5274712e-05 5.0180028e-05 0.00014749805
-6.6484696e-05 0.00011435113 1.8913446e-05 2.0390418e-05 -2.0959224e-05 7.408195e-05 -6.8187724e-06 -0.00020290093
-9.8992554e-05 -5.824048e-06 5.8737634e-05 5.7719193e-05 -5.041989e-05 -2.7797834e-05 -5.184743e-05 0.00010670837
-5.675492e-05 -4.5299825e-05 1.0461032e-06 -7.69813e-06 -6.239238e-05 -4.692575e-05 0.00018987436 1.7478056e-05
2.139315e-05 -6.677949e-05 0.00020100079 -5.8289264e-05 -4.6855068e-05 -7.9957135e-05 3.2367752e-05 5.7378882e-05
8.1833656e-05 6.524531e-05 -0.00010990785 0.00051685877 0.00015658468 -0.00017935745 -3.3626726e-05 5.3522752e-05
-5.0290375e-05 4.391016e-05 -5.252911e-05 -1.0223994e-05 -7.841932e-05 4.845873e-05 -3.3705393e-05 2.1134218e-05
5.134306e-05 6.0463353e-05 -6.518615e-05 7.422085e-05 4.7130685e-05 3.891266e-05 7.421517e-05 -9.59307e-05
-1.2665663e-05 -0.00025542718 -2.0523476e-05 1.5619962e-05 0.00020289571 -6.0312537e-05 1.3821028e-05 -2.1870306e-05
-4.784308e-05 -0.0001333155 8.6315944e-05 2.3552018e-05 -5.496073e-05 -4.5867608e-05 -4.4245855e-05 3.8861985e-05
1.7627464e-05 -5.861593e-06 0.00016551929 9.929256e-05 3.2865584e-05 4.9457576e-05 2.3627517e-05 0.000114566836
-5.427496e-05 -7.2450355e-05 -2.274995e-05 -6.5975044e-05 1.7377231e-05 -4.9102095e-05 0.00019541255 -3.3998127e-05
-1.3684153e-05 -9.055892e-06 1.9146217e-05 -1.7302502e-05
00000000: 14f5 8fb9 04bd ad38 c3ff 50b8 6908 9a38
00000010: 5229 69b9 eff3 1338 6578 5238 b5a9 1a39
00000020: b36d 8bb8 cccf ef38 51a8 9e37 170c ab37
00000030: 97d1 afb7 725c 9b38 cfcc e4b6 cec1 54b9
00000040: 399a cfb8 316c c3b6 0e5d 7638 8317 7238
00000050: f279 53b8 652f e9b7 c176 59b8 9fc8 df38
00000060: 220c 6eb8 5100 3eb8 d567 8c35 3727 01b7
00000070: a7d8 82b8 24d2 44b8 0319 4739 d79d 9237
00000080: 7175 b337 f70b 8cb8 bdc3 5239 9f7b 74b8
00000090: 3f86 44b8 a9ae a7b8 9cc2 0738 1baa 7038
000000a0: 1c9e ab38 4fd4 8838 547e e6b8 ce7d 073a
000000b0: e130 2439 e611 3cb9 6c0a 0db8 9e7d 6038
000000c0: e1ee 52b8 2d2c 3838 b452 5cb8 b887 2bb7
000000d0: 0d75 a4b8 2a40 4b38 e45e 0db8 6349 b137
000000e0: 3159 5738 089a 7d38 8cb4 88b8 04a7 9b38
000000f0: 30ae 4538 2736 2338 f7a3 9b38 672e c9b8
00000100: 9c7e 54b7 dbea 85b9 d429 acb7 9d07 8337
00000110: 67c0 5439 18f8 7cb8 dde0 6737 2076 b7b7
00000120: 1eab 48b8 9bca 0bb9 8504 b538 9391 c537
00000130: a285 66b8 f861 40b8 a094 39b8 bdff 2238
00000140: b1de 9337 b3ae c4b6 3f8f 2d39 4a3b d038
00000150: 27d9 0938 ab70 4f38 b533 c637 9a43 f038
00000160: 4ba5 63b8 7df0 97b8 25d7 beb7 155c 8ab8
00000170: 52c5 9137 f9f2 4db8 a8e7 4c39 3699 0eb8
00000180: fd94 65b7 c3ee 17b7 309c a037 d724 91b7
