TSTE-R/Qcontrol-noisy-comparison/Noisy-5%/PINN_4090_noisy0.05/save_model_0223.ckpt-550000.pt (torch, 264786 bytes, 24 tensors)

linears.0.weight f4 [100, 1]
5.6687727 -0.49136776 -0.29307297 -1.8052653 10.760345 5.2275057 -0.2684287 2.4837453
-1.9455354 0.27024516 -1.4501214 -1.3913885 -0.104618624 -0.4321474 0.14768149 -0.05274124
-2.3989499 -0.6689127 4.0450287 -0.19739729 3.8055763 -1.276938 6.9660134 9.459911
2.784057 -2.7853272 -0.121757686 5.080092 -0.40689862 -0.48145232 2.3360171 6.7154074
-0.822645 -1.1334647 0.4711472 1.142939 0.49914327 3.823155 -0.34387407 -0.3782555
-0.15480639 -0.50418425 -2.4577594 5.626912 -0.44735545 -0.55123854 0.05425058 4.552579
0.22969109 -0.35711578 0.102366515 -0.3976228 5.906549 -0.7059396 -0.18766852 8.1503
-0.10623445 -1.1942393 -0.62309337 -3.9654894 -0.13743311 -0.3289063 -0.60037905 -0.1446752
-2.231601 -2.2777722 1.0036626 0.4317808 -1.0968276 0.3212278 0.27517653 0.9791635
1.3866012 0.05385424 1.0896475 1.3121989 2.3295512 -1.9538075 -3.1050668 3.5029416
-1.4034338 3.8386042 -1.0840453 -2.4210868 -1.6688418 -1.6459136 1.0362926 1.4557451
-0.24890636 -0.28219417 2.8208838 -0.6275634 -0.31004944 -0.50230944 -1.9212197 0.91650456
0.33232614 6.0661182 4.531608 3.3369303
00000000: 9666 b540 8e94 fbbe a90d 96be ef12 e7bf
00000010: 602a 2c41 ba47 a740 7d6f 89be aff5 1e40
00000020: 4e07 f9bf 935d 8a3e 949d b9bf 0519 b2bf
00000030: 4a42 d6bd 6d42 ddbe d139 173e 3307 58bd
00000040: 6588 19c0 dd3d 2bbf e070 8140 8422 4abe
00000050: 908e 7340 b472 a3bf 95e9 de40 cc5b 1741
00000060: fd2d 3240 cd42 32c0 185c f9bd 1d90 a240
00000070: 0455 d0be eb80 f6be 4e81 1540 9ee4 d640
00000080: dd98 52bf 5f15 91bf 353a f13e d34b 923f
00000090: b58f ff3e 92ae 7440 4310 b0be b4aa c1be
000000a0: 9185 1ebe 3812 01bf ee4b 1dc0 aa0f b440
000000b0: c60b e5be f81d 0dbf db35 5e3d baae 9140
000000c0: 2434 6b3e e1d7 b6be 89a5 d13d 3795 cbbe
000000d0: 7302 bd40 75b8 34bf 2d2c 40be a167 0241
000000e0: 7391 d9bd d5dc 98bf 0c83 1fbf 94ca 7dc0
000000f0: 44bb 0cbe 6866 a8be 71b2 19bf bc25 14be
00000100: 8dd2 0ec0 05c7 11c0 0478 803f 5f12 dd3e
00000110: d964 8cbf f877 a43e f0e3 8c3e 76aa 7a3f
00000120: 267c b13f 4396 5c3d 9279 8b3f 22f6 a73f
00000130: 5e17 1540 5d16 fabf 6ab9 46c0 3230 6040
00000140: b8a3 b3bf b1ab 7540 ffc1 8abf 16f3 1ac0
00000150: 9c9c d5bf 4cad d2bf 3ca5 843f db55 ba3f
00000160: 4fe1 7ebe c17b 90be 5c89 3440 ffa7 20bf
00000170: cdbe 9ebe 5a97 00bf 87ea f5bf 0ba0 6a3f
00000180: a726 aa3e a41d c240 ef02 9140 4490 5540

linears.0.bias f4 [100]
-0.21486814 0.016636962 0.06759845 0.07451278 0.08971731 -0.14794478 0.37953645 -0.17599744
0.103508584 0.11217462 0.028046552 0.1473136 0.06067882 0.011020911 0.06719765 0.16435748
0.09499963 0.050124682 -0.013841301 0.006 -0.19671072 0.041627534 0.048025765 -0.016306829
-0.15596291 0.1396262 0.004283429 -0.00084221177 0.017519565 0.020469844 -0.26376337 -0.21805978
0.1295387 0.037075903 -0.032755286 -0.1781569 -0.032817744 -0.16153562 0.112780124 0.21874915
0.019501988 0.021962779 0.19879082 0.05603893 0.032429293 0.063104905 0.13637702 -0.19869298
0.005017725 0.031751137 0.037298832 0.020914461 -0.21084958 0.20206113 0.03219913 -0.038175814
0.0373603 0.06275307 0.07894775 0.05233251 0.0039425166 0.01046126 0.07538382 0.2682337
0.19921851 0.08057472 -0.014726645 0.061683074 0.042612087 0.14368598 0.06707942 -0.07997197
-0.12671894 0.044828705 0.061655723 -0.13462491 -0.31728283 0.07962418 0.09716435 -0.10825135
0.07510591 -0.24050821 0.039364945 0.10008904 0.14130959 -0.0012521236 0.11651767 -0.06771151
0.009768201 0.012354357 -0.14025658 0.031143384 0.014982027 0.33908647 0.08402313 -0.0423093
-0.014659054 -0.30298162 -0.025099786 -0.18453269
00000000: 6506 5cbe 3d4a 883c 0e71 8a3d 289a 983d
00000010: b6bd b73d d67e 17be 9a52 c23e ac38 34be
00000020: 4ffc d33d cfbb e53d e2c1 e53c 60d9 163e
00000030: 5b8a 783d 0d91 343c ec9e 893d 544d 283e
00000040: 2a8f c23d 8a4f 4d3d a0c6 62bc a69b c43b
00000050: 896e 49be a281 2a3d aab6 443d e695 85bc
00000060: beb4 1fbe 2cfa 0e3e 025c 8c3b e0c7 5cba
00000070: 3185 8f3c 60b0 a73c fe0b 87be 104b 5fbe
00000080: cba5 043e e7dc 173d 682a 06bd c36e 36be
00000090: e66b 06bd 9869 25be 44f9 e63d c7ff 5f3e
000000a0: a2c2 9f3c 49eb b33c d28f 4b3e 1489 653d
000000b0: 94d4 043d 253d 813d 6ba6 0b3e 2c76 4bbe
000000c0: ba6b a43b 7b0d 023d a9c6 183d ce54 ab3c
000000d0: f4e8 57be 1de9 4e3e 3ce3 033d 3e5e 1cbd
000000e0: 1d07 193d ae84 803d 5caf a13d 9d5a 563d
000000f0: 3a30 813b b465 2b3c d562 9a3d ed55 893e
00000100: f0ff 4b3e 5c04 a53d 0748 71bc 64a7 7c3d
00000110: 038a 2e3d 6b22 133e ef60 893d 58c8 a3bd
00000120: 9cc2 01be 4e9e 373d b68a 7c3d 1ddb 09be
00000130: e572 a2be 0112 a33d 1afe c63d e2b2 ddbd
00000140: 21d1 993d c947 76be 233d 213d 7cfb cc3d
00000150: 76b3 103e 4c1e a4ba d1a0 ee3d 55ac 8abd
00000160: ce0a 203c ee69 4a3c 6c9f 0fbe 6920 ff3c
00000170: 2d77 753c be9c ad3e 5214 ac3d 844c 2dbd
00000180: 872c 70bc 6820 9bbe 119e cdbc 23f6 3cbe

linears.1.weight f4 [100, 100]
-0.036175318 -0.21572012 -0.17771767 -0.17982975 -0.23690563 0.0656814 -0.27995667 -0.07534281
-0.15206692 0.23382917 -0.2883522 -0.28264618 -0.18588418 -0.08791425 -0.3414365 0.07320913
-0.16315374 -0.15405682 0.06443276 -0.18550037 0.07302598 -0.35526335 0.040771153 -0.17228112
-0.08161389 -0.35149986 -0.24860598 -0.013780466 -0.034453683 -0.25000986 0.07470331 -0.2570384
-0.0354713 -0.152329 -0.020389695 0.10327956 0.2135054 -0.15627158 0.10829473 -0.12362054
0.41019025 -0.1808128 0.0504227 0.07832973 -0.3276729 -0.2120302 0.14077556 -0.20407894
-0.12211623 -0.24165393 0.2773357 -0.35101825 -0.033979863 0.2071019 -0.2873387 0.070071936
0.16439474 -0.37422422 -0.20692419 -0.11492009 -0.2167727 -0.19815679 0.22578625 0.042004656
-0.02211328 -0.18034069 0.30307987 0.07672607 -0.3573155 0.13678996 0.034435783 0.0433034
-0.16725476 0.14978552 0.25825864 -0.004060826 0.05734198 -0.32752234 -0.35554275 -0.100118995
0.03296277 -0.24391574 -0.105309084 -0.117383614 -0.17451493 -0.095675066 0.04384805 -0.019893846
-0.48273918 -0.29821938 -0.1385255 -0.2561281 -0.51470715 -0.11229889 -0.3360676 0.17615151
0.4284122 -0.1730224 0.12935242 -0.18072698 -0.12133803 -0.011327301 0.048903655 -0.15881976
0.109401934 0.097958125 -0.14094959 -0.1180716 -0.056200366 0.1544564 0.09011571 -0.06512784
0.06947511 -0.047874175 -0.021907324 0.05611994 0.09419239 -0.124621145 0.02928806 -0.21365722
-0.07820195 -0.09865308 0.10221668 -0.1542358 -0.0020292278 0.02933496 -0.34993082 0.10636637
-0.038919546 -0.07139284 -0.028375963 -0.037857734 -0.0604131 -0.21131343 0.0052299662 0.15141939
-0.07533704 -0.14753732 -0.084118545 -0.18532534 0.1392584 -0.2792232 0.10947696 -0.07868772
-0.091249555 -0.06916472 -0.090466686 -0.045556955 -0.012689379 -0.17346568 0.16503842 -0.19365296
-0.1385557 0.12797281 0.013924726 0.112912424 0.20635073 -0.07572487 -0.15778005 0.0041472116
-0.20121333 -0.15553005 -0.049162414 0.105822586 0.1488172 -0.027659852 -0.061311554 -0.08096722
0.08575083 0.12958424 -0.095353484 -0.049080417 0.104029484 0.20012106 0.19701813 -0.14572905
0.012314647 -0.007821193 -0.011321895 -0.10103772 0.08763078 -0.0060681566 0.0339728 0.09223803
-0.036765363 0.052930973 0.022066563 -0.013870878 -0.28116575 -0.21884975 -0.042242847 -0.17293248
-0.17913996 -0.09070335 0.015925001 -0.032564573 0.018120198 0.086032 -0.010750357 0.018981818
-0.06180634 0.1854963 -0.06671014 0.055442065 0.20239401 0.004053264 0.064307004 0.13304012
0.1598933 -0.083719596 0.2159038 -0.13382107 -0.13518097 0.367615 -0.03907813 -0.07685983
-0.09455592 -0.17028454 -0.14799993 0.3326619 0.17696096 0.06873297 0.025637632 -0.045878313
0.020817649 0.10800706 0.358056 -0.06654301 0.14610942 0.060989026 -0.018372487 0.19522998
-0.02615402 0.437279 0.03376299 0.0029158343 0.14304341 -0.029835962 -0.040820077 -0.047745567
-0.058522683 0.3124351 0.13021553 -0.014623078 -0.050165545 -0.07789646 0.1696934 0.10090256
-0.002872248 0.013207632 -0.08166357 0.12204107 0.2481977 0.15189135 -0.027659591 -0.07306467
00000000: 922c 14bd bce5 5cbe 9ffb 35be 4a25 38be
00000010: 6497 72be f883 863d 7b56 8fbe 554d 9abd
00000020: 6eb7 1bbe ea70 6f3e e6a2 93be 00b7 90be
00000030: 6c58 3ebe 630c b4bd c4d0 aebe abee 953d
00000040: c611 27be 12c1 1dbe 53f5 833d cff3 3dbe
00000050: a58e 953d 14e5 b5be a7ff 263d 766a 30be
00000060: 2f25 a7bd caf7 b3be 9192 7ebe 77c7 61bc
00000070: 4e1f 0dbd 4b01 80be 0dfe 983d 8a9a 83be
00000080: 5b4a 11bd 22fc 1bbe 4a08 a7bc 3c84 d33d
00000090: 29a1 5a3e a805 20be a1c9 dd3d c42c fdbd
000000a0: 7504 d23e fe26 39be 0888 4e3d 566b a03d
000000b0: bec4 a7be 721e 59be 7827 103e 12fa 50be
000000c0: 1318 fabd 2174 77be f2fe 8d3e aab8 b3be
000000d0: 782e 0bbd 8512 543e 0f1e 93be e081 8f3d
000000e0: 1857 283e 519a bfbe efe3 53be 395b ebbd
000000f0: aaf9 5dbe 9de9 4abe 8334 673e 130d 2c3d
00000100: e926 b5bc 3bab 38be 492d 9b3e 8f22 9d3d
00000110: 0ff2 b6be ab12 0c3e 890c 0d3d e85e 313d
00000120: d544 2bbe 6061 193e 7a3a 843e ad10 85bb
00000130: 6ddf 6a3d 02b1 a7be b309 b6be 300b cdbd
00000140: f803 073d 0cc5 79be 4aac d7bd d266 f0bd
00000150: 0bb4 32be 4af1 c3bd 039a 333d 6bf8 a2bc
00000160: 9729 f7be 36b0 98be a1d9 0dbe 3923 83be
00000170: d9c3 03bf f6fc e5bd 0d11 acbe 1061 343e
00000180: d858 db3e c92c 31be f674 043e 7e10 39be
00000190: 1380 f8bd 2596 39bc 334f 483d a6a1 22be
000001a0: 1f0e e03d 459e c83d 1755 10be 86cf f1bd
000001b0: 5b32 66bd d229 1e3e 968e b83d bf61 85bd
000001c0: f748 8e3d b617 44bd fd76 b3bc 06de 653d
000001d0: f1e7 c03d 5f39 ffbd 83ed ef3c f5c8 5abe
000001e0: 5828 a0bd a00a cabd fb56 d13d fdef 1dbe
000001f0: cbfc 04bb df4f f03c 222a b3be 9dd6 d93d
00000200: 1a6a 1fbd 6936 92bd b574 e8bc b610 1bbd
00000210: ba73 77bd 8c62 58be 2360 ab3b af0d 1b3e
00000220: 4e4a 9abd 0614 17be 5846 acbd edc5 3dbe
00000230: c199 0e3e 58f6 8ebe 7535 e03d 0727 a1bd
00000240: 0ce1 babd 3ca6 8dbd 9946 b9bd ee99 3abd
00000250: 1de7 4fbc fda0 31be d5ff 283e f64c 46be
00000260: 8ce1 0dbe 4e0b 033e 8924 643c a13e e73d
00000270: 9b4d 533e a415 9bbd 1891 21be 55e5 873b
00000280: de0a 4ebe 4543 1fbe 875e 49bd 83b9 d83d
00000290: 8963 183e ea96 e2bc d321 7bbd 24d2 a5bd
000002a0: 229e af3d bbb1 043e b048 c3bd 8c08 49bd
000002b0: 690d d53d 89ec 4c3e 1fbf 493e ff39 15be
000002c0: 60c3 493c 7624 00bc 787f 39bc ddec cebd
000002d0: c477 b33d 63d7 c6bb 1027 0b3d 4be7 bc3d
000002e0: 4797 16bd 26ce 583d f0c4 b43c ae42 63bc
000002f0: f5f4 8fbe 261a 60be d606 2dbd 3615 31be
00000300: 7770 37be aec2 b9bd 2675 823c 6e62 05bd
00000310: cf70 943c 8c31 b03d 4422 30bc c27f 9b3c
00000320: a528 7dbd bef2 3d3e 539f 88bd 3817 633d
00000330: 6040 4f3e 3ed1 843b 64b3 833d ab3b 083e
00000340: 12bb 233e 2e75 abbd e315 5d3e 6408 09be
00000350: e16c 0abe 0938 bc3e 6410 20bd b068 9dbd
00000360: 89a6 c1bd 125f 2ebe 4b8d 17be a952 aa3e
00000370: 4135 353e dfc3 8c3d 0306 d23c e6ea 3bbd
00000380: c689 aa3c ce32 dd3d 1e53 b73e b447 88bd
00000390: b59d 153e a1cf 793d e681 96bc 5eea 473e
000003a0: f540 d6bc 08e3 df3e 104b 0a3d 9517 3f3b
000003b0: f979 123e 8c6a f4bc f432 27bd db90 43bd
000003c0: 7bb5 6fbd 7ef7 9f3e 3857 053e a295 6fbc
000003d0: 637a 4dbd 2e88 9fbd 1bc4 2d3e 00a6 ce3d
000003e0: 533c 3cbb d364 583c 3b3f a7bd abf0 f93d
000003f0: 8a27 7e3e 6889 1b3e 5e96 e2bc eea2 95bd

linears.1.bias f4 [100]
0.1104051 0.0023270114 0.030233936 0.002843958 -0.044740345 -0.04223406 0.045266893 -0.3250378
0.07165247 -0.36633435 0.0050630253 -0.13388714 0.05094444 -0.08270278 -0.21672644 -0.0043431656
-0.4198176 0.049361408 -0.9521389 0.18873012 0.022927241 0.123089805 -0.07754475 -0.29178384
0.16452718 -0.086647674 -0.19618054 -0.12403759 -0.2961503 0.104006425 -0.21311715 -0.51217526
0.30415595 -0.08096435 -0.009136384 0.017308032 -0.48641518 -0.007760456 -0.049848888 -0.28837833
0.063600816 -0.0742465 0.010358939 -0.098529436 0.050517842 -0.026313527 -0.09268125 -0.42430922
-0.0316191 -0.31485683 0.053292327 -0.154413 -0.15414387 -0.06987185 -0.22972846 -0.011822626
-0.4230226 0.21523108 0.24221672 0.1151194 0.04516465 -0.045480344 0.035974488 -0.16547412
-0.009394843 0.08783088 -0.13421045 -0.0030998609 -0.24248277 -0.053365648 0.015583919 -0.14734645
-0.0721709 -0.14336677 0.15519208 0.13404065 -0.0001795649 -0.1432294 0.04906773 -0.28545716
0.033671897 -0.08469573 0.022905337 0.03929385 -0.046582527 -0.2529739 -0.16026144 0.009413848
-0.038424045 0.0078040394 0.0128825 0.09964919 0.008553251 -0.32380638 0.06721625 -0.034920927
0.1620483 -0.024623794 -0.14124352 -0.1834833
00000000: 121c e23d c680 183b 29ad f73c b361 3a3b
00000010: a741 37bd 9ffd 2cbd c769 393d 5b6b a6be
00000020: 88be 923d 2d90 bbbe bce7 a53b b619 09be
00000030: 1eab 503d 1360 a9bd 89ed 5dbe 1d51 8ebb
00000040: 55f2 d6be 302f 4a3d 60bf 73bf 7842 413e
00000050: e9d1 bb3c 8216 fc3d c8cf 9ebd b164 95be
00000060: d079 283e 5674 b1bd 8de3 48be 6c07 febd
00000070: 03a1 97be 5201 d53d 623b 5abe eb1d 03bf
00000080: 54ba 9b3e a3d0 a5bd c6b0 15bc 93c9 8d3c
00000090: 690b f9be 6c4b febb 592e 4cbd 53a6 93be
000000a0: 2541 823d 8d0e 98bd 8ab8 293c cdc9 c9bd
000000b0: cceb 4e3d 778f d7bc abcf bdbd 0f3f d9be
000000c0: 0883 01bd ea34 a1be 0e49 5a3d 711e 1ebe
000000d0: e4d7 1dbe f918 8fbd f03d 6bbe b0b3 41bc
000000e0: 6b96 d8be 8965 5c3e a907 783e b8c3 eb3d
000000f0: 91fe 383d 9949 3abd fc59 133d 0c72 29be
00000100: d4ec 19bc ade0 b33d 776e 09be 0927 4bbb
00000110: 674d 78be f095 5abd b253 7f3c fde1 16be
00000120: 56ce 93bd bdce 12be acea 1e3e f441 093e
00000130: 9649 3cb9 baaa 12be 3efb 483d 7127 92be
00000140: 8beb 093d f474 adbd f9a3 bb3c 97f2 203d
00000150: 52cd 3ebd cc85 81be 931b 24be 8a3c 1a3c
00000160: 8862 1dbd 07b9 ff3b 1f11 533c e014 cc3d
00000170: ef22 0c3c f3c9 a5be aca8 893d 3f09 0fbd
00000180: fdef 253e d7b7 c9bc 24a2 10be 0ce3 3bbe

linears.2.weight f4 [100, 100]
0.010069913 0.016387554 0.058418684 0.043252327 -0.040907938 -0.005308136 0.027885 -0.019723307
0.060559664 0.0008179781 0.044516243 -0.14771499 0.02167202 0.01079781 0.04136431 0.05539434
0.29039603 -0.02261184 0.0045235488 -0.016709017 0.049890295 0.0152940955 -0.082350455 0.15872818
0.118081905 0.06744915 -0.16072202 0.07957862 -0.014915233 0.06097994 -0.009520603 -0.008573735
-0.024362573 -0.012279958 0.0037508137 -0.030934792 0.17390984 -0.18538012 -0.03638279 0.18872762
0.13815765 -0.07636076 0.13059627 0.0038943717 0.07900524 -0.06580117 0.020564716 0.06687465
0.058134213 0.082021244 0.06163016 -0.2597736 0.0025411444 -0.011268806 0.095373295 0.016438354
0.057231177 -0.054496333 0.027674204 0.005831998 -0.018906869 -0.056136638 -0.011567914 -0.19850151
-0.021239549 0.0027742104 -0.03467129 0.01620484 -0.08224447 0.050437108 -0.13634445 0.041970886
-0.03246139 0.058073416 0.10043141 0.07597289 -0.023773398 0.03236355 0.044902124 -0.0054482985
0.11356628 -0.041672397 -0.003282614 0.05964745 -0.033066943 0.13218698 -0.02782212 -0.007990795
-0.06949407 -0.01992767 0.085099444 -0.0822688 0.120390885 0.07349183 -0.040666897 0.00053001184
0.12765391 0.05011178 -0.0175048 0.07546075 -0.016941557 0.08070058 -0.009592516 -0.01601347
0.05595264 -0.036572024 -0.011977519 0.028234778 -0.11329037 -0.10656547 -0.0648525 -0.16785765
0.02625679 0.0470845 0.16012836 -0.010164315 0.28251672 -0.05439594 0.007677703 -0.07713103
0.015780155 -0.01326573 -0.1080145 0.13195576 0.041517917 0.028570151 -0.10606214 0.018821301
0.024718136 -0.052634586 -0.094672605 -0.023440583 0.16595916 0.07391561 -0.011386672 -0.011035435
0.09382248 -0.06967421 0.0021378691 -0.077362254 -0.17503007 0.061842423 0.17389692 -0.040929142
0.045476165 0.021279206 -0.015640777 0.22838715 -0.04199787 0.10457955 -0.059518345 0.17782328
-0.042119637 0.012279999 -0.09241957 0.033009917 -0.02290443 -0.0032658237 0.021245265 -0.047311474
-0.019376602 -0.062701836 -0.01849257 0.07204852 0.010400749 0.16014767 -0.050442204 -0.019946044
0.15332429 0.051472653 0.04663349 0.10447527 -0.27920404 0.06912784 0.15953673 0.087194026
-0.029659892 -0.018476572 -0.028336046 0.2229746 0.17043525 0.0023677049 0.06528858 0.22600998
0.030435087 0.3005525 0.029096663 -0.24329433 -0.065788455 -0.03391636 0.016947448 0.029481431
-0.0024966018 0.13355729 -0.015358861 -0.004703904 -0.012096544 -0.014651092 0.13179901 -0.024820061
0.0375637 -0.042356513 -0.054009464 0.14754641 0.027176429 0.029203486 0.049599312 0.51158255
0.09288068 -0.072259255 -0.10305463 -0.074768044 0.08840492 -0.027090967 0.18542549 -0.0036431793
0.03260931 0.0008134648 -0.018045818 0.06269955 0.037438024 -0.062649265 -0.004864145 0.21832554
-0.0029363134 0.12802047 0.067219615 -0.078378245 -0.031658877 0.046271257 0.0055385423 0.121272646
-0.19894987 -0.050792992 -0.0050250697 0.082588285 0.09588013 0.10450563 -0.04381403 0.14911593
0.18622354 0.082684875 -0.07073751 -0.18241662 -0.18077575 0.08628749 -0.11345439 0.19316337
-0.040858835 -0.058819216 0.104416735 0.19439866 0.040014457 -0.019081406 -0.1647808 -0.07167254
00000000: 47fc 243c 313f 863c 6e48 6f3d 5a29 313d
00000010: 158f 27bd dfef adbb 156f e43c c692 a1bc
00000020: 690d 783d 956d 563a aa56 363d 9942 17be
00000030: 8589 b13c 4ce9 303c 9f6d 293d 2de5 623d
00000040: caae 943e 773c b9bc 473a 943b 59e1 88bc
00000050: c459 4c3d 1694 7a3c 5ba7 a8bd a489 223e
00000060: edd4 f13d c822 8a3d 5094 24be 1efa a23d
00000070: 055f 74bc 1ac6 793d 4efc 1bbc da78 0cbc
00000080: 0594 c7bc e131 49bc 36d0 753b f66a fdbc
00000090: 6c15 323e 49d4 3dbe 1f06 15bd d041 413e
000000a0: 3379 0d3e 0863 9cbd 07bb 053e b738 7f3b
000000b0: 80cd a13d c4c2 86bd 5677 a83c 94f5 883d
000000c0: 241e 6e3d c1fa a73d e86f 7c3d 0c01 85be
000000d0: 5489 263b cca0 38bc 1353 c33d baa9 863c
000000e0: 3d6b 6a3d 8c37 5fbd 03b5 e23c 581a bf3b
000000f0: 94e2 9abc 88ef 65bd 5987 3dbc fb43 4bbe
00000100: 90fe adbc 87cf 353b 7c03 0ebd 03c0 843c
00000110: ca6f a8bd 2497 4e3d e19d 0bbe aae9 2b3d
00000120: 3cf6 04bd 64de 6d3d fcae cd3d ad97 9b3d
00000130: 6ec0 c2bc a48f 043d 4aeb 373d a487 b2bb
00000140: 7095 e83d adb0 2abd 2021 57bb e250 743d
00000150: 3471 07bd 065c 073e 37eb e3bc d3eb 02bc
00000160: e852 8ebd 5a3f a3bc 9e48 ae3d 8b7c a8bd
00000170: 7f8f f63d e282 963d 5592 26bd 7ef0 0a3a
00000180: b5b7 023e 0342 4d3d 3a66 8fbc 2a8b 9a3d
00000190: 05c9 8abc 5846 a53d ee29 1dbc ae2e 83bc
000001a0: 982e 653d 8ccc 15bd 5b3d 44bc 9f4c e73c
000001b0: c804 e8bd ff3e dabd 63d1 84bd e0e2 2bbe
000001c0: 7b18 d73c addb 403d b0f8 233e 3a88 26bc
000001d0: 08a6 903e 47ce 5ebd 3e95 fb3b e0f6 9dbd
000001e0: 6245 813c 8158 59bc b536 ddbd 691f 073e
000001f0: b10e 2a3d f30b ea3c 1b37 d9bd 212f 9a3c
00000200: b07d ca3c 5d97 57bd b6e3 c1bd 7706 c0bc
00000210: 33f1 293e 1161 973d 2a8f 3abc f8cd 34bc
00000220: 0026 c03d 5ab1 8ebd 7e1b 0c3b 1a70 9ebd
00000230: 153b 33be 7b4e 7d3d 0912 323e 51a5 27bd
00000240: 3745 3a3d bb51 ae3c 1621 80bc 52de 693e
00000250: f505 2cbd ce2d d63d 82c9 73bd 4e17 363e
00000260: a485 2cbd 0d32 493c 7946 bdbd 6835 073d
00000270: 12a2 bbbc 6e07 56bb 8d0a ae3c adc9 41bd
00000280: aebb 9ebc d269 80bd bb7d 97bc 2d8e 933d
00000290: e767 2a3c c0fd 233e 7c9c 4ebd e365 a3bc
000002a0: 0b01 1d3e fdd4 523d c202 3f3d 21f7 d53d
000002b0: d5f3 8ebe e692 8d3d 995d 233e c892 b23d
000002c0: 4df9 f2bc 2e5c 97bc ff20 e8bc 7453 643e
000002d0: 9486 2e3e 7f2b 1b3b 05b6 853d 296f 673e
000002e0: 0153 f93c 04e2 993e 205c ee3c 2622 79be
000002f0: 19bc 86bd e2eb 0abd 60d5 8a3c 0b83 f13c
00000300: 079e 23bb 3ec3 083e bba3 7bbc 3523 9abb
00000310: 9530 46bc 220b 70bc 52f6 063e 7153 cbbc
00000320: 65dc 193d 067e 2dbd 0739 5dbd 6816 173e
00000330: 1aa1 de3c 263c ef3c a628 4b3d 13f7 023f
00000340: 3a38 be3d a9fc 93bd 4e0e d3bd fd1f 99bd
00000350: a40d b53d e0ed ddbc 2ee0 3d3e 68c2 6ebb
00000360: 5791 053d b33e 553a d3d4 93bc 9f68 803d
00000370: 9d58 193d 424e 80bd 6863 9fbb bb90 5f3e
00000380: 2a6f 40bb cc17 033e 70aa 893d c684 a0bd
00000390: bdac 01bd ee86 3d3d a97c b53b cb5d f83d
000003a0: 84b9 4bbe 500c 50bd 57a9 a4bb 0c24 a93d
000003b0: cd5c c43d 0c07 d63d 5776 33bd d9b1 183e
000003c0: 62b1 3e3e b056 a93d d4de 90bd 6ccb 3abe
000003d0: 471d 39be 7fb7 b03d c65a e8bd 9ecc 453e
000003e0: 985b 27bd 6bec 70bd 71d8 d53d 7110 473e
000003f0: 33e6 233d 9c50 9cbc 4cbc 28be 0dc9 92bd

linears.2.bias f4 [100]
-0.15089695 -0.23681426 -0.18168125 -0.24715802 -0.06125045 -0.30462694 -0.22778174 -0.15707517
-0.10632336 -0.28405902 -0.15526414 -0.120399214 -0.20589906 -0.005846959 -0.26591077 -0.3154986
-0.11720942 -0.18871817 -0.2531822 -0.18864974 -0.25793448 -0.18774599 -0.06948852 -0.1463734
-0.41157907 -0.23914362 -0.22926095 -0.097919226 -0.28289786 -0.15848133 -0.15696146 -0.21748175
-0.25384927 -0.41907817 -0.17602013 -0.14214243 -0.09518611 -0.30586523 -0.11306098 -0.1853444
-0.21730511 -0.33347914 0.01309307 -0.12237623 -0.20844401 -0.1298683 -0.27799466 -0.15618305
-0.33381528 -0.03670058 -0.14515695 -0.18318117 -0.15062207 -0.16463321 -0.17206483 -0.1486429
-0.3569328 -0.24615283 -0.45756483 -0.21314202 -0.20414123 -0.042587515 -0.15795192 -0.08594724
-0.27256736 -0.14600164 -0.27108654 -0.3166952 -0.1886184 -0.13737625 -0.23524569 -0.075728565
-0.16234782 -0.37750143 -0.1297033 -0.15856655 -0.26828137 -0.2705421 -0.21275601 -0.2885024
-0.9671207 -0.07890551 -0.25501156 0.034781054 -0.14422536 -0.2227929 -0.2394595 -0.16646597
-0.08804625 -0.21151495 -0.21405432 -0.31502676 -0.17995965 -0.31098062 -0.52033967 -0.2397705
-0.2755445 -0.23669656 -0.112125784 -0.18036313
00000000: bb84 1abe 707f 72be a60a 3abe fe16 7dbe
00000010: c0e1 7abd 10f8 9bbe 9e3f 69be 50d8 20be
00000020: 10c0 d9bd 2f70 91be 90fd 1ebe dd93 f6bd
00000030: 34d7 52be d997 bfbb 7525 88be 0889 a1be
00000040: 7e0b f0bd 563f 41be 19a1 81be 662d 41be
00000050: fd0f 84be 7c40 40be ff4f 8ebd e9e2 15be
00000060: 7eba d2be 11e2 74be 62c3 6abe e089 c8bd
00000070: fdd7 90be ee48 22be 81ba 20be 89b3 5ebe
00000080: 88f8 81be 6a91 d6be 9f3e 34be c98d 11be
00000090: eff0 c2bd 5e9a 9cbe 848c e7bd ecca 3dbe
000000a0: 3b85 5ebe c7bd aabe 5184 563c 64a0 fabd
000000b0: 5972 55be 32fc 04be 5155 8ebe 73ee 1fbe
000000c0: d6e9 aabe 5953 16bd 06a4 14be d893 3bbe
000000d0: ac3c 1abe 9c95 28be c331 30be d835 18be
000000e0: e5bf b6be 7d0f 7cbe f045 eabe e741 5abe
000000f0: 660a 51be 3f70 2ebd 26be 21be 1b05 b0bd
00000100: f38d 8bbe 7481 15be dbcb 8abe e025 a2be
00000110: 2f25 41be 5cac 0cbe 3fe4 70be 9417 9bbd
00000120: 823e 26be de47 c1be f1d0 04be 455f 22be
00000130: 2d5c 89be 7e84 8abe b6dc 59be 96b6 93be
00000140: 3995 77bf 3699 a1bd e090 82be 9476 0e3d
00000150: d0af 13be d223 64be df34 75be 0e76 2abe
00000160: 9851 b4bd 6097 58be 0e31 5bbe 304b a1be
00000170: 5847 38be da38 9fbe fb34 05bf 6686 75be
00000180: 2b14 8dbe 9560 72be 34a2 e5bd 1db1 38be

linears.3.weight f4 [5, 100]
0.004519206 -0.00264085 -0.24278134 -0.07469986 0.032057185 0.20055372 -0.005018506 0.11227083
-0.013115135 0.007309595 -0.021256384 0.29563043 0.0012067934 0.025861809 0.050465908 0.08322142
0.0029621613 0.13466363 -0.27575892 -0.0014013196 -0.0017494035 -0.16612376 0.0014044142 0.018616274
-0.20438725 -0.17671908 -0.2290454 -9.7733835e-05 0.041288424 0.13999817 2.012699e-05 -0.011589625
0.17636506 0.040833533 0.110438146 0.22009526 -0.05623609 -0.00012648384 -0.0085809305 0.25102502
0.07075404 -0.25586092 -0.09465561 -0.33643356 0.046211217 -0.2005225 -0.003767432 -0.0033795892
-0.08427032 0.327508 -0.16985478 -0.0003008633 -0.07613382 0.060129024 0.049056105 -0.021900369
-0.10124006 0.3442892 -0.113041215 0.08008581 -0.0053125257 -0.3364763 -0.09754511 0.0012489224
0.11726761 -0.36344895 -0.12212285 0.15337959 -0.031653002 0.0012369764 -0.06501122 -0.30549943
0.0004286955 0.30356807 -0.0192048 0.24444334 0.20164376 -0.011210905 -0.0013297931 -0.0037207175
0.0035272941 -0.120493606 -0.24259904 -0.54019445 0.24889325 0.12791653 -0.0009697562 0.0059062974
4.537102e-05 0.3371424 -0.1175955 0.09386986 -0.018463127 0.11424724 -0.031096831 0.27439988
-0.054508165 -0.06993799 0.07604316 0.15965702 0.0005613397 0.0011280903 0.030980507 0.010209591
-0.00631679 -0.025474992 0.0016385765 -0.014066522 0.0030426392 0.0004754972 0.0035163397 -0.029711027
0.00032706055 -0.0024801958 -0.004347855 -0.006747859 -0.0010411286 -0.011594004 0.039530374 0.0010278415
0.0011447722 0.022024764 0.0007904054 -0.0009764861 0.023895038 0.022629028 0.029461514 0.0005260578
-0.004028381 -0.016500732 -0.00013320595 0.0012560041 -0.017796585 -0.0072501064 -0.02108353 -0.023494078
0.007355964 -0.00021094184 0.00081759656 -0.032310992 -0.008939486 0.019904463 0.009710427 0.037357915
-0.006621442 0.02990744 0.00084483885 0.0012375704 0.0101769 -0.025237229 0.021248307 0.00066369365
0.0102189835 -0.009122023 -0.004917407 0.00276831 0.018420378 -0.034136124 0.019880451 -0.01205655
-0.00036998148 0.04064128 -0.005641573 0.0016177614 -0.017202636 0.035840537 0.015407299 -0.016486377
0.00537184 -0.013084024 0.008844971 0.04130749 -0.00025472074 -0.06508756 0.0014481224 -0.022875149
-0.02413567 0.0021349466 0.0011195918 0.0012428312 0.0014042677 0.012068934 0.026352096 0.051745217
-0.033326995 -0.018536858 0.0003732651 -0.002652514 0.0007872441 -0.039610926 0.012594304 -0.014002608
0.0028307645 -0.014379814 0.0074851904 -0.032172512 0.0037284875 0.008617376 -0.011242304 -0.021310475
0.0080822855 -0.0023533858 -0.050248694 -0.081526116 0.47963357 -0.19011907 0.36454284 0.3907765
0.25843045 -0.2975177 -0.038522854 -0.34522736 -0.0022838102 1.0655977 -0.4040549 0.79561067
-0.58419937 0.12758203 0.4634359 -0.0012428393 1.1565513e-05 0.019971756 -0.000490445 -0.54335463
-0.84402466 0.20094116 0.17942451 0.0010659283 0.034558885 0.3855846 0.00295519 -0.3367612
0.35645774 0.36195454 -0.8493016 0.09038023 -0.021821303 -0.00024235416 -1.0907621 -0.03668323
0.032096937 -0.10973747 -0.1574705 -0.21495904 0.08096593 0.5401254 -0.002238745 -0.0023628038
-0.13025726 -0.62565684 -0.22224556 0.00046017714 -0.16979204 -0.14078839 -0.22247732 -0.16969246
00000000: d915 943b 1c12 2dbb ac9b 78be 3dfc 98bd
00000010: 654e 033d f45d 4d3e 4872 a4bb 40ee e53d
00000020: dde0 56bc 5485 ef3b de21 aebc df5c 973e
00000030: 442d 9e3a 25dc d33c 57b5 4e3d fe6f aa3d
00000040: d220 423b 43e5 093e 4630 8dbe 7cac b7ba
00000050: 3e4c e5ba 591c 2abe 5214 b83a 2881 983c
00000060: e44a 51be d9f5 34be e18a 6abe 74f6 ccb8
00000070: 0d1e 293d ae5b 0f3e 62d6 a837 69e2 3dbc
00000080: 0b99 343e 1041 273d 652d e23d a760 613e
00000090: d057 66bd bfa0 04b9 0897 0cbc 5a86 803e
000000a0: 7ee7 903d 3400 83be cdda c1bd 0541 acbe
000000b0: f947 3d3d c555 4dbe 05e7 76bb 197c 5dbb
000000c0: eb95 acbd 21af a73e 69ee 2dbe 30bd 9db9
000000d0: 0cec 9bbd da49 763d 0eef 483d 6768 b3bc
000000e0: f356 cfbd ad46 b03e 2782 e7bd 0704 a43d
000000f0: b214 aebb 9f46 acbe bbc5 c7bd e2b2 a33a
00000100: 002a f03d fb15 babe 8b1b fabd 8a0f 1d3e
00000110: 94a6 01bd 0a22 a23a 9a24 85bd 6c6a 9cbe
00000120: 89c2 e039 466d 9b3e 6253 9dbc 5b4f 7a3e
00000130: b47b 4e3e f2ad 37bc 744c aeba 48d7 73bb
00000140: 2d2a 673b 5ac5 f6bd e26b 78be 2f4a 0abf
00000150: dfdd 7e3e 8dfc 023e 3d37 7eba 9d89 c13b
00000160: c34c 3e38 ee9d ac3e e9d5 f0bd d73e c03d
00000170: fc3f 97bc 75fa e93d c8be febc 247e 8c3e
00000180: f443 5fbd a63b 8fbd 84bc 9b3d 217d 233e
00000190: df26 133a 6edc 933a d5ca fd3c 2146 273c
000001a0: 13fd cebb eeb0 d0bc 81c5 d63a 4577 66bc
000001b0: 0467 473b 274c f939 6472 663b 8a64 f3bc
000001c0: 5379 ab39 c88a 22bb 7478 8ebb 251d ddbb
000001d0: 7b76 88ba c7f4 3dbc 9aea 213d a3b8 863a
000001e0: 2e0c 963a 476d b43c 3533 4f3a dffa 7fba
000001f0: 87bf c33c 8360 b93c 4659 f13c 24e7 093a
00000200: 8200 84bb 8b2c 87bc 33ad 0bb9 81a0 a43a
00000210: 25ca 91bc 4d92 edbb 5eb7 acbc a776 c0bc
00000220: 4c0a f13b 4530 5db9 fa53 563a 8858 04bd
00000230: ec76 12bc af0e a33c 7c18 1f3c 9d04 193d
00000240: aef8 d8bb 7300 f53c 2d78 5d3a f935 a23a
00000250: 03bd 263c 4ebe cebc ee10 ae3c bafb 2d3a
00000260: 866d 273c 8a74 15bc 3322 a1bb 896c 353b
00000270: 55e6 963c 52d2 0bbd 54dc a23c d688 45bc
00000280: 13fa c1b9 7977 263d f2dc b8bb 110b d43a
00000290: 8bec 8cbc 87cd 123d e56e 7c3c 700e 87bc
000002a0: 4306 b03b 605e 56bc 7fea 103c 0b32 293d
000002b0: 0a8c 85b9 a04c 85bd edce bd3a aa64 bbbc
000002c0: 2bb8 c5bc 76ea 0b3b 44bf 923a 7fe6 a23a
000002d0: 680f b83a c7bc 453c 5ae0 d73c cbf2 533d
000002e0: e381 08bd 9cda 97bc cbb2 c339 cdd5 2dbb
000002f0: 0f5f 4e3a 113f 22bd 5758 4e3c 326b 65bc
00000300: 5984 393b 5099 6bbc 5446 f53b 53c7 03bd
00000310: a459 743b e52f 0d3c a431 38bc 4e93 aebc
00000320: 906b 043c 433b 1abb 93d1 4dbd 2af7 a6bd
00000330: 8892 f53e 93ae 42be 5ca5 ba3e db13 c83e
00000340: ff50 843e 3d54 98be 24ca 1dbd a4c1 b0be
00000350: faab 15bb 8165 883f 49e0 cebe 24ad 4b3f
00000360: 178e 15bf dda4 023e 7847 ed3e c4e6 a2ba
00000370: 8009 4237 cf9b a33c 3591 00ba 4a19 0bbf
00000380: 0012 58bf 85c3 4d3e 0fbb 373e 9eb6 8b3a
00000390: 9e8d 0d3d 586b c53e dcab 413b f76b acbe
000003a0: a181 b63e 1b52 b93e d46b 59bf 4519 b93d
000003b0: 97c2 b2bc 7320 7eb9 189e 8bbf 2841 16bd
000003c0: 1478 033d 0abe e0bd f23f 21be 391e 5cbe
000003d0: 77d1 a53d a945 0a3f e9b7 12bb 45d9 1abb
000003e0: 2962 05be 0c2b 20bf 5794 63be ee43 f139
000003f0: f7dd 2dbe d52a 10be 18d1 63be dcc3 2dbe

linears.3.bias f4 [5]
0.016649656 -0.027363146 0.15908471 -0.042533476 -0.00092403864
00000000: dc64 883c ad28 e0bc 1ae7 223e 9537 2ebd
00000010: 2f3b 72ba

exp_avg f4 [100, 1]
-2.6691813e-08 2.59805e-08 2.210528e-08 2.5285061e-08 2.5432076e-09 -2.2655994e-08 2.2195735e-08 -2.3630763e-08
1.8691908e-08 1.7326903e-08 2.0525487e-08 2.8486888e-08 1.825814e-08 2.137632e-08 1.5576957e-08 2.5476455e-08
2.7876931e-08 1.7647817e-08 1.3050336e-08 8.396364e-09 -2.3318785e-08 1.5789057e-08 7.3067437e-09 -7.37414e-09
-2.7614405e-08 2.2928248e-08 1.5678003e-08 1.1787197e-09 2.2039618e-08 2.9051721e-08 -1.991015e-08 -2.3064427e-08
2.2233245e-08 3.5355377e-08 -2.8349453e-08 -2.2724885e-08 -2.3502075e-08 -1.993437e-08 1.4588407e-08 2.6895895e-08
7.26421e-09 2.6312117e-08 2.2275525e-08 8.721429e-09 2.9036087e-08 2.1870992e-08 1.8324858e-08 -2.2464972e-08
2.1138701e-08 2.5833803e-08 1.4247949e-08 2.4868786e-08 -2.4922695e-08 1.6139376e-08 2.1248518e-08 -1.3978166e-08
8.250861e-09 2.9860768e-08 2.4776782e-08 1.9498417e-08 1.1435642e-08 3.3817717e-08 1.2636852e-08 2.4679885e-08
3.1012096e-08 2.1412694e-08 3.0811809e-09 9.159794e-09 1.7204574e-08 1.3975804e-08 1.2295212e-08 -2.2326557e-08
-1.2436548e-08 1.0550305e-08 6.180024e-09 -1.8801357e-08 -1.920416e-08 2.0366699e-08 2.0042357e-08 -3.3213527e-09
2.0897714e-08 -2.3757101e-08 2.1074499e-08 2.2641638e-08 2.1079382e-08 2.1170296e-08 1.097496e-08 -2.047135e-08
1.7025533e-08 2.3661647e-08 -2.748665e-08 2.8296146e-08 2.1544302e-08 1.8483496e-08 2.7758738e-08 -2.5665289e-08
-1.959003e-08 -2.4615465e-08 1.0944271e-08 -2.7912504e-08
00000000: eb47 e5b2 b92b df32 06e2 bd32 7032 d932
00000010: 95c4 2e31 0f9d c2b2 f0a8 be32 99fc cab2
00000020: f18f a032 43d6 9432 0650 b032 54b3 f432
00000030: 13d6 9c32 069f b732 17ce 8532 51d7 da32
00000040: 0576 ef32 f697 9732 fc33 6032 993f 1032
00000050: 8d4e c8b2 81a0 8732 cc0e fb31 9f5f fdb1
00000060: b834 edb2 c0f3 c432 4bac 8632 8300 a230
00000070: a251 bd32 698d f932 e206 abb2 361f c6b2
00000080: 6cfb be32 a6d9 1733 1b85 f3b2 8d34 c3b2
00000090: 9ce1 c9b2 253c abb2 7ea0 7a32 b308 e732
000000a0: ab98 f931 f504 e232 6658 bf32 40d5 1532
000000b0: 086b f932 d2de bb32 ca68 9d32 fff8 c0b2
000000c0: 7f94 b532 22e9 dd32 24c7 7432 0a9f d532
000000d0: 9615 d6b2 dda2 8a32 fc85 b632 a024 70b2
000000e0: acbf 0d32 4340 0033 b8d4 d432 797d a732
000000f0: 7c76 4432 f93e 1133 7619 5932 a4ff d332
00000100: 2932 0533 03ef b732 b5bc 5331 335d 1d32
00000110: 42c9 9332 3c1a 7032 ea3a 5332 9ec8 bfb2
00000120: 84a8 55b2 bb40 3532 1158 d431 9f80 a1b2
00000130: 65f6 a4b2 d8f2 ae32 9c29 ac32 db3d 64b1
00000140: 8f82 b332 6b12 ccb2 5007 b532 7d7d c232
00000150: 0d12 b532 f9d9 b532 628c 3c32 fad8 afb2
00000160: 8b3f 9232 8340 cb32 c81b ecb2 e20f f332
00000170: 6c10 b932 a3c5 9e32 1c72 ee32 9176 dcb2
00000180: ee46 a8b2 fb71 d3b2 6a05 3c32 3fc4 efb2

exp_avg_sq f4 [100, 1]
9.7411086e-11 7.092789e-11 1.1194918e-10 6.478091e-11 1.3648781e-10 4.9177752e-11 1.9166907e-10 1.0457727e-10
6.792457e-11 4.8061898e-11 3.7408028e-11 1.2835363e-10 1.08946734e-10 4.8335287e-11 1.05770254e-10 6.427646e-11
9.3671654e-11 1.2032857e-10 7.741481e-11 1.4078352e-11 1.12718626e-10 2.3296786e-11 9.4971885e-11 1.0414764e-10
1.4390626e-10 7.997353e-11 3.5759447e-11 3.98247e-11 7.064998e-11 1.1149058e-10 1.2345681e-10 7.1360515e-11
1.2341574e-10 1.2008325e-10 1.0837109e-10 1.00886126e-10 9.6433604e-11 7.3678716e-11 6.957209e-11 1.9878203e-10
2.5406812e-11 7.245187e-11 9.614359e-11 6.0192774e-11 1.2912829e-10 1.0569979e-10 4.5535613e-11 6.36306e-11
9.506785e-11 1.1942519e-10 4.4037912e-11 9.028086e-11 5.457721e-11 6.8388704e-11 9.2384406e-11 3.9496437e-11
3.6354204e-11 1.4528465e-10 1.089593e-10 4.2980265e-11 2.1610576e-11 1.4323465e-10 6.5507e-11 1.1663466e-10
1.569811e-10 6.176053e-11 1.9729714e-11 2.819548e-11 3.656408e-11 5.987388e-11 4.3881197e-11 1.1103745e-10
5.00878e-11 5.284011e-11 2.397284e-11 1.2276413e-10 9.333187e-11 5.7165314e-11 5.042699e-11 2.0953803e-11
6.0196285e-11 1.8255839e-10 4.71271e-11 5.914483e-11 5.919366e-11 4.1322792e-11 4.5256444e-11 4.4335785e-11
3.0126297e-11 7.5694e-11 8.142662e-11 1.1056107e-10 5.4916627e-11 1.9682436e-10 9.928272e-11 5.56505e-11
4.499806e-11 7.501319e-11 6.841853e-11 1.0525709e-10
00000000: 9135 d62e daf8 9b2e c92d f62e 6974 8e2e
00000010: e711 162f 3a49 582e 0cbe 522f c5f7 e52e
00000020: 225e 952e e360 532e b285 242e 5620 0d2f
00000030: 8f93 ef2e b294 542e 5c97 e82e 6e58 8d2e
00000040: 74fc cd2e 7b4d 042f aa3c aa2e 43ab 772d
00000050: f2de f72e b3eb cc2d 6bd8 d02e e905 e52e
00000060: 033a 1e2f 18dd af2e 8f45 1d2e a026 2f2e
00000070: 675c 9b2e 9e2b f52e 01be 072f 66ec 9c2e
00000080: 71b2 072f 6e08 042f 804f ee2e d7d9 dd2e
00000090: 4b0f d42e 6e05 a22e 9bfd 982e 2b90 5a2f
000000a0: 0e7b df2d c752 9f2e 086c d32e 855d 842e
000000b0: 62fa 0d2f b16f e82e 8b44 482e d8ec 8b2e
000000c0: 710e d12e 344f 032f 48ae 412e 9b87 c62e
000000d0: 7a08 702e 6b63 962e cc27 cb2e 09b5 2d2e
000000e0: 32e3 1f2e febd 1f2f a29a ef2e 7a07 3d2e
000000f0: b116 be2d f87c 1d2f 2a0d 902e bd3d 002f
00000100: 409a 2c2f 16d0 872e 5e8b ad2d 9402 f82d
00000110: 7fcf 202e ffa9 832e d6fd 402e 872c f42e
00000120: d949 5c2e ad64 682e 09de d22d 08fb 062f
00000130: 2c3d cd2e 6c6a 7b2e bec7 5d2e c54f b82d
00000140: 7f5f 842e 9eb9 482f 6644 4f2e 940f 822e
00000150: 112b 822e 54bd 352e 3a0a 472e a8fd 422e
00000160: 327f 042e ef73 a62e 1d0f b32e 5920 f32e
00000170: a086 712e 2269 582f 3453 da2e e5c0 742e
00000180: 50e7 452e acf4 a42e 3574 962e 7976 e72e

exp_avg f4 [100]
1.8245748e-07 2.4884345e-08 -4.326518e-08 4.343452e-08 -2.3234135e-07 9.504023e-08 -9.989845e-08 5.2165518e-08
-1.397718e-07 -1.874699e-08 1.18637146e-07 -1.3396574e-07 -1.3746583e-07 4.483779e-08 -9.102401e-08 8.52481e-08
1.01471045e-07 -6.5345716e-08 -7.4441124e-09 -1.3781469e-08 1.9130601e-07 4.6770516e-08 -2.3796503e-07 -2.067806e-07
2.2111651e-07 9.060718e-08 -8.8545825e-08 -2.2433292e-07 -2.399611e-08 3.7411237e-08 8.581243e-08 6.5199806e-08
-1.5067188e-07 2.1202155e-07 -3.131649e-10 -6.934971e-08 -3.259368e-08 1.719781e-07 -5.868824e-08 -1.050917e-07
-1.3571405e-07 4.631916e-09 -1.5229666e-07 -2.3823527e-07 -9.422095e-08 -6.1949066e-08 9.049758e-08 1.9699745e-07
2.1529374e-08 2.075133e-08 -2.7441121e-08 -8.2038355e-08 2.1283293e-07 -1.3272096e-07 -1.08970625e-07 -1.8039206e-07
-1.5697859e-07 -1.1373409e-07 -5.7070952e-08 3.2397114e-07 -1.1870493e-07 2.6702028e-07 -1.847275e-07 2.7679754e-08
-1.3434432e-07 1.2140914e-07 -4.8031843e-08 -9.088108e-08 -3.151631e-08 8.410249e-08 -2.7390248e-08 5.1652513e-09
9.65045e-08 -7.306154e-08 -1.18932e-07 2.843253e-08 -4.378139e-08 2.4806823e-08 2.9802976e-07 -1.5515366e-07
-1.9023373e-07 2.4764768e-07 7.524317e-08 1.7607489e-08 -2.9595313e-08 2.1490295e-07 -1.0810793e-07 4.5363063e-08
-1.4683523e-07 -1.932947e-08 1.347271e-07 -2.816664e-08 -1.0130864e-07 -9.9489405e-08 -4.236484e-09 -1.4094339e-08
2.6641718e-08 1.8557857e-07 1.9033116e-07 1.6882242e-07
00000000: 88e9 4334 41c1 d532 92d2 39b3 c38c 3a33
00000010: 8179 79b4 eb18 cc33 c187 d6b3 980c 6033
00000020: 2e14 16b4 1109 a1b2 76c5 fe33 39d8 0fb4
00000030: 529a 13b4 ac93 4033 fb78 c3b3 a311 b733
00000040: 4ce8 d933 3054 8cb3 1bc7 ffb1 8bc3 6cb2
00000050: cc69 4d34 bae0 4833 5483 7fb4 6b07 5eb4
00000060: 0b6c 6d34 d393 c233 9526 beb3 2ae0 70b4
00000070: 0120 ceb2 17ae 2033 e247 b833 f903 8c33
00000080: 5fc8 21b4 0aa8 6334 0b2a acaf 68ed 94b3
00000090: 21fd 0bb3 fba8 3834 6710 7cb3 c6ae e1b3
000000a0: cbb8 11b4 c426 9f31 fd86 23b4 9dcd 7fb4
000000b0: 8456 cab3 dc08 85b3 9257 c233 3f86 5334
000000c0: 98ef b832 a840 b232 aab7 ebb2 102d b0b3
000000d0: 1287 6434 0f82 0eb4 3c03 eab3 cbb1 41b4
000000e0: f28d 28b4 fa3d f4b3 2d1e 75b3 41ee ad34
000000f0: baea feb3 fd5a 8f34 8259 46b4 6cc4 ed32
00000100: 4940 10b4 b15c 0234 924b 4eb3 672a c3b3
00000110: 8d5c 07b3 d59b b433 cb47 ebb2 087a b131
00000120: e93d cf33 02e6 9cb3 8f67 ffb3 cb3b f432
00000130: 260a 3cb3 c816 d532 e600 a034 5098 26b4
00000140: 0d43 4cb4 70f4 8434 5f95 a133 473f 9732
00000150: c838 feb2 13c0 6634 f728 e8b3 37d5 4233
00000160: c3a9 1db4 f409 a6b2 81a9 1034 19f3 f1b2
00000170: 048f d9b3 e1a6 d5b3 8290 91b1 8f23 72b2
00000180: c2d9 e432 7343 4734 d55d 4c34 8e45 3534

exp_avg_sq f4 [100]
1.0184531e-07 1.332924e-08 4.3119197e-08 2.8186003e-08 1.06421474e-07 9.233802e-08 7.206635e-08 6.031183e-08
4.016631e-08 2.8236157e-08 1.058822e-08 5.9202414e-08 6.204899e-08 9.227148e-09 5.5528655e-08 2.3083965e-08
2.6413414e-08 1.3119396e-07 4.0123055e-08 1.0399159e-09 1.0133304e-07 1.0651593e-08 4.1905245e-08 5.7475432e-08
9.1957475e-08 4.74817e-08 3.818041e-09 3.9073118e-08 1.136422e-08 4.9955386e-08 5.903733e-08 8.321401e-08
4.221615e-08 3.4806813e-08 1.3776173e-08 3.9251795e-08 5.3090577e-08 9.81105e-08 1.8625295e-08 5.9104366e-08
7.893399e-09 9.728309e-09 3.9957047e-08 3.945155e-08 1.8040591e-08 3.472931e-08 1.38801655e-08 7.79169e-08
2.0019009e-08 2.042775e-08 1.8002341e-08 1.3854099e-08 8.164122e-08 2.7222338e-08 2.2751252e-08 8.052834e-08
1.6781762e-08 5.0594274e-08 2.387402e-08 2.3018114e-08 2.5363966e-09 1.6016681e-08 2.4061645e-08 4.800643e-08
5.405823e-08 2.4940345e-08 5.9152665e-09 2.1516216e-08 1.8523746e-08 2.8925301e-08 2.8698807e-08 4.1529507e-08
9.261958e-09 2.4799451e-08 3.4799406e-08 7.132568e-08 4.4642256e-08 3.0632243e-08 3.4911732e-08 3.3328043e-08
1.904799e-08 1.0047927e-07 9.238078e-09 3.0044024e-08 3.2076212e-08 1.4731513e-08 5.2614325e-08 1.21371775e-08
5.2100644e-09 1.7193244e-08 5.384325e-08 1.5724185e-08 1.11200755e-08 8.2854186e-08 5.2748636e-08 1.1180508e-08
4.933424e-09 5.1549705e-08 5.8538447e-08 7.641688e-08
00000000: 0db6 da33 9efe 6432 0f32 3933 ad1d f232
00000010: d389 e433 5d4b c633 e5c2 9a33 c784 8133
00000020: 5383 2c33 f78b f232 7ce7 3532 be45 7e33
00000030: cb3f 8533 6d85 1e32 677e 6e33 2d4a c632
00000040: b6e3 e232 52de 0c34 c453 2c33 caec 8e30
00000050: 6e9c d933 34fe 3632 4efb 3333 e8da 7633
00000060: 287a c533 aeee 4b33 d82f 8331 59d1 2733
00000070: 5e3c 4332 878e 5633 3b90 7d33 63b3 b233
00000080: 2651 3533 7f7e 1533 40ac 6c32 ce95 2833
00000090: b505 6433 d1b0 d233 75fd 9f32 f0d9 7d33
000000a0: 899b 0732 8e21 2732 3d9d 2b33 7071 2933
000000b0: aef7 9a32 4829 1533 9d75 6e32 4553 a733
000000c0: 44f6 ab32 1979 af32 91a3 9a32 f902 6e32
000000d0: bc52 af33 8ed6 e932 886e c332 ecee ac33
000000e0: 7c27 9032 fe4c 5933 8613 cd32 5eb9 c532
000000f0: c34c 2e31 0e95 8932 1eb0 ce32 a12f 4e33
00000100: a72d 6833 663c d632 3c3f cb31 a9d2 b832
00000110: 261e 9f32 6977 f832 5885 f632 2d5e 3233
00000120: 861e 1f32 9206 d532 5a76 1533 b52b 9933
00000130: aebc 3f33 8290 0333 dbf1 1533 9224 0f33
00000140: f99e a332 10c7 d733 7fb5 1e32 c109 0133
00000150: 2bc4 0933 e115 7d32 10fa 6133 df83 5032
00000160: 3604 b331 58b0 9332 4841 6733 d911 8732
00000170: 9c0a 3f32 92ed b133 bd8d 6233 6514 4032
00000180: db82 a931 8067 5d33 b46b 7b33 a01a a433

exp_avg f4 [100, 100]
-7.653595e-09 5.881458e-10 8.0657586e-10 2.2306332e-09 -1.6834065e-08 -6.9563075e-09 3.6506766e-09 -3.5201788e-09
2.6268874e-09 5.754712e-10 1.5121211e-09 2.5734352e-09 5.638812e-10 4.8956394e-10 3.5527015e-10 1.3623129e-09
2.9005265e-09 1.0237851e-09 -4.927737e-09 2.323804e-10 -5.125486e-09 1.4896928e-09 -9.4743005e-09 -1.4220225e-08
-3.786732e-09 3.6681609e-09 1.4790538e-10 -6.440164e-09 5.170186e-10 6.0940586e-10 -3.6657422e-09 -9.227072e-09
1.8608203e-09 1.3273614e-09 -6.873633e-10 -2.1720707e-09 -7.15462e-10 -5.065219e-09 1.2332675e-09 2.2085385e-09
2.9421168e-10 6.42082e-10 4.0604746e-09 -7.161133e-09 6.7271244e-10 1.0209835e-09 1.007371e-09 -6.0870944e-09
-1.8829788e-10 5.8238264e-10 1.7556562e-10 5.3503324e-10 -7.996938e-09 2.4105855e-09 4.2347698e-10 -1.1714424e-08
3.8383616e-10 1.6056395e-09 1.222822e-09 3.4501315e-09 1.601458e-10 3.8977044e-10 1.1711133e-09 2.400198e-09
3.8695234e-09 2.6622105e-09 -1.1197931e-09 1.2815761e-11 1.3441679e-09 7.7059e-10 2.2186179e-10 -1.4864994e-09
-2.1504485e-09 2.8066027e-10 -7.1862355e-10 -2.116038e-09 -3.820779e-09 2.399675e-09 3.4298835e-09 -4.502687e-09
1.8997148e-09 -5.2559828e-09 1.3050164e-09 2.9694525e-09 2.7672595e-09 1.4058148e-09 -2.7331123e-10 -1.9132993e-09
3.0944766e-10 3.6059974e-10 -3.7727337e-09 8.293975e-10 4.0692794e-10 3.5269905e-09 2.4169575e-09 -1.1986694e-09
-4.279117e-10 -8.210167e-09 -5.6662555e-09 -4.523722e-09 -1.3539175e-09 9.323935e-11 -9.0197433e-10 8.315271e-11
-1.3887009e-08 -2.0730095e-09 -7.0340187e-09 8.5283824e-10 -2.9225755e-10 -2.1481668e-09 5.79948e-10 -1.4380437e-09
-9.3088254e-10 1.4061421e-10 -1.2447169e-09 -2.8377405e-09 1.4864597e-10 -3.2324082e-10 -3.3341072e-09 4.9688826e-11
7.604585e-11 2.486144e-10 -7.8874605e-09 -9.653755e-09 2.9886893e-10 -3.2097364e-10 2.1602515e-11 -4.677385e-09
1.745477e-11 2.4117286e-11 2.2339077e-09 -2.363354e-09 -1.5648558e-09 2.2167626e-10 1.7353377e-10 1.8826647e-09
1.5333694e-10 -5.07774e-10 -1.6495394e-09 -3.593675e-09 -2.0178964e-10 1.6536323e-11 -1.5519143e-09 -6.4574235e-09
-1.9568686e-10 -6.2762756e-10 -2.4081566e-09 -5.606358e-10 -2.5622154e-10 -2.5179742e-10 -6.9578776e-10 -4.4354322e-11
-1.6583123e-09 -2.9887421e-09 -3.866635e-10 -7.502449e-09 -5.34819e-10 -1.5001195e-10 -8.411956e-10 1.6993025e-09
3.8904113e-11 7.402188e-11 -7.977185e-10 -4.7930517e-09 -1.7248885e-09 2.9920474e-10 -5.385054e-10 -1.3805825e-09
1.0761876e-10 -2.7753737e-09 -1.3464653e-09 5.3677224e-10 9.501847e-10 -7.8526624e-10 -1.9377269e-09 1.1252782e-09
2.9491334e-09 1.0109144e-10 5.566152e-10 -1.1101093e-09 -2.0387343e-10 7.2810236e-10 1.5058264e-10 8.180137e-11
-1.1261836e-09 1.1544715e-09 -2.9024465e-09 -2.992996e-11 2.7040079e-11 9.426274e-12 1.8343195e-11 -4.247468e-11
-1.249797e-11 -5.928924e-09 8.4083955e-12 -1.5049056e-11 -1.3058465e-11 -2.9509273e-10 -3.6205812e-09 2.858599e-10
7.085108e-10 -2.1171911e-10 2.413601e-09 -2.5832703e-10 2.7489547e-08 2.9709675e-09 1.865217e-08 -2.9319787e-09
7.190085e-10 5.648229e-09 -1.534241e-09 3.8305807e-09 2.4745053e-09 -3.398568e-10 3.2769008e-09 7.517365e-09
-5.445634e-10 8.963507e-10 7.1901125e-09 -1.13623805e-10 -1.6026795e-09 -6.3913713e-10 1.6570443e-08 1.8069699e-08
-1.615228e-09 6.0719313e-10 -4.5338473e-11 9.936218e-09 -1.468015e-11 -2.9312767e-11 -6.4956183e-09 2.314751e-09
4.1897725e-09 -5.5810906e-10 -5.2393206e-10 -5.1767106e-09 -4.753305e-10 -8.538097e-11 4.39616e-09 9.549143e-09
5.48841e-10 -8.413072e-12 3.971064e-09 1.4149813e-08 5.516126e-10 1.7004467e-09 6.3668866e-09 -4.4798756e-10
6.495397e-10 6.960603e-10 1.8292775e-09 1.4840844e-10 1.2862911e-09 7.9620035e-09 1.0409583e-09 1.4146431e-08
00000000: de7c 03b2 15ab 2130 bbb5 5d30 b749 1931
00000010: 809a 90b2 5404 efb1 62df 7a31 a4e7 71b1
00000020: b184 3431 302f 1e30 08d3 cf30 5ad8 3031
00000030: 9dff 1a30 0092 0630 d44f c32f 203c bb30
00000040: 9a52 4731 3cb5 8c30 d550 a9b1 4581 7f2f
00000050: 401c b0b1 e8bd cc30 6ac4 22b2 364d 74b2
00000060: 721c 82b1 f812 7c31 aa9f 222f 4848 ddb1
00000070: f31d 0e30 2083 2730 6be8 7bb1 1885 1eb2
00000080: cbbf ff30 616e b630 e4f0 3cb0 7943 15b1
00000090: 2aaa 44b0 230a aeb1 be7f a930 05c5 1731
000000a0: 9dbe a12f 817e 3030 5084 8b31 fe0d f6b1
000000b0: eee9 3830 aa52 8c30 b773 8a30 a626 d1b1
000000c0: 2409 4faf 8915 2030 5409 412f 9e11 1330
000000d0: e862 09b2 78a7 2531 16cf e82f 9540 49b2
000000e0: 2304 d32f 6bad dc30 3910 a830 5b17 6d31
000000f0: 0915 302f 5047 d62f e3f4 a030 bbf0 2431
00000100: b0f4 8431 1af2 3631 38e7 99b0 0e75 612d
00000110: b4bd b830 73d1 5330 8bf0 732f 8c4d ccb0
00000120: 17c7 13b1 6c4b 9a2f a388 45b0 bc69 11b1
00000130: ed47 83b1 87e7 2431 26b3 6b31 0eb6 9ab1
00000140: 238c 0231 1d98 b4b1 2f5c b330 290f 4c31
00000150: 252a 3e31 b636 c130 2341 96af 1e7b 03b1
00000160: e31e aa2f e73d c62f 51a1 81b1 a9fb 6330
00000170: 04b6 df2f 795f 7231 9117 2631 6ebe a4b0
00000180: 383f ebaf b20c 0db2 e9b0 c2b1 146f 9bb1
00000190: bd14 bab0 1609 cd2e cdee 77b0 d0da b62e
000001a0: b693 6eb2 c574 0eb1 e2af f1b1 286d 6a30
000001b0: 98ab a0af f39e 13b1 366a 1f30 aaa4 c5b0
000001c0: 09e1 7fb0 629b 1a2f 9512 abb0 0f02 43b1
000001d0: 1f70 232f 1ab4 b1af 3c1e 65b1 a588 5a2e
000001e0: 023a a72e 5ead 882f 6b81 07b2 aad9 25b2
000001f0: 104e a42f 0675 b0af 8a04 be2d b7b6 a0b1
00000200: a688 992d 4d23 d42d 5283 1931 9068 22b1
00000210: 7812 d7b0 52bc 732f 6acd 3e2f 3060 0131
00000220: 8398 282f 6b93 0bb0 02b6 e2b0 99f4 76b1
00000230: bcde 5daf 7d74 912d 214b d5b0 19e0 ddb1
00000240: f428 57af 5d85 2cb0 bd7c 25b1 3d1b 1ab0
00000250: fadb 8caf 566d 8aaf b641 3fb0 8712 43ae
00000260: adea e3b0 8262 4db1 0d92 d4af 1fe4 00b2
00000270: 8b02 13b0 9cf0 24af e139 67b0 e48c e930
00000280: 231a 2b2e 9dc6 a22e 7346 5bb0 21b0 a4b1
00000290: 1e11 edb0 537d a42f f305 14b0 eebe bdb0
000002a0: faa7 ec2e e4b8 3eb1 890e b9b0 fd8b 1330
000002b0: a797 8230 33da 57b0 da28 05b1 35a8 9a30
000002c0: b4a9 4a31 6c4d de2e 5000 1930 8092 98b0
000002d0: 4529 60af a623 4830 3f91 252f 14e2 b32e
000002e0: 10c8 9ab0 5bab 9e30 6174 47b1 24a2 03ae
000002f0: d8d8 ed2d 2ad4 252d 3459 a12d 3dce 3aae
00000300: dadd 5bad 5eb7 cbb1 0cec 132d 765f 84ad
00000310: 19ba 65ad 9c3a a2af f0cd 78b1 3427 9d2f
00000320: 04c1 4230 a2c9 68af 85dc 2531 4c04 8eaf
00000330: 2722 ec32 d029 4c31 8e38 a032 ea7b 49b1
00000340: baa3 4530 5912 c231 4edd d2b0 259e 8331
00000350: f50b 2a31 98d6 baaf d92f 6131 b925 0132
00000360: 3eb0 15b0 1363 7630 e60c f731 84dc f9ae
00000370: 4645 dcb0 47af 2fb0 ca56 8e32 b037 9b32
00000380: c8fe ddb0 6be7 2630 9566 47ae f3b3 2a32
00000390: c220 81ad 3eeb 00ae 1030 dfb1 8811 1f31
000003a0: a1f5 8f31 6f69 19b0 7104 10b0 d4de b1b1
000003b0: 69a8 02b0 37c1 bbae 080d 9731 930d 2432
000003c0: 40dd 1630 1c01 14ad d971 8831 8917 7332
000003d0: 49a0 1730 26b5 e930 bac3 da31 a548 f6af
000003e0: 4b8b 3230 e454 3f30 fb69 fb30 432d 232f
000003f0: 58c9 b030 43c9 0832 7711 8f30 a908 7332
