TSTE-R/PV-DC-noisy-comparison/Noisy-2%/Proposed_A30_noisy0.02/save_model_0224.ckpt-2650000.pt (torch, 265366 bytes, 24 tensors)

linears.0.weight f4 [100, 6]
25.106205 24.965239 24.823097 24.794739 24.817944 24.99297 -11.583236 -11.522052
-11.475022 -11.69154 -11.763877 -11.387183 15.049761 15.192242 15.267667 15.289916
15.406472 15.516292 7.254589 7.4212117 7.2773952 7.5784426 7.719599 7.643119
-7.750909 -8.001734 -8.172142 -7.7728763 -8.131999 -7.9124165 13.508933 13.379455
13.390505 13.646283 13.658145 13.330475 -15.201553 -15.157918 -15.190601 -15.302402
-15.273191 -15.05378 -8.392929 -8.815642 -8.555469 -8.4184065 -8.553637 -8.821715
-8.473768 -8.54855 -8.72453 -8.707035 -8.343722 -8.433482 -14.727764 -14.722434
-14.912459 -14.809235 -15.171896 -15.126452 8.333054 8.55741 8.602344 8.702258
8.639863 8.611428 -29.26265 -29.409594 -29.142647 -29.356667 -29.627167 -29.644236
11.483839 11.472331 11.473889 11.42994 11.4864 11.713508 -7.5173974 -7.643002
-7.5807037 -7.3739023 -7.5568485 -7.5730467 11.935874 11.685143 11.766426 11.606781
11.931799 11.506312 -9.453812 -9.723979 -9.799121 -9.418345 -9.393835 -9.720305
23.663002 23.888906 23.864767 24.124775 24.13776 24.053106 -7.5623336 -7.541579
-7.622405 -7.4436617 -7.764999 -7.761572 -19.133833 -18.966267 -19.173857 -18.87195
-18.892057 -18.890718 11.099479 11.249468 11.10203 11.425213 11.499388 11.452503
-8.064659 -7.8828206 -8.021505 -8.231591 -8.171908 -8.145644 -6.782667 -6.4133434
-6.537014 -6.777585 -6.6629558 -6.6270714 10.730638 10.546657 10.505274 10.499681
10.806465 10.714783 10.446891 10.364341 10.282455 10.13004 10.357613 10.3436165
11.49845 11.499774 11.713214 11.655723 11.717077 11.436787 -8.920523 -8.945407
-8.88487 -9.3579035 -9.338354 -9.113513 8.548914 8.466799 8.451108 8.248106
8.650684 8.466504 -9.800541 -9.717553 -10.071491 -9.788104 -9.738998 -9.931987
-16.91778 -16.926561 -16.650864 -17.103611 -17.097685 -17.060946 -27.028399 -27.317284
-27.29588 -27.361135 -26.95389 -27.176435 10.723366 10.498384 10.598259 10.764165
10.517069 10.373954 12.174576 12.264687 12.308192 12.238095 12.166259 12.541169
9.509678 9.782472 9.720922 9.57617 9.80754 9.754142 7.966675 7.943498
7.7829595 7.925285 7.7645025 7.691331 -23.157818 -22.916014 -23.13184 -23.251297
-23.32021 -23.319855 15.506008 15.273346 15.301374 15.369728 15.59672 15.406449
11.890567 12.332494 12.093371 12.276081 11.966887 12.207614 -10.752448 -10.688442
-10.83646 -10.727758 -10.684328 -10.74865 10.5796995 10.56438 10.39131 10.48897
10.688725 10.749568 7.8959312 7.896857 7.9154253 7.8549695 7.85477 7.88542
7.702352 7.8485274 7.79346 7.9350767 7.955089 8.1737995 -5.207836 -4.9163623
-4.9738526 -4.856728 -4.8621936 -5.016298 -8.339429 -8.157907 -8.010156 -8.356333
00000000: 82d9 c841 cfb8 c741 b495 c641 a05b c641
00000010: 268b c641 9af1 c741 ef54 39c1 535a 38c1
00000020: b199 37c1 8c10 3bc1 d738 3cc1 e731 36c1
00000030: d2cb 7041 6c13 7341 5d48 7441 7fa3 7441
00000040: e980 7641 bb42 7841 9825 e840 917a ed40
00000050: 6ce0 e840 9a82 f240 f406 f740 6e94 f440
00000060: 7207 f8c0 1a07 00c1 18c1 02c1 67bb f8c0
00000070: ab1c 02c1 8432 fdc0 9724 5841 3f12 5641
00000080: 823f 5641 2d57 5a41 c387 5a41 a049 5541
00000090: 9039 73c1 d586 72c1 b40c 73c1 a3d6 74c1
000000a0: fe5e 74c1 48dc 70c1 7049 06c1 df0c 0dc1
000000b0: 33e3 08c1 cbb1 06c1 b2db 08c1 bf25 0dc1
000000c0: 8e94 07c1 dcc6 08c1 ad97 0bc1 0450 0bc1
000000d0: e37f 05c1 8bef 06c1 eca4 6bc1 178f 6bc1
000000e0: 6f99 6ec1 a0f2 6cc1 16c0 72c1 f305 72c1
000000f0: 3054 0541 27eb 0841 33a3 0941 733c 0b41
00000100: e13c 0a41 69c8 0941 e819 eac1 d946 ebc1
00000110: 2424 e9c1 74da eac1 7004 edc1 6527 edc1
00000120: cebd 3741 ab8e 3741 0d95 3741 09e1 3641
00000130: 4bc8 3741 876a 3b41 858e f0c0 7993 f4c0
00000140: 2095 f2c0 02f7 ebc0 b4d1 f1c0 6656 f2c0
00000150: 57f9 3e41 59f6 3a41 4843 3c41 60b5 3941
00000160: a6e8 3e41 db19 3841 d042 17c1 6b95 1bc1
00000170: 33c9 1cc1 8bb1 16c1 264d 16c1 5f86 1bc1
00000180: d44d bd41 7b1c bf41 0beb be41 8aff c041
00000190: 221a c141 c36c c041 a3fe f1c0 9d54 f1c0
000001a0: beea f3c0 7a32 eec0 df7a f8c0 cc5e f8c0
000001b0: 1712 99c1 eaba 97c1 0f64 99c1 c1f9 96c1
000001c0: ef22 97c1 3120 97c1 7797 3141 d2fd 3341
000001d0: eaa1 3141 accd 3641 7efd 3741 743d 3741
000001e0: d808 01c1 1140 fcc0 1658 00c1 99b4 03c1
000001f0: 23c0 02c1 8f54 02c1 9c0b d9c0 1c3a cdc0
00000200: 382f d1c0 fae1 d8c0 ef36 d5c0 f810 d4c0
00000210: b1b0 2b41 1bbf 2841 9a15 2841 b2fe 2741
00000220: 48e7 2c41 c06f 2b41 7726 2741 57d4 2541
00000230: f084 2441 a514 2241 c8b8 2541 747f 2541
00000240: a7f9 3741 13ff 3741 5369 3b41 d77d 3a41
00000250: 2679 3b41 14fd 3641 76ba 0ec1 6320 0fc1
00000260: 6d28 0ec1 f9b9 15c1 e669 15c1 f3d0 11c1
00000270: 5ac8 0841 0278 0741 bd37 0741 3ef8 0341
00000280: 3469 0a41 cd76 0741 04cf 1cc1 197b 1bc1
00000290: d424 21c1 139c 1cc1 f0d2 1bc1 6be9 1ec1
000002a0: 9d57 87c1 9969 87c1 f834 85c1 32d4 88c1
000002b0: 0fc8 88c1 d17c 88c1 293a d8c1 cc89 dac1
000002c0: f65d dac1 9be3 dac1 91a1 d7c1 5769 d9c1
000002d0: e892 2b41 62f9 2741 7892 2941 053a 2c41
000002e0: ea45 2841 b7fb 2541 10cb 4241 283c 4441
000002f0: 5bee 4441 3dcf 4341 ffa8 4241 a1a8 4841
00000300: a427 1841 0185 1c41 e688 1b41 fe37 1941
00000310: afeb 1c41 f710 1c41 00ef fe40 2331 fe40
00000320: 010e f940 ef9b fd40 ce76 f840 621f f640
00000330: 3643 b9c1 ff53 b7c1 020e b9c1 a802 bac1
00000340: ca8f bac1 108f bac1 9c18 7841 a05f 7441
00000350: 6ed2 7441 68ea 7541 2a8c 7941 d180 7641
00000360: c33f 3e41 e551 4541 737e 4141 d46a 4441
00000370: 5f78 3f41 6352 4341 070a 2cc1 dc03 2bc1
00000380: 2462 2dc1 e6a4 2bc1 02f3 2ac1 78fa 2bc1
00000390: 7346 2941 b307 2941 ce42 2641 d2d2 2741
000003a0: 0505 2b41 3bfe 2b41 78ab fc40 0db3 fc40
000003b0: 2a4b fd40 e95b fb40 475a fb40 5c55 fc40
000003c0: ab79 f640 2327 fb40 0664 f940 26ec fd40
000003d0: 1790 fe40 e2c7 0241 98a6 a6c0 d752 9dc0
000003e0: cd29 9fc0 516a 9bc0 1797 9bc0 8385 a0c0
000003f0: 4d6e 05c1 c986 02c1 9929 00c1 8ab3 05c1

linears.0.bias f4 [100]
0.29754585 0.22676219 0.1827534 0.0140450625 0.09938135 0.1585751 0.4587071 0.11772795
0.16050728 0.42392838 0.02469359 0.82478696 0.11032343 0.1285395 0.12765324 0.14465792
0.30276415 0.10548475 0.4001713 0.104101785 0.100623004 0.071371265 0.07624405 0.05209389
0.05026984 0.24469216 0.6535735 0.17665796 0.5853682 0.78388226 0.053464852 0.12715359
0.06602639 0.020334022 0.7535118 0.13535465 0.120488465 0.17397906 0.05420594 0.032907195
0.018676594 0.15893055 0.1479578 0.3729969 0.11679827 0.19538717 0.038710583 0.122177504
0.30707273 0.2564498 0.06479035 0.019132432 0.18426433 0.17539696 0.07718848 0.16325296
0.17716527 0.30240947 0.1404211 0.36805522 0.35104945 0.16796102 0.07984302 0.05935608
0.3922858 0.18257679 0.19305424 0.21348199 0.43292934 0.07183245 0.7002229 0.07151674
0.04717904 0.29302573 0.07587955 0.10915964 0.46688393 0.16950732 0.08669902 0.17866573
0.14629632 0.20867583 0.04261169 0.21273565 0.3565292 0.65233415 0.07282527 0.058154438
0.04881956 0.11235431 0.14277439 0.12190566 0.048446007 0.06558391 0.1822479 0.68748885
0.26604196 0.2605396 0.14797005 0.03600438
00000000: ee57 983e 5934 683e b523 3b3e 431d 663c
00000010: 7388 cb3d 8361 223e a8db ea3e 5a1b f13d
00000020: 055c 243e 240d d93e 364a ca3c 3d25 533f
00000030: 40f1 e13d dc9f 033e 88b7 023e 3521 143e
00000040: e703 9b3e 6308 d83d 41e3 cc3e 5133 d53d
00000050: 6f13 ce3d 192b 923d d725 9c3d 6760 553d
00000060: bfe7 4d3d 9590 7a3e 9850 273f d3e5 343e
00000070: b1da 153f 82ac 483f f6fd 5a3d 8d34 023e
00000080: d838 873d 8993 a63c 26e6 403f 699a 0a3e
00000090: a8c2 f63d 9127 323e 0c07 5e3d b2c9 063d
000000a0: a8ff 983c b1be 223e 4082 173e 73f9 be3e
000000b0: ee33 ef3d 9313 483e fd8e 1e3d 3338 fa3d
000000c0: a338 9d3e 634d 833e ceb0 843d 9ebb 9c3c
000000d0: caaf 3c3e 439b 333e fe14 9e3d c92b 273e
000000e0: d06a 353e 6ad5 9a3e 8dca 0f3e bc71 bc3e
000000f0: c1bc b33e f9fd 2b3e bd84 a33d 5c1f 733d
00000100: afd9 c83e 69f5 3a3e 03b0 453e 069b 5a3e
00000110: eaa8 dd3e e41c 933d cf41 333f 5e77 923d
00000120: cf3e 413d 7807 963e bd66 9b3d 178f df3d
00000130: 690b ef3e 5493 2d3e 418f b13d 26f4 363e
00000140: b4ce 153e 1eaf 553e 9889 2e3d 60d7 593e
00000150: ff8a b63e 5fff 263f 6a25 953d 5933 6e3d
00000160: 05f7 473d 041a e63d 7333 123e ada9 f93d
00000170: 526f 463d db50 863d 329f 3a3e 45ff 2f3f
00000180: a736 883e 7265 853e 7685 173e 5479 133d

linears.1.weight f4 [100, 100]
-0.9545623 0.14440487 0.15382446 0.71874315 0.09679543 -0.003325433 0.69286764 0.37905115
0.7829133 1.1078885 0.72176754 0.35823435 -0.16455434 0.68222284 -0.008838193 -0.11145328
-0.4642064 0.19426136 0.48740855 0.58792627 0.08349406 -0.086468406 0.62188077 -0.20633762
-0.21654753 -0.788597 0.5965064 -0.44098595 0.9211464 0.33994323 0.014523728 0.5617863
0.80950886 0.76365536 0.7218563 -0.7779534 0.3574268 -0.13369316 0.19688687 0.774959
0.43866125 1.3506559 0.6635492 -0.56565565 0.4368126 0.26422006 0.77536964 0.59109527
-0.82821554 0.37187928 -0.029831432 -0.063809365 -0.036198877 -0.48142016 0.02654798 0.93307966
0.15156241 -0.7089608 -0.27361822 -1.1529524 -0.6787855 -0.8151426 -0.81795394 0.041563094
-0.33328405 1.2385415 0.011998541 -0.18428312 0.9048964 0.10291727 0.58850646 0.4644923
-0.03058951 -0.865197 0.4876942 -0.12152217 -0.53654885 0.17393814 0.09344424 -0.5285797
0.55559206 -0.1696116 -0.06261124 -0.8902458 -0.16968867 -0.45366 0.14273843 0.27326074
1.0722967 0.33115333 0.6460696 0.44178736 0.07374316 0.30897775 0.59765166 -0.56384856
0.67763776 1.204336 0.8510944 0.41427276 4.574849 0.6427786 0.2574954 -0.12830622
0.45797417 -0.027832925 -1.3194888 0.0011416879 -0.87925714 -1.2064614 0.09469968 -2.11181
-0.3655261 -1.0475167 -0.7674125 0.85943776 1.1086824 0.5498768 -0.5087479 -0.1700138
0.38790303 0.29812536 -0.02194752 -1.1965986 0.708469 -0.1883852 -0.04109152 0.68553853
-2.1891274 -2.7973707 -1.2977583 -0.6441388 -0.50649184 0.14087318 -1.8023547 1.642344
-0.036786053 0.91486114 0.1313537 0.1598058 0.052440718 -0.5978133 -0.67231387 -0.23721889
-0.5439854 -0.038436394 0.052042603 -0.66125834 2.1329896 -0.029757388 -1.1512789 1.5006115
0.74611694 0.5805872 0.35450298 -1.1839494 -0.17326301 3.7357454 1.0405568 4.5274196
-0.30644625 3.3648994 -0.7107655 -1.045051 -0.37217733 -1.4874872 0.23827155 0.8690705
-0.98407245 0.3035721 -2.3739507 0.026951706 1.4300587 2.277807 -0.0858351 0.6377951
-0.60889244 0.09057821 -1.2590939 3.0383077 -0.69691736 0.8304066 -1.1829304 0.092283905
0.23259827 -1.6174791 0.17380944 0.36802167 -0.5224388 0.08819436 -0.94052756 -0.2259392
0.4553343 -1.0661994 -0.21160047 -1.7367823 -0.9856606 -1.6085392 -0.8654424 0.019364327
-1.878012 0.051495984 -0.21973617 -0.3821591 0.9094463 0.008295535 0.166323 0.7817998
1.1876134 1.3801956 -0.26257488 0.046939045 0.9057297 1.234561 1.0261045 0.28471878
-0.6404585 0.8062725 0.64482963 0.29400972 0.69116753 0.83557546 0.24465255 0.036798913
-0.4751073 -0.19754581 0.3145816 -0.2883085 0.89731896 0.04888634 0.14794062 0.70556337
0.5321241 -0.30911314 0.48315206 -1.1046089 0.07822692 -0.08615598 0.43706107 -0.08632705
-0.30345753 0.93059915 1.0573742 -0.6208058 1.2352476 0.20196466 -0.25311294 1.2529836
-1.4503684 0.0026830793 0.46881506 -0.7210008 -0.13984962 -0.44879892 1.0649364 1.3520175
00000000: 325e 74bf dfde 133e 2984 1d3e 8dff 373f
00000010: af3c c63d 82ef 59bb c65f 313f fe12 c23e
00000020: 026d 483f 4acf 8d3f c2c5 383f 7e6a b73e
00000030: ef80 28be 28a6 2e3f 11ce 10bc 9e41 e4bd
00000040: 76ac edbe 73ec 463e 9d8d f93e 5682 163f
00000050: effe aa3d 5916 b1bd 9433 1f3f 2b4a 53be
00000060: a3be 5dbe 7ee1 49bf a5b4 183f e9c8 e1be
00000070: 40d0 6b3f 0a0d ae3e eef4 6d3c 3ad1 0f3f
00000080: f93b 4f3f eb7e 433f 93cb 383f f427 47bf
00000090: a500 b73e dce6 08be b69c 493e b763 463f
000000a0: 3598 e03e 4be2 ac3f 5cde 293f cfce 10bf
000000b0: e7a5 df3e da47 873e a07e 463f 0552 173f
000000c0: ef05 54bf f666 be3e 0c61 f4bc 7cae 82bd
000000d0: 4645 14bd b47c f6be 267b d93c 4fde 6e3f
000000e0: 2d33 1b3e 747e 35bf b017 8cbe f293 93bf
000000f0: e3c4 2dbf 2fad 50bf 6e65 51bf 103e 2a3d
00000100: 35a4 aabe 8788 9e3f 8795 443c b7b4 3cbe
00000110: 4aa7 673f 4ac6 d23d 5ca8 163f efd1 ed3e
00000120: da96 fabc 8d7d 5dbf 0eb3 f93e 9ee0 f8bd
00000130: 445b 09bf d71c 323e b25f bf3d 0051 07bf
00000140: 483b 0e3f aaae 2dbe 523a 80bd 26e7 63bf
00000150: dec2 2dbe 2046 e8be 062a 123e d5e8 8b3e
00000160: 0541 893f ee8c a93e d164 253f f431 e23e
00000170: a706 973d 5532 9e3e b3ff 183f 6158 10bf
00000180: ab79 2d3f af27 9a3f 53e1 593f 8f1b d43e
00000190: 2a65 9240 238d 243f 70d6 833e b562 03be
000001a0: 977b ea3e e001 e4bc 02e5 a8bf b0a4 953a
000001b0: ff16 61bf 546d 9abf e8f1 c13d e527 07c0
000001c0: 3d26 bbbe 0715 86bf 2575 44bf 1d04 5c3f
000001d0: 4ee9 8d3f bac4 0c3f 4d3d 02bf 1918 2ebe
000001e0: 3a9b c63e e3a3 983e 49cb b3bc 252a 99bf
000001f0: 395e 353f 0de8 40be 954f 28bd 747f 2f3f
00000200: aa1a 0cc0 1f08 33c0 f21c a6bf 48e6 24bf
00000210: 73a9 01bf 0f41 103e 8fb3 e6bf 5438 d23f
00000220: f9ac 16bd 5734 6a3f 9681 063e 22a4 233e
00000230: 14cc 563d 4b0a 19bf c31c 2cbf 82e9 72be
00000240: a142 0bbf 7b6f 1dbd a02a 553d 3a48 29bf
00000250: e782 0840 c4c5 f3bc 1b5d 93bf 0a14 c03f
00000260: 8501 3f3f 5da1 143f 6a81 b53e a78b 97bf
00000270: dc6b 31be 7416 6f40 f730 853f 9fe0 9040
00000280: 86e6 9cbe 835a 5740 baf4 35bf 3bc4 85bf
00000290: 078e bebe fb65 bebf 75fd 733e 677b 5e3f
000002a0: 2cec 7bbf cd6d 9b3e cfee 17c0 d3c9 dc3c
000002b0: 2a0c b73f 97c7 1140 50ca afbd 8a46 233f
000002c0: 60e0 1bbf 1281 b93d fd29 a1bf a273 4240
000002d0: 2d69 32bf 8795 543f 436a 97bf 58ff bc3d
000002e0: 3e2e 6e3e 8e09 cfbf 1afb 313e 566d bc3e
000002f0: 8dbe 05bf 3f9f b43d 6ac6 70bf 9b5c 67be
00000300: 9421 e93e 3979 88bf cbad 58be e24e debf
00000310: 4154 7cbf 9de4 cdbf a28d 5dbf f0a1 9e3c
00000320: b262 f0bf 74ed 523d 8502 61be 5caa c3be
00000330: 79d1 683f ffe9 073c 9450 2a3e 0824 483f
00000340: b703 983f 40aa b03f 3770 86be 2843 403d
00000350: e7dd 673f 1806 9e3f 6457 833f a9c6 913e
00000360: 17f5 23bf e067 4e3f 8e13 253f 7188 963e
00000370: 5bf0 303f 46e8 553f 3386 7a3e 75ba 163d
00000380: 4441 f3be 7349 4abe d710 a13e 2c9d 93be
00000390: b2b6 653f 0b3d 483d bf7d 173e cd9f 343f
000003a0: 4939 083f 1444 9ebe b55f f73e d363 8dbf
000003b0: 6f35 a03d 8c72 b0bd 78c6 df3e 3dcc b0bd
000003c0: c95e 9bbe bf3b 6e3f 0a58 873f 21ed 1ebf
000003d0: 981c 9e3f d3cf 4e3e 0598 81be c461 a03f
000003e0: aca5 b9bf 9ad6 2f3b 8708 f03e 8293 38bf
000003f0: bd34 0fbe f9c8 e5be d64f 883f e90e ad3f

linears.1.bias f4 [100]
0.5344412 -0.29071862 0.27277502 -0.66155654 0.21017762 0.17058972 -0.3181454 0.112009495
-0.13182074 -0.23747993 -0.073565885 -0.2519126 0.13684972 0.07226684 -0.03746825 0.025857741
0.021050906 0.45839322 -0.5584314 -0.09566593 0.7096291 -0.3168502 0.12748373 -0.3264459
0.11680152 0.03648089 -0.07607659 -0.08820623 -0.011655201 -0.6176428 -0.51768917 0.29317337
0.023639737 0.048882887 0.07745023 0.16509394 0.18900007 0.33871543 0.16946433 0.28407753
-0.4263406 0.16435842 -0.0077524604 0.08047783 0.08609907 -0.4223912 0.43025598 0.22414958
-0.32016745 0.8071459 0.3683914 0.23312506 -0.25464895 0.824416 0.09469591 -0.15512824
0.079615004 0.20433256 0.27682048 0.05434733 -0.124358095 -0.09810767 -0.56306064 -0.08234795
-0.49679512 -0.30015165 -0.43136507 0.07330835 0.16988896 0.021514345 0.5537713 0.18877682
0.17239448 0.10818859 0.34702975 -0.54259056 -0.046245735 0.2739253 -0.3732636 0.36409214
0.23921457 -0.29723787 0.65737677 0.25146937 0.2574097 0.91523755 0.21280138 -0.24591877
0.28589714 0.19076574 0.24698238 -0.8633542 0.12789068 0.15633392 0.11225258 -0.6487223
0.09256149 -0.4989134 0.17817865 -0.4894918
00000000: 23d1 083f 12d9 94be 2ba9 8b3e c55b 29bf
00000010: cd38 573e 12af 2e3e f4e3 a2be 3c65 e53d
00000020: 04fc 06be f02d 73be b6a9 96bd b0fa 80be
00000030: 5522 0c3e a300 943d 4f78 19bd 9dd3 d33c
00000040: f372 ac3c 84b2 ea3e 5cf5 0ebf 80ec c3bd
00000050: 41aa 353f 303a a2be 188b 023e eb23 a7be
00000060: a335 ef3d fc6c 153d 0bce 9bbd 78a5 b4bd
00000070: 75f5 3ebc d71d 1ebf 4787 04bf d21a 963e
00000080: 1fa8 c13c 6c39 483d 3a9e 9e3d 630e 293e
00000090: 3c89 413e 1c6c ad3e 0f88 2d3e 9c72 913e
000000a0: 5149 dabe 934d 283e 5a08 febb 8fd1 a43d
000000b0: b654 b03d a943 d8be 834a dc3e 7887 653e
000000c0: fdec a3be 1da1 4e3f cc9d bc3e 56b8 6e3e
000000d0: 5961 82be ed0c 533f eeef c13d f0d9 1ebe
000000e0: 310d a33d 8e3c 513e 6abb 8d3e 4e9b 5e3d
000000f0: 75af febd adec c8bd be24 10bf 0ba6 a8bd
00000100: ee5b febe 7aad 99be e2db dcbe b022 963d
00000110: 5ff7 2d3e da3e b03c f5c3 0d3f b64e 413e
00000120: 2e88 303e fb91 dd3d e2ad b13e 37e7 0abf
00000130: 2b6c 3dbd f03f 8c3e 681c bfbe 496a ba3e
00000140: aaf4 743e 902f 98be d849 283f 98c0 803e
00000150: 34cb 833e 024d 6a3f 9be8 593e 21d2 7bbe
00000160: 1c61 923e 1858 433e f3e8 7c3e c804 5dbf
00000170: c6f5 023e 0016 203e aee4 e53d aa12 26bf
00000180: e190 bd3d 9471 ffbe 7774 363e ab9e fabe

linears.2.weight f4 [100, 100]
0.2755899 -0.1326113 -0.4738663 -0.8762553 -0.4857211 0.24613114 -0.9760847 0.10305318
-0.077190116 -0.28818202 0.21435986 -0.9888502 -0.69036883 -0.7552522 -0.5906734 -0.79927707
0.40145037 -0.82629836 0.23087329 -0.24641909 0.20027004 0.14950806 0.56752807 -1.108915
-0.17128803 -0.7305231 0.35099092 -0.56973445 0.051184785 -0.10257886 -0.09440589 -0.5865179
-0.10705677 -0.32098562 -0.5889321 0.26282802 0.111501604 -0.20744696 -0.29605934 1.3534756
0.1274152 0.39035133 -0.17815934 0.2149837 -0.29942566 -0.9119519 0.072606206 -0.20549531
-0.58458453 0.13962397 0.37822866 0.29922196 -1.2977833 0.17495538 -0.19299531 0.2434393
0.038933747 -0.625121 0.08241128 -0.5473285 0.2453549 -0.4019941 0.28149584 0.23906985
-0.40086475 -0.7129437 0.21661551 0.13401595 0.16622351 -0.32917643 -0.0648677 0.33469445
0.64622235 -0.95855105 -0.72473145 0.19035242 -0.6928915 0.024402697 -0.7815505 -0.68550855
0.3816146 0.1645615 -0.5429212 0.19022171 0.07237048 -0.18845287 0.119547576 -1.1180563
0.24173638 -0.18230389 0.33131364 0.10879903 -0.17368288 0.3041805 -0.59099036 -0.9250454
-0.62192655 -0.5928985 0.15155953 -0.2089968 0.24255848 0.05887665 -1.332311 0.1492824
-0.48163137 -0.27851698 -0.067108326 0.035671312 -0.015221522 0.11228768 0.12577102 -0.010260335
0.14945465 0.06862946 -0.22474545 -0.07027142 0.33068082 0.1450294 -0.2077344 -0.022971429
-4.139294 -1.5041457 -0.32366127 -0.12099095 -0.02419948 -0.050200526 -0.40317333 -0.040931534
0.0667032 0.14565238 0.2078599 -0.2407012 0.0039936486 -0.021327462 -0.28784066 -0.41058698
-0.21035084 -1.3463117 -0.11750959 -0.15099037 -0.0069884756 -0.17261568 -0.0134761315 -0.37166685
-0.23600115 -0.30227026 -2.9731407 -0.72553825 -0.42684877 -0.24311036 -0.10364405 -0.012690533
0.031774856 0.63932747 -0.8974951 0.013075049 0.0053937724 0.048757605 -2.4979331 0.19185284
-0.26024684 -0.16022956 -0.07882167 -2.3325646 -0.074880265 -0.30295002 -1.318045 -0.868268
-0.012647089 -0.022003695 -3.1271777 -0.054531008 -0.20382497 -0.06572484 0.052736416 -0.35263172
0.091071375 -0.10147553 -0.28737485 -0.9654077 -0.1773768 -0.0048920335 -0.20070353 0.001796423
-0.03320325 0.7378908 -0.002491559 0.049220253 -0.025854068 -1.9835228 -0.019945763 -0.6617531
-0.02189825 -0.15963073 -0.5554344 0.46103874 0.08987539 0.11846583 0.011573184 0.030985191
0.4546252 -0.3267876 -0.17037414 -1.3635956 -0.46506563 0.374946 -1.6698467 0.357248
-0.25882307 -0.5072807 0.5963574 -1.6121002 -1.062159 -1.1618309 -0.8015493 -1.3306742
1.006618 -1.0259784 0.90012324 -0.90490484 0.4323036 0.45451325 1.176244 -1.8683984
-0.8713408 -1.1911361 -0.048109904 -0.9493999 -0.2876853 -0.5007523 -0.6821368 -1.0365663
-0.35050708 -1.0883751 -0.5707551 0.36066827 0.32894439 -0.029542057 -0.88027173 0.9562537
0.78783876 0.86258805 -0.7945548 0.22261424 -0.66435355 -1.4789295 0.17236386 -0.18795526
-1.0290883 0.62562495 1.0199255 0.92181927 -1.6865678 0.38767716 0.25344688 -1.016294
00000000: 1f1a 8d3e 42cb 07be 9b9e f2be 4452 60bf
00000010: 70b0 f8be cd09 7c3e b0e0 79bf 8c0d d33d
00000020: da15 9ebd 988c 93be 2781 5b3e 4925 7dbf
00000030: 03bc 30bf 3558 41bf 5f36 17bf 6c9d 4cbf
00000040: e78a cd3e 4a88 53bf 0c6a 6c3e 4955 7cbe
00000050: 9713 4d3e a418 193e 8549 113f edf0 8dbf
00000060: 2166 2fbe 9003 3bbf 15b5 b33e 1eda 11bf
00000070: 23a7 513d de14 d2bd e057 c1bd 0926 16bf
00000080: 9440 dbbd 3a58 a4be 41c4 16bf 6591 863e
00000090: f45a e43d fa6c 54be 1795 97be b03e ad3f
000000a0: 2179 023e 21dc c73e 676f 36be b024 5c3e
000000b0: 524e 99be ae75 69bf 90b2 943d 5d6d 52be
000000c0: 55a7 15bf 96f9 0e3e 30a7 c13e 9f33 993e
000000d0: c31d a6bf 8127 333e 90a0 45be 2748 793e
000000e0: fe78 1f3d ee07 20bf 3fc7 a83d b81d 0cbf
000000f0: 513e 7b3e 2cd2 cdbe 3920 903e bace 743e
00000100: 253e cdbe 7a83 36bf 75d0 5d3e 7a3b 093e
00000110: 7f36 2a3e d089 a8be 5bd9 84bd 125d ab3e
00000120: d46e 253f 9a63 75bf 0088 39bf bfeb 423e
00000130: 5661 31bf 2ae8 c73c b213 48bf 7d7d 2fbf
00000140: fd62 c33e cf82 283e e2fc 0abf 7bc9 423e
00000150: f936 943d caf9 40be 5cd5 f43d 781c 8fbf
00000160: be89 773e dfad 3abe f1a1 a93e 07d2 de3d
00000170: edd9 31be 8cbd 9b3e 254b 17bf c6cf 6cbf
00000180: 9436 1fbf 32c8 17bf 6c32 1b3e 4203 56be
00000190: 4061 783e a428 713d 2b89 aabf 7cdd 183e
000001a0: 6398 f6be c799 8ebe 1770 89bd 151c 123d
000001b0: b163 79bc 15f7 e53d 1eca 003e f71a 28bc
000001c0: a40a 193e 9a8d 8c3d ac23 66be 76ea 8fbd
000001d0: ff4e a93e 9682 143e 54b8 54be 942e bcbc
000001e0: 1975 84c0 d987 c0bf eeb6 a5be 1aca f7bd
000001f0: fd3d c6bc 119f 4dbd bc6c cebe d3a7 27bd
00000200: b09b 883d e625 153e 3ad9 543e 607a 76be
00000210: 27dd 823b eeb6 aebc da5f 93be 7538 d2be
00000220: 3666 57be f153 acbf dea8 f0bd 389d 1abe
00000230: 95ff e4bb 2ac2 30be feca 5cbc 1e4b bebe
00000240: 49aa 71be 2bc3 9abe f047 3ec0 e0bc 39bf
00000250: ec8b dabe ecf1 78be 5543 d4bd f4eb 4fbc
00000260: 5a26 023d f7aa 233f 3dc2 65bf bb38 563c
00000270: 3ebe b03b 0eb6 473d 23de 1fc0 1275 443e
00000280: 133f 85be 3813 24be 416d a1bd bd48 15c0
00000290: d35a 99bd 441c 9bbe b3b5 a8bf d046 5ebf
000002a0: bc35 4fbc 1841 b4bc ae23 48c0 e85b 5fbd
000002b0: 7eb7 50be bf9a 86bd 2402 583d 258c b4be
000002c0: a183 ba3d 67d2 cfbd cc22 93be f624 77bf
000002d0: 44a2 35be 5a4d a0bb 3a85 4dbe f475 eb3a
000002e0: 2200 08bd 69e6 3c3f 6c49 23bb 2d9b 493d
000002f0: e9cb d3bc 13e4 fdbf 4c65 a3bc a768 29bf
00000300: f563 b3bc 3d76 23be f330 0ebf 450d ec3e
00000310: 9710 b83d 379e f23d 749d 3d3c a8d4 fd3c
00000320: a2c4 e83e b450 a7be 8f76 2ebe 4d8a aebf
00000330: 151d eebe ecf8 bf3e 89bd d5bf 36e9 b63e
00000340: 7584 84be 26dd 01bf e1aa 183f 4d59 cebf
00000350: d3f4 87bf e0b6 94bf 5632 4dbf 8853 aabf
00000360: dcd8 803f 4353 83bf 7a6e 663f d8a7 67bf
00000370: e656 dd3e f6b5 e83e 2a8f 963f ae27 efbf
00000380: 3110 5fbf 2677 98bf e40e 45bd df0b 73bf
00000390: 7d4b 93be 4d31 00bf 84a0 2ebf 34ae 84bf
000003a0: aa75 b3be e04f 8bbf 021d 12bf 83a9 b83e
000003b0: 666b a83e 2f02 f2bc 7d59 61bf 0bcd 743f
000003c0: cdaf 493f 92d2 5c3f f267 4bbf fdf4 633e
000003d0: 1313 2abf 904d bdbf 2780 303e 5877 40be
000003e0: 2ab9 83bf f528 203f eb8c 823f 59fc 6b3f
000003f0: 74e1 d7bf 9f7d c63e cac3 813e ec15 82bf

linears.2.bias f4 [100]
-0.3539677 -0.39185768 -0.23588009 -0.34702003 0.0044566114 -0.014821719 0.14067253 0.16433041
0.16050643 -0.28815374 0.27600154 -0.017309213 -0.2725093 0.32364756 -0.024580864 -1.0982897
0.020344686 0.20241475 0.14953084 -0.3858096 0.34069365 0.25499183 -0.061923858 -0.01797327
0.10333208 -0.004960053 -0.70679224 -0.049054816 0.19619112 -0.0030305735 -0.025350757 0.03743877
-0.39030322 0.20966946 0.036127865 -0.06439364 -0.018717112 -0.050982594 0.037389938 -0.02942786
-0.16240032 0.57912356 -0.03215847 0.13933039 -0.122794695 -0.10260945 -0.08614595 -0.15725015
-0.0015610808 -0.0311218 -0.067557484 -0.10062994 0.1533755 -0.060515758 0.6375987 -0.12157185
-0.035401072 0.018281007 -0.24093881 0.14891087 -0.052104004 -0.0031038276 0.33981526 0.16040808
-0.09810121 -0.051780667 -0.065828875 0.0065752706 0.6584456 0.596784 -0.11904343 0.0922115
0.823978 -0.042942386 -0.20105286 0.05840273 -0.22947088 0.03254463 0.097620755 -0.1401787
-0.15751867 -0.064752884 -0.43765828 0.09412554 -0.006541843 0.6200144 0.0075826244 0.291301
-0.1031646 0.08910835 -0.43380764 -0.5239596 -0.39831886 0.11225745 -0.0664253 0.3519754
1.1002584 0.496309 -0.10579759 0.060393155
00000000: 413b b5be 92a1 c8be 8d8a 71be 9cac b1be
00000010: c408 923b ccd6 72bc 760c 103e 3b46 283e
00000020: cc5b 243e e388 93be 1350 8d3e 0dcc 8dbc
00000030: 5786 8bbe 22b5 a53e cf5d c9bc c294 8cbf
00000040: e6a9 a63c d045 4f3e 9d1e 193e d688 c5be
00000050: 666f ae3e 4a8e 823e dfa3 7dbd ae3c 93bc
00000060: c59f d33d f187 a2bb 56f0 34bf b4ed 48bd
00000070: 53e6 483e 969c 46bb 64ac cfbc 6559 193d
00000080: d3d5 c7be 97b3 563e d0fa 133d d0e0 83bd
00000090: a154 99bc 20d3 50bd 3126 193d b212 f1bc
000000a0: 454c 26be 7141 143f 9ab8 03bd a0ac 0e3e
000000b0: c97b fbbd e724 d2bd 4a6d b0bd 2f06 21be
000000c0: 2e9d ccba 25f3 febc 945b 8abd 1217 cebd
000000d0: 780e 1d3e 5fdf 77bd ab39 233f a9fa f8bd
000000e0: b700 11bd 0dc2 953c aab8 76be 177c 183e
000000f0: 026b 55bd 9669 4bbb 44fc ad3e 0442 243e
00000100: 4ae9 c8bd f717 54bd 4ad1 86bd 5e75 d73b
00000110: e48f 283f d6c6 183f 0bcd f3bd 62d9 bc3d
00000120: 39f0 523f 5be4 2fbd cde0 4dbe b337 6f3d
00000130: 6afa 6abe 854d 053d 64ed c73d 018b 0fbe
00000140: 934c 21be 299d 84bd bf14 e0be e4c4 c03d
00000150: f55c d6bb 44b9 1e3f aa77 f83b 6825 953e
00000160: f647 d3bd 707e b63d 091c debe 3722 06bf
00000170: 73f0 cbbe 3ce7 e53d fd09 88bd 1f36 b43e
00000180: 44d5 8c3f 371c fe3e 68ac d8bd d05e 773d

linears.3.weight f4 [2, 100]
-0.3857458 0.24229458 -0.24225895 1.5342568 -0.4441659 0.3580594 0.3704094 0.5666306
0.62347096 0.5720343 0.5391416 3.4268043 0.44143465 0.5152348 0.35328805 -0.7915722
-0.50961965 -0.48978016 -0.09641117 2.356892 -0.27149105 -0.17140551 -0.92830783 0.49928182
0.4354796 0.31544292 0.2741367 -0.27641776 0.014618214 0.68941814 0.35152122 0.36389557
2.0313082 -0.37087873 0.5251093 0.48017848 0.03791546 0.36008918 0.3479165 0.3564836
0.57352996 -0.44169018 -1.1391153 0.5411593 0.492514 -0.65576524 0.45387983 0.47921357
0.3694579 0.822382 0.43092728 0.45098144 0.34580883 0.35139894 -0.3640542 -0.26105234
0.37167227 0.34509036 0.4643628 -1.4514018 0.43278214 0.44955856 -0.6679586 0.18730922
0.7840337 0.36654636 0.5681102 0.3588309 -0.33103186 -0.5501176 0.69096124 -0.42307544
-0.40630233 0.47537097 -0.38730988 0.36305252 0.5750859 0.42233005 0.4537198 0.4533953
0.35506982 0.2873137 0.23897466 -0.77557075 0.35455358 -0.4144213 0.35744604 -0.15003973
0.78892046 0.36543554 0.55958396 0.36822474 0.34336787 0.5907523 0.39623562 0.96653074
-0.11532807 -0.34464166 0.16806668 0.38589638 -0.5393618 0.1677182 -0.41649607 0.3087614
-0.47999203 0.38351104 0.394852 0.6626769 0.7410942 -0.04981129 0.5972953 3.8129869
0.49680126 0.57681596 0.37799245 -0.67632484 -0.6172853 -0.5491572 -0.3018466 0.5189098
-0.20231523 -0.04435377 -0.79189336 0.5543839 0.47875452 -0.6110592 1.40586 0.25386065
-0.25174752 0.8078096 0.3750594 0.38931862 0.46239313 -0.5380148 0.5852607 0.53025806
0.6095475 0.38352808 0.37273166 0.3817567 0.6420322 -0.5733703 -1.283152 0.5129835
0.46604908 -0.6694928 0.48962492 -0.34939623 0.39615157 0.9576995 -0.41205114 0.49609476
0.37460035 0.3700932 -0.4074024 -0.24299052 0.39625415 0.36572987 0.24785577 -1.6140711
-0.31265837 -0.3958299 -0.7742367 0.20995994 -0.015261954 -0.45564318 0.60274374 0.38777655
-0.36385512 -0.61416143 -0.45386308 -0.41442546 -0.45974565 -0.3328191 -0.45165583 0.40470636
0.42736295 0.45850047 0.51825917 0.5044245 0.37866452 0.30071265 -0.09273763 -0.87227243
0.37745953 -0.4623351 0.38579866 -0.2745481 0.059890084 0.39391798 0.3425057 0.36662635
0.40855688 0.6773634 -0.44745415 1.050059 0.011807495 -0.32061207 0.008772423 0.42264563
00000000: 7980 c5be 121c 783e bb12 78be 8762 c43f
00000010: b669 e3be 9053 b73e 4da6 bd3e b40e 113f
00000020: cb9b 1f3f d770 123f 2f05 0a3f c350 5b40
00000030: b903 e23e 6ee6 033f 2ce2 b43e 7aa4 4abf
00000040: 6f76 02bf 77c4 fabe 3873 c5bd 52d7 1640
00000050: e000 8bbe ed84 2fbe 95a5 6dbf dea1 ff3e
00000060: 2ff7 de3e bc81 a13e a55b 8c3e a186 8dbe
00000070: 3c81 6f3c b57d 303f 97fa b33e 8550 ba3e
00000080: f400 0240 d1e3 bdbe 906d 063f f4d9 f53e
00000090: 3e4d 1b3d 9c5d b83e 1d22 b23e 0585 b63e
000000a0: dcd2 123f 3725 e2be 88ce 91bf 6a89 0a3f
000000b0: cc2a fc3e 3be0 27bf f062 e83e 7b5b f53e
000000c0: 9629 bd3e a087 523f 80a2 dc3e 0ae7 e63e
000000d0: db0d b13e 90ea b33e 5065 babe a7a8 85be
000000e0: d44b be3e afaf b03e f6c0 ed3e 89c7 b9bf
000000f0: 9f95 dd3e 8a2c e63e 56ff 2abf fdcd 3f3e
00000100: 6fb6 483f f7ab bb3e ac6f 113f afb8 b73e
00000110: 027d a9be 82d4 0cbf d6e2 303f 589d d8be
00000120: dc06 d0be d363 f33e 7b4d c6be 05e2 b93e
00000130: d438 133f a53b d83e f64d e83e 6e23 e83e
00000140: b6cb b53e c81a 933e c6b5 743e ce8b 46bf
00000150: 0c88 b53e 072f d4be 2b03 b73e 04a4 19be
00000160: b1f6 493f 5e1a bb3e e540 0f3f f487 bc3e
00000170: eacd af3e 8b3b 173f 65df ca3e 8f6e 773f
00000180: 2031 ecbd df74 b0be ac19 2c3e 3694 c53e
00000190: 9d13 0abf 52be 2b3e f93e d5be f915 9e3e
000001a0: 84c1 f5be 8f5b c43e 0b2a ca3e 31a5 293f
000001b0: 59b8 3d3f ec06 4cbd 58e8 183f fa07 7440
000001c0: bc5c fe3e 36aa 133f 3a88 c13e a023 2dbf
000001d0: 6906 1ebf 9195 0cbf a38b 9abe 46d7 043f
000001e0: b92b 4fbe 4cac 35bd 86b9 4abf 1aec 0d3f
000001f0: 501f f53e 606e 1cbf 38f3 b33f 06fa 813e
00000200: 0de5 80be 9ccc 4e3f c907 c03e c554 c73e
00000210: cbbe ec3e 57bb 09bf a5d3 153f febe 073f
00000220: 4e0b 1c3f cb5d c43e afd6 be3e 9d75 c33e
00000230: 395c 243f 65c8 12bf 533e a4bf e352 033f
00000240: fc9d ee3e e163 2bbf 1eb0 fa3e 10e4 b2be
00000250: 61d4 ca3e cb2b 753f 5ef8 d2be 2200 fe3e
00000260: 9ecb bf3e db7c bd3e 0c97 d0be 82d2 78be
00000270: d3e1 ca3e f240 bb3e e7cd 7d3e e299 cebf
00000280: c214 a0be 37aa cabe 6034 46bf bdff 563e
00000290: 460d 7abc 104a e9be 6a4d 1a3f a68a c63e
000002a0: 384b babe af39 1dbf be60 e8be 932f d4be
000002b0: c863 ebbe 4467 aabe 6f3f e7be ac35 cf3e
000002c0: 51cf da3e 93c0 ea3e a2ac 043f f721 013f
000002d0: 51e0 c13e 02f7 993e 3aed bdbd 3f4d 5fbf
000002e0: 6042 c13e 30b7 ecbe 6787 c53e 9291 8cbe
000002f0: 4e4f 753d 9eaf c93e e85c af3e 73b6 bb3e
00000300: 5e2e d13e b067 2d3f b618 e5be 5568 863f
00000310: 3974 413c 4427 a4be 35ba 0f3c 0265 d83e

linears.3.bias f4 [2]
2.8408784e-05 -0.39228696
00000000: 664f ee37 d6d9 c8be

exp_avg f4 [100, 6]
-6.861426e-08 -6.861438e-08 -1.372292e-07 -2.0585246e-07 -2.744608e-07 -3.430751e-07 3.0064125e-08 3.006419e-08
6.0128265e-08 9.019317e-08 1.2025703e-07 1.5032276e-07 -1.4561172e-08 -1.45611505e-08 -2.912249e-08 -4.3684636e-08
-5.824434e-08 -7.2812824e-08 -2.1775937e-08 -2.1775948e-08 -4.3552173e-08 -6.5327285e-08 -8.710253e-08 -1.0887923e-07
2.8934597e-08 2.8934622e-08 5.7869766e-08 8.680471e-08 1.1573808e-07 1.446798e-07 -1.9094006e-08 -1.9094056e-08
-3.8188496e-08 -5.7285465e-08 -7.637825e-08 -9.547603e-08 3.2683786e-08 3.26838e-08 6.536737e-08 9.804607e-08
1.3073384e-07 1.6341528e-07 2.1349528e-08 2.1349587e-08 4.2698975e-08 6.404532e-08 8.5396714e-08 1.0674066e-07
2.9919757e-08 2.9919704e-08 5.983943e-08 8.9760036e-08 1.196767e-07 1.4960011e-07 4.76017e-08 4.7601947e-08
9.5204214e-08 1.4281025e-07 1.9041016e-07 2.3801748e-07 -2.579044e-08 -2.5790392e-08 -5.1580866e-08 -7.7368334e-08
-1.0316185e-07 -1.2895444e-07 4.601476e-08 4.6014666e-08 9.202951e-08 1.380457e-07 1.8405628e-07 2.3007647e-07
-1.9188622e-08 -1.9188716e-08 -3.837755e-08 -5.7566307e-08 -7.675551e-08 -9.5936194e-08 2.947951e-08 2.9479448e-08
5.8958086e-08 8.843651e-08 1.17916336e-07 1.4739769e-07 -2.3694986e-08 -2.3694875e-08 -4.73905e-08 -7.108248e-08
-9.478183e-08 -1.18473245e-07 2.9980555e-08 2.9980562e-08 5.996077e-08 8.993934e-08 1.1992184e-07 1.4990391e-07
-2.8720859e-08 -2.872094e-08 -5.7442154e-08 -8.616642e-08 -1.1488468e-07 -1.4360016e-07 2.8056878e-08 2.8056863e-08
5.611383e-08 8.417143e-08 1.12226616e-07 1.402867e-07 3.1533222e-08 3.153302e-08 6.306561e-08 9.460095e-08
1.2613272e-07 1.5766487e-07 -1.5091453e-08 -1.5091462e-08 -3.01829e-08 -4.527898e-08 -6.0366396e-08 -7.546366e-08
2.606035e-08 2.6060386e-08 5.2120768e-08 7.818156e-08 1.04240286e-07 1.3030419e-07 2.7900596e-08 2.79005e-08
5.5801802e-08 8.3704556e-08 1.1160372e-07 1.395048e-07 -1.7311324e-08 -1.7311379e-08 -3.462268e-08 -5.1934357e-08
-6.924487e-08 -8.655814e-08 -2.877564e-08 -2.8775576e-08 -5.7551446e-08 -8.6332015e-08 -1.1510189e-07 -1.4388716e-07
-3.2920028e-08 -3.292008e-08 -6.58389e-08 -9.8755365e-08 -1.3167957e-07 -1.6460345e-07 1.1637256e-09 1.1637767e-09
2.3274505e-09 3.4943275e-09 4.6542556e-09 5.8231096e-09 1.8429597e-08 1.8429647e-08 3.6859426e-08 5.528872e-08
7.371992e-08 9.214859e-08 2.2832284e-08 2.2832271e-08 4.5664688e-08 6.8499155e-08 9.1329575e-08 1.1416111e-07
4.727866e-08 4.7278668e-08 9.455686e-08 1.4183432e-07 1.891138e-07 2.3638765e-07 5.1069048e-08 5.1069186e-08
1.0213812e-07 1.5321265e-07 2.0427564e-07 2.553485e-07 -2.6783086e-08 -2.678318e-08 -5.356616e-08 -8.035136e-08
-1.0713111e-07 -1.3391997e-07 -1.6405606e-08 -1.6405627e-08 -3.2810917e-08 -4.9218364e-08 -6.562412e-08 -8.203267e-08
-1.4542403e-08 -1.4542364e-08 -2.9084864e-08 -4.3622205e-08 -5.8167714e-08 -7.270739e-08 -2.3359044e-08 -2.3359037e-08
-4.671886e-08 -7.007795e-08 -9.3435744e-08 -1.16794624e-07 4.019417e-08 4.019409e-08 8.038842e-08 1.2058507e-07
1.607797e-07 2.0098675e-07 -6.4494486e-08 -6.4494685e-08 -1.2898799e-07 -1.9347297e-07 -2.5797956e-07 -3.2246635e-07
-1.3818469e-08 -1.3818435e-08 -2.763693e-08 -4.1451905e-08 -5.5272196e-08 -6.908581e-08 2.9478366e-08 2.9478281e-08
5.8957056e-08 8.8432934e-08 1.17912236e-07 1.4739199e-07 -2.3063974e-08 -2.3063937e-08 -4.6128193e-08 -6.91886e-08
-9.2257046e-08 -1.1531455e-07 -2.2686482e-08 -2.268644e-08 -4.5373902e-08 -6.806006e-08 -9.074668e-08 -1.134321e-07
-1.7637015e-08 -1.7637019e-08 -3.52742e-08 -5.2910533e-08 -7.054842e-08 -8.818462e-08 3.781324e-08 3.7813233e-08
7.562643e-08 1.1343883e-07 1.5125195e-07 1.8906745e-07 2.3660299e-08 2.3660263e-08 4.7320977e-08 7.098052e-08
00000000: 1759 93b3 2859 93b3 4659 13b4 4b08 5db4
00000010: 9b59 93b4 e22f b8b4 db1f 0133 ed1f 0133
00000020: dd1f 8133 38b0 c133 0020 0134 6868 2134
00000030: b628 7ab2 9e28 7ab2 0829 fab2 c49f 3bb3
00000040: 5428 7ab3 465d 9cb3 cb0d bbb2 d10d bbb2
00000050: 1f0e 3bb3 0e4a 8cb3 1f0d bbb3 fdd0 e9b3
00000060: da8b f832 e88b f832 7b8c 7833 6569 ba33
00000070: af8b f833 4859 1b34 2a04 a4b2 4604 a4b2
00000080: b204 24b3 090a 76b3 6305 a4b3 8108 cdb3
00000090: 3460 0c33 3860 0c33 1760 8c33 668d d233
000000a0: d85f 0c34 4077 2f34 1c64 b732 3d64 b732
000000b0: 0564 3733 4989 8933 5763 b733 4c39 e533
000000c0: 1f81 0033 1081 0033 1381 8033 1ac2 c033
000000d0: 7b80 0034 c4a1 2034 9f72 4c33 e572 4c33
000000e0: 1273 cc33 6257 1934 8c73 4c34 bf91 7f34
000000f0: c789 ddb2 ac89 ddb2 c389 5db3 b125 a6b3
00000100: d489 ddb3 ba76 0ab4 c3a1 4533 a9a1 4533
00000110: c2a1 c533 b739 1434 01a1 4534 f00a 7734
00000120: 3ad4 a4b2 6fd4 a4b2 90d4 24b3 d33e 77b3
00000130: cad4 a4b3 7b05 ceb3 213a fd32 fe39 fd32
00000140: 1a39 7d33 7cea bd33 3139 fd33 5e44 1e34
00000150: d389 cbb2 9589 cbb2 688a 4bb3 02a6 98b3
00000160: dd8a cbb3 5b6b feb3 f8c3 0033 fac3 0033
00000170: c8c3 8033 ad24 c133 ddc3 0034 46f5 2034
00000180: d6b5 f6b2 04b6 f6b2 51b6 76b3 7e0a b9b3
00000190: 85b6 f6b3 8330 1ab4 ba01 f132 b201 f132
000001a0: cf01 7133 bcc1 b433 3c01 f133 b7a1 1634
000001b0: 256f 0733 ec6e 0733 b06e 8733 6c27 cb33
000001c0: 196f 0734 974a 2934 75a2 81b2 7aa2 81b2
000001d0: 73a2 01b3 c478 42b3 c7a2 81b3 960e a2b3
000001e0: 51db df32 65db df32 64db 5f33 c4e4 a733
000001f0: b4da df33 bee9 0b34 0faa ef32 d9a9 ef32
00000200: bbaa 6f33 11c1 b333 cbaa ef33 caca 1534
00000210: 01b4 94b2 20b4 94b2 0ab4 14b3 6e0e 5fb3
00000220: c5b3 94b3 d7e1 b9b3 4d2e f7b2 292e f7b2
00000230: 7c2e 77b3 8765 b9b3 ef2d f7b3 677f 1ab4
00000240: f463 0db3 0364 0db3 5163 8db3 5613 d4b3
00000250: ce63 0db4 dabd 30b4 f4f0 9f30 c1f2 9f30
00000260: f1f0 1f31 dc20 7031 44eb 9f31 9d14 c831
00000270: 1d4f 9e32 394f 9e32 5e4f 1e33 9776 6d33
00000280: f44f 9e33 39e3 c533 b920 c432 b220 c432
00000290: db20 4433 cf19 9333 f720 c433 bc28 f533
000002a0: 700f 4b33 720f 4b33 2f0f cb33 1f4b 1834
000002b0: 350f 4b34 bed1 7d34 0357 5b33 2a57 5b33
000002c0: 0657 db33 c682 2434 dc56 5b34 d516 8934
000002d0: a110 e6b2 d610 e6b2 9e10 66b3 a18d acb3
000002e0: f30f e6b3 a4cb 0fb4 4fec 8cb2 5bec 8cb2
000002f0: fceb 0cb3 2a64 53b3 3eed 8cb3 f029 b0b3
00000300: 2ad6 79b2 fed5 79b2 4bd6 f9b2 1f5b 3bb3
00000310: 14d4 79b3 4f23 9cb3 15a7 c8b2 11a7 c8b2
00000320: eea7 48b3 c37d 96b3 d8a6 c8b3 86d0 fab3
00000330: f5a1 2c33 dfa1 2c33 00a2 ac33 2c7a 0134
00000340: caa2 2c34 d1ce 5734 3880 8ab3 5480 8ab3
00000350: f37f 0ab4 72bd 4fb4 7180 8ab4 701f adb4
00000360: 4566 6db2 1f66 6db2 4066 edb2 da08 32b3
00000370: 6c64 6db3 535c 94b3 9d37 fd32 6d37 fd32
00000380: f837 7d33 85e8 bd33 f036 fd33 cd42 1e34
00000390: 371e c6b2 221e c6b2 7c1e 46b3 d694 94b3
000003a0: d91e c6b3 d8a2 f7b3 1ae0 c2b2 02e0 c2b2
000003b0: 22e1 42b3 6a28 92b3 84e0 c2b3 f597 f3b3
000003c0: 3580 97b2 3780 97b2 6580 17b3 bf3f 63b3
000003d0: 6780 97b3 0260 bdb3 1968 2233 1768 2233
000003e0: 1268 a233 a89b f333 d267 2234 7702 4b34
000003f0: 8c3d cb32 783d cb32 f73d 4b33 f46d 9833

exp_avg_sq f4 [100, 6]
4.6337677e-11 4.633766e-11 1.8535051e-10 4.1703815e-10 7.4140016e-10 1.1584335e-09 6.097259e-12 6.0972572e-12
2.4389017e-11 5.487539e-11 9.7555845e-11 1.5243094e-10 1.7765666e-11 1.776566e-11 7.106263e-11 1.5989088e-10
2.8424998e-10 4.4414025e-10 1.1316832e-11 1.1316831e-11 4.5267266e-11 1.0185117e-10 1.8106852e-10 2.8291888e-10
6.4196313e-12 6.419626e-12 2.5678487e-11 5.7776447e-11 1.02713504e-10 1.6048957e-10 1.7077676e-11 1.7077673e-11
6.8310614e-11 1.5369914e-10 2.732419e-10 4.2694098e-10 9.458231e-12 9.45823e-12 3.783289e-11 8.5123845e-11
1.5133077e-10 2.364538e-10 1.1387942e-11 1.1387932e-11 4.555164e-11 1.0249105e-10 1.8220533e-10 2.8469435e-10
2.0911458e-11 2.0911451e-11 8.364566e-11 1.8820166e-10 3.3457986e-10 5.2277804e-10 1.4310883e-11 1.4310872e-11
5.724338e-11 1.2879733e-10 2.2897198e-10 3.577673e-10 1.62852e-11 1.6285199e-11 6.514072e-11 1.465667e-10
2.6056196e-10 4.0712847e-10 2.0770323e-11 2.0770318e-11 8.3081174e-11 1.8693322e-10 3.3232503e-10 5.1925836e-10
9.877373e-12 9.877372e-12 3.9509503e-11 8.8896356e-11 1.5803792e-10 2.4693364e-10 2.575459e-11 2.5754572e-11
1.0301809e-10 2.317897e-10 4.1206927e-10 6.4385475e-10 8.49791e-12 8.497909e-12 3.3991594e-11 7.648116e-11
1.3596636e-10 2.1244707e-10 5.2670828e-12 5.2670823e-12 2.1068335e-11 4.7403866e-11 8.4273234e-11 1.3167685e-10
2.0033945e-11 2.003394e-11 8.0135724e-11 1.8030583e-10 3.2054287e-10 5.008484e-10 6.81616e-12 6.816157e-12
2.7264599e-11 6.134522e-11 1.09057895e-10 1.7040223e-10 7.8268945e-12 7.826893e-12 3.1307547e-11 7.044178e-11
1.2522944e-10 1.9566987e-10 1.7014822e-11 1.7014818e-11 6.8059225e-11 1.5313283e-10 2.722358e-10 4.2536702e-10
7.678267e-12 7.678261e-12 3.0713033e-11 6.910412e-11 1.2285145e-10 1.9195444e-10 7.976397e-12 7.976393e-12
3.1905523e-11 7.1787395e-11 1.2762158e-10 1.9940782e-10 1.6698436e-11 1.6698429e-11 6.6793675e-11 1.5028585e-10
2.6717384e-10 4.174584e-10 4.8572713e-12 4.857268e-12 1.9429063e-11 4.371538e-11 7.7716084e-11 1.2143128e-10
1.7849151e-11 1.7849153e-11 7.139665e-11 1.6064274e-10 2.8558622e-10 4.4623003e-10 9.167499e-12 9.1674975e-12
3.6669962e-11 8.250724e-11 1.4667945e-10 2.2918575e-10 2.7165669e-11 2.7165657e-11 1.086625e-10 2.4448985e-10
4.3464754e-10 6.791327e-10 5.551447e-12 5.5514456e-12 2.2205784e-11 4.9962975e-11 8.882313e-11 1.38786e-10
1.6210491e-11 1.621048e-11 6.484188e-11 1.4589419e-10 2.5936595e-10 4.0525716e-10 2.2163837e-11 2.2163838e-11
8.865536e-11 1.9947463e-10 3.5462136e-10 5.5409455e-10 4.0070508e-12 4.0070516e-12 1.6028207e-11 3.6063475e-11
6.411277e-11 1.00175986e-10 1.1937453e-11 1.193745e-11 4.774979e-11 1.07436796e-10 1.9099881e-10 2.9843478e-10
1.9743207e-11 1.97432e-11 7.897277e-11 1.7768871e-10 3.1589012e-10 4.935785e-10 1.2233185e-11 1.2233183e-11
4.893271e-11 1.1009832e-10 1.9573024e-10 3.0582728e-10 1.3878201e-11 1.3878194e-11 5.5512667e-11 1.2490295e-10
2.2204956e-10 3.4695166e-10 2.924781e-11 2.9247816e-11 1.1699117e-10 2.6322977e-10 4.679629e-10 7.311903e-10
1.6448063e-11 1.644806e-11 6.579222e-11 1.480325e-10 2.6316796e-10 4.1120038e-10 5.090854e-12 5.090852e-12
2.0363416e-11 4.5817808e-11 8.1453636e-11 1.2727144e-10 1.2904652e-11 1.2904652e-11 5.1618564e-11 1.1614182e-10
2.0647396e-10 3.2261546e-10 1.7035847e-11 1.7035843e-11 6.814338e-11 1.5332242e-10 2.725729e-10 4.2589435e-10
1.1861371e-12 1.1861367e-12 4.7445476e-12 1.0675207e-11 1.8978173e-11 2.9653387e-11 4.4860466e-11 4.486043e-11
1.7944145e-10 4.0374137e-10 7.177592e-10 1.1214941e-09 1.9811128e-11 1.9811125e-11 7.924426e-11 1.7829918e-10
00000000: 96cb 4b2e 91cb 4b2e 88cb 4b2f e744 e52f
00000010: 66cb 4b30 c136 9f30 3a87 d62c 3687 d62c
00000020: 2f87 d62d 3258 712e 0f87 d62e 7f99 272f
00000030: b944 9c2d b644 9c2d b444 9c2e 48cd 2f2f
00000040: a144 9c2f 2f2b f42f 7b16 472d 7a16 472d
00000050: 6916 472e 1df9 df2e 4216 472f 4b89 9b2f
00000060: e6de e12c dade e12c d0de e12d 7f1a 7e2e
00000070: 90de e12e cc75 302f 8237 962d 8037 962d
00000080: 7537 962e 76fe 282f 6137 962f 9ab6 ea2f
00000090: 1664 262d 1564 262d 0c64 262e 7730 bb2e
000000a0: d363 262f eafd 812f bb56 482d b056 482d
000000b0: 9656 482e 5561 e12e 3e56 482f 2b83 9c2f
000000c0: 6bf0 b72d 67f0 b72d 52f0 b72e 0fee 4e2f
000000d0: eeef b72f 3cb3 0f30 7dc2 7b2d 70c2 7b2d
000000e0: 51c2 7b2e 3a9d 0d2f e2c1 7b2f 45af c42f
000000f0: 033f 8f2d 023f 8f2d f73e 8f2e dc26 212f
00000100: d63e 8f2f 3dd2 df2f 9cb2 b62d 99b2 b62d
00000110: 8bb2 b62e 0689 4d2f 97b2 b62f 8fbb 0e30
00000120: bcc3 2d2d bbc3 2d2d bfc3 2d2e 337c c32e
00000130: b8c3 2d2f d2c0 872f 2e8a e22d 248a e22d
00000140: 078a e22e 00db 7e2f 9889 e22f 40fb 3030
00000150: 2f7f 152d 2e7f 152d 227f 152e 112f a82e
00000160: 217f 152f 8996 692f aa51 b92c a951 b92c
00000170: ac51 b92d 027c 502e 9d51 b92e bdc7 102f
00000180: 6f38 b02d 6c38 b02d 6738 b02e 943f 462f
00000190: 6638 b02f 13ac 0930 83d2 ef2c 7cd2 ef2c
000001a0: 6bd2 ef2d 4ae6 862e 23d2 ef2e f75b 3b2f
000001b0: 33b1 092d 31b1 092d 2ab1 092e 32e7 9a2e
000001c0: f4b0 092f 2c24 572f f9a9 952d f7a9 952d
000001d0: f0a9 952e 0f5f 282f c8a9 952f 16d9 e92f
000001e0: d713 072d d013 072d cd13 072e 29f6 972e
000001f0: 9c13 072f 5f0e 532f 8052 0c2d 7b52 0c2d
00000200: 6d52 0c2e b6dc 9d2e 4852 0c2f 5040 5b2f
00000210: 89e1 922d 85e1 922d 7fe1 922e b53d 252f
00000220: 60e1 922f 0c80 e52f 69e6 aa2c 61e6 aa2c
00000230: 5ce6 aa2d 2443 402e 44e6 aa2e de83 052f
00000240: b700 9d2d b800 9d2d be00 9d2e e9a0 302f
00000250: b000 9d2f 4b51 f52f bf46 212d bd46 212d
00000260: b546 212e 726f b52e 9846 212f 0efe 7b2f
00000270: a6f3 ee2d 9ff3 ee2d 8df3 ee2e e368 862f
00000280: 34f3 ee2f b7ad 3a30 fd52 c32c fa52 c32c
00000290: fb52 c32d 4fbd 5b2e fa52 c32e c998 182f
000002a0: c896 8e2d c196 8e2d bc96 8e2e 9069 202f
000002b0: 8396 8e2f e0ca de2f 86f4 c22d 87f4 c22d
000002c0: 88f4 c22e 1e53 5b2f 85f4 c22f f04e 1830
000002d0: 4efc 8c2c 50fc 8c2c 50fc 8c2d dd9b 1e2e
000002e0: 48fc 8c2e 114a dc2e 8201 522d 7f01 522d
000002f0: 7c01 522e 8a41 ec2e 6301 522f f610 a42f
00000300: c0a9 ad2d bca9 ad2d b8a9 ad2e ed5e 432f
00000310: 95a9 ad2f 80ac 0730 5e35 572d 5c35 572d
00000320: 5535 572e d81b f22e 2a35 572f 5d21 a82f
00000330: dc25 742d d425 742d b525 742e 0e55 092f
00000340: 6525 742f 1bbd be2f 1ba2 002e 1da2 002e
00000350: 16a2 002f 4cb6 902f f6a1 0030 f1fc 4830
00000360: bfad 902d bdad 902d baad 902e 72c3 222f
00000370: 99ad 902f 4f0f e22f 561e b32c 511e b32c
00000380: 561e b32d 4482 492e 521e b32e baef 0b2f
00000390: 6305 632d 6305 632d 5605 632e 0866 ff2e
000003a0: 4105 632f 175c b12f 51d9 952d 4fd9 952d
000003b0: 50d9 952e 6d94 282f 3ad9 952f 4d23 ea2f
000003c0: 18ef a62b 14ef a62b 16ef a62c dccc 3b2d
000003d0: 0cef a62d bf6a 022e 654c 452e 5b4c 452e
000003e0: 474c 452f 8cf5 dd2f d04b 4530 1123 9a30
000003f0: b242 ae2d b042 ae2d 8d42 ae2e c20a 442f

exp_avg f4 [100]
-5.617842e-05 4.123383e-05 -1.926205e-06 -3.211485e-05 5.6309036e-05 -1.0546515e-06 2.6189411e-05 3.427032e-05
4.7087182e-05 6.3900465e-05 -3.7351223e-05 2.6201677e-05 6.742623e-06 5.1641004e-05 -1.51710055e-05 5.2696356e-05
-1.0851224e-05 5.4928987e-05 5.281532e-05 -6.08264e-06 4.556127e-05 5.3681528e-05 -1.9628114e-05 -4.5831515e-05
-1.3818512e-05 -6.344258e-06 6.4583444e-05 3.6151243e-05 5.8523354e-05 3.418516e-05 -3.826295e-05 -2.099056e-05
-1.1054917e-05 -3.573362e-05 3.130182e-05 -6.7562214e-05 1.0989388e-06 4.687718e-05 -9.115978e-06 -3.3702174e-05
-4.9507616e-05 5.821754e-05 3.5191628e-05 -3.492855e-05 3.2735814e-05 -9.993346e-06 -2.9683151e-05 3.763711e-05
9.01267e-06 3.2272907e-05 -3.9168506e-05 -3.5039564e-05 4.3009968e-05 2.6797761e-05 5.4181317e-05 5.337255e-05
1.354982e-05 -4.8931495e-05 -5.758302e-06 -6.376279e-05 -2.2096905e-05 -7.81358e-05 1.9048663e-05 -4.1503667e-05
-3.5006837e-05 7.0419206e-05 7.0698297e-06 2.7318833e-05 8.170039e-05 4.825528e-06 3.1912314e-05 -2.0971536e-06
-3.1445943e-05 4.890277e-06 -1.8917351e-06 5.8444886e-05 -5.7332367e-05 7.401442e-06 -3.0865067e-05 -6.634153e-05
4.3614236e-05 2.020255e-05 -4.359176e-05 -1.5524445e-05 1.0490432e-05 -4.975587e-05 3.7166625e-05 -3.6375845e-06
-2.7221158e-05 3.81903e-05 4.906211e-05 4.0319534e-05 -5.4386705e-06 -5.0523144e-05 1.9453371e-05 -6.0994047e-05
5.7095942e-05 7.755432e-05 4.5391705e-05 -6.710904e-06
00000000: 1fa1 6bb8 7df2 2c38 f343 01b6 0fb3 06b8
00000010: 5e2d 6c38 8d8d 8db5 55b1 db37 7abd 0f38
00000020: 7a7f 4538 4d02 8638 92a9 1cb8 accb db37
00000030: b13e e236 1b99 5838 f986 7eb7 4806 5d38
00000040: a70d 36b7 8d63 6638 0586 5d38 7b19 ccb6
00000050: 0b19 3f38 1a28 6138 0ea7 a4b7 373b 40b8
00000060: 0fd6 67b7 c3e0 d4b6 f970 8738 1aa1 1738
00000070: f976 7538 0962 0f38 887c 20b8 e214 b0b7
00000080: 8278 39b7 afe0 15b8 134a 0338 30b0 8db8
00000090: 407f 9335 fd9d 4438 d4f0 18b7 6f5b 0db8
000000a0: 66a6 4fb8 9c2e 7438 b99a 1338 3f80 12b8
000000b0: d04d 0938 18a9 27b7 1500 f9b7 8adc 1d38
000000c0: 1f35 1737 c55c 0738 dd48 24b8 72f7 12b8
000000d0: 9a65 3438 c1cb e037 bf40 6338 57dc 5f38
000000e0: 0954 6337 cb3b 4db8 7037 c1b6 63b8 85b8
000000f0: be5c b9b7 d7dc a3b8 b1ca 9f37 3914 2eb8
00000100: 4ed4 12b8 06ae 9338 6039 ed36 bf2a e537
00000110: 9056 ab38 f8ea a136 96d9 0538 d3bc 0cb6
00000120: d3e4 03b8 2917 a436 86e7 fdb5 b822 7538
00000130: 2978 70b8 e759 f836 1d75 01b8 d620 8bb8
00000140: 6eee 3638 a578 a937 4cd6 36b8 7e3a 82b7
00000150: 1000 3037 f5b0 50b8 5ce3 1b38 3a1d 74b6
00000160: fe58 e4b7 862e 2038 0ac8 4d38 c51c 2938
00000170: d37d b6b6 d0e8 53b8 cc2f a337 dcd3 7fb8
00000180: 4d7a 6f38 a9a4 a238 f962 3e38 3a2e e1b6

exp_avg_sq f4 [100]
0.0003877687 4.0682222e-05 3.9049286e-05 2.8883678e-05 2.2253167e-05 4.3102627e-05 7.78683e-05 2.1726535e-05
3.284599e-05 0.00012287726 4.129859e-05 0.0002134942 4.39294e-05 3.232393e-05 4.703061e-05 3.6686182e-05
0.000104060084 2.1358079e-05 7.407259e-05 3.1491265e-05 2.0381523e-05 1.7812847e-05 3.287668e-05 3.181597e-05
9.030671e-05 1.8435963e-05 1.7546387e-05 3.5460314e-05 0.00012135994 0.0002390075 2.514386e-05 5.0946885e-05
4.514979e-05 3.3523727e-05 0.00012216595 0.00018899787 3.0387217e-05 3.5860587e-05 4.1716983e-05 3.699503e-05
9.050957e-06 3.571003e-05 2.8574796e-05 2.4777117e-05 2.2086742e-05 3.4743498e-05 3.6422978e-05 2.817598e-05
0.00033160995 1.6105101e-05 2.5253386e-05 0.00021983129 3.9576993e-05 3.1171927e-05 1.7706776e-05 4.332939e-05
3.14023e-05 0.00043555172 0.000101740756 0.0004241782 2.569399e-05 0.0002915268 1.3638816e-05 2.5193971e-05
3.1772444e-05 6.369477e-05 3.9544415e-05 3.8501297e-05 7.594313e-05 6.478431e-05 0.00016329275 4.1221487e-05
0.00012448608 0.00035826667 3.9785296e-05 2.7687605e-05 4.5008663e-05 2.8892524e-05 3.1825708e-05 0.0002510229
3.111205e-05 3.353691e-05 2.6429261e-05 1.8734754e-05 3.6321177e-05 0.00012378246 1.4501286e-05 5.211357e-05
4.9639933e-05 2.2134194e-05 3.875459e-05 2.4570149e-05 5.4354503e-05 2.5409689e-05 3.1082032e-05 0.000120460994
3.895789e-05 9.3113995e-05 4.0828858e-05 4.5681547e-05
00000000: 6f4d cb39 34a2 2a38 dac8 2338 3a4b f237
00000010: 50ac ba37 18c9 3438 3a4d a338 6141 b637
00000020: 1dc4 0938 9dd8 0039 0638 2d38 6add 5f39
00000030: d640 3838 8e93 0738 bc42 4538 7ddf 1938
00000040: d53a da38 202a b337 6b57 9b38 7d15 0438
00000050: fdf8 aa37 cc6c 9537 11e5 0938 2372 0538
00000060: 0c63 bd38 eea6 9a37 9430 9337 39bb 1438
00000070: 9f82 fe38 169e 7a39 07ec d237 cdaf 5538
00000080: 385f 3d38 d49b 0c38 ac19 0039 bb2d 4639
00000090: 0de8 fe37 0369 1638 45f9 2e38 1c2b 1b38
000000a0: 90d9 1737 5ac7 1538 e8b3 ef37 74d8 cf37
000000b0: eb46 b937 8cb9 1138 e0c4 1838 755b ec37
000000c0: efdb ad39 7119 8737 3cd7 d337 8382 6639
000000d0: 79ff 2538 9abe 0238 0389 9437 94bc 3538
000000e0: f6b5 0338 c35a e439 a75d d538 3c64 de39
000000f0: 6c89 d737 11d8 9839 45d2 6437 a457 d337
00000100: 6743 0538 df93 8538 7edc 2538 747c 2138
00000110: a843 9f38 d0dc 8738 9039 2b39 3ce5 2c38
00000120: 7a88 0239 bdd5 bb39 23df 2638 ae42 e837
00000130: afc7 3c38 395e f237 987c 0538 b99b 8339
00000140: 4f7e 0238 fca9 0c38 68b4 dd37 9428 9d37
00000150: 9157 1838 9acb 0139 8d4a 7337 8594 5a38
00000160: 7934 5038 d2ac b937 6d8c 2238 fe1b ce37
00000170: b4fa 6338 e426 d537 145e 0238 01a0 fc38
00000180: b766 2338 3246 c338 a73f 2b38 309a 3f38
