TSTE-R/PV-DC-noisy-comparison/Noisy-2%/Proposed_A30_noisy0.02/save_model_0224.ckpt-200000.pt (torch, 265324 bytes, 24 tensors)

linears.0.weight f4 [100, 6]
20.049047 19.908068 19.76298 19.733566 19.75609 19.930809 -3.9726462 -3.911509
-3.8456244 -4.0556693 -4.1251154 -3.746465 10.948243 11.090738 11.161918 11.182679
11.298335 11.407837 3.6492343 3.8158052 3.6660166 3.96441 4.104527 4.027499
-3.3103807 -3.5611963 -3.7236447 -3.3214185 -3.6793916 -3.4589002 8.580483 8.451001
8.456181 8.709874 8.720769 8.392365 -9.570795 -9.527138 -9.551731 -9.661039
-9.630523 -9.410151 -5.016841 -5.43931 -5.1739025 -5.0352755 -5.169441 -5.4368486
-5.822697 -5.8975234 -6.070347 -6.0517464 -5.687596 -5.7772183 -11.209451 -11.204087
-11.390286 -11.285755 -11.647537 -11.601588 3.711534 3.9355345 3.9739108 4.071649
4.0077868 3.9785888 -22.325775 -22.47275 -22.196209 -22.406897 -22.675703 -22.69182
3.3288944 3.3173764 3.3023918 3.253014 3.306464 3.531871 -5.025555 -5.1511555
-5.0861015 -4.8786387 -5.0612125 -5.0771904 3.4449992 3.1942408 3.2580695 3.0926712
3.4150233 2.9876227 -2.5392773 -2.8092852 -2.8663476 -2.479528 -2.4520562 -2.7765365
19.939829 20.1657 20.138443 20.39711 20.409588 20.324755 -3.194707 -3.173935
-3.2474766 -3.0660975 -3.3861473 -3.3819227 -14.523333 -14.355731 -14.55535 -14.2506895
-14.269315 -14.267155 6.3673573 6.5173373 6.364366 6.685461 6.7585964 6.711208
-3.7850368 -3.6032279 -3.7348754 -3.94248 -3.8818843 -3.854778 -3.410392 -3.0411992
-3.1598067 -3.39884 -3.2834888 -3.2471697 5.9039636 5.719963 5.672327 5.6643515
5.970222 5.8779025 3.5877144 3.5051677 3.405525 3.2470675 3.4716287 3.4559696
6.1372194 6.138544 6.3464375 6.2871075 6.3474956 6.0669003 -3.207821 -3.2327182
-3.1633615 -3.6332357 -3.6122084 -3.3867478 7.647176 7.5647883 7.5484843 7.3449955
7.7479134 7.5631905 -1.3900356 -1.3069808 -1.6375129 -1.345923 -1.2928926 -1.4833816
-12.965023 -12.973733 -12.693439 -13.144703 -13.138015 -13.100972 -20.730259 -21.01911
-20.990192 -21.053492 -20.645054 -20.866945 3.2305622 3.0055766 3.082153 3.2407596
2.9897523 2.8444393 0.6683772 0.75841695 0.7247855 0.6286663 0.5438247 0.9108597
3.0116367 3.2843328 3.2130525 3.0651655 3.2948492 3.2405643 4.0535784 4.0303936
3.863635 4.003779 3.841772 3.7681108 -18.15667 -17.91487 -18.125404 -18.242899
-18.310844 -18.309984 8.8464155 8.613748 8.635622 8.701935 8.927991 8.737034
7.4864335 7.928412 7.6832614 7.8640337 7.5540776 7.7943244 -2.6203213 -2.5563195
-2.680834 -2.5639813 -2.5166435 -2.5785062 4.749495 4.73419 4.5527163 4.6475844
4.846014 4.906036 4.0535254 4.0544558 4.067482 4.005313 4.004358 4.0344214
-0.2720384 -0.12591001 -0.39314365 -0.33177075 -0.35414723 -0.16163045 -4.450093 -4.158609
-4.215484 -4.098343 -4.1038394 -4.257884 -5.101575 -4.9197392 -4.7678814 -5.1126747
00000000: 7364 a041 b943 9f41 951a 9e41 58de 9d41
00000010: 790c 9e41 4c72 9f41 d63f 7ec0 2a56 7ac0
00000020: b61e 76c0 0bc8 81c0 f200 84c0 15c6 6fc0
00000030: 012c 2f41 aa73 3141 3797 3241 41ec 3241
00000040: fbc5 3441 8086 3641 0e8d 6940 2736 7440
00000050: 04a0 6a40 e5b8 7d40 4958 8340 46e1 8040
00000060: 47dd 53c0 a4ea 63c0 3250 6ec0 1f92 54c0
00000070: 277b 6bc0 9f5e 5dc0 a949 0941 4d37 0741
00000080: 844c 0741 a55b 0b41 4588 0b41 2147 0641
00000090: fa21 19c1 286f 18c1 e4d3 18c1 9e93 1ac1
000000a0: 9f16 1ac1 fa8f 16c1 f689 a0c0 d40e aec0
000000b0: 9c90 a5c0 fa20 a1c0 106c a5c0 aafa adc0
000000c0: 8953 bac0 83b8 bcc0 4840 c2c0 e8a7 c1c0
000000d0: c900 b6c0 f9de b8c0 e959 33c1 f143 33c1
000000e0: 9d3e 36c1 7492 34c1 505c 3ac1 1ba0 39c1
000000f0: c689 6d40 ccdf 7b40 8e54 7e40 f34a 8240
00000100: ca3f 8040 33a1 7e40 309b b2c1 31c8 b3c1
00000110: d691 b1c1 5341 b3c1 d767 b5c1 d988 b5c1
00000120: 9b0c 5540 e54f 5440 635a 5340 6231 5040
00000130: 1b9d 5340 2d0a 6240 59d1 a0c0 44d6 a4c0
00000140: 58c1 a2c0 cf1d 9cc0 74f5 a1c0 5878 a2c0
00000150: de7a 5c40 716e 4c40 3684 5040 53ee 4540
00000160: be8f 5a40 3635 3f40 8583 22c0 54cb 33c0
00000170: 3d72 37c0 96b0 1ec0 7dee 1cc0 c6b2 31c0
00000180: c584 9f41 5b53 a141 881b a141 482d a341
00000190: d646 a341 1999 a241 1476 4cc0 c021 4bc0
000001a0: a8d6 4fc0 f13a 44c0 a3b6 58c0 6c71 58c0
000001b0: 925f 68c1 13b1 65c1 b7e2 68c1 d302 64c1
000001c0: 1d4f 64c1 4446 64c1 64c1 cb40 078e d040
000001d0: e3a8 cb40 4cef d540 6c46 d840 37c2 d640
000001e0: 0b3e 72c0 499b 66c0 3308 6fc0 9851 7cc0
000001f0: cb70 78c0 afb4 76c0 dd43 5ac0 02a3 42c0
00000200: 463a 4ac0 9886 59c0 ae24 52c0 a1d1 4fc0
00000210: 45ed bc40 f009 b740 b483 b540 5e42 b540
00000220: 0f0c bf40 c717 bc40 1d9d 6540 ab54 6040
00000230: 1ff4 5940 f4cf 4f40 2a2f 5e40 9b2e 5d40
00000240: 1a64 c440 f46e c440 0416 cb40 fc2f c940
00000250: af1e cb40 0c24 c240 f04c 4dc0 dbe4 4ec0
00000260: 8474 4ac0 ef86 68c0 6c2e 67c0 7ac0 58c0
00000270: aab5 f440 bf12 f240 2f8d f140 340a eb40
00000280: e8ee f740 a805 f240 b0ec b1bf 264b a7bf
00000290: 069a d1bf 3447 acbf 817d a5bf 73df bdbf
000002a0: bc70 4fc1 6994 4fc1 5318 4bc1 b450 52c1
000002b0: 4f35 52c1 959d 51c1 92d7 a5c1 2327 a8c1
000002c0: eaeb a7c1 8d6d a8c1 1229 a5c1 81ef a6c1
000002d0: 88c1 4e40 5e5b 4040 ff41 4540 9b68 4f40
000002e0: 1a58 3f40 4b0b 3640 c51a 2b3f 9d27 423f
000002f0: 8b8b 393f 46f0 203f 1838 0b3f 1a2e 693f
00000300: a8be 4040 8232 5240 a7a2 4d40 ac2b 4440
00000310: cfde 5240 6865 4f40 eab6 8140 fcf8 8040
00000320: cc45 7740 f51e 8040 98df 7540 ba28 7140
00000330: dc40 91c1 a751 8fc1 d400 91c1 75f1 91c1
00000340: 9c7c 92c1 d97a 92c1 eb8a 0d41 e9d1 0941
00000350: 822b 0a41 203b 0b41 0dd9 0e41 e4ca 0b41
00000360: dd90 ef40 8db5 fd40 47dd f540 2aa6 fb40
00000370: 01bb f140 1b6b f940 58b3 27c0 bd9a 23c0
00000380: c992 2bc0 4518 24c0 b010 21c0 3f06 25c0
00000390: ddfb 9740 7c7e 9740 daaf 9140 03b9 9440
000003a0: 8c12 9b40 3ffe 9c40 7bb6 8140 1abe 8140
000003b0: d028 8240 862b 8040 b323 8040 fb19 8140
000003c0: 9e48 8bbe 8eee 00be 204a c9be dbdd a9be
000003d0: c952 b5be 7482 25be 2967 8ec0 5313 85c0
000003e0: 3fe5 86c0 a025 83c0 a752 83c0 9640 88c0
000003f0: 1a40 a3c0 816e 9dc0 7c92 98c0 089b a3c0

linears.0.bias f4 [100]
0.13619314 0.09668409 0.15808071 0.22216214 0.1278659 0.07346799 0.3025706 0.17177314
0.19510126 0.35763955 0.14721234 0.38421333 -0.010559439 0.14126797 -0.011301129 0.10670694
0.21819939 0.115433864 0.35506675 0.13695233 0.12261408 0.1179441 0.1694377 -0.08836406
0.027763637 -0.062156033 1.424886 0.02752306 0.45102566 0.36793658 -0.08319926 -0.00017795753
-0.0080274455 0.19770709 0.5059789 -0.017958274 0.13940987 0.087425135 0.060862612 0.18068333
0.10402129 0.21719787 0.13282883 -0.031864375 0.11669756 0.20796838 0.15642811 0.1182707
0.17063427 0.6027415 -0.08126991 0.020754004 0.10771352 0.0025530043 0.11458728 0.158512
-0.005871264 0.15508863 0.18683946 0.21156973 -0.1130034 0.053403236 -0.33164597 -0.090881206
0.0027817658 0.16251563 0.2061009 0.011416331 0.45863628 0.029939339 0.4302326 0.06697277
0.06020775 0.17571552 0.07153559 0.12167928 0.01727331 0.21998908 -0.024780134 0.045200646
0.153308 0.009291973 -0.089608155 0.006800531 0.2943549 0.086051725 0.112121165 0.041940823
0.056142677 0.119209126 0.13140367 0.13992773 0.038119316 -0.08586126 -0.005087394 0.09906436
0.34687698 0.20669058 0.13297056 0.061993066
00000000: 3776 0b3e 4f02 c63d e9df 213e 797e 633e
00000010: 47ef 023e 6376 963d 89ea 9a3e 4ce5 2f3e
00000020: a0c8 473e 881c b73e d5be 163e 9cb7 c43e
00000030: 7f01 2dbc 8da8 103e 5f28 39bc 2b89 da3d
00000040: a96f 5f3e 9768 ec3d 4fcb b53e 3b3d 0c3e
00000050: 171d fb3d ad8c f13d 1481 2d3e 37f8 b4bd
00000060: 9170 e33c 5397 7ebd aa62 b63f 0a78 e13c
00000070: d6ec e63e 2f62 bc3e 6064 aabd 1c9a 3ab9
00000080: 8c85 03bc ba73 4a3e d587 013f 3b1d 93bc
00000090: 76c1 0e3e f30b b33d 134b 793d 0d05 393e
000000a0: 1d09 d53d 1e69 5e3e 4804 083e 3884 02bd
000000b0: 21ff ee3d aaf5 543e b12e 203e e937 f23d
000000c0: c0ba 2e3e 444d 1a3f d770 a6bd 4d04 aa3c
000000d0: e898 dc3d 4e50 273b bcac ea3d f850 223e
000000e0: bb63 c0bb 8ecf 1e3e d852 3f3e bca5 583e
000000f0: 546e e7bd 5abd 5a3d 80cd a9be ed1f babd
00000100: 494e 363b 7f6a 263e 1d0c 533e 900b 3b3c
00000110: 60d2 ea3e 5843 f53c 7347 dc3e 0529 893d
00000120: 679c 763d c5ee 333e 4081 923d fd32 f93d
00000130: c280 8d3c d144 613e b5ff cabc 5024 393d
00000140: c6fc 1c3e 5c3d 183c 7b84 b7bd fdd6 de3b
00000150: afb5 963e e33b b03d c89f e53d 24ca 2b3d
00000160: ddf5 653d ea23 f43d af8e 063e 3749 0f3e
00000170: 0023 1c3d 07d8 afbd 27b4 a6bb 41e2 ca3d
00000180: dc99 b13e b2a6 533e 6f29 083e 71ec 7d3d

linears.1.weight f4 [100, 100]
-1.025906 0.8386216 -0.024646541 0.022218872 0.8849184 -0.20199516 0.84514713 0.95182717
1.1131158 1.1974499 -0.046106473 0.5975869 -0.46938878 1.1127863 -0.42031613 0.75874245
-0.51366144 0.9707666 0.77236897 0.29450935 0.8310722 0.75172096 0.232067 -0.86494035
-0.688411 -0.43445635 0.5765576 0.35961393 0.9936274 0.56006604 -0.5870912 0.22751862
0.3590533 -0.008823289 0.8355681 -1.0975854 0.17955466 0.6650021 -0.30584562 0.07902303
0.5509768 1.6096334 1.1742386 -0.184556 1.0072846 0.11045221 0.014034562 1.1551211
-0.85517377 0.39582312 -0.68211627 -0.6309117 0.74349695 0.13100423 0.8312881 1.2748245
0.055798464 -0.74661475 -0.41872168 -1.2127093 -0.28080612 -0.99776125 -0.37109 -0.62688214
0.06574286 1.5693722 -0.11614129 0.5290069 1.0045146 -0.2817556 0.71650195 0.030579325
-0.44614258 -0.89714617 0.08996731 0.7262609 -0.17274426 0.024020365 -0.4975626 -0.70597315
0.97747904 0.5156882 -0.76714396 -0.5113905 -0.2199804 -0.049430355 0.86507773 -0.22821152
0.5262618 1.0056344 1.1029955 1.0431998 -0.42699006 -0.44496647 0.46070993 -0.16238104
0.84063494 1.4292262 1.3104225 -0.17808686 4.969834 -0.4192211 0.75514066 0.23484041
-0.34682336 0.61395943 -1.1219357 -0.4220813 -0.86331433 -0.96302783 0.49869376 -1.8310735
0.6802801 -1.1744723 0.44907716 -0.11889769 1.5039883 -0.21167997 -0.3539715 0.3788831
-0.3646132 -0.5338369 0.46640924 0.19912484 1.4927461 -0.17590275 0.28656128 -0.10631919
-1.9160777 -2.5389955 0.17147876 0.0774558 0.13534768 0.5254584 -1.5007281 2.3126566
0.55946344 -0.14451715 0.90940785 0.52904767 0.16172335 -0.3957169 -0.9889432 -0.59406996
-0.989183 0.42909253 0.43507004 -1.0973718 2.5089972 0.28333876 0.30710375 2.3264515
-0.20391881 -0.15606093 -0.41960132 -1.1877121 0.35535175 4.11546 1.4637423 4.907817
-0.1753562 3.7939327 -0.12216578 0.19366641 -0.83334064 -1.4859453 0.6813194 -0.078868285
-0.7072208 1.1964302 -2.0900578 0.7881684 2.0471961 2.6602478 0.60665536 -0.09732468
-0.830224 0.5400895 0.0052056913 3.473105 -0.8528135 -0.12941284 0.12810092 -0.060237166
0.62958056 -1.5271246 -0.44992772 1.189757 0.104991734 -0.6155926 -1.123898 -0.786123
1.2563655 -0.12479093 0.3435004 -1.6159468 -0.77297235 -1.4692707 -0.9747518 0.6947699
-1.8089942 0.70614284 -0.23225144 -0.07786222 0.8452436 -0.22123097 0.18553324 0.8240745
1.1767713 1.4240736 0.04594008 0.1337676 -0.35873562 1.2308825 -0.29516125 0.7356654
-0.57075477 0.74961746 0.69940144 0.14707999 0.6608688 0.73284256 0.1918809 -0.75442964
-0.72097325 -0.15348548 0.38095376 0.32303095 0.9382514 0.13274014 -0.7610895 0.33546233
0.423113 0.036641594 0.5299565 -1.5255724 -0.1275458 0.6231914 -0.03775335 0.23298231
0.27873474 0.90926874 1.0840337 -0.13768396 1.2447699 0.12909877 0.03495756 1.2607914
-1.3777775 0.13327299 -0.43919766 -1.232708 0.5305931 0.13742691 0.9708795 1.3443047
00000000: e350 83bf e8af 563f 8be7 c9bc 5a04 b63c
00000010: 038a 623f d2d7 4ebe 905b 583f f2aa 733f
00000020: 947a 8e3f 0a46 993f 24da 3cbd 75fb 183f
00000030: ba53 f0be c86f 8e3f ad33 d7be f23c 423f
00000040: 517f 03bf 2984 783f f9b9 453f eec9 963e
00000050: 26c1 543f c970 403f f9a2 6d3e bb6c 5dbf
00000060: b43b 30bf 1071 debe 4799 133f 511f b83e
00000070: 5e5e 7e3f 7d60 0f3f 9c4b 16bf a4fa 683e
00000080: d6d5 b73e 8e8f 10bc cae7 553f ae7d 8cbf
00000090: 2ddd 373e 943d 2a3f cc97 9cbe d4d6 a13d
000000a0: d10c 0d3f 7808 ce3f 734d 963f 40fc 3cbe
000000b0: b4ee 803f c534 e23d 38f1 653c 02db 933f
000000c0: abec 5abf 54a9 ca3e 2c9f 2ebf 6e83 21bf
000000d0: d155 3e3f f925 063e 4ccf 543f 732d a33f
000000e0: ee8c 643d 2522 3fbf b062 d6be 0f3a 9bbf
000000f0: d2c5 8fbe 486d 7fbf 82ff bdbe 597b 20bf
00000100: 31a4 863d 30e1 c83f 7cdb edbd ff6c 073f
00000110: ef93 803f 4542 90be ac6c 373f 7e81 fa3c
00000120: cd6c e4be 5fab 65bf c840 b83d 3cec 393f
00000130: dfe3 30be 5bc6 c43c 86c0 febe a8ba 34bf
00000140: 113c 7a3f 2404 043f 8c63 44bf 7dea 02bf
00000150: 8b42 61be 7c77 4abd bc75 5d3f 48b0 69be
00000160: 18b9 063f a1b8 803f f52e 8d3f 9287 853f
00000170: 719e dabe a5d2 e3be 2ce2 eb3e 3747 26be
00000180: da33 573f e2f0 b63f edbb a73f 675c 36be
00000190: e108 9f40 26a4 d6be e650 413f 017a 703e
000001a0: d592 b1be 722c 1d3f 979b 8fbf 0a1b d8be
000001b0: 2b02 5dbf fe88 76bf ca54 ff3e 9e60 eabf
000001c0: d626 2e3f 1c55 96bf 71ed e53e a280 f3bd
000001d0: b082 c03f a2c2 58be c13b b5be f7fc c13e
000001e0: 95ae babe 89a9 08bf 31cd ee3e 62e7 4b3e
000001f0: 4e12 bf3f da1f 34be 29b8 923e e0bd d9bd
00000200: 0942 f5bf e77e 22c0 2198 2f3e 25a1 9e3d
00000210: 9598 0a3e 7184 063f dc17 c0bf 9102 1440
00000220: ff38 0f3f 4efc 13be f4ce 683f ab6f 073f
00000230: ce9a 253e 689b cabe 622b 7dbf f814 18bf
00000240: 193b 7dbf 04b2 db3e 80c1 de3e ae76 8cbf
00000250: 6993 2040 c711 913e b43c 9d3e 95e4 1440
00000260: 18d0 50be 70ce 1fbe fcd5 d6be f306 98bf
00000270: aaf0 b53e d9b1 8340 e85b bb3f d60c 9d40
00000280: 9390 33be cbcf 7240 0d32 fabd 7d50 463e
00000290: d055 55bf 7533 bebf f36a 2e3f b285 a1bd
000002a0: 6c0c 35bf a024 993f 82c3 05c0 67c5 493f
000002b0: 4305 0340 8041 2a40 c44d 1b3f 2952 c7bd
000002c0: 8f89 54bf 4e43 0a3f 8194 aa3b 5a47 5e40
000002d0: fc51 5abf cd84 04be e32c 033e 3fbb 76bd
000002e0: 312c 213f d278 c3bf ed5c e6be f549 983f
000002f0: e805 d73d 7a97 1dbf e4db 8fbf 5b3f 49bf
00000300: 96d0 a03f 6392 ffbd 49df af3e 58d7 cebf
00000310: 84e1 45bf 1011 bcbf 5589 79bf 71dc 313f
00000320: 1f8d e7bf c7c5 343f 52d3 6dbe 3a76 9fbd
00000330: e261 583f 5f8a 62be 6dfc 3d3e 8cf6 523f
00000340: 71a0 963f 0b48 b63f aa2b 3c3d 60fa 083e
00000350: 32ac b7be 8f8d 9d3f 601f 97be 9154 3c3f
00000360: fc1c 12bf eee6 3f3f f90b 333f 239c 163e
00000370: b32e 293f 929b 3b3f 6d7c 443e 4d22 41bf
00000380: b491 38bf 4c2b 1dbe 5f0c c33e 5064 a53e
00000390: 3e31 703f 08ed 073e c3d6 42bf b8c1 ab3e
000003a0: 44a2 d83e 7f15 163d 3bab 073f f545 c3bf
000003b0: 5e9b 02be 7989 1f3f 42a3 1abd ea92 6e3e
000003c0: 52b6 8e3e d6c5 683f 9ec1 8a3f 06fd 0cbe
000003d0: 9f54 9f3f 7832 043e a92f 0f3d 9d61 a13f
000003e0: 035b b0bf b778 083e 84de e0be 60c9 9dbf
000003f0: f3d4 073f a4b9 0c3e 8f8b 783f 2d12 ac3f

linears.1.bias f4 [100]
0.44593903 0.09438774 0.31308547 0.087205864 0.1861688 0.09361466 0.08420073 0.053896483
0.041404944 0.10404845 0.07778488 0.12068671 0.14254573 0.03548288 0.08965811 -0.027538478
0.01813459 0.16079944 0.055596177 0.05338759 0.3845987 0.2795266 0.17780584 0.09154608
0.09137116 0.052204452 -0.062517546 0.08170896 0.010618458 0.0057703606 0.0352269 0.10592603
0.09616397 0.0894721 0.09119177 0.24982966 0.044648737 0.30978158 -0.025989588 0.28810897
0.04010372 0.2829272 0.04911263 0.048470385 0.082478724 0.050467867 0.283925 0.2739776
0.03592135 0.5547227 0.030146101 0.2144962 0.08004103 0.3892499 0.14732347 -0.09029736
-0.028505763 0.03928844 0.34826407 0.13197412 -0.045765165 0.04785848 0.08439472 0.25701502
0.06232972 0.1131245 0.15354498 0.12057028 0.055893082 0.088602 0.5127532 0.07544389
0.07238214 0.0813243 -0.010629406 0.10405478 0.094461225 -0.008338686 0.059880435 0.29812577
0.044250388 0.0026796958 0.07716744 0.001998075 0.019370575 0.6204195 0.0661194 0.09064194
-0.0003674198 0.18659493 0.088335216 0.15348093 0.11736772 0.120278165 0.050767038 0.11089456
0.10577113 0.05751717 0.22802408 0.018173035
00000000: 1f52 e43e 5c4e c13d bd4c a03e fd98 b23d
00000010: 09a3 3e3e 0bb9 bf3d 6f71 ac3d 8fc2 5c3d
00000020: 3b98 293d 5b17 d53d ae4d 9f3d 982a f73d
00000030: 82f7 113e 7f56 113d ac9e b73d 6098 e1bc
00000040: fe8e 943c 9ca8 243e d1b8 633d f2ac 5a3d
00000050: 1fea c43e 1c1e 8f3e bc12 363e 837c bb3d
00000060: cd20 bb3d 56d4 553d 3309 80bd 0757 a73d
00000070: 0af9 2d3c 4b15 bd3b 154a 103d bfef d83d
00000080: 9ef1 c43d 263d b73d c0c2 ba3d 59d3 7f3e
00000090: 98e1 363d b19b 9e3e 1ee8 d4bc 0583 933e
000000a0: cc43 243d d5db 903e 532a 493d e288 463d
000000b0: 9bea a83d 65b7 4e3d 9e5e 913e cb46 8c3e
000000c0: 4422 133d 4f02 0e3f f5f4 f63c e4a4 5b3e
000000d0: 8dec a33d c34b c73e f7db 163e d3ed b8bd
000000e0: eb84 e9bc eaec 203d ab4f b23e 3924 073e
000000f0: 4174 3bbd 4107 443d 24d7 ac3d 7997 833e
00000100: 734d 7f3d d1ad e73d e53a 1d3e 8ded f63d
00000110: 25f0 643d f774 b53d cb43 033f 5482 9a3d
00000120: 163d 943d 5b8d a63d f626 2ebc ac1a d53d
00000130: e374 c13d fc9e 08bc 3045 753d f1a3 983e
00000140: e53f 353d d69d 2f3b f609 9e3d 23f2 023b
00000150: 0aaf 9e3c d0d3 1e3f 9c69 873d 7ba2 b93d
00000160: 40a2 c0b9 be12 3f3e 18e9 b43d 1b2a 1d3e
00000170: 7d5e f03d 6654 f63d 19f1 4f3d b01c e33d
00000180: 899e d83d 2097 6b3d 257f 693e 9edf 943c

linears.2.weight f4 [100, 100]
0.45445335 0.08238572 -0.23647583 -1.0709916 -0.61989766 0.6995129 -1.0375494 0.85518664
-0.27771747 -0.22821775 0.4908123 -1.0846367 -0.584821 -0.5088198 -0.9162131 -0.34198564
0.5577912 -0.7850232 0.64407605 -0.8766115 0.39033052 0.20374286 0.42819887 -1.1243389
-0.6153189 -0.9211259 0.2388217 -1.0704194 0.14164083 0.12190127 0.07270232 -0.64273715
-0.66385585 -1.1327115 -0.9759953 0.41686428 0.59607524 0.112409815 -0.20226863 1.2474024
0.48101118 0.2815371 -0.55450416 0.37595913 -0.57175606 -1.1062891 0.2747885 0.014251748
-0.6421071 0.3266831 0.5812587 1.0651797 -1.3368948 0.4017763 0.36250463 0.46051958
-0.1892451 -0.27575848 0.2165546 -0.43954813 0.6067018 -0.6773344 0.6519112 0.45086086
-0.6700335 -0.74789023 0.48312664 0.6585288 0.44376004 -0.81713754 0.086245514 0.9801833
0.7790725 -1.1138184 -0.36901063 0.5381972 -0.56052786 0.44861904 -0.8585451 -0.17382734
0.27107644 0.47346252 -0.568652 0.49656698 0.61080223 -0.03988727 0.6579178 -1.1426525
0.55400217 0.2709366 0.33758098 0.43849984 -1.0011557 0.4934292 -0.6128808 -1.0762807
-0.25666457 -0.45702446 1.1967381 -0.021888267 0.095558286 0.14921907 -0.22179341 0.07825098
-0.13563515 -0.22041272 0.19113822 -0.040107694 0.112599045 -0.067483075 -0.14547446 0.16727501
0.0545638 0.075225845 -0.07724602 -0.040375188 0.07205904 0.16451955 -0.29576832 0.09419506
-0.618298 -0.5211796 -0.20108311 -0.011450971 0.010761723 -0.18419804 -0.09485062 0.15944937
0.15430285 -0.05895997 0.1514793 -0.17185618 -0.18593779 0.13061267 -0.15766087 -0.22133642
0.06674496 -0.29500785 -0.048172873 -0.07449868 -0.20341255 -0.17241292 0.117757544 -0.12876153
-0.10079603 -0.04192403 -0.8015807 -0.119237006 -0.16805092 -0.11320767 -0.09035665 -0.07107891
0.17180037 0.017756639 -0.3255864 0.11137526 0.1784807 -0.009857933 -0.716292 0.11271609
-0.13250193 -0.022122445 -0.10895586 -0.62964827 0.12863344 -0.02607995 -0.5072765 -0.3410432
0.09232128 -0.118978485 -0.06322086 0.005190765 -0.11917186 -0.0031304245 0.08419971 -0.19365099
0.0218263 -0.049676985 -0.03326935 -0.4625219 0.0024005617 -0.188162 -0.16781452 0.08001826
-0.13029265 0.1445652 -0.109545 0.16643018 0.1351778 -0.56824845 -0.20630288 -0.35607234
-0.016188774 -0.17335121 -0.11692846 -0.024702048 0.12505493 0.0852722 -0.19884685 -0.114091024
0.51322174 -0.09536134 -0.017770417 -1.3657408 -0.7180451 0.9911894 -1.4700563 0.8634869
-0.40287128 -0.24860527 0.5803113 -1.4893714 -0.9214539 -1.0445973 -1.1395092 -1.1563026
1.0045893 -1.1405103 1.0349677 -0.88646257 0.47744036 0.38574967 0.6224862 -1.6135397
-0.9385177 -1.0277027 -0.09622945 -1.0470015 -0.23132943 -0.022108814 -0.19502805 -0.6744121
-0.8384461 -1.1290202 -0.86596 0.49526438 0.9826526 0.15534319 -0.82947266 1.2444091
0.87484276 0.45647132 -1.0478454 0.6897021 -0.85672295 -1.482717 0.35546052 -0.09384766
-0.80493337 0.7119158 0.93220246 1.499565 -1.47211 0.4988864 0.5189897 -0.8139732
00000000: 1cae e83e d8b9 a83d b826 72be 4116 89bf
00000010: 9db1 1ebf 4713 333f 6bce 84bf 83ed 5a3f
00000020: fc30 8ebe eab1 69be c04b fb3e 60d5 8abf
00000030: d4b6 15bf 0442 02bf f18c 6abf be18 afbe
00000040: 67cb 0e3f 48f7 48bf 2be2 243f 9c69 60bf
00000050: 67d9 c73e f8a1 503e e23c db3e 56ea 8fbf
00000060: 8a85 1dbf e8ce 6bbf ad8d 743e 8103 89bf
00000070: 4b0a 113e 5fa7 f93d f4e4 943d 6c8a 24bf
00000080: 75f2 29bf b1fc 90bf d4da 79bf 3c6f d53e
00000090: 6398 183f 1e37 e63d 821f 4fbe e2aa 9f3f
000000a0: 1947 f63e a125 903e fcf3 0dbf b77d c03e
000000b0: 9b5e 12bf e29a 8dbf 14b1 8c3e 2a80 693c
000000c0: 2261 24bf 0243 a73e 5fcd 143f cf57 883f
000000d0: 5e1f abbf a0b5 cd3e 359a b93e 39c9 eb3e
000000e0: 78c9 41be 3730 8dbe 7dc0 5d3e 740c e1be
000000f0: cf50 1b3f ca65 2dbf a7e3 263f 3cd7 e63e
00000100: 5187 2bbf bc75 3fbf 605c f73e 5895 283f
00000110: 8434 e33e ed2f 51bf 7da1 b03d 4bed 7a3f
00000120: 4c71 473f 9a91 8ebf f6ee bcbe 4bc7 093f
00000130: c17e 0fbf 65b1 e53e 9dc9 5bbf cbff 31be
00000140: 88ca 8a3e ae69 f23e 2d93 11bf 073e fe3e
00000150: 895d 1c3f d660 23bd 4d6d 283f 7042 92bf
00000160: 16d3 0d3f 34b8 8a3e 6ad7 ac3e 0d83 e03e
00000170: df25 80bf c1a2 fc3e c2e5 1cbf 91c3 89bf
00000180: 8a69 83be 1cff e9be b72e 993f 064f b3bc
00000190: 10b4 c33d e2cc 183e d01d 63be 0d42 a03d
000001a0: f1e3 0abe dfb3 61be bdb9 433e f747 24bd
000001b0: 549a e63d 9134 8abd 42f7 14be 244a 2b3e
000001c0: 4b7e 5f3d 0210 9a3d 2933 9ebd 7460 25bd
000001d0: b193 933d d077 283e f26e 97be 57e9 c03d
000001e0: c748 1ebf 076c 05bf bbe8 4dbe da9c 3bbc
000001f0: f051 303c 699e 3cbe 0b41 c2bd b246 233e
00000200: 9101 1e3e 0280 71bd 641d 1b3e 11fb 2fbe
00000210: 7a66 3ebe 54bf 053e da71 21be 04a6 62be
00000220: 95b1 883d 450b 97be eb50 45bd c492 98bd
00000230: 614b 50be 038d 30be de2a f13d 10da 03be
00000240: 266e cebd 88b8 2bbd 6534 4dbf 8832 f4bd
00000250: 8a15 2cbe 6cd9 e7bd e80c b9bd d291 91bd
00000260: 70ec 2f3e 5f76 913c 43b3 a6be b618 e43d
00000270: a5c3 363e 2b83 21bc ea5e 37bf b2d7 e63d
00000280: 96ae 07be 213a b5bc 4024 dfbd a130 21bf
00000290: 7cb8 033e 9fa5 d5bc dfdc 01bf 379d aebe
000002a0: f012 bd3d feaa f3bd f079 81bd 4b17 aa3b
000002b0: 6010 f4bd cf27 4dbb e670 ac3d 724c 46be
000002c0: 12cd b23c 187a 4bbd 7145 08bd accf ecbe
000002d0: be52 1d3b 8aad 40be 92d7 2bbe 9de0 a33d
000002e0: 706b 05be e608 143e 2159 e0bd ac6c 2a3e
000002f0: 0d6c 0a3e bb78 11bf 1041 53be 1d4f b6be
00000300: 529e 84bc fb82 31be 3078 efbd f35b cabc
00000310: 660e 003e 31a3 ae3d 829e 4bbe 8ea8 e9bd
00000320: 8062 033f ce4c c3bd 4493 91bc 98d0 aebf
00000330: ced1 37bf 97be 7d3f ce2a bcbf 7a0d 5d3f
00000340: 2545 cebe 6192 7ebe 488f 143f b9a3 bebf
00000350: 67e4 6bbf 5db5 85bf 70db 91bf b901 94bf
00000360: 6296 803f 3efc 91bf d279 843f 36ef 62bf
00000370: 1073 f43e fb80 c53e 415b 1f3f 7888 cebf
00000380: b242 70bf c38b 83bf f213 c5bd 2504 86bf
00000390: 9fe1 6cbe 8b1d b5bc 6fb5 47be 45a6 2cbf
000003a0: 67a4 56bf bc83 90bf 8eaf 5dbf 4b93 fd3e
000003b0: 1f8f 7b3f 4912 1f3e 5258 54bf cc48 9f3f
000003c0: b2f5 5f3f 9cb6 e93e cc1f 86bf 5190 303f
000003d0: 3252 5bbf acc9 bdbf ecfe b53e 3433 c0bd
000003e0: 1d10 4ebf 1d40 363f d2a4 6e3f bff1 bf3f
000003f0: 1a6e bcbf 0a6e ff3e 82dc 043f 8c60 50bf

linears.2.bias f4 [100]
-0.10177849 -0.017260004 -0.025326405 -0.109330185 0.024962671 -0.15831566 -0.11842005 -0.094576605
-0.0032202902 -0.18712449 -0.08505768 0.16877456 0.037327494 0.009093827 -0.14278999 -0.37253886
0.11535264 0.05604406 0.078399666 -0.17259526 -0.01524546 0.038601935 0.002612661 -0.12680513
-0.099948704 -0.06856061 -0.22011688 0.015077856 0.05959166 -0.11187381 -0.15304987 -0.08678504
-0.18959616 0.034579135 -0.0135086095 -0.12742014 -0.033251036 -0.09893534 -0.10246022 -0.16532359
-0.16443092 0.1470771 -0.036676638 -0.1299841 0.012451758 -0.021519601 -0.085352965 -0.012238344
-0.12824965 -0.053343467 -0.078774 -0.12732783 -0.058209326 -0.0003762631 0.22074515 -0.11904719
-0.064580925 -0.04376098 -0.022855505 0.62203133 -0.062692724 -0.07000392 0.03896574 -0.06406505
0.0017378675 -0.05912861 -0.14082393 -0.14563733 0.21260953 0.1446501 -0.08809563 0.011253338
0.3220463 -0.09880078 0.11686523 0.056386985 0.008192826 -0.10653334 -0.09520188 -0.10744101
-0.1992914 -0.051732842 0.033419706 0.12872809 -0.090975925 0.21212146 -0.14991277 0.052684393
-0.025444165 -0.082963444 -0.027615324 -0.05035643 -0.24313335 -0.10974771 -0.08798889 -0.043629967
0.18682265 0.091527514 0.013466366 -0.14161234
00000000: 3e71 d0bd da64 8dbc 5279 cfbc 81e8 dfbd
00000010: 847e cc3c 801d 22be 3686 f2bd 61b1 c1bd
00000020: 810b 53bb 909d 3fbe b932 aebd 3dd3 2c3e
00000030: b7e4 183d 46fe 143c 8a37 12be 6abd bebe
00000040: 013e ec3d 758e 653d 0190 a03d d0bc 30be
00000050: 18c8 79bc 101d 1e3d 2e39 2b3b 34d9 01be
00000060: e8b1 ccbd 8169 8cbd 5266 61be 1d09 773c
00000070: 6216 743d 191e e5bd 1bb9 1cbe 5bbc b1bd
00000080: 7f25 42be daa2 0d3d 3753 5dbc 6d7a 02be
00000090: 3d32 08bd 9d9e cabd aad6 d1bd 964a 29be
000000a0: 9460 28be 619b 163e 3e3a 16bd 8d1a 05be
000000b0: 7502 4c3c e049 b0bc 89cd aebd 5683 48bc
000000c0: e053 03be ae7e 5abd 4354 a1bd 3a62 02be
000000d0: e76c 6ebd 2e45 c5b9 040b 623e 03cf f3bd
000000e0: 0143 84bd b73e 33bd 783b bbbc 723d 1f3f
000000f0: 0b65 80bd 375e 8fbd 8a9a 1f3d 8934 83bd
00000100: 28c9 e33a d730 72bd 2634 10be f421 15be
00000110: 50b6 593e 281f 143e 7b6b b4bd ec5f 383c
00000120: 41e3 a43e 1058 cabd 0a57 ef3d 0af6 663d
00000130: 343b 063c 272e dabd 34f9 c2bd 080a dcbd
00000140: 0b13 4cbe d1e5 53bd 1ae3 083d 4cd1 033e
00000150: 9651 babd 5e36 593e bc82 19be 97cb 573d
00000160: 4870 d0bc bde8 a9bd 8839 e2bc 8b42 4ebd
00000170: f3f7 78be 68c3 e0bd 8533 b4bd 56b5 32bd
00000180: 704e 3f3e c772 bb3d 08a2 5c3c d302 11be

linears.3.weight f4 [2, 100]
-0.42299342 0.12406387 -0.23528713 1.4348154 -0.21039936 0.016140616 0.23928064 0.042504594
0.6720471 0.20112106 0.3582839 3.4606218 0.25866145 0.6689508 -0.032292616 0.23549627
0.022546148 0.23327258 0.14886965 1.9026005 -0.45632595 -0.29293504 -0.333391 0.069185376
0.06899978 -0.32470834 0.27660835 -0.25087047 0.2330678 0.123693824 -0.05056776 0.060242534
1.8342537 -0.203865 0.10881369 0.095297456 0.44115776 0.10782493 -0.14987315 -0.014431918
0.037888434 -0.3115729 -1.0629832 0.020784067 0.27138788 -0.7312175 -0.03333315 0.25347608
0.13910893 0.78668654 0.09810845 0.12019329 0.3067179 0.23106562 -0.1601219 0.102174595
0.19572856 0.07009948 0.18052042 -1.4027716 -0.20902264 -0.19677648 -0.64260906 0.21236557
0.5692739 -0.020763807 0.068392016 0.02725277 -0.13846864 -0.39600462 0.2565882 -0.3399159
-0.17554389 0.04605685 -0.2658838 0.26226336 0.77342504 0.057126362 0.04892593 0.1590344
0.06884525 -0.13497236 -0.13803071 -0.0776022 0.07022615 -0.21992223 0.015286084 0.04083217
0.6734952 0.03217486 0.64089805 0.68303865 0.23291703 0.056878667 0.0152471615 1.2311275
-0.025051966 -0.17148831 0.079458445 0.026845304 -0.53201324 0.072454356 -0.48665133 0.72308904
-0.046178054 0.062710844 0.13610046 0.07345188 0.5362073 0.19565573 0.28195682 3.7555962
0.014290166 0.2413902 0.020662455 0.35980856 -0.3412171 -0.03868831 -0.16878562 1.2146825
-0.080731116 -0.16044953 -0.08800437 0.09207965 0.09125648 -0.16971464 1.4516221 -0.15890811
-0.08051996 0.29390568 -0.01697312 0.08130563 0.52694803 -0.43806893 0.11637664 0.1240896
0.25117132 -0.009057647 -0.0036716454 0.030567074 0.07462122 -0.3410109 -1.157605 0.06532147
0.068327665 -0.6694348 0.09616097 -0.076613486 0.014621352 0.81773746 -0.14517266 0.029205844
0.0768734 0.31240007 -0.17559929 0.25496858 -0.0641712 -0.21825984 0.34516644 -1.5219938
-0.11057137 -0.114967756 -0.6016769 -0.032687612 0.19504184 -0.18704724 0.09573002 0.058729347
-0.14920303 -0.43726116 0.12537201 -0.25500718 -0.19165017 -0.07920031 -0.36244568 -0.030957257
0.23056847 0.07248647 0.090597376 -0.004887915 -0.015379598 -0.12500721 -0.07709535 -0.317371
-0.07950628 -0.2384638 0.04697171 -0.0003273292 0.17533007 0.0722948 0.47945178 0.31977978
0.20299804 0.08645017 -0.19206686 0.5287196 0.100414485 -0.17163874 0.008356266 0.06312829
00000000: 9892 d8be 3315 fe3d 1cef 70be 08a8 b73f
00000010: ee72 57be 5339 843c fc05 753e 4c19 2e3d
00000020: 470b 2c3f aef2 4d3e fd70 b73e d47a 5d40
00000030: 466f 843e 5c40 2b3f 4345 04bd ef25 713e
00000040: b3b2 b83c 02df 6e3e 4971 183e 6a88 f33f
00000050: 8ea3 e9be 95fb 95be 3ab2 aabe 10b1 8d3d
00000060: c24f 8d3d 2c40 a6be 9c9f 8d3e 1872 80be
00000070: 53a9 6e3e 3053 fd3d 2420 4fbd e0c0 763d
00000080: d3c8 ea3f fdc1 50be b6d9 de3d 502b c33d
00000090: 6edf e13e 51d3 dc3d 5978 19be da73 6cbc
000000a0: e730 1b3d 7c86 9fbe d50f 88bf 5943 aa3c
000000b0: 5af3 8a3e 1231 3bbf 5788 08bd 9ec7 813e
000000c0: 9272 0e3e 4a64 493f 15ed c83d e627 f63d
000000d0: 210a 9d3e 779c 6c3e fff6 23be ea40 d13d
000000e0: 116d 483e 5190 8f3d 58da 383e 058e b3bf
000000f0: 080a 56be c67f 49be 0782 24bf 5c76 593e
00000100: efbb 113f dc18 aabc 1d11 8c3d 3341 df3c
00000110: b9ca 0dbe 1ec1 cabe 875f 833e 7509 aebe
00000120: c7c1 33be 1ca6 3c3d ec21 88be 6247 863e
00000130: 2fff 453f 55fd 693d 8e66 483d ead9 223e
00000140: bdfe 8c3d 3236 0abe ec57 0dbe e7ed 9ebd
00000150: bad2 8f3d 4b33 61be 7c72 7a3c a23f 273d
00000160: 2e6a 2c3f c9c9 033d e511 243f 9fdb 2e3f
00000170: cd81 6e3e 9bf9 683d 3bcf 793c 9695 9d3f
00000180: c839 cdbc a29a 2fbe 1cbb a23d afea db3c
00000190: 0532 08bf f362 943d 5d2a f9be 5d1c 393f
000001a0: 3325 3dbd 8b6e 803d eb5d 0b3e f06d 963d
000001b0: e244 093f fa59 483e a55c 903e b05b 7040
000001c0: 4d21 6a3c fe2e 773e 4f44 a93c d438 b83e
000001d0: 02b4 aebe a277 1ebd 23d6 2cbe b77a 9b3f
000001e0: 5b56 a5bd e24c 24be a33b b4bd 4194 bc3d
000001f0: ade4 ba3d adc9 2dbe c1ce b93f cfb8 22be
00000200: a6e7 a4bd ce7a 963e 360b 8bbc 9183 a63d
00000210: 11e6 063f 924a e0be e056 ee3d b022 fe3d
00000220: 8799 803e 8666 14bc fd9f 70bb cd67 fa3c
00000230: 03d3 983d fb98 aebe 672c 94bf 43c7 853d
00000240: 60ef 8b3d 1460 2bbf 0bf0 c43d 88e7 9cbd
00000250: 658e 6f3c 3e57 513f 24a8 14be 1841 ef3c
00000260: cd6f 9d3d e7f2 9f3e 4dd0 33be 3e8b 823e
00000270: 316c 83bd 827f 5fbe a8b9 b03e b1d0 c2bf
00000280: 3e73 e2bd 3774 ebbd 7f07 1abf 72e3 05bd
00000290: 0cb9 473e 5089 3fbe 1a0e c43d 2f8e 703d
000002a0: aec8 18be b2e0 dfbe 8561 003e 4d90 82be
000002b0: f13f 44be c633 a2bd 7b92 b9be 139a fdbc
000002c0: 241a 6c3e c973 943d 1e8b b93d ce2a a0bb
000002d0: b6fa 7bbc e401 00be 2be4 9dbd 747e a2be
000002e0: 30d4 a2bd db2f 74be 6865 403d 629d abb9
000002f0: ba89 333e 4c0f 943d b47a f53e 2dba a33e
00000300: b8de 4f3e c90c b13d 2dad 44be 2b5a 073f
00000310: 1ca6 cd3d 11c2 2fbe b8e8 083c 6849 813d

linears.3.bias f4 [2]
-0.21486218 0.117198944
00000000: d504 5cbe 0006 f03d

exp_avg f4 [100, 6]
-2.976659e-07 -2.9766534e-07 -5.953247e-07 -8.930069e-07 -1.190648e-06 -1.488295e-06 9.527386e-08 9.5274075e-08
1.905482e-07 2.8582724e-07 3.8110264e-07 4.7637113e-07 -9.6077954e-08 -9.607786e-08 -1.9215608e-07 -2.8823163e-07
-3.843102e-07 -4.803786e-07 -4.3978727e-07 -4.3978721e-07 -8.795714e-07 -1.3193566e-06 -1.7591493e-06 -2.1989238e-06
1.11825145e-07 1.1182549e-07 2.236521e-07 3.3547607e-07 4.4730473e-07 5.5912477e-07 -9.856274e-08 -9.856307e-08
-1.9712523e-07 -2.9568358e-07 -3.942549e-07 -4.928098e-07 1.6096344e-07 1.609636e-07 3.219295e-07 4.828783e-07
6.438613e-07 8.048092e-07 1.1279009e-07 1.1279023e-07 2.2558096e-07 3.3836753e-07 4.5116454e-07 5.6393645e-07
1.9078594e-07 1.9078561e-07 3.8157327e-07 5.723444e-07 7.6313916e-07 9.539419e-07 -1.6829686e-08 -1.682946e-08
-3.366626e-08 -5.0487927e-08 -6.730926e-08 -8.4188216e-08 -3.5161324e-07 -3.5161307e-07 -7.0322466e-07 -1.0548397e-06
-1.4064509e-06 -1.75806e-06 1.4003726e-07 1.4003749e-07 2.8007528e-07 4.2009435e-07 5.601589e-07 7.001863e-07
-5.1477283e-08 -5.147725e-08 -1.02956626e-07 -1.5443727e-07 -2.0591494e-07 -2.573843e-07 2.588336e-07 2.588333e-07
5.176678e-07 7.7649713e-07 1.0353375e-06 1.2941596e-06 -4.118872e-08 -4.1188684e-08 -8.237664e-08 -1.2355986e-07
-1.6475512e-07 -2.0593023e-07 7.252738e-08 7.25275e-08 1.450543e-07 2.1758349e-07 2.9010866e-07 3.6263742e-07
-1.5240929e-07 -1.5240938e-07 -3.0481553e-07 -4.5721484e-07 -6.0962657e-07 -7.620397e-07 1.7474008e-07 1.747402e-07
3.4947996e-07 5.242198e-07 6.9896043e-07 8.7370347e-07 6.4991106e-08 6.4991305e-08 1.2998122e-07 1.9496726e-07
2.59956e-07 3.2494953e-07 -1.12777144e-07 -1.12777116e-07 -2.2555399e-07 -3.3832973e-07 -4.5111022e-07 -5.638792e-07
1.7740227e-07 1.7740233e-07 3.5480357e-07 5.322012e-07 7.0960937e-07 8.870174e-07 1.845942e-07 1.8459431e-07
3.691899e-07 5.5378837e-07 7.3837737e-07 9.2297887e-07 -1.396698e-07 -1.3966991e-07 -2.793409e-07 -4.190065e-07
-5.586798e-07 -6.9834755e-07 -6.0806144e-08 -6.080619e-08 -1.2161257e-07 -1.824187e-07 -2.4322537e-07 -3.040363e-07
-3.1702115e-07 -3.170205e-07 -6.340427e-07 -9.5106157e-07 -1.2680878e-06 -1.5851202e-06 1.6978907e-08 1.6978891e-08
3.3957775e-08 5.0936638e-08 6.791522e-08 8.4893856e-08 -4.2269264e-08 -4.2269217e-08 -8.4538556e-08 -1.2680711e-07
-1.6907636e-07 -2.1134461e-07 1.01512985e-08 1.0151186e-08 2.0302064e-08 3.045442e-08 4.0606057e-08 5.0756302e-08
2.6547045e-07 2.6547139e-07 5.309363e-07 7.9638903e-07 1.0618822e-06 1.3273204e-06 1.7651882e-07 1.765192e-07
3.530348e-07 5.2954493e-07 7.0605654e-07 8.8259293e-07 -7.4360656e-08 -7.4360585e-08 -1.4872148e-07 -2.2308181e-07
-2.974394e-07 -3.7180277e-07 -7.5127025e-09 -7.512691e-09 -1.5025508e-08 -2.2537666e-08 -3.005029e-08 -3.7563865e-08
-2.2026425e-08 -2.2026406e-08 -4.405314e-08 -6.60782e-08 -8.810517e-08 -1.10129605e-07 -4.4108387e-07 -4.410835e-07
-8.821671e-07 -1.3232565e-06 -1.7643332e-06 -2.2054169e-06 1.8964327e-07 1.8964349e-07 3.7928623e-07 5.6894106e-07
7.5858424e-07 9.482213e-07 -1.8001954e-07 -1.8001941e-07 -3.6003527e-07 -5.4008365e-07 -7.2006986e-07 -9.001051e-07
-9.9923895e-08 -9.992378e-08 -1.9984793e-07 -2.9977105e-07 -3.9968958e-07 -4.9961227e-07 5.5152693e-08 5.51526e-08
1.1030635e-07 1.6545903e-07 2.206105e-07 2.7576203e-07 -2.420364e-07 -2.4203655e-07 -4.840752e-07 -7.26113e-07
-9.681467e-07 -1.2101839e-06 -3.5244543e-07 -3.5244528e-07 -7.0489097e-07 -1.0573366e-06 -1.4097841e-06 -1.7622245e-06
1.0135969e-08 1.0135991e-08 2.0271882e-08 3.0408106e-08 4.0544254e-08 5.0681134e-08 9.155574e-07 9.1555825e-07
1.8311197e-06 2.746679e-06 3.6622325e-06 4.5778033e-06 2.1447423e-07 2.1447393e-07 4.2894646e-07 6.43429e-07
00000000: e4ce 9fb4 d0ce 9fb4 67ce 1fb5 f8b6 6fb5
00000010: 5bce 9fb5 6dc1 c7b5 5c99 cc33 7a99 cc33
00000020: 7e99 4c34 cc73 9934 599a cc34 f3bf ff34
00000030: 6a53 ceb3 5d53 ceb3 7653 4eb4 41be 9ab4
00000040: 3153 ceb4 5ef3 00b5 e71b ecb4 e51b ecb4
00000050: b01b 6cb5 bf14 b1b5 e91b ecb5 3991 13b6
00000060: 8624 f033 b724 f033 0525 7034 7b1b b434
00000070: 1825 f034 c316 1635 70a9 d3b3 9fa9 d3b3
00000080: 5fa9 53b4 71be 9eb4 fba9 d3b4 a249 04b5
00000090: 4bd5 2c34 56d5 2c34 a7d5 ac34 259f 0135
000000a0: d0d5 2c35 110a 5835 0237 f233 1637 f233
000000b0: 3937 7234 e1a8 b534 9537 f234 6b61 1735
000000c0: d7da 4c34 c0da 4c34 08db cc34 35a3 1935
000000d0: 86da 4c35 3209 8035 df90 90b2 6090 90b2
000000e0: 7298 10b3 10d8 58b3 a88b 90b3 f6ca b4b3
000000f0: 5bc5 bcb4 55c5 bcb4 3bc5 3cb5 0494 8db5
00000100: 49c5 bcb5 7bf6 ebb5 265d 1634 365d 1634
00000110: 415d 9634 5489 e134 d45d 1635 70f4 3b35
00000120: df17 5db3 d617 5db3 0119 ddb3 65d3 25b4
00000130: 7819 5db4 a12e 8ab4 d2f5 8a34 c7f5 8a34
00000140: dcf5 0a35 7a70 5035 edf5 8a35 fcb2 ad35
00000150: 7ae7 30b3 70e7 30b3 09e7 b0b3 e0ab 04b4
00000160: 8be7 30b4 ac1d 5db4 59c0 9b33 6ac0 9b33
00000170: 39c0 1b34 e5a0 6934 3bc0 9b34 82b0 c234
00000180: f2a5 23b4 f9a5 23b4 87a5 a3b4 2177 f5b4
00000190: 38a5 23b5 f88e 4cb5 30a0 3b34 38a0 3b34
000001a0: 29a0 bb34 1cb8 0c35 32a0 3b35 7288 6a35
000001b0: 3d91 8b33 5991 8b33 f790 0b34 3158 5134
000001c0: 1590 8b34 b974 ae34 e42f f2b3 e02f f2b3
000001d0: cf2f 72b4 afa3 b5b4 1e30 f2b4 7c5d 17b5
000001e0: f77b 3e34 fb7b 3e34 d57b be34 97dc 0e35
000001f0: fc7b 3e35 5f1b 6e35 de34 4634 e634 4634
00000200: 1335 c634 0ca8 1435 e834 4635 a0c2 7735
00000210: 24f8 15b4 2cf8 15b4 52f8 95b4 d1f3 e0b4
00000220: 2ff8 15b5 1476 3bb5 8894 82b3 8e94 82b3
00000230: 9c94 02b4 dfde 43b4 a494 82b4 6e3a a3b4
00000240: 0e33 aab4 f732 aab4 1533 2ab5 744c 7fb5
00000250: 2a33 aab5 51c0 d4b5 03d9 9132 fad8 9132
00000260: f8d8 1133 6dc5 5a33 c9d8 9133 e44e b633
00000270: 8c8b 35b3 7f8b 35b3 908b b5b3 7928 08b4
00000280: 5b8b 35b4 f7ed 62b4 e265 2e32 6365 2e32
00000290: b664 ae32 fdcc 0233 d566 2e33 25ff 5933
000002a0: fb85 8e34 1c86 8e34 aa85 0e35 70c7 5535
000002b0: ff85 8e35 6226 b235 2089 3d34 3a89 3d34
000002c0: bc88 bd34 0d26 0e35 d687 3d35 53eb 6c35
000002d0: 34b0 9fb3 2ab0 9fb3 40b0 1fb4 4388 6fb4
000002e0: c3af 9fb4 2f9c c7b4 3711 01b2 2a11 01b2
000002f0: 7111 81b2 da98 c1b2 a510 01b3 e855 21b3
00000300: 9f34 bdb2 9434 bdb2 f134 3db3 e0e6 8db3
00000310: 5434 bdb3 6480 ecb3 1bce ecb4 0ece ecb4
00000320: 10ce 6cb5 bf9a b1b5 07ce ecb5 c600 14b6
00000330: bfa0 4b34 cea0 4b34 b4a0 cb34 55b9 1835
00000340: 83a1 4b35 4689 7e35 654b 41b4 5c4b 41b4
00000350: df4a c1b4 44fa 10b5 d34a 41b5 c09e 71b5
00000360: be95 d6b3 ae95 d6b3 c895 56b4 38f0 a0b4
00000370: eb94 d6b4 181d 06b5 07e1 6c33 ede0 6c33
00000380: 8fe1 ec33 08a9 3134 f4e0 6c34 720c 9434
00000390: 3bf1 81b4 40f1 81b4 65f1 01b5 1bea 42b5
000003a0: 44f1 81b5 9a6d a2b5 bb37 bdb4 b637 bdb4
000003b0: bd37 3db5 cfe9 8db5 d037 bdb5 9385 ecb5
000003c0: 7722 2e32 8f22 2e32 5722 ae32 119a 0233
000003d0: e122 2e33 7fac 5933 a0c4 7535 afc4 7535
000003e0: cbc4 f535 9653 3836 adc4 7536 089b 9936
000003f0: 3a4a 6634 254a 6634 f449 e634 1bb8 2c35

exp_avg_sq f4 [100, 6]
5.974362e-11 5.974358e-11 2.3897376e-10 5.3769017e-10 9.558874e-10 1.4935627e-09 1.5714447e-11 1.5714433e-11
6.285772e-11 1.4142998e-10 2.5143052e-10 3.9285944e-10 2.3199245e-11 2.3199238e-11 9.279687e-11 2.0879268e-10
3.711864e-10 5.7997734e-10 5.475463e-10 5.475462e-10 2.190184e-09 4.9279096e-09 8.760735e-09 1.368864e-08
3.091848e-11 3.0918487e-11 1.2367377e-10 2.7826638e-10 4.9469434e-10 7.7295986e-10 1.9629926e-11 1.9629923e-11
7.851963e-11 1.7666911e-10 3.1407815e-10 4.907465e-10 1.7491507e-11 1.7491507e-11 6.9966116e-11 1.5742381e-10
2.7986455e-10 4.3728876e-10 2.0916872e-11 2.0916867e-11 8.366743e-11 1.8825126e-10 3.3466882e-10 5.229187e-10
5.5257576e-11 5.5257576e-11 2.2103036e-10 4.973187e-10 8.8412067e-10 1.3814391e-09 6.800802e-11 6.800803e-11
2.7203206e-10 6.120708e-10 1.0881275e-09 1.7001961e-09 3.382738e-10 3.3827383e-10 1.3530952e-09 3.0444642e-09
5.412378e-09 8.456838e-09 4.3299496e-12 4.329947e-12 1.731981e-11 3.896942e-11 6.9279096e-11 1.0824807e-10
3.4752468e-12 3.4752444e-12 1.3900955e-11 3.1277095e-11 5.560342e-11 8.687999e-11 1.1533245e-10 1.15332494e-10
4.6132997e-10 1.0379915e-09 1.8453188e-09 2.8833156e-09 4.979663e-12 4.979658e-12 1.9918607e-11 4.4816727e-11
7.967378e-11 1.2448928e-10 2.0451776e-11 2.0451776e-11 8.180703e-11 1.8406522e-10 3.2722675e-10 5.1129145e-10
4.087189e-11 4.087188e-11 1.634875e-10 3.6784673e-10 6.5394945e-10 1.0217949e-09 7.405931e-11 7.40593e-11
2.9623712e-10 6.6653394e-10 1.1849483e-09 1.8514791e-09 6.752965e-12 6.752961e-12 2.7011796e-11 6.077631e-11
1.0804643e-10 1.6882146e-10 4.0166682e-11 4.0166676e-11 1.606666e-10 3.6149916e-10 6.426637e-10 1.0041588e-09
6.8786206e-11 6.8786185e-11 2.7514474e-10 6.1907585e-10 1.100579e-09 1.7196565e-09 8.484765e-11 8.484762e-11
3.3939052e-10 7.636289e-10 1.3575622e-09 2.121186e-09 6.300017e-11 6.300016e-11 2.520005e-10 5.670006e-10
1.0079984e-09 1.5749957e-09 1.4276805e-11 1.4276797e-11 5.7107128e-11 1.2849087e-10 2.2842764e-10 3.5691686e-10
1.6586588e-10 1.6586583e-10 6.6346334e-10 1.4927964e-09 2.6538538e-09 4.1466452e-09 8.54449e-12 8.544489e-12
3.4177865e-11 7.689997e-11 1.3671045e-10 2.1360914e-10 3.812091e-11 3.8120875e-11 1.524833e-10 3.4308612e-10
6.099283e-10 9.530081e-10 7.588402e-12 7.588399e-12 3.035354e-11 6.829522e-11 1.2141325e-10 1.8970724e-10
5.7923596e-11 5.7923596e-11 2.316943e-10 5.213138e-10 9.2677854e-10 1.4480955e-09 8.7642185e-12 8.764216e-12
3.5056805e-11 7.887836e-11 1.4022765e-10 2.1910654e-10 1.5231745e-11 1.5231741e-11 6.092694e-11 1.3708525e-10
2.4370708e-10 3.807916e-10 2.073924e-13 2.0739228e-13 8.2956737e-13 1.8665204e-12 3.3182387e-12 5.1847164e-12
6.305406e-12 6.305402e-12 2.5221545e-11 5.674837e-11 1.008855e-10 1.57633e-10 5.528409e-10 5.52841e-10
2.2113635e-09 4.975573e-09 8.84545e-09 1.38210146e-08 1.793791e-11 1.7937908e-11 7.17517e-11 1.6144105e-10
2.8700728e-10 4.4845e-10 4.4066008e-11 4.4065973e-11 1.7626373e-10 3.96592e-10 7.050491e-10 1.1016361e-09
3.9901783e-11 3.9901773e-11 1.5960697e-10 3.5911513e-10 6.3842615e-10 9.975367e-10 1.1366342e-11 1.136634e-11
4.5465322e-11 1.02296706e-10 1.8186029e-10 2.841557e-10 1.2238703e-10 1.2238702e-10 4.895481e-10 1.1014812e-09
1.9581914e-09 3.0596716e-09 3.6193717e-10 3.6193712e-10 1.4477481e-09 3.2574348e-09 5.790987e-09 9.0484e-09
2.0029287e-11 2.0029275e-11 8.0117e-11 1.8026247e-10 3.204655e-10 5.007249e-10 2.2829691e-09 2.2829687e-09
9.131876e-09 2.0546759e-08 3.652751e-08 5.707433e-08 8.105897e-11 8.1058965e-11 3.2423578e-10 7.2953155e-10
00000000: ab60 832e a560 832e 9160 832f 95cc 1330
00000010: 4c60 8330 1146 cd30 ca39 8a2d c239 8a2d
00000020: c039 8a2e 0081 1b2f b339 8a2f 0dfa d72f
00000030: 0e10 cc2d 0a10 cc2d fe0f cc2e ea91 652f
00000040: d70f cc2f 476c 1f30 2582 1630 2382 1630
00000050: 2082 1631 5a52 a931 1f82 1632 472b 6b32
00000060: 1dfb 072e 1ffb 072e 12fb 072f 83fa 982f
00000070: 05fb 0730 3778 5430 aaaa ac2d a8aa ac2d
00000080: 9faa ac2e ef3f 422f 92aa ac2f 37e5 0630
00000090: 5fdb 992d 5fdb 992d 6cdb 992e dd16 2d2f
000000a0: 6fdb 992f ec66 f02f 9cfc b72d 99fc b72d
000000b0: 93fc b72e 05fc 4e2f 73fc b72f 22bd 0f30
000000c0: 8006 732e 8006 732e 8406 732f b1b3 0830
000000d0: 7606 7330 11dd bd30 1d8d 952e 1e8d 952e
000000e0: 1c8d 952f a73e 2830 158d 9530 55ac e930
000000f0: cef7 b92f cff7 b92f cef7 b930 c836 5131
00000100: c8f7 b931 9149 1132 b858 982c b258 982c
00000110: bf58 982d ab63 2b2e aa58 982e 3f0a ee2e
00000120: 7b8c 742c 708c 742c 568c 742d e18e 092e
00000130: e38b 742e 160d bf2e 669e fd2e 6c9e fd2e
00000140: 6c9e fd2f 14a9 8e30 629e fd30 d323 4631
00000150: d134 af2c c634 af2c b734 af2d 261b 452e
00000160: 5a34 af2e 9ee0 082f 4ee5 b32d 4ee5 b32d
00000170: 44e5 b32e c161 4a2f 12e5 b32f f08a 0c30
00000180: a8c1 332e a5c1 332e a4c1 332f d339 ca2f
00000190: 9ac1 3330 366f 8c30 afdb a22e aedb a22e
000001a0: abdb a22f 2837 3730 a9db a230 2177 fe30
000001b0: 4d99 ed2c 4499 ed2c 2899 ed2d 05a6 852e
000001c0: bc98 ed2e 049f 392f aaa7 302e a8a7 302e
000001d0: a1a7 302f 7cbc c62f 70a7 3030 b202 8a30
000001e0: 3143 972e 2e43 972e 2e43 972f 972b 2a30
000001f0: 2e43 9730 0959 ec30 fb94 ba2e f794 ba2e
00000200: f894 ba2f 9be7 5130 f994 ba30 4cc4 1131
00000210: f189 8a2e f089 8a2e eb89 8a2f 1fdb 1b30
00000220: ca89 8a30 3c77 d830 0429 7b2d fa28 7b2d
00000230: e928 7b2e f746 0d2f aa28 7b2f 9537 c42f
00000240: 185f 362f 155f 362f 155f 3630 1b2b cd30
00000250: 175f 3631 477a 8e31 f650 162d f550 162d
00000260: db50 162e d61a a92e 9250 162f a1dd 6a2f
00000270: 54a8 272e 4aa8 272e 3ca8 272f 149d bc2f
00000280: e3a7 2730 fefa 8230 207f 052d 1c7f 052d
00000290: 0c7f 052e ca2e 962e cb7e 052f d795 502f
000002a0: 2cc0 7e2e 2cc0 7e2e 26c0 7e2f 334c 0f30
000002b0: 3ec0 7e30 5506 c730 882e 1a2d 852e 1a2d
000002c0: 742e 1a2e 9274 ad2e 932e 1a2f 02e9 702f
000002d0: d7fa 852d d5fa 852d d1fa 852e 11ba 162f
000002e0: b9fa 852f a757 d12f ca80 692a c180 692a
000002f0: a180 692b 3e58 032c 1380 692c c66b b62c
00000300: 0cda dd2c 03da dd2c dfd9 dd2d fc94 792e
00000310: 7dd9 dd2e bf51 2d2f b8f6 1730 baf6 1730
00000320: b8f6 1731 9af5 aa31 b3f6 1732 7771 6d32
00000330: 95c8 9d2d 94c8 9d2d 9ec8 9d2e 9e81 312f
00000340: afc8 9d2f ba89 f62f eacd 412e e0cd 412e
00000350: d4cd 412f 5d07 da2f 6bcd 4130 6068 9730
00000360: 6a7d 2f2e 677d 2f2e 5e7d 2f2f f66c c52f
00000370: 3f7d 2f30 b419 8930 74f5 472d 72f5 472d
00000380: 67f5 472e edf3 e02e 1ff5 472f 5c37 9c2f
00000390: e390 062f e290 062f e390 0630 ed62 9730
000003a0: de90 0631 5042 5231 21fa c62f 1ffa c62f
000003b0: 1cfa c630 66d9 5f31 0ffa c631 4973 1b32
000003c0: f22d b02d eb2d b02d dd2d b02e 6033 462f
000003d0: 822d b02f 62a3 0930 6be2 1c31 69e2 1c31
000003e0: 6ae2 1c32 cd7e b032 6ce2 1c33 e421 7533
000003f0: 2540 b22e 2440 b22e 2140 b22f 3888 4830

exp_avg f4 [100]
0.00021132095 0.00013106802 -1.5324833e-05 -0.0012847076 0.00025715245 -3.3090673e-05 6.2274514e-05 0.0001409863
0.00024716667 -0.0010270228 -0.0009700817 -0.00015171808 1.488221e-05 0.0004931115 6.959037e-06 0.00017240846
0.00037348442 0.00046732422 4.0045775e-06 -0.00014205897 0.0004220955 0.0005137217 -0.00023874955 -0.00012181501
-0.00044450402 9.547305e-06 -7.556117e-05 9.44234e-06 -2.2335871e-05 -0.00014334879 -0.00016417277 -5.209436e-06
-2.6230994e-06 -0.0012575799 -2.4150024e-05 -3.0039706e-05 -7.942922e-05 0.0001056426 -0.0005388619 -0.00094051595
7.312863e-05 0.0029365676 0.00038470788 0.0001508935 0.0006389912 -5.1789234e-06 -0.0009858559 0.00065498863
0.0005394312 5.8727423e-05 -0.00018332199 -0.0005274117 0.0001765142 -4.6917203e-06 0.00061704806 0.0005245588
-1.3179936e-05 0.0005708509 0.00028311528 4.2598072e-05 3.864165e-06 1.7202026e-05 3.03348e-05 -4.7516063e-05
8.5514956e-05 0.0007413199 -3.0287234e-05 -9.933382e-06 -2.3710696e-05 -0.00033002484 0.00010956078 -0.00029887204
-0.00021930903 0.00041516783 -0.00020045073 0.00035339306 -2.8227405e-06 -3.7215144e-05 -8.238138e-06 4.2685206e-05
0.0004063621 -1.0081044e-05 -0.00021739269 1.506466e-06 4.7348825e-05 3.1138767e-05 0.0006765329 -0.0006299664
-2.213722e-06 0.0003928859 0.00059911964 0.00027704283 -0.00061277254 -7.511515e-05 -2.4548419e-05 2.6111355e-05
0.00010367316 0.00066520716 0.0016069147 -0.00072340964
00000000: 0996 5d39 4e6f 0939 d48d 80b7 a263 a8ba
00000010: 6bd2 8639 d7ca 0ab8 6099 8238 b9d5 1339
00000020: 2696 8139 2b9d 86ba 154d 7eba 8316 1fb9
00000030: 9bae 7937 2744 013a ac81 e936 8bc8 3439
00000040: 3bd0 c339 3203 f539 0f5f 8636 aaf5 14b9
00000050: b34c dd39 48ab 063a d858 7ab9 ef76 ffb8
00000060: 520c e9b9 5d2d 2037 9876 9eb8 8b6a 1e37
00000070: eb5d bbb7 e64f 16b9 cb25 2cb9 b7cc aeb6
00000080: 8108 30b6 61d5 a4ba c895 cab7 c7fd fbb7
00000090: 3d93 a6b8 708c dd38 6942 0dba f58c 76ba
000000a0: a25c 9938 6e73 403b 9eb2 c939 2a39 1e39
000000b0: f981 273a 9dc6 adb6 d637 81ba 8bb3 2b3a
000000c0: 9d68 0d3a 1752 7638 1f3a 40b9 0042 0aba
000000d0: ab16 3939 926d 9db6 65c1 213a 8c82 093a
000000e0: 651f 5db7 28a5 153a 176f 9439 55ab 3238
000000f0: eda8 8136 124d 9037 7d77 fe37 fc4b 47b8
00000100: 7e56 b338 2355 423a 5711 feb7 8da7 26b7
00000110: 55e6 c6b7 2f07 adb9 ffc3 e538 edb1 9cb9
00000120: 52f6 65b9 e2aa d939 1530 52b9 9d47 b939
00000130: 506e 3db6 7517 1cb8 8936 0ab7 e408 3338
00000140: ff0c d539 c121 29b7 e8f3 63b9 c731 ca35
00000150: 6a98 4638 ff9a 0238 5b59 313a 5424 25ba
00000160: 748f 14b6 41fc cd39 3d0e 1d3a 0f40 9139
00000170: 78a2 20ba 2487 9db8 54ed cdb7 b509 db37
00000180: 1b6b d938 4c61 2e3a 1c9f d23a 33a3 3dba

exp_avg_sq f4 [100]
0.0005666123 9.6380114e-05 1.6195525e-05 0.007049477 0.00033951388 1.7534223e-05 4.445641e-05 0.0001154129
0.0003486495 0.0044761584 0.003997005 0.00014298328 3.1173538e-06 0.0011346927 1.9401266e-06 0.00016592251
0.0009282281 0.0010705326 1.4993497e-05 8.537152e-05 0.0008680714 0.0012647639 0.0002431174 8.077914e-05
0.0009402842 2.8132708e-06 2.2325596e-05 4.232484e-06 0.00018988118 0.000108878005 0.00014106999 3.809363e-08
5.83662e-07 0.0068354085 9.3083465e-05 4.9061604e-05 3.7418857e-05 6.398952e-05 0.0012358725 0.0037676543
4.6321195e-05 0.03952913 0.0007500567 9.583246e-05 0.001951497 1.6595102e-05 0.004141413 0.0020391005
0.0019370867 1.03263565e-05 0.00016122762 0.0014814127 0.0001700959 1.9251212e-08 0.0018135913 0.0013166757
1.2456194e-06 0.0021780066 0.0012869174 0.0003233055 6.1542977e-07 0.00016415234 7.0377846e-06 2.0562433e-05
3.6661015e-05 0.0025969583 1.9911391e-05 1.680299e-06 7.683647e-05 0.0005056724 0.000118949625 0.00037961086
0.00037657726 0.0013683594 0.00018964271 0.0006231132 1.3334876e-06 3.402314e-05 3.7025009e-06 0.00015113875
0.00079151633 2.1274116e-06 0.00022478505 6.3670655e-07 4.3108674e-05 2.4054245e-05 0.0021284623 0.0017346526
2.7816463e-06 0.0007577313 0.0016815789 0.00040628787 0.0016748031 2.911658e-05 5.7218563e-06 2.8791714e-05
8.358403e-05 0.0021152503 0.011940806 0.002341884
00000000: b588 143a ae1f ca38 a0db 8737 4dff e63b
00000010: c800 b239 7516 9337 b576 3a38 d409 f238
00000020: f2ca b639 bdac 923b 4ff9 823b c8ed 1539
00000030: bb33 5136 f8b9 943a 1f33 0236 7cfb 2d39
00000040: 5554 733a 1d51 8c3a 948c 7b37 7c09 b338
00000050: 498f 633a 6fc6 a53a 55ed 7e39 f867 a938
00000060: 687d 763a a0cb 3c36 da47 bb37 c304 8e36
00000070: d71a 4739 6f55 e438 30ec 1339 649c 2333
00000080: f2ac 1c35 90fb df3b ce35 c338 7fc7 4d38
00000090: 31f2 1c38 1d32 8638 00fd a13a c0ea 763b
000000a0: 0149 4238 4ce9 213d 749f 443a a9f9 c838
000000b0: 60c9 ff3a b635 8b37 b1b4 873b 6ea2 053b
000000c0: d8e5 fd3a 5d3f 2d37 360f 2939 f62b c23a
000000d0: c55b 3239 dd5d a532 07b6 ed3a 4e94 ac3a
000000e0: 282f a735 e3bc 0e3b c8ad a83a 5481 a939
000000f0: 0334 2535 4f20 2c39 1c26 ec36 7d7d ac37
00000100: 77c4 1938 bb31 2a3b 6307 a737 a286 e135
00000110: 4423 a138 1a8f 043a 9874 f938 8206 c739
00000120: 586f c539 865a b33a d4da 4639 6b58 233a
00000130: 49fa b235 12b4 0e38 7b78 7836 007b 1e39
00000140: c37d 4f3a a7c4 0e36 47b4 6b39 24ea 2a35
00000150: 96cf 3438 19c8 c937 ac7d 0b3b 485d e33a
00000160: 52ac 3a36 7da2 463a 6d68 dc3a 0903 d539
00000170: 1185 db3a 613f f437 5ffe bf36 bc85 f137
00000180: d649 af38 03a0 0a3b 5fa3 433c 4b7a 193b
