TSTE-R/Qcontrol-noisy-comparison/Noisy-10%/Proposed_A30_noisy0.1/save_model_0222.ckpt-3700000.pt (torch, 270311 bytes, 24 tensors)

linears.0.weight f4 [100, 6]
00000000: 3660 1141 71ef 0b41 79d7 0d41 ae43 1141
00000010: b93e 1441 0e1b 1541 09cb 5441 c09d 5241
00000020: 3117 5541 eb83 5941 3e02 5841 a4c4 5841
00000030: b7d9 52c1 bb35 4ec1 b497 52c1 677d 52c1
00000040: c83e 57c1 c16f 55c1 49f2 d1c0 bc05 cac0
00000050: 3665 dcc0 91db d0c0 b1e6 d8c0 2eff dfc0
00000060: 8a57 0bc1 80b9 0cc1 1ea0 12c1 34b4 17c1
00000070: 0ea8 1ec1 ec04 1cc1 c2c5 4c41 e3ab 4941
00000080: 9144 4b41 1c02 5141 5e9d 4d41 7ab8 5041
00000090: c3f8 2741 bbe3 2541 fd13 3141 4f44 3441
000000a0: 20be 3941 8a8a 3b41 92e7 4841 4657 4c41
000000b0: 13a2 5341 beaa 5241 41ea 5341 5991 5241
000000c0: 9a69 bac0 896d c1c0 474d c7c0 b201 cac0
000000d0: ad70 c1c0 a0ef cfc0 20b4 52c1 6310 4ec1
000000e0: 5f6c 50c1 5c73 52c1 73a4 51c1 e1c3 54c1
000000f0: 19bc 0841 6b23 0e41 47ca 0d41 e134 1041
00000100: 463e 1041 5206 0b41 d052 4e41 c68c 4b41
00000110: e5b0 4d41 7c79 5541 661a 5241 aef3 5541
00000120: 97b0 6741 d663 6641 3ad4 6c41 0d0a 7041
00000130: 0861 7341 1c6b 7241 b9f9 2cc1 538f 2fc1
00000140: baa2 2fc1 6123 2fc1 2ac2 31c1 7ee0 32c1
00000150: 65da 4541 8494 4741 8a8d 4b41 0b42 4c41
00000160: 625c 4f41 33da 4941 15eb fdc0 e8eb fec0
00000170: 56ed 05c1 e454 0ec1 e793 0bc1 5b62 0cc1
00000180: 6a59 aec0 8190 b8c0 a51d b8c0 c440 bec0
00000190: 0a7b b5c0 441a c1c0 d758 2fc1 6da9 2fc1
000001a0: 7a2f 33c1 7f39 34c1 6fb1 30c1 5914 32c1
000001b0: 04b0 25c1 ee7c 25c1 3ee5 2ec1 8f84 35c1
000001c0: efef 38c1 c47d 35c1 bea5 afc0 50bf b4c0
000001d0: 4785 b0c0 cec2 aec0 d40f b9c0 e1ba b6c0
000001e0: b355 14c1 1b33 18c1 9819 20c1 0831 22c1
000001f0: 2e23 25c1 dcf5 2bc1 c2c6 3341 dafb 3541
00000200: 9952 3a41 f9e7 3f41 e6d0 3c41 f774 3f41
00000210: 5b57 2841 e17e 2841 ab51 3741 90ce 3f41
00000220: 3e00 3c41 13f1 4241 ee9e d8c0 458c d3c0
00000230: 94cc d1c0 5c82 d8c0 d2af e0c0 a320 dcc0
00000240: 96dc 33c1 6e8a 31c1 b3d8 30c1 adb0 36c1
00000250: 9d18 39c1 baa9 38c1 a4c8 26c1 6cd5 29c1
00000260: 23af 2dc1 ce95 31c1 d441 31c1 1de8 34c1
00000270: d5c1 2dc1 c505 29c1 3fdf 2cc1 b638 30c1
00000280: a0e6 2fc1 be51 2cc1 daac 2cc1 f22a 28c1
00000290: 4bed 30c1 3f7d 36c1 39de 32c1 2e4d 32c1
000002a0: c178 48c1 0f2e 47c1 6be7 4cc1 3695 51c1
000002b0: 1742 4cc1 8753 50c1 2cc2 4c41 d3f5 4d41
000002c0: b6e8 4f41 789f 5041 c8a2 5341 309c 4d41
000002d0: a77a 6741 6188 6741 5878 6641 dcb7 6c41
000002e0: 212f 6841 9e95 6841 bb63 32c1 6c1d 31c1
000002f0: b942 33c1 7f53 37c1 88c5 3ac1 8ef0 39c1
00000300: 0190 2a41 c5bd 2941 27e8 3241 bdfe 3841
00000310: 24a2 3a41 07de 3c41 8a9f 44c1 c9c3 44c1
00000320: 9aa3 44c1 16c9 47c1 226e 46c1 bf8a 48c1
00000330: d81c 0ac1 9fc0 04c1 a8bb 0cc1 33c2 13c1
00000340: d80a 16c1 d8a9 15c1 7190 07c1 0000 07c1
00000350: d735 0fc1 049d 0fc1 20dd 11c1 c760 17c1
00000360: cdc5 34c1 2f1f 39c1 f067 3ac1 6b7c 37c1
00000370: 3824 3bc1 a448 3fc1 04a1 3441 fa09 3441
00000380: eac2 3541 a851 3741 fc21 3841 2bf7 3641
00000390: 59a9 48c1 0bb5 47c1 99b1 44c1 79b8 49c1
000003a0: 9a74 48c1 64fd 46c1 54f4 ebc0 ad8e ebc0
000003b0: edae fcc0 b0d9 01c1 d201 04c1 29ea ffc0
000003c0: 47e1 e440 4061 d940 5a4b ec40 e4f2 e740
000003d0: e963 f440 4df4 f640 1f3e aec0 8ac1 b2c0
000003e0: fcb3 b8c0 e41a bec0 6182 b9c0 edee bbc0
000003f0: ce7e 1bc1 6f04 19c1 25f0 22c1 6764 21c1
9.085989 8.745957 8.865106 9.079023 9.265313 9.319105 13.299569 13.163513
13.318162 13.594707 13.500547 13.548008 -13.178153 -12.888118 -13.162037 -13.155616
-13.452827 -13.339784 -6.560826 -6.3132 -6.887355 -6.5268025 -6.7781606 -6.9999
-8.708872 -8.795288 -9.164091 -9.481495 -9.916029 -9.751202 12.798281 12.604465
12.70424 13.063015 12.85092 13.045038 10.498233 10.368098 11.06738 11.266677
11.608917 11.721323 12.556536 12.771307 13.227069 13.166685 13.244691 13.160485
-5.825391 -6.044621 -6.2281833 -6.312707 -6.0450044 -6.498001 -13.168976 -12.879001
-13.026458 -13.153164 -13.102649 -13.297822 8.545922 8.883647 8.861884 9.01291
9.015203 8.689043 12.895218 12.7218685 12.855687 13.342159 13.131445 13.371992
14.480613 14.399374 14.801813 15.002454 15.211189 15.15115 -10.810967 -10.972491
-10.977228 -10.946137 -11.109903 -11.179808 12.365819 12.473759 12.722055 12.766124
12.960054 12.615771 -7.9349465 -7.966297 -8.370443 -8.895725 -8.723609 -8.774013
-5.448415 -5.7676396 -5.7536187 -5.945406 -5.6712694 -6.0344563 -10.959189 -10.978864
-11.199091 -11.264037 -11.043319 -11.129968 -10.355473 -10.343 -10.930967 -11.344863
-11.558578 -11.3432045 -5.488982 -5.6483536 -5.516269 -5.46128 -5.783182 -5.7103124
-9.270923 -9.512477 -10.006248 -10.1369705 -10.321089 -10.747524 11.236025 11.373987
11.645165 11.994134 11.801001 11.966056 10.521327 10.530976 11.457438 11.98793
11.750059 12.183856 -6.7694006 -6.6108727 -6.556223 -6.765913 -7.0214624 -6.878984
-11.241354 -11.096296 -11.052905 -11.418134 -11.568509 -11.541437 -10.423985 -10.614605
-10.855258 -11.099073 -11.078571 -11.306668 -10.859822 -10.563909 -10.804503 -11.013845
-10.993805 -10.769957 -10.7922 -10.510485 -11.057933 -11.405578 -11.179254 -11.143843
-12.529481 -12.448745 -12.806499 -13.098928 -12.766135 -13.020392 12.797405 12.872516
12.994314 13.038933 13.2272415 12.850632 14.467444 14.470796 14.404381 14.794888
14.511506 14.536528 -11.149348 -11.069683 -11.20379 -11.457885 -11.673225 -11.621229
10.660157 10.60883 11.181678 11.562192 11.664585 11.804206 -12.28895 -12.297799
-12.289942 -12.486593 -12.401888 -12.533874 -8.632042 -8.297027 -8.7958145 -9.234912
-9.377647 -9.353966 -8.472764 -8.4375 -8.9506445 -8.975834 -9.116486 -9.461127
-11.298291 -11.570113 -11.650375 -11.4678755 -11.696342 -11.955235 11.28931 11.252436
11.360086 11.457436 11.508297 11.435344 -12.541345 -12.4817 -12.293359 -12.607537
-12.528467 -12.436863 -7.373575 -7.3611665 -7.8963532 -8.115646 -8.250444 -7.997334
7.1524997 6.7931213 7.384198 7.2483997 7.637196 7.717322 -5.445083 -5.5861254
-5.7719707 -5.9407825 -5.7971654 -5.8729157 -9.718458 -9.563582 -10.183629 -10.087012

linears.0.bias f4 [100]
00000000: e7b4 22be f5d3 6a3e 4af6 c23d aa93 533e
00000010: 14d4 863e 225d b93d a7be 033a feca 473d
00000020: c433 b33e bf45 0e3e 6674 a8bd 26b1 963d
00000030: a958 493e 84fe 9b3d 11f2 7e3d c789 703e
00000040: fdc1 233f 8ce3 b83d df70 5e3e a57f bc3e
00000050: 7b19 713e 78c3 123d 414d abba 2f21 2b3e
00000060: fc2f cd3d 65f8 5a3e 5f07 9c3d 5f3b 903e
00000070: cf03 e03d 7edd 2e3e 550a 293e 7123 e63d
00000080: d9b5 383c 199a 8c3d db03 8e3e f9c2 b13e
00000090: 81c5 aa3d 7ad3 193e 5b0e 943d 765f 7c3e
000000a0: c48b 4bbe ad72 193f 96a1 873e 2287 573e
000000b0: 034e 043e 0419 913e e79c dc3d 549f 3bbd
000000c0: 124f 8d3d 1327 a23d c0fb 32bd f3a8 283e
000000d0: 8dc3 903d 2355 b33e 10f2 673d c6b4 9d3e
000000e0: 4a11 b33d 660a 1dbe 4cce 13be 412d bfb9
000000f0: 01f2 143e dd83 093e 8022 123e 78ba c4be
00000100: f930 a0bd 92bb e43d 3cb6 c23e ee33 d9bc
00000110: 0e39 6a3e a8e4 223e cc03 c13d 22df d6be
00000120: 0005 583e b5f6 5f3d 44d8 283e 9ecb cb3d
00000130: 3bbe d53d d2f0 873d b986 2fba 02cd 263b
00000140: 4ede 8c3d 71ac 1a3e 3a5d 5a3e 0340 873d
00000150: 442d d63d 346f ab3d 98c8 213e 45b3 013d
00000160: b4ab 3dbe d7e7 6e3e ccf4 803e 840a c03d
00000170: 8525 b2bd c803 d13c 0d68 a53a 211d 453e
00000180: 6820 5d3e 3456 28be 2984 a73d 4147 613e
-0.15889321 0.22932418 0.09519632 0.20661798 0.26333678 0.09050967 0.0005025663 0.048777573
0.35000432 0.13893794 -0.08225326 0.07358007 0.19662727 0.076169044 0.06224257 0.23490058
0.6396788 0.09027776 0.21722744 0.36816135 0.23544876 0.035830945 -0.0013069288 0.16711877
0.10018918 0.21383817 0.076185934 0.28170297 0.109382264 0.1707668 0.16507848 0.11237229
0.011273825 0.06865329 0.27737316 0.34719065 0.08338452 0.15022078 0.072293006 0.2464579
-0.19877535 0.59940606 0.26490468 0.21047643 0.12920384 0.28339398 0.10772114 -0.045806244
0.06899847 0.07917609 -0.04369712 0.16470699 0.07068548 0.35025892 0.056627333 0.30801982
0.08743532 -0.15335998 -0.14434165 -0.00036464076 0.14545442 0.13429208 0.14270973 -0.38423514
-0.07821841 0.11168589 0.3802966 -0.02651402 0.22873327 0.15907538 0.09424552 -0.41967112
0.21095657 0.054678638 0.16488749 0.09950946 0.10436674 0.0663773 -0.00066957955 0.0025451784
0.06878339 0.15104844 0.21324626 0.06604006 0.104578525 0.0837082 0.15799177 0.031665105
-0.18522531 0.23330627 0.25186765 0.09377006 -0.086985625 0.025514498 0.001261951 0.19249393
0.21594393 -0.16439134 0.081795044 0.21999837

linears.1.weight f4 [100, 100]
00000000: 6ca5 ff3e 1d75 7a3e dc31 96be a12b 12bf
00000010: e514 aebe 9d23 593e b173 a13d d36b 673e
00000020: 8d20 e3be c838 e3be 35ca d43e a64d 9c3e
00000030: b9fb e93d 40db 1bbf 686b 803e dcec 17bf
00000040: 5811 45bd 78a6 3dbf c3d3 43bf cde1 b2be
00000050: b14d 26bf 3901 b63e adb6 4e3e 8d98 04be
00000060: fbb6 bdbe e22c 11bf df5f 32bf e582 15bf
00000070: 2966 0abf 72b9 df3e 57f4 db3d 7154 05bf
00000080: 8290 5c3e f1d1 00bf 5cb8 14bf 7a25 07bf
00000090: bbc5 0abf a934 713e 2489 03bf 8df0 0abf
000000a0: bbc2 8f3e 14ac 7cbe 05f5 d0be c2fa 60bf
000000b0: cf96 9abe 65e7 cabe dc8f a2be e335 b13e
000000c0: 97e9 7c3e cd81 d93d deee 063f 10f2 40bf
000000d0: 4637 1fbf 8c8f e4be 3441 d23c a294 a0be
000000e0: 1691 02bf 14a3 533e 2165 9d3e 6646 5c3d
000000f0: cc9f 483e f8c6 b7be b729 0dbf 6454 2e3e
00000100: c640 6b3e a07b 23bf 75cf 68be 359d 9d3e
00000110: c5b4 d0be 8679 893e f039 cebe d138 df3c
00000120: f222 113e 6d80 bbba 2c5c cdbe 0aaa 00bf
00000130: 7cf8 b9be 025f d9be fa5e 813e 5d50 753d
00000140: 5c48 7dbe 731a 37bf fc57 63bf 2a09 863e
00000150: e460 04bf e8b7 943e f42e 8abe 91d4 903e
00000160: 8c45 8c3e c28a cfbe e700 e6be 25e7 023e
00000170: 06f4 7c3e 3556 6a3e 552b 3a3e 8713 b73e
00000180: 70b9 5bbf eadf 113f 612a 963e 65df d9be
00000190: f672 83bd 3c26 e0be b2aa 393e 1e6a 5e3e
000001a0: 61f1 1ebe 1694 4abd 2b42 1d3e ad41 59bd
000001b0: bc5d 893e 2760 433c e2e6 8a3e 16cc 25be
000001c0: 8ff0 98be b3bc 113f 32b1 6cbe 109e c0be
000001d0: b39f d7be e5c1 063f aa87 c8bd 7b1d 96bd
000001e0: 670a 14bd f473 613e 0559 1e3e 488a 153d
000001f0: b145 20bd 6940 9abe 14a7 b73e 8ef1 c4be
00000200: 5b18 453d 46a4 a1be df10 a2be d723 3ebe
00000210: 1083 083e afb6 0ebd 1038 65be c107 72be
00000220: ef64 f33d edf0 4c3d 9984 07be bfe4 07be
00000230: b6fb 7d3e fe48 c9be d617 b2bd 8880 113e
00000240: 2b54 d83e 42e4 19be 929a c33d 623f d43e
00000250: eb1c d6bd cc14 cbbd 13a2 233e e528 4c3e
00000260: 2583 883e 8121 d0be 5041 80be d788 48be
00000270: d4b2 ec3d 1451 2b3f 0cda bd3e fd2a ac3e
00000280: 483d 0abd 565e 563e 64de 1d3e fac3 c53d
00000290: ac6a 193f efa5 de3c c912 c83c 6a8d d83e
000002a0: 58e9 bbbe 6a5e 80bd 2697 1cbe c2ac d63e
000002b0: 8426 93be d5ac 68bd dbb5 ab3e 81ed 2cbe
000002c0: ba3b c5bd 41b0 843e e1c0 2abe 3a97 a93d
000002d0: 6730 103e 7376 57bd a77c f0bc e536 3d3e
000002e0: 3a05 653e 9e35 69be 7f80 c53d 53ec d6be
000002f0: 8b17 2d3e d3b7 85be 0cc3 b1be 12e0 473c
00000300: c732 043f 9e8e 8c3e 5b16 1dbd ba14 dbbe
00000310: 43c1 883d 860b e7bd 3f4b 03be 649b cabe
00000320: ffc3 e73e 1a3c 4cbe 3239 bf3e aed9 f2be
00000330: 3e63 d8be 5ab3 bf3d 777b 44bd 5209 ae3e
00000340: f558 39be 5726 743e 5218 8f3e 2782 963c
00000350: a8ea 68be 221d 4d3f 58c6 473e c275 6cbe
00000360: 4aa0 5ebe cf26 463f 52b8 50be 5922 43be
00000370: 7e12 96be 869a a53e faff b43d 68c4 423e
00000380: 6889 6bbe c899 ebbe f0a5 1a3f 2a39 0cbf
00000390: c8c2 183e 659a 82be 19c8 2abe 685b 08be
000003a0: 5fac 673e 2e4c 0f3f a062 79be 6397 e1be
000003b0: de3d 20be b48e 42bf 8616 113f 4999 99be
000003c0: 25aa e63e 23b5 79be a8f3 24bf 1261 8a3d
000003d0: 14bf ac3e 7d8e 8bbe 83e1 9f3e 6ece 843e
000003e0: 6c31 28be 653e c03c 76cb eb3d cfb8 cf3e
000003f0: a233 123f 8dc6 dfbe 84d4 6ebe 2172 03bf
0.49930894 0.24458738 -0.29334915 -0.5709782 -0.34000316 0.21204992 0.078833945 0.22599725
-0.44360772 -0.44379258 0.41560522 0.3052799 0.114249654 -0.60881424 0.25081944 -0.59345794
-0.048112243 -0.74082136 -0.76495 -0.34937897 -0.649623 0.35547808 0.20186873 -0.12948819
-0.37053666 -0.5670911 -0.6967754 -0.58402854 -0.54062134 0.4369617 0.107399635 -0.5208197
0.215395 -0.50320345 -0.5809381 -0.5279156 -0.5420796 0.23555245 -0.51381135 -0.542733
0.28078255 -0.24675018 -0.40811935 -0.87882626 -0.30193183 -0.39629665 -0.3175038 0.34611425
0.24698482 0.10620461 0.5270823 -0.7536936 -0.62193716 -0.44640768 0.025665857 -0.31363398
-0.51002634 0.20667678 0.30741218 0.053778075 0.19592208 -0.3589399 -0.55141777 0.1702438
0.22973928 -0.6386051 -0.22735389 0.30784002 -0.40762916 0.26850528 -0.40278578 0.027248772
0.14173487 -0.0014305242 -0.40109384 -0.5025946 -0.3632239 -0.42455298 0.25267774 0.059891094
-0.24734634 -0.71524733 -0.8880613 0.26178867 -0.51710343 0.2904656 -0.26988947 0.28287175
0.2739681 -0.4053555 -0.44922563 0.12783487 0.24702463 0.22884448 0.18180592 0.35757086
-0.8582983 0.5698229 0.29329208 -0.4255325 -0.064184114 -0.4377917 0.18131521 0.21720168
-0.15521766 -0.049457632 0.15357272 -0.05304115 0.26829326 0.01192478 0.27129275 -0.16191134
-0.29871032 0.5692856 -0.2311447 -0.37620592 -0.42114028 0.5263961 -0.09791501 -0.07329842
-0.036142733 0.22016889 0.15463646 0.03650883 -0.039128963 -0.30127266 0.35869658 -0.38465542
0.04811893 -0.31570643 -0.31653497 -0.1856836 0.13331246 -0.03484219 -0.22384667 -0.2363577
0.11884486 0.050034452 -0.13234176 -0.13270853 0.24803051 -0.393135 -0.086959526 0.14209187
0.42251715 -0.1502848 0.09550966 0.41454607 -0.104547344 -0.09916076 0.15979795 0.19937475
0.26662555 -0.4065056 -0.2504983 -0.1958345 0.11557546 0.6692059 0.3708042 0.33626547
-0.03374985 0.20934424 0.15416867 0.0965652 0.59928393 0.027178733 0.02442302 0.4229539
-0.36701465 -0.06268008 -0.15292034 0.4192868 -0.28740323 -0.05680545 0.33537182 -0.16887476
-0.096305326 0.2591572 -0.1667514 0.08280797 0.14080964 -0.052603196 -0.029356314 0.18477972
0.22365275 -0.2277436 0.09643649 -0.41977176 0.16903512 -0.2611681 -0.3471912 0.012199419
0.5163998 0.27452558 -0.038351398 -0.4278925 0.06677487 -0.11281495 -0.12821673 -0.3957168
0.4526672 -0.19944802 0.37348324 -0.474317 -0.42263216 0.093603805 -0.047969308 0.33991486
-0.1810034 0.2384275 0.27948242 0.018372608 -0.22745764 0.8012258 0.19509256 -0.23091796
-0.21740833 0.7740297 -0.20382813 -0.19056071 -0.29310983 0.32344455 0.08837886 0.19020236
-0.23001635 -0.46015763 0.6040945 -0.54774725 0.14918053 -0.2550842 -0.16677894 -0.13316119
0.22624348 0.55975616 -0.24354029 -0.4406081 -0.156486 -0.75999 0.56674993 -0.2999976
0.45051685 -0.24385504 -0.6443429 0.06756796 0.3373953 -0.27257147 0.3122674 0.25938743
-0.16425103 0.023467252 0.115134165 0.40570685 0.57110035 -0.4370617 -0.23323256 -0.5134602

linears.1.bias f4 [100]
00000000: 9354 16bd 9859 c1bd 901b 313e 7227 a23e
00000010: a1e3 c83d e7e9 0c3f ebbd 533e 11bc a5be
00000020: e083 fa3e 94cb 5fbf 9af0 06bf 98a0 0a3e
00000030: 72fa 01bf 5b8c 253e e6a0 b5bd dea4 103f
00000040: 20d4 703b 3d66 133f 2305 abbc d26c ccbe
00000050: c505 57be 3b42 c7be 2018 493e ced8 013f
00000060: bf86 2fbe 0e74 8c3d 800f 8bbc ad4f 573e
00000070: 0d34 12bf 493c 0b3f bcb4 473f 4cda 603f
00000080: 33de 9f3e 27d8 913e 7af4 c3be c5c2 553f
00000090: b680 8ebe ba65 17be e4ca 7bbe f89e 843d
000000a0: 1e62 a53e 4ec3 29bf 5209 f73e 5f07 f3be
000000b0: 75c4 f83d d576 42bd 0d5d b93d 3874 97be
000000c0: b362 02be 50de 983e 9176 0f3f d0d3 95bf
000000d0: 7159 803d 3481 cd3e 22c0 dcbd d8e7 f0be
000000e0: 8d89 19bf ea4f fc3e 9227 0fbe 7bf4 983c
000000f0: 9571 e9be 8d04 2a3e 3955 cebe b7d4 34bf
00000100: 6564 2240 b5f5 073f 2292 ef3d c86c a5be
00000110: b717 69bc c9ad 103f 6e8a 593e a7c8 ccbd
00000120: 4a89 9a3e 84fa 203f ba47 59bd e91f 723e
00000130: 8702 023f 0847 ac3e 0d86 ed3e dfa5 29bf
00000140: 66b5 15be bd4f 923d e6f4 1d3d 8d13 aebe
00000150: 1a00 3ebf 104a f73e 21be 26bf 1afd 45bf
00000160: c83b 11bd 9713 373d 6f1a 123e 4790 ad3d
00000170: a610 50be 2400 063e 88e2 5abf 9e70 be3d
00000180: d3f2 5d3e d39a 0c3e 1169 833d 13df 1dbe
-0.03670175 -0.09440917 0.1729567 0.3167072 0.09809042 0.55044407 0.20677917 -0.32370046
0.48928738 -0.8742001 -0.5271088 0.13537824 -0.50772774 0.16166823 -0.088685796 0.5650157
0.003674753 0.5757788 -0.020876473 -0.39926773 -0.20998295 -0.38917717 0.19638109 0.5072144
-0.17141245 0.06858073 -0.016975164 0.21026488 -0.57110673 0.5438886 0.78010154 0.87833095
0.31224212 0.28485224 -0.38272458 0.8350032 -0.27832574 -0.147849 -0.24589115 0.064756334
0.3230142 -0.66313636 0.48249298 -0.4746656 0.12146846 -0.04747661 0.09050951 -0.29580855
-0.12732963 0.2985711 0.5604029 -1.1705265 0.062670596 0.40137637 -0.10778834 -0.47051883
-0.5997551 0.4927972 -0.13979939 0.018671265 -0.4559447 0.16603298 -0.40299395 -0.7063708
2.5373776 0.53109294 0.116977945 -0.32309556 -0.014226845 0.56515175 0.21244213 -0.09999209
0.30182868 0.62882257 -0.05304692 0.23644985 0.50785106 0.33647943 0.46391335 -0.66268724
-0.1461998 0.07144115 0.03856363 -0.3399929 -0.74218905 0.48298693 -0.65133864 -0.7733933
-0.035457402 0.044696417 0.14267896 0.08474784 -0.20318851 0.13085991 -0.8550191 0.09298824
0.21674661 0.13730936 0.06416524 -0.15417127

linears.2.weight f4 [100, 100]
00000000: e3a5 debc ba0c 433e 6e9c cc3e 65bb 90be
00000010: 1952 a9bd f3dc b3bd 4de5 7dbe 4ea9 92be
00000020: d09c c4be 0cea bc3e add5 ddbd 23d4 57bd
00000030: 7bee e8bd 3371 8ebe 9d53 d83d f025 1bbe
00000040: 62f5 a9bd 6c8a e6be d12c f13d 4fb5 8b3d
00000050: 957d 373e e8cf 2f3e cad5 cc3e 24ff 4cbd
00000060: 3868 893d d4ab 68be d7ca fb3d 01cc bbbe
00000070: 927b 913e 44e7 07bf dc13 023e fba5 7ebe
00000080: 7786 6dbe 9ab1 07be 14a5 523e ac49 3fbe
00000090: a4cd 893d 19a3 63be 0d5f 003f 7eb1 f93d
000000a0: 4bf7 1cbd dba8 073e e3ef 3dbe a7ed 5dbe
000000b0: 9af0 da3c a4a9 54bd 5ad4 3dbe 4791 cdbe
000000c0: 821c a03d 321f 6dbe f1bd 80be 06c7 893d
000000d0: 89ea 98be a502 84be f682 3c3d 3b61 bc3e
000000e0: f464 703e dfcd 71be 76df ab3e 46c9 ef3d
000000f0: 7f48 4ebe eb95 db3e ece2 bbbe 0590 2cbe
00000100: 25d8 cfbe b358 83be f0f0 80be a8f6 043e
00000110: 8533 d43e 119e 65be c088 d5bd e02f 963d
00000120: c67f 93b8 2fd3 01bf 480d 9bbd 1506 e7bd
00000130: 71e5 7bbe 36cc debd 2e8b 63bd d5ea 303d
00000140: 4dc4 f5be 1467 1fbf b51c a93d 42d5 843e
00000150: 3696 093e 3934 9fbe e13b 913e bb8b c7bd
00000160: a74c 30bf afe7 0fbe a1e8 8ebd 1d91 0c3e
00000170: 02fc 8dbe 2249 e4bd a6a6 063c 0c35 3fbe
00000180: ffd8 56be 416f bfbe 3074 993d 2f75 ecbe
00000190: f9d9 ecbe 35fb 87bf 612c 98bf 34f4 d6bf
000001a0: a75c 213e 04e6 e7bf 76be cabd 7d53 193c
000001b0: 4a83 4dbf 9090 9c3f dbb2 54bf 212c df3e
000001c0: 554a e73f 5883 34c0 79c1 61c1 8b69 c3be
000001d0: 31b9 3dc0 4b9a ccc0 751c 23c0 c38d ca3f
000001e0: 623a d4be ddb1 433f 82fd b4be 1641 05be
000001f0: 6278 cfbe 3767 b93e bc1d 9bbe 9b1c 013f
00000200: 3a2c 13c0 50e3 c3bc 4453 8fc0 a27e c6be
00000210: c155 e5be be92 2ac0 3826 0d3f b788 b1be
00000220: 4277 f83e d361 f83f 74f3 453f 261c 3c3e
00000230: d80a 57bf c7a7 123f 2e73 c8bf 99b6 9e3e
00000240: 4e7f adbe 866c 47bf a107 a8bb 386d 2d3e
00000250: 668f 8c3d 9efb 19be d1e1 47be e22b 0040
00000260: 2ddc ccbf f17e bb3f 2228 30bf f678 aa3e
00000270: 5d10 38bf d73d b3bf 4f59 943f 8cc7 d33e
00000280: 18ae c5bd 5ac1 6b3f 0f71 b1bf c22e 10bf
00000290: 8f95 0c40 2579 ddbd da11 11bf 8d29 babe
000002a0: 2bbe 053f c9f2 84be 5c30 8fbf 3a20 7c3e
000002b0: 8a77 9bbf 76bb b8bd d9c5 16bf 90e1 99bf
000002c0: f825 85bf 96fc ecbf f38d 1ebe 7eb7 e43f
000002d0: d64a 98c0 7edb 3e3f 7f73 a5bf a985 d13f
000002e0: b003 a93f 6be1 95be 7f34 cbbf 3c8a 603f
000002f0: 48dc abbf 1264 bcbe b97c a4be 1759 6e3e
00000300: 8bc6 923e 4255 4abf 59b8 3cc0 a78d 4e3f
00000310: 6b9d c53d 62a1 8cbe b57b 133f b8bf b5bd
00000320: 2760 12bf 8d53 94bf 7930 4ec0 a69a 8fbf
00000330: a0a5 94bf 8bf9 47bf b99b 42be a671 543d
00000340: afc9 7ebf 1efe 4d3f ccd5 b2c0 7ade ecbf
00000350: ba04 c03f 8056 b8be fe47 f3c0 f76f c7bd
00000360: bfad 80c0 4d39 55c1 6174 0cc0 3878 393e
00000370: 3d7b f6be 4e95 4e40 a3fc 863f a586 2fbe
00000380: cd96 633f 2c88 b8bd 544c a43f 388a 7dbf
00000390: 6df0 36bf fbdf 8b3c 1dd1 e93f 0031 37be
000003a0: ca4c 10bf ac7b d8c0 be0b a23f 2d2e 8abe
000003b0: 59b5 7a3e b597 e9bd 3abc 623f bd30 0dc0
000003c0: 36ac a5be 5a76 5f3f 7b33 a43d d022 873f
000003d0: 4bb1 94be 4352 49be ec9a 97bc 83ad 0ac0
000003e0: f5c6 1d3d 8fb7 073e 69dd ecbd aa8e 9c3f
000003f0: 56e6 a4c0 b0aa 0fc0 1298 03be 343e 43bf
-0.02717871 0.19047824 0.39963096 -0.2826797 -0.08267612 -0.08782377 -0.24794503 -0.28644794
-0.38400888 0.36897314 -0.10831771 -0.052692544 -0.113736115 -0.2782074 0.10562823 -0.15151191
-0.08298756 -0.45027483 0.11776126 0.06821691 0.17919 0.17169154 0.40006858 -0.05004801
0.06709331 -0.22721797 0.12294548 -0.3667908 0.2841459 -0.5308726 0.12702888 -0.24868004
-0.23195826 -0.13251343 0.20570785 -0.18680447 0.06728676 -0.22230186 0.50145036 0.12192057
-0.038321774 0.13248007 -0.18548541 -0.21672688 0.026726056 -0.051919594 -0.18538037 -0.401499
0.078179374 -0.23156431 -0.25144914 0.06727414 -0.29866436 -0.25783268 0.04602333 0.3679293
0.2347601 -0.2361369 0.33568925 0.11708312 -0.20144843 0.42887816 -0.36696565 -0.16851814
-0.40594593 -0.2565361 -0.2518382 0.12984717 0.41445556 -0.22423579 -0.104264736 0.0733335
-7.033306e-05 -0.50712866 -0.075708926 -0.11280457 -0.24599244 -0.10878794 -0.055552654 0.043192703
-0.48001328 -0.6226666 0.082574286 0.25943953 0.13436207 -0.3109453 0.28365996 -0.09743448
-0.6886696 -0.14053224 -0.06977964 0.13727231 -0.2773133 -0.111467615 0.008218443 -0.1867258
-0.20981215 -0.37389567 0.07492864 -0.46183154 -0.4626005 -1.0623537 -1.1888543 -1.6793275
0.15758 -1.811707 -0.09899609 0.009358284 -0.80278456 1.2231617 -0.8308541 0.43588355
1.8069559 -2.8205166 -14.109735 -0.3816646 -2.9644282 -6.3938346 -2.5486119 1.5824512
-0.41450793 0.7644327 -0.3534966 -0.1301311 -0.40521532 0.3621156 -0.30296123 0.50434273
-2.2995744 -0.023912102 -4.4789143 -0.38768488 -0.44791988 -2.6652064 0.5513644 -0.34674618
0.48528486 1.9404854 0.77324605 0.18370113 -0.8400092 0.5728726 -1.566015 0.30998686
-0.33886188 -0.7789997 -0.0051278626 0.16936195 0.068632886 -0.1503739 -0.19519736 2.0026784
-1.6004692 1.4648114 -0.6881124 0.3329541 -0.7189997 -1.4003247 1.1589755 0.4136318
-0.096523464 0.92091906 -1.3862628 -0.56321347 2.1966283 -0.10814122 -0.56667864 -0.36359826
0.522433 -0.2596648 -1.1186633 0.24621668 -1.2145855 -0.0902013 -0.5889564 -1.2021961
-1.0402212 -1.8514583 -0.15483837 1.7868497 -4.7591352 0.7455367 -1.2925872 1.6368915
1.320425 -0.29273543 -1.5875396 0.8771093 -1.34266 -0.36795098 -0.32126406 0.23276173
0.286671 -0.79036343 -2.9487517 0.80684894 0.09649166 -0.27466875 0.57610637 -0.08874458
-0.57177967 -1.1587998 -3.2217085 -1.121907 -1.1613045 -0.7811515 -0.19004716 0.051866196
-0.99526495 0.8046588 -5.5885983 -1.8505394 1.5001442 -0.36003494 -7.602538 -0.097381525
-4.0212092 -13.326489 -2.1946032 0.18112266 -0.48140898 3.2278628 1.0545849 -0.17141207
0.8890198 -0.09010348 1.2835793 -0.9903903 -0.7146061 0.017074576 1.8266941 -0.17889786
-0.5636717 -6.7650967 1.2659833 -0.26988354 0.24483241 -0.11405889 0.8856846 -2.2060997
-0.3235795 0.87289965 0.080176316 1.0557499 -0.29041514 -0.19660287 -0.01850649 -2.1668403
0.03851982 0.13253616 -0.11565668 1.2231038 -5.153117 -2.244793 -0.12850979 -0.7626679

linears.2.bias f4 [100]
00000000: bc4b 99be ffbc 55bf 11c1 94bf 54ff e6be
00000010: 1c97 953e bc8b 9a3d 6e72 59be 19d3 81be
00000020: 5760 983e ffc2 e3bd efec a8be 285e 7bbe
00000030: b00d 27be b832 85bc d649 07be bd88 7dbe
00000040: f0da eabd 98ff 73be 9c10 80be b7d7 24be
00000050: 7e4c a3be c4fe 5ebe 2389 81be 89ee 61be
00000060: c0b3 8ebe a2ad c8be 4aaf 61be 1d07 f43e
00000070: 7c62 83be 7c7f 1b3c 939f 72be 6a2c d2bc
00000080: 2d35 17be 1dc5 77bd bde3 29bb 620b c93e
00000090: 054d 97be 9f02 66bb e0b2 a1be f9b4 c03d
000000a0: 937b 9e3e f9cc 36bf e71c 30bf 0435 4bbf
000000b0: c763 85be ffe0 6ebe 3b37 74be 1af3 4dbe
000000c0: 439b d1be 4df6 a6be 1862 12be 49da 53be
000000d0: 019a 9abe 4439 5abe d932 f3bc 57b7 30be
000000e0: 7f6d c23c a21e 1bbe 64e0 01bf 374c d1be
000000f0: 3b34 83bd 066f c53d 5d76 c5be 482b 7abe
00000100: 704d 78be 52de 3dbf 08e2 843c 1188 7abf
00000110: d66b 50bf 9e87 5abf 1e3a 41be f0e0 90be
00000120: 0e2e cebe 9f68 91be 6da9 54be 5091 90be
00000130: 1b61 0fbe 2242 0fbe dafb c3be 6f83 13c0
00000140: 6802 cbbe aa6e 3ebd 7154 92be 84c3 a0be
00000150: d7e8 b9be 7d49 3abe 2d0f bcbe 23ab ccbe
00000160: ad9a 0d3e 27f4 14bf ad09 10bd 2774 85be
00000170: a191 56bd ab86 b7be ea16 2dbe 3362 aabe
00000180: 04b9 95bf ec66 4fbe de1a 02bf ab62 e7be
-0.29940593 -0.8349151 -1.1621419 -0.45116675 0.2921685 0.075461835 -0.21235058 -0.25356367
0.29761 -0.11121177 -0.32993266 -0.24547637 -0.16313815 -0.016259536 -0.1321176 -0.24759193
-0.1146754 -0.2382797 -0.25012672 -0.16097914 -0.31894296 -0.21776873 -0.2529994 -0.2206365
-0.27871513 -0.3919497 -0.22039524 0.47661677 -0.25661075 0.009490844 -0.23693685 -0.025655944
-0.14766379 -0.060490716 -0.0025923096 0.39266497 -0.2955095 -0.0035096777 -0.31581783 0.09409518
0.30953655 -0.71406513 -0.687941 -0.7937777 -0.26052687 -0.23328017 -0.23849194 -0.20112267
-0.40938768 -0.32609788 -0.14295232 -0.20688738 -0.3019562 -0.21310908 -0.029687332 -0.17257439
0.023733852 -0.15148404 -0.5073302 -0.4087846 -0.064064465 0.09640317 -0.38566867 -0.24430573
-0.2424829 -0.7416736 0.016221061 -0.9786387 -0.81414545 -0.85363185 -0.18869826 -0.28296614
-0.40269512 -0.28400132 -0.20767756 -0.28235865 -0.14001887 -0.13990071 -0.38278085 -2.304897
-0.39650273 -0.046492256 -0.2858005 -0.31399167 -0.36310455 -0.18192096 -0.36730328 -0.39974317
0.13828535 -0.58185047 -0.035165478 -0.2606518 -0.052384976 -0.3584493 -0.16903272 -0.33278045
-1.1697087 -0.20254105 -0.50822246 -0.45192465

linears.3.weight f4 [5, 100]
00000000: 2070 85be 4ddd 4dbf d3d2 57bd 0f8e e9be
00000010: cbdc 993e d6ad 3cbd aa73 20be b107 6dbe
00000020: 4242 95bd 207f 0a3e 89ea 393c ece1 92be
00000030: ddd9 aabf 0504 0cbf fac1 b23f 0a00 84be
00000040: 010d 0e3f a6ea 69bf 03dc 8dbe 1c51 45bf
00000050: 41a3 0fbf e9be 74c0 06e6 69be 5593 f4bc
00000060: a91a 44be b16c c1be 7651 69be 3d83 2f3d
00000070: 4eee 73be 9c07 8ebd 2c7d 59be 788f 59bf
00000080: 9cdb 9abe 0ac2 41bf 5874 42bf 0d0e a03e
00000090: 73b1 37be dde0 8c3d 328f a6be fb49 1e3e
000000a0: 6766 bf3c 7ca2 c03f e8a8 013e ce5f 553f
000000b0: 6890 9ebe d550 94be ee7a 903d df4c 97be
000000c0: 8cc9 7dbd 25fd c1bd e150 96be fbe4 c3bd
000000d0: ccab 15c0 7fa8 5dbf b8a4 47bd f5d4 333f
000000e0: 65ce 053f 2cb6 a2be ca7c 87bd 5210 68be
000000f0: 9338 e9be b839 9c3d b898 29bd afe1 6cbd
00000100: 20cd 26bf 1539 453e 3807 1e3f d967 4ebd
00000110: 8ed5 2540 7c81 4f3f 76cd 1fc0 36d1 2cbe
00000120: cd8c 00be ec44 dcbc 30f2 a13e e116 f93e
00000130: c6bc 4d3e 8f36 643f f2de 57bf 3bc5 b63c
00000140: 189d 1bbe a95c 1cbe 0be8 edbc bed5 c33e
00000150: 8b54 0abe 781f afbe a5ba fbbd 7bf0 8ebd
00000160: 5491 6c3f 824a 00be ed5b b03e 5d2a bdbe
00000170: 6b6c 54be fd4c 0cbd 9d48 16be 120b f7bc
00000180: 94d1 a1bc 414b 99be 47f1 0bbe ff16 bbbe
00000190: 57e3 793b ccdd 643c 02f6 6aba 8836 cbbd
000001a0: 402e b8b8 c5f2 4338 a3ed 80be 5834 8bbe
000001b0: b0a6 9938 7286 f6bc 3643 d5b7 d056 92be
000001c0: 05b2 58be 129c 863c 06ae 87bc be0a a9be
000001d0: f98b 393b 15da 84be 45a0 a1be 4507 d1bb
000001e0: 2e69 94be 419b 533e 2b02 b5be 0d69 7cbb
000001f0: 1a94 adbe 346e 0a3d e04c ed3c 38a2 9239
00000200: 0482 82be 7183 b939 ddfd 9dbe 1cf8 cabb
00000210: 5f10 97be f4be 943b 3edf 27bb 49e5 01ba
00000220: 73f4 cfbe 3af3 8238 ca86 a9be e3b2 023c
00000230: 0cf9 fdb7 e4ce 2ebd de0b 1539 3205 32bd
00000240: 8f3f b0be 0984 a0be 1f49 2239 346b b0be
00000250: 42cd 663a 3c58 6dba 82ee adbe de51 86be
00000260: 42fc d53b bb2b a8be 7056 9abe b1a5 a4bb
00000270: 662a a3bd f69f c1bd 9291 f13b 0c99 2c3c
00000280: 1e84 a03b 08d4 f137 d499 c83c 3e5f e7b8
00000290: 07e6 95be 9b7f 75b9 de04 c23a 67dd 98b8
000002a0: db20 463a 6225 27be ac5b 6fbd bc11 96be
000002b0: c43e ccbe 38e8 14b9 b2d2 993a 970c c23c
000002c0: 9aed a3be db18 9ebe 4d08 9e39 72aa 7336
000002d0: 8143 1f3a 20bd c937 02ec c538 75ae 093b
000002e0: 94ac b33c 21ef 66be 7d99 05be deb9 8fba
000002f0: dd39 933b 17e0 8cbd 3c43 f73c 3713 b0be
00000300: 4e27 223b cfc2 c93c 7b3a 7abe b337 c1ba
00000310: ebbf 88b8 b254 a1be 0a38 97b8 b6d0 92bd
00000320: 9e90 193e 3597 2ac0 256f 2240 d0a6 233f
00000330: 6010 ddbd 78c9 fcbf f28d 15be fc46 91be
00000340: 54c1 5d40 360d 9b40 4a9b e03f 0836 04bf
00000350: dc29 c6be 824e f9bf 227c 7b40 679e fdbe
00000360: f2f9 b2c0 9715 403f 1541 0cbf 18bc 0cc0
00000370: 48a0 88bf 97d0 1ec0 6d59 29bf 3878 c241
00000380: 4e49 68be 65d9 1ac0 7ed1 f3bd bcd0 3d40
00000390: 19b0 6abe 494e 33c0 a411 90be c6bd 8040
000003a0: 4dc0 d4be 8ae8 4640 50e6 4440 cc62 f43f
000003b0: 6139 cbbe 26b2 fd3f 7c5c afbe 9466 2a3e
000003c0: 131c 06c0 d1b0 1841 21c9 bb41 5de9 d641
000003d0: 4ec6 07bf d1e4 82be c729 fdc0 ce7d debe
000003e0: f779 83bf 7b05 013f 590b edbe 37ad 11bf
000003f0: 78cb 74c0 1d4c 853d d48e 18bf f5a0 5cbf
-0.26062107 -0.80415803 -0.052691292 -0.45616195 0.30051264 -0.04606422 -0.15669122 -0.23147465
-0.07288028 0.13525057 0.011347421 -0.2868799 -1.3347737 -0.54693633 1.3965447 -0.2578128
0.5548859 -0.9137367 -0.27706918 -0.7707689 -0.5610848 -3.8241522 -0.22841653 -0.02985541
-0.19150795 -0.37778237 -0.22784981 0.042849768 -0.23821375 -0.06935045 -0.21239156 -0.8498454
-0.30245674 -0.75686705 -0.75958776 0.3126072 -0.17938785 0.06878827 -0.32531124 0.15457909
0.023364259 1.5049586 0.12662089 0.8334931 -0.30969548 -0.2896792 0.07054697 -0.29550835
-0.06195979 -0.094721116 -0.2935858 -0.09565159 -2.3386106 -0.8658523 -0.048741072 0.7024682
0.5226806 -0.3177961 -0.066155985 -0.22662476 -0.45550975 0.076281965 -0.04140541 -0.057832416
-0.65156746 0.19260056 0.61729765 -0.050392006 2.5911593 0.8105695 -2.4969153 -0.16876683
-0.12553711 -0.026888333 0.31630087 0.48650268 0.20091543 0.8914575 -0.8432456 0.022310844
-0.15196645 -0.15269722 -0.02904131 0.3824901 -0.13508813 -0.34203696 -0.12291459 -0.06979462
0.92409253 -0.12528422 0.34445134 -0.36946383 -0.20744483 -0.03425311 -0.14676137 -0.030156646
-0.019753255 -0.29940227 -0.13666259 -0.36540982 0.003812989 0.013968896 -0.00089630496 -0.099225104
-8.7824184e-05 4.671772e-05 -0.25181302 -0.27188373 7.3266565e-05 -0.030093405 -2.5422876e-05 -0.28581858
-0.21161659 0.016431842 -0.016562473 -0.33016008 0.002831219 -0.25947633 -0.31567588 -0.0063790404
-0.28986496 0.20664693 -0.35353217 -0.0038514764 -0.33902055 0.033796504 0.02896732 0.00027968152
-0.2548982 0.0003538388 -0.30857745 -0.0061941277 -0.29504678 0.004539365 -0.002561524 -0.00049551256
-0.40616187 6.2441875e-05 -0.33110648 0.00797722 -3.0275922e-05 -0.042677775 0.00014214168 -0.043461986
-0.3442349 -0.31350735 0.00015476764 -0.3445679 0.00088043895 -0.00090539805 -0.3397103 -0.26234335
0.0065303156 -0.32845864 -0.30144072 -0.005024635 -0.07967071 -0.09454338 0.0073720897 0.010534536
0.004898562 2.8828174e-05 0.024487413 -0.000110326786 -0.2927706 -0.00023412557 0.0014802476 -7.289164e-05
0.00075579964 -0.16322854 -0.058437034 -0.29310405 -0.39891636 -0.00014200888 0.0011735766 0.023687644
-0.32017213 -0.30878338 0.00030142293 3.6309034e-06 0.00060754275 2.4049135e-05 9.437652e-05 0.0021008526
0.021932878 -0.22552158 -0.13046832 -0.0010965427 0.004492982 -0.06878679 0.030183427 -0.3438966
0.0024742666 0.024629025 -0.24436371 -0.0014741331 -6.520733e-05 -0.3150993 -7.210679e-05 -0.07168715
0.14996573 -2.665479 2.5380337 0.6392641 -0.10794139 -1.9748983 -0.14604929 -0.2837447
3.4649248 4.8453627 1.754739 -0.51644945 -0.3870381 -1.9477084 3.9294515 -0.49534914
-5.593011 0.75032943 -0.5478681 -2.1989803 -1.0673914 -2.4814813 -0.6615208 24.3087
-0.22684214 -2.4195187 -0.11905192 2.9658651 -0.22918738 -2.8016531 -0.2813846 4.0231657
-0.41552964 3.107943 3.0765572 1.909265 -0.39692214 1.9819992 -0.34250247 0.16640693
-2.0954635 9.543168 23.473207 26.863947 -0.53036964 -0.25565198 -7.91135 -0.43455356
-1.0271596 0.5039899 -0.4629772 -0.5690493 -3.8249187 0.06508658 -0.5959294 -0.861831

linears.3.bias f4 [5]
00000000: 8386 9fbd 5166 1fbc 7e33 0b3f 0d50 a6be
00000010: a373 6abc
-0.07789328 -0.009728984 0.54375446 -0.3248295 -0.0143097965

exp_avg f4 [100, 6]
00000000: ea93 d9b0 3c93 d9b0 a390 59b1 c624 a3b1
00000010: d597 d9b1 41ef 07b2 5afa e8b1 30fa e8b1
00000020: faf9 68b2 38bc aeb2 b5f9 e8b2 7a9c 11b3
00000030: 72f3 4832 77f3 4832 f5f2 c832 81b6 1633
00000040: 00f2 4833 0c30 7b33 a693 b5ad 3f87 b5ad
00000050: 7f32 35ae c921 88ae 9920 b5ae f64a e4ae
00000060: e723 5031 3f23 5031 b222 d031 071b 1c32
00000070: 9f24 5032 cd15 8232 b9e9 2eb2 dde9 2eb2
00000080: a4e9 aeb2 712f 03b3 97e9 2eb3 daa3 5ab3
00000090: c449 0cb2 c749 0cb2 8949 8cb2 f46f d2b2
000000a0: cf49 0cb3 d15b 2fb3 f237 edb1 4238 edb1
000000b0: 7538 6db2 62eb b1b2 8f38 edb2 d742 14b3
000000c0: 161f 47b0 591f 47b0 6b21 c7b0 a35b 15b1
000000d0: 9521 47b1 b5e9 78b1 d49c 4d32 e29c 4d32
000000e0: ce9c cd32 5635 1a33 5b9c 4d33 df81 8033
000000f0: a096 33b1 6596 33b1 af97 b3b1 bcb4 06b2
00000100: fc93 33b2 b282 60b2 3881 44b2 6181 44b2
00000110: 3581 c4b2 f660 13b3 6781 44b3 c5a1 75b3
00000120: f48d b2b1 0f8e b2b1 208e 32b2 d9ea 85b2
00000130: 108e b2b2 8931 dfb2 2ac4 5a32 49c4 5a32
00000140: 4cc4 da32 3612 2433 7ec4 5a33 c8ba 8833
00000150: 4294 2db2 8a94 2db2 bd94 adb2 3f30 02b3
00000160: b594 2db3 f2f9 58b3 94ae 5631 d6ae 5631
00000170: 34af d631 2f01 2132 ddaf 5632 d32b 8632
00000180: 869b 2731 339b 2731 f19b a731 3a6b fb31
00000190: c39b 2732 3486 5132 fba9 2b32 eba9 2b32
000001a0: fca9 ab32 b4c0 0033 a7aa 2b33 9295 5633
000001b0: 136b 7431 ed69 7431 f467 f431 ac4c 3732
000001c0: 1669 7432 21bf 9832 1192 3431 4f92 3431
000001d0: 6b92 b431 986d 0732 e291 3432 ecb4 6132
000001e0: 152e 1431 e32d 1431 1f2f 9431 5c40 de31
000001f0: 992d 1432 9c34 3932 042e 17b2 b12d 17b2
00000200: 982d 97b2 d1c4 e2b2 c32e 17b3 34f9 3cb3
00000210: 6739 13b2 8239 13b2 d339 93b2 50d6 dcb2
00000220: ed39 13b3 bc07 38b3 c24a 1c31 694a 1c31
00000230: 044a 9c31 f36d ea31 f64a 1c32 c059 4332
00000240: eebd dd31 04be dd31 b0bd 5d32 694e a632
00000250: 30bc dd32 ed96 0a33 4936 3b31 7d36 3b31
00000260: 4738 bb31 9e65 0c32 5139 3b32 65fd 6932
00000270: dc04 4932 4405 4932 1a05 c932 8fc4 1633
00000280: 2106 4933 8a46 7b33 2e5c 7331 d75c 7331
00000290: 3c5b f331 7083 3632 a85b 7332 ec1b 9832
000002a0: eab1 3632 d0b1 3632 dab1 b632 7305 0933
000002b0: b0b1 3633 665e 6433 9e1e 21b2 901e 21b2
000002c0: 8d1e a1b2 dcad f1b2 641e 21b3 4366 49b3
000002d0: 5b69 07b2 6b69 07b2 7d69 87b2 701e cbb2
000002e0: 8369 07b3 c243 29b3 6ca0 b831 76a0 b831
000002f0: 4da0 3832 0079 8a32 2ea1 b832 cec8 e632
00000300: 73c5 05b2 4fc5 05b2 1dc5 85b2 a3a8 c8b2
00000310: 01c5 05b3 7536 27b3 6e89 7a32 9289 7a32
00000320: 9189 fa32 5de6 3b33 a689 7a33 e395 9c33
00000330: 86a2 0530 17a5 0530 4fa8 8530 573c c830
00000340: 2fa8 0531 9f16 2731 d206 1c31 c906 1c31
00000350: 0107 9c31 5d08 ea31 4d07 1c32 8e08 4332
00000360: 80f1 0c32 60f1 0c32 79f1 8c32 c868 d332
00000370: faf0 0c33 f22d 3033 485a 85b2 395a 85b2
00000380: 505a 05b3 2906 48b3 215a 85b3 63b0 a6b3
00000390: e164 8632 df64 8632 de64 0633 9897 4933
000003a0: a964 8633 5ffe a733 5a35 f230 1835 f230
000003b0: 8035 7231 67ab b531 9539 f231 be62 1732
000003c0: 2ded f4b0 91ed f4b0 caef 74b1 a6b7 b7b1
000003d0: 17ee f4b1 4e15 19b2 5795 ab30 9797 ab30
000003e0: 6c99 2b31 f2b4 8031 2b9a ab31 e688 d631
000003f0: 4769 7531 0669 7531 fc67 f531 040d 3832
-1.5830868e-09 -1.5830675e-09 -3.1659873e-09 -4.748105e-09 -6.3327925e-09 -7.912434e-09 -6.7805503e-09 -6.7805317e-09
-1.3561015e-08 -2.0341858e-08 -2.7121908e-08 -3.3902758e-08 1.1696885e-08 1.169689e-08 2.3393548e-08 3.5090583e-08
4.6786226e-08 5.848419e-08 -2.0642887e-11 -2.0637379e-11 -4.1199485e-11 -6.1905654e-11 -8.2367176e-11 -1.0381555e-10
3.0288392e-09 3.0288019e-09 6.057541e-09 9.08654e-09 1.211552e-08 1.5143906e-08 -1.0181275e-08 -1.0181307e-08
-2.0362513e-08 -3.0543962e-08 -4.072498e-08 -5.0906102e-08 -8.165845e-09 -8.1658476e-09 -1.6331585e-08 -2.4498128e-08
-3.266342e-08 -4.082887e-08 -6.903968e-09 -6.9040036e-09 -1.38080525e-08 -2.0712552e-08 -2.7616151e-08 -3.4519726e-08
-7.2439954e-10 -7.2440326e-10 -1.4488654e-09 -2.1734443e-09 -2.89774e-09 -3.6221597e-09 1.1968229e-08 1.19682415e-08
2.3936447e-08 3.5904428e-08 4.7872486e-08 5.984088e-08 -2.6133549e-09 -2.6133418e-09 -5.22683e-09 -7.840921e-09
-1.0452819e-08 -1.3068233e-08 -1.14380825e-08 -1.1438119e-08 -2.287616e-08 -3.431429e-08 -4.5752497e-08 -5.7190636e-08
-5.19662e-09 -5.196632e-09 -1.0393279e-08 -1.5590034e-08 -2.078653e-08 -2.5983143e-08 1.2733873e-08 1.27339e-08
2.5467806e-08 3.820079e-08 5.093579e-08 6.366969e-08 -1.0103635e-08 -1.0103699e-08 -2.0207489e-08 -3.0311863e-08
-4.041495e-08 -5.0518743e-08 3.1240335e-09 3.1240481e-09 6.248138e-09 9.3717025e-09 1.2496426e-08 1.5619582e-08
2.4390103e-09 2.438992e-09 4.878068e-09 7.3172517e-09 9.7560955e-09 1.2195915e-08 9.992159e-09 9.992145e-09
1.998432e-08 2.9977585e-08 3.9969247e-08 4.996179e-08 3.5567538e-09 3.5566885e-09 7.1131527e-09 1.0669435e-08
1.4226563e-08 1.7782044e-08 2.6276477e-09 2.6276614e-09 5.2553353e-09 7.882953e-09 1.0510549e-08 1.3137861e-08
2.156303e-09 2.1562918e-09 4.312724e-09 6.468367e-09 8.6251015e-09 1.0780379e-08 -8.7998195e-09 -8.799746e-09
-1.7599447e-08 -2.6399364e-08 -3.5199957e-08 -4.399881e-08 -8.569578e-09 -8.569602e-09 -1.7139348e-08 -2.5708829e-08
-3.4278788e-08 -4.2847873e-08 2.2743483e-09 2.2743285e-09 4.548612e-09 6.822796e-09 9.097439e-09 1.1370901e-08
6.453539e-09 6.453549e-09 1.2907023e-08 1.93606e-08 2.5813364e-08 3.2267895e-08 2.724294e-09 2.7243054e-09
5.4488143e-09 8.172178e-09 1.0897865e-08 1.362e-08 1.1700845e-08 1.1700937e-08 2.34018e-08 3.5103366e-08
4.6804534e-08 5.8504646e-08 3.5413552e-09 3.5413927e-09 7.082603e-09 1.062368e-08 1.4165302e-08 1.7707826e-08
1.0634247e-08 1.0634224e-08 2.1268466e-08 3.1902754e-08 4.2536783e-08 5.317124e-08 -9.378395e-09 -9.3783825e-09
-1.875676e-08 -2.8135155e-08 -3.7513374e-08 -4.6891966e-08 -7.881989e-09 -7.8820035e-09 -1.5764039e-08 -2.3646152e-08
-3.15281e-08 -3.9410004e-08 5.3733427e-09 5.373347e-09 1.0746658e-08 1.6120339e-08 2.1493715e-08 2.686684e-08
-7.786514e-09 -7.786482e-09 -1.5572875e-08 -2.3359751e-08 -3.114565e-08 -3.8932246e-08 1.4583163e-08 1.4583195e-08
2.9166388e-08 4.3748845e-08 5.833285e-08 7.29158e-08 4.861608e-10 4.8619725e-10 9.72486e-10 1.4569065e-09
1.9449649e-09 2.4314557e-09 2.2704865e-09 2.2704845e-09 4.540994e-09 6.811247e-09 9.082055e-09 1.1352439e-08
8.203983e-09 8.203955e-09 1.6407954e-08 2.4611282e-08 3.2815457e-08 4.101998e-08 -1.5524293e-08 -1.5524266e-08
-3.1048614e-08 -4.657173e-08 -6.2096895e-08 -7.762062e-08 1.5645528e-08 1.5645524e-08 3.1291044e-08 4.6936833e-08
6.258171e-08 7.822813e-08 1.7622981e-09 1.7622908e-09 3.5246046e-09 5.2872795e-09 7.0496733e-09 8.811808e-09
-1.7820746e-09 -1.7820857e-09 -3.5642977e-09 -5.3468794e-09 -7.1284023e-09 -8.910616e-09 1.2484332e-09 1.2484972e-09
2.4970985e-09 3.7458614e-09 4.994282e-09 6.2437833e-09 3.5712036e-09 3.5711891e-09 7.14226e-09 1.0713169e-08

exp_avg_sq f4 [100, 6]
00000000: 00fc 0b2a fcfb 0b2a f8fb 0b2b 647b 9d2b
00000010: dcfb 0b2c 6bb9 5a2c acf8 eb28 aaf8 eb28
00000020: a9f8 eb29 dabb 842a 93f8 eb2a 345a 382b
00000030: f267 872a f067 872a ef67 872b fd54 182c
00000040: e567 872c 6e92 d32c 8053 5e28 7a53 5e28
00000050: 7553 5e29 e61d fa29 4953 5e2a 02b1 ad2a
00000060: a937 7b29 a337 7b29 9b37 7b2a 364f 0d2b
00000070: 7837 7b2b 3743 c42b 94e8 c329 96e8 c329
00000080: 92e8 c32a 8b65 5c2b 85e8 c32b 920d 192c
00000090: b478 832a b478 832a b378 832b bae7 132c
000000a0: a678 832c 796c cd2c f2eb 872a efeb 872a
000000b0: eeeb 872b 81e9 182c e3eb 872c 9f60 d42c
000000c0: 6f4b 2f29 6c4b 2f29 684b 2f2a c734 c52a
000000d0: 524b 2f2b c4f2 882b 0694 1d2a 0694 1d2a
000000e0: 0594 1d2b 6f46 b12b 0094 1d2c 1b37 762c
000000f0: 87bc 502a 87bc 502a 79bc 502b 09d4 ea2b
00000100: 54bc 502c 1013 a32c b848 112a b748 112a
00000110: b648 112b ba71 a32b b148 112c 7501 632c
00000120: 1b7e 2f28 207e 2f28 1e7e 2f29 f96d c529
00000130: 397e 2f2a 921a 892a 5624 f32a 5424 f32a
00000140: 5424 f32b 64c4 882c 4824 f32c 56f4 3d2d
00000150: 522c 5b2a 532c 5b2a 4e2c 5b2b dd91 f62b
00000160: 3e2c 5b2c 943a ab2c be77 9f29 bf77 9f29
00000170: bb77 9f2a ab66 332b a677 9f2b d62a f92b
00000180: 5f87 4529 5d87 4529 5a87 452a 2838 de2a
00000190: 4087 452b 9051 9a2b a56e a12a a46e a12a
000001a0: a16e a12b 709c 352c 996e a12c d23c fc2c
000001b0: 9484 2d2a 9384 2d2a 8e84 2d2b 2335 c32b
000001c0: 7484 2d2c 758f 872c 0e6e 1929 0c6e 1929
000001d0: 096e 192a a69b ac2a f86d 192b 9ebb 6f2b
000001e0: 2213 8529 2313 8529 1d13 852a 5cb5 152b
000001f0: 0a13 852b 8aed cf2b 8f78 802a 8e78 802a
00000200: 8e78 802b 9f87 102c 8278 802c 41bc c82c
00000210: 8779 7a2a 8379 7a2a 7f79 7a2b 52e4 0c2c
00000220: 6979 7a2c e1ae c32c 0251 7928 0251 7928
00000230: f250 7929 703d 0c2a c550 792a 12c7 c22a
00000240: cd99 082a ce99 082a cb99 082b 0bad 992b
00000250: c299 082c 4970 552c 0b80 cc29 0980 cc29
00000260: 0180 cc2a ea0f 662b df7f cc2b d3c3 1f2c
00000270: f330 ec2a ef30 ec2a ec30 ec2b 7ddb 842c
00000280: df30 ec2c 2986 382d e96a 8329 ec6a 8329
00000290: e96a 832a 3bd8 132b cd6a 832b ce56 cd2b
000002a0: e6b3 2e2a e5b3 2e2a e6b3 2e2b 5e8a c42b
000002b0: dcb3 2e2c 797c 882c cea6 6529 cfa6 6529
000002c0: cfa6 652a d62d 012b cca6 652b 546a b32b
000002d0: 8a32 dc28 8832 dc28 8b32 dc29 ceb8 772a
000002e0: 9132 dc2a 7d07 2c2b 80bd 7d29 82bd 7d29
000002f0: 76bd 7d2a 9bba 0e2b 62bd 7d2b 0c3c c62b
00000300: 2c7b 3e2a 2b7b 3e2a 2b7b 3e2b 804a d62b
00000310: 1f7b 3e2c 22d0 942c 8afe e72a 89fe e72a
00000320: 87fe e72b 2c7f 822c 7efe e72c c33e 352d
00000330: da38 d229 d238 d229 cb38 d22a db7f 6c2b
00000340: af38 d22b 3e3c 242c 60d0 8c29 5ed0 8c29
00000350: 55d0 8c2a 636a 1e2b 49d0 8c2b 5705 dc2b
00000360: 63ac 5c2a 64ac 5c2a 5dac 5c2b dc41 f82b
00000370: 4dac 5c2c 8966 ac2c ba7d e52a bc7d e52a
00000380: bc7d e52b b916 812c af7d e52c 1c4a 332d
00000390: dfed fa2a dfed fa2a d9ed fa2b d825 8d2c
000003a0: d7ed fa2c e009 442d 638a 0129 618a 0129
000003b0: 5c8a 012a 96bb 912a 4b8a 012b 1368 4a2b
000003c0: 6c77 7629 6e77 7629 6877 762a 1ba3 0a2b
000003d0: 3377 762b 168d c02b aa76 4c29 a976 4c29
000003e0: 9f76 4c2a 5f05 e62a 8276 4c2b 7cbc 9f2b
000003f0: e04d ab29 dc4d ab29 d34d ab2a 78b7 402b
1.243311e-13 1.2433105e-13 4.9732397e-13 1.1189769e-12 1.9892898e-12 3.108259e-12 2.6198085e-14 2.6198082e-14
1.0479232e-13 2.3578258e-13 4.191687e-13 6.5495114e-13 2.4052944e-13 2.4052938e-13 9.621174e-13 2.1647677e-12
3.8484654e-12 6.0132377e-12 1.2341582e-14 1.2341577e-14 4.936629e-14 1.1107417e-13 1.9746456e-13 3.0853797e-13
5.5781473e-14 5.5781453e-14 2.231257e-13 5.020319e-13 8.925009e-13 1.3945293e-12 8.7000855e-14 8.700087e-14
3.4800336e-13 7.830062e-13 1.392012e-12 2.175014e-12 2.335403e-13 2.335403e-13 9.341611e-13 2.101859e-12
3.7366386e-12 5.8384933e-12 2.4144537e-13 2.414453e-13 9.657811e-13 2.173012e-12 3.8631195e-12 6.0361295e-12
3.8923234e-14 3.8923224e-14 1.5569284e-13 3.5030851e-13 6.227702e-13 9.730762e-13 1.3995757e-13 1.3995757e-13
5.5983023e-13 1.2596156e-12 2.2393198e-12 3.4989292e-12 1.853952e-13 1.853952e-13 7.4158003e-13 1.6685552e-12
2.966312e-12 4.634855e-12 1.2903816e-13 1.2903815e-13 5.1615255e-13 1.1613412e-12 2.0646091e-12 3.225945e-12
9.741796e-15 9.7418005e-15 3.8967195e-14 8.7676346e-14 1.5586915e-13 2.4354526e-13 4.3190684e-13 4.319068e-13
1.7276272e-12 3.8871562e-12 6.9105034e-12 1.079766e-11 1.9466484e-13 1.9466485e-13 7.7865915e-13 1.7519836e-12
3.1146331e-12 4.866616e-12 7.0817904e-14 7.081791e-14 2.8327153e-13 6.3736055e-13 1.1330839e-12 1.7704403e-12
4.3860203e-14 4.3860196e-14 1.7544074e-13 3.9474088e-13 7.0176157e-13 1.0964996e-12 2.867612e-13 2.8676117e-13
1.1470444e-12 2.5808487e-12 4.588174e-12 7.169023e-12 1.5411484e-13 1.5411483e-13 6.1645903e-13 1.3870332e-12
2.4658305e-12 3.8528577e-12 3.4068282e-14 3.4068275e-14 1.3627306e-13 3.066134e-13 5.450913e-13 8.517023e-13
5.9097055e-14 5.909706e-14 2.3638808e-13 5.318712e-13 9.455503e-13 1.4774165e-12 2.2821022e-13 2.282102e-13
9.128408e-13 2.0538916e-12 3.651358e-12 5.7052423e-12 2.2246624e-13 2.2246618e-13 8.898645e-13 2.002194e-12
3.5594533e-12 5.561649e-12 1.38398424e-14 1.38398424e-14 5.5359315e-14 1.2455813e-13 2.2143665e-13 3.4599455e-13
1.2132587e-13 1.2132588e-13 4.8530337e-13 1.0919333e-12 1.9412115e-12 3.0331451e-12 9.081632e-14 9.0816304e-14
3.63265e-13 8.17345e-13 1.4530563e-12 2.2703963e-12 4.1955987e-13 4.1955976e-13 1.6782387e-12 3.7760337e-12
6.712949e-12 1.0488979e-11 5.8361146e-14 5.8361166e-14 2.3344458e-13 5.252497e-13 9.337753e-13 1.4590219e-12
1.5516719e-13 1.5516718e-13 6.2066877e-13 1.3965042e-12 2.482673e-12 3.8791717e-12 5.0992895e-14 5.0992898e-14
2.0397159e-13 4.5893617e-13 8.158862e-13 1.2748227e-12 2.4446824e-14 2.4446821e-14 9.7787304e-14 2.2002124e-13
3.9114938e-13 6.111707e-13 5.634165e-14 5.6341657e-14 2.2536646e-13 5.07075e-13 9.014648e-13 1.4085413e-12
1.6918124e-13 1.6918122e-13 6.767249e-13 1.5226292e-12 2.706897e-12 4.2295204e-12 4.1210465e-13 4.1210462e-13
1.6484183e-12 3.708941e-12 6.593669e-12 1.0302595e-11 9.3357356e-14 9.33573e-14 3.7342902e-13 8.402148e-13
1.493713e-12 2.3339243e-12 6.253396e-14 6.253395e-14 2.5013555e-13 5.628052e-13 1.0005409e-12 1.5633422e-12
1.9599734e-13 1.9599735e-13 7.8398903e-13 1.763974e-12 3.1359527e-12 4.8999177e-12 4.0765812e-13 4.0765817e-13
1.6306327e-12 3.6689232e-12 6.522525e-12 1.01914276e-11 4.4573977e-13 4.4573977e-13 1.7829584e-12 4.0116625e-12
7.131833e-12 1.1143503e-11 2.8763785e-14 2.876378e-14 1.1505505e-13 2.5887338e-13 4.6021927e-13 7.190925e-13
5.4726555e-14 5.472656e-14 2.1890616e-13 4.9253803e-13 8.756218e-13 1.368158e-12 4.5400024e-14 4.540002e-14
1.8159995e-13 4.0859934e-13 7.263982e-13 1.1349944e-12 7.6074346e-14 7.607432e-14 3.0429703e-13 6.8466717e-13

exp_avg f4 [100]
00000000: 50fa a7b6 ca3d f3b7 e577 2338 7a85 f3b5
00000010: a11e d236 9568 10b8 dcaf abb7 63e7 f5b7
00000020: 6524 d1b5 b1d1 2a38 1975 fbb6 7b43 17b8
00000030: e7d5 d2b7 d40f 5c38 4803 fab7 140f f036
00000040: 0e23 ea35 e809 3638 c767 3937 7737 7336
00000050: d805 b536 141e e6b7 121d b4b7 368e 7b36
00000060: 9eef af37 88d6 e536 bcdb 4138 38f6 dd36
00000070: 6e39 1038 9c1b 1db8 f47a 08b8 97e0 8637
00000080: 9af9 a7b7 bc3d 5538 4742 9236 e1c4 a436
00000090: c879 e037 5ddd 87b8 fd6a 6538 2b98 2836
000000a0: 65a5 5eb6 825d c434 a046 c936 05f9 3437
000000b0: 5a84 ec36 d670 f236 9c77 2238 88ae eab6
000000c0: ba15 17b8 94f1 12b8 1d63 07b7 89bc e237
000000d0: 80e9 6d38 98f5 a936 e3b6 fbb7 8c78 3236
000000e0: 0c93 d437 e332 e4b6 22ff bbb6 2c93 c8b7
000000f0: e509 09b8 399d 0338 7861 1e38 5a50 5db5
00000100: 8db7 4bb7 a011 b737 a398 b3b5 fd6e 0bb7
00000110: 725a b536 4daf 02b8 c828 ac37 954f 07b5
00000120: 2327 cab7 807c 05b8 8f33 e936 9377 4c38
00000130: 04e3 e537 18f5 6838 81b1 89b7 ef57 9fb7
00000140: c83a 5538 41a5 3038 5b33 1338 5494 f3b7
00000150: fe65 0338 a9ec 18b8 cf4a bc36 0294 73b8
00000160: c295 b7b6 e1b6 c436 524b b536 a5cd 19b8
00000170: c53a 28b7 3d2b bfb7 7537 82b7 c27f 0fb8
00000180: 158e c837 1894 2eb6 06a1 0db8 7d83 0437
-5.006128e-06 -2.899663e-05 3.897389e-05 -1.8143758e-06 6.2620534e-06 -3.4429675e-05 -2.046668e-05 -2.9314024e-05
-1.5582306e-06 4.072645e-05 -7.494015e-06 -3.606405e-05 -2.5133557e-05 5.246683e-05 -2.980385e-05 7.1543127e-06
1.7444561e-06 4.3401407e-05 1.1051022e-05 3.6242106e-06 5.3949007e-06 -2.7432143e-05 -2.1471209e-05 3.7484692e-06
2.0973206e-05 6.8497066e-06 4.621943e-05 6.614977e-06 3.438576e-05 -3.745743e-05 -3.2539436e-05 1.6078628e-05
-2.0024181e-05 5.0840652e-05 4.3588548e-06 4.9105006e-06 2.675959e-05 -6.478534e-05 5.4697495e-05 2.5122524e-06
-3.317685e-06 3.657588e-07 5.9984886e-06 1.0786815e-05 7.048756e-06 7.225298e-06 3.8735205e-05 -6.9940616e-06
-3.602144e-05 -3.50341e-05 -8.069704e-06 2.7029093e-05 5.6722667e-05 5.0651834e-06 -3.0006695e-05 2.6594234e-06
2.5340843e-05 -6.8008535e-06 -5.6027357e-06 -2.391039e-05 -3.267256e-05 3.137926e-05 3.776091e-05 -8.244584e-07
-1.2142479e-05 2.1823507e-05 -1.3380962e-06 -8.310887e-06 5.4047496e-06 -3.1157677e-05 2.0522988e-05 -5.0407226e-07
-2.4098501e-05 -3.182562e-05 6.9499433e-06 4.8748752e-05 2.740464e-05 5.554137e-05 -1.641433e-05 -1.8995224e-05
5.08379e-05 4.2115575e-05 3.509536e-05 -2.9036928e-05 3.132782e-05 -3.646003e-05 5.6115455e-06 -5.8073558e-05
-5.471259e-06 5.862545e-06 5.402989e-06 -3.6669564e-05 -1.0027264e-05 -2.2789109e-05 -1.5523032e-05 -3.421284e-05
2.390802e-05 -2.6014222e-06 -3.3766984e-05 7.898428e-06
