TSTE-R/Qcontrol-noisy-comparison/Noisy-10%/Proposed_A30_noisy0.1/save_model_0222.ckpt-1700000.pt (torch, 270311 bytes, 24 tensors)

linears.0.weight f4 [100, 6]
0	0x409aa371	4.8324513
1	0x408fc0ec	4.4923
2	0x40901c0b	4.503423
3	0x4095c806	4.680667
4	0x409b1b46	4.8470793
5	0x409c77af	4.88961
6	0x40b5ba8e	5.679023
7	0x40b16005	5.542971
8	0x40b0b09e	5.5215597
9	0x40b79810	5.7373123
10	0x40b395d3	5.612039
11	0x40b48035	5.6406503
12	0xc0bbf525	-5.873675
13	0xc0b2adc8	-5.5837135
14	0xc0b82cdf	-5.7554774
15	0xc0b6dac4	-5.714205
16	0xc0bfcd28	-5.9937935
17	0xc0bbd8d8	-5.87022
18	0xc082075b	-4.063398
19	0xc0743831	-3.8159297
20	0xc0896249	-4.2932477
21	0xc07988e5	-3.8989804
22	0xc08440f7	-4.1329303
23	0xc08b04a1	-4.344315
24	0xc0a6348b	-5.193914
25	0xc0a8f7ff	-5.280273
26	0xc0b18deb	-5.548574
27	0xc0ba9dad	-5.8317475
28	0xc0c7f259	-6.2483335
29	0xc0c25767	-6.073169
30	0x40ab0ad3	5.3450713
31	0x40a4d692	5.1511927
32	0x40a40aa4	5.126299
33	0x40ae23d7	5.441875
34	0x40a6a982	5.208192
35	0x40ac778b	5.3895926
36	0x40a63345	5.1937585
37	0x40a20883	5.063539
38	0x40b57711	5.6707845
39	0x40badaf6	5.8392286
40	0x40c54abe	6.165374
41	0x40c89850	6.268593
42	0x40bf2d0f	5.9742503
43	0x40c60c85	6.1890283
44	0x40d16dc6	6.54465
45	0x40ce6977	6.450374
46	0x40d05ed0	6.511574
47	0x40cd5a8c	6.417303
48	0xc06d161c	-3.7044744
49	0xc07b1df7	-3.923704
50	0xc0812730	-4.0360336
51	0xc08311be	-4.095916
52	0xc0742f82	-3.8153996
53	0xc08856ec	-4.2606106
54	0xc0b96d64	-5.7946033
55	0xc0b0258f	-5.504585
56	0xc0b1a3e2	-5.551255
57	0xc0b49aed	-5.643912
58	0xc0b26b63	-5.5756087
59	0xc0b85658	-5.76054
60	0x4091b2ab	4.55306
61	0x409c8079	4.8906827
62	0x409974c2	4.7955027
63	0x409d7952	4.9210596
64	0x409d2340	4.910553
65	0x409276f4	4.5770206
66	0x40ab5b4d	5.354895
67	0x40a5cf5d	5.181563
68	0x40a5fd03	5.187135
69	0x40b428e1	5.62999
70	0x40acb591	5.397164
71	0x40b3fb33	5.624414
72	0x40acf98e	5.405463
73	0x40aa5fc2	5.324189
74	0x40ae827b	5.453428
75	0x40b1e258	5.55888
76	0x40b704cb	5.719335
77	0x40b42e4a	5.6306505
78	0xc0af2f1b	-5.4745
79	0xc0b459a4	-5.6359425
80	0xc0b33797	-5.600536
81	0xc0b1c9ca	-5.5558825
82	0xc0b6cc36	-5.712428
83	0xc0b8e525	-5.7779717
84	0x40bf0f16	5.9705915
85	0x40c2830b	6.0784965
86	0x40c73e10	6.226326
87	0x40c78c35	6.235865
88	0x40cd32ff	6.412475
89	0x40c1d7c8	6.0575905
90	0xc09f2780	-4.973572
91	0xc0a02851	-5.0049214
92	0xc0aae590	-5.340523
93	0xc0baef08	-5.8416786
94	0xc0b50aee	-5.657584
95	0xc0b66bb7	-5.700649
96	0xc073c750	-3.80904
97	0xc0841a8e	-4.1282415
98	0xc082539a	-4.0727053
99	0xc0880102	-4.250123
100	0xc07dfb26	-3.968454
101	0xc08a792d	-4.327292
102	0xc0b301da	-5.593976
103	0xc0b3a2d9	-5.613629
104	0xc0b92637	-5.785915
105	0xc0babeb1	-5.8357778
106	0xc0b36904	-5.6065693
107	0xc0b60905	-5.688601
108	0xc0b01c20	-5.503433
109	0xc0afb590	-5.4909134
110	0xc0bf681b	-5.981458
111	0xc0cba079	-6.363339
112	0xc0d1eac4	-6.559908
113	0xc0cab066	-6.334033
114	0xc080db8e	-4.026801
115	0xc085f4fe	-4.1861563
116	0xc080a131	-4.0196767
117	0xc07cfc27	-3.9528902
118	0xc08895cb	-4.2682853
119	0xc0862266	-4.191699
120	0xc0a1a895	-5.051829
121	0xc0a96327	-5.2933536
122	0xc0b551f1	-5.6662526
123	0xc0b82718	-5.754772
124	0xc0bd5a73	-5.917291
125	0xc0ca978a	-6.3309984
126	0x40bc5b5e	5.886153
127	0x40c0c587	6.024112
128	0x40c71ab1	6.222008
129	0x40d17c20	6.546402
130	0x40cae3d6	6.340312
131	0x40cfefd9	6.4980283
132	0x40b0754e	5.5143194
133	0x40b0c41a	5.523938
134	0x40cbd432	6.3696527
135	0x40dbede9	6.872792
136	0x40d3def4	6.620966
137	0x40e17b91	7.046334
138	0xc086a67e	-4.2078238
139	0xc0819342	-4.049226
140	0xc07a8823	-3.9145591
141	0xc083169b	-4.0965095
142	0xc08ad09a	-4.337964
143	0xc085fb63	-4.186937
144	0xc0b9bd01	-5.804322
145	0xc0b51874	-5.659235
146	0xc0b0f212	-5.5295496
147	0xc0bbb6fb	-5.8660865
148	0xc0c00ef2	-6.0018244
149	0xc0bee9a0	-5.9660187
150	0xc0b3063f	-5.5945125
151	0xc0b91f79	-5.785092
152	0xc0bd5572	-5.9166803
153	0xc0c3edaf	-6.122764
154	0xc0c2aa81	-6.0833135
155	0xc0c99b04	-6.300173
156	0xc0b3808e	-5.6094427
157	0xc0aa07ed	-5.3134675
158	0xc0b05b8e	-5.511176
159	0xc0b69c07	-5.7065463
160	0xc0b5bc98	-5.6792717
161	0xc0ae7244	-5.4514484
162	0xc0d1f9ce	-6.5617437
163	0xc0c8f550	-6.2799454
164	0xc0d718a1	-6.7217565
165	0xc0e113c5	-7.0336633
166	0xc0d93686	-6.7879057
167	0xc0d7b8cc	-6.741308
168	0xc0a812d1	-5.252297
169	0xc0a57d2b	-5.1715293
170	0xc0ad86e3	-5.4227157
171	0xc0b5b23d	-5.6780076
172	0xc0aa7454	-5.3267
173	0xc0b23bdf	-5.5698085
174	0x40b5f200	5.685791
175	0x40b85961	5.7609105
176	0x40b893f5	5.768061
177	0x40b8b85f	5.772506
178	0x40be1a07	5.940677
179	0x40b1a867	5.551807
180	0x40b482ec	5.6409817
181	0x40b49e60	5.644333
182	0x40ac29de	5.3801107
183	0x40b684cc	5.7037106
184	0x40ac59c4	5.3859577
185	0x40ac7ee9	5.390492
186	0xc0b45f95	-5.6366677
187	0xc0b1d278	-5.556942
188	0xc0b2cd2a	-5.5875444
189	0xc0b9c5bf	-5.805389
190	0xc0c0144a	-6.0024767
191	0xc0be119c	-5.9396496
192	0x40a87a54	5.2649326
193	0x40a6d544	5.2135334
194	0x40b6067c	5.6882915
195	0x40c1193d	6.034331
196	0x40c3d522	6.119767
197	0x40c7f4d4	6.2486362
198	0xc0ad5c34	-5.4175053
199	0xc0ada479	-5.426327
200	0xc0ab4755	-5.3524575
201	0xc0b0e3bf	-5.527801
202	0xc0adced8	-5.4314995
203	0xc0b1d22f	-5.556907
204	0xc0b2a31f	-5.5824122
205	0xc0a7ea6b	-5.2473655
206	0xc0b5aa6e	-5.6770544
207	0xc0c2f172	-6.0919733
208	0xc0c72212	-6.222909
209	0xc0c61f48	-6.1913185
210	0xc0a91650	-5.2839737
211	0xc0a7f602	-5.2487803
212	0xc0b55ea7	-5.6678042
213	0xc0b521c2	-5.660371
214	0xc0b9149c	-5.783766
215	0xc0c3cac7	-6.118503
216	0xc0aedad5	-5.464213
217	0xc0b78e04	-5.736086
218	0xc0b76c83	-5.731996
219	0xc0b0aab3	-5.5208373
220	0xc0b7813c	-5.7345257
221	0xc0bf8323	-5.984758
222	0x40bec958	5.962078
223	0x40bd9b01	5.9251714
224	0x40bfd7aa	5.995076
225	0x40c28b1e	6.079482
226	0x40c3f7dc	6.1240063
227	0x40c1819a	6.0470705
228	0xc0b77f5b	-5.7342963
229	0xc0b5967c	-5.6746197
230	0xc0adaa2f	-5.4270244
231	0xc0b71123	-5.720842
232	0xc0b43486	-5.6314116
233	0xc0b11553	-5.533853
234	0xc0a058a0	-5.0108185
235	0xc09ff2ab	-4.9983726
236	0xc0af00bd	-5.46884
237	0xc0b549d2	-5.6652613
238	0xc0b93a0b	-5.7883353
239	0xc0b0e866	-5.528369
240	0x409e1ab9	4.940762
241	0x40929a43	4.581331
242	0x40a3e0e7	5.121204
243	0x409ef6f0	4.9676437
244	0x40ab1e03	5.3474135
245	0x40ad88a4	5.42293
246	0xc06d1534	-3.7044191
247	0xc0761be9	-3.8454535
248	0xc07ee6c5	-3.982835
249	0xc0844f05	-4.134646
250	0xc07ede8b	-3.982333
251	0xc081b302	-4.0531015
252	0xc0c0741c	-6.0141735
253	0xc0bb7e5c	-5.8591747
254	0xc0ccad78	-6.3961754
255	0xc0c8afb8	-6.27145

linears.0.bias f4 [100]
0	0xbd23e078	-0.040008992
1	0x3d64a6cb	0.05582313
2	0x3d3d2a9a	0.046183206
3	0x3e05c41d	0.13063093
4	0x3dd26e4e	0.10274945
5	0xbcad737b	-0.02117323
6	0xbdaf379c	-0.085555285
7	0xbd245cd9	-0.04012761
8	0x3dc74292	0.09729494
9	0x3d0f1c1f	0.034938928
10	0xbd2708d9	-0.040779922
11	0xbd0fad9a	-0.03507767
12	0x3d08b056	0.033371292
13	0x3ca06255	0.019578138
14	0xbd76ca0e	-0.060251288
15	0x3dbe196a	0.09282191
16	0x3da46e7a	0.08028884
17	0x3cc2e32f	0.02378997
18	0x3d989791	0.07450784
19	0x3db829f3	0.08992376
20	0x3e29c139	0.16577615
21	0xbd758924	-0.05994524
22	0xbde4bdbe	-0.11169003
23	0x3de0af95	0.109709896
24	0x3d6a73cb	0.057239335
25	0x3dd1f068	0.10250932
26	0x3cb42353	0.0219895
27	0x3e28a5cc	0.16469496
28	0x3d36108d	0.044449378
29	0x3cb698f0	0.022289723
30	0x3c1a1012	0.0094032455
31	0x3d9a74ae	0.07541786
32	0xbd914cb1	-0.07094706
33	0x3c4e671a	0.0125978235
34	0x3d9dffbc	0.07714793
35	0x3deae94c	0.11470279
36	0x3d5b454a	0.053532876
37	0x3c2e07fc	0.010622021
38	0x3c6ca1e7	0.014442897
39	0x3e27e49e	0.16395804
40	0xbd976690	-0.07392609
41	0x3d95d5d5	0.07316176
42	0x3e18be90	0.14916444
43	0x3d540d12	0.051770277
44	0x3e132558	0.14369714
45	0x3dc7237c	0.09723565
46	0x3d3491b6	0.044084273
47	0xbd9d8f2b	-0.07693323
48	0xbd52d40f	-0.051471766
49	0xbd256eba	-0.0403888
50	0xbd4de520	-0.05026734
51	0x3d164abd	0.03669237
52	0x3c9231e8	0.017846063
53	0x3e074ef6	0.13213715
54	0xbd777774	-0.060416654
55	0x3e038d55	0.12846883
56	0x3d5b0555	0.053471882
57	0xbdc8e2dc	-0.09808895
58	0xbdad2a4f	-0.08455335
59	0xbd75f85e	-0.060051315
60	0xbbba0d91	-0.005677887
61	0x3d529697	0.051413145
62	0x3d0d9026	0.0345613
63	0xbda0452e	-0.07825695
64	0xbd8ad52f	-0.06778943
65	0x3da3c22d	0.079960205
66	0x3e77e5dc	0.24208778
67	0xbd9580b9	-0.072999425
68	0x3e216341	0.15760519
69	0xbab2d3cd	-0.0013643444
70	0x3d666788	0.05625108
71	0xbd8e6801	-0.06953431
72	0x3d25b6ac	0.040457413
73	0xbd2b1e8a	-0.04177717
74	0x3dc2cf96	0.0951225
75	0x3c975e8e	0.018477704
76	0x3d78b89d	0.060722936
77	0x3c91bc60	0.01779002
78	0xbd064a32	-0.032785602
79	0xbd8b1a9d	-0.067921855
80	0x3c2cda02	0.010550024
81	0x3ce9b7f7	0.028530104
82	0x3d1f83ad	0.038943935
83	0xbd8d2780	-0.068923
84	0x3d47425b	0.048647266
85	0xbce7e9c3	-0.028309708
86	0x3dd0bc6a	0.10192187
87	0xbc8406e5	-0.016116569
88	0xbdad49f9	-0.08461375
89	0x3e22a0a7	0.15881597
90	0x3db3fdca	0.08788641
91	0xbca142f8	-0.019685254
92	0xbdd24a56	-0.10268085
93	0xbd6b7d6a	-0.05749265
94	0xbd166e6b	-0.036726397
95	0x3d0520bc	0.03250192
96	0x3d6375ca	0.055532254
97	0xbd29610d	-0.04135232
98	0xbd871609	-0.06596
99	0x3de60829	0.11232025

linears.1.weight f4 [100, 100]
0	0x3cf4e62c	0.02989491
1	0x3e5a2d86	0.21306428
2	0x3dfdc727	0.12391501
3	0xbe715335	-0.23566897
4	0x3db53ccb	0.08849486
5	0x3dff611c	0.12469694
6	0xbda67516	-0.08127801
7	0x3d7a3184	0.061082378
8	0xbe5e0228	-0.2168051
9	0x3dda546e	0.10660635
10	0xbe17118a	-0.14752784
11	0x3e113761	0.14181282
12	0x3d9c5618	0.076336086
13	0xbe145382	-0.1448498
14	0x3d01a4ab	0.03165118
15	0xbe27d7bc	-0.1639089
16	0x3e431034	0.1904915
17	0xbe5de61f	-0.21669815
18	0x3d920231	0.07129324
19	0xbdbdaa1d	-0.09260962
20	0xbe24cd94	-0.16094047
21	0x3e1d7503	0.15376668
22	0x3d9c7cca	0.07640989
23	0x3e0794d8	0.13240373
24	0x3e09f69d	0.13472982
25	0x3e0d85b0	0.13820529
26	0xbe8d0a01	-0.27546695
27	0xbe2cdfbd	-0.16882224
28	0xbdaa4372	-0.083136454
29	0x3ec40521	0.38285163
30	0x3d2e2a1a	0.04252062
31	0x3b299962	0.0025878777
32	0x3d8bff12	0.0683576
33	0xbe5da3c3	-0.21644501
34	0xbde1ed52	-0.110315934
35	0xbe46bd44	-0.19408137
36	0xbdae79cc	-0.08519325
37	0x3e29534a	0.16535679
38	0xbe60300f	-0.21893333
39	0xbe82f72e	-0.25579208
40	0xbd2d99b9	-0.04238293
41	0xbd05f261	-0.032701854
42	0x3d791cf9	0.060818646
43	0xbdb28aed	-0.08717904
44	0xbdb52a2a	-0.08845933
45	0x3d39daf5	0.04537483
46	0x3e0b3e43	0.1359797
47	0x3cf083e4	0.029359765
48	0x3db8a854	0.09016481
49	0xbd19d966	-0.037560843
50	0x3de9a8c5	0.11409143
51	0x3cb2535d	0.021768266
52	0xbe6b642a	-0.22987428
53	0xbe189e3e	-0.14904115
54	0xbe1e5288	-0.1546117
55	0xbc7e1390	-0.015507594
56	0xbd4b2336	-0.049594127
57	0xbdbd87a6	-0.092543885
58	0xbd68d834	-0.056846812
59	0xbe30d366	-0.17268142
60	0x3df97672	0.12180795
61	0x3e314135	0.17310031
62	0x3c7a9706	0.015294796
63	0xbc56452f	-0.013078018
64	0xbd980170	-0.07422149
65	0xbe0b59f2	-0.1360853
66	0xbd456675	-0.048193414
67	0xbd460e6e	-0.048353605
68	0xbcf22ef9	-0.029563414
69	0x3e4d5926	0.20053539
70	0x3db260d6	0.08709876
71	0xbe550cbe	-0.20805642
72	0x3dde331a	0.108495906
73	0xbe1154ea	-0.14192548
74	0xbd8f8b14	-0.07008949
75	0xbde459b6	-0.111499235
76	0x3dc66495	0.09687153
77	0xbcebfd1e	-0.02880722
78	0xbdeff86a	-0.11717303
79	0xbdbd8f95	-0.09255902
80	0x3cad6b53	0.02116934
81	0xbe124a62	-0.14286187
82	0xbe0566d1	-0.13027503
83	0x3db83014	0.08993545
84	0xbdb33648	-0.08750588
85	0x3e3c3305	0.18378837
86	0xba11f533	-0.00055678486
87	0x3da1bcdb	0.078973494
88	0xbca25ce9	-0.019819694
89	0x3d30ec33	0.043194007
90	0xbc8a46bb	-0.01687943
91	0x3d444c1d	0.04792415
92	0xbd0a0f89	-0.03370622
93	0x3cc31539	0.02381383
94	0xbe22b6b9	-0.15890016
95	0x3e9fc447	0.31204435
96	0xbe3c460a	-0.18386093
97	0x3e0a2f00	0.13494492
98	0x3def1cc4	0.116754085
99	0x3df5b75c	0.11997864
100	0x3cf1ef68	0.029533103
101	0xbe85a04d	-0.26098862
102	0xbedc4854	-0.43023932
103	0x3e70421f	0.23462723
104	0xbe5d9589	-0.21639074
105	0x3e7aedcb	0.24504773
106	0x3ecad7c1	0.39617732
107	0x3eac56c9	0.33659962
108	0x3e982c4d	0.297213
109	0xbefeb6c3	-0.4974881
110	0x3ec5dee2	0.3864661
111	0x3e5a0313	0.21290235
112	0xbe02ee77	-0.1278628
113	0x3d763ee3	0.060118567
114	0x3e4f1966	0.20224532
115	0xbed90bb4	-0.4239174
116	0xbeaf4414	-0.34231627
117	0x3d4911cd	0.04908924
118	0xbeb8de33	-0.36107025
119	0xbc25e463	-0.010125252
120	0xbe26a5ac	-0.16274136
121	0x3f1af246	0.6052593
122	0x3eb4a94d	0.35285416
123	0x3db197c7	0.08671527
124	0xbf04c404	-0.51861596
125	0xbf02b6b9	-0.5106006
126	0xbe510b60	-0.20414495
127	0xbee6ffe3	-0.451171
128	0xbf16193d	-0.5863226
129	0xbddd76b0	-0.108136535
130	0xbdcb05de	-0.099132285
131	0xbf17055f	-0.5899257
132	0x3ebe7009	0.3719485
133	0xbf0cf143	-0.55055636
134	0xbe8e1c3c	-0.27755916
135	0xbe8b0643	-0.27153215
136	0xbedc1627	-0.4298565
137	0x3e90c104	0.2827226
138	0xbf24c876	-0.6436838
139	0xbde2c2eb	-0.11072334
140	0x3e0fe2c2	0.14051345
141	0xbeabfe04	-0.33592236
142	0xbe24e0fd	-0.16101451
143	0xbe431ea7	-0.19054662
144	0x3eec4c85	0.4615213
145	0xbe805875	-0.25067487
146	0xbefe575a	-0.4967602
147	0x3ed9557f	0.4244804
148	0x3e8dd512	0.27701622
149	0x3e742017	0.23840366
150	0x3e6009e8	0.21878779
151	0xbcb73843	-0.022365695
152	0xbe95c97e	-0.2925529
153	0xbed205e9	-0.41020134
154	0x3e3ed724	0.18636757
155	0xbe3f23b9	-0.18665971
156	0xbed87db9	-0.4228342
157	0x3f11b578	0.56917524
158	0x3ea21835	0.31659093
159	0x3f0e204e	0.55518043
160	0x3e68386b	0.22677772
161	0xbeca0fe9	-0.39465263
162	0xbec551d1	-0.38538983
163	0xbc4670c3	-0.012111845
164	0x3f16faac	0.58976245
165	0xbed6f666	-0.41984862
166	0x3ddc885a	0.107681945
167	0x3ef13f7a	0.4711874
168	0xbecd3e31	-0.4008651
169	0x3e32e031	0.17468335
170	0xbf20c520	-0.6280079
171	0x3ea6222f	0.32447955
172	0xbdf35dfa	-0.11883159
173	0x3eaff72c	0.34368265
174	0x3ea62649	0.32451084
175	0xbf23997e	-0.63906085
176	0xbf2ed04b	-0.6828658
177	0xbe9cff13	-0.30663356
178	0x3c9482c5	0.018128762
179	0x3ea74f3f	0.32677647
180	0xbebfd082	-0.37463766
181	0xbf0f7598	-0.5603881
182	0xbf071907	-0.52772564
183	0x3f1ec46d	0.6201847
184	0xbed87715	-0.42278352
185	0x3db6beef	0.089231364
186	0x3e18ce77	0.1492251
187	0xbd46d6ba	-0.048544623
188	0x3d6eec81	0.058331016
189	0xbeaba859	-0.33526877
190	0xbec1717b	-0.3778189
191	0x3e997b21	0.29976752
192	0x3ef541ac	0.47901666
193	0x3f17f217	0.59353775
194	0x3e50b7c0	0.20382595
195	0xbe729d97	-0.23692928
196	0xbd84b538	-0.06479877
197	0xbdb8537e	-0.090003
198	0x3e96bf67	0.29442903
199	0xbf0105bb	-0.5039937
200	0x3f1bc4e1	0.6084729
201	0xbdcd5262	-0.10025479
202	0xbdd7ef8c	-0.10543737
203	0xbea6b3bb	-0.32558998
204	0xbec86b9f	-0.39144608
205	0x3e9699e0	0.29414272
206	0x3e0ed586	0.1394864
207	0x3f308001	0.6894532
208	0xbe17a17c	-0.14807695
209	0xbe63ad41	-0.2223406
210	0x3eb677fe	0.35638422
211	0x3e985061	0.29748824
212	0xbdcf4ea8	-0.10122424
213	0x3ed71dd6	0.4201495
214	0x3ed23177	0.41053364
215	0xbe64b8e0	-0.22336149
216	0xbe2215c1	-0.15828611
217	0x3edc55c2	0.43034178
218	0xbeaf3b10	-0.3422475
219	0xbdf8e138	-0.12152332
220	0xbdeaa43c	-0.114571065
221	0x3f07c001	0.5302735
222	0x3e5f4706	0.21804437
223	0x3e9c573e	0.3053531
224	0xbf0b5cfe	-0.5443877
225	0xbecc6f3f	-0.39928624
226	0x3e5b403d	0.21411224
227	0xbeefdbfb	-0.4684752
228	0xbea5132b	-0.32241186
229	0xbe12dc40	-0.14341831
230	0xbd10d2c9	-0.03535727
231	0xbe918867	-0.2842438
232	0x3e96fd5a	0.29490167
233	0xbd052436	-0.032505237
234	0xbe7afe62	-0.24511102
235	0xbec230ff	-0.37928006
236	0xbf132ec6	-0.57493246
237	0xbf25efca	-0.64819014
238	0xbb910851	-0.00442604
239	0xbe764341	-0.24049093
240	0x3ee873a4	0.45400727
241	0xbe6f980b	-0.23397844
242	0xbf08a3a6	-0.5337471
243	0xbe7c351b	-0.24629633
244	0x3ed74bf2	0.4205013
245	0xbe580a89	-0.21097769
246	0xbe13aedc	-0.14422172
247	0x3e89b6cd	0.26897278
248	0x3e100c84	0.14067274
249	0x3e9508d5	0.291083
250	0x3e09591d	0.134129
251	0x3e899477	0.26871082
252	0x3deb0217	0.11475008
253	0xbec0c36f	-0.37649104
254	0x3d619897	0.05507716
255	0xbee98dc4	-0.4561597

linears.1.bias f4 [100]
0	0x3ca37a9d	0.019955928
1	0x3dcf5d3e	0.101252064
2	0x3e4f99ea	0.20273557
3	0x3d86632c	0.06561884
4	0x3d17f68f	0.03710037
5	0x3df52045	0.119690455
6	0xbd0c3a29	-0.034235153
7	0xbd567084	-0.052353397
8	0x3e4f85a9	0.20265831
9	0xbf243e43	-0.64157504
10	0x3e41b16a	0.18915334
11	0x3de61099	0.112336345
12	0xbd9268ac	-0.07148871
13	0xbe77ca72	-0.2419832
14	0x3e22ebb7	0.1591023
15	0x3bcb5a56	0.0062058372
16	0x3e84c631	0.25932458
17	0x3f42228b	0.7583396
18	0x3dc15f91	0.09442056
19	0xbe4a3161	-0.19745399
20	0x3c7dc394	0.015488524
21	0xbe234f5f	-0.15948246
22	0xbe6ff00b	-0.23431413
23	0x3e92a4eb	0.28641447
24	0xbea74870	-0.32672453
25	0xbd52457f	-0.051335808
26	0xbe4daf65	-0.20086439
27	0x3e4e87e6	0.20169029
28	0x3da13ce7	0.07872944
29	0x3e2cc84f	0.16873287
30	0x3e380aec	0.17972916
31	0x3e778ebe	0.24175546
32	0x3e2216ac	0.15828961
33	0x3ea0cc41	0.31405833
34	0xbea64f45	-0.32482353
35	0x3e899301	0.26869968
36	0xbe79a48f	-0.2437918
37	0x3d9b8f4c	0.07595691
38	0xbecaf01a	-0.39636308
39	0x3da5ca67	0.08095246
40	0x3bdf7fa0	0.006820634
41	0xbe9804e0	-0.2969122
42	0x3b9b3511	0.0047365506
43	0xbe1e0eb0	-0.1543529
44	0xbe556ae8	-0.20841563
45	0x3cbdd08f	0.023170738
46	0x3de60652	0.11231674
47	0x3db195f7	0.08671182
48	0x3d2352b5	0.039873797
49	0x3d709dff	0.058744427
50	0x3db3c1e5	0.08777217
51	0xbe9652d2	-0.29360062
52	0x3e41e7c1	0.18936063
53	0x3e319fb3	0.17346077
54	0xbd1c3071	-0.038132135
55	0xbea0bcc0	-0.31394005
56	0xbeb98173	-0.36231574
57	0x3e562874	0.20913869
58	0xbe63a3d7	-0.22230469
59	0xbe75b302	-0.23994067
60	0xbe14eb0f	-0.14542793
61	0x3d8fe28f	0.070256345
62	0x3e802a46	0.25032252
63	0xbe25e397	-0.162001
64	0x400642cb	2.0978267
65	0x3e9cc666	0.30620116
66	0xbd25d7b0	-0.0404889
67	0xbdff8f6c	-0.124785274
68	0xbe07ad54	-0.13249713
69	0x3c631c1d	0.013861683
70	0x3e2069ea	0.15665403
71	0xbc8ee203	-0.017441755
72	0x3ec45c19	0.38351515
73	0x3e67295b	0.2257437
74	0xbdb95909	-0.09050185
75	0x3e7b3a3f	0.24533938
76	0x3e94d850	0.29071283
77	0x3e44c56a	0.19215932
78	0x3e3164da	0.17323628
79	0xbee5f93d	-0.44916716
80	0x3ea2546f	0.31705043
81	0x3e617b9c	0.2201981
82	0x3d040bd9	0.03223786
83	0xbea6e059	-0.3259304
84	0xbf2c410f	-0.6728677
85	0x3e96f96e	0.29487175
86	0xbf0d7fb6	-0.55272996
87	0xbe4bd7f6	-0.19906601
88	0x3e5ba106	0.21448144
89	0x3ddd6249	0.10809762
90	0x3db04707	0.086072974
91	0x3e1967ed	0.14981051
92	0x3cf95e6d	0.030440534
93	0x3e5b0f87	0.21392642
94	0x3e03a38a	0.12855354
95	0x3deb955c	0.115030974
96	0x3db03766	0.086043164
97	0x3c775fc4	0.015098516
98	0xbe11c8c2	-0.1423674
99	0xbda0a546	-0.078440234

linears.2.weight f4 [100, 100]
0	0x3d2e88f7	0.04261109
1	0x3c915968	0.017742828
2	0x3e3ac981	0.1824093
3	0xbe2ee249	-0.17078508
4	0x3d984cfc	0.074365586
5	0x3df0f714	0.117658764
6	0xbdeb568a	-0.114911154
7	0xbddd9552	-0.10819496
8	0xbe6e60c2	-0.23279098
9	0x3e17c2a3	0.14820342
10	0xbe014391	-0.12623431
11	0x3d8ac367	0.06775551
12	0xbdfbb85e	-0.122910246
13	0xbe234e6e	-0.15947887
14	0xbc99868e	-0.018740918
15	0xbb0d5045	-0.0021562737
16	0x3c2c5ab9	0.010519677
17	0xbdccfda9	-0.10009319
18	0x3c001d31	0.00781946
19	0x3e545a13	0.20737486
20	0x3bba0df3	0.0056779324
21	0x3e14e432	0.14540175
22	0x3e466642	0.19374946
23	0x3dfe0153	0.12402596
24	0x3d469df0	0.048490465
25	0xbe018741	-0.12649252
26	0x3e07d905	0.1326638
27	0xbdd4e4aa	-0.10395177
28	0x3da7cd34	0.08193436
29	0xbebc8021	-0.36816505
30	0x3e022653	0.12709932
31	0xbd9bd880	-0.076096535
32	0xbd856736	-0.065138265
33	0xbe936096	-0.28784627
34	0xbcc33f53	-0.023833906
35	0xbcb9b7c1	-0.022670629
36	0x3e596533	0.2123001
37	0xbc8eb637	-0.017420871
38	0x3e9d26b5	0.30693594
39	0x3e7359d0	0.2376473
40	0xbd1dc52d	-0.03851812
41	0x3e3f7ecf	0.18700717
42	0xbd40b7d1	-0.0470503
43	0xbd95db30	-0.07317197
44	0xbdeecc08	-0.116600096
45	0x3d02ad4e	0.031903557
46	0xbd389695	-0.04506548
47	0xbed7bdfb	-0.4213713
48	0xbe1c9eb7	-0.1529492
49	0x3a6d2f54	0.0009047885
50	0xbe042ccc	-0.12907714
51	0x3d427f43	0.047484647
52	0xbe7f2356	-0.24915823
53	0x3cb37457	0.021906061
54	0x3e088552	0.13332108
55	0x3dea6469	0.11444933
56	0x3c27c234	0.010239173
57	0xbd693bfe	-0.05694198
58	0x3e372d3d	0.17888351
59	0x3e34872a	0.17629686
60	0xbc82b62d	-0.015956009
61	0x3ec5399e	0.3852052
62	0xbea195e7	-0.3155968
63	0xbd846091	-0.06463731
64	0xbb501b41	-0.0031754526
65	0xbd806265	-0.06268767
66	0xba0a5354	-0.0005276699
67	0x3d6009d6	0.05469688
68	0x3e6164b9	0.22011079
69	0xbdbb7e6d	-0.09154973
70	0x3d254a28	0.040353924
71	0xbcb421aa	-0.021988709
72	0x3d15d79e	0.03658258
73	0xbeada93d	-0.3391818
74	0xbd7bd9d3	-0.06148703
75	0x3d7590f1	0.05995268
76	0xbd486397	-0.0489231
77	0xbdbdbe9b	-0.09264871
78	0x3decb34b	0.11557635
79	0x3d7a807f	0.0611577
80	0xbf14b2c0	-0.5808525
81	0xbed1f999	-0.4101074
82	0xbccd817c	-0.025086157
83	0x3d05932c	0.032611057
84	0xbdcf131b	-0.10111066
85	0xbe18c914	-0.14920455
86	0x3e0175f5	0.12642653
87	0xbd12cab6	-0.03583785
88	0xbee07b48	-0.43844056
89	0x3ca9e943	0.02074111
90	0x3d9a6a20	0.07539773
91	0x3e9bd818	0.30438304
92	0xbeaebd8e	-0.34128994
93	0x3d072c94	0.033001497
94	0xbe6ad2e0	-0.22932005
95	0x3c70f756	0.014707407
96	0xbd86bff1	-0.06579579
97	0xbe6f4311	-0.23365428
98	0x3d93821c	0.07202551
99	0xbe4cd32d	-0.20002432
100	0xbe9cd0b1	-0.3062797
101	0xbfbe004c	-1.4843841
102	0xbfa271c5	-1.269097
103	0xbf3e8c9c	-0.744333
104	0x3ec406e9	0.38286522
105	0xbfa313ee	-1.2740457
106	0xbd9fd886	-0.078049704
107	0x3f59c40b	0.8506476
108	0xbf5c5e0e	-0.86081016
109	0x3f35d511	0.7102824
110	0xbfb91cbc	-1.4461894
111	0xbe070c4c	-0.13188285
112	0x3fbd804d	1.4804779
113	0xbea2924f	-0.3175225
114	0xc05a2d82	-3.4090276
115	0xbebe1420	-0.3712473
116	0xc01c74d7	-2.4446313
117	0xc0c05a19	-6.0109982
118	0xc0047186	-2.069429
119	0x3f4360fa	0.7631985
120	0xbe95acd8	-0.29233432
121	0x3fa64242	1.298897
122	0x3eeb13fc	0.45913684
123	0xbde7ada6	-0.11312418
124	0x3ecdc5ba	0.40189916
125	0x3ee7ae4b	0.45250162
126	0x3edbeabd	0.4295253
127	0x3f3037bf	0.6883506
128	0xbf82526a	-1.0181401
129	0x3a8f789c	0.0010945979
130	0xbf98a8ae	-1.1926477
131	0xbebad070	-0.3648715
132	0xbed85aed	-0.4225687
133	0xc02f5ad9	-2.73992
134	0x3f1512fb	0.58232087
135	0xbe9d06a5	-0.30669132
136	0x3f31e1a2	0.69484913
137	0x3fc0efc2	1.5073168
138	0x3f94c164	1.1621518
139	0xbec00f0a	-0.37511474
140	0x3d9a6a79	0.07539839
141	0x3f577e45	0.84177047
142	0xbeb16b7a	-0.3465231
143	0x3f1f3f18	0.6220565
144	0xbe4f03b4	-0.20216256
145	0x3df6ac6a	0.12044604
146	0x3d07c72d	0.033148933
147	0xbeb48420	-0.35257053
148	0x3e20e9c0	0.15714169
149	0xbc920654	-0.017825283
150	0xbe0fb523	-0.14033942
151	0x3f4ce1fe	0.80032337
152	0xbfdcab8b	-1.7239851
153	0x3f2f2a0c	0.68423533
154	0xbfa5f4d9	-1.2965347
155	0xbe1d2170	-0.15344787
156	0xbef4abb0	-0.47787237
157	0xbfa81bc5	-1.3133475
158	0x3f85a9cb	1.0442442
159	0x3f90ae2c	1.1303153
160	0x3f0d5984	0.55214715
161	0x3f749135	0.9553407
162	0xc00a7a43	-2.1637123
163	0x3e6cb6e0	0.23116636
164	0x3e9b14b4	0.30289233
165	0xbe5247ab	-0.20535152
166	0xbc8a8785	-0.016910324
167	0x3d234127	0.039857056
168	0x3f023754	0.50865674
169	0xbe54cd4a	-0.20781437
170	0xbf8c8176	-1.0977008
171	0x3e921de1	0.2853842
172	0xbf9f7834	-1.2458558
173	0xbd83a725	-0.06428365
174	0x3e8add3a	0.27121907
175	0xbf904718	-1.1271696
176	0xbf812bad	-1.0091454
177	0xbfe50c29	-1.7894336
178	0xbde5bfe7	-0.11218243
179	0x3f986aff	1.1907653
180	0xc0a5fec0	-5.1873474
181	0xbe27982f	-0.16366647
182	0xbf90cbd9	-1.1312209
183	0x3fb8de7f	1.44429
184	0x3f4fd0a2	0.81177723
185	0xbe895f64	-0.2683059
186	0xbd678962	-0.056527503
187	0x3f52cbcc	0.8234222
188	0xbfd23cab	-1.6424764
189	0xbeb3897b	-0.35065827
190	0xbe90ff6b	-0.28319868
191	0xbeebd3a5	-0.4605991
192	0x3e8ca1e4	0.27467263
193	0xbf4070c7	-0.75172085
194	0xc00ee227	-2.2325532
195	0x3f64b8ad	0.8934429
196	0x3df32317	0.11871927
197	0xbe7c0ab1	-0.24613453
198	0x3f6bf2b8	0.92167234
199	0xbe61dd3c	-0.2205705
200	0xbf317d82	-0.69332135
201	0xc01f82da	-2.4923615
202	0xc051dd4e	-3.2791324
203	0xbfc748ea	-1.5569127
204	0xbf3b4ceb	-0.7316424
205	0xbfd45d14	-1.6590905
206	0xbeb73c70	-0.35788298
207	0xbf5f9217	-0.8733229
208	0xbf9c2076	-1.2197406
209	0x3f3c01b2	0.73440087
210	0xc0ab8211	-5.3596272
211	0xbfa098e4	-1.2546659
212	0x3f9b9aca	1.2156613
213	0xbfcb5413	-1.5885032
214	0xc116e910	-9.4319
215	0xbeda728a	-0.4266551
216	0xc0b198b6	-5.5498915
217	0xc13ad84b	-11.677806
218	0xc0455db7	-3.083845
219	0x3fa1b404	1.2633061
220	0xbf1c3090	-0.610116
221	0x4046621e	3.0997386
222	0xbed2dcbf	-0.4118404
223	0xbe9eeb4a	-0.31038886
224	0xbe2a23ba	-0.16615191
225	0xbee8d4bb	-0.454748
226	0x3f218e48	0.6310773
227	0xbf7bddc5	-0.9838527
228	0xbfc22823	-1.5168499
229	0xbde953eb	-0.11392959
230	0xbfcd24b3	-1.6026825
231	0xbea731c1	-0.32655147
232	0xbf3ed3d3	-0.7454197
233	0xc0f7e695	-7.746897
234	0x3f522caa	0.820994
235	0xbedcc1e9	-0.43116692
236	0x3fa18e43	1.262154
237	0x3f21b7e6	0.6317123
238	0x3db98803	0.09059145
239	0xbfc1991f	-1.5124854
240	0x3eac4642	0.33647352
241	0x3f9d458d	1.228685
242	0xbeee16c0	-0.46501732
243	0x3f99ed1d	1.2025486
244	0xbe466d5b	-0.19377653
245	0xbf0692d6	-0.52567804
246	0xbe12752b	-0.14302509
247	0xbfe9de37	-1.827094
248	0xbd9d30fd	-0.076753594
249	0x3da13f51	0.07873405
250	0xbe87e8ac	-0.26544702
251	0x40050239	2.0782607
252	0xc0a33594	-5.1002903
253	0xbf783852	-0.9696094
254	0xc043753e	-3.054031
255	0xbfb6bfdf	-1.4277304

linears.2.bias f4 [100]
0	0xbbc08e3e	-0.0058763316
1	0xbf47fce6	-0.7812027
2	0xbf9adf5a	-1.2099411
3	0xbee7b23a	-0.45253164
4	0x3d3ecb8e	0.046580844
5	0x3dae14ca	0.08500059
6	0xbda7ceb2	-0.08193721
7	0xbbba156f	-0.0056788246
8	0x3ccede04	0.02525235
9	0xbda1fe94	-0.07909885
10	0xbed19bd2	-0.40939194
11	0xbe097e8c	-0.1342718
12	0xbe123122	-0.14276555
13	0xbc48345e	-0.012219517
14	0xbe1cf6dd	-0.15328546
15	0xbdc8b06a	-0.09799273
16	0xbdfd5ece	-0.12371598
17	0xbdf12a74	-0.117756754
18	0xbdd9133c	-0.10599372
19	0xbdeaec66	-0.11470871
20	0xbd553983	-0.0520568
21	0xbf11737a	-0.5681683
22	0xbda1470e	-0.07874881
23	0xbeb1103e	-0.34582704
24	0x3d4041b9	0.046937678
25	0xbe952d92	-0.2913633
26	0x3c818267	0.015809251
27	0x3ed12c56	0.40854138
28	0xbd658c07	-0.056041744
29	0x3cdc3ffa	0.026885975
30	0xbcc202bf	-0.02368295
31	0xb9f6ba26	-0.00047059468
32	0x3bd1647a	0.0063901516
33	0xbdc0b8db	-0.094102584
34	0xbdb845e6	-0.08997707
35	0x3e93ed1f	0.28891847
36	0xbd8be136	-0.06830065
37	0x3e1791ce	0.14801714
38	0xbdd82a9e	-0.105550036
39	0xbe3ae9a1	-0.18253185
40	0x3e4ebe37	0.20189749
41	0xbf16a727	-0.58848804
42	0xbf34438b	-0.7041556
43	0xbf428375	-0.7598184
44	0xbe160be6	-0.14652976
45	0x3d5f995e	0.05458962
46	0xbed0ac32	-0.40756375
47	0xbd9b13fb	-0.0757217
48	0xbdb881c8	-0.09009129
49	0xbd64258a	-0.055699863
50	0xbca0fbd0	-0.019651324
51	0xbdc82bfa	-0.09774013
52	0xbd3a22df	-0.045443412
53	0xbcf62321	-0.030046048
54	0x3da84535	0.08216325
55	0xbd9c3ac5	-0.07628397
56	0xbc9b8634	-0.018984891
57	0xbe106eef	-0.14104818
58	0xbe262b77	-0.16227518
59	0xbe2aeb05	-0.16691215
60	0x3bd0e2e3	0.0063747033
61	0x3d0511da	0.032487728
62	0x3c2f2262	0.01068935
63	0xbe9ba321	-0.30397895
64	0x3cdef300	0.02721548
65	0xbf1d531a	-0.6145493
66	0xbe0d0681	-0.13772012
67	0xbf437a32	-0.7635833
68	0xbf0b577a	-0.54430354
69	0xbf490682	-0.78525555
70	0xbcd70246	-0.026246201
71	0xbe4cbaf8	-0.19993198
72	0xbe2950ce	-0.16534731
73	0xbe968f4c	-0.29406202
74	0xbe77d759	-0.24203242
75	0xbe1c6888	-0.1527425
76	0xbd7a60a1	-0.06112731
77	0xbc7862e9	-0.015160301
78	0xbee2a55a	-0.44266778
79	0xbf55591d	-0.833391
80	0xbecda18e	-0.4016232
81	0x3d5c57e8	0.05379477
82	0xbea36326	-0.31911582
83	0xbed09b21	-0.40743354
84	0xbd7764b4	-0.060398772
85	0xbe2b0da8	-0.16704428
86	0xbe4b76ce	-0.19869539
87	0xbdc89db5	-0.09795705
88	0x3d92ded3	0.071714066
89	0xbeea3e4a	-0.45750648
90	0xbdb6634c	-0.08905658
91	0xbe05961a	-0.1304554
92	0xbdc882cc	-0.097905725
93	0xbd5a5fb7	-0.053313937
94	0xbdd50229	-0.10400803
95	0xbe1bed86	-0.15227327
96	0x3d8a3202	0.067478195
97	0xbd3afba9	-0.045650158
98	0xbf257828	-0.6463647
99	0xbf0a219d	-0.5395754

linears.3.weight f4 [5, 100]
0	0xbe4931dc	-0.19647926
1	0xbbaaf754	-0.005217472
2	0x3d8303f8	0.06397241
3	0xbe439b8c	-0.19102305
4	0x3e2613f9	0.16218556
5	0x3db67f71	0.08911026
6	0x3d0dff78	0.034667462
7	0x38bcb0f6	8.9975e-05
8	0x3f497564	0.7869475
9	0xbe9446d9	-0.28960302
10	0x3ec87773	0.39153633
11	0xbd03469a	-0.032049753
12	0xbdaba598	-0.08381194
13	0xbe60e061	-0.21960594
14	0x3d8b85e8	0.0681265
15	0xbad685a2	-0.001636673
16	0x3ddbdc07	0.10735326
17	0xbe04f4fb	-0.12984078
18	0xb8a6bfb0	-7.9512014e-05
19	0x3e14d14d	0.14532967
20	0x3a5ffc49	0.00085443683
21	0x3fa660f9	1.2998344
22	0x3e10a5f0	0.141258
23	0xbf0bf8ea	-0.5467669
24	0x38b8a4d6	8.804507e-05
25	0xbed50e91	-0.41612676
26	0xbe4c5eeb	-0.19958083
27	0xbe0d85e8	-0.13820612
28	0xba234e79	-0.000622965
29	0xbea6078f	-0.32427642
30	0xba13c706	-0.0005637262
31	0x3d836a82	0.06416799
32	0x3a4c74d1	0.00077993894
33	0xbfb9a0b9	-1.4502174
34	0xbe801cb7	-0.25021908
35	0x400b38cb	2.1753414
36	0x3d85962a	0.06522782
37	0x3d87a1db	0.06622668
38	0xba46bae2	-0.00075809483
39	0xbe81aa39	-0.25325182
40	0xbf00c7fd	-0.5030516
41	0xbd89ebbd	-0.06734417
42	0x3e56fa92	0.20994022
43	0xbde5cbb6	-0.112204954
44	0xbb31b100	-0.0027113557
45	0x3a9c0bc9	0.0011905368
46	0x3fd3ba4f	1.6541232
47	0xba9aa415	-0.0011798168
48	0x3e06c649	0.13161577
49	0x3df7040c	0.12061319
50	0xb9f1ff30	-0.00046157232
51	0x3d2bfb24	0.041987553
52	0xbd099c84	-0.03359653
53	0x3ab96209	0.0014143597
54	0x3a121556	0.00055726373
55	0x3e2a2113	0.1661418
56	0x3de08e49	0.10964639
57	0xbe48ea73	-0.19620685
58	0x3d9afeab	0.07568105
59	0xbe09d232	-0.1345909
60	0xbccdec7e	-0.025137182
61	0xbeb1bc9e	-0.34714216
62	0xba5f5933	-0.00085200666
63	0xbf416e23	-0.7555868
64	0x3aba9646	0.0014235459
65	0x3e83a1e1	0.2570944
66	0xbb4b2fdb	-0.0031003866
67	0xbda49831	-0.08036841
68	0xbecea328	-0.40358853
69	0xbe8248a9	-0.2544606
70	0x3a3c81d0	0.00071909744
71	0xbce3c4e4	-0.027803846
72	0x3dc57479	0.09641356
73	0xbe1669c0	-0.14688778
74	0xbcd16e44	-0.025565274
75	0x3e0c0dbf	0.13677119
76	0xb9c31e27	-0.00037215764
77	0x3a096763	0.0005241541
78	0xc062febe	-3.5467982
79	0xbf5ad33d	-0.85478574
80	0x3dfd4f4c	0.1236864
81	0x3e02be03	0.12767796
82	0x3ced9999	0.029003905
83	0x3e9e73f6	0.30947846
84	0xbc3976f7	-0.011319867
85	0x3dddedaa	0.108363464
86	0xbd4160d9	-0.0472115
87	0x3d413c98	0.047176927
88	0x3e09fb72	0.13474825
89	0x3d5a3434	0.05327244
90	0x3dbe25ad	0.0928453
91	0x39b24717	0.00034003772
92	0xbd8ebcfd	-0.069696404
93	0x3e1c2468	0.15248263
94	0xbdc6a6f8	-0.096998155
95	0xbdcaba4a	-0.09898813
96	0x3ee5666c	0.44804704
97	0xbb08ca20	-0.002087243
98	0xbdf6dc25	-0.12053708
99	0xbe37042f	-0.1787269
100	0x3d46611c	0.048432454
101	0x3b83ef66	0.0040263413
102	0xb9d7a398	-0.00041129882
103	0xbccb3ff6	-0.024810772
104	0xbe5bd593	-0.21468191
105	0x3a9e71ff	0.0012088417
106	0x3d818f4b	0.06326159
107	0x37433dcc	1.1637294e-05
108	0x3ce364dc	0.027758054
109	0x3e195f69	0.14977802
110	0xbb85f413	-0.004087934
111	0xbd0224cb	-0.03177337
112	0xbdeda3d3	-0.116035126
113	0xbc33e7d5	-0.010980566
114	0xbd530f98	-0.051528543
115	0xb9f88eac	-0.00047408545
116	0x3d82bc18	0.06383532
117	0xbe2d2aff	-0.16910933
118	0xb913ba63	-0.00014088447
119	0x3dec4233	0.11536064
120	0xb91198e0	-0.00013885228
121	0x3c2d87ed	0.010591489
122	0x3cc3630b	0.023850938
123	0x3d3ca0ff	0.046051975
124	0xb8888df2	-6.511425e-05
125	0xbc3b6e3b	-0.011439855
126	0x3d2d6c2a	0.04233948
127	0xb9c97647	-0.0003842583
128	0x38d00f92	9.921113e-05
129	0xbd085b9a	-0.033290483
130	0x391d997d	0.00015029866
131	0xbc1843f9	-0.00929355
132	0xb871fd7e	-5.769496e-05
133	0xbcc388af	-0.023868887
134	0xbd35e704	-0.044409767
135	0x3d796554	0.06088765
136	0x3d4d5907	0.05013373
137	0xba3ccc6b	-0.00072020915
138	0x37e719e5	2.7549404e-05
139	0xbd4037d0	-0.046928227
140	0xbb53cd10	-0.0032318272
141	0xbd147c18	-0.036251158
142	0x3bf1682b	0.007367154
143	0xbc8fbba5	-0.01754553
144	0x38f705d7	0.000117789656
145	0x3708ee04	8.161649e-06
146	0x3c668ec0	0.01407212
147	0x37932bc2	1.7544142e-05
148	0x3df5e502	0.120065704
149	0xbb8a5f47	-0.0042227837
150	0x38eb8d96	0.00011232046
151	0x3c9af9ef	0.018918006
152	0x3e30f51d	0.17281003
153	0xb8195aeb	-3.6562717e-05
154	0xb88bdc5b	-6.669081e-05
155	0xbdcbf414	-0.099586636
156	0xbdfdb26c	-0.12387547
157	0xbb5fd37d	-0.0034153156
158	0x3d8de0c7	0.069276385
159	0x3d699f48	0.057036668
160	0x3cce7fa9	0.025207357
161	0x3d257ec7	0.040404107
162	0xb80ecb20	-3.4044613e-05
163	0xbcdf6bce	-0.027273085
164	0xb8bd1c56	-9.0175e-05
165	0xbc8858aa	-0.01664384
166	0xbd020f45	-0.031752843
167	0xbaf1a5b8	-0.0018436229
168	0xbc247a98	-0.010038994
169	0xbc76afe9	-0.015056589
170	0xb88fe6c4	-6.861755e-05
171	0x3d2720d0	0.040802777
172	0xbdfebdec	-0.124385685
173	0x3d6308d9	0.05542836
174	0x3c39bac5	0.011336033
175	0xbd5f9d2f	-0.05459326
176	0xb7dbb555	-2.6191274e-05
177	0x37718a87	1.4396973e-05
178	0x3b916b09	0.0044378084
179	0xbb635db3	-0.00346933
180	0xbcd9c8e1	-0.026585044
181	0x3c87c8c4	0.016575225
182	0xbca6db69	-0.020368295
183	0x3b02a08f	0.0019932126
184	0x3de224ff	0.11042213
185	0xbcc8c205	-0.024506578
186	0xbb8147b3	-0.003945315
187	0xbe36e25c	-0.17859787
188	0xbe2d42ed	-0.16920061
189	0xbd62759f	-0.055287953
190	0x3d5a6401	0.053318027
191	0xb83ae9ba	-4.456353e-05
192	0x3ce0e34d	0.027452135
193	0x3e429629	0.19002594
194	0xbd46947e	-0.048481457
195	0xbc34b62c	-0.011029761
196	0xbd60c9e0	-0.054880023
197	0x38a2f73e	7.7708144e-05
198	0xbae5e30f	-0.0017538982
199	0xbdac201c	-0.08404562
200	0xbcaf67e3	-0.021411842
201	0xbf92c96f	-1.1467723
202	0x3fac99fc	1.3484492
203	0x3eec8194	0.4619261
204	0x3dee1805	0.11625675
205	0xbf306ec4	-0.68919015
206	0xbce54244	-0.0279857
207	0xbc285b8a	-0.010275731
208	0x3fd79910	1.6843586
209	0x3f042682	0.5162126
210	0x3eec6773	0.46172675
211	0xbe8b7167	-0.27234957
212	0x3ec89d87	0.39182684
213	0xbfb035a1	-1.3766366
214	0x3d9a9511	0.075479634
215	0x3cbaab0e	0.022786643
216	0x3eb35180	0.35023117
217	0x3ed1c88b	0.40973315
218	0xbc2fab9f	-0.01072207
219	0xbe07f215	-0.1327594
220	0xbc29bbdd	-0.0103597315
221	0xbdaa9a23	-0.083301805
222	0xbee14930	-0.4400115
223	0x3f3e7d3c	0.7440984
224	0xb6c09643	-5.7395387e-06
225	0xbf14a375	-0.58061916
226	0xbdcdb3a4	-0.10044029
227	0x403fb0f3	2.9951751
228	0x3cabc965	0.020970056
229	0xbf349f8d	-0.70555955
230	0x3c4c97de	0.01248738
231	0x3ea84801	0.32867435
232	0x38202fd7	3.8191527e-05
233	0x3f8864f3	1.0655807
234	0x3e859d66	0.26096648
235	0x40b7ceab	5.743978
236	0xbe912682	-0.28349692
237	0x3f3cc2e9	0.7373491
238	0x3c9b3b46	0.018949162
239	0x3e5d84b7	0.21632658
240	0xc03520d0	-2.8301277
241	0xbd4a2f3d	-0.049361456
242	0x419fa02a	19.953205
243	0x3e5e3bb9	0.2170247
244	0x3d13e85f	0.03611028
245	0x3a8bf1f7	0.001067697
246	0xc0722316	-3.7833915
247	0x3c9441b2	0.018097732
248	0xbe897a32	-0.2685104
249	0x3ed9da16	0.425492
250	0xb9a8baae	-0.00032182544
251	0xbeed7e0a	-0.46385223
252	0xbd4da0ab	-0.050202053
253	0x3b82a152	0.003986516
254	0xbc111816	-0.00885584
255	0x3e2ca279	0.16858853

linears.3.bias f4 [5]
0	0x3c72e1ec	0.014824372
1	0xbcc008ad	-0.023441637
2	0x3e58cada	0.21171132
3	0xbd30acae	-0.04313343
4	0x3cff94b5	0.031198839

exp_avg f4 [100, 6]
0	0x308cbaf8	1.023948e-09
1	0x308cba5d	1.0239308e-09
2	0x310cbd67	2.0480344e-09
3	0x3153140a	3.0715932e-09
4	0x318cbebf	4.0962216e-09
5	0x31afe961	5.1197024e-09
6	0x31af2ac1	5.098031e-09
7	0x31af2ac5	5.0980327e-09
8	0x322f2a57	1.0195968e-08
9	0x3283600e	1.5294088e-08
10	0x32af2a94	2.0392044e-08
11	0x32daf74c	2.5490998e-08
12	0xb1b341d6	-5.2170703e-09
13	0xb1b34207	-5.217092e-09
14	0xb2334266	-1.0434269e-08
15	0xb286713c	-1.5651146e-08
16	0xb2b34194	-2.0868164e-08
17	0xb2e01360	-2.6085843e-08
18	0xb081d58d	-9.44668e-10
19	0xb081d547	-9.446602e-10
20	0xb101d9b7	-1.8895727e-09
21	0xb142b8ff	-2.8335874e-09
22	0xb181d404	-3.7784975e-09
23	0xb1a24910	-4.723127e-09
24	0xb0ddc173	-1.6134848e-09
25	0xb0ddc218	-1.6135031e-09
26	0xb15dc2d0	-3.227047e-09
27	0xb1a64fbd	-4.840301e-09
28	0xb1ddbf14	-6.4536696e-09
29	0xb20a971e	-8.067017e-09
30	0x31b9a2ea	5.40273e-09
31	0x31b9a2d3	5.4027196e-09
32	0x3239a32b	1.0805517e-08
33	0x328b3a60	1.6208276e-08
34	0x32b9a24c	2.1610639e-08
35	0x32e80b88	2.7013598e-08
36	0x3119c96c	2.2378925e-09
37	0x3119c994	2.2379014e-09
38	0x3199c9c0	4.4758224e-09
39	0x31e6b00a	6.7138943e-09
40	0x3219ca83	8.951818e-09
41	0x32404231	1.1190921e-08
42	0x3184dfa8	3.8671324e-09
43	0x3184dfa9	3.867133e-09
44	0x3204df99	7.7342515e-09
45	0x32474d81	1.1600947e-08
46	0x3284df69	1.5468418e-08
47	0x32a615e1	1.9334893e-08
48	0xaf89976c	-2.5027747e-10
49	0xaf898e78	-2.5021385e-10
50	0xb0098de0	-5.0041926e-10
51	0xb04e51d5	-7.5058654e-10
52	0xb089974d	-1.0011064e-09
53	0xb0abe5b5	-1.2507174e-09
54	0xb1d93474	-6.3214944e-09
55	0xb1d93481	-6.3215e-09
56	0xb259348a	-1.2643008e-08
57	0xb2a2e680	-1.8964101e-08
58	0xb2d9339c	-2.5285594e-08
59	0xb307c038	-3.160696e-08
60	0x30ed6551	1.7272815e-09
61	0x30ed64a4	1.7272623e-09
62	0x316d66c3	3.4546452e-09
63	0x31b20b4f	5.1817675e-09
64	0x31ed654a	6.909123e-09
65	0x32145c7c	8.635762e-09
66	0x319e581c	4.608422e-09
67	0x319e586a	4.6084567e-09
68	0x321e5899	9.216955e-09
69	0x326d84db	1.38254235e-08
70	0x329e573c	1.843329e-08
71	0x32c5ef88	2.3042745e-08
72	0x3192295c	4.2538613e-09
73	0x31922929	4.2538386e-09
74	0x3212297d	8.507752e-09
75	0x325b3ec4	1.2761749e-08
76	0x3292299f	1.7015564e-08
77	0x32b6b464	2.126962e-08
78	0xb2077993	-7.885677e-09
79	0xb207798c	-7.885671e-09
80	0xb2877979	-1.5771308e-08
81	0xb2cb3ca5	-2.3659888e-08
82	0xb30779f8	-3.1543067e-08
83	0xb329581d	-3.9428517e-08
84	0x3195852f	4.351612e-09
85	0x31958504	4.351593e-09
86	0x32158539	8.703233e-09
87	0x32604743	1.3054719e-08
88	0x3295851f	1.740642e-08
89	0x32bae7ad	2.1758604e-08
90	0xb1049e3d	-1.9298476e-09
91	0xb1049e57	-1.9298534e-09
92	0xb1849d4a	-3.8595873e-09
93	0xb1c6eb01	-5.7892753e-09
94	0xb2049f69	-7.719657e-09
95	0xb225c788	-9.649632e-09
96	0xb044d846	-7.161173e-10
97	0xb044d810	-7.161143e-10
98	0xb0c4d6f7	-1.4321974e-09
99	0xb113a5cc	-2.148556e-09
100	0xb144d2a9	-2.86415e-09
101	0xb1761992	-3.5812247e-09
102	0xb1dfd8b5	-6.514791e-09
103	0xb1dfd8b4	-6.5147905e-09
104	0xb25fd813	-1.3029438e-08
105	0xb2a7e34e	-1.9544725e-08
106	0xb2dfd871	-2.6059043e-08
107	0xb30be9ec	-3.257621e-08
108	0xb150d344	-3.0388074e-09
109	0xb150d3ae	-3.038831e-09
110	0xb1d0d28f	-6.0775345e-09
111	0xb21c9d5a	-9.116173e-09
112	0xb250d395	-1.2155302e-08
113	0xb28281e1	-1.5193054e-08
114	0xb00bb2b1	-5.082184e-10
115	0xb00bb4ec	-5.082501e-10
116	0xb08bb675	-1.0165438e-09
117	0xb0d192c5	-1.5248466e-09
118	0xb10bb48e	-2.0329796e-09
119	0xb12e9dac	-2.5409959e-09
120	0xb0a05d33	-1.1668021e-09
121	0xb0a05c6e	-1.1667802e-09
122	0xb1205c12	-2.33354e-09
123	0xb1709211	-3.5007626e-09
124	0xb1a05cf2	-4.6671795e-09
125	0xb1c87792	-5.8343597e-09
126	0x318bd0a0	4.0691504e-09
127	0x318bd09e	4.0691495e-09
128	0x320bd092	8.138288e-09
129	0x3251b730	1.2207053e-08
130	0x328bd007	1.627633e-08
131	0x32aec42c	2.0345475e-08
132	0x311a8962	2.2488043e-09
133	0x311a89a6	2.2488194e-09
134	0x319a8994	4.4976307e-09
135	0x31e7cbd5	6.746158e-09
136	0x321a8934	8.995176e-09
137	0x32412b6e	1.1243953e-08
138	0xafd4f48a	-3.873633e-10
139	0xafd4f6cb	-3.8737932e-10
140	0xb05505da	-7.7497264e-10
141	0xb09fb54e	-1.1620302e-09
142	0xb0d4edd1	-1.5492622e-09
143	0xb1051be6	-1.9369906e-09
144	0xb1910dbc	-4.221617e-09
145	0xb1910d10	-4.2215405e-09
146	0xb2110cd8	-8.443031e-09
147	0xb259940f	-1.2664727e-08
148	0xb2910c79	-1.6885894e-08
149	0xb2b55024	-2.1107617e-08
150	0xb16fe39b	-3.4908456e-09
151	0xb16fe3cd	-3.4908567e-09
152	0xb1efe45c	-6.981777e-09
153	0xb233ec64	-1.047292e-08
154	0xb26fe626	-1.3963961e-08
155	0xb295ef48	-1.7454695e-08
156	0xb20bcc32	-8.1372935e-09
157	0xb20bcc11	-8.137264e-09
158	0xb28bcbc4	-1.6274392e-08
159	0xb2d1b31e	-2.4412255e-08
160	0xb30bcbe6	-3.2548904e-08
161	0xb32ec088	-4.0687638e-08
162	0xb148d0f6	-2.922261e-09
163	0xb148d1ec	-2.9223157e-09
164	0xb1c8d1e9	-5.84463e-09
165	0xb2169c2c	-8.7666585e-09
166	0xb248d17d	-1.1689164e-08
167	0xb27b053f	-1.4611316e-08
168	0xb1b9834b	-5.399135e-09
169	0xb1b9835d	-5.399143e-09
170	0xb2398371	-1.0798304e-08
171	0xb28b2184	-1.619697e-08
172	0xb2b983c3	-2.1596753e-08
173	0xb2e7e64a	-2.6996663e-08
174	0x31d363c4	6.1522503e-09
175	0x31d3644a	6.1523098e-09
176	0x32536506	1.23047865e-08
177	0x329e8ce3	1.8457689e-08
178	0x32d363b4	2.4608973e-08
179	0x33041d1d	3.0760123e-08
180	0x31a817d7	4.892154e-09
181	0x31a817ae	4.8921356e-09
182	0x322817e4	9.784319e-09
183	0x327c25d2	1.467693e-08
184	0x32a817d4	1.956861e-08
185	0x32d21f33	2.4461405e-08
186	0xb1898ef9	-4.003479e-09
187	0xb1898f1d	-4.003495e-09
188	0xb2098f18	-8.006985e-09
189	0xb24e556b	-1.20102e-08
190	0xb2898f3e	-1.6014038e-08
191	0xb2abf357	-2.0017678e-08
192	0x3167a1c5	3.370688e-09
193	0x3167a1f2	3.370698e-09
194	0x31e7a2e0	6.7415016e-09
195	0x322dbb10	1.0112458e-08
196	0x3267a328	1.3483067e-08
197	0x3290c724	1.6854365e-08
198	0xb20c1f0d	-8.156133e-09
199	0xb20c1f0d	-8.156133e-09
200	0xb28c1ec8	-1.6312143e-08
201	0xb2d22e65	-2.4468315e-08
202	0xb30c1dfe	-3.2623568e-08
203	0xb32f25d5	-4.077977e-08
204	0xb10070c6	-1.8690556e-09
205	0xb100707b	-1.869039e-09
206	0xb18070d9	-3.7381196e-09
207	0xb1c0a9bc	-5.607232e-09
208	0xb20070ef	-7.476259e-09
209	0xb2208f7b	-9.345849e-09
210	0xb092f01e	-1.0691144e-09
211	0xb092f09b	-1.0691282e-09
212	0xb112f2ad	-2.1383741e-09
213	0xb15c6762	-3.207298e-09
214	0xb192f2f8	-4.2767816e-09
215	0xb1b7b0b8	-5.3460916e-09
216	0xb1a98714	-4.933904e-09
217	0xb1a986e8	-4.9338844e-09
218	0xb22986e6	-9.867767e-09
219	0xb27e4a42	-1.480163e-08
220	0xb2a986b1	-1.973544e-08
221	0xb2d3e895	-2.4669399e-08
222	0x3230c6bc	1.0289735e-08
223	0x3230c67a	1.0289677e-08
224	0x32b0c6ce	2.0579503e-08
225	0x330493dd	3.0868126e-08
226	0x3330c737	4.1159378e-08
227	0x335cfa5b	5.145044e-08
228	0xb21b3016	-9.033121e-09
229	0xb21b3048	-9.033165e-09
230	0xb29b3048	-1.806633e-08
231	0xb2e8c7d2	-2.7099222e-08
232	0xb31b3070	-3.6132803e-08
233	0xb341fd12	-4.516648e-08
234	0xb08e8520	-1.0369696e-09
235	0xb08e859a	-1.0369832e-09
236	0xb10e8330	-2.073829e-09
237	0xb155c0f9	-3.1105272e-09
238	0xb18e8063	-4.14734e-09
239	0xb1b2205b	-5.18416e-09
240	0x3134b3e5	2.6295706e-09
241	0x3134b3db	2.6295683e-09
242	0x31b4b41b	5.259165e-09
243	0x3207856f	7.8883735e-09
244	0x3234b1ec	1.0517834e-08
245	0x3261dec3	1.3147374e-08
246	0xb0473b0a	-7.247968e-10
247	0xb047399e	-7.2477657e-10
248	0xb0c73f04	-1.4497066e-09
249	0xb1156a74	-2.1742865e-09
250	0xb1473a36	-2.89914e-09
251	0xb1790eb6	-3.6242631e-09
252	0xb1522a4f	-3.0583072e-09
253	0xb1522a6b	-3.0583134e-09
254	0xb1d229ce	-6.116557e-09
255	0xb21d9f37	-9.174804e-09

exp_avg_sq f4 [100, 6]
0	0x287fdd27	1.4203298e-14
1	0x287fdd29	1.42033e-14
2	0x297fdd23	5.681318e-14
3	0x2a0fec5b	1.2782954e-13
4	0x2a7fdcf9	2.2725215e-13
5	0x2ac7e496	3.5508114e-13
6	0x29dd3806	9.82409e-14
7	0x29dd3809	9.824092e-14
8	0x2add37ff	3.929634e-13
9	0x2b78df14	8.841688e-13
10	0x2bdd37f3	1.5718523e-12
11	0x2c2cd3c6	2.4560228e-12
12	0x2969b51e	5.1893487e-14
13	0x2969b51b	5.1893477e-14
14	0x2a69b519	2.0757388e-13
15	0x2b0375d8	4.670409e-13
16	0x2b69b504	8.302944e-13
17	0x2bb69560	1.2973338e-12
18	0x283ea517	1.0582917e-14
19	0x283ea512	1.0582913e-14
20	0x293ea50e	4.2331637e-14
21	0x29d67997	9.5246016e-14
22	0x2a3ea4ec	1.6932609e-13
23	0x2a94f0c5	2.645715e-13
24	0x28739cd3	1.3523216e-14
25	0x28739cca	1.3523208e-14
26	0x29739cbe	5.409279e-14
27	0x2a090835	1.2170892e-13
28	0x2a739ca3	2.163708e-13
29	0x2abe524d	3.3807888e-13
30	0x2977a6da	5.4989738e-14
31	0x2977a6d5	5.498972e-14
32	0x2a77a6d2	2.1995884e-13
33	0x2b0b4dd7	4.9490745e-13
34	0x2b77a6ca	8.7983494e-13
35	0x2bc17a40	1.3747406e-12
36	0x290371b5	2.918647e-14
37	0x290371b4	2.9186465e-14
38	0x2a0371a6	1.1674567e-13
39	0x2a93dfc9	2.6267728e-13
40	0x2b037195	4.6698176e-13
41	0x2b4d616b	7.2965825e-13
42	0x2909420f	3.0477408e-14
43	0x2909420f	3.0477408e-14
44	0x2a09420f	1.2190963e-13
45	0x2a9a6a3c	2.742961e-13
46	0x2b0941f8	4.876373e-13
47	0x2b5676f5	7.619316e-13
48	0x282b7973	9.518742e-15
49	0x282b796e	9.518738e-15
50	0x292b796c	3.8074944e-14
51	0x29c0e879	8.5668404e-14
52	0x2a2b7942	1.5229921e-13
53	0x2a85f69f	2.3796674e-13
54	0x29b2227f	7.910772e-14
55	0x29b2227f	7.910772e-14
56	0x2ab2227b	3.1643077e-13
57	0x2b4866ad	7.1196765e-13
58	0x2bb2226e	1.2657217e-12
59	0x2c0b2ad5	1.9776865e-12
60	0x2940e7eb	4.283372e-14
61	0x2940e7eb	4.283372e-14
62	0x2a40e7df	1.7133472e-13
63	0x2ad904b5	3.855021e-13
64	0x2b40e7c3	6.8533737e-13
65	0x2b96b505	1.0708384e-12
66	0x29253243	3.6680955e-14
67	0x29253243	3.6680955e-14
68	0x2a253241	1.4672379e-13
69	0x2ab9d879	3.301281e-13
70	0x2b253230	5.8689425e-13
71	0x2b810f2c	9.170212e-13
72	0x294c8843	4.5415288e-14
73	0x294c8843	4.5415288e-14
74	0x2a4c8841	1.8166112e-13
75	0x2ae61956	4.0873788e-13
76	0x2b4c883c	7.266442e-13
77	0x2b9fca79	1.1353827e-12
78	0x2ac12668	3.4310337e-13
79	0x2ac12667	3.4310334e-13
80	0x2bc12665	1.3724131e-12
81	0x2c594b36	3.0879305e-12
82	0x2cc12655	5.4896456e-12
83	0x2d16e5fb	8.577579e-12
84	0x292b1d72	3.7995167e-14
85	0x292b1d73	3.799517e-14
86	0x2a2b1d6a	1.5198056e-13
87	0x2ac08112	3.4195612e-13
88	0x2b2b1d55	6.079211e-13
89	0x2b85aee9	9.498766e-13
90	0x28ec2a06	2.6219488e-14
91	0x28ec29fc	2.6219471e-14
92	0x29ec29ee	1.0487779e-13
93	0x2a84d78b	2.3597473e-13
94	0x2aec29d0	4.1951035e-13
95	0x2b38807f	6.5548256e-13
96	0x28831504	1.4553036e-14
97	0x28831501	1.455303e-14
98	0x29831503	5.8212136e-14
99	0x2a137791	1.3097706e-13
100	0x2a8314f0	2.3284803e-13
101	0x2accd0a3	3.638245e-13
102	0x2ab3688f	3.186934e-13
103	0x2ab3688b	3.186933e-13
104	0x2bb36889	1.2747729e-12
105	0x2c49d595	2.868238e-12
106	0x2cb36876	5.0990835e-12
107	0x2d0c2993	7.96731e-12
108	0x28f78f26	2.748459e-14
109	0x28f78f20	2.748458e-14
110	0x29f78f1b	1.0993828e-13
111	0x2a8b407e	2.473611e-13
112	0x2af78f09	4.3975265e-13
113	0x2b4167a9	6.871123e-13
114	0x28adf1fb	1.93118e-14
115	0x28adf1f5	1.931179e-14
116	0x29adf1ee	7.7247114e-14
117	0x2a43b031	1.7380608e-13
118	0x2aadf1db	3.0898794e-13
119	0x2b07e4eb	4.827932e-13
120	0x28d743e6	2.3899241e-14
121	0x28d743e3	2.3899236e-14
122	0x29d743dd	9.5596904e-14
123	0x2a722c45	2.1509277e-13
124	0x2ad743b6	3.8238656e-13
125	0x2b282cd6	5.974781e-13
126	0x294d44a0	4.5578667e-14
127	0x294d44a1	4.557867e-14
128	0x2a4d449e	1.8231464e-13
129	0x2ae6ed2e	4.1020784e-13
130	0x2b4d4487	7.292573e-13
131	0x2ba05d82	1.1394637e-12
132	0x28f99b1d	2.7711823e-14
133	0x28f99b1f	2.7711826e-14
134	0x29f99b16	1.10847244e-13
135	0x2a8c6716	2.4940526e-13
136	0x2af99af4	4.4338806e-13
137	0x2b4300f2	6.927923e-13
138	0x290eb1d6	3.1684582e-14
139	0x290eb1d6	3.1684582e-14
140	0x2a0eb1cd	1.267382e-13
141	0x2aa087f6	2.851605e-13
142	0x2b0eb1c2	5.0695223e-13
143	0x2b5ef595	7.9211057e-13
144	0x295e3c36	4.9346127e-14
145	0x295e3c37	4.934613e-14
146	0x2a5e3c31	1.9738444e-13
147	0x2afa039b	4.4411423e-13
148	0x2b5e3c1c	7.895366e-13
149	0x2bad9ee0	1.2336486e-12
150	0x2938eac1	4.1059824e-14
151	0x2938eabf	4.1059817e-14
152	0x2a38eabe	1.6423925e-13
153	0x2ad00814	3.6953828e-13
154	0x2b38eab5	6.5695653e-13
155	0x2b90774a	1.0264925e-12
156	0x2aa7a92d	2.9782548e-13
157	0x2aa7a92e	2.978255e-13
158	0x2ba7a92b	1.1913017e-12
159	0x2c3c9e54	2.6804297e-12
160	0x2ca7a91e	4.7652013e-12
161	0x2d02fc25	7.445632e-12
162	0x291246c3	3.247989e-14
163	0x291246c3	3.247989e-14
164	0x2a1246bf	1.299195e-13
165	0x2aa48f99	2.9231893e-13
166	0x2b1246ad	5.19677e-13
167	0x2b648e69	8.1199506e-13
168	0x298aaf54	6.158846e-14
169	0x298aaf50	6.158843e-14
170	0x2a8aaf4e	2.4635366e-13
171	0x2b1c054c	5.5429684e-13
172	0x2b8aaf4a	9.854142e-13
173	0x2bd8b1e4	1.5397098e-12
174	0x2a34b386	1.6049496e-13
175	0x2a34b385	1.6049495e-13
176	0x2b34b381	6.419796e-13
177	0x2bcb49df	1.4444521e-12
178	0x2c34b375	2.5679157e-12
179	0x2c8d2c2d	4.0123655e-12
180	0x29a56f01	7.346728e-14
181	0x29a56f01	7.346728e-14
182	0x2aa56eff	2.9386907e-13
183	0x2b3a1ce2	6.612056e-13
184	0x2ba56ef9	1.1754756e-12
185	0x2c013ebb	1.8366825e-12
186	0x29608a47	4.9857928e-14
187	0x29608a43	4.9857914e-14
188	0x2a608a3b	1.9943155e-13
189	0x2afc9b8a	4.487212e-13
190	0x2b608a24	7.9772495e-13
191	0x2baf6be0	1.2464439e-12
192	0x28fc7731	2.8029311e-14
193	0x28fc772f	2.8029308e-14
194	0x29fc772b	1.12117204e-13
195	0x2a8e0309	2.5226373e-13
196	0x2afc770b	4.4846795e-13
197	0x2b453cfa	7.007308e-13
198	0x2a4c58de	1.8149672e-13
199	0x2a4c58de	1.8149672e-13
200	0x2b4c58da	7.2598665e-13
201	0x2be5e3fb	1.6334706e-12
202	0x2c4c58d4	2.9039453e-12
203	0x2c9fa56f	4.5374186e-12
204	0x285a48d4	1.2117223e-14
205	0x285a48d2	1.2117221e-14
206	0x295a48d1	4.8468882e-14
207	0x29f591ea	1.0905498e-13
208	0x2a5a48b0	1.9387508e-13
209	0x2aaa88d0	3.0293e-13
210	0x287f94ac	1.4187582e-14
211	0x287f94ae	1.4187583e-14
212	0x297f9492	5.675024e-14
213	0x2a0fc38f	1.27688e-13
214	0x2a7f946f	2.2700048e-13
215	0x2ac7abdc	3.5468753e-13
216	0x296db124	5.2778216e-14
217	0x296db122	5.277821e-14
218	0x2a6db120	2.1111281e-13
219	0x2b05b394	4.7500307e-13
220	0x2b6db109	8.4445e-13
221	0x2bb9b246	1.3194521e-12
222	0x2b2e1e86	6.185958e-13
223	0x2b2e1e85	6.185957e-13
224	0x2c2e1e83	2.4743825e-12
225	0x2cc3e243	5.5673534e-12
226	0x2d2e1e78	9.89752e-12
227	0x2d8807b6	1.5464834e-11
228	0x2a83043a	2.3273207e-13
229	0x2a830437	2.32732e-13
230	0x2b830434	9.309276e-13
231	0x2c1364be	2.094588e-12
232	0x2c830430	3.723709e-12
233	0x2cccb680	5.8182903e-12
234	0x2851ed5d	1.16533006e-14
235	0x2851ed55	1.1653294e-14
236	0x2951ed46	4.6613124e-14
237	0x29ec2ad7	1.0487937e-13
238	0x2a51ed2c	1.8645214e-13
239	0x2aa40120	2.9133033e-13
240	0x28ea7e76	2.6034062e-14
241	0x28ea7e74	2.6034059e-14
242	0x29ea7e6b	1.04136175e-13
243	0x2a83e71b	2.3430636e-13
244	0x2aea7e49	4.1654378e-13
245	0x2b373286	6.5084776e-13
246	0x288afe29	1.5431302e-14
247	0x288afe29	1.5431302e-14
248	0x298afe20	6.172515e-14
249	0x2a1c5dd7	1.388814e-13
250	0x2a8afe16	2.4690032e-13
251	0x2ad92cd5	3.8578052e-13
252	0x29163f20	3.3361443e-14
253	0x29163f21	3.3361446e-14
254	0x2a163f1b	1.334457e-13
255	0x2aa906fd	3.002528e-13
