TSTE-R/Qcontrol-noisy-comparison/Noisy-10%/Proposed_A30_noisy0.1/save_model_0222.ckpt-3150000.pt (torch, 270311 bytes, 24 tensors)

linears.0.weight f4 [100, 6]
00000000: 76a9 0041 0670 f640 43b0 f940 552c 0041
00000010: 181a 0341 2bee 0341 8e87 3241 4e5a 3041
00000020: dedd 3141 99f5 3541 2e49 3441 3cf0 3441
00000030: 7a72 34c1 7ece 2fc1 19e1 33c1 e2ad 33c1
00000040: da60 38c1 188a 36c1 1664 bac0 8177 b2c0
00000050: 24e8 c3c0 610b b8c0 81eb bfc0 49ea c6c0
00000060: 9dc6 00c1 9728 02c1 62d5 07c1 1ad7 0cc1
00000070: 4cc0 13c1 3216 11c1 be2d 2641 dc13 2341
00000080: bc02 2441 9b85 2941 6402 2641 c70b 2941
00000090: 0512 1141 f7fc 0e41 b6ed 1941 510a 1d41
000000a0: bf79 2241 e13f 2441 fddb 3041 bd4b 3441
000000b0: da56 3b41 524b 3a41 e280 3b41 c121 3a41
000000c0: 6539 aec0 4f3d b5c0 4fcb bac0 f063 bdc0
000000d0: e4c4 b4c0 093b c3c0 fb7b 34c1 39d8 2fc1
000000e0: 99d9 31c1 03c3 33c1 5ee4 32c1 8afa 35c1
000000f0: 61d2 ec40 7ea0 f740 c157 f640 d4f7 fa40
00000100: 20ef fa40 f870 f040 cb2f 2e41 bd69 2b41
00000110: f919 2d41 afbb 3441 4b48 3141 4f16 3541
00000120: 07e0 3a41 5593 3941 3557 3e41 5df6 4041
00000130: 8fff 4341 16dc 4241 894a 17c1 14e0 19c1
00000140: e2cc 19c1 3440 19c1 17d8 1bc1 d9f1 1cc1
00000150: 8b15 2d41 a7cf 2e41 487e 3241 f918 3341
00000160: 1627 3641 6c9c 3041 6f13 f0c0 3d14 f1c0
00000170: 9ec4 fdc0 0b3f 07c1 2879 04c1 3c44 05c1
00000180: b5c6 a2c0 b3fd acc0 9d43 acc0 de4d b2c0
00000190: 767b a9c0 d513 b5c0 e2fe 19c1 664f 1ac1
000001a0: 08a4 1dc1 819f 1ec1 de0d 1bc1 8b6c 1cc1
000001b0: dcb1 11c1 bb7e 11c1 6094 1ac1 d118 21c1
000001c0: 0875 24c1 d2fa 20c1 12b1 a1c0 7dca a6c0
000001d0: 0440 a2c0 2b61 a0c0 f79e aac0 2441 a8c0
000001e0: 314f 05c1 882c 09c1 2cc1 10c1 abbb 12c1
000001f0: 8c9f 15c1 1e6a 1cc1 72be 1f41 82f3 2141
00000200: c214 2641 f998 2b41 5278 2841 1416 2b41
00000210: 45c1 1041 b9e8 1041 df7a 1f41 2fe3 2741
00000220: 0f0a 2441 0af4 2a41 1064 bac0 4d51 b5c0
00000230: 8094 b2c0 79f0 b8c0 3df1 c0c0 d145 bcc0
00000240: 2570 1bc1 f91d 19c1 051b 18c1 10d8 1dc1
00000250: 8631 20c1 f4b9 1fc1 5c83 11c1 2890 14c1
00000260: 0ef6 17c1 1cb4 1bc1 694d 1bc1 fee8 1ec1
00000270: 867f 18c1 6dc3 13c1 d271 17c1 24be 1ac1
00000280: 6166 1ac1 aecd 16c1 455f 1dc1 57dd 18c1
00000290: ca4c 21c1 c5c1 26c1 e812 23c1 a178 22c1
000002a0: 3269 29c1 7c1e 28c1 0f78 2dc1 4405 32c1
000002b0: 4ca2 2cc1 5aa9 30c1 fd1b 2b41 954f 2c41
000002c0: 9396 2d41 1212 2e41 1bf8 3041 83de 2a41
000002d0: 3398 3a41 efa5 3a41 0c63 3841 753a 3e41
000002e0: eb7c 3941 a1c3 3941 5e6c 17c1 0926 16c1
000002f0: efd3 17c1 e8b8 1bc1 bf15 1fc1 bf33 1ec1
00000300: dabd 1641 9eeb 1541 fddb 1e41 24df 2441
00000310: 7577 2641 d9ac 2841 f060 27c1 3185 27c1
00000320: 782b 27c1 923e 2ac1 46d9 28c1 40f0 2ac1
00000330: fc4a 02c1 94dc f9c0 77c5 04c1 2fc0 0bc1
00000340: fe01 0ec1 169d 0dc1 63f1 fec0 42d1 fdc0
00000350: d0f4 06c1 224f 07c1 b786 09c1 d906 0fc1
00000360: e212 1bc1 3a6c 1fc1 236d 20c1 c86a 1dc1
00000370: 0006 21c1 1c23 25c1 23ed 2041 1056 2041
00000380: cee8 2141 b76a 2341 db33 2441 0f05 2341
00000390: 29d3 2bc1 d8de 2ac1 d8a4 27c1 6299 2cc1
000003a0: 674c 2bc1 09d0 29c1 4edc d9c0 a376 d9c0
000003b0: ec1e eac0 79f8 f0c0 3f35 f5c0 0b0d edc0
000003c0: 9af4 da40 8474 cf40 a02a e240 a0c0 dd40
000003d0: 2627 ea40 37b4 ec40 9afe a2c0 ec81 a7c0
000003e0: 8931 adc0 2180 b2c0 a0db adc0 3840 b0c0
000003f0: 224a 0ec1 bccf 0bc1 197d 15c1 23db 13c1
8.041372 7.7011747 7.8027663 8.010823 8.193871 8.245646 11.158094 11.022047
11.116667 11.37246 11.267866 11.308651 -11.277948 -10.987913 -11.2424555 -11.229952
-11.523645 -11.408714 -5.8247175 -5.577088 -6.1220875 -5.751389 -5.997498 -6.2160993
-8.04849 -8.13491 -8.489595 -8.802515 -9.2344475 -9.067919 10.386168 10.1923485
10.250668 10.5951185 10.375584 10.565375 9.066899 8.936759 9.620535 9.815019
10.154723 10.265595 11.053708 11.268491 11.708704 11.643389 11.718966 11.633241
-5.444506 -5.663734 -5.837318 -5.9184494 -5.6490345 -6.1009564 -11.280269 -10.990289
-11.115624 -11.23511 -11.180754 -11.373667 7.400681 7.7383413 7.698212 7.8427525
7.84169 7.51379 10.886668 10.713315 10.818841 11.295821 11.08015 11.317946
11.679694 11.59847 11.896291 12.060147 12.249892 12.178732 -9.455697 -9.617207
-9.61252 -9.578175 -9.740256 -9.809045 10.8177595 10.925696 11.15583 11.193597
11.384542 11.038189 -7.5023723 -7.5337205 -7.930251 -8.452891 -8.279579 -8.329159
-5.086756 -5.405969 -5.3832536 -5.5720053 -5.296321 -5.658671 -9.624727 -9.644384
-9.852547 -9.913941 -9.690886 -9.7765 -9.105923 -9.09344 -9.661224 -10.068559
-10.278572 -10.061235 -5.052865 -5.212218 -5.0703144 -5.0118613 -5.331905 -5.2579517
-8.331834 -8.573372 -9.047161 -9.170817 -9.351452 -9.7759075 9.983995 10.12195
10.380068 10.724847 10.529375 10.69289 9.047185 9.056817 9.967498 10.492965
10.252456 10.68458 -5.8247147 -5.6661744 -5.5806274 -5.7793546 -6.029448 -5.8835225
-9.714879 -9.569818 -9.506597 -9.86525 -10.012091 -9.982899 -9.09457 -9.285194
-9.497572 -9.731472 -9.706399 -9.931883 -9.531134 -9.235211 -9.465288 -9.671421
-9.649995 -9.425215 -9.835759 -9.554038 -10.081247 -10.422307 -10.192116 -10.15445
-10.588182 -10.507442 -10.841811 -11.126286 -10.789623 -11.041346 10.694333 10.769429
10.849261 10.879412 11.060573 10.679324 11.662158 11.665511 11.524181 11.889272
11.592998 11.610261 -9.463957 -9.384286 -9.489242 -9.732643 -9.942809 -9.887633
9.4213505 9.370024 9.928708 10.304478 10.404164 10.542199 -10.461166 -10.470017
-10.4481125 -10.640276 -10.553045 -10.683655 -8.143307 -7.808176 -8.298209 -8.73442
-8.875486 -8.850851 -7.966966 -7.931794 -8.434769 -8.45682 -8.595389 -8.939172
-9.69211 -9.9639225 -10.026645 -9.83857 -10.063965 -10.321072 10.057895 10.021011
10.119337 10.213553 10.26266 10.188735 -10.739053 -10.679405 -10.477745 -10.787447
-10.706153 -10.61329 -6.8081427 -6.795732 -7.3162746 -7.530331 -7.66275 -7.407842
6.8423586 6.482973 7.0677032 6.929764 7.317279 7.396999 -5.0935793 -5.2346096
-5.412297 -5.5781407 -5.4330597 -5.507839 -8.893099 -8.738216 -9.343041 -9.241

linears.0.bias f4 [100]
00000000: 9859 02be bcf9 463e 51e9 983d bc41 1d3e
00000010: 0c5b 583e 67bb 2d3d 49e6 c7ba 1941 063d
00000020: 4f4b 8b3e f339 d43d b716 bcbd 5015 203d
00000030: b521 173e ec41 893d b10b 193d f345 5f3e
00000040: 1c78 073f 90dc 9f3d 695a 053e 06af a73e
00000050: f917 483e e1be f93c 93fa acba 0110 143e
00000060: 9dd4 973d 9773 0b3e 2779 6a3d 6df6 5a3e
00000070: 75be a83d bf50 073e f503 e63d 31a2 b13d
00000080: 0bb9 823c 419c 493d ca53 663e 311c 943e
00000090: 2314 783d 95ff 003e c0ff 4e3d 9da5 5b3e
000000a0: a640 45be 7f99 063f 44a1 4c3e f156 ff3d
000000b0: 4690 fc3d 41ea 713e 0bfc a73d ddad a3bd
000000c0: 1beb 293d 1479 253d edd6 97bd 6302 103e
000000d0: 5290 663d c146 9e3e efc7 153d 7c35 883e
000000e0: 6a9a 823d d93e 1abe 366f 08be c12a c5bc
000000f0: 02f1 a53d c65a d13d 1acf d73d d4fc a3be
00000100: 9052 dfbd 9e0c a33d 2d8c b13e 5928 9cbd
00000110: 6f88 413e 7acf be3d 8793 8f3d 2be1 bebe
00000120: 8c5c 253e 6ccf ff3c f2f9 033e ec8f a43d
00000130: fd13 983d 821f 543d bebd 31bd f498 1c3c
00000140: 9b87 2c3d f742 e13d 006f 0f3e 3cff 2c3d
00000150: 0b96 953d d412 3c3d a9c0 153e 6ec8 a83c
00000160: 279a 3fbe 4fcc 463e fff1 683e e16a 413d
00000170: b523 e4bd 63a7 1b3d c009 36bd d453 1e3e
00000180: 541e 2c3e aca2 0dbe 9d61 4b3d df5f 383e
-0.1272949 0.19431204 0.074663766 0.15357107 0.21128482 0.04241505 -0.0015251125 0.032776926
0.27205893 0.103626154 -0.0918402 0.039082825 0.14758952 0.06702027 0.037364665 0.21804027
0.5291765 0.07805741 0.1302277 0.3275072 0.19540395 0.030486526 -0.0013197236 0.1445923
0.074136 0.13618313 0.057244446 0.21383066 0.08239452 0.13214396 0.112312235 0.08673514
0.015957376 0.04922128 0.224929 0.28927758 0.06056608 0.12597497 0.05053687 0.21449895
-0.19262943 0.52577966 0.19983393 0.12467755 0.123322055 0.23624517 0.0820237 -0.07992146
0.04148398 0.040398672 -0.07414041 0.1406341 0.05628998 0.30913356 0.036567625 0.26603305
0.063771084 -0.15063037 -0.13323674 -0.024068238 0.08102609 0.10222392 0.10537548 -0.3202883
-0.109044194 0.07961391 0.34677258 -0.07624883 0.18899702 0.09316917 0.070105605 -0.37281165
0.16148585 0.031226836 0.12888315 0.080352634 0.074256875 0.05178786 -0.043393843 0.009557951
0.04212151 0.10999101 0.14007187 0.042235598 0.07304009 0.045916393 0.14624275 0.020603385
-0.18711148 0.19413875 0.22748564 0.04722107 -0.11139623 0.03800143 -0.044442892 0.15461665
0.16808444 -0.13831586 0.04965364 0.18005322

linears.1.weight f4 [100, 100]
00000000: 308e c33e 61f4 003f 868d 02bf e6b3 a9be
00000010: d607 e6bd 78ec f23e ea2b ab3e 2fe7 f73e
00000020: a083 56be c767 1cbf c1a8 033f 60cb 0f3f
00000030: 2c81 c03e 864c 55bf bdd4 013f d8d4 bbbe
00000040: 7400 4b3e 7efd 73bf 8038 32bf fcdc ddbd
00000050: 88ff ddbe d320 1d3f ac91 ea3e 545d d93d
00000060: 44f3 14bf 9d58 ebbe e447 6ebf 09ea b8be
00000070: 6b5d 3fbf 5c9e 323f a0bf bc3e 5a74 34bf
00000080: 77b6 f23e 66e1 3cbf e318 b6be 3f5d 95be
00000090: 5f5a 44bf af82 fd3e aed4 3fbf 5eb6 9cbe
000000a0: 7a1e 633d 9862 72bb 7ea8 35be b872 55bf
000000b0: ae9a 02be ebb0 24be 48b0 06bf 0f4d 083f
000000c0: 4428 013f e028 ba3e 552b 3f3f 7bd8 1dbf
000000d0: a81c 5abf 662e 57be 4900 913e 83f7 a0bd
000000e0: c6bd 3bbf 7bd5 e23c 0f53 573e fc80 9f3e
000000f0: 0bbc ea3e a4e1 09bf 385a 35bf e9d7 8fbd
00000100: 3fd5 a53e ddc2 58bf 9c23 8c3c 62f9 063f
00000110: c5fa 38be fee5 073f 24f3 1dbf fef1 58be
00000120: d84d ce3e 23d1 833e 0931 53be d47c 38bf
00000130: 04d0 14bf db93 28bf 6c58 003f 4279 a23e
00000140: 2ad5 f8be 32a9 5bbf 6819 65bf fb0d 053f
00000150: 3ddd 3cbf cf33 0d3f fbe4 2bbd 854a 0a3f
00000160: c80a 5e3d e12d 39be af40 62be af88 c83e
00000170: 9116 bd3e bfe5 f73e 1620 de3e 4a08 1e3f
00000180: 0cb4 29bf 464e d83e 1304 0d3f 248e 56be
00000190: d18a d0bd a63c 00bf 688a d63d 1f8f 443e
000001a0: a9dc 40be bf23 f9bd 3184 b63d d3d6 06be
000001b0: f1bf 823e f6bf 7abd ace4 6f3e 4641 73be
000001c0: 573f c0be 6eec 033f a7a7 9cbe e0b4 cebe
000001d0: cbc4 d7be 7eb0 f13e c2ed 17be 3bf2 abbd
000001e0: e5a8 9bbd 04dc 1a3e d984 b13d 7d80 173c
000001f0: c52d c5bd 89e1 b2be ac07 9d3e 13d7 dabe
00000200: 35a2 bfbc 7a9b c3be c464 c9be 358c 77be
00000210: 4701 873d ff3c d0bd 5072 81be d724 85be
00000220: cc0b 6e3d a7a5 13bc 9872 4cbe 7ee1 21be
00000230: b8ad 653e 2773 c9be aab1 00be d998 bd3d
00000240: cf47 c73e 8418 3abe 7600 bf3c cd84 bc3e
00000250: 9433 3dbe 0793 33be 6726 e83d 4f6c 233e
00000260: 12d8 583e f392 dabe a072 a8be ecf5 5dbe
00000270: 3d67 683d 071d 223f 5cc0 a63e ee1c 8b3e
00000280: 5d80 e2bd c00f 073e 6e7d ac3d 4692 b83d
00000290: 3b44 0d3f 5466 25bd 7f61 233c 5462 bc3e
000002a0: 3f0f cfbe f3d7 18be 342b 57be 43b9 d03e
000002b0: becc b9be f50e 05be 3b8b 9b3e de20 73be
000002c0: b19b 27be c70e 543e 04c7 60be d24f a33c
000002d0: f386 963d 0481 fdbd c5bc d2bd 6926 d33d
000002e0: d555 1a3e dd22 9abe bf1e 8d3d fb83 f7be
000002f0: 8a9a 123e 57f0 9abe 357c bfbe c681 70bd
00000300: 6f39 eb3e 908c 583e 8b7d c0bd d43a fcbe
00000310: 4583 ec3c d684 19be 659b 58be a394 dfbe
00000320: 3a97 173f 96d4 82be df4d 643e 0827 16bf
00000330: bd79 09bf 56d6 b93d fdba 993d a02a c43e
00000340: 932b 98be 057e e23d d9db dd3e f44e 203d
00000350: 7029 8abe 80d2 283f a66f 5d3e b007 afbe
00000360: 95b2 b0be bbda 243f de47 a5be 8bd6 9ebe
00000370: 957a cfbe ecab b63e 931d 5c3e d99b 923d
00000380: c9f4 b8be 163f 13bf 786a e93e 087f 29bf
00000390: 898c 163c ac97 99be bbc2 4bbe cb7a 81be
000003a0: aa77 943e c3e3 bb3e 9b7e b7be 07df 0ebf
000003b0: ef58 9fbe d6e1 4ebf 9347 c23e 3735 d3be
000003c0: 99cc 133f 90ea bcbe aece 42bf 1d76 50bd
000003d0: ae4b 5e3e aca9 c7be 8538 313e 262b d93e
000003e0: a683 0fbe 60f5 263d fdcc 943e 27bd 953e
000003f0: 572d d13e 46bf 0dbf 70e3 50be 13ae 20bf
0.38194418 0.5037289 -0.509972 -0.33145064 -0.11231963 0.47446036 0.3343194 0.48418567
-0.20948648 -0.6109585 0.51429373 0.561697 0.3759855 -0.8331989 0.5071524 -0.36685824
0.19824392 -0.95308673 -0.6961746 -0.10833165 -0.43359017 0.6137821 0.45814264 0.10613504
-0.58183694 -0.45966044 -0.93078446 -0.36116055 -0.7475192 0.6977289 0.36864948 -0.7049004
0.47404835 -0.7378143 -0.35565862 -0.29172704 -0.76700395 0.49513766 -0.749339 -0.30607885
0.055448987 -0.0036985036 -0.17740056 -0.8337817 -0.12754318 -0.16083114 -0.52612734 0.5324258
0.50452065 0.3635931 0.74675494 -0.6165845 -0.85199976 -0.21013793 0.2832053 -0.07859709
-0.73336446 0.027689686 0.21027778 0.31153095 0.4584659 -0.53859925 -0.7084079 -0.070236035
0.32389256 -0.8467234 0.017106824 0.5272428 -0.18064411 0.53085315 -0.6169913 -0.21186063
0.40293765 0.25745496 -0.20624174 -0.7206547 -0.58129907 -0.6585061 0.5013492 0.31733137
-0.4860013 -0.85805047 -0.8949189 0.5197446 -0.7377508 0.5515718 -0.04196642 0.5401996
0.0542095 -0.18083908 -0.22094987 0.3916678 0.3693128 0.4841747 0.43383855 0.617314
-0.66290355 0.42247218 0.5508434 -0.2095266 -0.10182727 -0.5009254 0.10475618 0.19195221
-0.18834175 -0.12165021 0.08911932 -0.13167886 0.25537065 -0.061218224 0.23427075 -0.23755369
-0.37548324 0.5153264 -0.3059666 -0.40372372 -0.4214233 0.47204965 -0.14836791 -0.08395811
-0.076005735 0.15122992 0.08667917 0.009246943 -0.096278705 -0.34937695 0.30669916 -0.42742214
-0.023392776 -0.38204557 -0.3933469 -0.24174578 0.065920405 -0.10167884 -0.25282526 -0.2600467
0.05811672 -0.009011663 -0.19965589 -0.15808675 0.2242955 -0.39345667 -0.12567773 0.09257669
0.38921973 -0.18173414 0.02331565 0.3682007 -0.18476707 -0.17536555 0.1133545 0.15959285
0.21176174 -0.42690238 -0.32899952 -0.21675843 0.05673908 0.6332554 0.32568634 0.2717051
-0.110596396 0.13189602 0.08422361 0.090122744 0.55182236 -0.04038079 0.009971975 0.36793768
-0.4044132 -0.14926128 -0.21012574 0.40766343 -0.36289018 -0.12993987 0.30379662 -0.23743007
-0.16367985 0.20708762 -0.21950918 0.019935522 0.07349958 -0.123781234 -0.10289911 0.103100605
0.15071805 -0.30104724 0.0689063 -0.4834288 0.14316764 -0.3026149 -0.3739945 -0.05871751
0.45942256 0.2114737 -0.093989454 -0.49263632 0.028871188 -0.14992079 -0.21153028 -0.43668088
0.5921513 -0.25552815 0.2229533 -0.58653307 -0.5370138 0.090740845 0.07506368 0.3831377
-0.29720744 0.110591926 0.43331793 0.039137796 -0.2698474 0.659462 0.21624622 -0.34185553
-0.34511247 0.64396256 -0.32281393 -0.31023058 -0.4052321 0.3567804 0.21495657 0.07158632
-0.36124256 -0.57518137 0.45589042 -0.6620946 0.00918878 -0.2999853 -0.19898503 -0.25288996
0.28997546 0.36697206 -0.3583878 -0.5580906 -0.31122538 -0.8081335 0.37945232 -0.41251537
0.57734066 -0.36897707 -0.7609662 -0.05089389 0.21708557 -0.38996637 0.17306717 0.42415732
-0.14015064 0.04076135 0.29062644 0.29245874 0.40854904 -0.55369985 -0.2039926 -0.62765616

linears.1.bias f4 [100]
00000000: 541d 563e 62fe 98bd 84a9 3a3d a7f4 433e
00000010: 6acc ec3d 9b9b 183f 2799 983e a517 acbe
00000020: ffe7 103f ef6e 34bf 2dbd d8be c57a 7b3e
00000030: 42b1 63be 1bfd 843d ea02 82bd d815 193f
00000040: d16e d23d 6891 2f3f 594a 45be 0f1e d1be
00000050: f23f 943d 5b20 cdbe f952 c93d 6884 f03e
00000060: 25cc 4abe 7725 603e 7319 1bbd 75c0 1b3e
00000070: e851 c0be 2cca b13e 4ecd 2a3f 4338 173f
00000080: f381 de3e cb43 873e c485 c9be 2844 2a3f
00000090: 171f 9dbd c437 453d e4a5 7abe cf66 983d
000000a0: 5108 993e 98f3 33bf 3220 ad3e 2088 07bf
000000b0: 8804 0dbc f02e 39be 3550 883e d5dc 1dbe
000000c0: d68c 0bbd d94a 103f cc0e e93e 4f80 87bf
000000d0: ec95 a73c 6d25 ae3e 6b53 e4bd f884 e8be
000000e0: 4e4c 01be bcfc 003f 6b32 59be 6ae6 dc3d
000000f0: 273c e6be 9e39 133e 6e20 7ebe 2edd 3cbf
00000100: 5a6f 1940 6690 093f a76a 903e 644c 98be
00000110: c83b a5bd a192 e93e fa3c 8f3e 58f6 e8bc
00000120: 6caf ac3e 8a92 123f 047e 11be cbd8 c63e
00000130: 5d6f 253f ec52 a03e 79db fe3e 925c 14bf
00000140: 6db0 cebd 795e 6e3d 17dd c03c 55f9 9abe
00000150: f8ee 2abf 8c39 db3e 4740 45bf 6983 49bf
00000160: 9cfa 7d3d dec7 953e 5669 ba3e a0a5 4c3e
00000170: a26c 01be 02f4 7b3e af50 c0be ab8e 2c3d
00000180: 0f24 063e 5838 953e c64e 60bc c6e1 76bd
0.20909625 -0.07470395 0.04557182 0.19136296 0.115624264 0.59612435 0.29804346 -0.3361179
0.56604 -0.7048177 -0.4233183 0.24558552 -0.22235587 0.064935885 -0.06348212 0.59798956
0.10275043 0.6858125 -0.19266643 -0.40843245 0.07238759 -0.40063748 0.09830279 0.46976018
-0.19804437 0.21889292 -0.037866067 0.15210135 -0.3756249 0.34724557 0.6671952 0.59070224
0.43458518 0.2641891 -0.39359868 0.6651025 -0.076719455 0.048148885 -0.24477345 0.07441484
0.29889157 -0.7029357 0.33813626 -0.52942085 -0.008607037 -0.18084311 0.26623693 -0.15416272
-0.03406986 0.5636421 0.45519102 -1.0586032 0.02045723 0.3401293 -0.11148723 -0.45413947
-0.12626764 0.5038564 -0.21210639 0.107861355 -0.44967768 0.14377448 -0.24817058 -0.73774993
2.3974214 0.5373596 0.2820637 -0.2974578 -0.08068043 0.4561968 0.2797621 -0.028437778
0.33727586 0.5725485 -0.14208227 0.38837275 0.6462305 0.31313264 0.4977682 -0.5795375
-0.10092244 0.058195565 0.023542924 -0.3026835 -0.6677089 0.42817342 -0.77051204 -0.7871614
0.062006578 0.2925405 0.3640849 0.19985056 -0.12639096 0.246048 -0.37561557 0.042128246
0.13099693 0.2914455 -0.013690656 -0.060273908

linears.2.weight f4 [100, 100]
00000000: bca6 debc b50c 433e 6e9c cc3e 62bb 90be
00000010: bd4f a9bd 42db b3bd c5e3 7dbe 4ea9 92be
00000020: 869c c4be 0cea bc3e cad5 ddbd a8d0 57bd
00000030: 13ee e8bd 7f6f 8ebe 9d53 d83d d723 1bbe
00000040: 60f5 a9bd c088 e6be 6830 f13d a6b6 8b3d
00000050: 957d 373e b3d3 2f3e 53d7 cc3e d100 4dbd
00000060: c86d 893d 95a9 68be e3d1 fb3d acca bbbe
00000070: 927b 913e 4ce7 07bf c015 023e 5da6 7ebe
00000080: 1286 6dbe a0b1 07be 10a5 523e 7f4a 3fbe
00000090: a1cf 893d a79f 63be 0d5f 003f eeb2 f93d
000000a0: c1ec 1cbd 36ab 073e 57ed 3dbe 51eb 5dbe
000000b0: fef1 da3c 1491 54bd 2fd4 3dbe 4791 cdbe
000000c0: 031c a03d 1d1e 6dbe 55bc 80be 06c7 893d
000000d0: 89ea 98be 7800 84be f682 3c3d 3b61 bc3e
000000e0: 4766 703e 31cc 71be 76df ab3e d7ce ef3d
000000f0: 1a44 4ebe ec95 db3e ece2 bbbe 438b 2cbe
00000100: f5d6 cfbe b656 83be b2ef 80be 26f9 043e
00000110: 8533 d43e 099e 65be af88 d5bd 5330 963d
00000120: 40de 91b8 e7d2 01bf f106 9bbd f305 e7bd
00000130: 65e5 7bbe 36cc debd 4d8a 63bd d5ea 303d
00000140: 4dc4 f5be 1467 1fbf fc1b a93d 42d5 843e
00000150: 3696 093e 6034 9fbe e13b 913e e48b c7bd
00000160: a74c 30bf 6ae7 0fbe cde7 8ebd 3b91 0c3e
00000170: 02fc 8dbe 2249 e4bd 3fa5 063c 0c35 3fbe
00000180: 15d9 56be 466f bfbe fb77 993d ee74 ecbe
00000190: 073a 79be 0c3b 8fbf cedd 9ebf 3e69 88bf
000001a0: b79a 423e 626f 95bf 47b3 51bd c0fe d63d
000001b0: e6b8 41bf 6744 803f 4ff3 89bf 288c a0bd
000001c0: eac2 b83f 2686 6cbf 4dc4 06c1 f9fc a6be
000001d0: 3afb 3fc0 8c0d c6c0 601a 0ac0 3d5e 7b3f
000001e0: e087 7dbe f324 9d3f 948a fbbc bbef a4bd
000001f0: d319 433d d034 0a3f 0014 f1bc 2a39 3a3f
00000200: d702 18c0 808e cf3c 3e27 95bf 5283 acbe
00000210: 7479 ccbe 3158 18c0 af75 463f b1fe 96be
00000220: 106a 073f 1fcf af3f e01c 493f 3499 a8be
00000230: 00c1 0abf 55d5 5e3f 64c2 20bf 930b 1e3f
00000240: 2faa 98be ddf8 1ebe 8494 253d 904b 92bd
00000250: 6b48 0f3e fca6 37be bc7f 0abe e569 b53f
00000260: 2d1f d4bf d439 cc3e ac36 26bf 8b00 393e
00000270: 35f1 32bf e67f a7bf 6a6a 8e3f 4194 3d3f
00000280: 4614 e73e c063 773f dbe4 cebf 6c30 14be
00000290: 46a3 ae3f fa39 59bf d012 aabe 8e9c d7bc
000002a0: 34cc 0b3f 0a18 56be 340b 89bf 7480 923e
000002b0: a085 8abf 59a4 0fbd aec3 38be d595 8abf
000002c0: 9103 7ebf 2b30 0fc0 f8e6 cfbd e34d ca3f
000002d0: 37ce 9fc0 271c 013f dd6a 92bf 1563 c13f
000002e0: be04 8e3f 04fd 79be 9c32 76bf 0cd7 693f
000002f0: 8017 c0bf 08c0 a6be 018a 8bbe f9d6 c5be
00000300: d05e a73e 0df0 28bf aa6c 3ec0 680a 3d3f
00000310: 29a6 143e 91bb 6bbe f26d 493f 7bfe eabe
00000320: 48db eabe f1f9 8fbf 9844 4cc0 e9b4 b3bf
00000330: 30a4 6bbf 202f 9cbf 6f6c 49be d18e 823d
00000340: ab50 80bf e35d 643f a917 aec0 f688 bcbf
00000350: 9358 dd3f 7c7e 9fbf 01d4 15c1 7c24 eebd
00000360: 5eed 7fc0 3fb8 54c1 6174 0cc0 0ae8 1d3f
00000370: 4a93 d1be 4e95 4e40 8e0e 873f ae59 36be
00000380: cd96 633f 1a64 18be 6c8d a63f 3102 82bf
00000390: 86fc 3dbf 19d1 283c 0f6b bb3e 8639 3fbe
000003a0: b2d8 12bf 2f12 dfc0 591e 8f3f fe1e 8fbe
000003b0: 7cb5 1a3f 2e0a 703e 785f 6e3f ea5c e4bf
000003c0: 5a60 a5be fc1b 613f eb5b 76be d4d2 873f
000003d0: 456f 94be 4352 49be 8580 aabc 929e 03c0
000003e0: 2e3a b03d 6255 213e 1c22 1abe b894 e73f
000003f0: ccd0 a3c0 7fc9 a3bf b15e 2bbf bc18 2cbf
-0.027179115 0.19047816 0.39963096 -0.28267962 -0.08267162 -0.087820545 -0.24793918 -0.28644794
-0.38400668 0.36897314 -0.10831793 -0.052689224 -0.11373534 -0.2781944 0.10562823 -0.1515039
-0.08298755 -0.45026207 0.11776811 0.06821947 0.17919 0.171706 0.4000803 -0.050049607
0.06710392 -0.2272094 0.12295892 -0.36678064 0.2841459 -0.53087306 0.1270361 -0.2486815
-0.23195675 -0.13251352 0.20570779 -0.18680762 0.06729055 -0.22228871 0.50145036 0.12192331
-0.038311724 0.13248906 -0.18547569 -0.21671797 0.026726719 -0.05189617 -0.18537973 -0.401499
0.07817843 -0.23156019 -0.25143686 0.06727414 -0.29866436 -0.25781608 0.04602333 0.3679293
0.23476516 -0.23613049 0.33568925 0.117093734 -0.20143166 0.4288782 -0.36696565 -0.16849999
-0.40593687 -0.25652093 -0.25182873 0.12985668 0.41445556 -0.22423567 -0.10426461 0.07333436
-6.955536e-05 -0.50712436 -0.07569683 -0.112804316 -0.24599226 -0.10878794 -0.055551816 0.043192703
-0.48001328 -0.6226666 0.08257291 0.25943953 0.13436207 -0.31094646 0.28365996 -0.09743479
-0.6886696 -0.14053121 -0.06977806 0.13727276 -0.2773133 -0.111467615 0.008218109 -0.1867258
-0.20981248 -0.37389582 0.074935876 -0.4618296 -0.24338542 -1.1189895 -1.241144 -1.0657117
0.19004332 -1.1674616 -0.051196363 0.104978085 -0.7567276 1.0020875 -1.0777377 -0.07839233
1.4434483 -0.92392194 -8.422925 -0.32614878 -2.9997087 -6.1891537 -2.1578598 0.9819067
-0.24758863 1.2276901 -0.030705728 -0.080535375 0.04763205 0.53986835 -0.029428482 0.72743475
-2.3751733 0.025336504 -1.1652601 -0.3369394 -0.3993641 -2.3803828 0.7752332 -0.2949119
0.52896214 1.3735083 0.78559685 -0.32929385 -0.54200745 0.8704427 -0.62796617 0.6173641
-0.2981734 -0.15524621 0.04042484 -0.07143319 0.13992469 -0.17934793 -0.1352529 1.4172941
-1.6572014 0.3988787 -0.6492717 0.18066613 -0.698993 -1.3085907 1.1126225 0.7405434
0.45132655 0.9663658 -1.6163591 -0.14471596 1.3643577 -0.8485409 -0.33217478 -0.026319768
0.54608464 -0.20907608 -1.0706544 0.28613627 -1.0822029 -0.035068844 -0.18043396 -1.0826975
-0.9922419 -2.237315 -0.10151476 1.5805019 -4.9939227 0.5043358 -1.1438862 1.5108362
1.1095197 -0.24412924 -0.96170974 0.9134376 -1.5007172 -0.32568383 -0.27253726 -0.38640574
0.32689524 -0.6599129 -2.9753823 0.73844004 0.1451651 -0.2302077 0.7868339 -0.45897278
-0.45870423 -1.1248151 -3.1916866 -1.4039584 -0.92047405 -1.2201881 -0.1967027 0.06374896
-1.0024618 0.8920576 -5.440388 -1.4729297 1.7292656 -1.2460475 -9.364259 -0.116280526
-3.9988627 -13.294982 -2.1946032 0.6168219 -0.40932685 3.2278628 1.0551317 -0.17807648
0.8890198 -0.14881936 1.3011909 -1.0156919 -0.74213445 0.010303759 0.36605117 -0.18674287
-0.573619 -6.9709697 1.1181136 -0.27953333 0.60433173 0.23441383 0.93114424 -1.7840855
-0.32300073 0.87933326 -0.24058501 1.0611215 -0.28991142 -0.19660287 -0.020813236 -2.0565534
0.08604847 0.15755227 -0.15052074 1.809226 -5.119238 -1.2795867 -0.6694136 -0.6722524

linears.2.bias f4 [100]
00000000: 214b 99be 506a 46bf 9931 99bf 54ff e6be
00000010: 1a37 233e 5b31 573d c025 5abe 7fec 83be
00000020: 00a9 913e b835 b9bd 46f2 aebe d57b 85be
00000030: 5fcd 1cbe 160f 0cbc d619 e6bd b186 81be
00000040: e424 d9bd 84fc 6ebe e4a4 84be 79b6 72be
00000050: 2e7a 98be 9f8c 80be bc01 8cbe 59d3 f0be
00000060: 763a 97be a2ad c8be 73b1 61be 3475 ea3e
00000070: 2b86 86be 0607 fcbb 182e 79be dbaa aabc
00000080: 844c 15be 3389 9bbd 713e 523c 3a00 c33e
00000090: b708 9ebe 5c9b 1cbc 2e52 a6be ce3d cc3d
000000a0: 0de0 b53e c9d0 5fbf 6e83 40bf a938 7ebf
000000b0: d173 8cbe b568 6ebe 4a7f 7cbe ad10 54be
000000c0: 1c81 19bf 4df6 a6be 01c7 19be e7de 54be
000000d0: 3141 94be e3f7 53be 7841 44bd cada 10be
000000e0: 61b1 163d a21e 1bbe 64e0 01bf 374c d1be
000000f0: 218f b2bd 0774 8b3d 5976 c5be 1999 35be
00000100: 2f7a 7bbe 63f4 4cbf 81ef 0b3d dc67 64bf
00000110: 5ce6 54bf c559 5bbf 881f 4cbe 7387 91be
00000120: 5968 d4be 0196 2cbe 94b3 42be 8689 b2be
00000130: 8987 7ebe 5221 6bbe 75fc 9cbe 4735 0bc0
00000140: 729b cdbe 5a20 2bbd 4b77 24be 49b7 a9be
00000150: d7e8 b9be 6901 4cbe be58 bcbe 31ab ccbe
00000160: d1b2 a73d 27f4 14bf 05f0 04bc c0ca 89be
00000170: 8913 9ebd 7d85 b7be 9940 2ebe 5601 9dbe
00000180: 5d0b 84bf 7828 4fbe d7fc 04bf ab62 e7be
-0.2994013 -0.7750597 -1.1968261 -0.45116675 0.15938988 0.052537303 -0.21303463 -0.2576637
0.2844925 -0.09043449 -0.34169215 -0.2607104 -0.15312718 -0.008548519 -0.112353966 -0.25298074
-0.106027395 -0.23338515 -0.25907052 -0.2370242 -0.29780716 -0.25107285 -0.27345073 -0.47036245
-0.2953679 -0.3919497 -0.22040348 0.45792544 -0.26274237 -0.007691267 -0.2433399 -0.020833423
-0.1457997 -0.07594528 0.01283227 0.3808611 -0.30866024 -0.009558525 -0.32484573 0.09972726
0.355225 -0.87427956 -0.75200546 -0.99305207 -0.2743211 -0.2328213 -0.24657932 -0.20709486
-0.5996263 -0.32609788 -0.1501732 -0.20788155 -0.28955987 -0.2070003 -0.047914 -0.14145961
0.036790255 -0.15148404 -0.5073302 -0.4087846 -0.08718706 0.0680924 -0.38566855 -0.17734183
-0.24558328 -0.80060405 0.034163956 -0.89220977 -0.83164 -0.8568385 -0.19933903 -0.28423652
-0.4148586 -0.16854097 -0.19013816 -0.34870547 -0.2485639 -0.2296193 -0.3066136 -2.1751268
-0.40157658 -0.0417789 -0.16061132 -0.33147648 -0.36310455 -0.19922413 -0.36786455 -0.3997436
0.081884034 -0.58185047 -0.008113866 -0.26912498 -0.0771857 -0.3584403 -0.1701683 -0.30665082
-1.0315968 -0.20230281 -0.51948303 -0.45192465

linears.3.weight f4 [5, 100]
00000000: 2170 85be 5111 21be 43c1 12be 0f8e e9be
00000010: 6c86 493e 70f2 5bbd 8687 20be 76dc 6fbe
00000020: ed25 383d 1865 0ebe 02d2 fb39 890c 94be
00000030: 23f5 3bbf 5eee 4cbe 34d0 623f 3237 86be
00000040: 4041 313f c804 64bf c799 90be 204f a3bd
00000050: aa69 30bf 82f4 73c0 8422 18be 3ed8 8dbf
00000060: 61b4 4cbe b16c c1be b651 69be 1f4f bf3d
00000070: e49e 97be 3201 9cbd 26b8 5bbe 5792 b2bf
00000080: 62cb 98be 0382 8bbf d989 cdbe d799 023f
00000090: c822 45be 2fab ef3c cbbb b2be 492c 863d
000000a0: da74 66bd e0ac b63f 123b 22bd 6009 cc3e
000000b0: 6846 a6be 302a 92be 693e cd3d d6d3 97be
000000c0: 6597 60bd 24fd c1bd 9746 98be 5341 c4bd
000000d0: 1691 f8bf 0b4f 5cbf c956 87be 6b64 693f
000000e0: 1080 123d 2cb6 a2be 5e7e 87bd 5210 68be
000000f0: 80a2 27bd b414 063d 7d9a 29bd e680 eabd
00000100: 2bd7 29bf 39d2 d83e bf50 313f 5021 9e3c
00000110: e16b 0440 da25 823f 1d30 63bf 9c0c 2dbe
00000120: 5944 05be f902 05bd 510b a7bc 2518 3ebd
00000130: ea99 68be 731b 44be 2829 46bf 9bb6 b93c
00000140: 6f13 14be 089a 12bd 41c2 c4be 7173 1a3e
00000150: 8b54 0abe cc85 703b f057 fbbd 06ed 8ebd
00000160: 3f31 953b 824a 00be 4cb9 0f3e 7e4f c1be
00000170: d9bc b63d d54d 0cbd 793c 16be fa9a 053e
00000180: 5822 22bd 9d9e 97be 93d7 66bd ff16 bbbe
00000190: 585b 7f3b 0581 4fbb 26d8 b63b 8936 cbbd
000001a0: 1695 b1bb 0740 c936 4358 80be ee19 7ebe
000001b0: 7079 eeb8 b7d1 97bc 686c 84b7 f529 7fbe
000001c0: 6f6f 8ebe 5b21 7c3c 93e1 053b 2872 99be
000001d0: a300 4bbc a35c 5fbe 7431 90be 30a5 54b9
000001e0: 8f2a 6ebe 6ae4 cf3c b65c 97be 1add 873c
000001f0: 9d66 90be 756d 0a3d b28e ef3c 1e97 9339
00000200: d874 8fbe df12 57bc 942b 8cbe 6ad8 d5bb
00000210: 2afa 8fbe 395b 023c 8ca1 46bc df58 483b
00000220: e49d b3be 74ae 8838 68dd 8cbe 4370 713c
00000230: ecfe ab37 f61e 923b 44e3 ea35 8902 14bd
00000240: a4ac 8ebe 7297 99be 404c c9b9 8cfb 9cbe
00000250: 1a3b 7d3a 5b23 64ba 94e3 98be 212d 85be
00000260: 61cf 003c de91 8cbe ac31 92be a61b 54bc
00000270: e3fc 92bd a69a c1bd f03d e93b 83c3 2c3c
00000280: 65b8 163b f809 9539 f70a c93c 47c4 10b9
00000290: ce61 77be e438 17b8 5004 6ebc 4766 d735
000002a0: 59c7 6439 1af0 48bc 9faa 98be 791b 94be
000002b0: 2549 a8be 1354 6db8 9207 3a3b e4ca 2fbe
000002c0: 6f7b 89be 99e5 97be 6353 eab9 9bce 7a39
000002d0: 045a a9ba 05e3 a4b8 2e03 a13b b8bc 91ba
000002e0: 0600 b43c 7a99 fabd bd16 05be a26d 1fbb
000002f0: 5be5 4dbb 1edf 8cbd e754 e03c 0ba1 8cbe
00000300: 0bcb 093d 2603 cb3c d641 78be 0922 63ba
00000310: ac62 efb8 9a33 99be c96b 99b7 b6d0 92bd
00000320: 9e90 193e 94fc 673f f85c 4140 d0a6 233f
00000330: 9aa7 043e da18 cabf 845a 15be e100 90be
00000340: 14a0 4740 1095 8440 aa57 eb3f 11d4 00bf
00000350: 81b5 933d 5737 d5bf b966 cc40 933f f9be
00000360: 6db7 58c0 41f9 3d3f 4d8a 0bbf a893 fbbf
00000370: 40f5 4abf 67bb 5fbd 3e16 04bf e5db ef40
00000380: 21fe 64be 65d9 1ac0 78d1 f3bd 5624 3640
00000390: 6298 67be b580 06c0 cd06 8fbe 203b 5140
000003a0: f1a1 d4be c4a2 6d3d c10f be3f 370b 8d40
000003b0: c8aa c5be e828 d53f 528d aebe d12b 143f
000003c0: 264c 0fc0 0b6f 1e40 6a75 a841 f3a6 9d3f
000003d0: c960 07bf b39f 82be 189f dfc0 dc0e debe
000003e0: db0b 8fbf 7b05 013f 2c89 ecbe d68a 11bf
000003f0: ba50 00c0 e01b 7b3d 66df f9be f183 2c3e
-0.2606211 -0.15729262 -0.14331536 -0.45616195 0.19680184 -0.053698003 -0.15676698 -0.23423943
0.044958044 -0.13905752 0.0004803092 -0.28915814 -0.73420924 -0.20012805 0.8859894 -0.26213986
0.6924019 -0.89069796 -0.28242323 -0.07974076 -0.6891123 -3.8117986 -0.14856917 -1.1081617
-0.19990684 -0.37778237 -0.22785076 0.09341263 -0.2961341 -0.076174155 -0.21456966 -1.3950909
-0.2984267 -1.0899051 -0.40144232 0.5101599 -0.19251549 0.029256431 -0.349089 0.065514155
-0.056263782 1.4271507 -0.039607115 0.39850903 -0.3247559 -0.28547812 0.100216694 -0.29653805
-0.05483188 -0.09472111 -0.29741356 -0.09582772 -1.9419277 -0.8605811 -0.264334 0.9116885
0.03576666 -0.3177961 -0.066158995 -0.22662476 -0.040926456 0.032734588 -0.041407097 -0.11450367
-0.66343945 0.42347887 0.69263834 0.019302994 2.0690844 1.0167801 -0.8874529 -0.16899341
-0.13014354 -0.032473538 -0.020391138 -0.046409745 -0.22714964 -0.19151096 -0.7740655 0.02267008
-0.14460538 -0.035791427 -0.38429454 0.150831 -0.13508813 0.0036700843 -0.12272632 -0.069788024
0.0045529897 -0.12528422 0.14035529 -0.3775596 0.089227386 -0.034253914 -0.14671506 0.130474
-0.039583534 -0.296132 -0.05635793 -0.36540982 0.0038964357 -0.0031662595 0.005579966 -0.09922511
-0.0054193838 5.9977206e-06 -0.25067338 -0.24814579 -0.00011371344 -0.018532617 -1.5786107e-05 -0.24918349
-0.27819392 0.015388812 0.0020428642 -0.29969907 -0.0123902885 -0.21812682 -0.2816273 -0.00020279433
-0.23258422 0.025377471 -0.2956292 0.016584922 -0.28203288 0.033795793 0.029242847 0.00028150616
-0.28018832 -0.013127058 -0.27376997 -0.0065260427 -0.28120548 0.0079563195 -0.012123477 0.003057055
-0.35081398 6.51748e-05 -0.2751267 0.014736238 2.0503496e-05 0.0044592572 1.7500502e-06 -0.03613523
-0.2786609 -0.29998356 -0.00038394518 -0.30660665 0.0009659991 -0.0008702778 -0.29861128 -0.26010993
0.007861943 -0.27455038 -0.28553522 -0.012946045 -0.071771406 -0.09453325 0.007117979 0.0105446605
0.0022998091 0.00028426922 0.024541361 -0.00013806029 -0.24158403 -3.605419e-05 -0.014527395 1.6048515e-06
0.00021818037 -0.012264276 -0.29817674 -0.2892721 -0.32868305 -5.6583503e-05 0.002838586 -0.1716724
-0.26851985 -0.29667357 -0.00044694086 0.00023918824 -0.0012920504 -7.862415e-05 0.004913709 -0.0011118865
0.021972667 -0.122363046 -0.12996955 -0.002432682 -0.0031417224 -0.06878494 0.027384235 -0.27466616
0.033640902 0.024781775 -0.24243864 -0.00086644344 -0.00011414787 -0.2992218 -1.8289213e-05 -0.07168715
0.14996573 0.9061978 3.0212994 0.6392641 0.1295456 -1.5788834 -0.1458531 -0.2812567
3.1191454 4.143196 1.8386128 -0.5032359 0.072123535 -1.6657513 6.3875394 -0.48681316
-3.3861954 0.74208456 -0.54507905 -1.9654436 -0.7928047 -0.05462208 -0.5159644 7.4955926
-0.22362567 -2.4195187 -0.11905187 2.8459678 -0.22616723 -2.1016057 -0.27934876 3.2692337
-0.415298 0.058016554 1.4848558 4.407619 -0.38606858 1.6653109 -0.34092194 0.5787936
-2.2390227 2.4755275 21.057331 1.2316574 -0.5288206 -0.25512466 -6.9881706 -0.43370712
-1.1175493 0.5039899 -0.46198404 -0.5685247 -2.0049272 0.06130588 -0.48803252 0.16847207

linears.3.bias f4 [5]
00000000: 3e4e adbc b06d e9bb 28c6 543e 89a2 64be
00000010: d514 59bb
-0.021155473 -0.0071236715 0.20778716 -0.22327627 -0.003312399

exp_avg f4 [100, 6]
00000000: 9681 80b1 c981 80b1 e680 00b2 27c3 40b2
00000010: 8281 80b2 b7a1 a0b2 07dd afaf e5d7 afaf
00000020: 67d8 2fb0 16e9 83b0 c2d4 afb0 50e0 dbb0
00000030: 1c77 3032 e976 3032 1177 b032 1859 0433
00000040: c176 3033 8594 5c33 302c 7431 3d2c 7431
00000050: ab2b f431 2623 3732 892c 7432 369c 9832
00000060: b8ab b031 eeab b031 2dac 3032 6881 8432
00000070: 16ac b032 a7d7 dc32 704f 07b2 804f 07b2
00000080: 7d4f 87b2 68f7 cab2 a54f 07b3 6223 29b3
00000090: 243d 3fb2 aa3c 3fb2 a23c bfb2 bf6d 0fb3
000000a0: 6a3c 3fb3 b30b 6fb3 1e6e e9b1 e26d e9b1
000000b0: 6f6e 69b2 4a12 afb2 da6d e9b2 79e4 11b3
000000c0: 1ae4 0931 7de3 0931 3be4 8931 12d4 ce31
000000d0: 2fe4 0932 805a 2c32 0123 3b32 e322 3b32
000000e0: f222 bb32 295a 0c33 d422 3b33 63eb 6933
000000f0: 03cd 58af 50c6 58af 8aca d8af 116c 22b0
00000100: a3c8 58b0 1868 87b0 c4f1 21b2 bcf1 21b2
00000110: 96f1 a1b2 76eb f2b2 e2f1 21b3 1e6e 4ab3
00000120: 4af6 acaf ddf7 acaf a2f6 2cb0 dcbc 81b0
00000130: e5ee acb0 a521 d8b0 d858 9431 d259 9431
00000140: 7f59 1432 2087 5e32 7f58 9432 b76e b932
00000150: 8841 22b2 7441 22b2 5841 a2b2 b861 f3b2
00000160: 7b41 22b3 12d2 4ab3 2f12 9831 bf11 9831
00000170: 3212 1832 961b 6432 9a12 9832 7615 be32
00000180: 49df 7331 ffdf 7331 8adf f331 1ae9 3632
00000190: 50e0 7332 326b 9832 897d 4b31 287e 4b31
000001a0: 857e cb31 d89d 1832 3b80 4b32 575a 7e32
000001b0: 29f2 9931 59f2 9931 74f2 1932 b3ec 6632
000001c0: 6cf2 9932 6f6f c032 3bfd ac31 70fd ac31
000001d0: 11fd 2c32 30bd 8132 b8fc ac32 923b d832
000001e0: 9253 9231 3f53 9231 0753 1232 4f7d 5b32
000001f0: d752 9232 15e7 b632 41f2 0eb2 99f2 0eb2
00000200: 9ff2 8eb2 b76c d6b2 ddf2 0eb3 77af 32b3
00000210: 86dc 46b2 8bdc 46b2 4edc c6b2 5425 15b3
00000220: 14dd 46b3 b293 78b3 7335 9031 a535 9031
00000230: cf35 1032 0d4f 5832 0536 9032 8143 b432
00000240: 9086 f331 8286 f331 1f86 7332 baa5 b632
00000250: c486 f332 fd33 1833 9a79 8b31 4f79 8b31
00000260: 3979 0b32 e836 5132 f579 8b32 ae58 ae32
00000270: 0d70 b831 a16f b831 0f71 3832 1b54 8a32
00000280: d470 b832 c08c e632 b1cc b231 a2cc b231
00000290: 21cd 3232 e719 8632 c7cc b232 bc80 df32
000002a0: 34ca 3932 68ca 3932 6cca b932 d357 0b33
000002b0: 75ca 3933 c43c 6833 d7c6 2fb1 51c6 2fb1
000002c0: 27c6 afb1 7dd2 03b2 72c5 2fb2 ebb5 5bb2
000002d0: bcb1 47b1 4fb1 47b1 2fb1 c7b1 81c6 15b2
000002e0: ccb2 47b2 e89c 79b2 fe21 e431 0f22 e431
000002f0: 5c22 6432 621a ab32 c321 e432 2f95 0e33
00000300: fc04 feb1 aa04 feb1 5505 7eb2 0684 beb2
00000310: 2105 feb2 79c1 1eb3 10c3 4e32 33c3 4e32
00000320: 9ac3 ce32 2d12 1b33 92c3 4e33 e239 8133
00000330: 5db0 1b31 a9af 1b31 8cae 9b31 b386 e931
00000340: b7ae 1b32 b79b 4232 d5c3 c031 1cc4 c031
00000350: b1c3 4032 0593 9032 efc3 c032 69f3 f032
00000360: 32b0 0f32 40b0 0f32 d7af 8f32 0889 d732
00000370: 8ab0 0f33 839c 3333 2559 f3b0 7e5b f3b0
00000380: fb58 73b1 8285 b6b1 2953 f3b1 de1c 18b2
00000390: c29c 5d32 a99c 5d32 699c dd32 ca34 2633
000003a0: 5a9c 5d33 0c82 8a33 1ee1 9a31 f6e0 9a31
000003b0: cfe0 1a32 b34f 6832 14e1 9a32 b498 c132
000003c0: 9451 7ab1 f951 7ab1 c851 fab1 dbbc 3bb2
000003d0: fa50 7ab2 b574 9cb2 049e 8431 719e 8431
000003e0: bf9e 0432 f3eb 4632 049f 8432 40c5 a532
000003f0: b729 b831 f029 b831 202a 3832 3e1f 8a32
-3.7400225e-09 -3.740045e-09 -7.479889e-09 -1.1220243e-08 -1.4960055e-08 -1.8699991e-08 -3.1989364e-10 -3.1985717e-10
-6.3972155e-10 -9.597751e-10 -1.2793395e-09 -1.5998101e-09 1.0271631e-08 1.0271585e-08 2.0543242e-08 3.0814675e-08
4.10862e-08 5.135782e-08 3.553179e-09 3.553182e-09 7.106299e-09 1.0659994e-08 1.4212795e-08 1.7766165e-08
5.1417963e-09 5.1418203e-09 1.0283697e-08 1.542567e-08 2.0567352e-08 2.5709438e-08 -7.876096e-09 -7.87611e-09
-1.5752216e-08 -2.3628402e-08 -3.1504573e-08 -3.938056e-08 -1.1131565e-08 -1.1131457e-08 -2.2262899e-08 -3.3394596e-08
-4.45256e-08 -5.5657164e-08 -6.7937114e-09 -6.7936847e-09 -1.3587495e-08 -2.0380998e-08 -2.7174725e-08 -3.3968238e-08
2.0065785e-09 2.0065436e-09 4.0131716e-09 6.0194987e-09 8.0263325e-09 1.0032295e-08 1.0892792e-08 1.0892765e-08
2.1785556e-08 3.267829e-08 4.3571006e-08 5.4463623e-08 -1.971792e-10 -1.971554e-10 -3.9434084e-10 -5.908883e-10
-7.8865464e-10 -9.852128e-10 -9.4264045e-09 -9.426397e-09 -1.8852727e-08 -2.8279583e-08 -3.7705725e-08 -4.713194e-08
-3.1461617e-10 -3.1462735e-10 -6.292372e-10 -9.439662e-10 -1.2582545e-09 -1.5725631e-09 4.3174673e-09 4.3175783e-09
8.635083e-09 1.2952825e-08 1.7269711e-08 2.1587182e-08 -9.444541e-09 -9.444523e-09 -1.8888997e-08 -2.833336e-08
-3.777812e-08 -4.7222848e-08 4.4258495e-09 4.4257997e-09 8.851702e-09 1.3277619e-08 1.7703588e-08 2.212867e-08
3.5488077e-09 3.548848e-09 7.0976443e-09 1.06467954e-08 1.4195464e-08 1.7743876e-08 2.9611746e-09 2.96121e-09
5.922461e-09 8.883454e-09 1.1845311e-08 1.4805287e-08 4.4804165e-09 4.480438e-09 8.9609e-09 1.3441581e-08
1.7921785e-08 2.2402416e-08 5.034648e-09 5.0346713e-09 1.0069258e-08 1.5103609e-08 2.0138359e-08 2.5172799e-08
4.25866e-09 4.2586232e-09 8.517197e-09 1.277597e-08 1.7034308e-08 2.1292673e-08 -8.32057e-09 -8.320648e-09
-1.6641307e-08 -2.4962317e-08 -3.3282834e-08 -4.160344e-08 -1.1575258e-08 -1.15752625e-08 -2.3150417e-08 -3.4725716e-08
-4.6301537e-08 -5.7876328e-08 4.197028e-09 4.1970503e-09 8.394138e-09 1.2590829e-08 1.6788372e-08 2.0985455e-08
7.087529e-09 7.0875226e-09 1.4174957e-08 2.1262952e-08 2.8350208e-08 3.543754e-08 4.059257e-09 4.0592236e-09
8.118428e-09 1.2177885e-08 1.623719e-08 2.0296593e-08 5.3678435e-09 5.3677955e-09 1.0735916e-08 1.6103561e-08
2.1471728e-08 2.683953e-08 5.2037525e-09 5.203746e-09 1.0407605e-08 1.5611432e-08 2.081505e-08 2.6019158e-08
1.0814393e-08 1.0814439e-08 2.1628885e-08 3.2443335e-08 4.3257803e-08 5.4071975e-08 -2.557888e-09 -2.5578581e-09
-5.1156976e-09 -7.673063e-09 -1.02312345e-08 -1.2788841e-08 -2.9059342e-09 -2.90591e-09 -5.8118057e-09 -8.718076e-09
-1.1623978e-08 -1.4529384e-08 6.639538e-09 6.6395454e-09 1.3279159e-08 1.9919018e-08 2.6558046e-08 3.3197633e-08
-7.3929396e-09 -7.392903e-09 -1.4785958e-08 -2.2178948e-08 -2.9571824e-08 -3.6963204e-08 1.203513e-08 1.2035161e-08
2.4070506e-08 3.610528e-08 4.8140983e-08 6.0175594e-08 2.265572e-09 2.265532e-09 4.5309374e-09 6.796506e-09
9.061913e-09 1.1327692e-08 5.610199e-09 5.6102305e-09 1.1220366e-08 1.6830663e-08 2.2440842e-08 2.8050367e-08
8.363758e-09 8.36377e-09 1.6727354e-08 2.5091609e-08 3.3455343e-08 4.1819032e-08 -1.7705913e-09 -1.7706581e-09
-3.5411734e-09 -5.3120752e-09 -7.081685e-09 -8.854128e-09 1.2899536e-08 1.28995135e-08 2.5798913e-08 3.8697898e-08
5.1597773e-08 6.449781e-08 4.5075828e-09 4.507565e-09 9.015095e-09 1.3522299e-08 1.8030313e-08 2.2537598e-08
-3.642616e-09 -3.6426384e-09 -7.285255e-09 -1.0927773e-08 -1.4570327e-08 -1.8213862e-08 3.85967e-09 3.8597183e-09
7.719506e-09 1.15787655e-08 1.5439134e-08 1.9298227e-08 5.3598472e-09 5.3598725e-09 1.0719788e-08 1.6079522e-08

exp_avg_sq f4 [100, 6]
00000000: 53dc 8f29 50dc 8f29 4adc 8f2a cbd7 212b
00000010: 32dc 8f2b f0c7 e02b dfd7 3429 e2d7 3429
00000020: e1d7 342a d472 cb2a dad7 342b 9648 8d2b
00000030: 0115 8b2a 0115 8b2a ff14 8b2b 7f77 1c2c
00000040: fc14 8b2c b450 d92c 347c a428 347c a428
00000050: 2d7c a429 b30b 392a 0d7c a42a e280 002b
00000060: 267c 5b29 217c 5b29 167c 5b2a 86eb f62a
00000070: fa7b 5b2b d778 ab2b bf79 e929 bf79 e929
00000080: bf79 e92a 7854 832b b279 e92b 1167 362c
00000090: 3026 642a 3026 642a 2c26 642b 7055 002c
000000a0: 1226 642c ab3d b22c 85c6 812a 85c6 812a
000000b0: 84c6 812b 56ff 112c 75c6 812c 2cc6 ca2c
000000c0: 1291 f828 0e91 f828 0491 f829 82d1 8b2a
000000d0: db90 f82a 0a31 422b 8f65 8a2a 8f65 8a2a
000000e0: 8b65 8a2b 42b2 1b2c 8865 8a2c a23e d82c
000000f0: 84bf 8d29 81bf 8d29 7bbf 8d2a 5a77 1f2b
00000100: 63bf 8d2b 0c7b dd2b dac8 1c2a d9c8 1c2a
00000110: d6c8 1c2b ee61 b02b cdc8 1c2c caf9 742c
00000120: a8a1 2229 a7a1 2229 aba1 222a d6f5 b62a
00000130: a5a1 222b 661c 7e2b 65db 1b2b 65db 1b2b
00000140: 64db 1b2c d256 af2c 5adb 1b2d bc86 732d
00000150: 46d7 472a 44d7 472a 43d7 472b 27d2 e02b
00000160: 3ad7 472c 1d20 9c2c 791c a229 761c a229
00000170: 711c a22a f45f 362b 5c1c a22b 404c fd2b
00000180: ec6f 3d29 e96f 3d29 e56f 3d2a d61d d52a
00000190: c96f 3d2b 28ff 932b 699c e32a 699c e32a
000001a0: 669c e32b ee07 802c 519c e32c 26d2 312d
000001b0: 0e58 9629 0c58 9629 0a58 962a 0823 292b
000001c0: f557 962b 7ae9 ea2b 462a 7f29 402a 7f29
000001d0: 342a 7f2a bc87 0f2b 0f2a 7f2b be58 c72b
000001e0: e125 2229 df25 2229 d825 222a 866a b62a
000001f0: c725 222b d65a 7d2b a705 862a a505 862a
00000200: a205 862b 4cc6 162c 9705 862c b068 d12c
00000210: 009b 742a fe9a 742a fa9a 742b 1a97 092c
00000220: e39a 742c d018 bf2c 25c3 e328 25c3 e328
00000230: 12c3 e329 b51d 802a eec2 e32a 30f0 312b
00000240: 96bb 412a 96bb 412a 91bb 412b 0bf3 d92b
00000250: 80bb 412c 8f5a 972c ebf9 5829 e9f9 5829
00000260: e2f9 582a 3719 f42a cff9 582b 1f83 a92b
00000270: 59a1 0c2b 5ca1 0c2b 58a1 0c2c 7235 9e2c
00000280: 51a1 0c2d 04bc 5b2d 808d 5c29 7e8d 5c29
00000290: 7a8d 5c2a 031f f82a 568d 5c2b 534e ac2b
000002a0: 94e9 6d2a 93e9 6d2a 91e9 6d2b 57d3 052c
000002b0: 88e9 6d2c 57de b92c 3b30 d429 3b30 d429
000002c0: 3930 d42a 41b6 6e2b 3630 d42b 9cc5 252c
000002d0: d909 8129 d609 8129 d709 812a 2f2b 112b
000002e0: ce09 812b 5b9f c92b ed9a fa29 ed9a fa29
000002f0: e79a fa2a 3df7 8c2b dd9a fa2b f0c8 432c
00000300: ac29 412a aa29 412a a529 412b cb4e d92b
00000310: 9729 412c 72e8 962c e766 de2a e766 de2a
00000320: e566 de2b bd33 7a2c de66 de2c 4cc0 2d2d
00000330: e737 8829 e437 8829 e237 882a e63e 192b
00000340: d837 882b 4ad7 d42b 0647 7429 0147 7429
00000350: fe46 742a df67 092b d846 742b 50d7 be2b
00000360: 9e21 802a 9d21 802a 9e21 802b cb25 102c
00000370: 9621 802c 7234 c82c 9f14 142b 9f14 142b
00000380: a114 142c 3697 a62c 9114 142d 2b60 672d
00000390: 11f4 f82a 0df4 f82a 0df4 f82b 4309 8c2c
000003a0: 05f4 f82c 987e 422d f5e7 3c29 f0e7 3c29
000003b0: e6e7 3c2a e084 d42a d0e7 3c2b 1495 932b
000003c0: f916 6f29 f716 6f29 f216 6f2a d87c 062b
000003d0: c316 6f2b b2c9 ba2b 97b1 3629 97b1 3629
000003e0: 92b1 362a b687 cd2a 79b1 362b 97ba 8e2b
000003f0: 562d 8b29 532d 8b29 522d 8b2a fd92 1c2b
6.388696e-14 6.388694e-14 2.555476e-13 5.7498163e-13 1.0221878e-12 1.5971651e-12 4.0155267e-14 4.0155277e-14
1.606211e-13 3.6139722e-13 6.42484e-13 1.0038799e-12 2.4705934e-13 2.4705934e-13 9.882372e-13 2.2235267e-12
3.9529473e-12 6.176471e-12 1.8261522e-14 1.8261522e-14 7.304604e-14 1.643536e-13 2.921833e-13 4.5653596e-13
4.873545e-14 4.8735433e-14 1.9494158e-13 4.3861805e-13 7.797648e-13 1.2183821e-12 1.0368398e-13 1.0368398e-13
4.1473593e-13 9.331555e-13 1.6589423e-12 2.592097e-12 2.0263717e-13 2.0263717e-13 8.1054846e-13 1.8237321e-12
3.2421882e-12 5.065911e-12 2.3052754e-13 2.3052754e-13 9.2211e-13 2.074748e-12 3.6884337e-12 5.763187e-12
2.7596445e-14 2.7596438e-14 1.10385686e-13 2.4836735e-13 4.4154163e-13 6.89907e-13 2.4584195e-13 2.4584195e-13
9.833674e-13 2.2125778e-12 3.933468e-12 6.146043e-12 6.2948805e-14 6.2948785e-14 2.5179498e-13 5.665378e-13
1.0071773e-12 1.5737147e-12 1.3925268e-13 1.3925266e-13 5.570105e-13 1.2532733e-12 2.22804e-12 3.4813146e-12
3.611144e-14 3.6111437e-14 1.444458e-13 3.2500277e-13 5.777829e-13 9.027834e-13 5.5371533e-13 5.5371533e-13
2.214861e-12 4.983438e-12 8.859436e-12 1.3842868e-11 1.7749439e-13 1.7749436e-13 7.099774e-13 1.5974486e-12
2.8399076e-12 4.437352e-12 7.1991844e-14 7.1991824e-14 2.8796716e-13 6.479255e-13 1.1518664e-12 1.7997895e-12
4.2063507e-14 4.2063497e-14 1.6825393e-13 3.7857104e-13 6.730142e-13 1.0515798e-12 4.0431832e-13 4.0431832e-13
1.6172729e-12 3.638859e-12 6.4690826e-12 1.01079475e-11 6.676613e-14 6.676612e-14 2.6706442e-13 6.0089477e-13
1.0682554e-12 1.6691503e-12 5.665804e-14 5.665802e-14 2.2663192e-13 5.0992175e-13 9.0652567e-13 1.4164431e-12
3.600408e-14 3.6004074e-14 1.440162e-13 3.240361e-13 5.760639e-13 9.0009716e-13 2.3807104e-13 2.3807098e-13
9.522836e-13 2.142636e-12 3.8091297e-12 5.95176e-12 2.172533e-13 2.1725327e-13 8.6901287e-13 1.955275e-12
3.4760465e-12 5.4313012e-12 2.5286693e-14 2.5286693e-14 1.01146644e-13 2.275798e-13 4.045856e-13 6.321636e-13
1.7206925e-13 1.7206925e-13 6.8827675e-13 1.5486235e-12 2.7531033e-12 4.301732e-12 4.8178404e-14 4.8178397e-14
1.927135e-13 4.3360603e-13 7.7085295e-13 1.2044566e-12 4.9961906e-13 4.996192e-13 1.998476e-12 4.4965637e-12
7.993898e-12 1.2490457e-11 4.8972545e-14 4.8972538e-14 1.958901e-13 4.4075168e-13 7.8355844e-13 1.2243074e-12
2.1130867e-13 2.1130866e-13 8.452345e-13 1.9017754e-12 3.3809362e-12 5.282701e-12 9.423058e-14 9.423058e-14
3.7692226e-13 8.4807514e-13 1.5076887e-12 2.3557606e-12 5.730459e-14 5.730457e-14 2.292183e-13 5.157428e-13
9.168723e-13 1.4326139e-12 1.11291056e-13 1.11291056e-13 4.4516406e-13 1.0016221e-12 1.7806552e-12 2.782271e-12
1.7156301e-13 1.7156299e-13 6.862517e-13 1.5440647e-12 2.7450037e-12 4.289063e-12 3.9506525e-13 3.9506525e-13
1.5802608e-12 3.5555857e-12 6.32104e-12 9.87661e-12 6.049311e-14 6.049309e-14 2.419723e-13 5.444381e-13
9.678881e-13 1.5123261e-12 5.4240487e-14 5.424047e-14 2.1696184e-13 4.881633e-13 8.678453e-13 1.3560073e-12
2.2760694e-13 2.2760691e-13 9.104278e-13 2.048461e-12 3.6417076e-12 5.6901645e-12 5.260878e-13 5.260878e-13
2.1043516e-12 4.7347916e-12 8.417393e-12 1.3152183e-11 4.4223005e-13 4.4222994e-13 1.7689198e-12 3.9800676e-12
7.0756755e-12 1.1055733e-11 4.1945576e-14 4.194556e-14 1.677821e-13 3.7750966e-13 6.711272e-13 1.0486356e-12
5.3088586e-14 5.308858e-14 2.1235425e-13 4.777962e-13 8.4941445e-13 1.3272077e-12 4.0566153e-14 4.0566153e-14
1.6226454e-13 3.6509484e-13 6.490568e-13 1.0141496e-12 6.1807045e-14 6.1807025e-14 2.4722807e-13 5.562632e-13

exp_avg f4 [100]
00000000: 53d3 f3b6 8dbe 4eb7 ca92 ec37 878a 8b36
00000010: f3e5 f036 732e bcb7 1a7a b8b7 7f45 a8b7
00000020: 3016 0f36 5574 e937 1ca5 67b6 9bbc c8b7
00000030: 1649 3fb7 2b7e d037 09ad beb7 2105 de36
00000040: 5b9a 6936 6cac a637 cc8e 2d37 6554 c236
00000050: cc3b f836 942f aeb7 eace bdb7 3a35 b336
00000060: 3bf0 9a37 d3db 1a37 2077 d137 5619 1437
00000070: e565 e337 35b1 92b7 6d27 89b7 5fdf 8437
00000080: c398 91b7 ebe3 1238 b62a 9336 7061 0237
00000090: a37c b937 fcfd d5b7 a786 1d38 5060 b536
000000a0: 40ef a7b6 594e 7f36 2ce3 1437 8b33 6037
000000b0: 330f 0a37 ec11 0b37 0c0d ec37 b4dc 03b7
000000c0: aaa7 cbb7 1f98 bfb7 5ecc 86b6 8071 dc36
000000d0: 18bf 0438 40bd 0137 8c7d cbb7 4c5f df36
000000e0: caf2 b837 ebdd 1db7 38cb 25b7 22ff aab7
000000f0: 72ed 9ab7 289e d137 61db ea37 647a 3db6
00000100: 0dfa 4db7 5584 9f37 873b c836 474e 27b7
00000110: 96ba 1f37 fcdf 8cb7 9e3b 9237 6423 07b6
00000120: efcc 3cb7 59ad bfb7 3d95 0337 7dd1 0838
00000130: c99e c237 6ace 0138 8600 26b7 6568 8ab7
00000140: a08c 1338 2b7c ee37 148d e237 6dd3 c4b7
00000150: 37e1 d237 7968 c0b7 ff3e c836 91da e1b7
00000160: 6244 f2b6 d667 0c37 bc3c 8436 c958 c6b7
00000170: 159c 33b7 99d6 abb7 31b2 27b7 d6dd 86b7
00000180: 0740 f536 fb71 b2b6 d73c dcb7 798c ea36
-7.2665657e-06 -1.2322923e-05 2.8201746e-05 4.1586495e-06 7.179327e-06 -2.2432976e-05 -2.1991367e-05 -2.0059522e-05
2.1321575e-06 2.7829936e-05 -3.4517789e-06 -2.3929684e-05 -1.1401504e-05 2.4854284e-05 -2.273034e-05 6.6167127e-06
3.4809552e-06 1.9869032e-05 1.0344851e-05 5.7914754e-06 7.397937e-06 -2.0764572e-05 -2.2626908e-05 5.340812e-06
1.8470097e-05 9.230297e-06 2.4970213e-05 8.827386e-06 2.7107957e-05 -1.7487075e-05 -1.6350032e-05 1.5839641e-05
-1.7356482e-05 3.5021378e-05 4.3859136e-06 7.77129e-06 2.2111757e-05 -2.550985e-05 3.755712e-05 5.4054326e-06
-5.00484e-06 3.8043565e-06 8.87438e-06 1.3363441e-05 8.22898e-06 8.289218e-06 2.8139468e-05 -7.859595e-06
-2.427756e-05 -2.2839811e-05 -4.0173027e-06 6.569724e-06 3.1649222e-05 7.733062e-06 -2.4257948e-05 6.657012e-06
2.2047567e-05 -9.4095985e-06 -9.882082e-06 -2.0384385e-05 -1.84688e-05 2.4988389e-05 2.799713e-05 -2.8234435e-06
-1.2277172e-05 1.9015899e-05 5.9673944e-06 -9.972201e-06 9.520581e-06 -1.6793601e-05 1.7432318e-05 -2.0137168e-06
-1.1253388e-05 -2.2849696e-05 7.842956e-06 3.2620028e-05 2.3200542e-05 3.0948235e-05 -9.894493e-06 -1.6499494e-05
3.51785e-05 2.8429631e-05 2.7006994e-05 -2.3463474e-05 2.5138825e-05 -2.2936832e-05 5.967798e-06 -2.6923868e-05
-7.220123e-06 8.3688265e-06 3.940977e-06 -2.3644783e-05 -1.0705572e-05 -2.0484718e-05 -9.995464e-06 -1.6077345e-05
7.3090227e-06 -5.3180825e-06 -2.6254374e-05 6.9900966e-06
