TSTE-R/PV-DC-noisy-comparison/Noisy-5%/Proposed_A30_noisy0.05/save_model_0224.ckpt-900000.pt (torch, 265324 bytes, 24 tensors)

linears.0.weight f4 [100, 6]
00000000: 280b a2c0 9f53 a0c0 036b a4c0 d2da abc0
00000010: 1e82 9fc0 7174 a6c0 a0cf 3d41 408b 4241
00000020: 3591 4241 12d4 3f41 3ebe 4341 5eae 4241
00000030: 1205 94c0 a899 92c0 ceeb 93c0 5c51 9ac0
00000040: ff73 99c0 9618 97c0 c365 8640 e4d0 8540
00000050: 4c72 8e40 2d1d 9140 3859 8a40 37d8 8b40
00000060: ff9b b5c0 f355 b9c0 3787 b1c0 a5bc b8c0
00000070: c188 b1c0 afb6 b7c0 615c acc0 aef1 a3c0
00000080: ee5a a6c0 edb6 9dc0 5274 abc0 92f9 a9c0
00000090: 5d52 e4bf 5d00 00c0 33d1 cebf a82b dbbf
000000a0: 4a3a febf dc97 dbbf 2be9 3041 e423 3341
000000b0: 2ce0 3041 5d00 2f41 baea 3041 5dec 2d41
000000c0: 1023 62c0 a1cc 5cc0 ba16 68c0 1845 5fc0
000000d0: b528 5bc0 49f5 61c0 9196 d440 93f0 db40
000000e0: b7a7 d540 b0d0 da40 7e57 de40 392e dd40
000000f0: 47d8 5f41 6b07 6041 390c 5d41 d771 6241
00000100: 2606 5f41 1871 5b41 e281 e5c0 8379 eec0
00000110: fb95 ecc0 fb81 e9c0 d248 e3c0 4b11 edc0
00000120: 6c33 1741 dfd0 1841 06b2 1b41 0312 1c41
00000130: 14ef 1d41 7381 1a41 ecb5 4cc0 d024 45c0
00000140: 1d16 54c0 4859 38c0 35e1 4ac0 38fb 4bc0
00000150: 1843 2541 91ca 2441 ad13 2a41 cbbc 2941
00000160: 14c5 2541 7633 2a41 d5c1 ff40 897a fd40
00000170: 3aed fd40 b9b5 fd40 ea5d ff40 5d19 f740
00000180: b8d4 f4c0 e1a1 f5c0 0282 f0c0 be67 f2c0
00000190: 1538 f7c0 1508 f6c0 cc81 9940 9ec4 9240
000001a0: 354a 9b40 1f41 9340 3b58 9b40 b084 9540
000001b0: 4f9a 9440 445e 9c40 2177 9140 59d0 9840
000001c0: ca15 9440 ccdd 9a40 aa22 e640 3dd4 e240
000001d0: bfcb e540 65bb ea40 214e eb40 b910 e140
000001e0: f8db e140 3d83 e740 9736 df40 1f08 e040
000001f0: 99b2 e740 92a2 e540 c6e1 86c0 6072 87c0
00000200: 27f8 89c0 9f55 85c0 f0f1 90c0 cafe 8dc0
00000210: f2b7 f6c0 b3a8 eec0 5b67 f5c0 e163 fbc0
00000220: de39 f7c0 4e68 edc0 6bf0 1341 3cd5 1841
00000230: e3fb 1341 cad8 1341 f209 1b41 42e1 1941
00000240: 7a96 3e40 f913 4d40 278b 4d40 15fe 4240
00000250: 6cc8 3240 a048 4640 38d7 1841 0c13 1641
00000260: 6fa3 1941 b4a5 1441 85f2 1541 3c08 1a41
00000270: 2650 1241 de83 1141 aff9 1241 7982 1241
00000280: b40e 1141 c1b9 0f41 3125 4740 497f 4e40
00000290: b816 4240 21d5 5b40 b51d 5640 52dd 4e40
000002a0: 31f6 2341 5c0b 2041 69e9 2341 e0cc 2341
000002b0: 5b66 2241 70b0 2441 acab 4fc0 088e 49c0
000002c0: bd66 63c0 9f99 5ec0 37de 4fc0 ced8 57c0
000002d0: 60fd 1d41 c15e 1c41 1ad9 1b41 4f41 1e41
000002e0: 9fe7 1b41 78aa 1a41 0951 ce40 59b3 c940
000002f0: b7db cc40 bfcf cf40 e391 d240 4a7b ce40
00000300: 45f7 d140 675a d840 0277 d140 d979 d740
00000310: bc99 cc40 6d0e db40 c820 2041 c949 1a41
00000320: 8fe8 2041 672b 1c41 746e 1f41 e60a 1c41
00000330: cf02 2041 64cb 1d41 f44d 1e41 11ed 2041
00000340: 674a 1d41 fff5 2241 c4f6 6a40 5d53 6540
00000350: 9fbf 5e40 b516 6040 8c3e 6140 e02b 6740
00000360: c1a4 1841 6ade 1841 c942 1a41 c2ea 1e41
00000370: bcde 1d41 4119 1841 fae0 2341 add0 1e41
00000380: 35f4 2141 c5de 2341 bbdf 2341 1ea8 2541
00000390: 46af 18c1 5102 14c1 bd03 18c1 8a95 18c1
000003a0: 961f 17c1 b16f 19c1 7309 b3c0 79e3 b9c0
000003b0: 50b8 b3c0 b612 b7c0 086f bac0 915a bbc0
000003c0: d411 b4bf dba8 c6bf f8dd b6bf d8c9 cabf
000003d0: f620 bdbf 4437 9fbf 4d43 9b40 6100 9c40
000003e0: c61b 9f40 0e83 9940 d931 9e40 ca03 9e40
000003f0: 2e28 07c1 b024 06c1 7c17 06c1 8039 09c1
-5.063862 -5.0102077 -5.138063 -5.3704615 -4.9846334 -5.201714 11.86319 12.158997
12.160451 11.989275 12.233946 12.16757 -4.625619 -4.581257 -4.6225348 -4.8224316
-4.7954097 -4.721751 4.199922 4.1817493 4.4514523 4.5348115 4.323391 4.3701434
-5.6752925 -5.791742 -5.5477557 -5.773028 -5.5479436 -5.7410502 -5.3862767 -5.123252
-5.1986 -4.92858 -5.3579493 -5.311715 -1.7837635 -2.0000222 -1.6157593 -1.7122698
-1.9861538 -1.7155719 11.056926 11.196262 11.054729 10.937589 11.057306 10.870206
-3.53339 -3.4499896 -3.6263871 -3.4885921 -3.4243596 -3.530596 6.6433797 6.873117
6.676723 6.8379745 6.94818 6.9118924 13.990302 14.001811 13.815484 14.152793
13.939001 13.715111 -7.172105 -7.452333 -7.393308 -7.2971168 -7.102639 -7.408361
9.450054 9.550994 9.730963 9.754397 9.870869 9.656604 -3.1986036 -3.0803719
-3.3138497 -2.8804493 -3.1699955 -3.1872082 10.32888 10.299455 10.629804 10.608592
10.360615 10.637564 7.992411 7.921208 7.9352083 7.928433 7.980214 7.721846
-7.6509666 -7.6760106 -7.51587 -7.575164 -7.725596 -7.6884866 4.7970943 4.586501
4.8528085 4.6016994 4.8545203 4.672447 4.6438365 4.886507 4.545792 4.775433
4.62766 4.839575 7.1917315 7.088408 7.1811213 7.3353753 7.353287 7.0332913
7.0581017 7.2347703 6.975414 7.0009913 7.2405515 7.176095 -4.21506 -4.232712
-4.311542 -4.166702 -4.5295334 -4.437352 -7.7099543 -7.458093 -7.6688666 -7.8559422
-7.725814 -7.4189825 9.246196 9.552059 9.248996 9.240427 9.689928 9.617495
2.9779344 3.204344 3.2116182 3.046758 2.7934828 3.0981827 9.552544 9.37965
9.602401 9.290455 9.371709 9.62701 9.1445675 9.094694 9.185958 9.156854
9.06609 8.98285 3.111645 3.2265189 3.0326366 3.4348834 3.3455632 3.2322583
10.247605 10.002773 10.244485 10.237518 10.149989 10.293076 -3.244853 -3.149294
-3.5531456 -3.4781263 -3.247938 -3.3726077 9.874359 9.773133 9.740503 9.8909445
9.744048 9.666618 6.447392 6.303143 6.4018207 6.4941096 6.5803084 6.45255
6.5614343 6.7610354 6.5457773 6.733624 6.3937664 6.845511 10.008003 9.643014
10.056777 9.760596 9.964466 9.752661 10.000686 9.862156 9.894032 10.057878
9.830665 10.185058 3.6713114 3.583213 3.4804456 3.501386 3.5194426 3.612053
9.540223 9.5543 9.641305 9.932314 9.8668785 9.5061655 10.242426 9.925946
10.122121 10.241887 10.242122 10.353544 -9.542791 -9.250566 -9.500913 -9.536509
-9.445211 -9.589768 -5.5949035 -5.8090177 -5.616249 -5.721034 -5.8260536 -5.8548055
-1.4067941 -1.5520281 -1.428649 -1.5842848 -1.4775684 -1.2438741 4.8519654 4.8750463
4.9721403 4.797248 4.943585 4.9379625 -8.4473095 -8.383957 -8.3807335 -8.576538

linears.0.bias f4 [100]
00000000: 100a f53d 1995 0abd 54cc 003e 3065 93bc
00000010: 23b9 e93d 4339 e33d 6a80 b33d 1efe 93bc
00000020: 7170 d43d 5c44 a6bc 48c5 b4bc 3857 103e
00000030: bd37 78bc 4fb8 353c 09d8 c8bc b030 9f3b
00000040: e652 5e3d f171 00bc 0070 59bc 4487 ebbc
00000050: 8aee 79bc 1700 d13d a63b 1d3e f0ee 91bc
00000060: cbdd 18bc 53e5 88bc bc32 c2bc a831 9fbb
00000070: 5c90 22bc 01e7 713c 0db4 b4bc 33cb bcbc
00000080: 97f0 e6bc c7b4 93bc b200 6bbc 4fc9 41bc
00000090: e053 49bc 3bbc a1bc 87d7 373e 400e ef3d
000000a0: ccea 8d3b 7d0f e4bb 3bd0 813d 1fcf 80bc
000000b0: 7225 9cbb 336a 7dbc 634c 163e 0133 96bc
000000c0: 6ec3 f8bb ffef 06bd 622f bebc 2bc9 88bc
000000d0: 70af da3d a1ef 67bc 57da 0d3e 1e4b d8bc
000000e0: 2aec 06bd b9ce 373d 1801 663f 168d 093e
000000f0: 2094 583d f4c8 0c3d 7650 f0bb 8e75 183e
00000100: 222b 99bc b144 91bc a017 61bc 48df 143e
00000110: d79c 53bc 089e 69bc 0be4 a9bc 9566 63bc
00000120: 9661 e63d 6517 02bd 8709 c63d 830d 053e
00000130: b6b2 9fbc e882 d8bb 09e3 b4bc b8bf 9d3e
00000140: fbb2 133d 028d 4b3d 235a 85bc f391 e13d
00000150: 4fa6 883f 45c2 26bb 848b a6bc 3412 ff3d
00000160: 2b6f ee3d d44e 04bd 23a0 7fbb c082 48bc
00000170: 8bdf dbbc 7ec8 3bbc 0389 023c 5f70 8ebc
00000180: 303d da3d 6b71 453c f514 963e 72f9 2d3d
0.1196481 -0.033833597 0.12577945 -0.017992586 0.11412265 0.11094906 0.087647274 -0.018065508
0.10373009 -0.020296268 -0.022066727 0.14095771 -0.015150008 0.011091306 -0.024517076 0.004858099
0.054278277 -0.007839666 -0.013271332 -0.028751023 -0.015254626 0.10205095 0.15354785 -0.01781413
-0.009330223 -0.016710913 -0.023705833 -0.0048582144 -0.009922113 0.014764548 -0.022058511 -0.023046112
-0.028190894 -0.018030537 -0.0143434275 -0.011827781 -0.012288064 -0.019743076 0.17953311 0.1167264
0.0043309685 -0.006959854 0.06338545 -0.015723763 -0.004765206 -0.015467214 0.14677577 -0.018334867
-0.0075916564 -0.03294372 -0.023215953 -0.016697487 0.10677993 -0.014156253 0.13852821 -0.026403006
-0.032940067 0.04487488 0.8984542 0.13432726 0.052875638 0.03437133 -0.0073338104 0.14888594
-0.018697325 -0.01773295 -0.013738543 0.145383 -0.0129158115 -0.014258869 -0.020738622 -0.013879438
0.11249082 -0.031760592 0.09669786 0.12993436 -0.019494396 -0.006607402 -0.022080915 0.30810332
0.03605936 0.049695022 -0.016278332 0.11014166 1.0675753 -0.0025445384 -0.020330198 0.12454644
0.11642297 -0.03230174 -0.003900536 -0.0122382045 -0.026839992 -0.011461375 0.007967236 -0.017387567
0.10656202 0.012050967 0.29312864 0.042474218

linears.1.weight f4 [100, 100]
00000000: 1699 2c3e 7127 1cbe 9249 2ebc 71db 173c
00000010: a3df 90bd 8cf1 2f3e 2e73 9c3d a0dd 0bbe
00000020: 340d afbd 55c0 14bf 1655 3ebe 1adb fb39
00000030: 0a8c 0cbf 24cc b8be 2c31 f03d acee 0dbf
00000040: 3f1d 2b3d 7723 ecbe 27a6 d3bc aaa3 9fbe
00000050: 0f4f 8bbd cd90 68bd 9942 093e e88f cbbe
00000060: 8e7a 963d 4fd0 dbbe 829b 29be b26b 7a3e
00000070: 7593 07be 9b3c 0cbe 55a9 33be e6b4 e63d
00000080: 94a3 04bf e7b8 acbe b6f1 eabe 7d60 0e3d
00000090: a86c 64be 6efa 99bd 0c42 503d 5d2d 353e
000000a0: 74f7 10bf 9e8a b5be 0128 acbe d02a bcbe
000000b0: 1edd 5bbe ad5a 93be cd24 ab3e 24c6 eebd
000000c0: f4c7 24bf f1b3 c9be 1b15 c9be c594 51be
000000d0: 9f6e 4b3e 548c b9be e653 6a3e 0fba c8be
000000e0: d0ff 93be 6bd8 8e3e c83d f4bc 5ef0 313e
000000f0: f672 b53d d90e e6bb 7212 b2bc 78c6 c93d
00000100: 9df6 84be c310 1a3e 3864 713e b871 b73d
00000110: d436 393e d735 e0be 2297 e7be 96de 8d3e
00000120: 0a7e 1dbd a1e4 02bf 9afa b83b 379f 1d3e
00000130: b980 1dbe e3c1 f33d 254d 0cbd 042c 783e
00000140: 2f09 0c3e d5df a1be 5a5f b83c 8157 9a3d
00000150: e81c 05be 4f5f 10be f879 87be 72d3 c13e
00000160: 71e9 793e 23e8 fcbe 4361 00bf 6da8 3f3d
00000170: c37a 18bf 4623 74be 96d1 b3be 276a a2be
00000180: 1b2f 693e a522 a23d 7214 0abf 0e18 c6be
00000190: bbf1 653e 63ad 0bbe 7673 3c3e 9736 dcbd
000001a0: 05a0 973e c5f6 d33e 26bb 523e c4c5 f9bc
000001b0: 3aa0 583e 98e3 4bbf 6da8 43bd e9b6 c63d
000001c0: 5846 d3be 4ca8 603e e6ac 623a a190 2fbf
000001d0: 11a4 4abe a523 26bf da7d 2e3e 62ca 16be
000001e0: 9b51 85bd 0599 d43d 2efb 8b3e 4f22 44bf
000001f0: c587 a63d 2397 1fbf 40d7 07be ad2f adbd
00000200: ae0c 763d aa61 24bd 8799 38bd 9cd7 8d3d
00000210: b5e3 9fbe a141 0b3e 0690 2abe 106d 8abd
00000220: a485 48be 1270 6e3d 9807 713e af76 0d3f
00000230: 3717 323d 7ff3 4fbf 948d 37be d75d b2bc
00000240: e2e9 2abd f7c6 94be de1d 2d3f 2d75 16be
00000250: 06be 32bf aa60 13bf ccda a33d 436d 493e
00000260: c2c4 c63d 5bc4 233c 756a d43e 7481 c5be
00000270: 54b7 cf3d e459 d43d c4d4 243e 09bb ca3e
00000280: b74b f03d 60ac 6f3d 1545 cf3c 6318 0e3e
00000290: 890a abbe c700 503d 1b3b eb3c b07f b63e
000002a0: 4465 dd3b 8a89 9cbe 9bc4 89be 09e3 81bd
000002b0: f457 5f3e fb9d 07be 742a ba3e 7c06 723e
000002c0: f4e8 58bd 0807 82bd be24 043e 1f42 5c3f
000002d0: ccae 8e3d 8134 ccbd 4c4e 7e3d b629 df3d
000002e0: 92f7 a93e c511 a7be 4742 df3c 3565 003f
000002f0: a3fb 9c3e b608 3cbf 3fb4 10bf 7689 79bd
00000300: a068 e6be fab7 bbbd 5e7c a4be f9b2 aebc
00000310: 9c3e c83e db9e 5f3e 1e26 74bf c508 3a3d
00000320: fb27 1b3f c831 dfbd 7f1a f73e cf2b 233f
00000330: b0f3 4f3f 4d0c e63e 9700 863e 9e00 dcbf
00000340: a287 8a3e fb53 59bf 3c7e a0bf 380c ed3e
00000350: 6103 24c0 ac99 bd3e ea8a 83be 0780 59bf
00000360: 0e08 6a3d 798c 67be a0eb db3d f719 0fbe
00000370: ad21 d5be 365c f83e 5476 4c3f 0488 26c0
00000380: 5590 45be 26b8 06c0 c11f dc3d f9a1 d6bc
00000390: eb6c c1bf 89e3 e3be cb7e 88bf bd1d 233e
000003a0: bacf a4bd b5d9 6bbf fb07 debf b47b 0e3f
000003b0: 40c4 99bf 72d7 a0be 5b46 a63f ef66 233f
000003c0: 367e fa3e 0903 13bf f62e 933e 773e 84bf
000003d0: a647 ba3e f747 00c0 24ca 5a3f d713 1cbf
000003e0: de57 90bf 45ff 2cbf c04e 24be a627 203e
000003f0: 8a8e 113f ae54 b0bf 7756 1c3f 02aa afbe
0.16855273 -0.1524942 -0.010637658 0.0092686275 -0.07073905 0.17181987 0.07639156 -0.13658762
-0.0854744 -0.58105975 -0.18587145 0.00048037694 -0.5490118 -0.36093247 0.11728129 -0.5544231
0.041775938 -0.46120808 -0.025836064 -0.31179553 -0.068021886 -0.056778718 0.13404311 -0.3975823
0.07347594 -0.42932364 -0.16563228 0.24455145 -0.13239844 -0.13694994 -0.17545064 0.112649724
-0.518121 -0.3373482 -0.45887536 0.034759987 -0.22307074 -0.07518469 0.050844237 0.17693086
-0.56627584 -0.3545732 -0.3362427 -0.36751413 -0.21471068 -0.28780118 0.33426514 -0.11658886
-0.64367604 -0.39395097 -0.39273915 -0.20466907 0.19866417 -0.36239874 0.22883567 -0.3920445
-0.28906107 0.2789949 -0.029814616 0.17376849 0.08859818 -0.007020813 -0.021737311 0.09852308
-0.259694 0.15045457 0.23573387 0.08957237 0.18087322 -0.43791077 -0.45232493 0.27708882
-0.03845028 -0.5113011 0.0056451084 0.15392767 -0.15381135 0.11902215 -0.03425326 0.2423554
0.13675378 -0.31616083 0.022506405 0.07536221 -0.12999308 -0.14098857 -0.26460242 0.37856632
0.24405457 -0.49395856 -0.5014841 0.046791483 -0.5956232 -0.23841581 -0.3512084 -0.31721613
0.22771876 0.07916764 -0.5393745 -0.38690227 0.22455494 -0.1364036 0.1840342 -0.107526
0.29614273 0.41399208 0.20579204 -0.03048981 0.21154872 -0.79644156 -0.047768045 0.09702856
-0.41264606 0.219392 0.00086469797 -0.6858006 -0.19789149 -0.6489814 0.17040196 -0.1472564
-0.06509706 0.10380749 0.27340072 -0.7661485 0.08131365 -0.6233999 -0.13265705 -0.08456359
0.060070686 -0.040132202 -0.04506829 0.0692589 -0.31228414 0.13599254 -0.16656503 -0.06759083
-0.1958223 0.058212347 0.23538053 0.5525922 0.04347917 -0.8123092 -0.17925102 -0.021773262
-0.041726954 -0.29058048 0.676237 -0.14693137 -0.698212 -0.5756937 0.080007166 0.19670586
0.09705497 0.009995545 0.4148747 -0.38575327 0.10142389 0.10368708 0.16096789 0.39595821
0.117331915 0.058514 0.025301496 0.1387649 -0.33406475 0.05078199 0.028714707 0.35644293
0.0067564566 -0.30573684 -0.2690781 -0.06342132 0.21810895 -0.13243859 0.36360514 0.23635286
-0.052956536 -0.06348997 0.12904641 0.8603839 0.069669336 -0.09970952 0.06208639 0.108966276
0.33196694 -0.32630745 0.027253283 0.5015443 0.30660734 -0.7345079 -0.56525034 -0.06092211
-0.45001698 -0.0916595 -0.32126135 -0.021325575 0.39110267 0.21837942 -0.9537066 0.04541852
0.6060788 -0.10898167 0.48262402 0.6373872 0.8123121 0.4493126 0.26172325 -1.7187688
0.27056605 -0.8489377 -1.2538524 0.46298385 -2.5627062 0.37031305 -0.2569192 -0.8496098
0.057136588 -0.2261218 0.10738301 -0.13974749 -0.41627255 0.4850785 0.79868054 -2.6020517
-0.1929334 -2.1049895 0.10748244 -0.026200281 -1.5111364 -0.44509533 -1.0663694 0.15929313
-0.08047433 -0.9212907 -1.7346185 0.55657506 -1.2013016 -0.31414372 1.2990221 0.6382894
0.48924416 -0.57426506 0.28746766 -1.0331563 0.36382788 -2.0043924 0.8546469 -0.60967773
-1.1276815 -0.6757701 -0.16045666 0.15640125 0.5685812 -1.3775842 0.61069435 -0.34309393

linears.1.bias f4 [100]
00000000: 141c 81ba 4d08 003e ddbe 143e 7e40 013d
00000010: 609c 0d3e 39cd 083f 388b a2bc c609 3c3c
00000020: e5f9 eabb 18e3 5b3e 7fc8 813d 69fd 373d
00000030: 42b5 2a3e 2ad7 c43e a237 043e 89fa 8d3e
00000040: a8c6 2dbd 1617 e7bc 6416 a5bd 089e de3a
00000050: 89f7 95bd 6cd3 c03b 9dbd 893c 3029 7d3d
00000060: 3041 05bd 0c29 6abd 2172 273e 0fef 643d
00000070: bd1a a7bd 03e3 163e 023d f53d 1f17 683d
00000080: 8713 823e 4bb6 fdbc 83a1 dc3d 3555 e83e
00000090: c9a1 7c3d 0a77 ab3b 88d7 9b3e 2e33 c33d
000000a0: da2e 193d 3ce8 39bd 60c8 2bbb b477 19bd
000000b0: 5f7f ca3e 0ff5 9d3e 7c74 823d ecff dcbc
000000c0: 19bf 86bc a76c f43e c2b0 c03c 2e47 09bd
000000d0: d194 e23e 75cb 0abe f23f 543e f8f6 47bd
000000e0: fa9f 713e cb48 1e3e 5b3d 9f3d 73d7 2e3e
000000f0: c22b 5d3e 71ae cfbb 9dc1 5e3e 24f2 5c3e
00000100: 9895 353d 78db babc a611 0a3d f3c7 f43d
00000110: 8139 373d 6229 d43d 73fd 2c3e 2a01 16bc
00000120: e5cf 53bd 74e7 85bc 75fd 64bd 92db 9f3e
00000130: 32f6 043d 8557 633d 7a23 0bbd 5bde f3bd
00000140: d29e 433d dcde c2bc cfe9 b53d d04a 50be
00000150: 83d8 9abd 88df 1b3f 0dac fdbc 1937 ff3e
00000160: 359a 523e c9bf 3c3d 99eb 9fbc 4060 1b3e
00000170: 41e3 edbb 7598 a2bd 8ae7 25bc b7cb 0d3e
00000180: 6275 a63d 18c0 253f 4423 4c3e 2f85 a63d
-0.0009850287 0.12503166 0.14525934 0.031555645 0.13829184 0.53438145 -0.019841775 0.01147694
-0.007170903 0.21473348 0.0633707 0.044919405 0.16670707 0.38445407 0.12911847 0.27730206
-0.04242578 -0.02820925 -0.08060911 0.0016984353 -0.07322604 0.0058845785 0.016814047 0.061806858
-0.03253287 -0.05716805 0.1635213 0.055892047 -0.08159397 0.14735036 0.11974527 0.056662675
0.25405523 -0.030970713 0.107729934 0.45377508 0.061677728 0.0052326964 0.30437875 0.09531246
0.037398197 -0.04538749 -0.0026211962 -0.037467673 0.395503 0.30851027 0.06369874 -0.026977502
-0.016448544 0.47739145 0.023521785 -0.033515148 0.44254163 -0.13554175 0.20727518 -0.048819512
0.23596182 0.15457456 0.077753745 0.17074375 0.21598724 -0.0063379337 0.21753545 0.21576744
0.044332117 -0.022809729 0.033708237 0.119522 0.044732574 0.10359456 0.16893558 -0.009155551
-0.051711936 -0.016345717 -0.055905778 0.31222206 0.032461353 0.055503387 -0.03396938 -0.11907645
0.047758885 -0.023787908 0.08882486 -0.20341039 -0.075608276 0.60887957 -0.03096583 0.49846724
0.20566638 0.046081338 -0.019521521 0.15173435 -0.007259757 -0.07939235 -0.010126004 0.13847242
0.08127858 0.64746237 0.19935328 0.081308715

linears.2.weight f4 [100, 100]
00000000: 38fe 65bf a990 a5be ab10 debe f492 eebe
00000010: ceda cebf 7cce 30be 4b7a 37bf fca7 14bf
00000020: 30c9 8fbe 3f99 febf ea3b eabe dca1 ecbe
00000030: 8d6b af3e 0908 68be 5aae a7be 7491 6abf
00000040: cffd d3be 7346 52bd a3ae 98be 112c 19bf
00000050: fd54 99be 72e0 ecbd 891d 06bf ae3d 07be
00000060: 4b19 9dbe f2dd 5cbd 6dfc 883d 323a f63e
00000070: 69e8 54be 13c8 e9be 0c92 76be b61b 753f
00000080: 0dec d0be 9cdf 1e3e 44d0 f6be f46a 9abf
00000090: b7d9 ebbe 5acf 43bf 914c e6be c7bc 8ebf
000000a0: 96d8 85be 422c b9be 5a0b 4bbe 3542 d3be
000000b0: d3b7 44bf 18ee 2240 2fe6 c6be b725 28be
000000c0: e2be 03bf a53e 8c3e 2b6b e8be 27bd e2be
000000d0: 4851 583c 71ce aabd 2991 93bf bec3 c5be
000000e0: d31c 363e e032 4bbf f172 c3be dd3b 2e3f
000000f0: be33 22bf 7d36 a1be 5848 6fbd 7ca3 0bbf
00000100: a13c 46be 667a dcbe d19b 23bf 9a45 fcbe
00000110: 4794 bcbd 3a3f 3cbf c9b4 73bf cf7a ecbe
00000120: 330d 98bd 8544 26be 69b0 c7be a5cb 5d3d
00000130: 6ce8 1abd 2a36 983f 3e37 11bf 1610 aebe
00000140: d1b9 7bbe 383b 4ebf b78c 43bf db07 e5be
00000150: bf67 8abe fa47 1dbf b2b0 d0be a5bf 023e
00000160: 0b60 b5be fabc 003e 7c44 e5be c3af 083e
00000170: abd3 ecbd 68ac d33e c23c e2be 7c47 4ebe
00000180: 1f16 debe ad81 1fbf e35f 2abf 8569 13bf
00000190: d851 7d3f 9782 4e3f 3dec 413f 64ea 64bf
000001a0: 2782 59bf fe28 2bbf 16a1 9c3e 605d 923e
000001b0: 22b6 81bf 0fb7 48bf 94c6 4f3e e813 1d3f
000001c0: 85cf 0dbf b394 443f f479 9dbf 0327 4bbf
000001d0: 8f7a 80bf b6a5 96bf 7477 543f 66a0 403f
000001e0: f780 4ebf f87d a0bf 4dc1 2b3f a8f9 b9bf
000001f0: c342 80bf a0b3 bfbf 4824 613f 3252 8fbe
00000200: 5540 533f eebb 10c0 163a c43e a8d2 06bf
00000210: 82c1 0ec0 7c27 f8be e3a0 7bbf cc1a 8b3e
00000220: 8b75 9bbf c317 073f 2286 213f 0df8 12bf
00000230: cebb 243f e423 a0bf f260 183f d105 363e
00000240: a22a 06bf 3c75 0dbf b18d e73e 7c4b 6cbf
00000250: e28e 9b3e 5bf4 773f 284f e93e 8afc 453e
00000260: 8ae9 f53e c7ed 933f 569e 76bf e56f 72bf
00000270: 14e5 593f 94a8 83bf 6f06 313f be0a 31bf
00000280: d3fd 62bf 2e1e e13e 563a 823f 53e4 1f3f
00000290: 8b70 82bf 5de3 f63e a5b2 21bd 532e 25bc
000002a0: 2c14 6cbf 15cd 8ebf 41c3 2abf 11b4 e13e
000002b0: 8af6 563f ec5a 313f 9de9 85bf 8207 4b3f
000002c0: 3180 abbf 20ad 0ebf 60a5 053f 4c28 683f
000002d0: 6e27 4cbf 8087 703e 2b94 fcbe 09dc 753f
000002e0: 50ee 2c3f b4d4 63bf 124a 8cbf 3fd6 883f
000002f0: a77e 4cbf 288d 98bf d3bd e5bf 9f7a 503f
00000300: 1813 8abf 9e8a e7bd c469 a53e a480 f5bf
00000310: e2fc 0b3f bfe7 26bf c05b 7dbf 3607 373f
00000320: 9ff1 98be ac3b 8abe 5d20 98be 4654 8fbe
00000330: adfc 67be 4927 a8bd 396d 32be 5ffb edbc
00000340: 215a 55bc 5b26 9cbe fcc6 aebe 83a6 a7be
00000350: 2844 96bc 91d8 07bf 0233 23bd 3e64 dabd
00000360: 7d13 86be 4b1f 5fbe d1a6 b5be 62f2 03be
00000370: c240 3abe 2c64 2abd ee06 febd bc4b a9be
00000380: f59d 89be 1992 803c 0344 b5be fead 9dbd
00000390: 83b0 dcbe e55e c6bc 2e00 483d 874e 20be
000003a0: 2fc5 94bd 5348 f73d 9380 90bc aa3f c4be
000003b0: d326 b2bc 1a56 55be a13c a0be 17d4 2ebd
000003c0: 73d4 9abe bd87 c5bb 1028 fcbe 7fca d5be
000003d0: 5f03 afbe 15c8 83be 14e6 31be ba75 08bd
000003e0: 63a6 aabe 7af9 d33d 6487 81be 2d0d d5be
000003f0: e2c3 1dbd 1efd b1be 2139 19bd ef43 10bd
-0.8984103 -0.3233693 -0.43372092 -0.4659649 -1.6160524 -0.17266268 -0.7167098 -0.58068824
-0.2808318 -1.9890517 -0.45748836 -0.4621724 0.34261742 -0.22659315 -0.32750207 -0.91628194
-0.41404578 -0.051336717 -0.29820737 -0.59832865 -0.29947653 -0.11566247 -0.5238882 -0.13207123
-0.3068336 -0.0539226 0.066887714 0.48091274 -0.20791782 -0.45660457 -0.2407915 0.9574541
-0.40805092 0.15514988 -0.4820577 -1.206389 -0.4606454 -0.7648827 -0.4498029 -1.115136
-0.26141804 -0.3616658 -0.19828549 -0.4126145 -0.76842993 2.545782 -0.3884749 -0.16420637
-0.5146314 0.27391544 -0.45394263 -0.44284937 0.013202973 -0.08340157 -1.1528674 -0.38625902
0.17784433 -0.79374504 -0.3817363 0.68060094 -0.633602 -0.31486884 -0.0584186 -0.5454633
-0.19359066 -0.43062133 -0.6390963 -0.49271852 -0.09207969 -0.73533976 -0.9519773 -0.46187446
-0.074243926 -0.16237076 -0.39001778 0.05414929 -0.03781931 1.189153 -0.5672492 -0.33996648
-0.24582602 -0.8055911 -0.7638659 -0.44732556 -0.27032277 -0.6143795 -0.40759808 0.12768419
-0.35424837 0.12572089 -0.44778812 0.13348298 -0.1156381 0.41342473 -0.4418698 -0.20144457
-0.43376252 -0.62307245 -0.6655256 -0.57582885 0.9895301 0.80668014 0.75751096 -0.8942015
-0.8496422 -0.66859424 0.3059165 0.28586864 -1.0133708 -0.78404325 0.20290595 0.613585
-0.55394775 0.76789397 -1.2302842 -0.793564 -1.0037402 -1.1769321 0.8299477 0.7524475
-0.80665535 -1.2538443 0.6709183 -1.4529314 -1.0020374 -1.4976692 0.87945986 -0.27992398
0.8252004 -2.2614703 0.38325566 -0.52665186 -2.2305608 -0.48467624 -0.9829237 0.27168882
-1.2145246 0.5277063 0.63095295 -0.57409745 0.6434907 -1.2510953 0.59522927 0.17775656
-0.524088 -0.5525701 0.4522529 -0.9230268 0.30382448 0.9685723 0.45568204 0.19334617
0.4802974 1.1556939 -0.9633535 -0.9470199 0.8511517 -1.0285821 0.6915044 -0.69157016
-0.88668555 0.43968338 1.0174053 0.6245777 -1.0190595 0.4822034 -0.03947701 -0.010081845
-0.9221828 -1.1156336 -0.66704184 0.44082692 0.8396994 0.6927936 -1.0461918 0.7930833
-1.3398496 -0.5573292 0.5220547 0.9068649 -0.79747665 0.23489189 -0.49331793 0.9603887
0.67551136 -0.88996434 -1.0960104 1.0690383 -0.79880756 -1.1918077 -1.7948555 0.81437105
-1.0787077 -0.11305736 0.32307255 -1.9179883 0.54682744 -0.65197366 -0.98968124 0.7149538
-0.29871842 -0.2699865 -0.2971219 -0.27993983 -0.22654982 -0.08210618 -0.17424478 -0.029050527
-0.013021977 -0.30498013 -0.34136188 -0.32744226 -0.018343046 -0.5306483 -0.039843567 -0.10663651
-0.26186743 -0.21789281 -0.35478833 -0.1288543 -0.18188766 -0.041599438 -0.124036655 -0.33065593
-0.26878324 0.015694665 -0.3540345 -0.07699202 -0.43103418 -0.024215171 0.048828296 -0.15654956
-0.07264172 0.120743416 -0.017639434 -0.38329822 -0.021747028 -0.20833626 -0.31296256 -0.042682733
-0.3024021 -0.006028144 -0.49249315 -0.41756055 -0.3418226 -0.25738588 -0.17372924 -0.033315398
-0.33330068 0.10350318 -0.25298607 -0.41611615 -0.038516887 -0.34763426 -0.037407998 -0.035221037

linears.2.bias f4 [100]
00000000: 7fcf d7be 366e f7bd e92f 99be 4030 7cbe
00000010: d371 30bc e2ca 2abe ac9d d83b 7225 92be
00000020: eebe 2fbe 4bdc 7d3e 38f7 d53d 2be9 1f3e
00000030: 1b5c 003e a138 8ebe 9176 383e 9baa 0bbe
00000040: 9141 86be c98b 69be ab16 083e df09 c73b
00000050: 642e 72be 4590 ac3d 7497 823d 4e99 60bd
00000060: c943 13bd cc38 bc3d 5c93 febd 6029 d43a
00000070: 4b74 aabe ff9e 4b3c e2ba 9e3c 459f 35be
00000080: c6a5 a4be 9531 133d 5fbd 49be 79ea 1bbd
00000090: f87d d7bd 27a6 4a3e 9d0c 98be 5cc3 0fbe
000000a0: 7d7a 5cbe 7937 ab3e 3709 c3bd 9540 f8bd
000000b0: e7c9 cdbd 9abc 103e 8b6c 83be 027f c23e
000000c0: 4321 01bf 7335 b43e 6a24 18bf ea63 24be
000000d0: 3b1b 2e3e 081a 48be 7d69 50bb 626c 5cbd
000000e0: bab6 31be 7665 063e 80a9 69be 3e6f 653d
000000f0: 4965 863e ed27 35be 894e 873e aa4a 6cbe
00000100: 5389 13bf f497 98bc 7b20 1c3e d4ad cebc
00000110: 3925 71bc 1181 90bd 94a8 a0be ce97 dcbb
00000120: 81dc 01be 233e 573e 57ad 8a3d 3896 26be
00000130: 56a3 06be 4119 80bd 1500 42be 7bed 28be
00000140: 5c1f 29bd c9f8 91be d8ea 85be f5a7 47be
00000150: 5b3a 3dbb ca07 0abe 9347 88bb 43b8 e83d
00000160: 1c40 193f 90d3 14bd 1e25 cabe 63a2 dd3d
00000170: 1b06 8e3e dfa0 e0be 7996 2fbe 52a0 32be
00000180: b44d 3cbe b481 ebbd 8108 dabd 4e00 04bd
-0.42150494 -0.12081568 -0.29919365 -0.24627781 -0.010769325 -0.16678956 0.006610593 -0.28544194
-0.17162678 0.24791066 0.10447544 0.1561629 0.12535135 -0.2777758 0.1801398 -0.136393
-0.26221898 -0.2280723 0.13289897 0.006074175 -0.23650509 0.08425955 0.06376544 -0.054833703
-0.035953317 0.09190521 -0.1243045 0.0016186647 -0.3329185 0.012428044 0.019376222 -0.17736538
-0.32157725 0.035935957 -0.19701146 -0.038065407 -0.105220735 0.19789945 -0.29697123 -0.14039367
-0.215311 0.3344076 -0.09523242 -0.12121693 -0.100482754 0.14134446 -0.2566875 0.37987524
-0.5044138 0.3519703 -0.59430563 -0.16053739 0.17002575 -0.1954118 -0.0031801157 -0.0538143
-0.17354861 0.13124642 -0.22818565 0.056014292 0.2624915 -0.17691012 0.26427105 -0.23075357
-0.57631415 -0.018627144 0.15246765 -0.025229372 -0.014718347 -0.070558675 -0.31378615 -0.0067319637
-0.12681772 0.21019797 0.06771343 -0.16268241 -0.13148245 -0.06254817 -0.18945344 -0.16496842
-0.041289672 -0.2851012 -0.26155734 -0.19497664 -0.0028873894 -0.13479534 -0.004158923 0.1136327
0.5986345 -0.036334574 -0.39481443 0.108219884 0.27739033 -0.43872735 -0.17147245 -0.1744397
-0.18389016 -0.11499348 -0.10646153 -0.032226853

linears.3.weight f4 [2, 100]
00000000: 3c07 2f40 9e45 dbbe 5e47 423e 7d7f a63e
00000010: 831e 653e 902a 203e fa79 5f3e 21b5 45be
00000020: cd31 4f40 a574 e8be 2fbc 913e b6fb aebe
00000030: 8cbc 903e 4d0f bc3e 4cb0 b83e 8ec1 c93e
00000040: 393b 2c3c e670 303e c057 a63e 494f 2a3e
00000050: 365d 943c dc08 963e b68e 803e 7211 603e
00000060: d41d 233d f4f7 a73e 6e6a c5bd e1a0 683e
00000070: c166 c03e c97b 693e 96cb 1bbf ca41 9b3e
00000080: a795 ae3e a5e9 583e 856b 9d3e 8146 9e3d
00000090: d275 413e ef4c 02bf a9bb b63e cfe7 b1bd
000000a0: 1b8f 623e 233c b1be 82ef 2abe 704c 573e
000000b0: c6c3 523e b11e 10bf 9e8f 9b3d 7c5f dabe
000000c0: 7c43 f03e 78b4 ffbe 42a5 583e 9b5f c43e
000000d0: 49a8 983e 0a1a 563e d35c 83bd 72f4 f23e
000000e0: 7679 74bf 253e 913e c8f8 a1bf 4b26 05be
000000f0: 5101 823e 2470 d53e 6f95 55be 9ea9 bb3e
00000100: 9810 363f 59bc 8c3e cc72 f63e d5ad 563e
00000110: ea5d 943e d2ce b1be 3dc8 14bf 8aa4 843e
00000120: 9d20 4d3e 4975 01bf c611 813e 9b81 5b3e
00000130: 594c 9f3e 7b3a 003f c12c ad3e 3a45 323e
00000140: cab1 e73e 4016 9a3e e4e1 96bf 73f0 8b3e
00000150: 4bd4 673e 06de ee3e cc76 1ebe ebe2 97bf
00000160: 8690 7ebe c9d6 543e 32dc 9abe ca33 8b3e
00000170: 838c 84be 8d44 da3e 2a79 263e 578e e0be
00000180: 4a00 d73e efa3 503e 42ac 633e d397 c13e
00000190: 5a4a 89bf ed5e 14bf be57 503e 8469 5c3e
000001a0: 08a3 693e 5cb8 4fbe acc3 813e 706a 2fbe
000001b0: 8049 6740 e1cc febe bd89 553e 0af5 debe
000001c0: 1482 783e 4a09 8e3e 2e84 c13e a380 593d
000001d0: fb73 87be f497 02be d525 8c3e c7a1 35be
000001e0: c400 71bd bb7c 9b3e 62ad 453e aea5 803e
000001f0: a722 2b3d 3934 13be c9e8 423e a061 853e
00000200: 8771 863e 3666 7e3e cf01 25be 113a c43d
00000210: 6539 793e 4a3f 7c3e 525b 133e b06e 983d
00000220: 659b 5a3e 3169 0cbf a58b 893e d986 85be
00000230: cdcd 70bd ffd0 c9be 7ac7 4c3d f16a 603e
00000240: 55e6 743e 3f9b 32bf e97b 25be 89f3 01bf
00000250: e36b d73e 36be f1be 4497 4f3e 3cff 6f3e
00000260: 1191 733e 9411 5a3e a1de 88bd d872 bcbe
00000270: c76e 87bf 0343 963e 6160 b4bf f8a0 9fbd
00000280: 22ce 823e 3eac 523e 7d03 a83c 13ca 6f3e
00000290: 85fd 1a3f b252 85be c5e1 b53e 0678 6f3e
000002a0: 6448 2d3e 04ee a4be dcbe 22bf aa24 893e
000002b0: dbdc 693e 5354 12bf 9046 bdbd 7490 593e
000002c0: 4859 dfbe f25f 8f3e e5ac 8c3e b565 453e
000002d0: 257c f53e c126 7c3e 7286 99bf 4f1a a33e
000002e0: 2b2f 823e 44ca 803e 444c 54be b98b a6bf
000002f0: 5545 1dbe 83c8 6f3e bbeb 88be e0fa 913e
00000300: 7aac 63be 1a00 a73e 814b 393e 948a 45bf
00000310: ff47 2f3e edcf 603e ecc1 683e 4984 fcbd
2.7348166 -0.4282655 0.18972537 0.3251914 0.2237492 0.15641236 0.21823874 -0.19307376
3.2374146 -0.45401493 0.28463885 -0.34176415 0.2826885 0.36730424 0.36072004 0.39405483
0.010512167 0.17230567 0.32488823 0.16631807 0.018110853 0.29303634 0.2510888 0.21881655
0.03982337 0.3280636 -0.096394405 0.2271762 0.37578395 0.22801127 -0.6085752 0.3032363
0.3409855 0.21182878 0.30746093 0.07728291 0.18892601 -0.5089864 0.35690048 -0.08686792
0.22124903 -0.34616193 -0.16692927 0.21025252 0.20582494 -0.5629683 0.07595752 -0.42650974
0.46926486 -0.49942374 0.21156791 0.3835419 0.2981589 0.2090837 -0.06414189 0.47452122
-0.95497835 0.28367725 -1.2654047 -0.13002889 0.2539163 0.4168712 -0.20857786 0.36652845
0.7111907 0.27487448 0.48134458 0.20964749 0.289779 -0.34728104 -0.5811804 0.25906783
0.20031972 -0.5056959 0.25208873 0.2143616 0.31112936 0.50089234 0.33823207 0.1740922
0.4525283 0.300951 -1.1787686 0.27331886 0.22639577 0.46653765 -0.15475005 -1.1866125
-0.24859819 0.20785059 -0.3024612 0.2718795 -0.25888452 0.42630425 0.16257158 -0.43858597
0.41992408 0.20375036 0.2223368 0.37811145 -1.0725815 -0.57957345 0.20345971 0.21524626
0.22816098 -0.20285171 0.25344598 -0.17130446 3.613861 -0.49765685 0.20853324 -0.43546325
0.24268371 0.27741462 0.37796158 0.053101193 -0.26455674 -0.12753278 0.27372614 -0.17737494
-0.05883862 0.303686 0.19304422 0.25126404 0.041781094 -0.1437539 0.19034113 0.26051044
0.2625849 0.24843678 -0.16113971 0.09581388 0.243383 0.24633518 0.14390305 0.07442987
0.21348341 -0.5484801 0.26864353 -0.26079443 -0.058790017 -0.39417264 0.049994923 0.21915795
0.2391599 -0.69768137 -0.16160549 -0.5076223 0.420745 -0.47215432 0.20272547 0.23437208
0.23785807 0.21295768 -0.06683088 -0.3680637 -1.0580682 0.29348 -1.4091913 -0.07794374
0.25547892 0.20573518 0.020509476 0.23416929 0.6054309 -0.26039654 0.3552381 0.23385629
0.16922146 -0.32212842 -0.6357248 0.26785785 0.22838156 -0.5715992 -0.09241974 0.2124651
-0.43622804 0.28002888 0.27475658 0.1927708 0.47946277 0.24624158 -1.1994154 0.3185601
0.2542661 0.25154316 -0.20732218 -1.301139 -0.1535848 0.23416333 -0.26742348 0.28511715
-0.22233763 0.32617265 0.18095209 -0.7716458 0.17117308 0.21954317 0.22730225 -0.12329919

linears.3.bias f4 [2]
00000000: 84c3 e1be b4e1 9e3e
-0.4409448 0.31031573

exp_avg f4 [100, 6]
00000000: f532 beb3 e832 beb3 fd32 3eb4 54a6 8eb4
00000010: 0c33 beb4 28c0 edb4 75fa 9733 77fa 9733
00000020: 84fa 1734 f7f6 6334 03fa 9734 88f8 bd34
00000030: 94f8 b0b3 93f8 b0b3 b3f8 30b4 77ba 84b4
00000040: e5f8 b0b4 1037 ddb4 2992 22b2 4292 22b2
00000050: fe8f a2b2 20dc f3b2 d991 22b3 8934 4bb3
00000060: e5a5 c6b3 dfa5 c6b3 eca5 46b4 79fc 94b4
00000070: 87a6 c6b4 3a4f f8b4 d1e6 97b3 c2e6 97b3
00000080: b3e6 17b4 53da 63b4 d3e6 97b4 d7e0 bdb4
00000090: 441b 04b3 531b 04b3 5a1b 84b3 dc28 c6b3
000000a0: a01b 04b4 a822 25b4 6fb6 de33 a3b6 de33
000000b0: 79b6 5e34 5708 a734 8cb7 de34 ae32 0b35
000000c0: 1fa3 22b3 1ca3 22b3 1da3 a2b3 fff4 f3b3
000000d0: 17a3 22b4 894c 4bb4 de10 7234 eb10 7234
000000e0: aa11 f234 458d 3535 1211 7235 8f4b 9735
000000f0: 13aa 0034 eaa9 0034 52aa 8034 7f01 c134
00000100: 06ab 0035 54d6 2035 2b50 98b3 3350 98b3
00000110: 5e50 18b4 dc77 64b4 3350 98b4 ee63 beb4
00000120: e01f 2534 c81f 2534 841f a534 e8ae f734
00000130: 9320 2535 c168 4e35 0d7f 8eb2 277f 8eb2
00000140: 9f7f 0eb3 9fbe 55b3 977f 8eb3 df1d b2b3
00000150: 3d69 9e33 2369 9e33 bf68 1e34 2d9e 6d34
00000160: 8968 9e34 fa03 c634 16fc 6b34 f6fb 6b34
00000170: a0fb eb34 cffd 3035 d7fa 6b35 e17d 9335
00000180: d587 a1b3 c387 a1b3 c987 21b4 e94f 72b4
00000190: f988 a1b4 a0ed c9b4 8613 0334 9113 0334
000001a0: df13 8334 079e c434 6813 0335 e1d8 2335
000001b0: 97ff b332 95ff b332 5f00 3433 5000 8733
000001c0: c900 b433 1203 e133 1c87 ed33 ef86 ed33
000001d0: 9f87 6d34 3625 b234 db86 ed34 3c74 1435
000001e0: 01a5 8d33 21a5 8d33 57a6 0d34 c478 5434
000001f0: 67a6 8d34 9210 b134 55b0 47b3 58b0 47b3
00000200: 2bb0 c7b3 79c4 15b4 5bb0 47b4 889d 79b4
00000210: 4723 d9b3 2c23 d9b3 3923 59b4 69da a2b4
00000220: 0723 d9b4 03b6 07b5 ca65 6b34 f665 6b34
00000230: cd65 eb34 5f8c 3035 7f65 6b35 2120 9335
00000240: 92f4 df32 70f4 df32 fcf4 5f33 4af8 a733
00000250: 3df4 df33 31f9 0b34 fc0b 5f34 2b0c 5f34
00000260: 750b df34 d648 2735 ab0a 5f35 c667 8b35
00000270: 7fae 8133 59ae 8133 9aae 0134 3e84 4234
00000280: 34ae 8134 bf19 a234 bb39 cf32 313a cf32
00000290: 7239 4f33 736a 9b33 c939 cf33 4284 0134
000002a0: 4eff ed33 53ff ed33 2800 6e34 ec7e b234
000002b0: 82ff ed34 b7c0 1435 2907 cbb1 cb08 cbb1
000002c0: d601 4bb2 8e3d 98b2 d400 cbb2 9bc6 fdb2
000002d0: f708 a033 e508 a033 f207 2034 cb0b 7034
000002e0: 1e08 a034 7d0a c834 0349 6c33 ad48 6c33
000002f0: 6e48 ec33 e135 3134 e848 6c34 8dad 9334
00000300: b9c3 3a34 d9c3 3a34 eac3 ba34 dd12 0c35
00000310: aec4 3a35 2176 6935 8778 6f33 6778 6f33
00000320: 4979 ef33 f19b 3334 9277 6f34 b4ad 9534
00000330: 2a90 f233 6390 f233 3790 7234 c0eb b534
00000340: f28f f234 729a 1735 a399 b630 1395 b630
00000350: 9a9f 3631 19e7 8831 8798 b631 f757 e431
00000360: afd6 b133 9bd6 b133 21d6 3134 2863 8534
00000370: 3ad5 b134 4a4e de34 2375 8633 0475 8633
00000380: 2475 0634 48b1 4934 c775 8634 2614 a834
00000390: 64a7 71b4 5ba7 71b4 a1a7 f1b4 193e 35b5
000003a0: 6ba7 71b5 ca08 97b5 8041 ebb3 9041 ebb3
000003b0: 6641 6bb4 2671 b0b4 df41 ebb4 2e09 13b5
000003c0: 4073 60b2 3173 60b2 cb72 e0b2 8556 28b3
000003d0: 1173 60b3 b648 8cb3 82bd 0d34 74bd 0d34
000003e0: 66bd 8d34 409b d434 21be 0d35 ae2c 3135
000003f0: bd32 76b3 7332 76b3 5d32 f6b3 d9a4 38b4
-8.8568335e-08 -8.856824e-08 -1.7713678e-07 -2.657058e-07 -3.54274e-07 -4.4284502e-07 7.077043e-08 7.077045e-08
1.4154108e-07 2.1230868e-07 2.830785e-07 3.5384824e-07 -8.240855e-08 -8.240854e-08 -1.6481754e-07 -2.4722587e-07
-3.296365e-07 -4.120452e-07 -9.462874e-09 -9.462896e-09 -1.8924762e-08 -2.8389024e-08 -3.7851212e-08 -4.73124e-08
-9.2502695e-08 -9.250265e-08 -1.8500549e-07 -2.7750846e-07 -3.7001539e-07 -4.6251245e-07 -7.073471e-08 -7.07346e-08
-1.4146899e-07 -2.1220448e-07 -2.8293888e-07 -3.5367586e-07 -3.0758443e-08 -3.0758496e-08 -6.151704e-08 -9.227526e-08
-1.2303508e-07 -1.537943e-07 1.0370865e-07 1.0370902e-07 2.0741744e-07 3.1112242e-07 4.148427e-07 5.1855284e-07
-3.7866922e-08 -3.786691e-08 -7.573383e-08 -1.1360134e-07 -1.5146757e-07 -1.8933692e-07 2.2544143e-07 2.2544161e-07
4.5088865e-07 6.763333e-07 9.0176866e-07 1.1272367e-06 1.1982802e-07 1.1982743e-07 2.3965782e-07 3.595014e-07
4.793259e-07 5.9916533e-07 -7.092634e-08 -7.09264e-08 -1.418534e-07 -2.1277759e-07 -2.837056e-07 -3.5462966e-07
1.5378419e-07 1.5378384e-07 3.0756576e-07 4.6134596e-07 6.151469e-07 7.6893417e-07 -1.6588752e-08 -1.6588798e-08
-3.3178022e-08 -4.9766296e-08 -6.635599e-08 -8.2942044e-08 7.376591e-08 7.3765726e-08 1.4753003e-07 2.2129889e-07
2.9505853e-07 3.6883267e-07 2.1977789e-07 2.1977743e-07 4.3955242e-07 6.593445e-07 8.790934e-07 1.0988989e-06
-7.5218544e-08 -7.5218416e-08 -1.5043692e-07 -2.2567077e-07 -3.0088248e-07 -3.7612062e-07 1.2207428e-07 1.2207444e-07
2.441511e-07 3.6622825e-07 4.882954e-07 6.103783e-07 2.0954571e-08 2.0954568e-08 4.1909853e-08 6.286484e-08
8.382046e-08 1.04779375e-07 1.1060749e-07 1.1060717e-07 2.2121684e-07 3.3182158e-07 4.424281e-07 5.530344e-07
6.595838e-08 6.595861e-08 1.3192162e-07 1.9787973e-07 2.638437e-07 3.2980876e-07 -4.649367e-08 -4.6493682e-08
-9.2987044e-08 -1.3948183e-07 -1.8597477e-07 -2.3247242e-07 -1.0111267e-07 -1.0111248e-07 -2.0222514e-07 -3.0333766e-07
-4.0444885e-07 -5.055628e-07 2.1923111e-07 2.1923174e-07 4.384623e-07 6.5769376e-07 8.769202e-07 1.0961704e-06
2.6071834e-08 2.6071774e-08 5.2144046e-08 7.821707e-08 1.04286734e-07 1.3036039e-07 2.0772853e-07 2.077292e-07
4.1545323e-07 6.231834e-07 8.30895e-07 1.0386509e-06 6.038771e-08 6.038744e-08 1.2077581e-07 1.8115767e-07
2.4154872e-07 3.0193584e-07 2.4124224e-08 2.4124434e-08 4.824819e-08 7.237113e-08 9.6497e-08 1.2062176e-07
1.1082612e-07 1.1082616e-07 2.2165534e-07 3.3247431e-07 4.4330596e-07 5.5414733e-07 -5.9088916e-09 -5.9090772e-09
-1.1816573e-08 -1.772312e-08 -2.3632687e-08 -2.9543392e-08 7.452211e-08 7.4521985e-08 1.4904052e-07 2.2356032e-07
2.9808228e-07 3.7260534e-07 5.5014436e-08 5.501413e-08 1.1002781e-07 1.650401e-07 2.2005736e-07 2.7507159e-07
1.7393803e-07 1.7393849e-07 3.4787746e-07 5.2181514e-07 6.9576606e-07 8.6971164e-07 5.5756143e-08 5.575603e-08
1.11513664e-07 1.6727405e-07 2.2302109e-07 2.7879798e-07 1.12952264e-07 1.1295267e-07 2.2590471e-07 3.3885408e-07
4.5180747e-07 5.647663e-07 1.3285909e-09 1.3284612e-09 2.6575209e-09 3.9843937e-09 5.3142375e-09 6.645674e-09
8.2812555e-08 8.281241e-08 1.6562309e-07 2.4845326e-07 3.3123962e-07 4.1407685e-07 6.261168e-08 6.261146e-08
1.2522338e-07 1.8784078e-07 2.504514e-07 3.1307098e-07 -2.250577e-07 -2.2505758e-07 -4.5011714e-07 -6.751812e-07
-9.002312e-07 -1.1252935e-06 -1.09549546e-07 -1.0954966e-07 -2.1909872e-07 -3.286488e-07 -4.3820089e-07 -5.4775126e-07
-1.3064721e-08 -1.30647075e-08 -2.6129234e-08 -3.9194237e-08 -5.2258716e-08 -6.532484e-08 1.3200591e-07 1.3200571e-07
2.6401102e-07 3.9601036e-07 5.280327e-07 6.6002656e-07 -5.7322485e-08 -5.732222e-08 -1.1464429e-07 -1.7196307e-07

exp_avg_sq f4 [100, 6]
00000000: 1d75 a92d 1d75 a92d 2375 a92e dba3 3e2f
00000010: 2775 a92f 9163 0430 45ec c82d 45ec c82d
00000020: 46ec c82e c309 622f 3eec c82f 8bf8 1c30
00000030: cafd 9e2d c5fd 9e2d c4fd 9e2e 73dd 322f
00000040: c2fd 9e2f 866c f82f b939 ec2c ae39 ec2c
00000050: 9a39 ec2d 57e0 842e 2839 ec2e 718c 382f
00000060: 7697 e92d 7697 e92d 7397 e92e 4365 832f
00000070: 7997 e92f 547e 3630 24c0 922d 25c0 922d
00000080: 22c0 922e 1d18 252f 1cc0 922f 244c e52f
00000090: aa2d 062d a62d 062d 9b2d 062e 45f3 962e
000000a0: 762d 062f d2a6 512f 3c7e aa2e 397e aa2e
000000b0: 3a7e aa2f 0cce 3f30 337e aa30 9b32 0531
000000c0: 493d 002d 463d 002d 3a3d 002e db44 902e
000000d0: 1c3d 002f 485f 482f 31f3 1d2f 2af3 1d2f
000000e0: 26f3 1d30 a7b1 b130 3ef3 1d31 2bcc 7631
000000f0: a1b9 a12e a3b9 a12e a5b9 a12f e3f0 3530
00000100: 9bb9 a130 31b2 fc30 6684 8e2d 5f84 8e2d
00000110: 6184 8e2e 0755 202f 6384 8e2f f2ae de2f
00000120: b866 172f b666 172f ba66 1730 8853 aa30
00000130: b466 1731 6790 6c31 4078 b12c 3c78 b12c
00000140: 3978 b12d 32a7 472e 1378 b12e b9a5 0a2f
00000150: 490b d62d 460b d62d 470b d62e a2cc 702f
00000160: 460b d62f c138 2730 651b 182f 671b 182f
00000170: 691b 1830 d61e ab30 781b 1831 dbaa 6d31
00000180: 6d4e 1b2e 6e4e 1b2e 6d4e 1b2f 3bb8 ae2f
00000190: 654e 1b30 79aa 7230 996e 2a2e a06e 2a2e
000001a0: 9e6e 2a2f 7bbc bf2f aa6e 2a30 8d26 8530
000001b0: 3dc9 892c 3dc9 892c 37c9 892d 6402 1b2e
000001c0: 3dc9 892e 654a d72e 39aa 1c2e 3baa 1c2e
000001d0: 3baa 1c2f 803f b02f 42aa 1c30 02ca 7430
000001e0: e270 272e e270 272e e570 272f de5e bc2f
000001f0: dc70 2730 1ed0 8230 9df4 112d 9cf4 112d
00000200: 9af4 112e 2733 a42e 8ff4 112f 030e 642f
00000210: 0b0c 032e 0d0c 032e 0b0c 032f 776d 932f
00000220: 0c0c 0330 c0c2 4c30 ad91 612f ad91 612f
00000230: ac91 6130 e5c3 fd30 a091 6131 c839 b031
00000240: 14c6 162d 11c6 162d 03c6 162e ad9e a92e
00000250: dac5 162f e294 6b2f 5941 412f 6041 412f
00000260: 5941 4130 8769 d930 5c41 4131 1bfb 9631
00000270: 73c2 a72d 6fc2 a72d 75c2 a72e b7ba 3c2f
00000280: 64c2 a72f d30f 0330 9d01 dd2c 9e01 dd2c
00000290: 9501 dd2d b3a1 782e 6001 dd2e 02a9 2c2f
000002a0: 0e8b b92e 118b b92e 098b b92f 5fbc 5030
000002b0: 028b b930 82f4 1031 4db9 eb2b 51b9 eb2b
000002c0: 4db9 eb2c 2898 842d 25b9 eb2d 9f28 382e
000002d0: 05b5 442e 08b5 442e 08b5 442f bc4b dd2f
000002e0: 01b5 4430 7aad 9930 cb50 6a2d cf50 6a2d
000002f0: cd50 6a2e 79cd 032f c050 6a2f 0b0f b72f
00000300: 6bda b02e 68da b02e 6dda b02f c4f5 4630
00000310: 6dda b030 b12a 0a31 b36d 1f2e b26d 1f2e
00000320: b16d 1f2f 6a5b b32f ad6d 1f30 7c1b 7930
00000330: 2d06 bb2e 2e06 bb2e 2906 bb2f db66 5230
00000340: 2006 bb30 cf1c 1231 f45c 5c2c ea5c 5c2c
00000350: d55c 5c2d 39e8 f72d 755c 5c2e 0a28 ac2e
00000360: caf7 8f2e c9f7 8f2e c5f7 8f2f baf6 2130
00000370: c0f7 8f30 08f3 e030 30fa af2d 2dfa af2d
00000380: 32fa af2e 9af9 452f 20fa af2f 757b 0930
00000390: 5969 512f 5869 512f 5769 5130 7296 eb30
000003a0: 5769 5131 3a9a a331 5d16 222e 5c16 222e
000003b0: 6116 222f 2f59 b62f 5e16 2230 ec42 7d30
000003c0: b739 f72b b539 f72b aa39 f72c 6310 8b2d
000003d0: 8639 f72d e824 412e 2d74 572e 2c74 572e
000003e0: 2974 572f d562 f22f 3574 5730 dd52 a830
000003f0: 902c e52d 8e2c e52d 862c e52e 0de9 802f
1.9265084e-11 1.9265084e-11 7.706038e-11 1.7338612e-10 3.0824163e-10 4.816281e-10 2.2842292e-11 2.2842292e-11
9.1369176e-11 2.0558048e-10 3.6547648e-10 5.710567e-10 1.8075225e-11 1.8075217e-11 7.230086e-11 1.626768e-10
2.8920338e-10 4.5188048e-10 6.713932e-12 6.713927e-12 2.6855674e-11 6.042516e-11 1.07421905e-10 1.6784597e-10
2.6556295e-11 2.6556295e-11 1.0622516e-10 2.3900712e-10 4.249008e-10 6.639074e-10 1.6683606e-11 1.6683608e-11
6.673441e-11 1.501523e-10 2.6693747e-10 4.1708959e-10 7.627158e-12 7.627154e-12 3.050858e-11 6.8644236e-11
1.220338e-10 1.9067706e-10 7.753129e-11 7.7531266e-11 3.101251e-10 6.9778205e-10 1.2404996e-09 1.9382813e-09
7.289566e-12 7.289563e-12 2.915821e-11 6.560593e-11 1.1663243e-10 1.8223745e-10 1.4365466e-10 1.4365456e-10
5.74618e-10 1.2928937e-09 2.2984774e-09 3.5913768e-09 7.354407e-11 7.354408e-11 2.9417638e-10 6.6189737e-10
1.1767044e-09 1.8386058e-09 1.6202328e-11 1.6202316e-11 6.4809276e-11 1.4582123e-10 2.5923716e-10 4.050587e-10
1.3769863e-10 1.376986e-10 5.5079463e-10 1.2392869e-09 2.2031772e-09 3.4424603e-09 5.043993e-12 5.0439913e-12
2.017596e-11 4.539586e-11 8.0703576e-11 1.2609903e-10 2.4333995e-11 2.433399e-11 9.7335966e-11 2.1900573e-10
3.8934383e-10 6.08349e-10 1.3834052e-10 1.3834055e-10 5.533623e-10 1.2450652e-09 2.2134525e-09 3.458516e-09
3.5312576e-11 3.531258e-11 1.412503e-10 3.178132e-10 5.6500077e-10 8.8281343e-10 3.8751755e-11 3.875178e-11
1.5500709e-10 3.487662e-10 6.2002903e-10 9.68798e-10 3.916116e-12 3.916116e-12 1.5664454e-11 3.5245043e-11
6.265786e-11 9.790283e-11 3.562148e-11 3.562149e-11 1.4248595e-10 3.2059333e-10 5.699442e-10 8.9053753e-10
3.8071664e-11 3.8071664e-11 1.522867e-10 3.4264408e-10 6.091463e-10 9.517895e-10 8.296611e-12 8.29661e-12
3.3186433e-11 7.466943e-11 1.3274558e-10 2.0741457e-10 2.9796648e-11 2.9796655e-11 1.1918659e-10 2.6816924e-10
4.767464e-10 7.4491524e-10 2.0515385e-10 2.0515385e-10 8.2061535e-10 1.8463849e-09 3.2824587e-09 5.128843e-09
8.570495e-12 8.570492e-12 3.428192e-11 7.713417e-11 1.3712712e-10 2.1426019e-10 1.7576464e-10 1.7576474e-10
7.0305856e-10 1.5818821e-09 2.812235e-09 4.394122e-09 1.9072055e-11 1.9072048e-11 7.628823e-11 1.7164835e-10
3.0515246e-10 4.768001e-10 6.281377e-12 6.2813773e-12 2.5125494e-11 5.653229e-11 1.0050161e-10 1.5703353e-10
8.437527e-11 8.437529e-11 3.3750094e-10 7.593765e-10 1.350003e-09 2.1093745e-09 1.6749186e-12 1.674919e-12
6.6996742e-12 1.5074234e-11 2.6798628e-11 4.1872835e-11 4.4726018e-11 4.472603e-11 1.7890411e-10 4.0253478e-10
7.1561607e-10 1.118152e-09 1.33193e-11 1.3319303e-11 5.3277206e-11 1.1987379e-10 2.1310864e-10 3.3298195e-10
8.042352e-11 8.04235e-11 3.2169414e-10 7.2381234e-10 1.2867766e-09 2.010591e-09 3.6249847e-11 3.6249843e-11
1.4499936e-10 3.2624864e-10 5.799972e-10 9.062473e-10 8.5048725e-11 8.504873e-11 3.401948e-10 7.654372e-10
1.3607782e-09 2.1262172e-09 3.131548e-12 3.1315458e-12 1.2526165e-11 2.8183776e-11 5.0104327e-11 7.828767e-11
6.546903e-11 6.5469026e-11 2.61876e-10 5.892208e-10 1.0475034e-09 1.6367219e-09 2.0006302e-11 2.0006297e-11
8.002522e-11 1.8005722e-10 3.201004e-10 5.001575e-10 1.9045866e-10 1.9045865e-10 7.6183454e-10 1.714126e-09
3.0473382e-09 4.761458e-09 3.6854398e-11 3.6854395e-11 1.4741765e-10 3.3168976e-10 5.896704e-10 9.2135966e-10
1.7566425e-12 1.7566422e-12 7.0265642e-12 1.5809748e-11 2.8106194e-11 4.39159e-11 4.8988525e-11 4.898852e-11
1.9595404e-10 4.4089768e-10 7.8381684e-10 1.224716e-09 2.6054076e-11 2.6054072e-11 1.0421623e-10 2.3448657e-10

exp_avg f4 [100]
00000000: b5f8 b9b9 879b 4e38 3332 bcb9 a3b0 1537
00000010: 2e19 b9b9 ae5b a9b9 1320 61b9 2a3c 6939
00000020: 3994 82b9 6001 a039 71cf 7539 06cb a6b9
00000030: 3fe7 b639 8b4e 3338 af09 ec37 4c13 9739
00000040: 193f fe36 98ce 4039 cac3 10b8 1f52 0239
00000050: 71a1 8438 fb21 84b9 f40a b8b9 5e18 f539
00000060: 789e d6b7 6ec5 e439 712f a936 5ed6 95b8
00000070: 6405 4939 c6ac b437 232a e438 a2b9 fa36
00000080: d964 2e39 9b16 8e38 d552 7739 bc56 63b7
00000090: cae2 2639 7510 f737 1d02 2fba f72d d2b9
000000a0: cc0c a637 af7e 8239 44f4 5638 32e7 2139
000000b0: c3ac c5b6 f75a a839 1cb5 13ba afd7 d037
000000c0: d367 c239 ea25 b539 a0c4 0839 3111 1db5
000000d0: f3d8 a3b9 b542 4e39 0b4a 03ba 4442 3a39
000000e0: f2e7 e838 3f4c 08b9 dede bbb9 14a1 dab9
000000f0: 6d6d 16b9 fa0d 1cb6 de2e 02b7 8c06 ceb9
00000100: f7ec cd39 ff57 03b6 b7f4 89b8 9f40 93b9
00000110: d4c5 99b8 192e cd39 00cb ab39 785f 91b8
00000120: a9d1 a5b9 cc9e 5339 c210 89b9 5de4 d0b9
00000130: 5514 b938 928d cbb7 d268 ec37 dbf9 43ba
00000140: 79b5 19b9 5e01 e137 f8e1 b4b7 887d abb9
00000150: 8ac5 deb9 ee99 13b7 e65d 3e39 2de8 e0b9
00000160: 3898 b6b9 430d 9439 5710 d439 970d 3f36
00000170: 483b 3639 4822 5b39 719f c739 d77a e437
00000180: 9263 b7b9 1f51 5134 813b 463a 1153 8938
-0.0003547125 4.9259073e-05 -0.00035895556 8.9222185e-06 -0.0003530471 -0.000323025 -0.0002146962 0.00022243024
-0.00024905967 0.00030518603 0.00023442299 -0.00031813252 0.00034886037 4.2750074e-05 2.8137902e-05 0.00028815342
7.5771354e-06 0.00018387509 -3.4514618e-05 0.00012428359 6.324321e-05 -0.0002520232 -0.00035103376 0.00046748196
-2.558458e-05 0.00043634645 5.0421154e-06 -7.144803e-05 0.00019170862 2.1538126e-05 0.00010879736 7.472191e-06
0.00016631502 6.775298e-05 0.00023586613 -1.3550449e-05 0.00015915479 2.9452358e-05 -0.0006676035 -0.00040088568
1.9794701e-05 0.0002488992 5.1249066e-05 0.00015440283 -5.8911696e-06 0.0003211123 -0.00056345924 2.4895968e-05
0.0003707992 0.00034551258 0.00013043219 -5.8512074e-07 -0.00031251422 0.00019670541 -0.00050082867 0.00017763028
0.00011105825 -0.00012998375 -0.00035833468 -0.00041700213 -0.00014345879 -2.3253947e-06 -7.759516e-06 -0.0003929626
0.000392772 -1.9571742e-06 -6.578251e-05 -0.0002808617 -7.332457e-05 0.00039134992 0.00032766908 -6.931921e-05
-0.0003162746 0.00020181685 -0.00026143162 -0.00039842995 8.8252746e-05 -2.426541e-05 2.8182203e-05 -0.0007475891
-0.00014658821 2.6822727e-05 -2.1562897e-05 -0.0003270919 -0.00042490318 -8.797722e-06 0.00018154792 -0.00042897594
-0.00034827157 0.0002823864 0.00040447965 2.8469128e-06 0.00017378957 0.00020898238 0.0003807503 2.723692e-05
-0.00034978666 1.9494153e-07 0.00075619674 6.5481414e-05

exp_avg_sq f4 [100]
00000000: 070c 9639 222f 4938 c11a 8c39 8e5a 6436
00000010: 2076 a239 8cdb 7939 f608 b338 e799 8e39
00000020: 505c 0239 754b 0b3a 4836 8939 8a72 7939
00000030: 7347 073a da2c 5c37 c17d 3938 69ff 303a
00000040: 75ab f337 a8a7 6439 cf24 4737 3b7e f238
00000050: 6c10 9438 e935 0a39 8c18 a239 dfdd 4e3a
00000060: 08c0 8536 d1d0 3e3a bf81 0938 09af 9e37
00000070: c671 6939 8b5a f236 db38 0439 9887 9b37
00000080: 5e8a 3539 51f7 db38 6dfd 9639 a820 b736
00000090: 7e85 4c39 7e24 3638 dfa2 983a aeda d339
000000a0: adc8 3436 f770 a339 fab9 fe37 e6fb 4739
000000b0: 66db 4c35 574e dd39 6d50 413a 1c48 7138
000000c0: e762 253a 5927 f439 b01c ff38 9f84 d237
000000d0: a719 7639 1c24 8139 5da8 163a 4785 3b39
000000e0: cc20 c438 62d0 d638 62f3 5139 e765 db39
000000f0: fbbf b538 88f9 0037 3e91 d635 8b99 b439
00000100: 9f1c 1a3a 5904 b936 2fed d237 d791 1e39
00000110: af61 e537 154a 1a3a f3d1 e739 5031 d737
00000120: d6cb 6f39 788f 5f39 c9d3 3b39 c8dd bb39
00000130: 4334 b038 a085 3136 ebf9 6538 9a0b a63a
00000140: eb42 4338 f8b5 d037 8400 8837 1f9b 7039
00000150: 8a98 9939 9183 e934 8c26 5439 df8f 143a
00000160: ad9a 9e39 ab3b c139 a1a0 2b3a 8fe7 1c35
00000170: 7ec3 3739 4f4a 8f39 76a0 133a a1c6 6738
00000180: 41d2 9e39 1dac b835 e46d f83a 8d4f 0038
0.0002861919 4.796603e-05 0.00026722814 3.4027357e-06 0.00030987058 0.00023828278 8.537054e-05 0.00027199017
0.00012432155 0.0005313673 0.0002617112 0.0002378916 0.0005160488 1.3123465e-05 4.4224555e-05 0.0006751926
2.9047698e-05 0.00021806231 1.18698945e-05 0.000115629715 7.060249e-05 0.00013180789 0.00030917337 0.0007891338
3.9860643e-06 0.0007279041 3.278418e-05 1.8916575e-05 0.00022262995 7.2227026e-06 0.00012609681 1.854058e-05
0.00017313051 0.000104888 0.00028799046 5.4576267e-06 0.00019504686 4.3426167e-05 0.0011645219 0.00040407985
2.6938899e-06 0.00031173948 3.0365762e-05 0.00019071958 7.631519e-07 0.00042210773 0.000737435 5.7526035e-05
0.0006308988 0.00046568623 0.00012164691 2.5095707e-05 0.00023469944 0.000246317 0.0005747134 0.0001788336
9.352117e-05 0.000102431295 0.0002002246 0.00041846858 8.666512e-05 7.687493e-06 1.5986514e-06 0.00034446674
0.00058788987 5.513936e-06 2.5144398e-05 0.00015122384 2.7344415e-05 0.0005885673 0.00044216178 2.565296e-05
0.00022868751 0.00021320384 0.00017912606 0.0003583266 8.4020685e-05 2.6452835e-06 5.483061e-05 0.0012668252
4.6553945e-05 2.4880268e-05 1.6212703e-05 0.0002294597 0.00029296085 4.349536e-07 0.00020232255 0.00056671904
0.0003025135 0.00036856285 0.0006547068 5.845149e-07 0.00017525067 0.0002733045 0.00056315155 5.525968e-05
0.0003029276 1.375916e-06 0.0018953648 3.0591666e-05
