TSTE-R/PV-DC-noisy-comparison/Noisy-5%/Proposed_A30_noisy0.05/save_model_0224.ckpt-300000.pt (torch, 265324 bytes, 24 tensors)

linears.0.weight f4 [100, 6]
-4.6568036 -4.603147 -4.730584 -4.962826 -4.5769134 -4.7940273 11.39489 11.690703
11.691642 11.520355 11.764916 11.6985235 -4.2254305 -4.1810703 -4.2217965 -4.421657
-4.3945613 -4.320859 3.680386 3.6622205 3.9308164 4.014034 3.8022232 3.8489206
-5.299114 -5.4155674 -5.1709423 -5.396131 -5.1709833 -5.364134 -4.995882 -4.732862
-4.807733 -4.537524 -4.966805 -4.920522 -1.5035173 -1.7197785 -1.3348657 -1.4312112
-1.7049809 -1.4343315 10.501252 10.6406 10.498817 10.381651 10.50139 10.31429
-3.1167245 -3.0333173 -3.2088242 -3.070783 -3.0063825 -3.11249 6.1802993 6.41004
6.2134557 6.3746557 6.4848475 6.44856 13.442925 13.45445 13.267762 13.604913
13.391148 13.167189 -6.726078 -7.0063157 -6.946714 -6.850291 -6.6557117 -6.9613533
8.999452 9.100407 9.28029 9.303683 9.420132 9.205816 -2.2833476 -2.1651182
-2.396433 -1.962349 -2.2514944 -2.2684438 9.782091 9.752659 10.082297 10.060839
9.812775 10.089609 7.547386 7.4761806 7.489979 7.483101 7.534874 7.276487
-6.9389644 -6.9639983 -6.803212 -6.8623176 -7.012725 -6.9755645 4.5161357 4.305541
4.571716 4.320511 4.573291 4.3912115 3.5466309 3.7893353 3.4456666 3.6741908
3.525889 3.7375174 6.7357407 6.6324267 6.7248096 6.878939 6.8967533 6.576739
6.5620575 6.738721 6.4789762 6.504426 6.7439528 6.679394 -3.7855415 -3.8032596
-3.8813033 -3.73616 -4.09881 -4.006596 -7.3500686 -7.098212 -7.308473 -7.495424
-7.365276 -7.0583615 8.894709 9.200572 8.897276 8.888547 9.338037 9.265597
2.8906548 3.1170623 3.124177 2.9592147 2.7058918 3.0105882 9.179977 9.007081
9.229662 8.917669 8.998908 9.254214 8.5986185 8.548739 8.639219 8.609845
8.519123 8.43588 2.301238 2.416114 2.2205136 2.6221952 2.532606 2.419094
9.737517 9.492693 9.734052 9.726943 9.639396 9.782478 -1.3922017 -1.2966428
-1.690425 -1.6120353 -1.3801425 -1.5038071 9.319817 9.218597 9.185682 9.335995
9.189037 9.111592 5.964172 5.819925 5.917965 6.010075 6.0962214 5.968475
6.125964 6.325564 6.110145 6.2979736 5.9580884 6.4097905 9.448062 9.083086
9.496326 9.199944 9.403677 9.191822 9.472145 9.333629 9.365296 9.52907
9.301867 9.656274 2.9280324 2.839936 2.7347124 2.7547488 2.7725503 2.864878
9.00086 9.014936 9.101673 9.392458 9.326999 8.966341 9.864731 9.548242
9.743933 9.863604 9.863911 9.975339 -9.186599 -8.894365 -9.144649 -9.180289
-9.08897 -9.233575 -5.2431645 -5.457288 -5.2642555 -5.3689733 -5.473969 -5.502704
-0.89711416 -1.0423359 -0.91716677 -1.0721705 -0.96513784 -0.73127216 4.582664 4.6057343
4.7026815 4.5277996 4.6741004 4.6684713 -7.6251683 -7.5617537 -7.557655 -7.7531395
00000000: 8904 95c0 fb4c 93c0 f260 97c0 78cf 9ec0
00000010: 1376 92c0 ac68 99c0 7851 3641 1f0d 3b41
00000020: f710 3b41 6053 3841 193d 3c41 272d 3b41
00000030: ba36 87c0 54cb 85c0 f518 87c0 377e 8dc0
00000040: 3fa0 8cc0 7a44 8ac0 728b 6b40 d261 6a40
00000050: 7f92 7b40 f772 8040 a057 7340 b754 7640
00000060: 5892 a9c0 544c adc0 5c78 a5c0 1bad acc0
00000070: b278 a5c0 fca6 abc0 44de 9fc0 9b73 97c0
00000080: f3d8 99c0 6633 91c0 11f0 9ec0 eb74 9dc0
00000090: 4173 c0bf b421 dcbf e1dc aabf ee31 b7bf
000000a0: d03c dabf 2d98 b7bf 2105 2841 e63f 2a41
000000b0: 28fb 2741 3e1b 2641 b205 2841 5507 2541
000000c0: 6a78 47c0 df21 42c0 605d 4dc0 b587 44c0
000000d0: 9268 40c0 0933 47c0 03c5 c540 0c1f cd40
000000e0: a1d4 c640 2efd cb40 df83 cf40 9b5a ce40
000000f0: 3916 5741 6d45 5741 c148 5441 b9ad 5941
00000100: 2442 5641 ceac 5241 083c d7c0 bd33 e0c0
00000110: 7b4b dec0 9535 dbc0 97fb d4c0 68c3 dec0
00000120: c1fd 0f41 449b 1141 117c 1441 e3db 1441
00000130: dcb8 1641 064b 1341 5e22 12c0 4c91 0ac0
00000140: 295f 19c0 412e fbbf 7c18 10c0 2f2e 11c0
00000150: 7283 1c41 e40a 1c41 1751 2141 32f9 2041
00000160: 2001 1d41 0a6f 2141 3084 f140 df3c ef40
00000170: e8ad ef40 9075 ef40 b01d f140 fbd8 e840
00000180: ff0b dec0 13d9 dec0 eab3 d9c0 1b98 dbc0
00000190: 3e68 e0c0 d337 dfc0 2f84 9040 fec6 8940
000001a0: 7f4b 9240 a041 8a40 6658 9240 ce84 8c40
000001b0: 00fc 6240 7884 7240 cd85 5c40 f125 6b40
000001c0: 2aa8 6140 7c33 6f40 308b d740 d73c d440
000001d0: a431 d740 4520 dc40 34b2 dc40 a574 d240
000001e0: 60fc d140 9aa3 d740 c653 cf40 4224 d040
000001f0: 76ce d740 98bd d540 5046 72c0 9b68 73c0
00000200: 4667 78c0 3f1d 6fc0 7429 83c0 0936 80c0
00000210: c333 ebc0 8d24 e3c0 03df e9c0 83da efc0
00000220: 57b0 ebc0 19de e1c0 ba50 0e41 8b35 1341
00000230: 3e5b 0e41 7d37 0e41 9968 1541 e33f 1441
00000240: 7d00 3940 f37d 4740 84f2 4740 c663 3d40
00000250: 552d 2d40 7aad 4040 30e1 1241 011d 1041
00000260: b2ac 1341 c6ae 0e41 87fb 0f41 4311 1441
00000270: f193 0941 a3c7 0841 3e3a 0a41 edc1 0941
00000280: 544e 0841 5df9 0641 7c47 1340 9da1 1a40
00000290: e51c 0e40 0cd2 2740 3716 2240 70d2 1a40
000002a0: dfcc 1b41 12e2 1741 adbe 1b41 8fa1 1b41
000002b0: f73a 1a41 0885 1c41 aa33 b2bf 64f8 a5bf
000002c0: d95f d8bf 2c57 cebf 82a8 b0bf c07c c0bf
000002d0: f81d 1541 607f 1341 8ef8 1241 3c60 1541
000002e0: 4c06 1341 15c9 1141 7fda be40 d33c ba40
000002f0: f85f bd40 8952 c040 3f14 c340 bffd be40
00000300: e607 c440 056b ca40 4f86 c340 0089 c940
00000310: a9a8 be40 011d cd40 432b 1741 5254 1141
00000320: f4f0 1741 f832 1341 7675 1641 b411 1341
00000330: e88d 1741 8b56 1541 41d8 1541 1277 1841
00000340: 72d4 1441 1980 1a41 e264 3b40 83c1 3540
00000350: 8705 2f40 ce4d 3040 7771 3140 295a 3740
00000360: 8603 1041 2e3d 1041 74a0 1141 8247 1641
00000370: 633b 1541 2276 0f41 f0d5 1d41 99c5 1841
00000380: 26e7 1b41 52d1 1d41 94d2 1d41 fd9a 1f41
00000390: 4ffc 12c1 524f 0ec1 7b50 12c1 77e2 12c1
000003a0: 6c6c 11c1 b9bc 13c1 01c8 a7c0 1aa2 aec0
000003b0: c874 a8c0 a1ce abc0 c12a afc0 2716 b0c0
000003c0: 46a9 65bf 436b 85bf 71cb 6abf e23c 89bf
000003d0: 4613 77bf a734 3bbf 2fa5 9240 2d62 9340
000003e0: 5e7c 9640 bce3 9040 3b92 9540 1e64 9540
000003f0: 6101 f4c0 e3f9 f1c0 4fd8 f1c0 b819 f8c0

linears.0.bias f4 [100]
0.16119127 0.06356181 0.1610387 -0.05101018 0.1578578 0.16999874 0.20002407 -0.024590528
0.19709623 -0.0018811837 -0.02861424 0.19733141 -0.016068874 0.007015811 0.0064493227 0.021816052
0.022381948 0.07150555 -0.01060055 0.020703066 -0.017759437 0.20334671 0.21379331 -0.003156544
0.24727444 -0.00023095636 0.021360258 -0.008180903 -0.018761817 0.0034455508 -0.02466321 0.05737521
-0.014755022 -0.023010023 -0.020827852 -0.010738918 -0.019639185 0.107155755 0.1817568 0.14565906
-0.10402107 0.06691198 0.025092283 -0.021151463 -0.10567043 -0.015106835 0.1549323 -0.024819268
0.014809947 -0.01709849 -0.02146428 -0.018599026 0.15625466 -0.020851973 0.1541746 -0.010489037
0.005726269 0.033421025 1.0041386 0.16074012 0.10979355 0.066528745 -0.029534759 0.18128413
-0.006240916 -0.016503204 -0.013216042 0.23527095 -0.015795046 -0.0012468083 -0.017172664 -0.014251065
0.17050579 -0.016519044 0.1460842 0.15736154 -0.019781088 0.213556 -0.024502832 0.31006265
0.15494698 0.021650385 -0.018804383 0.16276892 1.1685619 0.036602043 -0.026641915 0.15877521
0.15428284 -0.014392363 0.013233614 -0.11884135 -0.0115528 -0.01736304 0.034020375 -0.020318078
0.14184336 0.12087587 0.3610798 0.019827485
00000000: 530f 253e b22c 823d 54e7 243e 0df0 50bd
00000010: 7aa5 213e 2614 2e3e 1cd3 4c3e 1372 c9bc
00000020: 98d3 493e 0d92 f6ba 6968 eabc 3f11 4a3e
00000030: dfa2 83bc e3e4 e53b d754 d33b 94b7 b23c
00000040: 595a b73c 8071 923d eead 2dbc 7a99 a93c
00000050: 3d7c 91bc 1f3a 503e a2ec 5a3e 05de 4ebb
00000060: 8335 7d3e e02c 72b9 b5fb ae3c 3209 06bc
00000070: 62b2 99bc c0ce 613b 800a cabc 4502 6b3d
00000080: 0cbf 71bc 847f bcbc 2c9f aabc 49f2 2fbc
00000090: 5be2 a0bc 7a74 db3d 741e 3a3e a627 153e
000000a0: 0009 d5bd 2609 893d 558e cd3c d545 adbc
000000b0: bd69 d8bd a982 77bc 93a6 1e3e c751 cbbc
000000c0: 6ca5 723c 2212 8cbc dcd5 afbc fc5c 98bc
000000d0: 3901 203e c2d1 aabc f2df 1d3e 36da 2bbc
000000e0: 6da3 bb3b 7ce4 083d 9d87 803f 0f99 243e
000000f0: 71db e03d 3940 883d e1f2 f1bc 8ca2 393e
00000100: 9980 ccbb ba31 87bc 1988 58bc deea 703e
00000110: 9d64 81bc f26b a3ba b0ad 8cbc 4d7d 69bc
00000120: 1299 2e3e f252 87bc 1997 153e 6223 213e
00000130: f30b a2bc 6dae 5a3e 2aba c8bc 88c0 9e3e
00000140: 6caa 1e3e 265c b13c a60b 9abc e5ac 263e
00000150: 7093 953f 06ec 153d 2540 dabc f895 223e
00000160: 52fc 1d3e f2cd 6bbc cdd1 583c 1863 f3bd
00000170: f547 3dbc ef3c 8ebc f358 0b3d 1972 a6bc
00000180: 633f 113e c58d f73d 74df b83e 406d a23c

linears.1.weight f4 [100, 100]
0.26455504 -0.2120018 0.07009287 -0.14097272 0.037452474 0.27031007 0.11183399 -0.17007157
-0.022534203 -0.6946718 -0.1952689 0.105732076 -0.60357004 -0.050502248 0.041604977 -0.6266865
0.29622898 -0.61343217 -0.224667 -0.44587165 -0.13516141 0.023084264 0.23494373 -0.45897335
-0.074383155 -0.49522927 -0.27244776 0.0024665662 -0.17143816 0.15934174 -0.21491078 -0.0779901
-0.6495493 -0.37713268 -0.5014653 -0.06892248 -0.26125154 -0.14655511 0.15669024 0.2871406
0.008638399 -0.5016418 -0.09807039 -0.42130187 -0.106237136 -0.33836964 0.412239 -0.17059207
-0.71507525 -0.49346688 -0.46868443 -0.28531078 0.30581397 -0.41148522 0.3202101 -0.53286767
-0.37312332 0.48300144 -0.03963485 0.2777988 0.2665141 0.1791396 -0.04716873 0.17974491
-0.30171725 0.012660771 0.02789318 0.14296909 0.0010047274 -0.48069715 -0.49699754 0.07626348
0.053709406 -0.62684435 0.13438508 0.23701209 -0.23433535 -0.028770061 -0.08947127 0.2713358
0.22129817 -0.08800741 -0.07987378 0.16031158 -0.1391757 0.083763674 -0.2858468 0.4955631
0.3563144 -0.61260235 -0.56263834 0.029249772 -0.7379719 -0.28053302 -0.37589565 -0.38314718
0.34757853 0.08432375 -0.58078945 -0.12696275 0.24925458 -0.14334178 0.20849733 -0.21450423
0.3224285 0.43954194 0.23682046 -0.0861609 0.23296486 -0.8513563 -0.087542064 0.104268745
-0.47839838 0.075390674 -0.017341848 -0.7006645 -0.1513069 -0.7830481 0.16525154 -0.23291355
-0.14081693 0.12144591 0.27378818 -0.82594967 0.124276206 -0.68386495 -0.14964676 0.017475689
-0.0008887642 -0.084141396 -0.0980868 0.018630859 -0.38070205 0.08374994 -0.22811204 -0.076100945
-0.25787267 0.055374175 0.22726658 0.5834682 -0.20378193 -0.94981873 -0.1521064 -0.08941787
-0.2119335 -0.35775304 0.70401275 -0.19718271 -0.7299335 -0.6431401 0.004466607 0.12912066
0.12307779 -0.054713055 0.44129556 -0.47423494 0.06325778 0.22447528 0.12500484 0.41796413
0.17630908 0.10319244 -0.0539349 0.15322116 -0.38977924 0.009292868 0.11090279 0.3584845
0.03361509 -0.36027598 -0.33033353 0.007724607 0.24083132 -0.19246393 0.3962659 0.26454636
-0.12974091 -0.002262513 0.07709527 0.8512529 0.13718086 -0.043602817 0.001196242 0.13586187
0.2950733 -0.02744265 -0.020514373 0.5193978 0.33058348 -0.8026422 -0.6127518 -0.14361389
-0.5373444 -0.15042436 -0.36224172 -0.08505488 0.42555612 0.32074127 -1.0271138 0.036804818
0.68301386 -0.16055839 0.55730253 -0.6374066 0.9036442 0.53815186 0.36220562 -1.8722261
0.3671789 -1.2513417 -1.2758172 0.548207 -2.7488387 -0.07470072 -0.40302858 -0.9744811
0.58555377 -0.18432981 -0.47455785 -0.36283314 -1.019584 0.5843996 0.8879058 -2.7615116
0.18540564 -2.2434611 -0.096929714 0.22714889 -1.6422497 -0.018170288 -1.3779325 -0.07126855
-0.71694934 -1.1970919 -1.9125388 -0.3430173 -1.3930357 -0.33581004 1.3930826 0.7198961
-0.076964594 -0.5210824 0.6525401 -1.4623197 -0.46788207 -2.1708655 0.9129566 -0.9646065
-1.2693993 -1.2383486 -0.84075034 -0.5582588 0.66596484 -1.6149222 0.67908573 -0.95918185
00000000: c273 873e 0017 59be da8c 8f3d 275b 10be
00000010: c467 193d 1566 8a3e 3809 e53d 3e27 2ebe
00000020: a699 b8bc 03d6 31bf 92f4 47be 0f8a d83d
00000030: 9183 1abf 72db 4ebd fb69 2a3d 876e 20bf
00000040: 53ab 973e e409 1dbf 1b0f 66be 4a49 e4be
00000050: c167 0abe 361b bd3c 1795 703e 8efe eabe
00000060: 3256 98bd b18e fdbe 467e 8bbe 1da6 213b
00000070: 7c8d 2fbe 7b2a 233e 9211 5cbe 46b9 9fbd
00000080: dd48 26bf 8917 c1be 0860 00bf 3b27 8dbd
00000090: c3c2 85be 8b12 16be 6873 203e 1804 933e
000000a0: 1288 0d3c 996b 00bf 21d9 c8bd e1b4 d7be
000000b0: db92 d9bd c93e adbe fd10 d33e b0af 2ebe
000000c0: 2c0f 37bf b1a7 fcbe 68f7 efbe 4114 92be
000000d0: a693 9c3e 31ae d2be 94f2 a33e 046a 08bf
000000e0: 050a bfbe f74b f73e 2758 22bd a53b 8e3e
000000f0: 8974 883e 5f70 373e 0034 41bd 0d0f 383e
00000100: af7a 9abe 1f6f 4f3c 3d80 e43c 7d66 123e
00000110: 0fb1 833a f01d f6be 7676 febe 0730 9c3d
00000120: 65fe 5b3d df78 20bf 3e9c 093e 4cb3 723e
00000130: 9bf5 6fbe 31af ebbc b73c b7bd 87ec 8a3e
00000140: fd9b 623e 3b3d b4bd dd94 a3bd b828 243e
00000150: 1384 0ebe 4a8c ab3d 835a 92be 72ba fd3e
00000160: d76e b63e 82d3 1cbf 1109 10bf 389d ef3c
00000170: baeb 3cbf 06a2 8fbe 6575 c0be de2b c4be
00000180: d0f5 b13e eeb1 ac3d 9eae 14bf 8602 02be
00000190: 983c 7f3e 30c8 12be 5380 553e ffa6 5bbe
000001a0: 5915 a53e a40b e13e 1081 723e 2075 b0bd
000001b0: 578e 6e3e 7df2 59bf 4149 b3bd da8a d53d
000001c0: a2f0 f4be 6d66 9a3d 7e10 8ebc c05e 33bf
000001d0: 32f0 1abe d775 48bf b337 293e e480 6ebe
000001e0: 5032 10be a2b8 f83d f72d 8c3e 7071 53bf
000001f0: 8684 fe3d c611 2fbf 003d 19be 2d29 8f3c
00000200: f5fb 68ba 5352 acbd bbe1 c8bd be9f 983c
00000210: 61eb c2be 1785 ab3d 3496 69be d0da 9bbd
00000220: e307 84be 08d0 623d 92b8 683e 2c5e 153f
00000230: 36ac 50be 5227 73bf c8c1 1bbe b720 b7bd
00000240: 1805 59be 682b b7be 2e3a 343f 44ea 49be
00000250: ecdc 3abf d4a4 24bf 9d5c 923b 3538 043e
00000260: 3510 fc3d cc1a 60bd 7ef1 e13e ecce f2be
00000270: 4c8d 813d d9dc 653e 4501 003e 65ff d53e
00000280: 5e8a 343e 8f56 d33d d7ea 5cbd 02e6 1c3e
00000290: 2591 c7be 1d41 183c 0121 e33d 488b b73e
000002a0: faaf 093d 1876 b8be 7a21 a9be b31e fd3b
000002b0: 7c9c 763e 4415 45be 5de3 ca3e 9f72 873e
000002c0: cdda 04be ab46 14bb 20e4 9d3d b6eb 593f
000002d0: 2479 0c3e de98 32bd 39cb 9c3a 601f 0b3e
000002e0: d913 973e 69cf e0bc c20d a8bc 41f7 043f
000002f0: 3d42 a93e f679 4dbf 4ddd 1cbf 850f 13be
00000300: 678f 09bf d808 1abe bf77 b9be 4131 aebd
00000310: 7ee2 d93e 3338 a43e 7778 83bf a6c0 163d
00000320: ffd9 2e3f 6b69 24be 61ab 0e3f 142d 23bf
00000330: 3a55 673f 52c4 093f 0473 b93e 1ba5 efbf
00000340: dffe bb3e f72b a0bf fa4d a3bf 4b57 0c3f
00000350: f9ec 2fc0 b1fc 98bd c359 cebe 9877 79bf
00000360: dae6 153f f4c0 3cbe 3ff9 f2be 44c5 b9be
00000370: ba81 82bf 369b 153f cb4d 633f 9bbc 30c0
00000380: fada 3d3e de94 0fc0 1683 c6bd b899 683e
00000390: 3d35 d2bf dbd9 94bc 1860 b0bf 3ff5 91bd
000003a0: fe89 37bf 4f3a 99bf 12ce f4bf f79f afbe
000003b0: fe4e b2bf 4bef abbe 8850 b23f 1c4b 383f
000003c0: 9d9f 9dbd a865 05bf de0c 273f 4b2d bbbf
000003d0: 3d8e efbe 76ef 0ac0 86b7 693f 74f0 76bf
000003e0: ad7b a2bf 3582 9ebf 6a3b 57bf 0cea 0ebf
000003f0: ac7c 2a3f c5b5 cebf 90d8 2d3f f18c 75bf

linears.1.bias f4 [100]
-0.010175901 0.077137955 0.19976552 0.08617214 0.12952575 0.41744602 0.051511135 0.0889411
0.01671073 0.18666063 0.13207638 0.08530525 0.20319733 0.31727108 0.17579482 0.2301222
0.07612602 0.045946125 0.046543997 -0.008943922 0.034129582 0.08558119 0.009387077 0.117085345
0.052269254 0.039363854 0.19086386 0.132033 0.050588146 0.13958341 0.14274715 0.16703773
0.19464277 0.025312524 0.14937812 0.38497818 0.09546496 -0.025236603 0.23853004 0.075465515
0.033857517 0.04318719 0.09372916 0.085600145 0.18186176 0.17433502 0.15514173 0.08435658
0.039341684 0.39669275 0.13676146 0.05842031 0.3944183 -0.020143285 0.16481857 0.0547546
0.20989136 0.19392785 0.01977647 0.23314251 0.17006789 0.13374841 0.1840992 0.11973308
0.096171364 0.10845561 0.0878999 0.12782547 0.0780687 0.15480058 0.13864638 0.074570514
0.11348218 0.15063293 0.012371254 0.31368712 0.07726538 0.12537293 0.06250416 0.06622731
0.07874389 -0.03756088 0.05036318 -0.070714235 -0.05589525 0.21074796 0.06642313 0.45254657
0.116528116 0.08765565 -0.015979437 0.19632432 0.03173729 -0.02645055 0.11200877 0.1275097
0.17371567 0.3741891 0.29251415 0.12483595
00000000: d3b8 26bc 81fa 9d3d 558f 4c3e 057b b03d
00000010: 66a2 043e 7cbb d53e 57fd 523d c026 b63d
00000020: f1e4 883c f723 3f3e 083f 073e 85b4 ae3d
00000030: f612 503e 5b71 a23e 8f03 343e 27a5 6b3e
00000040: f5e7 9b3d 0132 3c3d eba4 3e3d 8789 12bc
00000050: 76cb 0b3d 3145 af3d 41cc 193c 71ca ef3d
00000060: 4918 563d fe3b 213d d171 433e a933 073e
00000070: 8435 4f3d f4ee 0e3e 4f2c 123e f00b 2b3e
00000080: 6f50 473e 365c cf3c 94f6 183e dc1b c53e
00000090: 2283 c33d febc cebc 3841 743e aa8d 9a3d
000000a0: 2eae 0a3d 0de5 303d 13f5 bf3d 214f af3d
000000b0: f839 3a3e e184 323e 79dd 1e3e 25c3 ac3d
000000c0: bf24 213d 501b cb3e 320b 0c3e 234a 6f3d
000000d0: 32f1 c93e 8803 a5bc 33c6 283e 5c46 603d
000000e0: c3ed 563e 0695 463e 4302 a23c e9bc 6e3e
000000f0: 4726 2e3e 58f5 083e 8084 3c3e 9e36 f53d
00000100: 7ef5 c43d fa1d de3d dd04 b43d aee4 023e
00000110: 7ce2 9f3d 0b84 1e3e 51f9 0d3e 6db8 983d
00000120: 5869 e83d 853f 1a3e cdb0 4a3c 999b a03e
00000130: 503d 9e3d c361 003e 2e02 803d 2fa2 873d
00000140: 7a44 a13d 70d9 19bd 9f49 4e3d a0d2 90bd
00000150: 6bf2 64bd 50ce 573e da08 883d 2fb4 e73e
00000160: 4ba6 ee3d ce84 b33d 4fe7 82bc 3e09 493e
00000170: f6fe 013d d3ae d8bc db64 e53d e791 023e
00000180: 85e2 313e b795 bf3e 6ac4 953e fea9 ff3d

linears.2.weight f4 [100, 100]
-0.32108554 -0.23296273 -0.38586578 -0.57681525 -0.74138963 -0.16869575 -0.65395766 -0.44867527
-0.62412995 -1.0408719 -0.3672418 -0.3773893 0.3093511 -0.19542617 -0.5387896 -0.70740545
-0.56947225 -0.6454234 0.12120947 -0.41077286 -0.41061217 -0.42677632 -0.41684505 -0.87218565
-0.6922091 -0.68936586 0.08369908 -0.013544922 -0.13511623 -0.34586337 -0.16446654 0.9428432
-0.27501443 0.172225 -0.49300796 -1.1595318 -0.7694858 -0.6152561 -0.4053922 -0.7661792
-0.1993916 -0.71728367 -0.18165767 -0.29935676 -0.5708866 2.6561012 -0.39978954 -0.43524647
-0.45305008 0.3296645 -0.45500115 -0.38921717 0.07433864 -0.0064037456 -0.5364588 -0.66415924
0.17888239 -0.6353156 -0.3388996 0.5292814 -0.5515251 -0.20352738 -0.031852826 -0.465394
-0.4082197 -0.33142194 -0.5609181 -0.38997948 -0.22437747 -0.9160418 -0.7303402 -0.4031246
-0.09375162 -0.12982252 -0.7213104 0.060185317 -0.4291198 1.1151199 -0.46177697 -0.0665606
-0.31681904 -0.6620061 -0.35179552 -0.34064764 -0.26688272 -0.5979304 -0.6343071 0.16148691
-0.08221686 -0.538978 -0.55546016 0.12260566 -0.51146835 0.43968654 -0.30228046 -0.30129406
-0.3585801 -0.57701814 -0.44107002 -0.51214427 0.91906244 0.81221086 0.770035 -0.8301174
-0.7791189 -0.5798827 0.51051515 0.26411098 -0.9708515 -0.7801509 0.24086823 0.67737395
-0.54807925 0.8162574 -0.73931605 -0.80764914 -0.80741376 -0.95519334 0.86533475 0.7730178
-0.25448817 -0.8998586 0.5785053 -1.0946072 -0.87785727 -1.0820552 0.929757 -0.04951285
0.8721142 -1.1988415 0.38990444 -0.36628035 -1.0312122 -0.54202056 -0.8042145 0.2895163
-1.0367429 0.52560467 0.6630378 -0.68573433 0.73443544 -0.90259176 0.7794608 0.16996495
-0.563626 -0.563653 0.55583346 -0.6847659 0.38775125 0.98680985 0.5255401 0.432736
0.5006968 0.91314214 -0.97299206 -0.765017 0.9152725 -0.87059605 0.72591716 -0.507745
-0.9024601 0.44067225 1.0488383 0.6461085 -0.9401571 0.5747633 -0.04794799 -0.017882245
-0.62359923 -0.95022124 -0.612757 0.506897 0.9622158 0.82583416 -0.91792256 0.8395181
-1.0341578 -0.4407081 0.6395041 0.97248447 -0.7034399 0.19826293 -0.6596963 0.80475897
0.6936365 -0.8208542 -0.8131075 1.0954758 -0.8630653 -0.9330084 -1.4656126 0.8800788
-0.9228039 -0.19187272 0.22524384 -1.4065983 0.54939413 -0.6248506 -0.5687006 0.7670532
-0.2356125 -0.14500207 -0.2062443 -0.3274419 -0.17704749 -0.04531164 -0.060608827 -0.048871897
-0.04769565 -0.23723072 -0.19890644 -0.31411734 0.011183034 -0.46311107 -0.06833811 -0.03383261
-0.31778795 -0.3166454 -0.35030374 -0.09855461 -0.15662704 -0.05458777 -0.080605246 -0.44273838
-0.33168384 -0.105560884 -0.30662373 -0.06265663 -0.3705695 -0.057512987 -0.07830697 -0.158488
-0.10065195 0.1044142 -0.03160254 -0.29009113 -0.07682643 -0.23100802 -0.22995837 0.061291803
-0.3041007 -0.047514215 -0.41627118 -0.33126557 -0.26631722 -0.20212422 -0.14152269 -0.061422843
-0.31312612 0.2078605 -0.21432881 -0.21336983 0.06412161 -0.33526576 0.0063795378 -0.06588396
00000000: 5365 a4be c88d 6ebe 3390 c5be 2aaa 13bf
00000010: b6cb 3dbf 94be 2cbe c569 27bf c4b8 e5be
00000020: fbc6 1fbf 4a3b 85bf 1e07 bcbe 2c39 c1be
00000030: 4463 9e3e cc1d 48be 1dee 09bf 8618 35bf
00000040: efc8 11bf 783a 25bf ac3c f83d d250 d2be
00000050: c23b d2be 6d82 dabe b76c d5be 8f47 5fbf
00000060: 9e34 31bf 487a 30bf 6c6a ab3d 85eb 5dbc
00000070: e95b 0abe 0115 b1be eb69 28be 2c5e 713f
00000080: b1ce 8cbe c05b 303e 8a6b fcbe 8a6b 94bf
00000090: 05fd 44bf 6c81 1dbf 918f cfbe 5224 44bf
000000a0: 502d 4cbe e79f 37bf 7804 3abe 4a45 99be
000000b0: a025 12bf 90fd 2940 37b1 ccbe a0d8 debe
000000c0: 2ef6 e7be c9c9 a83e e9f5 e8be 7947 c7be
000000d0: db3e 983d 83d6 d1bb 5d55 09bf 5706 2abf
000000e0: f22c 373e 0ba4 22bf 4084 adbe fc7e 073f
000000f0: c030 0dbf 7b69 50be 1c78 02bd 1f48 eebe
00000100: 2c02 d1be 23b0 a9be 5498 0fbf 64ab c7be
00000110: 35c3 65be b781 6abf 93f7 3abf 5966 cebe
00000120: d900 c0bd 32f0 04be cca7 38bf e184 763d
00000130: 97b5 dbbe 40bc 8e3f 086e ecbe ed50 88bd
00000140: 1b36 a2be 3b79 29bf 8b1e b4be 5e69 aebe
00000150: daa4 88be f711 19bf f361 22bf d35c 253e
00000160: 5061 a8bd 76fa 09bf a332 0ebf ad18 fb3d
00000170: 97ef 02bf 981e e13e 81c4 9abe 3743 9abe
00000180: d097 b7be 76b7 13bf eed3 e1be e31b 03bf
00000190: ad47 6b3f 0ded 4f3f 0421 453f 9382 54bf
000001a0: 5674 47bf 3173 14bf 1fb1 023f 8e39 873e
000001b0: b989 78bf f8b7 47bf 29a6 763e 6168 2d3f
000001c0: ec4e 0cbf 3ff6 503f d143 3dbf 18c2 4ebf
000001d0: abb2 4ebf 8d87 74bf 9486 5d3f 7fe4 453f
000001e0: 464c 82be 225d 66bf ec18 143f 171c 8cbf
000001f0: 41bb 60bf c980 8abf 8e04 6e3f fccd 4abd
00000200: e042 5f3f a373 99bf 8ea1 c73e 1989 bbbe
00000210: c3fe 83bf dcc1 0abf 00e1 4dbf 7b3b 943e
00000220: feb3 84bf 078e 063f d8bc 293f 498c 2fbf
00000230: f603 3c3f 4110 67bf be8a 473f 4b0b 2e3e
00000240: cb49 10bf 904b 10bf 1a4b 0e3f d14c 2fbf
00000250: 5587 c63e 929f 7c3f cc89 063f 938f dd3e
00000260: aa2d 003f afc3 693f 0216 79bf 27d8 43bf
00000270: 4c4f 6a3f 62df 5ebf b5d5 393f 94fb 01bf
00000280: a007 67bf cb9f e13e 5540 863f 5e67 253f
00000290: 23ae 70bf b023 133f 1d65 44bd c97d 92bc
000002a0: 33a4 1fbf b341 73bf a5dd 1cbf 00c4 013f
000002b0: c653 763f de69 533f f9fc 6abf a8ea 563f
000002c0: 485f 84bf 7ea4 e1be 8ab6 233f bef4 783f
000002d0: a314 34bf 7005 4b3e dbe1 28bf af04 4e3f
000002e0: 2992 313f 8023 52bf d027 50bf 8d38 8c3f
000002f0: d9f1 5cbf a3d9 6ebf 3299 bbbf d84c 613f
00000300: e03c 6cbf 487a 44be 52a6 663e 6a0b b4bf
00000310: 18a5 0c3f 35f6 1fbf 5d96 11bf 995d 443f
00000320: 6744 71be 6c7b 14be b531 53be 77a6 a7be
00000330: f04b 35be b398 39bd f640 78bd e62d 48bd
00000340: 845c 43bd 9cec 72be 21ae 4bbe fdd3 a0be
00000350: 0b39 373c e51c edbe daf4 8bbd 1094 0abd
00000360: 1ab5 a2be 591f a2be 035b b3be 00d7 c9bd
00000370: d762 20be 6d97 5fbd 5d14 a5bd 9bae e2be
00000380: 77d2 a9be 4e30 d8bd c9fd 9cbe 1f52 80bd
00000390: 49bb bdbe bd92 6bbd 685f a0bd ae4a 22be
000003a0: 9c22 cebd 1dd7 d53d aa71 01bd d386 94be
000003b0: 2d57 9dbd 5e8d 6cbe 357a 6bbe 1d0d 7b3d
000003c0: 16b3 9bbe 449e 42bd 7f21 d5be a49b a9be
000003d0: bb5a 88be a7f9 4ebe 53eb 10be 8596 7bbd
000003e0: 1152 a0be 62d9 543e 0379 5bbe 9f7d 5abe
000003f0: 3152 833d f4a7 abbe 710b d13b 2bee 86bd

linears.2.bias f4 [100]
-0.44587556 -0.03293087 -0.29926467 0.008448967 -0.078653485 -0.097523674 -0.11527125 -0.11000451
-0.10640791 0.10135158 -0.07037588 0.07353593 -0.032913677 -0.15968326 0.023110287 -0.1484488
-0.1666278 -0.16464476 -0.056426316 -0.018117484 -0.105856836 -0.07648733 -0.14377022 -0.13321607
0.060448486 0.047055095 -0.13444003 -0.0663666 -0.20469555 -0.09193634 -0.025655502 -0.1279749
-0.21017358 -0.034479786 -0.14958057 0.035801984 -0.094542995 0.12829775 -0.12859146 0.0329187
-0.15480994 0.15290281 -0.037482724 -0.17551117 -0.16877314 0.082552 -0.14444776 0.19623126
-0.3710453 0.17347275 -0.13904291 -0.035046592 -0.06472317 -0.23690583 -0.003389424 0.030478751
-0.017778998 -0.09024521 -0.016181754 0.08178863 0.17130941 -0.070099235 0.13804494 -0.091434054
-0.41907302 -0.0021774448 0.0024608274 -0.079408385 -0.044382486 -0.035236802 -0.05436039 -0.10800517
-0.20104611 0.18312055 0.046218183 -0.2071536 -0.08689343 -0.03467813 -0.0487893 -0.1234842
-0.08739204 -0.37880927 -0.05287048 -0.023383513 -0.10455638 -0.11644252 0.040036593 0.010187719
0.25549838 -0.123123914 -0.14154746 -0.11670345 0.14732553 -0.34015313 -0.080160394 -0.0061785774
-0.09144877 -0.14133264 -0.15757284 0.007855266
00000000: cd49 e4be 85e2 06bd 3839 99be 896d 0a3c
00000010: 1415 a1bd 7eba c7bd 5513 ecbd 0b4a e1bd
00000020: 64ec d9bd 6b91 cf3d 3b21 90bd 019a 963d
00000030: 7ed0 06bd 0284 23be c951 bd3c f602 18be
00000040: 7aa0 2abe a398 28be 481f 67bd 1e6b 94bc
00000050: 78cb d8bd 64a5 9cbd 8038 13be cb69 08be
00000060: d598 773d d8bc 403d a6aa 09be 36eb 87bd
00000070: b69b 51be 1f49 bcbd 7d2b d2bc da0b 03be
00000080: be37 57be ad3a 0dbd a62b 19be 1aa5 123d
00000090: c29f c1bd 7c60 033e 7bad 03be c2d5 063d
000000a0: 7f86 1ebe 8e92 1c3e 7c87 19bd 33b9 33be
000000b0: ded2 2cbe 0611 a93d 1dea 13be d9f0 483e
000000c0: a6f9 bdbe d7a2 313e 4461 0ebe 048d 0fbd
000000d0: 958d 84bd 7197 72be 1921 5ebb 93ae f93c
000000e0: 43a5 91bc 7bd2 b8bd 998f 84bc cc80 a73d
000000f0: bc6b 2f3e 3090 8fbd a75b 0d3e c741 bbbd
00000100: bd90 d6be 76b3 0ebb d545 213b dda0 a2bd
00000110: 69ca 35bd 7754 10bd 00a9 5ebd d131 ddbd
00000120: 08df 4dbe f483 3b3e 474f 3d3d 1320 54be
00000130: 2ff5 b1bd a80a 0ebd 4ad7 47bd 49e5 fcbd
00000140: 99fa b2bd 4af3 c1be b78e 58bd c88e bfbc
00000150: a821 d6bd 6a79 eebd 69fd 233d 64ea 263c
00000160: afd0 823e 6428 fcbd d1f1 10be 3802 efbd
00000170: 81dc 163e 8d28 aebe 222b a4bd aa75 cabb
00000180: 7e49 bbbd 81b9 10be c65a 21be 60b3 003c

linears.3.weight f4 [2, 100]
2.6853156 -0.44829133 0.07648541 0.29980254 0.11835737 0.23325413 0.10620182 -0.01932933
3.233764 -0.42707217 0.15854049 -0.29397267 0.20613492 0.29825446 0.1780463 0.24407662
-0.13534158 0.053240534 0.16940795 0.18374597 -0.05833876 0.10086188 0.106913134 0.12331321
-0.10739193 0.3601654 -0.13437758 0.14387476 0.29769477 0.122017324 -0.6357651 0.20785016
0.25612086 0.12884416 0.19967775 -0.10324494 0.08605279 -0.5140803 0.31285593 -0.16507131
0.09815984 -0.25829357 -0.14701033 0.09672003 0.105917044 -0.542709 -0.06101968 -0.36293265
0.3841689 -0.48623276 0.14859742 0.3098388 0.1713893 0.10137725 -0.09792168 0.4696514
-0.94093055 0.18127555 -1.2518928 -0.11937696 0.22925705 0.23914705 -0.19110878 0.30992246
0.5088932 0.18529433 0.5516311 0.10767639 0.23464742 -0.39561406 -0.1222552 0.17034386
0.08240215 -0.47325414 0.28712147 0.10385805 0.15925851 0.32409757 0.21589915 0.02010367
0.18870457 0.14987652 -1.1210343 0.20145503 0.123149924 0.36941144 -0.17488438 -1.209654
-0.18608859 0.09165297 -0.17409511 0.15931913 -0.16062227 0.30355304 0.03168646 -0.52684516
0.25726357 0.10226064 0.120940566 0.38125855 -1.0860547 -0.5637331 0.08281552 0.21278335
0.10283301 -0.20305134 0.11322468 0.006059684 3.5813432 -0.43900067 0.1178663 -0.39703333
-0.018086158 0.26035455 0.12109602 0.18808353 -0.18366559 -0.037895534 0.104600586 -0.07165164
-0.11034771 0.062268503 0.0790304 0.13269113 -0.069665 -0.20974007 -0.111788124 0.15339422
0.2574956 0.13725024 -0.14119172 0.12059256 0.22619657 0.10970753 0.16857491 -0.06864615
0.09829669 -0.51049316 0.25428334 -0.21169381 0.031598058 -0.29158866 -0.12477189 0.09705435
0.11619824 -0.6809444 -0.10858952 -0.4803391 0.3653963 -0.3910838 0.20510393 0.2507876
0.12277127 0.08259019 0.09362727 -0.39148003 -1.0474519 0.048638806 -1.3919652 -0.0717149
0.20833899 0.18375325 0.0900648 0.24693334 0.5649746 -0.15884519 0.41748723 0.11813981
0.1568694 -0.38272026 -0.14639847 0.14222111 0.09301681 -0.5283529 -0.031921845 0.08958687
-0.31239855 -0.16533962 0.2312709 0.021848232 0.019774998 0.29274657 -1.2345783 0.21367203
0.13224573 0.28412628 -0.24358171 -1.1638571 -0.12014697 0.10079726 -0.19007848 -0.040480897
-0.13995418 0.29085255 0.07506797 -0.7787031 0.13005005 0.10659453 0.11488995 -0.087412186
00000000: 36dc 2b40 7186 e5be 62a4 9c3d b87f 993e
00000010: 5965 f23d 2cda 6e3e 5780 d93d 8b58 9ebc
00000020: fdf5 4e40 34a9 dabe 7058 223e 9683 96be
00000030: 0815 533e cfb4 983e c551 363e 39ef 793e
00000040: fc96 0abe bf12 5a3d 4779 2d3e e727 3c3e
00000050: a0f4 6ebd ac90 ce3d 46f5 da3d a38b fc3d
00000060: 4df0 dbbd 9967 b83e 479a 09be e853 133e
00000070: 736b 983e 38e4 f93d 80c1 22bf acd6 543e
00000080: 4622 833e b9ef 033e 5378 4c3e 1572 d3bd
00000090: 723c b03d c49a 03bf a72e a03e 7408 29be
000000a0: 0708 c93d 0e3f 84be e089 16be 2715 c63d
000000b0: 09eb d83d faee 0abf c6ef 79bd 4fd2 b9be
000000c0: c9b1 c43e 80f3 f8be ec29 183e 31a3 9e3e
000000d0: ad80 2f3e e09e cf3d 298b c8bd 2676 f03e
000000e0: d3e0 70bf 4ca0 393e 063e a0bf e87b f4bd
000000f0: 5cc2 6a3e f7e2 743e 05b2 43be 28ae 9e3e
00000100: d346 023f ccbd 3d3e b237 0d3f 7085 dc3d
00000110: 6a47 703e ed8d cabe ef60 fabd 9f6e 2e3e
00000120: 75c2 a83d 5e4e f2be 9601 933e 88b3 d43d
00000130: aa14 233e 1ef0 a53e ab14 5d3e 74b0 a43c
00000140: c53b 413e 3b79 193e 0d7e 8fbf 3a4a 4e3e
00000150: 0736 fc3d 7f23 bd3e e414 33be f1d5 9abf
00000160: 028e 3ebe 8db4 bb3d fd45 32be 8e24 233e
00000170: 2a7a 24be 4e6b 9b3e a9c9 013d 53df 06bf
00000180: 0db8 833e 076e d13d b0af f73d 5234 c33e
00000190: d703 8bbf d050 10bf 2f9b a93d e1e3 593e
000001a0: 1d9a d23d b1ec 4fbe 57e2 e73d 5090 c63b
000001b0: ba34 6540 b2c4 e0be e363 f13d f447 cbbe
000001c0: 6c29 94bc 314d 853e 3101 f83d f898 403e
000001d0: d512 3cbe 5938 1bbd d538 d63d 18be 92bd
000001e0: fbfd e1bd 420d 7f3d b1da a13d 2fe0 073e
000001f0: 86ac 8ebd 1ac6 56be 2cf1 e4bd 6013 1d3e
00000200: 77d6 833e 548b 0c3e 9094 10be 3bf9 f63d
00000210: 13a0 673e 57ae e03d e79e 2c3e 5a96 8cbd
00000220: c64f c93d aeaf 02bf 6d31 823e 43c6 58be
00000230: f76c 013d 1c4b 95be 6888 ffbd 6ec4 c63d
00000240: 58f9 ed3d 5f52 2ebf 2f64 debd 02ef f5be
00000250: 3915 bb3e 233c c8be c406 523e 3b67 803e
00000260: 816f fb3d 0c25 a93d a7bf bf3d 1270 c8be
00000270: e712 86bf 7c39 473d ea2b b2bf 43df 92bd
00000280: d156 553e d029 3c3e e573 b83d 18dc 7c3e
00000290: 2da2 103f 50a8 22be e3c0 d53e 49f3 f13d
000002a0: 5fa2 203e e9f3 c3be 7be9 15be 69a2 113e
000002b0: 997f be3d 2342 07bf 7bc0 02bd 5279 b73d
000002c0: b4f2 9fbe ca4e 29be 47d2 6c3e 10fb b23c
000002d0: 2dff a13c e1e2 953e a906 9ebf d7cc 5a3e
000002e0: 6d6b 073e 0079 913e 7c6d 79be 45f9 94bf
000002f0: 9d0f f6bd cb6e ce3d efa3 42be 4ccf 25bd
00000300: 2650 0fbe a0ea 943e 3cbd 993d 1659 47bf
00000310: d72b 053e 3c4e da3d 6c4b eb3d 2905 b3bd

linears.3.bias f4 [2]
-0.37285158 0.21172184
00000000: 67e6 bebe 9ccd 583e

exp_avg f4 [100, 6]
-1.2743311e-07 -1.2743229e-07 -2.548702e-07 -3.8230166e-07 -5.0974495e-07 -6.371561e-07 3.980315e-08 3.9805684e-08
7.961223e-08 1.1941795e-07 1.592326e-07 1.9900874e-07 -1.19097145e-07 -1.1909691e-07 -2.3819516e-07 -3.5729678e-07
-4.763851e-07 -5.954984e-07 4.674392e-08 4.6744503e-08 9.348939e-08 1.4023485e-07 1.8698121e-07 2.3373336e-07
-1.3657996e-07 -1.3657882e-07 -2.731556e-07 -4.097293e-07 -5.4631664e-07 -6.828678e-07 -1.014331e-07 -1.01432796e-07
-2.0286222e-07 -3.0428953e-07 -4.0572513e-07 -5.0713356e-07 -5.9170237e-08 -5.916985e-08 -1.1833822e-07 -1.7750963e-07
-2.3667873e-07 -2.9585007e-07 1.236596e-07 1.2365857e-07 2.4732012e-07 3.7095126e-07 4.946245e-07 6.1822084e-07
-5.7649657e-08 -5.764974e-08 -1.1530072e-07 -1.7294869e-07 -2.306043e-07 -2.8825085e-07 1.8048316e-07 1.8048254e-07
3.6094482e-07 5.414376e-07 7.218766e-07 9.024301e-07 1.2243898e-07 1.2243753e-07 2.4486894e-07 3.6732564e-07
4.89767e-07 6.122071e-07 -8.7108e-08 -8.710784e-08 -1.7421166e-07 -2.6129786e-07 -3.484215e-07 -4.3551822e-07
1.6637779e-07 1.6637749e-07 3.327315e-07 4.992571e-07 6.654954e-07 8.3201434e-07 5.7471143e-09 5.7469958e-09
1.1494021e-08 1.7240836e-08 2.2989921e-08 2.8737205e-08 5.577491e-08 5.57747e-08 1.1154824e-07 1.6734586e-07
2.2314067e-07 2.7885721e-07 9.810152e-08 9.8094176e-08 1.9621572e-07 2.9426246e-07 3.9245054e-07 4.9045855e-07
-5.988269e-08 -5.9881394e-08 -1.1976245e-07 -1.7967855e-07 -2.3952185e-07 -2.9937019e-07 3.053993e-07 3.053982e-07
6.107952e-07 9.162271e-07 1.2216142e-06 1.5270376e-06 3.084804e-08 3.0847332e-08 6.169372e-08 9.254062e-08
1.2338562e-07 1.5423663e-07 1.5152914e-07 1.5152948e-07 3.0306992e-07 4.5460044e-07 6.0614485e-07 7.5763285e-07
9.42061e-08 9.42048e-08 1.8841067e-07 2.8262414e-07 3.7681093e-07 4.7100295e-07 -6.315732e-08 -6.3156996e-08
-1.2631706e-07 -1.8948363e-07 -2.5264438e-07 -3.1578165e-07 -1.17891396e-07 -1.1789156e-07 -2.3578815e-07 -3.5374273e-07
-4.7158116e-07 -5.8958557e-07 1.9257682e-07 1.9257153e-07 3.8515375e-07 5.777084e-07 7.7025607e-07 9.628208e-07
-1.665215e-08 -1.6652342e-08 -3.3305188e-08 -4.995722e-08 -6.6605836e-08 -8.326189e-08 1.8468639e-07 1.846856e-07
3.6936703e-07 5.54017e-07 7.387587e-07 9.233644e-07 4.689847e-08 4.6897537e-08 9.3797254e-08 1.4070359e-07
1.8759629e-07 2.3448416e-07 8.008194e-09 8.008e-09 1.601712e-08 2.4025448e-08 3.2035274e-08 4.0039023e-08
1.2436931e-07 1.2436924e-07 2.4873594e-07 3.730897e-07 4.974818e-07 6.218426e-07 -1.3281636e-08 -1.3281649e-08
-2.6562274e-08 -3.984475e-08 -5.312478e-08 -6.6394435e-08 9.685822e-08 9.685943e-08 1.9370961e-07 2.9060772e-07
3.8740623e-07 4.8433293e-07 8.174841e-08 8.174879e-08 1.6349527e-07 2.4523655e-07 3.2698907e-07 4.087749e-07
1.4604348e-07 1.460425e-07 2.9208067e-07 4.3810638e-07 5.841886e-07 7.3020345e-07 8.3246846e-08 8.32474e-08
1.6649571e-07 2.497326e-07 3.3299614e-07 4.1624236e-07 1.2940826e-07 1.294109e-07 2.5882667e-07 3.8826946e-07
5.176348e-07 6.470693e-07 2.4395696e-08 2.4395867e-08 4.8791552e-08 7.31942e-08 9.758295e-08 1.219804e-07
1.10490454e-07 1.1048903e-07 2.2097872e-07 3.3147944e-07 4.419785e-07 5.5244675e-07 1.7427492e-08 1.742879e-08
3.4863575e-08 5.228512e-08 6.974935e-08 8.710112e-08 -1.9927228e-07 -1.9927026e-07 -3.985316e-07 -5.9778546e-07
-7.9705734e-07 -9.962787e-07 -1.7813224e-07 -1.7813011e-07 -3.562557e-07 -5.343635e-07 -7.125039e-07 -8.906374e-07
2.5962155e-08 2.5962294e-08 5.192393e-08 7.78855e-08 1.0384816e-07 1.2981316e-07 3.3513933e-07 3.3514027e-07
6.702689e-07 1.0054346e-06 1.34054e-06 1.6756579e-06 -3.9288846e-08 -3.9288867e-08 -7.8575326e-08 -1.178933e-07
00000000: 8cd4 08b4 52d4 08b4 18d5 88b4 243f cdb4
00000010: 68d5 08b5 0909 2bb5 07f4 2a33 d0f6 2a33
00000020: 49f7 aa33 5b39 0034 86f9 2a34 1baf 5534
00000030: 59c2 ffb3 38c2 ffb3 96c2 7fb4 7fd2 bfb4
00000040: dfc1 ffb4 57da 1fb5 7cc3 4833 20c4 4833
00000050: 56c4 c833 7693 1634 01c5 4834 23f8 7a34
00000060: d0a6 12b4 80a6 12b4 38a6 92b4 c4f8 dbb4
00000070: 98a6 12b5 514e 37b5 70d3 d9b3 45d3 d9b3
00000080: 58d2 59b4 3c5d a3b4 70d2 d9b4 f421 08b5
00000090: 5d22 7eb3 f021 7eb3 2021 feb3 7a99 3eb4
000000a0: c121 7eb4 53d5 9eb4 4bc7 0434 02c7 0434
000000b0: 6bc7 8434 2727 c734 56c6 0435 d0f3 2535
000000c0: 789a 77b3 8f9a 77b3 3e9b f7b3 c6b3 39b4
000000d0: 079c 77b4 e5c0 9ab4 d5ca 4134 aaca 4134
000000e0: e1c7 c134 4f57 1135 fbc6 4135 863e 7235
000000f0: c577 0334 5f77 0334 8876 8334 da34 c534
00000100: 8878 0335 8d56 2435 2110 bbb3 0b10 bbb3
00000110: f00e 3bb4 8148 8cb4 b00e bbb4 2bd1 e9b4
00000120: 94a5 3234 7fa5 3234 45a2 b234 b004 0635
00000130: 7fa4 3235 9757 5f35 2778 c531 1c77 c531
00000140: 3d77 4532 0019 9432 5f7b c532 c8d9 f632
00000150: 298d 6f33 ee8c 6f33 4b8c ef33 aeaf 3334
00000160: 7198 6f34 d8b5 9534 e2ab d233 d8a7 d233
00000170: 5eaf 5234 20fb 9d34 feb1 d234 0ea8 0335
00000180: db98 80b3 2598 80b3 0d98 00b4 aaed 40b4
00000190: a297 80b4 20b9 a0b4 c3f5 a334 9cf5 a334
000001a0: 87f5 2335 a6f2 7535 58f6 a335 9df4 cc35
000001b0: c77d 0433 007d 0433 7b7c 8433 beba c633
000001c0: fb7b 0434 3e9c 2534 03b4 2234 1bb4 2234
000001d0: 9db5 a234 cf0f f434 f5b5 2235 2260 4b35
000001e0: 5a4e ca33 a34d ca33 ee4d 4a34 91bb 9734
000001f0: 804c ca34 27de fc34 1ba1 87b3 eda0 87b3
00000200: c5a1 07b4 dd74 4bb4 2ea3 87b4 b388 a9b4
00000210: 7b2b fdb3 922b fdb3 f42c 7db4 08ea bdb4
00000220: 9f2d fdb4 0344 1eb5 1dc7 4e34 a9c5 4e34
00000230: 21c7 ce34 d213 1b35 98c3 4e35 453a 8135
00000240: 770a 8fb2 e30a 8fb2 710b 0fb3 8b90 56b3
00000250: f208 8fb3 b5cd b2b3 354e 4634 fe4d 4634
00000260: 6b4d c634 c2b7 1435 1c4f 4635 1edd 7735
00000270: 6a6d 4933 636c 4933 966d c933 4f14 1734
00000280: 136e 4934 84c6 7b34 6994 0932 8e93 0932
00000290: 0596 8932 8560 ce32 2897 0933 5ff7 2b33
000002a0: 608a 0534 5b8a 0534 028a 8534 0f4d c834
000002b0: b08a 0535 b3ec 2635 412d 64b2 4f2d 64b2
000002c0: 0f2b e4b2 c421 2bb3 502b 64b3 ba94 8eb3
000002d0: 5f00 d033 0901 d033 7efe 4f34 d204 9c34
000002e0: b5fc cf34 1b03 0235 aa8d af33 df8d af33
000002f0: 3d8d 2f34 0ea9 8334 098d af34 9875 db34
00000300: 20d0 1c34 dbcf 1c34 43cf 9c34 e234 eb34
00000310: 23d1 1c35 3303 4435 70c5 b233 bec5 b233
00000320: fec5 3234 fd12 8634 a4c6 b234 ea77 df34
00000330: 79f3 0a34 33f4 0a34 def4 8a34 5973 d034
00000340: 98f3 0a35 44b2 2d35 b48e d132 148f d132
00000350: e18e 5133 f02e 9d33 cb8e d133 b8f9 0234
00000360: c546 ed33 fd45 ed33 2b46 6d34 30f6 b134
00000370: 1049 ed34 da4b 1435 76b3 9532 51b6 9532
00000380: e8bc 1533 1990 6033 1cc9 9533 590c bb33
00000390: 8cf7 55b4 fef6 55b4 c4f5 d5b4 8177 20b5
000003a0: 5df5 55b5 e0b7 85b5 9e44 3fb4 0844 3fb4
000003b0: 6943 bfb4 2e71 0fb5 e542 3fb5 2314 6fb5
000003c0: 6203 df32 b003 df32 f702 5f33 0242 a733
000003d0: 2103 df33 c562 0b34 33ed b334 54ed b334
000003e0: 87ec 3335 78f2 8635 9bec b335 2be7 e035
000003f0: 8bbe 28b3 91be 28b3 3ebd a8b3 872c fdb3

exp_avg_sq f4 [100, 6]
5.7550364e-11 5.7550374e-11 2.302015e-10 5.179536e-10 9.208069e-10 1.438762e-09 2.9392235e-11 2.939223e-11
1.1756891e-10 2.645294e-10 4.702753e-10 7.3480316e-10 5.004415e-11 5.0044153e-11 2.0017668e-10 4.5039805e-10
8.0070695e-10 1.2511053e-09 8.355252e-12 8.35525e-12 3.3420943e-11 7.519706e-11 1.3368337e-10 2.0887989e-10
7.0550364e-11 7.0550336e-11 2.8220157e-10 6.3495403e-10 1.1288066e-09 1.7637614e-09 3.6850814e-11 3.685081e-11
1.4740328e-10 3.3165704e-10 5.89613e-10 9.212694e-10 1.17800995e-11 1.1780097e-11 4.7120367e-11 1.06020616e-10
1.8848102e-10 2.9450106e-10 6.6140385e-11 6.614041e-11 2.6456157e-10 5.9526367e-10 1.0582466e-09 1.6535054e-09
1.0414096e-11 1.0414094e-11 4.1656362e-11 9.372675e-11 1.6662502e-10 2.603511e-10 2.2868223e-10 2.2868216e-10
9.147289e-10 2.0581448e-09 3.6589172e-09 5.717065e-09 5.6527234e-11 5.6527245e-11 2.2610898e-10 5.08745e-10
9.044364e-10 1.4131791e-09 2.3712116e-11 2.371212e-11 9.484852e-11 2.1340933e-10 3.793943e-10 5.9280514e-10
1.5210108e-10 1.5210108e-10 6.0840427e-10 1.3689079e-09 2.4336178e-09 3.80252e-09 3.4243999e-12 3.4243981e-12
1.3697574e-11 3.081941e-11 5.4789943e-11 8.560889e-11 3.2968385e-11 3.2968392e-11 1.3187355e-10 2.9671568e-10
5.2749416e-10 8.242099e-10 1.4210129e-10 1.4210136e-10 5.684052e-10 1.2789128e-09 2.2736217e-09 3.5525414e-09
3.7846223e-11 3.7846223e-11 1.513849e-10 3.4061598e-10 6.0553906e-10 9.461546e-10 4.744671e-10 4.744671e-10
1.8978685e-09 4.2702073e-09 7.591476e-09 1.1861705e-08 3.1031013e-12 3.1031002e-12 1.2412403e-11 2.7927854e-11
4.96496e-11 7.7577215e-11 1.4411322e-10 1.4411325e-10 5.7645316e-10 1.2970193e-09 2.305814e-09 3.602833e-09
3.665718e-11 3.665717e-11 1.466287e-10 3.299144e-10 5.865147e-10 9.164288e-10 1.396075e-11 1.3960748e-11
5.5843004e-11 1.256467e-10 2.233717e-10 3.4901818e-10 5.4415316e-11 5.4415316e-11 2.1766132e-10 4.8973847e-10
8.70646e-10 1.3603869e-09 2.5490896e-10 2.5490898e-10 1.0196357e-09 2.2941804e-09 4.0785415e-09 6.3727117e-09
7.550927e-12 7.5509226e-12 3.020364e-11 6.795796e-11 1.2081382e-10 1.8877064e-10 2.3295585e-10 2.329558e-10
9.318227e-10 2.0966013e-09 3.727292e-09 5.823892e-09 3.1868015e-11 3.1868008e-11 1.2747206e-10 2.8681216e-10
5.098875e-10 7.966994e-10 6.396057e-12 6.3960525e-12 2.5584175e-11 5.7564342e-11 1.0233632e-10 1.598998e-10
6.4491676e-11 6.4491676e-11 2.579667e-10 5.804245e-10 1.0318675e-09 1.6122922e-09 5.0532e-13 5.053199e-13
2.0212785e-12 4.547875e-12 8.085075e-12 1.2632895e-11 3.6593277e-11 3.6593284e-11 1.4637308e-10 3.2933975e-10
5.8549227e-10 9.1483127e-10 5.0836647e-11 5.0836644e-11 2.0334655e-10 4.5752988e-10 8.1338636e-10 1.2709155e-09
1.5503161e-10 1.5503161e-10 6.201266e-10 1.3952851e-09 2.480506e-09 3.8757944e-09 2.7875069e-11 2.7875069e-11
1.1150027e-10 2.5087563e-10 4.460013e-10 6.9687645e-10 7.493423e-11 7.493421e-11 2.997368e-10 6.7440886e-10
1.1989468e-09 1.873358e-09 1.4964821e-12 1.4964818e-12 5.985919e-12 1.34682656e-11 2.3943528e-11 3.741154e-11
5.2170636e-11 5.2170622e-11 2.0868247e-10 4.695346e-10 8.3472945e-10 1.3042668e-09 2.4372912e-11 2.43729e-11
9.74916e-11 2.1935635e-10 3.8996595e-10 6.093228e-10 1.9886891e-10 1.9886891e-10 7.9547585e-10 1.7898195e-09
3.181905e-09 4.971736e-09 1.3323881e-10 1.3323881e-10 5.3295546e-10 1.1991501e-09 2.1318234e-09 3.3309746e-09
1.9532752e-12 1.9532741e-12 7.813092e-12 1.7579447e-11 3.1252227e-11 4.883141e-11 5.779326e-10 5.7793265e-10
2.311731e-09 5.201386e-09 9.246933e-09 1.4448329e-08 2.405749e-11 2.4057483e-11 9.6229864e-11 2.1651723e-10
00000000: f31b 7d2e f61b 7d2e f61b 7d2f bf5f 0e30
00000010: 061c 7d30 f0bd c530 b744 012e b644 012e
00000020: b544 012f 346d 912f af44 0130 2dfb 4930
00000030: b418 5c2e b518 5c2e ba18 5c2f e49b f72f
00000040: be18 5c30 5bf3 ab30 b6fc 122d b3fc 122d
00000050: a3fc 122e 2e5c a52e 86fc 122f 76aa 652f
00000060: 5324 9b2e 4f24 9b2e 5724 9b2f eb88 2e30
00000070: 5a24 9b30 d668 f230 5412 222e 5312 222e
00000080: 5612 222f 9454 b62f 5412 2230 923c 7d30
00000090: da3c 4f2d d73c 4f2d d13c 4f2e 4d24 e92e
000000a0: b13c 4f2f 57e7 a12f ba71 912e be71 912e
000000b0: bb71 912f f59f 2330 be71 9130 8d41 e330
000000c0: eb34 372d e934 372d e534 372e 781b ce2e
000000d0: c634 372f 2921 8f2f 5370 7b2f 4e70 7b2f
000000e0: 5370 7b30 446f 0d31 5a70 7b31 d66f c431
000000f0: 029c 782e 059c 782e 059c 782f bfd7 0b30
00000100: 0e9c 7830 d239 c230 f092 d02d f392 d02d
00000110: f892 d02e 63a5 6a2f 0093 d02f f4f2 2230
00000120: a63c 272f a63c 272f a53c 2730 2a24 bc30
00000130: a83c 2731 52a7 8231 81f8 702c 79f8 702c
00000140: 64f8 702d 928b 072e fef7 702e 8541 bc2e
00000150: 1aff 102e 1cff 102e 1bff 102f 051f a32f
00000160: 1aff 1030 9e8e 6230 f53d 1c2f fa3d 1c2f
00000170: f63d 1c30 bec5 af30 fa3d 1c31 f820 7431
00000180: 0f73 262e 0f73 262e 1073 262f 7041 bb2f
00000190: 0673 2630 db09 8230 a76b 0230 a76b 0230
000001a0: a86b 0231 24b9 9231 aa6b 0232 55c8 4b32
000001b0: 815c 5a2c 7c5c 5a2c 7e5c 5a2d f0a7 f52d
000001c0: 7b5c 5a2e 1798 aa2e 4474 1e2f 4674 1e2f
000001d0: 4974 1e30 cf42 b230 4f74 1e31 b595 7731
000001e0: 5138 212e 4e38 212e 4f38 212f 535f b52f
000001f0: 4e38 2130 f2e7 7b30 a199 752d 9f99 752d
00000200: a299 752e 6726 0a2f 8b99 752f f1df bf2f
00000210: 3352 6f2e 3352 6f2e 3752 6f2f 489e 0630
00000220: 4452 6f30 5cf8 ba30 3f23 8c2f 4023 8c2f
00000230: 3e23 8c30 a6a7 1d31 3b23 8c31 f7f6 da31
00000240: 5ad6 042d 55d6 042d 47d6 042e ee70 952e
00000250: 11d6 042f 368e 4f2f 9f11 802f 9d11 802f
00000260: 9911 8030 cd13 1031 9b11 8031 7f1b c831
00000270: 3228 0c2e 3028 0c2e 3228 0c2f 39ad 9d2f
00000280: 2528 0c30 bcfe 5a30 8f0a e12c 850a e12c
00000290: 710a e12d b02b 7d2e 3a0a e12e cbcf 2f2f
000002a0: 96d1 8d2e 96d1 8d2e 96d1 8d2f be8b 1f30
000002b0: 9cd1 8d30 7d97 dd30 253c 0e2b 233c 0e2b
000002c0: 1e3c 0e2c 9e03 a02c f13b 0e2d 803d 5e2d
000002d0: 5ef0 202e 60f0 202e 5cf0 202f 730e b52f
000002e0: 5bf0 2030 8777 7b30 fa94 5f2e f994 5f2e
000002f0: f794 5f2f 9b87 fb2f fa94 5f30 5dac ae30
00000300: 8575 2a2f 8575 2a2f 8875 2a30 3bc4 bf30
00000310: 8675 2a31 d92b 8531 1331 f52d 1331 f52d
00000320: 1231 f52e 9beb 892f 1a31 f52f 528e 3f30
00000330: 39c8 a42e 36c8 a42e 34c8 a42f 4e61 3930
00000340: 31c8 a430 76bc 0031 739c d22b 709c d22b
00000350: 5d9c d22c adef 6c2d 089c d22d a689 242e
00000360: ea72 652e e672 652e e572 652f 8f10 0130
00000370: dd72 6530 cf41 b330 eb62 d62d e462 d62d
00000380: e462 d62e 532f 712f d462 d62f 487d 2730
00000390: 9fa8 5a2f 9fa8 5a2f a3a8 5a30 adfd f530
000003a0: aaa8 5a31 dad3 aa31 647f 122f 647f 122f
000003b0: 687f 1230 58cf a430 6f7f 1231 20e7 6431
000003c0: 1473 092c 0f73 092c 0a73 092d 65a1 9a2d
000003d0: e172 092e 48c3 562e 64dc 1e30 65dc 1e30
000003e0: 67dc 1e31 e0b7 b231 71dc 1e32 6c38 7832
000003f0: a79c d32d a39c d32d 999c d32e 2f10 6e2f

exp_avg f4 [100]
-0.0004096884 -9.925909e-05 -0.00040299477 7.888835e-05 -0.000331724 -0.00026988765 -0.00018956668 5.5461616e-05
-0.00017719809 -0.0003954978 9.0527334e-05 -0.00019158838 1.0121742e-05 2.0589567e-05 -2.6568043e-05 -0.000780707
4.098988e-05 0.0010976838 3.1973166e-06 0.00032441886 1.692117e-05 -0.00014843914 -0.00017083305 -0.00013449007
-0.00011940591 -0.0001363157 -3.384787e-05 -3.0019743e-05 4.277327e-05 -9.609503e-06 4.5098623e-05 0.00016857541
-8.389949e-05 3.727294e-05 4.3569347e-05 1.567183e-05 4.7961392e-05 -0.00024413093 -0.0002320867 -0.00051828707
0.00010762486 0.0012401548 2.8645783e-05 3.362996e-05 0.00012261224 2.6336951e-05 -0.000995542 2.1016864e-05
-0.00054351316 -0.00015530738 2.9392591e-05 1.988767e-05 -0.0002688702 3.8681294e-05 -0.0006685412 9.51113e-06
-7.3407973e-06 -3.689827e-05 -0.00032481394 -0.00042290887 -0.00011598181 -3.813052e-05 2.4282479e-05 -0.00043269838
1.7379058e-06 1.8137205e-05 -3.212026e-05 -0.00017664429 -3.1360687e-05 -7.746096e-06 3.5949965e-05 -3.0985746e-05
-0.0002804752 -0.000102412225 -0.00022812499 -0.00057547266 2.3961007e-05 -0.00012188972 2.1305128e-05 -0.0014051187
-0.00018346583 2.7431723e-05 9.163997e-06 -0.0003540407 -0.0003435268 -3.6669113e-05 7.511971e-05 -0.0002840924
-0.00033792824 -0.00018863908 -0.00027888315 8.71853e-05 -3.352197e-05 3.819944e-05 -0.00012210272 1.9268793e-05
-0.0004205362 -7.3799805e-05 0.0027957545 3.384602e-05
00000000: 72cb d6b9 5129 d0b8 0b49 d3b9 dc70 a538
00000010: 3eeb adb9 b57f 8db9 6bc6 46b9 759f 6838
00000020: 40ce 39b9 d15a cfb9 7ed9 bd38 1de5 48b9
00000030: 8dd0 2937 c2b7 ac37 70de deb7 5ca8 4cba
00000040: 8cec 2b38 28e0 8f3a 7b91 5636 c316 aa39
00000050: f0f1 8d37 54a6 1bb9 a621 33b9 e705 0db9
00000060: 8f69 fab8 f8ef 0eb9 e0f7 0db8 e8d2 fbb7
00000070: 7367 3338 8038 21b7 4728 3d38 9ec3 3039
00000080: 32f3 afb8 8455 1c38 3bbe 3638 0077 8337
00000090: 272a 4938 66fd 7fb9 4d5c 73b9 a8dd 07ba
000000a0: a8b4 e138 b18c a23a 5a4c f037 e50d 0d38
000000b0: 7991 0039 2cee dc37 d97c 82ba 5f4d b037
000000c0: 8d7a 0eba 02da 22b9 1c90 f637 72d4 a637
000000d0: 26f7 8cb9 b93d 2238 0a41 2fba fe91 1f37
000000e0: f850 f6b6 37c3 1ab8 ca4b aab9 deb9 ddb9
000000f0: 433b f3b8 56ee 1fb8 3ab2 cb37 cbdb e2b9
00000100: fd41 e935 5a25 9837 deb8 06b8 9739 39b9
00000110: 4889 03b8 3bf5 01b7 fbc8 1638 b1f6 01b8
00000120: be0c 93b9 25c6 d6b8 d634 6fb9 51db 16ba
00000130: dfff c837 0c9f ffb8 6ab8 b237 f62b b8ba
00000140: bc60 40b9 2d1d e637 11bf 1937 8a9e b9b9
00000150: 631b b4b9 29cd 19b8 9689 9d38 3df2 94b9
00000160: f62b b1b9 6bcd 45b9 1037 92b9 40d7 b638
00000170: f199 0cb8 5638 2038 b308 00b9 6ba3 a137
00000180: 6a7b dcb9 f8c4 9ab8 fa38 373b e3f5 0d38

exp_avg_sq f4 [100]
0.00090931734 4.7031575e-05 0.00078757835 8.592691e-05 0.0008243523 0.00047276987 0.00018746572 0.00014262916
0.00019008592 0.0009900159 0.000112466136 0.0003216113 0.00038415924 1.2274544e-06 4.4477492e-05 0.0015351833
1.0439006e-05 0.0061217044 6.180909e-08 0.0009894451 6.796788e-05 0.00019400638 0.00048502776 0.00066693104
3.644691e-05 0.0006983691 4.7051402e-05 1.2329781e-07 6.580192e-05 1.194439e-08 8.059029e-05 0.00025285518
0.00045400005 5.4367894e-05 0.0001430231 1.1038432e-05 9.809599e-05 0.00014877733 0.0010699789 0.0016296263
4.593003e-05 0.0076885005 4.9725595e-06 0.00012643561 7.7977194e-05 0.00022039693 0.0048054527 3.7717975e-05
0.00087910314 0.000771849 0.00012410255 2.1843829e-05 0.0005467486 0.00013049933 0.002381439 0.0007039747
0.00013558473 0.00020978188 0.00031035015 0.0010909677 0.00019239867 4.3154847e-05 1.5642228e-05 0.00097389665
0.00034191238 2.3368693e-05 1.4071227e-06 0.00021113786 7.5360157e-07 0.00032597224 0.0002241449 1.0974496e-06
0.0005203483 0.00056544074 0.00037754403 0.0016030144 0.000117401854 5.3634216e-05 2.8077311e-05 0.008488079
0.00017285142 4.77345e-06 1.0544031e-05 0.0006425093 0.00038164025 1.9127561e-05 9.03624e-05 0.001353604
0.00078944565 0.00073345966 0.00061704585 6.296662e-05 0.0006717135 0.00014610114 0.0002976009 2.667765e-05
0.0010273157 6.392517e-05 0.032970615 3.5635812e-06
00000000: 415f 6e3a c543 4538 7d75 4e3a a933 b438
00000010: 5919 583a 19de f739 7292 4439 b98e 1539
00000020: cd51 4739 6cc3 813a ccdb eb38 f09d a839
00000030: fb68 c939 03bf a435 588d 3a38 3438 c93a
00000040: 3023 2f37 9498 c83b e8bb 8433 45b0 813a
00000050: fa89 8e38 316e 4b39 534b fe39 fcd4 2e3a
00000060: 92de 1838 c212 373a 0f59 4538 d863 0434
00000070: 23ff 8938 fc33 4d32 9502 a938 a691 8439
00000080: db06 ee39 1509 6438 79f8 1539 b431 3937
00000090: e2b8 cd38 1c01 1c39 893e 8c3a 2f99 d53a
000000a0: ffa4 4038 d1ef fb3b f6d9 a636 cd93 0439
000000b0: b087 a338 5a1a 6739 0f77 9d3b 5e33 1e38
000000c0: 9d73 663a e955 4a3a 8621 0239 443d b737
000000d0: ad53 0f3a a6d6 0839 eb11 1c3b f18a 383a
000000e0: c02b 0e39 e5f8 5b39 7eb6 a239 cdfe 8e3a
000000f0: a0be 4939 2a01 3538 6e37 8337 194d 7f3a
00000100: b442 b339 e307 c437 5edc bc35 e364 5d39
00000110: 1b4b 4a35 41e7 aa39 7008 6b39 154c 9335
00000120: fc67 083a 163a 143a 1af1 c539 3d1c d23a
00000130: a435 f638 4df5 6038 9187 eb37 9511 0b3c
00000140: 733f 3539 a02b a036 45e6 3037 126e 283a
00000150: e316 c839 2074 a037 f280 bd38 6a6b b13a
00000160: cdf2 4e3a a545 403a 3fc1 213a f20c 8438
00000170: ee15 303a ba32 1939 5107 9c39 d1c9 df37
00000180: ffa6 863a 900f 8638 320c 073d dc25 6f36
