TSTE-R/PV-DC-noisy-comparison/Noisy-5%/Proposed_A30_noisy0.05/save_model_0224.ckpt-4950000.pt (torch, 265366 bytes, 24 tensors)

linears.0.weight f4 [100, 6]
000000 3a e3 d0 c0 96 2b cf c0 cd 57 d3 c0 66 d2 da c0
       -6.5277376 -6.4740705 -6.604468 -6.8381834
000010 cd 7d ce c0 ad 71 d5 c0 88 a0 64 41 2b 5c 69 41
       -6.4528565 -6.6701264 14.289192 14.585002
000020 7f 6c 69 41 90 b1 66 41 0a 9d 6a 41 5f 8e 69 41
       14.588988 14.41835 14.66334 14.597259
000030 27 e7 bf c0 c2 7b be c0 64 e8 bf c0 ff 56 c6 c0
       -5.996967 -5.952607 -5.997118 -6.1981196
000040 70 7d c5 c0 d6 23 c3 c0 bd 34 f7 40 b8 9f f6 40
       -6.171562 -6.0981245 7.725188 7.706997
000050 01 c6 ff 40 e9 50 01 41 9c f4 fb 40 9b 7f fd 40
       7.9929204 8.082253 7.8736095 7.921827
000060 90 7d de c0 65 37 e2 c0 21 7d da c0 0f b9 e1 c0
       -6.9528275 -7.069262 -6.8277745 -7.05384
000070 a7 87 da c0 ee b7 e0 c0 5d 5c da c0 89 f1 d1 c0
       -6.829059 -7.0224524 -6.823775 -6.5607343
000080 d0 75 d4 c0 0e dd cb c0 34 9f d9 c0 9b 25 d8 c0
       -6.6393814 -6.370734 -6.800684 -6.7545905
000090 a0 2b 29 c0 14 03 37 c0 90 a3 1e c0 ca e1 24 c0
       -2.6432877 -2.8595629 -2.478733 -2.576281
0000a0 6b 74 36 c0 ff 25 25 c0 18 b6 4e 41 fa f0 50 41
       -2.8508556 -2.580444 12.9194565 13.058832
0000b0 c7 b0 4e 41 4a d2 4c 41 47 bc 4e 41 af bd 4b 41
       12.918159 12.80134 12.920966 12.733809
0000c0 72 e6 9a c0 06 3b 98 c0 1b fd 9d c0 fa 9e 99 c0
       -4.8406305 -4.757205 -4.9371467 -4.8006563
0000d0 d2 94 97 c0 75 fe 9a c0 a2 51 eb 40 bf ab f2 40
       -4.7369165 -4.8435616 7.353715 7.583465
0000e0 b0 68 ec 40 4a 95 f1 40 b2 1a f5 40 79 f0 f3 40
       7.387779 7.549474 7.6595087 7.6231046
0000f0 18 08 80 41 a6 1f 80 41 f0 49 7d 41 e2 58 81 41
       16.003952 16.015453 15.830551 16.1684
000100 7f 46 7f 41 06 b2 7b 41 b3 18 19 c1 ee 94 1d c1
       15.954711 15.730963 -9.56853 -9.84886
000110 4d b7 1c c1 b9 34 1b c1 33 1c 18 c1 05 01 1d c1
       -9.794751 -9.700372 -9.506885 -9.812749
000120 52 a0 2d 41 d5 3d 2f 41 4e 24 32 41 ac 86 32 41
       10.851641 10.952596 11.133863 11.157879
000130 5f 64 34 41 99 f6 30 41 ad 3d ed c0 c3 74 e9 c0
       11.274505 11.0602045 -7.413779 -7.295503
000140 d5 61 f1 c0 46 a9 e3 c0 bd fc ec c0 8b 94 ed c0
       -7.5431924 -7.1144133 -7.405852 -7.4243827
000150 31 73 49 41 b7 fa 48 41 3d 4f 4e 41 ca fa 4d 41
       12.590623 12.56121 12.894345 12.873728
000160 6d 04 4a 41 f9 71 4e 41 ac a2 0b 41 e4 7e 0a 41
       12.6260805 12.902825 8.727215 8.655979
000170 5c bc 0a 41 ee a0 0a 41 63 74 0b 41 eb 52 07 41
       8.670986 8.664289 8.715915 8.457744
000180 ca 12 16 c1 67 79 16 c1 22 f4 13 c1 d5 ec 14 c1
       -9.379587 -9.404639 -9.247103 -9.30782
000190 52 56 17 c1 ef be 16 c1 7b 81 c6 40 01 c4 bf 40
       -9.458574 -9.421615 6.2033057 5.9926763
0001a0 59 7c c8 40 4c 85 c0 40 a9 a2 c8 40 cb d1 c2 40
       6.265179 6.0162716 6.269856 6.0881095
0001b0 09 86 f4 40 e1 49 fc 40 a3 a8 f1 40 d9 1c f9 40
       7.6413617 7.8840184 7.5518355 7.7847714
0001c0 26 6e f4 40 e1 3a fb 40 a7 a8 09 41 c5 01 08 41
       7.638446 7.8509374 8.603675 8.500432
0001d0 81 8c 09 41 7e 0b 0c 41 96 56 0c 41 f8 36 07 41
       8.596803 8.752806 8.771139 8.45092
0001e0 d2 05 0d 41 71 db 0f 41 bd bf 0b 41 6a 2b 0c 41
       8.813921 8.991075 8.734311 8.760599
0001f0 ce 02 10 41 1f f9 0e 41 6f a5 b4 c0 19 36 b5 c0
       9.000685 8.935821 -5.6451945 -5.6628537
000200 10 e1 b7 c0 7d 4a b3 c0 81 ee be c0 39 ff bb c0
       -5.7462234 -5.602843 -5.9666142 -5.874905
000210 2d 71 16 c1 ad 68 12 c1 70 d7 15 c1 24 da 18 c1
       -9.402631 -9.150556 -9.365097 -9.553257
000220 6d c5 16 c1 91 dc 11 c1 f4 9d 26 41 e4 82 2b 41
       -9.4232 -9.116349 10.413563 10.719456
000230 f6 ac 26 41 16 8c 26 41 e0 bc 2d 41 c2 93 2c 41
       10.417227 10.409201 10.858612 10.786074
000240 76 49 ad 40 3f 88 b4 40 12 17 b5 40 91 ec af 40
       5.4152174 5.6416316 5.659066 5.4976277
000250 dd df a7 40 ad a5 b1 40 c2 6b 2c 41 9d a7 29 41
       5.246077 5.551474 10.776308 10.603421
000260 24 3d 2d 41 6f 41 28 41 07 8e 29 41 0a a4 2d 41
       10.827427 10.515975 10.597175 10.852549
000270 2b a5 37 41 dd d8 36 41 65 5c 38 41 bf e8 37 41
       11.477824 11.427945 11.522557 11.494323
000280 7b 77 36 41 3a 24 35 41 b1 97 ba 40 5c 44 be 40
       11.40417 11.321344 5.831017 5.9458447
000290 7e 51 b8 40 6d 4a c5 40 81 76 c2 40 5a dc be 40
       5.759948 6.165335 6.076966 5.9643984
0002a0 36 a5 3e 41 69 ba 3a 41 1e 9f 3e 41 b3 84 3e 41
       11.915335 11.67051 11.913847 11.907397
0002b0 7c 1e 3d 41 85 68 3f 41 df 46 20 c1 bd bf 1e c1
       11.819942 11.963017 -10.0173025 -9.921811
0002c0 bc c0 25 c1 17 bd 24 c1 37 23 21 c1 d6 2e 23 c1
       -10.359554 -10.2961645 -10.071097 -10.198935
0002d0 5d 58 3e 41 cd b9 3c 41 78 3c 3c 41 0a a6 3e 41
       11.896573 11.7953615 11.764763 11.915537
0002e0 d1 4d 3c 41 06 11 3b 41 ea ae 0a 41 5b 60 08 41
       11.768998 11.691656 8.667704 8.523524
0002f0 d9 11 0a 41 e3 97 0b 41 52 fc 0c 41 03 f3 0a 41
       8.629357 8.724582 8.811602 8.684329
000300 c4 fd ea 40 d3 60 f1 40 d2 8a ea 40 31 8f f0 40
       7.3434772 7.5430694 7.329446 7.5174794
000310 db b0 e5 40 ff 24 f4 40 55 9d 42 41 53 c6 3c 41
       7.177839 7.629516 12.163411 11.798419
000320 e3 6a 43 41 80 af 3e 41 23 f3 41 41 ba 8f 3e 41
       12.213595 11.917847 12.12186 11.9100895
000330 5c 6d 3b 41 e0 35 39 41 b4 bc 39 41 28 5e 3c 41
       11.714199 11.575653 11.60857 11.772987
000340 a9 bb 38 41 31 67 3e 41 8c 65 05 41 a7 fc 03 41
       11.545815 11.900193 8.337292 8.249183
000350 61 bd 02 41 39 37 03 41 86 8f 03 41 88 14 05 41
       8.171235 8.200982 8.22254 8.3175125
000360 bd 12 36 41 66 4c 36 41 90 b5 37 41 21 60 3c 41
       11.379575 11.393652 11.481827 11.773469
000370 59 54 3b 41 f6 8e 35 41 82 9a 48 41 33 8a 43 41
       11.708093 11.347403 12.537722 12.22124
000380 13 bb 46 41 be a9 48 41 a5 ab 48 41 81 74 4a 41
       12.420672 12.541441 12.541905 12.653443
000390 25 4b 29 c1 1f 9e 24 c1 2b a1 28 c1 70 33 29 c1
       -10.580846 -10.288604 -10.539348 -10.575058
0003a0 1c bd 27 c1 cb 0d 2a c1 1f 20 d6 c0 11 fa dc c0
       -10.483669 -10.628367 -6.691421 -6.9055257
0003b0 55 db d6 c0 68 3b da c0 9e 9a dd c0 8d 86 de c0
       -6.714274 -6.8197517 -6.925124 -6.9539247
0003c0 c1 67 cf c0 3e 0e d4 c0 e8 05 d1 c0 f2 52 d6 c0
       -6.4814153 -6.6267385 -6.531971 -6.697625
0003d0 59 0f d3 c0 f9 a9 cb c0 43 a3 bd 40 66 60 be 40
       -6.5956235 -6.3644986 5.9261794 5.9492674
0003e0 80 9c c1 40 b1 0f bc 40 11 c2 c0 40 87 93 c0 40
       6.050354 5.8769155 6.0236897 6.0180087
0003f0 04 8d 2b c1 82 89 2a c1 ef 8b 2a c1 ac b3 2d c1
       -10.721928 -10.658571 -10.659163 -10.856365

linears.0.bias f4 [100]
000000 aa 07 07 3d 9d 62 50 bd 03 5a c1 3c d6 9a a1 3c
       0.032966293 -0.050875295 0.023602491 0.019727152
000010 2a e3 db 3c 2d 3c d4 3c c9 08 e8 3b 42 56 46 bd
       0.026841719 0.0259076 0.0070811254 -0.048422106
000020 25 72 53 3c c6 b0 21 bd 72 e5 4d bd a0 51 37 3d
       0.012905632 -0.039475225 -0.050267644 0.044755578
000030 6a 51 35 bd 1f 6a 10 3d ab d3 20 bd 2d 81 0b bd
       -0.044267096 0.035257455 -0.039264362 -0.03405874
000040 de 4f 12 3d 5b 81 97 bc 57 b4 e4 bb 5b 0d a8 bc
       0.0357207 -0.018494299 -0.006979506 -0.02051418
000050 8a de e9 bc ba bb 72 3c 6d 73 0f 3d 73 ba 94 bd
       -0.028548498 0.014815265 0.035022188 -0.07262125
000060 95 7c a5 bc 3e 9c a7 bd e2 c9 1b bd 4a c7 8c bc
       -0.020201007 -0.08184098 -0.038034327 -0.017184872
000070 7c 69 2c bd 70 e3 5b 3d 47 d5 2e bd c5 97 bd bc
       -0.042092785 0.0536837 -0.042683866 -0.023143658
000080 0a ea b5 bc cc 82 25 bd 5f 32 2a bd 88 55 d0 38
       -0.022206325 -0.04040794 -0.041551944 9.934144e-05
000090 8e 4f 31 bd 07 5b 33 bd ae 4d 2c 3e 35 e0 03 3d
       -0.04328876 -0.043787982 0.16826507 0.032196242
0000a0 cf f4 0a 3d 57 1e 9e bc 70 4b 25 3d 0a b9 1c bd
       0.033924874 -0.019301577 0.040355146 -0.038262405
0000b0 3b 28 e3 3a 18 ad 32 bd 05 ac b3 3d bb 35 da bc
       0.0017330715 -0.043622106 0.087730445 -0.026636949
0000c0 de aa 22 bd cd ca 98 bc 54 5d 8e bc 16 58 13 bb
       -0.039713733 -0.01865139 -0.017378487 -0.0022482923
0000d0 f6 ae c5 3c 03 95 2e bd e1 6e 1c 3d 98 0d 8a bc
       0.02413128 -0.042622577 0.03819168 -0.016852185
0000e0 02 49 1d bd 24 bd 04 3d 57 54 07 3f d0 f6 a6 3d
       -0.038399704 0.03240694 0.5286307 0.081525445
0000f0 b6 da 05 3d f3 e8 5f 3d 8c e4 08 bc e8 23 93 3d
       0.032679282 0.054665517 -0.008355271 0.07184583
000100 f3 90 70 bd 2c ac 45 3c d7 35 a1 bc 78 a1 8a 3c
       -0.058731984 0.012064975 -0.019678993 0.016922697
000110 72 7c 99 bc 6c f9 65 bd f7 89 68 bd 00 27 9a bc
       -0.018736098 -0.05614607 -0.0567722 -0.018817425
000120 36 78 b7 3c 5d d3 cc bc c4 ae f0 3c 01 23 d5 3c
       0.022396188 -0.02500313 0.02938021 0.026017668
000130 cd bb ab bc 7a 81 a1 bc 4a 47 0f bd ff 9c af 3e
       -0.020963574 -0.01971506 -0.034980096 0.34299466
000140 97 1e 6f 3c 7a 10 23 3d 71 8d 6e b9 26 f7 a7 3c
       0.0145946955 0.039810635 -0.0002275014 0.020503592
000150 bd a4 53 3f 7b 7d a7 bc 1c 91 50 bd 5a 18 6f 3d
       0.82673246 -0.020445576 -0.050919637 0.058372833
000160 65 39 ef 3c 43 27 69 bc f2 73 54 bd 54 a4 85 bc
       0.029202173 -0.014230552 -0.051868387 -0.01631371
000170 df d6 a9 bc 50 18 35 bd 71 3d 85 bd 52 3a c1 bc
       -0.020732341 -0.04421264 -0.0650586 -0.02358738
000180 7e da f5 3c d3 f2 14 3d 82 85 bb bc 5c 81 23 3d
       0.030011412 0.036364388 -0.02289081 0.03991829

linears.1.weight f4 [100, 100]
000000 3c a2 b0 3d 15 c6 a5 3e 75 f5 d1 3d 1e 21 73 bf
       0.08624694 0.32377687 0.10251895 -0.9497241
000010 09 b1 9f be f4 2b 87 3e 78 69 b0 3f 99 81 8c 3e
       -0.31189755 0.2640072 1.3782187 0.27442625
000020 14 b3 3f 3f 11 b2 56 3e c9 80 1b 3e 60 ba c5 be
       0.74882627 0.20966364 0.15185846 -0.38618755
000030 3c 44 be bc 0c 9a aa 3f 2d ba 1d 3f 81 5f 4b 3e
       -0.023225896 1.3328261 0.61612207 0.1986065
000040 eb 82 94 bf 36 44 04 3f 26 33 d0 bd 3d cb 71 3e
       -1.1602453 0.5166658 -0.10166006 0.23612686
000050 a2 01 5d 3e 33 8e 42 3f 7b 05 a9 be 88 88 ec 3d
       0.21582654 0.7599823 -0.33011994 0.11549479
000060 8e 17 0a c0 2c e2 9e 3d 41 51 5e 3e 55 87 1c bf
       -2.1576877 0.077579826 0.21710683 -0.61144
000070 0d 1c 7c 3e 9a 77 13 3f 9c 27 b4 3e ff c1 ca be
       0.24620076 0.5760437 0.3518647 -0.39601132
000080 d0 b1 c8 3e ff a7 f0 3d 86 6a 8d bd ec 74 9f bf
       0.3919816 0.11750793 -0.06905083 -1.2457557
000090 fc 07 0c 3e 77 af 87 3e 96 22 56 be c6 02 66 be
       0.13674921 0.26501057 -0.20911631 -0.22461995
0000a0 1e 60 ab 3f e5 71 6d 3f 4d fa c5 bf d8 3e c5 3d
       1.3388708 0.92751914 -1.5467011 0.09631127
0000b0 4a 9b 28 c0 60 85 88 3e 77 a9 3b 3e 00 f0 b4 3e
       -2.634478 0.26664257 0.18326364 0.35339355
0000c0 6e f0 52 bd 7f 94 d7 3e 36 72 9a bc 3e 7a c7 3d
       -0.051498823 0.4210548 -0.018853288 0.09740113
0000d0 74 31 33 3e e1 83 0d 3e c4 9c e0 bd 51 1e 37 3f
       0.17499334 0.13819839 -0.10967401 0.71530634
0000e0 bf f8 74 3e 9a 83 88 bf d1 1b 95 3d 90 df cc bd
       0.23923014 -1.0665162 0.07280696 -0.10003579
0000f0 ca 9d 12 bf 7c dc a1 bd 28 81 10 c0 6f 46 e6 bd
       -0.57272017 -0.07903382 -2.257883 -0.11243903
000100 85 cf 9a 3e 89 8e b4 be 96 63 1d 3c 2d 8a 04 3f
       0.3023645 -0.35264996 0.009606263 0.5177334
000110 44 c7 b1 3e 07 bb f0 3d ce ca c9 3d 88 19 4f 3e
       0.3472234 0.11754423 0.09853135 0.20224583
000120 6e 2b 59 3e 0e 83 db 3e a5 6c ee bd 65 8f f0 bc
       0.21207973 0.42873424 -0.11641816 -0.02936525
000130 9e e7 12 bd 29 ed 05 c0 52 6f bc 3e cf d4 7f 3e
       -0.03586542 -2.0926 0.3680368 0.24983524
000140 3e fb b5 3f 1a ff bb bf 27 4d c0 3e 23 84 de 3e
       1.4217298 -1.4687226 0.37558863 0.43460187
000150 2b c8 12 bd 6c 27 09 c0 4b 97 04 3e 05 7d 8c bd
       -0.035835426 -2.1430311 0.12948339 -0.06859783
000160 48 e4 a2 bd d4 7a 16 3f 8b 75 f7 3d cb 1a da bf
       -0.079536974 0.5878117 0.120829664 -1.7039427
000170 a0 60 f8 3e 9f 0a 0d 3e bc 74 ea 3c e2 47 33 bd
       0.4851122 0.13773583 0.028620116 -0.043769725
000180 03 86 be bc 1a 77 07 40 bd 33 c5 3e 32 ed 97 bf
       -0.023257261 2.1166444 0.38516036 -1.1869261
000190 ac 06 aa bd 2d 38 4e be 58 34 02 be 01 b2 9b bd
       -0.08302054 -0.20138617 -0.1271528 -0.07602311
0001a0 39 36 b9 3c a2 b9 11 3e a4 c5 62 be 3c 3c c8 bd
       0.022608863 0.1423097 -0.22145706 -0.09777114
0001b0 99 e3 a0 bd 33 6b 55 bf 8c c6 e5 bd f7 25 1f be
       -0.07855911 -0.833667 -0.112195104 -0.15541826
0001c0 f4 67 f4 be 4b d2 5b 3e 71 fc 9f bd 88 a4 3a bf
       -0.4773556 0.21466939 -0.07811821 -0.72907305
0001d0 98 63 78 be 68 db 15 bf ba 22 b8 3d d1 36 3e be
       -0.24256742 -0.5853791 0.089909986 -0.18575598
0001e0 1b 7c 19 be 7a 25 27 be 4e cc 89 3c f2 f9 53 bf
       -0.14988749 -0.1632289 0.016821053 -0.8280326
0001f0 3f 43 f1 bd 98 ec 2c bf ef f3 61 be e3 0c 4c be
       -0.11780404 -0.67548513 -0.2206571 -0.19926791
000200 bc 24 b6 bc f3 b1 10 be 79 f8 f7 bd d1 28 dd bc
       -0.022234313 -0.14130382 -0.12107939 -0.026997002
000210 ee 4a b4 be 59 34 5d 3d 3e ae 77 be 1a 9a 97 bd
       -0.35213417 0.054005 -0.24187562 -0.074024394
000220 bf 15 8f be c5 8a de bc c9 30 d6 3c f3 71 82 3e
       -0.27946278 -0.02716578 0.02614631 0.2547756
000230 6a 6b 61 3d e3 1f 3c bf 31 85 70 be aa 51 d7 bd
       0.05503408 -0.73486155 -0.23488308 -0.10513623
000240 fe 99 74 3d 8c ed b5 be 9e 83 79 3e 29 46 69 be
       0.05971717 -0.35532796 0.24366614 -0.2278067
000250 cf 23 42 bf fd 39 1d bf 1b 81 d3 3c a1 58 07 3e
       -0.7583589 -0.6141661 0.025818398 0.13217403
000260 82 af 29 be 58 f6 7f bd 88 38 55 3d d6 4d d5 be
       -0.16570857 -0.06249079 0.052055866 -0.41660947
000270 15 3f 3f 3d 75 bf 40 3b d2 7d 04 be d1 bd ef 3d
       0.04669102 0.0029410992 -0.12938622 0.117061265
000280 ed 5e 0b bd 67 dd 87 bd 07 77 8f 3d 90 c5 41 be
       -0.034026075 -0.06634026 0.070051245 -0.1892302
000290 76 d1 c9 be ce 8a 05 3d 79 08 92 bd ad 42 a0 3d
       -0.3941762 0.032603078 -0.07130522 0.078252174
0002a0 97 26 bc bd 4e ad bb be 3a d9 a7 be 19 9e 23 be
       -0.09187048 -0.36655658 -0.32782918 -0.15978278
0002b0 4f 44 2c bd d0 cf 35 be ef 55 14 3e 7f 59 13 be
       -0.04205733 -0.17755055 0.14485906 -0.14389609
0002c0 f9 6d e2 bd bd 0a 88 be c4 ea 44 3d cd d4 e9 3e
       -0.11056132 -0.26570693 0.048075452 0.45670167
0002d0 97 99 55 be 4a ff 1a be 02 88 17 bc 19 e0 3b be
       -0.20859371 -0.15136448 -0.009248735 -0.18347205
0002e0 50 bf 00 3d 64 e6 b8 be e8 2f 34 bd a5 03 65 3e
       0.03143245 -0.36113274 -0.043991 0.22364672
0002f0 e0 b3 24 3d 42 a3 43 bf d5 a7 21 bf d2 aa ad 3d
       0.040210605 -0.76420987 -0.63146716 0.08479847
000300 a6 84 f4 be 9e 1d 2e be 74 b2 cb be 61 26 e2 bd
       -0.47757453 -0.17003486 -0.39784586 -0.110424764
000310 dd 42 f7 3d c1 23 96 3c ff 5b 72 bf 5c ae 49 3c
       0.120733 0.018327596 -0.94671625 0.012309637
000320 e3 d3 8f 3d d3 9a 3e bd ab 4c 69 bd 36 d8 1b 3f
       0.07022836 -0.04653437 -0.056957882 0.60876787
000330 94 6d 0d 3e 18 96 33 be bf 52 6a be 01 ce c3 bf
       0.13811332 -0.17537725 -0.22883128 -1.5297242
000340 16 1c f5 bd b3 43 bd be be 60 95 bf 78 24 8c bd
       -0.119682476 -0.36965713 -1.1670148 -0.06842893
000350 04 2e 10 c0 22 c7 a7 3e 88 de 47 be eb 81 07 bf
       -2.2528086 0.32769114 -0.19518483 -0.52932614
000360 b6 35 c4 be ec d4 0f be 2c 6d 51 3e df 12 84 3d
       -0.38322228 -0.14046067 0.20451802 0.06448912
000370 26 d6 fb bc c6 94 fe 3b 1a bc 38 3e 07 89 0c c0
       -0.030741762 0.0077692 0.18040505 -2.1958635
000380 a0 fe d9 bc e6 e1 dd bf 75 08 33 3e 45 f4 a5 3b
       -0.026610672 -1.7334564 0.17483695 0.0050645196
000390 9c 86 a4 bf 2b c6 2f bf 5b 4b 54 bf bf 66 1f 3e
       -1.285358 -0.68661755 -0.82927483 0.15566538
0003a0 b0 1e a5 3e c0 de 39 bf ac aa bf bf c5 ed 1f 3f
       0.32249975 -0.72605515 -1.497396 0.6247218
0003b0 62 bd 77 bf e6 10 45 be 1f d3 14 3f 65 2c 42 bd
       -0.9677335 -0.19244727 0.58134645 -0.04740562
0003c0 aa 34 b5 3e 52 51 0f bf 35 cc e5 bd 1c 88 2c bf
       0.35391742 -0.5598346 -0.1122059 -0.67395186
0003d0 d7 e1 e0 3e f6 cd d8 bf f8 3c dd 3e 38 0e f5 be
       0.43922302 -1.6937854 0.43210578 -0.4786241
0003e0 2e 08 54 bf 81 33 5d bd 40 8c d2 3d 42 7a ab 3e
       -0.8282498 -0.054004196 0.10280657 0.33491713
0003f0 83 a5 77 bd ef 24 8e bf 5c cc aa 3d 1c cf 40 3d
       -0.06046058 -1.1105021 0.0833976 0.047072515

linears.1.bias f4 [100]
000000 14 7a 9b 3d d1 ad 1c be 75 18 fb bd b3 fd 28 3d
       0.07591644 -0.1530068 -0.12260524 0.04125757
000010 7a 00 31 3d d3 3c 20 3f 24 e4 1e be ad 23 e6 bd
       0.043213345 0.6259281 -0.15516716 -0.11237273
000020 07 2e 1c 3d 32 dc fe 3e a8 da 33 be 76 03 9e bd
       0.038129833 0.4977737 -0.1756388 -0.07715504
000030 56 a1 0d 3e ef 06 17 bd 35 5d 94 bc 2f 43 d3 3e
       0.13831076 -0.036871847 -0.01811085 0.41262195
000040 60 1e 1e 3e 61 83 93 3d b3 44 bd bd 03 66 6c bd
       0.15441275 0.07202793 -0.09241619 -0.057714473
000050 be b5 bf 3d 85 8f 17 bf f9 3c 16 be 7b fd 04 3e
       0.093608364 -0.5920337 -0.14671697 0.1298732
000060 91 9a 2d 3e 4c 1b 9a 3d 17 f5 43 be ce 40 72 3d
       0.16953494 0.07524738 -0.19136463 0.059143834
000070 05 4f eb bd 0e 16 82 bd cb 34 90 3d e9 e3 ea 3d
       -0.11489681 -0.06351863 0.070413195 0.11469252
000080 6e c7 87 3f d0 39 b3 be f0 ad 2e 3e c1 9b 23 3d
       1.0607736 -0.35005045 0.1705854 0.03994346
000090 ce ed 4d bc 30 87 85 3c c6 c6 6a bd ac 77 7f 3d
       -0.012568904 0.016299814 -0.05731847 0.062369987
0000a0 d5 4c b3 bd d3 45 ae 3d 04 c3 fa bd 0c ab e3 bd
       -0.08754889 0.08509412 -0.122442275 -0.11116609
0000b0 1a ab 16 3e 53 7d 41 3e 6c bd 8d 3b cb 32 a9 3c
       0.14713708 0.18895464 0.0043255594 0.020654103
0000c0 21 08 db bd 55 83 7a 3f 68 38 43 be 5a d6 0b bd
       -0.1069491 0.97856647 -0.19064486 -0.03413997
0000d0 77 60 1c 3f 54 f8 15 bf 3d 7a da 3d 35 a7 24 3c
       0.61084694 -0.58582044 0.10667846 0.010049631
0000e0 51 0e 08 be b6 88 06 3e df 9b ba bd 71 9f 02 3e
       -0.13286711 0.13138089 -0.09111761 0.12756135
0000f0 9b 09 b4 3b d0 c6 84 be 15 e0 37 be 7c f5 85 bd
       0.005494309 -0.25932932 -0.17956574 -0.06540963
000100 e0 f5 8d 3d ab 35 2d be c2 79 33 3c bb de 3f be
       0.069316626 -0.16915004 0.010954322 -0.18737309
000110 3a 22 a9 3d 94 c5 d3 3d 2d 9a d1 3d 05 11 83 be
       0.08258481 0.103404194 0.10234485 -0.25598922
000120 26 59 9b bd 5f a6 24 be 13 45 d6 3d e1 d7 22 3e
       -0.07585363 -0.1607909 0.104623936 0.15902664
000130 ce 4d 62 3d 3a 2d 81 3d 73 3b 23 be cc 90 6e be
       0.05524998 0.063074544 -0.15940647 -0.23297423
000140 85 d5 80 3d 52 42 26 be 3b e2 5c 3c 44 99 07 be
       0.062907256 -0.16236237 0.013481672 -0.1324206
000150 bf 05 b7 bd 33 b6 54 3e 21 36 77 bf a6 64 4e 3f
       -0.08936643 0.20772628 -0.9656697 0.8062233
000160 09 10 d4 3d 32 a5 fb 3d 0b 50 4d 3d dc 85 74 bd
       0.10354621 0.12287368 0.050125163 -0.05969797
000170 50 47 4b 3d 4f e3 f5 be f1 09 08 be 09 7b 36 3e
       0.049628556 -0.48024985 -0.13285042 0.17820372
000180 48 e7 56 be 74 3c 69 3d 16 48 87 3e 96 18 66 bd
       -0.20986664 0.05694242 0.26422185 -0.05617579

linears.2.weight f4 [100, 100]
000000 4a e3 4c 3f d4 6a 91 3e 29 71 2a 38 66 bf a2 bf
       0.80034316 0.28401816 4.0636547e-05 -1.271466
000010 3d 32 e5 bf a2 0a 9d bf ea 1e 7f 3e dc b3 34 bf
       -1.7905957 -1.226887 0.24914137 -0.70586944
000020 5a 51 ab bf 96 1a 89 c0 05 3a 71 3d 88 84 d5 3f
       -1.3384202 -4.2844954 0.058893222 1.668107
000030 60 42 d1 c0 9a 31 f3 be a1 81 86 be 04 20 1b c0
       -6.5393524 -0.4749878 -0.26270774 -2.423829
000040 86 c4 c1 c0 9f 64 b7 bf 91 80 1f 40 7b 71 02 3f
       -6.0552397 -1.4327582 2.492222 0.5095441
000050 1d 8e 6e bf 07 54 34 3f d0 1b 3e 3f 61 9a b8 bf
       -0.931856 0.70440716 0.7426119 -1.4422113
000060 58 d1 2d c0 70 57 89 bf 27 ce 09 3d 1d 3a 14 bf
       -2.7159023 -1.0729809 0.033643868 -0.57901174
000070 dd 27 e3 3f 19 08 92 bf 63 d7 55 bf 97 14 72 bf
       1.774654 -1.1408721 -0.8353178 -0.9456267
000080 31 71 bd c0 19 80 64 3f 2d 5e ae bf e4 25 fa bf
       -5.9200673 0.8925796 -1.362249 -1.9542813
000090 bd 44 c9 bf b2 19 8b 3e 00 27 24 be 27 2b a6 be
       -1.5724102 0.2716804 -0.16030502 -0.32454798
0000a0 d8 35 68 3f bd c9 a2 bf 06 59 fb 3f 2b 60 16 3d
       0.9070716 -1.2717816 1.9636543 0.036712807
0000b0 a0 99 3f c0 67 64 9f 3f af 82 e9 3f 61 d1 29 bf
       -2.9937515 1.2452515 1.8243006 -0.6633511
0000c0 c7 d4 f7 3e 6a 34 32 bf cb 07 04 3f 91 03 ae 3f
       0.48404524 -0.6961123 0.5157439 1.3594838
0000d0 9a 23 7f bf ca 4c 30 3f fa a4 25 c0 b1 26 c1 bf
       -0.996637 0.6886717 -2.5881944 -1.5089933
0000e0 67 ba 0c bf 15 2f 97 bf b7 9f 28 3f 5c 77 dc 3d
       -0.5497193 -1.1811243 0.65868706 0.107649535
0000f0 5e b1 bf bf e4 7c a3 3f 97 27 28 be 97 28 92 bf
       -1.4976003 1.2772489 -0.16421352 -1.1418637
000100 d4 38 0f bf 82 06 a1 3f f4 14 e5 3e 8a 66 34 bf
       -0.5594609 1.2580111 0.44742548 -0.7046896
000110 13 b0 9f bf 7c e4 02 c0 aa ae 08 c0 0e 5a ba 3e
       -1.2475609 -2.0451956 -2.1356606 0.3639683
000120 51 bb 41 3f 2b 81 58 3f fb d3 1d c0 39 8a 30 bf
       0.7567645 0.84572095 -2.4660633 -0.6896091
000130 dd b2 81 bf 0e 79 bd 3d b1 ec 3d 3f 67 12 af 3d
       -1.013271 0.09251605 0.7418929 0.08548432
000140 02 da 6e bf f1 f9 8f 40 2f 69 80 c0 54 c1 4d 40
       -0.93301404 4.4992604 -4.01284 3.2149248
000150 c1 8f 05 40 77 d1 ca bf 7d eb ce 3e d4 b4 40 bf
       2.086899 -1.5845174 0.40414038 -0.7527592
000160 d1 da ad bf 1a 60 80 bf a1 ff 9d bf 9c 5e ec be
       -1.3582402 -1.0029328 -1.2343637 -0.4616593
000170 67 c7 7b bf a0 8d 91 3f 57 e7 54 be a7 57 0c bf
       -0.9835114 1.1371346 -0.20791374 -0.54821247
000180 19 cd 9e be 26 b9 fc bf 20 de 64 c0 37 98 2f 3f
       -0.31015852 -1.9744003 -3.5760574 0.68591636
000190 56 3e ef 3e 82 0f 06 3f a1 78 82 bf 63 3b ff be
       0.46727246 0.52367413 -1.0193063 -0.49849996
0001a0 a3 57 d4 be c3 2e 32 bf d3 ad fa 3e b2 57 f0 bf
       -0.41473112 -0.696026 0.48960742 -1.8776762
0001b0 85 7f 00 bf 1b 7b 5b 3d 0d 33 81 3e 36 86 25 3f
       -0.5019458 0.0535842 0.2523426 0.64657915
0001c0 90 58 1d c0 e5 dd d5 3e dd f9 8b bf 26 0e 17 bf
       -2.4585304 0.41770855 -1.0935627 -0.59005964
0001d0 aa bb 54 c0 0e 7f 1b bf 64 70 32 bf f4 ec cd 3e
       -3.323954 -0.60740745 -0.69702744 0.40219843
0001e0 65 36 bd bf a7 23 76 bf ab e6 75 3f 44 96 6f bf
       -1.4782225 -0.9614815 0.96055096 -0.9358866
0001f0 76 0f f0 bf 53 7b 88 bf 41 b6 48 be ad d3 93 be
       -1.8754718 -1.0662636 -0.19600774 -0.28872433
000200 09 f9 15 bf 91 a4 64 c0 f1 83 90 be b2 08 71 bf
       -0.5858312 -3.5725443 -0.28225663 -0.94153893
000210 5a c9 87 c0 b9 94 1e be d6 f8 76 bf 29 6b 76 bc
       -4.243329 -0.1548642 -0.96473444 -0.015040197
000220 6a 30 97 bf 0f e0 5a 3e 10 1b d6 3e 20 00 1f bf
       -1.181165 0.21374534 0.41817522 -0.62109566
000230 ee f4 1e 3f 12 fb c7 bf bd a6 4e 3f 1d c2 05 c0
       0.62092483 -1.5623496 0.8072317 -2.0899727
000240 e3 f2 f3 be 40 f3 de be 92 ad a2 be 99 50 8e bf
       -0.47646245 -0.4354496 -0.3177305 -1.1118346
000250 a1 08 e8 3e 70 d0 62 3f b3 df 9e 3e 06 87 80 3e
       0.45319083 0.885993 0.31030044 0.25103015
000260 b6 ae e6 3e b1 f3 ba 3f 16 2f 1d 3f 42 28 8c bf
       0.4505517 1.4605619 0.6139997 -1.0949786
000270 86 a4 0c 3f c4 7c 5a bf 08 32 30 3f 2b 7c ef bd
       0.5493854 -0.8534663 0.6882634 -0.11693605
000280 16 f9 17 bf ef 80 ee 3e f9 0c f7 3d 81 3a f6 3e
       -0.5936445 0.46582744 0.12063021 0.4809151
000290 5c 63 03 bf e4 b5 01 3f c0 39 91 bf 5f 31 ad 3d
       -0.51323485 0.5066817 -1.1345749 0.084566824
0002a0 bc 5a 93 bf db 4c 1c bf 50 0d 13 bf 3d 77 13 3f
       -1.1512065 -0.6105477 -0.5744219 0.5760382
0002b0 e9 84 e5 bf 57 23 24 3f b6 75 bc bf c4 99 03 3f
       -1.7931186 0.64116424 -1.4723423 0.514065
0002c0 bf 49 94 bf 32 dc af be ff db 0a 3f dc 04 a5 bf
       -1.1585006 -0.34347683 0.5424194 -1.2892108
0002d0 88 b8 4f bf aa ab 41 40 16 b5 46 bf bb cc 59 3f
       -0.8114095 3.0261025 -0.77620065 0.8507802
0002e0 db b9 04 3f 79 2f 7b bf 68 9b 55 bf 4c 1b 63 3f
       0.5184609 -0.9811931 -0.83440256 0.88713527
0002f0 47 19 4b bf 1f 39 51 bf ed 84 7b bf 38 eb cb 3e
       -0.79335445 -0.81727785 -0.98249704 0.39827895
000300 4d d8 22 bf 38 49 74 3e 0c 81 14 c0 fb 87 3f bf
       -0.636113 0.23856056 -2.3203764 -0.74816865
000310 66 d0 b4 bf 6e 50 3f bf b2 23 af be ea 0f bd 3e
       -1.4126098 -0.747321 -0.3420692 0.36926204
000320 9b ad 43 be c7 77 2e bf 94 7a 3c be 70 b7 9b be
       -0.19109194 -0.68151516 -0.18406135 -0.3041339
000330 bd 86 95 be ba eb 0c bf 35 96 b0 bd 99 df c4 3d
       -0.2920436 -0.5504719 -0.086224 0.0961296
000340 1e b3 07 be ab 74 24 bf 76 ad 16 bf b1 db 68 be
       -0.13251922 -0.6424052 -0.5885843 -0.22740056
000350 d4 9b 94 be 49 a4 98 bf ec 49 ae bd c2 38 0e bf
       -0.29025137 -1.1925136 -0.08510193 -0.55555356
000360 80 46 87 be 44 52 80 be 78 b0 95 be 0d 83 91 bd
       -0.26420975 -0.25062764 -0.29236197 -0.07105074
000370 d4 14 18 be bb 67 ca 3d 65 c1 22 be 96 b9 6a be
       -0.14851695 0.09883066 -0.15894087 -0.22922358
000380 de 7d 89 be fd 00 40 3e 0b 7b 9c be 1e 03 88 be
       -0.26853842 0.18750377 -0.30562624 -0.26564878
000390 4f f8 e1 be 27 af d4 bf e0 19 69 bf d2 e8 af be
       -0.44134757 -1.6615952 -0.9105511 -0.34357315
0003a0 9e 62 2a bf a3 81 b4 3e 21 d6 c7 bd 6d 2c 6d bf
       -0.6655673 0.35255155 -0.09757639 -0.92645913
0003b0 71 9f 7f bd 19 0e 13 be 09 b6 49 bf 0c b6 3b be
       -0.062407915 -0.14360847 -0.7879339 -0.18331164
0003c0 08 d0 8b be 52 92 15 3e 65 f4 d6 be 77 b5 34 be
       -0.27307153 0.14606598 -0.41983333 -0.17647348
0003d0 8c 1d 30 bf 08 87 4e bf 30 7b 43 bd ad 64 cc bd
       -0.68795085 -0.8067479 -0.047724903 -0.0998014
0003e0 a1 7c 9b be 5a 16 0b bf 39 e4 de be 6c 7e ab be
       -0.30368522 -0.5433098 -0.43533495 -0.3349489
0003f0 e4 fd 26 bf 15 41 9e bd a5 bb 67 be be 9a 88 bd
       -0.65231156 -0.07727257 -0.22630174 -0.0667014

linears.2.bias f4 [100]
000000 fb 10 99 bf 1b 6b db be 64 cf 15 bf d4 84 80 bf
       -1.1958307 -0.42855152 -0.5851958 -1.0040536
000010 c2 54 80 be 28 46 e6 bc e8 4f d6 3e 44 61 8e be
       -0.25064665 -0.028109625 0.4185784 -0.27808583
000020 c8 5f d8 bd 16 b7 00 3f fd 87 79 bc af fe c0 bd
       -0.10565144 0.50279367 -0.015230176 -0.09423577
000030 8e 65 17 be 80 6b 3d bf 14 93 f5 3b 16 38 2e be
       -0.14784834 -0.73992157 0.0074943397 -0.17013583
000040 27 49 23 3d c9 9c 77 3d e3 a3 52 bd ed 0c 9b 3d
       0.039864685 0.060452256 -0.051425826 0.07570825
000050 13 66 0b bf cc b7 50 be 5f be 86 bd 5e b8 8f 3d
       -0.5445263 -0.20382613 -0.06579279 0.07017587
000060 6d fb b8 be 56 26 71 3e 66 35 b0 be df 90 d9 3d
       -0.36129323 0.2354978 -0.3441574 0.10623335
000070 92 7c 48 bf 76 c9 ec 3d 61 db d0 3d 16 62 0e bf
       -0.7831508 0.11561863 0.10198093 -0.5561842
000080 06 6f 44 bf 45 ea 20 3e 03 fd 2a bf 03 a2 91 be
       -0.7673191 0.15714367 -0.66792315 -0.28443918
000090 1d ea 8a bd 46 4a 0e 3f 6d b9 40 bf 5d 7b da be
       -0.06782935 0.5558208 -0.7528294 -0.42672244
0000a0 74 92 62 3e c7 9c 54 3f c6 0b 19 bf d2 a5 90 be
       0.2212618 0.83051723 -0.5978359 -0.2825151
0000b0 ed 52 eb 3c 81 95 36 3e 22 56 c0 3b 72 f5 5d 3f
       0.028726066 0.17830469 0.005869643 0.86702645
0000c0 92 73 80 bf 61 19 4b 3f 73 2a 05 be 00 56 3c bf
       -1.0035269 0.793356 -0.13004474 -0.73568726
0000d0 90 cb c0 3c 3d 8b 2a bf d8 d4 83 be 4d d9 9f be
       0.023534566 -0.6661871 -0.25748324 -0.31220475
0000e0 95 e1 58 bf 2b 27 0f bd 9a 72 a2 bf ca 41 d1 bd
       -0.8471921 -0.034949463 -1.2691224 -0.102176264
0000f0 32 4f 8e 3e 54 3f e3 bd b5 27 a0 3f b0 63 55 bf
       0.27794796 -0.11096063 1.2512118 -0.83355236
000100 6f a8 8b bf e7 cc 88 be af 6d ee 3e cb 8c 00 3d
       -1.0910777 -0.26718828 0.46568057 0.03138427
000110 52 e7 04 be 27 31 bd be dc a9 ce be 11 c1 85 be
       -0.12978867 -0.36951563 -0.40363967 -0.2612386
000120 21 e5 f9 bd f0 56 73 3e 3c ee b6 3d 5a 79 fc be
       -0.12201906 0.23763633 0.08932158 -0.49311334
000130 a5 99 c6 be 9e 4c 40 be 8c e0 87 3e ad 9e 95 be
       -0.38789096 -0.18779227 0.26538503 -0.29222623
000140 fc 57 74 be 19 84 29 bf 3f 00 42 bf d7 94 05 be
       -0.23861688 -0.6621719 -0.75781626 -0.13045059
000150 92 05 11 3e 68 9e f2 be 54 71 6c be 41 bd e9 3d
       0.14162281 -0.4738648 -0.23090106 0.114130504
000160 ac 6e 17 bf 59 07 3c 3d 4a ed 3e bf b6 e4 83 bd
       -0.59153247 0.045905445 -0.74580824 -0.064401075
000170 2b 55 a2 3e 75 c9 68 bf da 7e 64 be fb 34 97 be
       0.31705603 -0.909324 -0.22314015 -0.29532608
000180 a0 58 d4 bd 56 e7 a8 be 10 05 a8 be 71 fe ca bd
       -0.103684664 -0.32988995 -0.32816362 -0.09911812

linears.3.weight f4 [2, 100]
000000 34 90 ba 3f b7 6b d8 bd a7 bf 09 3f 5e 9c d7 3e
       1.4575257 -0.1056742 0.53808063 0.42111486
000010 0a de 0c 3f 10 37 e1 39 d8 b8 8a 3f fd ed 9c be
       0.55026305 0.0004295637 1.083766 -0.3065032
000020 33 1d 53 40 b4 08 1c bf 57 ce 38 3f 16 c3 c4 be
       3.2986572 -0.6095078 0.7218985 -0.3843009
000030 49 47 2e 3f 9e d8 f1 3e d0 b7 53 3f 46 04 54 3e
       0.6807752 0.47235578 0.8270235 0.20704755
000040 2b 07 74 bf a8 95 4c bf a3 3a 3e 3f ae 8d ae 3b
       -0.9532344 -0.7991586 0.7430822 0.005326948
000050 cd 9b 1c 3e 91 76 43 3f 9e f7 29 3f 74 5f 2c 3f
       0.15293808 0.7635279 0.6639346 0.6733315
000060 6f e7 0b 3f c1 7f 4a 3f d2 02 06 3f bf c7 2c 3f
       0.54650015 0.79101187 0.52348053 0.6749229
000070 fd 36 ff 3e 57 b0 2a 3f ec 42 ce be 0f 4a f4 3e
       0.4984664 0.66675323 -0.40285432 0.47712752
000080 52 92 e6 3e 8b 5a 29 3f 53 df cf 3e 10 3c 1a 3f
       0.4503351 0.6615378 0.4060007 0.602479
000090 95 b3 22 3f 8d 63 1f bf 5b 06 04 3f 4a 19 05 bf
       0.6355527 -0.6226128 0.515722 -0.51991713
0000a0 fe 42 64 bf c2 1e 06 bf eb 36 80 be 6c 1a 13 3f
       -0.8916472 -0.5239068 -0.250419 0.5746219
0000b0 4f ed 2f 3f 71 eb 20 bf 69 44 93 bf 6f f4 0b bf
       0.6872148 -0.62859255 -1.1505252 -0.5466985
0000c0 f9 3c 24 3f 15 db 1e bf 7e 7d f0 be a9 99 f6 3e
       0.64155537 -0.6205304 -0.46970743 0.48164108
0000d0 76 3e 3e 3f b5 22 02 3f 63 20 43 bf f8 14 81 3e
       0.7431406 0.5083421 -0.76221293 0.2521131
0000e0 57 82 82 bf 94 43 3e 3f dd 4a b7 bf 3c c8 ee 3d
       -1.0196027 0.74321866 -1.4319721 0.116592854
0000f0 33 b2 6a 3e 09 ac 6d bd 2c 24 b1 be 37 aa 02 3f
       0.2291954 -0.058025394 -0.3459791 0.5104098
000100 45 4a af 3f 7a da 1f 3f 02 27 d1 3e 99 51 26 3f
       1.369454 0.62442744 0.40850073 0.6496826
000110 52 23 e7 3e 4c fe 85 be a2 ce 96 bf 09 e6 0e 3f
       0.45144135 -0.26170576 -1.1781809 0.55819756
000120 f1 cb 1d 3f 82 fe 21 bf f7 6c 80 3d 9f 98 08 3f
       0.61639315 -0.63278973 0.062707834 0.5335788
000130 e9 47 e8 3e 35 70 8c 3f a1 da 55 3e dc d0 14 3f
       0.45367363 1.0971743 0.20884182 0.58131194
000140 d9 71 6e 3f 99 d6 ab 3e 5e 6a a0 bf 56 4b 0c 3f
       0.9314247 0.33562163 -1.2532461 0.54802454
000150 69 80 2c 3f 41 14 11 3f d8 e7 a9 bd c5 a8 c2 bf
       0.6738344 0.5667153 -0.08296174 -1.5207754
000160 1f 24 09 3d 04 27 24 3f e2 fe 0c 3f d9 4b 39 3f
       0.033481713 0.64122033 0.5507642 0.7238136
000170 80 07 b8 be 5f 43 f6 3e 31 c0 1f 3f e0 a6 23 bf
       -0.35943222 0.48098275 0.62402636 -0.63926506
000180 33 2e aa bd 55 f2 0e 3f 38 bc 0e 3f c7 d8 a6 3e
       -0.08309593 0.5583852 0.5575595 0.32587263
000190 69 f9 c0 bf b7 18 8f be 7d 29 d7 3e f6 db 80 3e
       -1.5076114 -0.27948543 0.4202384 0.25167817
0001a0 3e 22 e3 3e a4 80 33 39 43 8c a5 3f e9 f2 ac be
       0.44362062 0.00017118693 1.293343 -0.33779076
0001b0 f4 d4 6b 40 cd df 2e bf ef de 3a 3f 6a 01 0b bf
       3.6848726 -0.6831024 0.7299642 -0.5429903
0001c0 f9 06 41 3f 5f 2b b5 3e 5e 4a 4f 3f e9 a3 19 bf
       0.75401264 0.35384652 0.8097285 -0.6001573
0001d0 6c 1c a4 bf 54 ef 64 bf c3 09 3b 3f da bc 85 be
       -1.2821174 -0.89427686 0.7306177 -0.26120645
0001e0 6f 20 9d 3d 7a c2 45 3f d0 9a 2d 3f 5c 10 d0 3e
       0.07672202 0.7724987 0.6781435 0.4063748
0001f0 e8 d9 1a 3f 28 27 7c be df ef 9b 3e 70 4a d0 3e
       0.6048875 -0.24624312 0.30456445 0.4068179
000200 5d 62 dc 3e f9 14 d0 3e 49 ea ca 3c 19 12 7b 3e
       0.43043795 0.40641 0.024769919 0.24518622
000210 83 9b a4 3e 16 96 d0 3e 40 15 0a 3e f2 88 2a 3f
       0.32149896 0.40739506 0.13484669 0.6661521
000220 b8 8c c7 3e a8 1c 32 bf 73 ef ec 3e 65 9b 8c bf
       0.38974547 -0.69574976 0.46276435 -1.0984923
000230 6a 19 46 bf 80 a5 14 bf 7a 5d dc 3d 45 c0 d8 3e
       -0.7738253 -0.5806503 0.10760017 0.4233419
000240 b5 25 c3 3e b0 57 5b bf 4c 39 64 bf 6b cc 29 bf
       0.38114706 -0.85680676 -0.8914993 -0.6632754
000250 14 96 ca 3d b0 90 24 bf 54 3d e6 be b1 6a ce 3e
       0.098919064 -0.64283276 -0.44968665 0.40315774
000260 f5 5d 3e 3f 59 c9 d7 3e 6b b2 c2 bf 76 5e d4 be
       0.7436212 0.42145804 -1.5210699 -0.41478318
000270 83 8a 9d bf e9 d6 32 3f e9 ef bd bf 07 10 fd 3d
       -1.2307895 0.69859177 -1.483884 0.123565726
000280 95 a8 85 3e 77 bb 82 bf e4 9e b8 bd ea 23 ea 3e
       0.2610518 -1.021346 -0.09014681 0.45730525
000290 96 5b c0 3f 97 8c 95 be 6c 3d 9e 3e f0 3a ce 3e
       1.502795 -0.29208824 0.30906236 0.4027934
0002a0 51 68 aa 3e be 4b af bd b2 a0 68 bf 4a a1 f1 3e
       0.33282712 -0.085593686 -0.908702 0.47193366
0002b0 aa 13 d6 3e 31 c5 34 bf f2 11 6b be 7d 38 d9 3e
       0.41811877 -0.7061339 -0.22956064 0.4242591
0002c0 f1 60 6a be 90 9f 9a 3f b3 d3 45 3e 8b 7a cb 3e
       -0.22888543 1.2079945 0.19319038 0.3974193
0002d0 44 0d 6c 3f ab dc 6c bd bc 7d b1 bf c3 f1 db 3e
       0.9220774 -0.057827633 -1.3866496 0.42957887
0002e0 66 20 d4 3e 16 44 b4 3e df ab dd bd 21 30 d9 bf
       0.41430968 0.35208195 -0.108237974 -1.6967813
0002f0 e9 03 8f 3c f2 43 d5 3e 05 f5 34 3f 27 f9 36 3f
       0.01745792 0.416534 0.7068637 0.71473926
000300 24 0e 7a be 45 9c cd 3e 99 6a b7 3e 14 32 31 bf
       -0.24419457 0.40158287 0.35823515 -0.6921704
000310 eb 3c 80 bf 19 07 dc 3e 79 47 e1 3e fa 5d 95 3c
       -1.0018591 0.42974165 0.43999842 0.018233288

linears.3.bias f4 [2]
000000 7d 67 7d be 32 02 3c 3e
       -0.24746509 0.18360212

exp_avg f4 [100, 6]
000000 1c a5 c3 b1 b4 a4 c3 b1 b6 a4 43 b2 27 bc 92 b2
       -5.6940177e-09 -5.6939715e-09 -1.1387945e-08 -1.7082199e-08
000010 63 a3 c3 b2 99 8e f4 b2 0c 31 a7 33 03 31 a7 33
       -2.2775287e-08 -2.8470184e-08 7.785465e-08 7.785459e-08
000020 2a 31 27 34 d2 c9 7a 34 52 31 a7 34 af fd d0 34
       1.5570973e-07 2.3356486e-07 3.114206e-07 3.8927598e-07
000030 66 c6 a8 b1 32 c6 a8 b1 34 c6 28 b2 e8 28 7d b2
       -4.911999e-09 -4.9119757e-09 -9.823953e-09 -1.4735839e-08
000040 ab c6 a8 b2 12 f8 d2 b2 9e f5 c4 31 b7 f5 c4 31
       -1.9648118e-08 -2.4560027e-08 5.732274e-09 5.7322853e-09
000050 2a f4 44 32 cb b8 93 32 ba f4 c4 32 cf 38 f6 32
       1.1464218e-08 1.7197086e-08 2.2928692e-08 2.8664003e-08
000060 75 76 24 b2 4c 76 24 b2 7f 75 a4 b2 74 b2 f6 b2
       -9.57299e-09 -9.572954e-09 -1.9145544e-08 -2.871932e-08
000070 f6 75 24 b3 96 94 4d b3 2f c1 b7 b1 5c c1 b7 b1
       -3.829151e-08 -4.786542e-08 -5.3479634e-09 -5.3479834e-09
000080 06 c1 37 b2 50 d0 89 b2 d6 c0 b7 b2 03 b1 e5 b2
       -1.069589e-08 -1.6043629e-08 -2.1391696e-08 -2.6739604e-08
000090 fd 88 c7 30 31 88 c7 30 a0 88 47 31 be a5 95 31
       1.451809e-09 1.4517864e-09 2.9035974e-09 4.3553134e-09
0000a0 f2 89 c7 31 49 67 f9 31 96 c6 ea 33 86 c6 ea 33
       5.807345e-09 7.258596e-09 1.0932597e-07 1.0932585e-07
0000b0 10 c6 6a 34 17 15 b0 34 32 c6 ea 34 d0 bb 12 35
       2.1865003e-07 3.27979e-07 4.3730103e-07 5.466254e-07
0000c0 8a 0d 0b b0 b2 0a 0b b0 79 0a 8b b0 5c 8c d0 b0
       -5.0587146e-10 -5.0583104e-10 -1.0116558e-09 -1.5173884e-09
0000d0 e1 0d 0b b1 fd cf 2d b1 f6 62 1b 33 de 62 1b 33
       -2.0235051e-09 -2.529304e-09 3.6178754e-08 3.617867e-08
0000e0 d4 62 9b 33 16 15 e9 33 20 63 1b 34 06 3c 42 34
       7.235727e-08 1.08537435e-07 1.4471561e-07 1.8089494e-07
0000f0 2c e6 0b 34 21 e6 0b 34 0f e6 8b 34 7f d8 d1 34
       1.302912e-07 1.3029104e-07 2.6058157e-07 3.9086805e-07
000100 08 e6 0b 35 e6 df 2e 35 11 c6 a8 b2 e2 c5 a8 b2
       5.2116275e-07 6.5145866e-07 -1.9647844e-08 -1.964776e-08
000110 dd c5 28 b3 77 28 7d b3 f0 c5 a8 b3 c6 f7 d2 b3
       -3.9295504e-08 -5.8942955e-08 -7.859114e-08 -9.823957e-08
000120 f5 0d bd 33 96 0d bd 33 93 0d 3d 34 3b ca 8d 34
       8.803537e-08 8.8034696e-08 1.7606935e-07 2.641044e-07
000130 a4 0d bd 34 aa 51 ec 34 3c de ec 31 a9 dd ec 31
       3.5213918e-07 4.4017844e-07 6.893769e-09 6.893704e-09
000140 f6 dd 6c 32 c8 a6 b1 32 bf de ec 32 16 0c 14 33
       1.3787476e-08 2.0681355e-08 2.757531e-08 3.4469927e-08
000150 69 30 60 33 a5 30 60 33 1b 30 e0 33 03 25 28 34
       5.2198093e-08 5.2198306e-08 1.0439563e-07 1.5659684e-07
000160 e2 30 60 34 2c 1f 8c 34 06 4d 3f 33 d9 4c 3f 33
       2.0879409e-07 2.6099713e-07 4.4540705e-08 4.4540545e-08
000170 91 4c bf 33 fb 78 0f 34 1e 4e 3f 34 8a 20 6f 34
       8.908058e-08 1.3361925e-07 1.781668e-07 2.2270447e-07
000180 a6 6d 4e b2 43 6d 4e b2 ea 6d ce b2 2b d4 1a b3
       -1.2015709e-08 -1.2015621e-08 -2.403154e-08 -3.6048885e-08
000190 21 6d 4e b3 da 06 81 b3 50 20 00 32 fd 1f 00 32
       -4.8062365e-08 -6.008277e-08 7.457928e-09 7.457854e-09
0001a0 90 1f 80 32 23 31 c0 32 59 21 00 33 f7 28 20 33
       1.4915514e-08 2.2374087e-08 2.9832652e-08 3.729016e-08
0001b0 15 23 74 31 6e 23 74 31 91 1f f4 31 fc 15 37 32
       3.5526615e-09 3.5526813e-09 7.1049233e-09 1.0657001e-08
0001c0 66 1b 74 32 49 96 98 32 8d a2 58 32 4a a2 58 32
       1.4208899e-08 1.776347e-08 1.26098145e-08 1.2609755e-08
0001d0 89 a2 d8 32 ff 76 22 33 dd a2 58 33 6a 65 87 33
       2.5219622e-08 3.782679e-08 5.0439542e-08 6.3048745e-08
0001e0 6f 30 9c 32 9a 30 9c 32 1c 30 1c 33 fb 4a 6a 33
       1.8182815e-08 1.8182892e-08 3.6365336e-08 5.4550565e-08
0001f0 5d 30 9c 33 ae 3c c3 33 70 7d 3a b1 b6 7c 3a b1
       7.273113e-08 9.091433e-08 -2.7137865e-09 -2.7137452e-09
000200 3e 7b ba b1 08 de 0b b2 f5 7c 3a b2 30 20 69 b2
       -5.4273235e-09 -8.141349e-09 -1.0855037e-08 -1.3569704e-08
000210 2e 2d ae b2 69 2d ae b2 2c 2e 2e b3 1f a2 82 b3
       -2.0276811e-08 -2.0276916e-08 -4.0554525e-08 -6.0830864e-08
000220 55 2d ae b3 5c b9 d9 b3 c3 7e ba 33 2a 7f ba 33
       -8.110752e-08 -1.01385666e-07 8.684358e-08 8.684431e-08
000230 eb 7e 3a 34 e2 de 8b 34 1b 7f ba 34 af 20 e9 34
       1.7368772e-07 2.6052936e-07 3.473768e-07 4.3423412e-07
000240 54 df 32 b2 4d df 32 b2 1e df b2 b2 49 27 06 b3
       -1.0411743e-08 -1.0411736e-08 -2.082339e-08 -3.1235036e-08
000250 38 df 32 b3 94 97 5f b3 68 9b b3 33 8b 9b b3 33
       -4.164687e-08 -5.2059093e-08 8.363605e-08 8.36363e-08
000260 b2 9a 33 34 45 b5 86 34 a9 9b b3 34 9c 81 e0 34
       1.6726952e-07 2.5091336e-07 3.3454606e-07 4.1817555e-07
000270 26 1e b7 32 4b 1e b7 32 61 1d 37 33 a3 56 89 33
       2.1317714e-08 2.131778e-08 4.2634728e-08 6.395319e-08
000280 ba 1c b7 33 26 e5 e4 33 98 57 09 b2 6b 57 09 b2
       8.526827e-08 1.0658759e-07 -7.994366e-09 -7.994326e-09
000290 2f 57 89 b2 8d 01 ce b2 24 57 09 b3 3f ac 2b b3
       -1.5988546e-08 -2.3982262e-08 -3.1977052e-08 -3.9970697e-08
0002a0 41 09 b0 33 18 09 b0 33 22 09 30 34 98 06 84 34
       8.197322e-08 8.197293e-08 1.63946e-07 2.4591714e-07
0002b0 dd 08 b0 34 20 0c dc 34 aa dd 7c b1 f2 df 7c b1
       3.2789004e-07 4.0987015e-07 -3.6796828e-09 -3.6798125e-09
0002c0 1e db fc b1 88 aa 3d b2 94 db 7c b2 15 09 9e b2
       -7.359076e-09 -1.1040022e-08 -1.4718257e-08 -1.839775e-08
0002d0 fa 59 9f 33 c0 59 9f 33 6d 59 1f 34 00 07 6f 34
       7.420381e-08 7.42034e-08 1.4840562e-07 2.2261156e-07
0002e0 7b 59 9f 34 5a 30 c7 34 8a 10 7f 30 cd 0d 7f 30
       2.9681163e-07 3.710182e-07 9.2791963e-10 9.278807e-10
0002f0 17 00 ff 30 c2 39 3f 31 53 fc 7e 31 f4 69 9f 31
       1.8553717e-09 2.782699e-09 3.7105294e-09 4.6395545e-09
000300 0b 5e ac 32 0b 5e ac 32 9a 5e 2c 33 fc 43 81 33
       2.0066201e-08 2.0066201e-08 4.013291e-08 6.019397e-08
000310 47 5f ac 33 66 76 d7 33 43 40 9d 33 35 40 9d 33
       8.026705e-08 1.0033254e-07 7.322571e-08 7.3225614e-08
000320 0a 40 1d 34 2c e1 6b 34 a9 3f 9d 34 72 90 c4 34
       1.4645062e-07 2.1967998e-07 2.9289848e-07 3.6612943e-07
000330 c8 4d ba 33 cb 4d ba 33 4f 4d 3a 34 c2 b9 8b 34
       8.675448e-08 8.6754504e-08 1.7350725e-07 2.6025924e-07
000340 c3 4d ba 34 6f e1 e8 34 12 91 c3 30 63 93 c3 30
       3.470178e-07 4.3377392e-07 1.4229349e-09 1.4230007e-09
000350 3b 92 43 31 90 b2 92 31 93 93 c3 31 72 86 f4 31
       2.8459357e-09 4.2694595e-09 5.692024e-09 7.1166193e-09
000360 c5 2a a2 33 ac 2a a2 33 33 2a 22 34 8c 40 73 34
       7.5514926e-08 7.551475e-08 1.5102778e-07 2.265462e-07
000370 c0 2a a2 34 26 b6 ca 34 9a d6 26 33 b2 d6 26 33
       3.0205956e-07 3.7757962e-07 3.8845066e-08 3.884515e-08
000380 65 d6 a6 33 21 41 fa 33 ec d5 26 34 5b 8c 50 34
       7.7689755e-08 1.1653379e-07 1.5537779e-07 1.942257e-07
000390 4b af 0d b4 2e af 0d b4 49 af 8d b4 7d 86 d4 b4
       -1.319542e-07 -1.3195378e-07 -2.6390833e-07 -3.958593e-07
0003a0 98 af 0d b5 1c 1b 31 b5 8a e4 40 b2 f0 e4 40 b2
       -5.2782116e-07 -6.597709e-07 -1.1227835e-08 -1.1227925e-08
0003b0 02 e6 c0 b2 8d ab 10 b3 48 e5 40 b3 f3 1d 71 b3
       -2.2456337e-08 -3.3683637e-08 -4.4912014e-08 -5.6139424e-08
0003c0 75 b5 09 32 5d b5 09 32 05 b5 89 32 ce 8f ce 32
       8.015708e-09 8.015687e-09 1.6031217e-08 2.4046951e-08
0003d0 29 b5 09 33 b4 21 2c 33 21 f4 0b 32 70 f4 0b 32
       3.2062562e-08 4.0077524e-08 8.146373e-09 8.1464435e-09
0003e0 82 f5 8b 32 37 f2 d1 32 bd f4 0b 33 f0 f4 2e 33
       1.6293374e-08 2.4440949e-08 3.2586048e-08 4.07353e-08
0003f0 d9 62 3f b2 bd 62 3f b2 65 62 bf b2 29 8d 0f b3
       -1.1140139e-08 -1.1140114e-08 -2.2280071e-08 -3.3423166e-08

exp_avg_sq f4 [100, 6]
000000 65 20 6b 2c 66 20 6b 2c 52 20 6b 2d 22 42 04 2e
       3.3413491e-12 3.3413493e-12 1.336538e-11 3.0072063e-11
000010 0f 20 6b 2e eb b0 b7 2e 82 58 19 2e 80 58 19 2e
       5.3461287e-11 8.3533035e-11 3.4866783e-11 3.4866776e-11
000020 80 58 19 2f 81 83 ac 2f 82 58 19 30 34 9a 6f 30
       1.394671e-10 3.1380057e-10 5.5786853e-10 8.716683e-10
000030 a3 ae 37 2c a1 ae 37 2c 8e ae 37 2d 3e a4 ce 2d
       2.6102807e-12 2.6102803e-12 1.0441105e-11 2.3492427e-11
000040 58 ae 37 2e 16 80 8f 2e 34 b9 e4 2a 3e b9 e4 2a
       4.176423e-11 6.52564e-11 4.0629446e-13 4.0629474e-13
000050 45 b9 e4 2b 4a a8 80 2c 56 b9 e4 2c dc b0 32 2d
       1.6251797e-12 3.6566626e-12 6.500726e-12 1.0157399e-11
000060 54 9a 8f 2c 52 9a 8f 2c 46 9a 8f 2d 6d 8d 21 2e
       4.0814383e-12 4.0814374e-12 1.6325729e-11 3.6732773e-11
000070 1c 9a 8f 2e 93 60 e0 2e 5a 04 1a 2c 57 04 1a 2c
       6.5302624e-11 1.0203496e-10 2.1887132e-12 2.1887125e-12
000080 4b 04 1a 2d b6 44 ad 2d 24 04 1a 2e 18 a6 70 2e
       8.75484e-12 1.9698337e-11 3.5019224e-11 5.4717203e-11
000090 f2 ff 0d 2b ec ff 0d 2b df ff 0d 2c df bf 9f 2c
       5.044846e-13 5.0448426e-13 2.0179342e-12 4.5403538e-12
0000a0 bb ff 0d 2d 51 df 5d 2d 77 f1 5a 2e 78 f1 5a 2e
       8.071706e-12 1.2611982e-11 4.9781925e-11 4.978193e-11
0000b0 6e f1 5a 2f 74 4f f6 2f 5c f1 5a 30 73 0c ab 30
       1.9912758e-10 4.4803594e-10 7.965093e-10 1.2445426e-09
0000c0 12 03 87 2b 0e 03 87 2b 03 03 87 2c 4d e3 17 2d
       9.593179e-13 9.593175e-13 3.837265e-12 8.633827e-12
0000d0 dd 02 87 2d 48 f4 d2 2d 7d b7 5a 2d 7e b7 5a 2d
       1.5348995e-11 2.3982719e-11 1.2432608e-11 1.2432609e-11
0000e0 70 b7 5a 2e 38 0e f6 2e 5c b7 5a 2f 21 df aa 2f
       4.9730386e-11 1.11893106e-10 1.9892127e-10 3.1081362e-10
0000f0 6b a8 93 2e 6b a8 93 2e 68 a8 93 2f 54 1d 26 30
       6.714703e-11 6.714703e-11 2.6858804e-10 6.0432126e-10
000100 5c a8 93 30 e4 b6 e6 30 43 70 31 2c 3b 70 31 2c
       1.0743508e-09 1.6786683e-09 2.521553e-12 2.5215513e-12
000110 2a 70 31 2d f5 9d c7 2d e5 6f 31 2e 2d 9f 8a 2e
       1.00861906e-11 2.2693828e-11 4.0344523e-11 6.303789e-11
000120 71 1e 11 2e 6e 1e 11 2e 6d 1e 11 2f 2f 42 a3 2f
       3.299622e-11 3.299621e-11 1.3198483e-10 2.9696554e-10
000130 4e 1e 11 30 44 bf 62 30 33 7a 6f 2c 2e 7a 6f 2c
       5.279376e-10 8.2490126e-10 3.4031777e-12 3.4031766e-12
000140 24 7a 6f 2d a9 b4 06 2e f2 79 6f 2e 34 17 bb 2e
       1.3612698e-11 3.062853e-11 5.4450618e-11 8.507897e-11
000150 fd 03 a4 2d fc 03 a4 2d fc 03 a4 2e 7e 84 38 2f
       1.8646413e-11 1.864641e-11 7.458564e-11 1.6781773e-10
000160 00 04 a4 2f 2d 23 00 30 04 96 2a 2d 05 96 2a 2d
       2.9834268e-10 4.6616117e-10 9.696691e-12 9.696692e-12
000170 03 96 2a 2e bf e8 bf 2e e9 95 2a 2f 24 45 85 2f
       3.8786762e-11 8.7270184e-11 1.5514669e-10 2.4241686e-10
000180 97 a4 8f 2c 95 a4 8f 2c 98 a4 8f 2d 31 99 21 2e
       4.0825776e-12 4.0825767e-12 1.6330312e-11 3.6743223e-11
000190 93 a4 8f 2e 06 71 e0 2e 4c 1f 5c 2b 4c 1f 5c 2b
       6.5321214e-11 1.0206418e-10 7.8203134e-13 7.8203134e-13
0001a0 67 1f 5c 2c 58 a3 f7 2c 65 1f 5c 2d 88 f8 ab 2d
       3.1281312e-12 7.038297e-12 1.2512523e-11 1.955082e-11
0001b0 12 fc 22 2c 11 fc 22 2c 08 fc 22 2d 96 5b b7 2d
       2.3161512e-12 2.316151e-12 9.264596e-12 2.0845364e-11
0001c0 f2 fb 22 2e af a9 7e 2e 66 6c c5 2b 63 6c c5 2b
       3.7058308e-11 5.7903623e-11 1.4027779e-12 1.4027775e-12
0001d0 69 6c c5 2c c8 19 5e 2d 64 6c c5 2d 98 3c 1a 2e
       5.6111127e-12 1.2624964e-11 2.2444442e-11 3.5069364e-11
0001e0 c3 55 d2 2c bf 55 d2 2c bc 55 d2 2d 64 a0 6c 2e
       5.9780804e-12 5.9780787e-12 2.391231e-11 5.3802643e-11
0001f0 b2 55 d2 2e e0 52 24 2f 3f 1e 7c 2b 3b 1e 7c 2b
       9.564917e-11 1.4945156e-10 8.957036e-13 8.957034e-13
000200 25 1e 7c 2c e8 d0 0d 2d d0 1d 7c 2d 22 f7 c4 2d
       3.5828087e-12 8.0613086e-12 1.4331161e-11 2.239237e-11
000210 f5 fb 90 2c f5 fb 90 2c ed fb 90 2d 3c 1b 23 2e
       4.120699e-12 4.120699e-12 1.6482782e-11 3.7086098e-11
000220 c3 fb 90 2e 1e 89 e2 2e 7b 52 f3 2d 77 52 f3 2d
       6.593084e-11 1.0301647e-10 2.766253e-11 2.7662523e-11
000230 6b 52 f3 2e 42 de 88 2f 53 52 f3 2f 34 18 3e 30
       1.1065001e-10 2.489618e-10 4.4259937e-10 6.915599e-10
000240 2a 83 10 2c 23 83 10 2c 1b 83 10 2d 5d 93 a2 2d
       2.0536441e-12 2.0536426e-12 8.214564e-12 1.848271e-11
000250 e8 82 10 2e 68 cc 61 2e 44 2f bf 2d 42 2f bf 2d
       3.2858077e-11 5.1340626e-11 2.1735176e-11 2.1735173e-11
000260 3d 2f bf 2e f5 14 57 2f 15 2f bf 2f ac 5c 15 30
       8.6940656e-11 1.9561582e-10 3.4776151e-10 5.433758e-10
000270 c8 5a 06 2d c6 5a 06 2d c6 5a 06 2e 14 26 97 2e
       7.637176e-12 7.637174e-12 3.0548696e-11 6.873449e-11
000280 bf 5a 06 2f d2 ed 51 2f cf 06 3c 2c ce 06 3c 2c
       1.2219468e-10 1.909293e-10 2.6720186e-12 2.6720184e-12
000290 c5 06 3c 2d 90 87 d3 2d 9e 06 3c 2e 20 e5 92 2e
       1.0688066e-11 2.4048125e-11 4.2752128e-11 6.680012e-11
0002a0 c9 44 21 2e c6 44 21 2e c3 44 21 2f 5a 6d b5 2f
       3.6668255e-11 3.6668245e-11 1.4667294e-10 3.3001407e-10
0002b0 b4 44 21 30 44 fb 7b 30 cb 24 04 2c c8 24 04 2c
       5.866909e-10 9.167034e-10 1.8778752e-12 1.8778746e-12
0002c0 cf 24 04 2d 56 a9 94 2d c4 24 04 2e 73 79 4e 2e
       7.5115044e-12 1.6900852e-11 3.004598e-11 4.6946846e-11
0002d0 a2 b5 02 2e a3 b5 02 2e a5 b5 02 2f 4c 0c 93 2f
       2.97199e-11 2.9719904e-11 1.1887964e-10 2.6747882e-10
0002e0 97 b5 02 30 bd 3b 4c 30 7b 33 d7 2b 83 33 d7 2b
       4.755178e-10 7.429966e-10 1.5290958e-12 1.5290966e-12
0002f0 83 33 d7 2c db 19 72 2d 70 33 d7 2d 14 20 28 2e
       6.1163865e-12 1.3761848e-11 2.4465513e-11 3.822727e-11
000300 79 ce 81 2c 7a ce 81 2c 7b ce 81 2d 43 08 12 2e
       3.6893236e-12 3.689324e-12 1.4757298e-11 3.3203894e-11
000310 72 ce 81 2e 8d d2 ca 2e bb 65 06 2e b8 65 06 2e
       5.902913e-11 9.223298e-11 3.0558427e-11 3.0558417e-11
000320 ba 65 06 2f 6c 32 97 2f b3 65 06 30 e0 fe 51 30
       1.222337e-10 2.7502567e-10 4.889344e-10 7.6395956e-10
000330 ce f2 1c 2e ce f2 1c 2e cb f2 1c 2f 15 91 b0 2f
       3.5685947e-11 3.5685947e-11 1.4274375e-10 3.21173e-10
000340 b5 f2 1c 30 33 3b 75 30 1c 5a 43 2b 19 5a 43 2b
       5.7097377e-10 8.921461e-10 6.940297e-13 6.940295e-13
000350 13 5a 43 2c 6c c5 db 2c 02 5a 43 2d 48 9e 98 2d
       2.7761168e-12 6.2462726e-12 1.1104452e-11 1.735069e-11
000360 aa e3 08 2e a7 e3 08 2e a7 e3 08 2f 12 00 9a 2f
       3.1125026e-11 3.1125016e-11 1.2450006e-10 2.8012487e-10
000370 97 e3 08 30 9c e3 55 30 eb 8f 48 2d e9 8f 48 2d
       4.9799936e-10 7.78124e-10 1.140064e-11 1.1400638e-11
000380 eb 8f 48 2e d2 a1 e1 2e eb 8f 48 2f 5d b0 9c 2f
       4.560256e-11 1.02605605e-10 1.8241024e-10 2.8501548e-10
000390 cd bc 16 2e cd bc 16 2e c6 bc 16 2f 4b 94 a9 2f
       3.427374e-11 3.427374e-11 1.3709486e-10 3.084629e-10
0003a0 ae bc 16 30 aa 86 6b 30 32 64 be 2c 2f 64 be 2c
       5.483781e-10 8.568387e-10 5.4112487e-12 5.4112474e-12
0003b0 22 64 be 2d 92 30 56 2e ec 63 be 2e f7 bd 14 2f
       2.1644967e-11 4.8701106e-11 8.6579494e-11 1.352801e-10
0003c0 01 6e f6 2b 02 6e f6 2b f2 6d f6 2c c0 9d 8a 2d
       1.7509884e-12 1.7509885e-12 7.003947e-12 1.5758839e-11
0003d0 b5 6d f6 2d 97 85 40 2e 15 1b a9 2b 0f 1b a9 2b
       2.8015682e-11 4.3774397e-11 1.2015689e-12 1.2015683e-12
0003e0 0d 1b a9 2c 64 3e 3e 2d 01 1b a9 2d 0f 1d 04 2e
       4.806272e-12 1.0814103e-11 1.9225068e-11 3.0039134e-11
0003f0 4a d8 b3 2c 47 d8 b3 2c 3d d8 b3 2d 3a 53 4a 2e
       5.111499e-12 5.1114976e-12 2.0445973e-11 4.6003402e-11
