TSTE-R/PV-DC-noisy-comparison/Noisy-5%/Proposed_A30_noisy0.05/save_model_0224.ckpt-2250000.pt (torch, 265366 bytes, 24 tensors)

linears.0.weight f4 [100, 6]
-5.9533215 -5.899669 -6.0287213 -6.261878 -5.8763843 -6.093608 12.730426 13.026233
13.028569 12.857639 13.102459 13.036165 -5.5503306 -5.505966 -5.549147 -5.749766
-5.723112 -5.649686 5.790011 5.771845 6.045416 6.1302447 5.919554 5.966673
-6.426937 -6.543381 -6.300341 -6.525953 -6.301031 -6.494293 -6.351819 -6.0887856
-6.1661887 -5.8968406 -6.3265514 -6.2804666 -2.2092378 -2.4254992 -2.0425081 -2.1392846
-2.413264 -2.1427407 11.7718315 11.911173 11.770036 11.653108 11.772732 11.58559
-4.478679 -4.395246 -4.5740366 -4.4370117 -4.373201 -4.4797244 6.916229 7.1459703
6.9496803 7.1110363 7.221169 7.184858 14.737106 14.748625 14.562771 14.90029
14.686451 14.462591 -8.2327 -8.513036 -8.455856 -8.360323 -8.166597 -8.472054
9.936726 10.037667 10.217866 10.241406 10.357933 10.143656 -5.427288 -5.3090158
-5.5493083 -5.118227 -5.408641 -5.4265256 11.154307 11.124896 11.456248 11.435182
11.187284 11.464165 8.160747 8.089554 8.103925 8.097119 8.148888 7.890333
-8.253963 -8.278981 -8.119321 -8.179061 -8.329408 -8.2923565 5.0912237 4.880623
5.147633 4.896619 5.1494136 4.967385 6.3305306 6.5731993 6.2365494 6.467748
6.320639 6.5329533 7.746401 7.643087 7.736319 7.890819 7.908816 7.5887427
7.8385086 8.015116 7.7566957 7.7824454 8.022018 7.9575725 -5.196741 -5.214405
-5.295775 -5.151926 -5.5153036 -5.423363 -8.398418 -8.146344 -8.358095 -8.545824
-8.415515 -8.108554 9.542315 9.848196 9.545026 9.536663 9.986067 9.913614
4.131913 4.358342 4.369317 4.20588 3.9532318 4.258177 9.878783 9.705892
9.928885 9.616966 9.698152 9.953493 10.077422 10.02755 10.120074 10.091117
10.000563 9.917413 4.5611563 4.6759944 4.485342 4.88893 4.800145 4.68716
10.863114 10.618253 10.860196 10.853437 10.765998 10.909084 -6.9511156 -6.8555684
-7.2772675 -7.2083 -6.980985 -7.1073475 10.654803 10.55358 10.521468 10.672161
10.525387 10.447996 7.3204823 7.1762257 7.276561 7.3697047 7.4559493 7.3283195
6.8365483 7.0361505 6.8211083 7.0090017 6.6691747 7.1209035 10.866722 10.501728
10.91605 10.620135 10.82412 10.612464 10.657305 10.518764 10.551302 10.7153635
10.488194 10.842624 5.9120827 5.8240013 5.7288566 5.752563 5.77169 5.865051
10.274042 10.288108 10.375438 10.666688 10.601269 10.2405615 11.034721 10.71824
10.91545 11.035526 11.035838 11.147249 -9.841088 -9.548855 -9.799124 -9.834658
-9.743374 -9.887924 -6.2190967 -6.433215 -6.241115 -6.346265 -6.4514093 -6.4802856
-4.1504083 -4.295725 -4.186685 -4.3471627 -4.2428837 -4.010558 5.0782213 5.101294
5.1988525 5.024184 5.170475 5.164893 -9.27773 -9.214391 -9.212329 -9.408406
00000000: 9c81 bec0 17ca bcc0 49eb c0c0 4e61 c8c0
00000010: 570b bcc0 d6fe c2c0 d3af 4b41 736b 5041
00000020: 0575 5041 e4b8 4d41 aca3 5141 2294 5041
00000030: 4f9c b1c0 e030 b0c0 9d92 b1c0 15fe b7c0
00000040: bc23 b7c0 3aca b4c0 c547 b940 f4b2 b840
00000050: 0c74 c140 f72a c440 fd6c bd40 fcee be40
00000060: 78a9 cdc0 6163 d1c0 659c c9c0 9bd4 d0c0
00000070: 0ca2 c9c0 40d1 cfc0 1a42 cbc0 55d7 c2c0
00000080: 6b51 c5c0 ebb2 bcc0 1c73 cac0 95f9 c8c0
00000090: 2764 0dc0 613b 1bc0 74b8 02c0 0aea 08c0
000000a0: eb72 1ac0 aa22 09c0 6c59 3c41 2a94 3e41
000000b0: 1152 3c41 2173 3a41 1c5d 3c41 945e 3941
000000c0: 5751 8fc0 dba5 8cc0 825e 92c0 00fc 8dc0
000000d0: 43f1 8bc0 e759 8fc0 bf51 dd40 caab e440
000000e0: c863 de40 9c8d e340 d113 e740 5bea e540
000000f0: 30cb 6b41 5efa 6b41 1c01 6941 9667 6e41
00000100: b4fb 6a41 c666 6741 24b9 03c1 6535 08c1
00000110: 304b 07c1 e2c3 05c1 62aa 02c1 888d 07c1
00000120: d4fc 1e41 499a 2041 617c 2341 cddc 2341
00000130: 18ba 2541 6a4c 2241 58ac adc0 75e3 a9c0
00000140: ef93 b1c0 84c8 a3c0 9613 adc0 19a6 adc0
00000150: 0b78 3241 93ff 3141 cb4c 3741 81f6 3641
00000160: 1eff 3241 386d 3741 6b92 0241 d06e 0141
00000170: ada9 0141 cd8d 0141 d861 0241 9c7d fc40
00000180: 3c10 04c1 b576 04c1 bde8 01c1 6fdd 02c1
00000190: 4145 05c1 7ead 04c1 4eeb a240 102e 9c40
000001a0: 69b9 a440 1ab1 9c40 ffc7 a440 d1f4 9e40
000001b0: b593 ca40 a657 d240 d091 c740 cbf7 ce40
000001c0: ad42 ca40 f40d d140 84e2 f740 2b94 f440
000001d0: ed8f f740 9781 fc40 0515 fd40 fbd6 f240
000001e0: 10d5 fa40 ea3d 0041 da36 f840 cb09 f940
000001f0: 305a 0041 6fa4 fe40 b44b a6c0 68dc a6c0
00000200: fd76 a9c0 94dc a4c0 5e7d b0c0 318c adc0
00000210: ec5f 06c1 6d57 02c1 c2ba 05c1 b2bb 08c1
00000220: f3a5 06c1 a3bc 01c1 52ad 1841 3692 1d41
00000230: 6db8 1841 2c96 1841 eec6 1f41 2a9e 1e41
00000240: a238 8440 8a77 8b40 72d1 8b40 9296 8640
00000250: c001 7d40 fc42 8840 7f0f 1e41 554b 1b41
00000260: b7dc 1e41 18df 1941 a12b 1b41 8241 1f41
00000270: 1f3d 2141 d870 2041 d3eb 2141 3775 2141
00000280: 4e02 2041 b9ad 1e41 fef4 9140 bfa1 9540
00000290: ec87 8f40 1d72 9c40 ca9a 9940 37fd 9540
000002a0: 51cf 2d41 5de4 2941 5dc3 2d41 aea7 2d41
000002b0: 8741 2c41 9c8b 2e41 8a6f dec0 d160 dbc0
000002c0: 60df e8c0 65aa e6c0 3b64 dfc0 646f e3c0
000002d0: 137a 2a41 77db 2841 ef57 2841 2cc1 2a41
000002e0: fc67 2841 fe2a 2741 6441 ea40 a4a3 e540
000002f0: 96d9 e840 9fd4 eb40 2397 ee40 9881 ea40
00000300: 01c5 da40 2528 e140 8546 da40 be49 e040
00000310: e169 d540 71de e340 18de 2d41 1407 2841
00000320: 24a8 2e41 13ec 2941 982f 2d41 a7cc 2941
00000330: 5284 2a41 db4c 2841 22d2 2841 2172 2b41
00000340: a5cf 2741 637b 2d41 c82f bd40 385e ba40
00000350: cb52 b740 ff14 b840 afb1 b840 7fae bb40
00000360: 7a62 2441 179c 2441 cb01 2641 c1aa 2a41
00000370: cc9e 2941 57d9 2341 388e 3041 e97d 2b41
00000380: afa5 2e41 8491 3041 cb92 3041 225b 3241
00000390: 1975 1dc1 1cc8 18c1 36c9 1cc1 c25a 1dc1
000003a0: dce4 1bc1 f034 1ec1 d702 c7c0 e6dc cdc0
000003b0: 37b7 c7c0 9a14 cbc0 f271 cec0 805e cfc0
000003c0: 25d0 84c0 9476 89c0 53f9 85c0 f51b 8bc0
000003d0: b4c5 87c0 7e56 80c0 ca80 a240 cd3d a340
000003e0: 005d a640 1ec6 a040 8874 a540 ce46 a540
000003f0: 9571 14c1 256e 13c1 b365 13c1 d588 16c1

linears.0.bias f4 [100]
0.09232242 -0.03797415 0.08767523 -0.011063625 0.079198204 0.07250975 0.008897475 -0.019913854
0.01971722 -0.028221147 -0.019917633 0.1157723 -0.023901572 0.018502505 -0.03429669 -0.03728068
0.027474709 -0.017225401 -0.010190353 -0.030934444 -0.025987424 0.020207763 0.102049075 -0.03567956
-0.013529856 -0.037877742 -0.030509736 -0.009328614 -0.015284128 0.026876064 -0.031573184 -0.023021778
-0.036005165 -0.024665559 -0.014273828 -0.013943109 -0.013553715 -0.0342362 0.16640177 0.08025108
0.017140513 -0.017818607 0.03737161 -0.03108977 -0.015682539 -0.02479363 0.13363169 -0.028154777
-0.0325519 -0.03346868 -0.03173827 -0.022321962 0.06517794 -0.022448674 0.11836645 -0.030635385
-0.041778684 0.022933546 0.7668749 0.11497169 0.02830101 0.031613298 -0.016435355 0.13016787
-0.033760983 -0.015777936 -0.012552934 0.048016462 -0.016624456 -0.032930765 -0.033051465 -0.01391235
0.060103413 -0.035233848 0.06483035 0.1034869 -0.025516806 -0.013546979 -0.03188613 0.32316878
0.0102772685 0.029019617 -0.01966327 0.06379535 0.9821417 -0.013020738 -0.021274846 0.092228346
0.086769834 -0.029634066 -0.031909738 -0.011551504 -0.03420995 -0.014028369 -0.026625626 -0.028616993
0.07228303 0.017718067 0.087104015 0.029612942
00000000: 8913 bd3d c88a 1bbd 128f b33d 3544 35bc
00000010: ab32 a23d fe7f 943d b7c6 113c 6122 a3bc
00000020: 0286 a13c 0930 e7bc 4e2a a3bc 071a ed3d
00000030: 3bcd c3bc 9192 973c b07a 0cbd a0b3 18bd
00000040: a412 e13c 491c 8dbc 70f5 26bc 3b6a fdbc
00000050: 94e3 d4bc c08a a53c 1bff d03d bb24 12bd
00000060: 54ac 5dbc b125 1bbd 8eef f9bc 0bd7 18bc
00000070: 476a 7abc 312b dc3c e252 01bd 2b98 bcbc
00000080: 277a 13bd 6d0f cabc c6dc 69bc a371 64bc
00000090: 6710 5ebc 423b 0cbd 3a65 2a3e ae5a a43d
000000a0: 436a 8c3c 54f8 91bc f912 193d f9af febc
000000b0: ab78 80bc 031c cbbc bfd6 083e d9a4 e6bc
000000c0: 2455 05bd 7416 09bd fdff 01bd 8cdc b6bc
000000d0: 037c 853d 48e6 b7bc 1c6a f23d 0ff7 fabc
000000e0: 2020 2bbd 22df bb3c ea51 443f 4776 eb3d
000000f0: 85d7 e73c f27c 013d 70a3 86bc ba4a 053e
00000100: f548 0abd bb40 81bc d2aa 4dbc e9ac 443d
00000110: 0330 88bc 69e2 06bd f960 07bd a0f0 63bc
00000120: ff2e 763d 5e51 10bd c6c5 843d f1f0 d33d
00000130: 9f08 d1bc 26f4 5dbc 089b 02bd 6176 a53e
00000140: fd61 283c 8cba ed3c de14 a1bc 23a7 823d
00000150: a36d 7b3f ef54 55bc 9648 aebc 37e2 bc3d
00000160: 62b4 b13d 24c3 f2bc c9b3 02bd 8542 3dbc
00000170: bc1f 0cbd 3fd7 65bc fc1d dabc 2f6e eabc
00000180: 2009 943d 7b25 913c 9763 b23d d796 f23c

linears.1.weight f4 [100, 100]
0.035440613 0.28213784 -0.118829384 -0.5062922 -0.22604148 0.027586995 1.4193362 0.19187486
-0.05257967 -0.14874564 0.11655514 -0.1533247 -0.15262675 0.30668122 0.5620644 -0.19628428
-0.6001307 0.054903302 0.040910576 0.11746521 0.26500455 -0.048804272 -0.022612162 0.01642098
-0.85352236 -0.02324656 0.25458476 0.100148216 0.16616008 0.26313052 0.24564794 0.1490621
-0.12126731 0.015150903 -0.15201539 -0.61739075 0.06182731 0.29024333 -0.09612845 0.019819194
0.7960855 0.2258616 -0.89484465 0.022817954 -2.2309084 0.1320714 0.24568124 0.26282763
-0.23703946 -0.011318106 -0.047834605 0.14109011 0.038156338 0.01885333 0.11900887 0.054629743
0.13196857 -0.3598998 0.0066208523 0.03056109 -0.29582205 0.07424816 -1.8059394 -0.0073784376
0.18923992 0.027124472 0.3984553 -0.0023804244 0.49866632 0.00021538904 -0.0033650033 0.47604316
-0.17842376 -0.11440964 -0.18991967 0.049537618 0.118823856 -1.5717665 0.34746948 0.22271912
2.142243 -0.91147965 0.3629446 -0.049892824 -0.09647654 -2.114697 0.055149402 0.21164969
0.08640577 -0.079909325 -0.055774897 -2.3904548 -0.18382232 0.06044712 -0.040484827 0.014581331
0.052781776 1.6867875 -0.43842345 -0.92299545 -0.024342757 -0.11926861 -0.079594694 -0.021620603
0.071356855 0.17963235 -0.17285489 -0.022278873 -0.055364702 -0.7869234 -0.0384968 -0.12825197
-0.40394577 0.18386164 0.010727525 -0.6852807 -0.26406315 -0.5492821 0.1661331 -0.12068746
-0.06689849 -0.1334669 0.053417485 -0.7539355 -0.026129153 -0.6072335 -0.12482798 -0.11876255
0.058741573 -0.1533531 -0.03684706 0.06066294 -0.3023569 0.1377631 -0.16378523 -0.003340777
-0.19765905 0.063048914 0.030439679 0.3264805 0.016115796 -0.71172184 -0.26206538 -0.016315369
0.12858796 -0.28015265 0.37322608 -0.14197132 -0.6875175 -0.56234384 0.102730446 0.21150096
-0.12466279 0.016661765 0.14765966 -0.3706733 0.12311546 0.017623343 -0.07160131 0.16232735
-0.02679758 -0.076706536 0.14467357 -0.12629332 -0.31821716 0.101758964 0.02569625 0.099316984
0.00039587083 -0.29173082 -0.25155297 -0.06378673 -0.017726805 -0.12490407 0.16401954 -0.03805699
-0.035332408 -0.17811908 0.14010203 0.54555833 -0.2028771 -0.1745552 0.07318181 -0.14162071
0.09411973 -0.29823652 0.03424492 0.29165408 0.084112555 -0.72391534 -0.5580455 0.13524996
-0.4348664 -0.09124056 -0.32104912 -0.015891932 0.17318246 0.0035777264 -1.0454416 -0.009796333
0.2875072 -0.033018347 0.1815107 0.6449923 0.40374857 0.05919933 -0.16391054 -1.5795431
-0.0440227 -0.5464413 -1.1731566 0.078243315 -2.3490186 0.3981243 -0.1886817 -0.6392168
-0.44558483 -0.21181567 0.19716209 0.082810774 -0.13947073 0.1232414 0.37733656 -2.3343458
-0.14073756 -1.8673929 0.17838259 -0.033735387 -1.3496963 -0.6035197 -0.8896475 0.2101673
0.2615374 -0.7746789 -1.565744 0.6022126 -1.0378233 -0.18255338 0.8711427 0.23063435
0.52441627 -0.58988494 -0.14332591 -0.78762335 0.42114434 -1.7816286 0.6553685 -0.4985928
-0.9039689 -0.22462544 0.064112745 0.310135 0.13713114 -1.1936548 0.34583503 -0.0042174496
00000000: 2d2a 113d 5f74 903e d25c f3bd 5e9c 01bf
00000010: 6b77 67be 1ffe e13c cfac b53f d87a 443e
00000020: c85d 57bd c750 18be 76b4 ee3d 2601 1dbe
00000030: 304a 1cbe 5205 9d3e 74e3 0f3f bffe 48be
00000040: 2aa2 19bf 49e2 603d d991 273d 9a91 f03d
00000050: adae 873e fde6 47bd 243d b9bc 4b85 863c
00000060: 7180 5abf 926f bebc ef58 823e 821a cd3d
00000070: de25 2a3e 0bb9 863e 228b 7b3e bca3 183e
00000080: ff5a f8bd 7e3b 783c eca9 1bbe 520d 1ebf
00000090: a23e 7d3d c69a 943e fede c4bd dd5b a23c
000000a0: 42cc 4b3f 4348 673e 8a14 65bf b8ec ba3c
000000b0: 34c7 0ec0 ba3d 073e dd93 7b3e 5891 863e
000000c0: 79ba 72be 946f 39bc 38ee 43bd ed79 103e
000000d0: d249 1c3d 4c72 9a3c ecba f33d 70c3 5f3d
000000e0: c522 073e c944 b8be bcf3 d83b 405b fa3c
000000f0: fd75 97be 6b0f 983d 0629 e7bf d2c6 f1bb
00000100: 1cc8 413e 2434 de3c 5502 cc3e e500 1cbb
00000110: 3151 ff3e 0eda 6139 6387 5cbb eebb f33e
00000120: b8b4 36be 9a4f eabd 4d7a 42be f5e7 4a3d
00000130: ec59 f33d a52f c9bf 85e7 b13e 7b10 643e
00000140: 821a 0940 bb56 69bf e0d3 b93e 6b5c 4cbd
00000150: 7e95 c5bd 3257 07c0 57e4 613d b2ba 583e
00000160: 82f5 b03d 80a7 a3bd 3874 64bd 36fd 18c0
00000170: eb3b 3cbe 6697 773d 6bd3 25bd 89e6 6e3c
00000180: b431 583d a7e8 d73f 0a79 e0be 6e49 6cbf
00000190: 766a c7bc 1a43 f4bd 8b02 a3bd b11d b1bc
000001a0: 8b23 923d 8bf1 373e df00 31be 2f82 b6bc
000001b0: 19c6 62bd d073 49bf d2ae 1dbd 7c54 03be
000001c0: fbd1 cebe 3a46 3c3e 80c2 2f3c 8e6e 2fbf
000001d0: 4933 87be c09d 0cbf cc1e 2a3e fd2a f7bd
000001e0: 1302 89bd 8cab 08be 4bcc 5a3d eb01 41bf
000001f0: ce0c d6bc a873 1bbf d0a5 ffbd c839 f3bd
00000200: 019b 703d 9808 1dbe f1ec 16bd b479 783d
00000210: 86ce 9abe c511 0d3e 51b7 27be f0f0 5abb
00000220: 2267 4abe ca1f 813d a25c f93c 7428 a73e
00000230: 4605 843c 6733 36bf 6f2d 86be cfa7 85bc
00000240: 90ac 033e 2b70 8fbe 7d17 bf3e ee60 11be
00000250: 2601 30bf c4f5 0fbf 5764 d23d b593 583e
00000260: 344f ffbd 417e 883c 1834 173e e4c8 bdbe
00000270: f523 fc3d d45e 903c b5a3 92bd 2439 263e
00000280: 9986 dbbc 5118 9dbd 4f25 143e 0953 01be
00000290: 5ced a2be 0167 d03d f180 d23c b466 cb3d
000002a0: e28c cf39 be5d 95be 8dcb 80be 9ea2 82bd
000002b0: ce37 91bc b4cd ffbd bdf4 273e a5e1 1bbd
000002c0: b7b8 10bd d964 36be e876 0f3e b6a9 0b3f
000002d0: 04bf 4fbe 99be 32be 58e0 953d 0505 11be
000002e0: d8c1 c03d 75b2 98be 6744 0c3d af53 953e
000002f0: 3443 ac3d 8452 39bf 12dc 0ebf f77e 0a3e
00000300: cfa6 debe 55dc babd 8d60 a4be cc2f 82bc
00000310: be56 313e 4a78 6a3b 08d1 85bf cc80 20bc
00000320: 2534 933e 3f3e 07bd f1dd 393e 371e 253f
00000330: 22b8 ce3e ff7a 723d 2ad8 27be 782e cabf
00000340: 2651 34bd 94e3 0bbf ff29 96bf 083e a03d
00000350: 5256 16c0 f3d6 cb3e c735 41be b6a3 23bf
00000360: b223 e4be 35e6 58be dce4 493e b298 a93d
00000370: 6ad1 0ebe fd65 fc3d 4232 c13e ec65 15c0
00000380: 821d 10be bb06 efbf eda9 363e 1e2e 0abd
00000390: d9c2 acbf 4480 1abf f0bf 63bf 1936 573e
000003a0: 3be8 853e 5b51 46bf 4d6a c8bf 9b2a 1a3f
000003b0: 65d7 84bf 46ef 3abe 3503 5f3f 692b 6c3e
000003c0: 2540 063f b302 17bf 07c4 12be afa1 49bf
000003d0: 3ba0 d73e 680c e4bf 3bc6 273f 8e47 ffbe
000003e0: 816a 67bf 3604 66be 8b4d 833d 04ca 9e3e
000003f0: 1b6c 0c3e aec9 98bf 4a11 b13e 8832 8abb

linears.1.bias f4 [100]
0.025007237 -0.118135035 -0.00987323 -0.08470079 0.10825119 0.65042424 -0.05956747 -0.13452065
-0.0627307 0.24995154 -0.084611624 0.011655496 0.0794387 0.26151234 0.11705014 0.24734253
-0.05365679 -0.11626916 -0.05601449 -0.034222595 -0.03205673 -0.47743356 -0.014073907 0.064955436
-0.015879422 -0.07981129 -0.09486315 -0.02848493 -0.04528395 0.10028748 0.12514246 -0.04721425
0.5647657 -0.097830325 -0.014763035 0.4673634 -0.15645981 -0.014833343 -0.021992741 -0.03750161
0.00309009 -0.09545522 -0.021127762 -0.16638015 0.43880707 0.31052127 -0.028980276 -0.12066658
-0.044117335 0.67090243 -0.075976625 -0.064504124 0.49884796 -0.32968897 0.21598424 -0.17129388
0.14780627 0.019908583 0.023898806 0.019102285 -0.043442473 -0.09737353 -0.088252306 0.10836704
-0.06855235 -0.08471608 0.01158644 -0.1196032 -0.10633956 -0.050224118 0.029834284 -0.13891537
-0.06633947 -0.041881643 -0.052092765 0.27694088 -0.107993 -0.0029629322 -0.07180365 -0.13028158
-0.101994604 -0.045430556 0.03874631 -0.06835461 -0.12073823 0.875443 -0.3223892 0.58180535
0.1747405 -0.102006935 -0.113064595 0.040390052 -0.104282305 -0.14867634 -0.15077032 0.038624395
-0.13587378 0.05464959 0.22064565 -0.034080222
00000000: fadb cc3c c8f0 f1bd 54c3 21bc 9c77 adbd
00000010: cdb2 dd3d 3482 263f 05fd 73bd c8bf 09be
00000020: f478 80bd 4cf3 7f3e dc48 adbd b2f6 3e3c
00000030: c2b0 a23d f2e4 853e fcb7 ef3d 5c47 7d3e
00000040: 39c7 5bbd 861e eebd 736f 65bd fe2c 0cbd
00000050: eb4d 03bd 2c72 f4be 3f96 66bc 5b07 853d
00000060: 9015 82bc 1a74 a3bd 9c47 c2bd 3a59 e9bc
00000070: aa7b 39bd 8663 cd3d 5825 003e bb63 41bd
00000080: 7c94 103f 445b c8bd a8e0 71bc 414a ef3e
00000090: 0037 20be 8d07 73bc 1f2a b4bc 4a9b 19bd
000000a0: 1b83 4a3b 077e c3bd 2114 adbc 8f5f 2abe
000000b0: 52ab e03e a5fc 9e3e 0b68 edbc 0a20 f7bd
000000c0: 61b4 34bd 43c0 2b3f a299 9bbd bd1a 84bd
000000d0: 0069 ff3e fecc a8be f92a 5d3e aa67 2fbe
000000e0: 875a 173e 5317 a33c 6ec7 c33c 657c 9c3c
000000f0: bcf0 31bd c66b c7bd a0bd b4bd 8aef dd3d
00000100: 2d65 8cbd a07f adbd 0dd5 3d3c 86f2 f4bd
00000110: 8ec8 d9bd ceb7 4dbd 0767 f43c d53f 0ebe
00000120: fddc 87bd 168c 2bbd 395f 55bd 32cb 8d3e
00000130: 6f2b ddbd c12d 42bb cb0d 93bd 8968 05be
00000140: 8ce2 d0bd 6415 3abd 73b4 1e3d 80fd 8bbd
00000150: 9b45 f7bd 081d 603f 3210 a5be 32f1 143f
00000160: 2cef 323e 03e9 d0bd 698e e7bd 0a70 253d
00000170: f691 d5bd 9c3e 18be 8963 1abe 9d34 1e3d
00000180: 7f22 0bbe 40d8 5f3d eff0 613e b497 0bbd

linears.2.weight f4 [100, 100]
-0.82815456 -0.4728541 -0.2503257 -0.43649513 -1.7156106 -0.3067804 0.08014451 -0.6009493
-1.0538665 -2.9702861 -0.4361046 0.04299679 -0.9416483 -0.3943653 -0.643469 -1.3679186
-2.0543373 -0.7410429 0.6299738 -0.33486998 -0.86368257 -0.055831935 0.20529723 -0.3013105
-1.0375929 -0.5291656 0.13148858 -0.5406957 0.3203287 -1.5131328 -0.367555 -0.20880894
-2.3145072 0.19224666 -1.032391 -1.376196 -0.6867277 -0.6889066 -0.63411385 -1.5012254
0.123383306 -0.26420793 1.7237623 -0.28346783 -0.9236302 2.3127663 0.061245546 -0.35443282
-0.03070213 0.0653516 -0.38882735 0.020425862 -0.20698822 -0.02419844 -1.445046 -0.92748505
0.0439793 -0.7871312 0.27081725 0.95553577 -0.53722 0.68090147 -0.048848663 -0.7521207
-0.16032226 -0.05673718 -0.53860676 -0.7359984 -0.7814403 -1.0702273 -1.2411196 -0.4290781
0.25486362 0.44379547 -1.0971822 -0.095221885 -0.7161156 0.911574 0.32519203 -0.42018655
-0.62661505 1.9114169 -0.9463334 -0.13052872 -0.58597755 -0.7281989 -0.3027976 -0.04512041
-0.54203945 -0.46554914 -0.88316965 0.02397628 -0.44717312 0.44329828 -0.34381726 -0.52439654
-0.44429463 -0.78632706 -1.8249018 -0.56442 0.7284673 0.7522328 -0.30653992 -0.7752118
-0.8341119 -0.7105483 0.51811355 -0.5875412 -0.76558083 -0.1869814 0.08675445 -0.17376757
-1.1115695 0.7111423 -1.2559372 -0.64461565 -1.7519467 -0.83280796 0.42596737 0.8347535
-1.0220078 -1.0800682 0.85325736 -1.0074378 -1.1434798 -1.0637856 0.31706932 0.4286894
0.31564543 -3.0912938 0.11705037 -0.056841694 -3.617754 -0.30948114 -0.6952292 0.19957796
-0.8260918 0.39177066 0.6016959 -0.6894678 0.7458813 -1.1278172 0.7904715 -0.97484994
-0.54933053 -0.5035533 -0.053922024 -0.8399529 0.48639643 0.9494046 0.04467501 0.55141366
0.4757159 1.3195171 -0.14383993 -0.79233646 0.727425 -0.9456613 0.85391796 0.5140959
-0.80852336 0.57888603 0.64028406 0.60930014 -0.86560786 0.15130702 -0.6316324 0.029369796
-0.730483 -0.34742287 0.25337273 0.32701078 -1.0304955 0.6411748 -0.96914345 0.7103178
-1.1466031 1.0347804 0.60092044 -0.46950525 -0.7218547 1.1101547 -0.4906748 0.96028966
0.3636924 -0.9900613 -0.98474234 1.0050722 -0.77340525 -0.546616 -0.88997847 0.68551004
-0.7929207 0.06972137 -1.0221064 -0.89494115 -0.07311975 -0.6936943 -0.6508208 0.4786528
-0.23487693 -0.50826263 -0.31090295 -0.2801076 -0.2575935 -0.21384387 -0.077921614 -0.03515115
-0.123591535 -0.39172414 -0.5196938 -0.21850322 -0.14249012 -0.74622405 -0.15105747 -0.23604578
-0.29880816 -0.26222306 -0.3505422 -0.08616425 -0.23556232 -0.078977324 -0.09032832 -0.24529842
-0.23382649 0.17085724 -0.4173288 -0.28167447 -0.45050207 -0.32776815 -0.5025861 -0.32004854
-0.1702996 0.16512845 -0.12303632 -0.58903176 -0.05237375 -0.18091066 -0.58256054 -0.17106156
-0.25539383 0.076618515 -0.39862818 -0.3599226 -0.4807203 -0.4106743 -0.048593953 -0.13233307
-0.29355255 -0.13458887 -0.33512717 -0.38769996 -0.2743338 -0.29223466 -0.11178532 -0.10278626
00000000: f001 54bf ef19 f2be b12a 80be 4a7c dfbe
00000010: 2199 dbbf 5212 9dbe ce22 a43d d0d7 19bf
00000020: 19e5 86bf 2b19 3ec0 1a49 dfbe 671d 303d
00000030: dd0f 71bf 40ea c9be 62ba 24bf f517 afbf
00000040: 437a 03c0 fdb4 3dbf f745 213f 1474 abbe
00000050: 4d1a 5dbf 07b0 64bd 7039 523e 5f45 9abe
00000060: d8cf 84bf 6677 07bf f1a4 063e 096b 0abf
00000070: 2002 a43e 56ae c1bf 2b30 bcbe 03d2 55be
00000080: e320 14c0 4fdc 443e 6325 84bf 3127 b0bf
00000090: 63cd 2fbf 2f5c 30bf 4955 22bf 2728 c0bf
000000a0: 63b0 fc3d 4346 87be 3ea4 dc3f b222 91be
000000b0: 0773 6cbf 5d04 1440 9cdc 7a3d 3878 b5be
000000c0: 0983 fbbc 0fd7 853d 6114 c7be 2354 a73c
000000d0: b8f4 53be cf3b c6bc 44f7 b8bf a96f 6dbf
000000e0: a323 343d 6e81 49bf 8fa8 8a3e fe9d 743f
000000f0: 4087 09bf 8f4f 2e3f 8915 48bd fb8a 40bf
00000100: 852b 24be 3f65 68bd 22e2 09bf 646a 3cbf
00000110: 790c 48bf 35fd 88bf 02dd 9ebf 20b0 dbbe
00000120: 7c7d 823e 2939 e33e 7770 8cbf b103 c3bd
00000130: 5a53 37bf ea5c 693f 927f a63e b122 d7be
00000140: d869 20bf 4fa9 f43f e842 72bf 52a9 05be
00000150: a002 16bf 3e6b 3abf 4908 9bbe 2ed0 38bd
00000160: 19c3 0abf 755c eebe 6817 62bf e769 c43c
00000170: e0f3 e4be fef7 e23e d108 b0be da3e 06bf
00000180: 967a e3be bb4c 49bf 6296 e9bf d47d 10bf
00000190: d57c 3a3f 5492 403f cdf2 9cbe 4874 46bf
000001a0: 5c88 55bf 7ee6 35bf 17a3 043f 1a69 16bf
000001b0: 1bfd 43bf 0d78 3fbe 51ac b13d 20f0 31be
000001c0: e947 8ebf 6c0d 363f 8dc2 a0bf 8805 25bf
000001d0: ca3f e0bf e732 55bf 6518 da3e 68b2 553f
000001e0: 27d1 82bf ad3f 8abf 136f 5a3f b9f3 80bf
000001f0: 8c5d 92bf 202a 88bf e956 a23e 2d7d db3e
00000200: 479c a13e c2d7 45c0 1bb8 ef3d d6d2 68bd
00000210: 4889 67c0 5074 9ebe 8afa 31bf 2a5e 4c3e
00000220: c17a 53bf 2a96 c83e be08 1a3f f680 30bf
00000230: 14f2 3e3f 505c 90bf 575c 4a3f c48f 79bf
00000240: eda0 0cbf dee8 00bf 57dd 5cbd 2707 57bf
00000250: f408 f93e 2e0c 733f 25fd 363d 7229 0d3f
00000260: 0991 f33e f0e5 a83f c64a 13be 90d6 4abf
00000270: 8638 3a3f dc16 72bf 5e9a 5a3f ca9b 033f
00000280: 63fb 4ebf e031 143f a8e9 233f 18fb 1b3f
00000290: 7a98 5dbf 3af0 1a3e a9b2 21bf ed98 f03c
000002a0: ef00 3bbf 69e1 b1be 12ba 813e f56d a73e
000002b0: 47e7 83bf 0824 243f c919 78bf 63d7 353f
000002c0: e4c3 92bf af73 843f ecd5 193f fe62 f0be
000002d0: 78cb 38bf 8d19 8e3f ba39 fbbe 8bd5 753f
000002e0: e435 ba3e a874 7dbf 1318 7cbf 35a6 803f
000002f0: e3fd 45bf 07ef 0bbf a1d5 63bf 967d 2f3f
00000300: dafc 4abf 14ca 8e3d 62d4 82bf dd1a 65bf
00000310: cfbf 95bd f395 31bf 319c 26bf fb11 f53e
00000320: 9483 70be 801d 02bf ac2e 9fbe 436a 8fbe
00000330: 4ce3 83be e3f9 5abe 5e95 9fbd a7fa 0fbd
00000340: 8f1d fdbd 1190 c8be a70a 05bf 4fbf 5fbe
00000350: eee8 11be 8a08 3fbf cfae 1abe fcb5 71be
00000360: 62fd 98be 1a42 86be 447a b3be e276 b0bd
00000370: 4037 71be ddbe a1bd 0efe b8bd 822f 7bbe
00000380: 3670 6fbe 33f5 2e3e 1fac d5be a337 90be
00000390: 35a8 e6be 3ad1 a7be 7ca9 00bf 67dd a3be
000003a0: 0563 2ebe 6f17 293e 77fa fbbd c9ca 16bf
000003b0: db85 56bd a540 39be b022 15bf c32a 2fbe
000003c0: fbc2 82be 2bea 9c3d fe18 ccbe c647 b8be
000003d0: f920 f6be e743 d2be 740a 47bd 5282 07be
000003e0: 854c 96be aad1 09be ca95 abbe 9c80 c6be
000003f0: 7b75 8cbe c89f 95be b4ef e4bd 9a81 d2bd

linears.2.bias f4 [100]
-0.48098922 -0.28472963 -0.35557547 -0.47418663 0.003976076 -0.18281408 0.21024352 -0.3179019
-0.18053667 0.48501015 0.021646792 0.08740757 0.002095712 -0.28928792 0.06153388 -0.08867563
-0.20159678 -0.16964476 0.007674401 0.037101287 -0.2701438 -0.07292971 -0.012591791 0.06103474
-0.2261558 0.1316926 -0.22351101 0.07905043 -0.3975309 0.12881966 0.095671184 -0.2755865
-0.3267804 0.13662861 -0.24260245 -0.15510914 -0.041352518 0.38792062 -0.39741418 -0.35263047
-0.18930385 0.52004117 -0.3590886 -0.115072295 0.0060704397 0.24178521 -0.23854662 0.66413105
-0.8615118 0.54092336 -0.500389 -0.30533776 0.08428729 -0.24349074 -0.18865038 -0.15575972
-0.4763357 -0.036648534 -0.6859811 0.0006354456 0.31527454 0.0008057696 0.5817368 -0.46072927
-0.980987 -0.10995448 0.30917385 0.040372517 -0.097555816 -0.013375112 -0.49733007 0.0090247635
-0.07425979 0.10633792 0.052633774 -0.18450288 -0.22749089 -0.10044589 0.050319523 -0.15758121
-0.1928044 -0.24171871 -0.35050896 -0.19143635 0.11352974 -0.20611863 -0.09547433 0.06838285
1.0051876 0.06779036 -0.46810833 -0.035318617 0.35073927 -0.4645461 -0.18490481 -0.41776964
-0.02596918 -0.14586745 -0.12122876 -0.12884426
00000000: 3844 f6be 15c8 91be fd0d b6be 97c8 f2be
00000010: be49 823b 9d33 3bbe 144a 573e 0ac4 a2be
00000020: 9bde 38be 4053 f83e 9d54 b13c bd02 b33d
00000030: 3758 093b 8c1d 94be f30a 7c3d 929b b5bd
00000040: 636f 4ebe 5bb7 2dbe 8b79 fb3b 85f7 173d
00000050: 4a50 8abe 2c5c 95bd cd4d 4ebc 90ff 793d
00000060: 6395 67be 6dda 063e 12e0 64be 31e5 a13d
00000070: 2c89 cbbe 4de9 033e 41ef c33d ac19 8dbe
00000080: c34f a7be 5fe8 0b3e c76c 78be eed4 1ebe
00000090: 4261 29bd 889d c63e df79 cbbe fb8b b4be
000000a0: ded8 41be 6b21 053f 76da b7be 06ab ebbd
000000b0: 8aea c63b 8b96 773e 9145 74be 7e04 2a3f
000000c0: 0a8c 5cbf f479 0a3f 7e19 00bf 3b55 9cbe
000000d0: d19e ac3d a355 79be 912d 41be 7a7f 1fbe
000000e0: 46e2 f3be c61c 16bd 759c 2fbf 0894 263a
000000f0: aa6b a13e 483a 533a b4ec 143f b5e4 ebbe
00000100: f721 7bbf d02f e1bd 094c 9e3e a75d 253d
00000110: 58cb c7bd 4923 5bbc 0ca2 febe 9adc 133c
00000120: 8415 98bd b2c7 d93d 8396 573d 53ee 3cbe
00000130: 5ff3 68be 93b6 cdbd d81b 4e3d f85c 21be
00000140: 846e 45be 1c85 77be e975 b3be e407 44be
00000150: 4882 e83d c310 53be 0c88 c3bd 4f0c 8c3d
00000160: fda9 803f acd5 8a3d e5ab efbe 41aa 10bd
00000170: 1994 b33e fdd8 edbe b057 3dbe e7e5 d5be
00000180: 51bd d4bc 475e 15be c946 f8bd c0ef 03be

linears.3.weight f4 [2, 100]
2.655462 -0.32850906 0.3292901 0.40359816 0.35654816 0.031007523 0.3738667 -0.100068234
3.2664442 -0.520505 0.5366598 -0.35408926 0.49913868 0.55574864 0.67715687 0.528074
0.06527108 0.26509297 0.5362814 0.087080866 0.11852722 0.62386894 0.4761329 0.36633343
0.387721 0.44724318 0.24628502 0.36767662 0.5267521 0.3679139 -0.5443627 0.42308122
0.53689796 0.36414903 0.4453924 0.39046592 0.3429056 -0.557993 0.49038437 -0.041174453
0.31485033 -0.43580213 -0.31789434 0.34610602 0.35855392 -0.6079349 0.12659043 -0.48924854
0.6052634 -0.54999405 0.5339629 0.48497713 0.55220854 0.33910805 -0.29449743 0.36865798
-0.9811228 0.5386569 -1.3100736 0.001677986 0.22737212 0.79757756 -0.21595366 0.4022513
0.9436635 0.4770068 0.39007348 0.35336927 0.3742444 -0.26406989 -0.9426825 0.38151082
0.35031763 -0.560656 0.16040294 0.34298155 0.36419734 0.7941826 0.3625572 0.32808888
0.7542447 0.5952917 -1.197127 0.45712465 0.36947754 0.58536696 -0.11656101 -1.2544962
-0.22016229 0.35718417 0.124095045 0.5626188 -0.33943152 0.61664313 0.31845716 -0.45821163
0.76106983 0.3411115 0.34892684 0.32918343 -1.1936646 -0.5139729 0.32250586 0.092719056
0.35044494 -0.24472821 0.38963062 -0.06045836 3.6464832 -0.5835335 0.5406118 -0.54481226
0.5522264 0.07793678 0.6173041 -0.18965589 -0.5154536 -0.43079638 0.57273734 -0.24180155
0.040776685 0.5644091 0.497939 0.37297168 0.42733064 -0.10318681 0.23447762 0.37260976
0.15282527 0.3776593 -0.10268764 0.05407687 0.05111525 0.36621457 -0.03811291 0.4391368
0.3439345 -0.6260997 0.20981534 -0.54662514 -0.32992095 -0.49583632 0.027443387 0.34485784
0.36417085 -0.7643899 -0.3974819 -0.5805803 0.29680237 -0.5592212 -0.23085311 0.15518624
0.56647474 0.32507628 -0.75005776 -0.40162224 -1.119342 0.5431369 -1.4591918 0.0017506583
0.24864481 -0.30809897 -0.007085373 0.28919306 1.0131414 -0.33856323 0.28515497 0.35794497
0.23101147 -0.22580108 -1.1278552 0.374141 0.34998935 -0.64382476 -0.16750316 0.33643168
-0.26443088 0.8662313 0.27557868 0.32600188 0.73580396 -0.041666046 -1.1675675 0.35694402
0.3786618 0.12299359 -0.16405876 -1.3997029 -0.13940214 0.36293623 0.17847678 0.5170397
-0.25772822 0.1373347 0.31695607 -0.49343434 -0.30132094 0.3357816 0.34829774 -0.088654764
00000000: 17f3 2940 5732 a8be b698 a83e 6ba4 ce3e
00000010: 7b8d b63e 7d03 fe3c 756b bf3e 93f0 ccbd
00000020: 6c0d 5140 d13f 05bf 8962 093f 304b b5be
00000030: 1b8f ff3e 8b45 0e3f 275a 2d3f dc2f 073f
00000040: d8ac 853d 44ba 873e bd49 093f 7457 b23d
00000050: 66be f23d e0b5 1f3f b1c7 f33e 0e90 bb3e
00000060: 5e83 c63e 0ffd e43e 2432 7c3e 1c40 bc3e
00000070: 3ad9 063f 365f bc3e 5b5b 0bbf 1a9e d83e
00000080: 2572 093f be71 ba3e 790a e43e 26eb c73e
00000090: 5391 af3e a1d8 0ebf a913 fb3e 8ba6 28bd
000000a0: 1034 a13e 7521 dfbe 0cc3 a2be cf34 b13e
000000b0: 6194 b73e 9fa1 1bbf eca0 013e c97e fabe
000000c0: 8bf2 1a3f 69cc 0cbf cbb1 083f ec4e f83e
000000d0: 8a5d 0d3f 929f ad3e 5ec8 96be bdc0 bc3e
000000e0: dd2a 7bbf 6be5 093f 7eb0 a7bf deef db3a
000000f0: 3dd4 683e 0b2e 4c3f f522 5dbe e2f3 cd3e
00000100: ee93 713f 3c3a f43e b6b7 c73e d1ec b43e
00000110: f69c bf3e 2b34 87be a453 71bf 6355 c33e
00000120: d55c b33e 2787 0fbf ab40 243e 479b af3e
00000130: 1378 ba3e 8d4f 4b3f 19a1 b93e 44fb a73e
00000140: 2e16 413f 0965 183f 753b 99bf 3e0c ea3e
00000150: 292c bd3e 9cda 153f 8ab7 eebd 5593 a0bf
00000160: 3972 61be d8e0 b63e 8b25 fe3d c907 103f
00000170: f8c9 adbe 53dc 1d3f d10c a33e b79a eabe
00000180: 79d5 423f 2ba6 ae3e 8aa6 b23e bb8a a83e
00000190: 00ca 98bf ba93 03bf 7d1f a53e 7de3 bd3d
000001a0: 856d b33e 089a 7abe aa7d c73e 2fa3 77bd
000001b0: fb5f 6940 7462 15bf 8965 0a3f d178 0bbf
000001c0: b65e 0d3f 529d 9f3d a407 1e3f 2735 42be
000001d0: c4f4 03bf 5891 dcbe ea9e 123f d39a 77be
000001e0: 7405 273d 1d7d 103f dcf1 fe3e 25f6 be3e
000001f0: 15cb da3e 9b53 d3bd e71a 703e b5c6 be3e
00000200: 3a7e 1c3e 8f5c c13e e64d d2bd b57f 5d3d
00000210: 395e 513d 7a80 bb3e 481c 1cbd 8ad6 e03e
00000220: 2f18 b03e 1248 20bf d5d9 563e a0ef 0bbf
00000230: 66eb a8be 42de fdbe f4d0 e03c 3591 b03e
00000240: 9a74 ba3e 0eaf 43bf bf82 cbbe e9a0 14bf
00000250: 7bf6 973e 1f29 0fbf c264 6cbe 24e9 1e3e
00000260: 7d04 113f 6670 a63e c903 40bf 6ea1 cdbe
00000270: 9946 8fbf 050b 0b3f ccc6 babf 5876 e53a
00000280: bf9c 7e3e 26bf 9dbe 6b2c e8bb 1d11 943e
00000290: 9eae 813f 2958 adbe d5ff 913e 9044 b73e
000002a0: 458e 6c3e 6638 67be 8f5d 90bf 698f bf3e
000002b0: ce31 b33e b3d1 24bf f385 2bbe c640 ac3e
000002c0: 7c63 87be 56c1 5d3f a618 8d3e b8e9 a63e
000002d0: a65d 3c3f 04aa 2abd da72 95bf 5ec1 b63e
000002e0: f6df c13e 10e4 fb3d 05ff 27be 7729 b3bf
000002f0: 6fbf 0ebe c7d2 b93e 9ec2 363e b75c 043f
00000300: f4f4 83be 78a1 0c3e 1148 a23e 6da3 fcbe
00000310: bd46 9abe 91eb ab3e 1554 b23e a190 b5bd

linears.3.bias f4 [2]
-0.30979484 0.30618903
00000000: 6e9d 9ebe cfc4 9c3e

exp_avg f4 [100, 6]
2.4871323e-08 2.4871303e-08 4.974211e-08 7.461188e-08 9.948316e-08 1.2435491e-07 2.2264564e-09 2.226391e-09
4.453157e-09 6.6836976e-09 8.904916e-09 1.1141844e-08 2.533952e-08 2.5339524e-08 5.06792e-08 7.601743e-08
1.01357934e-07 1.2669558e-07 -1.7079385e-08 -1.7079369e-08 -3.4158134e-08 -5.1237794e-08 -6.83154e-08 -8.5398305e-08
2.9815578e-08 2.981587e-08 5.9631724e-08 8.94483e-08 1.1926439e-07 1.4907928e-07 2.521866e-08 2.521866e-08
5.0436885e-08 7.5656665e-08 1.0087523e-07 1.2609175e-07 1.4488809e-08 1.4488789e-08 2.897776e-08 4.3465814e-08
5.795442e-08 7.244307e-08 -2.8306355e-08 -2.8306516e-08 -5.6613278e-08 -8.49096e-08 -1.1322201e-07 -1.415576e-07
2.1305544e-08 2.1305512e-08 4.2611042e-08 6.391661e-08 8.5221714e-08 1.0652751e-07 -4.2577117e-08 -4.2578446e-08
-8.5152735e-08 -1.2775176e-07 -1.703214e-07 -2.1291373e-07 -2.2571255e-08 -2.2571664e-08 -4.5143583e-08 -6.771155e-08
-9.028135e-08 -1.1285512e-07 2.3125834e-08 2.3125715e-08 4.625101e-08 6.937851e-08 9.250201e-08 1.15628424e-07
-3.850817e-08 -3.8507956e-08 -7.701367e-08 -1.15519576e-07 -1.5401505e-07 -1.9251665e-07 -2.2924491e-09 -2.2925044e-09
-4.583989e-09 -6.8823276e-09 -9.172787e-09 -1.1465656e-08 6.706491e-10 6.708026e-10 1.3422262e-09 2.0171869e-09
2.6879796e-09 3.359983e-09 -3.6541703e-08 -3.6541046e-08 -7.308607e-08 -1.0962492e-07 -1.4616981e-07 -1.8268327e-07
-4.8240634e-09 -4.8241025e-09 -9.648862e-09 -1.4476713e-08 -1.9299929e-08 -2.4123972e-08 -2.2324258e-08 -2.2324567e-08
-4.4649504e-08 -6.697356e-08 -8.929233e-08 -1.1161125e-07 -8.172622e-09 -8.1728055e-09 -1.6346014e-08 -2.4518728e-08
-3.269593e-08 -4.0869747e-08 -1.5222268e-08 -1.5221943e-08 -3.0443978e-08 -4.5664382e-08 -6.0885874e-08 -7.609728e-08
-1.1556018e-08 -1.1555807e-08 -2.3109017e-08 -3.466264e-08 -4.6210832e-08 -5.7753578e-08 1.9387706e-08 1.9387699e-08
3.8775433e-08 5.816321e-08 7.7550645e-08 9.693762e-08 2.7807442e-08 2.7807518e-08 5.561467e-08 8.3419316e-08
1.1123152e-07 1.3903484e-07 -4.0968704e-08 -4.096931e-08 -8.193632e-08 -1.2291395e-07 -1.6387432e-07 -2.0481846e-07
3.898794e-09 3.898891e-09 7.797926e-09 1.1694876e-08 1.5595063e-08 1.9491203e-08 -4.200391e-08 -4.200453e-08
-8.4003545e-08 -1.2601414e-07 -1.6801488e-07 -2.1004466e-07 1.2178082e-09 1.2177975e-09 2.4356548e-09 3.6507783e-09
4.8718793e-09 6.086264e-09 1.0314637e-09 1.0313134e-09 2.0635007e-09 3.0877876e-09 4.125625e-09 5.1445306e-09
-2.2191498e-08 -2.2191266e-08 -4.4382084e-08 -6.65828e-08 -8.875608e-08 -1.1095759e-07 7.753487e-09 7.753477e-09
1.5507112e-08 2.3257519e-08 3.101542e-08 3.876184e-08 -1.5207489e-08 -1.5207789e-08 -3.0413577e-08 -4.5618364e-08
-6.082426e-08 -7.603606e-08 -4.069676e-09 -4.069559e-09 -8.139979e-09 -1.2208046e-08 -1.6277783e-08 -2.0345004e-08
-2.3878616e-08 -2.3878464e-08 -4.7757144e-08 -7.164682e-08 -9.550388e-08 -1.1938678e-07 -1.2594559e-08 -1.2594888e-08
-2.5192852e-08 -3.777552e-08 -5.037958e-08 -6.2981286e-08 -2.873027e-08 -2.873065e-08 -5.746254e-08 -8.6190376e-08
-1.14927666e-07 -1.4365453e-07 -1.2524958e-08 -1.252498e-08 -2.5050307e-08 -3.7573603e-08 -5.009943e-08 -6.26278e-08
-2.2070331e-08 -2.207066e-08 -4.4142208e-08 -6.621539e-08 -8.827983e-08 -1.1035986e-07 -3.4415668e-10 -3.4417694e-10
-6.8728095e-10 -1.0329617e-09 -1.3806484e-09 -1.7232831e-09 3.2094686e-08 3.209452e-08 6.418822e-08 9.62843e-08
1.283751e-07 1.6046106e-07 3.152768e-08 3.1527605e-08 6.305512e-08 9.4579505e-08 1.2611025e-07 1.5763344e-07
7.2261586e-10 7.225626e-10 1.4452862e-09 2.1647055e-09 2.8903657e-09 3.6127903e-09 -2.6545841e-08 -2.6545745e-08
-5.3090535e-08 -7.9634496e-08 -1.0617749e-07 -1.3272836e-07 -9.831836e-09 -9.83165e-09 -1.9661536e-08 -2.9485932e-08
00000000: 9ea4 d532 93a4 d532 07a4 5533 513a a033
00000010: 72a3 d533 6b86 0534 3c00 1931 16ff 1831
00000020: 6202 9931 6da6 e531 3cfc 1832 596a 3f32
00000030: 32aa d932 34aa d932 5faa 5933 063f a333
00000040: 1daa d933 d109 0834 f7b5 92b2 eeb5 92b2
00000050: 44b5 12b3 8d10 5cb3 cab4 92b3 3764 b7b3
00000060: 930e 0033 e50e 0033 e30e 8033 b916 c033
00000070: 250f 0034 9a12 2034 6ba0 d832 6ba0 d832
00000080: f19f 5833 b178 a233 bfa0 d833 d663 0734
00000090: 75ea 7832 5eea 7832 c5ea f832 2baf 3a33
000000a0: 8fe9 7833 0092 9b33 5526 f3b2 b026 f3b2
000000b0: f526 73b3 8c57 b6b3 7524 f3b3 0fff 17b4
000000c0: 6303 b732 5103 b732 5603 3733 8742 8933
000000d0: 2203 b733 1ec4 e433 09de 36b3 7fdf 36b3
000000e0: 36dd b6b3 232c 09b4 97e1 36b4 489d 64b4
000000f0: b7e2 c1b2 9de3 c1b2 e5e3 41b3 d168 91b3
00000100: b2e0 c1b3 c25a f2b3 3fa6 c632 fca5 c632
00000110: 86a5 4633 3dfd 9433 85a5 c633 664f f833
00000120: 2e64 25b3 f263 25b3 b662 a5b3 8f13 f8b3
00000130: 565f 25b4 93b6 4eb4 3189 1db1 2a8a 1db1
00000140: 3281 9db1 9879 ecb1 5896 1db2 7dfa 44b2
00000150: bc58 3830 8963 3830 6379 b830 ba9e 0a31
00000160: 70b7 3831 72e5 6631 07f2 1cb3 4ef1 1cb3
00000170: 7ef3 9cb3 f06a ebb3 daf2 1cb4 9827 44b4
00000180: e9c0 a5b1 41c1 a5b1 25c4 25b2 42b5 78b2
00000190: fec8 a5b2 2d39 cfb2 90c3 bfb2 3ec4 bfb2
000001a0: a6c4 3fb3 1bd3 8fb3 fac0 bfb3 efae efb3
000001b0: 9267 0cb2 6168 0cb2 4469 8cb2 419d d2b2
000001c0: 8e6d 0cb3 c388 2fb3 1fc2 82b2 68c1 82b2
000001d0: 82c1 02b3 8520 44b3 5dc0 82b3 ec6a a3b3
000001e0: e887 46b2 fa86 46b2 4481 c6b2 fadf 14b3
000001f0: 5979 46b3 bb0c 78b3 048a a632 008a a632
00000200: 0a8a 2633 20cf 7933 eb89 a633 052c d033
00000210: 36dd ee32 61dd ee32 fadc 6e33 4124 b333
00000220: 2dde ee33 9b49 1534 91f5 2fb3 3cf6 2fb3
00000230: f8f4 afb3 54fa 03b4 6ef5 2fb4 12ec 5bb4
00000240: 28f6 8531 02f7 8531 a4f7 0532 9cea 4832
00000250: e8f5 8532 9c6d a732 ca67 34b3 7868 34b3
00000260: 7065 b4b3 814e 07b4 9467 34b4 a388 61b4
00000270: d15f a730 715f a730 7e60 2731 2ce1 7a31
00000280: 8165 a731 581f d131 67c3 8d30 1dbe 8d30
00000290: 7dcd 0d31 ef30 5431 62c1 8d31 c5c3 b031
000002a0: 9f9f beb2 1c9f beb2 9e9e 3eb3 48fc 8eb3
000002b0: 2c9a beb3 9547 eeb3 3234 0532 2734 0532
000002c0: 8034 8532 d3c7 c732 d135 0533 187b 2633
000002d0: 9fa1 82b2 48a2 82b2 15a0 02b3 eced 43b3
000002e0: 7e9e 82b3 4449 a3b3 40d5 8bb1 38d4 8bb1
000002f0: 02d8 0bb2 8ebb 51b2 39d3 8bb2 23c3 aeb2
00000300: a21d cdb2 4c1d cdb2 891d 4db3 41dc 99b3
00000310: d017 cdb3 ca30 00b4 755f 58b2 e760 58b2
00000320: ab67 d8b2 a03e 22b3 ef60 58b3 5440 87b3
00000330: 88ca f6b2 5ecb f6b2 bbcc 76b3 a917 b9b3
00000340: 27ce f6b3 753f 1ab4 592d 57b2 722d 57b2
00000350: 352e d7b2 9d60 21b3 e82c 57b3 ff7d 86b3
00000360: 2c95 bdb2 e595 bdb2 df96 3db3 4c32 8eb3
00000370: 5a94 bdb3 fafe ecb3 bf33 bdaf 9936 bdaf
00000380: 19eb 3cb0 1cf8 8db0 3fc1 bdb0 a2d8 ecb0
00000390: 7bd8 0933 4cd8 0933 d9d7 8933 dbc4 ce33
000003a0: 7bd7 0934 334b 2c34 0d69 0733 f868 0733
000003b0: eb68 8733 a21b cb33 ec68 0734 f341 2934
000003c0: 92a1 4630 d39d 4630 7da3 c630 e7c1 1431
000003d0: da9f 4631 e144 7831 ec06 e4b2 b606 e4b2
000003e0: a905 64b3 8703 abb3 b103 e4b3 1884 0eb4
000003f0: dfe8 28b2 0ee8 28b2 2de4 a8b2 4048 fdb2

exp_avg_sq f4 [100, 6]
5.5831273e-12 5.5831277e-12 2.2332478e-11 5.0248024e-11 8.932966e-11 1.3957738e-10 2.2318583e-11 2.2318584e-11
8.927437e-11 2.0086699e-10 3.5709738e-10 5.5796523e-10 5.4486684e-12 5.448667e-12 2.179464e-11 4.903785e-11
8.7178174e-11 1.3621546e-10 2.3658087e-12 2.365809e-12 9.46323e-12 2.1292178e-11 3.785278e-11 5.914458e-11
7.859475e-12 7.859474e-12 3.143786e-11 7.0735175e-11 1.2575112e-10 1.9648588e-10 4.7636847e-12 4.7636842e-12
1.9054725e-11 4.287301e-11 7.62186e-11 1.1909108e-10 4.0711267e-12 4.0711254e-12 1.6284479e-11 3.6640007e-11
6.513763e-11 1.0177703e-10 8.1621716e-11 8.162172e-11 3.264868e-10 7.3459494e-10 1.3059468e-09 2.0405435e-09
5.710641e-12 5.7106364e-12 2.2842516e-11 5.1395624e-11 9.136961e-11 1.4276462e-10 6.665659e-11 6.66566e-11
2.6662658e-10 5.9990923e-10 1.0665059e-09 1.6664137e-09 8.5960294e-11 8.59603e-11 3.4384126e-10 7.736426e-10
1.375364e-09 2.149006e-09 5.3406828e-12 5.3406806e-12 2.1362724e-11 4.8066075e-11 8.545071e-11 1.3351653e-10
9.136392e-11 9.136394e-11 3.6545564e-10 8.2227647e-10 1.4618218e-09 2.2840974e-09 1.7690328e-12 1.7690328e-12
7.076129e-12 1.5921252e-11 2.8304442e-11 4.4225658e-11 2.061621e-11 2.061621e-11 8.246474e-11 1.8554529e-10
3.2985906e-10 5.154044e-10 6.608786e-11 6.608787e-11 2.643514e-10 5.947915e-10 1.0574066e-09 1.6521977e-09
1.4828088e-11 1.4828088e-11 5.931235e-11 1.334527e-10 2.372492e-10 3.7070158e-10 5.4972316e-12 5.497231e-12
2.1988937e-11 4.947523e-11 8.7955816e-11 1.3743108e-10 3.3418097e-12 3.34181e-12 1.3367234e-11 3.0076164e-11
5.3468827e-11 8.354498e-11 1.2080704e-11 1.2080708e-11 4.832284e-11 1.0872645e-10 1.9329142e-10 3.0201802e-10
2.0315605e-11 2.0315607e-11 8.126243e-11 1.8284045e-10 3.2504932e-10 5.0789006e-10 4.139466e-12 4.1394657e-12
1.6557833e-11 3.725512e-11 6.623095e-11 1.0348547e-10 8.90538e-12 8.905377e-12 3.5621513e-11 8.014831e-11
1.42486e-10 2.2263416e-10 8.413979e-11 8.413979e-11 3.3655942e-10 7.572596e-10 1.3462375e-09 2.1034956e-09
1.0893046e-12 1.0893039e-12 4.357213e-12 9.80368e-12 1.7428779e-11 2.723235e-11 7.998417e-11 7.9984186e-11
3.1993672e-10 7.198577e-10 1.2797483e-09 1.9996054e-09 1.1802279e-11 1.18022805e-11 4.7209122e-11 1.0622027e-10
1.8883642e-10 2.9505662e-10 2.4182566e-12 2.4182564e-12 9.673027e-12 2.1764278e-11 3.869202e-11 6.0456196e-11
7.437132e-11 7.437132e-11 2.974852e-10 6.693411e-10 1.1899396e-09 1.8592811e-09 1.1383414e-12 1.1383416e-12
4.553366e-12 1.0245106e-11 1.8213469e-11 2.8458623e-11 4.9168322e-11 4.916832e-11 1.9667329e-10 4.4251477e-10
7.866929e-10 1.2292065e-09 2.7683006e-12 2.7682993e-12 1.1073194e-11 2.4914671e-11 4.429276e-11 6.920747e-11
2.6505473e-11 2.650547e-11 1.0602186e-10 2.3854946e-10 4.2408718e-10 6.6263706e-10 4.6376968e-11 4.6376965e-11
1.8550778e-10 4.1739198e-10 7.4203105e-10 1.1594214e-09 7.658684e-11 7.658685e-11 3.0634736e-10 6.892804e-10
1.2253893e-09 1.9146726e-09 1.6650832e-12 1.6650834e-12 6.6603285e-12 1.498574e-11 2.6641247e-11 4.16268e-11
6.239905e-11 6.239905e-11 2.4959615e-10 5.6159116e-10 9.983842e-10 1.5599779e-09 1.113043e-11 1.1130429e-11
4.452172e-11 1.0017389e-10 1.7808684e-10 2.7826055e-10 7.908142e-11 7.908144e-11 3.163256e-10 7.1173206e-10
1.2653022e-09 1.9770339e-09 9.2084855e-12 9.208484e-12 3.683393e-11 8.287602e-11 1.4733541e-10 2.3021092e-10
4.4946504e-13 4.4946487e-13 1.797858e-12 4.045171e-12 7.1914198e-12 1.1236553e-11 6.4173506e-12 6.4173497e-12
2.566938e-11 5.775606e-11 1.0267748e-10 1.6043332e-10 1.3087529e-11 1.30875285e-11 5.2350114e-11 1.1778761e-10
00000000: 5770 c42c 5870 c42c 4570 c42d 3ffe 5c2e
00000010: 2170 c42e 8a77 192f fb50 c42d fc50 c42d
00000020: 0151 c42e 08db 5c2f fd50 c42f 505f 1930
00000030: 3eb5 bf2c 3bb5 bf2c 2bb5 bf2d b6ab 572e
00000040: f3b4 bf2e 3ec5 152f 9f7a 262c a07a 262c
00000050: 997a 262d b949 bb2d 717a 262e 700f 822e
00000060: ee43 0a2d ed43 0a2d e243 0a2e 5d8c 9b2e
00000070: cb43 0a2f dc09 582f 759b a72c 749b a72c
00000080: 6d9b a72d b88e 3c2e 429b a72e 29f1 022f
00000090: 733d 8f2c 703d 8f2c 633d 8f2d fb24 212e
000000a0: 3a3d 8f2e 60cf df2e f17c b32e f27c b32e
000000b0: ef7c b32f 86ec 4930 eb7c b330 9f39 0c31
000000c0: e2ec c82c d7ec c82c c6ec c82d 540a 622e
000000d0: 85ec c82e abf8 1c2f 5394 922e 5494 922e
000000e0: 5b94 922f dce6 2430 5794 9230 b807 e530
000000f0: 5807 bd2e 5907 bd2e 5b07 bd2f 42a8 5430
00000100: 5207 bd30 b7ad 1331 98e8 bb2c 93e8 bb2c
00000110: 94e8 bb2d 9765 532e 79e8 bb2e 90cd 122f
00000120: 51e9 c82e 53e9 c82e 4fe9 c82f 9006 6230
00000130: 48e9 c830 44f6 1c31 20f8 f82b 20f8 f82b
00000140: 1bf8 f82c 790b 8c2d f0f7 f82d aa81 422e
00000150: 9457 b52d 9457 b52d 8657 b52e 5b02 4c2f
00000160: 8957 b52f 5cac 0d30 2854 912e 2a54 912e
00000170: 2754 912f bb7e 2330 3054 9130 8a13 e330
00000180: e36d 822d e36d 822d e26d 822e 98bb 122f
00000190: db6d 822f 9ccb cb2f a96a c12c a86a c12c
000001a0: af6a c12d 2898 592e b96a c12e 691b 172f
000001b0: b128 6b2c b228 6b2c ac28 6b2d c046 042e
000001c0: 8c28 6b2e a5b7 b72e a786 542d ac86 542d
000001d0: ae86 542e 8d17 ef2e b386 542f 4209 a62f
000001e0: adb2 b22d aeb2 b22d aeb2 b22e 0309 492f
000001f0: a0b2 b22f 969b 0b30 ffa4 912c fea4 912c
00000200: eda4 912d 89d9 232e b6a4 912e 2491 e32e
00000210: 44aa 1c2d 41aa 1c2d 42aa 1c2e 7d3f b02e
00000220: 3eaa 1c2f f2c9 742f 7e06 b92e 7e06 b92e
00000230: 8706 b92f 6827 5030 8506 b930 168d 1031
00000240: 564e 992b 4f4e 992b 494e 992c d977 2c2d
00000250: 1f4e 992d cd89 ef2d 16e3 af2e 18e3 af2e
00000260: 17e3 af2f 7bdf 4530 24e3 af30 6e69 0931
00000270: bda0 4f2d bfa0 4f2d bfa0 4f2e b294 e92e
00000280: baa0 4f2f 8735 a22f 702b 2a2c 6f2b 2a2c
00000290: 712b 2a2d cc70 bf2d 572b 2a2e d0f1 842e
000002a0: 558b a32e 558b a32e 528b a32f b1fc 3730
000002b0: 478b a330 a389 ff30 1235 a02b 1435 a02b
000002c0: 1335 a02c db3b 342d 1635 a02d 1f53 fa2d
000002d0: 9c3e 582e 9b3e 582e 9c3e 582f 6b46 f32f
000002e0: 973e 5830 dcf0 a830 45cd 422c 3fcd 422c
000002f0: 3bcd 422d da26 db2d 37cd 422e 5830 982e
00000300: 0525 e92d 0325 e92d 0025 e92e da24 832f
00000310: f724 e92f f024 3630 d3f7 4b2e d2f7 4b2e
00000320: ccf7 4b2f b376 e52f cbf7 4b30 8459 9f30
00000330: 8f6a a82e 906a a82e 8f6a a82f cc77 3d30
00000340: 8e6a a830 4793 0331 f256 ea2b f456 ea2b
00000350: e856 ea2c e3d0 832d c156 ea2d 9c13 372e
00000360: 8b37 892e 8b37 892e 8937 892f 775e 1a30
00000370: 8537 8930 d866 d630 00cf 432d ffce 432d
00000380: 00cf 432e e348 dc2e fdce 432f b1f9 982f
00000390: e2e6 ad2e e5e6 ad2e dfe6 ad2f b1a3 4330
000003a0: dde6 ad30 59dc 0731 55ff 212d 53ff 212d
000003b0: 51ff 212e 0d3f b62e 3bff 212f 9d1e 7d2f
000003c0: bd06 fd2a b706 fd2a a906 fd2b a953 8e2c
000003d0: 8d06 fd2c f0ac 452d 5bca e12c 59ca e12c
000003e0: 4eca e12d 8b03 7e2e 48ca e12e f765 302f
000003f0: fe3c 662d fd3c 662d fd3c 662e 4482 012f

exp_avg f4 [100]
-1.6546084e-06 5.0258288e-05 3.4910663e-06 1.6303946e-06 -3.764798e-06 2.8378543e-06 2.4601227e-06 5.4358326e-05
1.352994e-05 4.430107e-05 6.03255e-05 -8.059256e-06 4.1848212e-05 -5.02807e-06 4.8301063e-05 4.6726796e-05
-4.6799818e-05 2.0083494e-06 1.3631877e-05 1.6381287e-05 4.1092262e-05 9.607861e-06 -9.310631e-06 4.0948205e-05
2.121111e-06 4.220999e-05 3.7677197e-05 1.286752e-05 5.2938794e-05 -1.4172355e-06 5.4533088e-05 5.0060253e-06
2.2328162e-05 6.175537e-05 4.91886e-05 4.7331905e-06 5.4221706e-05 3.9152943e-05 -2.9450286e-05 -4.469222e-06
2.2030629e-06 9.763038e-07 -5.1285904e-05 5.2637606e-05 7.3728137e-07 4.080946e-05 -2.6937627e-07 5.8023088e-05
4.950748e-05 5.2649226e-05 3.9941748e-05 3.253614e-05 1.1055972e-06 5.0887666e-05 -4.704486e-06 1.4248703e-05
3.8176004e-05 -3.6174122e-05 -3.786213e-07 -7.318369e-06 -1.8914185e-05 -6.6865737e-06 8.7949365e-07 -3.1266911e-06
4.5980145e-05 3.879206e-06 1.8696157e-05 3.0307513e-06 2.7428392e-05 4.4250653e-05 4.705271e-05 1.8618295e-05
1.0641412e-08 3.0465724e-05 -8.873221e-06 2.9841872e-06 3.3693897e-05 3.6485287e-07 5.323124e-05 -1.1175924e-06
1.403062e-06 -4.764703e-05 3.151516e-05 4.839288e-06 9.8102955e-06 5.518367e-06 6.032838e-05 -1.319896e-05
-7.0575234e-06 4.8050995e-05 4.3690805e-05 -2.1404842e-06 1.5065107e-05 5.5540826e-05 4.126057e-05 4.780201e-05
-2.0751174e-06 2.3580076e-06 2.217763e-05 -3.6775586e-05
00000000: e913 deb5 6dcc 5238 1048 6a36 efd3 da35
00000010: bda6 7cb6 f771 3e36 9618 2536 cffe 6338
00000020: a6fe 6237 e9cf 3938 0306 7d38 3e36 07b7
00000030: 2d86 2f38 cbb6 a8b6 df96 4a38 84fc 4338
00000040: ec4a 44b8 2ec7 0636 77b4 6437 8c6a 8937
00000050: 7b5a 2c38 7331 2137 db34 1cb7 cdbf 2b38
00000060: 6958 0e36 a20a 3138 9507 1e38 94e1 5737
00000070: 990a 5e38 d737 beb5 75ba 6438 6ef9 a736
00000080: 5d4d bb37 a982 8138 db4f 4e38 ccd1 9e36
00000090: 1d6c 6338 2738 2438 020c f7b7 53f6 95b6
000000a0: 55d8 1336 8b09 8335 d21b 57b8 33c7 5c38
000000b0: 97e9 4535 d32a 2b38 cb9e 90b4 d15d 7338
000000c0: 40a6 4f38 add3 5c38 2087 2738 6a77 0838
000000d0: 0864 9435 3770 5538 3adb 9db6 b70d 6f37
000000e0: 2c1f 2038 abb9 17b8 5145 cbb4 5090 f5b6
000000f0: e7a9 9eb7 3b5d e0b6 5816 6c35 25d4 51b6
00000100: ceda 4038 202a 8236 b1d5 9c37 e963 4b36
00000110: 0616 e637 c799 3938 765a 4538 7c2e 9c37
00000120: 6dd1 3632 a590 ff37 32de 14b7 f243 4836
00000130: 8c52 0d38 ffe0 c334 9c44 5f38 2f00 96b5
00000140: d850 bc35 9cd8 47b8 252f 0438 2b61 a236
00000150: e696 2437 692a b936 1b09 7d38 1a71 5db7
00000160: aacf ecb6 5d8a 4938 a540 3738 3da5 0fb6
00000170: 24c0 7c37 82f4 6838 330f 2d38 047f 4838
00000180: 3f42 0bb6 433e 1e36 190a ba37 7c3f 1ab8

exp_avg_sq f4 [100]
6.5711996e-05 0.00014130781 5.3422198e-05 2.3877863e-06 7.356622e-05 5.1424322e-05 8.674763e-09 0.0004527805
1.4610706e-06 0.00019427927 0.00052956 8.9659436e-05 0.00037491103 3.8500066e-06 9.711965e-05 0.00025115936
1.7828605e-05 7.5010706e-07 5.5800024e-06 2.8488776e-05 4.0690673e-05 1.5303757e-06 0.00010074747 0.00032660528
1.144275e-06 0.00033290143 3.9844774e-05 4.3839204e-06 0.00033304878 4.2663655e-06 0.00023876883 1.393749e-06
3.5883568e-05 0.00026381083 0.0003669704 2.9578873e-06 0.00030668773 5.0662267e-05 0.00048359227 7.959427e-05
8.5662964e-07 1.9630234e-06 3.8399296e-05 0.00016987817 5.4270697e-07 0.00033853418 0.00014947775 0.00016415332
0.00025778383 0.00019720646 8.350772e-05 3.231956e-05 4.123945e-05 0.00034764953 0.00013060324 2.1298492e-05
0.000114630566 8.932917e-06 9.150729e-05 0.00012923505 2.431951e-05 8.8964025e-06 6.793169e-07 0.00011005923
0.00044360105 4.7168046e-06 8.85681e-06 2.0020723e-05 1.2330363e-05 0.00043774024 0.00041150613 9.741825e-06
3.7929978e-05 5.7993424e-05 5.5681194e-05 7.584467e-05 3.8711903e-05 3.2194268e-07 0.00010819037 0.00035693852
1.9341847e-08 2.1793994e-05 3.1274834e-05 3.438137e-05 0.0001271548 2.6920924e-07 0.00042717034 0.00014467158
8.200519e-05 0.00012498985 0.00028283158 4.7490058e-08 2.2256318e-05 0.00038151068 0.00034218933 5.6928315e-05
6.0183713e-05 8.1851914e-07 0.00018237655 1.5401823e-05
00000000: dcce 8938 072c 1439 a611 6038 db3d 2036
00000010: 9047 9a38 72b0 5738 0308 1532 2c63 ed39
00000020: 011a c435 72b7 4b39 2cd2 0a3a 8b07 bc38
00000030: b58f c439 4e2f 8136 b7ac cb38 0aae 8339
00000040: a38e 9537 f75a 4935 db3b bb36 2efb ee37
00000050: 47ab 2a38 4f67 cd35 6348 d338 383c ab39
00000060: fd94 9935 4689 ae39 001f 2738 9719 9336
00000070: 0d9d ae39 cd27 8f36 055e 7a39 da10 bb35
00000080: b081 1638 1750 8a39 ef65 c039 1e80 4636
00000090: eeca a039 327e 5438 a88a fd39 d9eb a638
000000a0: 24f3 6535 7cbc 0336 ee0e 2138 5321 3239
000000b0: 8aae 1135 4a7d b139 21bd 1c39 9220 2c39
000000c0: 2927 8739 35c9 4e39 de20 af38 dd8e 0738
000000d0: 86f8 2c38 bb44 b639 8af2 0839 2aaa b237
000000e0: d165 f038 96de 1537 9ae7 bf38 4583 0739
000000f0: c001 cc37 c241 1537 4d5a 3635 99cf e638
00000100: 2093 e839 0b45 9e36 b697 1437 2df2 a737
00000110: 81de 4e37 8080 e539 6bbf d739 d270 2337
00000120: 0117 1f38 f73d 7338 3a8b 6938 cc0e 9f38
00000130: 975e 2238 77d7 ac34 43e4 e238 7a23 bb39
00000140: 2c25 a632 3fd2 b637 192d 0338 b734 1038
00000150: db54 0539 d687 9034 d5f5 df39 fbb2 1739
00000160: 33fa ab38 b50f 0339 0349 9439 dff7 4b33
00000170: 14b3 ba37 7f05 c839 e067 b339 50c6 6e38
00000180: c56d 7c38 35b8 5b35 553c 3f39 2a33 8137
