TSTE-R/Qcontrol-noisy-comparison/Noisy-0%/PINN_4090_noisy0/save_model_0223.ckpt-1250000.pt (torch, 264834 bytes, 24 tensors)

linears.0.weight f4 [100, 1]
7.1330843 10.327312 -2.1475217 1.289264 2.1344879 3.4204357 5.1039476 -1.9301165
0.70088327 -0.7639963 -1.6387365 8.271864 1.4154029 -1.6343746 -2.6053715 -0.9756917
-1.0679867 -5.5295625 11.2522 3.4332461 -2.0744205 8.219043 10.294072 1.4422538
1.0893598 -1.0762112 -4.9822283 -1.3710136 -1.2769527 -2.807989 12.0798 3.1723633
11.652396 0.95275 7.8335185 -1.065537 1.2884834 4.251968 2.1307757 6.255231
-1.3498862 1.4018298 -2.0495455 -4.088977 1.0483067 11.675684 -5.77397 9.787968
-1.518518 6.750834 2.9801996 -1.104412 4.2962766 0.66247994 -1.7107873 2.8414807
10.771893 3.788511 3.2909229 -5.3821487 10.503853 -1.3102157 2.2527964 -1.7117499
-0.9609963 3.6996868 2.843284 2.4723926 -2.3823657 -3.260161 -1.0696374 -1.7379292
-2.5594115 -1.2071686 6.5647664 -4.261256 -2.0656655 -0.67377275 -1.3129652 10.954347
3.883205 5.6323996 1.0604161 -1.9853966 10.543111 12.548792 2.059539 5.4591703
-1.7611773 2.163883 4.7002044 2.6525075 -1.7851195 3.8994405 -5.3065443 -2.438658
-2.1564445 2.8022118 -0.3573851 1.8212955
00000000: 3a42 e440 ac3c 2541 ff70 09c0 9a06 a53f
00000010: 739b 0840 6be8 5a40 8a53 a340 0f0e f7bf
00000020: 166d 333f 4395 43bf 1ec2 d1bf 8e59 0441
00000030: ec2b b53f 3033 d1bf 68be 26c0 eec6 79bf
00000040: cab3 88bf 2df2 b0c0 0309 3441 4eba 5b40
00000050: 4ec3 04c0 3381 0341 85b4 2441 c69b b83f
00000060: 2470 8b3f 4ac1 89bf 6a6e 9fc0 607d afbf
00000070: 3073 a3bf 17b6 33c0 dc46 4141 0008 4b40
00000080: 3770 3a41 6de7 733f 2fac fa40 8463 88bf
00000090: 06ed a43f 1f10 8840 a15e 0840 da2a c840
000000a0: 12c9 acbf 296f b33f c12b 03c0 e6d8 82c0
000000b0: ea2e 863f 9acf 3a41 5dc4 b8c0 849b 1c41
000000c0: cc5e c2bf d506 d840 97bb 3e40 5f5d 8dbf
000000d0: 197b 8940 4998 293f 14fb dabf d2da 3540
000000e0: ac59 2c41 f776 7240 7b9e 5240 903a acc0
000000f0: c80f 2841 26b5 a7bf d12d 1040 9f1a dbbf
00000100: db03 76bf abc7 6c40 5df8 3540 ae3b 1e40
00000110: ae78 18c0 7aa6 50c0 e1e9 88bf 7774 debf
00000120: 66cd 23c0 8084 9abf 9112 d240 365c 88c0
00000130: dd33 04c0 5f7c 2cbf 3e0f a8bf 0145 2f41
00000140: 6e86 7840 9e3c b440 b7bb 873f 7a21 febf
00000150: 95b0 2841 dac7 4841 7dcf 0340 86b1 ae40
00000160: 426e e1bf 0f7d 0a40 1368 9640 afc2 2940
00000170: cc7e e4bf 6f90 7940 36cf a9c0 f912 1cc0
00000180: 3003 0ac0 7057 3340 2efb b6be 3620 e93f

linears.0.bias f4 [100]
-0.08230393 0.1336247 0.35399476 -0.19773532 -0.054113723 -0.19664656 -0.22976764 0.2888058
-0.123513035 0.067139715 0.2425955 -0.050995428 -0.25760052 0.22612844 0.49782398 0.12045731
0.15415914 0.45732385 0.10316107 -0.03067259 0.24252789 -0.083593585 -0.0016350772 -0.21433194
-0.2883018 0.18274567 0.7005716 0.24881898 0.24406141 0.41446272 0.21537738 -0.40554678
0.1658685 -0.09344479 -0.10231812 0.20849858 -0.1403007 -0.1635768 -0.119499326 -0.26660565
0.22248285 -0.21851014 0.3144531 0.5584544 -0.085563995 0.20724882 0.35769877 -0.0010772515
0.3052497 -0.07367652 -0.16271046 0.10041779 -0.14907333 -0.11380201 0.28623238 -0.21871068
-0.005456178 -0.14417915 -0.06956423 0.272126 0.12207148 0.20827563 -0.32050753 0.20407496
0.1659776 -0.1536177 -0.12074625 -0.3034353 0.27665725 0.50216275 0.16939124 0.19559799
0.38584077 0.25803187 -0.053485528 0.23658727 0.26695067 0.1337251 0.20819119 0.011659483
-0.3138001 -0.1188903 -0.110295 0.36686546 0.30563864 0.34147903 -0.3164968 -0.09010714
0.34627384 -0.30480534 -0.2631719 -0.09363182 0.32299647 -0.11776675 0.3205322 0.3645346
0.36756873 -0.30436462 0.013506861 -0.08146153
00000000: f68e a8bd ead4 083e cd3e b53e 217b 4abe
00000010: 5aa6 5dbd b75d 49be 3548 6bbe 5bde 933e
00000020: 67f4 fcbd 8c80 893d f46a 783e 95e0 50bd
00000030: 37e4 83be 378e 673e c9e2 fe3e 52b2 f63d
00000040: e5db 1d3e 5a26 ea3e 1c46 d33d 1545 fbbc
00000050: 3b59 783e 1d33 abbd 1650 d6ba d579 5bbe
00000060: 4b9c 93be ae21 3b3e a958 333f 67ca 7e3e
00000070: 3ceb 793e 7534 d43e e38b 5c3e d4a3 cfbe
00000080: 6fd9 293e fb5f bfbd 2a8c d1bd a780 553e
00000090: fdaa 0fbe ad80 27be 10bc f4bd 8980 88be
000000a0: 8bd2 633e 1fc1 5fbe ffff a03e def6 0e3f
000000b0: 2d3c afbd 0939 543e 4b24 b73e 9032 8dba
000000c0: b049 9c3e b7e3 96bd 929d 26be d8a7 cd3d
000000d0: aea6 18be 0711 e9bd 0d8d 923e b1f5 5fbe
000000e0: bdc9 b2bb b3a3 13be b177 8ebd 1954 8b3e
000000f0: 9d00 fa3d 3546 553e 9019 a4be 07f9 503e
00000100: 08f6 293e f54d 1dbe cf49 f7bd df5b 9bbe
00000110: 05a6 8d3e bd8d 003f e674 2d3e d74a 483e
00000120: ec8c c53e c11c 843e a413 5bbd ef43 723e
00000130: c2ad 883e 3cef 083e 1230 553e 6b07 3f3c
00000140: 68aa a0be c27c f3bd 58e2 e1bd cad5 bb3e
00000150: ab7c 9c3e 57d6 ae3e de0b a2be 188a b8bd
00000160: ce4a b13e 720f 9cbe 78be 86be 0ac2 bfbd
00000170: cb5f a53e b22f f1bd cc1c a43e 47a4 ba3e
00000180: f831 bc3e aed5 9bbe e24b 5d3c 4dd5 a6bd

linears.1.weight f4 [100, 100]
-0.19387685 -0.39441735 -0.7890052 0.75389594 -0.40835726 0.074360125 0.039489884 -0.74910414
0.9374888 -0.8268458 -0.63936967 -0.32249075 0.5855395 -0.6564634 -0.17771162 -0.6776497
-0.6412606 -0.27324462 -0.39514843 -0.2804618 -0.4925272 -0.29729354 -0.31579828 0.6335694
0.37042275 -0.5805194 -0.4290622 -0.6395127 -0.85342985 -0.7300698 -0.31790555 0.69960654
-0.0782873 0.62814486 -0.35215238 -0.715498 0.7541739 0.0076015084 -0.00452007 -0.0009503896
-0.7889568 0.6856211 -0.47305626 -0.47567216 0.5624268 -0.37766418 -0.5287365 -0.3490129
-0.5292692 -0.2078433 0.15755627 -0.593007 -0.16604616 0.51855785 -0.8238423 0.03256137
-0.15664652 0.052243166 -0.3980245 -0.38840958 -0.32772088 -0.7445476 0.7098783 -0.6031446
-0.5899525 0.02358543 0.0035970134 0.36676344 -0.44454074 -0.5737398 -0.8382369 -0.893623
-0.7187844 -0.8747763 -0.14998384 -0.4971916 -0.8933738 -0.6855204 -0.57257247 -0.081973046
0.55861676 -0.1702838 0.6486598 -0.5765965 -0.2875028 -0.28795543 0.7776421 -0.1971145
-0.7422247 0.8322881 0.26969856 -0.05958238 -0.606254 -0.34913605 -0.3392445 -0.8038163
-0.7805277 0.5169896 -0.75921726 -0.09959869 -0.014059439 -0.08466123 -0.10689633 0.093069576
0.02160256 0.119679384 0.056210313 0.081852004 0.013670944 0.17578915 0.2237225 0.08860544
0.120237686 0.10977577 -0.008581599 -0.018923182 0.075316384 -0.14230753 0.096307494 0.010224592
0.035218664 -0.114265345 -0.027822226 -0.19059458 -0.062967196 -0.067891546 -0.07354695 0.120478824
0.14397354 0.11362331 -0.17319424 0.16845459 0.07687679 -0.09009243 0.12582842 0.23194587
0.027778128 0.092645235 -0.18312737 0.2973453 0.08402697 -0.18812865 -0.07474585 -0.23579872
-0.12844211 -0.107752435 -0.006044548 0.1136962 0.08573488 0.09221856 0.07888335 0.19717333
0.09219202 -0.06389735 -0.0028326756 0.17797977 -0.008451219 0.087857775 0.148877 0.056658685
-0.11459865 -0.040498313 -0.07849981 0.21945515 0.12960923 0.007815795 0.025205733 0.25177202
-0.07827226 -0.11204814 0.089479715 0.041712597 0.049402878 0.017799525 0.10470324 -0.069071166
0.17692676 -0.11226037 -0.055757254 -0.06988148 -0.060087495 -0.041557427 -0.047241308 0.1976019
0.15275444 -0.17582247 -0.05637523 0.06963628 0.18591285 0.10505744 0.17313914 0.1474302
0.11295197 0.18564197 -0.13367517 0.17606206 -0.027401626 0.099947274 -0.07472331 -0.017207729
0.027122786 -0.1761013 -0.26472074 0.47163385 -0.008289548 -0.09939165 -0.0726554 -0.058786567
0.16378397 -0.39160556 -0.24652272 0.15179375 0.1526949 -0.3385499 0.36455405 -0.32304808
-0.5108759 0.3647992 -0.3151615 -0.1986079 -0.11352193 0.45916083 -0.023312487 0.43199733
0.046168108 -0.29992262 0.15806092 -0.19302157 -0.43852356 -0.30280727 0.015708718 -0.19374104
-0.031005558 0.41030228 0.001872888 -0.078827985 0.26487005 0.11317111 -0.09677721 0.096266285
-0.44552493 0.15790857 -0.1228875 0.27330485 -0.02233499 -0.07793407 0.4450802 -0.023245277
-0.16973577 0.08570566 -0.02727312 -0.2672977 0.028065996 0.38302723 -0.5005166 -0.0869549
00000000: a787 46be 12f1 c9be 3ffc 49bf 53ff 403f
00000010: 3414 d1be 1f4a 983d 25c0 213d 4ac5 3fbf
00000020: 44ff 6f3f 2bac 53bf bbad 23bf 821d a5be
00000030: ebe5 153f fc0d 28bf 09fa 35be 737a 2dbf
00000040: a829 24bf b8e6 8bbe e550 cabe b098 8fbe
00000050: 862c fcbe dc36 98be 50b0 a1be 9b31 223f
00000060: 0da8 bd3e eb9c 14bf 0aae dbbe 1bb7 23bf
00000070: 617a 5abf dbe5 3abf 84c4 a2be 6a19 333f
00000080: 1855 a0bd 1ace 203f 514d b4be e02a 37bf
00000090: 8a11 413f 1316 f93b 181d 94bb 9123 79ba
000000a0: 13f9 49bf dd84 2f3f 6e34 f2be 4d8b f3be
000000b0: 34fb 0f3f 335d c1be 465b 07bf d2b1 b2be
000000c0: 307e 07bf e0d4 54be 6e56 213e 4fcf 17bf
000000d0: 0108 2abe 35c0 043f 54e7 52bf 125f 053d
000000e0: f267 20be eefc 553d dec9 cbbe 9fdd c6be
000000f0: 08cb a7be ac9a 3ebf 96ba 353f af67 1abf
00000100: 2107 17bf 3b36 c13c dfbb 6b3b 6bc8 bb3e
00000110: d89a e3be 9de0 12bf b296 56bf 7ac4 64bf
00000120: 4102 38bf 57f1 5fbf 5d95 19be e68f febe
00000130: 25b4 64bf 447e 2fbf 1c94 12bf 7ce1 a7bd
00000140: 8201 0f3f e05e 2ebe 920e 263f d49b 13bf
00000150: 9133 93be e56e 93be 8d13 473f 62d8 49be
00000160: 7002 3ebf d510 553f ee15 8a3e a70c 74bd
00000170: 7633 1bbf f6c1 b2be 75b1 adbe e8c6 4dbf
00000180: aad0 47bf 6e59 043f 105c 42bf 66fa cbbd
00000190: 9059 66bc de62 adbd 77ec dabd 439b be3d
000001a0: daf7 b03c 771a f53d c93c 663d 06a2 a73d
000001b0: 18fc 5f3c 1202 343e 8317 653e c576 b53d
000001c0: 2d3f f63d 1ed2 e03d d699 0cbc ca04 9bbc
000001d0: 7a3f 9a3d 11b9 11be dd3c c53d 0c85 273c
000001e0: 7241 103d f303 eabd 70eb e3bc 3a2b 43be
000001f0: f2f4 80bd b90a 8bbd c99f 96bd 9abd f63d
00000200: cd6d 133e 57b3 e83d d559 31be 5c7f 2c3e
00000210: 9471 9d3d 6182 b8bd 2ad9 003e 3883 6d3e
00000220: f58e e33c c9bc bd3d be85 3bbe a53d 983e
00000230: 5516 ac3d cca4 40be 5a14 99bd 3875 71be
00000240: 5486 03be 4fad dcbd 5811 c6bb 8ed9 e83d
00000250: c595 af3d 16dd bc3d 988d a13d cee7 493e
00000260: 2bcf bc3d 9ddc 82bd 69a4 39bb 5440 363e
00000270: fb76 0abc c7ee b33d 3673 183e f012 683d
00000280: b2b2 eabd 8fe1 25bd 82c4 a0bd dab8 603e
00000290: 48b8 043e d20d 003c 417c ce3c 43e8 803e
000002a0: 354d a0bd 7f79 e5bd 2441 b73d d4da 2a3d
000002b0: ac5a 4a3d 4fd0 913c a76e d63d 2f75 8dbd
000002c0: 4a2c 353e c4e8 e5bd b861 64bd 051e 8fbd
000002d0: 4e1e 76bd 1f38 2abd 1a80 41bd 2758 4a3e
000002e0: a96b 1c3e ce0a 34be b7e9 66bd 779d 8e3d
000002f0: f05f 3e3e 5b28 d73d 634b 313e f1f7 163e
00000300: 5d53 e73d ee18 3e3e 25e2 08be 9d49 343e
00000310: 6079 e0bc 28b1 cc3d 8908 99bd 39f7 8cbc
00000320: 9b30 de3c e653 34be 7a89 87be fe79 f13e
00000330: e2d0 07bc d98d cbbd 5bcc 94bd 2fca 70bd
00000340: fcb6 273e 8680 c8be 7470 7cbe d26f 1b3e
00000350: 0d5c 1c3e 6a56 adbe d4a6 ba3e 8f66 a5be
00000360: c3c8 02bf f6c6 ba3e d95c a1be df5f 4bbe
00000370: 307e e8bd 2117 eb3e d4f9 bebc c12e dd3e
00000380: c51a 3d3d 758f 99be b9da 213e 72a7 45be
00000390: 2986 e0be 8e09 9bbe 92af 803c 0d64 46be
000003a0: 5eff fdbc 2413 d23e b17b f53a 9170 a1bd
000003b0: 0c9d 873e 41c6 e73d 2133 c6bd 4227 c53d
000003c0: d81b e4be c9b2 213e 71ac fbbd 9dee 8b3e
000003d0: def7 b6bc e69b 9fbd 8de1 e33e e16c bebc
000003e0: 37cf 2dbe 7386 af3d e16b dfbc 3edb 88be
000003f0: a9ea e53c 251c c43e db21 00bf 6915 b2bd

linears.1.bias f4 [100]
-0.57444096 0.06322395 -0.20333739 -0.18822436 -0.28061524 0.00040687106 0.066359736 0.025539426
-0.25722048 -0.6267301 -0.06590765 -0.46716177 -0.38188818 -1.0195134 -0.105500154 -0.26825505
0.01662212 1.142968 -0.08865135 0.16541258 0.00064427406 -0.06859998 -0.05170362 -0.23241799
-0.03873751 -0.10648542 -0.0070918016 -0.005833402 -0.3043093 -0.12650585 -0.4959915 0.097418904
0.07390702 -0.10935721 0.013931094 -0.28943422 0.09369732 -0.24378641 0.09467577 0.01882135
-0.022801615 -0.05964557 -0.10685154 0.57568204 -0.3645726 -1.2620893 -0.08023928 -0.053462457
-0.1722218 -0.33944893 -0.31205106 -1.0010144 -0.15378803 -0.14533128 0.06436169 -0.5370173
-0.19580598 0.087930135 -0.21585469 -0.048227027 0.052444097 -0.14786325 -0.5114767 0.13856845
-0.089601785 -0.32608172 -0.067832194 -0.038905654 -0.20139433 0.027484765 0.070771225 0.09936742
-0.49259764 -0.34083012 0.061032087 -0.046725847 0.3850664 -0.17673701 -0.03147463 -0.0644495
0.1400343 0.06399342 -0.05232688 -0.3575995 0.2591182 -0.25509876 -0.5218456 -0.6018244
-0.41342923 0.17612797 0.08627848 0.003254955 -0.32886818 0.39673284 -0.11187961 0.14989914
0.093500145 -1.076356 -0.13567777 -1.0933793
00000000: 900e 13bf 8f7b 813d ad37 50be e3bd 40be
00000010: cdac 8fbe 4f51 d539 9de7 873d 0f38 d13c
00000020: 67b2 83be 6271 20bf 97fa 86bd d42f efbe
00000030: d986 c3be 6a7f 82bf 7710 d8bd ba58 89be
00000040: 1d2b 883c c74c 923f d78e b5bd ea61 293e
00000050: 80e4 283a 257e 8cbd 2dc7 53bd fbfe 6dbe
00000060: 39ab 1ebd 0715 dabd 5862 e8bb 1f26 bfbb
00000070: 6ece 9bbe c08a 01be 99f2 fdbe 9083 c73d
00000080: 905c 973d acf6 dfbd 3e3f 643c b930 94be
00000090: 61e4 bf3d 25a3 79be 5fe5 c13d 3b2f 9a3c
000000a0: 74ca babc ea4e 74bd fbd4 dabd e65f 133f
000000b0: 43a9 babe 248c a1bf 7e54 a4bd 73fb 5abd
000000c0: e95a 30be 40cc adbe 28c5 9fbe 3d21 80bf
000000d0: 9c7a 1dbe b9d1 14be 10d0 833d f779 09bf
000000e0: 5d81 48be b714 b43d 0309 5dbe b489 45bd
000000f0: 9fcf 563d 7769 17be 23f0 02bf e3e4 0d3e
00000100: 2481 b7bd 2ff4 a6be 9beb 8abd 895b 1fbd
00000110: 513a 4ebe bb27 e13c 81f0 903d 2581 cb3d
00000120: c235 fcbe 4981 aebe c8fc 793d 9a63 3fbd
00000130: 6c27 c53e 8cfa 34be 8beb 00bd 19fe 83bd
00000140: 2765 0f3e fb0e 833d b654 56bd 4817 b7be
00000150: 24ab 843e 4e9c 82be ac97 05bf 2a11 1abf
00000160: ffac d3be e45a 343e c6b2 b03d 1551 553b
00000170: 6961 a8be 9120 cb3e 2321 e5bd 297f 193e
00000180: 017d bf3d 09c6 89bf 1def 0abe daf3 8bbf

linears.2.weight f4 [100, 100]
0.034511693 0.02338688 0.22400434 -0.11470984 0.021439351 0.0046933005 -0.011216957 -0.009725025
-0.022139452 0.69602287 0.010970777 0.09453188 0.09263127 0.10813372 0.22061068 -0.008793398
0.014819272 -0.1342178 0.06138325 0.124740176 0.005791132 0.022989042 0.1968154 -0.037612103
-0.08817711 -0.03060577 -0.0096345395 -0.09030418 -0.052093513 -0.040291548 -0.2831185 0.025452415
-0.09104686 -0.21326394 -0.00581733 0.026287826 -0.0050368286 -0.013407973 -0.24980377 -0.060633585
-0.16919947 -0.07105192 0.0045802463 0.24135216 -0.07738939 -0.10532318 -0.119354576 0.014525525
0.034606103 -0.02359398 0.03883152 0.034050904 -0.13660099 0.18691435 0.026192982 0.35649478
-0.028206652 -0.017751405 -0.04357355 -0.038621437 0.026351128 -0.13648951 0.1508561 0.03182928
0.015703175 0.23927358 -0.015078908 -0.30151317 0.18728288 -0.039069545 0.03282474 0.34877792
0.24330132 0.20560484 -0.021010032 -0.17012754 0.03397996 -0.09042023 -0.048497703 0.04107958
-0.057243194 0.016202904 0.017201643 0.05790032 0.044649243 0.0504098 -0.11677374 0.15102085
-0.18541923 -0.057855252 0.030826448 0.009607818 0.07974478 -0.07473858 -0.118125446 0.035683107
0.047834292 -0.07242687 -0.15828657 0.03422121 0.3124448 -0.006868845 0.22873607 0.1969511
-0.1792766 0.035504244 -0.0454257 0.10585116 -0.30194414 0.38143906 0.075552784 0.20439848
0.03919714 -0.12747799 0.16948067 -0.008900032 0.013287306 -0.105890304 -0.2066622 -0.0901621
-0.10749231 0.06646653 -0.06335994 0.15135998 0.1059088 -0.19426659 -0.017370142 -0.020828225
-0.0056236787 -0.039130166 0.05949016 0.03316868 0.010424234 0.040228363 0.016215133 0.32114297
-0.012478663 -0.18571961 0.13348556 0.031867906 -0.14888361 -0.2839714 -0.30090463 -0.09589114
0.1628478 -0.17866609 -0.0018701295 -0.01653798 -0.19291419 -0.25030378 0.02588539 -0.0411705
0.13683836 -0.030302234 0.02058881 0.08265087 -0.014628706 -0.03420662 -0.20326965 -0.036093805
0.09044807 -0.08427489 -0.07390041 0.026038809 0.0024748167 0.119209245 0.11428801 0.14307612
0.18151218 -0.09458723 0.0064386637 0.10149867 -0.04041256 -0.015732113 -0.034555215 -0.16625197
0.02426399 -0.13873462 0.005401171 -0.083412156 -0.22659662 -0.008746077 -0.04801158 -0.033518117
-0.05867143 -0.25419438 0.27755985 -0.004837029 0.0631203 -0.07279804 -0.009366883 0.038179327
0.10186034 -0.1871666 -0.32117712 0.053739 0.0015449189 0.028603533 -0.040951926 -0.08514185
0.5922398 -0.42460847 0.45779762 -0.27787784 0.4145174 -0.23194891 -0.03980231 0.109071776
0.46204475 -0.046938915 0.057580635 0.49440637 0.53045887 0.24994236 -0.09634427 0.49699408
-0.19386637 -0.75121593 0.30055186 -0.9064819 0.5031972 -0.234851 0.53137547 0.47845504
0.016836392 0.4663697 0.25575086 -0.24888518 0.073866434 0.40868056 -0.033510964 -0.69303757
0.18123636 -0.32833746 -0.04063986 0.48839575 -0.39486045 0.24536142 -0.044941436 0.6074675
0.32103702 0.19215834 0.6043938 -0.17453109 0.57415885 0.5317572 0.09843024 -0.062166873
0.33463588 0.081606925 0.50957096 0.3306256 0.40853643 0.5830801 -0.23087588 0.4967856
00000000: 225c 0d3d d895 bf3c 6561 653e feec eabd
00000010: 94a1 af3c 42ca 993b 54c7 37bc b655 1fbc
00000020: cc5d b5bc 8e2e 323f c6be 333c ee99 c13d
00000030: 77b5 bd3d 3675 dd3d c4e7 613e 2f12 10bc
00000040: 88cc 723c 6470 09be 016d 7b3d c777 ff3d
00000050: 89c3 bd3b 8453 bc3c fa89 493e 260f 1abd
00000060: 3396 b4bd f4b8 fabc 30da 1dbc 66f1 b8bd
00000070: 0260 55bd c008 25bd e8f4 90be 9581 d03c
00000080: c776 babd dd61 5abe 4d9f bebb 9159 d73c
00000090: fb0b a5bb 1dad 5bbc 8fcc 7fbe ec5a 78bd
000000a0: a042 2dbe ab83 91bd e415 963b 0525 773e
000000b0: 547e 9ebd aeb3 d7bd 2c70 f4bd 78fc 6d3c
000000c0: 21bf 0d3d 2a48 c1bc cd0d 1f3d f678 0b3d
000000d0: 21e1 0bbe 7a66 3f3e aa92 d63c 7c86 b63e
000000e0: a311 e7bc 656b 91bc 2e7a 32bd 8331 1ebd
000000f0: 52de d73c e8c3 0bbe 057a 1a3e 6b5f 023d
00000100: f2a3 803c 2204 753e 860d 77bc ef5f 9abe
00000110: 15c7 3f3e 6307 20bd 3c73 063d 0593 b23e
00000120: fb23 793e 138a 523e 3b1d acbc ea35 2ebe
00000130: 922e 0b3d 3e2e b9bd 87a5 46bd 1043 283d
00000140: d777 6abd f4bb 843c 76ea 8c3c e328 6d3d
00000150: 20e2 363d 827a 4e3d 1227 efbd 36a5 1a3e
00000160: 8ade 3dbe a1f9 6cbd bf87 fc3c 1c6a 1d3c
00000170: 3b51 a33d 8a10 99bd c1eb f1bd 7328 123d
00000180: e4ed 433d 8a54 94bd e015 22be 8a2b 0c3d
00000190: c4f8 9f3e 0c14 e1bb ca39 6a3e 8dad 493e
000001a0: 4994 37be e66c 113d 4c10 3abd 7ec8 d83d
000001b0: 6c98 9abe fb4b c33e 6bbb 9a3d d64d 513e
000001c0: 2e8d 203d 9789 02be 578c 2d3e 71d1 11bc
000001d0: 00b3 593c 04dd d8bd 419f 53be e8a6 b8bd
000001e0: ee24 dcbd 9b1f 883d dbc2 81bd 1cfe 1a3e
000001f0: b7e6 d83d d2ed 46be d44b 8ebc f49f aabc
00000200: d646 b8bb f446 20bd f4ab 733d e2db 073d
00000210: 68ca 2a3c 7fc6 243d 99d5 843c da6c a43e
00000220: 4e73 4cbc 482d 3ebe 70b0 083e ec87 023d
00000230: f274 18be b364 91be 2c10 9abe 9362 c4bd
00000240: 93c1 263e 3ef4 36be 221f f5ba a87a 87bc
00000250: 4c8b 45be d127 80be 990d d43c 66a2 28bd
00000260: 5b1f 0c3e 643c f8bc dda9 a83c dc44 a93d
00000270: 3dad 6fbc 3e1c 0cbd eb25 50be 19d7 13bd
00000280: d63c b93d 5098 acbd 1959 97bd 574f d53c
00000290: 8930 223b fa23 f43d d50f ea3d 8c82 123e
000002a0: 54de 393e f3b6 c1bd 6dfb d23b 89de cf3d
000002b0: a487 25bd a2e0 80bc c589 0dbd f53d 2abe
000002c0: 46c5 c63c 7310 0ebe 4efc b03b fed3 aabd
000002d0: f208 68be b54b 0fbc caa7 44bd 4b4a 09bd
000002e0: 7451 70bd c425 82be 531c 8e3e f17f 9ebb
000002f0: 3745 813d 2417 95bd 8e77 19bc ed61 1c3d
00000300: 279c d03d 9aa8 3fbe 5471 a4be 6d1d 5c3d
00000310: e07e ca3a f551 ea3c 35bd 27bd da5e aebd
00000320: 079d 173f 4866 d9be 7364 ea3e 0146 8ebe
00000330: a03b d43e 0484 6dbe bf07 23bd 0661 df3d
00000340: 2191 ec3e 0543 40bd acd9 6b3d d522 fd3e
00000350: 27cc 073f e4f0 7f3e 2550 c5bd 0276 fe3e
00000360: e884 46be b04f 40bf efe1 993e 330f 68bf
00000370: 88d1 003f c87c 70be 3908 083f 0ff8 f43e
00000380: 79ec 893c 02c8 ee3e c7f1 823e c2db 7ebe
00000390: 4947 973d 943e d13e cb42 09bd e96a 31bf
000003a0: 0696 393e d91b a8be fb75 26bd 020f fa3e
000003b0: 262b cabe 0640 7b3e 8314 38bd fd82 1b3f
000003c0: f75e a43e 28c5 443e 8db9 1a3f 47b8 32be
000003d0: 13fc 123f 3d21 083f cb95 c93d b1a2 7ebd
000003e0: 6555 ab3e 8821 a73d 3e73 023f c247 a93e
000003f0: b02b d13e bd44 153f ba6a 6cbe af5a fe3e

linears.2.bias f4 [100]
-0.026437126 -0.10290813 -0.8604794 -0.95572597 -0.10215122 -0.16954173 -0.07267506 -0.018267721
-0.19231933 -0.24020329 -0.87206715 -0.9895381 -1.0458853 -0.8840583 -0.6861808 -0.9951614
-0.78385806 0.006495684 -0.30139363 -0.20292601 -0.27111232 -0.24033311 -0.14796165 -0.16844079
-0.13128784 -0.20397355 -0.17292644 -0.13645467 -0.6218694 -0.8241583 -0.0176284 -0.3378488
-0.6907369 -0.14277539 -0.89853764 -0.2058803 -0.78552765 -0.85165095 -0.19077323 -0.84685487
-0.1892311 -0.20869985 -0.08089799 -0.64239615 -1.0773525 -0.057778344 -0.83213264 -0.15293588
-0.0706633 -0.4533957 -0.24734624 -0.1180781 -0.8287198 -0.22559395 -0.23988193 -0.5855099
-0.1822343 -0.17030494 -0.16903538 -0.75898665 -0.19204116 -0.20511824 -0.7396843 -0.15767223
-0.44628477 -0.39095908 -0.8384241 -0.8726403 -0.20916136 -0.18083392 -0.25805452 -0.7626447
-0.19206242 -0.9248993 -0.122223705 -0.24468379 -0.04741263 -0.53281033 -1.0348668 -0.14760697
-0.14219303 -1.0299375 -0.11618843 -0.10570128 -0.21722546 -0.9884731 -0.18779406 -0.13935857
-0.21194671 -0.2047732 -0.18936238 -0.26026127 -0.22093779 -0.27554777 -0.23086925 -0.14543672
-0.35520118 -0.9614436 -1.0016028 -0.1963102
00000000: ac92 d8bc 7fc1 d2bd 6148 5cbf 75aa 74bf
00000010: a934 d1bd 599c 2dbe a9d6 94bd 30a6 95bc
00000020: 5cef 44be daf7 75be cb3f 5fbf 5e52 7dbf
00000030: 92df 85bf a551 62bf 8ba9 2fbf e6c2 7ebf
00000040: ecaa 48bf bfd9 d43b 4450 9abe d6cb 4fbe
00000050: 3ccf 8abe e219 76be 4283 17be be7b 2cbe
00000060: 5270 06be 71de 50be a113 31be c6ba 0bbe
00000070: d532 1fbf 0afc 52bf 6f69 90bc 85fa acbe
00000080: 22d4 30bf b633 12be 9006 66bf 49d2 52be
00000090: 5718 49bf cc05 5abf 0f5a 43be 7bcb 58bf
000000a0: ccc5 41be 6ab5 55be d8ad a5bd 1374 24bf
000000b0: b0e6 89bf fca8 6cbd a506 55bf 399b 1cbe
000000c0: ecb7 90bd 7b23 e8be 5548 7dbe eed2 f1bd
000000d0: fb26 54bf 1a02 67be 9ca3 75be fae3 15bf
000000e0: a19b 3abe 6b64 2ebe 9c17 2dbe f34c 42bf
000000f0: 70a6 44be 840a 52be f35b 3dbf d474 21be
00000100: 707f e4be ca2b c8be f6a2 56bf 5b65 5fbf
00000110: 652e 56be 872c 39be b91f 84be af3c 43bf
00000120: 03ac 44be 33c6 6cbf 6c50 fabd 638e 7abe
00000130: bf33 42bd 4266 08bf 8476 84bf 4826 17be
00000140: 0d9b 11be fed4 83bf 33f4 edbd ea79 d8bd
00000150: 5a70 5ebe 930c 7dbf 164d 40be 03b4 0ebe
00000160: 8f08 59be 11b0 51be 36e8 41be f740 85be
00000170: 843d 62be 9914 8dbe fd68 6cbe 5ded 14be
00000180: eedc b5be 2b21 76bf 8534 80bf 8b05 49be

linears.3.weight f4 [5, 100]
-0.21440446 -0.066358894 0.36854386 0.4789604 -0.14593889 -0.21014623 -2.1689213e-05 0.27893
-0.18213929 0.075305216 -0.35230222 0.34822997 0.4512622 0.4085666 -0.8768902 0.0122133875
0.5379323 0.20059654 0.2182442 0.22008286 0.39055008 -0.015779356 0.0061342153 -0.09934937
-0.12207311 -0.16043475 -0.1857894 -0.08121793 0.09931803 0.49440178 0.049408253 -0.9981673
-0.4281783 -0.008679002 0.5418761 -0.08882241 0.55707335 0.41923 -0.03657439 -0.5392049
0.0041647106 0.19186021 0.10515774 -0.8558778 0.48145825 -0.1114662 0.6500824 0.3048243
-0.14540222 0.24859601 0.021490157 0.113310255 0.5229072 -0.0934869 0.096549354 -0.007641957
0.15490665 -0.15477657 0.07634417 -0.0039970176 0.18482973 -0.02347243 0.26097044 0.20144719
-0.013040016 0.10445429 -0.03423367 0.13314673 -0.2886556 -0.0043711117 0.57491916 0.39250553
-0.103498176 0.17729081 -0.07204058 0.014577941 0.361865 0.44439545 -0.15363531 0.018744674
-0.23187713 0.43800777 -0.061472155 0.0146801965 -0.14283983 0.48737386 -0.21585678 0.29711083
0.03712395 -0.08280248 -0.17119552 0.10567934 -0.13678992 0.100055814 -0.17730005 -0.112378776
-0.07246086 0.52285296 0.2000267 0.1390529 0.016157886 0.004782487 0.15373002 0.0017917325
0.009064119 0.012017781 0.0005042365 -0.016476234 0.009080406 -0.0055750413 -0.25815672 0.14986272
-0.03289994 0.02956798 0.020622337 0.0070604724 0.19052655 -0.012576623 -0.010835569 -0.011733302
-0.022668043 0.000876607 0.0028464824 0.009690032 0.009536025 0.0131840715 0.010769451 0.006375587
0.015353248 0.06967498 -0.0062346677 0.052340418 -0.1949559 -0.0016264222 0.03651709 0.0017390571
-0.043310165 0.121549524 0.003778537 0.054941315 0.0019998176 -0.007828563 -0.003753277 0.037828464
0.026122507 0.008670465 0.11486651 -0.019206068 0.006149089 -0.1418327 0.0018107131 -0.008714165
0.062899716 0.009482303 -0.0050923177 0.06040037 -0.0069801467 0.006337757 -0.0044923965 0.0002612073
-0.014320962 0.0012844265 0.2081284 -0.018968105 0.0006038174 -0.0005850495 0.13674895 0.1285861
0.0075827576 0.0015253671 -0.045593966 0.17785591 0.002106127 -0.0053942353 0.00018760026 -0.0016350853
-0.023672698 0.11299226 0.0005669065 -0.002078051 0.014379735 -0.0022238058 0.003307795 -0.0016429796
0.0066867666 -0.085150205 0.013090164 -0.018318862 -0.0050159832 0.0048944065 0.008885952 -0.0055181016
0.006872831 -0.034521386 0.0061288527 0.0027577528 0.003943794 -0.09953241 -0.011319449 -0.0057362933
0.22147723 0.19993697 0.008759096 0.06788689 0.1531753 -0.0694389 0.016410932 -0.050924964
-0.013054033 0.1699124 0.6797895 -0.026773596 0.076847434 -0.2425948 -0.361477 0.05855759
0.014138008 0.442614 0.15160799 -0.0537969 0.0850161 -0.099237874 0.055971634 0.0458314
-0.043444533 -0.038063288 0.3424197 -0.06647468 0.72326833 0.036688365 0.002686759 0.17344047
0.7020942 -0.18098657 0.079703346 -0.35668588 0.2855695 -0.0075227814 0.06435209 -0.92523384
-0.031077271 0.046162058 -0.22523893 -0.6398168 0.047907814 0.33158028 0.059770595 -1.4955302
-0.011790557 -1.2168063 0.059131935 0.18133296 0.027140914 0.11134561 -0.39541602 -0.01361849
00000000: d88c 5bbe 2ce7 87bd c8b1 bc3e 4c3a f53e
00000010: 0171 15be 9330 57be 3bf1 b5b7 eacf 8e3e
00000020: b982 3abe 9f39 9a3d f560 b4be 334b b23e
00000030: d70b e73e a42f d13e e07b 60bf a91a 483c
00000040: eeb5 093f 2e69 4d3e 687b 5f3e 675d 613e
00000050: 2ef6 c73e b543 81bc 8701 c93b af77 cbbd
00000060: 7701 fabd 0249 24be 943f 3ebe 9655 a6bd
00000070: 4067 cb3d 3b22 fd3e 4f60 4a3d e487 7fbf
00000080: 303a dbbe 5f32 0ebc 64b8 0a3f 86e8 b5bd
00000090: 5c9c 0e3f 51a5 d63e 07cf 15bd 5509 0abf
000000a0: 2078 883b 0177 443e f15c d73d cf1a 5bbf
000000b0: b281 f63e 6448 e4bd cd6b 263f ee11 9c3e
000000c0: 52e4 14be f48f 7e3e 200c b03c 350f e83d
000000d0: 3fdd 053f 0f76 bfbd abbb c53d 6269 fabb
000000e0: d99f 1e3e c07d 1ebe 555a 9c3d 6af9 82bb
000000f0: 0144 3d3e 4149 c0bc eb9d 853e 2c48 4e3e
00000100: cba5 55bc 21ec d53d 9b38 0cbd 9e57 083e
00000110: abca 93be 8b3b 8fbb e72d 133f 7cf6 c83e
00000120: daf6 d3bd b98b 353e 038a 93bd 51d8 6e3c
00000130: 5f46 b93e cd87 e33e 9352 1dbe 6e8e 993c
00000140: 3371 6dbe 8e42 e03e 3aca 7bbd 3585 703c
00000150: 9b44 12be 1189 f93e 8f09 5dbe e91e 983e
00000160: 480f 183d 5994 a9bd e14d 2fbe 696e d83d
00000170: a812 0cbe 10ea cc3d 258e 35be d826 e6bd
00000180: 5c66 94bd b1d9 053f cdd3 4c3e e263 0e3e
00000190: 8b5d 843c 69b6 9c3b 676b 1d3e 91d8 ea3a
000001a0: ac81 143c 3ae6 443c bd2e 043a 2bf9 86bc
000001b0: fcc5 143c d6ae b6bb 1e2d 84be 9d75 193e
000001c0: 16c2 06bd 8c38 f23c 2df0 a83c 895b e73b
000001d0: 6419 433e 2e0e 4ebc ac87 31bc 093d 40bc
000001e0: 55b2 b9bc 1acc 653a 0d8c 3a3b f1c2 1e3c
000001f0: fd3c 1c3c 0102 583c 5a72 303c 4dea d03b
00000200: 318c 7b3c c2b1 8e3d 2f4c ccbb e862 563d
00000210: 85a2 47be ac2d d5ba f292 153d 13f1 e33a
00000220: 0066 31bd f5ee f83d 55a1 773b 250a 613d
00000230: 5f0f 033b 6043 00bc 8af9 75bb 05f2 1a3d
00000240: defe d53c 910e 0e3c 223f eb3d 0b56 9dbc
00000250: 4c7e c93b 973c 11be 7355 ed3a dbc5 0ebc
00000260: 91d1 803d a95b 1b3c 75dd a6bb 6166 773d
00000270: b7b9 e4bb f6ac cf3b f434 93bb a6f2 8839
00000280: 78a2 6abc 345a a83a 9c1f 553e 0063 9bbc
00000290: 8049 1e3a 025e 19ba eb07 0c3e 13ac 033e
000002a0: c878 f83b d4ee c73a bdc0 3abd dc1f 363e
000002b0: f306 0a3b 20c2 b0bb 90b6 4439 5c50 d6ba
000002c0: 3fed c1bc 7c68 e73d 749c 143a e92f 08bb
000002d0: fb98 6b3c 45bd 11bb 97c7 583b 3f59 d7ba
000002e0: aa1c db3b 3b63 aebd 2178 563c 7011 96bc
000002f0: 1e5d a4bb 4261 a03b 6296 113c 31d1 b4bb
00000300: 7c35 e13b 4c66 0dbd 8bd4 c83b 6abb 343b
00000310: f13a 813b a6d7 cbbd 3675 39bc 84f7 bbbb
00000320: edca 623e 47bc 4c3e 5082 0f3c 4808 8b3d
00000330: fcd9 1c3e fb35 8ebd 3870 863c b296 50bd
00000340: 95e0 55bc 84fd 2d3e af06 2e3f 4d54 dbbc
00000350: 3062 9d3d c56a 78be 8313 b9be 15da 6f3d
00000360: 1aa3 673c 4d9e e23e 203f 1b3e 235a 5cbd
00000370: ec1c ae3d 3a3d cbbd 8342 653d b5b9 3b3d
00000380: e5f2 31bd 40e8 1bbd a351 af3e e123 88bd
00000390: 1d28 393f 8a46 163d 5614 303b 619a 313e
000003a0: 72bc 333f 8b54 39be 823b a33d 889f b6be
000003b0: 2a36 923e aa81 f6bb 07cb 833d 20dc 6cbf
000003c0: c395 febc 6d14 3d3d 09a5 66be 09cb 23bf
000003d0: fc3a 443d e4c4 a93e 03d2 743d 896d bfbf
000003e0: 2e2d 41bc 4fc0 9bbf 5434 723d 59af 393e
000003f0: 9f56 de3c 2b09 e43d f873 cabe 1620 5fbc

linears.3.bias f4 [5]
-0.043989368 -0.02883911 0.059533034 -0.12587664 -0.006551273
00000000: 322e 34bd ff3f ecbc e9d8 733d cee5 00be
00000010: 10ac d6bb

exp_avg f4 [100, 1]
-1.5203733e-08 -1.8855385e-10 -1.455362e-09 -9.700183e-10 -1.207612e-08 -1.48555115e-08 -1.0074099e-08 -4.0042544e-10
-9.808896e-09 4.2715356e-09 4.7735775e-09 -1.29870035e-08 -1.1360639e-08 8.037123e-09 4.8979693e-08 4.371451e-09
-6.835694e-09 1.4423895e-09 -1.5870095e-08 -1.3227929e-09 3.321342e-09 -2.2444459e-08 -3.6400383e-08 -5.4761298e-09
2.2654306e-10 6.00158e-09 5.1155933e-09 4.990522e-09 1.2232279e-09 1.6729112e-08 1.1840419e-08 -2.2237483e-08
6.252866e-10 -8.348012e-09 -1.156478e-08 -8.0182766e-10 -9.313863e-09 -9.513485e-09 -1.0488896e-08 -1.05173745e-08
1.3691338e-08 -1.7228171e-09 9.269422e-10 -1.2033037e-08 -1.686806e-09 1.1767224e-08 -1.0392935e-08 -1.870309e-08
3.5195333e-10 -1.2293554e-08 -1.03235775e-08 1.6890187e-08 -1.44379415e-08 -3.561538e-09 -5.523374e-10 -1.4217263e-08
-2.6599862e-08 -5.5195923e-09 -7.154482e-09 -7.665073e-09 6.0796577e-09 4.961446e-09 -1.0358892e-08 1.456821e-09
3.5477423e-09 -1.2930545e-08 -1.3498932e-08 -3.727683e-08 2.732882e-09 7.827847e-09 4.19671e-09 5.9547767e-09
1.012521e-08 6.805116e-09 -1.7076188e-08 -4.6848867e-09 -5.7389506e-09 1.5026908e-08 9.621194e-09 -1.1327252e-08
-1.590865e-08 -9.698517e-09 -1.2118604e-08 5.3676583e-09 3.42429e-09 1.42050975e-08 -2.125812e-09 -1.7227608e-08
-2.9226361e-09 -6.1870398e-09 -5.4452776e-09 -4.059315e-09 9.12707e-10 -9.397888e-09 -4.5098223e-09 -7.83236e-09
-1.7752638e-09 -2.0532017e-08 -2.4363291e-09 -8.006123e-09
00000000: 5d99 82b2 3151 4faf 0006 c8b0 7c51 85b0
00000010: 5677 4fb2 3b37 7fb2 5b12 2db2 df22 dcaf
00000020: fb83 28b2 d3c4 9231 d504 a431 721d 5fb2
00000030: 9e2c 43b2 a413 0a32 be5d 5233 b133 9631
00000040: 66df eab1 923d c630 b552 88b2 a3cd b5b0
00000050: ab3d 6431 e3cb c0b2 a556 1cb3 8c28 bcb1
00000060: 3416 792f 7536 ce31 3cc5 af31 1979 ab31
00000070: 811e a830 b5b3 8f32 b76a 4b32 be04 bfb2
00000080: a2e0 2b30 f26a 0fb2 71ae 46b2 9b67 5cb0
00000090: cd02 20b2 c070 23b2 a732 34b2 e7af 34b2
000000a0: 2437 6b32 3dc8 ecb0 c2cb 7e30 dbb9 4eb2
000000b0: 36d5 e7b0 cc28 4a32 9d8c 32b2 88a8 a0b2
000000c0: 077d c12f 9f33 53b2 935b 31b2 ea15 9132
000000d0: bd0a 78b2 3dbf 74b1 4ad3 17b0 2f40 74b2
000000e0: b77d e4b2 d9a6 bdb1 7dd3 f5b1 59af 03b2
000000f0: 3ce5 d031 5779 aa31 e4f6 31b2 5539 c830
00000100: 8bcc 7331 2325 5eb2 eee8 67b2 4f1a 20b3
00000110: 5ecd 3b31 3c7b 0632 a732 9031 c59a cc31
00000120: 25f3 2d32 6fd2 e931 efae 92b2 b3f8 a0b1
00000130: 5830 c5b1 8514 8132 754a 2532 c899 42b2
00000140: 7ea7 88b2 879e 26b2 2f32 50b2 6c6e b831
00000150: bf50 6b31 ae0a 7432 ae15 12b1 e9fb 93b2
00000160: 8fd7 48b1 c795 d4b1 2b19 bbb1 1d7a 8bb1
00000170: 0ce2 7a30 5974 21b2 d1f4 9ab1 158f 06b2
00000180: 8bfd f3b0 625e b0b2 5b6c 27b1 4d8b 09b2

exp_avg_sq f4 [100, 1]
2.0822156e-11 1.663602e-11 6.006307e-11 2.5145983e-11 2.6493402e-12 8.667439e-12 8.643524e-12 5.5425248e-11
1.7285983e-11 2.0199531e-11 5.4229527e-11 3.218752e-11 3.1674652e-11 4.5281102e-11 7.2256784e-11 3.484188e-11
3.4676595e-11 3.0400807e-11 2.2620026e-11 1.03804396e-11 4.4533335e-11 3.400083e-11 3.1883076e-11 2.6645991e-11
2.1335855e-11 2.6078417e-11 2.0076739e-10 5.210077e-11 4.398914e-11 7.782027e-11 3.4576047e-11 7.129754e-11
3.6046794e-11 2.1541368e-11 8.582807e-12 4.507147e-11 2.5655082e-11 6.5213637e-12 6.974493e-12 1.8507714e-11
3.611165e-11 2.9397623e-11 5.6985323e-11 1.2683578e-10 1.6528485e-11 4.8572018e-11 1.4301531e-11 1.7129876e-11
5.4310136e-11 6.7754595e-12 7.760114e-12 4.012007e-11 6.79251e-12 1.8051213e-11 4.0199347e-11 9.911187e-12
3.3748497e-11 6.225846e-12 3.899554e-12 1.0207146e-11 2.9716108e-11 3.9836228e-11 3.709722e-11 3.9367804e-11
2.8100066e-11 9.285265e-12 6.138001e-12 8.032213e-11 4.4877237e-11 8.0158144e-11 3.35586e-11 4.111147e-11
6.3712924e-11 3.427752e-11 7.337016e-12 1.883807e-11 5.172608e-11 3.246307e-11 4.4256272e-11 2.7923778e-11
3.569786e-11 8.411854e-12 3.2281892e-11 5.982786e-11 2.379087e-11 4.0380276e-11 3.12199e-11 4.368456e-12
6.000823e-11 4.460859e-11 2.8764175e-11 2.9942123e-12 6.745248e-11 4.3430142e-12 1.0694219e-11 5.4970015e-11
5.262242e-11 5.0339555e-11 1.0408556e-11 4.3397885e-12
00000000: 5427 b72d fd54 922d 8114 842e b82f dd2d
00000010: 456e 3a2c ad7a 182d f90e 182d 48c3 732e
00000020: 930c 982d 4dad b12d 0581 6e2e ed8f 0d2e
00000030: 7d4e 0b2e fd25 472e f4e4 9e2e 783c 192e
00000040: 6082 182e 44b4 052e c5f7 c62d 589d 362d
00000050: 14dc 432e 8889 152e 2739 0c2e 7061 ea2d
00000060: 13ac bb2d 6063 e52d ffbe 5c2f 4124 652e
00000070: 5e77 412e eb20 ab2e 2b11 182e f2c8 9c2e
00000080: 1589 1e2e d97a bd2d 87fd 162d f739 462e
00000090: 1caa e12d 3973 e52c a664 f52c abcb a22d
000000a0: 1ad2 1e2e c84a 012e c59f 7a2e 1975 0b2f
000000b0: d762 912d 3b9f 552e 5f98 7b2d 0dad 962d
000000c0: c7db 6e2e ea63 ee2c 7284 082d 2f73 302e
000000d0: 7efd ee2c b8c7 9e2d 71cc 302e 055c 2e2d
000000e0: 6e6d 142e 6f0d db2c 0f34 892c e690 332d
000000f0: 5db1 022e 9b33 2f2e c227 232e 3524 2d2e
00000100: b92b f72d 1e59 232d 33f6 d72c 57a1 b02e
00000110: 475f 452e 0645 b02e a097 132e 66cf 342e
00000120: 301b 8c2e 0ec1 162e fc12 012d 90b3 a52d
00000130: 637e 632e 2bc6 0e2e 22a4 422e c29e f52d
00000140: 3800 1d2e 9ffb 132d 2efa 0d2e 1790 832e
00000150: 4744 d12d 2698 312e 7c4e 092e 8eb3 992c
00000160: a1f5 832e cf30 442e 2a03 fd2d efb2 522c
00000170: 5f54 942e 65ce 982c 7b22 3c2d bcc2 712e
00000180: 946f 672e 4d65 5d2e f81b 372d 57b1 982c

exp_avg f4 [100]
-1.619499e-07 9.945593e-07 -6.018938e-08 1.917708e-07 -6.0708686e-07 -3.770426e-07 -1.335467e-07 -1.4930524e-07
5.1664557e-08 -2.866827e-08 5.5536212e-08 -5.143832e-07 8.358741e-08 -4.737303e-08 9.310701e-07 -2.0875149e-08
-2.91445e-07 -5.521988e-07 4.2891106e-08 1.0900329e-07 -1.9527924e-07 -2.4791504e-07 -1.5176959e-06 6.184458e-08
2.162187e-07 1.8718164e-07 -1.3844844e-06 -3.4728902e-08 -9.4727675e-08 3.7363463e-08 1.5329774e-06 1.523848e-07
1.7352168e-06 6.2099117e-09 -5.961846e-07 -1.1717887e-07 2.5171229e-08 -4.452236e-07 -4.1244667e-07 1.69999e-07
3.9616474e-08 1.1747747e-07 -2.5724265e-07 -1.3833042e-06 3.111194e-07 2.0407633e-06 -1.25467e-06 -8.057453e-07
-6.8871735e-08 -7.1644496e-07 -3.4831234e-07 4.8675773e-08 -5.83287e-07 6.964537e-08 -4.9444058e-09 -4.1821392e-07
-1.0559243e-06 -4.0871998e-07 -5.5053846e-07 -7.8910335e-07 1.041982e-06 -1.8567416e-08 -1.0967637e-08 -1.257817e-07
-2.149532e-07 -4.3633457e-07 -5.281566e-07 2.6687594e-08 -1.5356643e-07 -1.6101305e-07 -3.3941623e-09 -6.9389583e-09
-9.864233e-08 7.187743e-08 -8.826388e-07 -8.147596e-07 -2.7148764e-07 4.6433126e-08 7.0645385e-08 -1.2073127e-07
6.026488e-08 -1.4003672e-07 3.6424094e-08 1.7153035e-08 1.3366003e-06 2.1871415e-06 1.8929049e-07 -7.256299e-07
-1.6594812e-07 1.1107321e-07 2.9714695e-07 -3.1838655e-07 -1.12282045e-07 -5.753001e-07 -6.010227e-07 -2.951992e-07
-9.58223e-08 1.07283824e-07 -5.2896567e-08 -3.5839813e-07
00000000: 73e4 2db4 cc7c 8535 7641 81b3 8ee9 4d34
00000010: b1f6 22b5 576c cab4 0a65 0fb4 b650 20b4
00000020: c8e5 5d33 3142 f6b2 b686 6e33 2514 0ab5
00000030: aa80 b333 3377 4bb3 a6ee 7935 f050 b3b2
00000040: e577 9cb4 d03a 14b5 4537 3833 3115 ea33
00000050: f3ad 51b4 2f19 85b4 a2b3 cbb5 6bcf 8433
00000060: be29 6834 19fc 4834 86d2 b9b5 d528 15b3
00000070: 176d cbb3 9079 2033 b4c0 cd35 379f 2334
00000080: 98e5 e835 f65e d531 7e09 20b5 c4a3 fbb3
00000090: 1e38 d832 1107 efb4 3d6e ddb4 f888 3634
000000a0: c626 2a33 ec47 fc33 291b 8ab4 f8a9 b9b5
000000b0: ed07 a734 0cf4 0836 2266 a8b5 654a 58b5
000000c0: a3e6 93b3 b951 40b5 afff bab4 940f 5133
000000d0: 2d93 1cb5 f28f 9533 74e3 a9b1 e286 e0b4
000000e0: 48b9 8db5 0c6e dbb4 b7c8 13b5 c5d2 53b5
000000f0: 3bda 8b35 2e7e 9fb2 2d6c 3cb2 9c0e 07b4
00000100: e3cd 66b4 5e41 eab4 a5c6 0db5 a43e e532
00000110: 05e4 24b4 eee2 2cb4 bc3e 69b1 b96b eeb1
00000120: 32d5 d3b3 095b 9a33 7aee 6cb5 dab5 5ab5
00000130: fac0 91b4 c36d 4733 b6b5 9733 5ca2 01b4
00000140: f86a 8133 005d 16b4 b770 1c33 ec57 9332
00000150: 3d65 b335 cec6 1236 c63f 4b34 e8c8 42b5
00000160: 792f 32b4 2587 ee33 9187 9f34 b7ee aab4
00000170: b51f f1b3 526e 1ab5 f755 21b5 de7b 9eb4
00000180: dec6 cdb3 e863 e633 6430 63b3 dd69 c0b4

exp_avg_sq f4 [100]
5.339832e-08 1.0878214e-07 2.7412955e-08 8.530521e-09 4.985259e-09 7.663897e-09 5.8719163e-09 2.8386204e-08
6.9865216e-09 8.2836245e-09 2.8969666e-08 1.2500684e-07 1.8212866e-08 2.533934e-08 1.697256e-08 1.4014656e-08
1.3056876e-08 5.1096425e-08 4.4848925e-08 3.7212113e-09 2.2170532e-08 6.5565004e-08 3.1898858e-07 1.3442272e-08
8.932643e-09 1.0188266e-08 5.4704024e-08 3.5143177e-08 2.1249123e-08 3.8614086e-08 1.9816964e-07 1.5444966e-08
1.404652e-07 7.324226e-09 2.5019604e-08 2.8858985e-08 1.01511946e-08 5.8877454e-09 6.6700263e-09 2.8218043e-08
1.1463581e-08 1.169663e-08 5.036392e-08 4.9657707e-08 7.607481e-09 1.3266792e-07 8.041464e-08 1.9939998e-07
2.8603806e-08 1.9869788e-08 1.8599788e-08 1.3224928e-08 1.0681106e-08 6.78913e-09 1.192016e-08 4.345869e-09
2.159855e-07 6.7963923e-09 7.7688735e-09 3.4067632e-08 1.5560654e-07 2.0440826e-08 1.5377696e-08 3.3216512e-08
1.1321938e-08 4.79655e-09 4.929115e-09 2.2530953e-08 2.0454943e-08 4.2876007e-08 1.8611859e-08 1.978955e-08
4.344401e-08 1.2144848e-08 2.6704944e-08 4.8620294e-08 2.4838327e-08 1.1279703e-08 2.4065779e-08 8.274011e-08
1.8837868e-08 1.3835491e-08 8.124807e-09 2.3816884e-08 4.5677616e-08 9.6912316e-08 8.43973e-09 1.0189179e-08
2.258479e-08 1.3607418e-08 1.540549e-08 6.1347643e-09 4.4945974e-08 2.7298633e-08 5.0706088e-08 2.5951154e-08
4.47321e-08 1.2874795e-08 3.154212e-09 3.1772827e-09
00000000: 1358 6533 9d9b e933 ba79 eb32 a18d 1232
00000010: cd4a ab31 2daa 0332 ecc1 c931 ecd5 f332
00000020: 180e f031 c44f 0e32 f8d8 f832 9e39 0634
00000030: 8472 9c32 cca9 d932 0ecb 9132 1cc5 7032
00000040: bf50 6032 1d75 5b33 ea9f 4033 3eb8 7f31
00000050: 8471 be32 becc 8c33 7541 ab34 bdef 6632
00000060: 2e76 1932 7808 2f32 b6f3 6a33 55f0 1633
00000070: 5187 b632 a3d8 2533 75c8 5434 d7ab 8432
00000080: c8d2 1634 93a8 fb31 b1ea d632 94e5 f732
00000090: 6d65 2e32 284d ca31 2c2e e531 2264 f232
000000a0: 5df1 4432 53f2 4832 b74f 5833 3a47 5533
000000b0: 0eb2 0232 7b73 0e34 6ab0 ac33 a61a 5634
000000c0: 6fb4 f532 20ae aa32 5ec5 9f32 d933 6332
000000d0: 0080 3732 d245 e931 6bc9 4c32 ab52 9531
000000e0: a4e9 6734 b385 e931 de77 0532 c251 1233
000000f0: cd14 2734 da95 af32 e917 8432 f1a9 0e33
00000100: 6982 4232 e6ce a431 f45c a931 178a c132
00000110: e5b4 af32 ab26 3833 e9df 9f32 aefd a932
00000120: 3297 3a33 9ba5 5032 cb64 e532 94d2 5033
00000130: 0f5c d532 a9c8 4132 35b9 ce32 dbae b133
00000140: e9d0 a132 22b1 6d32 4795 0b32 e295 cc32
00000150: 122f 4433 1c1e d033 53fe 1032 7c0c 2f32
00000160: 7a00 c232 0fc6 6932 0855 8432 f5c9 d231
00000170: 9f0a 4133 547e ea32 efc7 5933 31eb de32
00000180: 771f 4033 f22f 5d32 7cc1 5831 5957 5a31

exp_avg f4 [100, 100]
-4.2580967e-10 -1.8475589e-09 -1.2328174e-09 5.5436494e-10 -3.1423586e-11 3.6014136e-10 3.3161063e-10 -9.573199e-10
3.6674222e-10 -1.672402e-10 -7.8983364e-10 -6.788043e-10 7.2768375e-10 -7.1688405e-10 -1.8886586e-09 -3.550151e-10
-4.835938e-10 -1.1680384e-09 -1.7946039e-09 -2.6302768e-10 -7.2566825e-10 -5.2638705e-10 -1.1283086e-09 5.9321253e-10
8.4342294e-10 -6.0514543e-10 -2.5672444e-09 -8.571512e-10 -8.4900226e-10 -1.4231918e-09 -2.5562654e-09 1.0104716e-09
-2.2031927e-09 2.3708507e-10 -4.0681747e-10 -7.1952116e-10 3.6575515e-10 1.6899696e-10 2.1077763e-10 3.697065e-10
-7.411167e-10 6.097973e-10 -1.0591803e-09 -1.945518e-09 1.9874662e-10 -2.4508204e-09 -6.6170486e-10 -1.07621e-09
-1.0972447e-09 -4.2524465e-10 2.8241307e-10 -2.5676658e-10 1.1144946e-10 3.3729e-10 -9.783053e-10 4.845592e-10
-1.1611475e-09 1.4028247e-10 -9.3014034e-11 -3.5381073e-10 -1.8060036e-09 -6.8392164e-10 8.4345597e-10 -6.0869476e-10
-5.482234e-10 1.8318826e-10 1.453551e-10 7.773736e-10 -8.334049e-10 -1.7958102e-09 -5.485138e-10 -5.6842775e-10
-1.3221433e-09 -9.2278485e-10 -4.9398113e-10 -3.7602918e-10 -8.366206e-10 -4.4995e-10 -6.835211e-10 -1.2688997e-09
7.0145434e-10 -1.2955324e-10 2.854231e-10 -1.3218782e-09 -2.8844829e-09 -3.4202636e-09 8.466293e-10 -2.2869741e-10
-1.2565845e-09 8.051551e-10 4.778093e-10 6.4067085e-11 -1.1407801e-09 3.1697187e-11 -5.733327e-10 -1.2373736e-09
-1.2979827e-09 7.546811e-10 -9.22927e-12 1.0443563e-10 5.967667e-09 1.6766093e-08 6.0702163e-09 -2.6848537e-09
9.26119e-10 -7.666959e-10 2.2506133e-10 4.650771e-09 -1.8185466e-09 6.975858e-10 3.827364e-09 8.282941e-09
-3.6218275e-09 3.4357917e-09 9.453042e-09 1.6600309e-09 2.3317546e-09 5.050889e-09 1.7256212e-08 2.830929e-09
3.3689307e-09 7.337543e-09 1.2548989e-08 -2.8537956e-09 -4.3677075e-09 2.988107e-09 1.24145485e-08 4.26682e-09
4.2507313e-09 6.9105117e-09 2.2347562e-08 -4.6589164e-09 1.9955273e-08 -1.0156314e-09 6.3496577e-09 3.6127472e-09
-1.6255661e-09 7.4167716e-10 -4.474261e-10 6.505313e-10 3.6493772e-09 -2.9613718e-09 5.164445e-09 9.3612424e-09
-7.710413e-10 2.1390116e-08 2.4313065e-09 1.1820994e-08 5.521515e-09 5.7041554e-09 -5.097468e-10 1.0931006e-09
1.0971498e-09 -1.6673255e-09 4.8254067e-09 -1.7314217e-09 1.3147729e-08 6.7896305e-10 1.7862002e-09 8.905781e-10
1.667602e-08 3.3482859e-09 -4.011089e-09 2.8330966e-09 2.7139633e-09 3.87937e-10 2.1673206e-10 -3.5565122e-09
3.869544e-09 8.775956e-09 2.6813662e-09 2.6093654e-09 6.436643e-09 4.6768305e-09 5.9851324e-09 1.1164856e-09
3.9659533e-09 2.2657782e-09 3.344647e-09 1.3937687e-08 -2.5579048e-09 3.254475e-09 -1.2497092e-09 6.5948087e-09
2.2877186e-08 2.7628333e-08 -4.0932076e-09 3.7347783e-09 6.312038e-09 -3.822661e-09 -8.529238e-10 6.0024996e-10
5.6775358e-09 1.3637362e-09 2.0192e-09 6.0143632e-09 6.4160433e-09 -3.3058354e-09 -5.47681e-11 3.5763816e-11
-4.774799e-09 -1.6122934e-08 -8.193154e-09 3.6567949e-09 -5.8739e-10 1.8877346e-09 1.2647777e-09 -6.3320607e-09
2.4405515e-09 -1.0511885e-09 -5.218607e-09 -6.9973263e-09 4.846432e-09 -4.718333e-09 -1.2622298e-08 -2.3167432e-09
-3.1887666e-09 -7.4691675e-09 -1.6163513e-08 -2.5046822e-09 -4.726753e-09 -5.891952e-09 -1.1028693e-08 3.9029855e-09
5.7014065e-09 -4.023976e-09 -1.6971306e-08 -5.7158314e-09 -5.673576e-09 -9.415206e-09 -2.1879188e-08 6.54064e-09
-1.921482e-08 1.5001741e-09 -4.8949187e-09 -4.812737e-09 2.341271e-09 3.3481704e-10 1.1071012e-09 1.1995028e-09
-4.923568e-09 4.0255825e-09 -7.0145183e-09 -1.2837603e-08 1.2191143e-09 -2.0957613e-08 -4.051441e-09 -1.0439949e-08
-7.346038e-09 -4.6367417e-09 1.4357926e-09 -1.6243404e-09 -8.33152e-11 2.2428677e-09 -6.505024e-09 2.8891585e-09
00000000: 6217 eaaf 33ed fdb0 e86f a9b0 f761 1830
00000010: d033 0aae 64fd c52f 0c4e b62f b392 83b0
00000020: 619e c92f eee1 37af 9a1b 59b0 9b96 3ab0
00000030: 3106 4830 3b0e 45b0 a2c9 01b1 ef2b c3af
00000040: e3ed 04b0 b388 a0b0 03a6 f6b0 db99 90af
00000050: 5d78 47b0 32b1 10b0 d412 9bb0 9f0f 2330
00000060: 9dd6 6730 5357 26b0 716b 30b1 a79c 6bb0
00000070: 395f 69b0 1c9a c3b0 4caa 2fb1 cfe0 8a30
00000080: fa66 17b1 c256 822f 78a6 dfaf cdc7 45b0
00000090: 7613 c92f 6ad0 392f a1c0 672f 903f cb2f
000000a0: 74b7 4bb0 ac9e 2730 9892 91b0 eab1 05b1
000000b0: 3386 5a2f 4a6b 28b1 57e3 35b0 c6e9 93b0
000000c0: decd 96b0 ddc7 e9af 1b42 9b2f af28 8daf
000000d0: 7814 f52e 596d b92f 0f75 86b0 d331 0530
000000e0: 3f96 9fb0 013e 1a2f 3f8a ccae 6f82 c2af
000000f0: 1a37 f8b0 b5fe 3bb0 f0d8 6730 1651 27b0
00000100: cbb1 16b0 e96a 492f d3d1 1f2f ceae 5530
00000110: a815 65b0 74d0 f6b0 3ac6 16b0 8c3f 1cb0
00000120: c8b6 b5b0 36a7 7db0 d5c8 07b0 67b9 ceaf
00000130: f1f7 65b0 d55c f7af 85e2 3bb0 7065 aeb0
00000140: 76d0 4030 ff71 0eaf bbe9 9c2f 74ad b5b0
00000150: 5c38 46b1 ea09 6bb1 3eb8 6830 9974 7baf
00000160: 23b4 acb0 c151 5d30 d756 0330 90e2 8c2e
00000170: a2c9 9cb0 dc67 0b2e b498 1db0 3710 aab0
00000180: b564 b2b0 f671 4f30 f05c 22ad 08a8 e52e
00000190: 270c cd31 0705 9032 3092 d031 7280 38b1
000001a0: d591 7e30 6dbf 52b0 2275 772f 9dcc 9f31
000001b0: 6cf0 f9b0 3dc0 3f30 da81 8331 c34c 0e32
000001c0: dde3 78b1 161b 6c31 eb66 2232 2527 e430
000001d0: a93c 2031 178c ad31 d03a 9432 3b8a 4231
000001e0: db82 6731 b61d fc31 0a97 5732 811c 44b1
000001f0: c312 96b1 5657 4d31 c347 5532 589b 9231
00000200: d40d 9231 8171 ed31 cff6 bf32 4314 a0b1
00000210: 1c6a ab32 5a96 8bb0 2e2c da31 1f44 7831
00000220: 866a dfb0 e4de 4b30 a0f9 f5af 12d1 3230
00000230: 86c8 7a31 0181 4bb1 f072 b131 2ed3 2032
00000240: 35f1 53b0 5dbd b732 ff13 2731 4815 4b32
00000250: c2b7 bd31 48fe c331 3e1e 0cb0 0f3c 9630
00000260: 87ca 9630 cd27 e5b0 bacc a531 fcf6 edb0
00000270: 53e0 6132 c7a1 3a30 557e f530 ddcc 7430
00000280: f53e 8f32 ab17 6631 e9d1 89b1 5db0 4231
00000290: 8c80 3a31 4745 d52f a74c 6e2f d366 74b1
000002a0: def4 8431 10c5 1632 1843 3831 7150 3331
000002b0: 5029 dd31 d6b1 a031 c8a5 cd31 d872 9930
000002c0: e544 8831 feb3 1b31 a7d7 6531 9872 6f32
000002d0: 23c7 2fb1 54a5 5f31 3cc2 abb0 8d98 e231
000002e0: 7783 c432 5953 ed32 3ca4 8cb1 7553 8031
000002f0: 46e1 d831 7b58 83b1 2d73 6ab0 d6fe 2430
00000300: 2214 c331 346e bb30 24c2 0a31 e6a6 ce31
00000310: 1d74 dc31 df2c 63b1 66df 70ae 7a4a 1d2e
00000320: 930f a4b1 b57e 8ab2 dfc1 0cb2 044b 7b31
00000330: e675 21b0 61b9 0131 69d4 ad30 6591 d9b1
00000340: a3b6 2731 6879 90b0 5a4f b3b1 226d f0b1
00000350: ab85 a631 e51e a2b1 74d9 58b2 9434 1fb1
00000360: 6021 5bb1 bf51 00b2 f1d7 8ab2 d61e 2cb1
00000370: f668 a2b1 2872 cab1 b478 3db2 061b 8631
00000380: 1ae6 c331 4443 8ab1 4cc8 91b2 fc64 c4b1
00000390: 4df1 c2b1 84c0 21b2 d8f0 bbb2 14bc e031
000003a0: d60d a5b2 af2e ce30 2930 a8b1 485d a5b1
000003b0: 13e4 2031 4f11 b82f a928 9830 c1db a430
000003c0: 2a2c a9b1 6651 8a31 5b04 f1b1 608c 5cb2
000003d0: c58d a730 4706 b4b2 da34 8bb1 625b 33b2
000003e0: 6f68 fcb1 3651 9fb1 7655 c530 663f dfb0
000003f0: 4a36 b7ae f220 1a31 cc82 dfb1 9d8a 4631
