TSTE-R/Qcontrol-noisy-comparison/Noisy-0%/Proposed_4090_noisy0/save_model_0222.ckpt-2450000.pt (torch, 270786 bytes, 24 tensors)

linears.0.weight f4 [100, 6]
00000000: 0c23 72c0 8ae1 7ec0 e0ea 7fc0 61cf 70c0
00000010: 94af 78c0 7207 75c0 2a11 a9c0 f89a 9ec0
00000020: 9ca3 adc0 0ab1 a8c0 dfc4 a8c0 dfd4 a5c0
00000030: 6907 7cc0 f89f 8bc0 30da 83c0 20dc 89c0
00000040: 2b28 8dc0 d618 84c0 246f cdc0 09c8 c3c0
00000050: e23a cac0 e371 ccc0 b853 ccc0 6ef1 d6c0
00000060: 9eb5 be40 35a1 b540 2206 bb40 a84d b340
00000070: 77fc bd40 7bd0 b940 90fc c3c0 378b cac0
00000080: 4fe9 c7c0 b685 c3c0 ac46 cbc0 0d59 cac0
00000090: 7513 b940 51ab b740 43bc b240 cf28 bd40
000000a0: b702 b340 c9a2 ba40 4aec b840 923a bf40
000000b0: e360 c240 dc4b c440 09b3 bc40 ab79 bd40
000000c0: cc19 7840 6f5e 8840 8f9d 9240 4782 9f40
000000d0: 4540 9f40 9998 9e40 f3ef b1bf 7caa c0bf
000000e0: b142 fcbf 3f8b 15c0 ec3a 18c0 91f5 2ac0
000000f0: b2e9 c4c0 24fe cdc0 483f c3c0 bdb6 c3c0
00000100: 9454 cdc0 debd c1c0 9f2b c440 87fd c340
00000110: 224f b940 6bc4 c740 cb9d bc40 cc7c bd40
00000120: cde4 bec0 0aae c6c0 3d78 d2c0 3b09 d1c0
00000130: 0f53 c9c0 07d8 cdc0 506a bdc0 6b0a bdc0
00000140: 9726 c0c0 3d06 c0c0 7423 b3c0 1326 c0c0
00000150: 257b c940 b674 c540 5efd ca40 2d3b ca40
00000160: f985 c140 77fe c840 2b51 ccc0 dab1 cfc0
00000170: fca2 cdc0 4a1a cfc0 c67d cec0 5857 d1c0
00000180: 3f71 b240 cc2a b440 0feb b540 023e b840
00000190: 41be b740 00c9 b640 d121 b240 2df5 b440
000001a0: 7484 ba40 752d b440 f041 bd40 1e02 bf40
000001b0: 4743 d0c0 eed5 cec0 3186 cbc0 2aea c3c0
000001c0: 8eb7 c6c0 9dce cbc0 528b b240 725a b540
000001d0: c123 b140 9eef ae40 6084 af40 c7f3 b940
000001e0: 7a7e a240 b25e aa40 b4cd ae40 c80f a340
000001f0: a0b1 a940 7a86 a740 8895 cac0 c17a cec0
00000200: c90e d0c0 077e d5c0 ea8b cac0 a510 cec0
00000210: b843 7240 67a4 7040 c1db 6640 8feb 6f40
00000220: 48b3 7d40 da12 7e40 40b7 c1c0 fc6c c1c0
00000230: cebb c1c0 3e30 c0c0 ca87 bfc0 fb2b cac0
00000240: a6a4 7540 6921 8440 dcbf 8440 c3e7 8340
00000250: 5385 8640 8346 8340 648c c040 4cfa bb40
00000260: e835 b740 777b bb40 97b3 c340 fcb5 bc40
00000270: 4fc1 8540 fde6 8940 3fa5 8a40 dea8 8a40
00000280: be34 8c40 36b9 8740 e807 9a40 f28f 9740
00000290: a1ca 9c40 19de 9940 cc02 9740 c7db 9440
000002a0: 6d9b b7c0 0b1f b9c0 4124 bfc0 e710 b8c0
000002b0: 935e bdc0 f608 c0c0 f2b5 b940 efbf b140
000002c0: aa3c b840 3af6 b340 8812 b640 8dcd bb40
000002d0: 89b5 b040 3d80 ad40 348b af40 b714 b840
000002e0: dd6e bb40 ee68 ad40 8c0a b740 8193 bf40
000002f0: 76ed c040 8fa4 b740 d645 c340 df69 b940
00000300: e95d c4c0 3594 cac0 7876 c9c0 93d0 c3c0
00000310: 157a c4c0 f3f0 cac0 8f3f c1c0 f552 bac0
00000320: 18d6 b6c0 9336 bcc0 be54 bdc0 19dc bcc0
00000330: 07d4 c6c0 51ea c4c0 cb76 c3c0 6755 c3c0
00000340: 0a91 c5c0 7eab bfc0 8c50 4bc0 3bb9 49c0
00000350: b602 69c0 b8ec 7bc0 c222 87c0 2255 8ec0
00000360: 3883 bc40 cad5 be40 b61a c540 d760 c040
00000370: efed c640 40d7 c040 f520 c540 1f55 c840
00000380: 90f1 c740 00d9 bb40 ec28 c440 0069 c740
00000390: 8caa afc0 ae29 aec0 610c a6c0 ed73 acc0
000003a0: 7df3 adc0 d002 adc0 8aa1 9840 c0fd 9940
000003b0: 697f 9540 2e93 9440 0632 9b40 d87b 9340
000003c0: fef0 9ac0 3e9a 90c0 9f57 91c0 0e99 97c0
000003d0: df28 9fc0 c0d7 9ec0 b2e7 9cc0 eef4 9ec0
000003e0: db3a a9c0 b5b2 9cc0 8701 abc0 2aef 9ec0
000003f0: f858 a540 0165 a340 f02a b040 e2b3 ae40
-3.783389 -3.9825158 -3.9987106 -3.7626574 -3.8857164 -3.8285794 -5.283345 -4.956417
-5.426222 -5.271611 -5.274032 -5.1822352 -3.9379523 -4.3632774 -4.120384 -4.3081207
-4.4111533 -4.1280317 -6.419817 -6.1181684 -6.319688 -6.388902 -6.3852196 -6.7169714
5.95967 5.6759286 5.8444986 5.6032295 5.9370685 5.8066993 -6.1245804 -6.329494
-6.24723 -6.110072 -6.352377 -6.3233705 5.783625 5.7396626 5.585481 5.9112315
5.5940814 5.832371 5.778844 5.9758997 6.074327 6.13426 5.896855 5.921102
3.8765745 4.2615275 4.581733 4.984653 4.9765954 4.9561276 -1.3901352 -1.5052028
-1.9707853 -2.336624 -2.3785963 -2.6712382 -6.1535273 -6.437273 -6.101475 -6.116057
-6.4165745 -6.054427 6.130325 6.124698 5.79091 6.242727 5.894262 5.921484
-5.96543 -6.208745 -6.5771775 -6.532377 -6.291389 -6.4326205 -5.9192276 -5.9075217
-6.0047107 -6.0007615 -5.598078 -6.0046477 6.2962823 6.170497 6.3434286 6.3197236
6.047604 6.2810626 -6.384908 -6.4904604 -6.4261456 -6.471959 -6.452853 -6.541912
5.576324 5.630224 5.6849437 5.7575693 5.7419744 5.712036 5.566628 5.6549287
5.8286686 5.630549 5.914299 5.9690084 -6.5082126 -6.4636145 -6.360131 -6.1223345
-6.2099066 -6.3689713 5.579507 5.6672907 5.5356145 5.46675 5.484909 5.811008
5.077939 5.3240595 5.4626102 5.0956764 5.3029327 5.2351656 -6.3307533 -6.4524846
-6.501805 -6.671634 -6.3295794 -6.439532 3.7853832 3.7600343 3.6071627 3.7487524
3.9640675 3.9699006 -6.0536194 -6.0445538 -6.0541754 -6.005889 -5.985326 -6.3178687
3.8381743 4.1290784 4.1484203 4.122041 4.203775 4.1023574 6.0171375 5.874304
5.7253304 5.8588214 6.1156726 5.897215 4.1798472 4.309447 4.3326716 4.3331137
4.3814383 4.2413588 4.813465 4.7363214 4.899735 4.8083615 4.7190914 4.6518283
-5.737723 -5.7850394 -5.9731755 -5.7520633 -5.9177947 -6.001094 5.80346 5.5546794
5.7574053 5.623807 5.689762 5.8688416 5.52216 5.421904 5.4857426 5.7525287
5.857283 5.419059 5.7200375 5.986756 6.028987 5.7388377 6.102275 5.7941737
-6.1364636 -6.3305917 -6.2957115 -6.1192107 -6.1399026 -6.3419127 -6.0390086 -5.8226266
-5.7136345 -5.881662 -5.9165945 -5.9018674 -6.2133822 -6.153603 -6.108251 -6.104175
-6.173955 -5.989684 -3.1767912 -3.1519306 -3.6407905 -3.9363232 -4.222993 -4.447892
5.891018 5.9635973 6.1595106 6.0118213 6.2165446 6.0262756 6.160273 6.2603908
6.2482376 5.8702393 6.1299953 6.2315674 -5.4895687 -5.442588 -5.189011 -5.389151
-5.4359727 -5.4065933 4.769719 4.8122253 4.671803 4.6429663 4.8498564 4.6088676
-4.841918 -4.5188284 -4.541946 -4.7374334 -4.973739 -4.9638367 -4.903283 -4.9673986
-5.2884345 -4.896815 -5.3439364 -4.966695 5.1671104 5.1060796 5.5052414 5.4594584

linears.0.bias f4 [100]
00000000: 9860 2bbe 8a76 b33d 994e c63c 0a45 593d
00000010: c556 463d 3d58 1f3d 7ac8 03bd 89c1 31bc
00000020: cdc1 a7bd 181b 9c3c 137d ec3d 513f 003d
00000030: dbf6 573d bd1e e03d 6f45 353d 2850 033d
00000040: f589 fb3b 3759 5bbd 4a9b 253d 0bb0 acbc
00000050: d15b f6bb 07ec 8f3d 05e0 f7bc 9ada f73d
00000060: fd5e 52bd ee9f 943a 8bfd 11bd e132 05bd
00000070: daba d33d 5d84 cabc cdfa a7bc 8d38 3dbd
00000080: e607 683d 4544 ef3d f998 e53d 2cc4 273d
00000090: 69fe 393d 3764 4f3d 4c4b 1a3d 182f e53d
000000a0: 97b5 083d 1905 ae3d 20b3 48bd 36c6 e53c
000000b0: c37f 12bd 5e19 5c3d b293 ea3c 8911 28bd
000000c0: 3882 e43d 59db b53d 4ab2 80bd 0c0f d73d
000000d0: 43f4 873d ce2a 97bc a57d 3d3d 0ee2 ee3d
000000e0: 76a5 2c3d 9cb9 0d3d ef9b 993d a053 613d
000000f0: 24ea c23c ada1 d73d d2cd 993d 97d8 2fbd
00000100: 7ff7 ec3e a18b e63c 52bd 0b3e f5f8 4fbd
00000110: 7f49 c2bc 29d1 2cbd 616c 493d 30a1 9b3c
00000120: 9876 d63d f8cf 87bc b131 e6bb 0e2c 653d
00000130: 7e20 b83c ce17 403d ac07 ae3d dac4 663d
00000140: a1d1 92bd 2c7e 80bd b255 6abd bb29 d93c
00000150: bfcc 8dbc 6364 333d afa7 46bd c5c1 8fbd
00000160: 1c1b 183d 23ef 103d 70a0 96bc e941 2ebc
00000170: 5a20 6f3d f870 e9bb c655 143d c30e 0b3d
00000180: 26f1 983d f57f 583d bec7 1dbd 4794 81bc
-0.16736066 0.08762844 0.0242074 0.053044356 0.048422594 0.03890251 -0.03217361 -0.010849365
-0.081912614 0.019055888 0.115472935 0.031310383 0.052725654 0.10943363 0.04425567 0.032058865
0.007676358 -0.05355188 0.0404313 -0.021080038 -0.0075182696 0.070274405 -0.030258188 0.12102242
-0.05136012 0.0011339167 -0.035642188 -0.032519225 0.103383735 -0.024721319 -0.020505333 -0.04619651
0.056648158 0.11682943 0.11210818 0.04095857 0.04540864 0.05063268 0.037669465 0.11190623
0.033376303 0.08497066 -0.048998952 0.028048616 -0.035766374 0.05373513 0.02863488 -0.041032348
0.1115765 0.08879728 -0.06284006 0.10500917 0.06638386 -0.018453028 0.046262402 0.1166421
0.042149983 0.03460084 0.07500445 0.05501139 0.023793288 0.10528884 0.0750996 -0.042931166
0.46282575 0.028142752 0.13646439 -0.050774533 -0.023716686 -0.04219166 0.049175624 0.018997759
0.10471839 -0.01657866 -0.0070249666 0.055950217 0.022476431 0.046897702 0.08497557 0.056340076
-0.0716889 -0.062740654 -0.05721063 0.026509156 -0.017309545 0.043796908 -0.04849976 -0.070193805
0.03713523 0.03538431 -0.01838705 -0.010635831 0.058380462 -0.0071240626 0.036214612 0.033949625
0.074678704 0.052856404 -0.038520567 -0.015817774

linears.1.weight f4 [100, 100]
00000000: 2736 71bd aca9 c7bd c30b 3bbc f896 d7be
00000010: 2bbf f1be 8053 e0be 87e0 9b3e c756 aebd
00000020: da7f 8e3e 0481 93be 6e30 b03e 3053 d4be
00000030: 0e88 a9be d151 ce3e 3f97 3ebe 3836 9ebe
00000040: 2324 92be fa96 e63e 0d4f ebbe 563b 7e3e
00000050: 323f 1fbe a57b 91be 9213 013f ad41 bf3e
00000060: 70eb d03d 564e d9bd f94d a03e 7651 983d
00000070: 58f0 153e bfe3 513e f2e6 91bd 53c4 e83e
00000080: a5b2 67be 9b58 aa3e d3a8 ec3e 5a3d 4dbe
00000090: 0404 e9be 9dd9 08bf ac3c d7be f815 413d
000000a0: ba4a 09bf d47e adbe 92fb be3e fa24 c4be
000000b0: 8557 9d3e 9eff 42be 0077 b0be e1ee 833e
000000c0: 0d81 a63e 429b 26be c1cf 663e d8ec b8bd
000000d0: e17c b8bd 0a81 91bd 8fb8 f0bd cfae 813f
000000e0: 7e0e aebe 7cc6 bdbe e911 3bbe 5753 82be
000000f0: 7e82 04bd 4c27 63bd 8fb2 03be fb44 743e
00000100: 6ac6 7c3f 2cdf 5cbe 4749 6bbe 3847 b93e
00000110: 7b6f 3a3e 92fd ad3e a48e 67bd 29c3 4fbe
00000120: 372d 083f f26c 87bd 5bfa 40be 1acc e1be
00000130: d661 7cbe d511 cebe dcb2 1dbe c229 c8be
00000140: 8778 e33e 3abb f63d decd e13e f1c1 483d
00000150: aa8e 8cbc d7f7 23bf c941 a83c 1456 893e
00000160: b69d e5be 9c40 b2be da7b f13c 1b14 333e
00000170: affc 32be c27b 4a3c 45e9 7cbe 1d43 19be
00000180: 6887 14bf 75b6 b9be a84a 593e 8416 36bd
00000190: caba 413e 5197 bf3d eaf6 afbd 3c53 f5bd
000001a0: c348 57be 7396 2fbe cd61 cb3d b66e 413d
000001b0: f775 8cbe 29a1 923e e286 06bd 743e 82bd
000001c0: 38b6 babd c527 58bd 915a 3c3e 4488 92be
000001d0: 6d0a 803d 2985 4dbe ff43 a0bd c7e4 743e
000001e0: fa9a 503e 86f2 a8be fe9c f5be 3033 92be
000001f0: eb72 5e3e a98a 823d 897b bcbe 0850 953d
00000200: c956 713e ad58 063c a455 ac3d 321d ad3e
00000210: 4a7a b3be 37c3 f6bd 0a44 d33d 70ed bd3e
00000220: 13d6 8b3d 84d4 25bd 616c 6e3e 4b04 8abc
00000230: 5fca 063e 6dbe ea3d 2b0c aabe 4526 29be
00000240: b6cd 2a3d 4bab c5bb 1f34 55be 2de4 763e
00000250: 71f5 ee3d 9d11 0d3e 27c6 d0bd 08f3 923e
00000260: a6c8 bbbe b7c3 90bd f2e0 bb3e 9a71 e2bc
00000270: 5326 a3be ae52 e1bc 21f3 fdbd 1b78 ebbd
00000280: f254 a9bd e85c 57be fc8f b0be b916 c33d
00000290: 48e6 0a3f 17d3 58be c6c3 0abe c594 0cbf
000002a0: 0ce6 00bf f3bd 20be 48d3 6c3b 1cf4 54bd
000002b0: 7a2f debd 8666 abbd e9c1 9e3d f836 dabd
000002c0: 2837 633e 317c 193f 4f2d bebe 7965 b83e
000002d0: b933 3bbe 5e5b d5be 1a84 4bbb e37c 89be
000002e0: 91ba 723d abb3 20bc 979c 10be edb3 88bc
000002f0: eb52 b4bd 167c 223f e256 8abe 2fe1 23be
00000300: 245a df3e d34a 3d3c e79f fc3e 3cff aebd
00000310: 8bfb 4fbe 2161 a23e 7575 213e 1752 4b3d
00000320: 79a7 0bbe 4876 9f3e ce57 82bd 0140 883e
00000330: dd74 b7be ccd2 b63e 38bb f8bd e8c5 cc3c
00000340: 0fd2 54be 9828 443e 8328 563f 8240 f13d
00000350: 1d6d 023d e3f5 8d3f 0e03 c43d 5a77 893e
00000360: 52ce 21be 0488 c4be b3b3 0a3e 3c8a 07bd
00000370: 2a85 2f3e f7c9 033f 2681 e6bd 42a3 643f
00000380: ccbe 13bf db94 edbd 472e 14be f7c9 bbbd
00000390: ec1e 7d3f de3d 6ebd db9b 67bd 2fc6 c1be
000003a0: ed0d 993e c4a2 833f bc5c 563f 0aea 4f3e
000003b0: cbf2 033d 95c4 46bd af51 403f 5722 193e
000003c0: defa 883e 157f e33e e4d1 a7be 1578 a1bd
000003d0: 2255 49be b274 1ebc c52d ab3d ea43 ebbd
000003e0: e104 813f 28fa 7a3f d83b 9ebd 5e08 593f
000003f0: 7e6e bd3e 6f8d ce3b 8080 543f a8d8 083f
-0.058889534 -0.09749159 -0.011416378 -0.42107368 -0.47216162 -0.43813705 0.30444738 -0.08512645
0.27831918 -0.2880937 0.3441195 -0.41469717 -0.33111614 0.40296796 -0.18612383 -0.3090074
-0.28543195 0.4503706 -0.45958748 0.24827322 -0.15551451 -0.28414646 0.50420487 0.37354794
0.10201156 -0.106106445 0.31309488 0.074374124 0.14642465 0.20497034 -0.071241274 0.45462283
-0.22626741 0.33270726 0.46222553 -0.20042935 -0.45510876 -0.5345705 -0.42038476 0.04714009
-0.5362965 -0.33885825 0.37301308 -0.3830946 0.30730835 -0.19042823 -0.3446579 0.25768188
0.32520333 -0.16270164 0.2254019 -0.09029549 -0.09008194 -0.071046904 -0.11753952 1.0131472
-0.33995432 -0.37065494 -0.18268551 -0.25454208 -0.03235101 -0.0554574 -0.12861083 0.23854439
0.98740256 -0.21569508 -0.22977172 0.36187148 0.18206589 0.3398252 -0.056532517 -0.20289291
0.5319399 -0.066125765 -0.18845503 -0.4410103 -0.24646696 -0.4024798 -0.1540026 -0.3909436
0.44427893 0.120474294 0.44102377 0.049013082 -0.017157871 -0.6405005 0.020539181 0.26823485
-0.44846886 -0.34814918 0.029478002 0.17488138 -0.17479204 0.012358608 -0.2469836 -0.14967008
-0.58019114 -0.36272016 0.21219885 -0.044455066 0.1891891 0.09355033 -0.08592017 -0.11978766
-0.2102385 -0.17147236 0.099307634 0.047224723 -0.2743375 0.2863858 -0.032843478 -0.06359568
-0.09116787 -0.052772302 0.18393923 -0.28619587 0.062519886 -0.20070328 -0.07825469 0.23915397
0.20371619 -0.3299753 -0.47971338 -0.28554678 0.21723525 0.063741036 -0.36813 0.072906554
0.23568262 0.008199853 0.08414772 0.33811337 -0.35054237 -0.12048953 0.10315712 0.37095213
0.06827941 -0.040485874 0.23283531 -0.01684775 0.13163136 0.11462102 -0.33212408 -0.16518505
0.041700087 -0.0060323826 -0.20820664 0.2411048 0.11667908 0.1377625 -0.101940446 0.28701043
-0.3667652 -0.0706858 0.36695057 -0.02764206 -0.31865177 -0.027505245 -0.12399889 -0.11497518
-0.08268155 -0.21031535 -0.3448485 0.095258184 0.5425763 -0.21174274 -0.13551244 -0.54914504
-0.50351024 -0.1569746 0.0036136676 -0.051990613 -0.10848899 -0.08369164 0.07751829 -0.10655016
0.22189009 0.59955126 -0.37143943 0.36014917 -0.1828145 -0.4167127 -0.003105408 -0.26853094
0.059259955 -0.009808461 -0.14122234 -0.016687358 -0.08804878 0.6347059 -0.2701941 -0.1600387
0.4362346 0.011553484 0.49340746 -0.08544776 -0.203108 0.31714728 0.15767463 0.049638834
-0.13638104 0.3114493 -0.06364404 0.2661133 -0.35831347 0.357077 -0.12145084 0.024996713
-0.20783256 0.1915611 0.83655566 0.11779882 0.03184234 1.1090664 0.09570895 0.2684887
-0.15801361 -0.38385022 0.13545112 -0.033090815 0.17140642 0.5148005 -0.11255102 0.8931161
-0.5771301 -0.116006576 -0.14470778 -0.09169381 0.9887531 -0.05816447 -0.05654512 -0.37846515
0.29893437 1.0284047 0.8373525 0.20304123 0.032213967 -0.04852732 0.7512464 0.14954506
0.26753896 0.44432893 -0.3277732 -0.07884232 -0.19661382 -0.009671377 0.08358339 -0.11487563
1.0079614 0.9803796 -0.07726258 0.8477839 0.3699836 0.0063034813 0.83008575 0.5345559

linears.1.bias f4 [100]
00000000: 14ae 49bd 866e 2abe f66b c93e 0e7a 473e
00000010: d22f a2bd 34c7 0fbf a467 2abf 1d24 cabd
00000020: 1cb5 bcbf 69a2 2cbf c126 133f d120 0a3e
00000030: b217 0ebe a9ed 063f 8b78 5e3d f651 d83f
00000040: 3122 883e 8237 6f3d 9213 923e 65f7 593e
00000050: 43f0 a3bc 156d 81bd 2714 fe3d 5d4c 30bd
00000060: ae3c b73d fbe0 b83e 6d80 f3bd 778a 203e
00000070: 9f71 893e 3c13 903d b71d e8be d54e b13d
00000080: 50ca 40be d03e 0e3e 3d52 10be 6037 963d
00000090: 4c2a c0bd 33c6 8cbc e934 18bf 2665 073e
000000a0: 9069 ed3d f516 8d3d e3fb 943d 09d8 dcbd
000000b0: 8a49 41bc 0686 9e3e 980b a03e 8070 e43e
000000c0: 32b9 da3d 2158 0e3f 5400 083c 47ae fd3e
000000d0: bfa2 bf3d 99fb 1c3e bebb 613e 2894 123f
000000e0: a29c 33bc 5d50 143e 12ec 0dbf d8d4 a6bf
000000f0: 2db5 3bbd cfd4 03be 019d 9a3d e0c4 f83c
00000100: 2860 1abd d73b 153e 1d1e b33e 28f7 e2bc
00000110: 80a7 1b3e 927f 313e f48f f9bd 52a8 353e
00000120: f239 d83e b6b5 14be 7ff1 87bd eb32 49bd
00000130: fdf7 8fbf 009e f2bc 45a5 803e 0be1 74bd
00000140: fbf9 59bd 29e5 0cbe 365e d4bd 4e78 5e3e
00000150: 02a0 393e 9819 8dbd f818 76bc be2b 8fbd
00000160: 9e03 88bd 0984 623e d0bc fd3e b225 8c3e
00000170: a3e7 b43e 14ab 853e 71ee 363e 51a6 9fbf
00000180: f9f8 c03e 2b93 fbbe da81 153e aba6 2c3e
-0.04923828 -0.16643724 0.3934018 0.19480154 -0.07919277 -0.56163335 -0.66564393 -0.09870169
-1.474277 -0.6743532 0.5748101 0.13489081 -0.13876227 0.5270639 0.054314177 1.6900012
0.26588586 0.058402546 0.28530556 0.2128578 -0.020012027 -0.06319634 0.124061875 -0.043041576
0.089471206 0.36109146 -0.1188973 0.1567782 0.268445 0.07034919 -0.4533517 0.08657614
-0.18827176 0.13891149 -0.14093871 0.07334781 -0.093830675 -0.017184353 -0.59455734 0.13222179
0.115924 0.06889144 0.07274606 -0.10783393 -0.011797318 0.30961627 0.31258845 0.4461708
0.106798545 0.55603224 0.0083008595 0.49547026 0.09357213 0.15330352 0.22044274 0.5725732
-0.010962637 0.14483781 -0.5543834 -1.3033705 -0.04582708 -0.12874149 0.07549477 0.030367315
-0.037689358 0.14573608 0.34983912 -0.027705744 0.15200615 0.1733382 -0.1218566 0.1773999
0.4223171 -0.14522442 -0.066378586 -0.049120825 -1.1247555 -0.029616356 0.2512609 -0.05978493
-0.053216916 -0.13759293 -0.10369532 0.2172558 0.18127444 -0.06889647 -0.015020601 -0.06990765
-0.06641315 0.2212068 0.49558115 0.2737251 0.35332975 0.26107085 0.17864396 -1.2472631
0.3768995 -0.49135718 0.14600316 0.16860454

linears.2.weight f4 [100, 100]
00000000: 9bcc 7dbe 1620 343d 6fd8 1cbf d226 cf3d
00000010: a783 a2be de0d f63e 3a99 12be 9f5e 3ebe
00000020: 3fd4 013d 64bf ad3e 61cd 00bf 285f ae3c
00000030: ba76 853b ca17 32be de1d b2be 87f9 ef3e
00000040: 2930 d6be c2d9 3a3f 8a76 86bd f577 b93c
00000050: ea92 e63e e41b 78be db62 763e 4291 cabd
00000060: 3bdd 1cbe f08d 2abe 34b9 3e3e 0a1c 91be
00000070: 4e1a e83d ef00 b8bd fa7a bc3e e154 08be
00000080: 34a0 53be e620 cfbd 26d4 103e bb7a e6bd
00000090: aaef 893d d9a9 df3d 276e 923d e90a c6bd
000000a0: fcfc bd3d dc85 3a3e 59b3 e8bb d03e 86be
000000b0: d3b5 8c3c b924 713e 7a08 8bbe f741 2c3f
000000c0: 18b2 c3bd 1281 f2be 0c24 c6bd 291c a6bd
000000d0: 9c44 533e 727a 803d 6600 3fbd 07d1 8fbd
000000e0: c0ef 0abd 5ab5 963d ca9b 97bd 4eca 9f3c
000000f0: 681d 1d3e a24c bd3d 3232 d9be a854 bbbe
00000100: 9b10 88bd dd0b 70bd 670f 2cbe a3eb cc3e
00000110: 1ce4 a7be 220a 003d 1cb0 233e ec18 cfbe
00000120: ba38 3e3e 6c53 0d3e 5901 aabd bf2c a43e
00000130: b727 ecbe 71e4 2c3d 25a3 03bf a3e4 1ebe
00000140: 5d01 61bd 46c7 b53d 58ef 793e 8065 72bd
00000150: 6af8 7ebc 796f 22be 68fb 13bf c0b2 e2bd
00000160: 536c 1d3d 19c5 ec3c 3ee2 fbbd 8164 1abe
00000170: 0e11 8fbe 5cca 59bd 68c5 f93d 9476 40be
00000180: da26 12bf 89ed 123e ec6d f03d 154a b93d
00000190: c07f 84be 2f57 b73d e403 abbe 6bfc d13e
000001a0: 6bc4 acbe d632 153e 88e6 8bbc 9f58 7abd
000001b0: 60f2 223d 82f6 123e 3b3b 6bbe 0d3a 433d
000001c0: 1771 883e ba83 af3e 8e69 ef3d 76fa a93e
000001d0: 449f f8be 523f 463e 2795 2b3e 0569 013e
000001e0: 51be 403e 0e5c c0bd 03dd 413e dfed e0bb
000001f0: 0437 55be cfb0 bf3d f504 0cbd a18b 8abe
00000200: 11a3 383e 35e4 233c 060c a03d 4a2e 943d
00000210: 843b 1bbf abb7 fbbd a95d c8bb 6bcc 1dbe
00000220: faba 25bb 2106 11be 9db2 be3c a941 9fbe
00000230: 2352 873d c5c2 723e 7410 76bd 2739 a3be
00000240: 09bb 85be 9899 783d 5231 41be 793d 443e
00000250: 16c2 603c 045b 85be 4bff 62bd 7dbf ef3d
00000260: 311a db3e 9b2f babc 24b2 763e 2614 873c
00000270: 2cec 993d 3505 8cbc 32f1 2abe 3879 003e
00000280: 5fd5 833a 2ac3 a2ba 3fb7 69bd d7ba 88be
00000290: ba7d b4be 8791 923d 94ab 0b3d 4546 f83d
000002a0: 7730 f4bc b3ab 703d 8b77 66be ef8b 1abe
000002b0: 1ec0 163d 12a8 d53c 37f9 7ebf 930f 8dbd
000002c0: a566 483e 86b0 7c3e 2393 84be 1750 053d
000002d0: f4db e8be 24b3 eb3c b91c d9be 76fa 09bd
000002e0: d09e cbbd 5cf0 6fbe 0193 6dbf e004 e7be
000002f0: 2aea 91be 3f15 2fbe 118c ee3d 541d bc3e
00000300: fdfe 75be 7a88 ae3e c5fd e6bb 04cd edbd
00000310: 0ed3 85bd afa8 f8bd 8ec2 163e eec9 cebc
00000320: 6ade 323f 565b ba3d 7d13 b43e 94d8 7dbe
00000330: db0f 363f 73eb eebe c132 3fbf 34e4 cb3e
00000340: 83ad a8bf 2873 38be 24a4 693e 3f03 023e
00000350: 4501 563d bb50 a4be 5f6c 1d3f aae2 81bf
00000360: 5268 073f 54e2 803e 3491 b2be 5eea b6be
00000370: 7769 0ebd d7c5 ff3e 2f9a ccbe caaa b03c
00000380: 2929 073f 946c abbe 08c5 5a3d 44c4 983e
00000390: f645 35be 787c 503d b5dd cbbe 1fa4 49bf
000003a0: 51ba 1d3f 8654 133f f3c6 b6bc fa37 1f3f
000003b0: 1744 433e d626 febe 9976 7abe 6549 503f
000003c0: 2098 8ebd abfb 053d b0ee 0c3e f59c 4b3f
000003d0: c683 5d3f 4888 30be c381 fb3e 37e6 963e
000003e0: f9a0 c83e 3574 c93d 04b8 563f deef b1be
000003f0: b49e cfbe 98bc c03d d900 62be 7777 ddbe
-0.24785082 0.043975912 -0.6126775 0.10114826 -0.31741068 0.48057455 -0.14316264 -0.18590783
0.031696554 0.33935082 -0.50313383 0.021285608 0.004072991 -0.17391887 -0.34788412 0.46870062
-0.41833618 0.7298852 -0.06565578 0.022640208 0.45033962 -0.2422939 0.24061148 -0.09890987
-0.15318768 -0.16655707 0.18625337 -0.28341705 0.11333142 -0.08984553 0.36812574 -0.13313629
-0.20666581 -0.10113697 0.14143428 -0.11253878 0.067351654 0.10921068 0.07149916 -0.0967005
0.092767686 0.18215126 -0.007101458 -0.26219797 0.017176544 0.23549165 -0.27154905 0.67288154
-0.09555453 -0.47364098 -0.09674844 -0.0811084 0.20631641 0.062733546 -0.04663124 -0.07022291
-0.03392005 0.07358809 -0.07402761 0.019505646 0.15343249 0.09243132 -0.42421108 -0.36588025
-0.06643792 -0.058605064 -0.1680275 0.40023527 -0.3279122 0.031259663 0.15985149 -0.404487
0.18576327 0.13801354 -0.08301038 0.3206539 -0.4612405 0.042210046 -0.51420814 -0.15516905
-0.05493294 0.08875899 0.24407709 -0.05917883 -0.015562156 -0.15862836 -0.5780549 -0.1106925
0.038433384 0.028902577 -0.12299012 -0.15077402 -0.279427 -0.0531715 0.121958554 -0.18795234
-0.5709053 0.14348425 0.11739716 0.09047333 -0.25878716 0.08952176 -0.33401406 0.41012892
-0.33743605 0.14570174 -0.0170777 -0.061119672 0.039781928 0.14351848 -0.22971813 0.047662783
0.2664878 0.34280187 0.11690055 0.331989 -0.4855901 0.19360092 0.16756116 0.12637718
0.188226 -0.09392558 0.18931966 -0.006864294 -0.20821768 0.093598954 -0.034184415 -0.27059653
0.18030955 0.010003139 0.07814793 0.072353914 -0.6063769 -0.12290891 -0.006114681 -0.1541001
-0.0025288449 -0.14162494 0.023278529 -0.31104782 0.06607463 0.23707111 -0.060074285 -0.3187954
-0.2611926 0.060693353 -0.1886647 0.19164075 0.013718149 -0.26046002 -0.055419248 0.11706445
0.4279342 -0.022727778 0.24091393 0.0164891 0.07515749 -0.017092327 -0.16693571 0.12546241
0.0010058096 -0.0012417783 -0.057059523 -0.26705047 -0.35252172 0.071566634 0.034099177 0.12122778
-0.029808266 0.058757495 -0.2250654 -0.15092443 0.03680431 0.026081119 -0.9959902 -0.06887736
0.19570406 0.24676713 -0.25893506 0.032547083 -0.4548031 0.028771944 -0.42404726 -0.033686124
-0.099424005 -0.23431534 -0.92802435 -0.45120907 -0.28498966 -0.17097948 0.11647809 0.36741126
-0.24023052 0.34088498 -0.0070492947 -0.11611369 -0.06534396 -0.12141549 0.14722654 -0.025242772
0.69870627 0.09099452 0.35171118 -0.24789649 0.71117944 -0.46664008 -0.7468682 0.39822543
-1.3177952 -0.18012679 0.22816521 0.12696551 0.052247304 -0.32092842 0.61493486 -1.0147297
0.52893555 0.25172675 -0.34876406 -0.35725683 -0.034768548 0.49955627 -0.39961383 0.021565814
0.5279718 -0.33481276 0.05341056 0.2983724 -0.17702469 0.050899953 -0.39817587 -0.78766054
0.6161242 0.5755085 -0.022311663 0.6219479 0.19068943 -0.49639004 -0.24459304 0.8136199
-0.06962609 0.032710712 0.13762927 0.7953637 0.86529195 -0.17239487 0.49122438 0.29472515
0.39185312 0.09836618 0.83874536 -0.34753317 -0.40550768 0.094109714 -0.22070636 -0.43255207

linears.2.bias f4 [100]
00000000: 2ba4 75bd e198 45bd 5a3c 203e 7e29 02be
00000010: 5148 07bf 646a 33be f437 8cbd 5c1b a6bc
00000020: 6bf1 71be 1b78 88be 5967 17bd 0faf 48be
00000030: 3b1e 1dbd f01a 7bbe 3bd5 04bf cfbd eebd
00000040: 1741 6bbe bbad 21bf c910 11be 3b94 6fbd
00000050: d6e8 30be 0bd7 0ebf 6ece 86be ba84 dcbd
00000060: e60e 77bf 1ac4 cabe 83e6 b8bd 931c ecbd
00000070: a2a2 62be 8d09 95be 3eca b2bb cf4e 29bd
00000080: 45f3 f0be a262 34be 8779 25bf 8950 e9be
00000090: 3853 31bf cd09 d13c 31cf 8bbc 862c 03be
000000a0: 5453 b4bd 50d7 28be 4ccf 04bf 3859 493d
000000b0: 2d91 1cbf 77ed c7bd 0c5a 0fbd 0be1 5abd
000000c0: 3a0d 9fbe 26a3 45be c7eb 31bf 6bc3 58bd
000000d0: 7194 80bd d371 2ebf fd36 26be 5ae7 a73d
000000e0: ede1 abbc 1182 49bd 518c e6bc 8a64 61bf
000000f0: 03b1 21bb ed39 f93a 3c23 7ebe 9735 c4be
00000100: 1df3 853c 752e 52be 505b d73e 39cc e2bf
00000110: 2162 0fbf 34c3 1dbd 01f3 36bf eedc 863e
00000120: cb72 38bf 4fd1 aabd e833 67bd a0aa 5c3e
00000130: a6cb efbd 339a e1bd 18ed 0bbd 4aa6 023c
00000140: 73a3 04bd 3e6d 2dbf c9f6 6abd 6a91 14bd
00000150: d5dc a13c 8a71 dabc aa2f e0bd 528d b1bd
00000160: 9c70 3abe 6dc6 e53c 30fc efbe 7835 86bf
00000170: 6722 eabd e927 f0bd 4284 82bd 0340 2cbf
00000180: 7da2 3dbe f012 353f e3c8 e1bd 0358 2abf
-0.059971016 -0.0482415 0.15648022 -0.1271114 -0.5284472 -0.17521054 -0.0684661 -0.020276718
-0.2362725 -0.26654133 -0.036963794 -0.1959803 -0.03835891 -0.24521995 -0.51887864 -0.11657297
-0.22974049 -0.63155717 -0.1416656 -0.058490973 -0.1727632 -0.5579688 -0.26329368 -0.10767503
-0.9650711 -0.3960274 -0.090283416 -0.115288876 -0.22132352 -0.2910885 -0.005456238 -0.041334923
-0.470606 -0.1761575 -0.6463856 -0.45569256 -0.69267607 0.025517369 -0.01706657 -0.12809953
-0.08804956 -0.16488385 -0.5187881 0.04915735 -0.6115902 -0.0976209 -0.034997985 -0.053437274
-0.3106478 -0.19300517 -0.6950039 -0.05292074 -0.06278313 -0.6814243 -0.16231914 0.08198424
-0.020981753 -0.049196307 -0.02814308 -0.88044035 -0.0024672158 0.0019014456 -0.24818128 -0.38322136
0.016351277 -0.20525534 0.42061853 -1.7718574 -0.5600911 -0.03851624 -0.71464545 0.2634043
-0.7205016 -0.08340704 -0.056445986 0.21549463 -0.11708765 -0.11015739 -0.034161657 0.007974217
-0.03238244 -0.67744815 -0.05736426 -0.03627149 0.019758621 -0.026665468 -0.10946591 -0.08669533
-0.1820702 0.028048718 -0.4687209 -1.0485067 -0.11432343 -0.11726362 -0.063728824 -0.67285174
-0.18519016 0.7073202 -0.11024644 -0.66540545

linears.3.weight f4 [5, 100]
00000000: 0749 973e 6b85 57b9 756f 633e 2f6e 373e
00000010: 4d38 3e3f 6e7f 443d df6a e93d 0554 01be
00000020: 6ee1 d73e fde3 123e e172 01bc e5f7 943e
00000030: 0d39 b53d 4031 efbf 25a4 a6bf f59c 40be
00000040: 0da9 cf3d f1da 863c 1523 bbbf e327 94be
00000050: c762 26be 5d01 d3bf c237 a33c 9fbd 81bc
00000060: d663 c8bc cf5c 9ebe 19cd 0b3e 86f6 5e3e
00000070: 60d4 0ebe 1906 583f 08dd e2b7 eeba 63bf
00000080: 3ff0 9f3f a820 5bbd cb2e 19be d723 babe
00000090: c6ff a23d b6fa 0a3e ace8 a8be 3e53 1dbd
000000a0: 5f8b 92be ddcf aebe dce6 28bc 87a7 ec3e
000000b0: 8246 903d ccb2 fa3e 400f ed3d 05ee 90be
000000c0: eebd 55be a420 383e 419e e63c 6959 58bd
000000d0: 7807 7ebb 2037 c43c 3c03 2e3e c5af 823f
000000e0: 6800 1ebf 407f 913d 6f0d a23e e909 cb3f
000000f0: b208 213c d3d7 ae3d 7854 58bd c728 87bc
00000100: 157e 06be 8ce8 82bb 0dc1 31bf d3c0 833e
00000110: 849c 37bf 6a35 c1bd 461a 50be 1ade 57bf
00000120: cf8d 753d 81e0 283e cdb4 7c3d d08d 36bf
00000130: 9e13 3e3f 08a7 7cba 5dcf 55be 11e7 05be
00000140: d50a 17be 936a 74be ebb8 07bd 8187 f63f
00000150: 983c 843f 2379 cbbe 7244 f03d 2b37 33be
00000160: 091c 353f af91 a3bd 7293 993f d06f 9e3e
00000170: fdc2 86ba 4ebf b4bb 1547 f236 7645 183d
00000180: baed e33d 0a5f 54be b37c 0f3e bd1e 2a3f
00000190: fe8c bebc 5755 9b38 8e4e c8bc b95a 63bc
000001a0: 0687 16bc f0b7 12bc 0b61 60bd 4af7 9e3d
000001b0: c67d b7bc e062 043d fc6d acbd c688 aabc
000001c0: fb29 9b3c cc2b 763d e166 9dbe 05a5 1bbc
000001d0: 4151 41bc e719 fabd f8b4 853c 628d abbd
000001e0: 64ce 1b3f cc93 bb3d e086 1bbb 902b 52bd
000001f0: 8123 f63d cffd 8b3c 23ae a8bd 557b 93bc
00000200: dd21 3f3e ffef 94be c11c 6e38 303d 9f3c
00000210: d329 49bd 74c6 abba 9a33 b1bb 1117 2d3e
00000220: 8fd4 37bb 29fa 71bc 92d1 573d 3bde 8abc
00000230: c81d 373d f9b4 143d 7967 45bc 5b01 403d
00000240: 3f46 d2bd 393f 22bd cc1a 14bc 6495 813d
00000250: 9f5f 5dbc 9254 5dbc a298 b2bd 9c45 b9bd
00000260: c2e9 7ab9 b95e 0bbe 4949 71bc c469 17bd
00000270: 0f2b e13c a615 f2bb 1634 20bd 5c3e 1bbe
00000280: 679d f13a d929 a3bd e18c 5b3b e7c5 c0ba
00000290: 6e30 883d 0242 c3b9 a4a2 e43b 7469 05bc
000002a0: 47df bdbe 831b 993d 06b9 d43b 0dd4 b43c
000002b0: a3b0 b0bd 66b3 53bc 8e0d d1bd fab3 9d3c
000002c0: cb55 d5bc e503 66b9 5f04 023e a673 8ebb
000002d0: b64b 833c 32ec 7fbe 444a a3bd aada 8ebd
000002e0: fe82 373d c5d9 733d 8a74 1bbd 144c f33b
000002f0: 39ba 83bc 965d d03d f908 293e bd4c 77bc
00000300: f67d 6fb9 7c5f 51bd 88aa a63d 254d 11be
00000310: 4ab8 1abc c625 80bc 74fc 82bd 2066 95be
00000320: 0b70 a3be c118 83bc e3e2 10c0 274a 5cbf
00000330: 5569 3ec0 ecc7 0e3f eb26 87bf 81a6 47bf
00000340: 208e 1a3f 305d dd3f 34c5 05bf 33fa 313f
00000350: f2e3 f5be 2001 3abe 8fcf 18c1 177f 0f3f
00000360: 55da 893f 2f72 3cbe 6c95 6840 956a 2dbf
00000370: 5f58 34be db1b 11c0 5594 f2bd ca29 1a3e
00000380: bf15 1b3e e794 20c0 6eb0 71be 7355 afbd
00000390: b4e2 75bf a2bf 6c41 3ae2 063b 1608 75c0
000003a0: d342 4040 94ae ab3f a4b9 14c0 77bc 8a3e
000003b0: 9bcc 6dc0 78d6 d13e 6624 883e 2c2a acbe
000003c0: d551 3e3f 6e23 ebbe 95ae 323e d012 953f
000003d0: a376 5ebe 5f21 833e 16f1 8fbe e2f5 09bf
000003e0: d513 bcbf cde4 393f 1666 c7bf c79f 86bf
000003f0: 9031 debd 25a2 10bf ad47 7e3e bf4c 5a3f
0.29547903 -0.000205537 0.22210486 0.17913125 0.7430466 0.04797309 0.11397337 -0.12629707
0.42164177 0.14344783 -0.007900924 0.2909538 0.08848772 -1.8686905 -1.3018843 -0.18809874
0.10139666 0.016461821 -1.4620081 -0.2893668 -0.16248618 -1.6484791 0.019924048 -0.015837489
-0.024461668 -0.30930182 0.13652457 0.21773729 -0.13948202 0.84384304 -2.7044225e-05 -0.8895711
1.2495192 -0.05349794 -0.14959256 -0.3635547 0.07958941 0.13572201 -0.32990015 -0.038409464
-0.28621957 -0.34142962 -0.010308947 0.46221563 0.07044698 0.48964536 0.11575174 -0.28306594
-0.20873234 0.17981201 0.028151633 -0.052819643 -0.0038761776 0.023952067 0.16993421 1.0209891
-0.6171937 0.07104349 0.31650874 1.5862399 0.009828733 0.08537259 -0.05281493 -0.016498936
-0.13134034 -0.003995007 -0.694352 0.2573305 -0.717232 -0.09434016 -0.20322523 -0.84323275
0.059949692 0.16491891 0.061695863 -0.7131014 0.74248683 -0.00096379267 -0.20879884 -0.13076426
-0.14750226 -0.2386878 -0.033135336 1.9260103 1.0330992 -0.39740857 0.11731805 -0.17501514
0.70745903 -0.07986771 1.1998122 0.3094468 -0.00102815 -0.0055159694 7.220437e-06 0.037175618
0.11129327 -0.2073938 0.14012413 0.6645315 -0.02326059 7.406872e-05 -0.02445152 -0.01387661
-0.0091874655 -0.008954987 -0.054780047 0.077620104 -0.02239884 0.032320857 -0.08419415 -0.020817172
0.018940916 0.06010036 -0.30742553 -0.009499793 -0.011799158 -0.12211972 0.016321644 -0.08376576
0.608618 0.091590494 -0.0023731515 -0.051311076 0.120184906 0.017088799 -0.08236339 -0.018003145
0.18665262 -0.29089352 5.67704e-05 0.019438356 -0.049112152 -0.0013105408 -0.0054077627 0.1690333
-0.0028050279 -0.0147691155 0.052690096 -0.01695167 0.044706136 0.0363054 -0.012048596 0.046876293
-0.10267305 -0.039611075 -0.009039592 0.06327322 -0.013511567 -0.013508933 -0.08720519 -0.0904648
-0.0002392894 -0.13610353 -0.014726945 -0.0369661 0.027486352 -0.0073878346 -0.039112173 -0.15160507
0.001843375 -0.07966966 0.0033500718 -0.0014707417 0.06649862 -0.00037242478 0.006977396 -0.008142818
-0.3708441 0.074759506 0.006491783 0.02207377 -0.08627441 -0.01292119 -0.102076635 0.019250859
-0.026041886 -0.0002193596 0.1269698 -0.0043472825 0.016027313 -0.24992445 -0.079731494 -0.069753006
0.04480266 0.059533853 -0.037952937 0.0074248407 -0.016080009 0.101741 0.16507329 -0.015093979
-0.0002283974 -0.05111645 0.08137995 -0.14189585 -0.009443352 -0.015643012 -0.06395808 -0.29179478
-0.3192142 -0.016003015 -2.263848 -0.8605065 -2.975179 0.55773807 -1.0558752 -0.7798844
0.60373116 1.7294064 -0.52254033 0.695224 -0.4802547 -0.18164492 -9.5506735 0.560533
1.0769755 -0.18402933 3.63412 -0.67740756 -0.17611836 -2.2673252 -0.11844698 0.15055004
0.15145014 -2.5090883 -0.23602459 -0.0856122 -0.96049047 14.796785 0.002058162 -3.8286185
3.0040786 1.3412652 -2.3238306 0.27096912 -3.7156131 0.4098394 0.2659027 -0.33625925
0.74343616 -0.45925468 0.1744941 1.1646366 -0.21724944 0.25611398 -0.2811362 -0.5389081
-1.4693552 0.7261475 -1.5578029 -1.051751 -0.10849297 -0.5649741 0.2483203 0.85273355

linears.3.bias f4 [5]
00000000: c86d bc3d a853 a0bc f38c b43e ee55 dcbd
00000010: da37 153d
0.092006266 -0.01957114 0.35263786 -0.10758577 0.036430217

exp_avg f4 [100, 6]
00000000: 4b26 9931 4b26 9931 4926 1932 72b9 6532
00000010: 4726 9932 ce6f bf32 0f55 1cb2 1055 1cb2
00000020: 0655 9cb2 7f7f eab2 f554 1cb3 266a 43b3
00000030: 9803 1d30 8b03 1d30 7a03 9d30 3a85 eb30
00000040: 5503 1d31 4d44 4431 64d3 6530 4fd3 6530
00000050: 5bd3 e530 7c5e 2c31 78d3 6531 19a4 8f31
00000060: 2b33 e1b2 3533 e1b2 3733 61b3 60e6 a8b3
00000070: 2033 e1b3 f9bf 0cb4 805b 1532 825b 1532
00000080: 7b5b 9532 3709 e032 6b5b 1533 3cb2 3a33
00000090: 3e59 93b1 3959 93b1 3659 13b2 ba05 5db2
000000a0: 3259 93b2 712f b8b2 543e ebb1 483e ebb1
000000b0: 483e 6bb2 ba6e b0b2 4d3e ebb2 e006 13b3
000000c0: 01b6 f331 fdb5 f331 f6b5 7332 75c8 b632
000000d0: d0b5 f332 a151 1833 3032 a2af 3232 a2af
000000e0: 2332 22b0 414b 73b0 1f32 a2b0 a6be cab0
000000f0: 567c b030 7f7c b030 3f7c 3031 6e5d 8431
00000100: a87c b031 4b9c dc31 3f2a 37b2 3c2a 37b2
00000110: 3c2a b7b2 b25f 09b3 3a2a 37b3 acf4 64b3
00000120: 2161 bf30 2861 bf30 0861 3f31 ce88 8f31
00000130: 1461 bf31 6339 ef31 a07c c7b0 de7c c7b0
00000140: 887c 47b1 4d9d 95b1 9e7b c7b1 975a f9b1
00000150: 08a0 51b2 06a0 51b2 00a0 d1b2 fd37 1db3
00000160: f59f 51b3 fc03 83b3 ea4b 4532 e74b 4532
00000170: e94b c532 f5f8 1333 de4b 4533 d59e 7633
00000180: 29c9 47b2 31c9 47b2 23c9 c7b2 e9d6 15b3
00000190: 11c9 47b3 6cbb 79b3 222b 8630 152b 8630
000001a0: 122b 0631 7040 4931 142b 8631 96b5 a731
000001b0: 119c 9931 0e9c 9931 0e9c 1932 f069 6632
000001c0: f69b 9932 d902 c032 b55d 7cb1 b65d 7cb1
000001d0: ae5d fcb1 1546 3db2 8f5d 7cb2 6cba 9db2
000001e0: d15a 62b1 c85a 62b1 ce5a e2b1 16c4 29b2
000001f0: bf5a 62b2 ae78 8db2 cda6 702f 65a6 702f
00000200: 3ca6 f02f 657d 3430 71a6 7030 4268 9630
00000210: 3f25 1a30 4a25 1a30 5e25 9a30 f337 e730
00000220: 4825 1a31 9fae 4031 078b 07b1 ff8a 07b1
00000230: e58a 87b1 6a50 cbb1 e08a 07b2 816d 29b2
00000240: 7529 b830 6529 b830 7529 3831 2f1f 8a31
00000250: 4529 b831 a333 e631 aed0 19b2 b4d0 19b2
00000260: aad0 99b2 10b9 e6b2 96d0 19b3 c844 40b3
00000270: 2465 192f be64 192f ee64 992f 6117 e62f
00000280: 6a65 1930 1cbe 3f30 53bc 0eb0 4bbc 0eb0
00000290: 32bc 8eb0 3e1a d6b0 11bc 0eb1 0e6b 32b1
000002a0: 0eed 8ab1 22ed 8ab1 1ced 0ab2 b163 50b2
000002b0: e3ec 8ab2 21a8 adb2 cf23 48b1 d523 48b1
000002c0: cb23 c8b1 d71a 16b2 c523 48b2 b22c 7ab2
000002d0: 3d84 f9b0 2784 f9b0 1c84 79b1 1323 bbb1
000002e0: 0384 f9b1 85f2 1bb2 cdf9 b1b1 c2f9 b1b1
000002f0: c5f9 31b2 3b7b 85b2 a4f9 b1b2 0278 deb2
00000300: 9788 8631 9888 8631 8688 0632 9ecc 4932
00000310: 7d88 8632 612a a832 826a 10b0 e169 10b0
00000320: 7769 90b0 9e9e d8b0 1e69 10b1 2783 34b1
00000330: 7fbe 27af a7bf 27af 11c1 a7af 45a0 fbaf
00000340: 9abd 27b0 51a5 51b0 edd2 e4b0 e7d2 e4b0
00000350: e0d2 64b1 259e abb1 c3d2 e4b1 ba03 0fb2
00000360: 249c 33b2 279c 33b2 199c b3b2 15b5 06b3
00000370: 1a9c 33b3 1283 60b3 d1e4 74b2 cee4 74b2
00000380: cbe4 f4b2 9dab 37b3 bde4 74b3 f00e 99b3
00000390: 754c 2d32 764c 2d32 6f4c ad32 4cf9 0133
000003a0: 664c 2d33 599f 5833 65c0 d0b1 5ec0 d0b1
000003b0: 54c0 50b2 4390 9cb2 49c0 d0b2 2e78 02b3
000003c0: ba86 ad31 ac86 ad31 9486 2d32 ea24 8232
000003d0: 8486 ad32 21e8 d832 2c40 1bb2 2d40 1bb2
000003e0: 2840 9bb2 32e0 e8b2 1840 1bb3 1010 42b3
000003f0: 0634 ddaf d233 ddaf cd33 5db0 dfe6 a5b0
4.4572395e-09 4.4572395e-09 8.914477e-09 1.337172e-08 1.782895e-08 2.228617e-08 -9.099735e-09 -9.099736e-09
-1.8199454e-08 -2.7299164e-08 -3.639885e-08 -4.5498517e-08 5.7121374e-10 5.71213e-10 1.1424242e-09 1.7136366e-09
2.28484e-09 2.8560578e-09 8.361012e-10 8.361e-10 1.6722014e-09 2.5083002e-09 3.3444092e-09 4.1805035e-09
-2.6216716e-08 -2.6216734e-08 -5.2433474e-08 -7.8650146e-08 -1.04866785e-07 -1.3108355e-07 8.693746e-09 8.693748e-09
1.7387483e-08 2.6081223e-08 3.477491e-08 4.3468603e-08 -4.2884087e-09 -4.2884065e-09 -8.57681e-09 -1.2865195e-08
-1.7153614e-08 -2.1441993e-08 -6.846486e-09 -6.8464807e-09 -1.3692961e-08 -2.053945e-08 -2.7385932e-08 -3.4232357e-08
7.0929222e-09 7.0929205e-09 1.4185835e-08 2.1278746e-08 2.8371602e-08 3.54645e-08 -2.950329e-10 -2.9503294e-10
-5.9006505e-10 -8.850983e-10 -1.1801297e-09 -1.475162e-09 1.2841024e-09 1.2841069e-09 2.5681997e-09 3.8523273e-09
5.136446e-09 6.420611e-09 -1.0661608e-08 -1.0661605e-08 -2.132321e-08 -3.1984833e-08 -4.2646413e-08 -5.3307915e-08
1.3924685e-09 1.3924693e-09 2.7849314e-09 4.1774006e-09 5.569868e-09 6.9623396e-09 -1.4514576e-09 -1.4514645e-09
-2.90291e-09 -4.3543538e-09 -5.805716e-09 -7.2571527e-09 -1.2201788e-08 -1.2201786e-08 -2.4403562e-08 -3.6605332e-08
-4.8807085e-08 -6.1008876e-08 1.148417e-08 1.1484167e-08 2.2968338e-08 3.445253e-08 4.5936638e-08 5.7420795e-08
-1.1629063e-08 -1.162907e-08 -2.3258115e-08 -3.4887226e-08 -4.6516167e-08 -5.814529e-08 9.762042e-10 9.762028e-10
1.952405e-09 2.9285978e-09 3.9048107e-09 4.8809836e-09 4.4706288e-09 4.4706274e-09 8.941255e-09 1.3411849e-08
1.7882467e-08 2.2353037e-08 -3.6724093e-09 -3.6724095e-09 -7.3448154e-09 -1.1017183e-08 -1.4689603e-08 -1.836198e-08
-3.2938952e-09 -3.2938932e-09 -6.587789e-09 -9.8816795e-09 -1.3175565e-08 -1.646944e-08 2.1887132e-10 2.1886988e-10
4.3773862e-10 6.5661815e-10 8.754802e-10 1.0943568e-09 5.6077804e-10 5.6077865e-10 1.1215595e-09 1.6823364e-09
2.2431141e-09 2.8038938e-09 -1.9724113e-09 -1.9724096e-09 -3.9448076e-09 -5.9172196e-09 -7.889611e-09 -9.861993e-09
1.3399545e-09 1.3399527e-09 2.679909e-09 4.0198738e-09 5.3597966e-09 6.6997514e-09 -8.95322e-09 -8.953226e-09
-1.7906434e-08 -2.685968e-08 -3.5812796e-08 -4.476604e-08 1.3951201e-10 1.395106e-10 2.7902253e-10 4.1853368e-10
5.5805194e-10 6.9755557e-10 -5.1926924e-10 -5.192688e-10 -1.0385348e-09 -1.5578008e-09 -2.0770623e-09 -2.5963263e-09
-4.0432786e-09 -4.0432875e-09 -8.08657e-09 -1.2129861e-08 -1.6173038e-08 -2.0216307e-08 -2.9124185e-09 -2.9124199e-09
-5.8248353e-09 -8.737252e-09 -1.1649665e-08 -1.4562078e-08 -1.8154719e-09 -1.8154694e-09 -3.6309364e-09 -5.4464038e-09
-7.261862e-09 -9.07733e-09 -5.179777e-09 -5.179772e-09 -1.0359547e-08 -1.5539277e-08 -2.0719035e-08 -2.5898775e-08
3.9154417e-09 3.915442e-09 7.830868e-09 1.1746264e-08 1.566172e-08 1.9577046e-08 -5.253825e-10 -5.253736e-10
-1.0507354e-09 -1.576115e-09 -2.101451e-09 -2.6267999e-09 -1.525624e-10 -1.525665e-10 -3.0514305e-10 -4.5770512e-10
-6.1023686e-10 -7.6268686e-10 -1.6649132e-09 -1.6649125e-09 -3.3298235e-09 -4.994734e-09 -6.659634e-09 -8.324543e-09
-1.0454674e-08 -1.0454676e-08 -2.0909328e-08 -3.1364e-08 -4.181866e-08 -5.2273272e-08 -1.4254696e-08 -1.4254693e-08
-2.8509382e-08 -4.276409e-08 -5.7018713e-08 -7.127335e-08 1.008731e-08 1.00873105e-08 2.0174609e-08 3.0261887e-08
4.0349185e-08 5.0436345e-08 -6.0754695e-09 -6.0754664e-09 -1.2150924e-08 -1.8226393e-08 -2.4301828e-08 -3.0377286e-08
5.0502793e-09 5.050273e-09 1.0100525e-08 1.5150778e-08 2.0201021e-08 2.525127e-08 -9.036778e-09 -9.036779e-09
-1.807355e-08 -2.7110307e-08 -3.6147043e-08 -4.5183754e-08 -4.023663e-10 -4.0236486e-10 -8.0472945e-10 -1.2070948e-09

exp_avg_sq f4 [100, 6]
00000000: 44c0 6828 44c0 6828 44c0 6829 25ec 022a
00000010: 3ec0 682a 1dd6 b52a bc9f dc29 bb9f dc29
00000020: b49f dc2a 8633 782b 919f dc2b 935c 2c2c
00000030: bb27 8827 bb27 8827 b427 8828 a92c 1929
00000040: a727 8829 ecbd d429 9a7e 6b29 977e 6b29
00000050: 967e 6b2a 3477 042b 887e 6b2b d6fa b72b
00000060: cf50 932b cd50 932b c950 932c d8ba 252d
00000070: c150 932d 212e e62d 994c 4d2a 984c 4d2a
00000080: 944c 4d2b 28f6 e62b 854c 4d2c b263 a02c
00000090: 064f 9329 054f 9329 034f 932a e0b8 252b
000000a0: fa4e 932b 472b e62b 7447 042a 7447 042a
000000b0: 7247 042b 6bd0 942b 6647 042c 91af 4e2c
000000c0: 90e1 8629 8ce1 8629 85e1 862a aabd 172b
000000d0: 6de1 862b 3fc0 d22b 3786 7c25 3386 7c25
000000e0: 2186 7c26 770b 0e27 f685 7c27 a048 c527
000000f0: 433e bb2a 443e bb2a 403e bb2b 07a6 522c
00000100: 283e bb2c 7248 122d b92c 3a2a b92c 3a2a
00000110: b72c 3a2b 3972 d12b a82c 3a2c eb72 912c
00000120: 84d6 4829 83d6 4829 81d6 482a 56f1 e12a
00000130: 73d6 482b 88e7 9c2b 6b02 032b 6902 032b
00000140: 6602 032c a462 932c 5a02 032d 8ab3 4c2d
00000150: 6d52 532a 6c52 532a 6952 532b c5bc ed2b
00000160: 5f52 532c 6d18 a52c 6e34 862a 6d34 862a
00000170: 6a34 862b f6fa 162c 6034 862c c4b1 d12c
00000180: 31a6 952a 30a6 952a 2ea6 952b e95a 282c
00000190: 21a6 952c 83d3 e92c cec8 1a29 ccc8 1a29
000001a0: c6c8 1a2a d321 ae2a b7c8 1a2b 87d9 712b
000001b0: fc8d cf29 fc8d cf29 fb8d cf2a ac7f 692b
000001c0: e58d cf2b d126 222c 174e 8b29 164e 8b29
000001d0: 144e 8b2a ddb7 1c2b 094e 8b2b f4a9 d92b
000001e0: 3631 9128 3431 9128 3331 9129 5c57 232a
000001f0: 2c31 912a d1dc e22a 8369 322a 8369 322a
00000200: 7e69 322b a4b6 c82b 6569 322c 4a62 8b2c
00000210: 02d3 2b27 fed2 2b27 f3d2 2b28 504d c128
00000220: d0d2 2b29 ac3c 8629 53e8 aa2a 50e8 aa2a
00000230: 49e8 aa2b 5445 402c 33e8 aa2c 5a85 052d
00000240: be91 1429 be91 1429 b891 142a d723 a72a
00000250: 9c91 142b 7823 682b 4ba2 572a 4aa2 572a
00000260: 48a2 572b 6a96 f22b 36a2 572c ab76 a82c
00000270: 0a74 8d27 0874 8d27 fd73 8d28 5722 1f29
00000280: e073 8d29 f004 dd29 43e5 9f27 3fe5 9f27
00000290: 3be5 9f28 c4e1 3329 22e5 9f29 fdd5 f929
000002a0: 4847 3a2b 4647 3a2b 3d47 3a2c 2f90 d12c
000002b0: 2747 3a2d 8a87 912d 4c50 de28 4c50 de28
000002c0: 4950 de29 3c1a 7a2a 3e50 de2a 9dae 2d2b
000002d0: 5e34 0529 5e34 0529 5b34 052a eada 952a
000002e0: 5034 052b c021 502b ee4e 112a ec4e 112a
000002f0: e94e 112b d378 a32b d44e 112c 370b 632c
00000300: b1d4 252a b1d4 252a aed4 252b 338f ba2b
00000310: 9dd4 252c 0c8e 812c f355 9d2a f055 9d2a
00000320: ef55 9d2b a500 312c e355 9d2c 14d6 f52c
00000330: 9205 202b 9105 202b 8d05 202c 2506 b42c
00000340: 7405 202d 7408 7a2d 8da2 1f27 8ba2 1f27
00000350: 7fa2 1f28 be96 b328 63a2 1f29 a26d 7929
00000360: 3609 1a2a 3609 1a2a 3309 1a2b 534a ad2b
00000370: 2809 1a2c 29ae 702c 0b4a a92a 0b4a a92a
00000380: 024a a92b 4573 3e2c f349 a92c be41 042d
00000390: a910 bb2a a610 bb2a a210 bb2b 9c72 522c
000003a0: 8f10 bb2c df24 122d eb20 f828 eb20 f828
000003b0: e920 f829 7592 8b2a d520 f82a 97d9 412b
000003c0: c4f0 5a2a c2f0 5a2a b9f0 5a2b c04e f62b
000003d0: a0f0 5a2c ef0b ab2c 76d7 b629 72d7 b629
000003e0: 69d7 b62a 45b2 4d2b 4dd7 b62b 18d8 0e2c
000003f0: 0cd2 8d28 0bd2 8d28 0ad2 8d29 428c 1f2a
1.2920278e-14 1.2920278e-14 5.1681112e-14 1.1628249e-13 2.0672437e-13 3.230063e-13 9.797672e-14 9.7976714e-14
3.9190667e-13 8.81788e-13 1.5676229e-12 2.449406e-12 3.779066e-15 3.779066e-15 1.5116252e-14 3.401156e-14
6.046492e-14 9.4476374e-14 5.229029e-14 5.229028e-14 2.0916111e-13 4.706125e-13 8.366437e-13 1.3072553e-12
1.0467407e-12 1.0467405e-12 4.1869602e-12 9.420652e-12 1.6747827e-11 2.6168458e-11 1.8234233e-13 1.8234231e-13
7.2936904e-13 1.6410805e-12 2.917473e-12 4.558542e-12 6.54182e-14 6.541819e-14 2.616727e-13 5.887634e-13
1.0466899e-12 1.6354495e-12 1.1748745e-13 1.1748745e-13 4.699497e-13 1.057388e-12 1.8797962e-12 2.937182e-12
5.989924e-14 5.9899216e-14 2.3959667e-13 5.390919e-13 9.583841e-13 1.4974756e-12 2.190299e-16 2.1902984e-16
8.761184e-16 1.9712674e-15 3.5044646e-15 5.4757224e-15 3.3261076e-13 3.3261078e-13 1.3304427e-12 2.9934959e-12
5.3217604e-12 8.315225e-12 1.6535635e-13 1.6535635e-13 6.614253e-13 1.4882046e-12 2.645698e-12 4.1339063e-12
4.4594984e-14 4.459498e-14 1.783799e-13 4.013549e-13 7.135188e-13 1.114873e-12 4.6543905e-13 4.6543894e-13
1.861755e-12 4.1889426e-12 7.44701e-12 1.1635923e-11 1.8769162e-13 1.876916e-13 7.5076626e-13 1.6892257e-12
3.0030629e-12 4.692294e-12 2.3839562e-13 2.383956e-13 9.53582e-13 2.1455593e-12 3.814324e-12 5.9598732e-12
2.6583035e-13 2.6583033e-13 1.0633211e-12 2.3924701e-12 4.2532787e-12 6.645741e-12 3.436904e-14 3.4369033e-14
1.3747605e-13 3.093208e-13 5.499034e-13 8.592228e-13 9.217277e-14 9.217277e-14 3.6869105e-13 8.295541e-13
1.4747618e-12 2.3043132e-12 6.1863864e-14 6.186386e-14 2.4745538e-13 5.5677495e-13 9.898203e-13 1.5465949e-12
1.6119576e-14 1.6119572e-14 6.447828e-14 1.4507617e-13 2.5791294e-13 4.0298887e-13 1.5846183e-13 1.5846183e-13
6.3384703e-13 1.4261548e-12 2.5353827e-12 3.96153e-12 2.3845405e-15 2.3845396e-15 9.538149e-15 2.1460833e-14
3.8152478e-14 5.96132e-14 3.0359274e-13 3.0359265e-13 1.2143699e-12 2.7323326e-12 4.85747e-12 7.589785e-12
3.2989013e-14 3.2989013e-14 1.3195597e-13 2.9690028e-13 5.2782236e-13 8.247218e-13 1.9152143e-13 1.9152141e-13
7.6608555e-13 1.7236882e-12 3.0643383e-12 4.788022e-12 3.926117e-15 3.9261163e-15 1.5704447e-14 3.5334877e-14
6.281759e-14 9.815228e-14 4.437993e-15 4.4379914e-15 1.7751959e-14 3.9941805e-14 7.1007666e-14 1.10949424e-13
6.6179397e-13 6.6179386e-13 2.6471735e-12 5.956145e-12 1.0588675e-11 1.6544783e-11 2.4681774e-14 2.4681774e-14
9.872708e-14 2.2213562e-13 3.94908e-13 6.170427e-13 2.9577354e-14 2.9577354e-14 1.1830937e-13 2.661962e-13
4.732369e-13 7.394328e-13 1.2905971e-13 1.2905969e-13 5.162386e-13 1.1615382e-12 2.0649498e-12 3.2264866e-12
1.4728736e-13 1.4728736e-13 5.891493e-13 1.3255841e-12 2.3565934e-12 3.682171e-12 2.7948442e-13 2.7948433e-13
1.1179372e-12 2.515357e-12 4.4717437e-12 6.9870863e-12 5.685115e-13 5.6851144e-13 2.2740449e-12 5.11659e-12
9.096158e-12 1.4212732e-11 2.2153802e-15 2.2153797e-15 8.861509e-15 1.9938366e-14 3.544594e-14 5.5384198e-14
1.3681143e-13 1.3681143e-13 5.4724557e-13 1.2313018e-12 2.18898e-12 3.420273e-12 3.0071808e-13 3.0071808e-13
1.2028714e-12 2.7064611e-12 4.811479e-12 7.517929e-12 3.3229433e-13 3.3229425e-13 1.3291766e-12 2.9906416e-12
5.316698e-12 8.307326e-12 2.7547807e-14 2.7547807e-14 1.10191214e-13 2.4792985e-13 4.4076431e-13 6.886934e-13
1.9445822e-13 1.9445819e-13 7.778323e-13 1.7501209e-12 3.1113237e-12 4.861437e-12 8.1198e-14 8.1197974e-14
3.2479165e-13 7.307803e-13 1.2991636e-12 2.029937e-12 1.5745238e-14 1.5745236e-14 6.298094e-14 1.4170699e-13

exp_avg f4 [100]
00000000: 3368 0537 6f82 c7b6 2cc3 5836 e333 1937
00000010: 42e6 63b8 24d9 bc37 4898 3fb7 7828 beb7
00000020: 9d7c c736 6f13 7db2 12ed 8337 18df d5b7
00000030: a53c 1a37 abed 3237 eda5 ecb7 16fb 0438
00000040: 3168 f5b7 c66e 6eb6 1110 8237 561d 53b7
00000050: 6fe9 36b7 f502 1c37 bea7 a8b5 681c 1737
00000060: 5a86 1836 76c9 d5b7 6fec 19b6 45e6 44b6
00000070: a545 3337 09b9 2db7 7d9a 16b7 fbf5 51b7
00000080: f010 5f37 3ffa 0637 3712 8c37 a456 5eb5
00000090: 5a35 cdb7 fff4 07b8 6c81 b137 97ef 46b7
000000a0: d091 1037 2633 dfb6 e013 95b6 4703 eeb7
000000b0: 8c21 45b7 2e46 95b7 aad5 e837 6e76 fdb7
000000c0: d792 9437 33bc 37b6 3b14 9037 4562 31b6
000000d0: 4085 7f37 e4f2 8cb5 a3b8 a737 0bea 0338
000000e0: 636b 7737 5dd1 ed37 f77f 5937 b4b8 8d37
000000f0: 2b41 89b7 5c0c 1536 26d0 7737 d3a8 b9b7
00000100: 8ada 6a38 b276 e137 4823 86b6 1b6b 6bb6
00000110: 4bbc 93b5 e55b 09b6 4ae7 86b7 b9ef ccb7
00000120: c147 4137 12e4 d2b6 0a14 d3b7 00d8 6a37
00000130: 9cfe 62b7 4b47 3bb6 18e1 2837 0220 cab5
00000140: f9a7 7836 851e 3036 0b89 9fb5 1627 0c38
00000150: 0d55 17b7 c424 4db8 9030 ea37 02a6 f136
00000160: 7dc6 de36 5378 a6b5 f8cb cf37 1da8 1538
00000170: 7e31 96b6 2b42 7eb7 ebb3 bf35 410e b8b7
00000180: 4b59 12b8 aedc 7636 a553 d6b7 8d53 dbb6
7.9516785e-06 -5.9458466e-06 3.2300113e-06 9.1315915e-06 -5.433546e-05 2.251246e-05 -1.1419943e-05 -2.266861e-05
5.945169e-06 -1.4730957e-08 1.5726811e-05 -2.5495465e-05 9.193235e-06 1.0664963e-05 -2.8210658e-05 3.1705094e-05
-2.9254794e-05 -3.5529242e-06 1.550469e-05 -1.258341e-05 -1.0902396e-05 9.299013e-06 -1.2565795e-06 9.006915e-06
2.2727968e-06 -2.5485391e-05 -2.29364e-06 -2.934031e-06 1.0685447e-05 -1.0354685e-05 -8.976666e-06 -1.2514643e-05
1.3295779e-05 8.045287e-06 1.6697782e-05 -8.2827523e-07 -2.4462748e-05 -3.241468e-05 2.1160311e-05 -1.18575035e-05
8.6170185e-06 -6.6518724e-06 -4.44286e-06 -2.8373337e-05 -1.1749926e-05 -1.7794864e-05 2.775605e-05 -3.0215098e-05
1.7711352e-05 -2.7378671e-06 1.7175558e-05 -2.6432256e-06 1.5230209e-05 -1.0501503e-06 1.999393e-05 3.1450803e-05
1.474735e-05 2.8350094e-05 1.2964002e-05 1.6894519e-05 -1.6362019e-05 2.2209924e-06 1.4770811e-05 -2.2132333e-05
5.5993478e-05 2.6877362e-05 -3.9976185e-06 -3.5080072e-06 -1.1007154e-06 -2.046808e-06 -1.6081747e-05 -2.4430325e-05
1.1520403e-05 -6.2850386e-06 -2.5162492e-05 1.3997778e-05 -1.3529931e-05 -2.790667e-06 1.0065989e-05 -1.5059488e-06
3.7052653e-06 2.6243808e-06 -1.1886308e-06 3.3415003e-05 -9.020104e-06 -4.891005e-05 2.7917587e-05 7.2016855e-06
6.6392226e-06 -1.2402983e-06 2.4771303e-05 3.5680936e-05 -4.47611e-06 -1.5154986e-05 1.4282972e-06 -2.1941147e-05
-3.4892273e-05 3.678531e-06 -2.5549738e-05 -6.536435e-06
