TSTE-R/CHP-failed-case/Proposed-Method/save_model_0228.ckpt-950000.pt (torch, 269855 bytes, 24 tensors)

linears.0.weight f4 [100, 6]
00000000: 8667 1941 d615 1a41 7206 1b41 f2ca 1941
00000010: ce80 1c41 9f30 1a41 b13f 2fc1 cef0 2dc1
00000020: b995 2fc1 ad7a 33c1 acbd 2fc1 aeb1 32c1
00000030: eb7a f540 f699 f540 acdb 0141 eda7 ff40
00000040: 499d f740 8b84 f940 75af c740 3dc7 be40
00000050: 5e65 be40 90a0 be40 a02a ca40 40dc c840
00000060: 7a2c e040 5e7e e440 079f e240 e3b1 e140
00000070: b2e2 da40 05dc df40 44a5 8ec1 7e6b 8ec1
00000080: 3288 8dc1 7b9e 8dc1 9777 8dc1 0626 8dc1
00000090: 2950 7941 f292 7341 053e 7441 ae44 7241
000000a0: 4a80 7541 cf00 7341 6aeb 8740 d966 8340
000000b0: 55ea 8640 5404 7940 2a8c 8a40 573b 8640
000000c0: 0ffb 89c2 6504 8ac2 d83a 8ac2 73e6 89c2
000000d0: e2e2 89c2 83fb 89c2 03f2 24c1 d712 2ac1
000000e0: 2c83 26c1 b755 29c1 b613 26c1 511e 2ac1
000000f0: 0ee9 0241 1518 0541 fa7e 0141 5df5 0341
00000100: 8a13 0641 71a0 0041 3a34 0141 723c ff40
00000110: 4d61 f840 ff98 f940 9858 0041 68a0 0141
00000120: fe7a 1341 eb57 1041 c60f 1241 e97e 1041
00000130: 42ac 1141 22cd 0f41 fb2f 7dc2 91ef 7ec2
00000140: 2a64 7dc2 ea73 7dc2 c138 7ec2 6381 7ec2
00000150: eae7 fcc1 90b3 fcc1 e819 ffc1 db46 fec1
00000160: 92c5 fcc1 2969 fec1 a6fb f4c0 a2ef fac0
00000170: 30ac f4c0 1060 f4c0 432d f5c0 7af2 f8c0
00000180: 9c00 11c2 39e3 11c2 8808 12c2 afcc 10c2
00000190: 8936 11c2 e8a4 10c2 cfd9 8541 fa42 8541
000001a0: dd12 8741 cea3 8541 2e40 8741 5ae1 8441
000001b0: 3447 a3c1 f1b3 a2c1 4e3d a1c1 beb3 a3c1
000001c0: 51fd a0c1 340e a3c1 a91a 91c2 e51a 91c2
000001d0: 6c67 91c2 5491 91c2 a2d7 91c2 e879 91c2
000001e0: 8c93 d140 679f cc40 fb9a d240 d4c0 d540
000001f0: 68f8 d840 5fb3 cd40 01d3 db41 bb99 d841
00000200: 8e89 da41 7b5a d941 d40e d941 15d2 d841
00000210: f661 ed40 7f34 f140 9bf7 f240 6128 ea40
00000220: b303 ed40 85c1 f240 5860 08c1 4d6e 04c1
00000230: 6b05 07c1 54ee 09c1 5fd9 06c1 3bcb 09c1
00000240: 0344 f140 c3fa fa40 e1bc f240 003d fa40
00000250: b87f f640 897c f340 3ddb f340 bd40 f340
00000260: ed57 0041 9d48 fd40 1148 f340 d900 f840
00000270: ed8d 4241 23e0 4341 f967 3d41 89ca 4041
00000280: bd22 3d41 a1a3 3c41 2e2d dbc0 cb63 dac0
00000290: a072 e3c0 5e24 dfc0 0de6 e2c0 04eb dac0
000002a0: 966b 1dc2 e35c 1ec2 25f1 1cc2 377d 1dc2
000002b0: 6a07 1dc2 9441 1dc2 f396 c640 d10f cc40
000002c0: 05fc c440 2a9a cb40 6444 cd40 9c73 c540
000002d0: d9bf f6c0 ebb3 eac0 84f8 f4c0 580f f0c0
000002e0: 7ffd f1c0 74ac edc0 4eaf c2c0 fc0b cbc0
000002f0: cc83 cac0 ab8a cac0 318d cac0 2cb2 ccc0
00000300: f7ea 30c1 4bce 36c1 a96f 37c1 c157 33c1
00000310: f0af 32c1 3a08 35c1 defa 18c2 8529 1ac2
00000320: ee32 1ac2 51ca 18c2 1cf6 19c2 2bda 18c2
00000330: dbe8 32c2 7306 33c2 b318 34c2 66ac 32c2
00000340: afef 33c2 9d46 33c2 74a6 91c0 5b74 92c0
00000350: 1d13 8ac0 31f9 92c0 0f3f 88c0 28ad 8ec0
00000360: cc8a 1141 ec06 1841 f77d 1841 ac8a 1141
00000370: 3f82 1141 140b 1441 a1c0 ba40 8744 b240
00000380: bedf ba40 9e1c bb40 14c4 bb40 8797 b540
00000390: 1025 11c2 3e82 10c2 fa46 11c2 09fc 10c2
000003a0: f988 10c2 54f3 11c2 3dd5 f340 9b50 f240
000003b0: dc39 f640 b44d f040 a732 f040 684a f740
000003c0: 095d aa40 cdb5 b040 d8de a740 dd54 ad40
000003d0: adea aa40 2015 b540 381d 0dc1 03d5 0bc1
000003e0: 7289 0ec1 016c 0dc1 fdde 0cc1 6e78 11c1
000003f0: 5077 f140 e325 ee40 f788 e740 6095 ef40
9.587774 9.630331 9.689074 9.612047 9.781446 9.63687 -10.95305 -10.87129
-10.974053 -11.21745 -10.983807 -11.168379 7.6712546 7.675044 8.116131 7.9892488
7.73795 7.7974296 6.240168 5.961821 5.949874 5.9571 6.3177032 6.276886
7.0054293 7.1404257 7.0819125 7.0529647 6.840173 6.995608 -17.830696 -17.802486
-17.691502 -17.702383 -17.683393 -17.643566 15.58207 15.223375 15.2651415 15.1417675
15.343821 15.187697 4.247487 4.1063046 4.216105 3.8908892 4.32961 4.1947436
-68.99035 -69.00858 -69.11493 -68.950096 -68.94313 -68.991234 -10.309085 -10.6296
-10.407024 -10.583426 -10.379812 -10.632401 8.181898 8.318379 8.0935 8.247403
8.37977 8.03917 8.075251 7.9761286 7.7618775 7.7999263 8.021629 8.101662
9.217527 9.021464 9.128851 9.030984 9.104555 8.987581 -63.296856 -63.73395
-63.347816 -63.363197 -63.555424 -63.626354 -31.61324 -31.587677 -31.88765 -31.784597
-31.59647 -31.801348 -7.655719 -7.841752 -7.646019 -7.6367264 -7.661775 -7.779599
-36.250595 -36.471897 -36.50833 -36.199886 -36.303257 -36.16104 16.731352 16.657703
16.88421 16.704983 16.906338 16.610035 -20.409767 -20.337862 -20.154934 -20.462765
-20.12369 -20.381935 -72.55207 -72.55253 -72.701996 -72.783844 -72.92116 -72.7381
6.549261 6.3944583 6.5814185 6.6797886 6.780323 6.428146 27.47803 27.075064
27.317165 27.16918 27.13224 27.10258 7.418208 7.537658 7.5927253 7.317429
7.4067016 7.586123 -8.523521 -8.276929 -8.438823 -8.620686 -8.428069 -8.612117
7.539552 7.8431106 7.5855565 7.8199463 7.7030907 7.608952 7.6205125 7.6016526
8.021466 7.915114 7.602547 7.7501035 12.15965 12.242221 11.837884 12.049447
11.820981 11.789948 -6.849265 -6.8246818 -7.1077423 -6.9731894 -7.0905824 -6.8411884
-39.355064 -39.59071 -39.235493 -39.37228 -39.25724 -39.31404 6.2059264 6.3769307
6.155764 6.362569 6.4145985 6.1703625 -7.710919 -7.3344626 -7.6553364 -7.501873
-7.5621943 -7.4273014 -6.0838995 -6.345213 -6.3285885 -6.3294272 -6.3297353 -6.3967495
-11.057364 -11.4253645 -11.464761 -11.208924 -11.1679535 -11.314508 -38.244987 -38.540546
-38.549736 -38.197575 -38.49034 -38.213055 -44.727398 -44.756298 -45.02412 -44.668358
-44.984066 -44.81896 -4.551569 -4.5767035 -4.314833 -4.592919 -4.2576976 -4.458637
9.096386 9.50169 9.530753 9.096355 9.094298 9.252705 5.8360143 5.570865
5.8398123 5.8472433 5.8676853 5.674747 -36.286194 -36.12719 -36.319313 -36.246128
-36.133762 -36.487625 7.61978 7.5723395 7.694563 7.5094852 7.506183 7.727833
5.323857 5.5221925 5.2459526 5.4166093 5.341147 5.6588287 -8.8196335 -8.739505
-8.908556 -8.838868 -8.8044405 -9.091902 7.5458145 7.442125 7.2354693 7.4869843

linears.0.bias f4 [100]
00000000: e6df 6f3e 3f0d e23e 65b2 ab3e b356 cf3e
00000010: b7e6 ca3e b1c5 573f 8020 d13e 21f8 a83e
00000020: 3e7d ca3f 5326 b43e 219e c53e 29fb ce3e
00000030: 734a ba3e bf2d ca3f 99dd 423f f11d f93e
00000040: 37df 853f db24 273f 97f0 023f e754 d33f
00000050: ad07 b83e 31c9 2740 4697 bb3e a7b0 c23e
00000060: 0e25 ce3e 99d6 d03e f5e7 973e a737 e63e
00000070: c2b3 bd3f fd21 b73e 7206 ba3e 72e9 b63e
00000080: e913 273f 839f a43f c805 8a3f b896 ff3e
00000090: e4f4 b63e 95a6 ad3e 28ca 7f3f cbdf b33e
000000a0: 499e 9e3e 2ee2 043f 2b89 c63e 08bb f33e
000000b0: d808 e83e ccdf ab3f 3935 c93e 4e00 b53f
000000c0: 8929 dc3e f334 9e3e b84c ac3e 842d db3f
000000d0: de94 be3e 99a4 9f3f cd40 0a3f 0413 293f
000000e0: 129b a93f fec9 733e 6a2c e93e 81a3 eb3e
000000f0: a236 673e 5417 ad3e f139 b93e 849a b23e
00000100: 7a54 b73e ae60 df3f a578 d33e 5d21 c73e
00000110: cbb4 fd3e 85aa 943e 622e a63e 769d b63e
00000120: b9fc 133f 585c 953e 595a c43e 335b 053f
00000130: de06 bf3e dd93 af3e f585 f03e 30b2 ab3e
00000140: 4a2b c73e 1351 0d3f 6e9f 983e 908d ba3f
00000150: 670d c43e 3f20 b83e 8062 a63e 4f37 b13f
00000160: 1b7f af3e e521 ac3e f350 da3e a371 ae3e
00000170: 7852 403f 0bc1 893e 7dd9 bb3e 6b8e 913f
00000180: b29b a23e 062b d53f 0dbf 2b3f 7b70 453f
0.23425254 0.4415073 0.33534542 0.40495834 0.39629146 0.8428603 0.40845108 0.33001807
1.5819471 0.3518549 0.38597205 0.40425995 0.36384925 1.5795211 0.7611938 0.48655656
1.0458745 0.6529061 0.5114836 1.6510285 0.35943356 2.6216547 0.3663885 0.380254
0.40262645 0.40788725 0.29669157 0.44964334 1.4820483 0.35768119 0.36333042 0.3572498
0.65264755 1.2861179 1.0783014 0.49919677 0.35733712 0.33916155 0.9991784 0.35131678
0.30980137 0.5190762 0.38776526 0.4760363 0.45319247 1.3427672 0.39298418 1.4140718
0.4300044 0.30899772 0.33652282 1.7123265 0.37222952 1.2472106 0.5400513 0.6604464
1.3250449 0.23807523 0.45541698 0.4602318 0.22579435 0.3380686 0.36177018 0.3488351
0.35806638 1.7451379 0.41302982 0.38892642 0.49551997 0.29036346 0.32457262 0.35667008
0.578075 0.29172015 0.3835018 0.52092284 0.37309927 0.34292498 0.469772 0.33534384
0.38900214 0.55201834 0.29809135 1.4574451 0.38291475 0.35962102 0.32497025 1.3845004
0.3427666 0.3361961 0.42639884 0.34071073 0.7512584 0.26905093 0.36689368 1.1371588
0.3175941 1.6653755 0.67088395 0.77124757

linears.1.weight f4 [100, 100]
00000000: 9b9b 293e 572f f9bd 6b23 4c3d 4e85 bbbe
00000010: 82e1 56be 9528 94be 49df 2fbe c62f efbe
00000020: 311d 373e 9aeb 3ebe 1646 133e 81e2 703d
00000030: ce42 003e f851 d73d 311f e3bd d7fa 94be
00000040: 66b6 2ebe c883 a13c 002d 12be 1e52 97bc
00000050: c4cc 81bd 327b 2b3e 2c12 44be 7fde 813c
00000060: 579f 5a3d 6d46 e5bb 306f eebd 6e2f 44be
00000070: 9f13 7abd 7f23 a6bd 73c1 38be 1e95 b23b
00000080: 4b44 66be a47d 74bd 1fa8 2abe 15b8 9b3b
00000090: 68b5 db3d 7656 4ebe 7587 b63d a3e2 c83d
000000a0: 7e76 cabe 2cff 91bd 3648 90be 9fbf e03d
000000b0: f583 023d 2e1b 87bc 53eb 6dbe 6a84 49be
000000c0: 6019 e7bc 0dd6 4cbe 81ae b8be fa14 333d
000000d0: c62f 123c 98cd c73d 4baa 3f3f c571 f1bd
000000e0: e867 29be d176 103e fd40 2bbe d83f 82bd
000000f0: 9239 b73d 1ec9 f2bc 9f3d bfbe 319e efbd
00000100: 25fb a1be e5fd fa3d 78fd e1bd 1fc1 0cbe
00000110: 2586 9cbd 2110 afbe 9b5a 18be c148 19be
00000120: 2bdc 973c c4ae d2be 7b81 643c 224f 9ebe
00000130: e9e4 1e3c 6cd2 053e 1435 1fbc fb77 5d3c
00000140: 1fcb c63d e10a f9bc 9bf4 883d 0972 673d
00000150: b7af 9f3d 04ef 23bb d6b7 a9be 314d 16bc
00000160: 200c 94bd 2e5c 2cbe 7a36 0c3e d36e d73b
00000170: dba7 bbbe cc74 40bd 6936 f0bd eb38 fb3d
00000180: 8dda eebe 7b18 33bd 9a46 143f 1c25 6dbc
00000190: 4129 a040 dcba 8ebf 825f 5040 c76d d63f
000001a0: 5613 0540 f779 37c0 1bf5 8740 9d57 ad3f
000001b0: b772 d5bf 9386 ebbf 3b31 3a40 da60 2040
000001c0: 4618 4b40 5f41 c3bf 7df2 b2bf fd91 08bf
000001d0: a6d2 a6bf dd8f 8a40 a7db f3bf 8321 e1bf
000001e0: 8181 1240 d08d 9340 7739 1a40 5b5f dabf
000001f0: c138 1440 67ba 2040 914d 8740 29c0 59bf
00000200: 1635 2bc0 40c4 fa3f 10f3 cbbf 86af 1ec0
00000210: 86f9 5fbf 67b4 11c0 4a74 f1bf 3d18 b4c0
00000220: 30d1 3a40 528d e93f dcb7 d4bf 072d 2240
00000230: cfa9 e13f 0cf2 83bf 3096 1b40 310c 1640
00000240: 8e59 a7bf e3e4 e5bf 95b5 f23f 9e50 c5bf
00000250: 07d3 b7bf 4857 0ec0 cffb e63f 7c4a 09c0
00000260: 7536 1840 803c 0dc0 2c3a 9ac0 7734 8240
00000270: 32ac 7dc0 3247 9640 94d2 a4bf 769e 95bf
00000280: e3f0 4340 8309 bfbf ace2 ff3f c822 2340
00000290: df4b bb3f 6877 34c0 cb1d f23f 563c 3a40
000002a0: 4f3a 3dbf 89f0 f73f 118e cabf 8dbe f1bf
000002b0: 398e ccbf 71ca e33f b720 2740 ef20 92bf
000002c0: f7a6 0140 5921 4040 e591 abbf 199e 2d40
000002d0: d07e 2140 0d6f 9fbf ec73 6bc0 01f5 eebf
000002e0: f06b 4140 2eed 35c0 e108 c63f d52e 5fc0
000002f0: e0db e7bf 1a43 0140 f8fb 3c40 3ea7 b4bf
00000300: b0f5 2cbf 275a 02c0 ab6b 3840 b442 8bc0
00000310: 64cc ad3f f963 dabf 48ba 9ec0 195f c6bf
00000320: 5fa7 0ac0 501b de3e e474 0ebf 5045 dabe
00000330: d5df e6be 0841 293f 83cd 4fbf 2dbc 9ebe
00000340: dc79 3b3e a81c 3c3f 9092 06bf 79c0 a4be
00000350: 334e 04bf c4fa 843e ea12 da3e 99ac 4d3f
00000360: 129b 263e 4e96 14bf bdfa f43e daf6 513e
00000370: 7ba2 95be 08c1 01bf f5e5 a8be dc85 393f
00000380: dc24 c9be 7525 8ebe 215a 33bf a944 3c3f
00000390: bde8 2b3f 62f5 85be 7696 453f 4781 883f
000003a0: 5359 363f 5bd0 0a3f be1c fb3e 0aff bd3f
000003b0: 15ef 0ebf 3fe3 b8be 6bb1 da3e 2129 afbe
000003c0: a4d5 83be 7a47 5d3f ae41 d1be d4e3 eebe
000003d0: 5b22 543f c5fa bd3e e08c babe f0b3 863e
000003e0: a124 0a3f d571 2e3f 27ed 75be a279 eb3e
000003f0: 2897 87be b515 ec3e db24 8f3f 51c8 0dbf
0.16563265 -0.121672325 0.049838465 -0.3662514 -0.20984462 -0.28937212 -0.1717502 -0.46716136
0.1788223 -0.18644562 0.14382204 0.05880976 0.12525484 0.10513681 -0.11089934 -0.29097626
-0.17061767 0.019716159 -0.14274979 -0.018471774 -0.06337884 0.16746214 -0.19147557 0.015853165
0.053374615 -0.006996921 -0.11642301 -0.19158718 -0.06105387 -0.08112239 -0.18042545 0.005449905
-0.22486989 -0.059690133 -0.16665696 0.004752169 0.1072796 -0.2015017 0.08912555 0.098088525
-0.39543527 -0.07128748 -0.28180093 0.10974049 0.031864125 -0.016492452 -0.232343 -0.19679418
-0.028210342 -0.20003529 -0.36070636 0.043721177 0.008922523 0.09756011 0.7486922 -0.11789278
-0.16543543 0.14107825 -0.1672401 -0.063598335 0.089465275 -0.029636916 -0.373517 -0.117000945
-0.3163692 0.12255458 -0.110346735 -0.13745545 -0.076427735 -0.34191993 -0.14878313 -0.1496916
0.018537601 -0.4114896 0.013946886 -0.3091975 0.009698131 0.13068551 -0.009717245 0.013517375
0.09706711 -0.030400695 0.0668728 0.056505237 0.07797187 -0.002501429 -0.33148068 -0.009173677
-0.07228875 -0.16832039 0.13692656 0.0065744906 -0.366515 -0.046986386 -0.11729128 0.122667156
-0.46651116 -0.04372452 0.5792023 -0.01447418 5.005036 -1.1150775 3.2558293 1.6752251
2.0793052 -2.8668191 4.24867 1.3542362 -1.6675633 -1.8400444 2.9092548 2.5059114
3.1733565 -1.5254325 -1.3980252 -0.5334776 -1.3033035 4.3300614 -1.9051408 -1.7588352
2.2891543 4.611061 2.4097574 -1.706035 2.315964 2.511377 4.2282186 -0.8505884
-2.675115 1.9591141 -1.5933552 -2.479463 -0.8749012 -2.276636 -1.8863614 -5.627959
2.9190178 1.8246253 -1.661861 2.5339983 1.7629946 -1.0308242 2.4310417 2.344494
-1.3074205 -1.7960476 1.8961664 -1.5415227 -1.4361275 -2.2240772 1.8045596 -2.1451712
2.3783238 -2.2068176 -4.819601 4.0689044 -3.963635 4.696191 -1.2876763 -1.1688983
3.0615776 -1.4924778 1.999105 2.5489979 1.4632529 -2.819788 1.8915342 2.9099326
-0.73917097 1.937028 -1.5824605 -1.8886276 -1.5980903 1.7796155 2.6113718 -1.14163
2.0258157 3.0020354 -1.3403898 2.7127745 2.523365 -1.2455765 -3.6789503 -1.8668519
3.022213 -2.8426013 1.547146 -3.4872334 -1.8113976 2.0197206 2.952879 -1.4113538
-0.6756239 -2.0367525 2.8815715 -4.3518925 1.3578 -1.7061759 -4.9602394 -1.5497772
-2.1664655 0.43380213 -0.5564711 -0.42631006 -0.45092645 0.66114855 -0.8117296 -0.31002942
0.18308204 0.73481226 -0.52567387 -0.32178095 -0.5168182 0.2597257 0.42592555 0.8034149
0.16270092 -0.58041847 0.47847548 0.20504323 -0.29225525 -0.5068517 -0.32987943 0.7246988
-0.39285934 -0.27762952 -0.700594 0.7354227 0.67152005 -0.26163775 0.7718271 1.0664452
0.7123005 0.54224175 0.49045366 1.4843457 -0.5583356 -0.36110875 0.42713484 -0.34211066
-0.25748932 0.8643719 -0.40870422 -0.46658194 0.8286492 0.37105384 -0.36435604 0.26309156
0.5396214 0.68142444 -0.24016248 0.45991236 -0.2648251 0.4611031 1.1183122 -0.55383784

linears.1.bias f4 [100]
00000000: 4a23 3abe 1ba6 b73e bdd7 933e f6f6 d43d
00000010: 1049 ecbe df33 6bbe 5b5c f13c 1db9 b03e
00000020: c713 a8be 79a9 973e 4727 e8be 4387 633b
00000030: bbac 74bf 57c5 93bf 4142 6c3e 228e 0f3e
00000040: fed9 003f c8e2 2e3d 2d7a 163f 9983 2d3f
00000050: 9128 3abe 5cb3 843e 7b8f d9bd 0280 a03e
00000060: eee7 7abe 88d3 b53e 8663 103e 81dc f7bd
00000070: 3b63 b53d c783 b7bf d1b0 fdbd b9a0 043e
00000080: c290 edbe 2a82 96be f977 a83e 8148 003e
00000090: 05d7 d9be 8d7c bdbd 56de 54bd 4e9c e73d
000000a0: c7e8 aabe 73cf 4f3e 9a8d fabd c3bb 953e
000000b0: 9f0e aabe 3c6c a63e ca16 403e 04fb 223f
000000c0: 3870 50bf d321 9abe ebf3 b2bd 6eae 0dc0
000000d0: e1ef 02bf 621e 163f b1fd bdbd cb3e 4fbd
000000e0: 187c 8bbd 1a21 8fbd 9ee1 80be 6100 ee3d
000000f0: df59 50bf 35dd 29bf cf83 05be 8b44 bcbd
00000100: af19 53bd f6a3 a83e 2165 a7bf a919 903f
00000110: 70d8 53bd 25fd ae3e 13aa ef3e ce25 30bc
00000120: efbd 113f 43c9 adbe 3d74 443e 9461 0bbd
00000130: 29f2 833e ddf7 fbbe 55bb 863f 50de c63e
00000140: 08c8 ee3e 2e41 71be 0440 e3bd 9788 5dbe
00000150: fd62 cfbc 09a2 cdbe 7afc 4cbe 3d1d 243e
00000160: a1e1 e5bf a6c3 f9bd 170e 5dbf 3ed9 73be
00000170: caf6 05bf c315 ecbd c417 5f3f 282c 89be
00000180: 2bc3 b7be 5d3e a53f ab26 8cbe 0157 aabe
-0.18177524 0.35868916 0.28875533 0.103986666 -0.46149492 -0.22969006 0.029462984 0.3451623
-0.3282759 0.29621485 -0.45342466 0.0034718073 -0.95576066 -1.1544598 0.23072149 0.14019063
0.5033263 0.042696744 0.58780175 0.6777893 -0.18179537 0.2591809 -0.1062307 0.31347662
-0.24502537 0.35512948 0.14100465 -0.12102605 0.08856817 -1.433709 -0.12387241 0.12951936
-0.46399504 -0.29396182 0.32904032 0.12527658 -0.4254686 -0.09252272 -0.05196985 0.1130911
-0.3338072 0.2029398 -0.122340396 0.29244813 -0.3321428 0.3250445 0.18758693 0.6366427
-0.8142123 -0.3010393 -0.0873793 -2.2137713 -0.51147276 0.5864011 -0.092769034 -0.050596993
-0.068107784 -0.069887355 -0.25172132 0.11621166 -0.8138713 -0.6635316 -0.13038562 -0.09192761
-0.051538166 0.32937592 -1.3077737 1.1257831 -0.051720083 0.3417751 0.46809444 -0.010751201
0.5693044 -0.33942613 0.19184966 -0.034028605 0.2577069 -0.49212542 1.0525919 0.38841486
0.46636987 -0.2356002 -0.110961944 -0.21634136 -0.025315756 -0.40162686 -0.20018187 0.16026779
-1.7959481 -0.1219552 -0.86349624 -0.2381334 -0.52329695 -0.11527588 0.8714564 -0.267915
-0.3589109 1.2909657 -0.2737325 -0.33269504

linears.2.weight f4 [100, 100]
00000000: ef02 c33d 25bf e83d 7097 353e 3961 433f
00000010: 1043 363e 4ee5 033f 8939 863e 3866 963e
00000020: 4ac7 183d 8f62 333c 99d0 25bb f414 f6bf
00000030: 9c3e 853f d069 3a40 94d7 6ebe 4c88 25be
00000040: c8de 4e3e 38a5 8b3e 8c26 6a3e a988 243e
00000050: d3ba 0a3e 385f 8a3e 21ea aa3e 1473 2f3e
00000060: badd b7be d4ef 6d3e 67a9 013f c8be 1a3e
00000070: 1a6d a63c 5a5c 8bbf 8568 a73e 01f4 4fbc
00000080: 7376 533e 7157 883e 0398 8d3e 35cc 993e
00000090: 8fb3 6a3e 86c2 133d 7b9f aa3d 5734 75bd
000000a0: 55b9 7e3d 58ec e13d f965 b4bf 536f 3b3e
000000b0: 889a 19be d121 513e 7e83 943c 64e4 e93b
000000c0: b745 4c3f aa45 023f 1e4c f7bc 21df b43f
000000d0: fbdc 1b3e b014 1a3e 9fb6 233e f0ce d83d
000000e0: 825a 3dbd 5810 893f 5abe c8be 380d 81bc
000000f0: 4924 bfc0 5e6e 263e 41f3 3dbf 4ca5 37bd
00000100: abca 2e3e a057 56bd 78a6 80c0 3131 85be
00000110: 81ef a43d 8239 743e 8ea3 5abe 9214 a33d
00000120: 0852 89be 56f6 29be cf03 813e 0b7d a6bf
00000130: 5431 543e f251 bfbe d26f e2be 79ca 733e
00000140: 4723 953d 0b66 513d a385 023e 1c6f 903e
00000150: 21e3 053e f9dc f83d bbd6 f3bd 4a7e ca3d
00000160: 7353 9b3f 1ea0 bbbf b098 bcbb 0360 b3bf
00000170: 1543 7cbd ee95 01be 7b8a 903c 3962 70bf
00000180: 2002 2bbc 47d2 38bf f3c7 703e 932a 213e
00000190: d5ab 43be 006b 31be ce76 723f ee74 b23c
000001a0: 7ff7 e13e 1277 2f3f 10ac 173c 4c3f 3f3f
000001b0: 73f1 36be 2240 683f 1a0a c3bf 18ec 003f
000001c0: ee4b 943e 0c35 843c 44e3 643d 2adb 59c0
000001d0: b08e f73d c64f 413e 93b3 36bd fa89 39be
000001e0: b33a acbe 377d a1c0 4fb8 f1bd dc2f 61bf
000001f0: 5c73 5e3e 6471 c73e 2902 023f 1270 413a
00000200: b3d5 8a3c aad9 0e3e 5113 46be 382a d13d
00000210: 9428 a5be ff1b 143f 13c5 273f c16c d3bf
00000220: 0a64 853d 95ee 513e a95b 5cbd 312c 503b
00000230: 2176 82bf 3c47 603f 441a 0f3e a362 643f
00000240: ea89 31bf a5c3 6a3f 5247 34c0 e225 42be
00000250: 38a7 3abd 1c2b 793f cca6 6abe 1235 e6bd
00000260: 3978 aec0 13d7 a63d b3a0 8dbe 2953 1f3e
00000270: e81e 8dba beea 5b3f e9cf 133c cd14 833e
00000280: 4ca6 a13f 32a7 4ebc a58c 693d 34a6 8bbe
00000290: d970 073e efee 7ac0 a0f4 563f 3ac3 32be
000002a0: d520 b33d 3587 743f dc9f 673e 104a 00be
000002b0: 87a2 d1bd d10c a73e 77a9 b63f e5c7 043e
000002c0: d107 1a3e e0b6 793e bc5b ecbc ce5b b8bf
000002d0: eb26 253e 8f8a e8bd 0272 513c 6371 243d
000002e0: 6404 2d3d 8163 6fbf 4406 543f 3887 423e
000002f0: 4b5d a5bd 5562 4c3e ed30 3cbe 17b0 233e
00000300: 3c8d 85bf 7909 2c3f 57ea f6bd 5fb2 683e
00000310: aeff 103e 7f6b c2bd dc5e b3be 64eb debf
00000320: 624f 333e a50f a23d 5d72 1bbe 0eaf 923e
00000330: 8bea a4bf 73c2 e93d cdd3 96be fdc5 0d3e
00000340: 8f43 8fbe 1400 b13d 7796 2cbf 43b0 42bf
00000350: d179 ad3f 05e1 89bf 6ef8 d03d f1a5 8c3e
00000360: 612e 033d 9e82 3cbe 8535 13be 322d 30bd
00000370: 4fdf b5be d449 023e 77cd babd 15ea 10be
00000380: d636 6d3e db95 d83d 6213 4e3e fd2b 42be
00000390: dac3 a8be d834 ea3f 035a 97be 8740 e0be
000003a0: 486c 5fbe 77cb 95bf 9eda 993d d4b7 a6ba
000003b0: c73d 3e3e 3c55 8fbe 2e94 69be cacd e8bd
000003c0: 0ea8 1abe fc05 323e 9eb9 b1be a712 8d3c
000003d0: 1939 35be 2265 56be 8d11 ba3d c549 e03c
000003e0: 5450 953f 57ed 09bf ca5e 17be db58 3340
000003f0: a50e f03f 1a95 a13e 0e50 4ebe cd1c 96bd
0.09522044 0.11364583 0.1773355 0.76320225 0.1779902 0.51521766 0.2621577 0.29374862
0.03729943 0.010948791 -0.0025301336 -1.9225144 1.0409732 2.9127083 -0.23324424 -0.16165274
0.20202172 0.2727449 0.22866267 0.16067757 0.1354783 0.2702577 0.3338175 0.17133743
-0.3591135 0.23236018 0.5064911 0.1511184 0.020315696 -1.0887558 0.3269693 -0.012692452
0.20650654 0.26629212 0.27655038 0.3003861 0.22920059 0.036074184 0.083312 -0.05986437
0.062188465 0.11031407 -1.409362 0.18304186 -0.15000355 0.20423056 0.018129107 0.007137822
0.79793876 0.5088755 -0.030187663 1.4130594 0.15221016 0.15046954 0.15987633 0.10586345
-0.046228893 1.0708113 -0.39207727 -0.015753374 -5.9731793 0.16253039 -0.741993 -0.044835374
0.17069499 -0.05232966 -4.020321 -0.26014093 0.08053494 0.23850062 -0.21351454 0.07962908
-0.26820397 -0.16597876 0.25198218 -1.300691 0.20721942 -0.37367207 -0.44225937 0.23807706
0.07282119 0.051122706 0.12746291 0.2820977 0.13074924 0.12151522 -0.11906191 0.09887369
1.2134842 -1.4658239 -0.0057555065 -1.4013675 -0.061587412 -0.1265485 0.017644158 -0.93899876
-0.010437518 -0.7219586 0.23513775 0.15738897 -0.19108517 -0.17325974 0.9471253 0.021784272
0.44134137 0.6854106 0.0092573315 0.7470596 -0.17865543 0.9072286 -1.5237458 0.5036025
0.2896418 0.016138576 0.0558808 -3.4040017 0.12087762 0.18878087 -0.04460485 -0.1811904
-0.33638534 -5.046535 -0.11802732 -0.8796365 0.21723694 0.38953698 0.50784546 0.00073790655
0.016947603 0.1395022 -0.19343306 0.10213131 -0.3225752 0.5785522 0.65535086 -1.6517564
0.065132216 0.20501168 -0.05379835 0.0031764621 -1.01923 0.87608695 0.13974863 0.8921301
-0.69351065 0.9170478 -2.816853 -0.18959764 -0.04556963 0.97331405 -0.2291519 -0.11240591
-5.4521756 0.08146491 -0.27661666 0.15559067 -0.0010766657 0.85905063 0.009021738 0.25601807
1.2628875 -0.012613105 0.057018895 -0.2727524 0.13226642 -3.9208333 0.8396702 -0.17457286
0.087464966 0.9551881 0.22619575 -0.12528253 -0.10236078 0.32626966 1.4270467 0.12966879
0.15042044 0.24386168 -0.028852336 -1.4403017 0.16128127 -0.11354553 0.012783529 0.040147197
0.042240515 -0.93511206 0.8282206 0.18996894 -0.08074435 0.19959386 -0.18378039 0.15985142
-1.0433726 0.67201954 -0.120564155 0.22724293 0.14160034 -0.094931595 -0.3503331 -1.7415586
0.17510751 0.0791314 -0.15180345 0.2864918 -1.2884077 0.11414041 -0.29458466 0.13845058
-0.2798123 0.08642593 -0.6741709 -0.76050204 1.35528 -1.0771796 0.10203634 0.27470353
0.032026652 -0.18409202 -0.14375885 -0.04301185 -0.35521933 0.12723476 -0.091212206 -0.14151795
0.2316545 0.10575458 0.20124581 -0.18962093 -0.32961923 1.8297377 -0.2956086 -0.4379923
-0.2181865 -1.1702718 0.07512401 -0.001271958 0.18578254 -0.27994716 -0.22810432 -0.11367376
-0.1510317 0.17385095 -0.34711927 0.017220808 -0.17697562 -0.20937017 0.09085379 0.027378926
1.1665139 -0.53877777 -0.14782253 2.8022983 1.8754469 0.31559068 -0.20147726 -0.07329712

linears.2.bias f4 [100]
00000000: cd73 49be a458 bfbd c036 cebd 974d 73be
00000010: b8bc 3abe b288 62be 3e3c 2abe bde9 943d
00000020: cd2e 4c3e 77ef 1abe 36b6 f9bd 7ebb d63d
00000030: 1cc1 5fbe 47a0 e73b 8123 31be 531b 68be
00000040: 5f6a 4a3e 7454 f43d eedf 273e 60fa ee3c
00000050: 5c62 933d 0f2a 40be 5f5c e53d 7ea6 503c
00000060: 72c8 7b3d 622e 993d 1d1c 1c3d b99a 813d
00000070: 2e7b 143e 5582 61be 0c6e 8fbe f53c 66be
00000080: 45ac 1b3d bd5b e43e d170 51be 013e 8a3d
00000090: 5a03 4e3e c64f 6dbe 7e8a 5a3d cda0 f53d
000000a0: ca3c 43be 79b3 b43d f002 cdbf 7717 8abd
000000b0: 92e3 b6be 0e4c 9f3d 13b9 45bd 7757 97bd
000000c0: ec45 f43d c18c a23e 5e35 c53d bc7e 00be
000000d0: 2b0b 31bd 3931 5cbe aeaa 403e 98bf 0b3e
000000e0: 9732 24be 717a 13be 23de 98bd f7c3 38be
000000f0: 8d3f 633d b52d f6bd 65ce 80be 1afe 4b3e
00000100: 0b37 b83a e0e1 afbd 1ef7 393d 7bf6 273e
00000110: 689a 8fbe e45b 32be 4b06 783e 7130 293e
00000120: 358c 013e 987e 73be 8af6 4d3d decf 243e
00000130: 7695 bdbd 1101 babd 09cc 35bf 56e3 093c
00000140: 2c2c 9f3c 6f2e 2d3e da70 0d3e da61 dfbd
00000150: 09b0 71be 01d1 483e 394a 4ebe 9273 543e
00000160: 9fa6 d83d 89f7 ad3c a4e8 40be 6ed4 ff3b
00000170: 7aac 4cbd 282e 6bbf 650e 1c3e 081d 97bf
00000180: 74dd 183d b67c 11bf bec3 a23c b733 163d
-0.1967308 -0.09343079 -0.100690365 -0.23760067 -0.18236053 -0.22122458 -0.16624543 0.072711445
0.19939728 -0.15130411 -0.12192957 0.1048498 -0.21851009 0.007068667 -0.172987 -0.22666673
0.1976714 0.11930171 0.16394016 0.029172122 0.07196495 -0.18766044 0.11199259 0.012735007
0.061470456 0.0747955 0.03811275 0.06328339 0.14500114 -0.22022374 -0.28013647 -0.22484191
0.038006086 0.4460124 -0.20453192 0.067501076 0.20118466 -0.23174962 0.053354733 0.11993561
-0.19066158 0.08823294 -1.6016521 -0.06742757 -0.35720497 0.07778178 -0.048272204 -0.073897295
0.11927399 0.31748012 0.096293196 -0.12548345 -0.04322354 -0.21503152 0.18815109 0.13647306
-0.16034923 -0.14402176 -0.07464244 -0.18043505 0.05548053 -0.12020437 -0.25157467 0.19921151
0.001405449 -0.08588004 0.045401685 0.16402619 -0.2804749 -0.17417866 0.2422115 0.16522385
0.12651141 -0.2377876 0.050283946 0.1609492 -0.09257023 -0.09082235 -0.7101446 0.0084160175
0.019430242 0.16912244 0.1381258 -0.109073356 -0.23602308 0.19610979 -0.20145501 0.20747212
0.105786555 0.021236198 -0.18838745 0.007807306 -0.049969174 -0.91867304 0.15239866 -1.1805735
0.03732057 -0.5683092 0.019868728 0.036670413

linears.3.weight f4 [5, 100]
00000000: f959 a0be 4774 fa3a de99 85be 3b16 0ebd
00000010: 373b dd3c 0c2c 0abf 7b7c 83be 484c 1f3b
00000020: ce5c 853e 8bc2 bdb8 65c0 90be f43e ce3b
00000030: 37d6 35bf 6268 35bc 00dd c439 eae9 06bf
00000040: 6548 7a3d eeb2 0cbd f5aa 05bd 2c2c 85bc
00000050: 2d5e 933c 6248 6ebe 590c eab9 98ae 14bd
00000060: ea42 c4bc a486 a63d f6f6 983d a41f a53d
00000070: 1d5c 513e 645a 53be 1785 f63d a243 e33c
00000080: c1cc 823b 2823 2d39 939d 22bd 352b 0138
00000090: 85c0 d93d 2f82 25bd 7df1 d0bd 8ae8 0c3d
000000a0: 831d 16bf af7c a43d fb43 c93a 275f 483d
000000b0: 376f 1dbe 918c 8a3b ed0d 813d 13d8 71bd
000000c0: 3ccc 9abc ef07 71b9 c2da 2a3b 8cd8 833d
000000d0: 8395 fabb a4a5 debd 9068 b7ba 8733 1db9
000000e0: 458d 74bd 97c8 3b3d f575 13bc 7807 f8bd
000000f0: fd81 95bd c5e1 81bd dbe8 873c 8ce0 5c3d
00000100: df14 debb fa97 a9bd f935 553d 9fae 8abd
00000110: 59cf 093d 7ec5 29bf d5c7 4dba 93eb e8b8
00000120: 87bd ebbc 6576 15bf ff1d 153c 031c 92bb
00000130: ba7d 793a 1c8c a33c fb9e 10bc 5461 b5bc
00000140: e419 e83d 05cb 843e 9505 8ab9 c261 443c
00000150: 6b95 d8be 9934 35bd e323 b2bd 0e22 963d
00000160: bab9 b5bd ea2d dbbd 8f5b 27bf cb95 a7bd
00000170: 7ef6 213d 93e0 78b9 85b6 343e 2d5c 27ba
00000180: 10aa 9a3d aee4 d6b8 9dd9 0fbe c27d 823d
00000190: 33a9 3f3e ccb0 8e3e 9768 143e f8dd adbe
000001a0: 9687 0dbf b970 91be 5ac3 30be dfbe 4f3e
000001b0: 4a72 4d3e 2c05 363e f9e7 dfbe 5d22 0c3e
000001c0: 772c 02be ff4c 9fbe dcfa 18c0 95a6 8abd
000001d0: cae4 1abe 73d0 8cbe 51ad db3d d271 52be
000001e0: afaf 44bd 37c1 423c 39dc cfbe 6afc ccbc
000001f0: c973 3a3c 814b 193e 497e ae3e 8c7b dfbd
00000200: b13a 3d3e 799c eabd b76b 45bd 7578 ce3e
00000210: b216 7a3e cd61 b63d 53fa 1b3d 3896 09be
00000220: 572a 01be 1f09 ffbd 0d1c a0bd f843 ae3d
00000230: b216 87be 6d90 bd3c efae d7be 115f e8bd
00000240: 15a3 efbd 4acb 733e b2ad 9abf 1e68 ab3e
00000250: 2783 9e3d 7a6e 1fbd 84e2 4e3e 0908 06bf
00000260: b980 9b3e fd23 bdbb 3e17 cd3e ab67 06bf
00000270: 82ee e5be a398 d8bf a59e a2bd d7c5 ed3b
00000280: dce9 4e3e 3ccb a03f a041 a0bc cc8e da3d
00000290: 785e 57bd 4eb6 123e b550 d03e 4de6 c7bd
000002a0: fed5 453d c08c f7be 011a cbbd b4f3 933e
000002b0: 86e8 503e 8b82 bc3e 5455 ac3e 3667 f23d
000002c0: d9e8 1bbf f188 8bbf 0d4f 30be b9ea 0bbe
000002d0: 7e71 b0c0 676d 04be e792 b93d aebb 42be
000002e0: b887 9b3e 794c 153f fc7b 573e de9e a53c
000002f0: 454e 85bd 7b03 6a3f a658 04bf 1d7a 053e
00000300: 52a5 433d 4cb4 17bf e384 48be 220d 483e
00000310: 88ee 90bd 48ef ed3d e1bc 093d b73d f43d
00000320: 2f1d 0cbe 1fe4 b4bc b1d0 9ebd 4486 4bbf
00000330: fdd0 243d 8c2e 60be 2940 323d 3b7d 313e
00000340: 05c8 04bd 4093 143a 06ac a7be b41e 323d
00000350: 15d7 7abc 3eb5 bbbc c248 923c 2b0f 71bd
00000360: 582a d73d 1acd fe3d 883f 8a3d d5f2 4dbe
00000370: 8546 c3bd e3fb 11bd ba29 75ba c247 f73d
00000380: 09fd 913c 85c9 23be 6ffc 0f3d d9ff 0c3d
00000390: b0bc ef3e b698 803d aef1 c63c 410c 9fbe
000003a0: 5053 583e 8c55 67b9 6309 2cbf eff8 a8b9
000003b0: c862 acbd 3e46 bfbe 21b1 8bbd a64d c33d
000003c0: 5241 bebe 2718 673d 314b 5839 8ba3 30bd
000003d0: bb8b 623d 91a1 88be 91c9 7ebf 0091 6f3e
000003e0: a35f 3d3d 10e0 13bc 3e18 8cbc b38d 093f
000003f0: 9b3c 073d e21d 1abd c2d9 5dbc c0db 0dbb
-0.31318644 0.001910814 -0.26093954 -0.03468917 0.027005775 -0.5397346 -0.2568091 0.0024306942
0.26047367 -9.048459e-05 -0.28271785 0.0062941257 -0.7102999 -0.01107225 0.0003754869 -0.52700675
0.061104197 -0.03435033 -0.03263374 -0.016256414 0.017989242 -0.232698 -0.00044641158 -0.036299318
-0.023957688 0.081311494 0.07468979 0.080626756 0.20445295 -0.2063995 0.120371036 0.02774221
0.0039916937 0.00016511662 -0.039701056 3.0796236e-05 0.10632423 -0.040407356 -0.1020231 0.034401454
-0.5863878 0.08031594 0.0015355343 0.04891887 -0.15374456 0.0042281826 0.06301484 -0.059043955
-0.018896215 -0.00022986507 0.0026070331 0.064377874 -0.0076472177 -0.10871437 -0.0013992954 -0.00014991882
-0.059705038 0.045845594 -0.009000291 -0.121107996 -0.07300184 -0.0634189 0.016590526 0.053925082
-0.0067773904 -0.0828094 0.052053425 -0.067715876 0.033645008 -0.66316974 -0.00078499067 -0.00011106501
-0.028776897 -0.5838378 0.00910139 -0.0044589057 0.0009517331 0.01996427 -0.008826966 -0.022141136
0.11333063 0.25936142 -0.0002632557 0.011986198 -0.42301497 -0.044239614 -0.08698251 0.07330714
-0.08873315 -0.10702117 -0.6537408 -0.081828676 0.039541714 -0.00023734783 0.1764775 -0.00063842797
0.07551968 -0.0001024691 -0.14047857 0.06371643 0.18716888 0.2786926 0.14493023 -0.3395841
-0.5528501 -0.28406313 -0.1726202 0.20287655 0.20063129 0.1777541 -0.4373167 0.13684984
-0.12712274 -0.3111343 -2.3903112 -0.06770054 -0.15126339 -0.27502784 0.10726417 -0.20551232
-0.048019107 0.011886886 -0.40597704 -0.025022704 0.011380144 0.14970209 0.34080723 -0.109122366
0.1847942 -0.11455626 -0.048198428 0.40326276 0.2442272 0.08905373 0.038080525 -0.1343621
-0.12613808 -0.124529116 -0.0781785 0.08509058 -0.26384503 0.023140157 -0.4212565 -0.113462575
-0.11701027 0.23808017 -1.2084258 0.33477873 0.07739859 -0.038923718 0.20203596 -0.5235601
0.30371645 -0.0057721124 0.40056795 -0.52501935 -0.4490853 -1.6921581 -0.07940415 0.0072562504
0.20206398 1.2562022 -0.019562542 0.106717676 -0.052580327 0.14327356 0.40686575 -0.09760723
0.048299782 -0.4834957 -0.09917069 0.28896868 0.204012 0.36818346 0.3365885 0.11836092
-0.6090217 -1.0901166 -0.17217655 -0.13663758 -5.513854 -0.12932359 0.090612225 -0.19016907
0.30376983 0.58319813 0.2104339 0.020217355 -0.06509069 0.9141156 -0.51697767 0.13034864
0.047765084 -0.59259486 -0.19581942 0.1953626 -0.07076746 0.11617905 0.033627395 0.11925834
-0.13683008 -0.022081433 -0.077546485 -0.7950175 0.04023837 -0.21892756 0.04351822 0.17332928
-0.032417316 0.0005667694 -0.3274843 0.043486312 -0.015310069 -0.022913571 0.01785696 -0.058852356
0.10506123 0.12441464 0.06750399 -0.20112164 -0.09534935 -0.03564061 -0.0009352226 0.120742336
0.017820852 -0.15994842 0.03515285 0.034423683 0.46823645 0.06279127 0.024285164 -0.31064036
0.21125531 -0.00022061745 -0.67201823 -0.00032228927 -0.084172785 -0.37358278 -0.06820894 0.09536295
-0.3715921 0.056419518 0.00020627376 -0.043124717 0.05530904 -0.26685765 -0.99526316 0.23395157
0.046233784 -0.009025589 -0.017101403 0.5373184 0.033016782 -0.037626155 -0.013540687 -0.0021645874

linears.3.bias f4 [5]
00000000: 9181 693e bf9a a0bd f9d9 2c3d 790c 953d
00000010: db35 b13d
0.22803332 -0.078420155 0.042200062 0.072777696 0.0865285

exp_avg f4 [100, 6]
00000000: ed45 4f36 f845 4f36 e745 cf36 6c74 1b37
00000010: cb45 4f37 918b 8137 9cc3 1ab5 a8c3 1ab5
00000020: bbc3 9ab5 d925 e8b5 18c4 1ab6 6b75 41b6
00000030: 00cb 2b36 fdca 2b36 03cb ab36 38d8 0037
00000040: f5ca 2b37 a5bd 5637 6de6 d535 67e6 d535
00000050: 5de6 5536 aa6c a036 20e6 d536 b4af 0537
00000060: d3e5 e635 c7e5 e635 bee5 6636 462c ad36
00000070: 9ce5 e636 6b4f 1037 bb78 bcb5 be78 bcb5
00000080: c278 3cb6 975a 8db6 db78 bcb6 1697 ebb6
00000090: 491e 5eb4 4d1e 5eb4 421e deb4 4996 26b5
000000a0: 961e 5eb5 57d3 8ab5 42d7 ba35 47d7 ba35
000000b0: 37d7 3a36 5521 8c36 ffd6 ba36 958c e936
000000c0: 59e0 5735 5ee0 5735 5ee0 d735 3ce8 2136
000000d0: 54e0 5736 1fec 8636 df7d 7db5 dc7d 7db5
000000e0: e77d fdb5 801e 3eb6 027e 7db6 e86e 9eb6
000000f0: d366 1436 d066 1436 cc66 9436 239a de36
00000100: bd66 1437 5980 3937 4ebd ed35 49bd ed35
00000110: 39bd 6d36 d94d b236 11bd ed36 1296 1437
00000120: d6f3 2836 daf3 2836 d6f3 a836 bb6d fd36
00000130: d1f3 2837 bd30 5337 121d 0c35 151d 0c35
00000140: 0a1d 8c35 802b d235 f21c 0c36 1a24 2f36
00000150: 4521 3034 2321 3034 fc20 b034 8018 0435
00000160: 2f20 3035 9c27 5c35 14b2 12b5 1eb2 12b5
00000170: 37b2 92b5 820b dcb5 9ab2 12b6 775f 37b6
00000180: c5fa 7e34 98fa 7e34 5cfa fe34 953b 3f35
00000190: 5ff9 7e35 5f5b 9f35 ac9f a0b6 ad9f a0b6
000001a0: aa9f 20b7 67ef 70b7 a19f a0b7 86c7 c8b7
000001b0: 0776 8ab4 1376 8ab4 3776 0ab5 9db1 4fb5
000001c0: a476 8ab5 bf14 adb5 49d9 6535 37d9 6535
000001d0: 3dd9 e535 df62 2c36 38d9 6536 b3a7 8f36
000001e0: 6338 0136 6038 0136 5838 8136 76d4 c136
000001f0: 3e38 0137 3f86 2137 f320 4d35 0921 4d35
00000200: ff20 cd35 aad8 1936 e020 4d36 7e34 8036
00000210: e037 e635 df37 e635 d837 6636 d5a9 ac36
00000220: ab37 e636 b3e2 0f37 772a 9ab5 762a 9ab5
00000230: 7c2a 1ab6 d63f 67b6 a82a 9ab6 6bb5 c0b6
00000240: 7b54 f435 7154 f435 6854 7436 3f3f b736
00000250: 3854 f436 8db4 1837 3617 0336 3317 0336
00000260: 3617 8336 c1a2 c436 1e17 0337 d5dc 2337
00000270: 79bd 34b6 80bd 34b6 7abd b4b6 108e 07b7
00000280: 7abd 34b7 ccec 61b7 b119 6ab5 c019 6ab5
00000290: c719 eab5 7a93 2fb6 291a 6ab6 8a50 92b6
000002a0: d26a 80b5 d16a 80b5 d26a 00b6 39a0 40b6
000002b0: e36a 80b6 b285 a0b6 356e ff35 3f6e ff35
000002c0: 306e 7f36 9692 bf36 f76d ff36 a8a4 1f37
000002d0: 2a75 a6b5 2c75 a6b5 3275 26b6 e3af 79b6
000002e0: 5175 a6b6 c812 d0b6 64aa 2fb6 67aa 2fb6
000002f0: 66aa afb6 cbbf 03b7 72aa 2fb7 1495 5bb7
00000300: 8a73 24b5 9273 24b5 b473 a4b5 bdad f6b5
00000310: 1874 24b6 6891 4db6 5c60 d9b4 6160 d9b4
00000320: 6c60 59b5 7d08 a3b5 e760 d9b5 b3dc 07b6
00000330: 6e46 0135 6b46 0135 5a46 8135 7de9 c135
00000340: 2d46 0136 9a97 2136 9b14 70b6 9414 70b6
00000350: 8f14 f0b6 6a0f 34b7 8d14 70b7 cc0c 96b7
00000360: 5911 3a36 5411 3a36 5711 ba36 038d 0b37
00000370: 4b11 3a37 9e95 6837 bc6b b335 b76b b335
00000380: b36b 3336 b590 8636 796b b336 1d46 e036
00000390: 9937 b634 8937 b634 6437 3635 6ba9 8835
000003a0: ef36 b635 34c4 e335 91a7 0036 90a7 0036
000003b0: 89a7 8036 4afb c036 80a7 0037 4cd1 2037
000003c0: ebc8 a335 e8c8 a335 dbc8 2336 31ad 7536
000003d0: a2c8 a336 9bba cc36 1736 49b5 0c36 49b5
000003e0: 2036 c9b5 bee8 16b6 8c36 49b6 9984 7bb6
000003f0: 27ed ed35 29ed ed35 19ed 6d36 c571 b236
3.0886106e-06 3.088613e-06 6.1772184e-06 9.2658265e-06 1.2354411e-05 1.5442989e-05 -5.765412e-07 -5.765419e-07
-1.1530859e-06 -1.7296362e-06 -2.306193e-06 -2.8827587e-06 2.5599147e-06 2.559914e-06 5.119831e-06 7.679737e-06
1.0239649e-05 1.2799549e-05 1.5936799e-06 1.5936793e-06 3.1873562e-06 4.7810217e-06 6.3746847e-06 7.968327e-06
1.7203223e-06 1.7203209e-06 3.4406398e-06 5.160956e-06 6.881264e-06 8.60156e-06 -1.4042229e-06 -1.4042232e-06
-2.8084473e-06 -4.2126735e-06 -5.616906e-06 -7.0211345e-06 -2.0686379e-07 -2.0686385e-07 -4.1372738e-07 -6.205851e-07
-8.2745953e-07 -1.0343309e-06 1.3920728e-06 1.3920734e-06 2.7841431e-06 4.1762055e-06 5.568261e-06 6.960307e-06
8.042021e-07 8.042024e-07 1.6084048e-06 2.4126048e-06 3.2168073e-06 4.0209993e-06 -9.443301e-07 -9.4432994e-07
-1.8886611e-06 -2.832996e-06 -3.7773284e-06 -4.721678e-06 2.211357e-06 2.2113563e-06 4.422711e-06 6.6340594e-06
8.845408e-06 1.1056743e-05 1.7712971e-06 1.7712965e-06 3.5425894e-06 5.313876e-06 7.0851606e-06 8.856428e-06
2.5175882e-06 2.517589e-06 5.0351764e-06 7.552762e-06 1.0070348e-05 1.2587928e-05 5.2196367e-07 5.2196384e-07
1.0439264e-06 1.5658879e-06 2.0878474e-06 2.6098046e-06 1.640338e-07 1.6403332e-07 3.2806554e-07 4.9209484e-07
6.561194e-07 8.2014026e-07 -5.4648376e-07 -5.4648433e-07 -1.0929715e-06 -1.6394627e-06 -2.1859655e-06 -2.7324693e-06
2.3746823e-07 2.3746759e-07 4.7493347e-07 7.123975e-07 9.4985256e-07 1.1873016e-06 -4.78696e-06 -4.7869603e-06
-9.573918e-06 -1.4360855e-05 -1.914782e-05 -2.3934768e-05 -2.579038e-07 -2.5790413e-07 -5.158103e-07 -7.737197e-07
-1.031633e-06 -1.2895542e-06 8.562534e-07 8.5625237e-07 1.7125054e-06 2.5687548e-06 3.4250097e-06 4.281255e-06
1.925532e-06 1.9255313e-06 3.851059e-06 5.776582e-06 7.702094e-06 9.627604e-06 7.64164e-07 7.6416524e-07
1.5283293e-06 2.2924892e-06 3.0566516e-06 3.820808e-06 1.7152597e-06 1.7152596e-06 3.4305176e-06 5.1457705e-06
6.8610148e-06 8.576247e-06 -1.1486253e-06 -1.1486252e-06 -2.2972517e-06 -3.445884e-06 -4.5945235e-06 -5.7431657e-06
1.8204004e-06 1.8203992e-06 3.6407964e-06 5.461188e-06 7.281571e-06 9.101944e-06 1.9534032e-06 1.9534025e-06
3.9068063e-06 5.8602022e-06 7.813591e-06 9.766974e-06 -2.6932378e-06 -2.6932394e-06 -5.386476e-06 -8.079704e-06
-1.0772952e-05 -1.3466179e-05 -8.720918e-07 -8.7209264e-07 -1.7441861e-06 -2.6162875e-06 -3.4883944e-06 -4.360515e-06
-9.567832e-07 -9.567831e-07 -1.9135664e-06 -2.8703491e-06 -3.8271405e-06 -4.7839358e-06 1.9031055e-06 1.9031066e-06
3.8062099e-06 5.7093084e-06 7.612394e-06 9.5154755e-06 -1.2402063e-06 -1.2402065e-06 -2.4804144e-06 -3.720627e-06
-4.960843e-06 -6.2010695e-06 -2.6176212e-06 -2.617622e-06 -5.2352434e-06 -7.852864e-06 -1.0470498e-05 -1.3088127e-05
-6.126289e-07 -6.126294e-07 -1.2252626e-06 -1.8378993e-06 -2.450548e-06 -3.0632018e-06 -4.048951e-07 -4.0489525e-07
-8.097911e-07 -1.2146917e-06 -1.6195962e-06 -2.0245031e-06 4.8158734e-07 4.8158716e-07 9.631724e-07 1.4447575e-06
1.9263346e-06 2.4079113e-06 -3.577478e-06 -3.5774765e-06 -7.1549507e-06 -1.0732425e-05 -1.43099e-05 -1.7887352e-05
2.7726257e-06 2.7726246e-06 5.5452506e-06 8.3178775e-06 1.109049e-05 1.3863113e-05 1.3367894e-06 1.3367888e-06
2.6735768e-06 4.0103573e-06 5.347127e-06 6.6838825e-06 3.3940594e-07 3.394055e-07 6.788089e-07 1.0182097e-06
1.3576044e-06 1.6969921e-06 1.9171023e-06 1.917102e-06 3.834201e-06 5.7513e-06 7.668394e-06 9.585474e-06
1.2202921e-06 1.2202918e-06 2.4405806e-06 3.6608656e-06 4.8811353e-06 6.1013975e-06 -7.4957046e-07 -7.4956984e-07
-1.499142e-06 -2.2487216e-06 -2.9983084e-06 -3.7479097e-06 1.7726896e-06 1.7726899e-06 3.545376e-06 5.318058e-06

exp_avg_sq f4 [100, 6]
00000000: a345 f632 a145 f632 9945 f633 1a87 8a34
00000010: 7f45 f634 2f66 4035 8431 782f 6b31 782f
00000020: 3a31 7830 729b 0b31 3830 7831 13e5 c131
00000030: 0706 0332 0506 0332 0106 0333 af66 9333
00000040: ea05 0334 2fb9 4c34 160b 4631 100b 4631
00000050: ff0a 4632 49cc de32 ae0a 4633 3eb8 9a33
00000060: a1db 4e31 9ddb 4e31 8fdb 4e32 deb6 e832
00000070: 5adb 4e33 3f9b a133 3b9e 1831 3b9e 1831
00000080: 3d9e 1832 0fb2 ab32 429e 1833 3e77 6e33
00000090: 032e 1933 032e 1933 fc2d 1934 b553 ac34
000000a0: f02d 1935 bc57 6f35 4e60 d930 4160 d930
000000b0: 2660 d931 f68b 7432 b55f d932 88d2 2933
000000c0: 7a86 8e2f 7b86 8e2f 7a86 8e30 4357 2031
000000d0: 7b86 8e31 2cb2 de31 86d7 9b2f 82d7 9b2f
000000e0: 7dd7 9b30 6652 2f31 75d7 9b31 7280 f331
000000f0: daee a031 daee a031 d3ee a032 960c 3533
00000100: bcee a033 d774 fb33 0834 0f31 0434 0f31
00000110: f633 0f32 661a a132 bc33 0f33 acc0 5f33
00000120: 1f6b df31 1e6b df31 176b df32 8158 7b33
00000130: 016b df33 888b 2e34 f628 342f f528 342f
00000140: f328 3430 2aae ca30 eb28 3431 fdbf 8c31
00000150: e868 182e cf68 182e 8168 182f 3375 ab2f
00000160: 6967 1830 5020 6e30 02c8 bf2f f8c7 bf2f
00000170: c2c7 bf30 61c0 5731 09c7 bf31 13d3 1532
00000180: 4bb3 822e 35b3 822e f5b2 822f e608 1330
00000190: edb1 8230 f234 cc30 9057 0f34 8d57 0f34
000001a0: 8b57 0f35 8442 a135 7a57 0f36 bbf8 5f36
000001b0: a382 942e 9282 942e 5f82 942f 7412 2730
000001c0: c681 9430 1a0a e830 b51e 872f b51e 872f
000001d0: b31e 8730 7d02 1831 b11e 8731 e41f d331
000001e0: 1292 8531 0d92 8531 0292 8532 4244 1633
000001f0: e191 8533 e8b3 d033 9c1f be31 9c1f be31
00000200: 971f be32 83e3 5533 8d1f be33 a888 1434
00000210: c50b 1631 c20b 1631 b20b 1632 16cd a832
00000220: 7c0b 1633 c571 6a33 3b0a 0330 3d0a 0330
00000230: 3a0a 0331 866b 9331 340a 0332 f5bf 4c32
00000240: 8980 8231 8780 8231 7d80 8232 94d0 1233
00000250: 6580 8233 7be8 cb33 d96a 7731 d66a 7731
00000260: c96a 7732 fc2b 0b33 936a 7733 054b c133
00000270: d852 c533 d452 c533 cd52 c534 1ffd 5d35
00000280: b952 c535 a428 1a36 8c06 e82f 8006 e82f
00000290: 5e06 e830 6683 8231 ac05 e831 0444 3532
000002a0: 45d1 802f 47d1 802f 52d1 8030 88eb 1031
000002b0: 7bd1 8031 7247 c931 32e6 a331 2ee6 a331
000002c0: 28e6 a332 f662 3833 f5e5 a333 a70b 0034
000002d0: 45cb 3330 43cb 3330 3bcb 3331 ba44 ca31
000002e0: 39cb 3332 b976 8c32 6b3d cf31 683d cf31
000002f0: 663d cf32 1325 6933 5c3d cf33 e2e7 2134
00000300: b2fc ba2f a8fc ba2f 75fc ba30 a95b 5231
00000310: b9fb ba31 4114 1232 2299 f92e 1e99 f92e
00000320: 1899 f92f 1a66 8c30 fe98 f930 73ff 4231
00000330: e0a5 712e d9a5 712e cea5 712f 29ed 0730
00000340: 70a5 7130 16c9 bc30 ef13 7831 ef13 7831
00000350: e013 7832 118b 0b33 c713 7833 3ecf c133
00000360: 5eec 1532 5eec 1532 5eec 1533 efa9 a833
00000370: 4dec 1534 5541 6a34 c740 d430 c140 d430
00000380: a240 d431 82c8 6e32 3240 d432 e1d1 2533
00000390: dd4f 432f ce4f 432f b74f 4330 5fb9 db30
000003a0: 324f 4331 8b95 9831 d049 3931 cd49 3931
000003b0: bf49 3932 e872 d032 9549 3933 5bc1 9033
000003c0: 29d4 8d30 1cd4 8d30 00d4 8d31 5d8e 1f32
000003d0: 99d3 8d32 1e9a dd32 6117 b02f 5817 b02f
000003e0: 2817 b030 d619 4631 8916 b031 4991 0932
000003f0: b65b 3931 b65b 3931 ae5b 3932 0787 d032
2.8669836e-08 2.8669833e-08 1.14679274e-07 2.5802802e-07 4.5871636e-07 7.167427e-07 2.257306e-10 2.2573025e-10
9.029183e-10 2.0315523e-09 3.611616e-09 5.643082e-09 7.626574e-09 7.626572e-09 3.0506275e-08 6.863899e-08
1.2202477e-07 1.906635e-07 2.8819094e-09 2.881908e-09 1.1527617e-08 2.59371e-08 4.611018e-08 7.204697e-08
3.010179e-09 3.010178e-09 1.20407e-08 2.7091513e-08 4.816261e-08 7.525386e-08 2.2208855e-09 2.2208855e-09
8.883544e-09 1.9987992e-08 3.5534192e-08 5.5522143e-08 3.5664936e-08 3.5664936e-08 1.4265964e-07 3.2098401e-07
5.706379e-07 8.916211e-07 1.58162e-09 1.5816185e-09 6.326462e-09 1.4234493e-08 2.5305647e-08 3.9539856e-08
2.59252e-10 2.5925204e-10 1.037008e-09 2.3332667e-09 4.1480326e-09 6.481306e-09 2.8347474e-10 2.8347463e-10
1.133898e-09 2.551269e-09 4.5355883e-09 7.0868333e-09 4.683767e-09 4.683767e-09 1.8735056e-08 4.2153793e-08
7.494006e-08 1.1709351e-07 2.0838815e-09 2.0838806e-09 8.33551e-09 1.8754871e-08 3.3341834e-08 5.2096468e-08
6.5023325e-09 6.502332e-09 2.6009316e-08 5.8520985e-08 1.04037106e-07 1.6255774e-07 1.6385457e-10 1.6385455e-10
6.554181e-10 1.4746935e-09 2.6216707e-09 4.096363e-09 3.4653974e-11 3.4653887e-11 1.3861447e-10 3.1187994e-10
5.544423e-10 8.6629814e-10 3.4884812e-10 3.4884784e-10 1.3953854e-09 3.1395972e-09 5.5814593e-09 8.720934e-09
5.9435644e-11 5.943549e-11 2.377402e-10 5.3490934e-10 9.509314e-10 1.4858001e-09 1.3349768e-07 1.3349764e-07
5.3399043e-07 1.2014793e-06 2.1359579e-06 3.337437e-06 6.7534665e-11 6.753455e-11 2.7013677e-10 6.078047e-10
1.0805301e-09 1.6883093e-09 2.4578176e-10 2.4578176e-10 9.831268e-10 2.2120326e-09 3.9325063e-09 6.1445338e-09
3.8874157e-09 3.8874135e-09 1.5549634e-08 3.4986677e-08 6.21983e-08 9.7184795e-08 5.5333214e-09 5.5333214e-09
2.2133277e-08 4.9799848e-08 8.8533035e-08 1.383329e-07 2.1834563e-09 2.1834556e-09 8.733808e-09 1.9651036e-08
3.493504e-08 5.4585843e-08 4.767206e-10 4.767207e-10 1.9068822e-09 4.290487e-09 7.6275235e-09 1.1918009e-08
3.7981107e-09 3.79811e-09 1.5192422e-08 3.4182975e-08 6.0769516e-08 9.495212e-08 3.6003966e-09 3.600396e-09
1.4401572e-08 3.2403463e-08 5.7606098e-08 9.000909e-08 9.1885966e-08 9.188594e-08 3.6754355e-07 8.2697255e-07
1.4701719e-06 2.2971444e-06 4.2205206e-10 4.2205173e-10 1.6882031e-09 3.7984362e-09 6.7527335e-09 1.0551052e-08
2.343176e-10 2.3431765e-10 9.372718e-10 2.1088642e-09 3.7491055e-09 5.8579923e-09 4.7700945e-09 4.7700928e-09
1.908036e-08 4.2930843e-08 7.632108e-08 1.1925168e-07 6.5408684e-10 6.5408673e-10 2.6163451e-09 5.886787e-09
1.0465379e-08 1.6352134e-08 6.0314753e-09 6.031474e-09 2.4125892e-08 5.428326e-08 9.65035e-08 1.5078652e-07
3.4012754e-10 3.4012726e-10 1.3605034e-09 3.0611125e-09 5.44193e-09 8.502924e-09 1.1350411e-10 1.1350408e-10
4.5401616e-10 1.021536e-09 1.8160617e-09 2.8375922e-09 5.4944382e-11 5.4944358e-11 2.1977728e-10 4.944974e-10
8.791039e-10 1.3735952e-09 3.610008e-09 3.610008e-09 1.4440019e-08 3.248994e-08 5.7759987e-08 9.02496e-08
8.726685e-09 8.726685e-09 3.490674e-08 7.8540204e-08 1.3962672e-07 2.1816716e-07 1.5443441e-09 1.5443434e-09
6.17736e-09 1.38990135e-08 2.470924e-08 3.860794e-08 1.776352e-10 1.7763499e-10 7.105387e-10 1.5987033e-09
2.8421252e-09 4.4407833e-09 2.6963e-09 2.6962994e-09 1.0785185e-08 2.426664e-08 4.314059e-08 6.740694e-08
1.03194e-09 1.0319385e-09 4.1277417e-09 9.287388e-09 1.6510784e-08 2.579787e-08 3.2030825e-10 3.20308e-10
1.2812267e-09 2.8827478e-09 5.124836e-09 8.007484e-09 2.6973175e-09 2.6973175e-09 1.0789263e-08 2.427579e-08

exp_avg f4 [100]
00000000: 7af5 aa3b 7ce0 cdba fd2c 803b 7521 f93a
00000010: 9aa1 153b d735 3fbb aca7 24ba cbe4 ba3a
00000020: 0f5f 0f3b 74e1 09bb 99bb 523b 0ea7 143b
00000030: 1328 863b 3fe4 a43a 5ef1 7939 c0cb caba
00000040: 81ad 5b38 1c4f fbbb 625f 53ba f78e 133b
00000050: 81a5 213b 8939 d43a 7acb 0c3b 0fd8 22bb
00000060: 9b56 193b 1c0d 303b 00e7 93bb 3c20 0abb
00000070: bef7 16bb b130 203b 953a 26bb 1e6a 9cbb
00000080: e892 c6ba 1d7f bdba 5135 8c3a 3b1c afbb
00000090: 64a3 943b 42d2 af3a dea0 d739 85e6 303b
000000a0: 0b90 993a bc57 eeba d1ef 123b 2d0b 1c3b
000000b0: 37f5 24bb 2cf4 353a c067 f13a 2857 cc3a
000000c0: fe8e deba 5148 46bb daca 0d3b c3f4 2dba
000000d0: 6260 233b c802 d4b9 9f77 b7bb 3627 e9bb
000000e0: 578a edba 4135 9a3b e413 9dba 58e0 2abb
000000f0: 6e32 c43b 6d1c 44bb 1cf5 a83a 7de1 263b
00000100: 77df d63a 3c43 d7ba 3b3d c23a 9999 323b
00000110: 9451 22bb 7e56 c83a 4cd1 bcba beee 61bb
00000120: a3c2 86ba 5d37 c03a 658a 213b 177f a0ba
00000130: 8ca7 c73a cfd0 743b d131 15bb c603 5b3b
00000140: cd17 153b d0b7 06bb 085b c4bb 05d6 1b3a
00000150: 8432 633b 29de 21bb b222 b83a 4445 e9ba
00000160: 266e 42bb 8a45 fe3a 20da 413b f490 0dbb
00000170: 2f14 99ba 6e05 2abb abac 4e3b bf7b b1bb
00000180: ea46 f63a 119d 813a 97ed a8bb c4d1 2a3a
0.0052172514 -0.001570716 0.003911613 0.0019007163 0.0022831918 -0.0029176378 -0.00062810886 0.001425886
0.0021876728 -0.0021038922 0.0032155274 0.002268258 0.0040941327 0.001258023 0.00023836407 -0.0015472099
5.2375257e-05 -0.0076693427 -0.00080632244 0.0022515634 0.0024665298 0.0016191463 0.0021483586 -0.002484802
0.0023397568 0.0026863283 -0.0045136213 -0.0021076342 -0.002303585 0.0024443085 -0.0025364507 -0.0047733923
-0.0015149983 -0.0014457438 0.0010697042 -0.0053439415 0.0045360792 0.0013414102 0.0004112785 0.002699287
0.0011715902 -0.0018184106 0.0022420774 0.0023810372 -0.0025170573 0.00069409865 0.0018417761 0.001558994
-0.0016979871 -0.0030255506 0.0021635802 -0.00066358986 0.0024929275 -0.00040437863 -0.0055989767 -0.00711527
-0.0018122894 0.0047060554 -0.0011984077 -0.002607366 0.005987457 -0.002992417 0.0012890431 0.0025463991
0.0016393502 -0.0016423236 0.0014819273 0.0027252196 -0.0024767863 0.0015284566 -0.0014405637 -0.0034474577
-0.0010281395 0.0014664937 0.002464914 -0.0012244907 0.0015232428 0.0037355905 -0.0022765289 0.0033418997
0.0022749782 -0.0020556338 -0.005992297 0.0005944672 0.003466756 -0.0024699068 0.0014048426 -0.0017797132
-0.0029667704 0.0019399386 0.0029579476 -0.0021601291 -0.0011678989 -0.0025943178 0.0031536024 -0.005416363
0.0018789445 0.0009888728 -0.005155276 0.0006516243

exp_avg_sq f4 [100]
00000000: 8f94 003e b66a 2b3a 8d28 913c 8781 a93b
00000010: b6a7 b53b cc40 e13b 3a13 d63d 9551 123b
00000020: d7d5 433b b249 9a3a c0a2 1c3c ac64 483b
00000030: 1e75 7b3c c4d0 043a 92a4 4b38 3f7b d93a
00000040: 4b51 3a39 1031 ae3e aff4 3e39 0fb2 233b
00000050: ec02 f33b b568 db3c dfac 653b 85d7 cd3a
00000060: a06e ff3b f83d de3b c471 7c3e 8b4b 8d3a
00000070: 45a5 ab3a cda3 213c 5f36 e03a 2e18 653c
00000080: 4b7f 8e3a 6049 1a3a 5ce6 2c3a 0871 153c
00000090: 1407 ab3c 25f8 133b 7b62 3439 e525 9c3b
000000a0: 7693 5f3a cbb9 983a 52fa 953b 9c4e c53b
000000b0: 4534 ca3a 6832 ba39 5d3e d43b 8f5b 283a
000000c0: d1e1 303a d235 943b 63f0 f73b 0cfe ce39
000000d0: 5dd0 093c 87eb 2f39 8db3 e23b 16f8 953e
000000e0: 3124 593c 3872 263e b8cc 113a 0535 e63a
000000f0: 6d95 0c3d 4a3b 673b 6199 0c3b 682f 283c
00000100: 7b2a 6c3b 2973 973a b04b 153b 9284 993b
00000110: 00c4 c13a ca07 e63a 5033 133a 41b1 963b
00000120: 6b62 123a 6806 e83a 2f3a b93b 7f98 c73a
00000130: 6277 073b 6017 3e3c af5a b13a a577 763c
00000140: 319a 733b 4d20 ae3a 4923 563d c109 073a
00000150: 1c4c 573c 203e e53b 2b00 df3a 232d fe3a
00000160: 7941 a13b 6c13 903b e107 003c 7d27 943a
00000170: abf6 273b 0046 4e3b 4799 423c 81d1 6d3c
00000180: 7d4c 793b 4762 d139 ac5e c53b fcca 673b
0.1255667 0.00065390335 0.017719531 0.0051729116 0.0055436743 0.0068741795 0.10452886 0.0022326459
0.0029882097 0.001177123 0.009560287 0.0030577583 0.015347747 0.0005066509 4.855224e-05 0.0016592516
0.00017768626 0.34021807 0.00018210964 0.0024977957 0.00741612 0.026783327 0.0035045666 0.0015704489
0.00779517 0.0067822896 0.24652773 0.001077996 0.0013095519 0.009865713 0.0017106048 0.013982816
0.0010871676 0.00058855675 0.00065956055 0.009121187 0.020877399 0.0022578326 0.00017202825 0.0047652596
0.00085287483 0.001165205 0.0045769596 0.006021334 0.0015426954 0.0003551424 0.006477161 0.00064223347
0.00067475165 0.0045230174 0.007566498 0.00039480662 0.008411494 0.00016777041 0.006918377 0.29290837
0.013253258 0.16254508 0.00055618165 0.0017563408 0.03432219 0.0035283142 0.0021453726 0.010265209
0.0036036063 0.0011554706 0.002278071 0.004684993 0.0014783144 0.0017549929 0.0005615251 0.004598767
0.00055841234 0.0017702105 0.005652688 0.0015227942 0.0020670523 0.011602253 0.0013531054 0.015043174
0.0037170763 0.0013284773 0.052279744 0.0005151295 0.0131407045 0.0069959313 0.00170136 0.0019392114
0.004921135 0.0043968465 0.0078143785 0.0011303272 0.0025629203 0.0031474829 0.0118773645 0.014515282
0.0038039975 0.0003993681 0.0060232487 0.003536879
