TSTE-R/CHP-failed-case/Proposed-Method/save_model_0228.ckpt-700000.pt (torch, 269855 bytes, 24 tensors)

linears.0.weight f4 [100, 6]
0	0x4118c2ea	9.547586
1	0x41197136	9.590139
2	0x411a61d7	9.648887
3	0x4119264f	9.571853
4	0x411bdc2c	9.741253
5	0x41198c02	9.596682
6	0xc128e449	-10.555734
7	0xc1279566	-10.473974
8	0xc1293a16	-10.576681
9	0xc12d1ef4	-10.820057
10	0xc12961e7	-10.586402
11	0xc12c55c6	-10.770941
12	0x40f2ed2f	7.591453
13	0x40f30c38	7.5952415
14	0x4100940e	8.036146
15	0x40fd1a1c	7.909437
16	0x40f50f82	7.658143
17	0x40f6f6ba	7.717618
18	0x40c5c701	6.1805425
19	0x40bcdec6	5.902194
20	0x40bc7cde	5.8902426
21	0x40bcb809	5.897465
22	0x40c841ff	6.258056
23	0x40c6f3b0	6.217247
24	0x40ddc380	6.9301147
25	0x40e21565	7.0651116
26	0x40e0362f	7.006614
27	0x40df48f2	6.9776545
28	0x40d879d4	6.7648716
29	0x40dd7316	6.9202986
30	0xc18a69df	-17.301695
31	0xc18a3017	-17.273481
32	0xc1894cc4	-17.162483
33	0xc18962f6	-17.17332
34	0xc1893c0f	-17.154325
35	0xc188ea7d	-17.114496
36	0x41790724	15.564243
37	0x417349e7	15.205543
38	0x4173f50d	15.247327
39	0x4171fbb9	15.123956
40	0x41753753	15.326007
41	0x4172b7d5	15.169881
42	0x4086d553	4.2135406
43	0x408250c2	4.072358
44	0x4085d436	4.1821547
45	0x4076d642	3.8568273
46	0x408975f8	4.2956505
47	0x4085251e	4.160781
48	0xc28aae5d	-69.34055
49	0xc28ab7b3	-69.35879
50	0xc28aee2b	-69.46517
51	0xc28a99ce	-69.3004
52	0xc28a9642	-69.29347
53	0xc28aaedf	-69.341545
54	0xc11c6db2	-9.776781
55	0xc1218e85	-10.097295
56	0xc11dfe3c	-9.874569
57	0xc120d0a7	-10.0509405
58	0xc11d8ea0	-9.847321
59	0xc121992a	-10.099894
60	0x41012d00	8.073486
61	0x41035c0d	8.209973
62	0x40ff85a0	7.9850616
63	0x4102391e	8.138945
64	0x41045757	8.271323
65	0x40fdc91f	7.930801
66	0x40fef408	7.967289
67	0x40fbc706	7.868045
68	0x40f4ebcd	7.6537843
69	0x40f62390	7.691841
70	0x40fd3bc4	7.9135456
71	0x40ffccab	7.993734
72	0x4112600b	9.148448
73	0x410f3cf8	8.952385
74	0x4110f4d8	9.059776
75	0x410f63f3	8.961902
76	0x4110914b	9.035472
77	0x410eb229	8.918496
78	0xc27d71dc	-63.36119
79	0xc27f3170	-63.79828
80	0xc27da617	-63.412197
81	0xc27db5d3	-63.427563
82	0xc27e7aa5	-63.61977
83	0xc27ec33a	-63.69065
84	0xc1fd5704	-31.667488
85	0xc1fd22ab	-31.641928
86	0xc1ff8917	-31.941938
87	0xc1feb625	-31.838938
88	0xc1fd34d1	-31.65079
89	0xc1fed85c	-31.855644
90	0xc0edbdd7	-7.429424
91	0xc0f3b1ce	-7.6154547
92	0xc0ed6daf	-7.419639
93	0xc0ed217c	-7.4103374
94	0xc0edee7d	-7.4353623
95	0xc0f1b37c	-7.5531597
96	0xc20ec0d6	-35.688316
97	0xc20fa372	-35.909615
98	0xc20fc88c	-35.945847
99	0xc20e8c88	-35.637238
100	0xc20ef650	-35.74054
101	0xc20e64a9	-35.5983
102	0x4185b062	16.711124
103	0x4185198d	16.637476
104	0x4186e96f	16.863981
105	0x41857a69	16.68477
106	0x418716ca	16.886127
107	0x4184b7f9	16.58983
108	0xc19ab828	-19.33992
109	0xc19a24e4	-19.268013
110	0xc198ad5f	-19.084654
111	0xc19b2383	-19.39234
112	0xc1986d20	-19.053284
113	0xc19a7dd8	-19.311447
114	0xc291a0bc	-72.813934
115	0xc291a0f8	-72.81439
116	0xc291edae	-72.96422
117	0xc29217a2	-73.04616
118	0xc2925df0	-73.18347
119	0xc2920039	-73.000435
120	0x40cf6d4d	6.4820924
121	0x40ca7929	6.32729
122	0x40d074c7	6.514255
123	0x40d39aae	6.612632
124	0x40d6d24a	6.71317
125	0x40cb8d45	6.360995
126	0x41d60090	26.750275
127	0x41d2c74f	26.347319
128	0x41d4b714	26.589394
129	0x41d387ef	26.441374
130	0x41d33c48	26.404434
131	0x41d2ff8e	26.374783
132	0x40eb471b	7.35243
133	0x40ef19a2	7.471879
134	0x40f0dcb3	7.526941
135	0x40e80d65	7.251635
136	0x40eae8b5	7.3409066
137	0x40f0a672	7.520318
138	0xc101fb43	-8.123843
139	0xc0fc11c0	-7.8771667
140	0xc1009fdb	-8.039027
141	0xc10388a4	-8.22086
142	0xc10073b0	-8.028244
143	0xc1036591	-8.2122965
144	0x40eec69e	7.4617453
145	0x40f87d62	7.7653055
146	0x40f03f88	7.5077553
147	0x40f7bf80	7.7421265
148	0x40f40247	7.625278
149	0x40f0ff0a	7.5311327
150	0x40f0c027	7.523456
151	0x40f025a7	7.504596
152	0x40fd945f	7.9243617
153	0x40fa2d6c	7.8180447
154	0x40f02ce8	7.5054817
155	0x40f4e5b3	7.6530395
156	0x414299c6	12.162542
157	0x4143ebfc	12.245113
158	0x413d73d5	11.840779
159	0x4140d660	12.052338
160	0x413d2e96	11.8238735
161	0x413caf7b	11.792842
162	0xc0d3a58d	-6.613959
163	0xc0d2dc1a	-6.589368
164	0xc0dbeac4	-6.872408
165	0xc0d79c6d	-6.737845
166	0xc0db5e1d	-6.8552384
167	0xc0d3630b	-6.60584
168	0xc2148cff	-37.13769
169	0xc2157e49	-37.373325
170	0xc21411cc	-37.01738
171	0xc2149d91	-37.153873
172	0xc2142796	-37.03866
173	0xc21461b3	-37.09541
174	0x40c4efb2	6.1542597
175	0x40ca688f	6.3252635
176	0x40c354c5	6.104098
177	0x40c9f2d0	6.31089
178	0x40cb9d0f	6.362922
179	0x40c3cc46	6.1186857
180	0xc0ed5636	-7.416774
181	0xc0e14a46	-7.0403166
182	0xc0eb8e91	-7.361153
183	0xc0e6a532	-7.2076654
184	0xc0e89362	-7.267991
185	0xc0e4423a	-7.1330843
186	0xc0bbfc8a	-5.8745775
187	0xc0c45936	-6.13589
188	0xc0c3d104	-6.1192646
189	0xc0c3d7d6	-6.120097
190	0xc0c3da54	-6.1204014
191	0xc0c5ff51	-6.1874166
192	0xc12c7758	-10.779137
193	0xc1325aa7	-11.147132
194	0xc132fbe6	-11.186499
195	0xc12ee3e9	-10.930642
196	0xc12e3c0e	-10.889662
197	0xc1309449	-11.036202
198	0xc2103871	-36.05512
199	0xc2116718	-36.350677
200	0xc2116faf	-36.359066
201	0xc21006b9	-36.006565
202	0xc2113252	-36.29914
203	0xc210164b	-36.02177
204	0xc232e4ca	-44.723427
205	0xc2330262	-44.752327
206	0xc234149b	-45.020123
207	0xc232a839	-44.66428
208	0xc233eb90	-44.98004
209	0xc233427b	-44.814922
210	0xc085af34	-4.177637
211	0xc0867d13	-4.202768
212	0xc07c369a	-3.9408326
213	0xc0870181	-4.2189336
214	0xc0788dcb	-3.8836544
215	0xc082b542	-4.084626
216	0x4110cc56	9.049887
217	0x41174876	9.455191
218	0x4117bf67	9.484229
219	0x4110cc23	9.049838
220	0x4110c3ae	9.047773
221	0x41134c84	9.206181
222	0x40b8950e	5.768195
223	0x40b018f7	5.5030475
224	0x40b8b46b	5.7720237
225	0x40b8f12a	5.779439
226	0x40b998a7	5.7998843
227	0x40b36c0b	5.606939
228	0xc210b592	-36.177315
229	0xc21012c0	-36.01831
230	0xc210d767	-36.210354
231	0xc2108c80	-36.137207
232	0xc2101970	-36.02484
233	0xc21183c1	-36.378666
234	0x40f11df8	7.5349083
235	0x40ef9954	7.487467
236	0x40f38262	7.609666
237	0x40ed9647	7.4245944
238	0x40ed7b45	7.4212976
239	0x40f492ec	7.642935
240	0x40a7a90c	5.2393856
241	0x40ae01d1	5.4377217
242	0x40a52ad5	5.1614785
243	0x40aaa0a3	5.332109
244	0x40a8366a	5.2566423
245	0x40b260cd	5.5743165
246	0xc1078aff	-8.471435
247	0xc10642c5	-8.391301
248	0xc108f70e	-8.560316
249	0xc107d95e	-8.490568
250	0xc1074c4e	-8.456129
251	0xc10be5b7	-8.743583
252	0x40ee5e97	7.4490466
253	0x40eb0d2a	7.345357
254	0x40e47021	7.1386876
255	0x40ec7c77	7.3901935

linears.0.bias f4 [100]
0	0x3e9336d3	0.28752765
1	0x3ef139cf	0.47114417
2	0x3ebb4610	0.3657689
3	0x3ee6c907	0.45075247
4	0x3ee16e9e	0.44029707
5	0x3f61086a	0.87903464
6	0x3ef1be03	0.4721528
7	0x3ecea3be	0.403593
8	0x3fd04a85	1.6272742
9	0x3ecb0155	0.39649454
10	0x3ed6d09c	0.4195603
11	0x3eebb528	0.4603665
12	0x3ed134ed	0.40860692
13	0x3fd35f8e	1.6513536
14	0x3f7e61f3	0.9936821
15	0x3f038e73	0.51389235
16	0x3f88f9c9	1.0701228
17	0x3f2d04be	0.6758536
18	0x3f106cf2	0.5641624
19	0x3fda8e6f	1.7074717
20	0x3ecb8ac6	0.39754313
21	0x402820e8	2.6270084
22	0x3ed9e47c	0.42557132
23	0x3ed6fb3b	0.4198855
24	0x3ee1a36a	0.44069988
25	0x3ee2a93f	0.4426975
26	0x3eaa9c02	0.3332215
27	0x3ef4ff47	0.4785101
28	0x3fc5ba4b	1.5447477
29	0x3ec86a59	0.39143637
30	0x3ecb4c7c	0.3970679
31	0x3ec29988	0.3800776
32	0x3f2b9d92	0.6703731
33	0x3fb0df5b	1.3818163
34	0x3f992185	1.1963354
35	0x3f01da5e	0.50723827
36	0x3ece4dd4	0.40293753
37	0x3ed148d7	0.40875885
38	0x3f92783f	1.1442946
39	0x3ecd5a6c	0.4010805
40	0x3ecc5333	0.39907226
41	0x3f0c1553	0.5472004
42	0x3ede2ce3	0.4339362
43	0x3f048602	0.5176698
44	0x3ef3a8f2	0.47589833
45	0x3fb609f4	1.4221787
46	0x3edd8252	0.4326349
47	0x3fc2d636	1.5221622
48	0x3eefc8b1	0.46832803
49	0x3eb092e2	0.34487063
50	0x3ebf1e2f	0.37327716
51	0x3fe78a44	1.808907
52	0x3ed10e50	0.40831232
53	0x3fb14f4c	1.3852324
54	0x3f11e312	0.56987107
55	0x3f2f552a	0.68489325
56	0x3fade466	1.3585327
57	0x3e922cb9	0.28549746
58	0x3ef96795	0.4871184
59	0x3efb4435	0.49075475
60	0x3e8aa32f	0.27077624
61	0x3ebc7be2	0.36813265
62	0x3edb6224	0.42848313
63	0x3ec49634	0.38395846
64	0x3ed43e0a	0.41453582
65	0x3fe4ac82	1.7865145
66	0x3ef2aa94	0.47395766
67	0x3edd9dfc	0.43284595
68	0x3f04d963	0.51894206
69	0x3ebb72f0	0.36611128
70	0x3ebf9d93	0.37424907
71	0x3ec6d5a9	0.38834885
72	0x3f1b4e9e	0.60666835
73	0x3ebbfddb	0.36717114
74	0x3edbe415	0.4294745
75	0x3f0c5237	0.5481295
76	0x3ee2214a	0.44166023
77	0x3ec83a8b	0.39107165
78	0x3eff9501	0.49918368
79	0x3ebb5561	0.36588576
80	0x3ede712f	0.43445727
81	0x3f124e1f	0.57150453
82	0x3ea3c3fb	0.3198546
83	0x3fc833fb	1.5640863
84	0x3ed5bef0	0.41747236
85	0x3ec740b9	0.38916567
86	0x3ecd814f	0.40137717
87	0x3fbafcb6	1.4608371
88	0x3ebee48b	0.3728374
89	0x3ec4273f	0.38311192
90	0x3eef8e63	0.4678832
91	0x3ec9d50b	0.3942035
92	0x3f4b31b8	0.7937274
93	0x3e9f3ccb	0.3110107
94	0x3ecbf67e	0.39836496
95	0x3f953450	1.165659
96	0x3ec1052c	0.37699258
97	0x3fe2745d	1.7691761
98	0x3f3343f5	0.7002557
99	0x3f4e0088	0.8046956

linears.1.weight f4 [100, 100]
0	0x3e307eb2	0.1723583
1	0xbde2fee0	-0.1108377
2	0x3d74a964	0.059731856
3	0xbeb68122	-0.35645396
4	0xbe4ceb41	-0.20011617
5	0xbe8f9d7c	-0.2804984
6	0xbe289697	-0.16463695
7	0xbeea0b7e	-0.45711893
8	0x3e2f013f	0.17090319
9	0xbe3393b7	-0.17536817
10	0x3e1d31f3	0.15351085
11	0x3d8beff1	0.068328746
12	0x3e0a2b27	0.13493024
13	0x3dd49f17	0.103819065
14	0xbdd59f8f	-0.10430824
15	0xbe8f5c1b	-0.27999958
16	0xbe275de7	-0.16344415
17	0x3cdec1da	0.027192045
18	0xbe0a0079	-0.13476743
19	0xbcdfd6a7	-0.027324034
20	0xbd5b1f1a	-0.053496458
21	0x3e34afb4	0.1764515
22	0xbe3a2944	-0.18179804
23	0x3cd29aa3	0.025708502
24	0x3d813be9	0.06310255
25	0x3b2f06df	0.0026706976
26	0xbde07239	-0.10959286
27	0xbe3a7e68	-0.18212283
28	0xbd54ce75	-0.051954705
29	0xbd91c4dd	-0.07117627
30	0xbe2f742e	-0.17134163
31	0x3c5d2781	0.013498188
32	0xbe5b497f	-0.21414755
33	0xbd513f5e	-0.051085822
34	0xbe2a13d5	-0.16609128
35	0x3c6e9804	0.014562611
36	0x3def8ff5	0.116973795
37	0xbe442ce5	-0.19157751
38	0x3dc52578	0.09626287
39	0x3ddcb014	0.10775772
40	0xbec5770a	-0.38567382
41	0xbd78f9a0	-0.060784936
42	0xbe8b51b3	-0.2721077
43	0x3df444ef	0.119272105
44	0x3d290d64	0.041272536
45	0xbc68ff7c	-0.0142210685
46	0xbe63d8c0	-0.22250652
47	0xbe4fc463	-0.2028976
48	0xbc957c96	-0.018247884
49	0xbe440774	-0.19143468
50	0xbeb38504	-0.3506242
51	0x3d32c670	0.043646276
52	0x3c99a16e	0.018753733
53	0x3dd688de	0.10475324
54	0x3f420041	0.7578164
55	0xbde21dd4	-0.110408455
56	0xbe1e8e6e	-0.1548402
57	0x3e1750be	0.14776894
58	0xbe1fc350	-0.1560185
59	0xbd5cd87d	-0.053917397
60	0x3dcc4400	0.099739075
61	0xbcacc084	-0.021087892
62	0xbeba35ec	-0.36369264
63	0xbddb4e2c	-0.107082695
64	0xbe9ce674	-0.30644572
65	0x3df8c0d0	0.12146151
66	0xbdce33a2	-0.10068442
67	0xbe02f3bc	-0.1278829
68	0xbd899837	-0.06718486
69	0xbea9fc25	-0.33200184
70	0xbe0e0a4a	-0.13871112
71	0xbe108ab7	-0.14115416
72	0x3cec0535	0.028811077
73	0xbecd9073	-0.40149269
74	0x3cc1b273	0.023644662
75	0xbe9833ea	-0.29727107
76	0x3c9f30ae	0.019432392
77	0x3e0fc592	0.14040211
78	0x3982f299	0.00024976282
79	0x3cc00e3a	0.023444284
80	0x3dda8d7b	0.106715165
81	0xbca17fe0	-0.019714296
82	0x3d999923	0.07499912
83	0x3d5e0c8b	0.05421118
84	0x3db3936a	0.087683514
85	0x3bc5e736	0.0060395254
86	0xbea4a7f1	-0.3215938
87	0x3a35d4cf	0.0006936313
88	0xbd832d79	-0.064051576
89	0xbe222742	-0.15835288
90	0x3e1600fb	0.14648812
91	0x3c82a90c	0.015949748
92	0xbeb64536	-0.3559968
93	0xbd1cce4c	-0.038282678
94	0xbddc20cd	-0.10748444
95	0x3e06e624	0.13173729
96	0xbee9b0a3	-0.45642576
97	0xbd414cff	-0.04719257
98	0x3f16c266	0.5889038
99	0xbb9ff69f	-0.0048816944
100	0x409e6a04	4.9504414
101	0xbf88bade	-1.0682027
102	0x404b9f58	3.1816006
103	0x3fce99f1	1.6140729
104	0x4000f448	2.0149097
105	0xc03449f5	-2.817014
106	0x408606da	4.1883364
107	0x3fa5ee03	1.296326
108	0xbfbf8ab6	-1.4964206
109	0xbfe3b16a	-1.7788517
110	0x4035bd30	2.839672
111	0x401c387c	2.4409475
112	0x40465871	3.099148
113	0xbfb25afd	-1.3934017
114	0xbfa62cf3	-1.2982467
115	0xbf06204a	-0.5239302
116	0xbf9b40ad	-1.2129112
117	0x4088d8b5	4.2764535
118	0xbfe56fb9	-1.792472
119	0xbfcb0860	-1.5861931
120	0x400e3b8c	2.2223845
121	0x40923d5d	4.5699906
122	0x4015eae4	2.3424616
123	0xbfd4d115	-1.6626307
124	0x400ff122	2.2490926
125	0x401c7e9e	2.445228
126	0x408574c1	4.170502
127	0xbf53f1b3	-0.8279068
128	0xc0274e7a	-2.6141648
129	0x3ff24570	1.8927441
130	0xbfc63570	-1.5485058
131	0xc01bd351	-2.4347727
132	0xbf5b2bce	-0.85613716
133	0xc00d4577	-2.2073648
134	0xbfdfb7c0	-1.7477951
135	0xc0b43bf1	-5.632317
136	0x4035f9d6	2.8433738
137	0x3fe15a14	1.7605615
138	0xbfc96b0b	-1.5735792
139	0x401dc1bd	2.4649498
140	0x3fd9be55	1.701121
141	0xbf8183ac	-1.0118308
142	0x40175f05	2.3651745
143	0x40120605	2.2816174
144	0xbfa43209	-1.282777
145	0xbfd66260	-1.6748772
146	0x3fea7df2	1.8319685
147	0xbfb0746b	-1.3785528
148	0xbfb13dc5	-1.3846976
149	0xc009f020	-2.155281
150	0x3fdec66c	1.7404304
151	0xc0011032	-2.0166135
152	0x4013e721	2.310982
153	0xc007ea1d	-2.1236641
154	0xc0996500	-4.793579
155	0x40807f71	4.015557
156	0xc07ca12a	-3.9473367
157	0x409494d3	4.643167
158	0xbf9a7a4e	-1.2068574
159	0xbf92eb9d	-1.1478153
160	0x403e42bc	2.9728231
161	0xbfb88e6f	-1.4418467
162	0x3ff7ab42	1.9349139
163	0x401ea9e4	2.4791193
164	0x3fb35b02	1.4012148
165	0xc02bdace	-2.6852298
166	0x3fea3c36	1.8299625
167	0x4035f1bd	2.8428795
168	0xbf3a6c43	-0.72821444
169	0x3fef46d0	1.8693485
170	0xbfbed224	-1.490788
171	0xbfeba5e0	-1.8409996
172	0xbfc1f51a	-1.5152924
173	0x3fdb7502	1.7145083
174	0x4022d13c	2.5440207
175	0xbf8afd9f	-1.0858649
176	0x3ffb2d44	1.9623189
177	0x403b580f	2.9272497
178	0xbfa8b4e8	-1.3180208
179	0x4028f535	2.6399662
180	0x401d5ddf	2.4588544
181	0xbf9ac5f9	-1.2091666
182	0xc066c425	-3.6057217
183	0xbfdc5834	-1.7214417
184	0x403ce0b7	2.9512155
185	0xc02f49fd	-2.738891
186	0x3fbe102b	1.4848684
187	0xc05bef4d	-3.4364808
188	0xbfe12a5a	-1.759105
189	0x3ffa0f11	1.9535848
190	0x40389b02	2.884461
191	0xbfaf559f	-1.3698004
192	0xbf2ce136	-0.67531145
193	0xbffa31cb	-1.9546446
194	0x4033ea87	2.8111894
195	0xc089b7e3	-4.303697
196	0x3fa605d2	1.2970526
197	0xbfc7ebad	-1.5618798
198	0xc09e0575	-4.938166
199	0xbfbc8110	-1.4726887
200	0xc00a3e9f	-2.160072
201	0x3ed6b1c4	0.419325
202	0xbf0efb3c	-0.55852103
203	0xbedd2408	-0.43191552
204	0xbee982fb	-0.45607743
205	0x3f227283	0.6345598
206	0xbf4ca623	-0.79941005
207	0xbea3ada0	-0.31968403
208	0x3e07ee7c	0.13274568
209	0x3f3885ae	0.7207898
210	0xbf0770df	-0.529066
211	0xbea77896	-0.32709187
212	0xbf04abe7	-0.518248
213	0x3e599b9b	0.21250765
214	0x3ec056df	0.37566277
215	0x3f4a98b0	0.7913923
216	0x3e01b0d9	0.12665118
217	0xbf127337	-0.57207054
218	0x3ee5fabd	0.4491786
219	0x3e1e29f3	0.1544569
220	0xbe97f9b8	-0.29682708
221	0xbf02d0c9	-0.5109983
222	0xbeab5a5f	-0.33467385
223	0x3f36a6ca	0.7134825
224	0xbeca9f70	-0.39574766
225	0xbe904ffd	-0.28186026
226	0xbf2fbf48	-0.6865125
227	0x3f3a1f33	0.72703856
228	0x3f2442b1	0.64164263
229	0xbe880feb	-0.26574644
230	0x3f428d7f	0.75997156
231	0x3f867a50	1.0506077
232	0x3f322f3f	0.6960334
233	0x3f02be0c	0.5107124
234	0x3ee0c463	0.4389983
235	0x3fbd1581	1.4772187
236	0xbf0f1baa	-0.55901587
237	0xbebb8012	-0.36621147
238	0x3ec41929	0.38300446
239	0xbeb1eced	-0.34751073
240	0xbe88564b	-0.26628336
241	0x3f5a2cac	0.85224414
242	0xbed3ce01	-0.41368106
243	0xbef0d5f7	-0.47038242
244	0x3f51da5f	0.8197383
245	0x3ea58b4f	0.32332847
246	0xbebc6578	-0.36796165
247	0x3e592e5e	0.21209094
248	0x3f0647ae	0.52453125
249	0x3f29c7cc	0.6632049
250	0xbe7c2870	-0.246248
251	0x3ed51b3a	0.41622335
252	0xbe898bf6	-0.26864594
253	0x3ed82598	0.42216182
254	0x3f8d82bb	1.1055521
255	0xbf0baee7	-0.54563755

linears.1.bias f4 [100]
0	0xbe310f8e	-0.1729109
1	0x3eadc2f8	0.33937812
2	0x3e8de99d	0.27717295
3	0x3ddb4a99	0.10707588
4	0xbee08fac	-0.43859613
5	0xbe72dee5	-0.2371784
6	0x3d1035d4	0.035207585
7	0x3eae2540	0.34012794
8	0xbeaef59b	-0.34171757
9	0x3ea28b1a	0.3174675
10	0xbecdcaab	-0.40193686
11	0x3c1b5978	0.00948178
12	0xbf74aba8	-0.95574427
13	0xbf97109c	-1.1801944
14	0x3e4fdcc7	0.20299064
15	0x3dd8e87d	0.105912186
16	0x3efaee3e	0.4900989
17	0x3d48d5fb	0.049032193
18	0x3f18a7c0	0.59630966
19	0x3f1f4375	0.62212306
20	0xbe12e8c4	-0.14346606
21	0x3e83214b	0.25611338
22	0xbe039d25	-0.12852915
23	0x3e94b4fd	0.29044333
24	0xbcb86742	-0.022510175
25	0x3eb28f3f	0.34874913
26	0x3e00949b	0.12556688
27	0xbdef2ec0	-0.11678839
28	0x3db17689	0.08665187
29	0xbfbacda7	-1.459401
30	0xbdf62794	-0.12019268
31	0x3e0e09c3	0.13870911
32	0xbe6ebf49	-0.23315157
33	0xbe8f511b	-0.27991566
34	0x3ea3659b	0.31913456
35	0x3dbdd683	0.092694305
36	0xbedb99be	-0.42890733
37	0xbdfab6f8	-0.1224193
38	0xbc685f72	-0.014182912
39	0x3dbce2eb	0.09222969
40	0xbe956829	-0.2918103
41	0x3e3a2b41	0.18180563
42	0xbd510bb7	-0.051036563
43	0x3e91c1f3	0.28468284
44	0xbe9a1ffa	-0.3010252
45	0x3ea88fe7	0.3292229
46	0x3e1f69b9	0.15567674
47	0x3f15b417	0.5847792
48	0xbf506e96	-0.8141874
49	0xbe517452	-0.20454529
50	0x3bf86c3d	0.0075812624
51	0xc00ceda3	-2.2020042
52	0xbee3c754	-0.44488013
53	0x3f135a41	0.5755959
54	0xbe0b8857	-0.13626228
55	0xbd578883	-0.052620422
56	0xbdb2c3c1	-0.08728743
57	0xbdabe95d	-0.0839412
58	0xbda278e5	-0.07933215
59	0x3deab2d2	0.114598885
60	0xbf498e91	-0.78733164
61	0xbf212c7c	-0.629585
62	0xbcaaa23b	-0.02082931
63	0xbe291ce6	-0.1651493
64	0xbba0b905	-0.0049048685
65	0x3ea000b8	0.31250548
66	0xbfa45634	-1.2838807
67	0x3f8754c3	1.0572742
68	0xbd501677	-0.050802674
69	0x3eafe55f	0.34354684
70	0x3edc8c2f	0.43075702
71	0x3dcd827b	0.10034653
72	0x3f0e75cd	0.556485
73	0xbead246a	-0.33816844
74	0x3e632f3d	0.22185989
75	0xbd58c508	-0.05292228
76	0x3e811321	0.25209907
77	0xbf0135f5	-0.50472957
78	0x3f83c6e9	1.0295078
79	0x3ebe06be	0.3711452
80	0x3ed75790	0.42058992
81	0xbe664a17	-0.224892
82	0xbde7b1a2	-0.11313178
83	0xbe3b9ab9	-0.18320741
84	0x3c2b825d	0.010468093
85	0xbeb24aa9	-0.34822586
86	0xbe5458ce	-0.20737001
87	0x3e1f58ea	0.15561262
88	0xbfe57378	-1.7925863
89	0xbdc3f538	-0.09568256
90	0xbf59485e	-0.8487605
91	0xbe3f3df4	-0.18675977
92	0xbef7b7fe	-0.48382562
93	0xbddeab8a	-0.10872562
94	0x3f5a558a	0.8528677
95	0xbe8e147f	-0.27750012
96	0xbecb0bb8	-0.39657378
97	0x3fa3007c	1.2734523
98	0xbe97581d	-0.29559413
99	0xbe8bf3f2	-0.27334553

linears.2.weight f4 [100, 100]
0	0x3d719c3d	0.05898689
1	0x3e05f949	0.13083376
2	0x3e2c8d57	0.16850792
3	0x3ee1f7d5	0.44134393
4	0x3e3868c8	0.18008721
5	0x3f41d089	0.75708824
6	0x3e529abf	0.20566843
7	0x3e59a01a	0.2125248
8	0x3e7bb6aa	0.245814
9	0xbc7f28e6	-0.015573716
10	0xbd18785f	-0.03722417
11	0xbfcd75ec	-1.6051612
12	0x3f853e9c	1.0409732
13	0x407796a4	3.8685694
14	0xbe5f8414	-0.21827728
15	0xbdad14fa	-0.084512666
16	0x3e60464c	0.21901816
17	0x3e7dc8ab	0.2478358
18	0x3e7cc6ee	0.2468526
19	0x3dbb5a9a	0.0914814
20	0x3e8cf697	0.27531883
21	0x3ea64ce1	0.3248053
22	0x3ea90dea	0.33018428
23	0x3e47b1eb	0.19501464
24	0xbe64ef45	-0.22356899
25	0x3e12a280	0.14319801
26	0x3e7e3307	0.24824153
27	0x3e1ddf21	0.15417148
28	0x3c374037	0.011184744
29	0xbf598348	-0.84965944
30	0x3ea61ee7	0.32445452
31	0xbcd6a835	-0.026203254
32	0x3e78b306	0.24287042
33	0x3e775ece	0.24157259
34	0x3e3cd36b	0.18440025
35	0x3e2e4871	0.17019822
36	0x3e70541f	0.2346959
37	0x3bdcd291	0.0067389687
38	0x3dafdea7	0.085873894
39	0xbd2a2cb9	-0.041546557
40	0x3e414e5a	0.18877545
41	0x3c34a4b3	0.0110255955
42	0xbf8b2cec	-1.0873084
43	0x3e054f31	0.1301849
44	0x3c404f3c	0.011737641
45	0x3e32a301	0.17444994
46	0x3b85a1a6	0.004078108
47	0x3cd7dde9	0.026350932
48	0x3f4c45b7	0.79793876
49	0x3f54a411	0.83062845
50	0xbc9118e7	-0.01771207
51	0x3f7a4c46	0.97772634
52	0x3db4a9b6	0.08821432
53	0x3e2ae3d1	0.16688468
54	0x3e1eeebe	0.1552076
55	0x3de80eaf	0.11330926
56	0xbd661559	-0.056172702
57	0x3f2086c8	0.6270566
58	0xbbdda9b1	-0.0067646136
59	0xbcb6e5f9	-0.022326456
60	0xc0cff15f	-6.4982142
61	0x3e0c6f3d	0.13714309
62	0xbeb75794	-0.35809004
63	0xbd0ce043	-0.03439356
64	0x3e33c8d6	0.17557082
65	0x3d08e722	0.03342355
66	0xc0662498	-3.5959835
67	0xbe5c68a5	-0.21524294
68	0x3d97ba6e	0.074086055
69	0x3e1c50cf	0.15265201
70	0xbe394135	-0.18091281
71	0x3dba6247	0.09100776
72	0xbe62e4d0	-0.22157598
73	0x3e201e8c	0.15636653
74	0x3e647d76	0.22313485
75	0xbf7b95f5	-0.9827569
76	0x3e7163f1	0.23573281
77	0xbe1bf04b	-0.15228383
78	0xbec441db	-0.38331494
79	0x3ea2080e	0.3164677
80	0xbba9aa37	-0.005177762
81	0x3c735cb5	0.014853646
82	0x3dfa17b0	0.12211549
83	0x3e9da619	0.30790785
84	0x3de14d72	0.110011
85	0x3dd7a129	0.10528786
86	0x3e166495	0.14686806
87	0x3dd18cc8	0.1023193
88	0x3f8b28a3	1.0871776
89	0xbf6e9f19	-0.93211514
90	0xbc9a0ff3	-0.018806433
91	0xbf8555b7	-1.0416783
92	0xbdbe895a	-0.093035415
93	0x3bf53302	0.0074828872
94	0x3d2d50f4	0.04231353
95	0xbf482ecc	-0.78196406
96	0xbbb2a9d2	-0.005452373
97	0xbf224e52	-0.6340076
98	0x3e874ab2	0.26424176
99	0x3dfe3eed	0.12414346
100	0xbe60d051	-0.21954466
101	0xbe229475	-0.15876944
102	0x3f158c48	0.5841718
103	0xbdf15a36	-0.117847845
104	0x3e1bca1a	0.15213814
105	0x3eab43f5	0.33450285
106	0xbcde26b4	-0.027118064
107	0x3ebf22df	0.37331292
108	0xbeac59b5	-0.3366219
109	0x3eed2c4a	0.46322852
110	0xbf2cb21e	-0.67459285
111	0x3ea7fdc3	0.32810792
112	0x3e944bee	0.2896418
113	0x3c84350c	0.016138576
114	0x3d273098	0.040817827
115	0xbfc92563	-1.5714535
116	0x3df694ba	0.12040086
117	0x3e1bd1d4	0.15216762
118	0xbce68cd1	-0.028143318
119	0xbe5b9427	-0.21443234
120	0xbea928a5	-0.33038822
121	0xc0552d1c	-3.3308783
122	0xbdd6a7f8	-0.10481256
123	0xbf8fa538	-1.1222296
124	0x3d909ae0	0.0706079
125	0x3e003dd3	0.12523584
126	0x3eaaa150	0.33326197
127	0xbd0d1682	-0.034445293
128	0xbbf1cd23	-0.0073791905
129	0x3e0ed9aa	0.1395022
130	0xbe2b68d6	-0.1673921
131	0x3da4df8e	0.08050452
132	0xbe883617	-0.26603767
133	0x3e1dfd23	0.15428595
134	0x3eab2cdc	0.33432662
135	0xbfacf852	-1.3513281
136	0x3c5dd583	0.013539675
137	0x3e3e59ef	0.18588994
138	0xbd3ac285	-0.045595665
139	0x3b7da126	0.0038700788
140	0xbf72d1f9	-0.9485164
141	0x3f1b203d	0.60596067
142	0x3bf5ff83	0.007507266
143	0x3ee73d30	0.4516387
144	0xbf205a33	-0.62637633
145	0x3ef7e776	0.48418778
146	0xc00af611	-2.1712687
147	0xbe31aaf6	-0.17350373
148	0xbd3aa738	-0.04556963
149	0x3e12c11d	0.1433148
150	0xbe651c3a	-0.22374049
151	0xbde63512	-0.11240591
152	0xbfda0602	-1.7033083
153	0x3d9d4e21	0.076809175
154	0xbe93d5c3	-0.28874025
155	0x3e0eb88c	0.13937587
156	0xbd017ba6	-0.03161206
157	0xbeae40cc	-0.3403381
158	0xbedc38f1	-0.43012193
159	0x3e7201f1	0.23633553
160	0x3fa1a679	1.2628928
161	0x3e481349	0.19538607
162	0xbe53a0ef	-0.2066686
163	0xbe89d5a1	-0.26920798
164	0x3e3f8c84	0.18705946
165	0xc04d734e	-3.2101626
166	0x3f56f4a0	0.8396702
167	0xbe1dc15c	-0.15405792
168	0x3d85c9d1	0.06532634
169	0x3f1617ea	0.5863024
170	0x3e67511d	0.22589536
171	0xbd902785	-0.07038788
172	0xbdc6f583	-0.097147964
173	0x3c900334	0.017579652
174	0x3eca8367	0.39553377
175	0x3cc40fe1	0.023933353
176	0x3e195877	0.14975153
177	0x3e6b8ae9	0.23002209
178	0xbc8e773f	-0.017390845
179	0xbfae61f9	-1.3623649
180	0x3cc93071	0.024559231
181	0xbe116c3c	-0.14201444
182	0xbc40a770	-0.01175867
183	0x3e15c703	0.14626698
184	0x3c05054a	0.008118937
185	0xbf4e0ab2	-0.8048507
186	0x3ef100cf	0.4707093
187	0x3e334692	0.17507389
188	0xbda55d4b	-0.08074435
189	0x3db039f2	0.08604802
190	0xbe9e8ef3	-0.30968437
191	0x3cf441e0	0.029816568
192	0xbf203c02	-0.62591565
193	0x3eb3edc7	0.35142347
194	0xbdf9313f	-0.12167596
195	0xbd9fcfa3	-0.078032754
196	0x3dad1d18	0.08452815
197	0xbda32db2	-0.079677
198	0xbed5b177	-0.41736957
199	0xbf24f72c	-0.64439654
200	0x3e22df73	0.15905552
201	0x3dbded1f	0.09273743
202	0xbdb02bfb	-0.086021386
203	0x3d3b357d	0.045705307
204	0xbef94e6c	-0.48692644
205	0x3eab0e9d	0.33409587
206	0xbe6a9038	-0.22906578
207	0x3e517d77	0.20458017
208	0x3df82652	0.12116684
209	0x3e195804	0.14974982
210	0xbf7dff26	-0.9921745
211	0xbf684d69	-0.9074312
212	0x3fad79d1	1.35528
213	0xbee9a1c3	-0.45631227
214	0x3e2627a3	0.16226058
215	0x3e8ca160	0.2746687
216	0xba362586	-0.00069483405
217	0xbdf751c0	-0.120761395
218	0xbdbe0ee9	-0.09280188
219	0x3d8b75c8	0.06809574
220	0xbe92471a	-0.2856987
221	0x3e1a40d7	0.15063797
222	0xbd51aa41	-0.051187757
223	0xbd995e70	-0.07488716
224	0x3dbef2cf	0.09323656
225	0x3e0d1425	0.13777216
226	0x3dbdfc56	0.09276645
227	0xbe0ac069	-0.13549961
228	0xbe8c28ee	-0.27374977
229	0x3f63eb4e	0.8903092
230	0xbe8256d4	-0.2545687
231	0xbec449ee	-0.38337654
232	0xbe3c0ec9	-0.18365015
233	0xbe43d47c	-0.19124025
234	0x3df8cf23	0.12148883
235	0xbdefbee6	-0.11706333
236	0xbc808c17	-0.0156918
237	0xbe65aac6	-0.22428426
238	0xbe25df53	-0.16198473
239	0xbdb0b8cf	-0.086289994
240	0xbe02dd9b	-0.12779848
241	0x3e54ee74	0.20794088
242	0xbee135a2	-0.4398623
243	0x3da1c95a	0.07899733
244	0xbe0c5b8a	-0.13706794
245	0xbe0be22e	-0.136605
246	0x3cfca3c0	0.0308398
247	0x3d91bbbc	0.071158856
248	0x3f955054	1.1665139
249	0xbf3e44ad	-0.7432354
250	0x3c155e12	0.009116666
251	0x400204c2	2.0315404
252	0xbf724532	-0.94636834
253	0x3e9a34d2	0.30118424
254	0xbe24902b	-0.1607062
255	0xbcdb4686	-0.026767027

linears.2.bias f4 [100]
0	0xbe23fed9	-0.16015185
1	0xbd82b1b0	-0.063815475
2	0xbdae6fde	-0.08517431
3	0xbe4a0dfd	-0.19731899
4	0xbe424ecd	-0.18975373
5	0xbe625c1c	-0.2210545
6	0xbe05de5c	-0.13073105
7	0x3d397ced	0.045285154
8	0x3e46ea5b	0.19425337
9	0xbdb28457	-0.08716648
10	0xbdf9b7ef	-0.12193286
11	0x3dd33cb4	0.103143126
12	0xbe5f9acd	-0.21836396
13	0x3d59ec05	0.0532036
14	0xbd9346c4	-0.07191232
15	0xbe67f28e	-0.22651121
16	0x3e35d8ce	0.17758486
17	0x3df12532	0.117746726
18	0x3e186b6c	0.14884728
19	0x3dab837c	0.08374688
20	0x3d961820	0.0732882
21	0xbe1c0c30	-0.15239024
22	0x3dbd5a63	0.092457555
23	0x3d18cd3f	0.037305113
24	0x3d9ea38c	0.07746038
25	0x3dc77ea1	0.097409494
26	0x3d1f4d81	0.038892273
27	0x3d847e57	0.0646941
28	0x3e1b24b8	0.15150726
29	0xbe0cf6db	-0.13766043
30	0xbe800c1f	-0.25009248
31	0xbe42eaaa	-0.1903483
32	0xbc08a8b2	-0.008341001
33	0x3e93feba	0.28905278
34	0xbe3a9694	-0.18221503
35	0x3d8bb1f5	0.06821052
36	0x3e5f4d2b	0.21806781
37	0xbe184b25	-0.14872415
38	0x3d6e532b	0.058184784
39	0x3dc03e1e	0.09386848
40	0xbe4320bc	-0.19055456
41	0x3da5e6cf	0.08100664
42	0xbfc62acd	-1.5481812
43	0xbd064807	-0.032783534
44	0xbea590cc	-0.32337034
45	0x3cf15c11	0.029462846
46	0xbd1c5b5a	-0.038173057
47	0xbd2f65b1	-0.04282159
48	0x3de07608	0.10960013
49	0x3e77d218	0.24201238
50	0x3dd9dbed	0.10637651
51	0xbdf41e85	-0.11919884
52	0xbb3d5ea6	-0.0028895526
53	0xbe4b05ae	-0.19826385
54	0x3e05a40d	0.13050862
55	0x3d52bb9e	0.051448457
56	0xbdf9bb53	-0.121939324
57	0xbdfd31b9	-0.123629995
58	0xbd67aad2	-0.05655939
59	0xbe11a16d	-0.14221735
60	0x3d3d7788	0.046256572
61	0xbe01fd94	-0.12694389
62	0xbe4c745e	-0.19966266
63	0x3e3e1de3	0.18566088
64	0xba2cd242	-0.000659261
65	0xbd7b5858	-0.061363548
66	0x3d41a23b	0.047273856
67	0x3e1168dc	0.14200157
68	0xbe7883e4	-0.24269062
69	0xbe325be5	-0.17417867
70	0x3e4d24da	0.20033589
71	0x3e10587f	0.14096259
72	0x3df378d5	0.11888281
73	0xbe73465d	-0.2375731
74	0x3cfddfc1	0.030990483
75	0x3dd6f7c5	0.10496477
76	0xbda60902	-0.08107187
77	0xbdba5c08	-0.09099585
78	0xbf29aab2	-0.66276085
79	0x3d95fccb	0.07323607
80	0x3ce26923	0.027638024
81	0x3e2acba8	0.16679251
82	0x3dadde32	0.08489646
83	0xbdde2125	-0.108461656
84	0xbe81c76d	-0.25347462
85	0x3e3e05d3	0.1855691
86	0xbe2c16e2	-0.16805604
87	0x3e560f44	0.20904261
88	0x3de5a94a	0.1121393
89	0x3cc16e74	0.023612238
90	0xbe40cbdc	-0.18827766
91	0xbc95fdf2	-0.018309567
92	0xbc2fdd96	-0.010733983
93	0xbf5c5b32	-0.86076653
94	0x3e475607	0.1946641
95	0xbf938245	-1.152413
96	0x3d2cd75f	0.04219758
97	0xbef86d52	-0.48520905
98	0x3c9065b2	0.017626617
99	0x3d4cbb00	0.049983025

linears.3.weight f4 [5, 100]
0	0xbeb01211	-0.34388784
1	0xbb030d31	-0.0019996876
2	0xbdb1a484	-0.08673957
3	0xbd76b008	-0.06022647
4	0xbc1a57fa	-0.009420389
5	0xbf0a529f	-0.5403232
6	0xbe94bc0a	-0.29049712
7	0xba32ccdc	-0.00068206876
8	0x3e8acc19	0.2710884
9	0xbe6f6afa	-0.23380652
10	0xbe90becb	-0.28270563
11	0x3bcfdacb	0.006343221
12	0xbf35ec94	-0.71064115
13	0x3cdb0be1	0.026739063
14	0x3ef2f27c	0.47450626
15	0xbf071386	-0.52764165
16	0x3d63cf90	0.05561787
17	0xbd28a5bb	-0.041173678
18	0xbcb578bb	-0.022152295
19	0x3db9326d	0.09042821
20	0x3d0b2711	0.033972804
21	0xbe89ae62	-0.26890856
22	0x38ed2d76	0.000113095084
23	0xbd3a6c9e	-0.04551374
24	0xba0b121d	-0.0005305128
25	0x3e025018	0.12725866
26	0x3d98b676	0.07456677
27	0x3da03a7d	0.07823656
28	0x3e742f1c	0.23846096
29	0xbe7db9bf	-0.24777888
30	0x3dfcc320	0.12341905
31	0x3cb1b78b	0.021693965
32	0x3c066879	0.008203619
33	0x39c7e795	0.0003812878
34	0xbdbbf6f3	-0.09177961
35	0x381971cc	3.6584024e-05
36	0x3e2db8ef	0.16965078
37	0xbe17da3e	-0.14829347
38	0xbe144147	-0.14478026
39	0x3d128369	0.035769854
40	0xbf163ae4	-0.5868361
41	0x3d8152e3	0.063146375
42	0xbab4457c	-0.0013753618
43	0x3d3d7654	0.046255425
44	0xbe1d06c2	-0.15334609
45	0xbbcefd34	-0.0063168053
46	0x3e0a3587	0.13496982
47	0xbd438062	-0.047729857
48	0xbc89f894	-0.016842164
49	0x3828de51	4.026137e-05
50	0x3abf5362	0.0014596994
51	0x3d3e7cdc	0.046505794
52	0xba602f21	-0.00085519446
53	0xbe1428cf	-0.14468692
54	0xb9a98d8f	-0.0003233966
55	0xbde412ed	-0.11136422
56	0xbe80581d	-0.25067225
57	0xbdd576c7	-0.104230456
58	0xbbd9deee	-0.0066488897
59	0xbe462f83	-0.19354062
60	0xbd8f896a	-0.070086315
61	0xbce5e476	-0.02806304
62	0x3b97d391	0.004633375
63	0x3d8e7599	0.06956024
64	0x3b155852	0.0022788239
65	0xbdb4753d	-0.08811424
66	0x3d6160e8	0.055024058
67	0xbdb57e39	-0.08861966
68	0x3d431323	0.047625672
69	0xbf29c57e	-0.66316974
70	0x3a9b498f	0.0011847484
71	0xb8b2aa51	-8.519425e-05
72	0x3c9b6a94	0.018971719
73	0xbf15a621	-0.5845662
74	0xbd00854a	-0.031377114
75	0x3bde796a	0.006789376
76	0xbca6e073	-0.020370698
77	0x3b967355	0.0045913854
78	0xbc0a7562	-0.008450838
79	0x3d9ec30f	0.07752048
80	0x3df6449a	0.120248035
81	0x3e92bf31	0.28661492
82	0xb97f1f1c	-0.00024330284
83	0x3c8dd110	0.017311603
84	0xbea490f9	-0.32141855
85	0xbd87379d	-0.06602404
86	0xbe55fee7	-0.20898019
87	0x3dad987f	0.08476352
88	0xbdbede1e	-0.09319709
89	0xbdd7ef71	-0.10543717
90	0xbf2773d8	-0.6541114
91	0xbdbcc8df	-0.092180006
92	0x3d37e85d	0.044899333
93	0x3865e31c	5.4809367e-05
94	0x3e675c82	0.22593883
95	0xb9a77ec9	-0.00031947184
96	0x3d993895	0.07481495
97	0xba1f82fe	-0.0006084888
98	0xbe1d7ce3	-0.15379672
99	0x3d85d98b	0.06535634
100	0x3e5db4c3	0.21650986
101	0x3e768983	0.24075894
102	0xbbd53a46	-0.006507191
103	0xbe1d122f	-0.15338968
104	0x3da6435e	0.08118318
105	0xbe9170b9	-0.28406313
106	0xbe055a27	-0.13022672
107	0xbd92ed86	-0.0717421
108	0x3e47c4a1	0.19508602
109	0xbf4f054f	-0.80867475
110	0xbedfe7f9	-0.4373167
111	0x3dd424f0	0.10358608
112	0xbe022c77	-0.12712274
113	0x3d36d3d1	0.044635598
114	0xbf9077e0	-1.1286583
115	0xbd8aa695	-0.06770054
116	0xbe3f5702	-0.18685535
117	0xbe94ce3d	-0.29063597
118	0x3e2ceb97	0.16886745
119	0xbe2552c5	-0.16144855
120	0xbd4ec51b	-0.050480943
121	0x3d50cb5e	0.050975196
122	0xbee29cdf	-0.44260308
123	0xbd6cc5be	-0.05780577
124	0xbb462ce3	-0.0030239157
125	0x3e381ffc	0.17980951
126	0x3ea103e0	0.3144827
127	0xbdfe36e0	-0.1241281
128	0x3e2a8cda	0.16655293
129	0xbdb12eba	-0.086514905
130	0xbd0b8582	-0.03406287
131	0x3ea79c37	0.3273637
132	0x3e98f350	0.29873133
133	0x3cd8a38a	0.026445169
134	0x3e1c4c7b	0.1526355
135	0xbe4acb7f	-0.1980419
136	0xbe0d6316	-0.1380733
137	0x3ce181bb	0.02752768
138	0xbd8facc0	-0.07015371
139	0x3d825d33	0.063654326
140	0xbe8716b2	-0.26384503
141	0xbd31c872	-0.04340405
142	0xbe9ce8d3	-0.3064638
143	0xbe01f73f	-0.12691973
144	0xbdd70c63	-0.105004095
145	0x3e335937	0.17514502
146	0xbf20276f	-0.6256017
147	0x3ec45bc8	0.38351274
148	0x3dc46b06	0.095907256
149	0xbdd9c00f	-0.106323354
150	0x3e3e0a34	0.1855858
151	0xbe10d264	-0.14142758
152	0x3dbc528a	0.091954306
153	0xbd7319e8	-0.059350878
154	0x3eaf8001	0.34277347
155	0xbea53717	-0.32268593
156	0xbe80554a	-0.2506507
157	0xbedbf46e	-0.42959923
158	0xbda0e8e2	-0.07856919
159	0xbd3a9f19	-0.045561884
160	0x3e517fe6	0.20458946
161	0x3f4cd59c	0.8001344
162	0xbc75e32c	-0.015007775
163	0x3def9fe2	0.11700417
164	0x3e8eb3f7	0.27871677
165	0x3e37361f	0.1789174
166	0x3edb32ba	0.4281214
167	0xbdd41b71	-0.103567965
168	0x3dcfb51d	0.101419665
169	0xbef78cc0	-0.4834957
170	0xbdf75aa3	-0.120778345
171	0x3e94d97f	0.29072186
172	0x3e1619dc	0.14658302
173	0x3ebc828b	0.36818346
174	0x3e9d847b	0.30765137
175	0x3e003ca5	0.12523134
176	0xbea69d4c	-0.32541883
177	0xbf2edd1a	-0.68306124
178	0xbdcedecf	-0.10101091
179	0xbdd15a09	-0.10222251
180	0xc0cec7c6	-6.4618864
181	0xbe0e4e10	-0.13896966
182	0x3d727198	0.059190363
183	0xbe3cc82f	-0.18435739
184	0x3fcab4ac	1.5836387
185	0x3f0517fe	0.51989734
186	0x3ba67d0e	0.0050808256
187	0x3cdcad45	0.02693809
188	0xbd74704c	-0.059677407
189	0x3e875fe1	0.26440337
190	0xbf0458a6	-0.51697767
191	0x3ddb64e0	0.107126
192	0x3d8a68f4	0.067582995
193	0xbf098307	-0.53715557
194	0xbe32522e	-0.17414162
195	0x3da12a0b	0.07869347
196	0xbdc83897	-0.09776419
197	0xbe889f1b	-0.26683888
198	0xbc948089	-0.018127697
199	0x3deb9459	0.115029044
200	0xbda42fb7	-0.080169134
201	0xbe0ac381	-0.13551141
202	0xbd43b1b8	-0.047776908
203	0xbf441dba	-0.7660786
204	0x3e7b7b68	0.24558794
205	0xbe602e22	-0.21892598
206	0x3dbd525e	0.09244226
207	0x3d933c11	0.07189191
208	0xbb9123a9	-0.0044293
209	0xbc06386d	-0.008192164
210	0xbea7ac06	-0.3274843
211	0x3d134ea1	0.03596366
212	0xbc7aaed7	-0.015300474
213	0x3c7aefc9	0.015315958
214	0x3fa1c406	1.2637947
215	0xbd70f666	-0.058828734
216	0x3dceddf4	0.10100928
217	0x3dfed2c8	0.12442547
218	0x3d93e180	0.07220745
219	0xbe91cf62	-0.28478533
220	0xbdcca640	-0.09992647
221	0x3a08209e	0.00051928486
222	0xba93ad23	-0.0011266809
223	0x3e152f82	0.14568904
224	0x3cd265bf	0.025683282
225	0xbe5912bf	-0.21198557
226	0x3d72ab7f	0.059245583
227	0x3d130008	0.0358887
228	0x3f03b3f1	0.51446444
229	0x3d99b522	0.075052515
230	0x3c6015e2	0.013677092
231	0xbe91ee51	-0.28502133
232	0x3e7fec79	0.24992551
233	0xb9b25a8d	-0.0003401827
234	0xbf3ae7e5	-0.7301009
235	0xb936d52f	-0.0001743629
236	0xbd9bfd40	-0.07616663
237	0xbec35d62	-0.38157183
238	0xbd608c29	-0.054821167
239	0x3dbad2ec	0.091222614
240	0xbebe4330	-0.37160635
241	0x3d1a20c8	0.03762892
242	0xbb163d28	-0.0022924636
243	0xbcdb9c3f	-0.026807902
244	0x3d45a21d	0.048250306
245	0xbe8ef1d3	-0.27918872
246	0xbf552832	-0.8326446
247	0x3e00f5d4	0.12593776
248	0x3d23a5dd	0.0399531
249	0xbc2d92cb	-0.01059408
250	0xbbefa731	-0.007313632
251	0x3e90ddc3	0.2829419
252	0x3b94ccb6	0.004541005
253	0x3cb1e32a	0.021714766
254	0xbc8e9427	-0.017404629
255	0xbe8567c6	-0.26055735

linears.3.bias f4 [5]
0	0x3e427336	0.18989262
1	0xbd783754	-0.06059964
2	0x3d3d8384	0.046268
3	0x3db52923	0.08845737
4	0x3db6d274	0.089268595

exp_avg f4 [100, 6]
0	0xb5dce616	-1.6458241e-06
1	0xb5dce625	-1.6458258e-06
2	0xb65ce62a	-3.2916528e-06
3	0xb6a5ac9d	-4.937478e-06
4	0xb6dce636	-6.583311e-06
5	0xb70a0fcb	-8.229118e-06
6	0xb5370770	-6.8183635e-07
7	0xb5370770	-6.8183635e-07
8	0xb5b7077b	-1.363674e-06
9	0xb60945ad	-2.0455147e-06
10	0xb63707ac	-2.727359e-06
11	0xb664c9c5	-3.4092093e-06
12	0x3655cc3e	3.1858358e-06
13	0x3655cc40	3.1858362e-06
14	0x36d5cc35	6.3716675e-06
15	0x37205930	9.557509e-06
16	0x3755cc26	1.2743321e-05
17	0x37859f91	1.592914e-05
18	0x360a4cc9	2.0608297e-06
19	0x360a4cc4	2.0608286e-06
20	0x368a4cc2	4.1216563e-06
21	0x36cf731d	6.1824817e-06
22	0x370a4cab	8.243292e-06
23	0x372cdfc4	1.0304098e-05
24	0x36156213	2.2259817e-06
25	0x36156217	2.2259826e-06
26	0x36956212	4.451963e-06
27	0x36e01302	6.677933e-06
28	0x371561fd	8.903907e-06
29	0x373aba66	1.1129863e-05
30	0xb5d22393	-1.5656573e-06
31	0xb5d2239b	-1.5656582e-06
32	0xb652239e	-3.131317e-06
33	0xb69d9ab6	-4.6969753e-06
34	0xb6d223a4	-6.262637e-06
35	0xb703564a	-7.828299e-06
36	0xb69b2af1	-4.624359e-06
37	0xb69b2af6	-4.6243613e-06
38	0xb71b2af1	-9.248718e-06
39	0xb768c048	-1.3873047e-05
40	0xb79b2ad9	-1.8497392e-05
41	0xb7c1f58c	-2.3121735e-05
42	0x35eb8448	1.7547363e-06
43	0x35eb8440	1.7547354e-06
44	0x366b843a	3.5094695e-06
45	0x36b0a321	5.2641994e-06
46	0x36eb8407	7.0189158e-06
47	0x37133279	8.773634e-06
48	0x3516f767	5.623937e-07
49	0x3516f762	5.6239344e-07
50	0x3596f762	1.1247869e-06
51	0x35e27310	1.68718e-06
52	0x3616f74d	2.249569e-06
53	0x363cb504	2.8119548e-06
54	0xb5866652	-1.0013557e-06
55	0xb5866652	-1.0013557e-06
56	0xb606664f	-2.0027107e-06
57	0xb6499982	-3.0040687e-06
58	0xb686665e	-4.0054283e-06
59	0xb6a7ffff	-5.0067897e-06
60	0x36365e29	2.7174922e-06
61	0x36365e2d	2.717493e-06
62	0x36b65e2d	5.434986e-06
63	0x3708c69d	8.152475e-06
64	0x37365e1c	1.0869957e-05
65	0x3763f590	1.3587429e-05
66	0x36095d28	2.0468815e-06
67	0x36095d24	2.0468806e-06
68	0x36895d1f	4.093759e-06
69	0x36ce0ba1	6.140632e-06
70	0x37095d13	8.187507e-06
71	0x372bb442	1.0234364e-05
72	0x36459a1e	2.9444996e-06
73	0x36459a20	2.9445e-06
74	0x36c59a18	5.8889964e-06
75	0x3714338e	8.833491e-06
76	0x37459a0b	1.1777981e-05
77	0x3777007f	1.4722463e-05
78	0x34fe3c70	4.735516e-07
79	0x34fe3c5f	4.7355113e-07
80	0x357e3c61	9.4710236e-07
81	0x35bead49	1.4206536e-06
82	0x35fe3c14	1.894196e-06
83	0x361ee578	2.3677403e-06
84	0x34d92ef7	4.045357e-07
85	0x34d92ef4	4.0453563e-07
86	0x35592ee7	8.090705e-07
87	0x35a2e30d	1.2136021e-06
88	0x35d92e89	1.6181303e-06
89	0x3607bcf2	2.0226548e-06
90	0xb507b570	-5.0555445e-07
91	0xb507b57b	-5.055551e-07
92	0xb587b586	-1.0111114e-06
93	0xb5cb9057	-1.5166687e-06
94	0xb607b5ca	-2.0222383e-06
95	0xb629a35d	-2.5278052e-06
96	0x344defaa	1.9179302e-07
97	0x344defa6	1.9179296e-07
98	0x34cdef8f	3.8358527e-07
99	0x351a7389	5.7537596e-07
100	0x354deed2	7.671598e-07
101	0x3580b4f5	9.589409e-07
102	0xb72d681d	-1.0335844e-05
103	0xb72d6819	-1.0335841e-05
104	0xb7ad6818	-2.067168e-05
105	0xb8020e06	-3.1007476e-05
106	0xb82d6804	-4.1343286e-05
107	0xb858c206	-5.167911e-05
108	0xb4c426c1	-3.6536042e-07
109	0xb4c426d1	-3.6536088e-07
110	0xb54426db	-7.307223e-07
111	0xb5931d38	-1.0960857e-06
112	0xb5c42713	-1.461451e-06
113	0xb5f53116	-1.8268208e-06
114	0x353df13a	7.075902e-07
115	0x353df139	7.075901e-07
116	0x35bdf138	1.4151801e-06
117	0x360e74eb	2.1227704e-06
118	0x363df126	2.8303562e-06
119	0x366d6d4f	3.5379378e-06
120	0x3626e8d1	2.4871445e-06
121	0x3626e8d0	2.4871442e-06
122	0x36a6e8c4	4.974283e-06
123	0x36fa5d2c	7.4614272e-06
124	0x3726e8bd	9.94856e-06
125	0x3750a2d4	1.24356775e-05
126	0x34c20622	3.6139778e-07
127	0x34c2062e	3.6139812e-07
128	0x35420668	7.2279954e-07
129	0x359184ca	1.0841989e-06
130	0x35c20672	1.4456002e-06
131	0x35f28897	1.8070158e-06
132	0x360a4c3a	2.0607972e-06
133	0x360a4c3e	2.0607981e-06
134	0x368a4c31	4.1215903e-06
135	0x36cf723d	6.18238e-06
136	0x370a4c27	8.243172e-06
137	0x372cdf13	1.0303937e-05
138	0xb5b6554a	-1.3584879e-06
139	0xb5b6554e	-1.3584884e-06
140	0xb6365554	-2.716978e-06
141	0xb688c003	-4.075469e-06
142	0xb6b65569	-5.4339657e-06
143	0xb6e3eacb	-6.7924607e-06
144	0x361d6d0f	2.3458304e-06
145	0x361d6d13	2.3458313e-06
146	0x369d6d0c	4.6916593e-06
147	0x36ec2380	7.037481e-06
148	0x371d6d02	9.38331e-06
149	0x3744c826	1.1729111e-05
150	0x3624d79f	2.4563412e-06
151	0x3624d79c	2.4563406e-06
152	0x36a4d79a	4.91268e-06
153	0x36f74366	7.36902e-06
154	0x3724d78b	9.825347e-06
155	0x374e0d5e	1.2281669e-05
156	0xb7056aac	-7.952254e-06
157	0xb7056aaa	-7.952252e-06
158	0xb7856aa8	-1.5904501e-05
159	0xb7c81fe8	-2.3856715e-05
160	0xb8056a98	-3.1808944e-05
161	0xb826c535	-3.9761147e-05
162	0xb598093c	-1.132757e-06
163	0xb5980946	-1.1327581e-06
164	0xb6180943	-2.2655156e-06
165	0xb6640e0b	-3.3982822e-06
166	0xb6980966	-4.531047e-06
167	0xb6be0be6	-5.6638264e-06
168	0xb41f52e9	-1.4838191e-07
169	0xb41f52f0	-1.4838201e-07
170	0xb49f52dd	-2.967635e-07
171	0xb4eefcae	-4.4514803e-07
172	0xb51f537f	-5.935362e-07
173	0xb54728c4	-7.41926e-07
174	0x362c75a0	2.5698464e-06
175	0x362c75a1	2.5698466e-06
176	0x36ac75a0	5.139693e-06
177	0x37015827	7.709524e-06
178	0x372c7588	1.0279364e-05
179	0x375792cb	1.28491765e-05
180	0xb5cd7ae8	-1.5309461e-06
181	0xb5cd7ae6	-1.5309458e-06
182	0xb64d7aef	-3.0618937e-06
183	0xb69a1c3a	-4.5928437e-06
184	0xb6cd7b02	-6.123796e-06
185	0xb7006ce4	-7.654748e-06
186	0xb661633e	-3.358538e-06
187	0xb661633e	-3.358538e-06
188	0xb6e1633f	-6.7170763e-06
189	0xb7290a6d	-1.0075612e-05
190	0xb761633b	-1.3434149e-05
191	0xb78cde03	-1.6792683e-05
192	0xb502ac33	-4.8679357e-07
193	0xb502ac33	-4.8679357e-07
194	0xb582ac3d	-9.735883e-07
195	0xb5c40271	-1.4603849e-06
196	0xb602ac6e	-1.9471877e-06
197	0xb62357d1	-2.4340009e-06
198	0x34be04ac	3.5393657e-07
199	0x34be0498	3.53936e-07
200	0x353e047d	7.0787047e-07
201	0x358e8350	1.0618041e-06
202	0x35be042b	1.4157316e-06
203	0x35ed84e6	1.7696555e-06
204	0x34dfac94	4.1662554e-07
205	0x34dfac8a	4.1662526e-07
206	0x355fac7d	8.3324977e-07
207	0x35a7c13f	1.2498712e-06
208	0x35dfac34	1.6664912e-06
209	0x360bcb8b	2.0831092e-06
210	0xb6219b9b	-2.4081444e-06
211	0xb6219b9f	-2.4081453e-06
212	0xb6a19ba2	-4.816292e-06
213	0xb6f2697b	-7.2244416e-06
214	0xb7219ba3	-9.632585e-06
215	0xb74a0266	-1.2040697e-05
216	0x365e13a9	3.3092022e-06
217	0x365e13af	3.3092035e-06
218	0x36de13a1	6.6184007e-06
219	0x37268eb9	9.927601e-06
220	0x375e1399	1.3236794e-05
221	0x378acc3a	1.6545982e-05
222	0x35d40472	1.5796525e-06
223	0x35d4046d	1.5796519e-06
224	0x36540466	3.1593022e-06
225	0x369f0343	4.738949e-06
226	0x36d40443	6.3185885e-06
227	0x37048292	7.898214e-06
228	0x3552bb36	7.8503524e-07
229	0x3552bb28	7.8503444e-07
230	0x35d2bb20	1.570068e-06
231	0x361e0c4a	2.3550988e-06
232	0x3652baf7	3.1401266e-06
233	0x3683b4b8	3.9251427e-06
234	0x361c8a88	2.3326447e-06
235	0x361c8a83	2.3326436e-06
236	0x369c8a7f	4.6652854e-06
237	0x36eacfb8	6.997925e-06
238	0x371c8a75	9.330562e-06
239	0x3743ad05	1.166319e-05
240	0x35b9d810	1.3846457e-06
241	0x35b9d809	1.3846449e-06
242	0x3639d805	2.7692888e-06
243	0x368b61ef	4.153924e-06
244	0x36b9d7d9	5.5385576e-06
245	0x36e84daf	6.9231824e-06
246	0xb54b9116	-7.583452e-07
247	0xb54b910d	-7.583447e-07
248	0xb5cb910a	-1.516689e-06
249	0xb618ace6	-2.2750405e-06
250	0xb64b9153	-3.0333947e-06
251	0xb67e75e5	-3.7917573e-06
252	0x3614dde6	2.218288e-06
253	0x3614dde1	2.218287e-06
254	0x3694ddda	4.4365706e-06
255	0x36df4cc4	6.6548546e-06

exp_avg_sq f4 [100, 6]
0	0x333baca7	4.3696357e-08
1	0x333baca7	4.3696357e-08
2	0x343baca0	1.7478533e-07
3	0x34d32233	3.9326696e-07
4	0x353bac8d	6.9914023e-07
5	0x35929ec2	1.0924052e-06
6	0x305a17b5	7.934163e-10
7	0x305a17a7	7.934155e-10
8	0x315a1788	3.1736551e-09
9	0x31f55a26	7.140687e-09
10	0x325a16e9	1.2694479e-08
11	0x32aa6191	1.9834973e-08
12	0x32643f33	1.32857165e-08
13	0x32643f2e	1.3285712e-08
14	0x33643f29	5.314283e-08
15	0x3400637c	1.1957121e-07
16	0x34643f0d	2.1257092e-07
17	0x34b25130	3.3214155e-07
18	0x31c78652	5.8069327e-09
19	0x31c7864d	5.8069305e-09
20	0x32c7863f	2.3227697e-08
21	0x336076e5	5.2262198e-08
22	0x33c785f6	9.291027e-08
23	0x341be07c	1.4517167e-07
24	0x31d43b4d	6.1767538e-09
25	0x31d43b4a	6.1767524e-09
26	0x32d43b41	2.4706994e-08
27	0x336ec281	5.5590593e-08
28	0x33d43b05	9.882755e-08
29	0x3425ce09	1.5441778e-07
30	0x31a797b3	4.877586e-09
31	0x31a797b3	4.877586e-09
32	0x32a797b1	1.951034e-08
33	0x333c8aa7	4.3898265e-08
34	0x33a797a7	7.804129e-08
35	0x3402ee7d	1.2193955e-07
36	0x3364d001	5.3274565e-08
37	0x3364cfff	5.3274558e-08
38	0x3464cff6	2.130981e-07
39	0x3500b4f2	4.7947026e-07
40	0x3564cfdc	8.5239094e-07
41	0x35b2c251	1.3318587e-06
42	0x3183a15d	3.8309467e-09
43	0x3183a156	3.8309436e-09
44	0x3283a14c	1.5323756e-08
45	0x33141567	3.44784e-08
46	0x3383a114	6.129463e-08
47	0x33cdab6c	9.577238e-08
48	0x30097b76	5.001576e-10
49	0x30097b75	5.001575e-10
50	0x31097b71	2.0006292e-09
51	0x319aaad7	4.501412e-09
52	0x32097b6a	8.002511e-09
53	0x3256d0bd	1.2503901e-08
54	0x3096b8e9	1.0966491e-09
55	0x3096b8ec	1.0966494e-09
56	0x3196b8e7	4.3865955e-09
57	0x32298ffc	9.869833e-09
58	0x3296b8d2	1.7546345e-08
59	0x32eb80d4	2.7416185e-08
60	0x3219e391	8.957515e-09
61	0x3219e38f	8.957513e-09
62	0x3319e385	3.5830016e-08
63	0x33ad1ffa	8.061757e-08
64	0x3419e372	1.433198e-07
65	0x34707344	2.2393675e-07
66	0x31a8c751	4.912103e-09
67	0x31a8c74c	4.912101e-09
68	0x32a8c744	1.964839e-08
69	0x333de01d	4.420882e-08
70	0x33a8c714	7.859322e-08
71	0x3403db69	1.2280147e-07
72	0x323f89da	1.1149007e-08
73	0x323f89d7	1.1149004e-08
74	0x333f89d6	4.4596014e-08
75	0x33d77b05	1.0034095e-07
76	0x343f89c5	1.7838381e-07
77	0x3495a382	2.787238e-07
78	0x2ff0e2d9	4.381693e-10
79	0x2ff0e2d7	4.3816925e-10
80	0x30f0e2c8	1.7526753e-09
81	0x31877f96	3.943522e-09
82	0x31f0e2a9	7.0106876e-09
83	0x323c3109	1.09541896e-08
84	0x2f6a2f74	2.1299035e-10
85	0x2f6a2f62	2.129901e-10
86	0x306a2f31	8.5195767e-10
87	0x3103ba60	1.916895e-09
88	0x316a2e7c	3.4077905e-09
89	0x31b6f3e0	5.3246225e-09
90	0x308a3539	1.0055948e-09
91	0x308a3534	1.0055943e-09
92	0x318a3512	4.022362e-09
93	0x321b7b5c	9.050236e-09
94	0x328a3492	1.608922e-08
95	0x32d7f19a	2.5139162e-08
96	0x2f9157a3	2.6437616e-10
97	0x2f9157a0	2.6437608e-10
98	0x3091578d	1.0575022e-09
99	0x31238266	2.3793745e-09
100	0x3191573b	4.2299724e-09
101	0x31e317f1	6.6092913e-09
102	0x344f787f	1.9322214e-07
103	0x344f787d	1.932221e-07
104	0x354f7878	7.7288814e-07
105	0x35e9677b	1.738997e-06
106	0x364f785a	3.0915458e-06
107	0x36a21604	4.830539e-06
108	0x2f6514d0	2.0834823e-10
109	0x2f6514cd	2.0834819e-10
110	0x306514c1	8.333921e-10
111	0x3100db97	1.8751274e-09
112	0x31651469	3.3335488e-09
113	0x31b2f7cd	5.2086535e-09
114	0x30241160	5.9687544e-10
115	0x3024115f	5.968754e-10
116	0x3124115d	2.387501e-09
117	0x31b8936e	5.3718656e-09
118	0x3224114a	9.5499875e-09
119	0x32802d76	1.4921834e-08
120	0x3208a4b8	7.953695e-09
121	0x3208a4b3	7.95369e-09
122	0x3308a4ab	3.1814732e-08
123	0x3399b935	7.158307e-08
124	0x3408a48e	1.2725852e-07
125	0x345580f2	1.9884081e-07
126	0x31b23880	5.186905e-09
127	0x31b23880	5.186905e-09
128	0x32b2387d	2.0747615e-08
129	0x33487f8f	4.6682143e-08
130	0x33b2387c	8.2990454e-08
131	0x340b3c23	1.2967261e-07
132	0x31ab16c3	4.9793427e-09
133	0x31ab16be	4.9793405e-09
134	0x32ab16b1	1.9917339e-08
135	0x3340795c	4.481386e-08
136	0x33ab167d	7.9668986e-08
137	0x3405a967	1.2448218e-07
138	0x310949f6	1.9978166e-09
139	0x310949f3	1.997816e-09
140	0x320949ef	7.99126e-09
141	0x329a7321	1.7980314e-08
142	0x330949d6	3.196495e-08
143	0x33568345	4.9945147e-08
144	0x31fc73aa	7.3473148e-09
145	0x31fc73aa	7.3473148e-09
146	0x32fc7397	2.9389225e-08
147	0x338e0102	6.6125736e-08
148	0x33fc7363	1.1755653e-07
149	0x34453a14	1.8368183e-07
150	0x31fca6ed	7.3531425e-09
151	0x31fca6eb	7.3531417e-09
152	0x32fca6de	2.9412544e-08
153	0x338e1dd4	6.617816e-08
154	0x33fca6ac	1.1764982e-07
155	0x34456208	1.8382718e-07
156	0x340f8506	1.3366306e-07
157	0x340f8505	1.3366305e-07
158	0x350f8501	5.34652e-07
159	0x35a1759e	1.2029666e-06
160	0x360f84f1	2.1386043e-06
161	0x36603fab	3.341566e-06
162	0x30efe753	1.7455285e-09
163	0x30efe747	1.7455272e-09
164	0x31efe729	6.9820953e-09
165	0x3286f1ed	1.5709668e-08
166	0x32efe6bb	2.7928186e-08
167	0x333b6c00	4.3637556e-08
168	0x2faf2314	3.185724e-10
169	0x2faf231a	3.1857256e-10
170	0x30af232a	1.274292e-09
171	0x314507b6	2.8671656e-09
172	0x31af237d	5.097205e-09
173	0x3208d3ea	7.964426e-09
174	0x321ce088	9.131448e-09
175	0x321ce086	9.131446e-09
176	0x331ce079	3.6525737e-08
177	0x33b07c8d	8.218294e-08
178	0x341ce04b	1.461023e-07
179	0x34751e6a	2.2828468e-07
180	0x31316ac2	2.5817575e-09
181	0x31316abe	2.5817566e-09
182	0x32316abb	1.0327024e-08
183	0x32c7981a	2.3235817e-08
184	0x33316aae	4.130805e-08
185	0x338a9b4d	6.454375e-08
186	0x32746f91	1.42280365e-08
187	0x32746f8f	1.4228035e-08
188	0x33746f85	5.6912103e-08
189	0x34097ec5	1.2805238e-07
190	0x34746f75	2.2764819e-07
191	0x34bef717	3.557004e-07
192	0x307ca212	9.190738e-10
193	0x307ca202	9.1907293e-10
194	0x317ca1b5	3.6762746e-09
195	0x320e1ac1	8.271571e-09
196	0x327ca0bf	1.470488e-08
197	0x32c55d21	2.2976169e-08
198	0x2f7709f5	2.2468057e-10
199	0x2f7709f5	2.2468057e-10
200	0x307709ed	8.987218e-10
201	0x310af577	2.0221174e-09
202	0x317709b4	3.5948746e-09
203	0x31c0ff7d	5.616981e-09
204	0x2f2ef37f	1.5911715e-10
205	0x2f2ef377	1.5911704e-10
206	0x302ef361	6.3646693e-10
207	0x30c4d1a4	1.432046e-09
208	0x312ef311	2.54585e-09
209	0x3188adb2	3.977868e-09
210	0x32118dfe	8.472396e-09
211	0x32118dfd	8.472395e-09
212	0x33118df7	3.388956e-08
213	0x33a3bfc0	7.625158e-08
214	0x34118dea	1.3555805e-07
215	0x34636db6	2.1180935e-07
216	0x32791846	1.4499227e-08
217	0x32791844	1.4499225e-08
218	0x3379183e	5.799688e-08
219	0x340c1d99	1.3049284e-07
220	0x3479182c	2.3198726e-07
221	0x34c29ad1	3.624796e-07
222	0x3172f6cb	3.535592e-09
223	0x3172f6c2	3.53559e-09
224	0x3272f6a2	1.4142332e-08
225	0x3308aaab	3.182019e-08
226	0x3372f632	5.656893e-08
227	0x33bdd015	8.838848e-08
228	0x304edc08	7.5255047e-10
229	0x304edc02	7.5255013e-10
230	0x314edbf6	3.0101979e-09
231	0x31e8b73d	6.7729204e-09
232	0x324edbac	1.2040726e-08
233	0x32a19b72	1.8813555e-08
234	0x31cf4276	6.0320486e-09
235	0x31cf4270	6.032046e-09
236	0x32cf4265	2.4128164e-08
237	0x33692a8b	5.4288233e-08
238	0x33cf4239	9.6512345e-08
239	0x3421eb9b	1.5080006e-07
240	0x313be2cc	2.7341e-09
241	0x313be2c3	2.734098e-09
242	0x323be299	1.0936355e-08
243	0x32d35eb6	2.4606702e-08
244	0x333be220	4.374499e-08
245	0x3392c86b	6.8351106e-08
246	0x30a14daa	1.1736365e-09
247	0x30a14d9d	1.1736351e-09
248	0x31a14d7c	4.6945257e-09
249	0x323576fa	1.0562639e-08
250	0x32a14d05	1.8777891e-08
251	0x32fc0805	2.9340308e-08
252	0x31c885b7	5.8359677e-09
253	0x31c885b0	5.8359646e-09
254	0x32c885a9	2.3343846e-08
255	0x33619654	5.2523617e-08
