TSTE-R/PV-DC-noisy-comparison/Noisy-5%/GEPINN_A30_noisy0.05/save_model_0224.ckpt-450000.pt (torch, 407622 bytes, 27 tensors)

input_projection.weight f4 [100, 2]
0	0xbdd2e21a	-0.10297032
1	0x3dd21a27	0.102588944
2	0x3dd7f2e0	0.105443716
3	0xbd373f56	-0.044738136
4	0x3e9f9eab	0.31175742
5	0x3e85ef8c	0.26159322
6	0xbe461b81	-0.1934643
7	0x3e4e9718	0.20174825
8	0xbe992503	-0.2991105
9	0x3e9950c8	0.29944444
10	0xbd5f5699	-0.054525945
11	0x3ef80637	0.48442242
12	0x3cb21d76	0.021742564
13	0xbd876f86	-0.06613068
14	0xbe3ec889	-0.18631186
15	0x3e42f5b9	0.19039048
16	0x3e63ed7c	0.22258562
17	0xbe64d66f	-0.22347425
18	0x3edcd3df	0.43130395
19	0x3d626bc2	0.055278547
20	0xbedbedc2	-0.42954832
21	0x3edefb0f	0.43550918
22	0x3d8aa28a	0.06769283
23	0xbd8f6666	-0.07001953
24	0xbf022044	-0.50830483
25	0x3f05dd76	0.5229105
26	0x3e978e35	0.29600683
27	0xbe9bf20a	-0.304581
28	0x3ee9416b	0.45557722
29	0x3e5489ba	0.20755664
30	0x3ea7e46e	0.32791466
31	0xbeb5dc7d	-0.35519782
32	0xbe72f85e	-0.23727557
33	0xbe8c9512	-0.27457482
34	0xbef78f2b	-0.48351416
35	0x3ef6e0c9	0.48218372
36	0xbe839913	-0.25702724
37	0xbe25985e	-0.16171405
38	0x3e90147b	0.28140625
39	0xbeb40922	-0.35163218
40	0xbeb198b1	-0.34686807
41	0x3eb7cc79	0.35898188
42	0x3e0002a6	0.1250101
43	0xbe0090bb	-0.1255521
44	0x3e4e1114	0.20123702
45	0xbe49ffcb	-0.19726484
46	0xbedbfbda	-0.42965585
47	0x3edaa333	0.42702636
48	0x3dbdd57f	0.09269237
49	0xbdbe75b2	-0.09299792
50	0xbba4f005	-0.0050334954
51	0xbc67218e	-0.014107121
52	0x3f02dbd0	0.5111666
53	0xbf03039e	-0.51177394
54	0xbe20bcb9	-0.15696992
55	0x3e3317b7	0.17489515
56	0xbe92776a	-0.2860673
57	0x3e932d1f	0.28745362
58	0x3ee88fa9	0.45422104
59	0xbee8ec04	-0.45492566
60	0x3c66dd86	0.014090901
61	0xbba5049a	-0.005035949
62	0x3dc46d32	0.0959114
63	0xbdcb2147	-0.099184565
64	0xbd97ce8a	-0.07412441
65	0x3ea3b1b9	0.3197153
66	0x3eacf67e	0.3378181
67	0x3e88a68d	0.26689568
68	0xbd258a38	-0.04041502
69	0x3d1f0f02	0.038832672
70	0xbeac0fc6	-0.33605784
71	0xbd8c9227	-0.06863814
72	0xbe1ea802	-0.15493777
73	0x3e209ff8	0.15686023
74	0xbe898679	-0.26860407
75	0x3e8926b1	0.26787332
76	0x3ecb4adb	0.39705548
77	0x3e19feb6	0.15038571
78	0xbda7f113	-0.08200278
79	0x3da6f191	0.08151544
80	0xbe77ae43	-0.2418757
81	0x3e74a531	0.2389114
82	0x3eb6a895	0.35675493
83	0x3ee8a49c	0.45438087
84	0xbed65a28	-0.4186566
85	0x3ed60d6b	0.41807112
86	0xbf12be13	-0.5732128
87	0x3f0fb1b8	0.5613055
88	0xbe8e8115	-0.27832857
89	0x3e8e9099	0.27844694
90	0xbead6e85	-0.33873382
91	0x3ead67bb	0.33868203
92	0x3e235c35	0.15953143
93	0xbe24a5e8	-0.16078913
94	0xbecf4b71	-0.40487245
95	0x3ec0b991	0.37641576
96	0x3ecbd54c	0.3981117
97	0xbecbade5	-0.39781108
98	0xbdfb84e3	-0.122812055
99	0x3dfb7ac1	0.12279273
100	0x3eba627a	0.36403257
101	0xbeba3832	-0.36371
102	0x3ea0b345	0.31386772
103	0x3de51ec2	0.11187507
104	0x3f019e90	0.5063257
105	0xbf013271	-0.5046759
106	0x3e4f1186	0.20221528
107	0xbe33d7bb	-0.17562763
108	0x3edfcb92	0.4371
109	0xbedef3e4	-0.4354545
110	0xbef0af4e	-0.47008747
111	0xbf0793ef	-0.52960104
112	0x3f09b18a	0.5378653
113	0xbf09c347	-0.53813595
114	0x3bd87b69	0.0066065085
115	0x3e999776	0.29998368
116	0xbe48332d	-0.19550772
117	0x3e47b3f5	0.19502242
118	0xbf0022a0	-0.50052834
119	0x3f005cc0	0.50141525
120	0x3e62fd1c	0.22166866
121	0xbe635527	-0.22200452
122	0x3d729eb1	0.05923337
123	0x3dc7e74e	0.09760915
124	0x3eb7753f	0.3583164
125	0xbeb842c3	-0.35988435
126	0xbe9b3206	-0.30311602
127	0x3eade57e	0.3396415
128	0xbee77c10	-0.4521184
129	0x3ecdfdb2	0.40232617
130	0x3e9dcd87	0.30820867
131	0xbe8b509b	-0.27209935
132	0x3e9eea1c	0.31037986
133	0xbe9d731d	-0.30751887
134	0x3e950308	0.29103875
135	0xbe9aa9b9	-0.30207613
136	0xbe974b63	-0.29549703
137	0x3e98a592	0.2981382
138	0xbe6f8104	-0.2338906
139	0x3e85050b	0.2598041
140	0x3e453c2a	0.19261232
141	0x3dd62242	0.10455753
142	0x3e421cad	0.18956251
143	0xbe41c6e1	-0.18923523
144	0x3ccd8e29	0.025092201
145	0xbcd43986	-0.025906336
146	0x3d636793	0.055518698
147	0xbd6723ed	-0.056430746
148	0xbf1fef5b	-0.624746
149	0x3f219946	0.631245
150	0x3e8e84d7	0.27835724
151	0x3e395396	0.18098292
152	0xbe87d99f	-0.2653322
153	0x3e4c463b	0.19948666
154	0xbea96bfd	-0.330902
155	0x3eaa3061	0.33240035
156	0x3f19e9b6	0.6012224
157	0xbf1a8a57	-0.6036734
158	0x3e931759	0.2872875
159	0x3d157fa6	0.03649869
160	0xbf0177d6	-0.5057348
161	0x3f0161dc	0.50539947
162	0x3e2fdf36	0.17174992
163	0xbe275926	-0.16342601
164	0x3ed9a0bb	0.4250544
165	0xbeda329b	-0.42616734
166	0x3c3dbed7	0.011581144
167	0xbc410e60	-0.011783212
168	0xbe168de1	-0.1470256
169	0x3e14c5b1	0.14528538
170	0x3dfaf6d0	0.12254107
171	0xbdfdb647	-0.12388282
172	0x3c9aa8a2	0.018879239
173	0xbbc74f30	-0.006082438
174	0x3b897fc4	0.004196139
175	0x3ab623b4	0.0013896138
176	0x3e13a0fe	0.14416882
177	0xbe0ea03a	-0.13928309
178	0xbeafe7a4	-0.34356415
179	0x3eaf36de	0.34221548
180	0xbe0a06c3	-0.13479142
181	0x3e0a2a65	0.13492735
182	0xbc98bc3f	-0.01864445
183	0x3ccf5791	0.02531031
184	0xbdcb0eed	-0.09914956
185	0x3dca7dbf	0.098872654
186	0x3eeb96d5	0.46013513
187	0x3d87e9a1	0.06636358
188	0x3e3efc94	0.18651038
189	0xbe4151f0	-0.18878913
190	0xbe661e20	-0.2247243
191	0x3e78f1ad	0.24310942
192	0x3ed0ec24	0.4080516
193	0x3cda6e91	0.02666405
194	0xbefa106f	-0.48840663
195	0x3ef7bf99	0.48388365
196	0x3ccba40b	0.024858495
197	0xbccb38ac	-0.024807297
198	0x3ed8d7f4	0.4235226
199	0xbedb7454	-0.4286219

dense1.weight f4 [100, 100]
0	0xbec9708b	-0.39343676
1	0xbdaab222	-0.083347574
2	0xbd1c57e9	-0.038169775
3	0x3ecaaacd	0.39583436
4	0x3eeae77e	0.4587974
5	0xbd90f786	-0.07078461
6	0xbf81dbd9	-1.0145217
7	0x3f840350	1.0313511
8	0xbce5c1ac	-0.028046452
9	0xbc8621d7	-0.016373558
10	0xbc3290f4	-0.010898817
11	0x3f0dcc41	0.5538979
12	0xbf6e1635	-0.93002635
13	0x4013d2b3	2.309735
14	0xbe05d2d0	-0.130687
15	0x3f2cfdc2	0.67574704
16	0x3e04a63f	0.12954043
17	0xbeac06e2	-0.33599
18	0x3ddecb68	0.108786404
19	0x3de0e94a	0.10981996
20	0x3f0bf8b5	0.5467637
21	0xbf9c519c	-1.2212405
22	0x3ef83ae4	0.4848243
23	0xbfad8553	-1.3556312
24	0xbe8e7ec8	-0.278311
25	0x3f5ba863	0.8580381
26	0xbe2345c0	-0.15944576
27	0x3eadbab0	0.33931494
28	0x3f2fb4f7	0.68635505
29	0x3e03b9b8	0.12863815
30	0xbe342d00	-0.17595291
31	0xbe5e89d9	-0.21732272
32	0xbdbcf528	-0.09226447
33	0xba0ec27f	-0.00054458523
34	0x3eeab28c	0.45839345
35	0x3d8b6a56	0.06807391
36	0x3f9e8466	1.2384155
37	0x3fc62322	1.5479472
38	0xbe189b78	-0.14903057
39	0xbfadff47	-1.359353
40	0x3dab96a0	0.08378339
41	0x3c8f6bdd	0.017507488
42	0x3f32d138	0.6985049
43	0xbe3a3b74	-0.18186742
44	0xbf16d7e6	-0.58923185
45	0x3e6bfd7e	0.23045918
46	0xbd52d116	-0.05146893
47	0x3f50f355	0.81621295
48	0xbf80a3a4	-1.0049939
49	0xbdac4513	-0.08411612
50	0x3e3b85ce	0.18312761
51	0xbcc12dca	-0.023581404
52	0xbe8e176b	-0.27752241
53	0xbf817be8	-1.0115938
54	0x3f6744bc	0.90339255
55	0x3d57576a	0.0525736
56	0x3f0e20bd	0.55518705
57	0xbe137598	-0.14400327
58	0xbf454e4c	-0.77072597
59	0xbe9f7eec	-0.3115152
60	0xbd4a458a	-0.049382724
61	0xbd0e5f83	-0.034759056
62	0xbf6971f9	-0.91189533
63	0xbe3038ea	-0.17209211
64	0xbf2b5e1c	-0.66940475
65	0x3f99e90d	1.2024246
66	0x3ef36d85	0.47544494
67	0x3cdb8ae8	0.026799634
68	0xbf090d87	-0.53536266
69	0x3f20af0f	0.6276712
70	0xbc6e6d9b	-0.014552499
71	0x3f10f767	0.56627506
72	0xbec78ec2	-0.38976103
73	0xbf0505d3	-0.5196201
74	0x3fbc1e66	1.4696777
75	0x3c2500fc	0.0100710355
76	0xbe509fd9	-0.20373477
77	0xbf8a787b	-1.0818018
78	0xbea2c7a8	-0.3179295
79	0xbc888212	-0.016663585
80	0xbe57c3ce	-0.21070787
81	0x3f8af5e5	1.0856291
82	0xbd0cd8d2	-0.034386463
83	0xbe94f177	-0.29090473
84	0xbea8457c	-0.32865512
85	0xbd2d4275	-0.042299706
86	0xbeab9e9a	-0.3351944
87	0x3e8c7bdc	0.27438247
88	0x3df531a5	0.119723596
89	0x3f83a320	1.0284157
90	0xbedcbfd6	-0.4311511
91	0xbe797568	-0.24361193
92	0xbee9dfb6	-0.4567849
93	0xbc300170	-0.01074253
94	0x3e3004ad	0.17189284
95	0x3f75be2d	0.9599331
96	0xbd865a12	-0.06560148
97	0xbe804963	-0.2505599
98	0xbf931251	-1.1489965
99	0xbe024b7e	-0.1272411
100	0x3baf41bb	0.005348412
101	0x3dc5da77	0.096608095
102	0x3d8e56ac	0.06950125
103	0xbc2fb2f2	-0.010723816
104	0xbc8e93b2	-0.017404411
105	0x3d18f5f3	0.03734393
106	0x3e26ad95	0.16277154
107	0xbe375861	-0.17904808
108	0xbcbd8278	-0.023133501
109	0xbd774260	-0.060366035
110	0xbe8f11b0	-0.27943182
111	0xbe22035f	-0.15821598
112	0x3dbdc08a	0.092652395
113	0x3cd87e9f	0.026427565
114	0x3d2a001a	0.041504003
115	0x3ddb5daf	0.10711228
116	0xbc9e0b72	-0.019292567
117	0xbed25109	-0.4107745
118	0x3d3d9c05	0.04629137
119	0xbc966125	-0.018356869
120	0xbe86c5ba	-0.26322728
121	0xbe81180f	-0.25213668
122	0x3e5e966d	0.2173707
123	0xbf14b2c1	-0.58085257
124	0xbe142e74	-0.14470845
125	0xbdccc37f	-0.099982254
126	0xbe2c6f77	-0.16839395
127	0xbcc8798b	-0.024472019
128	0x3ebf624a	0.37379676
129	0xbda1d221	-0.07901407
130	0xbe9aab37	-0.30208752
131	0xbeb91f9e	-0.36156934
132	0x3cd604b6	0.026125293
133	0x3d5b36e5	0.05351915
134	0xbed6a59e	-0.4192323
135	0x3d29dbdc	0.04146944
136	0x3e77c22e	0.24195167
137	0xbf0aa046	-0.5415081
138	0x3dab4341	0.08362437
139	0x3f2da55e	0.67830455
140	0x3ccd8fb8	0.025092945
141	0x3d49694e	0.049172692
142	0x3ea7e816	0.32794255
143	0xbdbd3e3a	-0.092403844
144	0x3e874650	0.26420832
145	0x3e3b89a7	0.18314229
146	0x3defd82b	0.11711153
147	0x3c90dea4	0.017684288
148	0xbe06e140	-0.13171864
149	0xbe180c64	-0.14848477
150	0xbe2e3591	-0.17012621
151	0x3db4e74d	0.088331796
152	0xbc6fab74	-0.01462828
153	0x3d3e6776	0.046485387
154	0xbedc4aab	-0.43025717
155	0x3d805d82	0.06267835
156	0xbd0a9c58	-0.033840507
157	0xbc12d856	-0.008962711
158	0xbe33c0e0	-0.17554045
159	0xbcbe3d1e	-0.023222502
160	0xbec4c813	-0.38433895
161	0xbd265d34	-0.04061623
162	0x3f2798e0	0.65467644
163	0xbe967c0d	-0.29391518
164	0x3d0b091c	0.033944234
165	0xbeef37ca	-0.4672225
166	0xbef32da6	-0.47495764
167	0xbebc7dca	-0.3681472
168	0xbe6e1b71	-0.23252656
169	0xbd4c2cc2	-0.049847372
170	0xbcfc227f	-0.030778168
171	0xbe8d00b7	-0.27539608
172	0xbe9a1a20	-0.30098057
173	0x3ebc5c96	0.36789387
174	0x3e0300d7	0.12793289
175	0x3df233b4	0.11826268
176	0xbea30e94	-0.3184706
177	0x3df4952f	0.11942517
178	0xbde53a02	-0.11192705
179	0xbd915837	-0.07096904
180	0xbe9f0e37	-0.31065533
181	0xbea1df00	-0.31615448
182	0xbe3700a4	-0.17871338
183	0xbe027753	-0.12740831
184	0xbeb08ed9	-0.34483984
185	0xbda59162	-0.0808437
186	0xbe4baf0d	-0.19890995
187	0xbd9d8870	-0.07692039
188	0xbeba3c20	-0.36373997
189	0xbdb9f69b	-0.090802394
190	0xbe8fd38e	-0.2809109
191	0xbe1a1918	-0.15048635
192	0x3ea467f7	0.3211057
193	0xbd180efa	-0.037123658
194	0x3e916bb2	0.28402478
195	0x3d03ec79	0.03220794
196	0x3dbee9fe	0.09321974
197	0xbe5ecab4	-0.21757013
198	0x3e04e956	0.12979636
199	0x3d821bd2	0.063529626
200	0xbdd91d48	-0.10601288
201	0xbe0a3f0b	-0.13500611
202	0xbd65c7bc	-0.056098685
203	0xbeab943b	-0.33511528
204	0xbc97b108	-0.018517032
205	0x3b58614a	0.0033016973
206	0x3cddcfe5	0.02707667
207	0xbe7103b8	-0.23536575
208	0xbe1e0fb2	-0.15435675
209	0xbd404c21	-0.046947602
210	0x3e8581d2	0.26075608
211	0xbe9150bb	-0.28381905
212	0x3edd8768	0.4326737
213	0xbf403c98	-0.7509246
214	0xbd386927	-0.045022156
215	0xbec4b5e8	-0.38420033
216	0x3d1c17a0	0.038108468
217	0xbe02cf2e	-0.12774345
218	0xbd98b08a	-0.07455547
219	0x3dcb435b	0.099249564
220	0xbdddbaff	-0.10826682
221	0xbb37b5cc	-0.0028031943
222	0xbe89cb08	-0.26912713
223	0x3ea29021	0.31750587
224	0x3c785a81	0.015158297
225	0xbdb5d57a	-0.08878608
226	0xbca65fb9	-0.020309316
227	0x3d9c348d	0.07627211
228	0xbe6b8763	-0.23000865
229	0x3dfc1a25	0.12309674
230	0xbd21c870	-0.039497793
231	0xbd923b23	-0.07140186
232	0x3c8f3e90	0.017485887
233	0x3b35fd7f	0.0027769504
234	0x3ddb7c7c	0.10717103
235	0x3db1b677	0.086773805
236	0xbe55e4e1	-0.20888092
237	0xbeaa2e5f	-0.33238503
238	0x3d8644a6	0.065560624
239	0x3ed1f172	0.4100452
240	0x3ee26fb4	0.44225848
241	0xbd35c577	-0.04437777
242	0xbf123c80	-0.57123566
243	0xbd7aa961	-0.06119669
244	0xbe430784	-0.19045836
245	0x3dc80b33	0.09767761
246	0xbc8666f7	-0.01640652
247	0xbe21fabd	-0.15818305
248	0x3de6a980	0.11262798
249	0x3d2ddfbc	0.042449698
250	0xbda38226	-0.07983808
251	0x3d9cb41c	0.07651541
252	0xbd8ae5e4	-0.067821294
253	0x3dba739b	0.09104081
254	0xbe0f1775	-0.13973792
255	0xbde6bcc2	-0.112664714

dense1.bias f4 [100]
0	0x3bf9021c	0.0075991284
1	0xbe9c42e1	-0.30519775
2	0xbda42b85	-0.08016113
3	0xbd9ee14e	-0.07757817
4	0x3e96e8aa	0.29474384
5	0x3ed33735	0.41253057
6	0xbdf3ac42	-0.1189809
7	0x3d89ed06	0.06734662
8	0x3e81af8a	0.25329238
9	0xbe20f0a8	-0.15716803
10	0x3e9f3b60	0.31099987
11	0x3e0d4f77	0.13799845
12	0x3ed85445	0.42251793
13	0x3eab2c40	0.33432198
14	0xbd88b5bc	-0.06675288
15	0x3e0b5995	0.13608392
16	0xbebb908a	-0.36633712
17	0x3ebc4de0	0.36778164
18	0x3e61fc51	0.22068907
19	0x3daab038	0.08334392
20	0xbd90a608	-0.07062918
21	0x3ea4b287	0.32167456
22	0x3ec0fb37	0.37691662
23	0xbe0827f7	-0.13296495
24	0x3eb71286	0.3575632
25	0x3e2eeeba	0.17083254
26	0x3edc940d	0.43081704
27	0xbe8b1fa4	-0.27172577
28	0x3eb84543	0.35990342
29	0x3e9617e5	0.29315105
30	0x3e86a6c5	0.2629911
31	0x3e74d2a4	0.23908478
32	0xbdd3efdd	-0.10348485
33	0xbd95c962	-0.07313801
34	0x3e836aa1	0.2566729
35	0x3b96c250	0.0046008006
36	0x3e8becd5	0.27329126
37	0x3e849879	0.25897577
38	0xbd48fa9c	-0.049067125
39	0x3ecbae69	0.39781502
40	0xbe1febbb	-0.15617268
41	0x3e1e3685	0.15450485
42	0xbeae19e9	-0.34004143
43	0x3e04e097	0.12976299
44	0xbe439d1d	-0.19102903
45	0xbdf95b70	-0.121756434
46	0x3e95c6a0	0.292531
47	0xbe0cc76d	-0.1374795
48	0xbe0a0b44	-0.1348086
49	0xbe839c7b	-0.25705323
50	0xbbe82c5e	-0.007085367
51	0xbe08fb87	-0.133772
52	0x3e005750	0.12533307
53	0x3dd623e4	0.10456064
54	0x3ed16e2b	0.40904364
55	0xbeb6a2f1	-0.3567119
56	0x3ecafbe5	0.39645305
57	0xbe0ae45e	-0.13563678
58	0x3e91fb57	0.2851207
59	0x3e96521d	0.29359522
60	0x3e537105	0.20648582
61	0xbd1fb508	-0.038991004
62	0x3eeb1d26	0.45920676
63	0xbe86cef7	-0.26329777
64	0xbe8846d3	-0.26616535
65	0x3e7addb9	0.24498643
66	0xbe1f7d4a	-0.15575138
67	0xbd9bc8ef	-0.076066844
68	0xbe13b619	-0.14424933
69	0x3dc2515d	0.09488175
70	0x3e7a38f6	0.24435791
71	0x3b417caa	0.0029523768
72	0x3ee3d42c	0.44497812
73	0x3eb8dd45	0.36106315
74	0x3eb1a582	0.34696585
75	0x3cf4335b	0.029809644
76	0x3eacfdbd	0.33787337
77	0xbea3d896	-0.3200118
78	0x3e93cca7	0.28867075
79	0x3e910199	0.2832153
80	0x3d43a255	0.047762234
81	0xbe5247fc	-0.20535272
82	0x3d5d055f	0.0539602
83	0x3d27efaf	0.041000064
84	0x3e817e0d	0.25291482
85	0xbd0c3f25	-0.034239907
86	0x3ed87f6b	0.42284712
87	0x3e5a77ff	0.21334837
88	0xbe1291f9	-0.14313497
89	0x3ee52817	0.4475715
90	0x3dac634f	0.08417379
91	0xbe07bab0	-0.1325481
92	0x3eb32c40	0.34994698
93	0x3ed06830	0.4070449
94	0x3e90ab07	0.28255484
95	0x3e95ea7d	0.29280463
96	0xbc65de2d	-0.014030022
97	0x3e7d9b65	0.2476631
98	0x3e9c57f1	0.30535844
99	0x3e8cfc56	0.27536267

dense2.weight f4 [100, 100]
0	0x3d2cf658	0.04222712
1	0xbd29c8f1	-0.0414514
2	0x3e249611	0.16072871
3	0xbc61e4ff	-0.013787507
4	0x3e8e8cbb	0.27841744
5	0x3e9c133c	0.30483425
6	0xbdcc616c	-0.09979519
7	0xbda2157b	-0.07914253
8	0x3e4ea442	0.20179847
9	0xbd2822d2	-0.041048832
10	0x3ebdea32	0.3709274
11	0x3e8c09af	0.27351138
12	0x3e93eeee	0.28893226
13	0x3e14980c	0.14511126
14	0x3e38e875	0.18057425
15	0x3e85ac88	0.26108193
16	0xbde91461	-0.1138084
17	0x3e489cf6	0.19591126
18	0x3d86ac97	0.06575888
19	0x3ce7e999	0.02830963
20	0xbe6c85f8	-0.2309798
21	0x3e62e8bb	0.22159092
22	0x3d93ad40	0.07210779
23	0xbdc1c527	-0.09461432
24	0x3e6940d1	0.22778632
25	0x3e4878a9	0.19577278
26	0x3e86b9c9	0.26313618
27	0x3d668f9c	0.0562893
28	0x3e0d8c6b	0.13823096
29	0x3e35ea85	0.17765243
30	0x3e28ee8e	0.16497251
31	0x3eab0ff9	0.33410624
32	0xbe2c89c6	-0.16849431
33	0x3e37e9ab	0.17960231
34	0x3e59718f	0.21234725
35	0x3e15fab4	0.14646417
36	0x3e2f788f	0.17135833
37	0x3e82eb3c	0.25570095
38	0x3db99259	0.09061117
39	0x3ea8bb8d	0.3295559
40	0xbb34022f	-0.0027467122
41	0x3e1ddac0	0.15415478
42	0xbca49eed	-0.020095313
43	0x3dc9799f	0.098376505
44	0xbde6f69c	-0.11277506
45	0x3d401f4c	0.046904847
46	0x3ed4f048	0.4158957
47	0xbd84d6b0	-0.06486261
48	0xbd23e214	-0.040010527
49	0xbdffa789	-0.12483127
50	0x3d40fbad	0.047115017
51	0x3de23689	0.11045558
52	0x3cfa7fce	0.03057852
53	0x3cd94b5c	0.026525192
54	0x3e5fab06	0.21842584
55	0xbd80eb3e	-0.06294869
56	0x3e83c8a4	0.25739014
57	0x3d2e5b82	0.042567737
58	0x3ea584d4	0.32327902
59	0x3e544f98	0.20733488
60	0x3b3876a5	0.002814689
61	0xbd3a672f	-0.04550856
62	0x3e451188	0.19244969
63	0xbc8766ff	-0.016528605
64	0xbdeef1b6	-0.116671965
65	0x3e585086	0.21124467
66	0x3dde73e2	0.10861947
67	0x3db5559f	0.088542216
68	0xbdd46927	-0.10371619
69	0x3e877f0e	0.26464123
70	0x3e3e85b6	0.18605694
71	0x3e735a82	0.23764995
72	0x3e85345a	0.26016504
73	0x3e866f45	0.26256767
74	0x3eb5c1ba	0.35499364
75	0xbd90fc1a	-0.070793346
76	0x3d8c2c78	0.06844419
77	0xbbddeb6d	-0.0067724497
78	0x3eb603ed	0.3554987
79	0x3e0df8bc	0.13864416
80	0x3e997dd7	0.2997882
81	0xbc5b6588	-0.013390906
82	0xbd4a8c07	-0.049449947
83	0x3bf9f9cf	0.0076286565
84	0x3e35215f	0.17688511
85	0x3d9bc6ef	0.07606303
86	0x3e292939	0.16519631
87	0x3e41ab3e	0.1891298
88	0xbdaa0f5f	-0.08303713
89	0x3e7fbc4c	0.24974173
90	0xbc5c1e26	-0.013434922
91	0x3d254fe3	0.04035939
92	0x3e86ec02	0.26351935
93	0x3dd719ed	0.10502992
94	0x3e943e0f	0.28953597
95	0x3e6ebed2	0.2331498
96	0xbd9928e0	-0.074784994
97	0x3e9a4678	0.30131888
98	0x3eaedd15	0.34153047
99	0x3e1f1685	0.15535934
100	0x3deb3458	0.11484593
101	0x3dc470c1	0.095918186
102	0x3dec4977	0.1153745
103	0x3e910d30	0.28330374
104	0x3e9ca5b9	0.30595186
105	0x3e25d30c	0.16193789
106	0x3ebb7f8e	0.36620754
107	0x3eaf2699	0.34209135
108	0x3e4b184e	0.1983349
109	0x3e15dc96	0.14634928
110	0x3ece87df	0.40338036
111	0x3e4a68d9	0.19766559
112	0x3e9949df	0.29939172
113	0x3dbd5bf9	0.09246058
114	0x3daf7f65	0.085692205
115	0x3e81ddc1	0.25364497
116	0x3de475b8	0.111552656
117	0x3ec77d47	0.38962767
118	0x3eb6ef3b	0.35729393
119	0x3eb7c88d	0.35895196
120	0xbe3adeb3	-0.18249016
121	0x3e873f26	0.26415366
122	0x3ec39377	0.38198444
123	0x3e82b63d	0.25529662
124	0x3e8dfa9f	0.2773027
125	0x3ed81398	0.4220245
126	0x3e978166	0.2959091
127	0x3e3e421a	0.18579903
128	0x3e809854	0.25116217
129	0x3d47d508	0.048787147
130	0x3e2e9fe2	0.17053178
131	0x3eb67e03	0.35643014
132	0x3dfdc253	0.1239058
133	0x3e4aa417	0.19789158
134	0x3e60f462	0.21968225
135	0x3d6f0fa6	0.058364533
136	0x3e7560fa	0.23962775
137	0x3e8fac97	0.28061363
138	0x3dce5c51	0.10076202
139	0x3e86f189	0.26356152
140	0x3e5301b7	0.20606123
141	0x3edc0c3d	0.42978087
142	0x3e6f551b	0.23372309
143	0x3e5d1824	0.2159124
144	0x3e069119	0.13141288
145	0x3e0aa774	0.13540441
146	0x3e4d4829	0.20047058
147	0x3e7c53fc	0.24641412
148	0x3e3eee12	0.18645504
149	0x3e43fb4d	0.19138832
150	0x3e03758e	0.12837812
151	0xbccb120a	-0.024788875
152	0x3ec602ce	0.38674015
153	0x3ea7cb8f	0.3277249
154	0x3ebf692d	0.3738493
155	0x3e6a39ec	0.22873658
156	0x3e5bd88a	0.21469322
157	0x3db1efb6	0.08688299
158	0x3e3eaaa2	0.18619779
159	0x3eb6f471	0.3573337
160	0x3ec40bd6	0.3829028
161	0xbb1d8cd5	-0.0024040241
162	0x3eae0eed	0.33995762
163	0x3d7fc080	0.06243944
164	0x3dd63bab	0.104605995
165	0x3e1b91c4	0.15192324
166	0x3e9ac2d9	0.30226782
167	0x3e79c5b2	0.24391821
168	0x3e4b741d	0.19868512
169	0x3e3627a1	0.17788555
170	0x3eea9f44	0.45824635
171	0x3e592546	0.21205625
172	0x3ed1bad5	0.40962854
173	0x3e4635e6	0.19356498
174	0x3eaafbf3	0.33395347
175	0x3e96f239	0.29481676
176	0x3ecda557	0.40165207
177	0x3e57ef84	0.21087462
178	0x3eb91b9c	0.36153877
179	0x3ee3bb03	0.44478616
180	0x3de7387e	0.11290072
181	0x3e3102d7	0.1728624
182	0x3ec5ec95	0.3865706
183	0x3e14dfc9	0.14538492
184	0x3ea75812	0.3268438
185	0x3e3df413	0.18550138
186	0x3e1d4d3a	0.15361491
187	0x3eaaac2b	0.3333448
188	0x3e971f33	0.2951599
189	0x3e66531a	0.22492638
190	0x3dddb5f6	0.10825722
191	0x3e3b0bd7	0.18266235
192	0x3eab162c	0.33415353
193	0x3e904181	0.28174976
194	0x3e794755	0.24343617
195	0x3e84c339	0.25930193
196	0x3e5d2041	0.21594335
197	0x3e12d1f6	0.14337906
198	0x3e93262d	0.28740063
199	0x3e66e212	0.22547176
200	0x3d5b1156	0.05348333
201	0xbcb526ff	-0.022113321
202	0xbe9678a4	-0.29388916
203	0xbdf02b9d	-0.117270686
204	0x3e62612b	0.22107379
205	0x3e9cdab7	0.30635616
206	0x3d0e811b	0.034791093
207	0x3ac07d4b	0.0014685778
208	0x3e36c789	0.17849554
209	0xbe8a22ef	-0.26979777
210	0x3e101984	0.14072233
211	0x3e518058	0.20459116
212	0x3c9e98c9	0.019359963
213	0x3e9f164e	0.31071705
214	0xbe816ee7	-0.25279924
215	0x3d3162b6	0.04330703
216	0x3d976406	0.07392125
217	0x3e92cf48	0.28673768
218	0x3ce8b692	0.028407369
219	0x3e373a36	0.178933
220	0xbf3d3be5	-0.73919517
221	0x3e034280	0.12818336
222	0x3e5527f8	0.20816028
223	0x3dabe656	0.083935425
224	0x3e6d2f97	0.23162685
225	0x3c9fdcbe	0.019514438
226	0x3d33ecd9	0.043927047
227	0xbe165d40	-0.1468401
228	0x3dfb5f51	0.122740395
229	0x3e82c050	0.25537348
230	0x3e05c32e	0.13062736
231	0x3df2b775	0.11851398
232	0x3e0958ef	0.13412832
233	0xbed165cd	-0.4089798
234	0x3d7f6a4c	0.062357232
235	0xbca87247	-0.020562304
236	0x3cfe7596	0.031061929
237	0x3e67dd48	0.22643006
238	0xbeb715c4	-0.35758793
239	0x3e86f989	0.26362255
240	0x3d3a7189	0.04551843
241	0x3f0b5ba5	0.54436713
242	0x3dc0a069	0.09405596
243	0xbdafe687	-0.085888915
244	0xbe0d7936	-0.1381577
245	0x3e1f5072	0.15558031
246	0x3e8158ea	0.2526315
247	0xbec6f742	-0.38860518
248	0x3dd95bac	0.10613188
249	0x3dbdbaed	0.09264169
250	0xbdf3d227	-0.11905318
251	0xbf109e9f	-0.56492037
252	0x3cc68085	0.024231205
253	0x3e0484de	0.1294131
254	0x3dcff449	0.101540156
255	0x3f007bb9	0.50188786

dense2.bias f4 [100]
0	0x3cd2a893	0.025715148
1	0x3df6f27f	0.12057971
2	0x3e1abb8f	0.1511061
3	0x3f24d22b	0.6438319
4	0x3da73874	0.081650645
5	0x3eca6535	0.3953034
6	0xbeb3a8a6	-0.35089606
7	0x3eb17fd8	0.3466785
8	0x3e6b4b94	0.2297805
9	0xbe7f637e	-0.24940297
10	0x3da45eb8	0.08025879
11	0x3eea88e9	0.4580758
12	0xbe85ebbe	-0.2615642
13	0x3ce9abd2	0.028524313
14	0x3ec3dc7c	0.38254154
15	0xbe8e3921	-0.2777796
16	0x3eb5d458	0.35513568
17	0x3d232dd0	0.039838612
18	0xbe9a5f1c	-0.30150688
19	0x3eb0ead8	0.34554172
20	0x3eb67fff	0.35644528
21	0x3dcf80b5	0.10131971
22	0x3daceeaa	0.08443959
23	0x3e6c6fc8	0.23089516
24	0x3e6e3992	0.23264149
25	0x3d4f3646	0.05058887
26	0x3e926456	0.28592175
27	0x3cbfd2ca	0.023415942
28	0x3e6ed1ed	0.23322268
29	0x3ea6e0b0	0.32593298
30	0x3d85b622	0.0652888
31	0xbd8b3cc2	-0.06798698
32	0x3d9e5cbb	0.07732531
33	0x3bf6e7c3	0.0075349524
34	0x3ea08e4c	0.31358564
35	0x3d92aa3c	0.07161376
36	0xbac648b7	-0.0015127872
37	0xbd79a768	-0.060950667
38	0x3dd7adf7	0.10531228
39	0x3dc8720d	0.097873785
40	0x3e060b27	0.13090192
41	0xbdc73895	-0.09727589
42	0x3d6cc7ad	0.057807613
43	0xbe3a4237	-0.18189321
44	0xbe16eb56	-0.14738211
45	0x3e62d6e3	0.22152285
46	0x3d98fbe3	0.074699186
47	0x3eb3ce0c	0.3511814
48	0x3da3f208	0.08005148
49	0xbd3b1f22	-0.045683987
50	0x3e23bd8e	0.15990278
51	0xbdd625c9	-0.10456426
52	0x3e8009ec	0.2500757
53	0xbe1bf5bf	-0.15230463
54	0xbe3d51df	-0.18488263
55	0x3e483534	0.19551545
56	0x3e464c03	0.19364934
57	0x3e9b1a3e	0.3029346
58	0xbbccc786	-0.006249371
59	0x3cff67f0	0.031177491
60	0x3e8fbccf	0.28073737
61	0x3e01c3bc	0.12672323
62	0xbe36dbb8	-0.17857254
63	0x3db8675d	0.0900409
64	0xbeab41fa	-0.33448774
65	0x3e0c5630	0.13704753
66	0x3e863c9b	0.26218113
67	0xbc50981c	-0.012731578
68	0x3dca7c3a	0.098869756
69	0x3e0d2413	0.13783292
70	0x3dce8263	0.10083463
71	0x3d7e2266	0.062044524
72	0xbe7a5942	-0.24448112
73	0xbe3099c3	-0.17246155
74	0x3ced3406	0.02895547
75	0x3e387a5b	0.18015425
76	0xbe45360d	-0.192589
77	0x3e091278	0.13385952
78	0xbd97397d	-0.07384012
79	0xbe182e8c	-0.14861506
80	0x3e8470fe	0.25867456
81	0x3d96f819	0.073715396
82	0x3dd08c3b	0.10182997
83	0x3e58c1ae	0.21167633
84	0x3e9e1be0	0.30880642
85	0x3e159b4c	0.14610022
86	0x3efca53f	0.49344823
87	0x3e99c467	0.30032656
88	0xbc1a4519	-0.009415888
89	0xbe407251	-0.18793608
90	0x3e0a63ee	0.13514683
91	0xbc875587	-0.016520275
92	0xbd96f38d	-0.073706724
93	0x3e214bb1	0.1575153
94	0xbd100bcd	-0.035167504
95	0x3e4449f1	0.19168831
96	0x3d259a91	0.04043061
97	0x3ea0be50	0.31395197
98	0xbe1c37ba	-0.15255633
99	0x3e65ed93	0.22453909

dense3.weight f4 [100, 100]
0	0x3e8eb901	0.27875522
1	0xbd76dc72	-0.060268827
2	0xbe7d4fdd	-0.24737497
3	0x3dd33c69	0.10314257
4	0x3e0a168f	0.13485168
5	0x3e23a3ad	0.15980406
6	0xbd95b39b	-0.07309648
7	0x3e7ed87b	0.24887268
8	0x3dd609a4	0.104510576
9	0xbe86bceb	-0.26316008
10	0x3f2e7aa2	0.6815587
11	0xbefaa41f	-0.4895334
12	0xbeb8725c	-0.3602475
13	0xbf09d8fc	-0.53846717
14	0x3e30dc50	0.17271543
15	0xbccbd53f	-0.024881957
16	0x3e32b499	0.17451705
17	0x3e9cc4e7	0.30618975
18	0x3f43599b	0.763086
19	0xbbb7a1bd	-0.0056039975
20	0xbd9383ee	-0.07202898
21	0x3ec2e6b3	0.38066635
22	0xbf8c388f	-1.095476
23	0x3eabf947	0.3358862
24	0x3e69444e	0.22779962
25	0xbe665cf5	-0.22496398
26	0x3d8781b9	0.066165395
27	0xbe868a1e	-0.2627725
28	0x3e95190b	0.2912067
29	0xbb863ddb	-0.004096729
30	0xbd6ad610	-0.057333052
31	0xbe00edad	-0.12590666
32	0xbe364614	-0.1780017
33	0x3efd3c23	0.49459943
34	0x3d56fd61	0.052487735
35	0xbdcca252	-0.09991898
36	0x3de9e02e	0.11419712
37	0xbd2c7524	-0.0421039
38	0xbf136aa6	-0.5758461
39	0x3d9b9d14	0.0759832
40	0x3ec4538a	0.38344985
41	0xbe85c666	-0.26127928
42	0x3e44c8aa	0.19217172
43	0xbe0c7b58	-0.13718927
44	0x3d66b925	0.05632891
45	0x3e17882b	0.14798038
46	0x3e926b6c	0.2859758
47	0xbec12c94	-0.37729323
48	0x3ec3e09e	0.38257307
49	0x3cc04cef	0.023474185
50	0x3e6578ea	0.22409406
51	0xbe06ac9d	-0.13151784
52	0x3e8be854	0.2732569
53	0x3f119bff	0.56878656
54	0x3e4dda04	0.20102698
55	0x3eceabe0	0.40365505
56	0x3d9f393b	0.07774588
57	0x3d20cb68	0.039256483
58	0x3e7f71e7	0.24945794
59	0x3ea2fee0	0.3183508
60	0x3e22ac48	0.15886033
61	0xbd387d3d	-0.04504131
62	0xbdb543a4	-0.08850792
63	0xbdf94ea0	-0.121732
64	0xbec1f3c7	-0.378813
65	0x3dedc1bf	0.1160922
66	0xbc3325b2	-0.01093428
67	0x3f001961	0.50038725
68	0x3e6c1081	0.2305317
69	0x3cb805bd	0.022463674
70	0x3e4b69cc	0.19864577
71	0xbe79208b	-0.2432882
72	0x3e02fd62	0.1279197
73	0xbe9ed426	-0.3102123
74	0xbde2a620	-0.11066842
75	0xbdf2b368	-0.11850625
76	0xbdbf488d	-0.0934001
77	0xbdbe2233	-0.09283867
78	0x3d289673	0.041159105
79	0x4004af98	2.0732174
80	0x3eabb4d4	0.33536398
81	0xbe3dda7b	-0.18540375
82	0xbdd9abd1	-0.106284745
83	0x3ca18773	0.019717908
84	0xbcc6182c	-0.024181448
85	0x3df5d1c2	0.12002899
86	0xbdf90794	-0.121596485
87	0xbd861aa1	-0.06548048
88	0x3ef8ae2c	0.48570383
89	0xbda54372	-0.08069505
90	0x3d41968f	0.047262724
91	0xbe7f7687	-0.24947558
92	0xbe16ec74	-0.14738637
93	0x3dabe4dc	0.08393261
94	0xbeac414c	-0.33643568
95	0xbea56d19	-0.32309797
96	0xbe92455c	-0.28568542
97	0x3ee81906	0.4533159
98	0x3eee2d85	0.46519104
99	0x3e061d2c	0.13097066
100	0xbdac0d95	-0.08401028
101	0xbb3d68a2	-0.0028901477
102	0x3dae66ca	0.08515699
103	0xbb50768d	-0.0031808943
104	0x3e80cf60	0.25158215
105	0x3e4c3a21	0.1994405
106	0xbded56ca	-0.11588819
107	0x3e647a48	0.22312272
108	0x3d4dbf98	0.050231546
109	0xbdefff77	-0.11718648
110	0x3cd05d0e	0.025434997
111	0x3e8a974e	0.2706856
112	0xbd50ea57	-0.051004734
113	0x3e166aaa	0.14689127
114	0xbdfcaf4b	-0.12338122
115	0x3c2e067a	0.010621661
116	0x3e45954e	0.19295236
117	0xbd8c58a2	-0.06852843
118	0x3d952654	0.07282701
119	0x3d6361b1	0.055513088
120	0xbd03a925	-0.03214373
121	0x3e680364	0.22657543
122	0xbd131d3b	-0.03591655
123	0x3dd0dd9e	0.1019852
124	0x3e9f786c	0.31146562
125	0x3db00b36	0.08595888
126	0x3d4a19ca	0.049341
127	0xbe7f14f2	-0.24910334
128	0x3e38eb6b	0.18058555
129	0xbd559472	-0.05214352
130	0xbd18ed32	-0.037335582
131	0xbdee2807	-0.11628728
132	0x3e293173	0.1652277
133	0xbdea7565	-0.114481725
134	0xbe1adb0b	-0.15122621
135	0xbdbbe168	-0.09173852
136	0x3ec33227	0.381242
137	0xbde2eaae	-0.11079918
138	0xbc7545e2	-0.014970275
139	0xbc1749a2	-0.009233864
140	0x3d9b5a51	0.07585586
141	0xbdb8fe4b	-0.090328775
142	0x3e8057e8	0.25067067
143	0xbeb1299b	-0.34602055
144	0xbdba9158	-0.09109753
145	0x3d1666bf	0.03671908
146	0x3e807f33	0.25097045
147	0xba4f072f	-0.0007897494
148	0xbd0f8f5b	-0.035048824
149	0xbe61887d	-0.22024722
150	0xbdbda1be	-0.092593655
151	0xbe20783b	-0.15670864
152	0x3e7e2040	0.2481699
153	0x3c9e36b5	0.019313196
154	0x3d34e8f9	0.044167493
155	0x3e404e33	0.1877983
156	0xbe4f650f	-0.20253395
157	0x3dd3bcbe	0.10338734
158	0x3eb2aa4c	0.3489555
159	0x3d1750ca	0.03694228
160	0x3e6534b4	0.22383386
161	0x3d219020	0.03944409
162	0x3e2b6b15	0.16740067
163	0xbe0fb863	-0.14035182
164	0xbd1939e7	-0.037408736
165	0xbe753972	-0.23947695
166	0x3d8d8b33	0.06911316
167	0xbe526661	-0.20546867
168	0x3e314e86	0.1731511
169	0x3ec0a7c4	0.37627995
170	0x38ec9e55	0.000112828486
171	0xbd2e8161	-0.042603854
172	0xbd1d5c87	-0.03841832
173	0xbf08f3e2	-0.53497136
174	0xbd7a4b54	-0.061106995
175	0xbe62e65a	-0.22158185
176	0x3db1de78	0.08685011
177	0xbdb915b9	-0.090373464
178	0xbeb195bd	-0.34684554
179	0x3c9bd5d9	0.019022869
180	0x3d1e6892	0.038673945
181	0x3cea4c63	0.028600877
182	0xbcff9592	-0.03119925
183	0x3e0e54dc	0.13899559
184	0xbda8fb06	-0.08251004
185	0x3de720f6	0.11285584
186	0x3d8bf64f	0.06834089
187	0x3e61eef9	0.22063817
188	0x3d93c7ca	0.07215841
189	0xbcbbdb27	-0.022931648
190	0x3e8d5791	0.2760587
191	0x3ddcef3f	0.1078782
192	0xbe215c0b	-0.15757768
193	0x3e1c2d8c	0.1525175
194	0xbdd0f9ed	-0.102039196
195	0xbe061d24	-0.13097054
196	0xbe4becfb	-0.1991462
197	0x3ef27f13	0.47362575
198	0xbe0b0686	-0.13576707
199	0x3e7f5a6f	0.24936841
200	0x3cc06c3b	0.023489108
201	0x3db16ea2	0.0866368
202	0x3d577d44	0.052609697
203	0x3e57d567	0.210775
204	0x3d1f834a	0.038943566
205	0x3de6ac19	0.11263294
206	0xbe168b96	-0.14701685
207	0x3e071fc9	0.13195719
208	0x3da1cf21	0.07900835
209	0xbe88bf8a	-0.26708633
210	0xbdd9062f	-0.105968826
211	0x3d082ba8	0.03324476
212	0xbe1a981d	-0.15097089
213	0xbd9a56a9	-0.0753606
214	0xbe0e18a4	-0.13876587
215	0x3dadfa9e	0.08495067
216	0x3e7340bd	0.23755164
217	0xbe0cff65	-0.137693
218	0xbd5d0888	-0.053963214
219	0x3df8d5d7	0.12150162
220	0x3e118cc9	0.14213862
221	0x3ea18fcd	0.31555024
222	0xbc94d502	-0.018167976
223	0x3d97fa84	0.07420829
224	0x3eadd847	0.3395407
225	0x3c6e3b71	0.014540539
226	0x3e708e09	0.23491682
227	0xbeb8ca6e	-0.36091942
228	0x3ec52bb1	0.38509896
229	0x3e514508	0.2043649
230	0xbd912a52	-0.0708815
231	0xbc607b6d	-0.013701302
232	0x3eb07d89	0.34470776
233	0xbd3853ac	-0.04500167
234	0x3e86a958	0.26301074
235	0xbeb2a352	-0.3489023
236	0x3d9c6154	0.07635751
237	0x3ad2d680	0.0016085654
238	0x3e9b0d09	0.30283383
239	0x3c2c59af	0.010519429
240	0x3e99ac54	0.30014288
241	0xbd212c68	-0.03934899
242	0xbd39e805	-0.045387287
243	0x3e2c7467	0.16841279
244	0xbe84b24a	-0.25917274
245	0x3dfa0f3c	0.12209937
246	0x3ec2f0a1	0.3807421
247	0x3e854222	0.26027018
248	0x3d079929	0.03310505
249	0xba0df4f4	-0.0005415224
250	0x3e466bbd	0.19377036
251	0x3c027233	0.0079617975
252	0x3e228c89	0.15873922
253	0xbe676daf	-0.22600435
254	0xbe20fd83	-0.15721707
255	0x3e12eddd	0.1434855

dense3.bias f4 [100]
0	0x3ec77bb2	0.3896156
1	0x3e16999d	0.14707036
2	0x3e5f970b	0.21834962
3	0xbe0d22be	-0.13782784
4	0x3dc7b8dd	0.09752057
5	0xbd75a6ae	-0.05997341
6	0x3ecfbe77	0.40575
7	0x3d646a9c	0.055765733
8	0x3e6652cd	0.22492523
9	0x3dadcea7	0.084866814
10	0xbeb1010e	-0.34571117
11	0x3eb92ba4	0.36166108
12	0xbca9b4b2	-0.020716045
13	0xbea9b560	-0.3314619
14	0xbea009b5	-0.31257406
15	0x3e2b0723	0.16701941
16	0x3e920ca0	0.28525257
17	0xbcf8be0a	-0.030364055
18	0x3b3d6801	0.0028901102
19	0xbe2d0ee8	-0.16900218
20	0xbe1e1185	-0.1543637
21	0x3e81b383	0.2533227
22	0x3e1cae10	0.15300775
23	0xbeb4a2af	-0.35280368
24	0x3e124498	0.14283979
25	0xbe8394dc	-0.25699508
26	0xbe846fb3	-0.2586647
27	0xbdb4cb10	-0.088277936
28	0xbe52f695	-0.20601876
29	0xbe9f91ec	-0.31166017
30	0xbed2e343	-0.41189012
31	0x3ce8c9d1	0.028416546
32	0x3e6d30a3	0.23163085
33	0xbee2c1e3	-0.4428855
34	0xbe5048e9	-0.20340313
35	0x3e32e9a3	0.17471938
36	0x3d233498	0.03984508
37	0x3e63e3ed	0.22254916
38	0xbe9b2420	-0.30301
39	0xbdf54359	-0.11975736
40	0xbdffdad4	-0.1249291
41	0xbd95f10a	-0.07321365
42	0xbe2cc16d	-0.16870661
43	0x3d8622af	0.06549584
44	0xbe979646	-0.29606837
45	0x3e23f580	0.1601162
46	0x3da3f91e	0.080065
47	0x3d94a6c8	0.072583735
48	0xbcddf37d	-0.027093643
49	0xbec867ea	-0.3914178
50	0x3ed5b0e8	0.4173653
51	0xbe07d2e4	-0.13264042
52	0x3ee2e7ed	0.4431757
53	0x3eaa5c11	0.33273366
54	0x3d04cf02	0.03242398
55	0xbe80b9b7	-0.2514169
56	0xbf08a590	-0.5337763
57	0x3e511040	0.20416355
58	0xbdb3bc1c	-0.087761134
59	0x3e6c8546	0.23097715
60	0x3d0a9128	0.033829838
61	0xbf1a27d8	-0.60217047
62	0xbea41053	-0.32043704
63	0xbea06717	-0.3132865
64	0x3de16e5f	0.1100738
65	0xbe5c0e68	-0.2148987
66	0xbec10042	-0.3769551
67	0xbe8b23cf	-0.27175757
68	0xbe7b6f60	-0.24554205
69	0xbe3f5ee4	-0.18688542
70	0xbc9aeccd	-0.018911744
71	0xbe8708de	-0.26373953
72	0x3eaf6d85	0.34263244
73	0xbe66b2c8	-0.22529137
74	0x3e174bc8	0.14775002
75	0xbef2c1e0	-0.4741354
76	0xbc396f97	-0.011318109
77	0xbe5a4cde	-0.21318385
78	0x3dc10180	0.09424114
79	0x3d06aaf1	0.032877866
80	0xbeb6483a	-0.3560198
81	0xbf0f9a6f	-0.5609502
82	0xbeb58c08	-0.35458398
83	0x3e2159dd	0.15756936
84	0xbdb85ed3	-0.09002461
85	0xbe34d4e5	-0.17659338
86	0xbe8bd079	-0.2730749
87	0x3e17096f	0.14749692
88	0xbe86cb24	-0.2632686
89	0xbe8fe639	-0.28105333
90	0xbe338e48	-0.17534745
91	0x3eafb9d1	0.34321454
92	0x3dc3baf5	0.095571436
93	0xbe878369	-0.26467445
94	0x3eae53b5	0.34048238
95	0x3c8c38d9	0.01711695
96	0xbde42c41	-0.11141253
97	0x3db3e158	0.08783215
98	0x3e16c655	0.14724095
99	0xbdeff223	-0.11716106

output_layer.weight f4 [5, 100]
0	0x3e768f71	0.24078156
1	0x3a1b027b	0.00059131504
2	0x3c6aa8df	0.014322489
3	0xbe5a660f	-0.21327995
4	0xbde8702b	-0.11349519
5	0xbd38e737	-0.04514238
6	0xbe3feb55	-0.18742116
7	0xbd042b0f	-0.032267626
8	0xbc347dba	-0.011016304
9	0x3e6a614f	0.22888683
10	0x3d54ffa4	0.05200161
11	0xbd05ef38	-0.03269884
12	0xbe049bf6	-0.1295012
13	0x3d3dd170	0.046342313
14	0x3db2edf4	0.08736792
15	0xbe7ff49c	-0.24995655
16	0x3c43f96d	0.011961323
17	0x3e4d30e6	0.20038185
18	0x3d93b36a	0.07211955
19	0x3e2985c2	0.16554931
20	0x3dd44c88	0.1036616
21	0xbde2eda6	-0.11080484
22	0xbd9322cc	-0.07184371
23	0xbe4cf816	-0.20016512
24	0x3bccbd57	0.006248157
25	0xbdf370ba	-0.11886735
26	0x3daf8d34	0.08571854
27	0xbe0a4b6d	-0.13505335
28	0x3d87a7d2	0.06623806
29	0x3d76dbe1	0.060268287
30	0x3d4a86e7	0.04944506
31	0xbe54b6aa	-0.20772806
32	0x3b520990	0.0032049157
33	0x3d305053	0.043045353
34	0xbc30620d	-0.010765565
35	0x3c8f8f0e	0.017524268
36	0x3e457528	0.19282973
37	0xbe6ba7fd	-0.23013301
38	0x3bef5234	0.0073035005
39	0x3dbd1efa	0.09234424
40	0xbdf74661	-0.120739706
41	0xbe4662c4	-0.19373614
42	0xbdc31d33	-0.09527054
43	0x3d42c653	0.047552418
44	0xbdebc4e5	-0.11512164
45	0x3dc9315b	0.09823867
46	0x3e288a3a	0.16458979
47	0xbdaf50be	-0.08560322
48	0xbd9d77b7	-0.076888494
49	0x3db3d860	0.08781505
50	0x3d957a16	0.07298677
51	0xbdd4906b	-0.10379108
52	0x3dae0f80	0.0849905
53	0x3ca9bab7	0.020718915
54	0x3c878445	0.016542563
55	0x3e712d65	0.23552473
56	0x3ba14ecf	0.004922725
57	0xbd7312a2	-0.05934394
58	0x3df54e06	0.119777724
59	0xbd90beb5	-0.070676245
60	0xbe1a4bfc	-0.15068048
61	0x3c10da78	0.0088411495
62	0xbe0759c9	-0.13217844
63	0xbce41a60	-0.027844608
64	0x3d71453a	0.05890391
65	0xbda258fc	-0.07927129
66	0x3bb2087e	0.0054331413
67	0x3d29a5f0	0.041418016
68	0xbe4f3bd0	-0.2023766
69	0x3c90d7ea	0.01768108
70	0x3e293b84	0.1652661
71	0xbd51c9a0	-0.051217675
72	0xbd749922	-0.05971635
73	0xbc117d30	-0.008879945
74	0xbe153555	-0.14571126
75	0x3a8e5d19	0.0010861485
76	0x3d058069	0.032593165
77	0x3dbc594a	0.09196718
78	0x3ca035d3	0.019556915
79	0x3db85ba1	0.09001852
80	0xbdf4034b	-0.119146906
81	0x3af85a9a	0.00189479
82	0xbdaffeb8	-0.085935056
83	0xbd93b733	-0.07212677
84	0x3b8cabe0	0.00429295
85	0xbc8598c0	-0.016308188
86	0x3e41355a	0.18868008
87	0xbca0eab4	-0.019643165
88	0xbdcc7080	-0.09982395
89	0x3e2da337	0.16956793
90	0x3d3383ca	0.043826856
91	0x3ca9cff3	0.02072904
92	0x3d75aed3	0.05998118
93	0xbe147993	-0.14499502
94	0x3c09655b	0.008385981
95	0x3e78ad1f	0.2428479
96	0x3e2d30ce	0.16913149
97	0xbd9555df	-0.07291769
98	0xbd05f242	-0.03270174
99	0xbd905486	-0.070473716
100	0x3e8f70ec	0.2801584
101	0x3c2b9b10	0.0104739815
102	0xbc13e2a3	-0.009026202
103	0xbe8284f8	-0.25492072
104	0xbddf7994	-0.10911861
105	0xbd980b6d	-0.07424054
106	0xbe612286	-0.21985826
107	0x3de0bfa1	0.1097405
108	0xbce7800b	-0.028259298
109	0x3e821af3	0.25411186
110	0xbcdc4713	-0.02688936
111	0xbd377ce2	-0.044796832
112	0xbe0ab3ac	-0.13545102
113	0x3d1b0b7d	0.037852753
114	0x3d4aa9f4	0.049478486
115	0xbe970198	-0.29493403
116	0x3b615b6d	0.003438677
117	0x3e64cb3e	0.22343156
118	0x3dcc8afc	0.09987447
119	0x3e3e3b34	0.18577272
120	0x3df2d4f7	0.11857026
121	0xbdf40f63	-0.11916997
122	0xbd9b0fe9	-0.07571394
123	0xbe602109	-0.21887602
124	0x3b5b000f	0.0033416783
125	0xbdf0405d	-0.11731026
126	0x3c327d4c	0.010894131
127	0xbe2b5077	-0.16729914
128	0x3dc616b0	0.09672296
129	0x3c90edbd	0.017691487
130	0xbd111027	-0.035415795
131	0xbe6d03e0	-0.2314601
132	0xbc7ea2c4	-0.015541736
133	0x3d54a3c9	0.05191401
134	0xbcb5e43d	-0.022203559
135	0x3d28ce53	0.04121239
136	0x3e608bd7	0.21928345
137	0xbe8645ba	-0.26225072
138	0x3be8c243	0.007103236
139	0x3e097c4b	0.1342632
140	0xbe185e74	-0.14879781
141	0xbe580be0	-0.2109828
142	0xbdfd5bf5	-0.12371055
143	0xbc9740ac	-0.018463455
144	0xbdd9a7ee	-0.10627733
145	0x3d92d8f2	0.07170285
146	0x3e16e23e	0.14734742
147	0xbda7dc71	-0.08196343
148	0xbd17acae	-0.037029915
149	0x3d8b3879	0.06797881
150	0xbcce369e	-0.025172528
151	0xbde6f8fd	-0.112779595
152	0x3ddad08a	0.10684307
153	0x3cb0d698	0.021586701
154	0x3d84739a	0.06467362
155	0x3e8779c9	0.26460102
156	0xbb2c768f	-0.0026315784
157	0xbd45a443	-0.048252355
158	0x3dfc3ecc	0.12316665
159	0xbda9e924	-0.08296421
160	0xbe2332c7	-0.15937339
161	0x3c970360	0.018434227
162	0xbdd9ab9c	-0.10628435
163	0xbd07809d	-0.03308164
164	0x3da4db43	0.08049633
165	0xbd462db4	-0.04838343
166	0x3c8967ae	0.016773071
167	0xbd066bbf	-0.0328176
168	0xbe605e30	-0.2191093
169	0xbc3e2ee7	-0.011607862
170	0x3e014275	0.12623008
171	0xbd1338aa	-0.03594271
172	0xbca2e632	-0.019885156
173	0xbc152336	-0.009102633
174	0xbe46b3c1	-0.19404508
175	0xbaba76f3	-0.0014226123
176	0x3d722547	0.05911758
177	0x3de22351	0.11041892
178	0x3c16d126	0.009205138
179	0x3dca6e50	0.09884322
180	0xbe07a582	-0.1324673
181	0xbc0103ca	-0.007874439
182	0xbdaf4896	-0.085587665
183	0xbd3f48c9	-0.046700273
184	0x3b802475	0.003910596
185	0xbd353876	-0.0442433
186	0x3e50e22b	0.20398776
187	0x3d11eb3c	0.035624728
188	0xbe0a994c	-0.1353504
189	0x3e5c4a48	0.21512711
190	0x3d9fc841	0.07801867
191	0xba7feaa2	-0.0009762441
192	0x3d53b4f9	0.05168626
193	0xbe2efb30	-0.17088008
194	0xbc7ae8df	-0.01531431
195	0x3e89312c	0.26795328
196	0x3e4db176	0.20087227
197	0xbd7da4db	-0.061924797
198	0xbdb91702	-0.090375915
199	0xbd8c6765	-0.068556584
200	0xbceed567	-0.029154493
201	0xbbc1e827	-0.0059175673
202	0x3d9e205a	0.07721014
203	0xbd1ebfd8	-0.038757175
204	0xbcd7e473	-0.02635405
205	0x3dc0dbed	0.094169475
206	0x3db0f095	0.086396374
207	0x3ceb98d3	0.028759396
208	0xbd3fe2eb	-0.046847265
209	0x3db4ff85	0.08837799
210	0xbd4cc27b	-0.04999016
211	0x3d1cf013	0.03831489
212	0xbd45755a	-0.04820762
213	0x3d5cc017	0.05389413
214	0x3c802c73	0.015646195
215	0xbdb24259	-0.08704061
216	0xbd9e5747	-0.077314906
217	0x3d2799c3	0.040918123
218	0xbdacdc37	-0.0844044
219	0xbd0f855a	-0.035039283
220	0x3d902ec5	0.070401706
221	0x3da71047	0.081574015
222	0xbd5bf5e7	-0.053701308
223	0x3cc66f47	0.024222983
224	0xbb8c674d	-0.0042847754
225	0x3abbd800	0.0014331341
226	0xbcb1ce37	-0.021704776
227	0x3c87b140	0.016564012
228	0xbd90caa3	-0.070699
229	0x3c9ae373	0.018907284
230	0x3c626d5a	0.013820017
231	0x3dba90ca	0.091096476
232	0x3d778a80	0.06043482
233	0x3cc828a7	0.024433447
234	0xbd298d00	-0.041394234
235	0x3c36bd80	0.011153579
236	0xbd9ef072	-0.07760705
237	0xbcf4c7ad	-0.02988037
238	0xbcd3426a	-0.025788505
239	0xbd357ec2	-0.04431034
240	0xbd202bef	-0.0391044
241	0x3c6c37e7	0.014417625
242	0x3dbc0025	0.09179715
243	0x3ca860cd	0.02055397
244	0xbdc3e3ee	-0.095649585
245	0x3d3f2090	0.046661913
246	0xbd5b2773	-0.05350442
247	0x3b293e00	0.0025824308
248	0x3c679ca7	0.01413647
249	0x3d162cf7	0.036663976
250	0xbda3e858	-0.080033004
251	0x3d243680	0.040091038
252	0x3c883020	0.01662451
253	0x3dcbbfed	0.09948716
254	0xbcc1e96a	-0.02367087
255	0x3c9668fa	0.018360604

output_layer.bias f4 [5]
0	0xbe370545	-0.17873104
1	0xbda15438	-0.078773916
2	0xbd99fba8	-0.07518703
3	0xbdbfa958	-0.09358472
4	0xbd649a2e	-0.0558111

exp_avg f4 [100, 2]
0	0x393fd130	0.00018293108
1	0x393fd130	0.00018293108
2	0x3af1ceda	0.0018448487
3	0x3af1ceda	0.0018448487
4	0x3b7cd26d	0.0038577572
5	0x3b7cd26d	0.0038577572
6	0xb8616514	-5.3738317e-05
7	0xb8616514	-5.3738317e-05
8	0x38e2553a	0.000107923945
9	0x38e2553a	0.000107923945
10	0x3b89a957	0.004201095
11	0x3b89a957	0.004201095
12	0xb88802b3	-6.485488e-05
13	0xb88802b3	-6.485488e-05
14	0x3743ed24	1.1678119e-05
15	0x3743ed24	1.1678119e-05
16	0xb8e4b774	-0.00010906058
17	0xb8e4b774	-0.00010906058
18	0x3b7a54d6	0.0038197539
19	0x3b7a54d6	0.0038197539
20	0x39c7cacd	0.00038107336
21	0x39c7cacd	0.00038107336
22	0x38dbe5b5	0.0001048552
23	0x38dbe5b5	0.0001048552
24	0xb7c6880f	-2.3666797e-05
25	0xb7c6880f	-2.3666797e-05
26	0x387f4c10	6.0867576e-05
27	0x387f4c10	6.0867576e-05
28	0x3b8a542b	0.0042214594
29	0x3b8a542b	0.0042214594
30	0x390713e4	0.00012882013
31	0x390713e4	0.00012882013
32	0xbb7cc1bd	-0.0038567625
33	0xbb7cc1bd	-0.0038567625
34	0xb59fc43d	-1.1903536e-06
35	0xb59fc43d	-1.1903536e-06
36	0xbb59f925	-0.0033260074
37	0xbb59f925	-0.0033260074
38	0xbaa39a1f	-0.0012481845
39	0xbaa39a1f	-0.0012481845
40	0x38e5beb1	0.0001095509
41	0x38e5beb1	0.0001095509
42	0x38d46fee	0.00010129796
43	0x38d46fee	0.00010129796
44	0xb7e567d7	-2.7347282e-05
45	0xb7e567d7	-2.7347282e-05
46	0x381acc11	3.6906513e-05
47	0x381acc11	3.6906513e-05
48	0x3900ed3f	0.00012295412
49	0x3900ed3f	0.00012295412
50	0xb8b599d9	-8.659409e-05
51	0xb8b599d9	-8.659409e-05
52	0xb8b14bdf	-8.45415e-05
53	0xb8b14bdf	-8.45415e-05
54	0xb932ee6d	-0.00017064223
55	0xb932ee6d	-0.00017064223
56	0xb626b749	-2.4842614e-06
57	0xb626b749	-2.4842614e-06
58	0x3840ada4	4.5938083e-05
59	0x3840ada4	4.5938083e-05
60	0x384d5e17	4.8963437e-05
61	0x384d5e17	4.8963437e-05
62	0xb8b223e7	-8.494389e-05
63	0xb8b223e7	-8.494389e-05
64	0x3b67af9a	0.003535247
65	0x3b67af9a	0.003535247
66	0x3b9190f4	0.0044423286
67	0x3b9190f4	0.0044423286
68	0x38f49fc1	0.00011664583
69	0x38f49fc1	0.00011664583
70	0xbb77ba5a	-0.0037800283
71	0xbb77ba5a	-0.0037800283
72	0x37353da8	1.0802796e-05
73	0x37353da8	1.0802796e-05
74	0x38e09171	0.00010708243
75	0x38e09171	0.00010708243
76	0x3b802e5a	0.0039117755
77	0x3b802e5a	0.0039117755
78	0x385c89b7	5.2580344e-05
79	0x385c89b7	5.2580344e-05
80	0xb88d414b	-6.735566e-05
81	0xb88d414b	-6.735566e-05
82	0x3b8eb731	0.004355334
83	0x3b8eb731	0.004355334
84	0xb919db62	-0.00014672944
85	0xb919db62	-0.00014672944
86	0xb8e722c9	-0.000110214176
87	0xb8e722c9	-0.000110214176
88	0x38be99c5	9.088548e-05
89	0x38be99c5	9.088548e-05
90	0xb911d33a	-0.00013906966
91	0xb911d33a	-0.00013906966
92	0x38e5c764	0.0001095671
93	0x38e5c764	0.0001095671
94	0x39476c23	0.00019018403
95	0x39476c23	0.00019018403
96	0x396ea6bd	0.00022759564
97	0x396ea6bd	0.00022759564
98	0xb90b2448	-0.00013269589
99	0xb90b2448	-0.00013269589
100	0xb8255e20	-3.9426726e-05
101	0xb8255e20	-3.9426726e-05
102	0x3b8c8e63	0.0042894348
103	0x3b8c8e63	0.0042894348
104	0x3720ce71	9.584809e-06
105	0x3720ce71	9.584809e-06
106	0x378cbcf8	1.6777296e-05
107	0x378cbcf8	1.6777296e-05
108	0xb9b55a99	-0.0003459051
109	0xb9b55a99	-0.0003459051
110	0xbb95d54b	-0.0045725456
111	0xbb95d54b	-0.0045725456
112	0xb971c1d7	-0.00023055762
113	0xb971c1d7	-0.00023055762
114	0x3b87df46	0.0041464893
115	0x3b87df46	0.0041464893
116	0x379fb5db	1.903896e-05
117	0x379fb5db	1.903896e-05
118	0x38d898b0	0.00010328123
119	0x38d898b0	0.00010328123
120	0x3848dd7a	4.7889982e-05
121	0x3848dd7a	4.7889982e-05
122	0x3b26511e	0.002537794
123	0x3b26511e	0.002537794
124	0x390eb698	0.00013610197
125	0x390eb698	0.00013610197
126	0xb9961db7	-0.0002863237
127	0xb9961db7	-0.0002863237
128	0x35f3e47a	1.8171406e-06
129	0x35f3e47a	1.8171406e-06
130	0xb91b5368	-0.00014813023
131	0xb91b5368	-0.00014813023
132	0xb8155896	-3.560687e-05
133	0xb8155896	-3.560687e-05
134	0x383422e9	4.2947857e-05
135	0x383422e9	4.2947857e-05
136	0x3926b58f	0.0001589863
137	0x3926b58f	0.0001589863
138	0xb95b9c4a	-0.0002094369
139	0xb95b9c4a	-0.0002094369
140	0x3b657c82	0.003501684
141	0x3b657c82	0.003501684
142	0xb986111d	-0.00025571222
143	0xb986111d	-0.00025571222
144	0xb84ab423	-4.832832e-05
145	0xb84ab423	-4.832832e-05
146	0x3917921e	0.00014454915
147	0x3917921e	0.00014454915
148	0xb9e71476	-0.00044074998
149	0xb9e71476	-0.00044074998
150	0x3b870399	0.004120302
151	0x3b870399	0.004120302
152	0xb7c8836d	-2.3903058e-05
153	0xb7c8836d	-2.3903058e-05
154	0x39451926	0.00018796753
155	0x39451926	0.00018796753
156	0x3874ef3e	5.8396945e-05
157	0x3874ef3e	5.8396945e-05
158	0x3b84aafe	0.004048704
159	0x3b84aafe	0.004048704
160	0x38b7765c	8.748166e-05
161	0x38b7765c	8.748166e-05
162	0xb9266b82	-0.00015871043
163	0xb9266b82	-0.00015871043
164	0xb7670f14	-1.3772184e-05
165	0xb7670f14	-1.3772184e-05
166	0xb73b197b	-1.1152001e-05
167	0xb73b197b	-1.1152001e-05
168	0xb89edb32	-7.5748554e-05
169	0xb89edb32	-7.5748554e-05
170	0x38753b89	5.8468e-05
171	0x38753b89	5.8468e-05
172	0x394ec2a7	0.00019718205
173	0x394ec2a7	0.00019718205
174	0x37b50622	2.1579737e-05
175	0x37b50622	2.1579737e-05
176	0xb886106e	-6.392678e-05
177	0xb886106e	-6.392678e-05
178	0xb8883024	-6.493952e-05
179	0xb8883024	-6.493952e-05
180	0x38b2380b	8.49814e-05
181	0x38b2380b	8.49814e-05
182	0xb6ef6f8b	-7.1357404e-06
183	0xb6ef6f8b	-7.1357404e-06
184	0x3767464b	1.3785039e-05
185	0x3767464b	1.3785039e-05
186	0x3b8c0603	0.0042731776
187	0x3b8c0603	0.0042731776
188	0x38b65039	8.693379e-05
189	0x38b65039	8.693379e-05
190	0xb996e53c	-0.00028781022
191	0xb996e53c	-0.00028781022
192	0x3b880eae	0.0041521406
193	0x3b880eae	0.0041521406
194	0x38853fa2	6.353787e-05
195	0x38853fa2	6.353787e-05
196	0x38c69268	9.468646e-05
197	0x38c69268	9.468646e-05
198	0x37902153	1.7181655e-05
199	0x37902153	1.7181655e-05
