TSTE-R/CHP-failed-case/Gradient-Enhanced-PINN/save_model_0227.ckpt-4200000.pt (torch, 408629 bytes, 27 tensors)

input_projection.weight f4 [100, 2]
0	0x3e537b66	0.20652542
1	0xbe5194ea	-0.20466962
2	0x3d5f29b9	0.05448315
3	0xbf00e638	-0.50351286
4	0xbf0abaaf	-0.54191107
5	0x3f0b1043	0.5432169
6	0x3e015af0	0.12632346
7	0xbe01c424	-0.12672478
8	0xbe95a7fd	-0.29229727
9	0x3e95f3a1	0.29287437
10	0xbe923432	-0.28555447
11	0x3e920dc7	0.28526136
12	0x3f1dfa8c	0.6171043
13	0xbf1e46f5	-0.6182702
14	0x3eb7a9c3	0.35871705
15	0xbdac9d1a	-0.08428402
16	0xbed5b6c4	-0.41741002
17	0x3ed7ad63	0.4212447
18	0x3ed609d2	0.41804367
19	0xbccab91c	-0.02474647
20	0x3e7fdcdd	0.24986596
21	0xbe7e404c	-0.24829215
22	0x3d008c32	0.0313837
23	0xbcff98e0	-0.031200826
24	0xbeab35a3	-0.3343936
25	0xbeb18514	-0.34671843
26	0x3efd5820	0.49481297
27	0xbefd8647	-0.49516508
28	0x3e029f7d	0.12756152
29	0x3a95116e	0.0011372992
30	0x3ac5d261	0.0015092605
31	0xba5b771c	-0.00083719357
32	0x3bf88490	0.007584162
33	0x3f2474ef	0.64240927
34	0xbf020f2f	-0.5080442
35	0x3f031706	0.51207006
36	0x3e139020	0.14410448
37	0xbe0fc934	-0.14041597
38	0x3eb11519	0.3458641
39	0xbeaf2970	-0.34211302
40	0x3e0ff146	0.14056882
41	0x3dd4ba27	0.10387068
42	0xbcefd65d	-0.029277021
43	0x3e863cb3	0.26218185
44	0x3eb56d7b	0.3543509
45	0x3f5e6b52	0.8688251
46	0xbec5c8e0	-0.38629818
47	0x3ec29645	0.38005272
48	0x3edda45f	0.43289468
49	0xbedd0034	-0.43164217
50	0xbf065b5e	-0.52483165
51	0x3f05ea62	0.52310765
52	0xbd47e472	-0.048801847
53	0x3ccd16f9	0.025035368
54	0x3effc9ce	0.49958652
55	0x3ed0aacd	0.4075531
56	0x3f100863	0.562628
57	0x3f40d5f0	0.7532644
58	0x3e94ec3e	0.29086488
59	0x3e2ca374	0.16859227
60	0xbf0c6251	-0.5483752
61	0x3f0c303f	0.5476112
62	0xbe86ca5d	-0.26326266
63	0x3e86271a	0.26201707
64	0xbe1355b9	-0.1438817
65	0x3e164915	0.14676316
66	0xbd655682	-0.055990703
67	0x3d76dd57	0.06026968
68	0xbea99f9b	-0.33129582
69	0x3ea83813	0.3285528
70	0x3f0b7e82	0.5448991
71	0xbf0ac176	-0.5420145
72	0xbe986c6e	-0.29770225
73	0x3e9816de	0.29704946
74	0xbf1f74da	-0.62287676
75	0x3f1f8f8f	0.6232843
76	0xbf14ca88	-0.5812154
77	0x3f14b7d4	0.58093
78	0x3eb3dc42	0.3512898
79	0x3f3f0f94	0.74633145
80	0x3c28f343	0.010311904
81	0xbc213a7e	-0.009840606
82	0xbeb0a760	-0.34502697
83	0x3eb14622	0.3462382
84	0xbdc56abd	-0.09639499
85	0x3dc191be	0.09451626
86	0x3d8f9300	0.0701046
87	0xbd8da9ba	-0.069171384
88	0x3eb0c44d	0.34524766
89	0xbeafd7e2	-0.34344393
90	0xbd0a29d1	-0.033731285
91	0x3d080ec1	0.033217195
92	0xbe978392	-0.29592568
93	0x3e96f70e	0.29485363
94	0xbedbc018	-0.42919993
95	0x3d104c59	0.03522906
96	0xbdd97f91	-0.106200345
97	0x3ddd2499	0.10797996
98	0x3e94ffe9	0.29101494
99	0x3f02728a	0.5095602
100	0x3eec08b4	0.4610039
101	0xbe712bed	-0.23551913
102	0x3e4ff4dc	0.2030825
103	0xbe522f95	-0.20525964
104	0xbea2ff79	-0.31835535
105	0x3f0ed305	0.5579074
106	0x3e524baa	0.20536676
107	0xbe510762	-0.20412973
108	0x3f233da5	0.6376594
109	0x3f12654e	0.5718583
110	0xbe41c5ad	-0.18923064
111	0x3e44a012	0.19201687
112	0x3c29ec72	0.010371314
113	0xbb961d54	-0.004581133
114	0x3e75b59f	0.23995064
115	0xbe778ea9	-0.24175514
116	0xbed8f9d2	-0.42378098
117	0x3f2c1e4e	0.6723374
118	0x3d894215	0.06702057
119	0xbd8a719a	-0.06759949
120	0x3e29169b	0.1651253
121	0xbe2835b8	-0.16426742
122	0x3ee26848	0.44220185
123	0xbee21fb4	-0.44164813
124	0xbeb1f44d	-0.347567
125	0xbe73e43f	-0.23817538
126	0x3d40e002	0.04708863
127	0xbd38e194	-0.045137003
128	0x3d5edd10	0.05441004
129	0xbd66c5ee	-0.056341104
130	0xbea986ad	-0.33110562
131	0x3f111cf6	0.56684816
132	0x3e4096e4	0.1880756
133	0xbe3dcc2b	-0.18534915
134	0x3f195f17	0.5991072
135	0x3f20c517	0.62800735
136	0x3e947f70	0.29003477
137	0x3f3fa3ac	0.7485912
138	0xbe13d008	-0.14434826
139	0x3e16ebd6	0.14738402
140	0xbecde94e	-0.4021706
141	0xbe9defd9	-0.30847052
142	0xbe568114	-0.20947677
143	0x3e591b86	0.21201906
144	0x3eca60de	0.3952703
145	0xbe1dc327	-0.15406476
146	0x3f2c0845	0.6720012
147	0x3d1d0e6d	0.038343836
148	0xbe0cccd7	-0.13750015
149	0x3ebc6265	0.3679382
150	0x3e686d2a	0.22697893
151	0x3caaf935	0.020870784
152	0xbecafd5d	-0.39646426
153	0x3ecbf76a	0.398372
154	0xbdd18902	-0.1023121
155	0x3efed5c3	0.49772462
156	0xbede97d5	-0.43475214
157	0x3f2d6c18	0.6774306
158	0x3f4f6fac	0.8102977
159	0x3e87bb76	0.2651021
160	0xbbeaa4d3	-0.007160762
161	0x3c10269f	0.0087982705
162	0xbe13fc78	-0.14451778
163	0x3e1373e2	0.14399675
164	0xbce9c95e	-0.028538402
165	0x3cf64fe0	0.030067384
166	0x3c685c81	0.014182211
167	0x3e648071	0.22314622
168	0x3f39b320	0.7253895
169	0x3ecde526	0.4021389
170	0x3ea04b94	0.31307662
171	0xbea11fec	-0.31469667
172	0x3f35b098	0.70972586
173	0xbedd6c05	-0.43246475
174	0x3ec084bb	0.37601265
175	0xbebe9dfc	-0.37229908
176	0xbe2013db	-0.15632574
177	0x3e244778	0.16042888
178	0x3e9b0cc8	0.3028319
179	0xbd841b9f	-0.06450581
180	0xbe3cda33	-0.18442611
181	0x3e3d9106	0.18512353
182	0xbdc81fd1	-0.097716935
183	0xbe5ec6b5	-0.21755488
184	0xbd5e6990	-0.05429989
185	0x3e98ccbe	0.29843706
186	0x3eb7560e	0.35807842
187	0x3ed03193	0.40662822
188	0x3f19cc33	0.6007721
189	0xbb5507be	-0.0032505835
190	0x3f28e519	0.65974575
191	0x3ef2ff37	0.47460338
192	0x3e3dd858	0.1853956
193	0x3e820b49	0.25399235
194	0xbf103bf5	-0.5634149
195	0x3f102c39	0.5631748
196	0xbf643ee7	-0.8915848
197	0xbf747bfb	-0.9550168
198	0xbe743988	-0.23850071
199	0x3e709f98	0.2349838

dense1.weight f4 [100, 100]
0	0xbfa92301	-1.3213807
1	0x3d31b1b2	0.043382354
2	0x3cb515f9	0.022105204
3	0x3d9a390a	0.075304106
4	0x3ce1ebf8	0.027578339
5	0x3bfcb149	0.0077115637
6	0xbc52317f	-0.012829184
7	0x3d5b1a5a	0.053491928
8	0xbd73f7aa	-0.059562363
9	0x3e0cabf3	0.13737468
10	0xbbbe45e7	-0.005806673
11	0x3e0deace	0.13859102
12	0x3d8eadce	0.06966744
13	0x3d41d052	0.04731781
14	0x3c88aba2	0.016683403
15	0x3ba42bfc	0.005010126
16	0x3dc01cb9	0.093804784
17	0x3c9c440d	0.019075418
18	0xbd5725de	-0.052526347
19	0x3ce65008	0.028114334
20	0x3d89e869	0.06733782
21	0xbe149ad5	-0.14512189
22	0xbcb43747	-0.021999015
23	0xbd5772bf	-0.052599665
24	0xbb4b92a7	-0.0031062753
25	0xbda5d53c	-0.08097312
26	0x3d2231fa	0.039598443
27	0x3dc10b9d	0.09426043
28	0x3dd0c5b7	0.10193961
29	0x3d9b5463	0.07584455
30	0xbd095778	-0.033530682
31	0xbc9a1ab2	-0.018811557
32	0xbd2bfd19	-0.04198942
33	0x3dd14fd2	0.10220303
34	0x3c9ade59	0.018904852
35	0xbb801d18	-0.0039097182
36	0x3c206044	0.0097885765
37	0x3e0eb441	0.13935949
38	0xbded88cf	-0.1159836
39	0x3cbf6376	0.023362856
40	0x3e1f5f34	0.15563661
41	0xbd3fabea	-0.04679481
42	0xbd398870	-0.045296133
43	0x3cdfd158	0.027321503
44	0x3b4df4e4	0.0031426484
45	0x3e0fc294	0.1403907
46	0xbc9ba39b	-0.018998912
47	0xbcbf901e	-0.02338415
48	0x3d093a1a	0.033502676
49	0x3de14f8e	0.11001502
50	0xbd668e03	-0.056287777
51	0xbe0a8d78	-0.13530529
52	0xbdb7966a	-0.08964236
53	0x3d0471f2	0.03233523
54	0xbd45d20e	-0.048296027
55	0x3cc52935	0.0240675
56	0x3c4ac2a5	0.012375508
57	0xbd41cac0	-0.047312498
58	0xbc90a838	-0.017658338
59	0xbdf55dfc	-0.11980817
60	0xbd56b549	-0.05241898
61	0x3c438557	0.011933646
62	0xb9f2cfac	-0.00046312565
63	0x3d504942	0.050851114
64	0xbd57d09c	-0.05268918
65	0xbd530d84	-0.05152656
66	0x3c21281e	0.009836225
67	0xba4e55ea	-0.00078710786
68	0xbd93de17	-0.07220095
69	0xbcdf65a5	-0.027270148
70	0xbd9191dc	-0.071078986
71	0xbc1cb39e	-0.009564308
72	0xbd564deb	-0.052320402
73	0x3cefeee1	0.029288711
74	0x3d534074	0.05157514
75	0xbd89218b	-0.06695851
76	0xbd6dddef	-0.05807298
77	0x3c713b1f	0.014723568
78	0x3d1f8fca	0.038955487
79	0xbd957406	-0.0729752
80	0xbde2598c	-0.11052236
81	0x3d93583c	0.07194564
82	0xbe10789b	-0.14108507
83	0xbe52d218	-0.20587957
84	0xbd5a82ea	-0.053347506
85	0x3c361f15	0.011115809
86	0xbdab1585	-0.08353714
87	0x3c512cb6	0.012767008
88	0xbd8d5b9e	-0.0690224
89	0x3d5f013b	0.054444533
90	0xbdf6447e	-0.120247826
91	0xbd2cc0eb	-0.04217617
92	0xbdb175b1	-0.08665026
93	0xbc12b69c	-0.00895467
94	0xbd8086a1	-0.062756784
95	0xbd8a6879	-0.06758208
96	0x3d99a89c	0.07502863
97	0x3e5289d4	0.2056039
98	0xbbbfa216	-0.0058481796
99	0xbd358a5d	-0.044321407
100	0x3ca80311	0.020509275
101	0x3e878c42	0.26474196
102	0x3da90403	0.08252718
103	0xbebe6cd1	-0.37192395
104	0xbef22690	-0.47295046
105	0xbecd779e	-0.40130323
106	0xbeb3fe7c	-0.35155094
107	0xbe14213b	-0.14465801
108	0x3d3410fb	0.043961506
109	0x3da48d79	0.08034796
110	0x3d363fb7	0.044494357
111	0x3e6c046f	0.23048566
112	0x3e96a306	0.29421252
113	0xbf14d31f	-0.58134645
114	0x3e47115d	0.19440217
115	0xbc3827cf	-0.01123996
116	0x3ca061d3	0.019577896
117	0xbd3b317c	-0.04570149
118	0x3e245eae	0.16051742
119	0xbed21c1f	-0.4103708
120	0xbd9d5c0c	-0.07683572
121	0x3d73bfb9	0.059509013
122	0xbeb443e3	-0.35208043
123	0x3ce72958	0.028217956
124	0xbd7a2f18	-0.06108007
125	0x3bccc2e9	0.006248821
126	0x3e8f7e04	0.2802583
127	0xbe75ec2e	-0.24015877
128	0xbe8c53b7	-0.2740762
129	0xbe6237bb	-0.22091572
130	0x3da81431	0.08206976
131	0xbeb0bdbd	-0.3451976
132	0x3c0b8d34	0.008517552
133	0x3e1de553	0.15419511
134	0xbdf584db	-0.11988231
135	0x3c89d160	0.01682347
136	0xbf4e52d8	-0.8059516
137	0xbeb37f42	-0.35058028
138	0xbfdf5368	-1.7447329
139	0xbeac0206	-0.33595294
140	0x3ed72ca5	0.4202625
141	0xbc705fbb	-0.014671261
142	0xbf001c00	-0.50042725
143	0x3bf91df7	0.007602449
144	0xbc00c8d8	-0.007860385
145	0xbeb674f7	-0.35636112
146	0x3cb1bf2b	0.021697601
147	0x3e371061	0.17877342
148	0x3d6b7f7a	0.057494618
149	0xbebb3398	-0.365628
150	0xbdce6f03	-0.100797676
151	0xbf64b472	-0.8933784
152	0x3fff6762	1.9953425
153	0xbe9b244d	-0.30301133
154	0xbe8fe8e0	-0.28107357
155	0xbc2af281	-0.010433794
156	0xbe291fd3	-0.16516046
157	0xbbb6dd28	-0.005580563
158	0x3e8c9831	0.27459863
159	0x3d71d0ab	0.059036892
160	0xbbda229b	-0.0066569573
161	0xbf149117	-0.5803389
162	0x3eb87124	0.3602382
163	0xbd9d359f	-0.07676243
164	0x3d1d1dc2	0.038358457
165	0xbe3e65b6	-0.18593487
166	0xbd02f5af	-0.031972583
167	0xbec8a604	-0.3918916
168	0xbe828a57	-0.2549617
169	0x3c8936fe	0.016749855
170	0x3eb347e9	0.350158
171	0x3bce773e	0.006300836
172	0x3f6942cd	0.91117555
173	0xbd8d6b1c	-0.06905195
174	0xbec34577	-0.38138935
175	0xbe6f9f4c	-0.2340061
176	0x3c9c3084	0.019066103
177	0xbd0c12b6	-0.03419753
178	0xbe0221e1	-0.12708236
179	0xbe467e4e	-0.19384119
180	0xbc2202e1	-0.009888382
181	0xbf0f9109	-0.5608068
182	0xbca63492	-0.02028874
183	0x3f385173	0.7199928
184	0xbe94036f	-0.2890887
185	0x3cb00615	0.021487275
186	0x3e38fc66	0.18065032
187	0xbcfc5e89	-0.030806797
188	0xbba6dd2e	-0.0050922846
189	0xbe3b4768	-0.18288958
190	0x3bcc693f	0.0062381322
191	0x3e3ddf1e	0.18542144
192	0x401f1ded	2.4862015
193	0xbe81a8c4	-0.2532407
194	0xbe848ee6	-0.25890273
195	0xbe737f4b	-0.23779027
196	0xbe81676c	-0.25274217
197	0x3e896152	0.26832062
198	0x3eac5ee1	0.33666137
199	0x3ccf3f4e	0.02529874
200	0x3dba9a17	0.091114216
201	0x3cc42218	0.023942038
202	0xbfb72bce	-1.4310243
203	0x3e8de3b1	0.27712777
204	0x3cc82638	0.024432287
205	0x3ea894d6	0.32926053
206	0x3c8dfacc	0.017331503
207	0xbdb04597	-0.08607023
208	0xbd83e7d3	-0.06440701
209	0xbd964807	-0.07337957
210	0xbd860b11	-0.065450795
211	0x3c16d164	0.009205196
212	0x3d0a38e2	0.033745654
213	0x3dd0a426	0.10187559
214	0x3dc40d6e	0.09572874
215	0x3dc07cd8	0.09398812
216	0xbda82a1e	-0.08211158
217	0xbccc56ff	-0.024943827
218	0xbdb2d4c7	-0.0873199
219	0x3e63fe45	0.22264965
220	0xbc7ba1de	-0.015358416
221	0xbd9b565b	-0.075848304
222	0xbd914786	-0.0709372
223	0xbcded695	-0.02720193
224	0xbc944865	-0.018100927
225	0x3c67dc3f	0.014151632
226	0xbcd33166	-0.025780391
227	0x3d189a7f	0.037256714
228	0xbd3f5df2	-0.046720453
229	0x3d45ccb4	0.048290923
230	0xbdc07ef3	-0.09399214
231	0xbeb4b54e	-0.35294574
232	0xbdd4d21a	-0.10391636
233	0xbe6994c0	-0.2281065
234	0xbe608b3d	-0.21928115
235	0x3bac7ddc	0.005264027
236	0xbd3a6473	-0.045505952
237	0x3df5dba7	0.12004786
238	0x3ec9197f	0.39277264
239	0xbd2aadd5	-0.041669685
240	0xbe005af6	-0.12534699
241	0x3d82b282	0.06381704
242	0xbdbb1d4b	-0.091364466
243	0xbc9c3cc0	-0.019071937
244	0x3c915b2d	0.017743671
245	0xbda065fa	-0.078319505
246	0xbdc4ad42	-0.09603359
247	0xbdcc303f	-0.0997014
248	0xbc93b6df	-0.018031536
249	0x3da04886	0.07826333
250	0xbd2df80f	-0.042472895
251	0x3eba91e6	0.36439437
252	0xbd34d348	-0.044146806
253	0x3e64d8d4	0.22348338
254	0x3dd6babf	0.10484838
255	0xbd93b4d9	-0.07212228

dense1.bias f4 [100]
0	0xbf6d1d00	-0.92622375
1	0x3efd78d6	0.49506253
2	0xbf6cb54e	-0.9246415
3	0x3f80b445	1.0055014
4	0x3f505d55	0.81392413
5	0xbf009c2d	-0.50238305
6	0x3f5067f8	0.81408644
7	0xbeb4050d	-0.35160103
8	0xbf6ca333	-0.9243652
9	0x3f447088	0.7673421
10	0xbf6cf2ab	-0.9255778
11	0xbf6d138b	-0.92607945
12	0xbf5ac6f1	-0.8545981
13	0x3f567393	0.837701
14	0xbe684044	-0.22680765
15	0xbf6ce705	-0.9254001
16	0x3f8a48d3	1.0803474
17	0xbf6cbb3d	-0.924732
18	0xbf6cb08d	-0.92456895
19	0xbe94e627	-0.29081842
20	0x3f96d0dc	1.1782489
21	0x3e9dbed5	0.30809656
22	0x3f8ce2cb	1.1006712
23	0xbf6cef9b	-0.9255311
24	0xbf6c9979	-0.9242168
25	0xbf6c927c	-0.9241102
26	0xbf6c7a70	-0.92374325
27	0x3f8407e9	1.0314914
28	0xbf11108d	-0.5666588
29	0xbf2bd742	-0.6712533
30	0xbf6cb09a	-0.9245697
31	0xbf6d1aa0	-0.9261875
32	0xbf6cc8fd	-0.92494184
33	0xbf6d30cc	-0.92652583
34	0xbf6cd1df	-0.9250774
35	0xbf6d5690	-0.9271021
36	0x3f6be401	0.9214478
37	0x3f521e3e	0.82077396
38	0x3f2a631d	0.66557485
39	0x3f8dcd40	1.1078262
40	0xbf6c164b	-0.92221516
41	0xbf6d2e0f	-0.92648405
42	0xbf6cf626	-0.9256309
43	0xbf6d1299	-0.926065
44	0xbf6cceb9	-0.92502934
45	0xbf6d0550	-0.9258623
46	0xbf6c89da	-0.92397845
47	0xbf66c62b	-0.9014613
48	0xbf6ce5df	-0.92538255
49	0xbf79f2f3	-0.97636336
50	0x3e9c2ea4	0.30504334
51	0x3b65b4b2	0.003505033
52	0x3f2b2e87	0.6686787
53	0xbe914385	-0.28371826
54	0xbeb9c32d	-0.3628172
55	0xbf6cf860	-0.9256649
56	0xbdd51ffd	-0.10406492
57	0xbf6ca837	-0.92444175
58	0x3fa0c3d5	1.2559763
59	0xbf6d01b7	-0.9258074
60	0xbf6c789c	-0.92371535
61	0xbec76938	-0.38947463
62	0xbf5ff3ed	-0.87481576
63	0xbf6ceff0	-0.92553616
64	0xbf6d1fce	-0.92626655
65	0x3f350cba	0.70722544
66	0xbf6cf36a	-0.9255892
67	0xbeaafc48	-0.333956
68	0x3f8ca526	1.0987899
69	0xbf6d187f	-0.92615503
70	0xbf5939e1	-0.8485394
71	0xbf6d0678	-0.92587996
72	0x3f619bc1	0.88128287
73	0x3f849cb2	1.036032
74	0x3f701412	0.93780625
75	0xbf059ec4	-0.5219538
76	0xbf6cccae	-0.92499816
77	0x3f4e90ba	0.80689585
78	0x3f9ae4a3	1.2101024
79	0x3f895b2f	1.0730952
80	0xbf6d4264	-0.9267943
81	0x3f3b30a7	0.7312111
82	0xbf6d39ea	-0.92666495
83	0x3f5e7cdb	0.86909264
84	0xbeae5072	-0.3404575
85	0xbf6c99b6	-0.92422044
86	0x3959209f	0.00020706885
87	0xbf6cc832	-0.92492974
88	0xbf6ce5ce	-0.92538154
89	0x3e7c7661	0.24654533
90	0xbf6c7da4	-0.9237921
91	0xbf68c0a2	-0.90918934
92	0x3f2fe75b	0.68712395
93	0xbebcfd0d	-0.36911812
94	0xbefbdd8d	-0.49192467
95	0xbec85cba	-0.39133245
96	0xbf6a329c	-0.91483474
97	0xbf6ccf2a	-0.9250361
98	0x3e6275de	0.22115275
99	0xbf6cc0c8	-0.9248166

dense2.weight f4 [100, 100]
0	0x3ce18c4a	0.027532715
1	0xbf8c82b7	-1.0977391
2	0xbc2124b7	-0.009835414
3	0xbd532095	-0.051544745
4	0xbdba4d69	-0.09096796
5	0x3dda53d7	0.106605224
6	0xbb8cbb25	-0.0042947703
7	0xbd609d84	-0.05483772
8	0xbd9eaa1d	-0.0774729
9	0xbdcf2f82	-0.10116483
10	0xbc0d7986	-0.0086349305
11	0xbd2c6b74	-0.042094663
12	0x3dafbc0b	0.08580788
13	0x3b8fc4c2	0.004387469
14	0x3e30a45a	0.17250195
15	0xbd978c66	-0.07399826
16	0xbd5dcfa3	-0.054153096
17	0xbc523466	-0.012829876
18	0x3aacf586	0.001319573
19	0x3c5439fb	0.012953277
20	0xbe82a1b9	-0.2551401
21	0x3e4aef21	0.19817783
22	0xbf3b4a60	-0.7316036
23	0xbd28f003	-0.041244518
24	0xbe2655ea	-0.16243711
25	0xbd8d3fea	-0.06896956
26	0xbd1a6714	-0.03769596
27	0xbee2a1f1	-0.44264176
28	0x3e376884	0.17910963
29	0xbf266947	-0.6500439
30	0xbd871c58	-0.06597203
31	0x3d0d8011	0.03454596
32	0xbd0f0dc6	-0.034925245
33	0x3c8e8e2b	0.017401775
34	0xbd446d74	-0.047955945
35	0x3c9a4fa4	0.018836804
36	0x3c7f6c72	0.01558982
37	0xbd5ae0b8	-0.053436965
38	0x3d8cb25c	0.06869957
39	0xbf3a2104	-0.7270663
40	0xbd7cfd1f	-0.061764833
41	0x3cc5f069	0.024162488
42	0x3cb6e1de	0.022324499
43	0x3c11c4be	0.008897005
44	0xbc865de0	-0.016402185
45	0xbd31b00b	-0.04338078
46	0xbdbb6858	-0.09150761
47	0xbdc1f8f4	-0.09471312
48	0x3d36648e	0.04452949
49	0xbdbad82e	-0.09123264
50	0x3df30c80	0.118676186
51	0xbebb74e6	-0.36612624
52	0xbe2f61ab	-0.17127101
53	0x3de3bc18	0.111198604
54	0x3eb75654	0.3580805
55	0xbc85ae86	-0.01631857
56	0x3e11c549	0.14235415
57	0x3a20a662	0.00061283086
58	0xbe0a613b	-0.13513653
59	0xbd72dd2d	-0.05929296
60	0x3b46c71a	0.0030331076
61	0x3dd0efee	0.10202013
62	0xbd828812	-0.063736096
63	0xbc5f82f6	-0.013642063
64	0xbd5dded3	-0.05416758
65	0xbd9ff3cf	-0.07810175
66	0xbce3cf8a	-0.027808923
67	0x3efb9eaf	0.49144503
68	0xbf25a10c	-0.64698863
69	0xbd560513	-0.052250933
70	0xbdd9a9d5	-0.10628096
71	0xbc873905	-0.016506681
72	0xbe508ef1	-0.20367028
73	0xbec887cb	-0.39166102
74	0xbe0bd210	-0.13654351
75	0xbeabadf3	-0.3353115
76	0xbbb86ab7	-0.005627956
77	0xbdb48ccd	-0.08815918
78	0x3e139d8b	0.14415567
79	0xbf0cba30	-0.549716
80	0xbda5770e	-0.080793485
81	0x3cbc7a47	0.023007525
82	0x3bf3d6dd	0.007441385
83	0xbea46005	-0.32104507
84	0x3ee48f53	0.44640598
85	0x3cab77dd	0.020931179
86	0xbe08805f	-0.1333022
87	0xbd634571	-0.055486146
88	0x3c7f9d2b	0.015601437
89	0x3dcf4d9d	0.101222254
90	0xbe05dbd9	-0.13072146
91	0x3bc04726	0.0058678566
92	0xbefc50d7	-0.49280426
93	0x3ee605b3	0.44926223
94	0x3ef09c15	0.4699408
95	0x3ec10f7c	0.37707126
96	0xbd83f513	-0.064432286
97	0x3bb544bf	0.005531877
98	0xbed5bb60	-0.41744518
99	0xbd111c34	-0.035427287
100	0x3c8b5866	0.017009925
101	0xbf0c7575	-0.54866725
102	0x3c533dd9	0.012893164
103	0x3e8f2f73	0.27965888
104	0x3e6d2007	0.23156749
105	0x3e2b5872	0.16732958
106	0x3e6fb9f1	0.23410775
107	0xbe8628f4	-0.2620312
108	0x3c2438f6	0.010023346
109	0x3e32b907	0.17453395
110	0xb9e6008b	-0.00043869423
111	0xbc27c0d8	-0.010238849
112	0x3e079856	0.13241705
113	0x3e95842f	0.2920241
114	0x3e024dfa	0.12725058
115	0xba9186a5	-0.0011102749
116	0xbd46898f	-0.04847103
117	0x3d15ac9a	0.03654156
118	0xbbfff7bc	-0.0078115147
119	0x3e12f532	0.14351347
120	0x3d5ba051	0.053619687
121	0x3e0e3109	0.13885893
122	0xbf211012	-0.62915146
123	0x3ca51461	0.020151319
124	0x3cc642ed	0.024201835
125	0xbc247df2	-0.010039793
126	0x3bb00932	0.00537219
127	0xbe044132	-0.12915495
128	0xbedc353e	-0.4300937
129	0xbf1e4b3d	-0.61833555
130	0xbd154ebc	-0.03645204
131	0x3c671fb6	0.014106682
132	0x3c6bc743	0.014390769
133	0xbcc14f4a	-0.023597378
134	0x3c2a661e	0.010400323
135	0x3cb4fd9c	0.022093587
136	0x3eb5ebf3	0.35531577
137	0x3e7d7e20	0.24755144
138	0x3ec68c98	0.3877914
139	0xbee1cbbf	-0.44100758
140	0x3d03fa0a	0.032220878
141	0xbce61359	-0.028085398
142	0x3bb20479	0.005432662
143	0x3c2769f4	0.010218132
144	0x3d177666	0.036978148
145	0x3c801c80	0.01563859
146	0x3cddb1be	0.027062293
147	0x3c632a5f	0.0138650825
148	0xbb6aa682	-0.0035804813
149	0xbde98e6e	-0.114041194
150	0x3e27c9cc	0.16385573
151	0xbe35c118	-0.1774944
152	0x3ea65875	0.32489362
153	0x3dc7f207	0.0976296
154	0xbe6030a1	-0.2189355
155	0xbc5b258e	-0.013375653
156	0x3de63e10	0.11242306
157	0x3c5eb528	0.013592996
158	0x3bea4ef3	0.0071505248
159	0xbc95aefe	-0.01827192
160	0x3c8a75c7	0.016901864
161	0x3e84be67	0.25926515
162	0x3c165f7f	0.0091780415
163	0xbc22ad96	-0.009929081
164	0xbba581eb	-0.005050888
165	0x3d34644c	0.044040963
166	0x3c301223	0.010746512
167	0xbe773232	-0.24140242
168	0xbede78cb	-0.43451533
169	0x3d57deab	0.052702587
170	0xbae4e0bf	-0.0017461999
171	0x3b64c9ef	0.00349104
172	0x3e477223	0.19477133
173	0x3e226d9c	0.15862125
174	0x3c893f1f	0.016753731
175	0xbea26f2f	-0.3172545
176	0x3c71ec96	0.014765879
177	0x3e68460c	0.22682971
178	0x3d86be80	0.06579304
179	0xbe90e3b0	-0.28298712
180	0x3afa5da7	0.0019101397
181	0x3ea74c07	0.32675192
182	0xbbe22197	-0.006900977
183	0x3e5eb224	0.21747643
184	0xbe08460d	-0.13307972
185	0xbb3772be	-0.0027991976
186	0xbc587d05	-0.013213401
187	0x3b676e85	0.0035313678
188	0x3c6c7a9e	0.014433531
189	0x3d6aca46	0.05732181
190	0x3cce539d	0.025186354
191	0xbcd8f5d7	-0.026484413
192	0x3e3d7d04	0.18504721
193	0x3dc84b04	0.09779933
194	0x3e04dc96	0.12974772
195	0xbe1e9eaf	-0.1549022
196	0x3ca998f6	0.02070282
197	0x3c887223	0.016655987
198	0x3f2e864e	0.6817368
199	0x3c0dca2f	0.008654161
200	0x3bbd7664	0.0057819355
201	0xbdea7d9e	-0.11449741
202	0x3c70488d	0.014665735
203	0x3e021f1e	0.12707183
204	0x3db0fe1a	0.08642216
205	0x3f10d305	0.5657199
206	0x3dbaedc2	0.0912738
207	0x3cc043bd	0.0234698
208	0x3aa53d95	0.0012606854
209	0x3d406fb2	0.04698152
210	0x3d34e846	0.044166826
211	0x3d5c83fb	0.053836804
212	0x3d599097	0.053116407
213	0x3e2212ee	0.15827534
214	0x3ec7fb85	0.39059082
215	0xbc9f06b9	-0.019412385
216	0x3e216938	0.15762794
217	0x3bb34540	0.0054709017
218	0xbd2cf7c4	-0.042228475
219	0x3e852bf8	0.26010108
220	0x3e2eb1b4	0.17059976
221	0x3e63e1ab	0.22254054
222	0x3fae75c0	1.3629684
223	0xbc753b73	-0.014967787
224	0x3c749ebb	0.014930422
225	0xbd5dc518	-0.05414304
226	0x3d0d6c7f	0.034527298
227	0x3e9c0c41	0.304781
228	0x3f61d2cf	0.88212293
229	0xbc8414ef	-0.016123263
230	0x3be2fbd3	0.0069269924
231	0x3cebe6dd	0.028796608
232	0x3c1cc77a	0.009569043
233	0xbc85470d	-0.016269231
234	0x3c802bab	0.015645823
235	0x3d593469	0.053028498
236	0x3d0dee38	0.03465101
237	0x3dcf8b15	0.1013395
238	0x3e518c3e	0.20463654
239	0x3f4a72ac	0.79081225
240	0xbca2d4a8	-0.019876793
241	0x3d1f3092	0.03886468
242	0xbae2a8c7	-0.0017292731
243	0x3d025591	0.031819884
244	0x3d1e79f0	0.038690507
245	0x3d19373f	0.037406202
246	0xbd69d8a5	-0.057091374
247	0xbce85e76	-0.028365355
248	0x3d80da9d	0.06291697
249	0x3b7b0890	0.0038304664
250	0x3e3986ae	0.18117782
251	0xbe69c7f9	-0.2283019
252	0x3f18f846	0.59753835
253	0x3e909922	0.2824183
254	0x3f3ada17	0.7298903
255	0xbc032085	-0.008003359

dense2.bias f4 [100]
0	0xbea124ac	-0.3147329
1	0xbcbf8a83	-0.023381477
2	0x3e87dce1	0.26535705
3	0xbefe347e	-0.49649423
4	0x3cafb269	0.021447377
5	0xbd8462ea	-0.06464179
6	0x3e78b803	0.24288945
7	0x3efc7461	0.4930754
8	0x3d288894	0.041145876
9	0x3ea60217	0.3242347
10	0x3e2314bb	0.15925877
11	0xbe7fb975	-0.2497309
12	0x3da4e902	0.08052255
13	0xbed48cdd	-0.4151372
14	0xbcde8985	-0.027165184
15	0xbdeb4d71	-0.1148938
16	0xba88f916	-0.001045021
17	0x3e592fbe	0.21209618
18	0x3dd05d99	0.10174102
19	0xbc8a71f5	-0.016900042
20	0x3db19215	0.08670441
21	0xbe434218	-0.19068182
22	0xbe4fbcfe	-0.20286939
23	0xbdbd140d	-0.0923234
24	0xbcf24f04	-0.029578693
25	0xbe34ad6f	-0.17644285
26	0x3e9762e9	0.2956765
27	0xbdac88a5	-0.084245004
28	0xbda90bce	-0.08254205
29	0x3cfd831a	0.030946303
30	0xbe3aa06c	-0.18225259
31	0x3ea4493d	0.32087126
32	0x3e58afa9	0.21160759
33	0xbca29fb2	-0.01985154
34	0x3f068744	0.5255015
35	0x3c40abdb	0.011759724
36	0x3e287ff2	0.16455057
37	0x3dfea43a	0.124336675
38	0x3ed4e437	0.41580364
39	0x3e892953	0.2678934
40	0x3f0663c6	0.5249599
41	0x3df2fdc8	0.11864811
42	0x3effa71f	0.4993219
43	0x3dd30562	0.10303761
44	0x3e302853	0.17202882
45	0x3ec85657	0.39128372
46	0xbddbe9e9	-0.10737974
47	0xbf1731d9	-0.59060436
48	0x3bd80bb7	0.0065931934
49	0x3f066d6a	0.525107
50	0x3ee388b5	0.44440237
51	0xbebb1ea2	-0.36546808
52	0xbd8ad1e7	-0.06778317
53	0x3c82c133	0.015961265
54	0x3ecad7da	0.39617807
55	0x3e9613eb	0.2931207
56	0x3e329f92	0.17443684
57	0x3e3186a2	0.17336515
58	0x3d860ebf	0.06545781
59	0x3e86bc44	0.2631551
60	0x3e4f87ad	0.202666
61	0x3e33561a	0.17513314
62	0xbe1b6fd7	-0.15179382
63	0xbdea5d1a	-0.11443539
64	0xbe9acb3c	-0.3023318
65	0xbe799c11	-0.24375941
66	0x3db41493	0.08792987
67	0x3eaccb9e	0.33749098
68	0xbe8f24fd	-0.27957907
69	0x3d4a817d	0.049439896
70	0xbee9f1dc	-0.45692337
71	0x3dc90370	0.09815109
72	0xbe1fbaf4	-0.1559866
73	0x3d814d51	0.06313575
74	0xbbdf225a	-0.006809515
75	0x3e21c839	0.15799035
76	0x3ea12e78	0.31480765
77	0x3e0a355f	0.13496922
78	0x3ec56b67	0.38558504
79	0x3e62e19f	0.2215638
80	0x3bf11d27	0.0073582116
81	0xbd1ec485	-0.038761634
82	0x3e2a1119	0.16608085
83	0xbec84df4	-0.39121974
84	0x3ed8c9a8	0.42341352
85	0xbe19479f	-0.14968728
86	0x3f03c8a5	0.51478034
87	0x3e81d01b	0.25354084
88	0x3e64bb5e	0.223371
89	0x3dc8c494	0.09803119
90	0x3d8142a5	0.063115396
91	0xbefac8c2	-0.4898129
92	0x3e04167d	0.12899204
93	0x3ed14498	0.40872645
94	0x3ee1124c	0.43959272
95	0x3ef9514b	0.48694834
96	0x3eb66728	0.35625577
97	0xbed23eaf	-0.4106345
98	0xbe20f5c4	-0.15718752
99	0x3d29dd1b	0.04147063

dense3.weight f4 [100, 100]
0	0x3b3cd79f	0.0028815044
1	0x3f04802a	0.5175806
2	0x3fbcbe54	1.4745584
3	0xbe64e8c2	-0.22354415
4	0x3cd00fbf	0.025398133
5	0xbed38964	-0.41315758
6	0xbf1701cc	-0.58987117
7	0x3f6ebd57	0.9325766
8	0xbdf06e0c	-0.1173974
9	0x3f33ab8b	0.7018363
10	0xbd0093fa	-0.03139112
11	0x3d88ab5f	0.066733114
12	0x3f286f31	0.65794665
13	0xbf2ee830	-0.6832304
14	0x3da22b7f	0.079184525
15	0xbefe10a2	-0.49622065
16	0x3ea87959	0.3290508
17	0xbdb07ef0	-0.086179614
18	0x3f52061a	0.8204056
19	0xbf131958	-0.57460546
20	0x3ddef3ca	0.10886343
21	0x3d7a9ab6	0.0611827
22	0xbe20ddbf	-0.1570959
23	0xbdb9dcb1	-0.09075297
24	0xbeb0d3fc	-0.3453673
25	0xbc215626	-0.0098472
26	0x3eee22f8	0.46511054
27	0xbf076f14	-0.52903867
28	0xbe91cf78	-0.284786
29	0x3d3d7f0c	0.04626374
30	0xbeefff08	-0.4687426
31	0xbf3b228e	-0.730996
32	0x3cb6c7e7	0.022312118
33	0x3eb28aa9	0.34871414
34	0x3ecf2eb1	0.4046531
35	0xbd3eb44e	-0.04655867
36	0xbf87ce41	-1.0609819
37	0x3d1c2f6f	0.038131174
38	0xbd460f8a	-0.048354663
39	0x3f05c6d3	0.52256507
40	0xbe657187	-0.22406588
41	0xbd520a95	-0.051279623
42	0x3ecc04da	0.3984745
43	0xbde4a15c	-0.11163589
44	0xbdf13a03	-0.11778643
45	0xbdbe8ae0	-0.09303832
46	0xbe1e6328	-0.15467513
47	0x3d9bff03	0.07616999
48	0xbd62999a	-0.055322267
49	0xbf78fbb2	-0.97259057
50	0xbd219265	-0.039446253
51	0xbe43d9c1	-0.19126035
52	0xbe1e74bb	-0.15474217
53	0xbf2c6564	-0.6734221
54	0xbf22b5ff	-0.63558954
55	0xbe85d184	-0.2613641
56	0xbeab9937	-0.3351533
57	0xbdba63a5	-0.09101037
58	0x3ea9b9e4	0.33149636
59	0x3f4a9f15	0.7914899
60	0xbd881be2	-0.06645943
61	0xbf3de69b	-0.7418
62	0xbd387752	-0.045035668
63	0xbd3411f6	-0.04396244
64	0x3e886c42	0.26645094
65	0x3fe669d0	1.8001041
66	0xbd9777f1	-0.07395924
67	0xbe72eb4b	-0.2372257
68	0xbf36626f	-0.7124395
69	0xbcc565ea	-0.024096448
70	0xbf04cc4e	-0.51874244
71	0xba8c43d7	-0.001070137
72	0xbebaf209	-0.36512783
73	0xbd0d6d59	-0.03452811
74	0xbeb3287d	-0.34991828
75	0xbe3ee74c	-0.1864292
76	0xbe49fee3	-0.19726138
77	0xbcfcd88c	-0.030864976
78	0xbde19ca0	-0.11016202
79	0xbe326cfe	-0.1742439
80	0x3b4e8df0	0.0031517707
81	0xbc9f38f0	-0.01943633
82	0xbde8b5e6	-0.113628194
83	0x3fc03027	1.5014695
84	0xbf3d1d81	-0.73873144
85	0xbece52ac	-0.4029745
86	0xbd59f533	-0.053212356
87	0xbd13dfe2	-0.036102183
88	0xbd766994	-0.06015928
89	0xbf054f08	-0.5207372
90	0xbd41d5cf	-0.047323044
91	0x3e8e51e6	0.2779686
92	0xbf257163	-0.6462614
93	0x3f07ae10	0.52999973
94	0x3c27c44c	0.010239672
95	0x3ea32fb1	0.31872323
96	0xbe195917	-0.14975391
97	0xbe042439	-0.12904443
98	0x3dcff7b5	0.10154668
99	0xbdd50f63	-0.104033254
100	0xba0938b9	-0.00052345876
101	0xbc1f7074	-0.009731401
102	0xb987bfb1	-0.00025892028
103	0xbdb87ee0	-0.090085745
104	0xbde039b5	-0.10948507
105	0xbe380962	-0.1797233
106	0x3f06dcdc	0.52680755
107	0x3c491678	0.012273423
108	0x3e97708d	0.29578057
109	0x3caae6d7	0.020862026
110	0x3df5c355	0.12000147
111	0x3e31aa95	0.17350228
112	0x3dbf4215	0.09338776
113	0x3a3c37de	0.0007179956
114	0x3eb3176b	0.34978804
115	0xbe0f54f6	-0.13997254
116	0xbcdc5dd1	-0.026900204
117	0x3ec5f64b	0.3866447
118	0x3f00a583	0.5025255
119	0xbcc7bcce	-0.024382021
120	0xbc1bd8df	-0.009512155
121	0x3bc8b672	0.006125265
122	0xbe71e7c1	-0.23623563
123	0xbd11d716	-0.035605513
124	0x3e73903c	0.2378549
125	0x3d02f440	0.031971216
126	0x3da1b96c	0.078966945
127	0xbe1e504e	-0.15460321
128	0x3e6fee8e	0.23430845
129	0x3c4933c2	0.012280406
130	0x3e658b3c	0.22416395
131	0xbd11dc18	-0.03561029
132	0xbed8e94c	-0.4236549
133	0xbd0d447d	-0.034489144
134	0x3c29da15	0.010366936
135	0x3e8a2189	0.2697871
136	0xbe458b8b	-0.19291513
137	0x3e11aab5	0.14225276
138	0xbd2cf18d	-0.04222255
139	0xbe405a95	-0.18784554
140	0x3e0c0e52	0.13677338
141	0xbe09627c	-0.13416475
142	0x3d213697	0.0393587
143	0x3ed12959	0.40851858
144	0x3ed74899	0.42047575
145	0xbe8fcf5a	-0.28087884
146	0xbe9616d1	-0.29314283
147	0xbe158069	-0.14599766
148	0x3c59ae1c	0.01328614
149	0xbc96c09d	-0.018402392
150	0x3dae1d36	0.08501665
151	0x3d2d7260	0.042345405
152	0x3d5d7d79	0.05407474
153	0x3f267e3f	0.65036386
154	0x3d73eb01	0.05955029
155	0x3df65ad8	0.12029046
156	0x3f0eb7f3	0.55749434
157	0x3eb5d73d	0.35515776
158	0x3dc63a04	0.09679034
159	0xbc981f5d	-0.018569643
160	0x3ea28197	0.31739494
161	0x3eeb54eb	0.45963225
162	0xbe3fc0ea	-0.18725935
163	0x3d4ab9b1	0.049493495
164	0xbbbdc6a8	-0.005791504
165	0x3db2c550	0.087290406
166	0x3ea93f2e	0.33056015
167	0x3d713b20	0.058894277
168	0x3d0b42fa	0.03399942
169	0xbc2f87b1	-0.010713504
170	0x3df81a13	0.12114348
171	0xbe281210	-0.1641314
172	0xbf00426f	-0.5010137
173	0xbdac9ac3	-0.08427956
174	0x3ea38cae	0.31943268
175	0x3d1874af	0.037220653
176	0x3da1622f	0.07880055
177	0x3ca0717a	0.01958536
178	0x3e32f203	0.17475133
179	0x3d7e764c	0.062124535
180	0x3ea9fad1	0.3319917
181	0x3e4ee668	0.2020508
182	0x3f0fb7c7	0.56139797
183	0x3e3258b5	0.17416652
184	0xbd3f64cd	-0.04672699
185	0xbe0d3e88	-0.13793385
186	0x3ddb3536	0.107035086
187	0x3b1657f9	0.002294062
188	0xbd7e86c8	-0.062140256
189	0xbd322f38	-0.043502063
190	0x3dacc324	0.084356576
191	0x3e71684d	0.23574944
192	0xbd62efa1	-0.05540431
193	0x3da3c2ce	0.079961404
194	0x3d9f2df8	0.0777244
195	0xbdf51161	-0.119662054
196	0xbcb1d01e	-0.021705683
197	0x3e8f2e2a	0.27964908
198	0xbcda06d8	-0.026614591
199	0xbd8cb935	-0.06871263
200	0xbc0b3ccc	-0.008498382
201	0x3e13704b	0.14398305
202	0x3c2d5144	0.010578457
203	0xbde31ae1	-0.11089111
204	0x3cbd7210	0.023125678
205	0xbdb044d9	-0.08606882
206	0x3e8e2224	0.27760422
207	0x3d081ee7	0.033232596
208	0xbe2fdb48	-0.17173493
209	0x3d871635	0.065960325
210	0xbd81621e	-0.063175425
211	0xbd29f723	-0.041495454
212	0x3e3e5b0c	0.18589419
213	0xbe427e1e	-0.18993422
214	0x3ebca663	0.36845693
215	0xbe0c44bd	-0.13698097
216	0xbd9abb70	-0.07555282
217	0x3e256630	0.16152263
218	0x3e8ed295	0.27895036
219	0x3deb2291	0.114812024
220	0x3d562716	0.05228337
221	0xbe1f9ee1	-0.15587951
222	0x3e3fb9f2	0.18723276
223	0xbd071078	-0.03297469
224	0x3da6f1cb	0.08151587
225	0xbcfcedf1	-0.030875178
226	0x3e09a2fd	0.13441081
227	0xbda16ba9	-0.07881863
228	0x3ca3f290	0.020013124
229	0x3e3934b7	0.18086515
230	0xbd9a0b00	-0.07521629
231	0xbcdf7a69	-0.02728005
232	0xbe4aadf3	-0.19792919
233	0x3dbafd0a	0.091302946
234	0xb96cc4c7	-0.00022580019
235	0x3dd20167	0.10254174
236	0xbd8fea1d	-0.070270754
237	0x3dc2d977	0.095141344
238	0xbd47302e	-0.048629932
239	0xbe34c4d5	-0.1765321
240	0x3db08533	0.08619156
241	0x3c81f85e	0.015865501
242	0x3cc5a56a	0.024126727
243	0x3de0c03b	0.10974165
244	0x3e613364	0.2199226
245	0xbdd0fcbc	-0.10204455
246	0xbebb3b5b	-0.36568722
247	0xbd80e57e	-0.06293772
248	0x3e055202	0.13019565
249	0x3d6207b5	0.05518313
250	0xbdca008f	-0.09863388
251	0xbc45edc0	-0.01208061
252	0xbe261f6b	-0.16222923
253	0x3f32c360	0.6982937
254	0xbded819d	-0.115969874
255	0x3e15fb16	0.14646563

dense3.bias f4 [100]
0	0x3ed5d95a	0.4176739
1	0x3db00e2e	0.085964546
2	0x3dfba656	0.122875854
3	0x3e958b92	0.29208046
4	0xbef4717a	-0.47742826
5	0xbf089c39	-0.53363377
6	0x3ec0babe	0.37642473
7	0xbd99857b	-0.074961625
8	0x3e96c3e0	0.29446316
9	0x3f165b3b	0.58732957
10	0x3ee51a21	0.44746497
11	0x3eb9d3e5	0.36294475
12	0x3df7565d	0.12077019
13	0x3ecb84cf	0.39749762
14	0x3e78d508	0.24300015
15	0x3e8fad51	0.28061917
16	0xbd042132	-0.03225822
17	0x3e9e917b	0.30970368
18	0xbe8021f0	-0.25025892
19	0x3ededafc	0.43526447
20	0xbdddba2f	-0.10826527
21	0xbf029037	-0.51001304
22	0xbec67db1	-0.3876777
23	0x3f01062e	0.50400054
24	0x3e8f4530	0.27982473
25	0x3ed54b59	0.41659048
26	0xbd54ecf6	-0.051983796
27	0x3eea4bcc	0.45760953
28	0xbec37244	-0.38173115
29	0xbebc6389	-0.3679469
30	0x3ea5fa2d	0.3241743
31	0x3edfd9b5	0.43720785
32	0x3ea471d6	0.321181
33	0x3f0876db	0.5330636
34	0x3e13cd67	0.14433824
35	0x3ef3743e	0.47549623
36	0xbd16bb6b	-0.03679983
37	0xbea77f91	-0.32714513
38	0xbef98c38	-0.4873979
39	0x3f334f65	0.7004302
40	0x3ee9b0bc	0.4564265
41	0xbe0bbc9e	-0.1364617
42	0x3f3107fb	0.691528
43	0xbcaf3fc4	-0.02139271
44	0xbf4e7e4c	-0.80661464
45	0xbe9c860a	-0.30571014
46	0x3da94137	0.08264392
47	0xbedf2dc0	-0.43589592
48	0xbf537c8d	-0.82611924
49	0x3e9e0b57	0.30868027
50	0x3ebdaccd	0.370459
51	0xbed52d43	-0.41636094
52	0x3ebb16be	0.36540788
53	0x3eec61c9	0.46168354
54	0x3da4e638	0.08051723
55	0x3d89dfab	0.067321144
56	0xbe8d8b9b	-0.27645573
57	0x3f037b78	0.51360273
58	0xbe8c18d6	-0.27362698
59	0xbf249b9a	-0.6429993
60	0x3ee81bac	0.45333612
61	0x3e71dae7	0.23618661
62	0x3ef85685	0.4850351
63	0xbe873a94	-0.2641188
64	0x3ecb618e	0.39722866
65	0x3f0750af	0.5285749
66	0xbed99111	-0.4249349
67	0x3f0e4718	0.5557723
68	0x3f0978b8	0.5369983
69	0xbe1084dd	-0.14113183
70	0x3eb3cf75	0.35119215
71	0x3f1e5ba0	0.6185856
72	0xbf1aba9e	-0.60441005
73	0x3eefdfe3	0.468505
74	0xbed282dd	-0.41115466
75	0xbf30523a	-0.6887547
76	0x3e8750ef	0.26428935
77	0xbe40d73f	-0.1883211
78	0x3f0fe1b8	0.56203794
79	0xbcea9628	-0.028636053
80	0xbeeaa68a	-0.45830184
81	0x3ed66940	0.41877174
82	0x3ebe9724	0.37224686
83	0xbea20b73	-0.3164936
84	0x3ed75d11	0.42063192
85	0xbebba2d9	-0.3664768
86	0xbef3acde	-0.47592825
87	0x3e9145ae	0.28373474
88	0x3d8030d9	0.06259317
89	0x3f020178	0.5078349
90	0xbf0dd89c	-0.55408645
91	0x3effc392	0.49953896
92	0xbf65c221	-0.8974934
93	0xbce48434	-0.02789507
94	0x3ecc9202	0.39955145
95	0xbea337f5	-0.3187863
96	0xbf4ca829	-0.7994409
97	0xbee76eb0	-0.45201635
98	0xbf396480	-0.72418976
99	0xbeadc032	-0.33935696

output_layer.weight f4 [5, 100]
0	0xb954d761	-0.0002029813
1	0xb9781562	-0.00023659089
2	0xb9a3650c	-0.00031165069
3	0x38de817d	0.00010609904
4	0x3c7efcd0	0.015563205
5	0x3a69bcd4	0.0008916382
6	0xbc9ee065	-0.019394109
7	0x393a17d7	0.00017747223
8	0x3e877e31	0.26463464
9	0xbb239849	-0.0024962595
10	0xbb676815	-0.003530984
11	0xb83fa3a6	-4.5690358e-05
12	0x3edf94e5	0.43668285
13	0xbdeb5255	-0.11490313
14	0x3ecea927	0.40363428
15	0xbbe5a756	-0.0070084734
16	0x3c18741b	0.009305025
17	0xbbab13c7	-0.0052208635
18	0xba9ae1a5	-0.0011816515
19	0xba23c90b	-0.0006247914
20	0xbb11b07c	-0.0022230437
21	0xbec92269	-0.39284065
22	0xbf2fd269	-0.68680435
23	0xbb03d6f1	-0.0020117129
24	0x3c297abd	0.0103442045
25	0xbc07e14a	-0.008293459
26	0x39fa73e4	0.0004777006
27	0x3acc0609	0.0015565763
28	0xbefa67c7	-0.489073
29	0xbf0386b6	-0.5137743
30	0xbaa3c694	-0.0012495094
31	0xbb48cf0f	-0.0030640995
32	0x3eadb01f	0.33923432
33	0xbbd4f22c	-0.0064985957
34	0x3d0e6b07	0.034770038
35	0xbc279446	-0.010228222
36	0xbbb4ddf6	-0.005519624
37	0xbcd5dd77	-0.02610658
38	0xbf2538d7	-0.64539856
39	0xb9e9a860	-0.00044566672
40	0xb89fc2eb	-7.618017e-05
41	0x39e471dc	0.0004357238
42	0xbcb2d8c6	-0.021831881
43	0xba6efb28	-0.00091164047
44	0x3bf21139	0.007387307
45	0xb9a59538	-0.0003158243
46	0x3d4684fd	0.04846667
47	0xb9fa575e	-0.0004774881
48	0xbed7194a	-0.42011482
49	0x39850216	0.0002536929
50	0xbac08ed2	-0.0014691001
51	0xbc27ff78	-0.01025378
52	0xbc15b6d7	-0.009137831
53	0xbb4a5ff8	-0.0030879956
54	0x3bb3db7c	0.005488811
55	0x37c16dbf	2.3058497e-05
56	0xbb9de9ce	-0.0048191315
57	0x3cb42d4f	0.021994261
58	0xbaf12b9c	-0.0018399837
59	0xbf163bcc	-0.5868499
60	0x3a19dc70	0.00058693346
61	0x3e9197da	0.28436166
62	0xbbbfa326	-0.005848306
63	0xbc8f9d92	-0.01753119
64	0x3e68bd6d	0.2272851
65	0xbc716355	-0.014733155
66	0xbcaf9e08	-0.02143766
67	0xbb56a2ae	-0.0032750773
68	0xbafddfc0	-0.0019369051
69	0xbb55f13c	-0.0032645008
70	0x38d84f39	0.00010314439
71	0xbd3d091b	-0.04615126
72	0xbd0a484d	-0.033760358
73	0xbb0084da	-0.0019610436
74	0xbeae8e3a	-0.34092885
75	0xbef9a50d	-0.48758736
76	0x3e918aaa	0.28426105
77	0x3c310d9a	0.0108064655
78	0xbba9478e	-0.0051660007
79	0x3c5b4fe6	0.0133857485
80	0xbcfe2634	-0.031024076
81	0xba890cc3	-0.0010456074
82	0x3a09ccfb	0.000525668
83	0xbb517264	-0.0031959051
84	0xb7bcc7e4	-2.2504428e-05
85	0x3a021f98	0.0004963814
86	0xbf08004d	-0.5312546
87	0x3e691edb	0.22765677
88	0xbb516d5c	-0.0031956052
89	0xbdf56999	-0.11983032
90	0xbe77e13c	-0.24207014
91	0xbbaaca1f	-0.005212083
92	0xbec89cb1	-0.39182046
93	0x3b45ea6a	0.0030199536
94	0x3b0f3d45	0.0021856588
95	0xbb1209e3	-0.0022283725
96	0xbe383da8	-0.1799227
97	0x3c7bc075	0.01536571
98	0xb7589e76	-1.2911498e-05
99	0x394e80a3	0.00019693612
100	0xbca81236	-0.020516496
101	0x3ec5b3e9	0.38613823
102	0x3ebade88	0.36497903
103	0x3d7f79ef	0.062372144
104	0xbdf18ac0	-0.117940426
105	0x3cfcc390	0.03085497
106	0x3d9a8937	0.07545703
107	0x3c9250a8	0.017860726
108	0x3e7069ee	0.23477909
109	0xbc8d845f	-0.017275034
110	0xbdca421b	-0.0987589
111	0x3b96b245	0.004598888
112	0xbde6f101	-0.112764366
113	0xbdbac7ed	-0.09120164
114	0xbda8c6a7	-0.08241015
115	0xbdd9935e	-0.10623811
116	0xbcac67f4	-0.021045662
117	0x3dcc1422	0.099647775
118	0xbcef3ed2	-0.02920476
119	0xbd739c68	-0.059475332
120	0xbcef5937	-0.029217346
121	0xbe024976	-0.12723336
122	0xbdcef4fe	-0.10105322
123	0xbdaeff68	-0.085448086
124	0xbcc53d23	-0.024077004
125	0x3e98708d	0.2977337
126	0x3cb9fccf	0.022703556
127	0x3d0dd376	0.034625493
128	0xbeb7f174	-0.35926402
129	0xbe2d5539	-0.16927041
130	0xba46cadd	-0.00075833296
131	0xbd8e1682	-0.06937887
132	0xbe2e3019	-0.17010535
133	0x3e0d1602	0.13777927
134	0x3ca15e9d	0.019698435
135	0xbddb86dd	-0.107190825
136	0xbf0c350a	-0.5476843
137	0x3d82a77e	0.06379603
138	0xbd173dc7	-0.03692415
139	0x3cae9bec	0.021314584
140	0x3dab5ae5	0.08366946
141	0x3d34961d	0.04408847
142	0x3dce684d	0.100784875
143	0x3de48fee	0.11160265
144	0x3eb3088a	0.34967452
145	0xbcddd125	-0.027077267
146	0xbd2ba821	-0.041908387
147	0x3cf70edd	0.030158455
148	0x3d2568f0	0.04038328
149	0xbd232650	-0.03983146
150	0xbda9a0b3	-0.08282604
151	0xbf191975	-0.5980447
152	0xbcb30de6	-0.021857213
153	0xbd5e766e	-0.054312162
154	0xbd865e64	-0.06560972
155	0x3d8baca1	0.06820036
156	0xbecfd694	-0.40593398
157	0xbd4b53ea	-0.049640574
158	0x3d9f8abf	0.077901356
159	0x3dea967b	0.11454483
160	0xbd78c760	-0.060737014
161	0x3e00ecd0	0.12590337
162	0x3d987968	0.074450314
163	0x3cef671d	0.029223973
164	0xbe954823	-0.29156598
165	0x3d36ede9	0.044660483
166	0xbf036538	-0.5132632
167	0xbd218305	-0.03943159
168	0x3e5e2e89	0.21697439
169	0xbda8596e	-0.08220182
170	0xbcf9e046	-0.03050245
171	0x3dd7c5d9	0.10535783
172	0xbdf9f1df	-0.122043364
173	0x3daca943	0.084307216
174	0xbe594317	-0.21216999
175	0x3dd9c6b3	0.10633602
176	0xbd3b30b0	-0.04570073
177	0xbefb0372	-0.49026066
178	0xbd82595f	-0.063647024
179	0x3db2a192	0.08722223
180	0xbe50d777	-0.20394693
181	0xbcb5badd	-0.02218383
182	0x3d07e595	0.03317793
183	0xbd1c7832	-0.038200565
184	0xba05ba38	-0.0005101296
185	0x3a9c3a6f	0.001191927
186	0xbe720be8	-0.23637354
187	0x3e0dfa6a	0.13865057
188	0x3e8d55a5	0.27604404
189	0xbcaf8072	-0.021423552
190	0x3dcdb007	0.1004334
191	0xbcdf4546	-0.027254712
192	0xbd9d28d8	-0.07673806
193	0x3d8215b1	0.063517936
194	0x3db5bf6a	0.088744
195	0xbe992028	-0.29907346
196	0xbdb6b9b7	-0.08922141
197	0xbe094294	-0.13404304
198	0xba325213	-0.0006802391
199	0x3cf27c27	0.029600216
200	0x3b86ab4e	0.0041097766
201	0xbb3b6095	-0.0028591503
202	0xbac80bb6	-0.0015262279
203	0xbc012489	-0.007882246
204	0xbd776df6	-0.0604076
205	0xbd91027b	-0.07080551
206	0xbc2afd88	-0.010436423
207	0xbb231cd3	-0.0024889007
208	0xbe490500	-0.19630814
209	0xbad24668	-0.0016042711
210	0xbad54143	-0.001627006
211	0xbaec2a0c	-0.0018017902
212	0x3e1a6bef	0.15080236
213	0xbccb3844	-0.024807103
214	0x3df3368d	0.11875639
215	0x3d41f4cb	0.047352593
216	0xbb1ba150	-0.0023747273
217	0x3c168fdd	0.009189573
218	0x3af5bc5b	0.0018748151
219	0x3b0747ad	0.0020642087
220	0x3ab19e99	0.0013551294
221	0x3e88ee8c	0.26744497
222	0xbe8e2f5b	-0.27770504
223	0x3b44b68c	0.0030016033
224	0x3cb6f5f4	0.022334076
225	0xbb3e3624	-0.002902397
226	0xbbf9e654	-0.007626334
227	0x3bccfa68	0.0062554367
228	0xbe9267f0	-0.28594923
229	0xbdcb955b	-0.09940597
230	0x3bc0984e	0.005877531
231	0xbc008e13	-0.007846373
232	0xbdea60d5	-0.114442505
233	0xbd43614a	-0.047700204
234	0x3c0d1f03	0.008613351
235	0xbc450be1	-0.012026758
236	0x39e05a14	0.00042791723
237	0x3be1fa57	0.006896298
238	0x3d92f395	0.07175366
239	0x3c811377	0.015756352
240	0xbd532802	-0.051551826
241	0x3a8107dc	0.0009844261
242	0xb99f80a7	-0.00030422697
243	0x3a02e87e	0.00049937505
244	0x3db0171b	0.08598157
245	0x3b555ed5	0.0032557745
246	0xbd75ed84	-0.060040966
247	0xbc2141c2	-0.009842338
248	0x3d5ab9df	0.053399917
249	0xbbbbaccb	-0.0057273856
250	0x3952ac3e	0.00020091326
251	0x3c9ea768	0.019366935
252	0xbaa200c8	-0.0012359852
253	0xbb83864b	-0.0040138117
254	0x3a17999b	0.0005783082
255	0xb8416b6b	-4.6114827e-05

output_layer.bias f4 [5]
0	0x402061a6	2.50596
1	0x3ec30f5a	0.3809765
2	0x3f756bd6	0.9586767
3	0x3ea73bbb	0.32662758
4	0x3e3eaf8d	0.18621655

exp_avg f4 [100, 2]
0	0xb42e2bb0	-1.6220906e-07
1	0xb42e2bb0	-1.6220906e-07
2	0x35b9dfc8	1.3848703e-06
3	0x35b9dfc8	1.3848703e-06
4	0xb5244e3a	-6.1208596e-07
5	0xb5244e3a	-6.1208596e-07
6	0xb58900e6	-1.0207557e-06
7	0xb58900e6	-1.0207557e-06
8	0xb53bc08f	-6.994314e-07
9	0xb53bc08f	-6.994314e-07
10	0x34515a41	1.9497476e-07
11	0x34515a41	1.9497476e-07
12	0xb589f795	-1.0279351e-06
13	0xb589f795	-1.0279351e-06
14	0xb4fd58db	-4.7189573e-07
15	0xb4fd58db	-4.7189573e-07
16	0xb407b98e	-1.2640359e-07
17	0xb407b98e	-1.2640359e-07
18	0x349048e4	2.6875125e-07
19	0x349048e4	2.6875125e-07
20	0xb3656ca8	-5.341704e-08
21	0xb3656ca8	-5.341704e-08
22	0xb4c04b2f	-3.581749e-07
23	0xb4c04b2f	-3.581749e-07
24	0xb557abc9	-8.034372e-07
25	0xb557abc9	-8.034372e-07
26	0x35090940	5.104994e-07
27	0x35090940	5.104994e-07
28	0xb59724bc	-1.1261068e-06
29	0xb59724bc	-1.1261068e-06
30	0xb3ee0474	-1.1083549e-07
31	0xb3ee0474	-1.1083549e-07
32	0xb558db66	-8.078554e-07
33	0xb558db66	-8.078554e-07
34	0x33483523	4.6614456e-08
35	0x33483523	4.6614456e-08
36	0xb560d9f3	-8.376366e-07
37	0xb560d9f3	-8.376366e-07
38	0xb4df4f2e	-4.1594598e-07
39	0xb4df4f2e	-4.1594598e-07
40	0xb37c95fb	-5.880973e-08
41	0xb37c95fb	-5.880973e-08
42	0x3483b1dd	2.4530064e-07
43	0x3483b1dd	2.4530064e-07
44	0xb6bb2da1	-5.578346e-06
45	0xb6bb2da1	-5.578346e-06
46	0x341140e4	1.3527784e-07
47	0x341140e4	1.3527784e-07
48	0xb381a092	-6.036238e-08
49	0xb381a092	-6.036238e-08
50	0xb367c39e	-5.396179e-08
51	0xb367c39e	-5.396179e-08
52	0xb4be38a3	-3.5431466e-07
53	0xb4be38a3	-3.5431466e-07
54	0xb4dc47d3	-4.1030452e-07
55	0xb4dc47d3	-4.1030452e-07
56	0xb4cc6499	-3.8071155e-07
57	0xb4cc6499	-3.8071155e-07
58	0x358170c1	9.644065e-07
59	0x358170c1	9.644065e-07
60	0x341378dc	1.373441e-07
61	0x341378dc	1.373441e-07
62	0xb5ce6ea9	-1.5380402e-06
63	0xb5ce6ea9	-1.5380402e-06
64	0xb4d5c043	-3.981423e-07
65	0xb4d5c043	-3.981423e-07
66	0x35718345	8.997052e-07
67	0x35718345	8.997052e-07
68	0x3364f112	5.330464e-08
69	0x3364f112	5.330464e-08
70	0xb3baf21f	-8.7053415e-08
71	0xb3baf21f	-8.7053415e-08
72	0xb5a250c7	-1.209345e-06
73	0xb5a250c7	-1.209345e-06
74	0xb55e0dcf	-8.272154e-07
75	0xb55e0dcf	-8.272154e-07
76	0x362ea44b	2.6023652e-06
77	0x362ea44b	2.6023652e-06
78	0xb6626b18	-3.373896e-06
79	0xb6626b18	-3.373896e-06
80	0xb5f6713a	-1.8361382e-06
81	0xb5f6713a	-1.8361382e-06
82	0xb3de7c85	-1.03603305e-07
83	0xb3de7c85	-1.03603305e-07
84	0xb5929646	-1.0921583e-06
85	0xb5929646	-1.0921583e-06
86	0xb459cc5a	-2.0284043e-07
87	0xb459cc5a	-2.0284043e-07
88	0xb425beac	-1.5436189e-07
89	0xb425beac	-1.5436189e-07
90	0xb5ddbaba	-1.6520128e-06
91	0xb5ddbaba	-1.6520128e-06
92	0xb3a39884	-7.6180214e-08
93	0xb3a39884	-7.6180214e-08
94	0xb4d12a43	-3.8960033e-07
95	0xb4d12a43	-3.8960033e-07
96	0xb3a7d858	-7.815896e-08
97	0xb3a7d858	-7.815896e-08
98	0xb56f5007	-8.9150893e-07
99	0xb56f5007	-8.9150893e-07
100	0x349ba627	2.8991892e-07
101	0x349ba627	2.8991892e-07
102	0xb5ba29ea	-1.3870279e-06
103	0xb5ba29ea	-1.3870279e-06
104	0x357172c6	8.9946514e-07
105	0x357172c6	8.9946514e-07
106	0xb57de77b	-9.4586693e-07
107	0xb57de77b	-9.4586693e-07
108	0xb5e519fd	-1.7069393e-06
109	0xb5e519fd	-1.7069393e-06
110	0xb28a15e2	-1.6075266e-08
111	0xb28a15e2	-1.6075266e-08
112	0xb57065f3	-8.955532e-07
113	0xb57065f3	-8.955532e-07
114	0x3268d5d2	1.3552794e-08
115	0x3268d5d2	1.3552794e-08
116	0x35082012	5.0710617e-07
117	0x35082012	5.0710617e-07
118	0x333e51d6	4.431225e-08
119	0x333e51d6	4.431225e-08
120	0xb26ee9ef	-1.3906614e-08
121	0xb26ee9ef	-1.3906614e-08
122	0xb5080ee2	-5.0685605e-07
123	0xb5080ee2	-5.0685605e-07
124	0xb51b402a	-5.783537e-07
125	0xb51b402a	-5.783537e-07
126	0x3441d84b	1.8053213e-07
127	0x3441d84b	1.8053213e-07
128	0xb3da1c92	-1.0156613e-07
129	0xb3da1c92	-1.0156613e-07
130	0xb66321ac	-3.3845236e-06
131	0xb66321ac	-3.3845236e-06
132	0xb40d561f	-1.3162979e-07
133	0xb40d561f	-1.3162979e-07
134	0xb5b56134	-1.3513841e-06
135	0xb5b56134	-1.3513841e-06
136	0xb5a1b263	-1.2047352e-06
137	0xb5a1b263	-1.2047352e-06
138	0xb4879f7c	-2.526175e-07
139	0xb4879f7c	-2.526175e-07
140	0xb4b2d7f9	-3.3312224e-07
141	0xb4b2d7f9	-3.3312224e-07
142	0xb29f26e8	-1.8527729e-08
143	0xb29f26e8	-1.8527729e-08
144	0xb5076939	-5.044454e-07
145	0xb5076939	-5.044454e-07
146	0xb4a7366f	-3.114578e-07
147	0xb4a7366f	-3.114578e-07
148	0xb510db7b	-5.3963566e-07
149	0xb510db7b	-5.3963566e-07
150	0x35f8619c	1.8505848e-06
151	0x35f8619c	1.8505848e-06
152	0x33235ff1	3.8038653e-08
153	0x33235ff1	3.8038653e-08
154	0x34ae67e3	3.2485613e-07
155	0x34ae67e3	3.2485613e-07
156	0xb52bdacf	-6.402087e-07
157	0xb52bdacf	-6.402087e-07
158	0xb62898ee	-2.5122968e-06
159	0xb62898ee	-2.5122968e-06
160	0xb40a98da	-1.2907859e-07
161	0xb40a98da	-1.2907859e-07
162	0xb5a25c86	-1.2096868e-06
163	0xb5a25c86	-1.2096868e-06
164	0x33905f58	6.7228655e-08
165	0x33905f58	6.7228655e-08
166	0xb5c29ba2	-1.4499421e-06
167	0xb5c29ba2	-1.4499421e-06
168	0xb5a8f17e	-1.2587259e-06
169	0xb5a8f17e	-1.2587259e-06
170	0x34f6f7f9	4.6001495e-07
171	0x34f6f7f9	4.6001495e-07
172	0xb60b734c	-2.0779726e-06
173	0xb60b734c	-2.0779726e-06
174	0xb496c179	-2.8080447e-07
175	0xb496c179	-2.8080447e-07
176	0xb4300e68	-1.6396518e-07
177	0xb4300e68	-1.6396518e-07
178	0xb4677d92	-2.1559234e-07
179	0xb4677d92	-2.1559234e-07
180	0x3387e771	6.328526e-08
181	0x3387e771	6.328526e-08
182	0x342c18f1	1.6027822e-07
183	0x342c18f1	1.6027822e-07
184	0x35ace296	1.2880944e-06
185	0x35ace296	1.2880944e-06
186	0xb52cba6f	-6.434629e-07
187	0xb52cba6f	-6.434629e-07
188	0xb59ba4cb	-1.1596361e-06
189	0xb59ba4cb	-1.1596361e-06
190	0xb5b31a0e	-1.3344122e-06
191	0xb5b31a0e	-1.3344122e-06
192	0xb3a57b37	-7.705824e-08
193	0xb3a57b37	-7.705824e-08
194	0x3506001b	4.9919043e-07
195	0x3506001b	4.9919043e-07
196	0x37c31843	2.325711e-05
197	0x37c31843	2.325711e-05
198	0xb33c810c	-4.388953e-08
199	0xb33c810c	-4.388953e-08
