TSTE-R/CHP-failed-case/Gradient-Enhanced-PINN/save_model_0227.ckpt-2050000.pt (torch, 408629 bytes, 27 tensors)

input_projection.weight f4 [100, 2]
000000 be bb 52 3e 92 54 52 be 66 9d 83 3b c7 f6 0d bf
       0.2057943 -0.20540074 0.004016566 -0.5545468
000010 86 ff 0a bf 6c cb 0a 3f 0c 1e 03 3e 6a 01 00 be
       -0.5429615 0.5421665 0.1280443 -0.1250054
000020 4e 4d 95 be 50 4e 96 3e 51 d8 90 be a8 69 93 3e
       -0.2916054 0.29356623 -0.28290036 0.28791547
000030 5a 70 1e 3f 27 d1 1d bf a1 46 b3 3e b5 24 be bd
       0.61890185 -0.61647266 0.35014823 -0.09284345
000040 8b d7 d6 be 9c 8c d6 3e 9d e2 63 3e 79 8a 61 be
       -0.4196132 0.4190415 0.22254415 -0.2202548
000050 5e a3 44 3d 24 7b e6 be 46 30 f0 3c d9 41 08 bd
       0.04800736 -0.45015824 0.029319894 -0.033265922
000060 59 56 f4 be ca a5 fa be d7 a2 fe 3e 62 3b fc be
       -0.47722128 -0.48954612 0.49733612 -0.49264055
000070 be bb 81 3d f5 2e 81 bd 59 1e ed bd ae ec f1 bd
       0.06334637 -0.063077845 -0.11578054 -0.11812721
000080 70 d0 41 be b6 54 e4 3e ee bc 02 bf 58 69 02 3f
       -0.18927169 0.4459588 -0.51069534 0.5094199
000090 5c d7 11 3e f9 81 11 be 5a 89 b0 3e 2f b5 af be
       0.1424231 -0.14209737 0.3447979 -0.3431792
0000a0 83 c6 a8 3c eb e0 83 bc 9b 8a 12 be 4c e9 17 3e
       0.02060247 -0.01609846 -0.14310686 0.1483509
0000b0 61 dc 40 3e 55 01 34 3f e3 b6 c4 be 42 a8 c3 3e
       0.18834068 0.7031453 -0.38420781 0.38214308
0000c0 f2 f2 de 3e a1 b1 db be d0 e7 05 bf f0 5d 06 3f
       0.43544728 -0.42908958 -0.5230684 0.5248709
0000d0 e0 08 d4 be 4b 3a ae be 2b 1d af 3e 49 fc 7f 3e
       -0.4141302 -0.3402885 0.3420194 0.24998583
0000e0 22 87 04 3f af 54 35 3f 13 bd e0 3e 27 24 a2 3e
       0.51768696 0.7083234 0.43894252 0.31668207
0000f0 88 07 0c bf 08 8b 0c 3f 8e 33 86 be e9 bd 86 3e
       -0.5469899 0.54899645 -0.26211208 0.26316765
000100 80 8b 15 be 4e 13 14 3e a8 21 70 bd e5 11 6c 3d
       -0.14603996 0.14460489 -0.058625847 0.057634253
000110 8e 9e dd bd 96 38 0d 3f 29 c0 0b 3f cf 7f 0a bf
       -0.108212575 0.5516447 0.5459009 -0.5410127
000120 9a 57 97 be be 2b 99 3e e4 04 1f bf 85 ff 1f 3f
       -0.29559022 0.29916185 -0.6211684 0.62499267
000130 2b ee 13 bf 31 94 15 3f 7c 61 4a 3e b0 ce 17 3f
       -0.5778529 0.5842925 0.1976375 0.59299755
000140 77 43 01 3c 5d ea 48 bc 64 8c af be 1e 61 b2 3e
       0.00788962 -0.012262908 -0.34286797 0.3483972
000150 5b 86 fa 3c 14 cf 62 3e e6 c7 8d 3d e7 74 8f bd
       0.030581644 0.22149307 0.06922893 -0.07004719
000160 8d 6f b0 3e a2 2c b0 be 74 27 42 3e 8a 5a 83 3e
       0.34460106 -0.34409052 0.18960363 0.25655013
000170 57 ee 96 be 49 8c 97 3e ce e2 18 bf f5 e4 07 be
       -0.29478714 0.29599217 -0.59721076 -0.13270934
000180 57 43 da bd d3 60 dc 3d 10 bd c8 3e 4a 53 1c 3f
       -0.10657375 0.10760655 0.39206743 0.6106459
000190 9c 50 b4 3e fc 4e b0 be 7c bc 51 3e f5 67 50 be
       0.3521775 -0.3443526 0.20482057 -0.20352156
0001a0 a1 19 e0 be 2c 8b e0 3e 08 e0 51 3e 04 73 51 be
       -0.43769553 0.4385618 0.20495617 -0.20454031
0001b0 1a 71 1a 3f c3 98 09 3f d4 92 42 be eb d2 43 3e
       0.6032883 0.5374872 -0.19001323 0.19123428
0001c0 8f 5e fc 3b 22 94 ed bb 84 0c 78 3e cb 37 75 be
       0.007701702 -0.007250325 0.24223524 -0.23947065
0001d0 24 2c 0c bf 33 70 0c 3f 71 fa 36 be 29 6c a0 be
       -0.54754853 0.548587 -0.17868973 -0.3133252
0001e0 ee 39 29 3e 65 12 28 be 6f 00 e2 3e 8d 87 e2 be
       0.16526005 -0.16413267 0.44140956 -0.44244042
0001f0 83 52 04 bf 9e a1 d0 be 02 e6 3b 3d 93 db 3d bd
       -0.516884 -0.40748304 0.04587365 -0.04635198
000200 21 b4 19 be 25 8e 85 be 13 da e5 be 08 e5 e5 3e
       -0.1501012 -0.2608501 -0.4489294 0.449013
000210 ea 4e 3f 3e 25 14 3f be 98 35 20 3f 98 9b 27 3f
       0.18682447 -0.18660028 0.6258178 0.6547179
000220 fe f0 0b 3e b9 47 18 3f 1d 66 14 be c1 55 16 3e
       0.1366615 0.5948444 -0.14492078 0.1468115
000230 83 69 10 bf 84 b6 f0 be 7e c7 57 be 1c d5 57 3e
       -0.56411 -0.47014248 -0.21072194 0.21077389
000240 50 40 8d 3e 81 03 8c be b9 03 03 3f 54 f2 f7 bd
       0.2758813 -0.27346423 0.51177555 -0.12106767
000250 65 4d 80 be ea 7d 82 3e 5c 16 96 3e 92 40 b2 3d
       -0.25059047 0.2548669 0.29313934 0.08703722
000260 c0 b0 cb be 07 44 cb 3e ad f0 99 be 64 47 99 3e
       -0.39783287 0.39700338 -0.30066434 0.2993728
000270 45 4d 0e bf e5 6a 0e 3f 6d 8e 27 3f 94 a4 df 3d
       -0.55586654 0.5563186 0.654517 0.10920063
000280 e5 6b 26 be b3 13 16 be a1 8a 12 be 90 e5 14 3e
       -0.16252096 -0.14655952 -0.14310695 0.14540696
000290 4c 1d ff bc fb fc e0 3c 55 41 d3 bd 18 b2 d8 3d
       -0.0311419 0.02746438 -0.103151955 0.10580844
0002a0 79 b6 33 3f 9f ff c1 3e 1e fa 9f 3e 62 71 a1 be
       0.70200306 0.37890336 0.31245512 -0.31531817
0002b0 0e 75 12 3f 38 ee 11 bf 2e 8c be 3e 89 96 c0 be
       0.5720986 -0.5700412 0.37216324 -0.3761485
0002c0 f0 7f 20 be 63 db 23 3e a0 5b 3e 3e fc cf 39 be
       -0.15673804 0.16001658 0.1858964 -0.18145746
0002d0 29 88 3b be 10 e3 3e 3e 8f 31 8e be e6 8b cb be
       -0.1831366 0.18641305 -0.27772185 -0.39755172
0002e0 55 ac 33 be 64 88 35 3e c9 25 b0 3e 4e 01 c9 3e
       -0.17546208 0.1772781 0.34403828 0.39258808
0002f0 9b e2 1c 3f ed 9b 06 3c 14 16 22 3f b4 53 e5 3e
       0.6128327 0.008215887 0.6331494 0.44790423
000300 66 2d ad 3e c8 4c d0 3e ea da 0f bf 44 8d 10 3f
       0.338237 0.4068358 -0.5619341 0.56465554
000310 f7 65 39 bf 0b a3 49 bf 73 a2 72 be b0 36 72 3e
       -0.7242121 -0.7876441 -0.23694782 0.23653674

dense1.weight f4 [100, 100]
000000 e8 4e 81 bf 57 33 41 3d c5 d6 15 be 7f 33 9b 3d
       -1.0102205 0.047168102 -0.1463271 0.075781815
000010 c6 0e fc bd 4a f4 c1 bd 08 86 1b bd 23 96 4b 3d
       -0.12307505 -0.094704226 -0.03796962 0.04970373
000020 e5 f1 07 bd 78 bc 03 be 81 0e 9f 3d 1d 11 64 bd
       -0.033189673 -0.12864864 0.07766438 -0.055680383
000030 0e 75 94 3d d0 83 8b be 5c 34 07 3d 3a 95 a2 bd
       0.07248889 -0.27249002 0.03300892 -0.07938619
000040 c6 de b9 3d a3 3f 5a 3d 31 f7 9a bd 01 e6 cc bd
       0.09075694 0.053283345 -0.07566679 -0.10004807
000050 c2 00 2f 3d e4 53 48 bd cf 90 c5 bc 03 34 86 bd
       0.042725332 -0.04890813 -0.024116902 -0.06552889
000060 c2 39 12 be b3 f6 9f bd 68 bb 31 3d f4 4b bb 3d
       -0.14279845 -0.07810726 0.043391615 0.09145346
000070 e6 d5 cc 3d 2f 9d 93 3d 39 af 65 3e 35 a3 1e be
       0.100017354 0.07207715 0.22430123 -0.15491946
000080 a9 74 db 3d 5f e1 db 3b ba 79 a3 bd d8 e2 51 3e
       0.107156105 0.006710216 -0.07982202 0.2049669
000090 ae 53 7b 3c 0b cd 0c bd 8f 6f 01 be 58 ea ab 3c
       0.015339775 -0.03437523 -0.12640212 0.020985767
0000a0 2c 03 9f bd 87 08 1b bc a9 fb 87 3c 30 a3 7f bd
       -0.07764277 -0.009462482 0.016599493 -0.062411487
0000b0 c8 82 20 be 69 9f 11 bd bf 96 cd bb dd 7c a1 bc
       -0.15674889 -0.035552416 -0.006274074 -0.01971286
0000c0 8a a4 42 3d ef 7a dc 3d e6 d7 1b bc bd 67 39 be
       0.047520198 0.10765635 -0.009511923 -0.1810598
0000d0 45 20 20 3d 0f c3 69 bd ff e3 4d bd a5 05 ef bd
       0.039093275 -0.057070788 -0.050266262 -0.116709985
0000e0 1d 9d 79 3d 92 9e de bc 8d 7a 8e bc 35 e4 49 bc
       0.06094085 -0.027175222 -0.017392421 -0.012322475
0000f0 98 61 2b be 82 33 da bb 31 f1 20 3b 51 06 7f 3d
       -0.16736448 -0.0066589722 0.0024557824 0.062261883
000100 82 06 97 bd ea 84 ad bd b3 67 f7 bd f5 2c 33 bb
       -0.07374288 -0.08472617 -0.12080326 -0.002734003
000110 2c ff 98 bd 0e 4a 10 3e dc b4 8c bd a9 86 4e bb
       -0.07470545 0.1409075 -0.06870434 -0.003151337
000120 71 6a ea 3d 64 c0 d1 3c 23 5a ae bd 32 99 96 bd
       0.11446083 0.025604434 -0.08513286 -0.073534384
000130 66 06 5d 3b f3 70 be bd 90 9e 63 bd ba 71 9a bd
       0.0033725738 -0.09298887 -0.05557114 -0.07541223
000140 b3 ca c3 3c 36 8a dc bc 8d e4 c8 bb 78 fc 00 3e
       0.023900365 -0.026921373 -0.006130761 0.12596309
000150 ab 3d 63 bd 96 2d bf 3d da 07 cb bb a4 8c 96 bd
       -0.055478733 0.09334867 -0.0061960043 -0.07351044
000160 6c 97 27 bd d0 41 cf 3b 52 f6 7e 3c 70 64 1d bd
       -0.04091589 0.006324984 0.015561657 -0.038425863
000170 8d 24 30 bc 60 7b 41 bc 13 42 87 bd 8c b4 8e bd
       -0.010750902 -0.0118092 -0.066043995 -0.0696803
000180 32 af 92 3d 21 4b f5 bd 6a 60 8a bb ec de 05 3b
       0.07162322 -0.1197722 -0.0042229192 0.0020427061
000190 35 c5 ae bd f4 a9 3c 3e 65 61 5c bd 13 c1 94 be
       -0.08533708 0.18424207 -0.05380382 -0.29053554
0001a0 2d d1 e5 3b 05 5d e6 3e 84 ab a0 3e 2c d7 00 be
       0.007013461 0.44992843 0.31380856 -0.12582082
0001b0 86 77 df bd 6b cc 01 be 26 4a 8c 3c ae fd b8 3d
       -0.10911469 -0.12675636 0.0171252 0.090327606
0001c0 66 5d 45 3e 4c 0a 29 be 9c dd b6 3e ba b3 d2 3d
       0.1927391 -0.16507834 0.3571595 0.10288186
0001d0 59 c3 f3 3b e7 61 28 bc a3 63 f2 3d 73 f3 1c 3e
       0.0074390587 -0.010277248 0.118354104 0.15327244
0001e0 86 31 e9 3c b5 46 e9 bd 8a 6e 6f be 40 be 0f bc
       0.028465997 -0.113904394 -0.23382011 -0.0087733865
0001f0 d0 cb 9b bd 1f bc 46 3c 16 79 61 3e 8f 9c 15 be
       -0.076072335 0.0121298125 0.22018847 -0.14610504
000200 4d 3c 16 be b8 27 01 be 73 47 3a bc cb 84 4b 3e
       -0.1467144 -0.12612808 -0.011369574 0.19874875
000210 bf 82 c3 3a 8e 2b c8 3c 8e 84 e0 bd 7b f6 d4 3c
       0.0014916285 0.024434831 -0.10962783 0.025996437
000220 f3 9a a3 3d 93 02 c5 3e c7 9c aa be 6f 90 67 be
       0.079885386 0.38478526 -0.33322737 -0.22613691
000230 e0 5b d5 3e 13 3d 88 bc ef 8d 90 bd c1 ed c8 bc
       0.41671658 -0.016630685 -0.07058322 -0.024527432
000240 53 d9 bd bc 2e 48 30 be 58 e8 43 3c bd d3 cf 3d
       -0.023174917 -0.17215034 0.011957251 0.10147808
000250 de 1f 24 b9 09 44 83 be 50 38 a3 3d 15 f9 48 3f
       -0.0001565213 -0.25637844 0.07969725 0.7850507
000260 6d e3 72 3e a4 6b 15 3e 03 ca 1f be b8 37 2e bd
       0.23719569 0.14591843 -0.15604405 -0.042533606
000270 d0 a0 67 bd fc 00 87 bc 05 6b ff 3d e1 0f 2a 3e
       -0.056549847 -0.016479962 0.12471584 0.1660762
000280 93 9b 18 bc 10 af d5 3d 4b 1b 89 3e d2 48 a2 3d
       -0.0093144355 0.10433781 0.26778635 0.079240456
000290 11 7d a6 3d 9d a0 27 3e e4 d9 85 bc 29 c8 87 be
       0.08129323 0.16369863 -0.01633925 -0.26519898
0002a0 21 49 18 be 07 5e bc 3c 1c 90 76 3e da f6 96 3b
       -0.14871646 0.022994054 0.24078411 0.0046070637
0002b0 67 b9 87 3e 96 9b 50 bc a5 de e6 bd dc da 42 be
       0.26508638 -0.012732407 -0.11272935 -0.190288
0002c0 ca f2 10 be 59 ec 54 be 38 b2 3d be bc ec ac bd
       -0.14155117 -0.20793284 -0.18525016 -0.08443591
0002d0 e3 e1 10 3e 26 1f e1 3d 7b f7 b7 bc f4 d7 c2 3d
       0.14148669 0.10992269 -0.022456875 0.09513846
0002e0 00 d7 2a be 54 4f ae bd b3 05 a7 3e 22 48 30 bd
       -0.16683578 -0.085112244 0.32621536 -0.04303754
0002f0 e3 7d a5 3c e3 5d 8f bd b7 b2 88 bc 82 ab f4 3d
       0.020201629 -0.07000329 -0.01668678 0.11946775
000300 cd 65 85 3e 9f 4c 1a be 98 6b 2f be 01 49 ec bd
       0.2605423 -0.15068291 -0.17130888 -0.11537362
000310 dc 5d 34 be 5b d1 24 bd dc be 48 3e 03 bf 51 bd
       -0.1761393 -0.04023872 0.19604057 -0.051207554
000320 71 3e b1 3d 1b 64 29 3d 2f b9 91 bf f9 61 ae bd
       0.08654488 0.041355234 -1.1384639 -0.085147806
000330 78 24 75 be 8a 3d ba 3c 50 42 3b be 74 02 d6 bd
       -0.23939693 0.022734422 -0.18287015 -0.10449687
000340 59 dc ca bc c0 c4 38 be 61 12 72 bd 7f 6f 10 bb
       -0.024763273 -0.18043804 -0.05909956 -0.0022039113
000350 58 e2 52 3d 60 e3 66 be 40 8c a8 bd 6c de 92 3d
       0.05148539 -0.22547674 -0.082298756 0.0717133
000360 66 74 cc bd ce 3b 15 bd ef e6 c2 bd 36 b3 af 3c
       -0.09983139 -0.036433987 -0.09516703 0.02144776
000370 df 77 5c bd dd 30 83 bc 9a c8 b3 bd 4b 24 60 3d
       -0.053825255 -0.01601451 -0.08778496 0.05472211
000380 ba f4 aa ba b7 e5 8e 3d 22 b5 1c bc 46 d4 a4 3c
       -0.0013042905 0.069774084 -0.00956467 0.020120751
000390 b1 38 82 bd d8 c0 01 3d 2f d1 07 3d 88 c9 a4 be
       -0.06358469 0.03167805 0.033158477 -0.32185006
0003a0 2f 7d 15 bd 2e 99 ac bd b5 24 98 3b 06 ed 1e 3d
       -0.036496338 -0.08427654 0.0046430477 0.038800262
0003b0 cf 87 43 be 4c ca 24 be b5 2f ed bd 41 58 70 bd
       -0.19094776 -0.16092795 -0.11581365 -0.058677915
0003c0 d8 da 44 be ef ca 9a bd 22 4a f3 3c 1b f3 2f 3c
       -0.19224107 -0.07558238 0.029698435 0.010739113
0003d0 c3 37 74 be 46 b6 89 bd 59 2e 4f be 4e b7 a7 bd
       -0.23849396 -0.06724219 -0.20232524 -0.081892595
0003e0 e9 ff 58 bc e9 ac 7a 3d df 14 13 bd 2a b9 30 be
       -0.0132446075 0.061200056 -0.035908576 -0.17258134
0003f0 22 94 2e 3e 4b 80 37 3d 58 4a b4 3d c8 aa 68 be
       0.17048696 0.044800084 0.088032424 -0.22721398

dense1.bias f4 [100]
000000 07 19 76 bf 60 03 44 3d 43 6e 75 bf 16 31 45 3f
       -0.9613194 0.04785478 -0.9587137 0.77028024
000010 be 69 15 3f ad bf e4 be 3d 53 0e 3f 5c 97 a5 be
       0.58364475 -0.44677487 0.5559576 -0.3234204
000020 ac f2 75 bf 23 68 08 3f 4b 57 74 bf ab dc 75 bf
       -0.9607341 0.532839 -0.954457 -0.9603984
000030 26 e3 63 bf a0 7d 16 3f 93 5c 84 be 44 e1 75 bf
       -0.89018476 0.5878544 -0.2585188 -0.96046853
000040 e1 68 2a 3f 7b c9 75 bf 12 20 76 bf f4 77 e4 be
       0.6656628 -0.9601056 -0.96142685 -0.44622767
000050 d8 79 e7 3e 33 76 89 bd 07 c8 0a 3f 14 36 76 bf
       0.45210147 -0.06711998 0.5421147 -0.96176267
000060 c5 03 76 bf f2 f0 75 bf cc f6 6d bf b6 87 aa 3e
       -0.960995 -0.9607078 -0.9295471 0.33306664
000070 d4 14 ee be d0 98 c7 be a5 a1 75 bf a9 a8 75 bf
       -0.46500266 -0.38983774 -0.95949775 -0.9596048
000080 ef 8d 76 bf 68 0a 76 bf 1c 95 77 bf b7 4d 75 bf
       -0.96310323 -0.9610963 -0.967119 -0.9582171
000090 48 86 16 3f de 7d 0d 3f ac 64 d2 3e 29 bc 1a 3f
       0.58798647 0.55270183 0.41092432 0.6044336
0000a0 7a 0c 76 bf 5e 96 75 bf cc 59 76 bf 0f cd 75 bf
       -0.9611279 -0.9593257 -0.9623077 -0.9601602
0000b0 23 8f 75 bf c3 fa 76 bf c4 a1 75 bf 75 05 6f bf
       -0.95921534 -0.9647638 -0.9594996 -0.933677
0000c0 3a ef 75 bf 42 9a 95 bf 43 ea 5d bd 55 9c a9 be
       -0.96068156 -1.1687701 -0.054178488 -0.33127084
0000d0 20 c3 bb 3e d8 98 ec be e0 90 88 be c1 b6 75 bf
       0.36672306 -0.4621036 -0.2667303 -0.95981985
0000e0 d9 ff ad be ea af 75 bf 91 d8 12 3f 91 2f 73 bf
       -0.3398426 -0.9597155 0.57361704 -0.94994456
0000f0 37 4c 75 bf 0e 24 e6 be 86 1e 67 bf 44 ff 75 bf
       -0.9581942 -0.44949383 -0.9028095 -0.9609263
000100 b3 99 73 bf ee a2 41 3e 85 6d 74 bf 5a a4 80 be
       -0.951564 0.18909809 -0.95479614 -0.2512539
000110 bb b2 07 3f af 47 75 bf 79 b4 60 bf a0 b9 75 bf
       0.53007096 -0.95812505 -0.8777538 -0.95986366
000120 0d 42 0c 3f 0d e0 10 3f 4d b6 0b 3f c5 76 e8 be
       0.54788285 0.56591874 0.54575044 -0.45403114
000130 8d bf 75 bf 22 1f e9 3e fc 8c ca 3e f0 5b 9f 3e
       -0.9599541 0.45531565 0.39560688 0.3112483
000140 fd bc 74 bf 54 d3 e3 3e 8f ce 74 bf 73 3c f9 3e
       -0.95600873 0.44497168 -0.95627683 0.48678932
000150 8e 2d 80 be 03 ef 75 bf fe 51 7f 3e 7f 2c 75 bf
       -0.25034755 -0.9606783 0.24933621 -0.9577102
000160 6b a7 75 bf bd 13 d1 bd 85 e1 75 bf 77 6b 6f bf
       -0.95958585 -0.10208843 -0.9604724 -0.93523353
000170 22 3a be 3e 3f 13 83 be a9 15 c7 be 53 80 93 be
       0.37153727 -0.2560062 -0.38883713 -0.2880884
000180 1f bf 81 bf 98 37 76 bf 7b 62 56 3e 0a ae 75 bf
       -1.013645 -0.9617858 0.20936005 -0.9596869

dense2.weight f4 [100, 100]
000000 d2 87 40 3d b4 f5 9c bd 5b 7d e8 bc 4a fb 69 be
       0.04700453 -0.07664052 -0.028380087 -0.22849765
000010 7b a7 91 be 81 c8 37 3d 74 fb 4f be 9e 67 1f be
       -0.2844809 0.04486895 -0.20310766 -0.1556687
000020 19 45 48 3d b7 f1 50 be bb 53 36 3d 51 7e ef bc
       0.04889402 -0.20404707 0.044513445 -0.029235037
000030 cc 20 9a bd 08 2a 4d be 6a e6 e6 3d c6 2c 9e 3c
       -0.07525787 -0.20035565 0.11274417 0.019308459
000040 1f e5 00 bc 8d f2 8b bb a7 ac 2c bd 19 60 26 ba
       -0.007867127 -0.0042708577 -0.04215684 -0.0006346717
000050 73 19 07 bc e5 3b 54 3e 3f ed 85 be 42 22 46 3d
       -0.008245814 0.20725973 -0.26157567 0.048372515
000060 df 29 a9 3c 26 81 c9 bd aa 2a 4b 3d 82 92 80 be
       0.020649849 -0.09839086 0.049601234 -0.25111777
000070 b3 73 a3 3c 5d d9 cb be 75 0d ad bd 42 e7 86 3c
       0.01995263 -0.39814273 -0.08449832 0.016467694
000080 b0 03 81 bd 99 9e 0d ba a7 80 d5 bc ea c3 b5 bd
       -0.062995315 -0.0005402356 -0.026062323 -0.08875258
000090 58 d8 2b be 93 19 7f be a4 37 2a be 27 d2 82 be
       -0.16781747 -0.249121 -0.16622788 -0.2555096
0000a0 9d 1a da bc cf d8 93 bd a2 cd ef 3c 26 fb 8b bd
       -0.026624018 -0.07219087 0.029272858 -0.06835012
0000b0 a0 39 cc bc 0a 1c fe bc f6 59 9a bc 99 ea 06 bc
       -0.024929821 -0.03101923 -0.018841725 -0.008234643
0000c0 b2 fe 9a bd 30 9f 27 bd 3d fb d9 3d ea 1f 94 be
       -0.075681105 -0.040923297 0.10643623 -0.28930598
0000d0 bd bf 59 3d f7 8a cd 3d cf 88 2c 3e 51 01 80 bc
       0.05316137 0.10036271 0.16849063 -0.015625628
0000e0 6b 0d 59 3e 0f 29 84 bd 2a 63 32 bd e7 9b e6 bc
       0.21196525 -0.06453144 -0.0435516 -0.028150512
0000f0 84 22 24 bd 85 ab ca 3d bd 46 12 3d 60 39 48 3d
       -0.04007198 0.09895996 0.035711993 0.048882842
000100 a0 64 b0 bd b4 88 33 3e 15 f1 7f bd 1c ed 96 3e
       -0.08612943 0.17532617 -0.062485773 0.29477775
000110 68 5d 75 be 52 a5 ad bd b7 11 0b 3d 46 81 05 3d
       -0.23961413 -0.08478798 0.03395244 0.032593988
000120 27 2e 98 3d 00 13 98 be 1a d8 e7 3a 6d d0 da be
       0.07430678 -0.29701996 0.0017688305 -0.4273714
000130 bb e8 d3 bd 92 c1 5e be 72 33 1d 3d de 63 5f be
       -0.10347124 -0.21753529 0.03837914 -0.2181544
000140 41 ef e7 bc 9c 57 54 be 98 b4 5b bc e2 51 fa bd
       -0.028312327 -0.20736545 -0.013409756 -0.12222649
000150 60 3a 5d 3e 6d f6 15 bd d7 ef 59 3c 1c a7 02 bd
       0.216043 -0.036611963 0.013301811 -0.03189765
000160 9c c2 67 3d a8 1d ce 3d eb 20 80 3d 0a 80 2b 3d
       0.05658208 0.1006425 0.062562786 0.041870154
000170 d9 c7 83 be 89 f6 17 3e e4 4f cd 3d 04 5e 2d 3e
       -0.2573841 0.1484014 0.100250036 0.16930395
000180 2b bc 9d 3d 17 32 16 3b 4c 6f 9a 3e 50 e5 4a bd
       0.07701906 0.002291804 0.30163038 -0.049535096
000190 50 7f 81 bd 04 82 9f 3c 74 82 d1 bc 50 59 48 3e
       -0.06323111 0.019471176 -0.0255749 0.1956532
0001a0 5b b1 16 3e cf b5 21 3d c1 7d 0c 3e 3b 37 90 be
       0.14716093 0.039480027 0.13719846 -0.28167138
0001b0 58 a9 7c bb 9d a9 08 3e d0 6b 33 bc 22 a2 85 3c
       -0.0038553085 0.13345952 -0.0109509975 0.016312663
0001c0 40 f5 5c 3d 82 6c 4e 3e 87 ca 6b 3d 79 44 a1 bc
       0.053944826 0.2015858 0.057566192 -0.01968597
0001d0 ca 2f af bb 56 47 14 3d 02 52 64 3c 31 7b 66 3d
       -0.005346273 0.036200844 0.013935568 0.05626983
0001e0 fa 03 10 3e 24 a8 39 3e 22 50 a5 3d 11 d2 11 3d
       0.14064017 0.18130547 0.08071925 0.035600726
0001f0 82 aa b8 bb e2 c2 b4 3c f7 23 09 3c 00 b6 e1 3d
       -0.0056355605 0.022065584 0.008370391 0.11021042
000200 2c cb 9d be 7a d6 55 be bb c7 4b 3b ae ac 30 bb
       -0.3081907 -0.20882598 0.003109439 -0.0026958394
000210 d5 a4 51 bc d4 b7 ed bb 94 e6 90 bc 69 0a e3 3c
       -0.012795647 -0.00725458 -0.017688073 0.027714925
000220 d0 2d 86 3e 7a 31 22 3e 31 e4 8a 3e 72 0a 08 3e
       0.26206827 0.15839186 0.2712722 0.13285235
000230 12 76 1d bd fd 19 90 bb e2 8f a2 3d 10 81 3e bc
       -0.03844268 -0.0043976293 0.079376 -0.011627451
000240 ed c2 c2 3c d9 9c 23 bd f8 8c 58 3b 07 31 18 3d
       0.023774588 -0.039944503 0.0033043008 0.03715613
000250 cd d7 65 3c 68 a7 87 bc 58 3a 20 3e 98 dc 4e be
       0.014028502 -0.016559318 0.15647256 -0.20201337
000260 2f eb 50 3e 32 dd 63 3c 7a 33 0b be ba 84 b4 bb
       0.20402215 0.013907718 -0.13593856 -0.0055089863
000270 bd 39 9b 3d 4d 0f cd 3c ff 37 7f 3d 4f d3 0f bc
       0.07579372 0.02503171 0.06230926 -0.008778407
000280 8f a8 d5 bc 13 db 54 3e fb 37 21 3d b2 a1 b7 bb
       -0.026081352 0.20786695 0.039360028 -0.0056039924
000290 f2 b5 0c 3b 99 35 ed 3d c1 db 6e bb c4 3d 1c be
       0.0021470753 0.115824886 -0.0036446902 -0.15257937
0002a0 49 a4 26 3d 3e f0 d6 3c 21 fa b7 3b 1f e3 05 3d
       0.04068402 0.026237603 0.0056145345 0.032687303
0002b0 ff bf 22 3e 66 43 8a 3e bd bd 2a 3e 9d 59 8c be
       0.15893553 0.27004546 0.16673942 -0.2741212
0002c0 82 a1 22 bb 76 d0 2e 3e be 0f 03 3e cb e1 23 3e
       -0.0024815504 0.17071709 0.12798974 0.16004102
0002d0 cf 11 85 bc 1b 1c 62 3e 53 90 a4 bc 4f 98 1e 3e
       -0.016243843 0.22081034 -0.02008835 0.15487789
0002e0 b5 ab c2 bd 83 aa 10 3d df 73 d0 3c c4 ed 53 bb
       -0.09505407 0.035318863 0.025445877 -0.0032337764
0002f0 87 40 0e bc f8 fa 80 3d fe 4f 26 ba c5 99 e8 bb
       -0.008682377 0.062978685 -0.0006344317 -0.007098409
000300 7e 63 45 3d ab 5e 7f 3c ad b7 6d bd 06 9d be bd
       0.048190586 0.015586535 -0.058036495 -0.093072936
000310 7f 22 2a 3b 95 37 ac bc 54 49 1e 3f e9 4a d4 3c
       0.0025960503 -0.021022597 0.6183064 0.025914626
000320 b2 a7 03 3d 23 08 3f be 34 47 2e 3b 0d 0d f3 3d
       0.03214235 -0.18655448 0.0026592733 0.118677236
000330 14 c5 b4 3d 36 b8 67 3e cb fc ca 3d 1a 9a 7b be
       0.08826652 0.22628865 0.09911498 -0.24570504
000340 80 db 1b bd f8 05 8b 3d d7 48 02 bd 20 d2 12 bc
       -0.03805113 0.06788248 -0.031807747 -0.0089612305
000350 f5 4b 83 3c 23 df 1f 3e 97 93 ba 3d 77 85 8c 3c
       0.01602743 0.15612464 0.09110182 0.017153485
000360 d1 69 3e 3e e0 f0 63 bd 27 e3 1f 3a c5 dc 6c bd
       0.18595053 -0.05564964 0.0006099217 -0.05782773
000370 f7 45 ed 3d 17 ed fc 3c 01 d9 05 3f ff 9f c1 bc
       0.1158561 0.030874772 0.52284247 -0.023635862
000380 2c e7 fc bc c3 1a 0a bc 27 83 73 bb 17 5c 38 3e
       -0.03087195 -0.008429232 -0.003715703 0.1800388
000390 0b e9 2e 3f cf c2 ab be cc a5 86 3c b9 cc 01 3d
       0.68324345 -0.33547065 0.01643648 0.03168938
0003a0 b7 3b d9 3c f1 45 9d bc c5 8b ac 3c 15 47 2e bc
       0.026517732 -0.01919839 0.021062741 -0.010637064
0003b0 4c 50 3e 3d da 5e d5 3d fa 8f 47 3e 9e f8 cb 3e
       0.046463296 0.10418482 0.19488516 0.39838117
0003c0 1c ee b7 3c be 7e 14 bc f7 5b 4e bb bd 80 8b bc
       0.022452407 -0.009063421 -0.003148792 -0.01702916
0003d0 89 ff 28 bd 98 b5 1b 3d ab 9c 51 3d 4b 7f da 3b
       -0.041259322 0.03801498 0.0511748 0.0066680065
0003e0 4a 8e 05 bd fc a1 da 3c 6e 4e ba bc 9e f2 7e be
       -0.0326064 0.026688568 -0.022742476 -0.24897239
0003f0 1d 92 57 3e f5 55 49 bd 43 f4 08 3f b7 12 3c 3c
       0.21051832 -0.04915424 0.53497714 0.011479071

dense2.bias f4 [100]
000000 70 01 02 bf 94 6b 73 bc 4b 01 18 3e 54 d7 d8 be
       -0.50783443 -0.014857192 0.14844243 -0.42351782
000010 af 82 94 3d 87 48 ed bd 7a 96 8c 3e 91 fd a7 3e
       0.072514884 -0.11586099 0.27458555 0.32810643
000020 78 9f 6d 3d 09 8a 2f 3e dc a1 0c 3e 3d 82 57 be
       0.05801341 0.171425 0.1373362 -0.21045776
000030 73 1e ca 3d 9d 3b 9b be 41 47 ae 3c 66 8f 32 be
       0.09869089 -0.3031892 0.02127421 -0.17437515
000040 f8 a2 a0 3d 96 ac 5a 3e 4a d3 d4 3d e2 8f 84 bd
       0.07843584 0.21354899 0.10391863 -0.06472756
000050 45 69 e8 3d 92 f5 83 be 98 b0 dc bd 4f 10 3e 3c
       0.113482036 -0.25773293 -0.1077587 0.011600568
000060 89 09 a4 bc 0f 7b 54 be 98 19 9b 3e 3e db 09 be
       -0.020024078 -0.20750068 0.30292964 -0.1346254
000070 cf ca 18 3b ad f2 f0 3d 4c ae 91 be 29 e4 4c 3e
       0.0023314243 0.11765037 -0.2845329 0.20008911
000080 82 1e 69 3e 70 2a 86 bb 73 3b c0 3e eb 49 af 3c
       0.22765544 -0.0040944144 0.37545356 0.021397552
000090 5e 24 3a 3e 2d 47 06 3c 05 d0 89 3e d4 96 2e 3e
       0.18177935 0.008195681 0.2691652 0.17049724
0000a0 a3 59 b9 3e 7b 38 fc 3d df 45 a9 3e 8f 50 df 3d
       0.362012 0.1231546 0.3306112 0.10904037
0000b0 bd 90 3a 3e f3 61 8f 3e 50 7c 1f be 24 13 d9 be
       0.18219276 0.28004417 -0.15574765 -0.42397416
0000c0 5b bd 5e 3c 77 89 c2 3e 4b 5f 81 3e 94 a0 5c be
       0.013594951 0.37995502 0.25268015 -0.2154563
0000d0 4d 24 38 bd c8 44 45 3d 06 56 66 3e b2 67 99 3e
       -0.044956494 0.048161298 0.22493753 0.29961926
0000e0 d1 a9 4a 3e 96 37 33 3e e7 08 a6 3d 7b c5 3e 3e
       0.19791342 0.17501673 0.08107167 0.1863002
0000f0 ac 14 5b 3e 4b 7d 48 3e e0 19 68 be d4 29 a1 bd
       0.21394604 0.19579045 -0.2266612 -0.07869306
000100 2d 73 35 be ad a9 bc bd 08 4c bb 3d 45 bb 35 3e
       -0.17719717 -0.092120506 0.09145361 0.17747219
000110 a8 63 63 be 6a a9 76 3d 41 c9 b6 be c7 0d df 3d
       -0.22205985 0.06022016 -0.3570042 0.108913
000120 d5 92 3c be 34 86 37 3d 7d 6f ee 3a 02 f5 a3 3d
       -0.18415387 0.04480572 0.0018191185 0.08005716
000130 a2 a9 a2 3e 3d cd 29 3e da 19 89 3e 5e 44 bc 3d
       0.31770045 0.16582198 0.26777536 0.091927275
000140 13 c6 62 3b a8 76 02 bd ae 74 32 3e 62 70 7e be
       0.0034602925 -0.03185144 0.17427322 -0.24847558
000150 d3 6b 8e 3e 2b 02 39 be ae 57 ba 3e 24 41 83 3e
       0.27816638 -0.18067233 0.3639502 0.25635636
000160 04 3d 6b 3e 36 10 02 3e 2f 95 84 3d db bc af be
       0.22972494 0.12701496 0.06473767 -0.34323773
000170 6d a3 1f 3e 8c b8 81 3e 37 ac a7 3e af 33 bc 3e
       0.15589686 0.2533611 0.32748577 0.3675818
000180 de 00 42 3e f3 d2 a1 be 18 e0 91 bd 90 2f 76 3d
       0.18945643 -0.31606254 -0.071228206 0.060103953

dense3.weight f4 [100, 100]
000000 1a 0c 32 be 1a a3 60 3e 3c 8c 49 3f 98 09 de be
       -0.17387429 0.21937218 0.78729606 -0.43366694
000010 43 9c f9 3b d5 91 66 be 94 15 63 3e 43 dd 64 3f
       0.007617505 -0.22516568 0.221762 0.8940012
000020 74 0b 33 bd 88 94 85 be 7a db 61 3e 5f 31 82 be
       -0.043712094 -0.26089883 0.2205638 -0.25428292
000030 b9 88 c6 3e f1 56 8f bf 14 ee 1f be d8 90 9a be
       0.38776186 -1.1198407 -0.15618163 -0.30188632
000040 8d 78 36 3d 6c 3b 6e bd 16 96 03 3e d5 3c e1 bc
       0.04454856 -0.058162138 0.12850222 -0.027494827
000050 63 fb 81 3d a4 a2 13 3b 75 5c c8 3d 6b 77 9d 3c
       0.06346776 0.0022527361 0.0978326 0.019221982
000060 93 fb 89 3d d9 96 50 3b 07 f7 a4 3e 8e cf a3 be
       0.06737437 0.0031828193 0.32219717 -0.3199429
000070 ad 6a 78 3e 42 ad 14 3d d1 31 98 3b 09 ba 5b bf
       0.24259444 0.036298044 0.0046446105 -0.8583074
000080 db 36 30 bd e7 d8 b5 3d 78 4c 8d be c8 5f c2 bc
       -0.043021064 0.088792615 -0.27597404 -0.023727313
000090 c3 d0 8e 3e f4 b8 71 3f 28 b1 50 3d f7 e9 6b 3e
       0.27893648 0.9442284 0.0509502 0.2303847
0000a0 dd 26 96 be b5 fd 17 bd 6e 51 63 3e 0e b0 a7 bd
       -0.29326525 -0.03710719 0.22199032 -0.08187877
0000b0 99 ca c6 bc bb 2c 2d be 82 22 c4 ba a7 6c 92 bd
       -0.024266528 -0.16911595 -0.0014963897 -0.0714963
0000c0 7d c8 6f bd 8d f8 3b bf 33 eb 33 3d 7c 86 90 be
       -0.05854081 -0.73426133 0.043925475 -0.28227603
0000d0 6a a7 49 bd 31 62 00 be 1f 34 48 bf f0 6b c4 3c
       -0.049231924 -0.12537457 -0.7820453 0.02397725
0000e0 67 9b 88 be 26 24 64 bd 99 7a 21 3e dc 56 b5 3e
       -0.26681063 -0.055698536 0.15769424 0.3541783
0000f0 e7 f7 df bc a6 81 bd bd 47 2e a5 bd f8 82 16 3e
       -0.027339889 -0.09253244 -0.08065467 0.14698398
000100 32 db 1c 3e 58 bb 13 3f ef aa d1 3c 8c 32 ee bc
       0.15317991 0.5770774 0.025594203 -0.029076837
000110 5f 5b d3 be b4 fa 9c bd 6c db 3b bd 06 d6 d8 3c
       -0.41280648 -0.07665005 -0.045863554 0.026469242
000120 17 d4 b1 bc e1 28 17 bd 10 84 4a be c9 8e 5d be
       -0.021707578 -0.03690422 -0.1977694 -0.216365
000130 8c 40 85 bb dd a7 59 3e 86 b8 bb 3e 89 99 9d 39
       -0.0040665325 0.21255441 0.36664218 0.00030059766
000140 c1 74 a8 3e a7 da 67 bb 63 60 10 b9 6c a5 0a 40
       0.32901576 -0.003537813 -0.00013768817 2.1663465
000150 0b 06 8a be fe 54 57 be d5 42 8e 3d dd 6b 5a bd
       -0.26957735 -0.21028516 0.06946341 -0.053325523
000160 54 20 8f bc 63 f3 76 be 2e 5b 18 3c 8a 71 3b 3d
       -0.01747147 -0.24116282 0.009299083 0.045762576
000170 2e 4e aa bd a8 f6 c4 3e 73 16 85 3f 1b 0b 6d 3e
       -0.08315693 0.38469434 1.0397476 0.23148768
000180 30 5f 8a be bd 95 65 be b9 8b 2b be 90 ad 1a 3d
       -0.27025747 -0.22420402 -0.16752519 0.03776318
000190 9f 22 9f bd 4e a2 61 3d 06 e9 ad bc 7b d1 50 bd
       -0.07770275 0.055086426 -0.021229278 -0.050981026
0001a0 cb c7 7f bd c9 3e 8a bd 7e f8 d6 be 85 20 27 3d
       -0.062446397 -0.067502566 -0.4198646 0.040802497
0001b0 3c b3 49 3e ba 86 ec 3c 95 36 f6 3c 4d 96 a3 3d
       0.19697279 0.028872836 0.030055324 0.07987652
0001c0 65 51 ad 3c fd 3d 92 bd d9 76 2a 3e a3 64 c3 bc
       0.021156976 -0.071407296 0.166469 -0.023851698
0001d0 d6 a1 74 3d 61 8c 1a 3e 7c 32 5e 3e 13 89 f0 bc
       0.05972465 0.15092613 0.21698946 -0.029362237
0001e0 52 fd dc bd 36 1c 22 3d 1a 7a 65 be f6 bc 1c bd
       -0.107905045 0.039577685 -0.2240986 -0.038266145
0001f0 1a 1b ac 3d b1 17 93 bd 94 3d 8a 3c 6a 51 5b bd
       0.08403607 -0.07182253 0.016875066 -0.05354444
000200 3e 61 51 3e 59 b5 c0 3c 40 54 2e 3c 79 1a cf 3c
       0.20447251 0.023523973 0.010640204 0.025281178
000210 3c 6a e0 3d 60 27 8d 3d 1b f8 88 3d 67 8e c1 3e
       0.109577626 0.06892276 0.06687947 0.37803957
000220 82 62 3e be cd 81 04 bd 78 e4 5e bd 7c 72 ae bd
       -0.18592265 -0.03235035 -0.054417104 -0.0851793
000230 3a dc 08 3e 6b f3 db bd 54 7c 20 bc 87 4f a2 3e
       0.1336526 -0.10739788 -0.009795267 0.317013
000240 c4 50 86 3e 8f 82 11 be 1e ac e0 bc b6 20 a1 bd
       0.26233494 -0.1420996 -0.027425822 -0.07867567
000250 2b 21 16 be 67 2d eb bc 12 66 3c 3e 8f 70 0e bc
       -0.1466109 -0.028708173 0.18398312 -0.008693828
000260 fa 4d 95 3d f8 2d 33 3e 12 8d bc bb 20 e2 87 3e
       0.072902635 0.17498004 -0.0057541216 0.26539707
000270 8f 78 45 3e 1f ee 80 bc 6b 72 37 3e c9 1c 88 3d
       0.1928427 -0.015738545 0.1791474 0.06646115
000280 35 cf 79 3e 50 f0 a7 3d 8a d4 69 be 40 af 83 3b
       0.2439545 0.08200133 -0.22834983 0.004018694
000290 1c b4 a9 3d 34 01 4b bd 08 8c d1 3d 97 65 61 3d
       0.08286306 -0.049561694 0.10231787 0.055028524
0002a0 96 b5 92 bc 48 4b ef 3c e0 34 9a 3d 0c 41 04 3f
       -0.017908853 0.029210702 0.07529616 0.51661754
0002b0 68 3b 6b be 61 6c 6a bd d1 7c a7 3e 37 ca d3 3c
       -0.2297188 -0.057232264 0.32712415 0.02585326
0002c0 b5 79 38 3e 6c f9 2a be 7e e0 c8 3d 29 2e 07 3e
       0.18015178 -0.1669671 0.098084435 0.13201202
0002d0 69 45 89 3b 9c 90 81 bd 90 63 a0 bb 31 bd 02 bd
       0.0041891825 -0.0632641 -0.0048946813 -0.03191871
0002e0 f6 0e 35 3d b9 3a be bc d6 07 e4 3d 95 51 9f 3e
       0.04420372 -0.02322136 0.11134307 0.3111693
0002f0 dc 8f b0 3e bd 7d d6 3d 13 af 88 bd 41 ff 8b 3e
       0.34484756 0.104732014 -0.06674018 0.2734318
000300 fe 13 16 3e 55 fe 14 bd 7c 81 f3 ba 64 1b 8e bd
       0.14656064 -0.036375362 -0.0018578018 -0.06938818
000310 16 0e 9c 3b b8 09 32 3e e7 f3 ad 3c f1 51 4d 3d
       0.0047624214 0.1738652 0.021234466 0.050126974
000320 1f 15 a2 3d a1 36 e1 3d f1 f9 90 3c 7e 7c b9 bd
       0.07914185 0.10996748 0.017697306 -0.09056948
000330 01 f7 56 bd a9 29 07 3a 77 4e 4a bd 4a 1b 22 be
       -0.052481655 0.0005156049 -0.049391236 -0.15830722
000340 a2 96 0c 3f 9c 5e 2c bd 26 05 af 3d 40 93 79 3c
       0.5491735 -0.042082414 0.08545904 0.015232861
000350 bf b2 cb 3d f6 f9 2a 3d 19 26 bc 3e 44 a1 39 bd
       0.099462025 0.041742288 0.36747816 -0.04531981
000360 ab 73 9d 3d 53 35 1d 3e 59 6c a2 3e 45 39 3f 3e
       0.076880775 0.15352373 0.31723288 0.1867419
000370 b7 f9 e8 3d 37 c3 3f 3c 69 2e cb 3d 4a ed 06 bd
       0.11375754 0.011704258 0.099209614 -0.03294114
000380 2b a7 64 3e ec 27 f1 bd 1d 41 a7 3d 27 25 31 3c
       0.22329395 -0.117751926 0.08166716 0.01081208
000390 08 07 b0 bd 36 e2 e1 3d 50 d2 a5 3c 95 82 09 3d
       -0.08595091 0.110294744 0.020241886 0.0335718
0003a0 ab 7c c1 3e d0 f7 e6 3d 3b 5b 1a 3d 0a 56 66 3d
       0.37790427 0.11277735 0.03768466 0.056234397
0003b0 31 d3 01 3f 53 30 ed bb ed b5 a9 3b 52 ac cc bd
       0.5071288 -0.0072384267 0.005179158 -0.09993805
0003c0 22 33 10 3d fc fe 2b 3e 41 90 b8 3c cc 05 8d bc
       0.035205014 0.16796488 0.022529723 -0.017214678
0003d0 54 d5 06 3c 51 32 cf 3c f4 27 4e 3e 5d ab 9f bc
       0.008229572 0.025292547 0.20132428 -0.019490892
0003e0 b8 e0 9d 3d 2a bc 07 bd 0a 0a 63 3d 4d 82 be bc
       0.07708877 -0.03313843 0.055429496 -0.023255492
0003f0 21 9b 3e be f7 05 8a 3d 0f e5 0a bd ae e7 b0 3e
       -0.18613864 0.06739419 -0.033909854 0.34551758

dense3.bias f4 [100]
000000 48 9b 8b 3e ac e4 e9 bc 20 e9 0d 3d 61 7b 58 3e
       0.27266908 -0.028551422 0.034646153 0.21140815
000010 06 9f 88 be 63 49 a0 be eb 27 86 3e 60 c1 7f bd
       -0.26683825 -0.3130599 0.2620233 -0.062440276
000020 c4 df 5c 3e fb 9c d4 3e 72 29 93 3e 3b 8c a0 3e
       0.21569735 0.41526017 0.28742558 0.31356987
000030 cd df 8a 3d e3 12 6f 3e da 50 37 3e 1d 44 4c 3e
       0.06780968 0.23347048 0.17901936 0.19947858
000040 bb 1e d5 bd 20 5d 8c 3e 82 3e d4 bd 94 15 a8 3e
       -0.10406252 0.274148 -0.10363485 0.32828963
000050 07 4f 81 bd 9d 31 cf be 33 56 8d be 42 34 a1 3e
       -0.063139014 -0.4046754 -0.27604827 0.31485182
000060 15 2c 45 3e 25 45 8b 3e fb 42 6f bd ce ad aa 3e
       0.19255097 0.2720119 -0.058413487 0.33335727
000070 f1 35 8b be 09 72 59 be 0a df 81 3e 39 aa 9d 3e
       -0.27189592 -0.21234907 0.25365478 0.30793932
000080 87 ac 78 3e e8 02 bc 3e 19 b5 2a 3e 13 55 be 3e
       0.24284564 0.36720967 0.16670646 0.3717428
000090 e8 ad da bc 72 22 2c be 67 0a c3 be b3 e7 0a 3f
       -0.026694253 -0.16810015 -0.38093874 0.54259795
0000a0 6a 8a b0 3e 3a 39 24 be 67 e3 e0 3e 18 07 49 bd
       0.34480602 -0.16037455 0.43923494 -0.04907903
0000b0 de cd 27 bf 80 c7 24 be cb 5b 45 3d ba c3 b6 be
       -0.65548503 -0.16091728 0.048183244 -0.35696203
0000c0 ca d2 1f bf 12 2e 8a 3e 88 d9 69 3e ec 71 a2 be
       -0.62431014 0.26988274 0.22836888 -0.3172754
0000d0 88 13 8a 3e f2 61 99 3e 39 b3 68 3d 79 d8 7e 3c
       0.26968026 0.2995754 0.056811545 0.015554541
0000e0 bc f9 1a be 65 ba d1 3e f5 68 57 bd 22 1b 02 bf
       -0.15134329 0.4096252 -0.05259033 -0.5082265
0000f0 05 e2 95 3e d0 50 31 3e 7b 4b ad 3e 8a e4 0f be
       0.29274002 0.17315984 0.3384665 -0.14052024
000100 f8 2f 83 3e 6c 84 b9 3e 21 e3 5d be 0f a6 cc 3e
       0.25622535 0.36233842 -0.21668674 0.39970443
000110 62 c6 a1 3e a0 af a7 bd 85 40 36 3e 7a 20 f5 3e
       0.31596667 -0.08187795 0.1779805 0.4787634
000120 2b f5 04 bf 07 73 be 3e 85 21 8f be 20 d4 fa be
       -0.51936597 0.37197134 -0.2795526 -0.48989964
000130 83 c5 52 3e b5 85 a6 bd f8 bc d7 3e 87 d5 b1 bd
       0.20583157 -0.08130971 0.4213636 -0.08683305
000140 76 ed 94 be 38 3b 8d 3e 96 5a 51 3e 1e f2 46 be
       -0.29087418 0.27584243 0.20444712 -0.19428298
000150 3e 21 ab 3e b1 3f 52 be b3 ab b6 be f0 60 4b 3e
       0.334238 -0.20532109 -0.3567787 0.19861197
000160 18 dc 80 bc 30 f9 cd 3e 4f c4 c0 be 50 f4 ad 3e
       -0.015729949 0.40229177 -0.37649772 0.33975458
000170 c6 0c 25 bf 42 3c 96 3d a7 81 76 3e 46 b2 24 be
       -0.64472616 0.07335712 0.24072896 -0.16083631
000180 31 94 04 bf 2f a6 77 be f5 b1 e0 be 69 86 09 be
       -0.5178862 -0.24184488 -0.4388577 -0.1343018

output_layer.weight f4 [5, 100]
000000 b2 41 2e bb 31 d1 31 bb 60 6a 31 3a e6 50 f3 ba
       -0.002658945 -0.0027132744 0.0006767865 -0.0018563538
000010 da fd e0 3c 4b df 6a bb 23 8c 14 bc 4c a6 1d 39
       0.027464796 -0.003583866 -0.009066614 0.00015034637
000020 75 4d 47 3e 89 eb 9f 3b 7b 1e 0c bc c3 94 d5 b8
       0.19463141 0.004880373 -0.008552189 -0.000101843405
000030 73 81 88 3e c4 f5 d5 bd ec 5d 84 3e 11 d0 02 bc
       0.26661262 -0.10447267 0.25852907 -0.007984177
000040 cb 70 b3 3b 94 28 a9 3a b8 85 ad 3a 98 a0 cc ba
       0.0054760925 0.001290577 0.0013238704 -0.0015611826
000050 00 e0 70 bb b4 6c a6 be 35 fe 07 bf 2e 80 d6 b9
       -0.0036754608 -0.3250481 -0.53122264 -0.00040912762
000060 2e 8f 98 3b a0 41 7e bb 95 47 ac ba cb 04 89 bb
       0.00465574 -0.003879644 -0.0013143892 -0.0041814796
000070 7a 9f ae be 7b 57 b3 be d8 7a 28 ba 69 7d 24 bc
       -0.34106046 -0.3502768 -0.00064269966 -0.010039666
000080 a5 f2 66 3e 2b 64 f7 ba e9 4a 05 3d e4 95 30 3b
       0.22553499 -0.0018874457 0.032542143 0.002694481
000090 e8 32 fd bb 9a 9b 82 bd 76 75 fe be c5 02 e5 ba
       -0.0077270158 -0.06377335 -0.4969899 -0.0017472139
0000a0 10 29 57 bb 14 0b be b9 ec 9f 98 bc 94 15 47 3b
       -0.0032830872 -0.00036247878 -0.018630944 0.0030377852
0000b0 4a 0a 93 3c 22 d3 25 ba b0 27 d0 3c fc c3 21 b9
       0.017949242 -0.0006325712 0.02540955 -0.00015427166
0000c0 0b 85 93 be 80 48 0a 37 ea b6 b7 3b fc 95 79 3b
       -0.2881244 8.242321e-06 0.005606522 0.0038083782
0000d0 4f 28 c2 bb 57 9d 04 bb 70 59 f3 3b 74 e3 56 ba
       -0.0059252153 -0.0020235383 0.0074264333 -0.00081973453
0000e0 35 a7 44 bb b0 e5 fc 3c ea dc ea b9 ab 1c c6 be
       -0.003000689 0.030871242 -0.00044796552 -0.38693747
0000f0 47 bb 96 3a 05 70 49 3e 12 ba 18 3c 23 9b 64 bc
       0.0011499905 0.19671638 0.009321706 -0.013953003
000100 86 5d 6d 3e 57 fe db bc 17 37 d8 bc 65 41 9f bb
       0.23180208 -0.026854677 -0.026393456 -0.0048600906
000110 0f cd 1b bc 08 e5 6b b8 5d 25 0f 3a a7 ca 44 bd
       -0.009509339 -5.6241668e-05 0.00054605847 -0.048044827
000120 d5 35 63 3a a8 0a 94 bb 62 61 95 be e1 fb b7 be
       0.00086673844 -0.004517872 -0.2917586 -0.35934356
000130 fb a1 60 3e 89 6b 43 3b 31 db 2a bc de 4b ea 3a
       0.2193679 0.0029818735 -0.010428236 0.0017875393
000140 bc d5 a9 bc 49 f4 9c 39 97 81 ae b9 c2 8e 53 ba
       -0.0207318 0.00029936645 -0.00033284418 -0.0008070284
000150 a8 03 01 38 a2 fd 1c 39 34 42 d4 be 5e 7e 23 3e
       3.0759402e-05 0.00014971805 -0.4145676 0.15966174
000160 ea 28 2e 3a f2 a2 d1 bb 05 36 3c be 48 45 1b 39
       0.000664367 -0.0063975984 -0.18379982 0.00014807761
000170 c9 6f 75 be 45 3a 0a bb 15 bb 94 3b 6e 5b c3 3b
       -0.23968424 -0.002109186 0.0045389035 0.005961827
000180 99 f2 3f be d6 a4 9c 3c b0 98 a2 bb 00 d7 ed ba
       -0.18744887 0.019121569 -0.0049620494 -0.001814574
000190 fb 55 b8 3b 56 07 8d 3e 52 e6 7f 3e d9 99 2c 3d
       0.005625484 0.2754466 0.24990204 0.042138908
0001a0 91 5e 4a 3d ab c6 59 3b 16 78 ee 3d b5 4c 00 bc
       0.04940659 0.0033229988 0.11643998 -0.007830788
0001b0 bf 90 5a bc ca cc 3f 3c 8f 64 77 bd 23 8a b3 3b
       -0.013340174 0.01170654 -0.060398635 0.0054791137
0001c0 76 53 88 bd 1d de 6f bd bc 0e 49 be 9f 5e a9 bd
       -0.06656544 -0.058561433 -0.19634527 -0.08270001
0001d0 6d 0c 23 3d 37 90 e4 bd 7f 80 0f 3d 29 d9 ec bc
       0.039806772 -0.11160319 0.035034653 -0.028912144
0001e0 2f 95 0d bc dd 38 e8 bd ac fd 00 be 19 8d 91 bd
       -0.008641525 -0.11338971 -0.12596768 -0.0710699
0001f0 f3 54 32 bc e8 c8 cf 3e 89 3f cf 3c 5e 7d 94 3d
       -0.010884511 0.40582967 0.02529885 0.072504744
000200 84 ab 7c be a3 3c 1e be 76 ea f4 bb 60 52 8d bd
       -0.24674803 -0.15452819 -0.007474239 -0.069004774
000210 e3 84 59 bd ca a5 44 3d f9 4e 28 3b 5a 55 85 bd
       -0.053105246 0.04800967 0.0025681837 -0.0651042
000220 b8 69 c8 be d2 f7 f9 bc 67 17 9e bd a2 79 c1 bb
       -0.39143157 -0.030513678 -0.077193074 -0.0059043923
000230 cd 05 d2 3d 74 0c e1 bb 0f 16 15 3e b9 4f 22 bd
       0.10255013 -0.0068679396 0.14559196 -0.03962681
000240 57 6b 19 be 43 a9 03 3d 65 6e dd bd 18 19 b3 bb
       -0.14982353 0.032143842 -0.10812072 -0.005465638
000250 75 7d cd ba 35 4e 9f 39 fa 89 63 bd 23 d9 e3 be
       -0.0015677648 0.00030385112 -0.055551507 -0.445016
000260 11 05 92 bd 6c 57 bd bc 96 c7 55 3c 72 b8 8c bb
       -0.071298726 -0.023112975 0.013048073 -0.0042944485
000270 52 8f 9c be b6 a0 c6 bd 85 bb ee 3a 1c f0 f5 3c
       -0.30578095 -0.09698622 0.0018213844 0.03002172
000280 d8 a4 49 bd 33 ae 1b 3d aa 22 e2 3d cd 41 3a bc
       -0.049229473 0.038007926 0.11041768 -0.011368227
000290 12 6a fe bd 93 c9 05 3b 01 58 e4 be bf 15 31 bc
       -0.12422575 0.0020414337 -0.44598392 -0.010808407
0002a0 f8 42 82 3d 3e 2a f4 bc 84 8e 38 bd 6a e0 e3 ba
       0.063604295 -0.029805299 -0.04505779 -0.0017385606
0002b0 2f e8 bc be aa 0a e7 3d c6 eb f5 bc 2e d1 6a bc
       -0.36895892 0.11281331 -0.030019652 -0.014332099
0002c0 32 91 bc 3d 68 48 ad be ac 20 1b bd 52 5d 0a bc
       0.09207381 -0.33844304 -0.037872955 -0.008445101
0002d0 00 f3 1a be 24 29 6e bc 60 65 32 3b 40 09 3e bb
       -0.1513176 -0.014536176 0.0027221069 -0.0028997213
0002e0 bf e3 ba 3b 05 64 48 3b 38 0d 43 be b5 3c d1 3d
       0.005703419 0.0030577194 -0.19048011 0.10216657
0002f0 e3 4e 44 3e 40 1e b8 bc 95 60 19 3e 02 11 e0 bc
       0.19170718 -0.022475362 0.1497825 -0.02735186
000300 22 c0 6e bd 0a bb 06 3d 80 a9 b0 3c 12 55 de bd
       -0.0582887 0.032893218 0.021565199 -0.108560696
000310 88 dc 3f 3d 60 cd 9f be c4 19 5f bb 43 0a 2f 3c
       0.046841174 -0.31211376 -0.0034042457 0.010683599
000320 b5 e5 73 bb 9e 2a 5d bc d6 3c e5 3b 26 87 2c bc
       -0.0037215773 -0.01349893 0.0069957776 -0.010530269
000330 31 e5 d8 bd 59 57 3b bd ec 3a 02 bd cb 21 be ba
       -0.1059059 -0.045737598 -0.031794474 -0.0014505921
000340 77 d8 0c be 5e 3d a5 bb 44 a6 87 bb 5b 3a 25 ba
       -0.1375445 -0.005042716 -0.0041396935 -0.0006302946
000350 cf 53 de 3d 75 da a8 3c f2 4c c8 3d 0b 0e 20 3d
       0.10855829 0.02061198 0.09780301 0.039075892
000360 ff eb 91 bb df 66 33 3c 34 ca 43 bc 16 86 d6 bb
       -0.0044531818 0.010949819 -0.011950064 -0.006546746
000370 3c 37 6f 3b 31 7b 0f 3e 97 78 37 be 20 cb c3 bb
       0.0036501428 0.14011838 -0.17917095 -0.005975142
000380 74 11 89 3c 61 1c 28 bc 3a b9 5e bb 6f 51 74 bc
       0.016731955 -0.010260672 -0.0033984915 -0.014911993
000390 60 10 3e be e2 2f 8f 3d 50 39 3d b7 23 38 4c 3c
       -0.18560934 0.06991555 -1.1278622e-05 0.012464556
0003a0 30 06 02 be 45 ef a9 bc 00 54 5a 3c ff f2 94 3b
       -0.12697673 -0.020743975 0.013325691 0.004545569
0003b0 28 2b 08 3b cc ae a5 3c 3a a3 cc bb 5c a0 f7 3b
       0.0020777676 0.020224951 -0.006245044 0.007556958
0003c0 f8 3f 15 bd 67 da 5b 3b a3 f8 9d bc 50 5f 1f 3c
       -0.03643796 0.0033546926 -0.019283598 0.009727314
0003d0 c6 ea 8d 3c 53 f9 9d 3b ae b8 6e bd 0f 03 ca b9
       0.017323863 0.0048209815 -0.058281593 -0.0003853072
0003e0 24 31 39 3c dc 4e 96 ba 24 b6 54 bc 93 70 a6 3b
       0.01130322 -0.0011467594 -0.012982879 0.005079338
0003f0 c6 60 4a bc 94 50 8a 38 96 fe 8b bb 37 17 6a 3b
       -0.012352174 6.5953616e-05 -0.0042722924 0.0035719404

output_layer.bias f4 [5]
000000 36 90 18 40 d6 78 a1 3e 7d 91 74 3f d0 f0 a0 3e
       2.383802 0.31537503 0.955345 0.31433725
000010 ed 2e ca bd
       -0.09872232

exp_avg f4 [100, 2]
000000 74 32 b1 b6 74 32 b1 b6 5f 39 a7 3a 5f 39 a7 3a
       -5.2808846e-06 -5.2808846e-06 0.0012758187 0.0012758187
000010 9e 9f 0e 35 9e 9f 0e 35 b2 92 5b 37 b2 92 5b 37
       5.3131396e-07 5.3131396e-07 1.3087572e-05 1.3087572e-05
000020 01 30 63 36 01 30 63 36 a2 fd ad 36 a2 fd ad 36
       3.3853578e-06 3.3853578e-06 5.1853285e-06 5.1853285e-06
000030 aa 1c 3f 37 aa 1c 3f 37 63 59 86 b9 63 59 86 b9
       1.1391161e-05 1.1391161e-05 -0.0002562507 -0.0002562507
000040 b0 75 03 b7 b0 75 03 b7 db dc 5c b7 db dc 5c b7
       -7.83561e-06 -7.83561e-06 -1.3164444e-05 -1.3164444e-05
000050 73 36 15 3a 73 36 15 3a ee 40 ad 36 ee 40 ad 36
       0.00056920125 0.00056920125 5.1633606e-06 5.1633606e-06
000060 22 87 6c 3a 22 87 6c 3a 7a ad dd 35 7a ad dd 35
       0.0009022822 0.0009022822 1.6516271e-06 1.6516271e-06
000070 c1 67 7d b6 c1 67 7d b6 a2 59 b5 39 a2 59 b5 39
       -3.776033e-06 -3.776033e-06 0.00034589792 0.00034589792
000080 a4 00 ac b9 a4 00 ac b9 d3 39 97 b4 d3 39 97 b4
       -0.00032806874 -0.00032806874 -2.8168014e-07 -2.8168014e-07
000090 d8 ff 37 37 d8 ff 37 37 c9 d8 1e 37 c9 d8 1e 37
       1.0967218e-05 1.0967218e-05 9.468008e-06 9.468008e-06
0000a0 6f 32 26 b7 6f 32 26 b7 c6 5b 9e 36 c6 5b 9e 36
       -9.9061135e-06 -9.9061135e-06 4.7194508e-06 4.7194508e-06
0000b0 a8 f8 91 ba a8 f8 91 ba 9d 57 94 35 9d 57 94 35
       -0.0011136727 -0.0011136727 1.1052358e-06 1.1052358e-06
0000c0 2e 49 a9 b6 2e 49 a9 b6 02 65 36 b6 02 65 36 b6
       -5.0451117e-06 -5.0451117e-06 -2.7178908e-06 -2.7178908e-06
0000d0 1c 59 0f 3a 1c 59 0f 3a 45 3b 73 ba 45 3b 73 ba
       0.00054682954 0.00054682954 -0.0009278546 -0.0009278546
0000e0 d8 07 05 bb d8 07 05 bb 7f 9d 32 ba 7f 9d 32 ba
       -0.0020298865 -0.0020298865 -0.000681363 -0.000681363
0000f0 1c f9 d0 b6 1c f9 d0 b6 0b 89 03 36 0b 89 03 36
       -6.227883e-06 -6.227883e-06 1.960029e-06 1.960029e-06
000100 2c f4 71 b6 2c f4 71 b6 be 3a a8 37 be 3a a8 37
       -3.6053925e-06 -3.6053925e-06 2.0054515e-05 2.0054515e-05
000110 e5 83 f2 b9 e5 83 f2 b9 9b 28 80 b6 9b 28 80 b6
       -0.00046256106 -0.00046256106 -3.8194244e-06 -3.8194244e-06
000120 c4 85 b1 36 c4 85 b1 36 d9 99 d6 34 d9 99 d6 34
       5.2905834e-06 5.2905834e-06 3.9972545e-07 3.9972545e-07
000130 41 dd b9 b7 41 dd b9 b7 fe 8f b7 ba fe 8f b7 ba
       -2.2156748e-05 -2.2156748e-05 -0.0014004705 -0.0014004705
000140 f3 32 82 36 f3 32 82 36 4c 2d 34 35 4c 2d 34 35
       3.880233e-06 3.880233e-06 6.712114e-07 6.712114e-07
000150 a6 aa ce b9 a6 aa ce b9 2b 2b cf b6 2b 2b cf b6
       -0.00039418525 -0.00039418525 -6.174106e-06 -6.174106e-06
000160 29 9e 16 b7 29 9e 16 b7 b8 07 e6 b9 b8 07 e6 b9
       -8.977521e-06 -8.977521e-06 -0.0004387477 -0.0004387477
000170 2f a1 9e b4 2f a1 9e b4 72 a7 6e 3a 72 a7 6e 3a
       -2.954707e-07 -2.954707e-07 0.0009103931 0.0009103931
000180 94 7e 5f 36 94 7e 5f 36 ae 43 50 ba ae 43 50 ba
       3.3303268e-06 3.3303268e-06 -0.00079446554 -0.00079446554
000190 1c 97 00 37 1c 97 00 37 26 11 f5 37 26 11 f5 37
       7.664577e-06 7.664577e-06 2.9214261e-05 2.9214261e-05
0001a0 05 df 9a b7 05 df 9a b7 10 ec a2 37 10 ec a2 37
       -1.8462082e-05 -1.8462082e-05 1.942183e-05 1.942183e-05
0001b0 62 c1 c8 ba 62 c1 c8 ba 8f c6 90 35 8f c6 90 35
       -0.0015316422 -0.0015316422 1.0786624e-06 1.0786624e-06
0001c0 26 94 22 37 26 94 22 37 06 87 61 b7 06 87 61 b7
       9.690446e-06 9.690446e-06 -1.3442483e-05 -1.3442483e-05
0001d0 7c 67 bc 36 7c 67 bc 36 ba 19 ea 39 ba 19 ea 39
       5.614884e-06 5.614884e-06 0.00044651126 0.00044651126
0001e0 cd 41 5d b6 cd 41 5d b6 4d a9 78 36 4d a9 78 36
       -3.2969867e-06 -3.2969867e-06 3.7053426e-06 3.7053426e-06
0001f0 3e 0e 75 3a 3e 0e 75 3a a7 ef e4 36 a7 ef e4 36
       0.00093481306 0.00093481306 6.8228287e-06 6.8228287e-06
000200 fd 99 18 3a fd 99 18 3a 47 ec 1a b7 47 ec 1a b7
       0.0005821286 0.0005821286 -9.234128e-06 -9.234128e-06
000210 22 28 86 b7 22 28 86 b7 95 56 c7 ba 95 56 c7 ba
       -1.5992733e-05 -1.5992733e-05 -0.0015208299 -0.0015208299
000220 6a e0 a1 ba 6a e0 a1 ba a7 3c 61 b5 a7 3c 61 b5
       -0.0012350206 -0.0012350206 -8.390729e-07 -8.390729e-07
000230 ae 56 4d 3a ae 56 4d 3a 98 cd e6 36 98 cd e6 36
       0.00078330457 0.00078330457 6.8784684e-06 6.8784684e-06
000240 b6 98 28 b7 b6 98 28 b7 50 c9 26 ba 50 c9 26 ba
       -1.0049136e-05 -1.0049136e-05 -0.00063623954 -0.00063623954
000250 62 eb 1b b6 62 eb 1b b6 5d ad ab b9 5d ad ab b9
       -2.323381e-06 -2.323381e-06 -0.00032744827 -0.00032744827
000260 d7 3c fa 34 d7 3c fa 34 81 e3 2b b6 81 e3 2b b6
       4.6610396e-07 4.6610396e-07 -2.561341e-06 -2.561341e-06
000270 07 0e 0c 36 07 0e 0c 36 c6 85 a9 ba c6 85 a9 ba
       2.086979e-06 2.086979e-06 -0.0012933544 -0.0012933544
000280 9f 30 03 3a 9f 30 03 3a 0d e7 c8 35 0d e7 c8 35
       0.00050044985 0.00050044985 1.4968406e-06 1.4968406e-06
000290 92 c6 d2 b6 92 c6 d2 b6 0c 61 00 b8 0c 61 00 b8
       -6.2816043e-06 -6.2816043e-06 -3.060796e-05 -3.060796e-05
0002a0 0a bd e1 ba 0a bd e1 ba 2a 8e b4 36 2a 8e b4 36
       -0.0017222476 -0.0017222476 5.380968e-06 5.380968e-06
0002b0 8e da 21 b6 8e da 21 b6 1d ba 81 36 1d ba 81 36
       -2.4118085e-06 -2.4118085e-06 3.866166e-06 3.866166e-06
0002c0 4e 93 27 b6 4e 93 27 b6 ce 80 02 b7 ce 80 02 b7
       -2.4970682e-06 -2.4970682e-06 -7.7785935e-06 -7.7785935e-06
0002d0 b0 69 41 b7 b0 69 41 b7 d2 c0 61 3a d2 c0 61 3a
       -1.1528304e-05 -1.1528304e-05 0.00086118013 0.00086118013
0002e0 68 e9 c8 b7 68 e9 c8 b7 5c 0b d7 ba 5c 0b d7 ba
       -2.3950546e-05 -2.3950546e-05 -0.0016406584 -0.0016406584
0002f0 66 7c b1 ba 66 7c b1 ba 4d 3e e0 ba 4d 3e e0 ba
       -0.0013541102 -0.0013541102 -0.0017108411 -0.0017108411
000300 e8 37 64 ba e8 37 64 ba e2 a2 82 35 e2 a2 82 35
       -0.00087058404 -0.00087058404 9.73316e-07 9.73316e-07
000310 80 fc a7 3b 80 fc a7 3b 0d ef f9 b3 0d ef f9 b3
       0.005126536 0.005126536 -1.1638449e-07 -1.1638449e-07
